saved_models/agent_maddpgv2_vs_opp_maddpgv2_3_vs_3_1_big_5_sec_adver_best_models/maddpgv2_actor_0.pt (torch, 165899 bytes, 21 tensors)

actor_fc_layers.blocks.0.block.0.weight f4 [128, 32]
00000000: a19a a3bd 8ffe 80bd f1dd 07be f652 7fbe
00000010: 9dd3 233d 67aa 8dbe 7c77 113e a197 2c3e
00000020: 10c8 2bbe d996 d2bd 8e4c 4abe e494 433e
00000030: d644 b43e 03c5 f93d 1191 fa3d 610c 0dbe
00000040: cacb 9dbd fccf 6fbd c261 59bd 6715 373e
00000050: 9b5e 273e 366d 65be 4c50 803e c396 24be
00000060: 54f5 3cbc 6c45 2b3d 7dc7 1dbe 2a81 093e
00000070: 8d91 ba3e adbf c1be 8508 97bd f2cb 3abe
00000080: 84b1 1ebf 000c 533e 7c77 afbe ba79 ef3e
00000090: 0fee b5bd 1f4b 75b9 7d69 153e bdec d4ba
000000a0: de4d 173e 5ee6 323d a4ae b03b 0def 1ebe
000000b0: 4787 abbd 9070 993d 3eaa 593c a91c 7a3d
000000c0: 13cf fcbd 8110 e5bd 9ed8 f6bd 54f8 0f3e
000000d0: c7b7 8c3d c478 f2bc 5f48 9a3c d0c8 9a3d
000000e0: d22a 88be a5db 16be 7724 2cbd 4725 57bc
000000f0: 01a3 af3c 63c6 6e3d 34ca ce3d a6ec 503e
00000100: 8f13 ed3d a07b 6cbd bcd7 a4bd a809 90be
00000110: 3c6b df3e 07fe b13d 1345 1cbd f9fe 1dbe
00000120: e172 fd3d 027f 31be 4bce 5e3e 9b7f dabb
00000130: 5d46 a73c 72ae 713d eecb 13bd 9549 933d
00000140: af9e 05bf 1fc9 cc3b 0d06 303e 4b28 1fbc
00000150: 3e51 3e3e e7a4 643e cf05 303c a9f2 273e
00000160: 74b5 92be 322a ad3e c46a 6d3d 6669 413e
00000170: dd1a 15be d9ed 743e 40e5 9cbd b6e6 f93c
00000180: 2ebd efbd fd14 19be d7c6 3fbe e2ca 2e3d
00000190: 9342 3b3e 8213 813e 74e6 d63d c8f8 fabb
000001a0: a372 1bbe a976 3cbe 02a8 a23d 8e5b 88bd
000001b0: 1c40 d9bc 4d0c 0fbd aa39 933d cfa3 abbd
000001c0: cbe6 573e 38fc b23e fbe2 523d 962d d33d
000001d0: c9e8 863e 8818 edbd 0873 3a3d a023 7fbe
000001e0: f541 09be 8df4 fc3d ab7c 173e 488b 65bc
000001f0: 88e4 9b3e 1e41 e9bc 5d1a d93c e0db ffbd
00000200: 720c d4bb 54f6 923d 55ee d0be a337 193e
00000210: 02ac b13d de99 88be 6a77 2e3e 711b 68bd
00000220: cd3c 293e c88e 07bd 2e35 083e ffe7 fabd
00000230: 533e 333e 5a83 803d d7b1 8b3d 9c6a 873e
00000240: b5db c1bd 5115 05bd 8b02 463e 55dc 95be
00000250: 20ed 7a3e 1f5c 2abe 95e6 613e a527 b43c
00000260: de1c a33e c96c 793e c484 edbd a6a6 52bb
00000270: 74ab 9d3b 2015 733e b2df cabe fbe8 dfbd
00000280: 6215 20be dc76 4abc 74b6 89be dc9b 693e
00000290: b81d 7f3d 3c0c edbe 0230 2e3c 34b2 993c
000002a0: 035c 13bd 06d2 4abd 870b 8dbb 4a8e 8ebd
000002b0: 22ec e6bd 8e68 133e 06ca b53d af17 8dbe
000002c0: 3698 1f3e cc61 4dbe e86e 4dbd 45ac 793d
000002d0: 3107 763e b194 68be 1619 b13c 2a96 4ebd
000002e0: deba 8c3d dff7 7dbe 4aca b43e da71 bbbd
000002f0: dd47 2e3d b335 a53e 46ab 9cbe 7f3e 59be
00000300: 5ad9 babd ab39 953d d233 1fbf 1566 8abd
00000310: a0e2 9abe 574b 31be ce6f 8abd 3a08 b83b
00000320: 04de 203e 8fe5 fb3d e47f 733d a70f 4cbd
00000330: 224a e6bd e5b4 a8be ff79 0d3d 1f2d 7c3e
00000340: befa 46be c7dc b8be eb97 a6bd d20a c3bd
00000350: 4b8c 9ebe d753 113e 2448 1ebe b8fa 1a3b
00000360: 2fd1 603e 5ca0 99be 4353 ee3d 4388 58be
00000370: f209 593e 4bb1 793d 3e6a 533d 92b4 18be
00000380: 3dfb 803d 9e07 373e 3f1c 413c ce29 2a3e
00000390: b9ac 05be b55a 993b 5ee3 c23d 8c2f 9dbc
000003a0: 89ae e1bd 898f f6bd ecde 5ebd e30c 483e
000003b0: 984c 97bc b97e dabe ae40 eabd 3a97 9abd
000003c0: 5874 163a 4d8b b7b9 c48b 6cbe 71b1 103f
000003d0: 97f6 6ebe a455 0e3e 17fe 683e d126 ff3d
000003e0: 9abc babe 4fb2 f4bd 8806 863e 84ad ffbd
000003f0: 4bba 063e da7e 56bd 3eb4 97bd 21d9 873d
-0.079884775 -0.06298553 -0.13268258 -0.24933991 0.039996732 -0.2766907 0.14205736 0.16854717
-0.16775537 -0.10282678 -0.19755766 0.19099766 0.35208768 0.1219578 0.122347005 -0.13774253
-0.07704885 -0.05854796 -0.053071745 0.17879258 0.16344683 -0.22404942 0.25061262 -0.16073136
-0.0115331 0.041814253 -0.1540813 0.13428178 0.3643917 -0.3784155 -0.07374672 -0.18241861
-0.6198962 0.20610046 -0.34270847 0.46772557 -0.08883297 -0.00023393006 0.14591022 -0.001624487
0.14775798 0.043676727 0.0053919125 -0.15520878 -0.083754115 0.07492173 0.013285218 0.06106249
-0.12344184 -0.111847885 -0.12053035 0.14059573 0.0687099 -0.029598601 0.018833337 0.07557833
-0.2659517 -0.14732225 -0.042026963 -0.013131446 0.021440031 0.058294665 0.10097161 0.20402774
0.11575996 -0.057735085 -0.080489606 -0.28132367 0.436365 0.0869103 -0.03815181 -0.15429296
0.12375427 -0.17333606 0.21758382 -0.006668044 0.020419294 0.059004255 -0.036083154 0.07191769
-0.52195257 0.0062495614 0.17189808 -0.009714196 0.18585679 0.2232853 0.010743572 0.16401161
-0.28654063 0.33821255 0.057963148 0.18887863 -0.14561029 0.23918857 -0.076609135 0.03050552
-0.11706005 -0.14949413 -0.18728195 0.042673953 0.18287115 0.25210196 0.10493174 -0.0076590516
-0.15180449 -0.1840464 0.07942201 -0.06658088 -0.026519828 -0.03492384 0.07188733 -0.083808534
0.21084134 0.34958053 0.051485997 0.10311429 0.26349476 -0.115769446 0.04551986 -0.24915934
-0.13404067 0.12351332 0.14793651 -0.014010258 0.30447793 -0.028473433 0.026501829 -0.1249311
-0.00647121 0.071758896 -0.40806833 0.1496263 0.08675386 -0.2667989 0.1703774 -0.056666795
0.165271 -0.03309515 0.13301536 -0.12251281 0.17504244 0.06275053 0.0682103 0.26448524
-0.09465734 -0.032491032 0.19336908 -0.29269662 0.24504519 -0.16636704 0.22060616 0.02199156
0.3185796 0.24357904 -0.11597589 -0.0032142787 0.0048116986 0.23738527 -0.3962379 -0.109331094
-0.15633157 -0.01235744 -0.26897013 0.22813362 0.0622842 -0.46298397 0.010631563 0.018761732
-0.03597642 -0.0495167 -0.0043043527 -0.06960733 -0.112755075 0.14395353 0.088764235 -0.27557132
0.15585408 -0.20056838 -0.050154597 0.060955305 0.24026181 -0.22712971 0.021618407 -0.050436176
0.068715796 -0.24801587 0.35310584 -0.09152575 0.042549003 0.32267532 -0.3059942 -0.21215247
-0.09123488 0.0728639 -0.62188447 -0.06757752 -0.30251026 -0.17313896 -0.06759606 0.005616215
0.15709692 0.12299644 0.059448138 -0.049819615 -0.112446085 -0.32950512 0.034540173 0.24626587
-0.19431588 -0.3610594 -0.08134445 -0.09523548 -0.3096641 0.14192139 -0.15457207 0.0023647975
0.21954797 -0.30005157 0.11636975 -0.2114573 0.211952 0.060960095 0.051614992 -0.14912632
0.0629792 0.17874 0.01178652 0.1661751 -0.1305417 0.0046800026 0.09516023 -0.019187711
-0.11019618 -0.12039096 -0.054411814 0.19536166 -0.01846914 -0.42674807 -0.11438118 -0.075483754
0.00057393825 -0.00035008267 -0.23100191 0.56520754 -0.23336254 0.13899857 0.22753178 0.124585755
-0.36472017 -0.11948072 0.26176858 -0.12484267 0.13157003 -0.05236707 -0.07407425 0.06633211

actor_fc_layers.blocks.0.block.1.weight f4 [128]
00000000: 3c64 923f 70e4 cb3f b34e 7b3f b8b2 9e3f
00000010: 06c6 853f ca50 8d3f 4f87 993f 89f9 893f
00000020: bf95 b23f e3b2 993f eabd 943f bc79 9a3f
00000030: 01a3 933f 5918 9f3f 6b51 863f 6172 a83f
00000040: d2b9 943f a2fb 9f3f b13a ae3f 2116 753f
00000050: 20ac 7c3f 36c6 9f3f a8de a43f 4a6a 623f
00000060: 4e2d 993f 9223 663f 5d77 8a3f 37cc 8c3f
00000070: 32d3 823f db09 983f d1e9 893f b687 883f
00000080: c329 7f3f 8fef 8d3f 6f01 8d3f 3517 883f
00000090: f7ac 7f3f 0194 943f 0e06 993f 31a6 9a3f
000000a0: e072 873f 39a0 9f3f 51fc 963f 0180 933f
000000b0: ed5b 813f 16c0 9d3f d65c 993f 5245 8d3f
000000c0: a05b a63f a411 9c3f 9af6 993f 374a 8f3f
000000d0: 5a01 923f aba2 b43f bee0 803f 3e11 a23f
000000e0: 1b98 9a3f f36f 673f c5df 8f3f 0c6d a23f
000000f0: 8558 9a3f f5be 953f 013d 673f 9971 763f
00000100: 0fa3 7c3f 04a2 9c3f f033 8f3f 325f b93f
00000110: bc3f 8b3f 1d78 a13f d050 763f 27b9 cb3f
00000120: 62f0 923f 2f1f a43f 2a0f 8e3f 8508 763f
00000130: 5683 a13f f157 9e3f fbd2 a63f 77c6 853f
00000140: ddf0 8a3f 2870 a13f a550 823f 4e1e 973f
00000150: 2c7c 963f d92b 913f a44a 773f b71e 803f
00000160: 77b3 993f a733 8d3f bad8 983f c591 983f
00000170: df7d b73f 4fb8 993f 3c27 7f3f 18a8 8e3f
00000180: 5ba8 923f 7c7d 993f d80f 843f 8353 943f
00000190: 56ec a33f 47a1 873f 71b8 683f 2446 ad3f
000001a0: 9b91 8a3f 81aa 903f 02e9 a23f f3db 8e3f
000001b0: 070a 973f 0b89 a13f 9aa0 8d3f 714c 903f
000001c0: 0596 943f 723e 963f 9fcd 8b3f 71ed 853f
000001d0: 5f05 883f 6557 7c3f 5a9a a63f 1cfe 9d3f
000001e0: bd8d b93f 7266 8d3f 6e5c 943f 9cfb 7c3f
000001f0: 5d2c 953f 75b1 853f c485 913f 8faf a73f
1.1436839 1.5929089 0.9816696 1.2398291 1.0451057 1.104028 1.1994418 1.0779277
1.3951949 1.2007717 1.1620457 1.20684 1.153412 1.2429305 1.0493597 1.3159906
1.1619208 1.2498667 1.3611661 0.9573689 0.9870014 1.2482364 1.2880449 0.88443434
1.1966951 0.89898026 1.0817677 1.0999821 1.0220702 1.1878008 1.077448 1.0666416
0.996731 1.1088732 1.1016062 1.0632082 0.998733 1.1607667 1.1954973 1.2081968
1.0581932 1.2470771 1.1795751 1.1523439 1.0106179 1.2324245 1.1981456 1.103678
1.2996712 1.2192883 1.2028382 1.1194524 1.1406662 1.4112142 1.0068586 1.2661512
1.2077669 0.90405196 1.1240164 1.2689528 1.2058264 1.16989 0.9032746 0.96267086
0.9868631 1.2236943 1.1187725 1.4482176 1.0878825 1.2614781 0.9621706 1.5915879
1.1479609 1.2822016 1.1098378 0.9610675 1.2618206 1.2370588 1.3033136 1.0451192
1.0854756 1.2612352 1.0180861 1.1806123 1.1756644 1.1341506 0.9659827 1.0009373
1.2007893 1.1031388 1.194114 1.1919485 1.4335288 1.2009372 0.9966924 1.1145048
1.1457628 1.199142 1.0317335 1.1587986 1.2806499 1.0596093 0.90906435 1.353703
1.0825685 1.1302034 1.2727358 1.1160873 1.1799935 1.2619947 1.1064637 1.1273328
1.1608282 1.1737807 1.0922126 1.0463086 1.0626639 0.98570853 1.3015854 1.2343173
1.449638 1.1046889 1.1590707 0.98821425 1.1654164 1.044478 1.1368947 1.3100451

actor_fc_layers.blocks.0.block.1.bias f4 [128]
00000000: 38a6 59bd 585f 353e 96af f3bd cbb6 b2bd
00000010: a03f 4cbd 9da0 a8bd 7e7f 60bc 982d 003e
00000020: 8bc1 5d3e 7631 a03d 26e4 74bd 2227 0b3e
00000030: 6176 25bd 90ae 703d 8051 77be c198 203e
00000040: 93d0 96bc 0507 d0bd 49e4 493d ac72 6fbe
00000050: 0ebe 0abd 7d30 d23d fb2a f93b 59e1 2dbe
00000060: 59c4 25be cc47 84be 08d7 463d 627e c2bc
00000070: 1bc0 47bd 79ae c4bd a2eb 193c 2f1c 523c
00000080: 66d7 4fbd 0640 0dbd f8ed 173c 6f42 a1bd
00000090: cc3b 08be 2f73 57bd 36b6 9ebd 8d01 d5bd
000000a0: 7e8c 51be ff1e 223d d3a0 bdb7 6788 dc3d
000000b0: 2de9 e5bd 9d0f 8ebd a205 443e b2ed a0bd
000000c0: 71bf 433d cb55 67be 1a52 6abd 035e f23c
000000d0: 55d5 02be 5810 e33c 6855 3abe f71c 37bc
000000e0: 1c39 303e 5f75 4b3c c849 ef3d 842c e6bd
000000f0: 73f6 a5bb b335 dd3c 1aba 38be 4646 a0be
00000100: 2b09 29be c539 80bd 9086 653d ff22 663d
00000110: 92e2 53bd 3066 b13d 3d93 43be 5992 403d
00000120: 79ba 29be 3bc5 c3bc 1501 b3bc 7fb2 2cbe
00000130: 666b ffbc 79ba 513e 5979 3c3c aea1 b9bd
00000140: 2dfc 3fbe d4b5 1a3e ed92 a1bd 5e4d 13bd
00000150: 2111 393e b7b8 2abd 8f4c 2ebe ac70 31be
00000160: d09c 9c3d fa4b b93d 9366 ba3d c67c 2bbd
00000170: c20b 943c 0925 eebd e0f2 88bd 95a1 eb3d
00000180: d37d 10bd 5388 00be 582e eabd 1126 d13d
00000190: 927a 933d 5616 92bd 3552 96be f188 193e
000001a0: fb19 a03d e122 573c b333 183e 51ae 6dbc
000001b0: 0b39 1abe 213a 343e 2b30 a23d d810 c4bd
000001c0: 3d20 963c 834b 19bd 4a98 873c 42f4 4cbe
000001d0: b6e4 01be cd87 263e 6617 fa3d b2cb cbbb
000001e0: d9c5 183d 3efb 6f3d 7633 35bd 57e0 0a3c
000001f0: 8bcf 393e 2ecc e2bd e45d b63d 36c9 f43d
-0.053137034 0.17712152 -0.11898725 -0.08726271 -0.049865365 -0.082337596 -0.0137022715 0.12517393
0.21655862 0.07821934 -0.05978789 0.13589147 -0.040396098 0.058760226 -0.24152184 0.15683271
-0.018410003 -0.10157589 0.049289975 -0.23383588 -0.033872657 0.10263155 0.0076040006 -0.16980495
-0.16188182 -0.25836027 0.048544914 -0.023741905 -0.04876719 -0.096035905 0.009394558 0.012824102
-0.05074253 -0.034484886 0.009273045 -0.07873999 -0.1330406 -0.052600082 -0.07749598 -0.104006864
-0.2046375 0.03958034 -2.2605445e-05 0.10768204 -0.112261154 -0.06936572 0.19142774 -0.07857837
0.047789995 -0.22591321 -0.057207204 0.029585844 -0.12776692 0.027717754 -0.18196642 -0.011176339
0.17209285 0.01241812 0.116839945 -0.112389594 -0.0050647794 0.027003145 -0.18039742 -0.31303614
-0.16507404 -0.06261019 0.056036532 0.05618572 -0.051729746 0.08662069 -0.19099136 0.047014568
-0.1657504 -0.023897758 -0.021851102 -0.16864966 -0.031179141 0.2048129 0.011503541 -0.09064041
-0.18748541 0.15108424 -0.07889352 -0.035962455 0.1807294 -0.041680064 -0.17021392 -0.17328137
0.07647097 0.090476945 0.09101596 -0.04186704 0.018072013 -0.11628158 -0.0668695 0.11505429
-0.035276245 -0.12552004 -0.114346206 0.10212339 0.07201113 -0.071331665 -0.29359594 0.14993645
0.078174554 0.013130874 0.14863472 -0.014506892 -0.15060823 0.176003 0.079193436 -0.09573525
0.01832592 -0.03742553 0.01655211 -0.20015052 -0.12684903 0.16262741 0.12211494 -0.0062193507
0.037298057 0.058589213 -0.04423853 0.008476338 0.18145578 -0.110741004 0.08904627 0.119524404

actor_fc_layers.blocks.0.block.1.running_mean f4 [128]
00000000: 0000 0000 0000 0000 0000 0000 0000 0000
00000010: 0000 0000 0000 0000 0000 0000 0000 0000
00000020: 0000 0000 0000 0000 0000 0000 0000 0000
00000030: 0000 0000 0000 0000 0000 0000 0000 0000
00000040: 0000 0000 0000 0000 0000 0000 0000 0000
00000050: 0000 0000 0000 0000 0000 0000 0000 0000
00000060: 0000 0000 0000 0000 0000 0000 0000 0000
00000070: 0000 0000 0000 0000 0000 0000 0000 0000
00000080: 0000 0000 0000 0000 0000 0000 0000 0000
00000090: 0000 0000 0000 0000 0000 0000 0000 0000
000000a0: 0000 0000 0000 0000 0000 0000 0000 0000
000000b0: 0000 0000 0000 0000 0000 0000 0000 0000
000000c0: 0000 0000 0000 0000 0000 0000 0000 0000
000000d0: 0000 0000 0000 0000 0000 0000 0000 0000
000000e0: 0000 0000 0000 0000 0000 0000 0000 0000
000000f0: 0000 0000 0000 0000 0000 0000 0000 0000
00000100: 0000 0000 0000 0000 0000 0000 0000 0000
00000110: 0000 0000 0000 0000 0000 0000 0000 0000
00000120: 0000 0000 0000 0000 0000 0000 0000 0000
00000130: 0000 0000 0000 0000 0000 0000 0000 0000
00000140: 0000 0000 0000 0000 0000 0000 0000 0000
00000150: 0000 0000 0000 0000 0000 0000 0000 0000
00000160: 0000 0000 0000 0000 0000 0000 0000 0000
00000170: 0000 0000 0000 0000 0000 0000 0000 0000
00000180: 0000 0000 0000 0000 0000 0000 0000 0000
00000190: 0000 0000 0000 0000 0000 0000 0000 0000
000001a0: 0000 0000 0000 0000 0000 0000 0000 0000
000001b0: 0000 0000 0000 0000 0000 0000 0000 0000
000001c0: 0000 0000 0000 0000 0000 0000 0000 0000
000001d0: 0000 0000 0000 0000 0000 0000 0000 0000
000001e0: 0000 0000 0000 0000 0000 0000 0000 0000
000001f0: 0000 0000 0000 0000 0000 0000 0000 0000
0.0 0.0 0.0 0.0 0.0 0.0 0.0 0.0
0.0 0.0 0.0 0.0 0.0 0.0 0.0 0.0
0.0 0.0 0.0 0.0 0.0 0.0 0.0 0.0
0.0 0.0 0.0 0.0 0.0 0.0 0.0 0.0
0.0 0.0 0.0 0.0 0.0 0.0 0.0 0.0
0.0 0.0 0.0 0.0 0.0 0.0 0.0 0.0
0.0 0.0 0.0 0.0 0.0 0.0 0.0 0.0
0.0 0.0 0.0 0.0 0.0 0.0 0.0 0.0
0.0 0.0 0.0 0.0 0.0 0.0 0.0 0.0
0.0 0.0 0.0 0.0 0.0 0.0 0.0 0.0
0.0 0.0 0.0 0.0 0.0 0.0 0.0 0.0
0.0 0.0 0.0 0.0 0.0 0.0 0.0 0.0
0.0 0.0 0.0 0.0 0.0 0.0 0.0 0.0
0.0 0.0 0.0 0.0 0.0 0.0 0.0 0.0
0.0 0.0 0.0 0.0 0.0 0.0 0.0 0.0
0.0 0.0 0.0 0.0 0.0 0.0 0.0 0.0

actor_fc_layers.blocks.0.block.1.running_var f4 [128]
00000000: 0000 803f 0000 803f 0000 803f 0000 803f
00000010: 0000 803f 0000 803f 0000 803f 0000 803f
00000020: 0000 803f 0000 803f 0000 803f 0000 803f
00000030: 0000 803f 0000 803f 0000 803f 0000 803f
00000040: 0000 803f 0000 803f 0000 803f 0000 803f
00000050: 0000 803f 0000 803f 0000 803f 0000 803f
00000060: 0000 803f 0000 803f 0000 803f 0000 803f
00000070: 0000 803f 0000 803f 0000 803f 0000 803f
00000080: 0000 803f 0000 803f 0000 803f 0000 803f
00000090: 0000 803f 0000 803f 0000 803f 0000 803f
000000a0: 0000 803f 0000 803f 0000 803f 0000 803f
000000b0: 0000 803f 0000 803f 0000 803f 0000 803f
000000c0: 0000 803f 0000 803f 0000 803f 0000 803f
000000d0: 0000 803f 0000 803f 0000 803f 0000 803f
000000e0: 0000 803f 0000 803f 0000 803f 0000 803f
000000f0: 0000 803f 0000 803f 0000 803f 0000 803f
00000100: 0000 803f 0000 803f 0000 803f 0000 803f
00000110: 0000 803f 0000 803f 0000 803f 0000 803f
00000120: 0000 803f 0000 803f 0000 803f 0000 803f
00000130: 0000 803f 0000 803f 0000 803f 0000 803f
00000140: 0000 803f 0000 803f 0000 803f 0000 803f
00000150: 0000 803f 0000 803f 0000 803f 0000 803f
00000160: 0000 803f 0000 803f 0000 803f 0000 803f
00000170: 0000 803f 0000 803f 0000 803f 0000 803f
00000180: 0000 803f 0000 803f 0000 803f 0000 803f
00000190: 0000 803f 0000 803f 0000 803f 0000 803f
000001a0: 0000 803f 0000 803f 0000 803f 0000 803f
000001b0: 0000 803f 0000 803f 0000 803f 0000 803f
000001c0: 0000 803f 0000 803f 0000 803f 0000 803f
000001d0: 0000 803f 0000 803f 0000 803f 0000 803f
000001e0: 0000 803f 0000 803f 0000 803f 0000 803f
000001f0: 0000 803f 0000 803f 0000 803f 0000 803f
1.0 1.0 1.0 1.0 1.0 1.0 1.0 1.0
1.0 1.0 1.0 1.0 1.0 1.0 1.0 1.0
1.0 1.0 1.0 1.0 1.0 1.0 1.0 1.0
1.0 1.0 1.0 1.0 1.0 1.0 1.0 1.0
1.0 1.0 1.0 1.0 1.0 1.0 1.0 1.0
1.0 1.0 1.0 1.0 1.0 1.0 1.0 1.0
1.0 1.0 1.0 1.0 1.0 1.0 1.0 1.0
1.0 1.0 1.0 1.0 1.0 1.0 1.0 1.0
1.0 1.0 1.0 1.0 1.0 1.0 1.0 1.0
1.0 1.0 1.0 1.0 1.0 1.0 1.0 1.0
1.0 1.0 1.0 1.0 1.0 1.0 1.0 1.0
1.0 1.0 1.0 1.0 1.0 1.0 1.0 1.0
1.0 1.0 1.0 1.0 1.0 1.0 1.0 1.0
1.0 1.0 1.0 1.0 1.0 1.0 1.0 1.0
1.0 1.0 1.0 1.0 1.0 1.0 1.0 1.0
1.0 1.0 1.0 1.0 1.0 1.0 1.0 1.0

actor_fc_layers.blocks.1.block.0.weight f4 [128, 128]
00000000: d26d 15bd 2c3d 5f3d e277 793d c403 4d3e
00000010: 0e1f 4dbe 081e e5bd 8771 3fbe f1a2 013e
00000020: d6fe 4abc 6a85 0fbe ac7f 403d 3412 19be
00000030: 16b5 2abd 96fa 1fbe 0d23 7fbd 3ce3 13bd
00000040: 7f95 3b3e 83da c83d 5ba5 54be 47ac 783e
00000050: 8475 6a3d 6803 363e 540a 563e 071e a93c
00000060: ec76 67be fa4c cbbd b45b 393d 2f3e 30bd
00000070: a001 023c 27fa d8bc 6609 bf3d 1306 223e
00000080: f8bd 05be e7fc 873d 1858 413e d0a6 363e
00000090: 08c0 cf3d 9c0f e03c 8450 80bd 7135 98be
000000a0: fc0c 163d d9d9 a63e 6eae b5be 463c a2be
000000b0: db70 b43c 7d4c 6fbc e981 fb3d e71e b0bd
000000c0: dff9 163e 61d1 a7be 61e5 013e df51 17bd
000000d0: 63b4 4c3e f617 573e 0d18 d73d 6666 88be
000000e0: febe 8b3d 1aee 773c dccc 803e 9669 e6bd
000000f0: 2a5d 10bd ca34 96bd 2590 353d 6ee0 623e
00000100: a74a e7bd 2dba 573e 7225 71be 104d 7f3e
00000110: f1ad 00be 50af 903e f9ce 31be 6fc7 ef3e
00000120: fb2c afb8 6d88 00bd 4e89 ff3d 63c7 95be
00000130: 3728 a7be 1937 6dbe 53ed ac3e db12 383d
00000140: 3d23 003e 8c7b 983e f5e6 b2bc 3c3d a23c
00000150: 938d 96be 6c29 57bd 2c82 bb3d 285d cc3d
00000160: f033 9a3d eefd a2be 6ef9 4a3d 2edd 8a3e
00000170: 56c2 ce3e bd20 53be 7458 163e ffc8 00be
00000180: a530 3fbd a174 cbbc f5c2 1a3e 6e6c 523d
00000190: 7241 7ebd b70a 103d 0bc6 fabd 2a33 1e3d
000001a0: 3901 7bbe 2c96 843e 75a1 db3d e7b1 87bd
000001b0: 7634 7ebb 019d 2bbd b83c a6bc 2f7b a13c
000001c0: f43c 18be 9eea 64be f6e7 5f3e 1b23 af3c
000001d0: f1df a7be 9556 08be 92cf 15be 3bb3 213b
000001e0: 5aa1 7bbe 772f bebd 7c24 8ebe 6385 88bc
000001f0: 8356 e2bd 90cd 32be d830 c13c db5a e9bd
00000200: 6cfe 503c bc0b 3e3d 8254 edbd 1172 d6bc
00000210: 1d48 0c3d d126 9abd 34a9 88bd 9105 25be
00000220: 08d7 2d3d 6b74 02bc 808f 1bbd 0566 e6bd
00000230: 3769 6bbd a895 acbd 3a62 fcbd 2e48 35bd
00000240: 0758 6cbd a790 31bd 18b0 473d c87e d4bd
00000250: e843 f8bd 79b8 4e3d cd60 98bd dfe7 333d
00000260: fbc0 0f3d f742 01be d647 883c 8ca1 423d
00000270: 07ea 82bd 0896 cdbc 0399 52bd 046e b63d
00000280: 9d0f 083d 6c8f 69bd 2753 85bd d39c 833d
00000290: c94d 94bd 5863 cdbd 2fea 8abd 3af5 293d
000002a0: b58a 593d a565 2bbd c7b5 863d ceb9 b73b
000002b0: 1ac1 793d 4483 56bd 40c9 d9bd 7eb9 1abb
000002c0: 1995 26be c0f3 bdbd 1129 e3bc e8ad 253b
000002d0: 8dca 83bc 6f61 8c3c 3441 09be a48c 0e3d
000002e0: 0dc9 2639 889a 74bd 5541 2cbc 196c a2bc
000002f0: a00f 263e 85b4 5abd cc30 41bd f842 b13c
00000300: 7171 0bbd 0e06 a73b 8329 f1bd e912 6c3b
00000310: 3e23 5a3d b098 c8bd 58ff 83bd 007a cfbd
00000320: d1b3 1bbe ea6a 06be e728 8bbd ea70 d43b
00000330: 01fb fdbd 91e3 97bc 998b 823d a495 f93c
00000340: fc33 bcbd 3399 58bd 7cbf a3bd c8fc 30bc
00000350: ca3b 05bd 3ae9 c93c ed8a 3a3d 2ada a6bd
00000360: a0dc 7339 b3d3 1f3c 0bc3 00be 4459 87bd
00000370: 8d26 52be 2752 973d 2f01 dabd ab9a 7fbd
00000380: b148 24be 107a 06bc af40 323d 462c abbd
00000390: 5472 9cbd ba85 9e3c 76d2 94bd 5642 18be
000003a0: 5480 833d 6f1f a8bd c734 cabd 7c7c 2cbd
000003b0: 2345 a13c 7094 30be 2fc2 52bd 78ed a5bc
000003c0: 8141 5f3d daeb 8b3d fb58 54bd 27c9 efbc
000003d0: ea68 39bb cf7e f5bd f151 24bc 8ae6 a0bd
000003e0: 23d2 e4bd 0190 d0bd 4dd7 993d 2921 8bbc
000003f0: 71f8 e0bd 00fd aabc 9bb8 c4bc c0c7 c7bc
-0.036481686 0.054501697 0.060905345 0.20020968 -0.20031378 -0.11187369 -0.18695651 0.12659813
-0.012389859 -0.14015737 0.046996757 -0.1494835 -0.041676603 -0.15622935 -0.062289286 -0.03610538
0.18318747 0.09807303 -0.20766203 0.24284469 0.057240978 0.17774737 0.20902377 0.020644201
-0.22603959 -0.099267915 0.04525347 -0.043028053 0.007934958 -0.02648647 0.093279645 0.1582263
-0.13060749 0.06640034 0.18881261 0.17837071 0.10144049 0.027351193 -0.06265357 -0.29728273
0.036633477 0.3258808 -0.35484642 -0.3168661 0.02202647 -0.014605639 0.12280638 -0.08599644
0.14743756 -0.3277693 0.12685157 -0.036943313 0.19990687 0.21005234 0.10502634 -0.26640624
0.06823538 0.015132451 0.25156295 -0.11250608 -0.0352451 -0.073342875 0.04432692 0.22155926
-0.11293536 0.21067114 -0.2354944 0.24931741 -0.12566353 0.28258753 -0.1736411 0.46831843
-8.3530285e-05 -0.031380106 0.12477361 -0.29253682 -0.3264787 -0.2316555 0.33774814 0.044939857
0.12513442 0.2978176 -0.021838645 0.01980459 -0.29404888 -0.052529737 0.09155688 0.09978706
0.075294375 -0.31834358 0.04955428 0.27121872 0.40382642 -0.20617957 0.1468218 -0.12576674
-0.04667725 -0.024835886 0.15113433 0.051372938 -0.062074132 0.03516647 -0.12244805 0.038623013
-0.24512185 0.25895822 0.10724155 -0.06625729 -0.0038788593 -0.041897777 -0.020292625 0.019712059
-0.14867002 -0.22355124 0.2186583 0.021379044 -0.3278804 -0.13314278 -0.14629963 0.002467348
-0.2457327 -0.09286397 -0.2776221 -0.016665166 -0.11051657 -0.17461228 0.02358286 -0.113942824
0.012755971 0.04639791 -0.11588384 -0.026177438 0.03424846 -0.07526935 -0.06672898 -0.16115405
0.042441398 -0.0079623265 -0.03797865 -0.112499274 -0.057473388 -0.08426982 -0.12323423 -0.04425829
-0.057701137 -0.04335084 0.04875192 -0.10375744 -0.12122327 0.050468896 -0.07440338 0.0439223
0.03509615 -0.12623201 0.016635817 0.047517344 -0.063922934 -0.025095955 -0.051415455 0.089077026
0.033218015 -0.057021543 -0.06510001 0.06426396 -0.07241399 -0.10028714 -0.06782948 0.041493632
0.053110797 -0.041844983 0.0657764 0.0056068664 0.06097517 -0.05237128 -0.106340885 -0.0023609097
-0.16267814 -0.09275007 -0.027729543 0.0025280658 -0.016087795 0.017136304 -0.1340378 0.034802094
0.00015905891 -0.059717685 -0.010513623 -0.019826936 0.16216898 -0.053394813 -0.047165677 0.021638379
-0.034043733 0.0050971573 -0.11775496 0.0036022014 0.053256266 -0.09794748 -0.06445187 -0.101306915
-0.15205313 -0.13126722 -0.06794911 0.006483187 -0.12401391 -0.01854113 0.063742824 0.030466862
-0.09189603 -0.052880477 -0.07995507 -0.010802455 -0.032527722 0.024647344 0.045542646 -0.0814708
0.00023256475 0.009755063 -0.12574403 -0.06608823 -0.20522518 0.07388716 -0.10644757 -0.062403362
-0.16043355 -0.008207813 0.04351872 -0.08358054 -0.07638994 0.019350875 -0.07266705 -0.14869055
0.06420961 -0.082091205 -0.09873348 -0.042110905 0.019686287 -0.17244124 -0.05145472 -0.020254835
0.05450583 0.068320945 -0.05184267 -0.029270722 -0.0028291293 -0.119870774 -0.010029302 -0.07856472
-0.11172893 -0.101837166 0.075117685 -0.016983585 -0.109848864 -0.020872593 -0.024013808 -0.02438724

actor_fc_layers.blocks.1.block.1.weight f4 [128]
00000000: b89a a53f c2c9 843f 5712 923f 8a88 993f
00000010: d912 9c3f 1692 ac3f 2d1f a23f 2e1a a13f
00000020: 9c23 773f 0174 743f 595f b43f 4c27 803f
00000030: d5ac 763f 3de4 7c3f fbd5 943f 7fff a63f
00000040: d12d 913f 1b7f a83f 99da 8d3f 0477 a03f
00000050: 1e57 ae3f 27b8 873f 8376 af3f e84c 9c3f
00000060: c1d0 af3f a42d 943f 8279 8b3f ed7a 823f
00000070: f18f 743f fbd2 b13f 9b1f 903f 66d9 9c3f
00000080: b497 ac3f 7d37 9e3f b8a3 a43f b0c0 963f
00000090: f21f 9f3f b9ed aa3f f0b2 a73f 0985 9f3f
000000a0: a7fa 703f 30e0 a03f 84ed 9a3f ff98 9f3f
000000b0: b3c4 a03f 4335 703f ce2b 913f 68f4 943f
000000c0: 3afe 9d3f 7474 a83f 4d95 933f 44f5 b33f
000000d0: f12c 783f 4e8e a73f 583f b43f e38c 773f
000000e0: 515e bc3f df29 993f 3ce9 833f 8630 9c3f
000000f0: ae7f 8a3f 1d5d aa3f 8988 8d3f 7442 9e3f
00000100: 36ac 763f 1160 7f3f 1ff4 6f3f 268a 7c3f
00000110: a825 913f fa7e 7f3f 5aea 883f ba8c c03f
00000120: a315 aa3f 9f3f 773f 8011 953f 9acb 8d3f
00000130: 6112 b03f c9d4 8d3f 7f09 943f 676f 773f
00000140: 4088 863f 17ab a03f fc86 723f 3cab 713f
00000150: f011 973f 57b5 9d3f 066b 9b3f 0754 7d3f
00000160: aab6 843f 9f5a 9a3f 4378 a53f a73c 9f3f
00000170: 7612 7a3f 5822 8b3f 776f 953f 52f4 9d3f
00000180: b96e a73f c964 7b3f 389f a63f 374a 943f
00000190: cb1d a73f 03a9 9c3f 5492 6e3f 4d65 923f
000001a0: 54be 9f3f 9000 9f3f 78df 8c3f 93a6 b03f
000001b0: 3a00 8c3f 4a00 b63f c983 7b3f 7952 9e3f
000001c0: 1afe 973f a9fc b03f 07a0 7d3f 303a aa3f
000001d0: 5576 9c3f de98 793f 3ca8 8e3f f44d 913f
000001e0: 45e9 c13f d63f 753f 614b a93f 2868 b83f
000001f0: 42a1 9a3f 8dad 9d3f 3e67 a13f dac3 793f
1.2937841 1.0374072 1.1411847 1.1994793 1.2193252 1.3482082 1.2665764 1.2586114
0.9653871 0.9548951 1.4091598 1.0011992 0.9635747 0.98785764 1.1627802 1.3046721
1.1342107 1.316379 1.1082336 1.2536321 1.3620336 1.0603074 1.3708042 1.221097
1.3735582 1.1576428 1.0896456 1.0193764 0.9553214 1.3892511 1.1259645 1.2253845
1.3483796 1.2360684 1.2862463 1.1777554 1.2431624 1.3353797 1.3101482 1.2462474
0.94132465 1.2568417 1.2103734 1.2468566 1.2560028 0.9383127 1.1341493 1.1637087
1.2343209 1.3160539 1.1529938 1.4059224 0.96943575 1.3090303 1.4081831 0.9669935
1.4716283 1.1965903 1.0305552 1.2202308 1.0820215 1.3309666 1.1057292 1.236403
0.96356523 0.9975596 0.93731874 0.986483 1.1339617 0.99803126 1.0696518 1.5042946
1.3287853 0.96581453 1.1645966 1.1077759 1.3755609 1.1080562 1.1565398 0.9665436
1.051033 1.2552212 0.9473722 0.9440191 1.1802349 1.2320966 1.2142036 0.9895634
1.0368245 1.2058905 1.2927326 1.2440385 0.9768442 1.0869856 1.1674641 1.2340186
1.3080665 0.9820066 1.301734 1.1585149 1.3055967 1.2239078 0.9319203 1.1437165
1.2479959 1.2422047 1.1005697 1.3800834 1.0937569 1.4218838 0.98247963 1.2368919
1.1874421 1.3827106 0.9907231 1.3299007 1.2223612 0.9749888 1.1145091 1.1351914
1.5149313 0.9580053 1.3226129 1.4406786 1.2080462 1.2318588 1.2609632 0.9756447

actor_fc_layers.blocks.1.block.1.bias f4 [128]
00000000: 5343 f73d edce 9ebd afbd 9dbd 0d2d d13d
00000010: 03ea 93bc f57b ec3a 2d08 f9bb bfc4 b73d
00000020: 015b edbc e21b 5cbd 3526 b4bd bcf2 5a3d
00000030: e6de 12bd 91bb 1e3d f63d 493c cf31 a73c
00000040: 8ef7 a63c f682 9abd 80cf 15bd 5363 27be
00000050: 9a64 23bd 0a26 a5bd bf23 5cbc d684 28bd
00000060: 3065 a03d f76b 953c 51a7 423d f52c 86bc
00000070: 236f 55bd 9eef b8bc 33f5 df3a b223 31bd
00000080: c8ee eebd 283e 65bc 3985 6b3b ecb5 7f3b
00000090: 6b35 43bd 1ee1 9c3d e2a5 2f3d 28bd 9abd
000000a0: 215b 90bd c013 e63c b586 a53d 70df 953d
000000b0: 0f21 b33d fbb5 73bd ecc3 84bd a7c9 013e
000000c0: cbe6 aabd d7df cf3c 9db0 43bc ae4b 37bc
000000d0: d98a 4bbd fa73 49bc ca8d 7d3c 7c01 8dbd
000000e0: cf78 d03d 20a3 e4bd cf48 8dbd 60b1 a53d
000000f0: 82d8 eebd aad4 e3bd 17a1 dabd f56f 07be
00000100: a6f1 49bd ac2b a3bc ca61 77bd 5bf8 96bd
00000110: 88d0 09be 2aad 29be ebc2 cc3d 8088 e1bb
00000120: 7ff3 523d e61c 64bd 4c21 c0bd 4f98 f93c
00000130: 8a5b bb3d 3c98 0dbd f315 66bd 562b 16bd
00000140: b0ef 1f3d 9538 0fbd bd01 d4bd 2def 9cbd
00000150: 3084 30bd 19dd aebd ba76 4e3d 7dbe 07bd
00000160: 7920 b53c 8a35 dfbc 902a 56bd a906 9c3d
00000170: 46f2 13bd 5384 ddbd b84c ac3c 62e0 9abc
00000180: d30a 83bc 42dc fcbc 2adf b43d 57ae d9bc
00000190: d34e 1b3e 1d02 bbbd 1c43 83bd 5e1c ddbd
000001a0: 54b5 fb3b 793a b2bb e298 aabd 5a31 cb3b
000001b0: ab4f 3b3c 226e 073e 16f0 01bd 1720 cd3d
000001c0: 1d64 5ebd 10db c0bd e0ba 003d 5395 bc3d
000001d0: 7b59 cdbb e527 0fbd 2b09 88bc c8bc 213d
000001e0: 35bc 6a3c f352 71bd 05c0 613d f59a 2ebe
000001f0: 9031 9dbd bb74 c4bc 0990 b2bd 2fd7 f0bc
0.12073388 -0.07754312 -0.07702195 0.10213671 -0.018055921 0.0018042313 -0.0075998516 0.08973073
-0.028974058 -0.05373753 -0.0879635 0.053454146 -0.035857104 0.038753096 0.012282839 0.020409493
0.020381715 -0.0754451 -0.03657484 -0.16346483 -0.039890863 -0.08063896 -0.013436257 -0.041142307
0.078318 0.018239958 0.047522847 -0.016378859 -0.05210794 -0.022575196 0.0017086625 -0.043246932
-0.11666638 -0.01399187 0.0035937561 0.0039018346 -0.047658365 0.07660125 0.042882808 -0.0755561
-0.070486315 0.02808559 0.08082334 0.07318008 0.0874654 -0.059499722 -0.06482682 0.1267458
-0.083448015 0.02537529 -0.011943963 -0.011187477 -0.049692962 -0.012295717 0.0154757 -0.06885049
0.101792924 -0.11163926 -0.06898653 0.08090472 -0.11662389 -0.11124547 -0.10675257 -0.13226302
-0.04930272 -0.019918285 -0.060395993 -0.07371589 -0.13458455 -0.16569963 0.09998115 -0.006882727
0.051501747 -0.055691622 -0.09381351 0.030468134 0.09148319 -0.03456901 -0.056173276 -0.036662422
0.039046943 -0.03496607 -0.10351894 -0.07662807 -0.043094814 -0.08538265 0.050406195 -0.03314065
0.02211021 -0.02724721 -0.052286685 0.07618458 -0.03611972 -0.108162545 0.021032676 -0.018905822
-0.015996372 -0.030866746 0.08831628 -0.02657239 0.15166788 -0.091312625 -0.064092845 -0.10796426
0.007681528 -0.0054390994 -0.08329941 0.0062009515 0.011432569 0.13225606 -0.031723104 0.10015886
-0.054294694 -0.09416783 0.031428218 0.09208169 -0.0062667704 -0.034950156 -0.016605934 0.039486676
0.014327099 -0.058916997 0.055114765 -0.17051299 -0.07675469 -0.023981443 -0.08718879 -0.029399483

actor_fc_layers.blocks.1.block.1.running_mean f4 [128]
00000000: 0000 0000 0000 0000 0000 0000 0000 0000
00000010: 0000 0000 0000 0000 0000 0000 0000 0000
00000020: 0000 0000 0000 0000 0000 0000 0000 0000
00000030: 0000 0000 0000 0000 0000 0000 0000 0000
00000040: 0000 0000 0000 0000 0000 0000 0000 0000
00000050: 0000 0000 0000 0000 0000 0000 0000 0000
00000060: 0000 0000 0000 0000 0000 0000 0000 0000
00000070: 0000 0000 0000 0000 0000 0000 0000 0000
00000080: 0000 0000 0000 0000 0000 0000 0000 0000
00000090: 0000 0000 0000 0000 0000 0000 0000 0000
000000a0: 0000 0000 0000 0000 0000 0000 0000 0000
000000b0: 0000 0000 0000 0000 0000 0000 0000 0000
000000c0: 0000 0000 0000 0000 0000 0000 0000 0000
000000d0: 0000 0000 0000 0000 0000 0000 0000 0000
000000e0: 0000 0000 0000 0000 0000 0000 0000 0000
000000f0: 0000 0000 0000 0000 0000 0000 0000 0000
00000100: 0000 0000 0000 0000 0000 0000 0000 0000
00000110: 0000 0000 0000 0000 0000 0000 0000 0000
00000120: 0000 0000 0000 0000 0000 0000 0000 0000
00000130: 0000 0000 0000 0000 0000 0000 0000 0000
00000140: 0000 0000 0000 0000 0000 0000 0000 0000
00000150: 0000 0000 0000 0000 0000 0000 0000 0000
00000160: 0000 0000 0000 0000 0000 0000 0000 0000
00000170: 0000 0000 0000 0000 0000 0000 0000 0000
00000180: 0000 0000 0000 0000 0000 0000 0000 0000
00000190: 0000 0000 0000 0000 0000 0000 0000 0000
000001a0: 0000 0000 0000 0000 0000 0000 0000 0000
000001b0: 0000 0000 0000 0000 0000 0000 0000 0000
000001c0: 0000 0000 0000 0000 0000 0000 0000 0000
000001d0: 0000 0000 0000 0000 0000 0000 0000 0000
000001e0: 0000 0000 0000 0000 0000 0000 0000 0000
000001f0: 0000 0000 0000 0000 0000 0000 0000 0000
0.0 0.0 0.0 0.0 0.0 0.0 0.0 0.0
0.0 0.0 0.0 0.0 0.0 0.0 0.0 0.0
0.0 0.0 0.0 0.0 0.0 0.0 0.0 0.0
0.0 0.0 0.0 0.0 0.0 0.0 0.0 0.0
0.0 0.0 0.0 0.0 0.0 0.0 0.0 0.0
0.0 0.0 0.0 0.0 0.0 0.0 0.0 0.0
0.0 0.0 0.0 0.0 0.0 0.0 0.0 0.0
0.0 0.0 0.0 0.0 0.0 0.0 0.0 0.0
0.0 0.0 0.0 0.0 0.0 0.0 0.0 0.0
0.0 0.0 0.0 0.0 0.0 0.0 0.0 0.0
0.0 0.0 0.0 0.0 0.0 0.0 0.0 0.0
0.0 0.0 0.0 0.0 0.0 0.0 0.0 0.0
0.0 0.0 0.0 0.0 0.0 0.0 0.0 0.0
0.0 0.0 0.0 0.0 0.0 0.0 0.0 0.0
0.0 0.0 0.0 0.0 0.0 0.0 0.0 0.0
0.0 0.0 0.0 0.0 0.0 0.0 0.0 0.0

actor_fc_layers.blocks.1.block.1.running_var f4 [128]
00000000: 0000 803f 0000 803f 0000 803f 0000 803f
00000010: 0000 803f 0000 803f 0000 803f 0000 803f
00000020: 0000 803f 0000 803f 0000 803f 0000 803f
00000030: 0000 803f 0000 803f 0000 803f 0000 803f
00000040: 0000 803f 0000 803f 0000 803f 0000 803f
00000050: 0000 803f 0000 803f 0000 803f 0000 803f
00000060: 0000 803f 0000 803f 0000 803f 0000 803f
00000070: 0000 803f 0000 803f 0000 803f 0000 803f
00000080: 0000 803f 0000 803f 0000 803f 0000 803f
00000090: 0000 803f 0000 803f 0000 803f 0000 803f
000000a0: 0000 803f 0000 803f 0000 803f 0000 803f
000000b0: 0000 803f 0000 803f 0000 803f 0000 803f
000000c0: 0000 803f 0000 803f 0000 803f 0000 803f
000000d0: 0000 803f 0000 803f 0000 803f 0000 803f
000000e0: 0000 803f 0000 803f 0000 803f 0000 803f
000000f0: 0000 803f 0000 803f 0000 803f 0000 803f
00000100: 0000 803f 0000 803f 0000 803f 0000 803f
00000110: 0000 803f 0000 803f 0000 803f 0000 803f
00000120: 0000 803f 0000 803f 0000 803f 0000 803f
00000130: 0000 803f 0000 803f 0000 803f 0000 803f
00000140: 0000 803f 0000 803f 0000 803f 0000 803f
00000150: 0000 803f 0000 803f 0000 803f 0000 803f
00000160: 0000 803f 0000 803f 0000 803f 0000 803f
00000170: 0000 803f 0000 803f 0000 803f 0000 803f
00000180: 0000 803f 0000 803f 0000 803f 0000 803f
00000190: 0000 803f 0000 803f 0000 803f 0000 803f
000001a0: 0000 803f 0000 803f 0000 803f 0000 803f
000001b0: 0000 803f 0000 803f 0000 803f 0000 803f
000001c0: 0000 803f 0000 803f 0000 803f 0000 803f
000001d0: 0000 803f 0000 803f 0000 803f 0000 803f
000001e0: 0000 803f 0000 803f 0000 803f 0000 803f
000001f0: 0000 803f 0000 803f 0000 803f 0000 803f
1.0 1.0 1.0 1.0 1.0 1.0 1.0 1.0
1.0 1.0 1.0 1.0 1.0 1.0 1.0 1.0
1.0 1.0 1.0 1.0 1.0 1.0 1.0 1.0
1.0 1.0 1.0 1.0 1.0 1.0 1.0 1.0
1.0 1.0 1.0 1.0 1.0 1.0 1.0 1.0
1.0 1.0 1.0 1.0 1.0 1.0 1.0 1.0
1.0 1.0 1.0 1.0 1.0 1.0 1.0 1.0
1.0 1.0 1.0 1.0 1.0 1.0 1.0 1.0
1.0 1.0 1.0 1.0 1.0 1.0 1.0 1.0
1.0 1.0 1.0 1.0 1.0 1.0 1.0 1.0
1.0 1.0 1.0 1.0 1.0 1.0 1.0 1.0
1.0 1.0 1.0 1.0 1.0 1.0 1.0 1.0
1.0 1.0 1.0 1.0 1.0 1.0 1.0 1.0
1.0 1.0 1.0 1.0 1.0 1.0 1.0 1.0
1.0 1.0 1.0 1.0 1.0 1.0 1.0 1.0
1.0 1.0 1.0 1.0 1.0 1.0 1.0 1.0

actor_fc_layers.blocks.2.block.0.weight f4 [128, 128]
00000000: 8fe9 4abd 5909 533d 1d91 37bd bd64 c03c
00000010: 4b0d 85bb 729c 27bc b760 60bd 6641 9cbd
00000020: bae7 493c af9f 59bd fd8b bbbd 0a4d 873d
00000030: b019 953d 3b6e a2bd 8052 5bbd 6d7c 7e3c
00000040: 3d7f a6bd bc3e 6ebc d4dd 67bd 8f0f abbd
00000050: f08d 34bd b061 0b3d d828 483c f16b edbd
00000060: df39 123c 8beb d33a 8812 aebb 6383 c6bd
00000070: 0d05 b33b e8b7 273d 47f3 d4bd cbde a1bd
00000080: e09d 29be 757f bcbd 98d7 d83c 5fe7 56bd
00000090: bf06 b239 8380 d8bc 9297 11bd 3c22 afbc
000000a0: 27ee 23bd 7063 1b3c d2eb d2bd b3ea 5abd
000000b0: 4da5 8dbc 9cf6 2ebd 8616 81bd b601 d0bd
000000c0: c231 093d 8319 1dbd 48e6 2dbe 1e63 9cbd
000000d0: 4f07 a33b a923 503c 41a2 8bbd 7c98 223c
000000e0: 87c8 c2bc 9b67 5cbc 5633 233c 102b 91bd
000000f0: 96db f5bd f64b 9dbd abd3 cf3b 266a d43b
00000100: 851d 01bd 779d 86bd 9b23 b3bd b612 21bc
00000110: b59c 173d a3bc bebd 8aef 39bd 47ec 2d3d
00000120: ff37 943d 6dbe 73bd a57d f7bd 898d 3d3c
00000130: 8d11 0abd 7574 29bd d58f b33c d794 18bd
00000140: 51d4 aabc 9c1f c6bc 04d2 f4bd b637 a1bc
00000150: fed5 2f3c eb9c c9bc cc37 283d 1471 71bd
00000160: ab18 c1bd 6d2e 8fbc 7a70 a13c f06f 10bd
00000170: 6306 8cbd e980 7abc e786 453d 1673 2d3d
00000180: 7384 973c 0201 22bc 859c 5fbd 008f 4dba
00000190: e33a 92bd 1566 f4bd 8074 ecba 4b5e 91bc
000001a0: cda5 36ba 5380 43bd 8369 b6bd 425e f0bc
000001b0: 3f9a 23bc 615d 223c c097 e5bd b01d 5c3c
000001c0: f34d 19be 944b 11be 3219 173c ae26 ca3a
000001d0: 0445 b6bd ff21 c6bc 493e 1fbd 46ec a8bd
000001e0: 9b54 ddbd d0cb a8bc 40f9 d1bd 14be 703d
000001f0: ba47 743c 6204 bcbd eef5 95bc c249 cebc
00000200: c3ee 52be b11c 65bd 8cfb 3e3e dc97 763c
00000210: fa61 61bd 03d3 343d 6e76 61be 6a79 553b
00000220: 1135 e1bd fede a2bb fdca f8bd 9e0f 1ebe
00000230: 48de 98bd fb5a 723e b27f 513e c0aa ec3c
00000240: 16d5 183e fd8d d03d e9ac 5e3e 5585 7c3e
00000250: 10a1 66bd 90af a93d 715f ae3d 6efb c1bd
00000260: c5ec e3bd 1f28 e53d fe35 c1bd 1521 2bbe
00000270: 9aca 913d 5d52 5a3d 9a75 953c 30a1 ed3d
00000280: a678 923d dd53 0bbe 482a 08bd 6dac b8bd
00000290: e2f1 003e c3eb e0be 0d09 0dbe efdb 8ebd
000002a0: ea58 77bd 4d9a 03be 857b 063d 2c03 4fbe
000002b0: ed59 8fbc 4ed3 6d3e beba 4f3d e8e4 5cbd
000002c0: 9fb5 4bbd e29c 4b3e 74a5 29be 881f 123d
000002d0: 677b b4bc 0397 51bd 03a5 bf3d 2e11 b4bd
000002e0: e3ff ec3c 9560 9d3e 0539 523d 914e 793c
000002f0: e38d 4b3e 2cab 7a3e 5070 043e 4377 e83d
00000300: 52bb bebc f705 fc3d 2b4d 803d d6b1 163e
00000310: 5a7b da3d ffbc cabd fcae 4bbe dc8f 903d
00000320: d29f 8d3b 1f5a 4fbc 00e8 11be ad8b ff3d
00000330: 05b2 633c 4b71 84bd 4387 36bd 0d50 57bd
00000340: e6be bfbc cc8b c1bd d96f b83b 6276 0e3e
00000350: 3095 103e f0b8 0d3d b20b c73d 3ee1 d03c
00000360: ef6a 0bbe 470d 90bc 6eab babd 0f53 663d
00000370: b733 31bb 3524 c03d c5ad d93c ef75 b43d
00000380: 7c25 a7bb 3925 003d 3a24 ccbd a6f5 4b3c
00000390: adef 203e 56b1 8a3d cdb5 4dbd 6c94 6e3e
000003a0: 0d92 b53b b49f ad3d 09e2 443e e012 0e3d
000003b0: 2317 f53c c57f e83d 283f d8bd c989 91be
000003c0: ee04 a33d 3fd7 5b3e 8aab 69be 6a74 b8bd
000003d0: 02be c4be a796 3d3d 04d3 17be 6f13 b0bd
000003e0: 0505 423e 8755 68bd 7df7 183e 28d5 943e
000003f0: 5dc1 77b8 b04a cf3d 68da 20be 273d 0fbd
-0.049539145 0.051522586 -0.044816125 0.023485536 -0.0040604225 -0.010230171 -0.054779734 -0.07629661
0.012323314 -0.0531308 -0.0915756 0.06606491 0.0728029 -0.07931181 -0.053545475 0.015532595
-0.081297375 -0.014541324 -0.056608036 -0.08352577 -0.044080675 0.03402871 0.012216769 -0.11592854
0.00892493 0.001616822 -0.0053122677 -0.09693029 0.0054632486 0.04094687 -0.10397964 -0.079038225
-0.16564131 -0.09203998 0.02646999 -0.052466746 0.00033955832 -0.026428467 -0.03554494 -0.021378629
-0.04002204 0.009484157 -0.102988854 -0.053446483 -0.017290736 -0.042715654 -0.06303124 -0.10156576
0.03349472 -0.038354408 -0.16982377 -0.076360926 0.0049752365 0.012703815 -0.06818057 0.00992405
-0.02377726 -0.013452436 0.00996097 -0.07088292 -0.12004773 -0.07680504 0.0063423715 0.0064823804
-0.031522293 -0.06573003 -0.087470256 -0.009831121 0.03701468 -0.09313323 -0.045394458 0.04246166
0.07237243 -0.059507776 -0.12084512 0.011569389 -0.033708144 -0.041370828 0.02191917 -0.03725132
-0.020853193 -0.024184994 -0.1195412 -0.019679885 0.010732172 -0.024610957 0.041068837 -0.05894573
-0.09428533 -0.017478192 0.019706953 -0.035263002 -0.06837156 -0.015289524 0.048224356 0.042346083
0.018495774 -0.009887936 -0.054592628 -0.0007841438 -0.07140138 -0.11933533 -0.0018040091 -0.017745158
-0.0006967455 -0.0477298 -0.089068435 -0.02934182 -0.009985506 0.009909959 -0.11210585 0.013434812
-0.14971142 -0.14188987 0.009222316 0.0015422904 -0.088998824 -0.024186132 -0.03887776 -0.082481906
-0.10807153 -0.020604998 -0.10252619 0.058775023 0.014909679 -0.091805235 -0.018305745 -0.025181655
-0.20598893 -0.055935565 0.18650645 0.0150508545 -0.05502508 0.04414655 -0.22017834 0.003257359
-0.1099645 -0.0049704304 -0.12148092 -0.15435645 -0.07464272 0.23667519 0.20458868 0.028890014
0.14925036 0.10183332 0.21745647 0.24660237 -0.056305945 0.08285439 0.08514298 -0.094717845
-0.111291446 0.11189293 -0.09434126 -0.16711839 0.07118721 0.053301204 0.018244553 0.1160301
0.07151918 -0.1360621 -0.033243448 -0.090172626 0.12592271 -0.43929872 -0.13772984 -0.06975543
-0.06038753 -0.1285183 0.03283264 -0.20216054 -0.017498935 0.23225138 0.0507152 -0.05392924
-0.049733754 0.19884065 -0.16567022 0.0356746 -0.0220315 -0.051169407 0.09357645 -0.08792339
0.02893061 0.3073775 0.05132391 0.015216486 0.19878344 0.2447936 0.12933469 0.11350872
-0.02328268 0.12305825 0.062647186 0.14716277 0.10668059 -0.098993294 -0.1989097 0.07058689
0.0043220306 -0.012655764 -0.14248657 0.12477813 0.013897424 -0.064669214 -0.04456259 -0.052566577
-0.023406457 -0.09450492 0.0056285677 0.13912347 0.1411941 0.0346002 0.097190276 0.025498029
-0.1361501 -0.017584456 -0.09114729 0.056231555 -0.002703888 0.09381906 0.026572118 0.088115565
-0.005100904 0.0312855 -0.09967847 0.012448704 0.15716429 0.067721054 -0.050222207 0.23298806
0.0055410923 0.084777266 0.1922685 0.03468597 0.029918259 0.11352495 -0.10558921 -0.28425434
0.07959925 0.21468829 -0.22819343 -0.09006579 -0.38426214 0.04628625 -0.1482659 -0.08597457
0.18947227 -0.05672219 0.1493816 0.29068875 -5.9069473e-05 0.101216674 -0.15708315 -0.03497043

actor_fc_layers.blocks.2.block.1.weight f4 [128]
00000000: 1857 713f 9723 893f f2b9 933f c963 a33f
00000010: 4cb6 b43f 3c20 a83f 387b b33f 2476 9b3f
00000020: 3dc6 b33f d542 6d3f 5fb5 983f 23eb 8d3f
00000030: 233f 8d3f 7398 9e3f 0529 853f 1bb9 963f
00000040: ec98 9a3f 1386 903f 2c60 9e3f 413a 983f
00000050: fd25 8f3f bd91 7a3f 2a72 923f 3feb 923f
00000060: 490c 723f b343 983f 5cc7 993f 596a bb3f
00000070: 768f 843f 1260 9a3f bf22 913f 536b a83f
00000080: be44 a13f 389f 853f 90ab 7f3f 13d0 8c3f
00000090: f17e 903f 375d ce3f cca7 953f 992d 933f
000000a0: 1269 7e3f 35d1 7b3f 35fc 783f 6b33 833f
000000b0: 92f9 9c3f a433 a93f 2b13 b03f b2dd 913f
000000c0: cfe0 8f3f bd12 873f b47d a83f a06c 883f
000000d0: 361f 9d3f 69ca bf3f 61c3 d03f 1736 833f
000000e0: 8114 973f 2043 8a3f 0069 aa3f de24 b63f
000000f0: 0bb9 b33f 1dc4 b03f 84a6 933f 42f4 8a3f
00000100: 6a68 a93f f023 a63f 80aa 903f bcc0 9d3f
00000110: 1fbf 943f 70e7 8d3f ea13 9a3f f447 833f
00000120: 62ba 903f 7469 ac3f 4d65 8c3f 68e0 993f
00000130: c4f1 873f 08a2 923f 1d09 ab3f a93f a23f
00000140: 8fa5 9f3f 019c 8e3f fedf a63f 51ce 9c3f
00000150: af8b c23f 257f 8f3f 8058 963f 1477 a23f
00000160: da4f 9e3f c81d 913f 371d a23f 430b 863f
00000170: d537 8f3f 50a3 9b3f 71ed 903f 8afe 823f
00000180: 72e0 ae3f eb57 853f 55e0 883f 7fd6 913f
00000190: 203f 903f 2ec6 b33f 4657 6c3f f174 973f
000001a0: b5a0 943f a27d b13f d46d 863f 46e5 a33f
000001b0: 4006 a63f b545 ac3f 4b07 b83f 8f51 a33f
000001c0: 2bcb 6d3f a0c4 8d3f 630f 7e3f 9c13 6f3f
000001d0: 8c2b 8d3f 5da1 833f 72bc 923f 2a83 9c3f
000001e0: 6f28 7e3f a86f 943f d59b 8f3f 9427 753f
000001f0: e409 723f 06a8 8d3f 944d 873f 2d1e a23f
0.9427352 1.0713986 1.1541121 1.2764827 1.4118133 1.3134837 1.4021978 1.2145429
1.4044873 0.926801 1.193035 1.1087383 1.1034893 1.2390274 1.0403143 1.177524
1.2077918 1.1290916 1.2373099 1.1892778 1.1183468 0.9787863 1.144109 1.1478041
0.94549996 1.189566 1.2013965 1.464183 1.0356281 1.2060568 1.1338729 1.3157753
1.2599103 1.0439215 0.9987116 1.1000999 1.128874 1.6122197 1.1691833 1.149829
0.99379075 0.983661 0.9725984 1.0250067 1.2263663 1.3218884 1.375585 1.1395781
1.1240481 1.0552593 1.3163362 1.065815 1.227515 1.4983646 1.6309625 1.0250882
1.1803132 1.0801735 1.3313293 1.4230001 1.4040846 1.3809849 1.1535192 1.0855792
1.323499 1.2979717 1.1302032 1.2324443 1.1620826 1.1086254 1.2037327 1.0256333
1.130688 1.3469682 1.0968415 1.2021608 1.0620656 1.1455698 1.3362156 1.2675678
1.24724 1.1141359 1.3037107 1.2250463 1.5198878 1.1210676 1.1745758 1.269259
1.2368119 1.1337214 1.2665166 1.0472187 1.1188914 1.2159214 1.1322461 1.0233929
1.3662245 1.0417455 1.0693461 1.1393584 1.1269264 1.4044855 0.9232067 1.1832563
1.1611544 1.3866465 1.0502267 1.2804344 1.2970657 1.3458773 1.4377226 1.2759265
0.92888135 1.107563 0.9924223 0.93389297 1.1028914 1.0283619 1.1463759 1.2227528
0.99280447 1.1596575 1.1219431 0.95763516 0.9454634 1.1066902 1.057055 1.2665459

actor_fc_layers.blocks.2.block.1.bias f4 [128]
00000000: bb1c 95bd 7cdd 2ebe c9ef 52be 03f6 99bd
00000010: 7c05 223d 2aa8 443d 73fc 933d 3859 cdbb
00000020: 0ff9 88bd e96e b6bd 23d2 4c3d 2db6 17be
00000030: 2729 fabb ab40 b33d 2220 47be d357 0cbb
00000040: 9749 423d 1c8a c7bd e391 92bd 8e29 91be
00000050: 79ff b7bd 4297 7bbe 96b5 013e f2b0 833d
00000060: 78ba 80bd e92e 523d abea b0bd a737 233e
00000070: 5c4d d6bc 162a 9e3c f486 1ebe 4685 d23d
00000080: 375c a53d 7e10 963c c886 20bd f2b1 ca3b
00000090: e8ac ecbd 05f4 5f3e 2e8c 653e 69af 1e3c
000000a0: dbda 95bd ec80 45bc 1b7f ffb9 1f90 2ebc
000000b0: a6f1 873d 9304 05bb e13b b43c 9486 2dbd
000000c0: fefe 91bd fa53 ddbd dd04 243e bb86 dcbd
000000d0: 0367 c6bb 2850 263e c357 543e 212d 67bd
000000e0: a4f0 45be 7d4c 98bc 4aa9 063e 571a e73d
000000f0: 0a2e 833d a851 f93d e08a 113d 79c7 88bd
00000100: 6148 40be 01ec a4bd 0354 ae39 3158 1e3e
00000110: 8317 75bd a99d 3abe 77fc 46be 2c52 7a3d
00000120: fa22 00be 1518 07bc 06bb 21be f0b0 6c3d
00000130: 8e24 80bd 6f52 f7bc 6876 103d 5869 0abe
00000140: 821f 6bbe 67e9 d43c ed6c a0bb 9849 043e
00000150: 3cac 483e 39ef 3dbd 8f93 cdbd 2310 2dbc
00000160: 3d56 aabd 948e 20bc b253 1cbb 8d59 81be
00000170: 2d84 d8bd 5fc5 a5bd c04c 19be 5dd0 cbbd
00000180: db49 56bb c8b1 58bd 72ff 21be 2f9d 2cbe
00000190: 732f 4bbc 5540 333e 5d80 50bc c3b0 c6bd
000001a0: 8d63 09be d822 533e c8f2 ec3b 3053 bbbd
000001b0: 1060 1ebd 4afd d6bd 2921 0d3e 164a d33c
000001c0: fad5 363d 6c10 4dbe 770a 14be f26d 8ebd
000001d0: fe8f b0bd caea bdbd 2b38 e3bd 6bfc 3bbc
000001e0: d436 cdbd 2609 853c 33bb 84bd 9d91 34be
000001f0: f3fb a5bd ca39 963c d7d0 8dbb 6388 253e
-0.072808705 -0.17076677 -0.20599283 -0.07517626 0.03955601 0.048011936 0.07225885 -0.006266739
-0.06688129 -0.08907873 0.05000509 -0.14815588 -0.0076343003 0.08752569 -0.19445851 -0.0021414652
0.047433462 -0.09743139 -0.07156732 -0.28352016 -0.089842744 -0.24569419 0.12666926 0.06430234
-0.06285566 0.05131427 -0.08638509 0.15939198 -0.026159935 0.019307178 -0.15481168 0.10279326
0.08074229 0.018318411 -0.039191037 0.0061857635 -0.11556417 0.2187043 0.22416756 0.009685376
-0.07317134 -0.012054663 -0.0004873209 -0.010654478 0.06637888 -0.0020296916 0.022001209 -0.04236467
-0.07128714 -0.10807033 0.1601748 -0.10767885 -0.0060547604 0.16241515 0.20736603 -0.056439523
-0.19330078 -0.01859116 0.13150516 0.11284321 0.06405266 0.12173778 0.035532832 -0.066786714
-0.1877761 -0.08052827 0.0003325046 0.1546333 -0.059836876 -0.18224205 -0.19432245 0.06111352
-0.12513342 -0.008245488 -0.15794 0.05778593 -0.06256972 -0.030190675 0.03526917 -0.13516748
-0.22961238 0.025990201 -0.0048957975 0.12918699 0.19596952 -0.04637072 -0.1003791 -0.010562929
-0.0831723 -0.009799618 -0.0023853597 -0.25263634 -0.105720855 -0.08094286 -0.14970684 -0.099518515
-0.003269783 -0.05290392 -0.15820101 -0.16856836 -0.0124014495 0.1750501 -0.012725917 -0.09701683
-0.13416882 0.2061876 0.00723109 -0.09146726 -0.03866583 -0.1049753 0.13782181 0.025792163
0.044637658 -0.20025796 -0.14457117 -0.06954564 -0.08621214 -0.09273298 -0.110946976 -0.011473755
-0.10020223 0.016239714 -0.06481018 -0.17633672 -0.08104696 0.018338103 -0.004327874 0.16165309

actor_fc_layers.blocks.2.block.1.running_mean f4 [128]
00000000: 0000 0000 0000 0000 0000 0000 0000 0000
00000010: 0000 0000 0000 0000 0000 0000 0000 0000
00000020: 0000 0000 0000 0000 0000 0000 0000 0000
00000030: 0000 0000 0000 0000 0000 0000 0000 0000
00000040: 0000 0000 0000 0000 0000 0000 0000 0000
00000050: 0000 0000 0000 0000 0000 0000 0000 0000
00000060: 0000 0000 0000 0000 0000 0000 0000 0000
00000070: 0000 0000 0000 0000 0000 0000 0000 0000
00000080: 0000 0000 0000 0000 0000 0000 0000 0000
00000090: 0000 0000 0000 0000 0000 0000 0000 0000
000000a0: 0000 0000 0000 0000 0000 0000 0000 0000
000000b0: 0000 0000 0000 0000 0000 0000 0000 0000
000000c0: 0000 0000 0000 0000 0000 0000 0000 0000
000000d0: 0000 0000 0000 0000 0000 0000 0000 0000
000000e0: 0000 0000 0000 0000 0000 0000 0000 0000
000000f0: 0000 0000 0000 0000 0000 0000 0000 0000
00000100: 0000 0000 0000 0000 0000 0000 0000 0000
00000110: 0000 0000 0000 0000 0000 0000 0000 0000
00000120: 0000 0000 0000 0000 0000 0000 0000 0000
00000130: 0000 0000 0000 0000 0000 0000 0000 0000
00000140: 0000 0000 0000 0000 0000 0000 0000 0000
00000150: 0000 0000 0000 0000 0000 0000 0000 0000
00000160: 0000 0000 0000 0000 0000 0000 0000 0000
00000170: 0000 0000 0000 0000 0000 0000 0000 0000
00000180: 0000 0000 0000 0000 0000 0000 0000 0000
00000190: 0000 0000 0000 0000 0000 0000 0000 0000
000001a0: 0000 0000 0000 0000 0000 0000 0000 0000
000001b0: 0000 0000 0000 0000 0000 0000 0000 0000
000001c0: 0000 0000 0000 0000 0000 0000 0000 0000
000001d0: 0000 0000 0000 0000 0000 0000 0000 0000
000001e0: 0000 0000 0000 0000 0000 0000 0000 0000
000001f0: 0000 0000 0000 0000 0000 0000 0000 0000
0.0 0.0 0.0 0.0 0.0 0.0 0.0 0.0
0.0 0.0 0.0 0.0 0.0 0.0 0.0 0.0
0.0 0.0 0.0 0.0 0.0 0.0 0.0 0.0
0.0 0.0 0.0 0.0 0.0 0.0 0.0 0.0
0.0 0.0 0.0 0.0 0.0 0.0 0.0 0.0
0.0 0.0 0.0 0.0 0.0 0.0 0.0 0.0
0.0 0.0 0.0 0.0 0.0 0.0 0.0 0.0
0.0 0.0 0.0 0.0 0.0 0.0 0.0 0.0
0.0 0.0 0.0 0.0 0.0 0.0 0.0 0.0
0.0 0.0 0.0 0.0 0.0 0.0 0.0 0.0
0.0 0.0 0.0 0.0 0.0 0.0 0.0 0.0
0.0 0.0 0.0 0.0 0.0 0.0 0.0 0.0
0.0 0.0 0.0 0.0 0.0 0.0 0.0 0.0
0.0 0.0 0.0 0.0 0.0 0.0 0.0 0.0
0.0 0.0 0.0 0.0 0.0 0.0 0.0 0.0
0.0 0.0 0.0 0.0 0.0 0.0 0.0 0.0

actor_fc_layers.blocks.2.block.1.running_var f4 [128]
00000000: 0000 803f 0000 803f 0000 803f 0000 803f
00000010: 0000 803f 0000 803f 0000 803f 0000 803f
00000020: 0000 803f 0000 803f 0000 803f 0000 803f
00000030: 0000 803f 0000 803f 0000 803f 0000 803f
00000040: 0000 803f 0000 803f 0000 803f 0000 803f
00000050: 0000 803f 0000 803f 0000 803f 0000 803f
00000060: 0000 803f 0000 803f 0000 803f 0000 803f
00000070: 0000 803f 0000 803f 0000 803f 0000 803f
00000080: 0000 803f 0000 803f 0000 803f 0000 803f
00000090: 0000 803f 0000 803f 0000 803f 0000 803f
000000a0: 0000 803f 0000 803f 0000 803f 0000 803f
000000b0: 0000 803f 0000 803f 0000 803f 0000 803f
000000c0: 0000 803f 0000 803f 0000 803f 0000 803f
000000d0: 0000 803f 0000 803f 0000 803f 0000 803f
000000e0: 0000 803f 0000 803f 0000 803f 0000 803f
000000f0: 0000 803f 0000 803f 0000 803f 0000 803f
00000100: 0000 803f 0000 803f 0000 803f 0000 803f
00000110: 0000 803f 0000 803f 0000 803f 0000 803f
00000120: 0000 803f 0000 803f 0000 803f 0000 803f
00000130: 0000 803f 0000 803f 0000 803f 0000 803f
00000140: 0000 803f 0000 803f 0000 803f 0000 803f
00000150: 0000 803f 0000 803f 0000 803f 0000 803f
00000160: 0000 803f 0000 803f 0000 803f 0000 803f
00000170: 0000 803f 0000 803f 0000 803f 0000 803f
00000180: 0000 803f 0000 803f 0000 803f 0000 803f
00000190: 0000 803f 0000 803f 0000 803f 0000 803f
000001a0: 0000 803f 0000 803f 0000 803f 0000 803f
000001b0: 0000 803f 0000 803f 0000 803f 0000 803f
000001c0: 0000 803f 0000 803f 0000 803f 0000 803f
000001d0: 0000 803f 0000 803f 0000 803f 0000 803f
000001e0: 0000 803f 0000 803f 0000 803f 0000 803f
000001f0: 0000 803f 0000 803f 0000 803f 0000 803f
1.0 1.0 1.0 1.0 1.0 1.0 1.0 1.0
1.0 1.0 1.0 1.0 1.0 1.0 1.0 1.0
1.0 1.0 1.0 1.0 1.0 1.0 1.0 1.0
1.0 1.0 1.0 1.0 1.0 1.0 1.0 1.0
1.0 1.0 1.0 1.0 1.0 1.0 1.0 1.0
1.0 1.0 1.0 1.0 1.0 1.0 1.0 1.0
1.0 1.0 1.0 1.0 1.0 1.0 1.0 1.0
1.0 1.0 1.0 1.0 1.0 1.0 1.0 1.0
1.0 1.0 1.0 1.0 1.0 1.0 1.0 1.0
1.0 1.0 1.0 1.0 1.0 1.0 1.0 1.0
1.0 1.0 1.0 1.0 1.0 1.0 1.0 1.0
1.0 1.0 1.0 1.0 1.0 1.0 1.0 1.0
1.0 1.0 1.0 1.0 1.0 1.0 1.0 1.0
1.0 1.0 1.0 1.0 1.0 1.0 1.0 1.0
1.0 1.0 1.0 1.0 1.0 1.0 1.0 1.0
1.0 1.0 1.0 1.0 1.0 1.0 1.0 1.0
