saved_models/agent_maddpgv2_vs_opp_maddpgv2_3_vs_3_1_big_5_sec_adver_best_models/maddpgv2_target_actor_0.pt (torch, 165899 bytes, 21 tensors)

actor_fc_layers.blocks.0.block.0.weight f4 [128, 32]
00000000: 50c7 a5bd 1df4 81bd 37f4 07be 388e 7fbe
00000010: 6d3f 263d 9a83 8dbe 7c77 113e a197 2c3e
00000020: 10c8 2bbe dbb1 d4bd c316 4bbe 54aa 433e
00000030: 6a63 b43e c7af f93d c407 fb3d 91b0 0cbe
00000040: 5cd9 9dbd 7ee4 70bd c127 57bd 1dc5 363e
00000050: 1589 273e afa5 65be 763f 803e df33 24be
00000060: 6d63 58bc 1fbf 293d 3993 1dbe 7156 083e
00000070: 66c9 b93e 6335 c1be ab63 97bd 16d3 3bbe
00000080: ba08 1ebf ef16 553e ff38 b0be 6be3 ef3e
00000090: 4595 b2bd ab41 9c3a 7d69 153e bdec d4ba
000000a0: de4d 173e da6d 363d d2a3 c83b 61b5 20be
000000b0: 0c96 b4bd e171 a43d 53cb 223c def6 773d
000000c0: d31b ffbd 01d1 debd ddc8 f8bd 9053 113e
000000d0: 64cd 8b3d 4879 dcbc 8341 883c 490d 913d
000000e0: 1357 86be 97ea 15be f41b 2ebd 8339 4fbc
000000f0: f796 ae3c f988 6f3d 4fca d33d 5043 523e
00000100: 53aa e93d 02af 75bd bb6a a1bd b2a8 8ebe
00000110: 59b5 de3e 5725 ae3d 1345 1cbd f9fe 1dbe
00000120: e172 fd3d f536 34be 9479 5d3e 105f ccbb
00000130: 4f61 ab3c 463e 743d bbd4 07bd 1285 923d
00000140: 9079 05bf 4122 b93b e0de 2e3e 51ec 18bc
00000150: 7fa2 3d3e 1ff8 643e f05b 3b3c a67e 293e
00000160: faeb 92be d01f ac3e 1aa2 6c3d 292c 423e
00000170: d139 15be 714a 753e 51b7 9abd 0844 ed3c
00000180: becb edbd a312 1abe 1985 40be d09a 333d
00000190: 70fa 3a3e cc4c 813e 74e6 d63d c8f8 fabb
000001a0: a372 1bbe 8fcb 3ebe c7f6 9e3d 6f98 87bd
000001b0: 11aa dbbc c510 0dbd cf93 923d 14a4 abbd
000001c0: 90e6 573e 0aee b23e 6d3b 513d 3186 d23d
000001d0: 4cde 853e 507d ecbd 0ebc 3b3d f996 7ebe
000001e0: ad21 08be e5f4 fc3d b47c 173e ca65 6dbc
000001f0: ebfd 9b3e 5cd9 e4bc a736 df3c 0a74 febd
00000200: bb40 f9bb 0c60 8f3d 17d9 d0be 06d9 183e
00000210: ca47 b33d ded5 89be 6a77 2e3e 711b 68bd
00000220: cd3c 293e 6e1c 0cbd 9862 083e 8779 f9bd
00000230: 8613 323e af6e 813d 18e5 8c3d 2355 883e
00000240: 3e5a c1bd 3baa 0abd 4c7c 463e 57d8 94be
00000250: 15dc 7b3e 1f41 29be ab40 613e 18e2 bf3c
00000260: 209d a23e b7a2 783e 3f0b ecbd 7bc0 81bb
00000270: f2fb 5d3b 4cd9 733e 3f73 cabe 0ab8 e1bd
00000280: ad6b 1ebe 832d 30bc 70c5 89be d939 6b3e
00000290: 1a92 7b3d 46df edbe 0930 2e3c 34b2 993c
000002a0: 035c 13bd 165f 44bd af15 51bb 2265 8bbd
000002b0: d751 eabd a33c 133e dabe b43d 7c29 8cbe
000002c0: c128 1e3e 7db6 4dbe cdb5 52bd 2ebf 7a3d
000002d0: 9a85 753e 51ce 66be 2894 bb3c de0a 4ebd
000002e0: 2496 8d3d db1c 7fbe fe07 b53e 0ebf b9bd
000002f0: f576 2a3d 77ff a53e 4f0f 9dbe 6184 57be
00000300: 92f6 b3bd 3ad2 9e3d ce07 1fbf 67be 86bd
00000310: b0d8 9abe 4bc6 2dbe ce6f 8abd 3a08 b83b
00000320: 04de 203e f669 013e c022 803d 4875 51bd
00000330: 2b26 e7bd 31cd a7be 8a8c 0d3d 5923 7c3e
00000340: 98f3 45be cb20 b9be 5937 adbd 4233 c4bd
00000350: a144 9fbe 2a0d 133e ae9b 1fbe 40c6 f63a
00000360: 07e9 5e3e 6606 99be df45 ed3d 128a 58be
00000370: f3b5 583e 2675 823d 64bf 433d 4ebf 14be
00000380: 3cf7 7f3d 23b7 373e 803f 6b3c 3ce0 293e
00000390: 99db 0abe df7b 653b 5ee3 c23d 8c2f 9dbc
000003a0: 89ae e1bd 8d5d f5bd 8119 62bd 6120 473e
000003b0: 4a1e 93bc 1e96 d8be d5fe e3bd d4d6 96bd
000003c0: 47ce 2639 b40a 06bb 62f7 6ebe 0f8f 0f3f
000003d0: 219f 6fbe e29b 0d3e 0d1a 6a3e 0124 013e
000003e0: 9932 babe 395a f0bd d1dd 863e 7d29 00be
000003f0: 4909 083e 5f56 56bd 1c86 9fbd 5870 873d
-0.080946565 -0.06345389 -0.13276754 -0.24956596 0.04058783 -0.27639467 0.14205736 0.16854717
-0.16775537 -0.10385486 -0.19832902 0.19107944 0.35232097 0.1219173 0.122573406 -0.1373923
-0.07707474 -0.058811657 -0.052528147 0.1784863 0.16360886 -0.22426485 0.25048417 -0.16035412
-0.013207299 0.041442033 -0.15388192 0.13314225 0.36286467 -0.37736043 -0.07392057 -0.18342242
-0.61732066 0.2080953 -0.34418485 0.46853194 -0.08719877 0.0011921426 0.14591022 -0.001624487
0.14775798 0.044538356 0.0061230445 -0.1569419 -0.08817682 0.08029533 0.009936172 0.060538165
-0.12456479 -0.10879708 -0.12147687 0.14192033 0.068262845 -0.0269133 0.0166328 0.07082612
-0.26238307 -0.1464027 -0.042507127 -0.012647989 0.02131222 0.058480237 0.10341322 0.2053349
0.1140944 -0.059981354 -0.07881685 -0.2786308 0.43497732 0.08503216 -0.03815181 -0.15429296
0.12375427 -0.1759909 0.2162841 -0.0062369183 0.020920424 0.0596297 -0.03316186 0.071542874
-0.52138615 0.0056498353 0.17077208 -0.009333686 0.18519019 0.22360276 0.011435494 0.16552219
-0.2869566 0.3361802 0.05777178 0.18962158 -0.14572836 0.23954178 -0.07554496 0.028963104
-0.11611126 -0.15046172 -0.18800773 0.043848813 0.18259597 0.25253904 0.10493174 -0.0076590516
-0.15180449 -0.18632339 0.07761913 -0.06620871 -0.026814492 -0.03443982 0.071570985 -0.08380905
0.21084046 0.34947234 0.051082063 0.10279501 0.26146162 -0.11547339 0.04583364 -0.24862279
-0.13294096 0.123513974 0.14793664 -0.0144896 0.30467162 -0.027935676 0.02724774 -0.124244764
-0.0076065934 0.07000741 -0.40790626 0.14926538 0.08753927 -0.2692098 0.1703774 -0.056666795
0.165271 -0.0342068 0.1331886 -0.121813826 0.1739026 0.06319939 0.06879634 0.26627454
-0.094410405 -0.03385375 0.19383353 -0.29071304 0.24595673 -0.16528748 0.21997325 0.02342324
0.31760502 0.24280821 -0.115255825 -0.003959713 0.0033872095 0.23813361 -0.3954105 -0.11021431
-0.15470763 -0.010753038 -0.26908445 0.22971286 0.06141863 -0.46459407 0.01063157 0.018761732
-0.03597642 -0.047942244 -0.0031903794 -0.06806399 -0.11441391 0.143786 0.088254645 -0.273754
0.15445234 -0.20089145 -0.05144291 0.06121748 0.23976746 -0.22539641 0.022897795 -0.050303333
0.06913403 -0.24913351 0.3535766 -0.09069644 0.041617353 0.32421467 -0.30675742 -0.21046592
-0.08787264 0.07754941 -0.62121284 -0.06579285 -0.30243444 -0.16970174 -0.06759606 0.005616215
0.15709692 0.12638077 0.06256628 -0.05113724 -0.11286577 -0.32773736 0.034557857 0.24622859
-0.19331205 -0.36157832 -0.08457822 -0.09580089 -0.31107047 0.1436049 -0.15586731 0.0018827394
0.2176858 -0.29887694 0.115855925 -0.2114642 0.21163158 0.063700005 0.047789946 -0.14526102
0.06249164 0.17940955 0.014358401 0.16589445 -0.13560332 0.003501646 0.09516023 -0.019187711
-0.11019618 -0.11980734 -0.055200104 0.19445945 -0.017958779 -0.4230203 -0.1113259 -0.07365194
0.00015907838 -0.0020453157 -0.23336557 0.56077665 -0.23400547 0.13828996 0.228615 0.1261139
-0.36366728 -0.117359586 0.26341107 -0.12515827 0.13284792 -0.052328464 -0.07789251 0.06613225

actor_fc_layers.blocks.0.block.1.weight f4 [128]
00000000: 4346 923f 71c1 cb3f 5304 7b3f d1a0 9e3f
00000010: 45ca 853f b376 8d3f 04e8 993f ae01 8a3f
00000020: bbb0 b23f 06b9 993f 0f09 953f 1c75 9a3f
00000030: d396 933f 4a49 9f3f c34f 863f 4819 a83f
00000040: 4091 943f b523 a03f c431 ae3f f060 743f
00000050: db32 7c3f 23ae 9f3f 5eaa a43f 5f7b 623f
00000060: dfe1 983f 985c 663f 461c 8a3f 0517 8d3f
00000070: 11ce 823f 4005 983f e04c 8a3f dbb3 883f
00000080: 4563 7f3f 31f6 8d3f 52d0 8c3f 31f0 873f
00000090: cadb 7f3f a6aa 943f 4fdc 983f 837b 9a3f
000000a0: 6da3 873f 76a2 9f3f e3f2 963f 758a 933f
000000b0: 0d25 813f 98c1 9d3f 888d 993f ad30 8d3f
000000c0: d87e a63f affd 9b3f eb29 9a3f cae6 8e3f
000000d0: 7837 923f c5a6 b43f 4ae0 803f b104 a23f
000000e0: 5efb 9a3f ee03 683f 5366 8f3f b686 a23f
000000f0: b33a 9a3f f3d0 953f 0ed3 673f b5dd 753f
00000100: 73bb 7c3f e0c8 9c3f 8b46 8f3f ed57 b93f
00000110: 2300 8b3f 0ea4 a13f 9011 763f 4cd9 cb3f
00000120: 2fff 923f 8428 a43f 7db9 8d3f e9d3 753f
00000130: 0d88 a13f 1e83 9e3f ca6b a63f d36c 853f
00000140: 14f7 8a3f dd58 a13f c15b 823f cf03 973f
00000150: 35c6 963f f17c 913f 34a1 763f 2b4f 803f
00000160: 4749 993f 991c 8d3f 0f0d 993f d634 983f
00000170: 686c b73f fab3 993f eddd 7f3f 1991 8e3f
00000180: 445b 923f 9ac3 993f 25be 833f b415 943f
00000190: 4ff5 a33f 15a0 873f 03e9 683f 285f ad3f
000001a0: 578c 8a3f 189a 903f 8cad a23f 891d 8f3f
000001b0: 3c34 973f 9657 a13f 6bf3 8d3f a934 903f
000001c0: 3828 953f 9f35 963f 4fe4 8b3f e488 853f
000001d0: ce67 873f b0ad 7b3f 2c28 a73f 6ee7 9d3f
000001e0: cb64 b93f 6d64 8d3f b239 943f 1153 7d3f
000001f0: cafb 943f d78c 853f 98d6 913f 5bdc a73f
1.1427692 1.5918409 0.98053473 1.2392827 1.0452353 1.1051849 1.202393 1.0781763
1.3960184 1.200959 1.164339 1.2066989 1.1530403 1.2444241 1.0493091 1.3132715
1.1606827 1.2510897 1.3608937 0.95460415 0.985151 1.2475017 1.2864492 0.884695
1.194393 0.89985037 1.0789878 1.102265 1.0219136 1.1876602 1.080471 1.0679888
0.9976085 1.1090757 1.1001074 1.0620176 0.99944746 1.1614578 1.1942233 1.2068943
1.0596749 1.2471454 1.1792873 1.1526629 1.0089432 1.2324705 1.1996317 1.103048
1.300746 1.2186793 1.2044042 1.1164181 1.1423178 1.4113394 1.0068448 1.2657682
1.2107961 0.90630996 1.1203102 1.269736 1.2049164 1.1704391 0.9055642 0.96041423
0.98723525 1.2248802 1.1193403 1.4479958 1.0859417 1.262819 0.9612055 1.5925689
1.1484126 1.2824864 1.1072232 0.96026474 1.2619644 1.2383764 1.3001645 1.0423836
1.0856652 1.2605244 1.0184251 1.1798037 1.1779238 1.1366254 0.96339726 1.002416
1.1975487 1.1024352 1.195711 1.1891124 1.4329958 1.200805 0.99948007 1.113803
1.1434102 1.2012818 1.0292403 1.1569123 1.2809237 1.0595728 0.9098055 1.3544664
1.0824078 1.1297026 1.2709212 1.1180888 1.1812816 1.2604854 1.108991 1.1266071
1.1652899 1.1735114 1.0929049 1.0432401 1.0578554 0.983119 1.3059134 1.2336252
1.4483885 1.1046273 1.1580107 0.98954874 1.163934 1.0433606 1.1393614 1.3114122

actor_fc_layers.blocks.0.block.1.bias f4 [128]
00000000: 30b8 5dbd 2db4 363e 2fbf f6bd 688d b1bd
00000010: ad2a 50bd 2b3d a5bd 0d47 22bc fbf6 ff3d
00000020: f117 5f3e f200 9e3d 3ea3 6bbd e0db 0c3e
00000030: 72c8 2bbd 7cb1 773d c627 77be a945 203e
00000040: 868d 9fbc d188 d1bd 3ac6 4d3d 763e 72be
00000050: 97ac 09bd af1c d03d e575 c33b e262 2dbe
00000060: fa65 27be 61e8 83be 629c 3a3d 46c2 b6bc
00000070: aac3 4ebd 50f5 c5bd e2b3 2e3c f5bf 5d3c
00000080: d82f 49bd 369f 0ebd c193 033c 392a 9fbd
00000090: be9d 06be de4d 55bd 37d7 a0bd 6f63 d6bd
000000a0: 888b 4fbe 88af 1f3d 813c 1a3a f98f d93d
000000b0: 9df1 e6bd 3b58 8dbd b573 443e b808 a2bd
000000c0: 657b 463d f393 67be ffee 65bd 0d57 e23c
000000d0: ae08 01be 2014 ed3c 4c6d 3abe 7c97 3abc
000000e0: 79e0 323e db0f 7d3c 343d eb3d 9a67 e5bd
000000f0: 214a c2bb 0196 d03c 0a44 37be 782f a1be
00000100: dc21 28be b341 77bd 6b49 6f3d 1318 673d
00000110: fedc 5abd 8e64 ae3d 2d5b 43be ca8b 473d
00000120: a2e6 29be e1bb bbbc 6fa5 bdbc e89d 2dbe
00000130: 631c 01bd 75b4 533e 9e64 293c a4a3 bfbd
00000140: 9ec6 3fbe b9d3 193e 3f2c a2bd 49f0 21bd
00000150: 91d9 3b3e 3c29 1fbd 5524 31be 4c6c 2fbe
00000160: c250 973d d0aa b83d fdf3 bd3d b131 38bd
00000170: 5cc6 973c d922 eebd 653f 86bd 5763 eb3d
00000180: b03e 1dbd a00b 00be 3211 ecbd 00a7 d23d
00000190: 93dd 933d 82e8 93bd 1bdb 95be f20c 1a3e
000001a0: cae1 a43d 8fd6 5a3c eb8e 193e 6623 5dbc
000001b0: eed1 17be 55bb 353e cc36 a73d 6edc c3bd
000001c0: 67f7 c53c ab17 21bd 847b 5d3c f379 4fbe
000001d0: a21b 07be ac79 263e c28e 003e 232c d3bb
000001e0: f179 123d 296c 6c3d 01f1 36bd fa20 223c
000001f0: a086 383e c9ce e1bd c13e bc3d 0224 f53d
-0.054130733 0.17842169 -0.12048184 -0.08669549 -0.05082195 -0.080683075 -0.009904635 0.1249828
0.21786477 0.07715024 -0.057528727 0.1375575 -0.041939206 0.060471997 -0.24136266 0.15651573
-0.019476663 -0.10231174 0.05023787 -0.2365664 -0.03361186 0.10161721 0.005964982 -0.16932252
-0.16347495 -0.2576323 0.045559295 -0.022309434 -0.05047957 -0.0966593 0.010663005 0.013534536
-0.049117893 -0.034819804 0.008030833 -0.07771725 -0.13146111 -0.052076213 -0.07853549 -0.10468184
-0.2026807 0.03898576 0.00058836496 0.10623164 -0.11276553 -0.06901594 0.19184764 -0.07911819
0.048457522 -0.22615032 -0.056136128 0.0276294 -0.12600967 0.02894026 -0.18205756 -0.011388656
0.17468442 0.015445675 0.11486283 -0.11201401 -0.005929247 0.025462152 -0.17897049 -0.31481528
-0.16419166 -0.06036539 0.058419626 0.056419443 -0.05343341 0.08515273 -0.1907775 0.048717298
-0.16591886 -0.022916736 -0.023150174 -0.16954768 -0.031521212 0.20674308 0.01033893 -0.09357384
-0.1872811 0.15022172 -0.079185955 -0.039535794 0.18344714 -0.038857684 -0.17299016 -0.17131156
0.0738845 0.09016955 0.09275053 -0.044969264 0.018527202 -0.116277404 -0.0655506 0.11493557
-0.03838986 -0.12504435 -0.11526717 0.10285759 0.07219996 -0.07222082 -0.29268727 0.15044
0.08050878 0.013356819 0.14995925 -0.013497209 -0.14826176 0.17747243 0.081647485 -0.09563528
0.024165822 -0.039329212 0.013518218 -0.20261364 -0.13194135 0.16257352 0.12554458 -0.0064444705
0.035760824 0.057720337 -0.044663433 0.009895558 0.18020105 -0.11025769 0.09191657 0.119697586

actor_fc_layers.blocks.0.block.1.running_mean f4 [128]
00000000: 0000 0000 0000 0000 0000 0000 0000 0000
00000010: 0000 0000 0000 0000 0000 0000 0000 0000
00000020: 0000 0000 0000 0000 0000 0000 0000 0000
00000030: 0000 0000 0000 0000 0000 0000 0000 0000
00000040: 0000 0000 0000 0000 0000 0000 0000 0000
00000050: 0000 0000 0000 0000 0000 0000 0000 0000
00000060: 0000 0000 0000 0000 0000 0000 0000 0000
00000070: 0000 0000 0000 0000 0000 0000 0000 0000
00000080: 0000 0000 0000 0000 0000 0000 0000 0000
00000090: 0000 0000 0000 0000 0000 0000 0000 0000
000000a0: 0000 0000 0000 0000 0000 0000 0000 0000
000000b0: 0000 0000 0000 0000 0000 0000 0000 0000
000000c0: 0000 0000 0000 0000 0000 0000 0000 0000
000000d0: 0000 0000 0000 0000 0000 0000 0000 0000
000000e0: 0000 0000 0000 0000 0000 0000 0000 0000
000000f0: 0000 0000 0000 0000 0000 0000 0000 0000
00000100: 0000 0000 0000 0000 0000 0000 0000 0000
00000110: 0000 0000 0000 0000 0000 0000 0000 0000
00000120: 0000 0000 0000 0000 0000 0000 0000 0000
00000130: 0000 0000 0000 0000 0000 0000 0000 0000
00000140: 0000 0000 0000 0000 0000 0000 0000 0000
00000150: 0000 0000 0000 0000 0000 0000 0000 0000
00000160: 0000 0000 0000 0000 0000 0000 0000 0000
00000170: 0000 0000 0000 0000 0000 0000 0000 0000
00000180: 0000 0000 0000 0000 0000 0000 0000 0000
00000190: 0000 0000 0000 0000 0000 0000 0000 0000
000001a0: 0000 0000 0000 0000 0000 0000 0000 0000
000001b0: 0000 0000 0000 0000 0000 0000 0000 0000
000001c0: 0000 0000 0000 0000 0000 0000 0000 0000
000001d0: 0000 0000 0000 0000 0000 0000 0000 0000
000001e0: 0000 0000 0000 0000 0000 0000 0000 0000
000001f0: 0000 0000 0000 0000 0000 0000 0000 0000
0.0 0.0 0.0 0.0 0.0 0.0 0.0 0.0
0.0 0.0 0.0 0.0 0.0 0.0 0.0 0.0
0.0 0.0 0.0 0.0 0.0 0.0 0.0 0.0
0.0 0.0 0.0 0.0 0.0 0.0 0.0 0.0
0.0 0.0 0.0 0.0 0.0 0.0 0.0 0.0
0.0 0.0 0.0 0.0 0.0 0.0 0.0 0.0
0.0 0.0 0.0 0.0 0.0 0.0 0.0 0.0
0.0 0.0 0.0 0.0 0.0 0.0 0.0 0.0
0.0 0.0 0.0 0.0 0.0 0.0 0.0 0.0
0.0 0.0 0.0 0.0 0.0 0.0 0.0 0.0
0.0 0.0 0.0 0.0 0.0 0.0 0.0 0.0
0.0 0.0 0.0 0.0 0.0 0.0 0.0 0.0
0.0 0.0 0.0 0.0 0.0 0.0 0.0 0.0
0.0 0.0 0.0 0.0 0.0 0.0 0.0 0.0
0.0 0.0 0.0 0.0 0.0 0.0 0.0 0.0
0.0 0.0 0.0 0.0 0.0 0.0 0.0 0.0

actor_fc_layers.blocks.0.block.1.running_var f4 [128]
00000000: 0000 803f 0000 803f 0000 803f 0000 803f
00000010: 0000 803f 0000 803f 0000 803f 0000 803f
00000020: 0000 803f 0000 803f 0000 803f 0000 803f
00000030: 0000 803f 0000 803f 0000 803f 0000 803f
00000040: 0000 803f 0000 803f 0000 803f 0000 803f
00000050: 0000 803f 0000 803f 0000 803f 0000 803f
00000060: 0000 803f 0000 803f 0000 803f 0000 803f
00000070: 0000 803f 0000 803f 0000 803f 0000 803f
00000080: 0000 803f 0000 803f 0000 803f 0000 803f
00000090: 0000 803f 0000 803f 0000 803f 0000 803f
000000a0: 0000 803f 0000 803f 0000 803f 0000 803f
000000b0: 0000 803f 0000 803f 0000 803f 0000 803f
000000c0: 0000 803f 0000 803f 0000 803f 0000 803f
000000d0: 0000 803f 0000 803f 0000 803f 0000 803f
000000e0: 0000 803f 0000 803f 0000 803f 0000 803f
000000f0: 0000 803f 0000 803f 0000 803f 0000 803f
00000100: 0000 803f 0000 803f 0000 803f 0000 803f
00000110: 0000 803f 0000 803f 0000 803f 0000 803f
00000120: 0000 803f 0000 803f 0000 803f 0000 803f
00000130: 0000 803f 0000 803f 0000 803f 0000 803f
00000140: 0000 803f 0000 803f 0000 803f 0000 803f
00000150: 0000 803f 0000 803f 0000 803f 0000 803f
00000160: 0000 803f 0000 803f 0000 803f 0000 803f
00000170: 0000 803f 0000 803f 0000 803f 0000 803f
00000180: 0000 803f 0000 803f 0000 803f 0000 803f
00000190: 0000 803f 0000 803f 0000 803f 0000 803f
000001a0: 0000 803f 0000 803f 0000 803f 0000 803f
000001b0: 0000 803f 0000 803f 0000 803f 0000 803f
000001c0: 0000 803f 0000 803f 0000 803f 0000 803f
000001d0: 0000 803f 0000 803f 0000 803f 0000 803f
000001e0: 0000 803f 0000 803f 0000 803f 0000 803f
000001f0: 0000 803f 0000 803f 0000 803f 0000 803f
1.0 1.0 1.0 1.0 1.0 1.0 1.0 1.0
1.0 1.0 1.0 1.0 1.0 1.0 1.0 1.0
1.0 1.0 1.0 1.0 1.0 1.0 1.0 1.0
1.0 1.0 1.0 1.0 1.0 1.0 1.0 1.0
1.0 1.0 1.0 1.0 1.0 1.0 1.0 1.0
1.0 1.0 1.0 1.0 1.0 1.0 1.0 1.0
1.0 1.0 1.0 1.0 1.0 1.0 1.0 1.0
1.0 1.0 1.0 1.0 1.0 1.0 1.0 1.0
1.0 1.0 1.0 1.0 1.0 1.0 1.0 1.0
1.0 1.0 1.0 1.0 1.0 1.0 1.0 1.0
1.0 1.0 1.0 1.0 1.0 1.0 1.0 1.0
1.0 1.0 1.0 1.0 1.0 1.0 1.0 1.0
1.0 1.0 1.0 1.0 1.0 1.0 1.0 1.0
1.0 1.0 1.0 1.0 1.0 1.0 1.0 1.0
1.0 1.0 1.0 1.0 1.0 1.0 1.0 1.0
1.0 1.0 1.0 1.0 1.0 1.0 1.0 1.0

actor_fc_layers.blocks.1.block.0.weight f4 [128, 128]
00000000: ba14 1dbd ea51 5c3d 2cb1 7a3d 8636 4d3e
00000010: 0a7e 4ebe bd13 e9bd 1442 40be ad83 ff3d
00000020: df59 5abc 5388 0dbe 21e3 3e3d d347 19be
00000030: d513 2abd a5b1 21be f1f5 83bd 588b 08bd
00000040: a6f5 3b3e 31bb c73d e099 53be 6aa3 773e
00000050: 6e20 6c3d b021 373e 2baf 553e 4985 b23c
00000060: 3654 68be 13f0 c8bd ad67 3a3d 7498 2abd
00000070: 3f46 e63b 4a7b d4bc 25d3 bd3d c05d 223e
00000080: af89 05be 6df5 8b3d a75e 423e 6509 393e
00000090: 8c1b cf3d 50b0 d43c 849a 78bd 6966 98be
000000a0: e74e 1e3d 0422 a73e e405 b5be eb05 a2be
000000b0: f3be ae3c 0c37 5cbc c702 013e deb1 aebd
000000c0: cf1f 163e a002 a8be b77b 033e 811c 12bd
000000d0: 03ba 4e3e 5632 593e ea5d d73d 3c38 88be
000000e0: 6600 8c3d 7c17 7f3c 358d 803e 3803 e6bd
000000f0: 7ffc 0dbd 6c9d 97bd f26e 353d 915b 623e
00000100: 307b e4bd a771 573e 494e 70be bcdb 7e3e
00000110: d2bb fdbd 338c 903e fa40 2fbe 5e4d f03e
00000120: 36fe a53a abd2 02bd 0c40 fd3d 8eed 94be
00000130: 0d21 a7be 3aac 6cbe c8b1 ab3e a68c 383d
00000140: 923e 003e ca4f 983e 13a3 b6bc 5d46 8e3c
00000150: a389 97be 58c8 4fbd a536 bb3d 31d9 ce3d
00000160: 90af 953d 3e6a a3be 7133 483d a2e2 8a3e
00000170: c044 ce3e b95a 53be 3249 133e 639b 02be
00000180: d0b7 3cbd cb32 b8bc 2d7a 183e a7be 543d
00000190: 7c62 80bd 3f22 123d 84ef fabd 327b 183d
000001a0: 5a2c 7abe 8308 843e aec2 e03d 7cbc 85bd
000001b0: e46c 88bb 569a 28bd ad27 8ebc ebdb ba3c
000001c0: e855 19be 1ffc 63be b89d 623e b80d ad3c
000001d0: b2dd a6be 94c6 06be 858b 17be 472d a03a
000001e0: 92dc 7cbe 6576 bbbd 08af 8dbe 8391 5dbc
000001f0: de9b e0bd 504a 32be a06d b83c f918 edbd
00000200: 34fe 503c cd0b 3e3d 8154 edbd e871 d6bc
00000210: 5648 0c3d bc26 9abd ffa8 88bd 8d05 25be
00000220: 5cd7 2d3d 5374 02bc 488f 1bbd e565 e6bd
00000230: 1969 6bbd 7d95 acbd 0662 fcbd 0e48 35bd
00000240: c557 6cbd 7e90 31bd 2ab0 473d b07e d4bd
00000250: ba43 f8bd 8eb8 4e3d 3761 98bd 19e8 333d
00000260: 66c1 0f3d c242 01be 1e48 883c a2a1 423d
00000270: e7e9 82bd ef95 cdbc c098 52bd 316e b63d
00000280: de0f 083d 458f 69bd 1753 85bd 329d 833d
00000290: 784d 94bd 2763 cdbd f3e9 8abd 9cf5 293d
000002a0: df8a 593d f865 2bbd 2ab6 863d 39ba b73b
000002b0: 5dc1 793d 1883 56bd fcc8 d9bd 38b9 1abb
000002c0: c594 26be 96f3 bdbd fd28 e3bc 4cae 253b
000002d0: 83ca 83bc ba61 8c3c f340 09be ce8c 0e3d
000002e0: 1cc9 2639 3a9a 74bd 1d41 2cbc ed6b a2bc
000002f0: f40f 263e 88b4 5abd 7f30 41bd 2543 b13c
00000300: 1b71 0bbd 7006 a73b 5e29 f1bd 0413 6c3b
00000310: 9b23 5a3d 9798 c8bd 3fff 83bd eb79 cfbd
00000320: 9cb3 1bbe c76a 06be d728 8bbd 0371 d43b
00000330: 02fb fdbd 70e3 97bc c28b 823d 0196 f93c
00000340: ee33 bcbd 1499 58bd 61bf a3bd 72fc 30bc
00000350: a73b 05bd 4ee9 c93c 518b 3a3d e9d9 a6bd
00000360: c5dc 7339 dbd3 1f3c d4c2 00be 0f59 87bd
00000370: 4c26 52be 2052 973d d800 dabd a29a 7fbd
00000380: 7d48 24be 037a 06bc 0d41 323d 292c abbd
00000390: 9f72 9cbd df85 9e3c 48d2 94bd 5c42 18be
000003a0: ae80 833d 4d1f a8bd 1635 cabd 7d7c 2cbd
000003b0: 6445 a13c 2694 30be 28c2 52bd 31ed a5bc
000003c0: c341 5f3d 26ec 8b3d cc58 54bd 05c9 efbc
000003d0: b268 39bb be7e f5bd dd51 24bc 79e6 a0bd
000003e0: fdd1 e4bd 0c90 d0bd 6fd7 993d 0721 8bbc
000003f0: 71f8 e0bd e5fc aabc 67b8 c4bc 9bc7 c7bc
-0.038349845 0.053789057 0.06120412 0.2004033 -0.20165268 -0.11380718 -0.18775207 0.12476287
-0.013327091 -0.13821535 0.046603326 -0.14968805 -0.04152282 -0.15790422 -0.06443394 -0.033336014
0.18355426 0.09752501 -0.20664167 0.24183431 0.057648115 0.17883945 0.20867603 0.021792071
-0.22688374 -0.098114155 0.04550903 -0.041649297 0.007027417 -0.025937695 0.09268788 0.15856075
-0.13040803 0.06833921 0.1898142 0.1806999 0.10112676 0.025962979 -0.060694233 -0.29765633
0.038649466 0.3264314 -0.35356057 -0.3164514 0.021331286 -0.013440859 0.12598716 -0.08530019
0.14660572 -0.32814503 0.12840162 -0.035671715 0.20188145 0.21210608 0.105159596 -0.26605403
0.068360135 0.015569564 0.25107732 -0.11231083 -0.034664627 -0.07403073 0.04429526 0.22105242
-0.11156309 0.21039449 -0.23467363 0.2488851 -0.123893395 0.28231964 -0.1711463 0.46934026
0.0012664262 -0.03193919 0.123657316 -0.2908749 -0.32642403 -0.23112574 0.33534074 0.045056008
0.12523869 0.29748374 -0.022294557 0.017367536 -0.29597196 -0.050728172 0.09141282 0.1010002
0.073088765 -0.31916994 0.048877183 0.27126032 0.40286827 -0.20640077 0.1438339 -0.12754588
-0.046073735 -0.022485157 0.14890356 0.051939633 -0.062687844 0.03567719 -0.12252715 0.037226863
-0.24430981 0.25787744 0.10974632 -0.06530091 -0.0041633714 -0.04116281 -0.017352903 0.022809943
-0.14974177 -0.22264145 0.22130477 0.021124706 -0.32591015 -0.13161689 -0.14799316 0.0012220525
-0.24693516 -0.09153441 -0.276726 -0.013523462 -0.10967229 -0.1741116 0.02251321 -0.11577029
0.012755919 0.046397973 -0.115883835 -0.026177362 0.034248672 -0.07526919 -0.066728584 -0.16115399
0.04244171 -0.007962304 -0.03797844 -0.112499036 -0.057473276 -0.0842695 -0.12323384 -0.04425817
-0.05770089 -0.04335069 0.048751988 -0.10375726 -0.12122293 0.050468974 -0.07440417 0.043922517
0.03509655 -0.12623122 0.01663595 0.047517426 -0.063922696 -0.025095908 -0.051415205 0.08907736
0.033218257 -0.057021398 -0.06509989 0.06426467 -0.072413385 -0.100286774 -0.067829035 0.041493997
0.053110953 -0.04184529 0.06577714 0.0056069163 0.06097542 -0.052371114 -0.10634038 -0.0023608934
-0.16267689 -0.09274976 -0.027729506 0.002528089 -0.016087776 0.017136443 -0.13403682 0.03480225
0.00015905913 -0.059717394 -0.010513571 -0.019826854 0.16217023 -0.053394824 -0.04716539 0.021638462
-0.034043413 0.005097203 -0.11775468 0.0036022076 0.053256612 -0.09794729 -0.06445169 -0.10130676
-0.15205234 -0.1312667 -0.06794899 0.0064831986 -0.124013916 -0.018541068 0.06374313 0.030467035
-0.09189592 -0.05288036 -0.07995487 -0.010802375 -0.032527592 0.024647381 0.04554302 -0.08147032
0.00023256529 0.0097551 -0.12574321 -0.066087835 -0.20522422 0.07388711 -0.10644692 -0.06240333
-0.16043277 -0.008207801 0.04351907 -0.08358032 -0.0763905 0.019350944 -0.072666705 -0.14869064
0.06421028 -0.08209095 -0.098734066 -0.04211091 0.019686408 -0.17244014 -0.051454693 -0.020254703
0.054506075 0.06832151 -0.051842496 -0.029270658 -0.0028291163 -0.11987065 -0.010029283 -0.07856459
-0.111728646 -0.10183725 0.07511794 -0.016983522 -0.109848864 -0.020872543 -0.024013711 -0.024387171

actor_fc_layers.blocks.1.block.1.weight f4 [128]
00000000: 426a a53f fac9 843f dc0e 923f c142 993f
00000010: 4318 9c3f c14e ac3f 07f7 a13f e333 a13f
00000020: d523 773f 5574 743f 3e5f b43f e127 7f3f
00000030: 15ad 763f 89a1 7c3f cacb 943f 3f7b a63f
00000040: 354d 913f fb60 a83f 7956 8e3f 6386 a03f
00000050: c8a0 ae3f 47c5 873f 0337 af3f 3e55 9c3f
00000060: ddeb af3f 87cc 933f 781a 8b3f 5995 823f
00000070: 1190 743f b69c b13f 00d5 8f3f 75d6 9c3f
00000080: ebc5 ac3f ab27 9e3f 959e a43f 87dd 963f
00000090: 901a 9f3f 2d69 ab3f fcd7 a73f 7e7c 9f3f
000000a0: e1fa 703f 06a8 a03f 351f 9b3f 412d 9f3f
000000b0: c3bb a03f cb11 703f 66e9 903f 014f 953f
000000c0: ab00 9e3f 437f a83f fca5 933f 14fe b33f
000000d0: 112d 783f 8480 a73f dbf9 b33f 4d8d 773f
000000e0: 2965 bc3f f920 993f 74f8 833f 602d 9c3f
000000f0: 92ae 8a3f 2631 aa3f 0859 8d3f 9850 9e3f
00000100: 4dac 763f a5ce 7f3f 60f4 6f3f 9fb5 7b3f
00000110: 7b3b 913f d37e 7f3f 3a14 893f 7855 c03f
00000120: 88ef a93f f53f 773f a1e0 943f e903 8e3f
00000130: d832 b03f 24ba 8d3f c61c 943f 3a6f 773f
00000140: 3872 863f c6dc a03f 208b 723f 71ab 713f
00000150: 66ea 963f 2ad1 9d3f 9a46 9b3f 3554 7d3f
00000160: 67b6 843f 2d3c 9a3f 3f85 a53f 8ddc 9e3f
00000170: 9d12 7a3f 023a 8b3f 5338 953f b7ee 9d3f
00000180: 3c3d a73f e564 7b3f 35d2 a63f f665 943f
00000190: 1f49 a73f 6d97 9c3f 7892 6e3f 7a20 923f
000001a0: 4504 a03f 3efe 9e3f 8977 8c3f 02c0 b03f
000001b0: 41f4 8b3f 0a2a b63f 8471 7b3f 2e62 9e3f
000001c0: 0fe6 973f 04f0 b03f 657b 7d3f 6013 aa3f
000001d0: cf8d 9c3f 2199 793f 41bb 8e3f a1ad 913f
000001e0: c527 c23f 3d40 753f dd8a a93f eb1e b83f
000001f0: bf91 9a3f d98c 9d3f 1f77 a13f 19c4 793f
1.2923052 1.0374138 1.1410785 1.1973497 1.2194904 1.3461534 1.2653512 1.259396
0.9653905 0.9549001 1.4091566 0.99670225 0.9635785 0.98683983 1.1624691 1.3006362
1.1351687 1.3154596 1.1120139 1.2541012 1.3642817 1.0607079 1.3688663 1.2213514
1.3743855 1.1546792 1.0867453 1.0201827 0.9553233 1.3875949 1.1236877 1.2252947
1.34979 1.2355856 1.2860895 1.1786355 1.2429981 1.3391472 1.3112788 1.2459867
0.9413281 1.2551277 1.2118899 1.2435685 1.25573 0.9377715 1.1321228 1.1664735
1.2343954 1.3163837 1.153503 1.4061913 0.96943766 1.3086095 1.4060625 0.9669998
1.4718372 1.1963187 1.0310197 1.2201347 1.0834525 1.3296249 1.1042795 1.2368345
0.9635666 0.9992469 0.9373226 0.98324007 1.1346277 0.99802893 1.0709298 1.5026083
1.3276224 0.96581966 1.1631051 1.1094943 1.3765516 1.1072431 1.1571281 0.96654093
1.0503607 1.2567375 0.9474354 0.94402224 1.1790283 1.2329457 1.2130921 0.98956615
1.0368165 1.2049614 1.2931288 1.2411057 0.9768465 1.0877078 1.1657814 1.2338475
1.3065562 0.9820083 1.30329 1.1593616 1.306919 1.2233711 0.93192244 1.1416161
1.2501303 1.2421339 1.0973979 1.3808596 1.0933915 1.4231579 0.98220086 1.2373712
1.1867083 1.3823247 0.9901641 1.3287163 1.2230777 0.9749928 1.1150895 1.1381112
1.5168387 0.95801145 1.3245503 1.4384435 1.2075728 1.2308608 1.2614478 0.97564846

actor_fc_layers.blocks.1.block.1.bias f4 [128]
00000000: 2eba f73d ecce 9ebd 20d6 9dbd 1460 cd3d
00000010: c468 94bc ee38 5e3a 475d 0fbc 1146 ba3d
00000020: c15a edbc e81b 5cbd 3529 b4bd 3037 4a3d
00000030: acde 12bd 9b78 183d 1cb9 4f3c 115d 873c
00000040: fe0c a73c 4cab 9dbd e7d9 13bd 66c6 26be
00000050: 83ca 21bd b00f a4bd da93 6cbc 51aa 2bbd
00000060: 4dd9 9f3d 361b 973c 88ce 363d 9752 89bc
00000070: ec6e 55bd 06b2 c6bc df92 66ba ff06 31bd
00000080: a1fa eabd 1b55 6bbc df4b 483b 231e 9a3b
00000090: f7b9 43bd 3576 a03d b482 343d 3b83 9cbd
000000a0: ec5a 90bd c91b d83c 088e a93d a660 903d
000000b0: 5b25 b33d aa4a 76bd 8f10 89bd 3f82 043e
000000c0: 8ed9 aabd b04c e43c b714 42bc d36e 35bc
000000d0: e38a 4bbd c4e1 54bc 55a7 563c 7f01 8dbd
000000e0: 0b19 cf3d 9759 e3bd bc56 8cbd 39cc a03d
000000f0: 8ccd e8bd 10b5 eabd 4438 ddbd 3f07 07be
00000100: 83f1 49bd cb5f 85bc 8e61 77bd 5a5b 98bd
00000110: 5274 08be f4ae 29be c450 cf3d 6dd1 0fbc
00000120: a1dc 4d3d bd1c 64bd 4609 bfbd 5360 053d
00000130: 950d b83d ab77 0fbd 5f02 65bd 972b 16bd
00000140: 400a 1e3d 5cac 10bd ebe3 d3bd d8ee 9cbd
00000150: ce36 34bd 80f0 b1bd 62bf 423d 3bbe 07bd
00000160: 2976 ba3c 5712 e8bc a643 51bd ea2e 983d
00000170: 10f2 13bd f61d ddbd 2a31 9d3c 0945 9cbc
00000180: ca24 98bc 4adc fcbc 378d b23d 5327 dbbc
00000190: b294 193e 0f8e bcbd f742 83bd 9af7 ddbd
000001a0: c3d4 f43b c55a 9ebb c0cc b1bd 7f85 063c
000001b0: 1fec 3f3c 0d8a 083e cc84 02bd 1b07 cf3d
000001c0: eded 60bd d759 c0bd 454c 023d dd88 ba3d
000001d0: fcc1 b4bb e327 0fbd 100a 87bc 9383 2d3d
000001e0: 7312 823c c652 71bd ec52 693d 4367 30be
000001f0: f888 9bbd 32fb ccbc d407 b0bd 55d7 f0bc
0.12096058 -0.07754311 -0.07706857 0.10028091 -0.018116362 0.0008477111 -0.008750266 0.09095395
-0.028973939 -0.05373755 -0.08796922 0.049369037 -0.035856888 0.037224393 0.012678411 0.01652387
0.020391937 -0.07698688 -0.03609648 -0.1628662 -0.03949977 -0.08010805 -0.014439547 -0.041910473
0.07805119 0.018445592 0.044630557 -0.016763015 -0.052107736 -0.02425481 -0.0008795689 -0.043219563
-0.11473585 -0.014363552 0.00305628 0.0047032996 -0.04778477 0.07835046 0.04406996 -0.07642218
-0.07048592 0.026380436 0.082790434 0.07049684 0.08747359 -0.0601298 -0.066926114 0.1294031
-0.083422765 0.027868599 -0.011845759 -0.011073786 -0.049693 -0.01299328 0.0131014185 -0.06885051
0.101121984 -0.11101072 -0.06852481 0.078514524 -0.1136733 -0.11460316 -0.108017474 -0.13186358
-0.04930259 -0.01628103 -0.06039577 -0.07439299 -0.13325623 -0.16570646 0.10122827 -0.008777958
0.050259236 -0.05569147 -0.09327941 0.032562565 0.089869656 -0.035026234 -0.055910464 -0.036662664
0.038583994 -0.035320625 -0.10346206 -0.07662743 -0.04399758 -0.0868845 0.047545798 -0.033140402
0.022761421 -0.028329058 -0.051089905 0.07430823 -0.03611952 -0.1079673 0.019188482 -0.019075887
-0.01857223 -0.03086676 0.08718341 -0.02675215 0.14998129 -0.09206783 -0.06409257 -0.10838242
0.0074716522 -0.004832598 -0.08681631 0.008210539 0.0117140105 0.13333912 -0.031864926 0.10108777
-0.054914404 -0.093921356 0.031811018 0.09108136 -0.005516289 -0.03495015 -0.01648429 0.042361807
0.015877938 -0.05891683 0.056963846 -0.17226891 -0.07594484 -0.025022123 -0.08595243 -0.029399553

actor_fc_layers.blocks.1.block.1.running_mean f4 [128]
00000000: 0000 0000 0000 0000 0000 0000 0000 0000
00000010: 0000 0000 0000 0000 0000 0000 0000 0000
00000020: 0000 0000 0000 0000 0000 0000 0000 0000
00000030: 0000 0000 0000 0000 0000 0000 0000 0000
00000040: 0000 0000 0000 0000 0000 0000 0000 0000
00000050: 0000 0000 0000 0000 0000 0000 0000 0000
00000060: 0000 0000 0000 0000 0000 0000 0000 0000
00000070: 0000 0000 0000 0000 0000 0000 0000 0000
00000080: 0000 0000 0000 0000 0000 0000 0000 0000
00000090: 0000 0000 0000 0000 0000 0000 0000 0000
000000a0: 0000 0000 0000 0000 0000 0000 0000 0000
000000b0: 0000 0000 0000 0000 0000 0000 0000 0000
000000c0: 0000 0000 0000 0000 0000 0000 0000 0000
000000d0: 0000 0000 0000 0000 0000 0000 0000 0000
000000e0: 0000 0000 0000 0000 0000 0000 0000 0000
000000f0: 0000 0000 0000 0000 0000 0000 0000 0000
00000100: 0000 0000 0000 0000 0000 0000 0000 0000
00000110: 0000 0000 0000 0000 0000 0000 0000 0000
00000120: 0000 0000 0000 0000 0000 0000 0000 0000
00000130: 0000 0000 0000 0000 0000 0000 0000 0000
00000140: 0000 0000 0000 0000 0000 0000 0000 0000
00000150: 0000 0000 0000 0000 0000 0000 0000 0000
00000160: 0000 0000 0000 0000 0000 0000 0000 0000
00000170: 0000 0000 0000 0000 0000 0000 0000 0000
00000180: 0000 0000 0000 0000 0000 0000 0000 0000
00000190: 0000 0000 0000 0000 0000 0000 0000 0000
000001a0: 0000 0000 0000 0000 0000 0000 0000 0000
000001b0: 0000 0000 0000 0000 0000 0000 0000 0000
000001c0: 0000 0000 0000 0000 0000 0000 0000 0000
000001d0: 0000 0000 0000 0000 0000 0000 0000 0000
000001e0: 0000 0000 0000 0000 0000 0000 0000 0000
000001f0: 0000 0000 0000 0000 0000 0000 0000 0000
0.0 0.0 0.0 0.0 0.0 0.0 0.0 0.0
0.0 0.0 0.0 0.0 0.0 0.0 0.0 0.0
0.0 0.0 0.0 0.0 0.0 0.0 0.0 0.0
0.0 0.0 0.0 0.0 0.0 0.0 0.0 0.0
0.0 0.0 0.0 0.0 0.0 0.0 0.0 0.0
0.0 0.0 0.0 0.0 0.0 0.0 0.0 0.0
0.0 0.0 0.0 0.0 0.0 0.0 0.0 0.0
0.0 0.0 0.0 0.0 0.0 0.0 0.0 0.0
0.0 0.0 0.0 0.0 0.0 0.0 0.0 0.0
0.0 0.0 0.0 0.0 0.0 0.0 0.0 0.0
0.0 0.0 0.0 0.0 0.0 0.0 0.0 0.0
0.0 0.0 0.0 0.0 0.0 0.0 0.0 0.0
0.0 0.0 0.0 0.0 0.0 0.0 0.0 0.0
0.0 0.0 0.0 0.0 0.0 0.0 0.0 0.0
0.0 0.0 0.0 0.0 0.0 0.0 0.0 0.0
0.0 0.0 0.0 0.0 0.0 0.0 0.0 0.0

actor_fc_layers.blocks.1.block.1.running_var f4 [128]
00000000: 0000 803f 0000 803f 0000 803f 0000 803f
00000010: 0000 803f 0000 803f 0000 803f 0000 803f
00000020: 0000 803f 0000 803f 0000 803f 0000 803f
00000030: 0000 803f 0000 803f 0000 803f 0000 803f
00000040: 0000 803f 0000 803f 0000 803f 0000 803f
00000050: 0000 803f 0000 803f 0000 803f 0000 803f
00000060: 0000 803f 0000 803f 0000 803f 0000 803f
00000070: 0000 803f 0000 803f 0000 803f 0000 803f
00000080: 0000 803f 0000 803f 0000 803f 0000 803f
00000090: 0000 803f 0000 803f 0000 803f 0000 803f
000000a0: 0000 803f 0000 803f 0000 803f 0000 803f
000000b0: 0000 803f 0000 803f 0000 803f 0000 803f
000000c0: 0000 803f 0000 803f 0000 803f 0000 803f
000000d0: 0000 803f 0000 803f 0000 803f 0000 803f
000000e0: 0000 803f 0000 803f 0000 803f 0000 803f
000000f0: 0000 803f 0000 803f 0000 803f 0000 803f
00000100: 0000 803f 0000 803f 0000 803f 0000 803f
00000110: 0000 803f 0000 803f 0000 803f 0000 803f
00000120: 0000 803f 0000 803f 0000 803f 0000 803f
00000130: 0000 803f 0000 803f 0000 803f 0000 803f
00000140: 0000 803f 0000 803f 0000 803f 0000 803f
00000150: 0000 803f 0000 803f 0000 803f 0000 803f
00000160: 0000 803f 0000 803f 0000 803f 0000 803f
00000170: 0000 803f 0000 803f 0000 803f 0000 803f
00000180: 0000 803f 0000 803f 0000 803f 0000 803f
00000190: 0000 803f 0000 803f 0000 803f 0000 803f
000001a0: 0000 803f 0000 803f 0000 803f 0000 803f
000001b0: 0000 803f 0000 803f 0000 803f 0000 803f
000001c0: 0000 803f 0000 803f 0000 803f 0000 803f
000001d0: 0000 803f 0000 803f 0000 803f 0000 803f
000001e0: 0000 803f 0000 803f 0000 803f 0000 803f
000001f0: 0000 803f 0000 803f 0000 803f 0000 803f
1.0 1.0 1.0 1.0 1.0 1.0 1.0 1.0
1.0 1.0 1.0 1.0 1.0 1.0 1.0 1.0
1.0 1.0 1.0 1.0 1.0 1.0 1.0 1.0
1.0 1.0 1.0 1.0 1.0 1.0 1.0 1.0
1.0 1.0 1.0 1.0 1.0 1.0 1.0 1.0
1.0 1.0 1.0 1.0 1.0 1.0 1.0 1.0
1.0 1.0 1.0 1.0 1.0 1.0 1.0 1.0
1.0 1.0 1.0 1.0 1.0 1.0 1.0 1.0
1.0 1.0 1.0 1.0 1.0 1.0 1.0 1.0
1.0 1.0 1.0 1.0 1.0 1.0 1.0 1.0
1.0 1.0 1.0 1.0 1.0 1.0 1.0 1.0
1.0 1.0 1.0 1.0 1.0 1.0 1.0 1.0
1.0 1.0 1.0 1.0 1.0 1.0 1.0 1.0
1.0 1.0 1.0 1.0 1.0 1.0 1.0 1.0
1.0 1.0 1.0 1.0 1.0 1.0 1.0 1.0
1.0 1.0 1.0 1.0 1.0 1.0 1.0 1.0

actor_fc_layers.blocks.2.block.0.weight f4 [128, 128]
00000000: 8fe9 4abd a309 533d d290 37bd fa64 c03c
00000010: 2b0d 85bb 719c 27bc e060 60bd 6841 9cbd
00000020: 22e8 493c 949f 59bd 598c bbbd 564d 873d
00000030: c319 953d 456e a2bd 5852 5bbd b17c 7e3c
00000040: e57e a6bd 7d3e 6ebc addd 67bd 410f abbd
00000050: ba8d 34bd de61 0b3d 4229 483c f16b edbd
00000060: 373a 123c cfeb d33a 5912 aebb 6383 c6bd
00000070: 2505 b33b 2cb8 273d 18f3 d4bd 85de a1bd
00000080: b99d 29be 527f bcbd f7d7 d83c 18e7 56bd
00000090: d906 b239 7880 d8bc 5497 11bd 3922 afbc
000000a0: dded 23bd 8763 1b3c 90eb d2bd 70ea 5abd
000000b0: 2ba5 8dbc 79f6 2ebd 6c16 81bd 7801 d0bd
000000c0: 1a32 093d 6c19 1dbd 98e6 2dbe 0063 9cbd
000000d0: 0107 a33b d723 503c efa1 8bbd d898 223c
000000e0: b2c8 c2bc 4c67 5cbc 8833 233c bc2a 91bd
000000f0: 52db f5bd d04b 9dbd c2d3 cf3b 5f6a d43b
00000100: 741d 01bd 8e9d 86bd 9e23 b3bd 9d12 21bc
00000110: bc9c 173d 5ebc bebd 76ef 39bd 74ec 2d3d
00000120: 5f38 943d 4ebe 73bd 117e f7bd a18d 3d3c
00000130: 8b11 0abd 5174 29bd 3590 b33c c894 18bd
00000140: a8d4 aabc 631f c6bc b2d1 f4bd b937 a1bc
00000150: 4cd6 2f3c bf9c c9bc e837 283d da70 71bd
00000160: ab18 c1bd 232e 8fbc c070 a13c a06f 10bd
00000170: 5306 8cbd c680 7abc 0a87 453d 5c73 2d3d
00000180: 8384 973c e500 22bc 649c 5fbd e78e 4dba
00000190: 9c3a 92bd e265 f4bd 4974 ecba 4c5e 91bc
000001a0: aaa5 36ba 7e80 43bd 8269 b6bd 3e5e f0bc
000001b0: 459a 23bc 785d 223c a597 e5bd db1d 5c3c
000001c0: f04d 19be 8c4b 11be 7b19 173c 0627 ca3a
000001d0: 2d45 b6bd bb21 c6bc 403e 1fbd 60ec a8bd
000001e0: 6854 ddbd 91cb a8bc fcf8 d1bd 55be 703d
000001f0: cd47 743c 4604 bcbd b0f5 95bc 9f49 cebc
00000200: f9d0 51be fc1c 65bd 4d5b 3f3e 4540 803c
00000210: baa7 61bd 59a2 4d3d b4d2 60be c32a 8d3b
00000220: fd34 e1bd c5de a2bb 45cb f8bd 5be9 1cbe
00000230: 38de 98bd c01e 723e ddc3 503e d75e 083d
00000240: fefc 163e 36c9 d23d 6210 643e 1b76 7d3e
00000250: 7ba6 63bd 7386 a83d 0ec0 b13d 2263 c1bd
00000260: 53d4 debd 673d f03d 11e5 bbbd da9c 2bbe
00000270: 80ca 913d 4a59 5d3d 7a25 993c 5f71 ef3d
00000280: e44f 963d 5ee8 0abe 5b39 01bd c56c babd
00000290: df87 ff3d 33e2 e2be 5e7d 0fbe c69e 8cbd
000002a0: 5959 77bd c3cb 02be b37f 0e3d 5c6d 4dbe
000002b0: 829b 79bc 5bd9 6d3e f4e3 513d 07c1 56bd
000002c0: 1c29 47bd e2a5 4d3e cc49 28be 7ee9 0a3d
000002d0: 5e7b b4bc f941 51bd ea99 bd3d 8111 b4bd
000002e0: 5805 ee3c 6e88 9c3e 3aba 543d d38b 943c
000002f0: 2146 4a3e 2071 773e 3372 043e a03d e93d
00000300: 32bb bebc e267 fd3d 0e4d 803d e2a1 1c3e
00000310: 8d4c df3d 263f cbbd 1eb9 49be bce3 913d
00000320: 69e9 303b e359 4fbc f0e2 11be fe10 033e
00000330: 24f7 513c 8ad5 82bd 1c3f 36bd c84f 57bd
00000340: 248e c2bc 8ea4 bcbd fe62 b23b 8a76 0e3e
00000350: accd 133e 3f07 073d f36d c73d aee1 d03c
00000360: 842f 08be d527 84bc c721 bdbd a9b0 653d
00000370: e933 31bb a08c bf3d 96d6 eb3c 8e1c b43d
00000380: 65c7 9cbb 0425 003d f6e5 c9bd 546e 5b3c
00000390: 011c 233e 7f9c 8d3d f6b5 4dbd 1195 6c3e
000003a0: 7f47 a03b a694 af3d 44c0 443e d135 0c3d
000003b0: ff6a 083d 994e ed3d dcc4 d7bd a86e 91be
000003c0: 5a8d a83d 8370 5b3e e82a 69be 5a87 b2bd
000003d0: 4cc0 c4be 0197 3d3d 530b 15be d149 b3bd
000003e0: c48f 443e 3555 68bd 8bae 193e 2244 933e
000003f0: e1f5 9cba 24ed ce3d e1a5 22be fb3c 0fbd
-0.049539145 0.051522862 -0.044815846 0.02348565 -0.0040604076 -0.01023017 -0.054779887 -0.07629663
0.012323411 -0.0531307 -0.091576286 0.066065475 0.07280304 -0.079311885 -0.053545326 0.015532658
-0.08129672 -0.014541266 -0.05660789 -0.08352519 -0.044080473 0.03402888 0.012216868 -0.11592854
0.008925012 0.0016168299 -0.005312246 -0.09693029 0.0054632598 0.040947124 -0.10397929 -0.0790377
-0.16564073 -0.09203972 0.026470168 -0.052466482 0.00033955908 -0.026428446 -0.03554471 -0.021378623
-0.040021766 0.009484178 -0.10298836 -0.053446233 -0.017290672 -0.042715523 -0.06303105 -0.1015653
0.033495046 -0.038354322 -0.16982496 -0.0763607 0.0049752 0.012703857 -0.06817996 0.009924136
-0.02377734 -0.013452362 0.0099610165 -0.07088229 -0.12004723 -0.07680476 0.006342382 0.006482407
-0.03152223 -0.0657302 -0.08747028 -0.009831098 0.037014708 -0.09313272 -0.045394383 0.042461827
0.072373144 -0.05950766 -0.12084592 0.0115694115 -0.033708137 -0.041370694 0.02191935 -0.037251264
-0.020853356 -0.024184888 -0.11954059 -0.019679891 0.010732245 -0.024610875 0.04106894 -0.058945514
-0.09428533 -0.017478054 0.019707084 -0.035262704 -0.06837144 -0.015289491 0.048224486 0.042346343
0.018495804 -0.009887909 -0.054592505 -0.00078414235 -0.07140085 -0.11933495 -0.0018040027 -0.01774516
-0.0006967435 -0.04772996 -0.08906843 -0.029341813 -0.009985511 0.00990998 -0.112105645 0.0134348525
-0.14971137 -0.14188975 0.009222384 0.0015423007 -0.08899913 -0.024186006 -0.038877726 -0.0824821
-0.10807115 -0.02060488 -0.10252568 0.058775265 0.014909697 -0.091805026 -0.01830563 -0.02518159
-0.20489873 -0.055935845 0.18687172 0.015655646 -0.055091597 0.050203655 -0.21955377 0.004308076
-0.10996435 -0.004970404 -0.121481456 -0.15323393 -0.0746426 0.23644543 0.20387216 0.03329357
0.14744946 0.10292284 0.22271875 0.24752085 -0.05557869 0.08228769 0.0867921 -0.09442736
-0.108803414 0.117304616 -0.0917455 -0.16759053 0.07118702 0.05404023 0.018694628 0.11691546
0.07339457 -0.13565204 -0.03154884 -0.091027774 0.12477087 -0.443132 -0.14012668 -0.06866221
-0.060387943 -0.12773041 0.034789752 -0.20061249 -0.01523483 0.23227446 0.051242784 -0.05243018
-0.04862319 0.2008281 -0.16434401 0.03391408 -0.022031482 -0.051088307 0.092578724 -0.08792401
0.029055282 0.30572838 0.051935412 0.01813308 0.19753315 0.24164248 0.12934189 0.11388707
-0.023282621 0.1237333 0.06264697 0.15296128 0.10903273 -0.09924154 -0.19699523 0.07123515
0.0026994592 -0.012655708 -0.14246726 0.12799451 0.012815271 -0.063883856 -0.04449378 -0.05256632
-0.023749419 -0.09211074 0.0054439297 0.13912407 0.14433926 0.032965895 0.09737768 0.025498237
-0.13299376 -0.016132275 -0.09234958 0.05607668 -0.0027038998 0.09352994 0.028788846 0.08794509
-0.004784512 0.0312853 -0.09858315 0.0133930035 0.15928651 0.06914615 -0.05022236 0.2310374
0.0048913355 0.08573274 0.19213969 0.03423101 0.033305164 0.11587257 -0.10535595 -0.28404737
0.08230086 0.21429639 -0.22770274 -0.087172225 -0.3842796 0.046286587 -0.14555101 -0.08754314
0.19195467 -0.056721885 0.15007989 0.2876292 -0.0011975133 0.10103825 -0.1588359 -0.034970265

actor_fc_layers.blocks.2.block.1.weight f4 [128]
00000000: 7557 713f 384a 893f 8c51 933f 7507 a33f
00000010: bbca b43f 3bf8 a73f b75c b33f 63bf 9b3f
00000020: c1ba b33f ec42 6d3f 677f 983f d8f4 8d3f
00000030: 0b2e 8d3f 2c57 9e3f df2b 853f 0d71 963f
00000040: 41c3 9a3f 6a50 903f 4197 9e3f 2f0e 983f
00000050: fe23 8f3f d475 7a3f 03ab 923f 27d2 923f
00000060: b50c 723f 362c 983f ef9e 993f f550 bb3f
00000070: bffb 843f 269a 9a3f 0821 913f 493a a83f
00000080: 6552 a13f 184b 853f 4c24 803f 433f 8d3f
00000090: 23c6 903f 625f ce3f acc1 953f 4108 933f
000000a0: 6a63 7e3f f99a 7b3f e7f8 783f 5756 833f
000000b0: c7ab 9c3f 1e3c a93f 56c5 af3f 98b3 913f
000000c0: ead0 8f3f 6f22 873f fb2f a83f 4268 883f
000000d0: f84e 9d3f 4803 c03f b1d0 d03f f4e1 823f
000000e0: c70b 973f 96e0 893f 5e56 aa3f c567 b63f
000000f0: 1af9 b33f 74e1 b03f 14aa 933f 7d00 8b3f
00000100: 5b49 a93f ab74 a63f 0b75 903f 71ed 9d3f
00000110: 2dec 943f aad0 8d3f 2b16 9a3f e25e 833f
00000120: 7f0a 913f 108c ac3f 96a0 8c3f 91c2 993f
00000130: ebbd 873f ce74 923f 3d6b ab3f dd5b a23f
00000140: 980d a03f 6acd 8e3f 0a77 a63f 533e 9d3f
00000150: 1f59 c23f 493c 8f3f f382 963f 4d36 a23f
00000160: 1a57 9e3f 6eab 913f 4956 a13f 7ce4 853f
00000170: a1e4 8e3f 3ea2 9b3f b106 913f bbf0 823f
00000180: 51b4 ae3f 9e38 853f 4301 893f 308f 913f
00000190: 1bd8 8f3f 550d b43f 02b7 6c3f 239d 973f
000001a0: 1de6 943f ab30 b13f e772 863f b6ec a33f
000001b0: e1eb a53f 8bf2 ab3f 9308 b83f 154c a33f
000001c0: a4c0 6d3f 88bd 8d3f c18e 7e3f 73cf 6f3f
000001d0: f0f2 8c3f 84ca 833f 6b77 923f bbfa 9c3f
000001e0: 0b10 7e3f 188a 943f 179f 8f3f 8c57 753f
000001f0: f909 723f f25d 8d3f 1417 873f 1d16 a23f
0.94274074 1.0725775 1.1509261 1.2736651 1.4124368 1.3122629 1.4012669 1.2167782
1.4041368 0.9268024 1.191388 1.1090345 1.1029676 1.2370353 1.0404013 1.175325
1.2090837 1.127454 1.2389909 1.1879328 1.1182859 0.9783604 1.1458439 1.1470383
0.9455064 1.1888492 1.2001628 1.4634081 1.0389327 1.2078292 1.1338205 1.3142787
1.260327 1.0413542 1.0011077 1.1034931 1.1310467 1.6122859 1.1699729 1.1486894
0.99370444 0.98283345 0.97254795 1.0260724 1.2239922 1.3221471 1.3732097 1.1382933
1.123563 1.0557383 1.3139642 1.0656817 1.2289724 1.5001001 1.6313688 1.0225205
1.1800469 1.0771663 1.3307607 1.4250418 1.4060395 1.3818803 1.1536279 1.0859524
1.3225511 1.3004354 1.1285719 1.2338086 1.1634575 1.1079304 1.2038015 1.0263331
1.1331328 1.3480244 1.0986507 1.2012502 1.0604833 1.1441896 1.3392102 1.2684284
1.2504148 1.1156437 1.3005078 1.2284645 1.5183448 1.1190273 1.1758713 1.2672821
1.2370331 1.1380441 1.2604457 1.0460353 1.1163522 1.2158887 1.1330167 1.0229715
1.3648778 1.0407903 1.070351 1.1371822 1.1237825 1.4066569 0.9246675 1.1844829
1.1632725 1.3842977 1.0503815 1.2806613 1.296261 1.3433393 1.4377617 1.2757593
0.9287207 1.1073465 0.99436575 0.9367592 1.1011639 1.0296178 1.1442693 1.2264017
0.9924323 1.1604643 1.1220425 0.9583671 0.9454647 1.1044295 1.0553918 1.2662998

actor_fc_layers.blocks.2.block.1.bias f4 [128]
00000000: 801c 95bd fe5e 2bbe 1ab6 55be dbc5 a0bd
00000010: ea3c 233d be30 3b3d 5baf 923d f98b 96bb
00000020: 6e30 8bbd 966e b6bd 336b 443d 7eeb 16be
00000030: b733 09bc c4f5 ae3d 7d4c 46be 2fec 88bb
00000040: 6c96 473d fcaf cdbd 9b73 8fbd 10a7 91be
00000050: 0291 b6bd d4ff 7abe 185b 023e 7e20 843d
00000060: 3cba 80bd f303 4c3d 6270 b0bd 0f20 233e
00000070: bb62 c3bc e845 9c3c 666f 1ebe 2949 cd3d
00000080: 051e a83d b967 823c adbd 18bd e1e3 1c3c
00000090: ae85 e7bd ee65 5e3e ead0 653e bdb9 cd3b
000000a0: 808e 97bd ad41 41bc 57d3 00ba d6b9 08bc
000000b0: 5166 863d eab7 18bb c94a a33c a422 32bd
000000c0: c3e9 91bd b407 dbbd 5e80 223e 4e37 dfbd
000000d0: 8e5c dbbb 042b 263e e82d 533e dcb6 72bd
000000e0: 8903 44be c253 a4bc 48cd 023e f105 e43d
000000f0: 141b 843d ddf1 f93d 0904 153d 612c 87bd
00000100: 2abc 40be c993 a2bd acec 6aba beb5 1b3e
00000110: 0fa9 6fbd b6bb 3bbe ad1b 46be 17db 7c3d
00000120: 62eb f9bd e48a b3bb e186 20be e001 603d
00000130: febb 82bd 5c41 08bd 988c 223d 1557 08be
00000140: c4f5 66be 167c d73c 8500 f1bb f2a9 063e
00000150: d517 473e f020 4abd b17b cfbd 1b25 46bc
00000160: 2fa3 a6bd 58f1 abbb 63a9 4abb 0a14 81be
00000170: c823 d9bd 4d24 a4bd 5c29 19be f5db ccbd
00000180: a0d1 c1bb cfb7 5dbd 24ec 20be 3f22 2ebe
00000190: de33 5ebc ffd2 323e 8231 4cbc 1c6a c5bd
000001a0: b33e 06be 67be 503e 8628 0c3c 39a9 bbbd
000001b0: 7a28 21bd 3e05 d9bd eaca 0c3e c780 d33c
000001c0: 1a39 313d df53 4dbe b3f6 11be 874d 89bd
000001d0: 42d4 b1bd f085 b9bd fa0b e6bd 7664 17bc
000001e0: 1683 ccbd e582 8e3c 7e28 87bd 118e 33be
000001f0: a5fb a5bd 3a1d 8b3c 230e a6bb bbc7 273e
-0.072808266 -0.16735455 -0.20870247 -0.07850238 0.039853014 0.04570078 0.07162353 -0.0045943228
-0.067963466 -0.08907811 0.047953796 -0.1473827 -0.008374146 0.0854297 -0.19365115 -0.004178546
0.048727438 -0.10043332 -0.07004472 -0.2844777 -0.08914377 -0.24511653 0.12730062 0.0645151
-0.062855214 0.049808454 -0.08615185 0.15930198 -0.02385079 0.019076303 -0.15472183 0.1002372
0.08208851 0.0159186 -0.037290264 0.009575815 -0.11304794 0.2171857 0.22442976 0.0062782452
-0.074002266 -0.0117954435 -0.00049143046 -0.008345088 0.06562484 -0.002330298 0.019933121 -0.043490067
-0.07124665 -0.10694829 0.1586928 -0.108992204 -0.006694383 0.16227347 0.2062298 -0.05925642
-0.19141974 -0.02005947 0.12773621 0.11133946 0.06450477 0.12204335 0.0363808 -0.066002615
-0.18821779 -0.07938344 -0.00089616585 0.15206048 -0.058510836 -0.18333325 -0.19346495 0.061732378
-0.12203099 -0.0054792035 -0.15676452 0.05468929 -0.06383513 -0.033265457 0.039684862 -0.13314469
-0.2255469 0.026304286 -0.0073547983 0.13150766 0.19442685 -0.049347818 -0.10131014 -0.012093808
-0.081365936 -0.0052472763 -0.0030923716 -0.252106 -0.10602528 -0.08014736 -0.14957184 -0.10002891
-0.005914882 -0.05413037 -0.1571508 -0.17005251 -0.013562171 0.17463301 -0.012462975 -0.096393794
-0.13109855 0.20385133 0.008554583 -0.09163136 -0.039345242 -0.10596703 0.1374928 0.025818242
0.043267347 -0.20051526 -0.14254265 -0.0670424 -0.08683063 -0.0905875 -0.11232753 -0.00924026
-0.0998594 0.0173964 -0.0659952 -0.17534663 -0.08104638 0.01698171 -0.005067603 0.16384785

actor_fc_layers.blocks.2.block.1.running_mean f4 [128]
00000000: 0000 0000 0000 0000 0000 0000 0000 0000
00000010: 0000 0000 0000 0000 0000 0000 0000 0000
00000020: 0000 0000 0000 0000 0000 0000 0000 0000
00000030: 0000 0000 0000 0000 0000 0000 0000 0000
00000040: 0000 0000 0000 0000 0000 0000 0000 0000
00000050: 0000 0000 0000 0000 0000 0000 0000 0000
00000060: 0000 0000 0000 0000 0000 0000 0000 0000
00000070: 0000 0000 0000 0000 0000 0000 0000 0000
00000080: 0000 0000 0000 0000 0000 0000 0000 0000
00000090: 0000 0000 0000 0000 0000 0000 0000 0000
000000a0: 0000 0000 0000 0000 0000 0000 0000 0000
000000b0: 0000 0000 0000 0000 0000 0000 0000 0000
000000c0: 0000 0000 0000 0000 0000 0000 0000 0000
000000d0: 0000 0000 0000 0000 0000 0000 0000 0000
000000e0: 0000 0000 0000 0000 0000 0000 0000 0000
000000f0: 0000 0000 0000 0000 0000 0000 0000 0000
00000100: 0000 0000 0000 0000 0000 0000 0000 0000
00000110: 0000 0000 0000 0000 0000 0000 0000 0000
00000120: 0000 0000 0000 0000 0000 0000 0000 0000
00000130: 0000 0000 0000 0000 0000 0000 0000 0000
00000140: 0000 0000 0000 0000 0000 0000 0000 0000
00000150: 0000 0000 0000 0000 0000 0000 0000 0000
00000160: 0000 0000 0000 0000 0000 0000 0000 0000
00000170: 0000 0000 0000 0000 0000 0000 0000 0000
00000180: 0000 0000 0000 0000 0000 0000 0000 0000
00000190: 0000 0000 0000 0000 0000 0000 0000 0000
000001a0: 0000 0000 0000 0000 0000 0000 0000 0000
000001b0: 0000 0000 0000 0000 0000 0000 0000 0000
000001c0: 0000 0000 0000 0000 0000 0000 0000 0000
000001d0: 0000 0000 0000 0000 0000 0000 0000 0000
000001e0: 0000 0000 0000 0000 0000 0000 0000 0000
000001f0: 0000 0000 0000 0000 0000 0000 0000 0000
0.0 0.0 0.0 0.0 0.0 0.0 0.0 0.0
0.0 0.0 0.0 0.0 0.0 0.0 0.0 0.0
0.0 0.0 0.0 0.0 0.0 0.0 0.0 0.0
0.0 0.0 0.0 0.0 0.0 0.0 0.0 0.0
0.0 0.0 0.0 0.0 0.0 0.0 0.0 0.0
0.0 0.0 0.0 0.0 0.0 0.0 0.0 0.0
0.0 0.0 0.0 0.0 0.0 0.0 0.0 0.0
0.0 0.0 0.0 0.0 0.0 0.0 0.0 0.0
0.0 0.0 0.0 0.0 0.0 0.0 0.0 0.0
0.0 0.0 0.0 0.0 0.0 0.0 0.0 0.0
0.0 0.0 0.0 0.0 0.0 0.0 0.0 0.0
0.0 0.0 0.0 0.0 0.0 0.0 0.0 0.0
0.0 0.0 0.0 0.0 0.0 0.0 0.0 0.0
0.0 0.0 0.0 0.0 0.0 0.0 0.0 0.0
0.0 0.0 0.0 0.0 0.0 0.0 0.0 0.0
0.0 0.0 0.0 0.0 0.0 0.0 0.0 0.0

actor_fc_layers.blocks.2.block.1.running_var f4 [128]
00000000: 0000 803f 0000 803f 0000 803f 0000 803f
00000010: 0000 803f 0000 803f 0000 803f 0000 803f
00000020: 0000 803f 0000 803f 0000 803f 0000 803f
00000030: 0000 803f 0000 803f 0000 803f 0000 803f
00000040: 0000 803f 0000 803f 0000 803f 0000 803f
00000050: 0000 803f 0000 803f 0000 803f 0000 803f
00000060: 0000 803f 0000 803f 0000 803f 0000 803f
00000070: 0000 803f 0000 803f 0000 803f 0000 803f
00000080: 0000 803f 0000 803f 0000 803f 0000 803f
00000090: 0000 803f 0000 803f 0000 803f 0000 803f
000000a0: 0000 803f 0000 803f 0000 803f 0000 803f
000000b0: 0000 803f 0000 803f 0000 803f 0000 803f
000000c0: 0000 803f 0000 803f 0000 803f 0000 803f
000000d0: 0000 803f 0000 803f 0000 803f 0000 803f
000000e0: 0000 803f 0000 803f 0000 803f 0000 803f
000000f0: 0000 803f 0000 803f 0000 803f 0000 803f
00000100: 0000 803f 0000 803f 0000 803f 0000 803f
00000110: 0000 803f 0000 803f 0000 803f 0000 803f
00000120: 0000 803f 0000 803f 0000 803f 0000 803f
00000130: 0000 803f 0000 803f 0000 803f 0000 803f
00000140: 0000 803f 0000 803f 0000 803f 0000 803f
00000150: 0000 803f 0000 803f 0000 803f 0000 803f
00000160: 0000 803f 0000 803f 0000 803f 0000 803f
00000170: 0000 803f 0000 803f 0000 803f 0000 803f
00000180: 0000 803f 0000 803f 0000 803f 0000 803f
00000190: 0000 803f 0000 803f 0000 803f 0000 803f
000001a0: 0000 803f 0000 803f 0000 803f 0000 803f
000001b0: 0000 803f 0000 803f 0000 803f 0000 803f
000001c0: 0000 803f 0000 803f 0000 803f 0000 803f
000001d0: 0000 803f 0000 803f 0000 803f 0000 803f
000001e0: 0000 803f 0000 803f 0000 803f 0000 803f
000001f0: 0000 803f 0000 803f 0000 803f 0000 803f
1.0 1.0 1.0 1.0 1.0 1.0 1.0 1.0
1.0 1.0 1.0 1.0 1.0 1.0 1.0 1.0
1.0 1.0 1.0 1.0 1.0 1.0 1.0 1.0
1.0 1.0 1.0 1.0 1.0 1.0 1.0 1.0
1.0 1.0 1.0 1.0 1.0 1.0 1.0 1.0
1.0 1.0 1.0 1.0 1.0 1.0 1.0 1.0
1.0 1.0 1.0 1.0 1.0 1.0 1.0 1.0
1.0 1.0 1.0 1.0 1.0 1.0 1.0 1.0
1.0 1.0 1.0 1.0 1.0 1.0 1.0 1.0
1.0 1.0 1.0 1.0 1.0 1.0 1.0 1.0
1.0 1.0 1.0 1.0 1.0 1.0 1.0 1.0
1.0 1.0 1.0 1.0 1.0 1.0 1.0 1.0
1.0 1.0 1.0 1.0 1.0 1.0 1.0 1.0
1.0 1.0 1.0 1.0 1.0 1.0 1.0 1.0
1.0 1.0 1.0 1.0 1.0 1.0 1.0 1.0
1.0 1.0 1.0 1.0 1.0 1.0 1.0 1.0
