saved_models/agent_maddpgv2_vs_opp_maddpgv2_2_vs_2_1_big_5_sec_agent_best_models/maddpgv2_target_actor_1.pt (torch, 160779 bytes, 21 tensors)

actor_fc_layers.blocks.0.block.0.weight f4 [128, 22]
000000 9d ab ff bd 2a 5a 90 bb 08 4b a2 bb 04 5c 70 3e
       -0.124839045 -0.0044052796 -0.004952792 0.23472601
000010 bc 8a 31 bd 80 6c db bc 82 62 88 bd 26 e9 1b bd
       -0.043345198 -0.026785135 -0.06659414 -0.038064145
000020 cb 2e 4b 3c 53 64 bf 3c f4 51 57 bd 1d 32 54 bc
       0.012401293 0.023363268 -0.05256839 -0.012951401
000030 c0 b6 54 3d 03 39 73 3c 5a 0c 2e 3d 9b b5 8e 3d
       0.051932096 0.014845136 0.042492248 0.06968232
000040 bf f8 6c bd d3 7b e2 bb 4b 8a 16 bd ca b1 05 3d
       -0.05785441 -0.0069117337 -0.03675298 0.032640256
000050 25 74 f9 bc a5 49 8c 3e 6c 5d 95 be 4e b4 75 bd
       -0.03045089 0.27399936 -0.29172838 -0.059986405
000060 7f 68 9e bd 3a c4 8a 3d b3 b6 26 3d 93 fa 03 bd
       -0.07734775 0.067757085 0.04070158 -0.032221388
000070 ae 38 19 bd c0 5f ba bd ca f2 14 bd d0 a3 e2 bd
       -0.03740757 -0.09100294 -0.036364354 -0.11066401
000080 d3 60 a0 3c 37 ad d4 bc de c5 c7 bd 4a ee 79 bc
       0.01957742 -0.025961502 -0.09754537 -0.015254566
000090 46 03 06 3e 9d 66 9d bb 00 6f f8 3b 7f 7f 67 bc
       0.13087186 -0.004803492 0.0075815916 -0.0141295185
0000a0 67 a4 55 3c f4 55 22 3d e6 12 84 bc b6 bb a4 3e
       0.013039685 0.039632753 -0.016122293 0.32174462
0000b0 d6 cd 21 be 50 e3 03 3d a2 1a c3 bc d7 88 47 be
       -0.15801176 0.032199204 -0.02381641 -0.19485794
0000c0 61 77 26 3e 69 00 d2 bd 59 ce 2d bd ae e4 2a 3e
       0.16256477 -0.102539845 -0.042433117 0.16688797
0000d0 a2 9f 35 3e fc d3 a3 bd 7b 01 9c bc bd 61 8e 3e
       0.17736676 -0.07999417 -0.019043675 0.27808943
0000e0 c2 92 a9 be 01 d7 e2 be 27 fb 97 3e 0c c2 1e be
       -0.3311978 -0.4430466 0.29683802 -0.1550371
0000f0 8f 1e 8f 3c ed bf 99 3d 40 d9 f2 bd f2 2b f9 bd
       0.017470626 0.0750731 -0.118578434 -0.12166585
000100 46 af bf bd d8 71 4d be 7d 25 ae be e5 f4 a3 bd
       -0.09359603 -0.20062959 -0.34012976 -0.08005694
000110 e8 66 dc 3c e3 e3 11 be d7 26 1c bd 3d 5a b9 bd
       0.026904538 -0.14247088 -0.038122978 -0.09050415
000120 16 eb b4 bc fb 28 35 be f9 d5 8b bd 9d db a5 be
       -0.022084754 -0.17691414 -0.068279214 -0.32394114
000130 32 bb 3e be df 7c 53 3e 66 be 03 3e e7 e9 5b 3d
       -0.18626097 0.20653103 0.128656 0.053689864
000140 04 aa d7 3d db ce cb bd 33 dc 1e 3e 55 ab 2f 3c
       0.10530475 -0.09951564 0.15513687 0.010722001
000150 52 b3 c4 bd 50 82 6f bd be 90 0b bd 14 66 14 be
       -0.09604515 -0.058473885 -0.034073584 -0.14492065
000160 22 0a bc bd 10 cf 5d bd cc 4b 2b be b9 4c 2a 3e
       -0.0918162 -0.05415255 -0.16728133 0.1663083
000170 72 b8 4c 3e 10 05 ee bd c0 36 da bc f2 b6 26 bd
       0.19992235 -0.11622059 -0.026637435 -0.040701814
000180 49 35 13 3e 05 11 24 be 5b 68 1a 3e 7e 52 cc 3d
       0.14375795 -0.16022117 0.15078871 0.09976672
000190 c8 66 a8 3d e4 77 a3 3d 95 89 25 3d 8b 26 93 3d
       0.08222729 0.07981852 0.04041441 0.07185086
0001a0 86 bf bb bd 20 bb 2b 3e a8 3d 0d be 2c c4 25 3e
       -0.091673896 0.16770601 -0.13793051 0.16188115
0001b0 c7 37 02 bd e8 97 18 be 8c d7 02 be e4 6a 97 bc
       -0.031791475 -0.14901698 -0.12777537 -0.018483587
0001c0 0d f1 02 3e 3c 7f ea be 3d 6e 92 3d 75 6c 04 bd
       0.12787266 -0.45800197 0.071499325 -0.032329995
0001d0 12 13 2b bd 42 b8 2d 3e bf fe ae 3d f9 b9 09 bd
       -0.041766234 0.1696482 0.08544683 -0.033624623
0001e0 1b 7e f4 bd 65 0d 8e be 68 3c af 3d 76 72 36 3f
       -0.11938115 -0.27744594 0.085564435 0.71268404
0001f0 61 d7 b3 be af 44 1c bc b0 fb 37 3c ef b1 8c bd
       -0.3512526 -0.00953786 0.011229441 -0.06869876
000200 88 dc dd 3b 6f ae 61 3e f0 ba 47 be 5c 14 01 3e
       0.006770674 0.22039197 -0.19504905 0.12605423
000210 8e e2 f4 be dc c8 73 bd 5d 09 d4 bd a9 3b 35 3e
       -0.47829098 -0.059517726 -0.103533484 0.1769854
000220 d3 22 51 bd 53 2e 6f 3b 8b 7d 62 bd f7 a4 d3 bd
       -0.0510586 0.0036496117 -0.05529551 -0.10334199
000230 35 2d c9 3d 67 e7 5d be 44 58 20 be 14 f5 00 bd
       0.09823076 -0.21670304 -0.1565867 -0.031483725
000240 ff 08 13 3e 6b 63 14 3c 5b 7c 63 3e 94 32 05 be
       0.143589 0.009056906 0.22215407 -0.13007575
000250 6f e0 1e 3e ad 8e f3 bd 02 16 e3 3d 71 60 20 3d
       0.15515302 -0.118924476 0.11088182 0.039154474
000260 d8 c7 01 3e 36 fc 68 3d ae 6e 54 be 07 67 aa 3d
       0.1267389 0.056881152 -0.20745346 0.08320432
000270 b4 bf e4 bc 6a 14 07 be 9b 93 e1 3b 39 c1 08 be
       -0.027923442 -0.13191381 0.006884051 -0.13354959
000280 1d 70 06 bd e5 d3 f3 3c 1c 3a 27 3e 22 79 c6 be
       -0.032821763 0.029764125 0.1633076 -0.38764292
000290 9b 5c 15 3d 0d ce b2 be 25 92 0e be 5f 3e 73 3e
       0.03646527 -0.3492283 -0.13922937 0.23754261
0002a0 0e 32 1e 3e 0f 8c 67 3e 92 69 3d be 53 4e f0 bd
       0.15448782 0.22612022 -0.18497303 -0.11733689
0002b0 a7 2e aa bd 45 43 ea bd 48 67 35 3d e6 de d0 3d
       -0.083096795 -0.11438612 0.04428795 0.101987645
0002c0 6a bc d7 3c ee 7f ba be 79 4f 8e 3e 1d 80 38 be
       0.02633496 -0.36425728 0.27795008 -0.18017621
0002d0 b6 81 82 3c 89 04 98 bc 72 62 8b be 36 b7 56 3e
       0.015930992 -0.01855685 -0.27223545 0.20968327
0002e0 48 7b 99 bd 4e 53 d8 3d d5 8d c3 be 56 88 0f be
       -0.07494217 0.10562764 -0.38194147 -0.14016852
0002f0 16 62 1e 3e 31 6b 3f be b5 b7 98 3e 7f 9f a1 bd
       0.15467104 -0.18693234 0.29827657 -0.078917496
000300 1b a5 39 3d 03 bb 59 3c 57 63 65 bc e3 9b 04 be
       0.045323472 0.013289216 -0.014000735 -0.12950091
000310 60 fd 68 3e 15 11 c3 bd e5 db 63 be 59 b5 b0 bd
       0.22752905 -0.095247425 -0.22251852 -0.08628339
000320 7e eb ff 3c 0a 42 84 be 71 0a 37 bd 25 72 be bd
       0.031240221 -0.25831634 -0.044687692 -0.09299115
000330 40 09 d3 bb c9 35 ec 3d ef 1d 95 3d 4a 68 c7 3d
       -0.0064403117 0.11533696 0.072811 0.097366884
000340 c6 d8 3c be 57 3e 96 bd 7e 3e 47 bd 85 80 a0 bd
       -0.18442068 -0.07336109 -0.04864358 -0.07837013
000350 25 f3 35 bd c6 3a 0e be 10 02 e2 3d 56 d6 05 be
       -0.044421334 -0.13889608 0.1103555 -0.13070044
000360 e4 ed 60 3c 29 d6 80 bc 9b 1e df bd 78 f2 1e be
       0.013728593 -0.01572712 -0.108945094 -0.15522182
000370 00 20 8a bb fa c1 3d be dc 59 17 be e5 74 8a 3e
       -0.0042152405 -0.18531027 -0.14780372 0.27042308
000380 cc dd 75 3d 4e 8c 0c 3e 84 fc 07 be d3 4b 26 be
       0.060025975 0.13725397 -0.13279921 -0.16239862
000390 8a d2 08 3e cd 7a de bc 4c 2a 85 bd af b2 7a be
       0.13361564 -0.027158165 -0.06502208 -0.24482225
0003a0 c3 6e 61 3e 55 dc c1 bd dd 8a 0e 3f e8 a9 bb bc
       0.22014908 -0.09465853 0.5568064 -0.022908166
0003b0 ab 4e 20 3d b2 86 a2 3d c9 90 06 be 1e b0 01 bd
       0.039137524 0.07935847 -0.13141169 -0.0316621
0003c0 4b 70 98 bc b3 90 28 be 48 c5 7a 3e a7 04 16 bd
       -0.018608233 -0.16461448 0.2448932 -0.03662553
0003d0 3e 9e c4 bd 1b 3d c4 3c 8e d2 27 3e e3 ee 5c be
       -0.09600495 0.023954919 0.16388914 -0.21575503
0003e0 36 57 79 3d af 76 3e 3c 75 7b 38 be ba 4c 22 bf
       0.060874186 0.011624976 -0.18015845 -0.63398325
0003f0 2d 83 1c 3f 91 99 c6 bd 9e b0 2a 3e e6 ab b0 bb
       0.6113766 -0.09697259 0.16668937 -0.0053915856

actor_fc_layers.blocks.0.block.1.weight f4 [128]
000000 54 58 53 3f 23 fd 7b 3f cc 15 76 3f 9c ae 60 3f
       0.82556653 0.9843313 0.9612701 0.8776643
000010 d5 70 7f 3f 42 87 81 3f b6 ef 34 3f a3 e0 c5 3e
       0.99781543 1.0119402 0.7067827 0.38647947
000020 f5 f3 21 3f 78 41 6f 3f 7c 6c 47 3f 6b a7 b7 3f
       0.63262874 0.9345927 0.7789991 1.4347967
000030 07 0d d9 3e 1a a2 47 3f 7d 73 7a 3f 36 95 96 3f
       0.42392752 0.7798172 0.9783247 1.1764286
000040 fc 3d 2c 3f 4e b9 ce 3e 6a fe 72 3f 15 b8 8a 3e
       0.6728208 0.4037575 0.94919455 0.27093568
000050 33 58 60 3f 38 e8 4d 3f 3f 1d 5b 3f 9b 5f 8e 3f
       0.8763458 0.8043246 0.855915 1.1122926
000060 64 48 af 3f e9 36 3d 3f ab c0 17 3f 33 2c 9d 3f
       1.3693967 0.7391191 0.59278363 1.2279114
000070 40 56 8d 3f de 62 4f 3f c6 66 ea 3e 0d a4 0a 3f
       1.1041946 0.81010234 0.45781535 0.5415657
000080 64 ba 5a 3f 7c a8 3e 3f 57 99 d5 3e 7a 2e 5b 3f
       0.8544066 0.74475837 0.41718552 0.8561779
000090 89 4d fc 3e 4b a3 3d 3f a1 86 bf 3f ed a4 fa 3e
       0.49277905 0.7407729 1.496296 0.48953953
0000a0 8a 11 e3 3e 47 da 1b 3f 79 df 76 3f f7 38 3b 3f
       0.4434932 0.6087994 0.9643474 0.73133796
0000b0 65 20 1f 3f c9 f6 57 3f 1b 3c a7 3e 66 ab f5 3e
       0.62158805 0.8436094 0.32663044 0.4798233
0000c0 75 c9 52 3f d2 7f 90 3f ca 5a 83 3f 75 3d 64 3f
       0.8233865 1.1289008 1.0262082 0.89156276
0000d0 13 51 85 3f 91 b8 23 3f 5a 8c 5c 3f 5b 52 bc 3e
       1.0415367 0.639535 0.8615166 0.36781582
0000e0 4c 93 9d 3e 00 b5 10 3f a5 f0 7c 3f c8 a2 80 3f
       0.3077644 0.56526184 0.98804694 1.0049677
0000f0 13 29 95 3f 30 d2 27 3f 52 ae 65 3f 9c 29 9d 3f
       1.165316 0.65555096 0.89719117 1.2278323
000100 87 bf 07 3f c5 e7 4a 3f 90 51 05 3f c0 f3 30 3f
       0.5302662 0.792599 0.5207758 0.69121933
000110 6b ca 20 3f ca e4 45 3f 42 09 23 3f 8d dd 9f 3f
       0.62808865 0.7730223 0.63686 1.2489487
000120 64 3f be 3f 5e d6 82 3f 27 8d 0a 3f 76 77 94 3f
       1.4863095 1.022167 0.5412163 1.1598957
000130 db bc de 3e fb 07 2a 3f 8f 0d 47 3f ae da ae 3e
       0.4350346 0.6641843 0.77755064 0.34151214
000140 21 4f 4b 3f bf 56 93 3f 71 b7 83 3f d8 cc 6a 3f
       0.79417616 1.1510848 1.0290357 0.91718817
000150 7d 8a 32 3f c5 21 40 3f ee 99 44 3f b3 74 50 3f
       0.69742566 0.7505153 0.7679738 0.8142807
000160 be 82 85 3f 83 dc 0f 3f aa 20 6d 3f ed 20 7b 3f
       1.0430524 0.5619585 0.92627966 0.98097116
000170 ab f5 65 3f 7a 9e 50 3f 55 a5 c7 3e bd 69 d3 3e
       0.89827985 0.81491816 0.38993326 0.4129161
000180 19 d2 4f 3f c2 7c 27 3f bf d9 57 3f 35 21 27 3f
       0.8117996 0.6542474 0.8431663 0.65285045
000190 99 ab 35 3f 7f 3c 58 3f c0 b7 52 3f 04 a1 96 3f
       0.7096496 0.8446731 0.8231163 1.1767888
0001a0 67 14 54 3f c4 62 72 3f f8 55 f9 3e 49 3a b0 3e
       0.8284363 0.94681954 0.486984 0.34419468
0001b0 1a 7c e2 3e c1 a7 4b 3f 23 0f 80 3f 9c e0 03 3f
       0.44235307 0.7955285 1.0004619 0.515146
0001c0 f3 b9 70 3f bf 94 5b 3f 4a 1f 55 3f 00 5f f5 3f
       0.94033736 0.85773844 0.8325087 1.9169617
0001d0 73 42 d5 3f 94 36 09 3f 19 06 09 3f c5 ad 37 3f
       1.6660904 0.53598905 0.5352493 0.71749526
0001e0 5e e5 2a 3f 7e 75 dc 3e 87 19 2a 3f d9 f0 7d 3f
       0.66756237 0.4305839 0.664452 0.9919563
0001f0 99 98 2f 3f 4f b8 af 3f 1e e5 4b 3f c0 6b d4 3e
       0.6859222 1.3728122 0.7964648 0.41488457

actor_fc_layers.blocks.0.block.1.bias f4 [128]
000000 88 ee 18 bf 2b 28 8e be e5 f6 1e bd 9b b0 0f be
       -0.5973897 -0.2776502 -0.038809676 -0.14032213
000010 56 c7 bb bc 38 b8 31 be c1 8e e3 3d 1a 84 c3 3e
       -0.0229222 -0.1735543 0.111112125 0.38186723
000020 06 c8 a0 bd 71 84 ab bd 80 58 8f bd 31 b4 cb bd
       -0.078506514 -0.083748706 -0.06999302 -0.09946478
000030 3f ae f8 3e da 57 71 be 00 63 9c bd 36 36 ea be
       0.4857044 -0.23568669 -0.0763607 -0.45744485
000040 68 91 17 be 3b b1 e4 3e 84 7f 25 be 6e 27 e9 3e
       -0.14801562 0.44666466 -0.16161925 0.45537895
000050 34 c1 30 3e 31 a6 07 3e e3 cf 87 be 3c 12 0b bf
       0.17261201 0.1324699 -0.26525792 -0.543247
000060 ac 8e 2f 3d 90 81 53 bd bf f9 06 be 5a 9c bf be
       0.042860672 -0.051637232 -0.13181208 -0.37423974
000070 5a 31 42 3d ea fc 0e 3c 21 7f 35 3f dd 48 27 3f
       0.047410347 0.008727292 0.7089711 0.65345556
000080 1f 6c db bb 50 a0 05 be 9d a4 21 3f 3b f8 03 be
       -0.0066962386 -0.13049436 0.63141805 -0.12887661
000090 ca bb 0d 3f de bf 2c bb 2e df 92 bd ea c4 0c be
       0.5536467 -0.002635948 -0.071714744 -0.13746992
0000a0 c2 97 18 3f 5c 2f 57 be cb 8c 83 bd 85 de fb 3e
       0.59606564 -0.2101416 -0.064233385 0.49193206
0000b0 9e 89 56 be d0 d9 7d 3d 87 3a 13 3e 1c d1 59 3f
       -0.20950934 0.0619753 0.14377795 0.850847
0000c0 22 24 d8 be db a7 10 bf e3 3d 83 be 53 34 2a 3e
       -0.42215067 -0.5650613 -0.25633153 0.16621523
0000d0 15 cc 06 3c e0 f4 36 3e a8 83 1a 3b 3f e5 c9 3e
       0.008227368 0.1786685 0.0023577008 0.39432713
0000e0 9a a2 ca 3e d7 8f 1e be 11 0a 7d be 85 3c b4 be
       0.3957718 -0.15484558 -0.24710871 -0.35202423
0000f0 34 81 52 3e a4 ea cd bd 17 d8 04 bf a8 2b 4b bc
       0.205571 -0.1005452 -0.51892227 -0.012400545
000100 d3 97 26 3f fd b2 e8 bc 90 67 c5 3e 24 64 93 3e
       0.65075415 -0.02840566 0.38555574 0.2878734
000110 d2 55 47 bd 46 80 38 be c5 de 17 be f4 2e 1a 3e
       -0.04866583 -0.18017682 -0.14831074 0.15056974
000120 de 07 ae be f2 04 7a bc 60 53 1d 3d 25 fa ef be
       -0.33990377 -0.015259968 0.03840959 -0.46870533
000130 f3 96 2f 3f 25 73 6e be dc 9c 33 be 96 78 0e 3f
       0.68589705 -0.23286112 -0.17540306 0.5565275
000140 92 1b 85 bd 3a af 0b 3e ac 53 8d 3e c4 f0 df bd
       -0.06499399 0.13641062 0.276029 -0.10934594
000150 ad ee 20 bd 9c 2b be be 9b 9a 82 be e1 0a 26 be
       -0.03929012 -0.37142646 -0.2550858 -0.16215087
000160 f9 6a e6 bc f6 45 38 3f c2 74 bb bc 89 b6 22 bd
       -0.02812718 0.7198175 -0.022882823 -0.03972486
000170 49 bd 23 3c ad 4d 97 3b 1a e0 17 3f c5 be f2 3e
       0.00999386 0.004617414 0.59326327 0.4741117
000180 0c fe 98 be 94 41 90 be 06 1b 3e bf 74 e0 96 3e
       -0.29881322 -0.28175032 -0.74259984 0.2946812
000190 84 c8 cd be 94 a6 1c be 86 5f 37 bf 9b 06 d0 bd
       -0.40192044 -0.1529792 -0.7163013 -0.1015751
0001a0 f2 31 18 bf 51 7f 83 bc 71 9d 1a 3f c1 d6 fa 3e
       -0.5945121 -0.01605192 0.60396487 0.4899197
0001b0 50 d2 31 3f d0 3f 2c bf 2f 87 dd 3b 39 f8 1e 3f
       0.69461536 -0.6728487 0.0067605 0.6209751
0001c0 5d 6c aa be 08 38 1c be 7d a7 1f be e0 64 87 be
       -0.332858 -0.15255749 -0.15591235 -0.2644415
0001d0 fb 4e f5 3c 46 f0 22 3f 96 af f5 3e 74 13 5d bc
       0.029944887 0.6364788 0.47985524 -0.0134934075
0001e0 32 14 1e 3d 55 8e 1f 3f a4 a3 a9 be d8 bc dc bc
       0.03859348 0.62326556 -0.3313266 -0.026945516
0001f0 14 af b4 be c5 d9 d9 be 33 ef 06 be 5f ee aa 3e
       -0.35289824 -0.42548957 -0.13177185 0.33384988

actor_fc_layers.blocks.0.block.1.running_mean f4 [128]
000000 00 00 00 00 00 00 00 00 00 00 00 00 00 00 00 00
       0.0 0.0 0.0 0.0
000010 00 00 00 00 00 00 00 00 00 00 00 00 00 00 00 00
       0.0 0.0 0.0 0.0
000020 00 00 00 00 00 00 00 00 00 00 00 00 00 00 00 00
       0.0 0.0 0.0 0.0
000030 00 00 00 00 00 00 00 00 00 00 00 00 00 00 00 00
       0.0 0.0 0.0 0.0
000040 00 00 00 00 00 00 00 00 00 00 00 00 00 00 00 00
       0.0 0.0 0.0 0.0
000050 00 00 00 00 00 00 00 00 00 00 00 00 00 00 00 00
       0.0 0.0 0.0 0.0
000060 00 00 00 00 00 00 00 00 00 00 00 00 00 00 00 00
       0.0 0.0 0.0 0.0
000070 00 00 00 00 00 00 00 00 00 00 00 00 00 00 00 00
       0.0 0.0 0.0 0.0
000080 00 00 00 00 00 00 00 00 00 00 00 00 00 00 00 00
       0.0 0.0 0.0 0.0
000090 00 00 00 00 00 00 00 00 00 00 00 00 00 00 00 00
       0.0 0.0 0.0 0.0
0000a0 00 00 00 00 00 00 00 00 00 00 00 00 00 00 00 00
       0.0 0.0 0.0 0.0
0000b0 00 00 00 00 00 00 00 00 00 00 00 00 00 00 00 00
       0.0 0.0 0.0 0.0
0000c0 00 00 00 00 00 00 00 00 00 00 00 00 00 00 00 00
       0.0 0.0 0.0 0.0
0000d0 00 00 00 00 00 00 00 00 00 00 00 00 00 00 00 00
       0.0 0.0 0.0 0.0
0000e0 00 00 00 00 00 00 00 00 00 00 00 00 00 00 00 00
       0.0 0.0 0.0 0.0
0000f0 00 00 00 00 00 00 00 00 00 00 00 00 00 00 00 00
       0.0 0.0 0.0 0.0
000100 00 00 00 00 00 00 00 00 00 00 00 00 00 00 00 00
       0.0 0.0 0.0 0.0
000110 00 00 00 00 00 00 00 00 00 00 00 00 00 00 00 00
       0.0 0.0 0.0 0.0
000120 00 00 00 00 00 00 00 00 00 00 00 00 00 00 00 00
       0.0 0.0 0.0 0.0
000130 00 00 00 00 00 00 00 00 00 00 00 00 00 00 00 00
       0.0 0.0 0.0 0.0
000140 00 00 00 00 00 00 00 00 00 00 00 00 00 00 00 00
       0.0 0.0 0.0 0.0
000150 00 00 00 00 00 00 00 00 00 00 00 00 00 00 00 00
       0.0 0.0 0.0 0.0
000160 00 00 00 00 00 00 00 00 00 00 00 00 00 00 00 00
       0.0 0.0 0.0 0.0
000170 00 00 00 00 00 00 00 00 00 00 00 00 00 00 00 00
       0.0 0.0 0.0 0.0
000180 00 00 00 00 00 00 00 00 00 00 00 00 00 00 00 00
       0.0 0.0 0.0 0.0
000190 00 00 00 00 00 00 00 00 00 00 00 00 00 00 00 00
       0.0 0.0 0.0 0.0
0001a0 00 00 00 00 00 00 00 00 00 00 00 00 00 00 00 00
       0.0 0.0 0.0 0.0
0001b0 00 00 00 00 00 00 00 00 00 00 00 00 00 00 00 00
       0.0 0.0 0.0 0.0
0001c0 00 00 00 00 00 00 00 00 00 00 00 00 00 00 00 00
       0.0 0.0 0.0 0.0
0001d0 00 00 00 00 00 00 00 00 00 00 00 00 00 00 00 00
       0.0 0.0 0.0 0.0
0001e0 00 00 00 00 00 00 00 00 00 00 00 00 00 00 00 00
       0.0 0.0 0.0 0.0
0001f0 00 00 00 00 00 00 00 00 00 00 00 00 00 00 00 00
       0.0 0.0 0.0 0.0

actor_fc_layers.blocks.0.block.1.running_var f4 [128]
000000 00 00 80 3f 00 00 80 3f 00 00 80 3f 00 00 80 3f
       1.0 1.0 1.0 1.0
000010 00 00 80 3f 00 00 80 3f 00 00 80 3f 00 00 80 3f
       1.0 1.0 1.0 1.0
000020 00 00 80 3f 00 00 80 3f 00 00 80 3f 00 00 80 3f
       1.0 1.0 1.0 1.0
000030 00 00 80 3f 00 00 80 3f 00 00 80 3f 00 00 80 3f
       1.0 1.0 1.0 1.0
000040 00 00 80 3f 00 00 80 3f 00 00 80 3f 00 00 80 3f
       1.0 1.0 1.0 1.0
000050 00 00 80 3f 00 00 80 3f 00 00 80 3f 00 00 80 3f
       1.0 1.0 1.0 1.0
000060 00 00 80 3f 00 00 80 3f 00 00 80 3f 00 00 80 3f
       1.0 1.0 1.0 1.0
000070 00 00 80 3f 00 00 80 3f 00 00 80 3f 00 00 80 3f
       1.0 1.0 1.0 1.0
000080 00 00 80 3f 00 00 80 3f 00 00 80 3f 00 00 80 3f
       1.0 1.0 1.0 1.0
000090 00 00 80 3f 00 00 80 3f 00 00 80 3f 00 00 80 3f
       1.0 1.0 1.0 1.0
0000a0 00 00 80 3f 00 00 80 3f 00 00 80 3f 00 00 80 3f
       1.0 1.0 1.0 1.0
0000b0 00 00 80 3f 00 00 80 3f 00 00 80 3f 00 00 80 3f
       1.0 1.0 1.0 1.0
0000c0 00 00 80 3f 00 00 80 3f 00 00 80 3f 00 00 80 3f
       1.0 1.0 1.0 1.0
0000d0 00 00 80 3f 00 00 80 3f 00 00 80 3f 00 00 80 3f
       1.0 1.0 1.0 1.0
0000e0 00 00 80 3f 00 00 80 3f 00 00 80 3f 00 00 80 3f
       1.0 1.0 1.0 1.0
0000f0 00 00 80 3f 00 00 80 3f 00 00 80 3f 00 00 80 3f
       1.0 1.0 1.0 1.0
000100 00 00 80 3f 00 00 80 3f 00 00 80 3f 00 00 80 3f
       1.0 1.0 1.0 1.0
000110 00 00 80 3f 00 00 80 3f 00 00 80 3f 00 00 80 3f
       1.0 1.0 1.0 1.0
000120 00 00 80 3f 00 00 80 3f 00 00 80 3f 00 00 80 3f
       1.0 1.0 1.0 1.0
000130 00 00 80 3f 00 00 80 3f 00 00 80 3f 00 00 80 3f
       1.0 1.0 1.0 1.0
000140 00 00 80 3f 00 00 80 3f 00 00 80 3f 00 00 80 3f
       1.0 1.0 1.0 1.0
000150 00 00 80 3f 00 00 80 3f 00 00 80 3f 00 00 80 3f
       1.0 1.0 1.0 1.0
000160 00 00 80 3f 00 00 80 3f 00 00 80 3f 00 00 80 3f
       1.0 1.0 1.0 1.0
000170 00 00 80 3f 00 00 80 3f 00 00 80 3f 00 00 80 3f
       1.0 1.0 1.0 1.0
000180 00 00 80 3f 00 00 80 3f 00 00 80 3f 00 00 80 3f
       1.0 1.0 1.0 1.0
000190 00 00 80 3f 00 00 80 3f 00 00 80 3f 00 00 80 3f
       1.0 1.0 1.0 1.0
0001a0 00 00 80 3f 00 00 80 3f 00 00 80 3f 00 00 80 3f
       1.0 1.0 1.0 1.0
0001b0 00 00 80 3f 00 00 80 3f 00 00 80 3f 00 00 80 3f
       1.0 1.0 1.0 1.0
0001c0 00 00 80 3f 00 00 80 3f 00 00 80 3f 00 00 80 3f
       1.0 1.0 1.0 1.0
0001d0 00 00 80 3f 00 00 80 3f 00 00 80 3f 00 00 80 3f
       1.0 1.0 1.0 1.0
0001e0 00 00 80 3f 00 00 80 3f 00 00 80 3f 00 00 80 3f
       1.0 1.0 1.0 1.0
0001f0 00 00 80 3f 00 00 80 3f 00 00 80 3f 00 00 80 3f
       1.0 1.0 1.0 1.0

actor_fc_layers.blocks.1.block.0.weight f4 [128, 128]
000000 d5 31 7d 3d 06 07 47 3d 84 c8 d4 bb b2 c8 02 3d
       0.0618151 0.048590682 -0.00649363 0.03192968
000010 6d b5 b5 3c 94 7d e7 3b 79 31 a1 bd 08 86 68 bd
       0.022181237 0.0070645306 -0.07870764 -0.056768447
000020 86 25 04 bc 9b 8f c8 bd cc 7b 63 3d d2 8a b8 3b
       -0.008065587 -0.097930156 0.055537984 0.005631783
000030 ee b4 8c 3c 7a 21 c5 bd 3f 85 4f bd 9b 1d 02 bd
       0.017176118 -0.09625526 -0.050664183 -0.031766515
000040 85 87 23 bb bc 6f 2b 3d 6e 2f 83 3c e2 0d 32 bd
       -0.0024952602 0.041854605 0.016013827 -0.04347027
000050 90 bc 9e bd 14 64 65 bd 2e 83 b4 bd 4c 79 19 be
       -0.07750809 -0.056003645 -0.08814083 -0.14987677
000060 fe 55 01 bd f0 f9 e6 ba 56 b6 82 bd 95 9d ea bd
       -0.03157615 -0.0017622095 -0.06382434 -0.11455838
000070 24 20 62 3d 64 0d 22 bd e2 6a 6f bc 13 e0 c8 bc
       0.055206433 -0.03956355 -0.014612885 -0.02452091
000080 bf 79 93 bd 20 09 1f 3d af c7 8c bc 97 80 0c bd
       -0.072009556 0.03882706 -0.01718506 -0.03430232
000090 12 11 45 3c ae 5e 78 bd fa f3 fd bd e2 d0 37 bd
       0.012027996 -0.06063717 -0.124000505 -0.04487694
0000a0 13 9d 8f bd 7d 64 b0 bd b1 4f 20 3d 98 e9 e0 bd
       -0.070123814 -0.086129166 0.0391385 -0.109820545
0000b0 26 e0 4d 3c e7 e3 1c 3c 5a f4 8b bd 8f b5 02 bc
       0.012565648 0.0095758205 -0.06833716 -0.007977857
0000c0 c1 77 a4 b8 06 8b 31 3d c5 67 7a bb 95 19 27 bc
       -7.842435e-05 0.043345474 -0.0038208824 -0.01019897
0000d0 dc 98 14 bd ff 10 c0 bd 1b 5b 97 bc bd 06 80 bc
       -0.03627859 -0.09378242 -0.01847606 -0.015628213
0000e0 fa f0 b1 bd 8f 37 17 3c 22 34 0e 3d c6 b2 fa bd
       -0.08688541 0.009229555 0.034717686 -0.122411296
0000f0 6d 3b 28 bd c5 e6 29 bd 9b 35 17 3d 0c 10 1d bd
       -0.041072298 -0.041479845 0.036916357 -0.03834538
000100 a9 cd 67 bd c8 0d 62 3d 5b 75 03 bd f8 9d aa bd
       -0.056592617 0.055188924 -0.03209434 -0.083309114
000110 82 c4 44 bd 54 23 9c bd 44 8c 5d bb dd f0 af bd
       -0.048038967 -0.07623926 -0.0033805529 -0.08590863
000120 1c 70 20 bd f6 de 02 3c 85 3e 6b bd af c0 09 be
       -0.039169416 0.007987728 -0.05743267 -0.13452409
000130 29 9a a1 bc a0 d4 ad 3c 2e d4 8c 3d 65 72 66 bd
       -0.01972683 0.021219552 0.068764076 -0.05626144
000140 c8 6e 96 bd 73 ea 0c bc 26 ef 3e bc 4e fe 79 bc
       -0.073453486 -0.008600819 -0.011653697 -0.015258385
000150 36 71 74 3c 6c cb 90 ba 7f 3e 87 bd 95 fa a7 3b
       0.01491957 -0.0011046953 -0.06603717 0.0051263073
000160 9d 74 b2 3b 82 bf 09 3c fd dc 37 3d c9 af 20 bd
       0.0054460303 0.008407475 0.044888485 -0.03923014
000170 94 0a 5d 3d 68 e2 2f bd cf f0 0e bc 03 9b 0d bd
       0.053965166 -0.042940527 -0.008724405 -0.03457166
000180 62 de bb bc 84 7e 18 3d 19 86 e2 bc 21 69 e8 bc
       -0.022933189 0.03723003 -0.027651833 -0.028370442
000190 b5 35 a7 bc 80 68 d9 bd d8 12 17 ba 73 73 8b bd
       -0.020411352 -0.10615635 -0.0005763001 -0.068091296
0001a0 ed ca e7 bd 01 e7 f8 bb 73 9e 48 bc a5 46 66 bd
       -0.11318002 -0.007595897 -0.0122448085 -0.056219716
0001b0 81 70 a0 bc 79 37 79 3b 26 05 cc bc 3e e3 77 b8
       -0.019584896 0.003802745 -0.024904799 -5.9101025e-05
0001c0 3b fb 1a 3d 51 21 22 3d ab c9 09 bd 7d c1 ad bd
       0.03783725 0.039582554 -0.03363959 -0.084841706
0001d0 3b c6 ce bd 73 ca 49 bb 2e dd fe bc 62 42 fc bc
       -0.10096403 -0.0030790835 -0.031111326 -0.030793373
0001e0 9d f1 f2 bb 20 8a 16 bb e0 c0 90 bd cd 6d 74 bd
       -0.0074140565 -0.0022970513 -0.07068038 -0.059675027
0001f0 1e 23 4a 3c 97 3f db 3b 1b aa bc 3c ba 35 b2 bd
       0.012337474 0.00669093 0.023030331 -0.08701654
000200 8b cb f9 3d 51 0e 3b 3d 11 87 bf 3c b8 5f 6b 3d
       0.12197026 0.04566795 0.023379834 0.05746433
000210 31 47 f1 b8 6a b0 42 be 68 12 e9 3d f9 1e b9 bd
       -0.00011505036 -0.19012609 0.11380464 -0.09039111
000220 3c 23 be bd 56 0b 79 bb 63 34 40 3e ab b3 15 be
       -0.09284064 -0.0038001142 0.18769984 -0.14619319
000230 fd 6e 08 bd 5f 7e 59 3d ea 70 04 3d f3 a8 19 be
       -0.03330897 0.053099032 0.032334246 -0.15005855
000240 29 7c 7f bc 4b f6 af 3d 97 8a 51 3d 78 0e 46 3e
       -0.015593567 0.085918985 0.05115756 0.19341457
000250 cd 67 23 3d f3 d9 ad bd 47 95 83 bd 2a 37 bc bc
       0.039893914 -0.08488836 -0.06424957 -0.022975523
000260 72 b5 16 bd 5f 54 47 bc 13 f5 d1 3c b2 4b 02 be
       -0.036794133 -0.012166112 0.025629556 -0.12724188
000270 0a e3 03 3e f0 37 a5 3d 10 22 2d 3d a0 64 9a 3d
       0.12879577 0.0806731 0.042268813 0.07538724
000280 6a e3 cc bd df 83 25 be 73 d6 ae 3d d3 d3 30 3e
       -0.10004313 -0.16163586 0.08536997 0.17268305
000290 2b c7 da 3c fa 2c 76 bd df b5 16 be 81 17 f7 3d
       0.026706299 -0.060101487 -0.14717816 0.1206503
0002a0 f9 7e 09 be 82 82 8f 3d 30 ad 1f bd 1b 3f 8b 3c
       -0.13427342 0.07007314 -0.038983524 0.016997864
0002b0 fa 50 58 bd 30 2f ff bd 8c cc 3f bd 1a 3d 8f 3d
       -0.0528116 -0.12460172 -0.04682593 0.06994076
0002c0 fb 05 2b bd 91 5c 22 bd cd 70 29 be c4 ea 37 bd
       -0.04175375 -0.03963906 -0.16546936 -0.044901624
0002d0 60 1c 1e be 33 12 dc bc 8b b5 88 bd 5c 4a 68 3e
       -0.15440512 -0.026864147 -0.066752516 0.22684616
0002e0 3a 97 33 be e0 a5 b9 3d ef dc 8f 3c 18 38 04 be
       -0.17538157 0.09064841 0.017561404 -0.12912023
0002f0 88 44 19 3e 7a 01 e5 3d d6 63 d0 3c 03 e2 ef bd
       0.14967549 0.11181922 0.02543823 -0.1171303
000300 7a 73 05 3e 76 66 74 bd 26 4c dd bc ab 78 ce bc
       0.13032332 -0.059668027 -0.02701385 -0.025204023
000310 5b 8e 03 be c3 7f c4 bd ac f2 f7 bd 98 8d 41 b9
       -0.12847273 -0.09594681 -0.12106833 -0.00018458662
000320 40 b6 a4 bd 6d 22 28 bd 48 59 82 bb 29 6e ea 3c
       -0.08042574 -0.041048456 -0.0039779283 0.028616982
000330 86 b3 56 3c 69 cd 22 3d 47 bf 7a 3c 2d a1 0b be
       0.013104325 0.039746676 0.015304393 -0.13635702
000340 f9 b2 d1 3c 15 5c df bd 83 7b 01 be 85 2f ba 3c
       0.025598036 -0.10906235 -0.12644772 0.022727737
000350 07 46 49 3d 50 04 85 3c 98 cc a9 bd b7 fb d1 bd
       0.04913905 0.016237408 -0.08290976 -0.10253089
000360 a2 0b 42 3d 91 42 9c 3d 7d e8 68 3d d4 3f aa bd
       0.047374375 0.07629884 0.056862343 -0.083129555
000370 eb 23 67 bd 4c f4 fe bc 4d 84 7c 3b ed 4b 01 be
       -0.05643074 -0.03112235 0.0038531006 -0.1262662
000380 d3 da b5 3d 08 99 55 bd 60 ab 93 bd eb d3 67 3d
       0.08879628 -0.052147895 -0.072104216 0.056598585
000390 2d 1d 14 3e 96 bd c6 3d 4b ce db bc fb ae 81 3d
       0.14464255 0.097041294 -0.026831767 0.06332203
0003a0 4d 1c a6 bd b6 7a 81 bc ad 49 ae 3d 5f 03 fc bc
       -0.08110867 -0.015805583 0.08510146 -0.030763326
0003b0 77 fa f6 bc 28 16 2c bd f2 bf b8 bd 64 81 03 be
       -0.030148728 -0.042013317 -0.09020986 -0.12842327
0003c0 29 ce 0c be 45 02 74 3c b3 e5 92 bc c4 7e d9 3c
       -0.13750519 0.014893119 -0.017931795 0.026549704
0003d0 10 6b b8 bd 5c 1d 5d 3d 5f 7d 2f 3c 5b 90 7e bc
       -0.090047956 0.053983077 0.010711043 -0.015537347
0003e0 3c 91 17 bd 39 3a 57 3e 4e e9 c3 3c e6 11 89 bd
       -0.03700374 0.21018304 0.02391496 -0.06692867
0003f0 06 16 22 bd 5b 4b 4a 3d 77 0e d2 3c 33 22 bd bd
       -0.039571784 0.04938827 0.025641663 -0.092350386

actor_fc_layers.blocks.1.block.1.weight f4 [128]
000000 69 a5 75 3f 5d 2d 7f 3f 2e 1e 80 3f 7a 65 82 3f
       0.9595552 0.99678594 1.000921 1.0187218
000010 b9 05 7a 3f d3 a4 95 3f b6 a8 00 40 a2 8b 75 3f
       0.9766498 1.1690925 2.0102973 0.9591619
000020 4f 85 8b 3f 9d 03 4f 3f e9 c9 71 3f b5 0e 7a 3f
       1.0900058 0.8086489 0.94448715 0.9767869
000030 5b 9e 91 3f 1d da 78 3f 38 08 92 3f fd e2 76 3f
       1.1376451 0.97207814 1.1408758 0.96440107
000040 1d ff 76 3f 11 21 7a 3f 8b 16 85 3f 9a 49 c3 3f
       0.9648302 0.97706705 1.0397505 1.5256836
000050 df ce 96 3f 59 e9 78 3f 8c ed 88 3f b5 cf 77 3f
       1.1781882 0.9723106 1.0697494 0.9680131
000060 2f 4b 8e 3f e8 89 ab 3f 46 a3 9c 3f 83 f5 74 3f
       1.1116694 1.3401461 1.2237327 0.9568712
000070 b9 1c b2 3f 7d 9e 77 3f 6e 80 82 3f 6a 54 8f 3f
       1.3915015 0.9672621 1.0195444 1.1197636
000080 43 1a 85 3f 54 66 95 3f 88 54 6a 3f 92 60 7e 3f
       1.039864 1.1671853 0.91535234 0.99366105
000090 33 e1 8e 3f 75 41 7d 3f a3 ab 91 3f 8c ac 76 3f
       1.1162475 0.98928005 1.1380504 0.96357036
0000a0 29 d9 7c 3f 72 ed 7f 3f 68 86 9d 3f d4 db 80 3f
       0.9876886 0.9997169 1.2306643 1.0067086
0000b0 26 ab 81 3f 76 cf 76 3f 4e 35 75 3f f7 32 5a 3f
       1.0130355 0.9641031 0.9578446 0.85234016
0000c0 d0 53 8d 3f 80 70 79 3f 5d 87 69 3f 95 3c 76 3f
       1.1041203 0.97437286 0.9122217 0.9618619
0000d0 d2 7e 7a 3f 31 92 80 3f b3 ae 97 3f 3b 63 8f 3f
       0.9784976 1.0044614 1.1850189 1.1202158
0000e0 0a 47 8b 3f 38 c0 91 3f 15 1d 75 3f 8a 5d 8e 3f
       1.0881054 1.1386786 0.957475 1.1122296
0000f0 c1 0b 76 3f da 22 be 3f 79 08 90 3f d1 78 62 3f
       0.96111685 1.4854386 1.1252586 0.884656
000100 be d3 84 3f 98 37 6d 3f 80 5e 81 3f 4f b5 81 3f
       1.0377119 0.92662954 1.0106964 1.0133456
000110 f2 21 71 3f 12 b9 82 3f d2 70 8d 3f f2 0e 89 3f
       0.9419242 1.0212729 1.1050055 1.0707686
000120 47 ba 56 3f 21 f1 7b 3f 49 ab 5c 3f bf 71 a1 3f
       0.83877987 0.9841481 0.8619886 1.2612838
000130 19 b2 7c 3f 56 cb 88 3f ac cd 99 3f c9 1a 7d 3f
       0.98709255 1.0687053 1.2015891 0.98868996
000140 59 f1 7f 3f 1c 69 7d 3f c7 4a 83 3f 4d 0a 78 3f
       0.9997764 0.9898851 1.0257195 0.9689072
000150 b0 6a 68 3f bd 1f 80 3f 29 36 7a 3f b3 fb 9f 3f
       0.9078779 1.0009686 0.9773889 1.2498688
000160 2a b1 8b 3f 0a ed 74 3f 35 78 77 3f ed 7b 70 3f
       1.0913441 0.9567419 0.96667796 0.93939096
000170 e7 fc 9c 3f f9 c1 7d 3f ec 8e d8 3f 2d c3 7a 3f
       1.226468 0.99124104 1.6918616 0.97954065
000180 c9 f4 7a 3f d9 63 6f 3f 8b a0 87 3f 26 57 8f 3f
       0.9802976 0.9351173 1.0595869 1.119847
000190 81 a6 80 3f 5e 68 f0 3e df 33 2d 3f d5 a2 7f 3f
       1.0050813 0.46954626 0.67657274 0.99857837
0001a0 d3 4b bb 3f 6f cd 8a 3f f3 89 81 3f 39 d5 7f 3f
       1.4632515 1.0843943 1.0120224 0.99934727
0001b0 9c e4 7a 3f b5 ef 7a 3f 87 92 8f 3f 00 d7 6e 3f
       0.9800508 0.98022014 1.1216592 0.93296814
0001c0 ab 99 90 3f 46 5a 76 3f 3f fa 88 3f fd 79 7b 3f
       1.1296896 0.96231496 1.0701369 0.98233014
0001d0 42 2f 87 3f 06 71 86 3f cd 0c 67 3f 10 c6 ab 3f
       1.0561297 1.0503242 0.9025391 1.3419819
0001e0 b2 4c 86 3f bb 28 89 3f e6 92 a9 3f 39 80 70 3f
       1.0492156 1.0715555 1.3247955 0.9394565
0001f0 08 67 90 3f ed 3a a6 3f 31 52 99 3f 70 75 a1 3f
       1.1281443 1.2986733 1.1978208 1.2613964

actor_fc_layers.blocks.1.block.1.bias f4 [128]
000000 32 3d fa bc bd 6e 19 3d c7 c0 40 bb f6 6c 7c bc
       -0.030546758 0.037459124 -0.002941178 -0.015406838
000010 c2 f9 b8 bc 53 e0 49 bd e8 f5 2a bf ee 05 0c 3d
       -0.022580031 -0.049286198 -0.66781473 0.034185342
000020 fe 06 c6 3e 7d 37 cc 3d 9f 48 4a bd 05 56 be 3c
       0.3867721 0.09971521 -0.049385663 0.023234377
000030 3b 14 82 bd 71 75 21 bd aa 44 c2 3c 8a 7d f8 bc
       -0.06351515 -0.03941864 0.023714382 -0.0303333
000040 d0 02 65 bd 3a 7f 05 3e a9 03 38 3d 7f ee cb bd
       -0.055910885 0.13036814 0.044925366 -0.09957599
000050 75 f0 e4 be 97 ef 06 bc b3 6a c4 3e 36 e6 c6 bc
       -0.44714704 -0.008235834 0.38362655 -0.024279695
000060 2e 3e 0c 3e 1f e3 dc 3d 2f 5e 21 3e 88 15 a5 3d
       0.13695595 0.107855074 0.15758584 0.080607474
000070 46 8e 3e 3e 65 26 3b bd e2 ca 78 bc 8e 6a 57 3d
       0.1860896 -0.045690913 -0.01518509 0.052591853
000080 ce 7b be bd 3d dd f8 3d d2 bc f8 bc 8a c4 81 3d
       -0.093009576 0.12151573 -0.030363474 0.06336315
000090 53 f8 32 3e c1 ca 2b bd 9c 0d 66 3c 2d 16 1a 3e
       0.1747754 -0.041941408 0.014041331 0.15047522
0000a0 45 fa ac bc 13 55 82 3c 8d 1e fe 3d 3f 75 1a bd
       -0.021115432 0.015909707 0.12408171 -0.03770947
0000b0 97 0b 13 3c b3 99 7b 3d c3 4b d5 bc b6 9c d6 3d
       0.008974931 0.061425876 -0.026037103 0.10479109
0000c0 4f 14 2a 3d 01 e3 e8 bc be f6 99 3e a0 7c 52 bc
       0.041523274 -0.028428556 0.30071062 -0.012847096
0000d0 1d 75 f4 bc 9f 42 8b bd d7 fb 05 3e 4e 29 57 3d
       -0.029841 -0.06799816 0.1308435 0.052529626
0000e0 39 85 7b 3e 7d cc 31 3e 0a 37 ca bc 6b 0d c6 3d
       0.24562539 0.17363162 -0.024684448 0.09670528
0000f0 41 00 7a 3b c3 4a de be 8f 54 67 3e f2 46 c8 3d
       0.0038147124 -0.43416414 0.2259085 0.09779157
000100 86 d0 cd 3d 18 6b 1a bd 67 b8 fd 3d 3c d6 7c 3d
       0.10049538 -0.03769979 0.123886876 0.061727747
000110 41 20 3d 3e 09 5a a7 bd 83 8d 09 3d 07 8b 8a bc
       0.18469335 -0.0817147 0.03358222 -0.016911997
000120 0b b9 a4 3e 3a da fa bd 86 7d db 3e 67 43 1e bd
       0.32172427 -0.12248655 0.42869204 -0.0386385
000130 f3 3f 05 bd 29 05 a5 3b aa 79 ce 3d 96 6f fa bb
       -0.03253169 0.0050360155 0.10081799 -0.0076426966
000140 84 f9 80 bb 40 13 e2 bc c0 40 a9 3c 83 f8 0c bd
       -0.0039359946 -0.02759707 0.020660758 -0.034416687
000150 1f c0 0d bd 21 9a 7d bd 43 b1 02 bd 78 75 5e bd
       -0.03460705 -0.061914567 -0.03190733 -0.054311246
000160 da 81 43 3d 9a 62 c3 bc 4d 0b e3 bc 08 3f 9f bd
       0.047731258 -0.023850728 -0.02771535 -0.07775694
000170 ed f8 30 3c a5 00 61 bc a8 69 e7 be 69 95 67 bd
       0.010801536 -0.013733064 -0.45197797 -0.056538973
000180 2a 28 c4 bc 89 3e b6 3a 5a 68 c1 3a 80 ba dc bc
       -0.023944933 0.0013904135 0.0014755831 -0.026944399
000190 3f 5f 8d be 6d b1 bf 3e 2d 8e be 3e 2d b0 79 3a
       -0.2761173 0.37440053 0.37217847 0.00095248484
0001a0 53 ab c8 3e 65 a2 77 3d b7 f6 d6 bc 82 55 0a 3c
       0.3919321 0.060457606 -0.02624069 0.008443238
0001b0 ec 09 91 bc 4c 3f ab bc 00 36 97 3c df 5e 6e 3c
       -0.017704926 -0.020904206 0.018458366 0.014548986
0001c0 c3 42 8d 3d fc cb 25 bd b9 b2 b2 bd 16 df 36 bd
       0.068974994 -0.040477738 -0.08725495 -0.044646345
0001d0 ec 2f 93 bd 88 c8 1f bd 7b c1 18 3e da ab bc be
       -0.07186875 -0.0390096 0.14917557 -0.36849862
0001e0 98 7e 1d bd d5 96 ec bc ec f2 29 3f 42 84 bd bc
       -0.038450807 -0.028880516 0.66386294 -0.023134355
0001f0 30 86 59 3d 42 c4 83 3d 1f de 25 3e a8 4d db 3d
       0.053106487 0.064339176 0.16198014 0.10708171

actor_fc_layers.blocks.1.block.1.running_mean f4 [128]
000000 00 00 00 00 00 00 00 00 00 00 00 00 00 00 00 00
       0.0 0.0 0.0 0.0
000010 00 00 00 00 00 00 00 00 00 00 00 00 00 00 00 00
       0.0 0.0 0.0 0.0
000020 00 00 00 00 00 00 00 00 00 00 00 00 00 00 00 00
       0.0 0.0 0.0 0.0
000030 00 00 00 00 00 00 00 00 00 00 00 00 00 00 00 00
       0.0 0.0 0.0 0.0
000040 00 00 00 00 00 00 00 00 00 00 00 00 00 00 00 00
       0.0 0.0 0.0 0.0
000050 00 00 00 00 00 00 00 00 00 00 00 00 00 00 00 00
       0.0 0.0 0.0 0.0
000060 00 00 00 00 00 00 00 00 00 00 00 00 00 00 00 00
       0.0 0.0 0.0 0.0
000070 00 00 00 00 00 00 00 00 00 00 00 00 00 00 00 00
       0.0 0.0 0.0 0.0
000080 00 00 00 00 00 00 00 00 00 00 00 00 00 00 00 00
       0.0 0.0 0.0 0.0
000090 00 00 00 00 00 00 00 00 00 00 00 00 00 00 00 00
       0.0 0.0 0.0 0.0
0000a0 00 00 00 00 00 00 00 00 00 00 00 00 00 00 00 00
       0.0 0.0 0.0 0.0
0000b0 00 00 00 00 00 00 00 00 00 00 00 00 00 00 00 00
       0.0 0.0 0.0 0.0
0000c0 00 00 00 00 00 00 00 00 00 00 00 00 00 00 00 00
       0.0 0.0 0.0 0.0
0000d0 00 00 00 00 00 00 00 00 00 00 00 00 00 00 00 00
       0.0 0.0 0.0 0.0
0000e0 00 00 00 00 00 00 00 00 00 00 00 00 00 00 00 00
       0.0 0.0 0.0 0.0
0000f0 00 00 00 00 00 00 00 00 00 00 00 00 00 00 00 00
       0.0 0.0 0.0 0.0
000100 00 00 00 00 00 00 00 00 00 00 00 00 00 00 00 00
       0.0 0.0 0.0 0.0
000110 00 00 00 00 00 00 00 00 00 00 00 00 00 00 00 00
       0.0 0.0 0.0 0.0
000120 00 00 00 00 00 00 00 00 00 00 00 00 00 00 00 00
       0.0 0.0 0.0 0.0
000130 00 00 00 00 00 00 00 00 00 00 00 00 00 00 00 00
       0.0 0.0 0.0 0.0
000140 00 00 00 00 00 00 00 00 00 00 00 00 00 00 00 00
       0.0 0.0 0.0 0.0
000150 00 00 00 00 00 00 00 00 00 00 00 00 00 00 00 00
       0.0 0.0 0.0 0.0
000160 00 00 00 00 00 00 00 00 00 00 00 00 00 00 00 00
       0.0 0.0 0.0 0.0
000170 00 00 00 00 00 00 00 00 00 00 00 00 00 00 00 00
       0.0 0.0 0.0 0.0
000180 00 00 00 00 00 00 00 00 00 00 00 00 00 00 00 00
       0.0 0.0 0.0 0.0
000190 00 00 00 00 00 00 00 00 00 00 00 00 00 00 00 00
       0.0 0.0 0.0 0.0
0001a0 00 00 00 00 00 00 00 00 00 00 00 00 00 00 00 00
       0.0 0.0 0.0 0.0
0001b0 00 00 00 00 00 00 00 00 00 00 00 00 00 00 00 00
       0.0 0.0 0.0 0.0
0001c0 00 00 00 00 00 00 00 00 00 00 00 00 00 00 00 00
       0.0 0.0 0.0 0.0
0001d0 00 00 00 00 00 00 00 00 00 00 00 00 00 00 00 00
       0.0 0.0 0.0 0.0
0001e0 00 00 00 00 00 00 00 00 00 00 00 00 00 00 00 00
       0.0 0.0 0.0 0.0
0001f0 00 00 00 00 00 00 00 00 00 00 00 00 00 00 00 00
       0.0 0.0 0.0 0.0

actor_fc_layers.blocks.1.block.1.running_var f4 [128]
000000 00 00 80 3f 00 00 80 3f 00 00 80 3f 00 00 80 3f
       1.0 1.0 1.0 1.0
000010 00 00 80 3f 00 00 80 3f 00 00 80 3f 00 00 80 3f
       1.0 1.0 1.0 1.0
000020 00 00 80 3f 00 00 80 3f 00 00 80 3f 00 00 80 3f
       1.0 1.0 1.0 1.0
000030 00 00 80 3f 00 00 80 3f 00 00 80 3f 00 00 80 3f
       1.0 1.0 1.0 1.0
000040 00 00 80 3f 00 00 80 3f 00 00 80 3f 00 00 80 3f
       1.0 1.0 1.0 1.0
000050 00 00 80 3f 00 00 80 3f 00 00 80 3f 00 00 80 3f
       1.0 1.0 1.0 1.0
000060 00 00 80 3f 00 00 80 3f 00 00 80 3f 00 00 80 3f
       1.0 1.0 1.0 1.0
000070 00 00 80 3f 00 00 80 3f 00 00 80 3f 00 00 80 3f
       1.0 1.0 1.0 1.0
000080 00 00 80 3f 00 00 80 3f 00 00 80 3f 00 00 80 3f
       1.0 1.0 1.0 1.0
000090 00 00 80 3f 00 00 80 3f 00 00 80 3f 00 00 80 3f
       1.0 1.0 1.0 1.0
0000a0 00 00 80 3f 00 00 80 3f 00 00 80 3f 00 00 80 3f
       1.0 1.0 1.0 1.0
0000b0 00 00 80 3f 00 00 80 3f 00 00 80 3f 00 00 80 3f
       1.0 1.0 1.0 1.0
0000c0 00 00 80 3f 00 00 80 3f 00 00 80 3f 00 00 80 3f
       1.0 1.0 1.0 1.0
0000d0 00 00 80 3f 00 00 80 3f 00 00 80 3f 00 00 80 3f
       1.0 1.0 1.0 1.0
0000e0 00 00 80 3f 00 00 80 3f 00 00 80 3f 00 00 80 3f
       1.0 1.0 1.0 1.0
0000f0 00 00 80 3f 00 00 80 3f 00 00 80 3f 00 00 80 3f
       1.0 1.0 1.0 1.0
000100 00 00 80 3f 00 00 80 3f 00 00 80 3f 00 00 80 3f
       1.0 1.0 1.0 1.0
000110 00 00 80 3f 00 00 80 3f 00 00 80 3f 00 00 80 3f
       1.0 1.0 1.0 1.0
000120 00 00 80 3f 00 00 80 3f 00 00 80 3f 00 00 80 3f
       1.0 1.0 1.0 1.0
000130 00 00 80 3f 00 00 80 3f 00 00 80 3f 00 00 80 3f
       1.0 1.0 1.0 1.0
000140 00 00 80 3f 00 00 80 3f 00 00 80 3f 00 00 80 3f
       1.0 1.0 1.0 1.0
000150 00 00 80 3f 00 00 80 3f 00 00 80 3f 00 00 80 3f
       1.0 1.0 1.0 1.0
000160 00 00 80 3f 00 00 80 3f 00 00 80 3f 00 00 80 3f
       1.0 1.0 1.0 1.0
000170 00 00 80 3f 00 00 80 3f 00 00 80 3f 00 00 80 3f
       1.0 1.0 1.0 1.0
000180 00 00 80 3f 00 00 80 3f 00 00 80 3f 00 00 80 3f
       1.0 1.0 1.0 1.0
000190 00 00 80 3f 00 00 80 3f 00 00 80 3f 00 00 80 3f
       1.0 1.0 1.0 1.0
0001a0 00 00 80 3f 00 00 80 3f 00 00 80 3f 00 00 80 3f
       1.0 1.0 1.0 1.0
0001b0 00 00 80 3f 00 00 80 3f 00 00 80 3f 00 00 80 3f
       1.0 1.0 1.0 1.0
0001c0 00 00 80 3f 00 00 80 3f 00 00 80 3f 00 00 80 3f
       1.0 1.0 1.0 1.0
0001d0 00 00 80 3f 00 00 80 3f 00 00 80 3f 00 00 80 3f
       1.0 1.0 1.0 1.0
0001e0 00 00 80 3f 00 00 80 3f 00 00 80 3f 00 00 80 3f
       1.0 1.0 1.0 1.0
0001f0 00 00 80 3f 00 00 80 3f 00 00 80 3f 00 00 80 3f
       1.0 1.0 1.0 1.0

actor_fc_layers.blocks.2.block.0.weight f4 [128, 128]
000000 2d dc 7a bd c8 e8 63 bc 0c 28 99 bd b5 59 21 bd
       -0.061245132 -0.01391048 -0.074783415 -0.039392192
000010 e8 d1 77 3d a0 ac 23 3e 14 34 54 be 87 cb 52 bd
       0.060502917 0.1598382 -0.20722991 -0.05146363
000020 a6 5c 33 3e e6 df 33 3c 4b c5 9d 3d 29 1e a5 bd
       0.17515811 0.0109786745 0.07703646 -0.08062393
000030 b7 36 dd bc ee ee ba bc e5 90 fc 3d 6b a2 5b 3d
       -0.02700363 -0.022819009 0.12332324 0.05362169
000040 b1 11 a2 3d 6c 1b a5 bd e3 b4 84 3d 3e dc 74 be
       0.079135306 -0.08061871 0.06479814 -0.2391214
000050 d4 41 99 3e 77 ec 9f bd 8e 1a 87 bd ea e9 8d 3d
       0.29933035 -0.07808774 -0.06596862 0.06929381
000060 84 af 94 3d ae 83 36 be 1f 0b ce 3d b8 48 5a 3d
       0.072600394 -0.1782367 0.10060715 0.053292006
000070 49 e2 22 3d e9 f9 a9 bd ef c2 d2 bc 17 fd 8a 3c
       0.039766584 -0.0829962 -0.025727717 0.016966386
000080 d4 37 63 be 4a b6 fa bc 76 36 c3 3c 11 a0 29 be
       -0.22189265 -0.0306045 0.02382968 -0.16564967
000090 d8 ae 16 be 63 d6 8d 3d 02 69 b4 bd e2 96 70 3b
       -0.14715135 0.06925657 -0.08809091 0.0036711027
0000a0 61 15 b7 3d d6 09 33 be d4 45 80 3e 04 27 18 3e
       0.089396246 -0.17484221 0.25053275 0.14858633
0000b0 ad 7f a6 3c 38 ca 13 3e 49 08 e5 3c 8a 78 bd bc
       0.020324552 0.14432609 0.027958052 -0.023128767
0000c0 e5 65 a6 bd 4b 2d 15 bb f2 f3 c0 ba ce cf 07 bd
       -0.081249036 -0.0022762592 -0.0014721139 -0.033157162
0000d0 f4 6e 2b bd 76 36 c3 3c a4 6f 9b 3e 14 d1 57 3c
       -0.04185386 0.02382968 0.30358613 0.013172407
0000e0 80 15 92 3d b8 a9 27 be 30 24 21 bc 29 56 bd bb
       0.07133007 -0.16373336 -0.009835288 -0.0057780934
0000f0 a6 eb c9 bc be 77 0b 3e 94 41 58 3e 01 d7 aa 3e
       -0.024648499 0.13619897 0.21118766 0.3336716
000100 33 5c 92 bd d6 af 81 ba 0b 1c 9b bd af 8f 4d 3e
       -0.07146492 -0.0009894322 -0.07573708 0.20074342
000110 7c 11 10 3d 81 7d 62 3d f3 4b dc bb 10 75 13 3d
       0.035172924 0.05529547 -0.006722921 0.03600031
000120 a1 99 e2 3e 09 b5 75 3d 76 6e c2 bc 79 a6 b3 3e
       0.44257835 0.0599871 -0.023734313 0.35087946
000130 4c 5c a2 bc 63 7e 0b bd bf 1b 12 bc 5e b4 37 3d
       -0.019819401 -0.03405608 -0.008917748 0.044849746
000140 e0 16 e4 3c 54 7e 2a 3e f6 e3 3d 3d 92 b2 c1 bc
       0.027842939 0.16649753 0.04635998 -0.02364472
000150 f0 d4 a8 bc eb 1c 92 3e 01 e9 a7 3d 00 13 21 bc
       -0.020609349 0.28537688 0.08198739 -0.00983119
000160 11 0e f9 bd 7e cb 3c 3e f3 f4 c4 3c a8 8f 00 3d
       -0.12160886 0.18437001 0.024042582 0.031387
000170 99 3e 00 be af 85 57 3d 26 10 06 3e a7 6d 05 3d
       -0.12523879 0.052617725 0.13092098 0.032575276
000180 cb 48 86 3d 27 22 03 bd ba 65 03 be 67 d0 d9 3c
       0.06556853 -0.032014992 -0.12831774 0.026588632
000190 2f dc 13 3d 89 19 f8 be 3b b8 c8 be fc 92 a2 3d
       0.036098655 -0.48456982 -0.39203057 0.07938191
0001a0 e3 fa 89 3e d4 a3 51 3d 0b bb 8d 3d 77 6e 5b 3e
       0.26949224 0.05118163 0.06920441 0.21428858
0001b0 31 65 ab bd 4f 6b 9e bc 72 ea b3 3d 54 e8 80 3e
       -0.0836891 -0.019338278 0.08784951 0.25177252
0001c0 a9 6f a6 3d 8e 67 76 3d 4a 3d ca 3a b2 6f fc 3c
       0.08126766 0.06015735 0.0015429643 0.03081498
0001d0 6d 97 21 3d cc 8f a8 3d 79 5b 73 be d7 a5 cb 3d
       0.03945105 0.08230552 -0.23765363 0.09943741
0001e0 92 a4 7b bc 33 9d 1c be db 4f 9c be ed dc 3d 3d
       -0.015359061 -0.15294342 -0.30529675 0.04635327
0001f0 31 ff 3b bd 86 7b 7e bd 38 ae 79 bd 04 09 1d 3e
       -0.045897666 -0.06212952 -0.060957164 0.1533547
000200 8a bf 86 3c dd 5c 77 bd 2b a9 44 3d aa 92 f5 3d
       0.016448755 -0.060391296 0.048012894 0.119908646
000210 de 02 93 bd 13 61 59 3c ff 05 06 be 28 46 2f bd
       -0.07178281 0.013267773 -0.13088225 -0.042791516
000220 8e de 37 be bd 41 7b 3d 21 af 2d be 75 05 2e be
       -0.17955992 0.06134199 -0.16961338 -0.16994269
000230 3b 5a 07 bd a5 4a 76 bd 08 1b e5 bd 85 96 ed 3b
       -0.033045035 -0.06012978 -0.111867964 0.0072506093
000240 5f a7 8e 3c 31 25 e5 bc 7e 9d 4c 3e 02 9d fc bd
       0.017413793 -0.027971836 0.19981954 -0.12334634
000250 8b 19 11 3d 8b 4c d5 bd 67 96 92 be 8d ae 3f 3d
       0.03542475 -0.1041499 -0.28630373 0.046797324
000260 80 50 1d be f1 d3 e4 3b 86 9d 89 be fa 95 bc bd
       -0.1536274 0.006983273 -0.26877993 -0.09208293
000270 97 4a 55 be 9c 27 aa bd 13 96 8c 3c 52 4f 84 3c
       -0.20829235 -0.08308336 0.017161405 0.016151104
000280 a7 a9 14 be e2 28 7a bd 16 b6 01 bd aa a9 46 3e
       -0.14517842 -0.061074145 -0.03166779 0.19400659
000290 40 95 1d be c8 e9 67 3c 78 41 ef 3c 07 5b 52 bc
       -0.15388966 0.014154859 0.029206023 -0.012839085
0002a0 d0 04 ed 3c e8 f8 65 3b d8 fe 51 3d 0c 1f a7 bd
       0.028932959 0.0035090987 0.05126843 -0.081602186
0002b0 eb 07 89 bd 24 ef e5 3d e3 40 cf bd f8 9d 2a 3c
       -0.06690963 0.11227253 -0.10119798 0.010413639
0002c0 86 74 7b bd 6b 81 14 bd c1 e8 66 be f2 b5 02 bc
       -0.061390422 -0.036256235 -0.22549726 -0.007977949
0002d0 2f 16 42 3c 4d 13 aa bd 19 3c 66 bc f7 7c 4a be
       0.011846109 -0.083044626 -0.014052414 -0.19774233
0002e0 46 e3 0d 3e 7d 5d ed bd 46 c8 05 3d dc f5 11 bc
       0.13856229 -0.11590097 0.0326617 -0.008908715
0002f0 ff eb 01 be 68 10 e0 bd e1 87 ff 3c 48 c0 97 bd
       -0.12687682 -0.10940629 0.031192722 -0.074097216
000300 8c c4 1a bd a6 14 bf 3d 23 38 5e 3d b3 16 0f 3e
       -0.037785098 0.0933011 0.054252755 0.13973503
000310 e0 e4 23 be a9 09 37 3e f6 64 8e 3d 8e 00 43 3c
       -0.16005278 0.17874779 0.069528505 0.011901988
000320 b3 71 04 3e 26 63 34 3e 8c 45 52 3e c2 9d 7f be
       0.12933998 0.17615947 0.20534343 -0.24962524
000330 d0 27 a3 bd 2a 30 3b bb 4b 9f db 3d 1e 2d 40 3c
       -0.07966578 -0.0028562644 0.10723742 0.011729507
000340 57 22 8a 3d fa dd 49 bd ea 52 00 3e bc 7d d8 bd
       0.06744831 -0.04928396 0.12531629 -0.10570857
000350 36 28 bc 3c 8d eb a0 bd 68 24 7e 3d c9 fe 00 3e
       0.022968393 -0.07857428 0.06204644 0.12597193
000360 a4 d7 2b 3e 78 6f df 3d d1 2d 7b bd 16 ff 79 3d
       0.16781479 0.10909933 -0.06132299 0.061034285
000370 50 19 9b bb a6 3b 45 3d 7b a3 c0 bd 97 8a 82 bd
       -0.004733242 0.04815259 -0.094061814 -0.0637409
000380 a1 b8 ba bd dd 04 b5 bd 3c 29 e4 3b 54 34 ae 3e
       -0.091172464 -0.08838818 0.0069629233 0.34024298
000390 9c f0 ee 3d 96 37 3b 3d 81 c3 a7 bd 0b b2 c2 bd
       0.11666986 0.045707308 -0.08191586 -0.09506615
0003a0 8d 63 a6 be 1f 00 d4 3d 1b 8e 5b bd 67 ec 4c bd
       -0.32497826 0.103515856 -0.05360232 -0.05003014
0003b0 e1 50 6b bd ce 78 89 bc 26 e0 cd 3d b3 17 13 3d
       -0.05745018 -0.016781237 0.100525185 0.035911273
0003c0 61 45 6f be ca c2 3a 3d c6 de 3b be ca 08 40 bb
       -0.2336631 0.04559592 -0.183467 -0.0029302114
0003d0 a7 05 8e bb a5 aa 26 bd fa 3f 02 3e f7 e1 4e bc
       -0.00433417 -0.040690083 0.12719718 -0.012627116
0003e0 36 a9 4c 3d 6c c6 2e 3d 25 7b 80 be 5b 4e d6 bd
       0.04996606 0.0426697 -0.25093952 -0.10464164
0003f0 f4 b2 68 3d fc 79 e2 bd 3e db 70 be da f1 81 3e
       0.056811288 -0.11058423 -0.23521134 0.2537983

actor_fc_layers.blocks.2.block.1.weight f4 [128]
000000 a9 6f a6 3f 22 66 75 3f 11 af 73 3f cd 35 77 3f
       1.3002826 0.9585897 0.95189005 0.9656647
000010 8e f6 33 3f fe 25 89 3f 02 c1 8f 3f a3 24 93 3f
       0.7029809 1.0714719 1.1230776 1.1495556
000020 35 5e 8f 3f 9a 37 c6 3f c3 63 91 3f 68 2f 90 3f
       1.1200625 1.5485718 1.135857 1.1264467
000030 7f 24 9c 3f 91 07 78 3f 9c 09 2f 40 a2 07 8b 3f
       1.2198638 0.96886545 2.7349615 1.0861704
000040 f0 06 90 3f ee 56 8b 3f 64 a2 9e 3f 14 4d a5 3f
       1.1252117 1.0885904 1.2393308 1.2914147
000050 ab 5c 57 3f 9a b3 99 3f 81 8d 70 3f 2f e2 92 3f
       0.84125775 1.2007935 0.9396592 1.1475276
000060 31 5a b1 3f 86 56 7a 3f f4 1f 9b 3f 41 a7 84 3f
       1.3855649 0.97788274 1.2119126 1.0363542
000070 5b b3 81 3f e4 b6 65 3f 0d f1 b6 3f b6 da 0a 40
       1.013286 0.89732194 1.4292313 2.169599
000080 09 de eb 3f fe 5d cb 3f 91 d5 77 3f ed 9b 73 3f
       1.8427135 1.5888059 0.9681025 0.951598
000090 65 5f a7 3f 52 24 87 3f f9 03 91 3f ba 4c 8c 3f
       1.3075987 1.0557959 1.1329337 1.0960915
0000a0 08 1c 69 3f d0 eb ac 3f 60 9a 65 3f 9e 7f 85 3f
       0.910584 1.3509464 0.8968868 1.0429571
0000b0 42 8c 84 3f 14 44 a2 3f 91 0b d7 3f c1 ce b2 3f
       1.0355303 1.2677026 1.6800405 1.3969346
0000c0 0c 78 6d 3f f4 54 9c 3f 4c 45 91 3f ac 09 a9 3f
       0.927613 1.2213426 1.1349273 1.3206077
0000d0 a6 38 b2 3f 19 4c 74 3f c1 f8 74 3f 70 75 e1 3f
       1.3923538 0.95428616 0.9569207 1.7613964
0000e0 8f 7b 94 3f 9d 2f b1 3f 08 69 96 3f b4 04 12 40
       1.1600207 1.3842655 1.1750803 2.281537
0000f0 ac d2 ad 3f 54 3c 75 3f eb f4 87 3f 10 68 6a 3f
       1.3579917 0.9579518 1.0621618 0.91565037
000100 34 fd ae 3f 7b 06 99 3f 6a 91 f0 3f 31 fb 85 3f
       1.3671021 1.1955103 1.8794377 1.0467283
000110 97 91 23 40 20 5f 72 3f 40 5f 78 3f 0a d3 89 3f
       2.555761 0.946764 0.9702034 1.0767529
000120 8d 9e 71 3f b4 1f 9a 3f 34 09 e4 3f 4a e1 1f 40
       0.94382554 1.2040925 1.7815309 2.4981256
000130 c2 da b9 3f 10 5c 6c 3f 39 10 72 3f 89 17 70 3f
       1.4519885 0.92327976 0.94556004 0.9378591
000140 fd 22 7d 3f 00 96 60 3f b7 ad 82 3f 7f 03 95 3f
       0.9888151 0.8772888 1.0209264 1.1641692
000150 b8 06 c1 3f cd 82 7f 3f 8c 99 a4 3f fd 3e b0 3f
       1.5080175 0.9980896 1.2859359 1.3769222
000160 d9 da 00 40 f9 a1 a1 3f 80 a1 dc 3f 81 a1 99 3f
       2.0133574 1.2627555 1.7236786 1.2002412
000170 de 33 82 3f 43 8c 9d 3f be c0 83 3f 22 2c 87 3f
       1.0172079 1.230843 1.0293195 1.0560343
000180 e0 07 87 3f 01 7e 7d 3f 50 e4 67 3f 8a e1 d3 3f
       1.0549278 0.9902039 0.9058275 1.6553204
000190 e8 36 a8 3f e3 21 80 3f 2b aa 88 3f ca 7c b3 3f
       1.3141756 1.0010341 1.0676931 1.4022458
0001a0 89 1d 9b 3f 00 f0 6a 3f f9 ab f0 3f 23 75 98 3f
       1.2118388 0.9177246 1.8802482 1.1910747
0001b0 87 70 5d 3f f3 85 f8 3f 11 ea 65 3f da a2 8a 3f
       0.8649983 1.9415878 0.8981028 1.0830948
0001c0 3a f7 99 3f df 1b 5f 3f 24 f7 93 3f e1 09 a2 3f
       1.2028573 0.871519 1.1559796 1.2659265
0001d0 f8 95 bb 3f 0c 28 b4 3f 1c 0e 68 3f fc 37 6d 3f
       1.4655142 1.4074721 0.9064653 0.9266355
0001e0 d0 87 89 3f 87 24 99 3f fe 68 c2 3f 44 82 a5 3f
       1.0744572 1.1964272 1.5188291 1.2930379
0001f0 62 9f 7c 3f 3f 57 1f 40 50 11 f6 3f 27 d3 8b 3f
       0.986807 2.4897 1.9224033 1.0923814
