saved_models/agent_maddpgv2_vs_opp_maddpgv2_2_vs_2_1_big_5_sec_agent_best_models/maddpgv2_target_actor_0.pt (torch, 160779 bytes, 21 tensors)

actor_fc_layers.blocks.0.block.0.weight f4 [128, 22]
0	0xbdb705aa	-0.08936627
1	0xbe722a7c	-0.23649019
2	0x3eb7ab4f	0.35872886
3	0xbea2c3cc	-0.31790006
4	0x3e592791	0.212065
5	0xbcb4f2b5	-0.022088388
6	0xbe57e0e5	-0.21081884
7	0x3e1b48e3	0.15164523
8	0xbd1bd536	-0.03804513
9	0xbe448f71	-0.19195344
10	0x3d67049f	0.05640089
11	0xbd946706	-0.07246213
12	0xbe43f07f	-0.1913471
13	0x3d8c96a3	0.06864669
14	0xbda8a189	-0.082339354
15	0x3e1fade9	0.15593685
16	0xbd8cec26	-0.06880979
17	0xbcb0f112	-0.021599326
18	0xbe3d0fb2	-0.18463019
19	0xbe2ad352	-0.16682175
20	0x3dbd8d06	0.09255414
21	0xbe0be7e8	-0.13662684
22	0xbe47991f	-0.19492005
23	0xbdcefe7a	-0.10107131
24	0x3ec0636a	0.37575847
25	0xbd96e0d8	-0.07367104
26	0x3eb0421d	0.3442544
27	0x3ddedfb7	0.10882514
28	0xbd960c58	-0.07326573
29	0x3e16ebd4	0.14738399
30	0xbe4ef8cc	-0.20212096
31	0x3e18e413	0.14930753
32	0x3e07189a	0.13192979
33	0x3e87d227	0.2652752
34	0xbd373d9d	-0.044736493
35	0x3e64f5ed	0.22359438
36	0xbd7160d5	-0.058930237
37	0x3d90036b	0.07031902
38	0xbdd45033	-0.10366859
39	0x3e1b2b47	0.15153228
40	0xbd8a8c97	-0.06765097
41	0xbda61cd8	-0.0811097
42	0x3d89e1e2	0.06732537
43	0xbe0ea2af	-0.13929246
44	0xbc181fdf	-0.009284942
45	0xbbfed5d8	-0.007776957
46	0x3e34921d	0.17633863
47	0x3e4713a0	0.1944108
48	0xbd8d33c8	-0.06894642
49	0xbd349287	-0.044085052
50	0x3c8ca0a9	0.017166452
51	0x3e31961d	0.1734242
52	0xbde075af	-0.10959946
53	0xbd20b5b4	-0.039235786
54	0x3c7919bd	0.01520389
55	0x3e000fc6	0.12506017
56	0xbcb34893	-0.021885192
57	0x3d59b913	0.053155016
58	0x3dfecf1b	0.12441846
59	0x3e0ac85a	0.1355299
60	0xbdb7e3bb	-0.08978983
61	0xbe45bff4	-0.19311506
62	0x3e277ec1	0.16356947
63	0x3c82b192	0.015953813
64	0xbd0f32eb	-0.03496067
65	0xbe931e7c	-0.28734195
66	0x3af6d1bc	0.0018830816
67	0xbb756495	-0.0037443985
68	0xbe94ce2a	-0.2906354
69	0x3cb44919	0.022007512
70	0x3d0453ac	0.03230636
71	0xbe233df2	-0.15941599
72	0xbe1aca41	-0.15116216
73	0x3d9dc64e	0.07703839
74	0x3d9dd97e	0.07707499
75	0x3e872f78	0.26403403
76	0xbdbab6d6	-0.091169044
77	0x3cf9a74a	0.030475277
78	0xbe68c085	-0.2272969
79	0xbe036cc5	-0.12834461
80	0x3ed36e86	0.4129526
81	0x3d25bcf2	0.040463395
82	0x3c33a359	0.010964238
83	0x3b775ff3	0.00377464
84	0xbc983506	-0.018579971
85	0x3e4c8cfa	0.19975653
86	0xbe0acc32	-0.13554457
87	0x3de9955b	0.114054404
88	0xbcd2c5bb	-0.02572905
89	0xbe05fa2e	-0.13083717
90	0x3d8af2d4	0.06784597
91	0x3d8bfcf1	0.06835354
92	0x3c8953c1	0.01676357
93	0x3df20029	0.11816437
94	0xbc9c36f0	-0.019069165
95	0xbe197a68	-0.149881
96	0xbbd278ba	-0.006423083
97	0xbe332b63	-0.1749702
98	0xbda39547	-0.07987457
99	0xbe07a089	-0.13244833
100	0x3e3eb4e2	0.18623689
101	0x3e6a91f1	0.22907235
102	0x3d2f7d73	0.042844247
103	0xbcc15d5a	-0.023604084
104	0xbd02caa0	-0.03193152
105	0x3d8c17bf	0.06840467
106	0xbaf10728	-0.0018388974
107	0x3d514c08	0.0510979
108	0xbd8280bc	-0.063722104
109	0xbe7e9a24	-0.24863487
110	0x3d92d33e	0.071691975
111	0x3dee2bdb	0.116294585
112	0xbeb6330d	-0.35585824
113	0x3d7ef1b7	0.062242236
114	0xbe25513e	-0.16144273
115	0xbdbf3a39	-0.09337277
116	0x3e08454f	0.13307689
117	0xbe12a26b	-0.1431977
118	0xbd6855c7	-0.05672243
119	0xbcc1b16b	-0.02364417
120	0x3db8067b	0.08985611
121	0xbd1badf8	-0.038007706
122	0xbeabfbbc	-0.33590496
123	0xbe3ded40	-0.18547535
124	0x3d848fa1	0.064727075
125	0x3d80fcb5	0.062982
126	0x3cb75b0b	0.02238228
127	0x3dbab5eb	0.09116729
128	0xbe873de3	-0.26414403
129	0xbcd2ca89	-0.025731342
130	0x3de05d45	0.1095529
131	0xbe0f1fa9	-0.13976921
132	0x3e321ac4	0.17393023
133	0xbb8f563f	-0.004374295
134	0x3dba98cb	0.09111174
135	0xbe5e7349	-0.21723665
136	0xbcc0d000	-0.023536682
137	0xbe0a5b0a	-0.13511291
138	0xbc5474dc	-0.012967315
139	0xbdb2b63e	-0.08726166
140	0x3d960553	0.07325234
141	0x3cd16285	0.025559673
142	0x3dd1fd51	0.102533944
143	0xbe46d202	-0.19416049
144	0xbe8ecca0	-0.2789049
145	0x3e257213	0.16156797
146	0xbded589e	-0.11589168
147	0xbccc9804	-0.02497483
148	0x3dce7257	0.10080402
149	0x3e011f8c	0.1260969
150	0xbe0e3f98	-0.13891447
151	0xbdd5e12d	-0.104433395
152	0x3d16dcfa	0.036831833
153	0xbe6aa3a6	-0.2291399
154	0xbe0d99b5	-0.13828166
155	0x3c656b2c	0.014002603
156	0xbe96e5df	-0.29472253
157	0xbe82a3c4	-0.25515568
158	0xbe48337b	-0.19550888
159	0xbe61a09b	-0.22033922
160	0xbe1e6164	-0.15466839
161	0x3c8b314d	0.016991282
162	0x3e32e91e	0.1747174
163	0x3d38c7ee	0.045112543
164	0x3e24d89f	0.1609826
165	0x3cd59c48	0.026075497
166	0xbe97394e	-0.29535908
167	0xbb4251ac	-0.002965073
168	0x3e23e1e9	0.16004147
169	0x3cad060d	0.02112105
170	0x3e0f7cb9	0.14012422
171	0x3dd31248	0.10306221
172	0xbe7ac81f	-0.24490403
173	0x3e68881c	0.22708172
174	0xbde3b1a2	-0.11117865
175	0xbe21074c	-0.1572544
176	0xbecfe9a3	-0.40607938
177	0xbd542153	-0.051789593
178	0x3df2b1f1	0.11850346
179	0xbe94ec10	-0.2908635
180	0xbb7fc2de	-0.0039026062
181	0x3ce65450	0.028116375
182	0xbd03a30f	-0.032137927
183	0xbe1fb042	-0.15594581
184	0xbd25340a	-0.04033283
185	0x3df4d91e	0.11955474
186	0x3ba51cfd	0.005038856
187	0x3ca6d471	0.020364972
188	0xbe177033	-0.14788894
189	0xbe0517b6	-0.12997326
190	0x3c518367	0.012787676
191	0x3e17d178	0.14826
192	0xbe2d1858	-0.16903818
193	0xbb1e0ebb	-0.0024117667
194	0xbd029587	-0.03188088
195	0xbe0336da	-0.12813893
196	0x3e0f66c7	0.1400405
197	0xbd88c777	-0.0667867
198	0x3dc5d4fd	0.09659765
199	0x3da39bb1	0.0798868
200	0x3de02308	0.10944182
201	0xbd7a1bd2	-0.061061688
202	0x3cd2cbee	0.025732007
203	0x3d96629f	0.07343029
204	0x3e774b2d	0.24149771
205	0x3e1a4fd6	0.15069517
206	0xbda6a979	-0.08137793
207	0xbd7d747e	-0.061878674
208	0x3e0d1589	0.13777746
209	0xbcf0e154	-0.02940432
210	0xbe6e7741	-0.2328768
211	0x3d8c3bbc	0.06847331
212	0xbda49767	-0.0803669
213	0x3d7e3ac9	0.06206778
214	0xbd88fcdf	-0.06688856
215	0x3d20e771	0.03928322
216	0xbd488195	-0.048951704
217	0xbcdf0c21	-0.027227463
218	0x3c3d7d97	0.0115655875
219	0xbe984553	-0.2974039
220	0xbe5d213c	-0.21594709
221	0xbd23cd0c	-0.03999047
222	0xbe03b5ce	-0.12862322
223	0x3e00bd8d	0.12572308
224	0x3dfb4861	0.122696646
225	0xbd613fec	-0.0549926
226	0xbd0a21f3	-0.033723783
227	0xbe1f2d16	-0.15544543
228	0x3dc37306	0.09543423
229	0x3decc2cc	0.11560592
230	0xbe23965c	-0.15975326
231	0xbd5ef407	-0.05443194
232	0x3c96eaff	0.018422602
233	0x3cd26c38	0.025686368
234	0x3ccd4706	0.02505828
235	0xbb9bbbd0	-0.0047526136
236	0x3d4247cb	0.04743175
237	0xbe0cc10b	-0.13745515
238	0x3e1323cf	0.14369129
239	0x3dc00c4e	0.09377347
240	0xbdc92d6a	-0.09823115
241	0xbd9c3998	-0.07628173
242	0xbeba0682	-0.3633309
243	0xbb88a89b	-0.00417049
244	0x3e0bd1fb	0.1365432
245	0xbd8df34a	-0.06931169
246	0x3dd1904b	0.102326
247	0xbd09fc72	-0.033688016
248	0x3ce31f9c	0.027725033
249	0x3e549c0f	0.20762657
250	0x3d2de767	0.04245701
251	0x3e3b0d02	0.18266681
252	0xbce07bd4	-0.027402796
253	0xbe17b74b	-0.14816014
254	0x3d344ce2	0.044018634
255	0xbd0435ef	-0.032277998

actor_fc_layers.blocks.0.block.1.weight f4 [128]
0	0x3f750273	0.9570686
1	0x3f3b178d	0.7308281
2	0x3ef7e74f	0.48418662
3	0x3f5a1cca	0.8520018
4	0x3ed3b9f6	0.41352814
5	0x3f077378	0.52910566
6	0x3f05e260	0.52298546
7	0x3f8624ae	1.0479944
8	0x3f471962	0.77773106
9	0x3f10b330	0.5652342
10	0x3f6746e4	0.90342546
11	0x3f584192	0.8447505
12	0x3edf66fe	0.43633264
13	0x3f8d010f	1.1015948
14	0x3f314e78	0.6926036
15	0x3efc0932	0.49225765
16	0x3f4e312c	0.8054378
17	0x3f221c41	0.6332436
18	0x3ed60480	0.41800308
19	0x3f831ea2	1.0243723
20	0x3f62cd85	0.8859485
21	0x3f5167ab	0.8179881
22	0x3ee07d0a	0.43845397
23	0x3f73698a	0.95082915
24	0x3f7932ee	0.9734334
25	0x3ebe21d8	0.37135196
26	0x3f65e241	0.8979836
27	0x3f74e859	0.95667034
28	0x3f638720	0.8887806
29	0x3f00ffeb	0.503905
30	0x3f3a715d	0.7282923
31	0x3f6b6f58	0.9196677
32	0x3ec662df	0.38747308
33	0x3eb511e1	0.35365203
34	0x3f8e711d	1.112827
35	0x3f50a189	0.81496483
36	0x3eedbed6	0.4643466
37	0x3f270040	0.65234756
38	0x3f2e98ce	0.6820191
39	0x3efda816	0.49542302
40	0x3f43a11a	0.76417696
41	0x3f70408d	0.93848497
42	0x3f8f2206	1.1182258
43	0x3f800000	1.0
44	0x3f7b93c5	0.98272353
45	0x3f6647d0	0.8995333
46	0x3f4b2232	0.7934905
47	0x3f4e593e	0.8060492
48	0x3f5e9b7c	0.86956
49	0x3f540b95	0.8283017
50	0x3f535ecb	0.8256652
51	0x3f0aa0ca	0.54151595
52	0x3f9a6dea	1.2064793
53	0x3f72811d	0.9472826
54	0x3f938adb	1.152675
55	0x3f080fa2	0.53148854
56	0x3f66524e	0.89969337
57	0x3f9b0bcb	1.2112974
58	0x3f89bb7a	1.0760338
59	0x3f5ce080	0.8628006
60	0x3f83c465	1.029431
61	0x3fa4c548	1.2872705
62	0x3f609b78	0.87737226
63	0x3f8b947f	1.0904692
64	0x3f521c6b	0.8207461
65	0x3f4226ce	0.7584046
66	0x3f7e6aef	0.9938192
67	0x3ed55922	0.41669565
68	0x3f11bbf1	0.569274
69	0x3fad74ac	1.355123
70	0x3f033864	0.5125792
71	0x3f6881c7	0.90823025
72	0x3f3cf6fe	0.7381438
73	0x3f6ad4d9	0.9173103
74	0x3f691690	0.9105005
75	0x3ed2ba6d	0.41157857
76	0x3f4fe74a	0.81212294
77	0x3f80caa2	1.0061839
78	0x3f5b39da	0.8563515
79	0x3f9eda73	1.2410415
80	0x3f8f5142	1.1196673
81	0x3f4afd74	0.7929299
82	0x3f46bc06	0.7763065
83	0x3f6b057c	0.91805243
84	0x3f463aba	0.7743336
85	0x3f6ae027	0.9174828
86	0x3f90221e	1.1260412
87	0x3f7f5d1e	0.9975146
88	0x3f788045	0.97070724
89	0x3f8e63da	1.1124222
90	0x3fa89151	1.3169347
91	0x3f7cd0f5	0.98756343
92	0x3f5ed284	0.8703997
93	0x3f67b1f6	0.9050592
94	0x3f8ad49e	1.0846136
95	0x3f2a2800	0.66467285
96	0x3f2ec713	0.68272513
97	0x3ec9ec6e	0.39438194
98	0x3f84b537	1.0367802
99	0x3f09c2e2	0.5381299
100	0x3f52d807	0.8236088
101	0x3f56f51f	0.83967775
102	0x3f3155e5	0.6927169
103	0x3f965ba2	1.1746714
104	0x3f5b72bc	0.85721946
105	0x3f448d09	0.767777
106	0x3fb6b15e	1.4272878
107	0x3eaaa3c5	0.3332807
108	0x3f1668eb	0.5875384
109	0x3f6ee994	0.9332516
110	0x3f1b6e13	0.60714835
111	0x3f0b1eae	0.5434369
112	0x3f5b92cb	0.85770863
113	0x3f460bfa	0.77362025
114	0x3f700018	0.93750143
115	0x3fa1ef79	1.2651206
116	0x3f713aa6	0.94230115
117	0x3f03b796	0.51452005
118	0x3f37b395	0.71758395
119	0x3f5372b0	0.82596874
120	0x3f71d3ad	0.94463617
121	0x3f4d6452	0.802312
122	0x3f83eb0a	1.0306103
123	0x3ef6eb8d	0.48226586
124	0x3faf293c	1.3684459
125	0x3f419e42	0.7563211
126	0x3f86ff24	1.0546613
127	0x3f6c0a6d	0.9220341

actor_fc_layers.blocks.0.block.1.bias f4 [128]
0	0xbe31abfa	-0.1735076
1	0xbe87a923	-0.2649623
2	0x3f1fef93	0.62474936
3	0xbe92af86	-0.2864954
4	0x3f34743b	0.70489854
5	0x3ec653cb	0.38735804
6	0x3f41d858	0.7572074
7	0xbe3a7fb1	-0.18212773
8	0xbe60df0d	-0.21960087
9	0x3f42a8eb	0.76039
10	0xbde567fd	-0.11201475
11	0xbe687349	-0.22700228
12	0x3f04649b	0.5171601
13	0x3e44415d	0.19165559
14	0x3dca9a35	0.09892694
15	0x3f504637	0.8135714
16	0xbed45a8e	-0.41475338
17	0xbc3c5f11	-0.011497275
18	0x3f281bb3	0.65667266
19	0xbd9fa2a4	-0.07794693
20	0xbe70fd20	-0.2353406
21	0xbe28c2f9	-0.16480626
22	0x3ef8b415	0.48574892
23	0x3d4027a6	0.04691281
24	0xbe330a6d	-0.17484446
25	0x3f115f5c	0.5678613
26	0x3cfb68cd	0.030689621
27	0xbd7dcd4e	-0.061963372
28	0xbde18ed5	-0.11013571
29	0x3f307323	0.68925685
30	0x3ea6ff28	0.32616544
31	0xbcff61fe	-0.031174656
32	0x3f2ab9b4	0.6668961
33	0x3f03785f	0.51355547
34	0x3d8bdf89	0.06829745
35	0xbe790534	-0.24318391
36	0x3f024882	0.5089189
37	0xbe170554	-0.14748126
38	0x3e973448	0.29532075
39	0x3f2f74fa	0.6853787
40	0xbe122908	-0.14273465
41	0xbe1d98c4	-0.15390307
42	0xbc4140e7	-0.011795259
43	0x00000000	0.0
44	0xbc8acd0b	-0.016943475
45	0xbdbdf846	-0.0927587
46	0xbe552324	-0.20814186
47	0xbdc25897	-0.094895534
48	0xbf12a926	-0.5728935
49	0xbe8ad6f3	-0.27117118
50	0xbe62a10d	-0.22131748
51	0x3f3e1cfb	0.7426297
52	0x3ee0173c	0.43767726
53	0xbe2da431	-0.16957165
54	0x3f21086b	0.6290347
55	0x3f370fbe	0.71508396
56	0xbe663fef	-0.22485326
57	0xbd948d0d	-0.07253466
58	0xbe2d6888	-0.16934407
59	0xbd980230	-0.07422292
60	0x3e0159da	0.12631932
61	0x3d944eb4	0.07241574
62	0xbd941fc4	-0.07232621
63	0x3b89721c	0.004194511
64	0xbe848cd1	-0.25888684
65	0xbe4706df	-0.19436215
66	0xbf2ec643	-0.68271273
67	0x3ba45177	0.005014594
68	0x3f35c114	0.7099774
69	0xbedaf269	-0.4276307
70	0x3f3c162c	0.7347133
71	0x3eb2eafc	0.34944904
72	0x3f02cdab	0.51095074
73	0xbdc42294	-0.09576908
74	0xbdff719e	-0.12472843
75	0x3f133108	0.5749669
76	0xbe4f0907	-0.20218287
77	0x3d249cdf	0.040188666
78	0x3e88549f	0.2662706
79	0x3dc46fb3	0.095916174
80	0xbcc30e65	-0.023810575
81	0xbd4be35d	-0.049777377
82	0xbe40eedf	-0.18841122
83	0xbe100f88	-0.14068425
84	0xbe2043f9	-0.1565093
85	0xbf407639	-0.75180393
86	0xbf0bb17c	-0.54567695
87	0xbd3371d5	-0.04380973
88	0xbd2ee805	-0.04270174
89	0xbefea261	-0.4973326
90	0xbec6f88a	-0.38861495
91	0xbe48c32b	-0.196057
92	0xbb9bf85b	-0.004759831
93	0xbede0a1a	-0.43367082
94	0xbec957a0	-0.39324665
95	0xbeb2649a	-0.34842378
96	0x3f2a16ae	0.66440856
97	0xbd010ca8	-0.03150621
98	0x3ce2876a	0.027652461
99	0x3ef6f020	0.48230076
100	0xbe8961c3	-0.268324
101	0x3e2cdc9b	0.1688103
102	0xbe25bcc1	-0.16185285
103	0xbe7fe0f2	-0.24988154
104	0xbe40806f	-0.18798994
105	0x3e39935e	0.18122622
106	0x3db8f73f	0.090315334
107	0x3f1d1bd7	0.61370605
108	0xbdf5380a	-0.11973579
109	0xbda12689	-0.07868678
110	0xbe39b98e	-0.1813719
111	0xbe847d07	-0.25876638
112	0xbdcf501f	-0.10122704
113	0xbe4a3150	-0.19745374
114	0xbd88882f	-0.066666
115	0xbd80f7bb	-0.06297251
116	0xbdf6a452	-0.1204306
117	0x3f546e12	0.82980454
118	0xbe2fb519	-0.17158927
119	0xbda6d19d	-0.08145449
120	0xbd9fd8f0	-0.078050494
121	0xbdc555d3	-0.0963551
122	0xbf047e74	-0.5175545
123	0x3e52d3c9	0.20588602
124	0xbef26c8a	-0.47348434
125	0xbe6a9629	-0.22908844
126	0xbeed5017	-0.46350166
127	0xbdd8b3a3	-0.10581138

actor_fc_layers.blocks.0.block.1.running_mean f4 [128]
0	0x00000000	0.0
1	0x00000000	0.0
2	0x00000000	0.0
3	0x00000000	0.0
4	0x00000000	0.0
5	0x00000000	0.0
6	0x00000000	0.0
7	0x00000000	0.0
8	0x00000000	0.0
9	0x00000000	0.0
10	0x00000000	0.0
11	0x00000000	0.0
12	0x00000000	0.0
13	0x00000000	0.0
14	0x00000000	0.0
15	0x00000000	0.0
16	0x00000000	0.0
17	0x00000000	0.0
18	0x00000000	0.0
19	0x00000000	0.0
20	0x00000000	0.0
21	0x00000000	0.0
22	0x00000000	0.0
23	0x00000000	0.0
24	0x00000000	0.0
25	0x00000000	0.0
26	0x00000000	0.0
27	0x00000000	0.0
28	0x00000000	0.0
29	0x00000000	0.0
30	0x00000000	0.0
31	0x00000000	0.0
32	0x00000000	0.0
33	0x00000000	0.0
34	0x00000000	0.0
35	0x00000000	0.0
36	0x00000000	0.0
37	0x00000000	0.0
38	0x00000000	0.0
39	0x00000000	0.0
40	0x00000000	0.0
41	0x00000000	0.0
42	0x00000000	0.0
43	0x00000000	0.0
44	0x00000000	0.0
45	0x00000000	0.0
46	0x00000000	0.0
47	0x00000000	0.0
48	0x00000000	0.0
49	0x00000000	0.0
50	0x00000000	0.0
51	0x00000000	0.0
52	0x00000000	0.0
53	0x00000000	0.0
54	0x00000000	0.0
55	0x00000000	0.0
56	0x00000000	0.0
57	0x00000000	0.0
58	0x00000000	0.0
59	0x00000000	0.0
60	0x00000000	0.0
61	0x00000000	0.0
62	0x00000000	0.0
63	0x00000000	0.0
64	0x00000000	0.0
65	0x00000000	0.0
66	0x00000000	0.0
67	0x00000000	0.0
68	0x00000000	0.0
69	0x00000000	0.0
70	0x00000000	0.0
71	0x00000000	0.0
72	0x00000000	0.0
73	0x00000000	0.0
74	0x00000000	0.0
75	0x00000000	0.0
76	0x00000000	0.0
77	0x00000000	0.0
78	0x00000000	0.0
79	0x00000000	0.0
80	0x00000000	0.0
81	0x00000000	0.0
82	0x00000000	0.0
83	0x00000000	0.0
84	0x00000000	0.0
85	0x00000000	0.0
86	0x00000000	0.0
87	0x00000000	0.0
88	0x00000000	0.0
89	0x00000000	0.0
90	0x00000000	0.0
91	0x00000000	0.0
92	0x00000000	0.0
93	0x00000000	0.0
94	0x00000000	0.0
95	0x00000000	0.0
96	0x00000000	0.0
97	0x00000000	0.0
98	0x00000000	0.0
99	0x00000000	0.0
100	0x00000000	0.0
101	0x00000000	0.0
102	0x00000000	0.0
103	0x00000000	0.0
104	0x00000000	0.0
105	0x00000000	0.0
106	0x00000000	0.0
107	0x00000000	0.0
108	0x00000000	0.0
109	0x00000000	0.0
110	0x00000000	0.0
111	0x00000000	0.0
112	0x00000000	0.0
113	0x00000000	0.0
114	0x00000000	0.0
115	0x00000000	0.0
116	0x00000000	0.0
117	0x00000000	0.0
118	0x00000000	0.0
119	0x00000000	0.0
120	0x00000000	0.0
121	0x00000000	0.0
122	0x00000000	0.0
123	0x00000000	0.0
124	0x00000000	0.0
125	0x00000000	0.0
126	0x00000000	0.0
127	0x00000000	0.0

actor_fc_layers.blocks.0.block.1.running_var f4 [128]
0	0x3f800000	1.0
1	0x3f800000	1.0
2	0x3f800000	1.0
3	0x3f800000	1.0
4	0x3f800000	1.0
5	0x3f800000	1.0
6	0x3f800000	1.0
7	0x3f800000	1.0
8	0x3f800000	1.0
9	0x3f800000	1.0
10	0x3f800000	1.0
11	0x3f800000	1.0
12	0x3f800000	1.0
13	0x3f800000	1.0
14	0x3f800000	1.0
15	0x3f800000	1.0
16	0x3f800000	1.0
17	0x3f800000	1.0
18	0x3f800000	1.0
19	0x3f800000	1.0
20	0x3f800000	1.0
21	0x3f800000	1.0
22	0x3f800000	1.0
23	0x3f800000	1.0
24	0x3f800000	1.0
25	0x3f800000	1.0
26	0x3f800000	1.0
27	0x3f800000	1.0
28	0x3f800000	1.0
29	0x3f800000	1.0
30	0x3f800000	1.0
31	0x3f800000	1.0
32	0x3f800000	1.0
33	0x3f800000	1.0
34	0x3f800000	1.0
35	0x3f800000	1.0
36	0x3f800000	1.0
37	0x3f800000	1.0
38	0x3f800000	1.0
39	0x3f800000	1.0
40	0x3f800000	1.0
41	0x3f800000	1.0
42	0x3f800000	1.0
43	0x3f800000	1.0
44	0x3f800000	1.0
45	0x3f800000	1.0
46	0x3f800000	1.0
47	0x3f800000	1.0
48	0x3f800000	1.0
49	0x3f800000	1.0
50	0x3f800000	1.0
51	0x3f800000	1.0
52	0x3f800000	1.0
53	0x3f800000	1.0
54	0x3f800000	1.0
55	0x3f800000	1.0
56	0x3f800000	1.0
57	0x3f800000	1.0
58	0x3f800000	1.0
59	0x3f800000	1.0
60	0x3f800000	1.0
61	0x3f800000	1.0
62	0x3f800000	1.0
63	0x3f800000	1.0
64	0x3f800000	1.0
65	0x3f800000	1.0
66	0x3f800000	1.0
67	0x3f800000	1.0
68	0x3f800000	1.0
69	0x3f800000	1.0
70	0x3f800000	1.0
71	0x3f800000	1.0
72	0x3f800000	1.0
73	0x3f800000	1.0
74	0x3f800000	1.0
75	0x3f800000	1.0
76	0x3f800000	1.0
77	0x3f800000	1.0
78	0x3f800000	1.0
79	0x3f800000	1.0
80	0x3f800000	1.0
81	0x3f800000	1.0
82	0x3f800000	1.0
83	0x3f800000	1.0
84	0x3f800000	1.0
85	0x3f800000	1.0
86	0x3f800000	1.0
87	0x3f800000	1.0
88	0x3f800000	1.0
89	0x3f800000	1.0
90	0x3f800000	1.0
91	0x3f800000	1.0
92	0x3f800000	1.0
93	0x3f800000	1.0
94	0x3f800000	1.0
95	0x3f800000	1.0
96	0x3f800000	1.0
97	0x3f800000	1.0
98	0x3f800000	1.0
99	0x3f800000	1.0
100	0x3f800000	1.0
101	0x3f800000	1.0
102	0x3f800000	1.0
103	0x3f800000	1.0
104	0x3f800000	1.0
105	0x3f800000	1.0
106	0x3f800000	1.0
107	0x3f800000	1.0
108	0x3f800000	1.0
109	0x3f800000	1.0
110	0x3f800000	1.0
111	0x3f800000	1.0
112	0x3f800000	1.0
113	0x3f800000	1.0
114	0x3f800000	1.0
115	0x3f800000	1.0
116	0x3f800000	1.0
117	0x3f800000	1.0
118	0x3f800000	1.0
119	0x3f800000	1.0
120	0x3f800000	1.0
121	0x3f800000	1.0
122	0x3f800000	1.0
123	0x3f800000	1.0
124	0x3f800000	1.0
125	0x3f800000	1.0
126	0x3f800000	1.0
127	0x3f800000	1.0

actor_fc_layers.blocks.1.block.0.weight f4 [128, 128]
0	0xbd9925b6	-0.07477896
1	0xbd3d963a	-0.046285845
2	0xbc6c88fd	-0.014436957
3	0xbd8cda6f	-0.068776004
4	0x3ca5449b	0.020174315
5	0x3d203e1c	0.039121732
6	0x3d2fcdb4	0.042920783
7	0xbd8b3237	-0.06796687
8	0xbdafe45c	-0.08588478
9	0x3cd2a53f	0.025713561
10	0xbd316be9	-0.0433158
11	0xbb8e95cb	-0.004351353
12	0xbd241550	-0.040059388
13	0xbd60aca9	-0.05485216
14	0xbd42c39f	-0.04754984
15	0x3cfe18b1	0.031017633
16	0xbb6437b0	-0.0034823231
17	0xbd33abf2	-0.04386515
18	0xbc30edfe	-0.010798929
19	0x3d04f812	0.03246314
20	0xbcb97212	-0.0226374
21	0xbd27af94	-0.04093893
22	0xbd8176cf	-0.06321489
23	0xbdaea665	-0.08527831
24	0xbd32d25e	-0.043657653
25	0xbcf62206	-0.03004552
26	0x3da2cbb1	0.07949007
27	0xbdc38feb	-0.095489345
28	0xbb986a98	-0.004651379
29	0x3bb10509	0.0054022116
30	0xbdd1ef38	-0.102507055
31	0x3d99025e	0.07471155
32	0xbd38c5ce	-0.045110516
33	0xbddbbcfc	-0.10729405
34	0xbd99a250	-0.07501662
35	0xbd99e774	-0.07514849
36	0xbd9d678c	-0.076857656
37	0xbd728312	-0.05920703
38	0x3d2340c3	0.039856683
39	0xbdbd89ba	-0.09254785
40	0x3c2c8708	0.010530241
41	0x3c67b89a	0.014143134
42	0x3d1522bf	0.03641009
43	0x3c9379ab	0.018002352
44	0xbd2b08f2	-0.041756578
45	0xbd55cc9e	-0.05219709
46	0xbdae8d00	-0.08522987
47	0xbdabc611	-0.083873875
48	0x3d155523	0.036458146
49	0x3c93a9cb	0.0180253
50	0xbd3e02d1	-0.046389405
51	0x3da9c7ba	0.08290048
52	0xbd7b3caa	-0.06133715
53	0x3c57b7d8	0.01316639
54	0xbd508695	-0.050909597
55	0x3ccbee1a	0.02489381
56	0x3b43160b	0.0029767777
57	0xbbd60938	-0.0065318607
58	0xbd9020a0	-0.07037473
59	0xbb42ce1e	-0.0029724906
60	0x3cd71467	0.026254846
61	0xbd9e776c	-0.07737622
62	0xbc9eebfc	-0.019399635
63	0x3d82ce03	0.0638695
64	0x3d4f934e	0.05067759
65	0xbc44b830	-0.012006804
66	0xbc755236	-0.014973214
67	0x3c8a295e	0.016865429
68	0xbd8bcdaf	-0.068263404
69	0x3acba63a	0.001553721
70	0xbd0e1c75	-0.034695107
71	0xbd271099	-0.040787313
72	0xbdc7c79b	-0.097548686
73	0xbd3f3a26	-0.046686314
74	0x3d080a02	0.03321267
75	0xbb8ee1f7	-0.004360433
76	0xbdaed800	-0.085372925
77	0xbcebcea9	-0.028785067
78	0xbb2c2755	-0.002626856
79	0xbd087f97	-0.033324804
80	0xbd9a73b0	-0.07541597
81	0xbd524333	-0.051333617
82	0x3bb726f5	0.005589361
83	0xbd0a1e0b	-0.033720057
84	0xbc358c6a	-0.011080841
85	0xbd8e5e52	-0.06951584
86	0xbafeab92	-0.0019429794
87	0xbd671de1	-0.05642498
88	0xbcdc0d8a	-0.026861925
89	0xbd4f8283	-0.050661575
90	0x3d50dc37	0.050991263
91	0xbdadec93	-0.084923886
92	0xbc0da4c7	-0.008645243
93	0xbc837ad3	-0.016049778
94	0xbd9b8cf0	-0.07595241
95	0x3d11373b	0.035453063
96	0xbdabac49	-0.0838247
97	0xbdbe7866	-0.09300308
98	0xbdb395af	-0.08768784
99	0xbcf06546	-0.029345166
100	0x3cf02dcd	0.029318715
101	0xbdb3698a	-0.08760364
102	0xbdfc069e	-0.1230595
103	0x3c451176	0.012028089
104	0xbd8e873d	-0.069593884
105	0xbd6e77e9	-0.058219824
106	0xbd659485	-0.056049842
107	0xbd983e74	-0.07433787
108	0x3d110b18	0.03541097
109	0x3bbdd86c	0.0057936218
110	0xbcb253ce	-0.021768477
111	0x3d7f8650	0.06238395
112	0xbbcd017f	-0.006256282
113	0xbd388c61	-0.04505575
114	0x3da94f3b	0.08267065
115	0x3d948cbf	0.07253408
116	0xbd7a8896	-0.061165415
117	0xbd30d756	-0.04317411
118	0xbe1362b4	-0.14393121
119	0xbda48da2	-0.08034827
120	0x3c28d2b8	0.0103041455
121	0xbc7a7892	-0.015287535
122	0x3d463416	0.048389517
123	0xbdb629d6	-0.08894698
124	0xbdd803dc	-0.10547611
125	0xbd725df6	-0.05917164
126	0xbdcfe3c7	-0.10150867
127	0x3d4a118a	0.049333133
128	0x3d494a52	0.049143143
129	0xbdd007b8	-0.10157722
130	0x3d2810d8	0.04103169
131	0xbd80d30a	-0.062902525
132	0x3d20bfcc	0.03924541
133	0xbcd650b4	-0.02616153
134	0xbc3ebd8a	-0.011641869
135	0x3d4f9e3e	0.05068802
136	0x3ceb4a3d	0.028721923
137	0xbdf2216a	-0.118227795
138	0x3d8d33e3	0.06894662
139	0xbb3bad29	-0.0028637147
140	0x3b8d1826	0.0043058572
141	0xbd6b426d	-0.057436395
142	0x3d6522d8	0.055941433
143	0xbe2f7b49	-0.17136873
144	0xbd164a74	-0.036692098
145	0x3d8c27ea	0.068435505
146	0x3b95cdd7	0.004571657
147	0x3e2af960	0.16696692
148	0xbdae9b10	-0.085256696
149	0x3da206c0	0.07911444
150	0xbd0883e3	-0.033328902
151	0x3e15bab3	0.14622001
152	0x3c81d6e6	0.015849542
153	0x3dc7ad0a	0.097498015
154	0x3bf2474d	0.0073937536
155	0x3d7eda0d	0.06221967
156	0x3d9863f3	0.07440939
157	0xbd3fd026	-0.046829365
158	0x3cbc1449	0.022958891
159	0x3cde07d9	0.027103351
160	0x3c9abbf3	0.01888845
161	0xbc5b6900	-0.013391733
162	0xbd9af7b7	-0.07566779
163	0xbde0d995	-0.109790005
164	0xbe0ee002	-0.1395264
165	0xbdcc54d7	-0.099771194
166	0xbd532560	-0.051549315
167	0xbded9685	-0.11600975
168	0x3c5d426f	0.0135046085
169	0x3d9b0dfc	0.07571027
170	0x3c0a4c22	0.008441003
171	0x3d7fe71c	0.062476262
172	0x3db230a6	0.08700685
173	0xbdc09a1a	-0.094043925
174	0x3c4f3c96	0.012648722
175	0x3d6533a4	0.05595745
176	0x3da333ec	0.07968888
177	0xbdfbe6fa	-0.12299915
178	0x3df7fbd9	0.12108583
179	0x3d79a0f1	0.0609445
180	0x3cc72007	0.024307264
181	0x3da0ce41	0.0785184
182	0xbc27b05d	-0.010234919
183	0x3ddef9e2	0.10887505
184	0x3d49291e	0.049111478
185	0x3dfcec4d	0.12349758
186	0x3d06cf2b	0.032912415
187	0x3d09822e	0.033571415
188	0x3de74acc	0.11293563
189	0x3a59cf9f	0.0008308831
190	0x3cf16521	0.029467167
191	0x3e0e4f16	0.13897356
192	0xbcab39d5	-0.0209016
193	0x3d19c577	0.037541833
194	0xbd6d9f81	-0.058013443
195	0x3d92f67f	0.07175922
196	0x3dae4a98	0.085103214
197	0xbcd0acf4	-0.025473095
198	0x3e764019	0.24047889
199	0x3c89ddfb	0.016829481
200	0xbe38f832	-0.18063429
201	0xbcfbb2a2	-0.030724827
202	0x3d3d6d9a	0.046247102
203	0x3dda28af	0.10652291
204	0x3db6bd1a	0.08922787
205	0xbdba0d26	-0.09084539
206	0x3e7b7039	0.24554528
207	0x3e11be00	0.14232635
208	0xbcfee436	-0.031114679
209	0x3c349f4d	0.011024308
210	0x3dd604eb	0.10450157
211	0x3d7147d6	0.0589064
212	0x3d604f4c	0.054763123
213	0xbe09d0b3	-0.13458519
214	0xbdebcd7d	-0.11513803
215	0x3de567fd	0.11201475
216	0x3cb51706	0.022105705
217	0xbe58f094	-0.21185523
218	0x3d977097	0.07394522
219	0x3d73491d	0.059395898
220	0xbc741505	-0.01489759
221	0xbdb7081a	-0.08937092
222	0xbe693c11	-0.2277682
223	0xbe49579b	-0.19662325
224	0xbdf18a3e	-0.11793946
225	0x3e0cb67e	0.1374149
226	0xbd1e0c64	-0.038586035
227	0x3de2cdf8	0.11074442
228	0x3d807f0e	0.06274234
229	0x3e706b21	0.23478366
230	0xbd141983	-0.036157142
231	0xbe284530	-0.16432643
232	0x3e2223a8	0.15833914
233	0x3db6f879	0.08934111
234	0x3cb38991	0.021916183
235	0xbd03ba7f	-0.03216028
236	0x3de03f48	0.1094957
237	0xbd07991f	-0.033105012
238	0x3d71be95	0.059019644
239	0x3c6f28dc	0.014597144
240	0x3d0d8522	0.034550793
241	0x3d752931	0.059853736
242	0xbd0875d2	-0.033315487
243	0xbcaf3b9d	-0.02139073
244	0x3d07571a	0.03304205
245	0xbdf3152a	-0.11869271
246	0xbd3143ed	-0.04327767
247	0x3d5cfedc	0.05395399
248	0xbd80bcc6	-0.06286006
249	0x3d3beec9	0.04588202
250	0xbe7a2ad6	-0.24430403
251	0xbba8ead1	-0.0051549454
252	0xbe6127b5	-0.21987803
253	0xbd345eda	-0.04403577
254	0x3d37c6ba	0.044867255
255	0x3e3f1c75	0.18663199

actor_fc_layers.blocks.1.block.1.weight f4 [128]
0	0x3f71cfc5	0.94457656
1	0x3f7e6285	0.9936908
2	0x3f7dd38d	0.99150926
3	0x3f96468c	1.1740279
4	0x3f81c8d7	1.0139416
5	0x3f895ea2	1.0732005
6	0x3f72681d	0.94690114
7	0x3fa26fd4	1.2690377
8	0x3f630f35	0.8869508
9	0x3f8c7b83	1.0975193
10	0x3f89b55a	1.0758469
11	0x3f731cfa	0.9496609
12	0x3f99d1f7	1.2017201
13	0x3f73045d	0.9492853
14	0x3f8435ee	1.0328958
15	0x3f8a3517	1.0797452
16	0x3f8c03fb	1.0938715
17	0x3f8320fa	1.0244439
18	0x3f81aac2	1.0130236
19	0x3f7f7dba	0.9980122
20	0x3f819096	1.0122249
21	0x3f87be3a	1.0604928
22	0x3f962d27	1.1732529
23	0x3f65b93d	0.89735776
24	0x3f83d31b	1.0298799
25	0x3f8e53c6	1.1119316
26	0x3f946677	1.159377
27	0x3fa4d0d0	1.2876225
28	0x3fe0b0f4	1.7554002
29	0x3f87c02f	1.0605525
30	0x3f977227	1.1831712
31	0x3f7c82d5	0.98637134
32	0x3fab5d61	1.3387872
33	0x3f9a8350	1.2071323
34	0x3f49385b	0.78601617
35	0x3f8c13ff	1.0943602
36	0x3faa0605	1.3283087
37	0x3f8c5986	1.096482
38	0x3f86fcdf	1.054592
39	0x3f7b385d	0.9813288
40	0x3f862be2	1.0482142
41	0x3f7903ea	0.972716
42	0x3fa0aca8	1.255269
43	0x3f866cbb	1.0501932
44	0x3f887da3	1.0663341
45	0x3f9825e6	1.1886566
46	0x3f7da8f9	0.99085957
47	0x3f707675	0.9393075
48	0x3f7410b9	0.95338017
49	0x3f7c35e2	0.9851972
50	0x3f741505	0.95344573
51	0x3f844fb6	1.0336826
52	0x3f7947e1	0.97375304
53	0x3f733ef5	0.9501794
54	0x3f8cf9af	1.1013697
55	0x3f77036a	0.96489584
56	0x3f8900e3	1.0703396
57	0x3f94eb3e	1.163429
58	0x3f7bcec1	0.98362356
59	0x3f7543c1	0.9580651
60	0x3f9292e3	1.1451076
61	0x3f50c784	0.81554437
62	0x3f7118f6	0.9417871
63	0x3f800465	1.0001341
64	0x3f925dc2	1.1434863
65	0x3f7e5731	0.99351794
66	0x3f7eb555	0.9949544
67	0x3f814a2d	1.0100762
68	0x3fa75f83	1.3076023
69	0x3f74bfb9	0.95605046
70	0x3f80725c	1.00349
71	0x3f886c73	1.0658096
72	0x3f7a2f86	0.97728765
73	0x3f8ba50f	1.0909747
74	0x3f6ec8c4	0.93275094
75	0x3f90851b	1.129062
76	0x3f892ace	1.0716188
77	0x3f8f6023	1.1201214
78	0x3f8bfe1e	1.0936925
79	0x3f99911f	1.1997412
80	0x3f8109ec	1.0081153
81	0x3f9b5c1b	1.2137483
82	0x3f926f58	1.144023
83	0x3f758ad9	0.9591499
84	0x3f647ba9	0.8925119
85	0x3f85d4c6	1.0455558
86	0x3f71bfc1	0.9443322
87	0x3f8942e7	1.0723542
88	0x3f76420d	0.96194535
89	0x3f6312b9	0.88700444
90	0x3f94a0ab	1.1611532
91	0x3f8c33a3	1.0953258
92	0x3f8a050a	1.0782788
93	0x3f78c505	0.9717563
94	0x3f7be43e	0.98395145
95	0x3fa97f8e	1.3242052
96	0x3f4e5556	0.8059896
97	0x3f81866f	1.0119151
98	0x3f7f4b55	0.9972432
99	0x3f909263	1.1294674
100	0x3f95bdd3	1.1698555
101	0x3f164ae6	0.58708036
102	0x3fab67ec	1.339109
103	0x3f8039ea	1.0017674
104	0x3f708291	0.9394923
105	0x3f7a8e0d	0.97873
106	0x3f753c55	0.95795184
107	0x3f764591	0.961999
108	0x3f3e1cf1	0.7426291
109	0x3f83fa2a	1.0310719
110	0x3f724b35	0.94646007
111	0x3fa0eb8d	1.2571884
112	0x3f7cde3d	0.9877661
113	0x3f90f537	1.1324834
114	0x3f7e79f5	0.9940484
115	0x3f96e13b	1.1787485
116	0x3f76dcbd	0.9643057
117	0x3f8c08aa	1.0940144
118	0x3f707c51	0.9393969
119	0x3f701596	0.9378294
120	0x3f872ede	1.0561178
121	0x3f81234f	1.00889
122	0x3f811a85	1.0086218
123	0x3f7b11b1	0.9807387
124	0x3f80f249	1.007394
125	0x3fbbd8ea	1.4675572
126	0x3f7b45a5	0.98153144
127	0x3fae1321	1.3599588

actor_fc_layers.blocks.1.block.1.bias f4 [128]
0	0xbd98c088	-0.074585974
1	0x3ca0f03c	0.019645803
2	0x3cf4eb79	0.029897438
3	0x3e090d62	0.13384011
4	0xbc18cca4	-0.009326134
5	0xbe0f4e8f	-0.13994811
6	0xbd4d5517	-0.050129976
7	0x3d486b46	0.04893043
8	0x3e6bb670	0.23018813
9	0x3df16715	0.117872395
10	0x3bdae5bf	0.00668022
11	0xbda8e490	-0.0824672
12	0xbe82fd0b	-0.2558368
13	0xbc05375b	-0.008130874
14	0x3bde81f7	0.0067903954
15	0x3d595173	0.05305619
16	0xbda9482c	-0.08265719
17	0xbcd38e74	-0.025824763
18	0xbc348c8e	-0.011019839
19	0x3d5595fb	0.052144986
20	0xbdb32e2a	-0.087490395
21	0xbc9ccf98	-0.019141957
22	0x3d832032	0.06402625
23	0x3de2ad28	0.11068183
24	0x3db7d0e1	0.08975387
25	0xbd887e6b	-0.06664737
26	0xbdb0bf1e	-0.08630203
27	0x3cad6164	0.021164604
28	0xbdc76977	-0.09736913
29	0xbb5384af	-0.003227513
30	0xbd422bab	-0.047404926
31	0x3d36d2f9	0.044634793
32	0x3d38f7cd	0.045158196
33	0x3e583577	0.21114145
34	0x3ebe25f9	0.37138346
35	0xbd72d4b5	-0.059284884
36	0x3f1b6c1f	0.60711855
37	0x3d19d9c7	0.037561204
38	0x3db90515	0.090341724
39	0xbd0c38b7	-0.034233775
40	0xbdc462db	-0.09589168
41	0x3c91e1ef	0.017807929
42	0x3e1a397b	0.1506099
43	0xbd5708af	-0.052498516
44	0x3c82e6c6	0.015979182
45	0xbee51548	-0.447428
46	0xbc7af65a	-0.015317524
47	0xbc3991b6	-0.011326244
48	0xbd47bdd7	-0.04876503
49	0x3ba9b9d8	0.005179625
50	0xbd66e9ed	-0.056375433
51	0xbd2f2b35	-0.042765815
52	0xbd16dc28	-0.03683105
53	0xbd7f2c7a	-0.062298276
54	0x3db1abd5	0.086753525
55	0xbbf8a7b9	-0.0075883535
56	0x3d419ddf	0.0472697
57	0x3e20ef11	0.15716197
58	0xbd1845e0	-0.037176013
59	0xbdf1c85a	-0.11805792
60	0x3d8161b7	0.06317466
61	0x3e42382a	0.18966737
62	0x3ce95060	0.028480709
63	0xbc968958	-0.018376037
64	0xbc08688b	-0.008325706
65	0xbcc16e37	-0.023612125
66	0xbd1bf9ec	-0.03808014
67	0xbb96ce7c	-0.0046022516
68	0xbeef5768	-0.46746373
69	0xbd5818f4	-0.052758172
70	0x3de21dcc	0.110408396
71	0xbdb42bad	-0.08797393
72	0x3caaf12c	0.020866953
73	0x3da17ae8	0.07884771
74	0x3e42ea4b	0.19034688
75	0xbdc042ff	-0.093877785
76	0xbe831f9a	-0.25610048
77	0x3ddb1180	0.10696697
78	0xbd389c66	-0.04507103
79	0xbc5e46fc	-0.013566729
80	0x3c1427f7	0.0090427315
81	0x3d53588b	0.051598113
82	0x3d3e03fd	0.046390522
83	0xbd9499a4	-0.07255867
84	0x3e369e3d	0.178338
85	0xbd615c0d	-0.055019427
86	0xbd1a3148	-0.037644655
87	0xbc1dfcc3	-0.009642783
88	0xbcc03107	-0.023460878
89	0x3e104187	0.14087497
90	0xbccf4e8f	-0.025306014
91	0xbd99d6a7	-0.07511645
92	0x3cf366cd	0.029712105
93	0xbca5b16d	-0.020226205
94	0xbcc2b142	-0.023766164
95	0x3d8e1e57	0.069393806
96	0xbdd604ec	-0.104501575
97	0x3d220918	0.039559454
98	0xbe21f6bd	-0.1581678
99	0x3d13ff58	0.036132187
100	0xbc4800a3	-0.012207183
101	0x3efb638e	0.49099392
102	0xbdba2fea	-0.0909117
103	0x3e0240c2	0.12720016
104	0xbd229e51	-0.039701764
105	0xbd2f1ded	-0.04275315
106	0x3c959d03	0.018263346
107	0xbce129a9	-0.027485685
108	0x3e858045	0.26074424
109	0xbb2d1f61	-0.0026416408
110	0xbc5c1288	-0.013432153
111	0x3e6bbddc	0.23021644
112	0xbc055ffb	-0.008140559
113	0xbb055f97	-0.0020351165
114	0xbc567da0	-0.013091475
115	0xbf1b38f4	-0.6063378
116	0xbcb3d302	-0.021951202
117	0x3d28e300	0.04123211
118	0x3c076e8a	0.008266101
119	0x3c9a8abb	0.01886498
120	0xbcd80c10	-0.02637294
121	0x3c969c7b	0.018385163
122	0xbd3e6f6a	-0.04649297
123	0x3bd31047	0.0064411494
124	0xbd5979b0	-0.053094566
125	0x3f0d7a32	0.5526458
126	0x3d05fb73	0.032710504
127	0x3f1f3caf	0.6220197

actor_fc_layers.blocks.1.block.1.running_mean f4 [128]
0	0x00000000	0.0
1	0x00000000	0.0
2	0x00000000	0.0
3	0x00000000	0.0
4	0x00000000	0.0
5	0x00000000	0.0
6	0x00000000	0.0
7	0x00000000	0.0
8	0x00000000	0.0
9	0x00000000	0.0
10	0x00000000	0.0
11	0x00000000	0.0
12	0x00000000	0.0
13	0x00000000	0.0
14	0x00000000	0.0
15	0x00000000	0.0
16	0x00000000	0.0
17	0x00000000	0.0
18	0x00000000	0.0
19	0x00000000	0.0
20	0x00000000	0.0
21	0x00000000	0.0
22	0x00000000	0.0
23	0x00000000	0.0
24	0x00000000	0.0
25	0x00000000	0.0
26	0x00000000	0.0
27	0x00000000	0.0
28	0x00000000	0.0
29	0x00000000	0.0
30	0x00000000	0.0
31	0x00000000	0.0
32	0x00000000	0.0
33	0x00000000	0.0
34	0x00000000	0.0
35	0x00000000	0.0
36	0x00000000	0.0
37	0x00000000	0.0
38	0x00000000	0.0
39	0x00000000	0.0
40	0x00000000	0.0
41	0x00000000	0.0
42	0x00000000	0.0
43	0x00000000	0.0
44	0x00000000	0.0
45	0x00000000	0.0
46	0x00000000	0.0
47	0x00000000	0.0
48	0x00000000	0.0
49	0x00000000	0.0
50	0x00000000	0.0
51	0x00000000	0.0
52	0x00000000	0.0
53	0x00000000	0.0
54	0x00000000	0.0
55	0x00000000	0.0
56	0x00000000	0.0
57	0x00000000	0.0
58	0x00000000	0.0
59	0x00000000	0.0
60	0x00000000	0.0
61	0x00000000	0.0
62	0x00000000	0.0
63	0x00000000	0.0
64	0x00000000	0.0
65	0x00000000	0.0
66	0x00000000	0.0
67	0x00000000	0.0
68	0x00000000	0.0
69	0x00000000	0.0
70	0x00000000	0.0
71	0x00000000	0.0
72	0x00000000	0.0
73	0x00000000	0.0
74	0x00000000	0.0
75	0x00000000	0.0
76	0x00000000	0.0
77	0x00000000	0.0
78	0x00000000	0.0
79	0x00000000	0.0
80	0x00000000	0.0
81	0x00000000	0.0
82	0x00000000	0.0
83	0x00000000	0.0
84	0x00000000	0.0
85	0x00000000	0.0
86	0x00000000	0.0
87	0x00000000	0.0
88	0x00000000	0.0
89	0x00000000	0.0
90	0x00000000	0.0
91	0x00000000	0.0
92	0x00000000	0.0
93	0x00000000	0.0
94	0x00000000	0.0
95	0x00000000	0.0
96	0x00000000	0.0
97	0x00000000	0.0
98	0x00000000	0.0
99	0x00000000	0.0
100	0x00000000	0.0
101	0x00000000	0.0
102	0x00000000	0.0
103	0x00000000	0.0
104	0x00000000	0.0
105	0x00000000	0.0
106	0x00000000	0.0
107	0x00000000	0.0
108	0x00000000	0.0
109	0x00000000	0.0
110	0x00000000	0.0
111	0x00000000	0.0
112	0x00000000	0.0
113	0x00000000	0.0
114	0x00000000	0.0
115	0x00000000	0.0
116	0x00000000	0.0
117	0x00000000	0.0
118	0x00000000	0.0
119	0x00000000	0.0
120	0x00000000	0.0
121	0x00000000	0.0
122	0x00000000	0.0
123	0x00000000	0.0
124	0x00000000	0.0
125	0x00000000	0.0
126	0x00000000	0.0
127	0x00000000	0.0

actor_fc_layers.blocks.1.block.1.running_var f4 [128]
0	0x3f800000	1.0
1	0x3f800000	1.0
2	0x3f800000	1.0
3	0x3f800000	1.0
4	0x3f800000	1.0
5	0x3f800000	1.0
6	0x3f800000	1.0
7	0x3f800000	1.0
8	0x3f800000	1.0
9	0x3f800000	1.0
10	0x3f800000	1.0
11	0x3f800000	1.0
12	0x3f800000	1.0
13	0x3f800000	1.0
14	0x3f800000	1.0
15	0x3f800000	1.0
16	0x3f800000	1.0
17	0x3f800000	1.0
18	0x3f800000	1.0
19	0x3f800000	1.0
20	0x3f800000	1.0
21	0x3f800000	1.0
22	0x3f800000	1.0
23	0x3f800000	1.0
24	0x3f800000	1.0
25	0x3f800000	1.0
26	0x3f800000	1.0
27	0x3f800000	1.0
28	0x3f800000	1.0
29	0x3f800000	1.0
30	0x3f800000	1.0
31	0x3f800000	1.0
32	0x3f800000	1.0
33	0x3f800000	1.0
34	0x3f800000	1.0
35	0x3f800000	1.0
36	0x3f800000	1.0
37	0x3f800000	1.0
38	0x3f800000	1.0
39	0x3f800000	1.0
40	0x3f800000	1.0
41	0x3f800000	1.0
42	0x3f800000	1.0
43	0x3f800000	1.0
44	0x3f800000	1.0
45	0x3f800000	1.0
46	0x3f800000	1.0
47	0x3f800000	1.0
48	0x3f800000	1.0
49	0x3f800000	1.0
50	0x3f800000	1.0
51	0x3f800000	1.0
52	0x3f800000	1.0
53	0x3f800000	1.0
54	0x3f800000	1.0
55	0x3f800000	1.0
56	0x3f800000	1.0
57	0x3f800000	1.0
58	0x3f800000	1.0
59	0x3f800000	1.0
60	0x3f800000	1.0
61	0x3f800000	1.0
62	0x3f800000	1.0
63	0x3f800000	1.0
64	0x3f800000	1.0
65	0x3f800000	1.0
66	0x3f800000	1.0
67	0x3f800000	1.0
68	0x3f800000	1.0
69	0x3f800000	1.0
70	0x3f800000	1.0
71	0x3f800000	1.0
72	0x3f800000	1.0
73	0x3f800000	1.0
74	0x3f800000	1.0
75	0x3f800000	1.0
76	0x3f800000	1.0
77	0x3f800000	1.0
78	0x3f800000	1.0
79	0x3f800000	1.0
80	0x3f800000	1.0
81	0x3f800000	1.0
82	0x3f800000	1.0
83	0x3f800000	1.0
84	0x3f800000	1.0
85	0x3f800000	1.0
86	0x3f800000	1.0
87	0x3f800000	1.0
88	0x3f800000	1.0
89	0x3f800000	1.0
90	0x3f800000	1.0
91	0x3f800000	1.0
92	0x3f800000	1.0
93	0x3f800000	1.0
94	0x3f800000	1.0
95	0x3f800000	1.0
96	0x3f800000	1.0
97	0x3f800000	1.0
98	0x3f800000	1.0
99	0x3f800000	1.0
100	0x3f800000	1.0
101	0x3f800000	1.0
102	0x3f800000	1.0
103	0x3f800000	1.0
104	0x3f800000	1.0
105	0x3f800000	1.0
106	0x3f800000	1.0
107	0x3f800000	1.0
108	0x3f800000	1.0
109	0x3f800000	1.0
110	0x3f800000	1.0
111	0x3f800000	1.0
112	0x3f800000	1.0
113	0x3f800000	1.0
114	0x3f800000	1.0
115	0x3f800000	1.0
116	0x3f800000	1.0
117	0x3f800000	1.0
118	0x3f800000	1.0
119	0x3f800000	1.0
120	0x3f800000	1.0
121	0x3f800000	1.0
122	0x3f800000	1.0
123	0x3f800000	1.0
124	0x3f800000	1.0
125	0x3f800000	1.0
126	0x3f800000	1.0
127	0x3f800000	1.0

actor_fc_layers.blocks.2.block.0.weight f4 [128, 128]
0	0xbb9634f7	-0.0045839506
1	0xbc8aafbe	-0.016929504
2	0xbcc5dfb7	-0.024154527
3	0xbcf51d7a	-0.029921282
4	0x3d79a029	0.060943756
5	0xbe09e49f	-0.13466118
6	0xbd53fe8f	-0.051756438
7	0x3d972c9f	0.07381558
8	0xbdf403d6	-0.11914794
9	0xbe86effb	-0.26354966
10	0xbde0a6cd	-0.10969315
11	0xbd9874c0	-0.07444143
12	0xbd98a210	-0.07452786
13	0x3ca93b49	0.020658152
14	0x3dbd216d	0.09234891
15	0x3d5615b7	0.052266803
16	0xbd5ea96b	-0.05436079
17	0x3d5bf554	0.05370076
18	0xbdf7adba	-0.120936826
19	0xbd2e270d	-0.04251771
20	0xbe089b9a	-0.13340607
21	0xbbcf5b0f	-0.0063279937
22	0xbc24c5e1	-0.010056944
23	0xbd5628dc	-0.05228506
24	0xbd9c14e0	-0.07621169
25	0xbe273c58	-0.16331613
26	0x3e959e30	0.2922225
27	0xbc201e79	-0.00977289
28	0x3bdd76c8	0.0067585446
29	0x3d901c08	0.070365965
30	0xbdf8e3e1	-0.121528395
31	0x3dff32b9	0.124608465
32	0xbe8000b0	-0.25000525
33	0x3ee8c03c	0.45459163
34	0xbe1f4fd4	-0.15557796
35	0xbd0cc1d2	-0.03436453
36	0xbdcc4d07	-0.09975629
37	0xbdc9948a	-0.09842785
38	0x3e2c9edd	0.16857477
39	0x3d0a2ce3	0.033734214
40	0x3ac3ef3b	0.0014948616
41	0x3b6bae3c	0.0035962006
42	0xbd5bdbd8	-0.053676456
43	0xbdab4dc1	-0.0836444
44	0xbc1bd3a4	-0.009510908
45	0x3d096867	0.03354683
46	0x3cbf8b02	0.023381714
47	0x3c9083ef	0.017641036
48	0x3d8b1b8e	0.06792365
49	0x3da60ec9	0.08108289
50	0xbd8a677a	-0.06758018
51	0xbd8db147	-0.069185786
52	0xbd05010e	-0.03247171
53	0x3cbff736	0.023433309
54	0x3e601004	0.2188111
55	0x3e2e4bc4	0.1702109
56	0xbbd6f3fc	-0.006559847
57	0x3dcb2f7b	0.099211656
58	0xbd8869b6	-0.06660788
59	0x3daff399	0.085913844
60	0x3c961a68	0.018323138
61	0xbe01be4b	-0.12670247
62	0x3df7c07a	0.12097259
63	0x3ded703c	0.11593673
64	0x3e451d2f	0.19249414
65	0x3d2e2645	0.042516965
66	0xbac0f4bb	-0.0014721373
67	0xbd642c5d	-0.05570637
68	0xbe0f452f	-0.13991235
69	0x3e052ba2	0.13004926
70	0x3e12859c	0.1430878
71	0xbe06f127	-0.1317793
72	0x3d31d989	0.04342035
73	0x3d89de5e	0.06731866
74	0xbc3b767a	-0.011441821
75	0xbe8c16bb	-0.27361092
76	0xbddc887f	-0.10768222
77	0xbdb843ba	-0.08997293
78	0xba23a5fd	-0.0006242691
79	0xbd0717d3	-0.032981705
80	0x3c44bb23	0.0120075075
81	0xbe11eaec	-0.14249772
82	0x3e1fcc0b	0.1560518
83	0xbdcb9f33	-0.09942474
84	0x3d36b28d	0.044603873
85	0xbce3fd18	-0.027830645
86	0x3d22e695	0.03977068
87	0x3c5ad170	0.013355598
88	0x3cca5b5e	0.02470177
89	0x3c961d88	0.018324628
90	0x3d3c0892	0.04590661
91	0xbdefe75c	-0.1171405
92	0x3dc51c67	0.09624558
93	0x3d61769c	0.055044755
94	0x3d23f1c4	0.040025488
95	0xbde434f5	-0.11142913
96	0xbe9678f0	-0.29389143
97	0x3dd6f334	0.10495606
98	0xbd661e04	-0.05618097
99	0x3e6691a5	0.22516496
100	0x3d3daa26	0.046304844
101	0xbd632c1d	-0.05546199
102	0xbc55ccac	-0.013049286
103	0x3c4c5c42	0.012473168
104	0x3cfe084a	0.031009812
105	0xbd634e7c	-0.05549477
106	0xba4c4aae	-0.00077931106
107	0xbce49958	-0.027905151
108	0xbe4b1f13	-0.19836073
109	0x3e2b2585	0.16713531
110	0xbd106708	-0.03525451
111	0x3e3c4c25	0.18388422
112	0x3c2bbe41	0.010482372
113	0x3e56f90f	0.20993446
114	0xbddb0757	-0.10694759
115	0xbe0c5987	-0.13706027
116	0xbab5354d	-0.0013825089
117	0xbd132178	-0.03592059
118	0xbdfcb0ee	-0.12338434
119	0x3d6555a0	0.05598986
120	0x3e9c46df	0.3052282
121	0x3d8010e6	0.06253223
122	0xbd7e071e	-0.062018506
123	0x3d90bbcb	0.07067069
124	0xbe20d481	-0.15706064
125	0x3c95ac3f	0.01827061
126	0x3d8748a6	0.066056535
127	0xbda1df4d	-0.07903919
128	0x3c2fc38c	0.010727774
129	0x3d80d9df	0.062915556
130	0x3e10c978	0.14139354
131	0x3c4260cb	0.011863898
132	0xbc38bc6e	-0.011275394
133	0x3d805b81	0.06267453
134	0x3ce21020	0.02759558
135	0xbdb7f8ba	-0.08982988
136	0xbd80cf21	-0.06289507
137	0xbd10c720	-0.03534615
138	0xbd9fba14	-0.077991635
139	0xbca10fe0	-0.01966089
140	0xbd22db40	-0.039759874
141	0x3c2c8a8c	0.010531079
142	0x3ca11364	0.019662566
143	0xbc2b3dbc	-0.01045173
144	0xbd628a65	-0.055307765
145	0xbdd7084c	-0.104996294
146	0xbdaf3d2d	-0.0855659
147	0x3df04925	0.11732701
148	0xbc4dc597	-0.012559316
149	0xbc93d8ac	-0.018047653
150	0xbd86d56a	-0.06583674
151	0x3cf709a9	0.030155974
152	0xbde802ca	-0.11328657
153	0x3d930d8b	0.071803175
154	0xbcf78e16	-0.030219119
155	0x3d0029e5	0.031289954
156	0xbe586c8c	-0.21135157
157	0x3d5dd9fe	0.05416297
158	0x3aec9d4c	0.0018052249
159	0x3d560de8	0.052259356
160	0xbd1d2010	-0.038360655
161	0x3de0d354	0.10977808
162	0xbe255ca8	-0.16148627
163	0xbc059647	-0.008153505
164	0xbe301f5a	-0.1719946
165	0x3c7c7e25	0.015410935
166	0x3d8556fe	0.06510733
167	0x3d60b4dc	0.05485998
168	0xbd83e12b	-0.06439432
169	0xbd8dc91b	-0.069231234
170	0xbbdf5fd8	-0.0068168454
171	0xbc35bc12	-0.011092203
172	0x3b795656	0.0038045845
173	0xbe1cf57b	-0.15328018
174	0x3d2527ec	0.040321276
175	0xbdce060a	-0.100597456
176	0xbd82d2db	-0.06387874
177	0x3d2f7440	0.042835474
178	0x3d0cac57	0.034344044
179	0x3cb94c91	0.022619518
180	0xbc029afe	-0.007971523
181	0xbb260055	-0.0025329788
182	0x3c03a8ea	0.008035878
183	0xbdc842a7	-0.09778338
184	0x3cdbc2d8	0.026826307
185	0xbc7a43d6	-0.015274962
186	0x3bc88da6	0.0061204014
187	0x3ca168f1	0.01970336
188	0xbdd3f1ac	-0.103488296
189	0xbdd441c0	-0.10364103
190	0xbdd40fc0	-0.103545666
191	0x3cce3eae	0.025176372
192	0xbd8e80b2	-0.069581404
193	0xbc84b4e3	-0.016199535
194	0xbd83215f	-0.064028494
195	0xbc290ec0	-0.010318458
196	0xbd491277	-0.049089875
197	0xbdad8b31	-0.08473814
198	0x3a0d2186	0.00053837185
199	0xbc991038	-0.018684492
200	0x3d98ba47	0.074574046
201	0x3d0b55c2	0.034017332
202	0x3ce36c2d	0.027761543
203	0x3cb93c29	0.022611694
204	0xbe0da463	-0.1383224
205	0x3cf79135	0.030220607
206	0xbd3204e6	-0.043461703
207	0x3cf9a349	0.030473368
208	0x3db5c7c9	0.088759966
209	0xbd8201df	-0.06348013
210	0x3e011765	0.1260658
211	0xbd8b2e4e	-0.06795941
212	0xbda8abed	-0.08235917
213	0xbce3c0f1	-0.027801963
214	0x3d82c593	0.063853405
215	0x3d0702ba	0.032961585
216	0xbd9aa614	-0.07551208
217	0x3cd1c5d0	0.02560702
218	0x3bf25112	0.0073949182
219	0xbd5cdda8	-0.053922325
220	0x3e263510	0.16231179
221	0x3dabf108	0.083955824
222	0xbd3de071	-0.046356622
223	0xbe07cb83	-0.13261227
224	0x3d19ce0f	0.03755003
225	0x3d4497fb	0.047996502
226	0x3cb4431e	0.02200466
227	0x3e1980b7	0.14990507
228	0x3e4fda03	0.20298009
229	0xbe42e4d2	-0.190326
230	0xbd498d1f	-0.04920685
231	0x3bc138b2	0.005896651
232	0x3b48a8fe	0.0030618305
233	0x3d6b9ab4	0.057520583
234	0x3cb1105e	0.02161425
235	0xbd1972a8	-0.03746286
236	0xbdd938d8	-0.10606545
237	0x3de8f87c	0.1137552
238	0xbdab4140	-0.08362055
239	0x3c32bce2	0.010909291
240	0xbd833de2	-0.064082876
241	0xbdd8f3b4	-0.10593358
242	0x3cff1ae5	0.031140754
243	0xbdeb520c	-0.114902586
244	0x3d904317	0.07044046
245	0x3dcdcb0f	0.10048496
246	0xbcdae173	-0.02671883
247	0x3ccc7d76	0.024962168
248	0x3d336d71	0.043805543
249	0xbd9788d0	-0.07399142
250	0x3cfc11f1	0.030770274
251	0x3ad6adab	0.0016378661
252	0xbdac7aed	-0.08421884
253	0x3cdb5e73	0.026778435
254	0xbdb21c56	-0.08696811
255	0xbe21d9d5	-0.15805753

actor_fc_layers.blocks.2.block.1.weight f4 [128]
0	0x3f98764f	1.1911105
1	0x3f635714	0.88804746
2	0x3f4b43cb	0.7940032
3	0x3f718bcd	0.94353944
4	0x3fb14f8f	1.3852404
5	0x3f82052d	1.015783
6	0x3fc80b71	1.5628492
7	0x3f6fd5e8	0.9368577
8	0x3fa70ddc	1.3051105
9	0x400d1ff6	2.2050757
10	0x3f88c136	1.0683963
11	0x3fa1d481	1.2642976
12	0x3fc7e909	1.5617992
13	0x3fa7bed1	1.3105108
14	0x3f8cd9a8	1.1003923
15	0x3fb00fb9	1.3754798
16	0x3f6996b0	0.91245556
17	0x3f739229	0.951449
18	0x3ff91d81	1.9462129
19	0x3f9f3cf7	1.244048
20	0x3facfc9c	1.351459
21	0x3fa1297b	1.2590784
22	0x3fc7fa04	1.5623174
23	0x3fc3ed09	1.5306712
24	0x3ff16620	1.8859291
25	0x3f86deca	1.053674
26	0x3f3dc6de	0.7413157
27	0x3f93786d	1.1521126
28	0x3f7ea67d	0.9947279
29	0x3f35efa2	0.71068776
30	0x3fa5b9de	1.2947347
31	0x3f7304c1	0.9492913
32	0x3fd13673	1.6344742
33	0x3ffbd806	1.96753
34	0x3f9b7a2f	1.2146662
35	0x3fa7e22c	1.3115897
36	0x3f76df15	0.96434146
37	0x3fbbe518	1.4679289
38	0x3fa6cf46	1.3032005
39	0x3fa29810	1.2702656
40	0x3fbb12de	1.4615133
41	0x3f720481	0.9453812
42	0x3f9b0d3b	1.2113413
43	0x3f8ca422	1.0987589
44	0x3fc1ae94	1.5131402
45	0x3f86bfee	1.0527322
46	0x3f7f6af9	0.997726
47	0x3f717d59	0.9433189
48	0x3f71506d	0.94263345
49	0x3faf3e5a	1.3690903
50	0x3fb45400	1.4088135
51	0x3fa70f6c	1.3051581
52	0x3f78c43d	0.97174436
53	0x3f738096	0.9511808
54	0x3f6bd740	0.9212532
55	0x3f75f005	0.96069366
56	0x3fac1ed2	1.3446906
57	0x3f8efc86	1.1170814
58	0x3fef1b94	1.8680291
59	0x3fa39724	1.27805
60	0x3f7ac909	0.97963005
61	0x3fb92581	1.446457
62	0x3f806865	1.0031859
63	0x3f9acc77	1.2093648
64	0x4002a4d3	2.04131
65	0x3fe93cd8	1.8221693
66	0x3f8b99bb	1.090629
67	0x3f6b2afc	0.91862464
68	0x3f93363d	1.1500927
69	0x400e07e2	2.2192311
70	0x3f9a9803	1.207764
71	0x3f8f0f46	1.1176536
72	0x3f66e924	0.90199494
73	0x3f81685a	1.010997
74	0x3febe5d3	1.8429512
75	0x3f974a8b	1.1819624
76	0x3f8ad66a	1.0846684
77	0x3fab5880	1.3386383
78	0x3f90b45f	1.1305045
79	0x3f63eb84	0.89031243
80	0x3fb14532	1.3849242
81	0x3fd14220	1.6348305
82	0x3fac63e0	1.346798
83	0x3f783f37	0.9697146
84	0x3f13603a	0.57568705
85	0x3f80397d	1.0017544
86	0x3fa26c99	1.2689391
87	0x3fa4b2de	1.2867086
88	0x3fb629d5	1.4231516
89	0x3fabf16c	1.3433051
90	0x40210f7c	2.51657
91	0x3fa98c9e	1.3246038
92	0x3f79b4dd	0.975416
93	0x3f7651ae	0.96218383
94	0x3f75d9c1	0.9603539
95	0x401c222e	2.4395862
96	0x3fa583b8	1.2930822
97	0x3f89d68e	1.0768602
98	0x3fb8b3dc	1.4429889
99	0x3f72b381	0.9480515
100	0x3f89ea9e	1.0774724
101	0x3f859e16	1.0438869
102	0x3f8f538d	1.1197373
103	0x3fab62b6	1.3389499
104	0x3f6fe3f8	0.9370723
105	0x3fd714e7	1.6803254
106	0x3f5c0157	0.85939544
107	0x3f773951	0.9657183
108	0x3fae24b5	1.3604952
109	0x3f98425f	1.1895255
110	0x3fb18788	1.3869486
111	0x3f8e6b9a	1.1126587
112	0x3ffd16a6	1.9772537
113	0x3f95a40b	1.1690687
114	0x3f9a4cd2	1.2054694
115	0x4010e6b8	2.264082
116	0x3f535f2f	0.82567114
117	0x3f42c556	0.7608236
118	0x3f9092c7	1.1294793
119	0x3ff69479	1.926406
120	0x3fb66075	1.4248186
121	0x3f6b8fc4	0.92016244
122	0x3fa9fccb	1.3280271
123	0x3f857daa	1.0428975
124	0x3f84ed41	1.0384904
125	0x3eb73e47	0.357897
126	0x3faedf22	1.3661845
127	0x3fb68358	1.4258833

actor_fc_layers.blocks.2.block.1.bias f4 [128]
0	0xbdae4cf1	-0.08510769
1	0xbe152edc	-0.14568657
2	0x3c734b11	0.01484944
3	0xbe01ecc7	-0.1268798
4	0x3c8cd60b	0.017191907
5	0xbca3a4ec	-0.019976102
6	0xbd6a00b6	-0.057129584
7	0xbd951320	-0.072790384
8	0xbe0a67df	-0.13516186
9	0xbdff5ede	-0.12469266
10	0xbe810cda	-0.25205117
11	0x3e0c080b	0.13674943
12	0x3d148240	0.03625703
13	0xbea2434c	-0.31691968
14	0x3c967a86	0.01836897
15	0xbeb10186	-0.34571475
16	0xbdbcb9ea	-0.09215148
17	0xbe021693	-0.12703924
18	0xbe67478d	-0.22585888
19	0xbd48ac3c	-0.04899238
20	0xbe3cb40e	-0.1842806
21	0x3de62811	0.11238111
22	0xbe4eceb3	-0.20196037
23	0xbdbd91f9	-0.09256358
24	0xbc450cd5	-0.012026985
25	0xbe75f0ce	-0.24017641
26	0xbd86bb8d	-0.06578741
27	0x3dd307f1	0.10304249
28	0xbd978f10	-0.07400334
29	0xbec472de	-0.38368887
30	0xbcb557f1	-0.02213666
31	0xbde0d9fa	-0.10979076
32	0xbd3e0203	-0.046388637
33	0x3e1c2c0c	0.15251178
34	0xbe2ab889	-0.16671957
35	0xbe89ecb9	-0.26938418
36	0xbd3d36ea	-0.04619495
37	0x3eb5be35	0.3549668
38	0x3e51a285	0.20472153
39	0xbe1644fc	-0.14674753
40	0x3ce41b2c	0.027844988
41	0xbddb4f38	-0.10708469
42	0x3ec404b8	0.3828485
43	0xbea3a995	-0.31965318
44	0x3df3cb6f	0.11904036
45	0xbe2943e1	-0.165298
46	0xbd6e496d	-0.058175493
47	0xbd9aa678	-0.07551283
48	0xbdc5fb0f	-0.09667026
49	0x3cf7e50a	0.030260582
50	0x3e32ffac	0.17480344
51	0xbe55c02c	-0.20874089
52	0xbd85074f	-0.06495535
53	0xbe279a18	-0.16367376
54	0xbdda3918	-0.10655421
55	0xbd882d8f	-0.066493146
56	0x3d3da893	0.046303343
57	0xbe2108d9	-0.15726031
58	0xbf3debc6	-0.74187887
59	0xbe31c59e	-0.17360541
60	0xbe8156c7	-0.25261518
61	0xbe5c435c	-0.2151007
62	0xbe0d7d8d	-0.13817425
63	0x3db7f600	0.08982468
64	0x3e974863	0.29547414
65	0xbf0e9053	-0.5568897
66	0x3d1c09ef	0.03809541
67	0xbdd2d4e8	-0.10294515
68	0x3f1052b9	0.56376225
69	0xbe188aff	-0.14896773
70	0xbdd075d2	-0.101787224
71	0xbe3f93fe	-0.18708798
72	0xbe20b415	-0.15693696
73	0xbe855443	-0.2604085
74	0x3d887be5	0.06664256
75	0x3dce6a70	0.10078895
76	0xbda8d8d9	-0.082444854
77	0x3e4085d8	0.18801057
78	0xbe4bd7d7	-0.19906555
79	0xbe4c34cf	-0.1994202
80	0x3eb34a54	0.35017645
81	0x3c92bdd9	0.017912792
82	0xbe6e82d9	-0.23292102
83	0x3df524e4	0.11969927
84	0x3d873981	0.06602765
85	0x3d091847	0.03347042
86	0xbd00d002	-0.03144837
87	0x3d53f47e	0.051746838
88	0xbe5e8fa4	-0.21734482
89	0xbe98231c	-0.29714286
90	0x3d81bbf2	0.06334676
91	0x3e8c7b4d	0.2743782
92	0xbe0953b3	-0.13410835
93	0xbe01d8da	-0.12680379
94	0xbd51ac08	-0.051189452
95	0x3ee6d6e7	0.45085832
96	0xbde60c0d	-0.11232767
97	0xbe5ba528	-0.21449721
98	0xbdadcecf	-0.08486711
99	0xbe048347	-0.12940703
100	0x3b7aae46	0.0038250848
101	0xbe170784	-0.1474896
102	0xbe714c51	-0.23564269
103	0x3e4b23ec	0.19837922
104	0xbdf32e8e	-0.11874114
105	0x3dab7c75	0.08373348
106	0x3ce65518	0.028116748
107	0xbe259e1c	-0.16173595
108	0xbdfaae79	-0.12240309
109	0x3ed95c3f	0.4245319
110	0xbdc74bcc	-0.09731254
111	0xbd81d7af	-0.063399665
112	0x3dbacfbf	0.09121656
113	0xbe66a591	-0.22524096
114	0x3e1d583f	0.15365694
115	0xbe6b0da3	-0.22954421
116	0xbe2f4c05	-0.17118843
117	0x3de26d7f	0.11056041
118	0xbe856127	-0.26050684
119	0xbed6788c	-0.41888845
120	0x3e84671d	0.2585992
121	0xbda8bb8d	-0.082388975
122	0x3d96a598	0.07355803
123	0xbba96fa1	-0.005170778
124	0x3c266a46	0.0101571735
125	0x3eba796a	0.36420757
126	0xbeb8d5da	-0.36100656
127	0x3e47695b	0.19473784
