saved_models/agent_maddpg_vs_opp_maddpg_1_vs_1_1_agent_best_models/maddpg_target_actor_0.pt (torch, 155147 bytes, 21 tensors)

actor_fc_layers.blocks.0.block.0.weight f4 [128, 11]
0	0xbedb6177	-0.42847797
1	0xbb6f884c	-0.0036549745
2	0x3e076d23	0.13225226
3	0xbf1e2838	-0.6178012
4	0xbe86eff6	-0.2635495
5	0x3dd1f52e	0.102518424
6	0x3d63c95a	0.055611946
7	0x3ebc5677	0.36784717
8	0xbe580288	-0.21094716
9	0x3d96c851	0.07362426
10	0xbdd6b18c	-0.10483083
11	0xbec6ee5e	-0.38853735
12	0x3bfffc34	0.0078120474
13	0x3f56e159	0.83937603
14	0x3d3e63c5	0.046481866
15	0x3e9fa885	0.31183258
16	0x3e949c64	0.29025567
17	0xbde27327	-0.1105712
18	0x3e1bf084	0.15228468
19	0x3ddf1ebe	0.108945355
20	0xbe0b3f4e	-0.13598368
21	0x3de7eed6	0.11324851
22	0xbeb2e679	-0.34941462
23	0x3d373509	0.044728313
24	0xbe6b0b49	-0.22953524
25	0x3f922c91	1.141985
26	0x3df8a6e2	0.12141205
27	0x3f036c15	0.51336795
28	0xbe7322d6	-0.23743758
29	0x3bedba8c	0.007254904
30	0x3e31addd	0.1735148
31	0xbe12c4f8	-0.1433295
32	0x3e367400	0.17817688
33	0xbe099bc3	-0.13438325
34	0x3cb8d033	0.022560215
35	0x3e96bdb0	0.29441595
36	0xbee771d9	-0.45204046
37	0xbed24a34	-0.41072237
38	0xbda6d534	-0.08146134
39	0xbe8ff08c	-0.2811321
40	0xbd86b96b	-0.065783344
41	0x3e166262	0.14685968
42	0x3cb9714e	0.022637036
43	0xbd62ed4c	-0.055402085
44	0xbea12757	-0.31475326
45	0xbdecbc0b	-0.11559304
46	0x3e6e424a	0.23267475
47	0x3eabe756	0.33574933
48	0x3df7c048	0.120972216
49	0x3ef030c0	0.46912193
50	0xbe2f219e	-0.17102668
51	0xbeaceb9f	-0.33773515
52	0x3f406231	0.7514983
53	0xbcb6abb5	-0.022298673
54	0xbdf74f17	-0.12075632
55	0x3e527a5c	0.20554489
56	0x3e06da36	0.13169178
57	0x3ed909c0	0.4239025
58	0xbf9a476f	-1.205305
59	0x3d960020	0.073242426
60	0x3ee15b2e	0.44014877
61	0x3e66a980	0.22525597
62	0xbeda9538	-0.4269197
63	0xbcf8c8f6	-0.030369263
64	0xbd97bb03	-0.074087165
65	0xbbf67fdb	-0.007522566
66	0xbf253a50	-0.645421
67	0xbd137cca	-0.03600768
68	0xbee72d21	-0.45151618
69	0xbded1d6e	-0.11577879
70	0xbd235058	-0.039871544
71	0x3ec1f3e1	0.37881377
72	0xbe22eaac	-0.15909833
73	0xbf1a0247	-0.60159725
74	0xbd3bd2b5	-0.045855243
75	0x3d918855	0.071060814
76	0xbe146599	-0.14491881
77	0xbf1fedb7	-0.624721
78	0x3d8c9e40	0.06866121
79	0x3f288271	0.6582404
80	0x3f54a978	0.8307109
81	0x3e931879	0.2872961
82	0x3f0ffd08	0.5624547
83	0xbe082a1b	-0.13297312
84	0x3f0368e3	0.5133192
85	0xbee9b579	-0.45646265
86	0x3e61e19d	0.22058721
87	0xbe1aa9a5	-0.15103777
88	0xbdef3a73	-0.1168107
89	0xbd0ae5c8	-0.033910543
90	0x3f882f05	1.0639349
91	0xbe960f46	-0.29308528
92	0x3e38ad89	0.18034948
93	0x3d48c795	0.04901846
94	0x3dece69d	0.115674235
95	0x3eeb88a3	0.46002683
96	0xbf3ed370	-0.7454138
97	0xbb59a9c1	-0.0033212753
98	0xbd015a8d	-0.031580497
99	0xbe759027	-0.23980771
100	0xbd0ced6e	-0.034406118
101	0x3ec76b03	0.3894883
102	0xbbfe3620	-0.007757917
103	0x3db3357a	0.08750434
104	0x3f362854	0.71155286
105	0xbe7281d1	-0.23682334
106	0x3f22eed6	0.63645685
107	0xbf3e4a40	-0.74332047
108	0x3e450517	0.19240223
109	0xbe61d7c7	-0.22054969
110	0xbe870337	-0.2636964
111	0x3c80e0c5	0.015732178
112	0xbf24e578	-0.6441264
113	0xbd822878	-0.06355375
114	0xbe55cd78	-0.20879161
115	0xbf279226	-0.6545738
116	0xbe0a504c	-0.13507193
117	0x3e15b507	0.14619838
118	0xbe374139	-0.17895974
119	0xbba3d811	-0.0050001224
120	0xbd6a18d3	-0.05715258
121	0x3d425126	0.04744067
122	0x3b809604	0.0039241333
123	0x3f415f08	0.7553563
124	0xbd942438	-0.07233471
125	0xbe573345	-0.21015652
126	0xbf1aff7c	-0.6054609
127	0xbe6cc398	-0.23121488
128	0xbd6d2873	-0.057899904
129	0x3da786d7	0.081800155
130	0xbc2c0a63	-0.010500523
131	0xbdab40f3	-0.083619975
132	0x3dde97fe	0.10868834
133	0x3db1a1d8	0.08673447
134	0xbf0b63e1	-0.5444928
135	0x3f255e8f	0.6459741
136	0xbf54d7da	-0.83141863
137	0xbec35675	-0.381519
138	0xbe983ba4	-0.29733002
139	0x3ed14c55	0.4087855
140	0x3e1e4544	0.1545611
141	0x3dc18beb	0.09450515
142	0x3d802b99	0.062583156
143	0xbf33fdbf	-0.7030906
144	0xbd458dbd	-0.048230875
145	0x3f4d1917	0.8011641
146	0x3e437861	0.1908889
147	0x3dea1b2a	0.114309624
148	0xbcdb8fc6	-0.026801955
149	0xbe980358	-0.2969005
150	0x3f2412a7	0.6409096
151	0xbe1ce7a8	-0.15322745
152	0xbc7ae438	-0.015313201
153	0xbdeda88f	-0.116044156
154	0x3d553f64	0.052062407
155	0x3d8b8c26	0.068138406
156	0xbe50b0f1	-0.20379998
157	0xbe905bb1	-0.28194955
158	0x3e3302a8	0.17481482
159	0x3e449145	0.19196041
160	0xbe6ef2d0	-0.23334813
161	0x3e1b3d94	0.15160209
162	0xbe54b972	-0.20773867
163	0x3e998f37	0.29992077
164	0xbee8baf9	-0.4545515
165	0xbebd2258	-0.36940265
166	0x3d00aab4	0.031412795
167	0x3cefbd4b	0.029265067
168	0x3fa7f0fd	1.3120419
169	0xbd01176f	-0.03151649
170	0x3e334971	0.17508484
171	0xbcb2c304	-0.021821506
172	0x3d271a19	0.040796373
173	0xbea3d239	-0.31996325
174	0x3dc5b302	0.09653284
175	0xbdcaed6d	-0.099085666
176	0xbe56aac7	-0.20963584
177	0x3e3aaa43	0.18229012
178	0x3f405666	0.75131834
179	0xbf0713e2	-0.52764714
180	0x3ee405f8	0.44535804
181	0x3e38bc6b	0.18040626
182	0xbe7b14d4	-0.24519664
183	0xbed48645	-0.4150869
184	0xbbec6e19	-0.007215273
185	0x3dc3c5a0	0.09559178
186	0xbd617cdf	-0.055050727
187	0xbbfae0d0	-0.0076561943
188	0xbd1491e1	-0.036271933
189	0xbfaa3455	-1.329722
190	0x3f0195ad	0.5061901
191	0xbe76a27f	-0.24085425
192	0xbe6ee5bf	-0.23329829
193	0x3dfd9b89	0.123831816
194	0xbf84d1cb	-1.0376524
195	0x3f4b07d5	0.79308826
196	0x3db7cb92	0.08974375
197	0xbe363222	-0.17792562
198	0xbebbc07e	-0.36670297
199	0x3d2f0079	0.04272506
200	0xbf3ff0bc	-0.74976707
201	0x3f13d5e0	0.5774822
202	0xbd4bf3dc	-0.04979311
203	0x3eb3e006	0.35131854
204	0xbe9a1647	-0.3009512
205	0x3e8f7547	0.28019163
206	0xbee0885a	-0.43854028
207	0x3d3cdfb2	0.04611177
208	0xbd8a7b66	-0.06761818
209	0x3e518b0f	0.20463203
210	0xbd6618c3	-0.05617596
211	0xbd77d15b	-0.06050239
212	0xbfd36afb	-1.6517023
213	0x3b3e93ee	0.0029079872
214	0xbf08767c	-0.5330579
215	0xbd9cc541	-0.07654811
216	0xbef0d22a	-0.47035342
217	0xbd613463	-0.0549816
218	0x3e682db2	0.22673681
219	0xbe43d0ed	-0.19122668
220	0xbdfc31df	-0.123142
221	0xbd952d95	-0.07284085
222	0xbfe22156	-1.7666423
223	0x3f210627	0.6290001
224	0xbec025f1	-0.37528947
225	0x3ea6c7fe	0.32574457
226	0x3da3067c	0.07960221
227	0xbf477ad6	-0.7792181
228	0x3f1b2e2c	0.6061733
229	0xbc75f2c1	-0.01501149
230	0x3c6ae15c	0.014335956
231	0x3e57f305	0.21088798
232	0x3e10bb5e	0.14133975
233	0x3f968033	1.1757873
234	0xbf3d2567	-0.73885196
235	0x3f0d7a8f	0.55265135
236	0xbf62b871	-0.88562685
237	0x3ca30469	0.019899564
238	0xbf17a8f4	-0.59242177
239	0x3f052b7e	0.5201949
240	0x3d20ed04	0.039288536
241	0xbcf1ca24	-0.029515333
242	0xbde33281	-0.11093617
243	0x3ca8f788	0.020625845
244	0xbebd319e	-0.36951917
245	0x3f80ff5e	1.0077932
246	0xbd542ed2	-0.051802464
247	0x3f055760	0.5208645
248	0x3da01e04	0.07818225
249	0x3de92f1f	0.11385941
250	0xbee86e56	-0.4539668
251	0x3de8a8c7	0.11360317
252	0xbe0c17be	-0.13680932
253	0xbf16acab	-0.5885722
254	0xbddf984c	-0.1091772
255	0xbe316a73	-0.17325763

actor_fc_layers.blocks.0.block.1.weight f4 [128]
0	0x3f8e0195	1.1094233
1	0x3f31b8e1	0.6942273
2	0x3faeecb5	1.3665987
3	0x3ebd2315	0.36940828
4	0x3f79255d	0.97322637
5	0x3fd23086	1.6421058
6	0x3f91c230	1.1387386
7	0x3fb5c694	1.4201226
8	0x3f847a6f	1.0349864
9	0x3f95ecf4	1.1712937
10	0x3f3665cc	0.7124908
11	0x3f20d56c	0.62825656
12	0x3f6728b2	0.9029647
13	0x3fd6f1b1	1.6792508
14	0x3ed13d25	0.40866962
15	0x3ff319aa	1.8992207
16	0x3f763c65	0.96185905
17	0x3fb3d721	1.4050027
18	0x3f8532da	1.0406144
19	0x3faa0de2	1.3285487
20	0x3fdce365	1.7256895
21	0x3fed274b	1.8527616
22	0x3fa6a98e	1.3020494
23	0x3f890199	1.0703613
24	0x3fc48d14	1.5355554
25	0x3ff8b37f	1.9429778
26	0x3fff8919	1.9963714
27	0x3f73bee7	0.9521317
28	0x3fe0e34f	1.7569369
29	0x3f0e9672	0.5569831
30	0x3fa927e1	1.3215295
31	0x3f91971a	1.1374238
32	0x3ec24476	0.37942857
33	0x3ee022e4	0.4377662
34	0x3fdb4dfb	1.7133173
35	0x3febb09c	1.8413272
36	0x3fbaae99	1.4584533
37	0x3f17d408	0.5930791
38	0x3f4b0b9c	0.7931459
39	0x3f5872f9	0.84550434
40	0x3fbb1fed	1.4619118
41	0x3f3f5dda	0.7475258
42	0x3fcdfc2c	1.6092582
43	0x3f66bcb9	0.9013172
44	0x3f5e2ade	0.8678416
45	0x3f4a916a	0.79128134
46	0x3fa74e91	1.3070852
47	0x3ead3666	0.33830565
48	0x3faf09f3	1.3674911
49	0x3fd364a4	1.6515088
50	0x3e472602	0.19448093
51	0x3fe3f3c7	1.780877
52	0x3f9f3de7	1.2440766
53	0x3feb1c9b	1.8368105
54	0x3f1f88fb	0.6231839
55	0x3f6d15c2	0.92611325
56	0x3fa900e9	1.3203403
57	0x40111793	2.2670639
58	0x3fb13d7a	1.3846886
59	0x402786d4	2.6176043
60	0x3ef502d1	0.4785371
61	0x3f6ff711	0.9373637
62	0x3f64fbc1	0.89446646
63	0x3f96f471	1.1793348
64	0x3fe7db2a	1.8113759
65	0x3e71cb89	0.23612799
66	0x4001647a	2.0217576
67	0x3f83f685	1.0309607
68	0x3ff8fe6c	1.9452643
69	0x3f972218	1.180728
70	0x3efc3067	0.49255678
71	0x3f94231c	1.1573215
72	0x3f730481	0.9492875
73	0x3f5e0392	0.867242
74	0x3fbab3c1	1.4586107
75	0x3fa5427c	1.2910914
76	0x3f8a626f	1.081129
77	0x3fc27444	1.5191731
78	0x3f93e0c8	1.1552973
79	0x3f9e9209	1.2388316
80	0x3f8bc81d	1.0920445
81	0x3f8fae0d	1.1224991
82	0x3f8ef75a	1.1169236
83	0x40362a24	2.846322
84	0x3f92eea1	1.1479074
85	0x3f04edc2	0.5192529
86	0x3f8596bb	1.0436624
87	0x3f7e9951	0.9945269
88	0x3fa0515d	1.252483
89	0x3f62f3f2	0.8865348
90	0x3f98fde3	1.195248
91	0x400d1bdd	2.2048256
92	0x3fe0e9e8	1.7571383
93	0x3f76e063	0.96436137
94	0x3f1bd1bf	0.6086692
95	0x3fb318b4	1.3991914
96	0x3f3772d3	0.7165958
97	0x3f98f0df	1.1948508
98	0x3f9516b9	1.164756
99	0x3fdd75c7	1.7301568
100	0x3f9ce77d	1.2258145
101	0x3f0a4d65	0.54024345
102	0x401c8ce2	2.4460988
103	0x3f95b7a8	1.1696672
104	0x3f8a0bea	1.0784886
105	0x3f8e379c	1.1110721
106	0x3f26de1c	0.6518266
107	0x3fc91f13	1.5712608
108	0x3f8ac8d7	1.0842541
109	0x402b7032	2.6787229
110	0x3f8a27e8	1.0793428
111	0x3fd63c05	1.6737067
112	0x3ff73065	1.9311644
113	0x3fd531ec	1.665586
114	0x3f72541e	0.946596
115	0x3f9d5218	1.2290678
116	0x3f502aed	0.813155
117	0x3f982d46	1.1888816
118	0x3fb51206	1.4146125
119	0x3f6bfd3a	0.9218327
120	0x3f96003a	1.1718819
121	0x3f82e4b2	1.0226042
122	0x3fcf386e	1.6189096
123	0x3f0feb18	0.562181
124	0x3f5dba6b	0.86612576
125	0x3fa186b9	1.2619239
126	0x3f9a450d	1.2052323
127	0x3f8f807c	1.1211085

actor_fc_layers.blocks.0.block.1.bias f4 [128]
0	0x3f67c1b8	0.90529966
1	0x3e9a0ce3	0.30087957
2	0xbd54d4a5	-0.051960606
3	0x3f0dd043	0.5539591
4	0xbdd16877	-0.10225003
5	0x3f289880	0.65857697
6	0x3e86306b	0.26208815
7	0x3dbd9bd5	0.09258238
8	0xbe9cf97f	-0.306591
9	0xbe627378	-0.2211436
10	0x3f20bb67	0.62785953
11	0x3f20bd44	0.62788796
12	0x3e840fc7	0.25793287
13	0x3deeb57b	0.116557084
14	0x3ed5aa0b	0.41731295
15	0x3df4cd75	0.1195325
16	0x3eb7b421	0.35879615
17	0xbe2533b8	-0.1613301
18	0x3eb1a897	0.34698936
19	0x3ddd3774	0.108015925
20	0xbc25b70f	-0.010114445
21	0x3f4f0301	0.8086396
22	0xbed58b1d	-0.41707698
23	0xbd95ffd5	-0.07324187
24	0xbd356ec0	-0.044295073
25	0x3f1b073d	0.6055792
26	0x3f76afea	0.96362174
27	0x3ec3331b	0.38124928
28	0x3e509fc4	0.20373446
29	0x3ec02091	0.37524846
30	0xbf4ee7e8	-0.8082261
31	0xbe503b2d	-0.20335074
32	0x3e846f3f	0.25866124
33	0x3f2350c2	0.637951
34	0x3e7b549e	0.24543998
35	0xbe73fef1	-0.23827721
36	0xbedbfaa7	-0.4296467
37	0xbe0253cb	-0.12727277
38	0x3ed2f042	0.41198927
39	0x3ed1c6bd	0.40971938
40	0x3e0dc34f	0.13844036
41	0x3f07f5c6	0.53109396
42	0x3f1389fd	0.5763243
43	0x3f2303cc	0.6367767
44	0x3f45a487	0.77204174
45	0x3e325288	0.17414296
46	0x3e4b7c6f	0.19871686
47	0x3eb6b2f8	0.35683417
48	0x3ef44c7d	0.47714606
49	0xbc9c103e	-0.019050714
50	0xbdc584e7	-0.0964449
51	0x3ef3da3b	0.47627434
52	0xbeb91571	-0.3614917
53	0x3ec73a09	0.38911465
54	0x3f806563	1.0030941
55	0x3de1ddb3	0.11028614
56	0xbf198cf1	-0.59980685
57	0x3d9606e4	0.07325533
58	0x3f29c543	0.6631662
59	0x3be22464	0.0069013108
60	0x3f2993e2	0.66241276
61	0x3e9fb47f	0.31192395
62	0xbea384d1	-0.31937268
63	0xbee1bbfc	-0.44088733
64	0xbe11e072	-0.14245775
65	0x3ecee579	0.4040945
66	0x3d90f088	0.07077128
67	0xbf058ce2	-0.52168095
68	0x3e8de563	0.2771407
69	0xbe232047	-0.15930282
70	0x3f265069	0.64966446
71	0x3ddd32d5	0.10800711
72	0x3f47acb5	0.77997905
73	0x3f6e1f45	0.93016464
74	0xbee26774	-0.44219553
75	0xbf1b7353	-0.60722846
76	0x3d433012	0.047653265
77	0x3e729107	0.23688136
78	0xbe9bc922	-0.3042689
79	0xbed8b35a	-0.42324334
80	0xbea99f6f	-0.3312945
81	0x3ec8aaa0	0.39192677
82	0x3ebd8b76	0.37020463
83	0xbe57fe2a	-0.2109305
84	0xbeb00751	-0.34380582
85	0x3e7dab99	0.2477249
86	0xbe8dca5f	-0.2769346
87	0x3de8f260	0.11374354
88	0x3f217913	0.6307537
89	0x3e26f8a9	0.16305794
90	0x3ec4bc17	0.3842475
91	0x3cb41b81	0.021985771
92	0x3e7442fc	0.23853678
93	0xbeed5174	-0.46351206
94	0x3e551db1	0.20812108
95	0x3e850d89	0.2598689
96	0x3f356db6	0.7087053
97	0x3c9cdca7	0.019148184
98	0xbe874de7	-0.26426622
99	0x3e3a72ed	0.18207903
100	0x3e71fbda	0.2363123
101	0x3f0644ba	0.5244862
102	0x3f271458	0.6526542
103	0x3e2a2572	0.16615847
104	0x3ea3b9af	0.31977603
105	0x3f0ac87a	0.5421215
106	0xbdd53fc9	-0.10412557
107	0x3e89fe4d	0.2695183
108	0x3f289c6a	0.6586367
109	0x3ee2785e	0.44232458
110	0x3f0c51d2	0.5481235
111	0xbe90ef61	-0.28307632
112	0x3ddb97f9	0.10722346
113	0x3e93b92e	0.28852218
114	0x3f280157	0.65627044
115	0x3e6aca95	0.22928841
116	0x3f14ef9b	0.5817811
117	0x3da02fbf	0.07821607
118	0x3f480da8	0.7814584
119	0x3dd5b8fe	0.10435675
120	0x3dbfb990	0.09361565
121	0xbd027e4a	-0.03185872
122	0x3f300757	0.687612
123	0xbeb5779d	-0.3544282
124	0x3e1a7b77	0.1508616
125	0xbe25c13a	-0.16186991
126	0x3f774abe	0.9659842
127	0x3e8bd823	0.27313337

actor_fc_layers.blocks.0.block.1.running_mean f4 [128]
0	0x00000000	0.0
1	0x00000000	0.0
2	0x00000000	0.0
3	0x00000000	0.0
4	0x00000000	0.0
5	0x00000000	0.0
6	0x00000000	0.0
7	0x00000000	0.0
8	0x00000000	0.0
9	0x00000000	0.0
10	0x00000000	0.0
11	0x00000000	0.0
12	0x00000000	0.0
13	0x00000000	0.0
14	0x00000000	0.0
15	0x00000000	0.0
16	0x00000000	0.0
17	0x00000000	0.0
18	0x00000000	0.0
19	0x00000000	0.0
20	0x00000000	0.0
21	0x00000000	0.0
22	0x00000000	0.0
23	0x00000000	0.0
24	0x00000000	0.0
25	0x00000000	0.0
26	0x00000000	0.0
27	0x00000000	0.0
28	0x00000000	0.0
29	0x00000000	0.0
30	0x00000000	0.0
31	0x00000000	0.0
32	0x00000000	0.0
33	0x00000000	0.0
34	0x00000000	0.0
35	0x00000000	0.0
36	0x00000000	0.0
37	0x00000000	0.0
38	0x00000000	0.0
39	0x00000000	0.0
40	0x00000000	0.0
41	0x00000000	0.0
42	0x00000000	0.0
43	0x00000000	0.0
44	0x00000000	0.0
45	0x00000000	0.0
46	0x00000000	0.0
47	0x00000000	0.0
48	0x00000000	0.0
49	0x00000000	0.0
50	0x00000000	0.0
51	0x00000000	0.0
52	0x00000000	0.0
53	0x00000000	0.0
54	0x00000000	0.0
55	0x00000000	0.0
56	0x00000000	0.0
57	0x00000000	0.0
58	0x00000000	0.0
59	0x00000000	0.0
60	0x00000000	0.0
61	0x00000000	0.0
62	0x00000000	0.0
63	0x00000000	0.0
64	0x00000000	0.0
65	0x00000000	0.0
66	0x00000000	0.0
67	0x00000000	0.0
68	0x00000000	0.0
69	0x00000000	0.0
70	0x00000000	0.0
71	0x00000000	0.0
72	0x00000000	0.0
73	0x00000000	0.0
74	0x00000000	0.0
75	0x00000000	0.0
76	0x00000000	0.0
77	0x00000000	0.0
78	0x00000000	0.0
79	0x00000000	0.0
80	0x00000000	0.0
81	0x00000000	0.0
82	0x00000000	0.0
83	0x00000000	0.0
84	0x00000000	0.0
85	0x00000000	0.0
86	0x00000000	0.0
87	0x00000000	0.0
88	0x00000000	0.0
89	0x00000000	0.0
90	0x00000000	0.0
91	0x00000000	0.0
92	0x00000000	0.0
93	0x00000000	0.0
94	0x00000000	0.0
95	0x00000000	0.0
96	0x00000000	0.0
97	0x00000000	0.0
98	0x00000000	0.0
99	0x00000000	0.0
100	0x00000000	0.0
101	0x00000000	0.0
102	0x00000000	0.0
103	0x00000000	0.0
104	0x00000000	0.0
105	0x00000000	0.0
106	0x00000000	0.0
107	0x00000000	0.0
108	0x00000000	0.0
109	0x00000000	0.0
110	0x00000000	0.0
111	0x00000000	0.0
112	0x00000000	0.0
113	0x00000000	0.0
114	0x00000000	0.0
115	0x00000000	0.0
116	0x00000000	0.0
117	0x00000000	0.0
118	0x00000000	0.0
119	0x00000000	0.0
120	0x00000000	0.0
121	0x00000000	0.0
122	0x00000000	0.0
123	0x00000000	0.0
124	0x00000000	0.0
125	0x00000000	0.0
126	0x00000000	0.0
127	0x00000000	0.0

actor_fc_layers.blocks.0.block.1.running_var f4 [128]
0	0x3f800000	1.0
1	0x3f800000	1.0
2	0x3f800000	1.0
3	0x3f800000	1.0
4	0x3f800000	1.0
5	0x3f800000	1.0
6	0x3f800000	1.0
7	0x3f800000	1.0
8	0x3f800000	1.0
9	0x3f800000	1.0
10	0x3f800000	1.0
11	0x3f800000	1.0
12	0x3f800000	1.0
13	0x3f800000	1.0
14	0x3f800000	1.0
15	0x3f800000	1.0
16	0x3f800000	1.0
17	0x3f800000	1.0
18	0x3f800000	1.0
19	0x3f800000	1.0
20	0x3f800000	1.0
21	0x3f800000	1.0
22	0x3f800000	1.0
23	0x3f800000	1.0
24	0x3f800000	1.0
25	0x3f800000	1.0
26	0x3f800000	1.0
27	0x3f800000	1.0
28	0x3f800000	1.0
29	0x3f800000	1.0
30	0x3f800000	1.0
31	0x3f800000	1.0
32	0x3f800000	1.0
33	0x3f800000	1.0
34	0x3f800000	1.0
35	0x3f800000	1.0
36	0x3f800000	1.0
37	0x3f800000	1.0
38	0x3f800000	1.0
39	0x3f800000	1.0
40	0x3f800000	1.0
41	0x3f800000	1.0
42	0x3f800000	1.0
43	0x3f800000	1.0
44	0x3f800000	1.0
45	0x3f800000	1.0
46	0x3f800000	1.0
47	0x3f800000	1.0
48	0x3f800000	1.0
49	0x3f800000	1.0
50	0x3f800000	1.0
51	0x3f800000	1.0
52	0x3f800000	1.0
53	0x3f800000	1.0
54	0x3f800000	1.0
55	0x3f800000	1.0
56	0x3f800000	1.0
57	0x3f800000	1.0
58	0x3f800000	1.0
59	0x3f800000	1.0
60	0x3f800000	1.0
61	0x3f800000	1.0
62	0x3f800000	1.0
63	0x3f800000	1.0
64	0x3f800000	1.0
65	0x3f800000	1.0
66	0x3f800000	1.0
67	0x3f800000	1.0
68	0x3f800000	1.0
69	0x3f800000	1.0
70	0x3f800000	1.0
71	0x3f800000	1.0
72	0x3f800000	1.0
73	0x3f800000	1.0
74	0x3f800000	1.0
75	0x3f800000	1.0
76	0x3f800000	1.0
77	0x3f800000	1.0
78	0x3f800000	1.0
79	0x3f800000	1.0
80	0x3f800000	1.0
81	0x3f800000	1.0
82	0x3f800000	1.0
83	0x3f800000	1.0
84	0x3f800000	1.0
85	0x3f800000	1.0
86	0x3f800000	1.0
87	0x3f800000	1.0
88	0x3f800000	1.0
89	0x3f800000	1.0
90	0x3f800000	1.0
91	0x3f800000	1.0
92	0x3f800000	1.0
93	0x3f800000	1.0
94	0x3f800000	1.0
95	0x3f800000	1.0
96	0x3f800000	1.0
97	0x3f800000	1.0
98	0x3f800000	1.0
99	0x3f800000	1.0
100	0x3f800000	1.0
101	0x3f800000	1.0
102	0x3f800000	1.0
103	0x3f800000	1.0
104	0x3f800000	1.0
105	0x3f800000	1.0
106	0x3f800000	1.0
107	0x3f800000	1.0
108	0x3f800000	1.0
109	0x3f800000	1.0
110	0x3f800000	1.0
111	0x3f800000	1.0
112	0x3f800000	1.0
113	0x3f800000	1.0
114	0x3f800000	1.0
115	0x3f800000	1.0
116	0x3f800000	1.0
117	0x3f800000	1.0
118	0x3f800000	1.0
119	0x3f800000	1.0
120	0x3f800000	1.0
121	0x3f800000	1.0
122	0x3f800000	1.0
123	0x3f800000	1.0
124	0x3f800000	1.0
125	0x3f800000	1.0
126	0x3f800000	1.0
127	0x3f800000	1.0

actor_fc_layers.blocks.1.block.0.weight f4 [128, 128]
0	0xbf42350b	-0.7586219
1	0x3ea37398	0.3192413
2	0x3ebb0469	0.36526802
3	0x3d06b49a	0.03288708
4	0x3d0940f2	0.033509202
5	0xbe12deac	-0.14342755
6	0x3ee26fd4	0.44225943
7	0x3cda5b78	0.026654944
8	0x3d39aa51	0.045328442
9	0x3d8350a2	0.06411864
10	0xbe238721	-0.15969516
11	0x3ee75a6c	0.45186174
12	0x3e47076a	0.19436422
13	0x3dd244c4	0.10267022
14	0x3cc816e6	0.024424981
15	0xbdbe4986	-0.09291367
16	0x3d7ebd26	0.062192105
17	0xbed346f8	-0.41265082
18	0x3e70d7b9	0.23519792
19	0x3f04633e	0.5171393
20	0xbefa8a25	-0.4893352
21	0xbe9da864	-0.30792534
22	0xbd87a667	-0.066235356
23	0xbde3b8bd	-0.111192204
24	0xbe9d65fb	-0.30741867
25	0x3e96fc30	0.2948928
26	0xbe9cd18b	-0.3062862
27	0xbe2901dd	-0.16504617
28	0xbda8b9fd	-0.082385994
29	0xbe6f85d5	-0.23390897
30	0xbe78166a	-0.242273
31	0xbdf7b4c2	-0.12095024
32	0x3ebbfff9	0.3671873
33	0xbf29068d	-0.6602562
34	0x3f1c7e58	0.61130285
35	0xbed8a917	-0.42316505
36	0xbe92db8c	-0.28683126
37	0x3ed7f823	0.421815
38	0x3a45f65e	0.0007551665
39	0xbee0cbe9	-0.4390557
40	0x3f1a4597	0.60262436
41	0xbe0f7793	-0.14010458
42	0xbf413e8f	-0.7548608
43	0xbf09b173	-0.5378639
44	0xbf084a13	-0.5323803
45	0x3ea6a270	0.32545805
46	0xbec5c3fb	-0.38626084
47	0x3e096bea	0.13420072
48	0xbe721d1e	-0.2364392
49	0x3d341825	0.04396834
50	0x3e98024b	0.2968925
51	0x3e1fde68	0.15612185
52	0x3dfb8bf5	0.12282554
53	0xbed0ffc4	-0.40820134
54	0x3ea866c8	0.32890916
55	0x3ba4eee5	0.0050333613
56	0x3b553007	0.0032529847
57	0xbf801f5a	-1.0009568
58	0xbf29e598	-0.6636596
59	0xbf00c55e	-0.5030116
60	0x3eb4f155	0.35340372
61	0xbb9e9710	-0.0048397854
62	0x3e91748f	0.2840924
63	0x3d859006	0.06521611
64	0xbe3dccea	-0.185352
65	0x3c90104f	0.017585902
66	0xbe237654	-0.15963107
67	0x3e386939	0.1800889
68	0xbe626d18	-0.22111928
69	0x3eca344e	0.3949303
70	0x3eafe970	0.34357786
71	0x3e9c4487	0.30521032
72	0xbd0afb23	-0.03393091
73	0x3e184fa3	0.14874129
74	0xbf1d31a4	-0.6140387
75	0xbd9d533c	-0.07681891
76	0xbe9cd703	-0.3063279
77	0xbeb42635	-0.351854
78	0xbe31ae2e	-0.173516
79	0xbe44dbf3	-0.19224529
80	0x3e0033db	0.12519781
81	0xbea3cf65	-0.31994167
82	0x3f4772d7	0.77909607
83	0xbf135cd8	-0.57563543
84	0xbec8737b	-0.39150605
85	0xbe4b48de	-0.19852015
86	0xbec80873	-0.39068946
87	0x3ebb4f6a	0.36584026
88	0xbe9d8410	-0.30764818
89	0x3e196c03	0.1498261
90	0xbe878a46	-0.26472682
91	0x3e4f2fb2	0.20233038
92	0xbf2cb071	-0.6745673
93	0xbeb8e05e	-0.3610868
94	0x3e42b52b	0.19014423
95	0x3e1f5163	0.1555839
96	0x3dc212aa	0.09476216
97	0xbe722871	-0.2364824
98	0xbe9ba7e3	-0.30401525
99	0x3e91dffc	0.284912
100	0xbea4da31	-0.32197717
101	0xbe1faa74	-0.15592366
102	0xbeb7b0da	-0.35877115
103	0xbe8f772f	-0.28020617
104	0xbe712449	-0.23548998
105	0x3ebb06c1	0.3652859
106	0x3e7d8509	0.2475778
107	0xbf235afd	-0.6381071
108	0xbcd5bca8	-0.026090935
109	0xbf345af1	-0.70451266
110	0xbda7d001	-0.081939705
111	0x3f190abf	0.5978202
112	0xbdf55875	-0.119797625
113	0xbe918f84	-0.28429806
114	0xbf0b5307	-0.54423565
115	0x3f1f90ab	0.6233012
116	0xbf09abfb	-0.53778046
117	0x3d86667a	0.065625146
118	0xbf0ac2e3	-0.54203624
119	0xbe2a1221	-0.16608478
120	0x3dd7120f	0.10501491
121	0x3eb41f2d	0.35180035
122	0xbd494fca	-0.04914836
123	0x3f2333ec	0.637511
124	0xbc556208	-0.013023861
125	0xbe47e357	-0.19520317
126	0xbf58fd78	-0.8476176
127	0xbe6cf469	-0.2314011
128	0x3d967b1c	0.073477
129	0xbec4bf21	-0.3842707
130	0x3ee4cd9f	0.44688126
131	0xbf285c73	-0.65766066
132	0x3e93d953	0.28876743
133	0x3ea9e8ed	0.3318552
134	0x3d05a221	0.03262532
135	0xbe536110	-0.20642495
136	0x3e957e84	0.29198086
137	0x3ef2fc3d	0.47458068
138	0xbf15d1c8	-0.58523226
139	0xbf091891	-0.5355311
140	0x3e55cad1	0.2087815
141	0xbd4fbd32	-0.05071754
142	0x3d4a779c	0.049430475
143	0x3e997d23	0.29978284
144	0xbf1dfd0a	-0.6171423
145	0x3f0af85a	0.54285204
146	0x3d132189	0.035920653
147	0xbd635f14	-0.055510595
148	0x3ee19dca	0.44065696
149	0xbee52601	-0.44755557
150	0x3f1183e8	0.568419
151	0x3f12c766	0.5733551
152	0x3b136403	0.0022490032
153	0xbf231049	-0.63696724
154	0xbee68cce	-0.450293
155	0x3e3c60b4	0.18396264
156	0xbeb49aab	-0.35274252
157	0xbecd7515	-0.4012839
158	0x3f0b6b52	0.5446063
159	0x3e3cddff	0.1844406
160	0x3eedd92a	0.46454746
161	0x3e5c8ae0	0.21537352
162	0x3d2bee3c	0.041975245
163	0x3f43611a	0.7632004
164	0x3e068f83	0.13140683
165	0x3d57c777	0.05268046
166	0xbe7763e2	-0.24159196
167	0xbe81280c	-0.25225866
168	0x3ebf8f54	0.37414038
169	0x3e22c0c0	0.15893841
170	0x3df60719	0.120130725
171	0xbebaa343	-0.36452684
172	0xbf111683	-0.56674975
173	0x3e5ddd9b	0.21666567
174	0xbd6a955d	-0.05727135
175	0xbe7811a6	-0.24225482
176	0x3e990caa	0.29892474
177	0x3e9a3a22	0.30122477
178	0xbdb22bb7	-0.08699744
179	0xbdc98e89	-0.098416395
180	0x3f0583c3	0.5215418
181	0xbe822396	-0.25417775
182	0xbdaf1100	-0.08548164
183	0xbe049917	-0.12949024
184	0x3d532cee	0.05155652
185	0x3ea2bdad	0.31785336
186	0xbda4ec14	-0.08052841
187	0x3f110eb9	0.5666309
188	0xbeb245ba	-0.34818822
189	0x3e8116e6	0.25212783
190	0x3e38c455	0.18043645
191	0x3f8726cb	1.0558714
192	0xbb9f2d4d	-0.004857695
193	0xbed6eb54	-0.41976416
194	0xbf16eedb	-0.58958215
195	0x3e4a0d30	0.19731593
196	0x3d906cc4	0.070519954
197	0x3ea348a2	0.31891352
198	0xbf0746bf	-0.52842325
199	0x3f02f7d9	0.51159436
200	0xbe3acf8f	-0.1824324
201	0x3e13b718	0.14425313
202	0x3e89e9bf	0.26936147
203	0xbe0e3a1e	-0.13889357
204	0x3eaa51fd	0.33265677
205	0xbdac0311	-0.08399022
206	0x3f5e7d3a	0.8690983
207	0x3e9aebf7	0.30258152
208	0xbe4819d1	-0.19541098
209	0xbe98d589	-0.29850414
210	0x3e87aed0	0.2650056
211	0x3f07d1fa	0.53054774
212	0x3f1f0d1f	0.62129396
213	0xbf405b57	-0.75139374
214	0xbe9d683a	-0.3074358
215	0x3dba916f	0.091097705
216	0xbf39e657	-0.72617096
217	0x3ed1561d	0.40886012
218	0x3f970919	1.1799651
219	0x3e5179b7	0.20456587
220	0x3c8679fd	0.01641559
221	0x3d558617	0.05212983
222	0xbe5bfb27	-0.21482526
223	0xbb2dca98	-0.002651846
224	0xbe2005e1	-0.15627243
225	0x3f23e496	0.6402067
226	0x3ee84980	0.45368576
227	0x3e77bd0b	0.24193208
228	0xbec40347	-0.3828375
229	0x3ea1035b	0.31447873
230	0x3ef9c409	0.48782375
231	0xbecd2c33	-0.40072784
232	0x3f082ca0	0.5319309
233	0x3ef7d7b1	0.48406747
234	0x3ed77786	0.42083377
235	0x3e4d8616	0.20070681
236	0x3d84ff16	0.06493966
237	0x3e955135	0.2916352
238	0xbe98ba9f	-0.2982988
239	0x3f224971	0.6339331
240	0xbecb6952	-0.3972879
241	0xbe186cd1	-0.1488526
242	0x3f0ebfd1	0.5576144
243	0x3f165037	0.5871615
244	0xbe6579f8	-0.22409809
245	0xbea6f756	-0.32610577
246	0xbf168c2e	-0.5880765
247	0xbf0e80bc	-0.55665183
248	0x3f3c9b80	0.73674774
249	0x3f49f40a	0.78888
250	0xbf6074d1	-0.8767825
251	0xbdbd1c29	-0.09233887
252	0xbe7a0adc	-0.24418205
253	0x3e967992	0.29389626
254	0xbe723ec9	-0.23656763
255	0xbf0ee35a	-0.5581566

actor_fc_layers.blocks.1.block.1.weight f4 [128]
0	0x3fd65500	1.674469
1	0x3ffe4b68	1.9866762
2	0x3f790b55	0.97282916
3	0x3f7b9811	0.9827891
4	0x3fcefc22	1.6170695
5	0x3fc44abc	1.5335307
6	0x4010a9f8	2.260374
7	0x3f7a624d	0.97806245
8	0x3fb76897	1.4328793
9	0x3f74b07d	0.955818
10	0x400a561f	2.1615064
11	0x40007bd0	2.007557
12	0x3f73fc05	0.95306426
13	0x3faf805c	1.3711047
14	0x3ff13a92	1.8845999
15	0x3f740dfd	0.95333844
16	0x3f787ded	0.9706715
17	0x3f741375	0.9534219
18	0x402fd567	2.7474
19	0x400d845c	2.2112036
20	0x400e6b5e	2.2253032
21	0x3f71fb21	0.9452382
22	0x40024e4b	2.0360286
23	0x3f7010e5	0.9377578
24	0x401909ad	2.3912156
25	0x400289ca	2.03966
26	0x3fdf2cff	1.7435607
27	0x3fe929b4	1.8215852
28	0x3fd3bf57	1.6542767
29	0x3f7635f1	0.9617606
30	0x3f75e6a5	0.9605506
31	0x3ff57c8c	1.9178634
32	0x3fc099ad	1.5046898
33	0x3f775b4e	0.96623695
34	0x3f7cdbe5	0.9877303
35	0x400c8b5c	2.1960058
36	0x3f75a2ad	0.9595135
37	0x401e29a4	2.4712915
38	0x3fc67db5	1.5507113
39	0x4013ee57	2.311422
40	0x402192af	2.5245779
41	0x3f9ce1a9	1.2256366
42	0x3fe5a24a	1.7940152
43	0x3fd04909	1.6272289
44	0x3f63b664	0.8895018
45	0x400a1d82	2.158051
46	0x3f98185b	1.1882433
47	0x40094333	2.1447265
48	0x3ffb5239	1.9634467
49	0x3f97eba4	1.1868787
50	0x3fc98708	1.5744333
51	0x3f7780cd	0.9668091
52	0x40192e34	2.393445
53	0x3fc94a52	1.5725806
54	0x3fa2321e	1.2671545
55	0x3fdbbe28	1.7167406
56	0x3fc1c480	1.5138092
57	0x3fc60160	1.546917
58	0x3fd7a45b	1.6847032
59	0x400234a7	2.0344636
60	0x3f70ba09	0.9403387
61	0x3f8dd536	1.1080692
62	0x3fdc2b3e	1.7200696
63	0x3fee4b22	1.8616679
64	0x3f713709	0.942246
65	0x3fcc5239	1.5962592
66	0x3f7ab135	0.97926646
67	0x3fdf61ee	1.7451761
68	0x3f6fedbc	0.9372213
69	0x3f76c999	0.96401364
70	0x3fba45ca	1.4552548
71	0x3fe66353	1.7999061
72	0x3f7529f9	0.9576717
73	0x3fe9fbd9	1.8279983
74	0x3ff066d8	1.8781385
75	0x3fd70c99	1.680072
76	0x3f5df10b	0.8669593
77	0x3f68a480	0.9087601
78	0x402d28a7	2.7056062
79	0x3fdfa0a2	1.7470896
80	0x3fe3152c	1.7740836
81	0x3fa9eb09	1.3274852
82	0x3fe473d6	1.784785
83	0x3f72a959	0.94789654
84	0x3f74c1ad	0.95608026
85	0x3f7db899	0.991098
86	0x3f76119d	0.96120626
87	0x3fd130fb	1.6343073
88	0x3fba8487	1.4571694
89	0x3ff04ef7	1.8774098
90	0x3fffb2da	1.9976456
91	0x4002b34b	2.0421932
92	0x3ff2fca6	1.8983352
93	0x40102da1	2.252785
94	0x3fca58a2	1.5808299
95	0x3fffc378	1.9981527
96	0x4001b166	2.0264525
97	0x3fc711f7	1.5552357
98	0x3f795e89	0.97409874
99	0x3f731e25	0.9496787
100	0x401b05c7	2.4222276
101	0x3fedbb07	1.8572701
102	0x3fa42108	1.282258
103	0x3f768281	0.96292883
104	0x3f9f5b7a	1.2449791
105	0x3f739869	0.95154434
106	0x400dea26	2.2174163
107	0x3f7c18f9	0.98475605
108	0x4014a435	2.3225224
109	0x3fded725	1.7409407
110	0x40054148	2.0821095
111	0x3fd9e7b2	1.7023833
112	0x3f73a5b1	0.951747
113	0x4006c098	2.105505
114	0x3fb0657b	1.3780969
115	0x3fb682e6	1.4258697
116	0x3fe57f05	1.7929388
117	0x3fa798ec	1.3093543
118	0x3f7a6cd9	0.9782234
119	0x3f7a6ff9	0.97827107
120	0x3fda01f6	1.7031848
121	0x3f77ceee	0.96800125
122	0x3fd506fc	1.6642756
123	0x3fe4763b	1.7848581
124	0x3f910b85	1.133164
125	0x3fc4cbfa	1.5374749
126	0x3ff1602e	1.8857477
127	0x3f7203b9	0.9453693

actor_fc_layers.blocks.1.block.1.bias f4 [128]
0	0x3ec76eee	0.3895182
1	0xbc451c71	-0.012030707
2	0xbd141a4c	-0.03615789
3	0xbd4fd3c3	-0.05073906
4	0x3f15fb28	0.5858636
5	0xbd075216	-0.033037268
6	0x3eda1b07	0.42598745
7	0xbd3198b2	-0.043358512
8	0x3e42dfab	0.19030635
9	0xbd72c44e	-0.059269242
10	0xbda72974	-0.081622034
11	0x3e274eca	0.1633865
12	0xbd43bae3	-0.04778565
13	0xbc26bfbd	-0.01017755
14	0x3f1eb011	0.61987406
15	0xbd38fa26	-0.045160435
16	0xbd0974e7	-0.033558752
17	0xbd4d6647	-0.050146367
18	0x3e97692f	0.29572436
19	0x3df4a096	0.11944692
20	0x3ea7f989	0.32807568
21	0xbd41cb2f	-0.04731291
22	0x3eff796b	0.49897322
23	0xbd877f57	-0.06616085
24	0xbe3004fa	-0.17189398
25	0x3ea623ab	0.32449088
26	0x3e3c2b2b	0.18375842
27	0xbe0d845b	-0.13820021
28	0x3e89d561	0.26920608
29	0xbccc71bf	-0.024956582
30	0xbd640ead	-0.05567806
31	0x3e8e4527	0.27787134
32	0x3d7ccd73	0.06171937
33	0xbd2a33b8	-0.04155323
34	0xbcb4cbd6	-0.022069853
35	0x3ee4bbe5	0.44674602
36	0xbd1a3fbc	-0.037658438
37	0x3e9a1a5e	0.30098242
38	0x3e4c631e	0.19959685
39	0x3e86bf61	0.26317886
40	0x3d429aaa	0.04751078
41	0xbe048b86	-0.12943849
42	0x3eb2cb7f	0.3492088
43	0x3e060125	0.13086374
44	0xbda125c1	-0.07868529
45	0x3f3efa78	0.74600935
46	0xbf00ccb3	-0.50312346
47	0x3c724273	0.014786351
48	0x3f07291b	0.52797097
49	0x3e2ed15c	0.17072052
50	0x3d91f54a	0.07126863
51	0xbd4859b3	-0.04891367
52	0x3eb15f53	0.3464304
53	0xbd6397ed	-0.05556481
54	0x3dd18367	0.10230141
55	0x3e125fb7	0.14294325
56	0x3ebbccc7	0.3667967
57	0x3e9980f3	0.29981193
58	0xbd01a0d3	-0.031647515
59	0x3dc9d2a6	0.09854631
60	0xbd994eb8	-0.074857175
61	0xbd793e1e	-0.060850255
62	0x3f0e6672	0.5562507
63	0x3f12fe32	0.5741912
64	0xbd70033a	-0.058596827
65	0xbe3d7bd7	-0.18504272
66	0xbd1c6300	-0.03818035
67	0xbe0e3d7f	-0.13890646
68	0xbd8896a3	-0.06669357
69	0xbd363336	-0.044482432
70	0x3e05f8b6	0.13083157
71	0x3eba73d3	0.36416492
72	0xbd134504	-0.03595449
73	0xbd8919b3	-0.06694355
74	0x3e83c43b	0.2573565
75	0x3ea5d4a4	0.32388794
76	0xbdb0f88a	-0.08641155
77	0xbdc3409f	-0.0953381
78	0x3f2a7f13	0.6660015
79	0x3f0e1c0c	0.55511546
80	0x3ec32284	0.3811227
81	0x3dbb0ea4	0.09133652
82	0x3e268dad	0.16264983
83	0xbd684919	-0.056710336
84	0xbd35a8ee	-0.044350557
85	0xbced014d	-0.028931284
86	0xbd46460f	-0.048406657
87	0x3d2b1774	0.041770414
88	0x3df60e0f	0.120144
89	0x3eb39943	0.35077867
90	0xbe43bd7e	-0.19115254
91	0x3e92117a	0.2852896
92	0x3f01c7d5	0.50695544
93	0x3eca2d0a	0.39487487
94	0xbe3be24a	-0.18348041
95	0x3eea00fc	0.45703876
96	0x3e48304b	0.19549672
97	0x3e9786db	0.29595074
98	0xbd2cbc29	-0.04217163
99	0xbd81e29f	-0.06342053
100	0xbd948a68	-0.072529614
101	0x3dee37d2	0.11631741
102	0xbe2c5a81	-0.168314
103	0xbd6ff975	-0.05858751
104	0x3d9141d1	0.070926316
105	0xbd837a6f	-0.06419837
106	0xbc2fa71b	-0.010720993
107	0xbcf57432	-0.029962633
108	0x3cceb53e	0.025232907
109	0xbf0664c5	-0.5249751
110	0x3ee19c58	0.44064593
111	0x3d82bc55	0.06383578
112	0xbcc7a6cb	-0.024371525
113	0x3efc3e54	0.49266303
114	0xbe7a3ec5	-0.24438007
115	0x3d7d1295	0.0617853
116	0x3e2b28d1	0.16714789
117	0x3cbcecb1	0.023062082
118	0xbd1a892c	-0.037728474
119	0xbd456ed3	-0.048201393
120	0x3e38a9e8	0.18033564
121	0xbd285855	-0.041099865
122	0xbe009bd8	-0.1255945
123	0x3e9bbfd9	0.30419806
124	0xbda65fbc	-0.08123729
125	0xbcac9571	-0.021067353
126	0x3f08b98f	0.5340814
127	0xbd508f44	-0.05091788

actor_fc_layers.blocks.1.block.1.running_mean f4 [128]
0	0x00000000	0.0
1	0x00000000	0.0
2	0x00000000	0.0
3	0x00000000	0.0
4	0x00000000	0.0
5	0x00000000	0.0
6	0x00000000	0.0
7	0x00000000	0.0
8	0x00000000	0.0
9	0x00000000	0.0
10	0x00000000	0.0
11	0x00000000	0.0
12	0x00000000	0.0
13	0x00000000	0.0
14	0x00000000	0.0
15	0x00000000	0.0
16	0x00000000	0.0
17	0x00000000	0.0
18	0x00000000	0.0
19	0x00000000	0.0
20	0x00000000	0.0
21	0x00000000	0.0
22	0x00000000	0.0
23	0x00000000	0.0
24	0x00000000	0.0
25	0x00000000	0.0
26	0x00000000	0.0
27	0x00000000	0.0
28	0x00000000	0.0
29	0x00000000	0.0
30	0x00000000	0.0
31	0x00000000	0.0
32	0x00000000	0.0
33	0x00000000	0.0
34	0x00000000	0.0
35	0x00000000	0.0
36	0x00000000	0.0
37	0x00000000	0.0
38	0x00000000	0.0
39	0x00000000	0.0
40	0x00000000	0.0
41	0x00000000	0.0
42	0x00000000	0.0
43	0x00000000	0.0
44	0x00000000	0.0
45	0x00000000	0.0
46	0x00000000	0.0
47	0x00000000	0.0
48	0x00000000	0.0
49	0x00000000	0.0
50	0x00000000	0.0
51	0x00000000	0.0
52	0x00000000	0.0
53	0x00000000	0.0
54	0x00000000	0.0
55	0x00000000	0.0
56	0x00000000	0.0
57	0x00000000	0.0
58	0x00000000	0.0
59	0x00000000	0.0
60	0x00000000	0.0
61	0x00000000	0.0
62	0x00000000	0.0
63	0x00000000	0.0
64	0x00000000	0.0
65	0x00000000	0.0
66	0x00000000	0.0
67	0x00000000	0.0
68	0x00000000	0.0
69	0x00000000	0.0
70	0x00000000	0.0
71	0x00000000	0.0
72	0x00000000	0.0
73	0x00000000	0.0
74	0x00000000	0.0
75	0x00000000	0.0
76	0x00000000	0.0
77	0x00000000	0.0
78	0x00000000	0.0
79	0x00000000	0.0
80	0x00000000	0.0
81	0x00000000	0.0
82	0x00000000	0.0
83	0x00000000	0.0
84	0x00000000	0.0
85	0x00000000	0.0
86	0x00000000	0.0
87	0x00000000	0.0
88	0x00000000	0.0
89	0x00000000	0.0
90	0x00000000	0.0
91	0x00000000	0.0
92	0x00000000	0.0
93	0x00000000	0.0
94	0x00000000	0.0
95	0x00000000	0.0
96	0x00000000	0.0
97	0x00000000	0.0
98	0x00000000	0.0
99	0x00000000	0.0
100	0x00000000	0.0
101	0x00000000	0.0
102	0x00000000	0.0
103	0x00000000	0.0
104	0x00000000	0.0
105	0x00000000	0.0
106	0x00000000	0.0
107	0x00000000	0.0
108	0x00000000	0.0
109	0x00000000	0.0
110	0x00000000	0.0
111	0x00000000	0.0
112	0x00000000	0.0
113	0x00000000	0.0
114	0x00000000	0.0
115	0x00000000	0.0
116	0x00000000	0.0
117	0x00000000	0.0
118	0x00000000	0.0
119	0x00000000	0.0
120	0x00000000	0.0
121	0x00000000	0.0
122	0x00000000	0.0
123	0x00000000	0.0
124	0x00000000	0.0
125	0x00000000	0.0
126	0x00000000	0.0
127	0x00000000	0.0

actor_fc_layers.blocks.1.block.1.running_var f4 [128]
0	0x3f800000	1.0
1	0x3f800000	1.0
2	0x3f800000	1.0
3	0x3f800000	1.0
4	0x3f800000	1.0
5	0x3f800000	1.0
6	0x3f800000	1.0
7	0x3f800000	1.0
8	0x3f800000	1.0
9	0x3f800000	1.0
10	0x3f800000	1.0
11	0x3f800000	1.0
12	0x3f800000	1.0
13	0x3f800000	1.0
14	0x3f800000	1.0
15	0x3f800000	1.0
16	0x3f800000	1.0
17	0x3f800000	1.0
18	0x3f800000	1.0
19	0x3f800000	1.0
20	0x3f800000	1.0
21	0x3f800000	1.0
22	0x3f800000	1.0
23	0x3f800000	1.0
24	0x3f800000	1.0
25	0x3f800000	1.0
26	0x3f800000	1.0
27	0x3f800000	1.0
28	0x3f800000	1.0
29	0x3f800000	1.0
30	0x3f800000	1.0
31	0x3f800000	1.0
32	0x3f800000	1.0
33	0x3f800000	1.0
34	0x3f800000	1.0
35	0x3f800000	1.0
36	0x3f800000	1.0
37	0x3f800000	1.0
38	0x3f800000	1.0
39	0x3f800000	1.0
40	0x3f800000	1.0
41	0x3f800000	1.0
42	0x3f800000	1.0
43	0x3f800000	1.0
44	0x3f800000	1.0
45	0x3f800000	1.0
46	0x3f800000	1.0
47	0x3f800000	1.0
48	0x3f800000	1.0
49	0x3f800000	1.0
50	0x3f800000	1.0
51	0x3f800000	1.0
52	0x3f800000	1.0
53	0x3f800000	1.0
54	0x3f800000	1.0
55	0x3f800000	1.0
56	0x3f800000	1.0
57	0x3f800000	1.0
58	0x3f800000	1.0
59	0x3f800000	1.0
60	0x3f800000	1.0
61	0x3f800000	1.0
62	0x3f800000	1.0
63	0x3f800000	1.0
64	0x3f800000	1.0
65	0x3f800000	1.0
66	0x3f800000	1.0
67	0x3f800000	1.0
68	0x3f800000	1.0
69	0x3f800000	1.0
70	0x3f800000	1.0
71	0x3f800000	1.0
72	0x3f800000	1.0
73	0x3f800000	1.0
74	0x3f800000	1.0
75	0x3f800000	1.0
76	0x3f800000	1.0
77	0x3f800000	1.0
78	0x3f800000	1.0
79	0x3f800000	1.0
80	0x3f800000	1.0
81	0x3f800000	1.0
82	0x3f800000	1.0
83	0x3f800000	1.0
84	0x3f800000	1.0
85	0x3f800000	1.0
86	0x3f800000	1.0
87	0x3f800000	1.0
88	0x3f800000	1.0
89	0x3f800000	1.0
90	0x3f800000	1.0
91	0x3f800000	1.0
92	0x3f800000	1.0
93	0x3f800000	1.0
94	0x3f800000	1.0
95	0x3f800000	1.0
96	0x3f800000	1.0
97	0x3f800000	1.0
98	0x3f800000	1.0
99	0x3f800000	1.0
100	0x3f800000	1.0
101	0x3f800000	1.0
102	0x3f800000	1.0
103	0x3f800000	1.0
104	0x3f800000	1.0
105	0x3f800000	1.0
106	0x3f800000	1.0
107	0x3f800000	1.0
108	0x3f800000	1.0
109	0x3f800000	1.0
110	0x3f800000	1.0
111	0x3f800000	1.0
112	0x3f800000	1.0
113	0x3f800000	1.0
114	0x3f800000	1.0
115	0x3f800000	1.0
116	0x3f800000	1.0
117	0x3f800000	1.0
118	0x3f800000	1.0
119	0x3f800000	1.0
120	0x3f800000	1.0
121	0x3f800000	1.0
122	0x3f800000	1.0
123	0x3f800000	1.0
124	0x3f800000	1.0
125	0x3f800000	1.0
126	0x3f800000	1.0
127	0x3f800000	1.0

actor_fc_layers.blocks.2.block.0.weight f4 [128, 128]
0	0x3f012a25	0.5045493
1	0xbd31c683	-0.043402206
2	0x3bce05a6	0.0062872944
3	0x3d088702	0.03333188
4	0xbde0c418	-0.10974902
5	0x3efdbf13	0.4955984
6	0xbf378bfc	-0.71697974
7	0x3d91bcd3	0.071160935
8	0xbd714133	-0.05890007
9	0x3ce00e74	0.027350642
10	0xbde3decd	-0.1112648
11	0x3e69575c	0.22787231
12	0xbcf06d7a	-0.029349077
13	0x3f1b7327	0.60722584
14	0xbebd1b43	-0.36934862
15	0xbd336156	-0.043794
16	0x3d8701f3	0.06592169
17	0xbd845402	-0.06461336
18	0x3f1cc184	0.6123278
19	0x3eaaff40	0.33397865
20	0x3e004d15	0.12529404
21	0x3d1795b3	0.037008
22	0xbeb8ccd6	-0.36093777
23	0x3c3d9959	0.011572205
24	0xbf00e9c7	-0.50356716
25	0x3f1ba1a5	0.60793525
26	0x3ebb6aa7	0.36604807
27	0xbf63f994	-0.890527
28	0x3e166448	0.14686692
29	0xbd3f9fb6	-0.04678317
30	0xbd59ad3f	-0.053143736
31	0x3f04bb9a	0.5184876
32	0x3dbca071	0.09210289
33	0x3d211239	0.03932402
34	0xbccaabd6	-0.02474014
35	0xbe946572	-0.28983647
36	0x3d7766a2	0.060400613
37	0x3ef63846	0.48089808
38	0x3e484792	0.19558552
39	0xbed98342	-0.42482954
40	0x3fac03c0	1.3438644
41	0xbf033d48	-0.5126538
42	0x3f46f749	0.7772108
43	0x3e2b6897	0.16739117
44	0xbdc70a27	-0.09718733
45	0xbe443bef	-0.19163488
46	0x3e4c3348	0.19941437
47	0xbe76f2f6	-0.2411612
48	0xbe2e248d	-0.1700613
49	0x3d25c5bd	0.04047178
50	0x3ca84558	0.020540878
51	0x3c98056c	0.018557273
52	0x3d9149ab	0.07094129
53	0x3ee3ff0c	0.44530523
54	0xbe134b43	-0.14384179
55	0x3e6b985c	0.23007339
56	0xbe5dbec3	-0.21654801
57	0x3edbc8d4	0.42926657
58	0xbf6d9d3e	-0.9281806
59	0xbed7679b	-0.42071232
60	0xbdd423ac	-0.10358366
61	0xbcff0569	-0.03113051
62	0x3f1c8f69	0.61156327
63	0x3e1d4a1c	0.15360302
64	0xbd3e4bdd	-0.046459068
65	0x3e0dcac0	0.13846874
66	0x3ce0b3b1	0.027429434
67	0xbec5f8f9	-0.38666514
68	0x3d414e92	0.04719407
69	0x3bfde3f5	0.007748122
70	0x3d4e9d36	0.050442897
71	0xbe5cb4f9	-0.2155341
72	0x3bc0768f	0.0058735083
73	0xbeb95fee	-0.36206
74	0x3f02d06d	0.5109928
75	0x3ed37c43	0.41305742
76	0xbd813191	-0.06308282
77	0xbdda3850	-0.10655272
78	0xbd0a4551	-0.03375751
79	0xbf67350f	-0.90315336
80	0x3d317a8f	0.04332977
81	0xbc534de7	-0.012896991
82	0xbeaa049c	-0.33206642
83	0x3d873faa	0.0660394
84	0xbcf4bf55	-0.02987639
85	0x3cf3d7b2	0.029765937
86	0x3d41af0f	0.04728609
87	0x3ed549cf	0.41657874
88	0x3e39f0e4	0.18158299
89	0x3e580643	0.21096139
90	0x3d92f3e8	0.07175428
91	0x3e3282eb	0.17432754
92	0xbef8c922	-0.48590952
93	0x3ee2f50e	0.44327587
94	0x3e70566e	0.2347047
95	0xbd463bb3	-0.048396777
96	0xbe8123e5	-0.25222698
97	0xbe3285cd	-0.17433853
98	0xbd538258	-0.051637977
99	0xbc9a8a58	-0.018864796
100	0x3f87f22e	1.0620782
101	0x3e0a9912	0.13534954
102	0x3dc694f6	0.09696381
103	0x3c215e01	0.009849072
104	0x3e490fd1	0.1963494
105	0xbcf64979	-0.030064331
106	0x3e333bb9	0.17503251
107	0x3dadad90	0.0848037
108	0x3ddec345	0.108770885
109	0x3e86970e	0.2628712
110	0xbec2a228	-0.3801434
111	0xbeadc667	-0.3394043
112	0xbc7a7f98	-0.01528921
113	0xbee31ae6	-0.4435646
114	0xbf1600a0	-0.58594704
115	0xbe82b977	-0.25532123
116	0xbf04b8da	-0.5184456
117	0xbdd43be3	-0.10362985
118	0xbd778645	-0.060430784
119	0x3ce85a48	0.028363362
120	0xbcc4eb29	-0.024037914
121	0xbcb7c8ae	-0.022434559
122	0xbe84dfe6	-0.2595207
123	0xbd9a629f	-0.07538342
124	0x3e899178	0.26868796
125	0x3e794317	0.24341999
126	0x3e9620b3	0.29321823
127	0xbd146e47	-0.03623798
128	0xbe0e160f	-0.13875602
129	0xbda82141	-0.08209468
130	0xbd118048	-0.03552273
131	0x3d8245d7	0.06360977
132	0x3d9776d7	0.07395714
133	0x3da609b5	0.0810732
134	0xbd89ac5f	-0.0672233
135	0xbd0c702e	-0.03428667
136	0xbeb1538e	-0.3463406
137	0x3d22a301	0.039706234
138	0xbeaa5b2d	-0.33272687
139	0xbeef84a9	-0.467809
140	0x3d256861	0.040382747
141	0xbe370d91	-0.17876269
142	0xbde37eed	-0.111081935
143	0x3cc71af2	0.02430484
144	0x3d35dc7d	0.044399727
145	0x3e043c93	0.12913732
146	0x3e85a51f	0.2610254
147	0x3d6e09c0	0.058114767
148	0x3e2e15dd	0.17000528
149	0x3df4cef6	0.11953537
150	0x3e4e6366	0.20155105
151	0x3bddf236	0.0067732586
152	0x3d00854d	0.031377126
153	0x3e52057b	0.20509903
154	0xbc9e906c	-0.019355975
155	0xbecf5276	-0.404926
156	0xbea2f760	-0.31829357
157	0xbbc9679f	-0.006146386
158	0x3c91bd9b	0.017790606
159	0xbea131dd	-0.31483355
160	0xbecdcd03	-0.40195474
161	0xbb025897	-0.001988923
162	0x3d9b0050	0.07568419
163	0xbe896d17	-0.2684104
164	0xbcb92a32	-0.022603128
165	0xbec49dd7	-0.38401672
166	0xbd0fde4f	-0.03512412
167	0x3dd67c73	0.104729556
168	0xbd413786	-0.047172092
169	0xbd50fc40	-0.051021814
170	0xbf1d2394	-0.6138241
171	0x3e5af0b0	0.21380877
172	0xbd9a28af	-0.07527291
173	0xbe8316d3	-0.2560335
174	0xbe8b604e	-0.27221912
175	0x3d5a6603	0.053319942
176	0xbf4a97eb	-0.7913806
177	0x3d9282df	0.07153868
178	0xbe88837f	-0.26662824
179	0xbda94ffd	-0.0826721
180	0xbc17909f	-0.009250789
181	0xbe2d6d81	-0.16936304
182	0xbea6a401	-0.32547
183	0x3e9e3ff4	0.30908167
184	0x3da783d4	0.08179441
185	0x3d126cff	0.035748478
186	0xbe3cf675	-0.18453391
187	0x3de36010	0.11102307
188	0xbad5dfd0	-0.0016317312
189	0x3d235200	0.039873123
190	0xbe70191a	-0.23447075
191	0x3ca107ac	0.019656979
192	0x3dab1ee0	0.08355498
193	0x3c056766	0.008142328
194	0x3d8c792b	0.068590485
195	0xbda5e9ac	-0.0810121
196	0xbd954777	-0.072890215
197	0x3ddc0cab	0.10744604
198	0x3d04872e	0.03235548
199	0xbe4d3e6f	-0.20043348
200	0xbdaa0ca8	-0.08303195
201	0xbe7a970a	-0.2447168
202	0x3e713259	0.23554362
203	0x3e8288a2	0.25494868
204	0xbe13d973	-0.14438419
205	0xbe595cc7	-0.21226798
206	0x3e9c1be8	0.3049004
207	0xbe1d4658	-0.15358865
208	0xbd657ea5	-0.05602898
209	0xbe544030	-0.2072761
210	0xbd86929f	-0.065709345
211	0xbd8c6797	-0.06855696
212	0x3cc4d5b2	0.02402768
213	0x3a996a73	0.0011704698
214	0x3d100f87	0.035171058
215	0x3c440966	0.011965131
216	0xbe4b3683	-0.19845013
217	0xbe00d723	-0.12582068
218	0xbecead3b	-0.4036654
219	0xbe8058f8	-0.25067878
220	0x3e5badc0	0.21452999
221	0x3e94703b	0.28991875
222	0x3cea26d5	0.02858297
223	0xbe678119	-0.2260784
224	0xbcc7338e	-0.024316575
225	0x3dd50fff	0.10403442
226	0x3d4b5ebf	0.049650904
227	0xbd68f175	-0.056870896
228	0xbd858fa2	-0.065215364
229	0xbe9ef6c3	-0.3104764
230	0xbe94308f	-0.28943297
231	0xbd3aa6a9	-0.045569096
232	0xbda997dd	-0.08280919
233	0xbd5427f7	-0.051795926
234	0xbcb9dfd6	-0.022689741
235	0xbc214a78	-0.009844415
236	0xbe89c36b	-0.26906905
237	0x3e366729	0.1781279
238	0xbdc06a73	-0.093953036
239	0xbe320eaa	-0.17388406
240	0xbdb3472a	-0.08753808
241	0x3cc0e196	0.023545068
242	0x3e6638f8	0.2248267
243	0x3e6162b0	0.22010303
244	0xbe39ae3a	-0.18132868
245	0x3df2e00a	0.11859138
246	0x3cb8266e	0.022479262
247	0x3d53e52b	0.051732223
248	0xbe3b2c41	-0.182786
249	0xbd33bcbe	-0.04388117
250	0xbe072d4f	-0.13200878
251	0xbe3e666e	-0.18593761
252	0xbe1155b4	-0.1419285
253	0xbd05b587	-0.03264382
254	0x3d1e906b	0.038711946
255	0xbd5c1ddc	-0.053739414

actor_fc_layers.blocks.2.block.1.weight f4 [128]
0	0x3f79c6d6	0.97569025
1	0x3fc90786	1.5705421
2	0x4006f572	2.1087308
3	0x3f648da0	0.892786
4	0x3fbc39c9	1.4705135
5	0x3fa1fef0	1.2655926
6	0x3f957b6b	1.1678289
7	0x3f8d2762	1.1027644
8	0x3facb6b0	1.3493252
9	0x3fa5f9b0	1.2966824
10	0x3ffb6f0d	1.9643265
11	0x3feb1ee0	1.8368797
12	0x3fdd52d7	1.7290906
13	0x3fa008fd	1.2502743
14	0x3f877d62	1.0585139
15	0x3fab2458	1.3370466
16	0x3ff5ec1d	1.9212681
17	0x3f92b086	1.1460121
18	0x3f803d3c	1.0018687
19	0x3fa53341	1.2906266
20	0x4026c0e8	2.605524
21	0x3f727fe2	0.94726384
22	0x3fb25819	1.3933135
23	0x3fd29119	1.645053
24	0x3f75ba1d	0.9598711
25	0x3f910730	1.1330318
26	0x3fd3cc2b	1.6546682
27	0x3f91c183	1.138718
28	0x3f8fc292	1.1231253
29	0x3f81e7c7	1.0148858
30	0x3fdd92e8	1.7310457
31	0x3fc80bf7	1.5628651
32	0x3fd9fa33	1.702948
33	0x3fc34d12	1.5257895
34	0x3f7876e5	0.9705642
35	0x3f5c5f17	0.86082596
36	0x3f6be2f8	0.921432
37	0x3fdbce2b	1.7172292
38	0x3fbb93c5	1.4654471
39	0x3f9ab6df	1.2087058
40	0x3f7d2eb5	0.98899394
41	0x3fc0dfa3	1.5068249
42	0x3f6a260c	0.91464305
43	0x3f9c7f1f	1.2226294
44	0x3f700b6d	0.93767434
45	0x401b23dc	2.4240637
46	0x400afcb3	2.1716735
47	0x3f86eb4a	1.0540555
48	0x3f69838c	0.9121635
49	0x3fb41bcd	1.4070984
50	0x3fdcaae0	1.7239647
51	0x3fc0d067	1.5063599
52	0x3f6ca38c	0.9243705
53	0x3f87dea7	1.0614823
54	0x3fac8dac	1.3480735
55	0x3f706f09	0.93919426
56	0x3fc2daaa	1.5222981
57	0x40070c1a	2.1101136
58	0x3faacda0	1.3344002
59	0x3fc94b1a	1.5726044
60	0x3f6e0255	0.9297231
61	0x3fd85af7	1.690276
62	0x3f70df25	0.9409049
63	0x3f799345	0.9749034
64	0x3f743959	0.95400006
65	0x3ff23eb5	1.8925387
66	0x3fba2e4d	1.454538
67	0x3fb278e9	1.3943149
68	0x3fa5dcc9	1.2958003
69	0x3fab3588	1.3375711
70	0x3f889e0e	1.0673234
71	0x3faebe9c	1.3651919
72	0x3f91ad4d	1.1381012
73	0x3f8a1f36	1.0790775
74	0x3f69d33c	0.91337943
75	0x3feb0130	1.8359737
76	0x3f68f8e0	0.91004753
77	0x3fd5b0ef	1.6694621
78	0x3f82a526	1.0206649
79	0x3f5749d8	0.8409705
80	0x3fc6c2aa	1.5528157
81	0x3f979f77	1.184554
82	0x3fa957cc	1.3229918
83	0x3f8c4d06	1.0961006
84	0x3f917cc3	1.1366199
85	0x3fe5b61c	1.79462
86	0x3f775701	0.9661713
87	0x3fac3a15	1.3455225
88	0x3fa4711c	1.2847018
89	0x3f774a1e	0.9659747
90	0x4001b102	2.0264287
91	0x3fcadf02	1.5849307
92	0x3fb8c0ba	1.4433815
93	0x3fc4f042	1.5385821
94	0x3f6c3a15	0.92276126
95	0x3fbe5605	1.4870001
96	0x3fc2c466	1.5216186
97	0x3fa8e490	1.3194752
98	0x3f6fa2bc	0.9360769
99	0x3f9584cb	1.168115
100	0x3f484ba2	0.78240407
101	0x3fa4bdac	1.2870383
102	0x3fceb56e	1.6149118
103	0x3f7ba365	0.98296195
104	0x3fa2754c	1.2692046
105	0x3f8b540b	1.0885023
106	0x3fbc645d	1.4718128
107	0x3fbc532d	1.4712883
108	0x3ffc37d5	1.9704539
109	0x3fc597d6	1.5436962
110	0x3f9c8113	1.222689
111	0x3fd48eb3	1.6606048
112	0x3f934503	1.1505436
113	0x3f978fd7	1.1840771
114	0x3fd703ff	1.6798095
115	0x3f58a65b	0.8462884
116	0x4007c6d2	2.12151
117	0x3fa3c988	1.2795877
118	0x3fdc9ccf	1.7235354
119	0x3fdd12c7	1.7271355
120	0x3f9bb913	1.2165855
121	0x3fab9d0c	1.3407302
122	0x3f60bf68	0.8779206
123	0x3fd9f96b	1.7029241
124	0x3f7b58c9	0.9818235
125	0x3fbaf39e	1.4605596
126	0x400a84c7	2.164354
127	0x4006e957	2.107992

actor_fc_layers.blocks.2.block.1.bias f4 [128]
0	0xbcec6230	-0.028855413
1	0xbd19cce4	-0.037548915
2	0xbde5bf7d	-0.11218164
3	0xbe4f1267	-0.20221864
4	0x3e0058c5	0.12533863
5	0xbd692311	-0.056918208
6	0xbe5345cc	-0.20632094
7	0xbe23a535	-0.1598099
8	0xbd6aaa79	-0.05729148
9	0xbcfe1fba	-0.031020988
10	0xbe5bcd64	-0.21465069
11	0xbe8f213f	-0.27955052
12	0xbe005be6	-0.12535056
13	0xbe033ac2	-0.12815383
14	0xbc4115ef	-0.0117850145
15	0xbe6fc261	-0.23413993
16	0xbd44bd17	-0.048031893
17	0x3edcfc25	0.4316112
18	0x3db48139	0.0881371
19	0xbe203afc	-0.15647501
20	0x3ecefc86	0.40427035
21	0x3efe91ab	0.4972051
22	0xbe2ca06d	-0.16858073
23	0x3eb2f779	0.34954432
24	0xbd73dd2a	-0.05953709
25	0x3dc9c04a	0.09851129
26	0xbebc24b2	-0.36746746
27	0xbd3bc94a	-0.04584626
28	0xbdd616e4	-0.10453585
29	0x3db49a3a	0.08818479
30	0x3f1c8e5b	0.6115472
31	0x3dc77403	0.09738924
32	0x3e7a255d	0.24428315
33	0x3e0ab129	0.13544144
34	0xbe0671cf	-0.13129352
35	0xbe32e8a2	-0.17471555
36	0xbde761d9	-0.1129796
37	0x3dfbff95	0.12304608
38	0x3e73f0b1	0.23822285
39	0xbe44eb93	-0.1923049
40	0xbd8f24c3	-0.069894336
41	0xbdc99b92	-0.09844126
42	0xbda62ffd	-0.08114622
43	0xbdc3f3eb	-0.09568008
44	0xbdb629d6	-0.08894698
45	0x3daa9498	0.08329123
46	0x3e9453b7	0.2897012
47	0x3cb7d785	0.022441635
48	0xbd961b30	-0.07329404
49	0xbd3665e2	-0.044530757
50	0x3b537768	0.0032267217
51	0x3efb7ee5	0.4912025
52	0xbe11cd3c	-0.14238447
53	0x3ddffe0b	0.10937127
54	0xbe270031	-0.16308667
55	0x3ea21fc0	0.31664848
56	0x3e65f438	0.22456443
57	0x3e9bda47	0.3043997
58	0xbdfad972	-0.12248506
59	0xbca827e5	-0.020526836
60	0xbd7b06c1	-0.061285738
61	0xbb912c4c	-0.0044303294
62	0xbd2bea65	-0.041971583
63	0xbe7bef92	-0.24603108
64	0xbda5ead9	-0.08101434
65	0xbd9de3c4	-0.077094585
66	0x3d36ff1e	0.044676892
67	0xbd916748	-0.070997775
68	0xbddb6067	-0.10711747
69	0x3c90efbf	0.017692445
70	0xbe0e15ab	-0.13875453
71	0x3e38ecdd	0.18059106
72	0xbdbbc8c0	-0.091691494
73	0x3bcee5de	0.0063140234
74	0xbda4a1f1	-0.080387
75	0xbe2a2abd	-0.16617866
76	0xbd519ad8	-0.05117306
77	0xbe5a6154	-0.2132619
78	0x3d15513c	0.036454424
79	0x3e302bf8	0.17204273
80	0x3e37618d	0.17908306
81	0xbe27ad3d	-0.16374679
82	0x3eac7f9c	0.33691108
83	0xbdb0d882	-0.086350456
84	0xbc9e8c83	-0.01935411
85	0x3cfbed9d	0.030752951
86	0xbd141470	-0.036152303
87	0xbca3a214	-0.019974746
88	0xbea4eafd	-0.32210532
89	0xbd8b8d9e	-0.06814121
90	0xbcb65ef6	-0.022262078
91	0xbd0909df	-0.03345668
92	0xbe4d813a	-0.20068827
93	0xbdf23a06	-0.11827473
94	0x3d3be826	0.04587569
95	0xbe56c3f0	-0.20973182
96	0xbe110280	-0.1416111
97	0x3cafa001	0.0214386
98	0xbd72b256	-0.059252106
99	0xbe8dd78f	-0.2770352
100	0xbdbf99da	-0.09355517
101	0xbe78b052	-0.24286011
102	0x3e18c663	0.14919429
103	0xbd911f68	-0.070860684
104	0xbd8b617b	-0.06805702
105	0x3e2e0e71	0.16997696
106	0xbdde8a90	-0.108662724
107	0xbdc5181b	-0.096237384
108	0xbcb7055e	-0.022341426
109	0xbebf3c7e	-0.3735084
110	0x3dc9598e	0.09831534
111	0xbd0f2013	-0.034942698
112	0x3dd677c3	0.104720615
113	0x3e30fa7d	0.17283054
114	0xbe1bdb74	-0.15220433
115	0xbe0e461b	-0.1389393
116	0xbdc9854f	-0.0983988
117	0x3f0735e6	0.5281662
118	0xbe05889b	-0.13040392
119	0x3e39b0f5	0.1813391
120	0xbeca6843	-0.3953267
121	0xbe53ae7c	-0.2067203
122	0xbdafd909	-0.08586318
123	0xbcbe4ab2	-0.023228977
124	0xbddff254	-0.10934892
125	0x3e8e8c07	0.27841207
126	0x3e8b7052	0.2723413
127	0xbe407b3e	-0.18797013
