saved_models/agent_maddpg_vs_opp_maddpg_2_vs_2_1_adver_best_models/maddpg_target_actor_0.pt (torch, 160267 bytes, 21 tensors)

actor_fc_layers.blocks.0.block.0.weight f4 [128, 21]
00000000: a4e0 b3be 9e72 2fbf 0a39 03bf 074e 92be
00000010: 3196 0dbf 0b3f ba3d 8426 1a3e 1413 38be
00000020: c512 243f d1ff 063f a008 81be ce43 b83e
00000030: eab4 053e 2521 6dbe 7478 be3e 56e8 a9bc
00000040: ea66 b4be bc4b e6bd 8fa3 8b3d b54c adbc
00000050: 381c 8ebe 974e 4d3d 4f52 1dbf 6b6f 2abf
00000060: 56d2 4e3f ec03 34bf a748 f4bd 54ee 2c3d
00000070: 3588 2bbe 1dc0 84be 2572 d2bd 1749 88bd
00000080: ce3d fe3c fc98 83bc 3559 783e bc26 2c3e
00000090: d27e 16be 970d 7c3e a4a4 6b3c a122 11bf
000000a0: 9dd5 0e3c 2fb7 043e 8fbb 5f3d 5641 58bf
000000b0: 2e3e d0be 71c4 04bf 3b88 8fbd 7a05 8fbe
000000c0: 3a55 afbd 4740 333d 324d eabd 0ea8 46bd
000000d0: 111e 43be 28b9 a0be a907 babd b8f0 f2be
000000e0: 4a9c 1f3f 6810 593d 99be 903d 4bfd 0f3e
000000f0: e8e8 eebd 2c57 843d c63f 323c 7066 d4be
00000100: 44ef 83bd 498e 693e 5012 213e cce3 c3be
00000110: eb65 6abc 2f7c ff3d 52b0 3dbe b081 a43e
00000120: 1ae1 30be a5dc ffbc 5202 3cbf b52a adbe
00000130: 78f0 f33d 4f08 9abe 8cc2 123e a713 94bc
00000140: 5c79 93be 2514 bdbc ee29 1ebe 6e73 363e
00000150: 46b2 293d 561f efbe 0160 3f3f 6ec1 07bf
00000160: 8f89 e6ba 9c34 9a3e 0d25 253e 04c3 c0bd
00000170: 6a11 1cbe 93dd c63e 6846 9dbd 3c6c 7b3c
00000180: 0a99 233b 3710 a53e bc2d 38bf 86df 81bd
00000190: 477a 6bbd dd9e d53c 0fa6 75ba f50a 963e
000001a0: 7749 08bf 9a8f 35be c3db e23d b29d d0be
000001b0: bef2 ffbe 2de2 0ebe 4367 2a3a 5dbe 9ebd
000001c0: a9fe 743c fc47 4d3d 690a 5e3d 7e02 afbe
000001d0: 99fe 00be aa20 b6bd 28fa 8e3e 5874 c83e
000001e0: c5d9 77be ec38 12bf 8de6 fdbd cb97 843d
000001f0: 9326 dd3d 5545 f2bc 606f 92bd be52 94bd
00000200: 5f90 47be 16e1 d8be 329b 94bd e46a b63e
00000210: 7dc6 2e3e 4da9 50be 0c3c 723d 5e7d 9dbd
00000220: aa5c ccbc cad5 67be 3ef1 973d c3b4 723e
00000230: 506a 7ebf 69f0 19bc b708 843c c56c 4d3e
00000240: 5af0 1e3e 1ab7 273f 9c39 05bf eb39 b2bd
00000250: c43e d63d 29c0 febe 6fcd 2bbe 3807 9f3e
00000260: 525b 53be 642a f33d 015c aabd 67fc 153e
00000270: 9323 ecbd 661b 5fbe 7a98 3dbe 8efc c4bb
00000280: 5f14 05bf e078 11bf 6f78 073e e9c5 9bbd
00000290: 8068 4c3e 3032 c33e 3d28 58be 3e17 b03e
000002a0: 6bde 64be 7750 24bd c755 0f3f df74 f33e
000002b0: b7c6 68be 510f ac3e 6132 45be 887c 33be
000002c0: 274e e0be ed14 96be 474e 8d3e 97ea d93c
000002d0: b4df 82be dd5f 063f c7fb cabe 9e5e 903e
000002e0: 6eaa 923d 050f fc3d 9f94 8fbc 9c64 b73d
000002f0: f1ea ddbd a251 01bf be1b f03d 6bce 613e
00000300: ea16 5abe 6a32 c8be 745b 0ebe 9087 3f3e
00000310: a50a 373e fc31 b9be 7470 58be dba2 ca3d
00000320: 4ba4 563e 0dce 673c 2dfb 7b3e 7f29 db3d
00000330: 42d7 04bf f4ae 983d edc9 bcbe 964e cc3e
00000340: e3be 8a3e 22d8 b7be 8d14 24bf 55cb b8be
00000350: 2131 febe bebf acbd d2c1 e4be 2f13 afbd
00000360: ce1a 0ebe 51d2 0dbe 4d8a ac3e a5ad b23d
00000370: b8a1 60be 99f0 a33e 72e8 043f c816 643e
00000380: 5fcb 04bf c379 9ebe ca73 c3be 8f54 8ebd
00000390: 2b0d 853d 0165 253e 5845 183d 44ae 35bd
000003a0: 5c03 1fbd a866 b1be 8e1e 28bf 944d 5ebe
000003b0: 06f2 e9be 843c e63d 9ea8 f33d b8ec a53d
000003c0: 7053 aebd 565d a43e aa5e 2bbe 42da 06be
000003d0: ba68 c2be 44e7 493f 2449 953d 568c 733d
000003e0: ef4c 693e 70fc 353d 442b 85bd 3247 713e
000003f0: 8493 69bf c686 edbe 9d82 95be 4870 3fbe
-0.35132325 -0.68534267 -0.5125891 -0.28575155 -0.553073 0.09094056 0.15053755 -0.17976028
0.6409114 0.52734095 -0.25201893 0.3598923 0.13057294 -0.23157175 0.37201273 -0.02074067
-0.35234767 -0.11244914 0.06818306 -0.02115474 -0.27755904 0.050123777 -0.6145372 -0.6657626
0.807897 -0.70318484 -0.1192792 0.042219475 -0.16751178 -0.2592782 -0.102756776 -0.06654566
0.03103533 -0.01606416 0.2425278 0.16811651 -0.14696816 0.24614559 0.014382515 -0.56693465
0.008717922 0.12960504 0.05462223 -0.84474695 -0.4067244 -0.51862246 -0.07008406 -0.27933866
-0.085611776 0.04376247 -0.11440505 -0.048500113 -0.19054438 -0.31391263 -0.09083492 -0.4744928
0.62347853 0.05299416 0.070676036 0.14061467 -0.11665517 0.06461939 0.010879463 -0.41484404
-0.06442121 0.22808184 0.15729642 -0.38259733 -0.014306526 0.12474858 -0.18524292 0.32130194
-0.1727337 -0.031233141 -0.7344104 -0.33821645 0.119111 -0.30084464 0.14332026 -0.018075777
-0.28803527 -0.023080895 -0.15445682 0.1781747 0.04142978 -0.46703595 0.74755865 -0.53029525
-0.0017588603 0.30118263 0.16127415 -0.09412196 -0.15241018 0.38840923 -0.076794446 0.015345629
0.0024963045 0.32238933 -0.71944785 -0.06341462 -0.05748966 0.026076728 -0.0009370753 0.29305235
-0.532371 -0.17730561 0.110770725 -0.40745312 -0.49989885 -0.13953467 0.00065003725 -0.07751153
0.014953294 0.050117478 0.054209147 -0.3418159 -0.12597121 -0.08892949 0.2792523 0.39151263
-0.24204166 -0.57118106 -0.1239749 0.06474265 0.10798373 -0.029574076 -0.07150149 -0.07242344
-0.19488667 -0.42359227 -0.07256164 0.35628426 0.17067905 -0.20377083 0.059139296 -0.076899275
-0.02494653 -0.22640148 0.0741906 0.23701768 -0.9938097 -0.009395697 0.016117437 0.20061024
0.15521374 0.65513766 -0.5204103 -0.08702453 0.1046119 -0.49755982 -0.16777585 0.31060195
-0.20640305 0.1187332 -0.083183296 0.14647065 -0.11530223 -0.21787795 -0.18515196 -0.006011552
-0.5198421 -0.56825066 0.13229536 -0.07606108 0.19961739 0.38124228 -0.211091 0.34392732
-0.2235047 -0.0401158 0.5599026 0.47550103 -0.22732054 0.33605435 -0.192575 -0.17527974
-0.43809626 -0.2931284 0.27598783 0.026601119 -0.25561297 0.52490026 -0.39645216 0.28197187
0.07161413 0.12307552 -0.017526923 0.089547366 -0.10835827 -0.50515187 0.117240414 0.22051398
-0.21297804 -0.39100963 -0.13902074 0.18704057 0.17875154 -0.36170948 -0.21136647 0.098943435
0.2096111 0.014148247 0.24607535 0.10701274 -0.5189096 0.07455245 -0.36872807 0.39903706
0.2709876 -0.35907084 -0.6409386 -0.3609263 -0.49646857 -0.084350094 -0.44679123 -0.08548581
-0.13877413 -0.1384976 0.33699265 0.08724526 -0.21936691 0.320195 0.51917183 0.22274315
-0.5187282 -0.30952272 -0.38174278 -0.06949722 0.06496652 0.16151811 0.037175506 -0.044355646
-0.038821563 -0.34648633 -0.6567162 -0.21709281 -0.45692462 0.11242011 0.118973956 0.08101791
-0.08512008 0.3210246 -0.1673533 -0.13169196 -0.37970525 0.7886851 0.07289341 0.059460007
0.22783254 0.044430196 -0.06502393 0.23562315 -0.91240716 -0.46391886 -0.29201213 -0.18695176

actor_fc_layers.blocks.0.block.1.weight f4 [128]
00000000: a7b5 0440 6623 9e3f d6e4 aa3f 59c1 713f
00000010: fd9f d83f 4f08 5a3f ccab e23f 4b56 963f
00000020: 8a92 913f ba16 8c3f 54cf be3f e820 9f3f
00000030: c7a0 e93f 6c61 9e3f e2b7 4a3f 0686 9c3f
00000040: 5ad8 6d3f eb18 7d3f 63af a93f 40bf 793f
00000050: c308 803f ba5b bc3f 0a41 8e3f 5eba 133e
00000060: 0383 8f3f 8c1d 4c3f d13c 983f ecf8 bb3f
00000070: 5b5f 983f 9f0b c63f 0a8d a23f 7edb 4a3f
00000080: 5dbe a53f 6229 aa3f 3823 8e3f 60dd 913f
00000090: f44c 883f 6237 b93f 53d6 863f 6c7b 823f
000000a0: a5b2 a73f fd6d 7a3f 5d2d 463f 1778 503f
000000b0: d6a3 933f 89b1 5c3f 009e 4d3f 7c7c 8a3f
000000c0: dc38 7d3f 18bc 793f ad67 ca3f dac8 f23f
000000d0: 6ea8 aa3f 1da6 8c3f 5e47 873f 57ea 8f3f
000000e0: 4a3b d63f 6555 5d3f 2118 943f b5ad d03f
000000f0: 2fa1 cd3f c6de 933f 4657 733f 12e1 653f
00000100: 57e1 8f3f ea04 853f d1dd b43f b69c 833f
00000110: 30c0 8d3f 5ac1 5a3f 3108 a83f 87d7 8e3f
00000120: e067 0740 4cf5 d43f e62b 733f 0c8e 933f
00000130: 2c22 b13f a681 3d3f 69dd dc3f afda aa3f
00000140: 8432 c23f dfc2 963f 1fd1 6d3f 3882 693f
00000150: 4e87 a13f 6b2a a23f 844b b73f 9a2f 8f3f
00000160: f85f 5e3f 5094 893f c98f 033f b1a1 863f
00000170: 1680 c83f 3462 c43f 411d 763f 4db9 aa3f
00000180: f4b0 b53f 88c9 9e3f 9bfc ba3f a451 4e3f
00000190: f69b 5f3f 7feb 963f d430 8e3f 741e 923f
000001a0: e8d0 9e3f 8d1f c23f 4a55 8b3f 2e9a e03f
000001b0: 107e 953f 8b39 9f3f 4692 a13f 12a6 833f
000001c0: 2d4b 953f 5c75 633f fe42 8f3f 707c 9a3f
000001d0: 751e e83f b81c a03f 483a 953f 0349 9f3f
000001e0: c75b 9d3f 35e6 c03f 23a4 923f 2a79 a93f
000001f0: f3f3 cc3f e662 853f 4416 8b3f 2239 973f
2.0735872 1.2354553 1.3351085 0.9443565 1.6923825 0.8516893 1.7708678 1.1745085
1.1372845 1.0944436 1.4907022 1.2431917 1.825219 1.2373481 0.7918683 1.2228401
0.9290825 0.98866147 1.3256649 0.9755745 1.0002674 1.4715493 1.1113598 0.14426562
1.1211857 0.79732585 1.189356 1.468534 1.19041 1.5472296 1.2699292 0.7924117
1.2948719 1.3293879 1.1104498 1.1395683 1.0648484 1.4470026 1.0534157 1.0193915
1.3101393 0.9782408 0.7741297 0.8143324 1.1534374 0.862084 0.80319214 1.081924
0.98914886 0.97552633 1.5812889 1.8967545 1.3332651 1.0988194 1.0568655 1.124339
1.6736844 0.86458427 1.1569864 1.6303011 1.6064814 1.155236 0.95055044 0.89796555
1.1240643 1.0392125 1.4130193 1.0282199 1.1074276 0.8545128 1.31275 1.1159524
2.115715 1.6637359 0.9498886 1.1527724 1.3838553 0.7402595 1.7255069 1.3347987
1.5171666 1.177822 0.9289722 0.91214323 1.2619417 1.2669195 1.431992 1.1186402
0.86865187 1.0748386 0.51391274 1.0518094 1.5664089 1.5342469 0.9613839 1.3337799
1.4194627 1.2405252 1.4608339 0.80593324 0.8734735 1.1790618 1.1108651 1.1415544
1.2407503 1.5165879 1.0885403 1.7547052 1.1679096 1.2439436 1.2622764 1.0285056
1.1663567 0.8885095 1.1192319 1.2069225 1.8134295 1.2508764 1.1658411 1.2444156
1.2293633 1.5070254 1.145634 1.3240101 1.6011947 1.0420806 1.086617 1.181431

actor_fc_layers.blocks.0.block.1.bias f4 [128]
00000000: aaf0 80bd 8868 82be 25d0 1bbe 41c0 eabd
00000010: 153c 193d 9255 ee3d 7e93 93be cdcf 863d
00000020: 6f74 2f3f e47e f13d ac84 e33d 4c52 56be
00000030: 908d 843d bfcb abbe 53ac ca3e 8131 1bbf
00000040: c890 28bd 75e1 e23e 4345 c13c d3cb f8be
00000050: 5658 95be b323 56bc 291a 1bbf c7db 7f3f
00000060: 722c cbbe db23 8c3e 0e93 20bf 9241 90bd
00000070: a1b2 e9be 7bf4 ebbe 11f4 1dbf 0cf1 5dbf
00000080: 72a1 343c 9ebc 2abe a663 47bf 7245 fbbe
00000090: 7b4f e63e 5462 813e 3f80 50bf 05d1 76bc
000000a0: 8229 cdbe d46c 14bf 55d2 54be 0324 f43d
000000b0: f3ab 94be f2d3 153f 2091 2a3f f626 d4be
000000c0: 4a84 b13e 8bc6 5b3e 680b d2be 5c09 a03d
000000d0: acad f2bd 0a71 2ebe 5dbc 88be 30f0 16bf
000000e0: 3539 1fbe ac1c 1abf ccdd 25bf 68a8 abbd
000000f0: 1e52 12be f33d 853e ca4d e6bd fd1e 59bf
00000100: 5e22 dbbe c092 79bb 42ff a8bd cfa1 ad3d
00000110: ea95 4cbe 5053 e83d b6b3 8ebe 340b 7ebe
00000120: bcf8 aa3e 2115 fd3c 8e1c 0c3f aa9c 0cbf
00000130: c1fb 47be 1b5f 7b3f f334 ac3e 51e2 82be
00000140: cd3a c7bd 02be 5cbf 421a c9be ec3a 2bbf
00000150: e174 ffbc a31f 163e ee4d d5bd 1ff8 ccbe
00000160: aa66 89be 2df1 733e 980f be3e 9761 05bf
00000170: 24bc b1be 581d 443e 65d0 05be cd66 a6be
00000180: 9000 febd 53f0 17bf d24a a2bd 91a4 64bf
00000190: 4ef9 a23e c054 c5be 0807 cebe ebac 86be
000001a0: e6de 12bf 4097 53bd be13 abbe 05d0 013d
000001b0: ca7c 0ebe 3624 723e 2a06 a8bd c47e 41be
000001c0: 75bf 41be 2daf 383f ce6a f73d 81bd 09be
000001d0: 5981 8c3e c515 debe 4667 843e 158c 7dbe
000001e0: 4aae 8fbe 71f1 83be db04 14bf 326f 5d3d
000001f0: 5371 6d3e 16d8 73bc 563c b6be 1033 f9be
-0.06295903 -0.25470376 -0.1521612 -0.11462451 0.037410814 0.11637415 -0.28823465 0.065826036
0.6853704 0.117917806 0.111092895 -0.20929831 0.064723134 -0.33553883 0.39584598 -0.6062241
-0.0411537 0.44312635 0.023592597 -0.48593006 -0.29168957 -0.013070035 -0.6058679 0.9994473
-0.39682347 0.27371106 -0.6272439 -0.070437565 -0.45644096 -0.4608496 -0.6170054 -0.86695933
0.01102482 -0.16673514 -0.77886426 -0.4907642 0.44982514 0.2527033 -0.8144569 -0.015064483
-0.4007073 -0.5797856 -0.2078336 0.11920931 -0.29037437 0.5852653 0.66627693 -0.41435975
0.3467124 0.21462457 -0.41024327 0.07814285 -0.118495315 -0.17035308 -0.2670621 -0.5896025
-0.15549167 -0.602 -0.6479156 -0.0838173 -0.14289138 0.26023826 -0.11245306 -0.8481291
-0.42799658 -0.0038081855 -0.082518116 0.08478128 -0.19979063 0.113440156 -0.27871484 -0.24808961
0.33392894 0.030893864 0.5473107 -0.5492655 -0.1952963 0.98191994 0.33634147 -0.2556329
-0.09728012 -0.8622743 -0.39277846 -0.6688678 -0.031183662 0.14660506 -0.104152545 -0.4003305
-0.2683614 0.2382247 0.37121272 -0.52102035 -0.34713852 0.19151819 -0.13067777 -0.32500306
-0.12402451 -0.5935108 -0.07924427 -0.8931361 0.3183083 -0.38541222 -0.4023974 -0.263038
-0.57371366 -0.051657915 -0.334135 0.031692524 -0.13914791 0.23646626 -0.08204301 -0.18896013
-0.18920691 0.721423 0.12080918 -0.13451196 0.27442434 -0.43375984 0.2586004 -0.24760468
-0.2806266 -0.25770143 -0.5781991 0.054061122 0.23187761 -0.014883062 -0.35592908 -0.4867177

actor_fc_layers.blocks.0.block.1.running_mean f4 [128]
00000000: 0000 0000 0000 0000 0000 0000 0000 0000
00000010: 0000 0000 0000 0000 0000 0000 0000 0000
00000020: 0000 0000 0000 0000 0000 0000 0000 0000
00000030: 0000 0000 0000 0000 0000 0000 0000 0000
00000040: 0000 0000 0000 0000 0000 0000 0000 0000
00000050: 0000 0000 0000 0000 0000 0000 0000 0000
00000060: 0000 0000 0000 0000 0000 0000 0000 0000
00000070: 0000 0000 0000 0000 0000 0000 0000 0000
00000080: 0000 0000 0000 0000 0000 0000 0000 0000
00000090: 0000 0000 0000 0000 0000 0000 0000 0000
000000a0: 0000 0000 0000 0000 0000 0000 0000 0000
000000b0: 0000 0000 0000 0000 0000 0000 0000 0000
000000c0: 0000 0000 0000 0000 0000 0000 0000 0000
000000d0: 0000 0000 0000 0000 0000 0000 0000 0000
000000e0: 0000 0000 0000 0000 0000 0000 0000 0000
000000f0: 0000 0000 0000 0000 0000 0000 0000 0000
00000100: 0000 0000 0000 0000 0000 0000 0000 0000
00000110: 0000 0000 0000 0000 0000 0000 0000 0000
00000120: 0000 0000 0000 0000 0000 0000 0000 0000
00000130: 0000 0000 0000 0000 0000 0000 0000 0000
00000140: 0000 0000 0000 0000 0000 0000 0000 0000
00000150: 0000 0000 0000 0000 0000 0000 0000 0000
00000160: 0000 0000 0000 0000 0000 0000 0000 0000
00000170: 0000 0000 0000 0000 0000 0000 0000 0000
00000180: 0000 0000 0000 0000 0000 0000 0000 0000
00000190: 0000 0000 0000 0000 0000 0000 0000 0000
000001a0: 0000 0000 0000 0000 0000 0000 0000 0000
000001b0: 0000 0000 0000 0000 0000 0000 0000 0000
000001c0: 0000 0000 0000 0000 0000 0000 0000 0000
000001d0: 0000 0000 0000 0000 0000 0000 0000 0000
000001e0: 0000 0000 0000 0000 0000 0000 0000 0000
000001f0: 0000 0000 0000 0000 0000 0000 0000 0000
0.0 0.0 0.0 0.0 0.0 0.0 0.0 0.0
0.0 0.0 0.0 0.0 0.0 0.0 0.0 0.0
0.0 0.0 0.0 0.0 0.0 0.0 0.0 0.0
0.0 0.0 0.0 0.0 0.0 0.0 0.0 0.0
0.0 0.0 0.0 0.0 0.0 0.0 0.0 0.0
0.0 0.0 0.0 0.0 0.0 0.0 0.0 0.0
0.0 0.0 0.0 0.0 0.0 0.0 0.0 0.0
0.0 0.0 0.0 0.0 0.0 0.0 0.0 0.0
0.0 0.0 0.0 0.0 0.0 0.0 0.0 0.0
0.0 0.0 0.0 0.0 0.0 0.0 0.0 0.0
0.0 0.0 0.0 0.0 0.0 0.0 0.0 0.0
0.0 0.0 0.0 0.0 0.0 0.0 0.0 0.0
0.0 0.0 0.0 0.0 0.0 0.0 0.0 0.0
0.0 0.0 0.0 0.0 0.0 0.0 0.0 0.0
0.0 0.0 0.0 0.0 0.0 0.0 0.0 0.0
0.0 0.0 0.0 0.0 0.0 0.0 0.0 0.0

actor_fc_layers.blocks.0.block.1.running_var f4 [128]
00000000: 0000 803f 0000 803f 0000 803f 0000 803f
00000010: 0000 803f 0000 803f 0000 803f 0000 803f
00000020: 0000 803f 0000 803f 0000 803f 0000 803f
00000030: 0000 803f 0000 803f 0000 803f 0000 803f
00000040: 0000 803f 0000 803f 0000 803f 0000 803f
00000050: 0000 803f 0000 803f 0000 803f 0000 803f
00000060: 0000 803f 0000 803f 0000 803f 0000 803f
00000070: 0000 803f 0000 803f 0000 803f 0000 803f
00000080: 0000 803f 0000 803f 0000 803f 0000 803f
00000090: 0000 803f 0000 803f 0000 803f 0000 803f
000000a0: 0000 803f 0000 803f 0000 803f 0000 803f
000000b0: 0000 803f 0000 803f 0000 803f 0000 803f
000000c0: 0000 803f 0000 803f 0000 803f 0000 803f
000000d0: 0000 803f 0000 803f 0000 803f 0000 803f
000000e0: 0000 803f 0000 803f 0000 803f 0000 803f
000000f0: 0000 803f 0000 803f 0000 803f 0000 803f
00000100: 0000 803f 0000 803f 0000 803f 0000 803f
00000110: 0000 803f 0000 803f 0000 803f 0000 803f
00000120: 0000 803f 0000 803f 0000 803f 0000 803f
00000130: 0000 803f 0000 803f 0000 803f 0000 803f
00000140: 0000 803f 0000 803f 0000 803f 0000 803f
00000150: 0000 803f 0000 803f 0000 803f 0000 803f
00000160: 0000 803f 0000 803f 0000 803f 0000 803f
00000170: 0000 803f 0000 803f 0000 803f 0000 803f
00000180: 0000 803f 0000 803f 0000 803f 0000 803f
00000190: 0000 803f 0000 803f 0000 803f 0000 803f
000001a0: 0000 803f 0000 803f 0000 803f 0000 803f
000001b0: 0000 803f 0000 803f 0000 803f 0000 803f
000001c0: 0000 803f 0000 803f 0000 803f 0000 803f
000001d0: 0000 803f 0000 803f 0000 803f 0000 803f
000001e0: 0000 803f 0000 803f 0000 803f 0000 803f
000001f0: 0000 803f 0000 803f 0000 803f 0000 803f
1.0 1.0 1.0 1.0 1.0 1.0 1.0 1.0
1.0 1.0 1.0 1.0 1.0 1.0 1.0 1.0
1.0 1.0 1.0 1.0 1.0 1.0 1.0 1.0
1.0 1.0 1.0 1.0 1.0 1.0 1.0 1.0
1.0 1.0 1.0 1.0 1.0 1.0 1.0 1.0
1.0 1.0 1.0 1.0 1.0 1.0 1.0 1.0
1.0 1.0 1.0 1.0 1.0 1.0 1.0 1.0
1.0 1.0 1.0 1.0 1.0 1.0 1.0 1.0
1.0 1.0 1.0 1.0 1.0 1.0 1.0 1.0
1.0 1.0 1.0 1.0 1.0 1.0 1.0 1.0
1.0 1.0 1.0 1.0 1.0 1.0 1.0 1.0
1.0 1.0 1.0 1.0 1.0 1.0 1.0 1.0
1.0 1.0 1.0 1.0 1.0 1.0 1.0 1.0
1.0 1.0 1.0 1.0 1.0 1.0 1.0 1.0
1.0 1.0 1.0 1.0 1.0 1.0 1.0 1.0
1.0 1.0 1.0 1.0 1.0 1.0 1.0 1.0

actor_fc_layers.blocks.1.block.0.weight f4 [128, 128]
00000000: 8804 ef3c ae7f 66bd ef16 05bc 14a2 633c
00000010: 96a6 b5bc fe9a 823c b442 50bd 57bc 81bc
00000020: 2be1 5c3c 8e49 bbbd 93dc 133d 124c b7bd
00000030: 0b91 943c 87ad 573b ec66 273a 51b2 e7bc
00000040: fc0e dfbd f1c1 e7bc bc64 d8bd 0dad 60bd
00000050: f698 3dbd a5f5 e6ba 30ff 223d ef1e 0cbd
00000060: d625 ffbd d16e ecbd 52e7 33bd 8c08 98bd
00000070: 3872 aa3c 9f58 983b 1e3f 3dbd 03d2 08bd
00000080: 1c03 15bc 0089 debd 9f3b 88bb 25b2 abbc
00000090: a303 143c 9f4c c1bc c879 80bb 2054 dfbd
000000a0: 7ced 15be 836a 933c 19cf b33c bdd9 6abd
000000b0: 274e 44bd be00 31bd 2f87 dd3c d9d4 313d
000000c0: 1c2e 92bd 4811 17bd ec32 dfb8 847c 90bd
000000d0: 6b2a 963b a675 33bd a987 e2bc 5d85 aabd
000000e0: fc79 e23b 1635 b1bd c3af 953c 2066 1cbd
000000f0: 263e 76bc 273f 533c 79a8 fb3b 0223 083d
00000100: 8753 cdbb 5081 eb3c bfe4 163d d0bf ab3c
00000110: 0f80 4dbd a2e0 843c f5c8 753c 32df b8bb
00000120: 25e9 66bd e4a5 6c3b f953 eebc 5673 00bb
00000130: 9407 d1bd adfe aebd 15be 2fbd 9c43 1dbd
00000140: 9ddc 69bd b591 a0bd 90cb 283c fa25 7ebd
00000150: 2e92 bebd 4d88 a3bd db7c 08be 8e8e 7cbd
00000160: f554 27be 0700 c4bb b073 1abd 91b3 6cbc
00000170: 8df3 a7bc 00da ddbc 4bbe 9a3b d4bd ee3c
00000180: edee 3a3d 42cc f1bc 36a5 fcbd 2099 a03c
00000190: 9902 61bc 2ed0 bcbb 836c 82bd 2724 4bbd
000001a0: 635f 0cbc 84ce 93bd ea9d 00be a6fe b1bd
000001b0: ff62 dc3c 6a6d b6bd 8c33 ee3c aaef 32bc
000001c0: deff 123c e799 c7bb 6baf 1d3c 485e 9fbd
000001d0: 2600 38bd 43e6 cebd d770 183d 344f 10bd
000001e0: 6f8d 9d38 7497 9ebd f06a 90bd 10b1 e23c
000001f0: d621 083d 0ae7 f5bd e5a0 f13c 86a9 473c
00000200: 1c85 88be be2b 95be 8701 3dbe ff3b a73e
00000210: e8db 103f 769d 103f b385 7e3e 5ed4 753e
00000220: 5802 42bc 6518 423e d3e1 ad3e df0f d0be
00000230: 0de7 9cbe 3c0e b2be 9a56 d53d 1158 33bc
00000240: bc6e 693d 4d68 89ba d0f6 80bd 14e5 3bbf
00000250: 5f1c 27be 8c7d 603e ff76 3abe 1b87 e8be
00000260: cbbf b03c 1a4b 43be d035 363e 6343 c23e
00000270: 6de6 32be 229c f43e 6498 13bd b43c 81bd
00000280: 2dc1 9cbe 9240 29bc 3a50 bf3d d38b bf3e
00000290: 5ff7 9bbe e0c8 9abd f5ea 843e f4c4 dbbe
000002a0: 64bf d9bc a211 5a3e 5999 8ebe 2179 953e
000002b0: b058 dabe c4df 803c b421 44bf 1476 8f3e
000002c0: 2509 303f e8f4 6ebf 966f 853e 657f 203f
000002d0: 0ee0 823e 0736 b3be 6964 763f c8ad c33e
000002e0: eb6b 0abf 8d92 aa3e dd79 8bbe c642 a8bd
000002f0: 5fa7 f63d 0233 74be 9c8c 823e 93b6 223f
00000300: 5964 933e 2dc2 d4be 3a41 da3e c0b7 59be
00000310: 59c1 3d3e 1487 183e ccb4 593f 1e1c d5bc
00000320: b030 303e 1e69 b8be 5057 91be 0470 e6bc
00000330: 7e2c ac3e cf27 1ebf e066 96be 8a34 f13e
00000340: c6ac 6cbe 2e4c 993e 8859 b6be 14ab acbe
00000350: 3d49 2b3f ce39 16be f873 183e 4480 f33d
00000360: 2e93 8a3d 84a5 413e ae65 72bd 783b 74be
00000370: d46c a23e ff74 4b3f 6ef2 20be 0e6b 01be
00000380: 2d19 27be 4d1e 033f 6e3f bd3e 1beb 92bd
00000390: 3b35 ecbe 04e7 dcbe aa37 b9be 8b82 d13d
000003a0: 64d3 f7bd f891 2fbe 15b8 8e3e 4b09 363e
000003b0: b199 03bf 220d 7abf 7697 ddbd 4823 903e
000003c0: d723 33bf 5932 c2be 6e1e 613e a447 6ebe
000003d0: 1151 453d 5ea2 5bbf 78b3 bfbd 3d8f 06be
000003e0: 9942 463e 0b6b d23e 85bd c53e 3492 e9be
000003f0: 4bb8 9b3e cee4 2d3f 5c21 7cbf 0bc6 d63e
0.029176965 -0.05627411 -0.008123144 0.013893623 -0.02217416 0.015943047 -0.050844863 -0.015836878
0.013481419 -0.09144889 0.036099028 -0.08950056 0.018135568 0.0032909827 0.0006385881 -0.02828327
-0.1089153 -0.02829072 -0.105660886 -0.054852534 -0.046288453 -0.0017620815 0.039794147 -0.034209188
-0.124583885 -0.11544574 -0.043921776 -0.07423505 0.020806417 0.0046492363 -0.04620277 -0.033403408
-0.00909498 -0.108659744 -0.004157498 -0.02095897 0.00903407 -0.023596106 -0.0039207675 -0.109047174
-0.14641374 0.017995125 0.021949338 -0.057336558 -0.047926094 -0.0432136 0.027042 0.043415878
-0.07137701 -0.036881715 -0.000106429536 -0.070549995 0.0045826933 -0.04381337 -0.027652578 -0.08326218
0.0069115143 -0.086527035 0.018272286 -0.03818333 -0.015029466 0.012893475 0.0076799956 0.03323651
-0.0062660608 0.028748184 0.036839243 0.020965487 -0.050170954 0.016220395 0.015001525 -0.0056418413
-0.056374688 0.003610962 -0.029092776 -0.0019599996 -0.102065235 -0.08544669 -0.042905886 -0.038394555
-0.05709516 -0.078402914 0.010302439 -0.062047936 -0.09305225 -0.07984982 -0.13328879 -0.06165939
-0.16341002 -0.0059814486 -0.037707984 -0.014447109 -0.020501876 -0.02708149 0.0047223917 0.029143251
0.045638014 -0.029516343 -0.12336199 0.019604266 -0.0137335295 -0.0057621216 -0.06368353 -0.049595024
-0.008567664 -0.07217124 -0.1256024 -0.086911485 0.026902674 -0.08907588 0.029077314 -0.010921398
0.008972136 -0.0060913446 0.009624342 -0.077816546 -0.044922017 -0.10102513 0.037216987 -0.035231784
7.5126874e-05 -0.07743731 -0.07051647 0.02767232 0.033235393 -0.12006958 0.029495666 0.012186414
-0.26664054 -0.29134935 -0.18457614 0.3266296 0.5658555 0.56490266 0.2485569 0.24006793
-0.011841379 0.18954618 0.33961353 -0.4063711 -0.30645028 -0.34776485 0.104169086 -0.01094629
0.05699037 -0.0010483355 -0.06297076 -0.7339642 -0.16319416 0.21922892 -0.18209456 -0.45415577
0.021575829 -0.19071618 0.17793965 0.37942037 -0.17470713 0.4777537 -0.036034003 -0.06310406
-0.3061613 -0.010330336 0.09341474 0.37411365 -0.30462167 -0.07557845 0.25960508 -0.429237
-0.02658052 0.21295789 -0.2785137 0.29193977 -0.42645788 0.0157317 -0.76613927 0.28019774
0.68763953 -0.9334245 0.26061696 0.6269439 0.25561565 -0.35002157 0.96246964 0.38218522
-0.5407092 0.33314934 -0.27241412 -0.08215861 0.12043642 -0.23847583 0.254979 0.63559836
0.28787497 -0.41554394 0.4262789 -0.21261501 0.18530788 0.14895278 0.850415 -0.026014384
0.17206073 -0.36017698 -0.28386927 -0.028129585 0.33627695 -0.61779493 -0.29375362 0.47110397
-0.23112783 0.29940933 -0.35615182 -0.33724272 0.6690863 -0.14670488 0.14887989 0.11889699
0.067663535 0.18910795 -0.059179 -0.2385081 0.31723654 0.79475397 -0.1571748 -0.12638494
-0.16318198 0.5121811 0.36962456 -0.07173749 -0.46134362 -0.43145 -0.3617528 0.10229977
-0.121008664 -0.17145526 0.27874818 0.17776982 -0.5140639 -0.9767629 -0.108199045 0.28151917
-0.6997656 -0.37929037 0.21984264 -0.23269516 0.048173014 -0.8579463 -0.09360403 -0.13140579
0.19361342 0.41097292 0.38621154 -0.45619357 0.30414042 0.67927253 -0.984884 0.4194797

actor_fc_layers.blocks.1.block.1.weight f4 [128]
00000000: cd54 763f 7f71 d63f 6ab0 d73f 34f0 0440
00000010: 3f10 b43f a5fa a63f 8f46 e83f 9a96 a33f
00000020: c79c 0040 14c6 e93f 1b7e 1e40 214e 793f
00000030: 5ed7 b63f f783 d63f ce6d cf3f 2e3f 8c3f
00000040: 4d36 c33f 4228 ec3f 71de 753f 7513 743f
00000050: 70d9 a13f 754b a33f 8633 0a40 44e3 bf3f
00000060: b277 ec3f f2be cf3f 121b c53f 4d24 ae3f
00000070: cf12 aa3f 0c19 b73f d8df d83f 8faa 8b3f
00000080: 75a8 703f e71b 703f d5d8 763f 419d a03f
00000090: 399b bd3f 190f 7a3f 7d1b 783f 20a5 ba3f
000000a0: a933 b43f de18 f73f ca24 cd3f 7887 b33f
000000b0: 222c 903f 2d9d 783f 4dce b23f 55e0 bb3f
000000c0: 6b54 a43f 2589 763f 4db8 743f d080 0c40
000000d0: 2d23 dd3f 7c50 0740 bd00 b33f ec12 a53f
000000e0: e0ba 0640 729f d03f 845b 9a3f da77 da3f
000000f0: fe4b c23f e54b 7b3f a68a 903f 979d 9c3f
00000100: 3d3a 953f 734b d03f 6a0f e43f 8d68 b93f
00000110: 13a8 fb3f 86ae d83f 01f4 7a3f b747 d03f
00000120: 3b17 713f f507 783f b87f aa3f 59d8 7f3f
00000130: 8cf5 6f3f 35dc 773f 2bbc 9e3f 792b 7b3f
00000140: 611d 853f f028 9e3f 9962 f03f d55a a43f
00000150: 10a0 a63f 435c 0340 f6c8 b93f 8d90 c43f
00000160: d0ce 953f cf31 da3f 540d 973f 5430 cc3f
00000170: 3c75 bc3f 4310 b53f 5d87 ad3f 023d b63f
00000180: f111 e93f 3bd5 f93f 9a64 8b3f c18f b03f
00000190: 68ff cb3f 76f8 bd3f 678f ca3f 42be c43f
000001a0: 7878 ae3f 3b0e f43f 9026 8b3f 31b3 d73f
000001b0: 4427 b93f 843a bf3f 1479 f03f a59e fb3f
000001c0: d334 c53f e670 773f 9a56 cb3f b1c3 a63f
000001d0: 2780 9d3f 6d99 f03f c54d df3f 99ee b83f
000001e0: 846b ed3f e2b3 ae3f 11d5 f73f 6035 dd3f
000001f0: 22bf 913f 9686 e63f b5ef 7a3f c73e b33f
0.96223146 1.6753386 1.6850712 2.0771608 1.4067458 1.3045241 1.8146533 1.2780335
2.009569 1.8263574 2.4764469 0.9738484 1.4284475 1.6759022 1.6205385 1.0956781
1.5250946 1.8449786 0.96042544 0.9534219 1.2644482 1.2757403 2.1593947 1.4991231
1.8474028 1.6230147 1.5398886 1.3604828 1.328699 1.4304519 1.6943312 1.0911425
0.94007045 0.93792576 0.9642461 1.254799 1.4812995 0.9767929 0.96916944 1.4581642
1.4078265 1.9304464 1.6026852 1.4025717 1.1263468 0.9711483 1.3969208 1.4677836
1.2838262 0.96303016 0.9559372 2.195362 1.727636 2.1142874 1.39846 1.28964
2.105156 1.6298659 1.2059178 1.7067826 1.5179441 0.9816268 1.1292312 1.2235593
1.1658398 1.6273025 1.7817204 1.4485031 1.9660667 1.692826 0.9802857 1.6271886
0.9417607 0.9688714 1.3320227 0.99939495 0.9373405 0.96820384 1.2401174 0.9811321
1.0399591 1.2356243 1.878009 1.284022 1.3017597 2.0525062 1.4514453 1.5356613
1.1703739 1.704645 1.1800942 1.5952249 1.4723277 1.4145588 1.3556935 1.4237368
1.82086 1.9518198 1.0890076 1.379387 1.5937319 1.4841449 1.5825013 1.5370562
1.3630514 1.9066843 1.0871143 1.685156 1.4465108 1.4939733 1.878695 1.965779
1.5406746 0.96656644 1.5885804 1.302847 1.2304734 1.8796822 1.7445608 1.4447814
1.8548436 1.3648646 1.9361898 1.7281914 1.1386454 1.8009822 0.98022014 1.4003533

actor_fc_layers.blocks.1.block.1.bias f4 [128]
00000000: b4ee 5dbd b445 e1be e53a 66be b582 babd
00000010: c833 5c3e d229 213d 2195 613e ba68 67bc
00000020: 5450 ffbd 48d9 2abf 1461 6cbf 9565 2bbd
00000030: 3285 453e 4f81 9dbe f4ac 50be 467f 0b3f
00000040: 4112 73bc 8588 4cbe 17b0 42bd 8b92 81bd
00000050: 76c3 b8bd 67ff a83d e7dc ebbc b86a 23be
00000060: 2ce5 d8bc 5af9 91be efd4 cabd 12b7 643e
00000070: 839c 283f d45a e4bb c885 4fbc 8b91 cd3e
00000080: e0ca 9fbd d85a 2c3b e2db 71bd 798e aa3c
00000090: c70f 8d3e 5a83 00bd e7cd 4fbd a6f1 22ba
000000a0: e888 85bd 8322 9fbd a664 053e 9e20 743c
000000b0: 14e7 2a3c 32a0 76bd cb24 1abe 151b adbd
000000c0: afb5 aebe 92e3 3dbd e2fa 80bd 2e5e 9b3f
000000d0: 3971 b33d 2f85 35bf 0fd0 28be 1b96 79bd
000000e0: 73e0 c13e fc64 54be e56e 003f 7a06 23bd
000000f0: a0dc 76be d78a 03bd 100d afbe 7724 46be
00000100: abbe 7e3e b91f 35be 2eba 093d 4f30 a5bd
00000110: 8448 80bc 9d8f 1ebf 281c 1dbd 85d5 28be
00000120: 01f9 373f 0800 1dbd dd18 d9bc 18a7 50bd
00000130: 5116 68bd 3079 17bd 60cf 58be 0ea6 f6bc
00000140: b76b 19bd 6f17 373f d7b6 803e aa22 113e
00000150: 030c 68bd 4a39 57bd 39c6 36be 5fe0 743e
00000160: 3548 8dbe e194 20be 8cd3 f53e e036 06bf
00000170: afd5 193f 8dc1 8dbd 612a ebbe 83eb 8d3c
00000180: f60c 42be a3d1 24be 6d98 a5bd 9794 f53e
00000190: f1e5 183f 8346 8dbe bf4a 18bf e666 98be
000001a0: 31c5 b4bd 28c4 56be e998 173e fc9f 60be
000001b0: d941 7dbd 5961 c9be 3629 153d 8dea 55bc
000001c0: 172f 3d3e 9591 583f 8d84 9abd 7290 dabe
000001d0: a04d debd 2192 aa3f 1739 95be 5873 a93d
000001e0: 406e 9c3c fb73 ddbd 36f9 33bd 8e74 dbbe
000001f0: 18b7 843e 5f27 85be cb7a 06bd 66c6 013f
-0.054182723 -0.43998492 -0.22483404 -0.09106962 0.21504128 0.039346524 0.22029544 -0.01412409
-0.12466493 -0.66737795 -0.9233563 -0.041844923 0.19289091 -0.30762717 -0.20378476 0.5449108
-0.014835895 -0.19973953 -0.047531214 -0.06326779 -0.09021656 0.08251839 -0.028791858 -0.15958679
-0.026476465 -0.28510553 -0.09903895 0.22335461 0.6586382 -0.0069688354 -0.012666173 0.40150103
-0.07802367 0.0026299264 -0.059047587 0.02081989 0.275511 -0.031375267 -0.050733473 -0.0006215818
-0.065202534 -0.077702545 0.13026676 0.014900355 0.01043107 -0.060211368 -0.15053098 -0.08452431
-0.3412299 -0.046359606 -0.06297852 1.2138116 0.0876183 -0.7090635 -0.16485618 -0.060934167
0.37866554 -0.20741647 0.5016921 -0.0398011 -0.241076 -0.03211483 -0.34189653 -0.19349848
0.24877422 -0.17687882 0.03362482 -0.08065855 -0.015659578 -0.61937886 -0.03835693 -0.16487701
0.71864325 -0.038330108 -0.026501114 -0.050940603 -0.056661908 -0.036980808 -0.21172857 -0.030108478
-0.03745624 0.7152013 0.25139496 0.1417338 -0.05665208 -0.05254487 -0.17849053 0.23913716
-0.27594152 -0.15681793 0.4801296 -0.5242748 0.6009168 -0.069216825 -0.4593077 0.017324215
-0.18950257 -0.16095595 -0.080857135 0.47964928 0.5972586 -0.2759286 -0.59489053 -0.29766005
-0.08826674 -0.20973265 0.14804424 -0.21936029 -0.061830375 -0.39332083 0.036416255 -0.01305641
0.18474995 0.8459714 -0.07544813 -0.42688328 -0.108546495 1.3325845 -0.2914512 0.08273953
0.01909554 -0.10813137 -0.043938838 -0.42862362 0.2592094 -0.260066 -0.03283195 0.50693357

actor_fc_layers.blocks.1.block.1.running_mean f4 [128]
00000000: 0000 0000 0000 0000 0000 0000 0000 0000
00000010: 0000 0000 0000 0000 0000 0000 0000 0000
00000020: 0000 0000 0000 0000 0000 0000 0000 0000
00000030: 0000 0000 0000 0000 0000 0000 0000 0000
00000040: 0000 0000 0000 0000 0000 0000 0000 0000
00000050: 0000 0000 0000 0000 0000 0000 0000 0000
00000060: 0000 0000 0000 0000 0000 0000 0000 0000
00000070: 0000 0000 0000 0000 0000 0000 0000 0000
00000080: 0000 0000 0000 0000 0000 0000 0000 0000
00000090: 0000 0000 0000 0000 0000 0000 0000 0000
000000a0: 0000 0000 0000 0000 0000 0000 0000 0000
000000b0: 0000 0000 0000 0000 0000 0000 0000 0000
000000c0: 0000 0000 0000 0000 0000 0000 0000 0000
000000d0: 0000 0000 0000 0000 0000 0000 0000 0000
000000e0: 0000 0000 0000 0000 0000 0000 0000 0000
000000f0: 0000 0000 0000 0000 0000 0000 0000 0000
00000100: 0000 0000 0000 0000 0000 0000 0000 0000
00000110: 0000 0000 0000 0000 0000 0000 0000 0000
00000120: 0000 0000 0000 0000 0000 0000 0000 0000
00000130: 0000 0000 0000 0000 0000 0000 0000 0000
00000140: 0000 0000 0000 0000 0000 0000 0000 0000
00000150: 0000 0000 0000 0000 0000 0000 0000 0000
00000160: 0000 0000 0000 0000 0000 0000 0000 0000
00000170: 0000 0000 0000 0000 0000 0000 0000 0000
00000180: 0000 0000 0000 0000 0000 0000 0000 0000
00000190: 0000 0000 0000 0000 0000 0000 0000 0000
000001a0: 0000 0000 0000 0000 0000 0000 0000 0000
000001b0: 0000 0000 0000 0000 0000 0000 0000 0000
000001c0: 0000 0000 0000 0000 0000 0000 0000 0000
000001d0: 0000 0000 0000 0000 0000 0000 0000 0000
000001e0: 0000 0000 0000 0000 0000 0000 0000 0000
000001f0: 0000 0000 0000 0000 0000 0000 0000 0000
0.0 0.0 0.0 0.0 0.0 0.0 0.0 0.0
0.0 0.0 0.0 0.0 0.0 0.0 0.0 0.0
0.0 0.0 0.0 0.0 0.0 0.0 0.0 0.0
0.0 0.0 0.0 0.0 0.0 0.0 0.0 0.0
0.0 0.0 0.0 0.0 0.0 0.0 0.0 0.0
0.0 0.0 0.0 0.0 0.0 0.0 0.0 0.0
0.0 0.0 0.0 0.0 0.0 0.0 0.0 0.0
0.0 0.0 0.0 0.0 0.0 0.0 0.0 0.0
0.0 0.0 0.0 0.0 0.0 0.0 0.0 0.0
0.0 0.0 0.0 0.0 0.0 0.0 0.0 0.0
0.0 0.0 0.0 0.0 0.0 0.0 0.0 0.0
0.0 0.0 0.0 0.0 0.0 0.0 0.0 0.0
0.0 0.0 0.0 0.0 0.0 0.0 0.0 0.0
0.0 0.0 0.0 0.0 0.0 0.0 0.0 0.0
0.0 0.0 0.0 0.0 0.0 0.0 0.0 0.0
0.0 0.0 0.0 0.0 0.0 0.0 0.0 0.0

actor_fc_layers.blocks.1.block.1.running_var f4 [128]
00000000: 0000 803f 0000 803f 0000 803f 0000 803f
00000010: 0000 803f 0000 803f 0000 803f 0000 803f
00000020: 0000 803f 0000 803f 0000 803f 0000 803f
00000030: 0000 803f 0000 803f 0000 803f 0000 803f
00000040: 0000 803f 0000 803f 0000 803f 0000 803f
00000050: 0000 803f 0000 803f 0000 803f 0000 803f
00000060: 0000 803f 0000 803f 0000 803f 0000 803f
00000070: 0000 803f 0000 803f 0000 803f 0000 803f
00000080: 0000 803f 0000 803f 0000 803f 0000 803f
00000090: 0000 803f 0000 803f 0000 803f 0000 803f
000000a0: 0000 803f 0000 803f 0000 803f 0000 803f
000000b0: 0000 803f 0000 803f 0000 803f 0000 803f
000000c0: 0000 803f 0000 803f 0000 803f 0000 803f
000000d0: 0000 803f 0000 803f 0000 803f 0000 803f
000000e0: 0000 803f 0000 803f 0000 803f 0000 803f
000000f0: 0000 803f 0000 803f 0000 803f 0000 803f
00000100: 0000 803f 0000 803f 0000 803f 0000 803f
00000110: 0000 803f 0000 803f 0000 803f 0000 803f
00000120: 0000 803f 0000 803f 0000 803f 0000 803f
00000130: 0000 803f 0000 803f 0000 803f 0000 803f
00000140: 0000 803f 0000 803f 0000 803f 0000 803f
00000150: 0000 803f 0000 803f 0000 803f 0000 803f
00000160: 0000 803f 0000 803f 0000 803f 0000 803f
00000170: 0000 803f 0000 803f 0000 803f 0000 803f
00000180: 0000 803f 0000 803f 0000 803f 0000 803f
00000190: 0000 803f 0000 803f 0000 803f 0000 803f
000001a0: 0000 803f 0000 803f 0000 803f 0000 803f
000001b0: 0000 803f 0000 803f 0000 803f 0000 803f
000001c0: 0000 803f 0000 803f 0000 803f 0000 803f
000001d0: 0000 803f 0000 803f 0000 803f 0000 803f
000001e0: 0000 803f 0000 803f 0000 803f 0000 803f
000001f0: 0000 803f 0000 803f 0000 803f 0000 803f
1.0 1.0 1.0 1.0 1.0 1.0 1.0 1.0
1.0 1.0 1.0 1.0 1.0 1.0 1.0 1.0
1.0 1.0 1.0 1.0 1.0 1.0 1.0 1.0
1.0 1.0 1.0 1.0 1.0 1.0 1.0 1.0
1.0 1.0 1.0 1.0 1.0 1.0 1.0 1.0
1.0 1.0 1.0 1.0 1.0 1.0 1.0 1.0
1.0 1.0 1.0 1.0 1.0 1.0 1.0 1.0
1.0 1.0 1.0 1.0 1.0 1.0 1.0 1.0
1.0 1.0 1.0 1.0 1.0 1.0 1.0 1.0
1.0 1.0 1.0 1.0 1.0 1.0 1.0 1.0
1.0 1.0 1.0 1.0 1.0 1.0 1.0 1.0
1.0 1.0 1.0 1.0 1.0 1.0 1.0 1.0
1.0 1.0 1.0 1.0 1.0 1.0 1.0 1.0
1.0 1.0 1.0 1.0 1.0 1.0 1.0 1.0
1.0 1.0 1.0 1.0 1.0 1.0 1.0 1.0
1.0 1.0 1.0 1.0 1.0 1.0 1.0 1.0

actor_fc_layers.blocks.2.block.0.weight f4 [128, 128]
00000000: 352a 2bbc e509 edbd aa89 833d 72c3 86bc
00000010: 6364 87be cab1 813b b08e a23d 0312 cfbd
00000020: 7dbb aebe 8f3e dabd 52f4 35bb 992c 333b
00000030: 2e9b 493e c45c a7bd 66a6 47be ddf8 36be
00000040: 742d dfbd adfb a2bd 7e7f 38bc 3e77 09bd
00000050: bee3 b9bd 45c0 3e3d 4cc4 d9bc 6efe 863e
00000060: 7eb9 bf3e 2918 663d d042 52bd 5b8e 1cbe
00000070: 6d2e bfbd 4314 583c 9753 87be 28da a7be
00000080: ed7f 67bd 007b 58bc 8a79 81bd 9493 dbbd
00000090: c0c0 9c3d 6a22 57bd 8297 bfbd 4262 0bbe
000000a0: 4f1c 8e3e 6ce1 1dbd eab7 0d3d db6d 97bd
000000b0: 43ef 40be 7260 8a3d c6ef 4dbd 39b4 38be
000000c0: 0ae4 42be bc5b a63b 90f1 953d ae25 8e3c
000000d0: 181f 6f3d da58 75be 1faf 94bc 58ff 6c3d
000000e0: 0789 9bbd 0812 da3c 7546 78be 7fe5 40be
000000f0: 8e32 83bd bbe8 5bbc cec2 053d 11d0 ba3d
00000100: ee2f 053e 81af 3bbe 5e02 c4bd d223 45be
00000110: 4f94 933d 3cf5 dbbd 3e69 83bd 9777 9abd
00000120: a70c 01be aeec 0a3d 102c 1bbe 7f57 07bd
00000130: 62e5 7ebd bb46 5d3d 95c1 24be 6407 633d
00000140: 7e34 f83d 0008 27be a163 2bbe f9aa ac3c
00000150: e9fd 20be 63ca 8fbd a367 143e 7851 243d
00000160: 8e60 33be 94d6 543d 12ad 84be bc0c 6fbe
00000170: c8aa e5bd 1882 52be 5296 0dbe e760 04be
00000180: 6ebb 74bd 605e 6f3d b1e8 acbd 972f cdbd
00000190: f4b4 97bd e1e5 673d 6fcb 5bbd 43a2 11bd
000001a0: 2358 08bd e3ac 96be cd24 25bd 2d9b f0bd
000001b0: e2b2 95bd 081c 503c 6810 60be ab24 18be
000001c0: 1603 4abd ce88 3e3d 286b 14be 7293 f5bd
000001d0: aa06 04bd ec28 803d a8a0 22be a33e 063e
000001e0: 9977 733d 5a75 033e 854b edbd 8497 d8be
000001f0: 624c 8bbd 5e08 03be d449 e03b 9fd5 58be
00000200: 8947 68bd 9419 27bd 8e72 8ebd 1b06 88bd
00000210: 7e9e b7bc 0155 2fbd eda9 a0be a305 9cbe
00000220: fb92 89bd 8cc9 2e3e 4279 83be 655b ca3c
00000230: 32e4 73bc 5245 b5bb 35b2 3ebe ed6a f7bd
00000240: 1931 ec3c 455b 61bc 1508 acbc c409 87b9
00000250: 0b74 84be 2a23 b9bd 744c 9e3c a307 0b3e
00000260: 1d44 383e 36f7 7fbe efa9 12be 230e 0cbe
00000270: ff7d cbbe 2401 e33d 2703 9d3d d1db 37bd
00000280: 6f49 07bd 1103 ff3d 180d 59bc 5425 e43d
00000290: ff74 99be df93 4bbc a82b 69bd 70ea 9abd
000002a0: a9b6 2fbe 16fd 8a3b b850 613d af8d 1e3e
000002b0: 56e3 873e d4f0 59bc a912 29bd 6a5b f9bb
000002c0: 7fc0 02bd 3182 3bbb 0e2f 4e3d 65fb a4bc
000002d0: 68a6 a03d f8de 1bbe 5055 51be 1cec 5cbc
000002e0: 6019 553d 5d83 3bbe 0e0c ffbd 8ccf 6dbd
000002f0: f312 c0bd fa34 483d 24fc a73d a388 823d
00000300: e3d3 43be 569a b6bd 9045 9dbd 0dd7 323e
00000310: 32cf 83bd ed2a 31bd faea 4b3d cefd 103d
00000320: 8796 06bb 547c a23d 919b 80be 7aa4 44bd
00000330: 18c4 20bd ec54 ea3c 7a15 873c 60b1 9dbd
00000340: ef39 14be d270 34be 8707 c9bd 1bf0 533d
00000350: c1ea 6ebd a884 ef3d f4de 693e 6008 5cbe
00000360: 2bbc 5e3e bdc4 61bd 7897 293e 77c8 4c3d
00000370: 4557 2abe 2793 45be 08ae 99be 3448 a63c
00000380: 1db5 61be 9ba2 49be 7559 793c 007a 54be
00000390: 70d5 ea3d 9bc4 14be 3af4 5cbe 7087 9ebe
000003a0: e1b2 23be a06f e9bc 9e68 0d3c 81fd eebd
000003b0: abc5 12be dd8f bb3d 617d ae3d f4f2 95bd
000003c0: e38e 02be 4039 a4be dfab 47be 4c99 1cbe
000003d0: 8c64 6abd 499a 6ebe ccc1 a83d 3dea 7abe
000003e0: 545f ebbd cf4a 193d 3c96 d6be 4263 76be
000003f0: 78d2 9bbe 4994 6fbe 744c de3d 92e6 00bd
-0.010447075 -0.11574153 0.06422742 -0.016450617 -0.26443776 0.0039579617 0.07937372 -0.10110857
-0.34127417 -0.10656463 -0.0027764034 0.0027339815 0.19688103 -0.081719905 -0.1949707 -0.17868371
-0.10897341 -0.079581596 -0.011260865 -0.033560984 -0.090766415 0.04657008 -0.02658286 0.2636599
0.37446207 0.056175385 -0.05133325 -0.1528868 -0.09335027 0.0131884245 -0.2643096 -0.32783628
-0.056518484 -0.013212919 -0.0632201 -0.10721508 0.07653952 -0.052523054 -0.0935507 -0.13611701
0.27755973 -0.038545057 0.034599222 -0.07394 -0.18841271 0.06756677 -0.050277494 -0.180375
-0.19032302 0.0050768536 0.07321465 0.017351951 0.058379263 -0.23959675 -0.01814991 0.057860702
-0.07594495 0.026619926 -0.24245627 -0.18837546 -0.06406127 -0.0134221865 0.032656483 0.09121717
0.13006565 -0.18328668 -0.09570764 -0.19251946 0.07206022 -0.10740134 -0.06416558 -0.07542341
-0.12602483 0.03391712 -0.15153527 -0.033042427 -0.062230475 0.054022532 -0.1608947 0.05542697
0.12119387 -0.16311646 -0.16737224 0.02107762 -0.15721859 -0.07021024 0.1449266 0.040116757
-0.17517301 0.05196245 -0.25913292 -0.23344702 -0.112142146 -0.2055744 -0.13826874 -0.1292759
-0.05974906 0.058439612 -0.0844282 -0.10018843 -0.07407561 0.056615714 -0.053660806 -0.035555135
-0.03328718 -0.29428777 -0.0403183 -0.117483474 -0.0730951 0.012701996 -0.21881258 -0.14857738
-0.04931935 0.046517186 -0.14494002 -0.119910136 -0.032232918 0.06257805 -0.15881598 0.13109832
0.05944023 0.12837735 -0.1158667 -0.42303097 -0.06801678 -0.1279616 0.0068447385 -0.2117524
-0.056708846 -0.040795878 -0.06955443 -0.066417895 -0.022414442 -0.042805675 -0.31379643 -0.3047305
-0.067174874 0.17069072 -0.2567845 0.024701783 -0.014885949 -0.0055319453 -0.18622668 -0.12080941
0.028832005 -0.0137546705 -0.020999948 -0.00025756483 -0.25869784 -0.0903991 0.019323565 0.13577132
0.17994733 -0.24996647 -0.14322637 -0.13677268 -0.39744565 0.11084202 0.07666617 -0.044887368
-0.033029016 0.12451757 -0.013247751 0.11139932 -0.29972073 -0.012425392 -0.0569264 -0.07564247
-0.17159523 0.004241596 0.05500862 0.15483736 0.2654063 -0.013302047 -0.04127756 -0.0076097744
-0.03192186 -0.0028611536 0.050337844 -0.020139406 0.078442395 -0.15221775 -0.204427 -0.013484027
0.052026153 -0.1831183 -0.12453471 -0.05805926 -0.09378614 0.048878647 0.08202389 0.06373718
-0.19123797 -0.08916156 -0.076792836 0.17464848 -0.06436004 -0.043253828 0.049784638 0.035398297
-0.0020536499 0.0793387 -0.25118688 -0.04800842 -0.03924951 0.028604947 0.016489733 -0.07699847
-0.14475225 -0.17621163 -0.09815889 0.051742654 -0.058329348 0.11695224 0.22838956 -0.2148757
0.21751468 -0.055119265 0.16561687 0.049995866 -0.16634853 -0.19294415 -0.30015588 0.020298101
-0.22041745 -0.19690935 0.015219082 -0.20749664 0.11466491 -0.14528124 -0.2157754 -0.30962706
-0.15986206 -0.02849561 0.0086309 -0.11669446 -0.14333217 0.09158299 0.08520008 -0.0732173
-0.1274982 -0.32074928 -0.19499157 -0.15292853 -0.057224795 -0.23301043 0.08240089 -0.24503417
-0.11492792 0.03742486 -0.41911495 -0.24061301 -0.30434012 -0.2339641 0.10854426 -0.03146989

actor_fc_layers.blocks.2.block.1.weight f4 [128]
00000000: afb9 9f3f 356d bd3f 000f aa3f d79a 1140
00000010: 4cee 6b3f b1c1 3f3f fdb5 713f 4079 6a3f
00000020: 7ba8 df3f cf15 e03f 543a ed3f 30bd 2a40
00000030: 7c06 1640 5b7b 1640 28db 0540 7d9d d23f
00000040: 5f97 d93f fde2 bd3f 71ed bf3f 1c9b ca3e
00000050: 71cd fc3f 1621 853f dbde 993f b66f 873f
00000060: 0164 f93f fbe5 903f cdd6 b13f f9fa 743e
00000070: 6780 9e3f c3cf 983f 7f37 dd3f fc24 933f
00000080: 6dc2 b73f 1090 0340 af8c da3f 3edb c93f
00000090: a6b1 c23f 3d77 3040 5c14 e83f 7799 983f
000000a0: 79f4 783f cfcb 1040 7dab b93f 0661 1f3f
000000b0: da2e 1740 c9f4 ba3f 4b39 d33f 6f09 da3f
000000c0: 6bcd e73f 2e9a 4540 c28e da3f aaee c73f
000000d0: e33b 943f 622d cc3f 1e85 823f 022f 863f
000000e0: 34ef f43d 014c bd3f 6b8d 1240 ab7c cc3f
000000f0: 7845 a63f 8b35 dd3f cdfc 733f 5099 ca3f
00000100: 71ec bb3f c88b a63f fe6a 8a3f 760d 8e3f
00000110: c36b 983f 9be6 df3f b93d 263d ae12 8d3f
00000120: e443 963f a2b0 4c3f 6f8a 913f 9a0c c93f
00000130: 03ed 903f 7250 0140 3545 b33f 3437 ad3f
00000140: 4171 bc3f 7914 5f3f 1906 af3f 9f7c 1240
00000150: 089c 2d3f 2517 b03f 63c1 ad3f 5fdd 9e3f
00000160: da3b c03e 78b5 1340 5905 a93f ec53 a63f
00000170: 3b71 1840 d4c1 a53f cbdc d73f 45fe bc3f
00000180: 3c73 a03f 639f d23f 55eb 0a40 31fe f73f
00000190: 710d aa3f f7cf 913f 5438 a53f 35d0 f93f
000001a0: 4407 af3f a57e 7e3f da83 463f 3663 2440
000001b0: dca7 0240 8fcc 0b40 a6ae 8f3f 57c1 953f
000001c0: 7ba3 d93f a3d4 1f40 9f01 da3f d45f ad3f
000001d0: cdab b43f e048 1b40 77c6 0440 e3cd 9d3f
000001e0: 02ae 0e40 3c7a a33f 4e77 c33f a0bb ad3f
000001f0: 4077 e23f acee a03f 79ed 3b40 9b9f 963f
1.2478541 1.4798952 1.3285828 2.2750757 0.9216049 0.74904925 0.9441832 0.9159126
1.7473291 1.7506655 1.8533425 2.667797 2.3441458 2.351279 2.0915012 1.6454312
1.699932 1.4834896 1.4994336 0.39571464 1.9750196 1.0400722 1.2021135 1.0580966
1.9483644 1.1320184 1.3893677 0.23923863 1.2382935 1.1938404 1.7282561 1.1495662
1.4356209 2.0556679 1.7074183 1.5770032 1.5210464 2.7572777 1.8131213 1.1921834
0.97248036 2.2624395 1.4505459 0.6225742 2.3622346 1.4605953 1.650186 1.7034129
1.8109564 3.0875354 1.7074816 1.561971 1.1580776 1.595135 1.0196874 1.0483096
0.11959687 1.478882 2.2898815 1.5975546 1.298995 1.7281965 0.9530762 1.5828037
1.4681531 1.3011408 1.0813901 1.1097858 1.1907886 1.749225 0.040586207 1.1021326
1.1739469 0.7995702 1.1370372 1.5706971 1.132233 2.020535 1.4005495 1.3532472
1.4722062 0.87140614 1.3673736 2.2888563 0.6781621 1.3757063 1.3574642 1.2411307
0.37545663 2.307951 1.3204757 1.2994361 2.381911 1.2949777 1.6864256 1.4765097
1.2535167 1.6454891 2.1706135 1.9374448 1.3285352 1.1391591 1.2907815 1.9516665
1.3674092 0.99411994 0.7754494 2.5685554 2.0414953 2.1843603 1.1225173 1.1699628
1.7003015 2.4973533 1.7031745 1.354487 1.411493 2.426323 2.0746133 1.2328457
2.2293706 1.2771678 1.5270784 1.3572884 1.7692642 1.2572837 2.9363692 1.1767458

actor_fc_layers.blocks.2.block.1.bias f4 [128]
00000000: 12eb 82bb a4f6 91bd 3bf5 c2bd 1ae2 b43d
00000010: b1f0 733c 8305 4fbf 8895 5bbd 706c 96bd
00000020: cc49 01bf 6f81 a3be 25d6 65be 5d9f a13e
00000030: 24f1 edbb 1d07 0cbe 1dc2 fdbc 81b5 1cbe
00000040: 5c3a 91be 3b51 85be bc8e 51be c2ed 523e
00000050: ba8b 853d 8719 86be 4316 87bd 5814 5dbe
00000060: 4e3a 00be f92c 68be 41bc a3be 19a3 c83e
00000070: 2d2a eebe 1ad7 7abe f7eb 84be 80de 2fbe
00000080: 4b74 85bd d3cf 08be 811f 21be 6a82 7fbe
00000090: f59f 27bc 1351 8bbd 40b1 90be 8bfe c8be
000000a0: 9583 2fbe 39ce 23bc ab72 cbbe 92eb b63e
000000b0: d6c2 223e 31a8 a4bd 2274 bbbe 77f8 04b9
000000c0: da4b 85bd 983d 2c3e 48fd cabe 0d95 e4bd
000000d0: 4ae0 f3bd 39ed a2bd b77a 81bc 0fdd 4abe
000000e0: e260 d13e d942 e8be 44d7 5dbd 23f5 5ebd
000000f0: 1474 dabe 3407 1cbe da39 76bd 674c 2bbe
00000100: 1efe f2bd a7bf 48bc b015 d9bd 4fd6 88be
00000110: 7ede 3dbe 9eda 3abe 3304 043f 02bb 37be
00000120: 00cc c3bd a493 15be a425 1fbe 7269 fcbd
00000130: 746b 9dbe d3ac 1cbe a62b f7bd 4d91 6ebe
00000140: 1701 02be 42f7 ac3e ab29 133e 48a0 d4be
00000150: 48cc af3e 617d 2ebe 4f92 13bd 90f1 2abe
00000160: f872 463e 52f2 cabd e728 96bd 9728 4abe
00000170: 5a86 fcbd c381 0cbe 10b9 10be b96c 2dbe
00000180: 8c3a d8be 774f 03be 29d8 0fbf 7c24 51bd
00000190: 8d75 3cbe c261 70bd 4818 1abe 1403 18be
000001a0: 665a 433d e793 88be 62ea 8ebd 95ac 06be
000001b0: 9b24 753e 9e25 e3bd a2d1 babd 5699 8b3c
000001c0: 1a29 febd 7111 e1bd 2207 493d 596e 67be
000001d0: a07f 5ebe 4a3e b3bb 49fc 3fbe 64f9 5cbe
000001e0: cf1a 88bd 5d4d ebbd e002 dfbd 782a debd
000001f0: 1811 293c 1c94 dabc 2cff 8c3c fb39 83be
-0.0039953077 -0.07127121 -0.0951943 0.08832188 0.014888928 -0.80867785 -0.0536094 -0.073449016
-0.5050323 -0.31934687 -0.22444971 0.31566897 -0.007261412 -0.13674589 -0.03097635 -0.15303613
-0.28364837 -0.26038536 -0.20464605 0.2059851 0.06520791 -0.2619135 -0.06596043 -0.21589792
-0.12522241 -0.22673406 -0.31979564 0.39186934 -0.46516553 -0.24496117 -0.25961277 -0.17174721
-0.06516322 -0.13360529 -0.15734674 -0.24952093 -0.010231008 -0.06802573 -0.2826023 -0.392567
-0.17140038 -0.009997898 -0.39735922 0.357266 0.15894637 -0.080398925 -0.3661204 -0.00012681061
-0.06508608 0.16820371 -0.39646363 -0.11161242 -0.11908014 -0.07955403 -0.015805585 -0.1981089
0.40894228 -0.453635 -0.05416037 -0.054433 -0.42666686 -0.15237123 -0.060113765 -0.16728364
-0.11864875 -0.012252725 -0.1059984 -0.26726004 -0.18541905 -0.18247458 0.5156891 -0.17942432
-0.09560394 -0.14607102 -0.15541703 -0.123247996 -0.30746043 -0.15300302 -0.12068872 -0.23297615
-0.12695728 0.33782393 0.14371364 -0.41528535 0.34335542 -0.17040016 -0.036028203 -0.16693711
0.19379795 -0.099095 -0.0733202 -0.19742046 -0.12330313 -0.13721375 -0.14133096 -0.16936006
-0.42232168 -0.12823282 -0.5618921 -0.051060185 -0.18404217 -0.05868698 -0.15048325 -0.14844924
0.047693633 -0.2667534 -0.06978299 -0.13151772 0.23939745 -0.11091159 -0.091220155 0.01704089
-0.12410183 -0.10989655 0.049079068 -0.22600688 -0.21728373 -0.005470072 -0.18748583 -0.2157951
-0.06645738 -0.11489365 -0.1088922 -0.10847944 0.010319017 -0.026681952 0.01721152 -0.25630173

actor_fc_layers.blocks.2.block.1.running_mean f4 [128]
00000000: 0000 0000 0000 0000 0000 0000 0000 0000
00000010: 0000 0000 0000 0000 0000 0000 0000 0000
00000020: 0000 0000 0000 0000 0000 0000 0000 0000
00000030: 0000 0000 0000 0000 0000 0000 0000 0000
00000040: 0000 0000 0000 0000 0000 0000 0000 0000
00000050: 0000 0000 0000 0000 0000 0000 0000 0000
00000060: 0000 0000 0000 0000 0000 0000 0000 0000
00000070: 0000 0000 0000 0000 0000 0000 0000 0000
00000080: 0000 0000 0000 0000 0000 0000 0000 0000
00000090: 0000 0000 0000 0000 0000 0000 0000 0000
000000a0: 0000 0000 0000 0000 0000 0000 0000 0000
000000b0: 0000 0000 0000 0000 0000 0000 0000 0000
000000c0: 0000 0000 0000 0000 0000 0000 0000 0000
000000d0: 0000 0000 0000 0000 0000 0000 0000 0000
000000e0: 0000 0000 0000 0000 0000 0000 0000 0000
000000f0: 0000 0000 0000 0000 0000 0000 0000 0000
00000100: 0000 0000 0000 0000 0000 0000 0000 0000
00000110: 0000 0000 0000 0000 0000 0000 0000 0000
00000120: 0000 0000 0000 0000 0000 0000 0000 0000
00000130: 0000 0000 0000 0000 0000 0000 0000 0000
00000140: 0000 0000 0000 0000 0000 0000 0000 0000
00000150: 0000 0000 0000 0000 0000 0000 0000 0000
00000160: 0000 0000 0000 0000 0000 0000 0000 0000
00000170: 0000 0000 0000 0000 0000 0000 0000 0000
00000180: 0000 0000 0000 0000 0000 0000 0000 0000
00000190: 0000 0000 0000 0000 0000 0000 0000 0000
000001a0: 0000 0000 0000 0000 0000 0000 0000 0000
000001b0: 0000 0000 0000 0000 0000 0000 0000 0000
000001c0: 0000 0000 0000 0000 0000 0000 0000 0000
000001d0: 0000 0000 0000 0000 0000 0000 0000 0000
000001e0: 0000 0000 0000 0000 0000 0000 0000 0000
000001f0: 0000 0000 0000 0000 0000 0000 0000 0000
0.0 0.0 0.0 0.0 0.0 0.0 0.0 0.0
0.0 0.0 0.0 0.0 0.0 0.0 0.0 0.0
0.0 0.0 0.0 0.0 0.0 0.0 0.0 0.0
0.0 0.0 0.0 0.0 0.0 0.0 0.0 0.0
0.0 0.0 0.0 0.0 0.0 0.0 0.0 0.0
0.0 0.0 0.0 0.0 0.0 0.0 0.0 0.0
0.0 0.0 0.0 0.0 0.0 0.0 0.0 0.0
0.0 0.0 0.0 0.0 0.0 0.0 0.0 0.0
0.0 0.0 0.0 0.0 0.0 0.0 0.0 0.0
0.0 0.0 0.0 0.0 0.0 0.0 0.0 0.0
0.0 0.0 0.0 0.0 0.0 0.0 0.0 0.0
0.0 0.0 0.0 0.0 0.0 0.0 0.0 0.0
0.0 0.0 0.0 0.0 0.0 0.0 0.0 0.0
0.0 0.0 0.0 0.0 0.0 0.0 0.0 0.0
0.0 0.0 0.0 0.0 0.0 0.0 0.0 0.0
0.0 0.0 0.0 0.0 0.0 0.0 0.0 0.0

actor_fc_layers.blocks.2.block.1.running_var f4 [128]
00000000: 0000 803f 0000 803f 0000 803f 0000 803f
00000010: 0000 803f 0000 803f 0000 803f 0000 803f
00000020: 0000 803f 0000 803f 0000 803f 0000 803f
00000030: 0000 803f 0000 803f 0000 803f 0000 803f
00000040: 0000 803f 0000 803f 0000 803f 0000 803f
00000050: 0000 803f 0000 803f 0000 803f 0000 803f
00000060: 0000 803f 0000 803f 0000 803f 0000 803f
00000070: 0000 803f 0000 803f 0000 803f 0000 803f
00000080: 0000 803f 0000 803f 0000 803f 0000 803f
00000090: 0000 803f 0000 803f 0000 803f 0000 803f
000000a0: 0000 803f 0000 803f 0000 803f 0000 803f
000000b0: 0000 803f 0000 803f 0000 803f 0000 803f
000000c0: 0000 803f 0000 803f 0000 803f 0000 803f
000000d0: 0000 803f 0000 803f 0000 803f 0000 803f
000000e0: 0000 803f 0000 803f 0000 803f 0000 803f
000000f0: 0000 803f 0000 803f 0000 803f 0000 803f
00000100: 0000 803f 0000 803f 0000 803f 0000 803f
00000110: 0000 803f 0000 803f 0000 803f 0000 803f
00000120: 0000 803f 0000 803f 0000 803f 0000 803f
00000130: 0000 803f 0000 803f 0000 803f 0000 803f
00000140: 0000 803f 0000 803f 0000 803f 0000 803f
00000150: 0000 803f 0000 803f 0000 803f 0000 803f
00000160: 0000 803f 0000 803f 0000 803f 0000 803f
00000170: 0000 803f 0000 803f 0000 803f 0000 803f
00000180: 0000 803f 0000 803f 0000 803f 0000 803f
00000190: 0000 803f 0000 803f 0000 803f 0000 803f
000001a0: 0000 803f 0000 803f 0000 803f 0000 803f
000001b0: 0000 803f 0000 803f 0000 803f 0000 803f
000001c0: 0000 803f 0000 803f 0000 803f 0000 803f
000001d0: 0000 803f 0000 803f 0000 803f 0000 803f
000001e0: 0000 803f 0000 803f 0000 803f 0000 803f
000001f0: 0000 803f 0000 803f 0000 803f 0000 803f
1.0 1.0 1.0 1.0 1.0 1.0 1.0 1.0
1.0 1.0 1.0 1.0 1.0 1.0 1.0 1.0
1.0 1.0 1.0 1.0 1.0 1.0 1.0 1.0
1.0 1.0 1.0 1.0 1.0 1.0 1.0 1.0
1.0 1.0 1.0 1.0 1.0 1.0 1.0 1.0
1.0 1.0 1.0 1.0 1.0 1.0 1.0 1.0
1.0 1.0 1.0 1.0 1.0 1.0 1.0 1.0
1.0 1.0 1.0 1.0 1.0 1.0 1.0 1.0
1.0 1.0 1.0 1.0 1.0 1.0 1.0 1.0
1.0 1.0 1.0 1.0 1.0 1.0 1.0 1.0
1.0 1.0 1.0 1.0 1.0 1.0 1.0 1.0
1.0 1.0 1.0 1.0 1.0 1.0 1.0 1.0
1.0 1.0 1.0 1.0 1.0 1.0 1.0 1.0
1.0 1.0 1.0 1.0 1.0 1.0 1.0 1.0
1.0 1.0 1.0 1.0 1.0 1.0 1.0 1.0
1.0 1.0 1.0 1.0 1.0 1.0 1.0 1.0
