saved_models/agent_maddpg_vs_opp_maddpg_2_vs_2_1_adver_best_models/maddpg_target_actor_1.pt (torch, 160267 bytes, 21 tensors)

actor_fc_layers.blocks.0.block.0.weight f4 [128, 21]
00000000: 528d cc3d f0df 903d 2175 33be 924c c23f
00000010: 85d4 00bf b6dd c03e ceef 31be 2edf 9e3c
00000020: e7f2 323b 2c28 1cbf 89b1 b3ba 2398 c73c
00000030: 4274 af3d 14f5 173f 7cd2 93bc a76b d63d
00000040: d34b 483e 3032 f7bb 8e56 0b3e 752c 733d
00000050: aa8e 71bd c2fb 023e 4f3e 263e 7a18 7bbe
00000060: 4822 cb3f 9d9d ac3e 0d6f 46bd 2007 57be
00000070: fd28 a83d 462b a3bd 9a31 84be 73eb 25be
00000080: b6eb 5dbe 60e2 0bbd ef05 b4bc 7cef 213f
00000090: 948f 78be c4db 0bbd b00f 3d3d 05b2 843d
000000a0: d648 0a3c 585f 773c 839d 76be e9c4 c1bd
000000b0: 3f47 89bd f807 3fbf 7949 593f d57a d8be
000000c0: 7c72 bb3d 236c 1cbe ae73 b33d 5f3d f63e
000000d0: d2ce 763e 4f96 22be 632e b1be a44b 0bbf
000000e0: 6b9a b93c 310f 1d3e 1ca1 5cbd 8eb1 d13e
000000f0: e745 823e 6953 8fbd 4e90 173e 39c5 5bbe
00000100: e12a 9abd 7280 09bf ad29 7c3d 34e0 8f3f
00000110: 6368 833e 6257 f8bd e71a c23d 6d53 8fbd
00000120: 73ed ca3e 8b9e 88be d80b d73d 5862 05bf
00000130: 18cc ac3d 2b4d b63e ed8b 913d 353c 6f3b
00000140: 631d b83b 8191 1b3e e325 9dbd 4739 053e
00000150: 969d 14be c701 cfbe 7662 51be 128d 47be
00000160: 3058 023f aab0 61bf e1b6 f93c 191c 63bd
00000170: 7385 cabd ca1e 54be c0ac bb3d 1376 abbd
00000180: e370 d23d 5564 073f 3350 08bc 2503 b6bd
00000190: 6a55 13bd aa49 7cbd 5dd3 56bd 1cec f33b
000001a0: bcf1 a93d e91d dabd 6b31 94be b7ec 9f3d
000001b0: 6a56 153f 27e5 b03d dcf3 b23e ca71 6fbd
000001c0: 1ccb 0f3e 3c0b a23e a355 0c3c cf8a f9bd
000001d0: 32cd 70bd 6521 cb3c 91a8 40bd 80c2 48bf
000001e0: ed9d 5cbe 267c 8b3e b06f 16bd ac3d 43be
000001f0: db4d 9d3e 1c09 adbe 72b6 ab3c 5598 dd3c
00000200: c510 3c3c 6ccf 05bf 3207 23bf 389e 083e
00000210: b65a d93d 8ff9 0bbc 8153 a6be a66a a23e
00000220: 0bf8 a0be 1b2e f23d 82cd efbb c8c8 0b3f
00000230: 8581 363f a4e3 a23d 7ed0 ce3c 5537 a43d
00000240: a18d 88bd e70b 52bd b01a 17bd cdf2 99be
00000250: 6af6 77bd fb36 8d3f d935 aebd b539 a23e
00000260: 4012 313f fcc1 2dbe c510 0f3e 82e4 fd3d
00000270: b319 f03d e86a 243e 2a33 693e f49b d8bd
00000280: 38d4 bf3e 26b2 c0bc f095 09be e8b2 2abd
00000290: c7c8 073e 5686 72bc 7e41 a23d 9fc7 febd
000002a0: eedb c43d d3ec f5bd 7f9d 493f e543 59bf
000002b0: c4d9 c63d 953f 23be 66c1 313e b534 1c3e
000002c0: 5d26 993e ac3b b3bc 1cd8 163e f81e af3e
000002d0: f293 9a3e 0054 ad3e 16be 29bf ae5d c5bb
000002e0: 5f31 30be 5422 f3bc faa0 3cbe 909f 343e
000002f0: 26b8 96be 5730 6abf 6040 50be d6d7 9f3d
00000300: 241e 663e 1d3e f33e 9c6a d2bd dc04 adbd
00000310: 1677 fa3d 1e43 ccbe ad07 e1bd 5b54 d53d
00000320: 84f4 6e3e 80ae 5e3e 0e37 aa3e 3120 3d3e
00000330: ac50 19be 4bae 4c3e b0c3 553e 390d a6bc
00000340: d4fd 293e 587b 64be 76aa bdbd ca27 cc3d
00000350: 4b37 87bf 098b 113e 8105 1d3e 3122 40be
00000360: 4188 2b3e 6d79 eb3d 6797 8fbe b48b 8c3e
00000370: 3c9e b4be 1000 18be 80db 06bc ee6e 78be
00000380: d222 883e 2415 963d ac44 113d e59f 52be
00000390: b02e 3e3e 2094 fa3e 2f76 adbe d98e 4abd
000003a0: 9c63 113e 29c1 f1be c7fd a53e 82f0 b03e
000003b0: 91ce 823f dc18 cabd 8a76 1f3e cd3b 46be
000003c0: 093b 0cbe d25b 08be 1186 3a3e 7737 dbbe
000003d0: f42a 3f3f 2e5c a7bd 9239 cebc 3048 143e
000003e0: ec3e a3be 2b6a b33c f739 a33e 657d 7abe
000003f0: dfea 2cbe 7bee b83d 9cc1 233e ed72 f3be
0.09987892 0.07073963 -0.1752515 1.5179617 -0.5032428 0.37669152 -0.17376634 0.01939353
0.0027305426 -0.609988 -0.0013709526 0.024364537 0.08567096 0.59358335 -0.018044703 0.10469752
0.19560175 -0.0075438246 0.13607237 0.05936857 -0.058973946 0.1279135 0.16234706 -0.24521056
1.5869837 0.33714 -0.04844575 -0.20998812 0.08210943 -0.07967238 -0.25819093 -0.16203098
-0.21671948 -0.034151435 -0.021975486 0.6325605 -0.2427352 -0.03414513 0.04615754 0.06479267
0.008440217 0.015098415 -0.24083523 -0.09461386 -0.06703042 -0.74621534 0.84877735 -0.42281213
0.091526955 -0.15275626 0.087622985 0.48093697 0.24102333 -0.1587765 -0.34605703 -0.54412293
0.02265664 0.15337826 -0.053864583 0.40955776 0.25443956 -0.06998331 0.14801142 -0.21461953
-0.0752771 -0.53711617 0.061563183 1.1240296 0.25665578 -0.12126042 0.094777875 -0.06998334
0.39634284 -0.2668346 0.10500306 -0.52103186 0.08437365 0.3560575 0.07106767 0.0036504392
0.0056187375 0.15192224 -0.07673242 0.13010131 -0.1451324 -0.40431044 -0.20447716 -0.19487408
0.50915813 -0.8816019 0.030482711 -0.055446718 -0.09888735 -0.2071487 0.09163809 -0.0837213
0.10275438 0.5288747 -0.008319902 -0.088873185 -0.03597013 -0.06159369 -0.052447665 0.007443918
0.0829806 -0.10650236 -0.28943953 0.07808822 0.5833498 0.08637457 0.34951675 -0.058458127
0.14042324 0.31649196 0.008565339 -0.12184679 -0.05878944 0.024796197 -0.047035757 -0.78421783
-0.21544619 0.27243155 -0.036727607 -0.19066495 0.30723462 -0.33796012 0.02096102 0.027050177
0.011478608 -0.52269626 -0.63682854 0.13341606 0.10613005 -0.008543386 -0.32485583 0.3172199
-0.31439242 0.118252 -0.0073181996 0.5460324 0.7129138 0.07953575 0.025245901 0.08018366
-0.066676386 -0.051280882 -0.036890686 -0.30068055 -0.060537733 1.1032404 -0.085063644 0.31684652
0.6916847 -0.1696853 0.13971241 0.123971 0.11723652 0.16056406 0.22773424 -0.10576621
0.37466598 -0.023522448 -0.13436103 -0.041674525 0.13260184 -0.014802536 0.07922648 -0.124404185
0.09612261 -0.12008061 0.78755945 -0.84869224 0.09709504 -0.15942223 0.17358932 0.15254481
0.2991208 -0.02187904 0.14730877 0.34203315 0.30190998 0.3385315 -0.66305673 -0.0060231304
-0.17206334 -0.029679455 -0.18420783 0.17638993 -0.2943737 -0.9148001 -0.20337057 0.07804839
0.22472435 0.47508326 -0.102742404 -0.084481925 0.12229745 -0.39894956 -0.10987792 0.1041648
0.23335463 0.21746254 0.33245128 0.18469311 -0.1497218 0.19988362 0.2087543 -0.020269977
0.16600734 -0.22312677 -0.092610285 0.09968527 -1.0563749 0.14213194 0.15334131 -0.18763043
0.16751195 0.114977695 -0.28045198 0.27450335 -0.35276973 -0.14843774 -0.008231044 -0.24261066
0.26589066 0.07328251 0.03546588 -0.20568807 0.18572497 0.48941135 -0.3387923 -0.049452636
0.14198154 -0.47217682 0.3242018 0.34558493 1.0219289 -0.09868023 0.15572563 -0.1935875
-0.13694395 -0.13316277 0.18215205 -0.42815754 0.74674916 -0.08171879 -0.025173936 0.14480662
-0.31883943 0.02190121 0.3188016 -0.24461897 -0.16886471 0.090298615 0.15991825 -0.4754862

actor_fc_layers.blocks.0.block.1.weight f4 [128]
00000000: fc34 813f c595 b93f bb6a b23f c103 963f
00000010: 3f2a 8c3f 8121 9b3f 011f 923f 2914 bb3f
00000020: 8873 803f 7dcd c03f f1d5 963f 204c a13f
00000030: 18fb ab3f 3681 e13f a64f ab3f 4aeb 9c3f
00000040: 67f2 b33f d34c ab3f 3c27 7f3f 1da4 893f
00000050: cdbc e63f 4668 a93f faa7 963f 4728 b13f
00000060: 79a8 b13f ed26 7c3f c43c a63f e3cd 5d3f
00000070: d4de ab3f d9de 093f d882 8e3f a6d7 c03f
00000080: 3df2 b53f 5c77 a43f fd87 293f cd01 743f
00000090: 84d4 743f 9df3 a43f d01b a93f 5a12 763f
000000a0: 51ab c03f f109 bb3f f985 8b3f f0ce a03f
000000b0: 2d28 193f 5e05 9b3f 0c6b 9c3f 8f04 bd3f
000000c0: f282 a03f c86f 943f 46a4 8e3f 26f1 c83f
000000d0: 2a84 9e3f 8e1e 843f 0f8e 973f 1f7e af3f
000000e0: 331c a23f f1e9 ac3f f265 473f 9411 c73f
000000f0: 0bb0 bb3f 1db2 b53f de23 4f3f d8c2 703f
00000100: cf3c af3f 6d43 743f 09b6 423f a054 cb3f
00000110: c251 583f 96f6 9a3f 6e33 bd3f cbcc a03f
00000120: 6373 a03f 990a b13f 5e3b 8b3f 53b1 c13f
00000130: 34f7 803f ea0b 9e3f 0152 c23f f490 863f
00000140: 62a5 8a3f d5a2 273f 6c48 b43f e7ab 8a3f
00000150: 1aad 883f 9e24 b03f 090b 733f 830a a83f
00000160: f24e 963f b889 ac3f 9724 383f 000e ea3f
00000170: 2fe1 a13f 3b99 a33f 8262 0b3f a297 803f
00000180: 5bd4 b83f 37df 303f 88d7 aa3f ba80 a93f
00000190: 765b a73f 84db a73f 2592 853f b13a 8d3f
000001a0: ec82 963f 12a1 0a40 ba94 0240 1e4b 973f
000001b0: 3410 9d3f 0c75 983f dee5 903f fbec 9d3f
000001c0: 347c 7c3f 2799 c43f 764a a63f c99f 5f3f
000001d0: 21b1 c33f 25c8 a43f 0737 8f3f 60b1 b43f
000001e0: 25eb 983f eba3 b73f 3cdd ba3f 06b5 7d3f
000001f0: ae89 a13f cdb1 e73f 0f77 793f ed9c ac3f
1.0094295 1.4498831 1.3938822 1.1719896 1.0950392 1.21196 1.1415712 1.4615527
1.0035257 1.506271 1.178404 1.2601357 1.3436003 1.7617557 1.3383682 1.2259305
1.405835 1.338282 0.9966924 1.0753208 1.8026367 1.3234947 1.1770012 1.3840417
1.3879539 0.98496896 1.2987294 0.86642283 1.3427377 0.53855664 1.113368 1.5065811
1.421455 1.2848926 0.66223127 0.9531525 0.95636773 1.2886845 1.3211613 0.9612175
1.5052282 1.4612409 1.090026 1.2563152 0.5982693 1.2111013 1.2220168 1.4767016
1.2539961 1.1596613 1.1143882 1.5698593 1.2384083 1.0321825 1.1840228 1.3710364
1.2664856 1.3508893 0.7788993 1.555224 1.4663099 1.4194981 0.80914104 0.9404731
1.3690432 0.95415384 0.76059014 1.58852 0.8449975 1.2106502 1.478132 1.2562498
1.2535213 1.3831359 1.0877492 1.513224 1.007544 1.2347386 1.5181276 1.0512986
1.0831721 0.65482837 1.4084601 1.083371 1.0677826 1.3761175 0.94938713 1.3128208
1.1742842 1.3479528 0.7193083 1.8285522 1.2646846 1.2781137 0.54447186 1.0046275
1.4439806 0.690906 1.3347025 1.3242409 1.3074787 1.3113866 1.0435225 1.1033536
1.1758704 2.166081 2.0403275 1.1819799 1.227057 1.191072 1.132015 1.2337946
0.9862702 1.5359238 1.2991474 0.8735319 1.528843 1.2873579 1.1188668 1.411663
1.194676 1.4346899 1.4598765 0.99104345 1.2620142 1.8101135 0.97447294 1.348539

actor_fc_layers.blocks.0.block.1.bias f4 [128]
00000000: 941e 28be f104 efbd ac7b 403d ac3a 023f
00000010: 10b8 cdbc 171b adbe 2613 d5bd 86f2 5fbd
00000020: ac3d 5ebe df47 8dbd 5624 ce3e 9c54 07bf
00000030: 675c e7bb bd27 a03e 3f05 5abd 78a1 ffbe
00000040: f991 d0bd 17c2 1fbe 42c8 2ebf 9e4d 60be
00000050: 206f 6fbc 3d5c 08bf fb83 0bbf 3501 1a3e
00000060: 3088 39be e4de 86be 43c0 d9bd 13df c4be
00000070: fa6d 7abe e0fd 423f bbbc 153f f645 c33e
00000080: 0088 e1be 22f0 01bf 72fe 96be ae6a 7dbe
00000090: 0e30 bd3d 4f98 90be d257 63be dd95 c7be
000000a0: 6fac 6f3d b737 24bf 76ed bcbe ac10 e0bd
000000b0: 88cd 8e3e d425 86be d493 1ebe b41a ec3d
000000c0: 9d12 ce3c 03c6 15bf 9e8a b6bd b38a 8bbc
000000d0: 8e03 acbd 5b05 30be 90c0 04bf f011 d43b
000000e0: beba 34be 1e9e 00bc 6efa 76bf 26c5 d63d
000000f0: 623e 8c3e 47e6 393d a896 a7be 5479 1ebf
00000100: a778 6e3e 0374 3bbe 1ac6 a5bd 3648 593e
00000110: 5c20 5f3d 254d 62be 5f10 a9be c82f 883e
00000120: 5085 153c a967 b6bb 99be 5fbe a16d e73d
00000130: 9530 d3be 2aa5 c33d 91c0 a53e 9fe9 dabe
00000140: fc42 eabe 5e0d 98be d7f8 1dbe 48a9 843e
00000150: cf49 c3be e0f4 8ebe bc63 0f3f 5853 e2be
00000160: 8ef5 343c 6c9e f7bd 68a8 653e cee8 703e
00000170: 8be2 9d3e 98a7 fdbe 1812 b43e 9257 503f
00000180: 4763 c8bd c85e 46bf 0b66 97be 64b4 17bf
00000190: 1bc0 4a3a 7ff8 bcbd ce0d 13bf d55b cb3e
000001a0: 7648 a53e 0f58 be3e 84a6 ae3e 9d29 a63e
000001b0: dd26 93be 1bd7 923b 658f a83d 1c28 73bd
000001c0: efba 02bf 5cba 8d3e 34de 623e 8918 f3bc
000001d0: f277 653e 7774 5fbe 61bf c9be 7c62 21be
000001e0: d6e1 35be 2db4 453e e21a d9be b58f 06bd
000001f0: e2af fcbc 4989 8abe f5dc f23d 7fe5 bd3e
-0.16417915 -0.116708644 0.046992943 0.50870776 -0.025112182 -0.3380973 -0.10404043 -0.054674648
-0.21703213 -0.06898474 0.40262097 -0.5286348 -0.0070605758 0.31280318 -0.05322766 -0.49927878
-0.10184092 -0.15601383 -0.6827432 -0.21904609 -0.014613897 -0.53265744 -0.5449826 0.15039523
-0.18118358 -0.26341927 -0.10632374 -0.38451442 -0.24456015 0.7616863 0.58491105 0.38139313
-0.44049072 -0.5075704 -0.29491 -0.24747726 0.09237681 -0.28241202 -0.2220147 -0.38981524
0.058514055 -0.64147514 -0.36899918 -0.1094068 0.27891183 -0.26200736 -0.1548608 0.11528531
0.02515536 -0.58505267 -0.08913158 -0.01703391 -0.083991155 -0.17189543 -0.5185633 0.006471865
-0.17649361 -0.007850198 -0.96475875 0.10486822 0.27391344 0.045385625 -0.3273213 -0.6190388
0.23288213 -0.18305974 -0.080944255 0.21218953 0.05447422 -0.22099741 -0.33020303 0.26598954
0.009126022 -0.0055665565 -0.21850051 0.11300207 -0.41248003 0.09552987 0.3237348 -0.42756364
-0.4575423 -0.29697698 -0.15426956 0.259104 -0.3814225 -0.279212 0.5601156 -0.4420421
0.011044873 -0.120907634 0.22427523 0.23526308 0.308369 -0.49541926 0.35170054 0.8138362
-0.09784561 -0.77488375 -0.2957004 -0.5925963 0.00077343144 -0.09227084 -0.5744294 0.397185
0.32281846 0.37176558 0.34111416 0.32453623 -0.28740588 0.004481209 0.08230475 -0.059364423
-0.5106649 0.27681243 0.22155076 -0.029674785 0.22409037 -0.21821772 -0.39403823 -0.15760225
-0.17761931 0.19307013 -0.42403322 -0.032851893 -0.030845586 -0.27057865 0.118585505 0.37089154

actor_fc_layers.blocks.0.block.1.running_mean f4 [128]
00000000: 0000 0000 0000 0000 0000 0000 0000 0000
00000010: 0000 0000 0000 0000 0000 0000 0000 0000
00000020: 0000 0000 0000 0000 0000 0000 0000 0000
00000030: 0000 0000 0000 0000 0000 0000 0000 0000
00000040: 0000 0000 0000 0000 0000 0000 0000 0000
00000050: 0000 0000 0000 0000 0000 0000 0000 0000
00000060: 0000 0000 0000 0000 0000 0000 0000 0000
00000070: 0000 0000 0000 0000 0000 0000 0000 0000
00000080: 0000 0000 0000 0000 0000 0000 0000 0000
00000090: 0000 0000 0000 0000 0000 0000 0000 0000
000000a0: 0000 0000 0000 0000 0000 0000 0000 0000
000000b0: 0000 0000 0000 0000 0000 0000 0000 0000
000000c0: 0000 0000 0000 0000 0000 0000 0000 0000
000000d0: 0000 0000 0000 0000 0000 0000 0000 0000
000000e0: 0000 0000 0000 0000 0000 0000 0000 0000
000000f0: 0000 0000 0000 0000 0000 0000 0000 0000
00000100: 0000 0000 0000 0000 0000 0000 0000 0000
00000110: 0000 0000 0000 0000 0000 0000 0000 0000
00000120: 0000 0000 0000 0000 0000 0000 0000 0000
00000130: 0000 0000 0000 0000 0000 0000 0000 0000
00000140: 0000 0000 0000 0000 0000 0000 0000 0000
00000150: 0000 0000 0000 0000 0000 0000 0000 0000
00000160: 0000 0000 0000 0000 0000 0000 0000 0000
00000170: 0000 0000 0000 0000 0000 0000 0000 0000
00000180: 0000 0000 0000 0000 0000 0000 0000 0000
00000190: 0000 0000 0000 0000 0000 0000 0000 0000
000001a0: 0000 0000 0000 0000 0000 0000 0000 0000
000001b0: 0000 0000 0000 0000 0000 0000 0000 0000
000001c0: 0000 0000 0000 0000 0000 0000 0000 0000
000001d0: 0000 0000 0000 0000 0000 0000 0000 0000
000001e0: 0000 0000 0000 0000 0000 0000 0000 0000
000001f0: 0000 0000 0000 0000 0000 0000 0000 0000
0.0 0.0 0.0 0.0 0.0 0.0 0.0 0.0
0.0 0.0 0.0 0.0 0.0 0.0 0.0 0.0
0.0 0.0 0.0 0.0 0.0 0.0 0.0 0.0
0.0 0.0 0.0 0.0 0.0 0.0 0.0 0.0
0.0 0.0 0.0 0.0 0.0 0.0 0.0 0.0
0.0 0.0 0.0 0.0 0.0 0.0 0.0 0.0
0.0 0.0 0.0 0.0 0.0 0.0 0.0 0.0
0.0 0.0 0.0 0.0 0.0 0.0 0.0 0.0
0.0 0.0 0.0 0.0 0.0 0.0 0.0 0.0
0.0 0.0 0.0 0.0 0.0 0.0 0.0 0.0
0.0 0.0 0.0 0.0 0.0 0.0 0.0 0.0
0.0 0.0 0.0 0.0 0.0 0.0 0.0 0.0
0.0 0.0 0.0 0.0 0.0 0.0 0.0 0.0
0.0 0.0 0.0 0.0 0.0 0.0 0.0 0.0
0.0 0.0 0.0 0.0 0.0 0.0 0.0 0.0
0.0 0.0 0.0 0.0 0.0 0.0 0.0 0.0

actor_fc_layers.blocks.0.block.1.running_var f4 [128]
00000000: 0000 803f 0000 803f 0000 803f 0000 803f
00000010: 0000 803f 0000 803f 0000 803f 0000 803f
00000020: 0000 803f 0000 803f 0000 803f 0000 803f
00000030: 0000 803f 0000 803f 0000 803f 0000 803f
00000040: 0000 803f 0000 803f 0000 803f 0000 803f
00000050: 0000 803f 0000 803f 0000 803f 0000 803f
00000060: 0000 803f 0000 803f 0000 803f 0000 803f
00000070: 0000 803f 0000 803f 0000 803f 0000 803f
00000080: 0000 803f 0000 803f 0000 803f 0000 803f
00000090: 0000 803f 0000 803f 0000 803f 0000 803f
000000a0: 0000 803f 0000 803f 0000 803f 0000 803f
000000b0: 0000 803f 0000 803f 0000 803f 0000 803f
000000c0: 0000 803f 0000 803f 0000 803f 0000 803f
000000d0: 0000 803f 0000 803f 0000 803f 0000 803f
000000e0: 0000 803f 0000 803f 0000 803f 0000 803f
000000f0: 0000 803f 0000 803f 0000 803f 0000 803f
00000100: 0000 803f 0000 803f 0000 803f 0000 803f
00000110: 0000 803f 0000 803f 0000 803f 0000 803f
00000120: 0000 803f 0000 803f 0000 803f 0000 803f
00000130: 0000 803f 0000 803f 0000 803f 0000 803f
00000140: 0000 803f 0000 803f 0000 803f 0000 803f
00000150: 0000 803f 0000 803f 0000 803f 0000 803f
00000160: 0000 803f 0000 803f 0000 803f 0000 803f
00000170: 0000 803f 0000 803f 0000 803f 0000 803f
00000180: 0000 803f 0000 803f 0000 803f 0000 803f
00000190: 0000 803f 0000 803f 0000 803f 0000 803f
000001a0: 0000 803f 0000 803f 0000 803f 0000 803f
000001b0: 0000 803f 0000 803f 0000 803f 0000 803f
000001c0: 0000 803f 0000 803f 0000 803f 0000 803f
000001d0: 0000 803f 0000 803f 0000 803f 0000 803f
000001e0: 0000 803f 0000 803f 0000 803f 0000 803f
000001f0: 0000 803f 0000 803f 0000 803f 0000 803f
1.0 1.0 1.0 1.0 1.0 1.0 1.0 1.0
1.0 1.0 1.0 1.0 1.0 1.0 1.0 1.0
1.0 1.0 1.0 1.0 1.0 1.0 1.0 1.0
1.0 1.0 1.0 1.0 1.0 1.0 1.0 1.0
1.0 1.0 1.0 1.0 1.0 1.0 1.0 1.0
1.0 1.0 1.0 1.0 1.0 1.0 1.0 1.0
1.0 1.0 1.0 1.0 1.0 1.0 1.0 1.0
1.0 1.0 1.0 1.0 1.0 1.0 1.0 1.0
1.0 1.0 1.0 1.0 1.0 1.0 1.0 1.0
1.0 1.0 1.0 1.0 1.0 1.0 1.0 1.0
1.0 1.0 1.0 1.0 1.0 1.0 1.0 1.0
1.0 1.0 1.0 1.0 1.0 1.0 1.0 1.0
1.0 1.0 1.0 1.0 1.0 1.0 1.0 1.0
1.0 1.0 1.0 1.0 1.0 1.0 1.0 1.0
1.0 1.0 1.0 1.0 1.0 1.0 1.0 1.0
1.0 1.0 1.0 1.0 1.0 1.0 1.0 1.0

actor_fc_layers.blocks.1.block.0.weight f4 [128, 128]
00000000: f5ae bebe 70c2 2dbe b976 bb3e 0006 fbbd
00000010: 0c60 763e 18ac 21bf cb9e 7dbe dcc8 ccbe
00000020: 16a1 853e 44b3 e33e 1ef7 d33d a1d5 f9be
00000030: 82ab bdbd e5d8 873d 7a62 d43e c0b5 0abf
00000040: cd5b e3be add2 4e3f 4e05 26bd 09cf 323f
00000050: e1f5 b4bd 12a9 02bf 15bd 893e 4cfb 6dbd
00000060: 8815 80be 6a9f 9a3e 204a d8be b2d9 fbbd
00000070: 1909 e33e 4897 f0be 724e efbe 3876 493e
00000080: 8dc4 33be 376e 80be 7ace f1be 76c6 cb3e
00000090: 1651 18be dca1 61be 4402 18bc 591c c23e
000000a0: af70 913e 6bb0 183f d08a 2cbe e969 9d3d
000000b0: 2007 86bf 9014 873e 2711 463e c3d3 9dbe
000000c0: 1b6a faba 6afb ccbd fffb 653e 9d45 79be
000000d0: 0254 34be 7787 ac3c 1cb0 ddbe c7a1 00be
000000e0: 68d0 073f 332c e53e f487 52bd bee2 06be
000000f0: 1b2f 0dbe 95c4 7e3d 60f0 2c3f e361 90bd
00000100: 9383 07bd 062d d33d 6740 663e 77b4 27be
00000110: 757d bc3e 78ac 0dbe d993 5dbc 7145 3dbe
00000120: ca05 b43e 2a00 2cbe 00c4 133f 9560 563e
00000130: 0a0a 903e 3302 82bf 93a9 9c3c 2489 40be
00000140: 83be 9ebe 1f6e 1ebf f445 fcbe 7d3f 31bf
00000150: 045e 793e 6107 293e b7af 6bbe 25ba 513e
00000160: b22f b9be d2e5 713e 7523 61be 8fe6 cb3e
00000170: 436e f9be 8a3b 293f 2b55 25be 064b e3bc
00000180: ff38 64bd 57ca 343f e914 72be 8d42 de3e
00000190: 91d5 6e3e 331c 323e 9a6d 6c3e 250e e0be
000001a0: 01d3 30bd 595b 34bd 6bdb 7bbe 5e0b 89be
000001b0: a377 38be 5671 413d edde 7dbe 422f 70bd
000001c0: ec37 c43e 4279 bdbe 1ac7 2d3e de13 603e
000001d0: 1cf7 d83d 81da 9bbe 9925 a23e 04a1 23be
000001e0: a3dc de3d 4d95 80be 6789 aa3d 9ed8 fabd
000001f0: 6bb0 0d3e e301 233e c39f 64be 32f9 eebb
00000200: d13e 343c ee9c 37bb a076 53bd 5553 edbd
00000210: cc26 ad3a 6be3 0cbe e2f4 b1bd e184 333d
00000220: 9648 f4bb 7ec9 743c 2aea 35bd 250e 3e3d
00000230: 4c8d debc ac4b debd 6533 24bd 2c2f 50bd
00000240: b681 843d 9e80 80bc 8c79 9abd 8a82 33bc
00000250: 5e3a 833d 8f57 01be 4ffb 06bd 682a a4bd
00000260: 8040 e83c e55e fc3c dd70 a3bd 836d 5fbd
00000270: 009c 9fbd 2a3b b5bd c333 193d 307e 12bd
00000280: 3da2 2dbd 61ff a9bd 6074 a33c 8704 163d
00000290: eb5d 9c3b c48e e73c 8cab 1abd 0780 803d
000002a0: e278 4e3d 0829 6b3d be45 4b3c 2cb3 2c3d
000002b0: fa25 d7bd 5169 2fbd cf73 cebd 2e3f 77bd
000002c0: 2e87 443b 76da f0bd 454d 343d 8c46 d639
000002d0: 751b fb3c cf06 5c3d 4ae5 473c 1253 fabd
000002e0: e223 7fbc 7f9a c0bc c002 92bd 4d46 6ebd
000002f0: a91a 003d 7fe0 1e3b 676f 0cbd bca8 95bd
00000300: 90fb 203d 5c40 80bd 354f 69bd 5d02 ebbd
00000310: 5f76 d2bb 8afb 3cbc 91e6 8039 2193 a1bd
00000320: 0cb2 1bbd 7759 92bd 3140 6dbd 7d5b a5bb
00000330: c20e 823d d6e2 c5bc ec37 9abd 97af 993c
00000340: b1c2 aabd efc7 8d3d 5019 1b3d 2970 a8bd
00000350: a83a dabd 2657 4f3a 63e8 8abc cb00 123d
00000360: 0fa3 c3bd 5a74 bfbd 7efd fcbd 4ff6 4b3c
00000370: 6148 7b3c 4859 243b 8fd6 89bd 1afc b8bd
00000380: 53f2 06bd f612 f2bd b626 76bd 763a babd
00000390: 6082 00be 35b5 b13b 5e00 fcbc e442 97bc
000003a0: 66e5 493c 1e8b 013d 3cba 80bd 9c88 9ebd
000003b0: e3a8 df3c b66d 7fbc 9bc0 1d3d d640 073b
000003c0: 8902 a7bd 9f4f 8dbd 91b7 63bd 4a0e bdbc
000003d0: 3e81 bfbd b572 61bd 9ca7 1dbd 06cf 473d
000003e0: 4907 213d 4fe1 42bd be0d b3ba b9a2 3d3d
000003f0: 14db a63c 4d52 6cbd 93c7 cab9 f203 b63c
-0.37242857 -0.16968703 0.36614016 -0.12257004 0.24060076 -0.6315322 -0.24767606 -0.39996994
0.2609946 0.44472706 0.10349868 -0.48795798 -0.09261228 0.06633166 0.41481382 -0.5418358
-0.44405976 0.80790216 -0.040532403 0.6984716 -0.0883596 -0.5103923 0.2690207 -0.058100984
-0.25016427 0.30199748 -0.42244053 -0.122973815 0.44342878 -0.46990418 -0.46739537 0.19674003
-0.17555447 -0.25084087 -0.47227842 0.3979985 -0.14874682 -0.220344 -0.009277884 0.37912253
0.28406283 0.5964419 -0.16849828 0.076862164 -1.0470924 0.26382875 0.1934248 -0.30825624
-0.0019105108 -0.10008891 0.2245941 -0.24342962 -0.17610171 0.021060688 -0.43298423 -0.12561713
0.5305238 0.44760284 -0.051399186 -0.13172433 -0.137875 0.062199194 0.67554283 -0.070499204
-0.033084463 0.10311322 0.22485505 -0.16377436 0.36814466 -0.13835323 -0.013524019 -0.18483521
0.35160667 -0.16796938 0.5772095 0.2093528 0.2813266 -1.0156921 0.019123828 -0.18802315
-0.31004724 -0.6188678 -0.4927212 -0.692375 0.2435227 0.16506721 -0.23016249 0.20481165
-0.361692 0.23622826 -0.21986182 0.3982434 -0.48716936 0.66106474 -0.1614577 -0.027745735
-0.05571842 0.70621246 -0.23640789 0.4341015 0.23323657 0.1739357 0.23088685 -0.4376079
-0.04316998 -0.04403243 -0.2459542 -0.26766485 -0.18014388 0.047227226 -0.2479207 -0.05863882
0.38323915 -0.37006575 0.16970482 0.21882579 0.105940074 -0.30440143 0.3166931 -0.15979391
0.10881927 -0.25113907 0.08326989 -0.12248348 0.1383683 0.15918688 -0.2232657 -0.00729289
0.011001305 -0.0028017121 -0.0516268 -0.1158816 0.0013210415 -0.13758628 -0.08689286 0.043827895
-0.007454942 0.014940618 -0.04441277 0.046400208 -0.027166985 -0.10854277 -0.040088076 -0.050826237
0.06470053 -0.01568633 -0.075427145 -0.010956416 0.06407617 -0.12631057 -0.03295451 -0.08015901
0.028351068 0.030806968 -0.07980511 -0.054547798 -0.077934265 -0.08849175 0.03740288 -0.035764873
-0.04239105 -0.08300663 0.019952953 0.03662541 0.004771938 0.028266318 -0.037761256 0.06274419
0.05040825 0.057412177 0.012406765 0.04216306 -0.1050529 -0.042825047 -0.100806825 -0.060362987
0.00299878 -0.11760418 0.044019002 0.00040869822 0.030652741 0.05371743 0.012200663 -0.12222876
-0.01557252 -0.02351117 -0.07129431 -0.058172513 0.031275425 0.0024242697 -0.03428593 -0.07307574
0.03930241 -0.062622756 -0.056960303 -0.1147506 -0.0064228023 -0.011534581 0.00024585848 -0.07889391
-0.038011596 -0.0714597 -0.057922546 -0.0050463066 0.06350471 -0.024156015 -0.075301975 0.018760486
-0.08337916 0.069229 0.037865937 -0.08224518 -0.10655719 0.00079094095 -0.016956514 0.035645287
-0.09552585 -0.09348364 -0.12353037 0.012448861 0.015337081 0.002507763 -0.06730377 -0.090324596
-0.032945942 -0.11820023 -0.06009551 -0.09093182 -0.12549734 0.005423213 -0.030761894 -0.018464513
0.012322759 0.031626813 -0.062855214 -0.077409 0.027302211 -0.015590122 0.03851376 0.002063801
-0.081547804 -0.06899952 -0.055594984 -0.023078103 -0.09350823 -0.055041034 -0.038489923 0.048781417
0.03931359 -0.047578152 -0.0013660712 0.046297763 0.020368136 -0.057695676 -0.00038677137 0.022218678

actor_fc_layers.blocks.1.block.1.weight f4 [128]
00000000: ee90 be3f 99c3 773f 66ad f43f 8de0 a53f
00000010: c6d5 1340 4d5e a83f 5090 e73f cbfb c83f
00000020: 52a9 ee3f 3e31 bd3f da44 aa3f 274b a13f
00000030: 35fc b13f 4ba0 913f f862 de3f 55d3 793f
00000040: 12ad 843f 5f76 ac3f bd49 db3f 5b87 993f
00000050: f9ab e83f bdf7 e13f 9b52 cf3f 4f9e c13f
00000060: 6ce3 a53f 8d87 793f d9e2 773f 1d3a bf3f
00000070: d824 943f 9cb6 c63f 70c5 c63f a773 9d3f
00000080: d515 713f 169a b93f 2d34 8d3f af3f af3f
00000090: 3f0f dd3f ec93 c53f b7d4 ad3f 01e6 743f
000000a0: ad28 cc3f df00 973f ec19 c33f 5708 bd3f
000000b0: 8dce 0640 9f92 b03f 78a1 cd3f dbc7 9e3f
000000c0: c333 993f 34e4 a53f 5117 c53f f245 e63f
000000d0: 5ae2 be3f 5d96 aa3f 16d0 e23f b3fd 8e3f
000000e0: bfa6 b43f f247 ba3f d577 c23f 61e9 753f
000000f0: 371d 683f 506f bc3f 471a c23f 51ef 9d3f
00000100: 95c5 743f cb32 873f f497 cb3f 5817 9e3f
00000110: 6c9d a03f 6b23 933f 55b4 b93f 1156 bc3f
00000120: 89da 753f b0f2 a23f 6e57 af3f 5c84 b83f
00000130: 9a26 8d3f 1f22 9f3f ac16 a93f 44fb f63f
00000140: eafc e93f 906b d03f 64fc cb3f 5abe d13f
00000150: cd94 da3f f85d a43f e50c 793f 097d 763f
00000160: 52c1 8a3f 6a1a a13f 8afc 943f 9099 a83f
00000170: 7dc3 bf3f f6a7 ca3f c237 ec3f 468b fb3f
00000180: 5865 963f 2999 763f 81ef 933f 302e cb3f
00000190: 014a 753f 7b78 aa3f 05fe d13f bca8 ae3f
000001a0: 4d3c fb3f 747d c83f 2663 8d3f 0b4d dd3f
000001b0: c180 af3f 0d49 793f c56e 0340 60d7 c33f
000001c0: 0a2e cc3f 51e1 743f 4499 a13f bf82 c83f
000001d0: 53d4 b43f 8ef6 0140 9b53 923f 51e0 c93f
000001e0: a27b d73f c40c c73f a2e0 be3f e048 e23f
000001f0: 09bc 783f 5415 a73f bc4d c03f 48d0 a53f
1.4887979 0.96782833 1.9115417 1.2959152 2.3099227 1.3153778 1.8090916 1.5701841
1.8645422 1.4780653 1.3302262 1.260106 1.3905092 1.1377043 1.7373953 0.9758809
1.0365317 1.3473624 1.7131878 1.1994432 1.8177482 1.7653729 1.6197084 1.5126437
1.2960029 0.9747246 0.9683052 1.493961 1.1573744 1.5524478 1.5529003 1.2300919
0.9417394 1.4500148 1.1031548 1.369131 1.7270278 1.5435767 1.358054 0.9566346
1.5949913 1.1797141 1.5242286 1.476817 2.1063569 1.3794745 1.6064901 1.2404741
1.1968921 1.2960267 1.5397741 1.7990096 1.4912827 1.3327137 1.7719753 1.1171173
1.4113387 1.4553206 1.519282 0.9605923 0.9066958 1.472147 1.5164269 1.2338659
0.95613986 1.0562376 1.5905747 1.2350874 1.2548041 1.1495184 1.4508158 1.4713765
0.96036583 1.2730312 1.3698556 1.4415393 1.1027405 1.2432288 1.3210044 1.929543
1.8280308 1.6282825 1.5936399 1.6386216 1.707666 1.2841177 0.972853 0.9628454
1.0840247 1.2586186 1.1639569 1.3171864 1.4981533 1.5832508 1.8454516 1.9651878
1.1749678 0.96327454 1.1557466 1.587347 0.95816046 1.3318018 1.6405646 1.3645244
1.9627777 1.5663285 1.1045883 1.7289137 1.3711168 0.9737709 2.0536358 1.5300102
1.595155 0.95656306 1.2624898 1.56649 1.4127296 2.0306735 1.1431764 1.5771581
1.6834605 1.5550771 1.4912302 1.767849 0.9716192 1.3053384 1.5023723 1.2954187

actor_fc_layers.blocks.1.block.1.bias f4 [128]
00000000: 8a1a 21bf 0cdb 10bd 7f46 2dbd 8785 583e
00000010: ad12 a03e 8871 6cbc a741 f9be a784 57be
00000020: 19c1 92be 582d 73be cfd5 77bd b5d4 dbbe
00000030: 8ffe d13e 6ab2 95be f450 333e b042 1ebd
00000040: 9654 72be 53bb 93be 4432 0d3e bfdb 8bbe
00000050: dc98 09be 7556 16be de56 b1be 516a 1fbe
00000060: 88ff 5abe 9b1f 4abd 1995 2cbd ca37 003e
00000070: 771a 00be e4e6 9cbe 1367 2e3f c0d0 6abe
00000080: 4ae2 7bbd 326e d53c ee46 b6be 88cd 93be
00000090: 34ca 243e 3692 5f3e 9c4b 4c3f e312 46bd
000000a0: cda3 adbc 4060 11be aaff efbe d429 253e
000000b0: ef2f 723f 6958 24be a479 c7bc 2789 8fbb
000000c0: 19d9 29be 8c66 19be b9d0 5bbe e35c 2cbf
000000d0: 52ef 8a3e 1265 403e 4cc6 d7bd c900 a03c
000000e0: 2129 85be 403f 9fbe 874a 1cbe 3c2d 5bbd
000000f0: 4f6a 133f b263 19bf b095 843e 5c16 353e
00000100: 29c7 66bd 7b90 833e 5f87 95be 7a33 5bbe
00000110: a00b d0be 922e 3ebe 313a 43be b780 dc3d
00000120: b194 21bd 680d 94bd 29ef 833e 256e 34be
00000130: 9416 5bbe 7203 f4bd 2db0 873e c278 ecbe
00000140: 8e16 c7bd 9115 e8bd 7e8f 3d3c 9c34 d1bc
00000150: b858 92be c868 17be fcd3 13bd 3b2d 82bd
00000160: e748 88be e3e6 9c3e 7d47 19be 1dbc 64be
00000170: cc44 22be 1353 8abe a40e 0fbe b25c 36be
00000180: 7c4f 2a3f 3be8 40bd f992 09be 7921 6c3e
00000190: da37 2ebd 724c 253e 7073 563c 8fcf 46be
000001a0: 36e5 7d3e 5c3a 753e a969 27be 5ba7 133d
000001b0: 3955 8abe f0c4 dabd a9ab a5be f1ba 003e
000001c0: 0d83 cebd ead9 bfbc d6c0 273f 8977 1d3e
000001d0: 5183 b8bd 7060 91be 4765 89be 2e8c 3fbe
000001e0: 5275 813e a3fd f7bc 9498 3dbe b57a b33d
000001f0: c0fe 1abd a2cb 2dbf 5a8a a13e 13e0 48be
-0.6293112 -0.03536515 -0.04230356 0.21144687 0.31264248 -0.014431365 -0.486829 -0.21046697
-0.28662947 -0.23747766 -0.06050664 -0.4293572 0.41014525 -0.29237682 0.1751135 -0.038637817
-0.2366508 -0.28853855 0.13788706 -0.2731609 -0.13437217 -0.14681418 -0.34636587 -0.155679
-0.2138654 -0.049346548 -0.042134378 0.12521282 -0.12510096 -0.30644906 0.6812603 -0.22931194
-0.061495103 0.026053522 -0.3560099 -0.28867745 0.1609276 0.21833119 0.7980287 -0.048357856
-0.02119627 -0.14196873 -0.46874744 0.16129237 0.9460439 -0.16049351 -0.024349995 -0.0043803635
-0.16586722 -0.14980525 -0.2146634 -0.67329234 0.27135712 0.18788555 -0.10535869 0.019531624
-0.2600794 -0.31102943 -0.15262805 -0.053509936 0.5758409 -0.5991775 0.25895452 0.1768431
-0.056342278 0.25696167 -0.29204842 -0.21406356 -0.4063387 -0.18572453 -0.19065167 0.10766738
-0.039448444 -0.072291195 0.25768402 -0.17620142 -0.21395332 -0.1191472 0.265016 -0.4618588
-0.09721099 -0.113322385 0.011569856 -0.025537781 -0.28583312 -0.14786065 -0.036090836 -0.06356283
-0.2661812 0.30644903 -0.14968677 -0.22337385 -0.15846556 -0.27016506 -0.13970429 -0.17808798
0.66527534 -0.047096472 -0.13434972 0.23059644 -0.042533733 0.16142443 0.013089046 -0.19415115
0.24794468 0.23948044 -0.163489 0.036048274 -0.27018145 -0.10682094 -0.3235753 0.12571312
-0.1008359 -0.02341934 0.6552862 0.1537763 -0.090094216 -0.28393888 -0.2683508 -0.18705818
0.2528482 -0.03027231 -0.18515235 0.08763639 -0.037840605 -0.67888844 0.31550866 -0.19616728

actor_fc_layers.blocks.1.block.1.running_mean f4 [128]
00000000: 0000 0000 0000 0000 0000 0000 0000 0000
00000010: 0000 0000 0000 0000 0000 0000 0000 0000
00000020: 0000 0000 0000 0000 0000 0000 0000 0000
00000030: 0000 0000 0000 0000 0000 0000 0000 0000
00000040: 0000 0000 0000 0000 0000 0000 0000 0000
00000050: 0000 0000 0000 0000 0000 0000 0000 0000
00000060: 0000 0000 0000 0000 0000 0000 0000 0000
00000070: 0000 0000 0000 0000 0000 0000 0000 0000
00000080: 0000 0000 0000 0000 0000 0000 0000 0000
00000090: 0000 0000 0000 0000 0000 0000 0000 0000
000000a0: 0000 0000 0000 0000 0000 0000 0000 0000
000000b0: 0000 0000 0000 0000 0000 0000 0000 0000
000000c0: 0000 0000 0000 0000 0000 0000 0000 0000
000000d0: 0000 0000 0000 0000 0000 0000 0000 0000
000000e0: 0000 0000 0000 0000 0000 0000 0000 0000
000000f0: 0000 0000 0000 0000 0000 0000 0000 0000
00000100: 0000 0000 0000 0000 0000 0000 0000 0000
00000110: 0000 0000 0000 0000 0000 0000 0000 0000
00000120: 0000 0000 0000 0000 0000 0000 0000 0000
00000130: 0000 0000 0000 0000 0000 0000 0000 0000
00000140: 0000 0000 0000 0000 0000 0000 0000 0000
00000150: 0000 0000 0000 0000 0000 0000 0000 0000
00000160: 0000 0000 0000 0000 0000 0000 0000 0000
00000170: 0000 0000 0000 0000 0000 0000 0000 0000
00000180: 0000 0000 0000 0000 0000 0000 0000 0000
00000190: 0000 0000 0000 0000 0000 0000 0000 0000
000001a0: 0000 0000 0000 0000 0000 0000 0000 0000
000001b0: 0000 0000 0000 0000 0000 0000 0000 0000
000001c0: 0000 0000 0000 0000 0000 0000 0000 0000
000001d0: 0000 0000 0000 0000 0000 0000 0000 0000
000001e0: 0000 0000 0000 0000 0000 0000 0000 0000
000001f0: 0000 0000 0000 0000 0000 0000 0000 0000
0.0 0.0 0.0 0.0 0.0 0.0 0.0 0.0
0.0 0.0 0.0 0.0 0.0 0.0 0.0 0.0
0.0 0.0 0.0 0.0 0.0 0.0 0.0 0.0
0.0 0.0 0.0 0.0 0.0 0.0 0.0 0.0
0.0 0.0 0.0 0.0 0.0 0.0 0.0 0.0
0.0 0.0 0.0 0.0 0.0 0.0 0.0 0.0
0.0 0.0 0.0 0.0 0.0 0.0 0.0 0.0
0.0 0.0 0.0 0.0 0.0 0.0 0.0 0.0
0.0 0.0 0.0 0.0 0.0 0.0 0.0 0.0
0.0 0.0 0.0 0.0 0.0 0.0 0.0 0.0
0.0 0.0 0.0 0.0 0.0 0.0 0.0 0.0
0.0 0.0 0.0 0.0 0.0 0.0 0.0 0.0
0.0 0.0 0.0 0.0 0.0 0.0 0.0 0.0
0.0 0.0 0.0 0.0 0.0 0.0 0.0 0.0
0.0 0.0 0.0 0.0 0.0 0.0 0.0 0.0
0.0 0.0 0.0 0.0 0.0 0.0 0.0 0.0

actor_fc_layers.blocks.1.block.1.running_var f4 [128]
00000000: 0000 803f 0000 803f 0000 803f 0000 803f
00000010: 0000 803f 0000 803f 0000 803f 0000 803f
00000020: 0000 803f 0000 803f 0000 803f 0000 803f
00000030: 0000 803f 0000 803f 0000 803f 0000 803f
00000040: 0000 803f 0000 803f 0000 803f 0000 803f
00000050: 0000 803f 0000 803f 0000 803f 0000 803f
00000060: 0000 803f 0000 803f 0000 803f 0000 803f
00000070: 0000 803f 0000 803f 0000 803f 0000 803f
00000080: 0000 803f 0000 803f 0000 803f 0000 803f
00000090: 0000 803f 0000 803f 0000 803f 0000 803f
000000a0: 0000 803f 0000 803f 0000 803f 0000 803f
000000b0: 0000 803f 0000 803f 0000 803f 0000 803f
000000c0: 0000 803f 0000 803f 0000 803f 0000 803f
000000d0: 0000 803f 0000 803f 0000 803f 0000 803f
000000e0: 0000 803f 0000 803f 0000 803f 0000 803f
000000f0: 0000 803f 0000 803f 0000 803f 0000 803f
00000100: 0000 803f 0000 803f 0000 803f 0000 803f
00000110: 0000 803f 0000 803f 0000 803f 0000 803f
00000120: 0000 803f 0000 803f 0000 803f 0000 803f
00000130: 0000 803f 0000 803f 0000 803f 0000 803f
00000140: 0000 803f 0000 803f 0000 803f 0000 803f
00000150: 0000 803f 0000 803f 0000 803f 0000 803f
00000160: 0000 803f 0000 803f 0000 803f 0000 803f
00000170: 0000 803f 0000 803f 0000 803f 0000 803f
00000180: 0000 803f 0000 803f 0000 803f 0000 803f
00000190: 0000 803f 0000 803f 0000 803f 0000 803f
000001a0: 0000 803f 0000 803f 0000 803f 0000 803f
000001b0: 0000 803f 0000 803f 0000 803f 0000 803f
000001c0: 0000 803f 0000 803f 0000 803f 0000 803f
000001d0: 0000 803f 0000 803f 0000 803f 0000 803f
000001e0: 0000 803f 0000 803f 0000 803f 0000 803f
000001f0: 0000 803f 0000 803f 0000 803f 0000 803f
1.0 1.0 1.0 1.0 1.0 1.0 1.0 1.0
1.0 1.0 1.0 1.0 1.0 1.0 1.0 1.0
1.0 1.0 1.0 1.0 1.0 1.0 1.0 1.0
1.0 1.0 1.0 1.0 1.0 1.0 1.0 1.0
1.0 1.0 1.0 1.0 1.0 1.0 1.0 1.0
1.0 1.0 1.0 1.0 1.0 1.0 1.0 1.0
1.0 1.0 1.0 1.0 1.0 1.0 1.0 1.0
1.0 1.0 1.0 1.0 1.0 1.0 1.0 1.0
1.0 1.0 1.0 1.0 1.0 1.0 1.0 1.0
1.0 1.0 1.0 1.0 1.0 1.0 1.0 1.0
1.0 1.0 1.0 1.0 1.0 1.0 1.0 1.0
1.0 1.0 1.0 1.0 1.0 1.0 1.0 1.0
1.0 1.0 1.0 1.0 1.0 1.0 1.0 1.0
1.0 1.0 1.0 1.0 1.0 1.0 1.0 1.0
1.0 1.0 1.0 1.0 1.0 1.0 1.0 1.0
1.0 1.0 1.0 1.0 1.0 1.0 1.0 1.0

actor_fc_layers.blocks.2.block.0.weight f4 [128, 128]
00000000: d638 b63e 0d56 bb3c 4aea c2be 7760 313e
00000010: 98d8 09bf ce4a 08be ac84 e13d 0dda 65be
00000020: 9c8d 5b3e d47f 113f be11 3a3d 619c 4f3e
00000030: f4dc 9e3e b150 72be 2689 99be 24ce 5ebc
00000040: 47b1 cd3d 309b ef3e 87f0 e83e 6adc 70be
00000050: b1fe 153f 1229 de3e 0919 cf3e 2ead 04be
00000060: 6b1a c83d a304 983d f940 adbd 107f e63e
00000070: 91da f23d 2885 32be 14e5 cbbd 9434 16be
00000080: 89ae 743d 9c79 94bc b773 d3bd 689d 07bf
00000090: 6f10 c53c 7b7d cdbe b073 8ebe d81c 663d
000000a0: 3b78 1b3e ab42 133e ff22 d03c 9a56 803e
000000b0: e703 74be aea7 99be 76c8 0c3f b494 a9bd
000000c0: c44a 113e 9d5d a1be ee4e c43e 31c3 69bf
000000d0: a85d 003d 6b12 393b 1bb2 9c3e 4047 2abd
000000e0: 2cc8 2b3f 5fff c83e 7b89 023e fae6 3b3d
000000f0: 8d33 443d 1a2a 9ebd c4df 0bbe e9b9 b23d
00000100: 21b4 e83b 3d52 72be 7f84 a23c 49c2 093f
00000110: 14d4 a3be 5fb1 c4be 183c f3bd bf3f 93bf
00000120: d50e ae3d 9f9e 843c d164 22be 4dbc c3bd
00000130: af21 17be a428 ab3c 740e 09bf 6309 4d3f
00000140: 3c97 ac3d 0afb fabd 291f 843e e31a c6be
00000150: 2ea4 cabb 6fef d53d 2bc8 c33c 5143 6d3d
00000160: 1fa3 16be e487 bdbe 0d50 233e 5496 66be
00000170: 7b4e d6bc 3be0 e33e bdb5 3cbe 30cb 913f
00000180: 73fc cabe 87f8 d7b9 4799 c93e febf c03d
00000190: 642e a93b e64c 0cbf d444 103e 8616 7a3e
000001a0: 28ca 083e dfa8 993e 7420 1d3e bc91 b2be
000001b0: 863d c0bd 576b 823d cc96 b13e dce3 e93d
000001c0: dd00 ed3e fd6e 28bc f9fd 74be dd1e e83e
000001d0: 7fe5 b33e 6db5 963d 955c e0be 3b55 0c3f
000001e0: cff5 d5bc f8f4 a83e b307 f73b 0e3d 89be
000001f0: d7e1 9abc a0b5 503e 1333 6abe 82c9 7f3d
00000200: c2a8 a1be 87fa 86bc b318 c53e 97c6 2fbf
00000210: f815 00be 7fca 143f fe49 2fbd 4f95 133e
00000220: 8466 033f be95 863e a4ae c3be be0f 8d3e
00000230: c079 7fbe 6a2e c53d a3a6 eb3e 8b59 d73d
00000240: 2838 d0bd 1400 e2bd 6c03 693e 9ffb 01bd
00000250: 82c6 213e 9a0b 093f 4280 06bf fa2a 903e
00000260: 5e87 72ba 319b 62bb 29d7 743c 76c2 b03e
00000270: 24a2 1d3d e47c 9e3e 20fe fb3c 168e 773e
00000280: 68ee 143b 2975 51be c203 37be 84dd d13e
00000290: 6054 8d3e d5cf 6a3f 8c85 18be e35d 1f3d
000002a0: 84e7 bdbe 5759 05be 2ff0 fc3e 3cc3 6bbe
000002b0: cf49 16bd b3bc 5c3e 2297 bebe ab84 0ebe
000002c0: 0e4d 703d 98cf 1cbd 57c1 c83e a2e8 cbbe
000002d0: 3878 093e 858c 2ebd d247 2bbf dc8a 673e
000002e0: c07d c7be c7b1 4fbd f02e 9abe 93a0 843d
000002f0: 8ed1 e13d f910 ae3c b231 49bf 304a 163e
00000300: a943 be3d 5a2f febe 35cd a73e 3be2 c43e
00000310: b2cb 353e d2c9 fa3d b7b3 2d3f 9d93 463e
00000320: 7c00 57bd c6cb 3a3e 6485 023e 75b2 ce3e
00000330: 6b74 d23c fffc 133e ecff 85be 21fe 3dbe
00000340: 9701 9dbd 440d 893e f0c6 09be 128f e7bd
00000350: f760 173e 4cc0 a23e cd69 e6bc 9fab 9f3c
00000360: e214 8e3e 41dc 3dbe 1367 953e 0ce9 af3e
00000370: ba52 0d3d 8b90 d2be e52d b2be 2251 1a3e
00000380: 08b4 913d 5bc7 46bd 0bba 483e 425a c0be
00000390: 6801 16bb 4b79 553d bd21 28bf 7bf5 1c3e
000003a0: b498 c2be 2623 383e a8b5 6b3d acdf 33bc
000003b0: fc96 b3be 51f2 ed3d ac74 0ebe 3fd0 14be
000003c0: 0a4f eebd 5359 d3bd bf65 cc3c 087c 603d
000003d0: eb0f 50bf e5de 2fbd 3659 b8bd d6cf 0d3d
000003e0: 0590 19bf 0d8e 8cbe 25d2 7e3e a64d 2cbe
000003f0: 0dbf 763d 5c6d a53e 779b 06bf 6fc5 43be
0.35590237 0.02286818 -0.38069373 0.17321955 -0.5384612 -0.13309786 0.11011633 -0.22446461
0.21440738 0.56835675 0.045427077 0.20274498 0.3102795 -0.23663594 -0.29987448 -0.013598952
0.100435786 0.46798086 0.45496008 -0.23521581 0.58591753 0.4339071 0.40448788 -0.12956688
0.09770664 0.074227594 -0.08459658 0.45018816 0.118580945 -0.17433608 -0.099558026 -0.14668494
0.059736762 -0.018124394 -0.10324805 -0.5297456 0.024055688 -0.40134797 -0.27822638 0.05617985
0.15182583 0.143809 0.025407312 0.25066072 -0.23829614 -0.30010742 0.5499338 -0.08280316
0.14188677 -0.31516734 0.3834147 -0.91313463 0.031339318 0.0028239738 0.30604634 -0.041571856
0.67102313 0.39257333 0.12747757 0.045874573 0.047900725 -0.07722874 -0.13659579 0.08726866
0.007101551 -0.23664184 0.01983857 0.5381208 -0.3199774 -0.38416573 -0.11876696 -1.1503829
0.08498923 0.016188918 -0.15858771 -0.095574 -0.14758943 0.020893402 -0.5353768 0.8009245
0.08427283 -0.12254913 0.25805023 -0.38692388 -0.0061841225 0.10446059 0.023899158 0.057925526
-0.14710663 -0.3701774 0.15948506 -0.22518283 -0.02616047 0.44507012 -0.18428703 1.1390133
-0.39645728 -0.00041193163 0.39374754 0.094116196 0.005163001 -0.5480484 0.14088756 0.24422655
0.13358366 0.3001165 0.15344411 -0.34876812 -0.09386735 0.0636813 0.3468536 0.11420414
0.4628972 -0.010280368 -0.23925008 0.45336047 0.3513603 0.07358823 -0.43820634 0.5481755
-0.026118187 0.32999396 0.0075387596 -0.26804394 -0.018906517 0.20381784 -0.22871046 0.062448032
-0.31574064 -0.016476883 0.38495407 -0.686624 -0.1250838 0.58121485 -0.042795174 0.14412425
0.513283 0.2628612 -0.38219178 0.27551073 -0.24948788 0.096279934 0.4602557 0.10515126
-0.10166961 -0.11035171 0.22755212 -0.031734105 0.15798381 0.5353333 -0.52539456 0.2815779
-0.00092517387 -0.0034577365 0.014943876 0.34523362 0.038484707 0.3095466 0.030760825 0.24175295
0.002272511 -0.2045485 -0.17872527 0.40989316 0.27603436 0.91723377 -0.14894694 0.038907897
-0.37090695 -0.13022362 0.49401996 -0.23023695 -0.036691483 0.21556358 -0.3722468 -0.13917796
0.058667235 -0.038283914 0.39210007 -0.39825922 0.13424766 -0.04261448 -0.66906464 0.22611564
-0.38963127 -0.05070665 -0.30113935 0.064759396 0.110262975 0.021248328 -0.78591454 0.14676738
0.09290249 -0.496455 0.32773748 0.3845385 0.17753485 0.122455254 0.6785235 0.19392247
-0.052490696 0.18241796 0.12746197 0.40370527 0.025690278 0.14451979 -0.26171815 -0.18553974
-0.07666319 0.26767933 -0.13454795 -0.11306585 0.14783083 0.31787336 -0.028126622 0.019491015
0.27750307 -0.18541051 0.29180202 0.34357488 0.034502722 -0.41125903 -0.3480064 0.15070012
0.07114416 -0.048529964 0.1960222 -0.3756886 -0.0022889022 0.052117627 -0.6567648 0.15328018
-0.38007128 0.17982158 0.057546288 -0.0109786205 -0.3507613 0.11618484 -0.13911694 -0.14532565
-0.11636169 -0.103197716 0.02495086 0.054805785 -0.8127429 -0.04293718 -0.09001391 0.034622036
-0.5998538 -0.27452126 0.24884851 -0.16826496 0.060240794 0.32309997 -0.5258097 -0.19118284

actor_fc_layers.blocks.2.block.1.weight f4 [128]
00000000: 9e44 ed3f 1adc d73f 2625 4940 dce2 e93f
00000010: aeb0 a23f 3e27 8f3f 405d 9e3f c218 b23f
00000020: ef92 1a40 c341 f13f b9a5 a63f b42f e83f
00000030: 4927 e43f 6d3f b83f a347 0f40 69bf 0540
00000040: c4bb 1f40 8e79 cc3f a1bd 813f 6ce1 9d3f
00000050: 7011 6940 e686 2040 a78d 993f 53d6 1340
00000060: ad48 e23f 7de6 863f d3da c63f 99b5 b13f
00000070: 61e8 aa3f 4abf c53f 0464 ab3f 76a7 c53f
00000080: 3bd6 9c3f d927 793f 32ed 8d3f b6ee 3f3f
00000090: 6ecf c83f 4b9e cf3f 982b d63f eb12 dc3f
000000a0: 3f75 1a40 6948 1240 0e39 843f 31c0 b93f
000000b0: da40 0540 9d09 e23f 4042 af3f caf2 f33f
000000c0: 3fff dc3f ac3d 1a40 ceff 9b3f b823 9c3f
000000d0: d2b6 993f 8c4b b43f 678e 1340 f44c e03f
000000e0: e426 a43f 51ca bc3f 5966 b93f ec61 913f
000000f0: 76ec 8f3f d886 7f3f 9848 9f3f ba3f c13f
00000100: 39e3 7a3f 9f51 ff3f 7b46 dc3f 7127 ee3f
00000110: 2627 993f d31e 8a3f 8272 0140 26f2 ca3f
00000120: b28b d23f 11b4 d83f 96c6 d33f 7bc3 0340
00000130: dd79 d93f 7e5e 8a3f 0b17 0740 1f60 7d3f
00000140: ba9f 993f 088d ff3f d312 883f 6e2c 1d40
00000150: 86b7 0d40 1f08 1b40 e077 ce3f 9658 9c3f
00000160: 4f75 0640 ae38 8f3f a8eb b13f 8f8e ca3f
00000170: 111b 2240 92e5 c53f cb0e 983f f72d d33f
00000180: 22f5 ed3f e6cd b23f 6bd2 0740 43c8 d33f
00000190: 431a 973f 0f37 a93f 2a54 3e40 f600 f53f
000001a0: ef7e 953f a564 ba3f 27b0 a03f 23f9 1b40
000001b0: 872a 0e40 ce0e ca3f f6dd fe3f adbb f53f
000001c0: b467 fa3f ec5f e43f 8555 a33f 5844 0640
000001d0: e409 c53f 42bf 0840 f74d 0d40 93ff 1640
000001e0: a250 833f 6cd6 a33f f506 a73f aabc c93f
000001f0: 7afd b23f 18bd e63f 8087 a23f 973b 833f
1.8536565 1.6864045 3.1428924 1.8272357 1.2710168 1.1183851 1.2372208 1.3913805
2.415218 1.8848194 1.3019325 1.8139558 1.7824489 1.4394356 2.2387474 2.0898077
2.4958353 1.5974596 1.0135995 1.2334418 3.6416893 2.5082335 1.1996354 2.3099563
1.7678429 1.053909 1.553553 1.3883544 1.3352166 1.5449002 1.3389897 1.544173
1.2252878 0.9732643 1.1088011 0.7497362 1.5688303 1.6220182 1.6732054 1.7193273
2.4134061 2.2856696 1.0329912 1.4511777 2.0820832 1.7659184 1.3692093 1.9058468
1.7265395 2.4100142 1.218744 1.21984 1.2008917 1.4085555 2.3055665 1.7523484
1.2824368 1.4749242 1.4484359 1.1358008 1.1244037 0.9981513 1.2444029 1.5097573
0.98002964 1.9946784 1.7209009 1.8605787 1.1965072 1.0790657 2.022614 1.5855148
1.6448882 1.6929952 1.6544979 2.0588062 1.6990315 1.0810087 2.1107814 0.98974794
1.200187 1.9964914 1.0630745 2.4558368 2.2143264 2.4223707 1.6130333 1.2214534
2.10091 1.1189172 1.3900042 1.5824755 2.532902 1.5460684 1.1879514 1.6498402
1.8590434 1.3969085 2.122218 1.654549 1.180489 1.3219928 2.973887 1.9140918
1.1679362 1.4561964 1.2553757 2.437081 2.2213457 1.5785768 1.9911487 1.9197899
1.9562898 1.7841773 1.2760473 2.0979214 1.5393643 2.1366735 2.2078836 2.359349
1.0258982 1.2799811 1.3048998 1.5760701 1.3983605 1.8026457 1.2697601 1.025256

actor_fc_layers.blocks.2.block.1.bias f4 [128]
00000000: c8b4 bfbe 4de5 a3bd d967 d8be 4c63 253e
00000010: 3851 1ebe 5be5 873e b25e c3be c02a 7fbe
00000020: b950 b3bd cc35 d6be c7aa b0be f82e 973e
00000030: b6d1 3f3d 6bd7 8ebe 49a4 983c edfb 723e
00000040: bef0 c93e 511d abbe d228 333e 110e b93e
00000050: 4478 c73d 3670 bc3e d5b3 12be ca3c 883d
00000060: 0d6c 913b 31da 7fbe f9b5 d83e a7a1 8dbc
00000070: faf1 03bf 4df9 a5be 13cc 03bf a662 72be
00000080: 5399 c0be 6627 bfbe 9424 bcbd 251b 8d3d
00000090: 09b6 04bf 9d6a fc3d e96c b4be f86d d9be
000000a0: 3c00 96bd 3705 89be 5bfa 0abf ec99 12bf
000000b0: a25a d33e a799 93bb 1a4c b4be 0198 8abe
000000c0: 6fa8 8cbe e70f 68be 6c32 cbbd 76f2 05bf
000000d0: 20d4 8a3e 7056 24be 557d 00bc 4f45 9c3d
000000e0: c960 e9be 0d25 a6be 8b3b 1c3d 3a4f 93be
000000f0: a088 f2bd c4d4 85be 841f 84be af2c 113d
00000100: 37fd 1a3e 3ed1 533c ad90 383c c541 383e
00000110: 101a 3f3e 3d47 b8be e743 8d3e a12d 343d
00000120: dd5c 0abe f4f7 64bd 8db0 67be 5385 54be
00000130: 6d0d acbe 9ed8 cb3c 64fd 6cbe 67cb 1a3f
00000140: e767 4f3d adaf 3fbf 1117 3bbe b6a5 1c3f
00000150: 240c ddbe e2a4 76be f1bc ac3e 868a d8bd
00000160: 1b81 10be 486e 14be 0356 8f3e 35bb cfbb
00000170: 6677 d3bd 6e4b f6bd b490 dcbe 5c85 91bd
00000180: ec33 84be d53c 10bd 593e ab3c 0dd9 a1be
00000190: 5aab babe 1b2d 6f3e 08b3 313e e18a 32be
000001a0: 17aa 1c3d 2e2c 76be 9bef 05bf a5de aebe
000001b0: 10a1 473d 0a63 723e f1ef f0be 29bb 28be
000001c0: 4ce8 ab3e 1a46 35bd 3736 db3d 62e8 e63d
000001d0: 80a8 06bf 9c13 a539 e8fd 4bbe e288 31be
000001e0: 77f2 85be 807b 1a3c 17c0 ee3c c33a 9bbe
000001f0: 93d5 9b3d 5cb4 953e 9ae3 0ebd 0647 3d3d
-0.37442613 -0.0800272 -0.4226673 0.1615116 -0.1546067 0.26542172 -0.38158184 -0.24918652
-0.08755631 -0.4183792 -0.34505293 0.29528022 0.046830855 -0.27898726 0.018633025 0.23728915
0.39441484 -0.33420804 0.1749604 0.36143544 0.09739736 0.3680436 -0.14326413 0.066522196
0.0044379295 -0.24985577 0.42326334 -0.017288996 -0.515411 -0.32416764 -0.5148327 -0.23670444
-0.37616977 -0.37334746 -0.09186664 0.06889943 -0.51840264 0.12325022 -0.35239342 -0.42466712
-0.073242635 -0.2676179 -0.5428826 -0.57266116 0.41280085 -0.004504401 -0.3521431 -0.27069095
-0.27472255 -0.22662316 -0.099217266 -0.5232309 0.27114964 -0.16048598 -0.0078423815 0.07630407
-0.45581654 -0.32450143 0.038142722 -0.28771383 -0.118424654 -0.2613889 -0.25805295 0.035443004
0.15135656 0.012928305 0.011264962 0.17993839 0.18662286 -0.3599185 0.27590868 0.043988828
-0.13511987 -0.05590053 -0.22625943 -0.20753984 -0.33603993 0.024883565 -0.23143536 0.6046662
0.0506362 -0.74877435 -0.18270518 0.61190355 -0.43173325 -0.24086335 0.337379 -0.10573296
-0.1411175 -0.14495194 0.2799531 -0.0063394555 -0.10325508 -0.12026106 -0.4307915 -0.071055144
-0.25820863 -0.035214264 0.020903753 -0.3161091 -0.36458856 0.2335705 0.17353451 -0.1743579
0.038248148 -0.2404029 -0.52318734 -0.3415424 0.048737586 0.23670593 -0.4705806 -0.16477646
0.33575666 -0.044256307 0.107037 0.11274792 -0.5260086 0.00031485863 -0.19921076 -0.17337373
-0.26161548 0.009428859 0.02914433 -0.3031827 0.076090954 0.29239166 -0.034885027 0.04621031

actor_fc_layers.blocks.2.block.1.running_mean f4 [128]
00000000: 0000 0000 0000 0000 0000 0000 0000 0000
00000010: 0000 0000 0000 0000 0000 0000 0000 0000
00000020: 0000 0000 0000 0000 0000 0000 0000 0000
00000030: 0000 0000 0000 0000 0000 0000 0000 0000
00000040: 0000 0000 0000 0000 0000 0000 0000 0000
00000050: 0000 0000 0000 0000 0000 0000 0000 0000
00000060: 0000 0000 0000 0000 0000 0000 0000 0000
00000070: 0000 0000 0000 0000 0000 0000 0000 0000
00000080: 0000 0000 0000 0000 0000 0000 0000 0000
00000090: 0000 0000 0000 0000 0000 0000 0000 0000
000000a0: 0000 0000 0000 0000 0000 0000 0000 0000
000000b0: 0000 0000 0000 0000 0000 0000 0000 0000
000000c0: 0000 0000 0000 0000 0000 0000 0000 0000
000000d0: 0000 0000 0000 0000 0000 0000 0000 0000
000000e0: 0000 0000 0000 0000 0000 0000 0000 0000
000000f0: 0000 0000 0000 0000 0000 0000 0000 0000
00000100: 0000 0000 0000 0000 0000 0000 0000 0000
00000110: 0000 0000 0000 0000 0000 0000 0000 0000
00000120: 0000 0000 0000 0000 0000 0000 0000 0000
00000130: 0000 0000 0000 0000 0000 0000 0000 0000
00000140: 0000 0000 0000 0000 0000 0000 0000 0000
00000150: 0000 0000 0000 0000 0000 0000 0000 0000
00000160: 0000 0000 0000 0000 0000 0000 0000 0000
00000170: 0000 0000 0000 0000 0000 0000 0000 0000
00000180: 0000 0000 0000 0000 0000 0000 0000 0000
00000190: 0000 0000 0000 0000 0000 0000 0000 0000
000001a0: 0000 0000 0000 0000 0000 0000 0000 0000
000001b0: 0000 0000 0000 0000 0000 0000 0000 0000
000001c0: 0000 0000 0000 0000 0000 0000 0000 0000
000001d0: 0000 0000 0000 0000 0000 0000 0000 0000
000001e0: 0000 0000 0000 0000 0000 0000 0000 0000
000001f0: 0000 0000 0000 0000 0000 0000 0000 0000
0.0 0.0 0.0 0.0 0.0 0.0 0.0 0.0
0.0 0.0 0.0 0.0 0.0 0.0 0.0 0.0
0.0 0.0 0.0 0.0 0.0 0.0 0.0 0.0
0.0 0.0 0.0 0.0 0.0 0.0 0.0 0.0
0.0 0.0 0.0 0.0 0.0 0.0 0.0 0.0
0.0 0.0 0.0 0.0 0.0 0.0 0.0 0.0
0.0 0.0 0.0 0.0 0.0 0.0 0.0 0.0
0.0 0.0 0.0 0.0 0.0 0.0 0.0 0.0
0.0 0.0 0.0 0.0 0.0 0.0 0.0 0.0
0.0 0.0 0.0 0.0 0.0 0.0 0.0 0.0
0.0 0.0 0.0 0.0 0.0 0.0 0.0 0.0
0.0 0.0 0.0 0.0 0.0 0.0 0.0 0.0
0.0 0.0 0.0 0.0 0.0 0.0 0.0 0.0
0.0 0.0 0.0 0.0 0.0 0.0 0.0 0.0
0.0 0.0 0.0 0.0 0.0 0.0 0.0 0.0
0.0 0.0 0.0 0.0 0.0 0.0 0.0 0.0

actor_fc_layers.blocks.2.block.1.running_var f4 [128]
00000000: 0000 803f 0000 803f 0000 803f 0000 803f
00000010: 0000 803f 0000 803f 0000 803f 0000 803f
00000020: 0000 803f 0000 803f 0000 803f 0000 803f
00000030: 0000 803f 0000 803f 0000 803f 0000 803f
00000040: 0000 803f 0000 803f 0000 803f 0000 803f
00000050: 0000 803f 0000 803f 0000 803f 0000 803f
00000060: 0000 803f 0000 803f 0000 803f 0000 803f
00000070: 0000 803f 0000 803f 0000 803f 0000 803f
00000080: 0000 803f 0000 803f 0000 803f 0000 803f
00000090: 0000 803f 0000 803f 0000 803f 0000 803f
000000a0: 0000 803f 0000 803f 0000 803f 0000 803f
000000b0: 0000 803f 0000 803f 0000 803f 0000 803f
000000c0: 0000 803f 0000 803f 0000 803f 0000 803f
000000d0: 0000 803f 0000 803f 0000 803f 0000 803f
000000e0: 0000 803f 0000 803f 0000 803f 0000 803f
000000f0: 0000 803f 0000 803f 0000 803f 0000 803f
00000100: 0000 803f 0000 803f 0000 803f 0000 803f
00000110: 0000 803f 0000 803f 0000 803f 0000 803f
00000120: 0000 803f 0000 803f 0000 803f 0000 803f
00000130: 0000 803f 0000 803f 0000 803f 0000 803f
00000140: 0000 803f 0000 803f 0000 803f 0000 803f
00000150: 0000 803f 0000 803f 0000 803f 0000 803f
00000160: 0000 803f 0000 803f 0000 803f 0000 803f
00000170: 0000 803f 0000 803f 0000 803f 0000 803f
00000180: 0000 803f 0000 803f 0000 803f 0000 803f
00000190: 0000 803f 0000 803f 0000 803f 0000 803f
000001a0: 0000 803f 0000 803f 0000 803f 0000 803f
000001b0: 0000 803f 0000 803f 0000 803f 0000 803f
000001c0: 0000 803f 0000 803f 0000 803f 0000 803f
000001d0: 0000 803f 0000 803f 0000 803f 0000 803f
000001e0: 0000 803f 0000 803f 0000 803f 0000 803f
000001f0: 0000 803f 0000 803f 0000 803f 0000 803f
1.0 1.0 1.0 1.0 1.0 1.0 1.0 1.0
1.0 1.0 1.0 1.0 1.0 1.0 1.0 1.0
1.0 1.0 1.0 1.0 1.0 1.0 1.0 1.0
1.0 1.0 1.0 1.0 1.0 1.0 1.0 1.0
1.0 1.0 1.0 1.0 1.0 1.0 1.0 1.0
1.0 1.0 1.0 1.0 1.0 1.0 1.0 1.0
1.0 1.0 1.0 1.0 1.0 1.0 1.0 1.0
1.0 1.0 1.0 1.0 1.0 1.0 1.0 1.0
1.0 1.0 1.0 1.0 1.0 1.0 1.0 1.0
1.0 1.0 1.0 1.0 1.0 1.0 1.0 1.0
1.0 1.0 1.0 1.0 1.0 1.0 1.0 1.0
1.0 1.0 1.0 1.0 1.0 1.0 1.0 1.0
1.0 1.0 1.0 1.0 1.0 1.0 1.0 1.0
1.0 1.0 1.0 1.0 1.0 1.0 1.0 1.0
1.0 1.0 1.0 1.0 1.0 1.0 1.0 1.0
1.0 1.0 1.0 1.0 1.0 1.0 1.0 1.0
