saved_models/agent_maddpgv2_vs_opp_maddpgv2_3_vs_1_1_big_5_sec_agent_best_models/maddpgv2_target_actor_2.pt (torch, 160779 bytes, 21 tensors)

actor_fc_layers.blocks.0.block.0.weight f4 [128, 22]
0	0x3dd3fd61	0.103510626
1	0xbd235f44	-0.039885774
2	0xbdeac9b4	-0.11464253
3	0xbdc9fe4c	-0.098629564
4	0x3e58d785	0.21175964
5	0xbd34f4a3	-0.044178616
6	0xbd826930	-0.06367719
7	0xbbac2041	-0.0052528684
8	0x3e26ddd2	0.16295555
9	0x3e28eea0	0.16497278
10	0x3e2398c9	0.15976252
11	0xbdf7b632	-0.12095298
12	0xbe4938fa	-0.19650641
13	0xbe7b7c6a	-0.24559179
14	0xbd97e607	-0.07416921
15	0xbd2df7d3	-0.04247267
16	0x3db29fd2	0.087218896
17	0x3d04c007	0.032409694
18	0x3d04fba5	0.03246655
19	0xbdbfe66f	-0.093701236
20	0x3e3f7d2e	0.18700096
21	0xbe251d26	-0.161244
22	0xbdc1616c	-0.0944241
23	0x3bce19a0	0.006289676
24	0x3d3fd2f9	0.04683206
25	0xbe203047	-0.15643416
26	0xbe0bc047	-0.13647567
27	0x3bd5dfe2	0.006526933
28	0xbbc23a17	-0.005927335
29	0x3bc80b0b	0.006104832
30	0xbde74817	-0.11293047
31	0x3e2aa765	0.16665418
32	0x3d17962c	0.03700845
33	0x3e54f4e1	0.20796539
34	0x3ec7ff54	0.39061987
35	0x3e3afd48	0.18260682
36	0x3c65337b	0.013989325
37	0x3df9db4e	0.12200032
38	0xbe18fa3e	-0.1493921
39	0x3e0e20bf	0.13879679
40	0xbe1f307f	-0.15545844
41	0x3e84a25c	0.2590512
42	0xbba2f696	-0.004973243
43	0xbd981533	-0.074259184
44	0xbd0b6887	-0.034035232
45	0xbe98b406	-0.29824847
46	0x3e828954	0.25495398
47	0xbd03fa38	-0.03222105
48	0xbd5b8949	-0.053597722
49	0x3e09c6a3	0.1345468
50	0xbe2c7eaf	-0.16845201
51	0xbe3c03df	-0.18360852
52	0x3c77dc36	0.015128186
53	0xbd206be0	-0.039165378
54	0x3dd41872	0.10356225
55	0xbc9db68d	-0.019252086
56	0xbe974254	-0.29542792
57	0x3e2d9bc0	0.16953945
58	0x3d8fc9be	0.07020901
59	0x3d9d98cb	0.076951586
60	0x3c0a4248	0.008438654
61	0xbdcd86aa	-0.10035451
62	0xbc56ce75	-0.013110747
63	0xbdfae243	-0.12250187
64	0x3da2b121	0.07943941
65	0x3de409e2	0.111346975
66	0xbed51560	-0.4161787
67	0x3ce1d076	0.027565222
68	0xbd7b426e	-0.06134265
69	0x3db4bad0	0.08824694
70	0xbdc9434a	-0.098272875
71	0x3ca47a43	0.02007783
72	0x3c2344a0	0.009965092
73	0xbd48b48d	-0.04900031
74	0x3e53ff8c	0.20702952
75	0x3d33b2ec	0.043871805
76	0xbe016b77	-0.12638651
77	0xbdb9008a	-0.09033306
78	0xbd9a5482	-0.0753565
79	0xbeb1602a	-0.3464368
80	0x3ed8a578	0.42313743
81	0xbceaecb8	-0.02867733
82	0x3ce83544	0.028345712
83	0x3dc57d3d	0.09643028
84	0xbdb80946	-0.08986144
85	0xbc55fc68	-0.013060667
86	0x3d8fd737	0.07023471
87	0x3df68bd4	0.12038389
88	0xbea1c476	-0.315952
89	0x3d4f5881	0.050621513
90	0x3e7c8a69	0.24662174
91	0x3e0c6fc9	0.13714518
92	0xbd817c59	-0.063225456
93	0xbd835e4d	-0.06414471
94	0x3d87d47f	0.06632327
95	0x3d0b6724	0.03403391
96	0xbd91ac12	-0.07112898
97	0xbcd30846	-0.025760781
98	0x3c0cde52	0.008597927
99	0x3dc024d8	0.093820274
100	0x3e16a392	0.14710835
101	0x3e9b4ba9	0.30331162
102	0xbe58df77	-0.21178995
103	0xbc0a2d3d	-0.008433637
104	0x3cb02abb	0.02150475
105	0x3c1072ab	0.0088164015
106	0x3c653dce	0.013991786
107	0x3ca7ab2b	0.020467361
108	0xbd791596	-0.0608116
109	0x3ea719f7	0.32636997
110	0xbe89b6eb	-0.26897368
111	0xbd662a84	-0.05619289
112	0x3e348bc5	0.17631443
113	0x3d4c3277	0.049852815
114	0x3c7ad396	0.015309235
115	0xbdfcdfcd	-0.12347374
116	0xbd116a03	-0.03550149
117	0xbdb46195	-0.08807675
118	0x3d192a25	0.037393708
119	0xbceb840c	-0.028749488
120	0xbafdfc92	-0.001937764
121	0xbdbfa916	-0.093584225
122	0x3d5d4913	0.054024767
123	0x3e695ce0	0.22789335
124	0xbdb335fa	-0.087505296
125	0xbd2c29ac	-0.04203193
126	0x3d59eaf7	0.053202596
127	0xbb6a7b35	-0.0035779004
128	0xbd450ebb	-0.04810975
129	0xbe2e257c	-0.17006487
130	0x3e04a3b2	0.1295307
131	0xbdce0b83	-0.100607894
132	0xbde0ea91	-0.1098224
133	0xbbe4030e	-0.006958372
134	0x3e31569a	0.17318192
135	0x3e02e1ec	0.12781495
136	0xbeb390c9	-0.350714
137	0x3c5136ca	0.01276941
138	0xbd1683ef	-0.036746915
139	0x3cc3e6e2	0.023913804
140	0xbe274ff0	-0.16339087
141	0xbd82830a	-0.0637265
142	0xbd3071c5	-0.04307725
143	0xba84a6bc	-0.0010120491
144	0xbdc7637b	-0.09735771
145	0x3e017640	0.12642765
146	0x3d15180c	0.036399886
147	0x3d26e53e	0.040745966
148	0x3e222954	0.15836078
149	0xbd793feb	-0.060851973
150	0x3d60c881	0.054878715
151	0xbd6eac4d	-0.058269788
152	0x3c698b6a	0.01425443
153	0xbe09d3e4	-0.13459736
154	0xbdd4983f	-0.10380601
155	0x3e47e1ff	0.19519804
156	0x3e8e24ea	0.27762538
157	0x3e90e172	0.28297
158	0xbaf76f16	-0.0018877711
159	0xbd39554c	-0.04524736
160	0xbdb24bab	-0.08705839
161	0x3d90e934	0.0707573
162	0x3e050246	0.12989148
163	0xbb5b1f2c	-0.0033435328
164	0xbdc640b2	-0.096803084
165	0x3e32dad2	0.17466286
166	0x3b8cabaa	0.004292925
167	0x3e51f043	0.20501809
168	0xbd4bf3e2	-0.04979313
169	0x3d8a0369	0.06738932
170	0xbd7f33b6	-0.062305175
171	0x3e0b939d	0.13630529
172	0xbdd69dce	-0.104793176
173	0xbbc73159	-0.0060788807
174	0xbd13ac50	-0.036053002
175	0xbd8a1f73	-0.0674428
176	0xbe59361c	-0.21212047
177	0xbe042a36	-0.12906727
178	0x3e6103c4	0.21974093
179	0x3a73ca6a	0.00092998764
180	0x3cf97081	0.030449154
181	0x3d3c6b66	0.04600086
182	0xbd90fab0	-0.07079065
183	0xbdbcff71	-0.09228409
184	0xbdd5d6a8	-0.10441333
185	0xbe25f30c	-0.16205996
186	0x3df348b9	0.11879105
187	0xbdc5f4ce	-0.096658334
188	0xbdb56ad2	-0.08858265
189	0x3edc6877	0.4304845
190	0x3d6989cc	0.05701618
191	0x3cdbdf5b	0.026839903
192	0x3d026322	0.03183282
193	0xbd9df5bb	-0.07712885
194	0x3daa5de9	0.08318693
195	0xbe72a8f5	-0.23697264
196	0x3e1cda23	0.15317588
197	0xbe49dccf	-0.19713138
198	0xbdb366f2	-0.0875987
199	0x3d32e4c1	0.043675188
200	0x3d7d6b06	0.061869644
201	0xbd8c375a	-0.06846495
202	0xbdae3762	-0.08506657
203	0x3d395104	0.04524328
204	0x3d828379	0.06372733
205	0xbd332da7	-0.04374471
206	0x3dd682fa	0.104742005
207	0x3dc1b8e3	0.094590925
208	0x3c58ed63	0.013240191
209	0x3d3e40c6	0.04644849
210	0x3e88d3f3	0.26724204
211	0x3dde1424	0.10843685
212	0xbe28c2cf	-0.16480564
213	0x3d2fa43d	0.04288124
214	0xbe2e9811	-0.17050196
215	0x3bf8f481	0.0075975065
216	0xbd38820b	-0.045045894
217	0xbe58fcc9	-0.2119018
218	0x3e83182a	0.25604373
219	0xbe96eb98	-0.2947662
220	0xbdd3029c	-0.10303232
221	0x3da95a24	0.08269146
222	0x3e0b01c7	0.13574897
223	0x3e5bc530	0.2146194
224	0x3cc498c3	0.023998624
225	0xbe276110	-0.1634562
226	0xbe127b73	-0.14304905
227	0xbd54c8e7	-0.051949408
228	0x3d2d81c2	0.042360075
229	0xbd89b9a7	-0.067248635
230	0x3dc6c43a	0.09705396
231	0x3e229acd	0.15879364
232	0xbce82cf9	-0.028341757
233	0xbe12232b	-0.14271228
234	0xbe1c11bf	-0.15241145
235	0x3df151fd	0.11783216
236	0xbe2face4	-0.17155796
237	0xbe264190	-0.16235948
238	0x3df11ed1	0.11773456
239	0xbc4f998e	-0.012670888
240	0x3e277c69	0.16356052
241	0xbe81f55f	-0.25382516
242	0xbec4cc53	-0.38437137
243	0x3dab0f40	0.08352518
244	0xbd6a836a	-0.057254232
245	0x3e9e4e68	0.30919194
246	0xbd7b8cbe	-0.06141352
247	0xbdd3524b	-0.103184305
248	0xbd1dc740	-0.038520098
249	0xbe036f7f	-0.12835501
250	0x39d8519b	0.0004125953
251	0xbe0fa802	-0.14028934
252	0x3e8a1126	0.26966208
253	0xbdf26881	-0.11836339
254	0x3afe1401	0.0019384624
255	0x3e005aba	0.1253461

actor_fc_layers.blocks.0.block.1.weight f4 [128]
0	0x3f250ac7	0.6446957
1	0x3f3be50f	0.7339639
2	0x3f80d88d	1.0066086
3	0x3fad1abf	1.3523787
4	0x3f6870cc	0.90797114
5	0x3f599cd7	0.85004944
6	0x3efcd954	0.49384558
7	0x3f18e27a	0.59720576
8	0x3f52b287	0.8230366
9	0x3f64dcf9	0.8939968
10	0x3f78ff39	0.9726444
11	0x3f874072	1.0566542
12	0x3f91f8fc	1.1404109
13	0x3ef423fd	0.47683707
14	0x3f8ec598	1.1154051
15	0x3f2a50ea	0.66529715
16	0x3f897613	1.0739158
17	0x3f91d873	1.139418
18	0x3f803c5a	1.0018418
19	0x3f4a389a	0.7899262
20	0x3f6a2990	0.9146967
21	0x3f635fac	0.8881786
22	0x3fa48378	1.2852621
23	0x3f7ac32d	0.97954065
24	0x3f8631d2	1.0483954
25	0x3f891e2e	1.0712335
26	0x3f6722f4	0.9028771
27	0x3f3b986b	0.73279446
28	0x3f5e6b4f	0.8688249
29	0x3f388fe9	0.7209459
30	0x3f2b3b60	0.66887474
31	0x3f62628c	0.8843162
32	0x3f46770a	0.7752539
33	0x3f2a73d9	0.6658302
34	0x3f4cfa12	0.80069077
35	0x3f2b5c19	0.66937405
36	0x3f1205b0	0.5703993
37	0x3f3aabbd	0.729183
38	0x3f23b858	0.6395316
39	0x3f58c088	0.8466878
40	0x3f269b9a	0.6508118
41	0x3f64e714	0.894151
42	0x3f631705	0.88707
43	0x3f76ab21	0.9635487
44	0x3f5e3a23	0.8680746
45	0x3f3ff221	0.74978834
46	0x3f4dc532	0.8037902
47	0x3f31bc1f	0.69427675
48	0x3f1f8fae	0.6232861
49	0x3f7d12f9	0.98857075
50	0x3f98506b	1.1899542
51	0x3f865c2f	1.0496882
52	0x3f3f7ec4	0.74802804
53	0x3f005375	0.50127345
54	0x3f5549cf	0.8331575
55	0x3f4f3fb6	0.8095659
56	0x3f5ac297	0.8545317
57	0x3f69d080	0.9133377
58	0x3f4e70e1	0.8064099
59	0x3f2a3313	0.66484183
60	0x3f8acf62	1.0844538
61	0x3f8eead0	1.1165409
62	0x3f266429	0.6499658
63	0x3f6711c4	0.90261483
64	0x3f5bdb83	0.85881823
65	0x3f6c4ae0	0.9230175
66	0x3f56f71b	0.83970803
67	0x3f3eeb4e	0.74577796
68	0x3ef4d7e7	0.4782097
69	0x3f452252	0.77005494
70	0x3f3d37f4	0.739135
71	0x3f89904c	1.0747161
72	0x3f6f2841	0.934208
73	0x3f8390b9	1.0278541
74	0x3f286fa0	0.65795326
75	0x3f50cdb6	0.8156389
76	0x3f0efc37	0.558536
77	0x3f4de0ef	0.80421346
78	0x3fa4dbc7	1.2879571
79	0x3f5c5db2	0.8608047
80	0x3f545ea7	0.8295693
81	0x3f5a73a0	0.8533268
82	0x3fa0a8d3	1.2551521
83	0x3f4114c2	0.754223
84	0x3f6e7e23	0.9316122
85	0x3fb54cc0	1.4164047
86	0x3ef18976	0.47175187
87	0x3fa05848	1.2526941
88	0x3f03203c	0.5122106
89	0x3f645ccc	0.89204097
90	0x3f4c1f50	0.7973528
91	0x3f93fa43	1.1560749
92	0x3f6714ae	0.9026593
93	0x3f8d3899	1.1032897
94	0x3f25606f	0.6460027
95	0x3f5f1b15	0.871507
96	0x3f5a18ab	0.8519389
97	0x3f2180ab	0.63086957
98	0x3f4ab7d1	0.7918673
99	0x3f260a30	0.64859295
100	0x3f6c7127	0.92360157
101	0x3f651bd0	0.89495564
102	0x3fc7ad0c	1.5599685
103	0x3fb22b91	1.3919545
104	0x3f78b17d	0.97145826
105	0x3f71b591	0.94417673
106	0x3f1aa1d3	0.60403174
107	0x3f0eadfc	0.5573423
108	0x3f2d6f41	0.67747885
109	0x3f6b9e38	0.920383
110	0x3f866786	1.0500343
111	0x3f1af1c6	0.60525167
112	0x3f9fac7a	1.2474511
113	0x3f5f82ff	0.8730926
114	0x3efde0ac	0.49585474
115	0x3f5926df	0.8482494
116	0x3f4975aa	0.78695166
117	0x3f8011df	1.0005454
118	0x3f5e925f	0.86942095
119	0x3f7199c8	0.94375277
120	0x3f2e95c0	0.6819725
121	0x3f471cb2	0.7777816
122	0x3f21d0d8	0.63209295
123	0x3f6cccf4	0.92500234
124	0x3f7c1b51	0.9847918
125	0x3f2e1a34	0.6800873
126	0x3f3b38dd	0.7313364
127	0x3f94d6f7	1.1628102

actor_fc_layers.blocks.0.block.1.bias f4 [128]
0	0x3f1b3ef0	0.6064291
1	0xbe5fd76c	-0.2185952
2	0x3e58ead3	0.21183328
3	0x3de72de8	0.11288053
4	0xbee3315c	-0.44373596
5	0xbe7e2082	-0.24817088
6	0x3f2880c5	0.65821487
7	0x3ea25216	0.31703252
8	0xbe5bf154	-0.21478778
9	0x3dfadbc5	0.12248949
10	0xbd5a4aac	-0.05329387
11	0xbc1fb438	-0.009747557
12	0x3daa5d20	0.083185434
13	0x3ee01b08	0.43770623
14	0xbe4fc907	-0.2029153
15	0x3f4d4582	0.80184186
16	0x3dab67ec	0.08369431
17	0xbe818002	-0.25292975
18	0xbe7fd280	-0.24982643
19	0xbda76751	-0.08174003
20	0xbdae3d51	-0.08507789
21	0xbdb7d6be	-0.08976506
22	0xbdac7c19	-0.08422107
23	0xbde15695	-0.11002842
24	0x3ead8ea8	0.338979
25	0x3c507837	0.012723974
26	0xbe1b6db0	-0.15178561
27	0x3e97f703	0.29680642
28	0xbe0f47eb	-0.13992278
29	0x3f4d09d1	0.80093104
30	0x3f19d0f3	0.60084456
31	0xbdca3f3f	-0.098753445
32	0x3f485471	0.7825385
33	0x3ec05ebe	0.37572283
34	0xbe06c823	-0.13162284
35	0x3f4503aa	0.76958716
36	0x3ebbc34c	0.36672437
37	0xbe7f6faa	-0.2494494
38	0xbe6544d5	-0.22389539
39	0x3eb12183	0.3459588
40	0xbe43340c	-0.19062823
41	0xbe7bc62a	-0.24587312
42	0xbe28e49e	-0.1649346
43	0xbd7c9b72	-0.06167168
44	0xbe814453	-0.2524744
45	0x3e9ed5df	0.31022546
46	0xbe1f3670	-0.1554811
47	0x3eb06331	0.34450677
48	0x3f4be20c	0.79641795
49	0xbcf860a2	-0.030319516
50	0xbe7afc9a	-0.24510422
51	0xbd59024b	-0.052980702
52	0x3e83ab98	0.25716853
53	0x3f1ee281	0.6206437
54	0xbe4b180b	-0.1983339
55	0xbe410843	-0.18850808
56	0xbe095be7	-0.13413964
57	0xbe669399	-0.22517242
58	0xbe6e4aba	-0.23270693
59	0x3f104173	0.5634987
60	0xbdf4b07e	-0.11947726
61	0xbeb11184	-0.34583676
62	0x3eb40e79	0.35167292
63	0xbe268dbd	-0.16265006
64	0x3d65a859	0.056068752
65	0xbdb88a0a	-0.09010704
66	0xbcb7359b	-0.022364428
67	0xbe3938a0	-0.18088007
68	0x3ef14618	0.4712379
69	0xbe55ae37	-0.20867239
70	0x3e8447bf	0.25835988
71	0x3e6a7ad7	0.22898422
72	0x3d0d5472	0.03450436
73	0xbe5b7a50	-0.21433377
74	0x3dd5ccc1	0.10439444
75	0x3e4b3b86	0.19846925
76	0x3f2dc54d	0.6787918
77	0x3cb9940d	0.022653604
78	0x3f11a704	0.5689547
79	0x3e8db165	0.27674404
80	0xbe2e96c5	-0.17049702
81	0x3c78d68c	0.015187871
82	0x3c9e77c5	0.01934422
83	0xbe531b9c	-0.20616001
84	0x3ecf0ceb	0.40439543
85	0xbe27d65e	-0.16390368
86	0x3ebf8959	0.37409475
87	0xbde73745	-0.11289839
88	0x3dd8ac93	0.10579791
89	0xbe1228a4	-0.14273316
90	0xbe498324	-0.19678932
91	0xbd1854b8	-0.03719017
92	0x3eba7ef4	0.36424983
93	0xbdf3ef40	-0.11910868
94	0x3f1582a5	0.5840247
95	0xbe71e612	-0.23622921
96	0xbe437fe7	-0.1909176
97	0x3f143a46	0.5790142
98	0x3e0adc34	0.13560563
99	0x3f1b95dc	0.6077554
100	0xbd1cc788	-0.038276225
101	0xbdd66504	-0.10468486
102	0xbeacdb67	-0.3376114
103	0xbda110a9	-0.07864506
104	0xbd3c626a	-0.045992292
105	0xbc7bfb07	-0.015379674
106	0x3f148870	0.5802069
107	0x3f1dc4fb	0.61628693
108	0x3f465eee	0.774886
109	0xbc872f43	-0.016502028
110	0x3ea9dbe5	0.3317558
111	0x3eef4df3	0.46739158
112	0xbeccbdad	-0.3998846
113	0xbd8dcdcb	-0.069240175
114	0x3eef468f	0.4673352
115	0xbe0915fb	-0.13387291
116	0x3f39f96a	0.726462
117	0xbd81ed2b	-0.06344064
118	0xbe25f7d3	-0.16207819
119	0x3ed3f693	0.4139906
120	0x3f15bc0f	0.5849008
121	0x3ef32bb2	0.47494274
122	0xbc89903f	-0.016792415
123	0xbe26a915	-0.16275437
124	0xbd3fbd02	-0.04681111
125	0x3f105d12	0.56392014
126	0x3f3fb284	0.7488177
127	0xbde6be2d	-0.11266742

actor_fc_layers.blocks.0.block.1.running_mean f4 [128]
0	0x00000000	0.0
1	0x00000000	0.0
2	0x00000000	0.0
3	0x00000000	0.0
4	0x00000000	0.0
5	0x00000000	0.0
6	0x00000000	0.0
7	0x00000000	0.0
8	0x00000000	0.0
9	0x00000000	0.0
10	0x00000000	0.0
11	0x00000000	0.0
12	0x00000000	0.0
13	0x00000000	0.0
14	0x00000000	0.0
15	0x00000000	0.0
16	0x00000000	0.0
17	0x00000000	0.0
18	0x00000000	0.0
19	0x00000000	0.0
20	0x00000000	0.0
21	0x00000000	0.0
22	0x00000000	0.0
23	0x00000000	0.0
24	0x00000000	0.0
25	0x00000000	0.0
26	0x00000000	0.0
27	0x00000000	0.0
28	0x00000000	0.0
29	0x00000000	0.0
30	0x00000000	0.0
31	0x00000000	0.0
32	0x00000000	0.0
33	0x00000000	0.0
34	0x00000000	0.0
35	0x00000000	0.0
36	0x00000000	0.0
37	0x00000000	0.0
38	0x00000000	0.0
39	0x00000000	0.0
40	0x00000000	0.0
41	0x00000000	0.0
42	0x00000000	0.0
43	0x00000000	0.0
44	0x00000000	0.0
45	0x00000000	0.0
46	0x00000000	0.0
47	0x00000000	0.0
48	0x00000000	0.0
49	0x00000000	0.0
50	0x00000000	0.0
51	0x00000000	0.0
52	0x00000000	0.0
53	0x00000000	0.0
54	0x00000000	0.0
55	0x00000000	0.0
56	0x00000000	0.0
57	0x00000000	0.0
58	0x00000000	0.0
59	0x00000000	0.0
60	0x00000000	0.0
61	0x00000000	0.0
62	0x00000000	0.0
63	0x00000000	0.0
64	0x00000000	0.0
65	0x00000000	0.0
66	0x00000000	0.0
67	0x00000000	0.0
68	0x00000000	0.0
69	0x00000000	0.0
70	0x00000000	0.0
71	0x00000000	0.0
72	0x00000000	0.0
73	0x00000000	0.0
74	0x00000000	0.0
75	0x00000000	0.0
76	0x00000000	0.0
77	0x00000000	0.0
78	0x00000000	0.0
79	0x00000000	0.0
80	0x00000000	0.0
81	0x00000000	0.0
82	0x00000000	0.0
83	0x00000000	0.0
84	0x00000000	0.0
85	0x00000000	0.0
86	0x00000000	0.0
87	0x00000000	0.0
88	0x00000000	0.0
89	0x00000000	0.0
90	0x00000000	0.0
91	0x00000000	0.0
92	0x00000000	0.0
93	0x00000000	0.0
94	0x00000000	0.0
95	0x00000000	0.0
96	0x00000000	0.0
97	0x00000000	0.0
98	0x00000000	0.0
99	0x00000000	0.0
100	0x00000000	0.0
101	0x00000000	0.0
102	0x00000000	0.0
103	0x00000000	0.0
104	0x00000000	0.0
105	0x00000000	0.0
106	0x00000000	0.0
107	0x00000000	0.0
108	0x00000000	0.0
109	0x00000000	0.0
110	0x00000000	0.0
111	0x00000000	0.0
112	0x00000000	0.0
113	0x00000000	0.0
114	0x00000000	0.0
115	0x00000000	0.0
116	0x00000000	0.0
117	0x00000000	0.0
118	0x00000000	0.0
119	0x00000000	0.0
120	0x00000000	0.0
121	0x00000000	0.0
122	0x00000000	0.0
123	0x00000000	0.0
124	0x00000000	0.0
125	0x00000000	0.0
126	0x00000000	0.0
127	0x00000000	0.0

actor_fc_layers.blocks.0.block.1.running_var f4 [128]
0	0x3f800000	1.0
1	0x3f800000	1.0
2	0x3f800000	1.0
3	0x3f800000	1.0
4	0x3f800000	1.0
5	0x3f800000	1.0
6	0x3f800000	1.0
7	0x3f800000	1.0
8	0x3f800000	1.0
9	0x3f800000	1.0
10	0x3f800000	1.0
11	0x3f800000	1.0
12	0x3f800000	1.0
13	0x3f800000	1.0
14	0x3f800000	1.0
15	0x3f800000	1.0
16	0x3f800000	1.0
17	0x3f800000	1.0
18	0x3f800000	1.0
19	0x3f800000	1.0
20	0x3f800000	1.0
21	0x3f800000	1.0
22	0x3f800000	1.0
23	0x3f800000	1.0
24	0x3f800000	1.0
25	0x3f800000	1.0
26	0x3f800000	1.0
27	0x3f800000	1.0
28	0x3f800000	1.0
29	0x3f800000	1.0
30	0x3f800000	1.0
31	0x3f800000	1.0
32	0x3f800000	1.0
33	0x3f800000	1.0
34	0x3f800000	1.0
35	0x3f800000	1.0
36	0x3f800000	1.0
37	0x3f800000	1.0
38	0x3f800000	1.0
39	0x3f800000	1.0
40	0x3f800000	1.0
41	0x3f800000	1.0
42	0x3f800000	1.0
43	0x3f800000	1.0
44	0x3f800000	1.0
45	0x3f800000	1.0
46	0x3f800000	1.0
47	0x3f800000	1.0
48	0x3f800000	1.0
49	0x3f800000	1.0
50	0x3f800000	1.0
51	0x3f800000	1.0
52	0x3f800000	1.0
53	0x3f800000	1.0
54	0x3f800000	1.0
55	0x3f800000	1.0
56	0x3f800000	1.0
57	0x3f800000	1.0
58	0x3f800000	1.0
59	0x3f800000	1.0
60	0x3f800000	1.0
61	0x3f800000	1.0
62	0x3f800000	1.0
63	0x3f800000	1.0
64	0x3f800000	1.0
65	0x3f800000	1.0
66	0x3f800000	1.0
67	0x3f800000	1.0
68	0x3f800000	1.0
69	0x3f800000	1.0
70	0x3f800000	1.0
71	0x3f800000	1.0
72	0x3f800000	1.0
73	0x3f800000	1.0
74	0x3f800000	1.0
75	0x3f800000	1.0
76	0x3f800000	1.0
77	0x3f800000	1.0
78	0x3f800000	1.0
79	0x3f800000	1.0
80	0x3f800000	1.0
81	0x3f800000	1.0
82	0x3f800000	1.0
83	0x3f800000	1.0
84	0x3f800000	1.0
85	0x3f800000	1.0
86	0x3f800000	1.0
87	0x3f800000	1.0
88	0x3f800000	1.0
89	0x3f800000	1.0
90	0x3f800000	1.0
91	0x3f800000	1.0
92	0x3f800000	1.0
93	0x3f800000	1.0
94	0x3f800000	1.0
95	0x3f800000	1.0
96	0x3f800000	1.0
97	0x3f800000	1.0
98	0x3f800000	1.0
99	0x3f800000	1.0
100	0x3f800000	1.0
101	0x3f800000	1.0
102	0x3f800000	1.0
103	0x3f800000	1.0
104	0x3f800000	1.0
105	0x3f800000	1.0
106	0x3f800000	1.0
107	0x3f800000	1.0
108	0x3f800000	1.0
109	0x3f800000	1.0
110	0x3f800000	1.0
111	0x3f800000	1.0
112	0x3f800000	1.0
113	0x3f800000	1.0
114	0x3f800000	1.0
115	0x3f800000	1.0
116	0x3f800000	1.0
117	0x3f800000	1.0
118	0x3f800000	1.0
119	0x3f800000	1.0
120	0x3f800000	1.0
121	0x3f800000	1.0
122	0x3f800000	1.0
123	0x3f800000	1.0
124	0x3f800000	1.0
125	0x3f800000	1.0
126	0x3f800000	1.0
127	0x3f800000	1.0

actor_fc_layers.blocks.1.block.0.weight f4 [128, 128]
0	0x3d55c413	0.052188944
1	0x3e1306e8	0.14358103
2	0xbd944abc	-0.07240817
3	0xbe79445e	-0.24342486
4	0x3e754295	0.2395118
5	0xbd5a6eff	-0.05332851
6	0xbe3408ea	-0.17581525
7	0xbde0ec54	-0.10982576
8	0xbd6b057c	-0.057378277
9	0xbebc6a9d	-0.3680009
10	0xb9f9b7fe	-0.00047630066
11	0xbe048b7b	-0.12943833
12	0xbbeaab3a	-0.007161525
13	0x3d68c424	0.05682768
14	0x3e040007	0.12890635
15	0xbae54471	-0.0017491711
16	0xbc594682	-0.013261439
17	0xbe71b27a	-0.2360324
18	0x3e3a9515	0.18220933
19	0x3e00fc40	0.12596226
20	0xbd54d5cb	-0.0519617
21	0xbca91119	-0.020638036
22	0x3e598ba8	0.21244681
23	0x3e5eb010	0.2174685
24	0xbdfae8ae	-0.122514114
25	0x3dce4107	0.10070997
26	0x3e174154	0.14771014
27	0xbe2aa6f5	-0.16665252
28	0x3dce5812	0.10075392
29	0xbe951c1b	-0.29123005
30	0xbd910e38	-0.0708279
31	0x3e6b0004	0.22949225
32	0xbdf0bfe6	-0.11755352
33	0x3d7ef1e1	0.062242392
34	0xbd07d60e	-0.033163123
35	0xbbb12d46	-0.0054070083
36	0x3c036d27	0.008021629
37	0x3ddb4768	0.10706979
38	0x3e6a0d70	0.22856688
39	0xbe372f8d	-0.17889233
40	0x3e8e5e52	0.27806336
41	0x3ddda0f8	0.10821718
42	0xbe187524	-0.14888436
43	0x3d0632ea	0.0327634
44	0x3e77136d	0.24128504
45	0x3d0dc9e2	0.03461636
46	0xbd47f03b	-0.048813086
47	0x3dcfc4eb	0.10144981
48	0xbe56a514	-0.2096141
49	0xbda0ff79	-0.078612275
50	0xbd920a2b	-0.07130846
51	0xbda8f689	-0.08250148
52	0x3d8d990f	0.06913959
53	0xbd9a43a4	-0.07532433
54	0x3e5ba45f	0.21449421
55	0x3e0e548e	0.13899443
56	0x3dfedebd	0.12444828
57	0x3cc0b447	0.023523463
58	0x3dd98c6f	0.10622489
59	0x3e31f3b5	0.17378123
60	0x3dce8c6b	0.10085376
61	0xbdf6ef7e	-0.12057398
62	0xbe001dca	-0.12511364
63	0x3cdc5a84	0.02689863
64	0xbd86fed3	-0.065915726
65	0x3d1d8348	0.038455278
66	0x3e6a936d	0.22907801
67	0x3dccd5bf	0.10001706
68	0x3cbe7802	0.023250584
69	0x3daae830	0.083450675
70	0xbe4531e3	-0.19257312
71	0xbdac28e5	-0.084062375
72	0x3cb1a065	0.021682927
73	0xbd8e23bb	-0.06940409
74	0xbe465a5f	-0.19370411
75	0xbdf06032	-0.11737098
76	0x3d2119a4	0.039331093
77	0x3d5bd91c	0.05367385
78	0xbeb7c20a	-0.35890228
79	0xbddf07f3	-0.10890188
80	0x3e566ec7	0.20940696
81	0x3cc725e3	0.024310058
82	0xbaf532f6	-0.0018707204
83	0x3e5abf78	0.21362102
84	0xbd8a939f	-0.06766438
85	0x3e0076a7	0.12545262
86	0x3e6a09ec	0.22855347
87	0x3dfd5756	0.12370174
88	0x3e4ab72b	0.19796436
89	0xbb96aa8b	-0.004597967
90	0x3d5087d8	0.0509108
91	0x3d90daa8	0.07072955
92	0xbda996b0	-0.082806945
93	0x3cb5f519	0.022211598
94	0xbd91486b	-0.07093891
95	0xbdda1398	-0.106482685
96	0xbca066bd	-0.01958024
97	0x3dd4a623	0.103832506
98	0xbe17e04f	-0.1483166
99	0xbd3e521e	-0.04646503
100	0xbda4630c	-0.08026704
101	0xbe05650f	-0.13026832
102	0xbd7a976e	-0.06117957
103	0xbe57314f	-0.21014903
104	0x3cc970ff	0.024590014
105	0x3e2910b4	0.16510278
106	0xbe66baa8	-0.22532141
107	0xbdb77c1e	-0.0895922
108	0xbe99b060	-0.30017376
109	0xb99705f3	-0.00028805397
110	0x3d064d7a	0.03278873
111	0xbe0bc76f	-0.13650297
112	0x3d9f6cbb	0.077844106
113	0x3c9634f7	0.018335802
114	0xbe239919	-0.15976371
115	0x3cc99b93	0.024610316
116	0x3b1b431b	0.002369112
117	0xbcfc9fbe	-0.03083789
118	0x3d9cc318	0.07654399
119	0x3d94d17f	0.07266521
120	0xbd128fc4	-0.035781637
121	0xbe6d3735	-0.23165591
122	0x3ebd568d	0.36980096
123	0xbd170b08	-0.036875755
124	0x3d7e944f	0.062153157
125	0x3d5945bb	0.053045016
126	0x3cebe488	0.028795496
127	0xbd59cce3	-0.05317391
128	0x3dde8963	0.10866048
129	0x3c7eb555	0.015546163
130	0x3e3624c1	0.17787458
131	0xbdc5db6b	-0.09660991
132	0x3e1770fb	0.14789192
133	0x3c353998	0.011061095
134	0xbe37a5ea	-0.17934385
135	0xbe0956d3	-0.13412027
136	0x3e103ecb	0.14086454
137	0x3c9a2e8b	0.018821022
138	0xbd3eb9db	-0.046563964
139	0xbd919434	-0.07108346
140	0xbcf1613a	-0.029465307
141	0xbb8721fb	-0.004123924
142	0xbdb016c2	-0.08598091
143	0xbce5df85	-0.028060684
144	0x3d7cea59	0.06174693
145	0xbe851f23	-0.26000318
146	0x3dd980b7	0.106202535
147	0x3d7feb19	0.062480066
148	0x3d219ce4	0.039456263
149	0x3e17b9a3	0.14816909
150	0x3b9a0e83	0.004701437
151	0xbd499cbf	-0.04922175
152	0x3d49728e	0.049181513
153	0xbdfca59a	-0.123362735
154	0x3e1d0133	0.15332489
155	0x3d255e38	0.040373057
156	0x3ca94124	0.020660944
157	0xbe170dc4	-0.14751345
158	0x3cbafe8d	0.022826457
159	0x3e0ec1ee	0.13941166
160	0xbdec88fd	-0.11549566
161	0x3d79ff15	0.06103428
162	0x3e20e678	0.15712917
163	0x3da975e0	0.08274436
164	0xbe4b730f	-0.1986811
165	0x3ddf9ebb	0.10918947
166	0xbe5f4098	-0.21801984
167	0xbe3e7352	-0.18598679
168	0xbdbdac1a	-0.092613414
169	0xbd3c5afe	-0.045985214
170	0xbd6804bd	-0.056645144
171	0xbc196932	-0.009363459
172	0x3de072d8	0.10959405
173	0x3ca21e95	0.019789973
174	0xbe379c8a	-0.17930809
175	0xbdc98937	-0.09840625
176	0xbdebcac1	-0.115132816
177	0xbdaa9e28	-0.08330947
178	0xbd3247b2	-0.043525405
179	0xbe44babf	-0.19211863
180	0x3d947743	0.0724931
181	0xbda4e00d	-0.08050547
182	0xbd827967	-0.06370812
183	0x3e4793a6	0.19489917
184	0xbc54eff8	-0.012996666
185	0x3d6a4a60	0.057199836
186	0x3d769d75	0.060208756
187	0x3dafb89c	0.08580133
188	0xbe1369bc	-0.14395803
189	0xbdf214ea	-0.11820395
190	0xbd477fbb	-0.048705798
191	0x3dcb8a7e	0.09938525
192	0xbdc08d9b	-0.09402009
193	0x3d3129c2	0.043252714
194	0xbcf72c6e	-0.030172553
195	0x3d0b762e	0.03404825
196	0x3cca64be	0.02470624
197	0x3d7cab11	0.06168658
198	0xbe22033d	-0.15821548
199	0x3e0cfa12	0.13767269
200	0x3e410522	0.18849614
201	0xbe06cba7	-0.13163625
202	0xbe07bfcb	-0.13256757
203	0x3c973983	0.01846004
204	0xbd8c4217	-0.06848543
205	0xbba1c071	-0.004936271
206	0x3d145b87	0.0362201
207	0x3d893d0a	0.067010954
208	0x3e06b116	0.1315349
209	0xbda25671	-0.07926644
210	0xbe77964a	-0.24178424
211	0x3d6de3dc	0.05807863
212	0x3d021a16	0.03176316
213	0xbe1fa36c	-0.15589684
214	0x3cf6cf11	0.030128034
215	0xbe29be25	-0.1657644
216	0xbd80ca40	-0.06288576
217	0x3d4a5262	0.049394973
218	0xbd8bb12b	-0.068209015
219	0x3dfecb35	0.124411024
220	0xbe3743de	-0.17896983
221	0xbe3e9ac6	-0.18613729
222	0xbd119fec	-0.035552904
223	0xbe7bdade	-0.2459521
224	0xba80ae52	-0.0009817577
225	0x3deb3010	0.114837766
226	0xbda82209	-0.08209617
227	0xbe2c524d	-0.1682827
228	0xbd2e8725	-0.042609353
229	0xbe128a4c	-0.14310569
230	0x3d4c7fce	0.04992657
231	0x3d9e5e07	0.07732778
232	0x3da623e0	0.08112311
233	0xbdccc813	-0.09999099
234	0xbddd9dd8	-0.10821122
235	0xbe63cc45	-0.22245891
236	0x3d14c0b3	0.036316585
237	0xbdfc3a92	-0.12315859
238	0x3d4a5582	0.049397953
239	0xbe546484	-0.20741469
240	0xbdd94170	-0.10608184
241	0xbdad8361	-0.08472324
242	0xbe19e008	-0.15026867
243	0x3c7319d9	0.0148377055
244	0x3d8e5682	0.06950094
245	0x3dcda3fe	0.10041045
246	0x3dfb6cb5	0.122765936
247	0xbd0ea8ef	-0.034829076
248	0xbd73b93a	-0.059502818
249	0xbe7e741a	-0.24848977
250	0x3d4ce752	0.05002529
251	0x3d1b7a93	0.037958693
252	0xbda885d2	-0.08228649
253	0xbd93ccf4	-0.07216826
254	0x3d8afa5a	0.06786032
255	0x3df18d5e	0.11794542

actor_fc_layers.blocks.1.block.1.weight f4 [128]
0	0x3fb56a09	1.4172984
1	0x3fa047e0	1.2521935
2	0x3f7adc91	0.9799281
3	0x3f7340ea	0.95020926
4	0x3f7b6d1a	0.9821335
5	0x3f5caba8	0.86199427
6	0x3f9bcf57	1.217265
7	0x3f7d5d95	0.9897092
8	0x3f7d71e5	0.99001914
9	0x3f75f1f9	0.96072346
10	0x3f80f311	1.0074178
11	0x3f750dd9	0.95724255
12	0x3fa78ec5	1.3090445
13	0x3f7a5ae1	0.9779492
14	0x3f6d9bfc	0.9281614
15	0x3f7ac6b1	0.9795943
16	0x3f776f38	0.9665408
17	0x3f75e321	0.96049696
18	0x3f6ffb68	0.9374299
19	0x3f7b31b9	0.98122746
20	0x3f7793f1	0.96710116
21	0x3f7b36cd	0.98130494
22	0x3f639aa8	0.8890786
23	0x3f9ca568	1.2237978
24	0x3f7bf315	0.9841779
25	0x3f88e13e	1.0693738
26	0x3f8f72e2	1.1206934
27	0x3f7dfc2d	0.99212915
28	0x3f83b696	1.0290096
29	0x3f495223	0.78640956
30	0x3fc384b5	1.5274874
31	0x3f83c122	1.0293314
32	0x3f73478d	0.9503105
33	0x3f76d169	0.96413285
34	0x3f7bf7c5	0.9842494
35	0x3f7aa965	0.97914726
36	0x3f9b6fa3	1.2143444
37	0x3f87e1c6	1.0615776
38	0x3f84afaa	1.0366108
39	0x3f864e88	1.0492716
40	0x3f7cf355	0.98808795
41	0x3f7abee1	0.9794751
42	0x3f9ff4ac	1.2496543
43	0x3f7dae71	0.990943
44	0x3fa4ca91	1.2874318
45	0x3f7c23e9	0.98492295
46	0x3fad253c	1.3526988
47	0x3f7d1551	0.9886065
48	0x3f774a82	0.96598065
49	0x3f74ffc9	0.957028
50	0x3f793e81	0.97361
51	0x3f828e1a	1.0199616
52	0x3f75b509	0.9597936
53	0x3f7af401	0.9802857
54	0x3f8dcaaa	1.1077473
55	0x3f85fd02	1.0467837
56	0x3f79c2ed	0.9756306
57	0x3f9d0fa7	1.2270402
58	0x3f81d682	1.0143588
59	0x3f84c5af	1.0372828
60	0x3f7d5629	0.98959595
61	0x3f70d9ae	0.9408215
62	0x3fa9ee30	1.3275814
63	0x3f7ccab5	0.98746806
64	0x3fa4888c	1.2854171
65	0x3f7df205	0.9919742
66	0x3faa70a8	1.331563
67	0x3fa5ca09	1.2952281
68	0x3f76f4f5	0.96467525
69	0x3f7c2709	0.9849706
70	0x3f8584b2	1.043112
71	0x3f7c90e5	0.9865859
72	0x3fa748d8	1.3069105
73	0x3f70ec6d	0.9411076
74	0x3f7eb749	0.9949842
75	0x3f9323d0	1.1495304
76	0x3f801fef	1.0009745
77	0x3f940c3b	1.1566232
78	0x3f7d6051	0.9897509
79	0x3f9e39b3	1.2361358
80	0x3f99817f	1.1992644
81	0x3f6ea5c2	0.93221676
82	0x3f7a5b45	0.97795516
83	0x3f878aaa	1.0589192
84	0x3f807f00	1.0038757
85	0x3f87ae36	1.060004
86	0x3fc9cab2	1.5764983
87	0x3f7c15da	0.9847084
88	0x3fa67cf1	1.3006879
89	0x3f9994a3	1.1998485
90	0x3fa94464	1.3223996
91	0x3f7908ea	0.97279227
92	0x3f8224a2	1.016743
93	0x3f76a545	0.9634593
94	0x3f845dc6	1.0341117
95	0x3f741b46	0.95354116
96	0x3f952194	1.1650872
97	0x3f7d7311	0.990037
98	0x3f9e3823	1.2360882
99	0x3f93543f	1.1510085
100	0x3f77f91d	0.9686449
101	0x3fa3b3a8	1.2789202
102	0x3f6a0281	0.9141007
103	0x3f8b0b26	1.0862777
104	0x3f7ae9d9	0.98013073
105	0x3f7d711d	0.9900072
106	0x3f7f9529	0.99836975
107	0x3f770c01	0.9650269
108	0x3f7781f9	0.966827
109	0x3f80dbd3	1.0067085
110	0x3f885822	1.0651896
111	0x3f81a5ae	1.0128686
112	0x3f9c085f	1.2190055
113	0x3f8ef1fb	1.1167597
114	0x3f7ccfc9	0.98754555
115	0x3f7dbaf1	0.99113375
116	0x3f7af20e	0.98025596
117	0x3f7738ed	0.96571237
118	0x3f9c467b	1.2209009
119	0x3fa0a475	1.2550188
120	0x3f79f169	0.9763399
121	0x3f7961a9	0.9741464
122	0x3f70cfea	0.9406725
123	0x3f8d8ac4	1.1057973
124	0x3f6b1fa8	0.9184518
125	0x3f794011	0.9736338
126	0x3f86b17a	1.0522912
127	0x3f82062a	1.0158131

actor_fc_layers.blocks.1.block.1.bias f4 [128]
0	0x3d4d331a	0.050097562
1	0xbd9c1abc	-0.07622287
2	0xbc8824f7	-0.016619189
3	0xbc8cdebb	-0.01719605
4	0xbc65fa14	-0.014036674
5	0x3d85fb72	0.065421
6	0xbc33760a	-0.010953436
7	0xbc8fe557	-0.017565412
8	0xbcfe6f6a	-0.031058986
9	0xbd2c0a09	-0.042001758
10	0xbd12aab8	-0.03580734
11	0xbca8ffe9	-0.02062984
12	0x3ca18830	0.01971826
13	0xbd2fa001	-0.0428772
14	0xbc88b0cf	-0.016685871
15	0xbd19c708	-0.037543327
16	0xbd85be1f	-0.06530403
17	0xbd401357	-0.046893444
18	0xbcdbab68	-0.026815131
19	0xbcbd2d26	-0.023092818
20	0xbd32423a	-0.04352019
21	0xbcdab99c	-0.026699834
22	0xbd476bcf	-0.0486868
23	0xbd0e787e	-0.03478288
24	0xbce0639d	-0.02739125
25	0xbcfc05d6	-0.030764502
26	0xbd3ab5e6	-0.045583628
27	0xbc7ccd72	-0.015429841
28	0x3b31aef5	0.002711234
29	0x3da94250	0.08264601
30	0xbe4fbdb2	-0.20287207
31	0xbd5d3f50	-0.054015458
32	0xbbb1cc42	-0.0054259608
33	0xbd140980	-0.036141872
34	0xbd39251e	-0.045201413
35	0x3d14ed9f	0.036359426
36	0x3c796785	0.015222435
37	0xbd3f619a	-0.04672394
38	0x3cf0a198	0.029373929
39	0x3cff3366	0.031152438
40	0x3b6b0130	0.0035858862
41	0xbcd6d390	-0.026223928
42	0x3d91842f	0.0710529
43	0xbbb5e5de	-0.005551084
44	0x3da149b0	0.07875383
45	0xbcc7d353	-0.02439276
46	0xbd42b3ff	-0.04753494
47	0xbb7fce95	-0.0039033045
48	0x3cdecd5b	0.02719753
49	0xbd060a4b	-0.03272466
50	0xbce3da55	-0.02781407
51	0x3ce0639c	0.027391247
52	0xbd5e7640	-0.05431199
53	0xbce2c881	-0.027683498
54	0x3da1d718	0.07902354
55	0x3bad7cbd	0.005294411
56	0xbd2334b5	-0.039845187
57	0x3c554ee3	0.013019296
58	0x3cb7eef5	0.02245281
59	0xbc5459f8	-0.012960903
60	0xbcf8923e	-0.030343171
61	0x3c8c8bea	0.01715656
62	0x3ad9f137	0.0016627674
63	0xbd5fd440	-0.054645777
64	0xbc1f38c7	-0.009718127
65	0xbcde5f98	-0.027145192
66	0x3c0c6d72	0.008571016
67	0x3cfdddb5	0.030989507
68	0x3d087122	0.033311017
69	0xbd05fef7	-0.032713857
70	0xbd300dc6	-0.042981885
71	0xbd031abb	-0.032007914
72	0xbd74d982	-0.059777744
73	0xbd0a1d43	-0.033719312
74	0xbd082623	-0.033239495
75	0xba2b4fb5	-0.00065350096
76	0xbcfdfe22	-0.031004969
77	0xbd676ebd	-0.056502093
78	0xbcceb56f	-0.025232999
79	0x3dbbd7bd	0.09172008
80	0x3c684ef4	0.01417898
81	0xbdde299a	-0.108477786
82	0xbce10e52	-0.027472649
83	0xbd0d3cdf	-0.03448188
84	0x3d826efe	0.06368826
85	0xbd2e0b51	-0.04249126
86	0xbc114f6c	-0.008869033
87	0xbd1accbf	-0.037792917
88	0x3dd5fa5f	0.10448145
89	0xbc0ec1ef	-0.00871323
90	0xbd84b5d4	-0.064799935
91	0x3f1f3e75	0.62204677
92	0x3befc648	0.007317338
93	0xbd1e6128	-0.038666874
94	0xbd5d5148	-0.054032594
95	0xbd35cbb1	-0.04438371
96	0x3dd4d503	0.10392191
97	0xbcee38a1	-0.029079737
98	0xbd200dad	-0.039075542
99	0x3ccf271a	0.0252872
100	0xbd8347a7	-0.06410151
101	0xbbfb47fe	-0.0076684942
102	0x3e6df764	0.23238903
103	0xbd728e02	-0.05921746
104	0xbd4bd25f	-0.049761172
105	0xbc27e7d5	-0.010248144
106	0xbd055ffb	-0.032562237
107	0xbce20149	-0.027588503
108	0xbc1de16c	-0.009636264
109	0x3c808d1e	0.01569229
110	0x3d3ead21	0.046551827
111	0xbc9dd550	-0.019266754
112	0xbd005b50	-0.031337082
113	0x3d178b8b	0.036998313
114	0xbc9e6f38	-0.019340143
115	0xbcf63fb6	-0.030059677
116	0xbd09bb36	-0.033625804
117	0xbd06379b	-0.032767873
118	0xbc2174a9	-0.009854474
119	0x3cfd2fe1	0.03090662
120	0xbd4c1017	-0.049820032
121	0xbcf5e836	-0.030017953
122	0xbd820cce	-0.063500986
123	0x3e03c8b6	0.12869534
124	0xbba8b809	-0.005148892
125	0xbd1b3638	-0.037893504
126	0xbca639c1	-0.020291211
127	0xbc5b30c0	-0.013378322

actor_fc_layers.blocks.1.block.1.running_mean f4 [128]
0	0x00000000	0.0
1	0x00000000	0.0
2	0x00000000	0.0
3	0x00000000	0.0
4	0x00000000	0.0
5	0x00000000	0.0
6	0x00000000	0.0
7	0x00000000	0.0
8	0x00000000	0.0
9	0x00000000	0.0
10	0x00000000	0.0
11	0x00000000	0.0
12	0x00000000	0.0
13	0x00000000	0.0
14	0x00000000	0.0
15	0x00000000	0.0
16	0x00000000	0.0
17	0x00000000	0.0
18	0x00000000	0.0
19	0x00000000	0.0
20	0x00000000	0.0
21	0x00000000	0.0
22	0x00000000	0.0
23	0x00000000	0.0
24	0x00000000	0.0
25	0x00000000	0.0
26	0x00000000	0.0
27	0x00000000	0.0
28	0x00000000	0.0
29	0x00000000	0.0
30	0x00000000	0.0
31	0x00000000	0.0
32	0x00000000	0.0
33	0x00000000	0.0
34	0x00000000	0.0
35	0x00000000	0.0
36	0x00000000	0.0
37	0x00000000	0.0
38	0x00000000	0.0
39	0x00000000	0.0
40	0x00000000	0.0
41	0x00000000	0.0
42	0x00000000	0.0
43	0x00000000	0.0
44	0x00000000	0.0
45	0x00000000	0.0
46	0x00000000	0.0
47	0x00000000	0.0
48	0x00000000	0.0
49	0x00000000	0.0
50	0x00000000	0.0
51	0x00000000	0.0
52	0x00000000	0.0
53	0x00000000	0.0
54	0x00000000	0.0
55	0x00000000	0.0
56	0x00000000	0.0
57	0x00000000	0.0
58	0x00000000	0.0
59	0x00000000	0.0
60	0x00000000	0.0
61	0x00000000	0.0
62	0x00000000	0.0
63	0x00000000	0.0
64	0x00000000	0.0
65	0x00000000	0.0
66	0x00000000	0.0
67	0x00000000	0.0
68	0x00000000	0.0
69	0x00000000	0.0
70	0x00000000	0.0
71	0x00000000	0.0
72	0x00000000	0.0
73	0x00000000	0.0
74	0x00000000	0.0
75	0x00000000	0.0
76	0x00000000	0.0
77	0x00000000	0.0
78	0x00000000	0.0
79	0x00000000	0.0
80	0x00000000	0.0
81	0x00000000	0.0
82	0x00000000	0.0
83	0x00000000	0.0
84	0x00000000	0.0
85	0x00000000	0.0
86	0x00000000	0.0
87	0x00000000	0.0
88	0x00000000	0.0
89	0x00000000	0.0
90	0x00000000	0.0
91	0x00000000	0.0
92	0x00000000	0.0
93	0x00000000	0.0
94	0x00000000	0.0
95	0x00000000	0.0
96	0x00000000	0.0
97	0x00000000	0.0
98	0x00000000	0.0
99	0x00000000	0.0
100	0x00000000	0.0
101	0x00000000	0.0
102	0x00000000	0.0
103	0x00000000	0.0
104	0x00000000	0.0
105	0x00000000	0.0
106	0x00000000	0.0
107	0x00000000	0.0
108	0x00000000	0.0
109	0x00000000	0.0
110	0x00000000	0.0
111	0x00000000	0.0
112	0x00000000	0.0
113	0x00000000	0.0
114	0x00000000	0.0
115	0x00000000	0.0
116	0x00000000	0.0
117	0x00000000	0.0
118	0x00000000	0.0
119	0x00000000	0.0
120	0x00000000	0.0
121	0x00000000	0.0
122	0x00000000	0.0
123	0x00000000	0.0
124	0x00000000	0.0
125	0x00000000	0.0
126	0x00000000	0.0
127	0x00000000	0.0

actor_fc_layers.blocks.1.block.1.running_var f4 [128]
0	0x3f800000	1.0
1	0x3f800000	1.0
2	0x3f800000	1.0
3	0x3f800000	1.0
4	0x3f800000	1.0
5	0x3f800000	1.0
6	0x3f800000	1.0
7	0x3f800000	1.0
8	0x3f800000	1.0
9	0x3f800000	1.0
10	0x3f800000	1.0
11	0x3f800000	1.0
12	0x3f800000	1.0
13	0x3f800000	1.0
14	0x3f800000	1.0
15	0x3f800000	1.0
16	0x3f800000	1.0
17	0x3f800000	1.0
18	0x3f800000	1.0
19	0x3f800000	1.0
20	0x3f800000	1.0
21	0x3f800000	1.0
22	0x3f800000	1.0
23	0x3f800000	1.0
24	0x3f800000	1.0
25	0x3f800000	1.0
26	0x3f800000	1.0
27	0x3f800000	1.0
28	0x3f800000	1.0
29	0x3f800000	1.0
30	0x3f800000	1.0
31	0x3f800000	1.0
32	0x3f800000	1.0
33	0x3f800000	1.0
34	0x3f800000	1.0
35	0x3f800000	1.0
36	0x3f800000	1.0
37	0x3f800000	1.0
38	0x3f800000	1.0
39	0x3f800000	1.0
40	0x3f800000	1.0
41	0x3f800000	1.0
42	0x3f800000	1.0
43	0x3f800000	1.0
44	0x3f800000	1.0
45	0x3f800000	1.0
46	0x3f800000	1.0
47	0x3f800000	1.0
48	0x3f800000	1.0
49	0x3f800000	1.0
50	0x3f800000	1.0
51	0x3f800000	1.0
52	0x3f800000	1.0
53	0x3f800000	1.0
54	0x3f800000	1.0
55	0x3f800000	1.0
56	0x3f800000	1.0
57	0x3f800000	1.0
58	0x3f800000	1.0
59	0x3f800000	1.0
60	0x3f800000	1.0
61	0x3f800000	1.0
62	0x3f800000	1.0
63	0x3f800000	1.0
64	0x3f800000	1.0
65	0x3f800000	1.0
66	0x3f800000	1.0
67	0x3f800000	1.0
68	0x3f800000	1.0
69	0x3f800000	1.0
70	0x3f800000	1.0
71	0x3f800000	1.0
72	0x3f800000	1.0
73	0x3f800000	1.0
74	0x3f800000	1.0
75	0x3f800000	1.0
76	0x3f800000	1.0
77	0x3f800000	1.0
78	0x3f800000	1.0
79	0x3f800000	1.0
80	0x3f800000	1.0
81	0x3f800000	1.0
82	0x3f800000	1.0
83	0x3f800000	1.0
84	0x3f800000	1.0
85	0x3f800000	1.0
86	0x3f800000	1.0
87	0x3f800000	1.0
88	0x3f800000	1.0
89	0x3f800000	1.0
90	0x3f800000	1.0
91	0x3f800000	1.0
92	0x3f800000	1.0
93	0x3f800000	1.0
94	0x3f800000	1.0
95	0x3f800000	1.0
96	0x3f800000	1.0
97	0x3f800000	1.0
98	0x3f800000	1.0
99	0x3f800000	1.0
100	0x3f800000	1.0
101	0x3f800000	1.0
102	0x3f800000	1.0
103	0x3f800000	1.0
104	0x3f800000	1.0
105	0x3f800000	1.0
106	0x3f800000	1.0
107	0x3f800000	1.0
108	0x3f800000	1.0
109	0x3f800000	1.0
110	0x3f800000	1.0
111	0x3f800000	1.0
112	0x3f800000	1.0
113	0x3f800000	1.0
114	0x3f800000	1.0
115	0x3f800000	1.0
116	0x3f800000	1.0
117	0x3f800000	1.0
118	0x3f800000	1.0
119	0x3f800000	1.0
120	0x3f800000	1.0
121	0x3f800000	1.0
122	0x3f800000	1.0
123	0x3f800000	1.0
124	0x3f800000	1.0
125	0x3f800000	1.0
126	0x3f800000	1.0
127	0x3f800000	1.0

actor_fc_layers.blocks.2.block.0.weight f4 [128, 128]
0	0xbd7879a2	-0.060662873
1	0x3dc98293	0.09839358
2	0xbcf69f06	-0.030105125
3	0xbd0b0bee	-0.033946924
4	0x39791389	0.00023753768
5	0xbce13434	-0.027490713
6	0xbdb128f9	-0.08650393
7	0xbda6bc39	-0.081413694
8	0x3ca446ed	0.020053351
9	0xbcc81acf	-0.024426846
10	0x3d916a67	0.07100373
11	0x3dcdd537	0.10050433
12	0x3c759a7a	0.014990443
13	0x3d8fe362	0.07025792
14	0xbbd5f3bc	-0.0065292995
15	0xbc4eded7	-0.012626371
16	0x3d2bf7ac	0.041984245
17	0xbd7fb8b5	-0.06243201
18	0x3d680ee5	0.05665483
19	0x3d6cd208	0.05781749
20	0x3b577ac0	0.0032879561
21	0x3c08d0d7	0.008350573
22	0x3d09e5cb	0.033666413
23	0x3d45bbc6	0.048274778
24	0x3df204e6	0.118173406
25	0x3d9de5b7	0.0770983
26	0xbd485b42	-0.048915155
27	0x3c9b99d4	0.01899425
28	0xbdbac5e9	-0.091197796
29	0x3e16b76f	0.14718412
30	0x3e7eb3c4	0.24873263
31	0x3d3fd4d6	0.046833836
32	0xbda255a9	-0.07926495
33	0xbd20b799	-0.039237592
34	0x3d46a2a3	0.048494946
35	0xbd942e37	-0.07235377
36	0xbda2001d	-0.07910178
37	0x3d35804d	0.04431181
38	0x3a0a0645	0.00052652165
39	0xbe2c4f80	-0.16827202
40	0xbde142a9	-0.109990425
41	0xbd353ac6	-0.044245504
42	0x3ce75c60	0.02824229
43	0x3ce9fb14	0.028562106
44	0x3d8c61bb	0.06854578
45	0x3d2a5618	0.04158601
46	0x3d8f3b6a	0.06993754
47	0xbc56b193	-0.01310386
48	0xbc0bdc23	-0.008536371
49	0xbd4bc89b	-0.04975186
50	0x3cae5fb0	0.021285862
51	0x3d440c86	0.047863506
52	0xbc35f901	-0.01110673
53	0xbd7d42a1	-0.06183112
54	0x3d167057	0.03672823
55	0xbbc86e03	-0.00611663
56	0x3c329a81	0.010901094
57	0xbdad9490	-0.08475602
58	0x3cdb4e70	0.0267708
59	0xbd677499	-0.05650768
60	0xbd5da0f8	-0.05410859
61	0x3d81798b	0.063220106
62	0xbbda7413	-0.006666669
63	0x3da57225	0.08078412
64	0xbdefc9cc	-0.117084116
65	0xbbd549d0	-0.0065090433
66	0x3d8a34b3	0.06748333
67	0x3c6cbbc4	0.014449064
68	0x3d1dd03c	0.038528666
69	0x3c89e052	0.016830597
70	0xbd9004fc	-0.07032201
71	0x3d820243	0.06348088
72	0x3d8b888b	0.06813153
73	0xbbddfbfb	-0.006774423
74	0x3d0972f2	0.033556886
75	0xbc999ae4	-0.018750615
76	0xbd94253c	-0.072336644
77	0x3cb9151a	0.02259307
78	0x3c2a05a1	0.010377319
79	0x3d2ed3b4	0.042682365
80	0xbd37c3fd	-0.044864643
81	0xbb87f359	-0.0041488823
82	0x3d33f68d	0.0439363
83	0xbdb2c12e	-0.08728252
84	0xbda2fe48	-0.079586565
85	0xbda4f90d	-0.08055315
86	0x3d705ca6	0.058682106
87	0xbc9878a8	-0.01861222
88	0x3b0426b3	0.0020164668
89	0x3d4b0b27	0.049571183
90	0xbc505236	-0.012714913
91	0x3dac7e2f	0.08422505
92	0xbca9676c	-0.020679198
93	0xbd34f155	-0.044175465
94	0xb99b3764	-0.00029605173
95	0xbdce561f	-0.1007502
96	0xbdb91e16	-0.090389416
97	0xbdba1302	-0.09085657
98	0x3cf64e29	0.030066567
99	0x3d95707b	0.072968446
100	0xbd457d46	-0.048215173
101	0xbb461d6e	-0.0030229944
102	0xbd9947af	-0.07484376
103	0xbdedd75d	-0.11613343
104	0x3d2a7d8d	0.04162364
105	0xbdc9afe3	-0.09848001
106	0x3d180c10	0.03712088
107	0xbc800722	-0.015628401
108	0xbd3d59ad	-0.0462281
109	0x3cc7cea2	0.024390522
110	0x3986a752	0.00025683135
111	0xbd978f10	-0.07400334
112	0x3ca281cd	0.019837284
113	0xbbd2b0f7	-0.0064297873
114	0xbd5e62b8	-0.054293364
115	0x3db856dd	0.09000943
116	0x3d962d27	0.07332831
117	0xbc54f69c	-0.012998249
118	0x3d16e588	0.03683999
119	0x3d840bbf	0.06447553
120	0xbdad7ac9	-0.08470685
121	0xbd3ef1e2	-0.046617396
122	0xbca19515	-0.019724408
123	0xbd3107c0	-0.04322028
124	0x3beb5fb9	0.007183042
125	0xbd7d8f31	-0.061904136
126	0xbb446083	-0.0029964752
127	0x3d5a6793	0.053321432
128	0xbe100ad7	-0.14066635
129	0x3ca35db9	0.019942151
130	0x3dc53d36	0.09630816
131	0x3d28f110	0.04124552
132	0x3d5ba780	0.053626537
133	0x3deded3d	0.11617515
134	0x3d68a481	0.05679751
135	0x3dada368	0.08478433
136	0x3c992294	0.018693246
137	0xbcb4edd2	-0.022086058
138	0xbc944418	-0.018098876
139	0xbdd7c818	-0.10536212
140	0xbe00c4c8	-0.12575066
141	0x3dcf9286	0.10135369
142	0xbe01182e	-0.1260688
143	0x3d0b7566	0.034047507
144	0x3c9fa308	0.019486919
145	0xbd13d8ac	-0.036095306
146	0x3da771de	0.08176015
147	0x3d033cb6	0.03204032
148	0x3d04e2fb	0.032443028
149	0x3dcaff0a	0.09911926
150	0x3e0abd6b	0.1354882
151	0xbe0c9d1b	-0.13731806
152	0x3dbf0825	0.09327725
153	0x3de1255c	0.10993454
154	0x3e272e48	0.16326249
155	0x3c248b48	0.010042973
156	0x3d8cb35f	0.0687015
157	0xbd4b073f	-0.049567457
158	0xbed2f0c9	-0.4119933
159	0x3dd40533	0.10352554
160	0x3b697965	0.0035625335
161	0x3dfe0aa1	0.12404371
162	0x3d9b7e17	0.07592409
163	0x3d0f53a2	0.034991868
164	0x3da74f7c	0.08169457
165	0x3df694de	0.12040113
166	0x3d9b539a	0.07584305
167	0xbe120ad3	-0.14261942
168	0xbd2ee869	-0.042702112
169	0x3db9dea9	0.09075672
170	0x3e6201ac	0.2207095
171	0xbce87b19	-0.02837901
172	0x3e7d022d	0.24707861
173	0xbd0a6faf	-0.033797916
174	0x3d5ef213	0.05443008
175	0x3d8538ea	0.06504996
176	0x3dfdb386	0.12387757
177	0x3dfc08f6	0.12306397
178	0xbd2ad82d	-0.041710068
179	0xbd203459	-0.039112423
180	0xbdba83e6	-0.09107189
181	0x3da99391	0.08280099
182	0x3e2e95fd	0.17049403
183	0x3de4a9c1	0.111651905
184	0xbb9a21a8	-0.004703719
185	0xbc7967e9	-0.015222528
186	0x3d1b068f	0.03784805
187	0xbd388816	-0.045051657
188	0x3d9b2c10	0.07576764
189	0xbd3af402	-0.04564286
190	0xbc81d1d2	-0.01584712
191	0x3dce4dea	0.10073455
192	0xbd140214	-0.036134794
193	0x3d3f81a1	0.046754483
194	0xbe3f958e	-0.18709394
195	0x3e97a2fb	0.29616532
196	0xbc64d7d8	-0.013967477
197	0x3ca14a14	0.019688644
198	0x3d84070e	0.06446658
199	0xbd08837f	-0.03332853
200	0x3cd66694	0.02617196
201	0x3cad9b99	0.021192359
202	0x3dca97ea	0.098922566
203	0xbe15784b	-0.1459667
204	0x3e23c411	0.15992762
205	0x39bea231	0.00036360466
206	0x3ddab22f	0.10678517
207	0xbe1dcfd7	-0.15411316
208	0x3d7cce39	0.061720107
209	0x3e687a05	0.22702797
210	0x3daf60b8	0.085633695
211	0x3d22dff1	0.03976435
212	0x3e44412c	0.19165486
213	0x3cedb81c	0.029018454
214	0xbd569156	-0.052384697
215	0x3beff7e4	0.007323252
216	0xbe529ca7	-0.2056757
217	0xbe112caf	-0.14177202
218	0x3cf957bd	0.030437345
219	0x3e9d5e88	0.30736184
220	0x3dc3904e	0.09549008
221	0x3d3b2d6e	0.045697622
222	0x3cd20963	0.025639242
223	0xbb2f3818	-0.0026736315
224	0x3d2c68f4	0.04209228
225	0x3d7a1df1	0.06106371
226	0x3d719fb9	0.058990214
227	0x3cf27565	0.029596994
228	0x3e06c3d6	0.13160643
229	0xbc920193	-0.017823016
230	0xbd03aec6	-0.0321491
231	0x3d824e0a	0.06362541
232	0x3d094b1b	0.03351889
233	0x3d2a0ca8	0.041515976
234	0x3d308039	0.043091033
235	0x3cb5df3a	0.02220117
236	0x3c099eb2	0.008399652
237	0xbc7fbb71	-0.015608654
238	0x3d7f93fd	0.062396992
239	0x3e3d0292	0.18458012
240	0xbd35c05d	-0.044372905
241	0xbd813002	-0.06307985
242	0x3e08ae13	0.13347654
243	0xbd01d7b0	-0.031699836
244	0x3dd409e3	0.10353448
245	0xbc881813	-0.016613042
246	0xbe8117ca	-0.25213462
247	0x3d9cb760	0.076521635
248	0xbdaab5cd	-0.08335457
249	0x3d8dd856	0.069260284
250	0xbc6327d1	-0.013864473
251	0xbe540ddf	-0.20708416
252	0xbc454e66	-0.012042617
253	0xbc948108	-0.018127933
254	0x3e92d483	0.2867776
255	0xbde58fd4	-0.11209074

actor_fc_layers.blocks.2.block.1.weight f4 [128]
0	0x3f39a858	0.725225
1	0x3fcf91a8	1.6216326
2	0x3f77ee6c	0.9684818
3	0x3f827e69	1.0194827
4	0x3fa7655c	1.3077807
5	0x3f8e65be	1.1124799
6	0x3fd4eaf6	1.6634204
7	0x3fce0311	1.6094686
8	0x3fa6476c	1.2990546
9	0x3fe63408	1.7984629
10	0x3facde10	1.3505268
11	0x3f6b296c	0.9186008
12	0x3f91c27c	1.1387477
13	0x3fb1fb14	1.3904748
14	0x3f692a7c	0.9108045
15	0x3f9fcd38	1.2484503
16	0x3fc0414d	1.5019928
17	0x3f650294	0.8945706
18	0x3f9deb30	1.2337399
19	0x3f7dc57d	0.9912947
20	0x3f3bd5fb	0.73373383
21	0x3fb09425	1.379521
22	0x3f6bbe72	0.9208747
23	0x3fa5e640	1.2960892
24	0x3f8a87bc	1.0822673
25	0x3fbafb25	1.4607893
26	0x3fb17a9d	1.3865544
27	0x3f724bfd	0.946472
28	0x3f2421aa	0.6411387
29	0x3fafd3b3	1.373648
30	0x3fa603d1	1.2969915
31	0x3f925406	1.1431892
32	0x3f89383f	1.072029
33	0x3fb05b64	1.377789
34	0x3f72d4b5	0.94855815
35	0x3ff397df	1.9030722
36	0x3fae2e09	1.3607799
37	0x3f83d95a	1.0300705
38	0x3f8b5eff	1.0888366
39	0x3fae19f1	1.3601667
40	0x3facdb04	1.3504338
41	0x3fbfa088	1.4970865
42	0x3f74d46d	0.95636636
43	0x3f76c09d	0.96387655
44	0x3f9e3dff	1.236267
45	0x3f7e5f65	0.9936431
46	0x3f69b04f	0.9128465
47	0x3fb23f85	1.3925635
48	0x3fa750a8	1.3071489
49	0x3f757f85	0.95897704
50	0x3faf7bba	1.3709633
51	0x3fa5c10d	1.294954
52	0x3f775571	0.9661475
53	0x3f76f5bd	0.96468717
54	0x3f69a4c0	0.91267014
55	0x3f79ad0d	0.9752968
56	0x3fc09d37	1.5047978
57	0x3fa18bed	1.2620827
58	0x3fd46164	1.6592221
59	0x3fb74cd9	1.4320327
60	0x3fa16ae4	1.2610745
61	0x3fb8c6f9	1.4435722
62	0x3f9799c9	1.1843807
63	0x3f64103c	0.8908727
64	0x3f9a1e87	1.2040566
65	0x3f88e24d	1.0694062
66	0x3fa111d2	1.2583563
67	0x3fd4fb4b	1.6639189
68	0x3f84853a	1.0353158
69	0x3fccdf20	1.6005592
70	0x3f6e8d00	0.931839
71	0x3f875d5a	1.0575364
72	0x3fe2cad8	1.7718153
73	0x3f740245	0.95315963
74	0x3f952738	1.1652594
75	0x3fa0f4ed	1.2574745
76	0x3fb13b8c	1.3846297
77	0x3ff88e33	1.9418396
78	0x3f9c7bff	1.2225341
79	0x3fa321a9	1.2744647
80	0x3f894c21	1.0726358
81	0x3fb4ec38	1.4134588
82	0x3fcf19cc	1.6179748
83	0x3f9e2d97	1.2357663
84	0x3fbd9446	1.4810874
85	0x3f8963b6	1.0733554
86	0x3f4f73e9	0.8103624
87	0x3fd35f2f	1.6513423
88	0x3f9d44ef	1.2286662
89	0x3f741825	0.9534934
90	0x3fba96f8	1.4577322
91	0x3f981186	1.1880348
92	0x3fb7375e	1.4313772
93	0x3f92e8c3	1.1477283
94	0x3fa6d463	1.3033565
95	0x3f44ef1e	0.76927364
96	0x3f9506a5	1.1642653
97	0x3f709551	0.9397784
98	0x3f95dcaf	1.1707972
99	0x3f80c26f	1.0059336
100	0x3f77e5f9	0.96835285
101	0x3fa698c0	1.3015366
102	0x3fc08a7d	1.5042263
103	0x3fedb363	1.857037
104	0x3f6b52ad	0.9192303
105	0x3f72ef45	0.94896346
106	0x3fe5edf1	1.7963239
107	0x3f726f89	0.9470144
108	0x3fbe1722	1.485081
109	0x3f7d2231	0.98880297
110	0x3f8ed21e	1.1157873
111	0x3f8a7769	1.0817691
112	0x3fa806ee	1.3127115
113	0x3fbdc0b7	1.4824437
114	0x3fdcff9e	1.7265508
115	0x3fa443a1	1.2833139
116	0x3f551833	0.8324005
117	0x3f6fb324	0.9363272
118	0x3f71f0f9	0.9450832
119	0x3faa9528	1.3326769
120	0x3fe4ffb0	1.789053
121	0x3f710509	0.9414831
122	0x3f99e368	1.2022524
123	0x3f6aa1e0	0.9165325
124	0x3f8dfcaa	1.1092732
125	0x3fb49e85	1.4110876
126	0x3fbfc633	1.4982361
127	0x3fb2e81b	1.3977083

actor_fc_layers.blocks.2.block.1.bias f4 [128]
0	0x3ea33bdb	0.31881604
1	0x3e38b020	0.18035936
2	0x3e91666f	0.28398463
3	0x3e8e5e89	0.278065
4	0xbca045ed	-0.019564593
5	0xbe0ee5df	-0.13954876
6	0x3e32025a	0.1738371
7	0x3ca3a820	0.01997763
8	0xbde4f012	-0.11178602
9	0xbdb1368c	-0.08652982
10	0xbe1b7ce7	-0.15184365
11	0xbdc4a0f7	-0.09601014
12	0xbdb251e8	-0.087070286
13	0x3d08cee4	0.03340043
14	0xbde6c085	-0.11267189
15	0xbc617638	-0.013761096
16	0x3e282f3f	0.16424273
17	0x3f08197d	0.5316389
18	0xbb58a8c3	-0.0033059574
19	0xbddd7150	-0.10812628
20	0x3f00156e	0.500327
21	0xbdbf0e66	-0.09328918
22	0xbd2c2b60	-0.042033553
23	0x3e9cc96c	0.30622423
24	0x3d895a84	0.067067176
25	0xbc74fe5b	-0.014953221
26	0xbd8ebc77	-0.069695406
27	0xbca113c9	-0.019662755
28	0xbe93ef91	-0.28893712
29	0xbdd80028	-0.10546905
30	0x3ea30baa	0.31844836
31	0xbd445e3c	-0.04794143
32	0x3d6beee7	0.057600882
33	0xbd44275e	-0.047889106
34	0xbdc5718f	-0.096408
35	0xbe19f12d	-0.15033408
36	0x3e12384c	0.14279288
37	0xbd949a08	-0.07255942
38	0x3e2578d2	0.1615937
39	0x3e8c5443	0.27408037
40	0xbd877b6f	-0.0661534
41	0x3de7d51a	0.11319943
42	0xbd8f0cef	-0.06984889
43	0xbdfd7f92	-0.12377848
44	0xbcecae19	-0.02889161
45	0xbce37c95	-0.027769366
46	0x3e5cbb7e	0.21555898
47	0x3d954e5f	0.07290339
48	0xbe183000	-0.1486206
49	0xbde23349	-0.11044938
50	0xbd9275e4	-0.07151392
51	0x3d51d9c8	0.051233083
52	0xbd33e496	-0.04391917
53	0xbd82b5f3	-0.0638236
54	0xbe720de2	-0.23638108
55	0xbd016987	-0.03159478
56	0xbd86ea7f	-0.06587695
57	0x3e6f794e	0.23386118
58	0x3e809d53	0.2512003
59	0xbdd5e2f0	-0.104436755
60	0x3d92b670	0.071637034
61	0xbe03ab43	-0.128583
62	0xbdefec23	-0.117149614
63	0xbd9aa7a4	-0.07551506
64	0xbe3b8f7a	-0.1831645
65	0x3d3e76c9	0.0465
66	0xbb131c17	-0.0022447163
67	0xbdf95142	-0.12173702
68	0xbda69bcd	-0.081351854
69	0x3ec4d289	0.38441876
70	0x3e3b3155	0.18280537
71	0xbd0e399b	-0.034722906
72	0x3dc3f387	0.095679335
73	0xbdb05b1e	-0.08611129
74	0xbd9e3305	-0.07724575
75	0x3d27d960	0.04097879
76	0x3da28521	0.079355486
77	0x3d9f7bf8	0.07787317
78	0xbdedf5d5	-0.11619154
79	0x3d8a746f	0.06760489
80	0x3d0d2a2a	0.03446404
81	0xbd455267	-0.048174288
82	0xbcf9a20c	-0.030472778
83	0x3df2e8b7	0.11860793
84	0x3d3c9149	0.046036992
85	0xbd80af4c	-0.06283435
86	0xbbbc0411	-0.0057377894
87	0xbd6d0e5d	-0.057875026
88	0x3e682d70	0.22673583
89	0xbd4adf67	-0.04952946
90	0x3e14fa24	0.14548546
91	0xbdb8e37e	-0.09027766
92	0x3eac6700	0.33672333
93	0x3d81ad62	0.06331898
94	0x3e6e82c1	0.23292066
95	0xbd25ab2d	-0.04044645
96	0x3e806a2b	0.25081
97	0xbdb70fea	-0.08938582
98	0xbe2ca9cd	-0.16861649
99	0xbddedef0	-0.10882366
100	0xbe0fc80b	-0.14041154
101	0x3e6b1123	0.22955756
102	0xbe125cba	-0.14293185
103	0xbe673eb8	-0.22582519
104	0x3d971d7e	0.07378672
105	0xbdc6ac67	-0.09700852
106	0x3e2dceb2	0.16973379
107	0xbdb30206	-0.0874062
108	0x3d859902	0.065233245
109	0xbdb55b67	-0.08855324
110	0xbdf34bf1	-0.11879719
111	0x3e6c7c38	0.2309426
112	0x3e8a32bf	0.2699184
113	0x3c4f0c1f	0.012637167
114	0x3e6767cf	0.22598194
115	0x3e236a7e	0.15958592
116	0xbda29235	-0.07938043
117	0xbd655fc9	-0.05599955
118	0xbd0ad607	-0.03389552
119	0xbc90a75a	-0.017657924
120	0xbd5f4c50	-0.054516137
121	0xbdc5b96f	-0.09654509
122	0x3ed4d123	0.4156581
123	0xbda79311	-0.081823476
124	0xbcff182a	-0.031139452
125	0xbe1c2548	-0.15248597
126	0xbe7247b9	-0.23660173
127	0x3d16ba1e	0.03679859
