saved_models/agent_maddpgv2_vs_opp_maddpgv2_3_vs_1_1_big_5_sec_agent_best_models/maddpgv2_actor_1.pt (torch, 160779 bytes, 21 tensors)

actor_fc_layers.blocks.0.block.0.weight f4 [128, 22]
00000000: 6766 13bf 484c 81bb 31e1 1abe 4938 a73c
00000010: 4e5a 823d b233 ae3d 5b7b 8abc 1340 10bd
00000020: bce8 af3d 98de c23c 3509 85bd 4673 2e3e
00000030: 6c62 933d f0a1 c0bd 6977 753e 9988 d8bc
00000040: a9df 033c 80a0 2f3d 6b45 bcbb 68d1 77bc
00000050: 2da8 3f3c 1b2a e8bd 2052 a7be 7742 87be
00000060: 848a 5cbd 8523 e8bc 9fcf 20bd e1d6 a53d
00000070: b907 b1bd 4ce6 efbd 5e0f 90bd 30f2 9cbb
00000080: c7b6 673e fbed b2bd dc96 d63d 5295 023d
00000090: 6a95 693d 6c44 5739 dd9f 0c3e 40aa 733d
000000a0: e20a 43bd 077b 323e a969 44be ed18 aebd
000000b0: e03f 8fbe 8ee7 bdbd f1ee 5cbe a7ff a83d
000000c0: f480 a6be d0d1 173e 6e1b 81bd 045b b2bc
000000d0: 306d fa3c 6402 d0bd eeb6 f5bd cd31 f53d
000000e0: 6104 01be c2b3 10be e07e 293e 4043 893e
000000f0: c241 83bd 11ab 3b3c 1ed3 203e b5df 353e
00000100: dccb 44be 5762 49bd 6b07 8bbe a6c2 88bd
00000110: 2503 25be f753 0fbd b11c 053d d1c0 ccbd
00000120: c6d6 613c d3e5 3dbd 3181 6b3d 54e4 9c3d
00000130: 3669 8e3d b8a3 873d 16dc cd3c bf95 90be
00000140: f79d e6bd 3844 e53d 67c8 633d 93a4 13bd
00000150: b8bb ea3c 3a9d 9f3d 008e f5bc 1df0 f5bd
00000160: 46e4 18bb 5295 87bd 0842 a6bd dd9d 6cbd
00000170: 5b28 b6bd 289c 4abe b865 70bd d8ba f8bd
00000180: 6e22 513c f4af 77be d124 a5bd ff83 c43e
00000190: a2d5 ae3e 0e30 443d 1a17 35bb 1629 53be
000001a0: f5f7 18bd 5111 873c 5da3 523e a25e f6bd
000001b0: ccf8 8d3d bcd7 88be 80e9 4abe 1113 9abd
000001c0: cbac 943d b557 8b3c 886b e6bd 5ad6 203e
000001d0: 9f7f a6bd 8c46 de3c 284f 13bc 6c22 e7bd
000001e0: 3333 bcbd 4e87 013e 01c0 253d ae08 8d3e
000001f0: c43d 63be 7a77 bb3b 657b 213d 32e9 0abd
00000200: bfa7 55bc 1632 963d 38a9 e4bd 4962 16be
00000210: 6fe5 4dbe 4598 8dbd 1427 bb3d ced6 14be
00000220: 7553 6cbb 33ab 09bc 243d 5dbd c4d7 71bd
00000230: 3d1a 8cbd 07fc 2ebe b37a 713e 1563 b83d
00000240: bc17 20bd 46fe 853e 3cd1 403d 25c4 973d
00000250: b9c1 5e39 9e7f 403e 7881 18be a977 943b
00000260: aeb9 303c 33ba 16be 7628 60be 5e5d c43d
00000270: e753 48be eca0 9bbc 2645 023d 13a2 293e
00000280: 9922 50be d263 b8bd 8a17 b83c bf33 75be
00000290: 0189 49bd 9403 e7bd 947d f7bd bf34 673e
000002a0: 8211 303e f03f 17be a635 3e3e a220 f93d
000002b0: fb0d 093e 8edd 213d c9f3 843d 7488 8cbe
000002c0: 6923 5bbe 1786 83bd 0e17 9bbb a111 993d
000002d0: 4a2f c1bc 534b 343d df99 4bbd 1ccc 84bc
000002e0: b3d3 d5bd 2400 083b 2395 a83e 75c0 313e
000002f0: fc37 74be 7c7f 67bd a5cc a6bd 33bf 59bd
00000300: 42d1 873c 96c6 d4bc af3c e63d be02 5b3d
00000310: e602 48bd 71cf 1abd ba46 a6be cfc2 92bd
00000320: a632 053e c3dd f0bd 04b1 b4bd 53fc 2ebe
00000330: 799d 8cbd 9c1a 47bd 6791 e43d 19d2 d1bd
00000340: c71d b8bd 55a0 ca3c b8ed 603e 960c 6a3d
00000350: 9e1e 55be eba3 f93c 3b00 ffbc 6d0d 72bd
00000360: 7fbd 20bd af45 5cbe 93b3 223e 2811 fdbd
00000370: 8424 cfbe 5ba6 2bbe b936 273d 4822 aa3c
00000380: 40b2 6dbe 4e65 323c d4f9 47bb 8ae2 90bc
00000390: 19d7 e73d d281 c43d c72b e9bd 0f2f 63be
000003a0: 7cb6 b73c b181 d93e 6661 28be 3287 303e
000003b0: 376e a7bd f027 373c 9e9c ef3d 35a6 66be
000003c0: 3ecc 413e dc62 68be 7bac 9fbe 455b 3abe
000003d0: 43bd 273e 63bd f93d 6785 0fbe c4e4 5fbd
000003e0: dee0 a9bd 3655 94bd bb5e 343e 9b6e 2bbc
000003f0: e42a 9e3e 66b7 3b3d 82f2 c3bd a6ad 5f3d
-0.5757813 -0.003945861 -0.15124966 0.020412581 0.063648805 0.08505954 -0.016904524 -0.035217356
0.085893124 0.023787782 -0.06495897 0.17036161 0.07196507 -0.09405887 0.23971333 -0.026432322
0.00804893 0.042877674 -0.00574558 -0.01512561 0.011697811 -0.11336156 -0.32679844 -0.26417896
-0.053843036 -0.02833725 -0.039260503 0.080976255 -0.08644051 -0.117138475 -0.07034181 -0.004789613
0.22628318 -0.087367974 0.10477993 0.031880684 0.057027258 0.00020529487 0.13732858 0.059488535
-0.0476178 0.17429744 -0.19180931 -0.08500848 -0.2797842 -0.09272681 -0.21575524 0.08251887
-0.32520258 0.14826131 -0.0630406 -0.021771915 0.030569643 -0.10156706 -0.11997782 0.11972389
-0.12599327 -0.14131072 0.16552305 0.2680912 -0.06409027 0.01145436 0.15705535 0.17761119
-0.19218391 -0.04916605 -0.27154097 -0.06677751 -0.16114481 -0.034992184 0.032498065 -0.09997714
0.013784116 -0.046361756 0.057496253 0.07660738 0.06953661 0.06623024 0.02512936 -0.28239247
-0.11260598 0.11194652 0.05561104 -0.036045622 0.028653964 0.077936605 -0.029974937 -0.120086886
-0.002332942 -0.066202775 -0.08118063 -0.057767738 -0.08894416 -0.19786131 -0.058690757 -0.121450126
0.012764556 -0.24188215 -0.08063663 0.38381955 0.34147364 0.04789739 -0.0027632178 -0.20621142
-0.037345845 0.01648775 0.2057013 -0.120297685 0.0693222 -0.26727092 -0.19815636 -0.07523168
0.0725952 0.017009595 -0.11250979 0.15706769 -0.081298105 0.027133249 -0.00899104 -0.11285862
-0.09189453 0.12649271 0.040466312 0.27545685 -0.2219153 0.00572103 0.03942432 -0.0339138
-0.013040482 0.07333772 -0.111650884 -0.1468593 -0.20107053 -0.06913809 0.09138313 -0.14535066
-0.0036060486 -0.0084026335 -0.054013386 -0.05904366 -0.06840942 -0.17088328 0.23581962 0.090032734
-0.039085135 0.26170558 0.04707454 0.074104585 0.00021243737 0.18798682 -0.14893138 0.004530866
0.010786457 -0.14719467 -0.21890435 0.09588121 -0.19563256 -0.018997632 0.031804226 0.16565733
-0.20325698 -0.09003414 0.022472162 -0.23945521 -0.049202923 -0.11279979 -0.12084499 0.22578715
0.17194179 -0.14770484 0.18575153 0.12164427 0.1338424 0.03951793 0.06491811 -0.27447855
-0.21400227 -0.0642206 -0.004732973 0.074740656 -0.02358212 0.044017147 -0.04970729 -0.016210608
-0.10440769 0.0020752037 0.32926282 0.17358573 -0.23849481 -0.056518063 -0.081445016 -0.053160857
0.016579274 -0.0259736 0.11242043 0.053469412 -0.04883089 -0.037795488 -0.32475835 -0.07166063
0.13007602 -0.11761048 -0.088228256 -0.17088442 -0.06865973 -0.04860936 0.11160546 -0.10245151
-0.089900546 0.024734655 0.21965683 0.05714091 -0.20812461 0.03047367 -0.03112804 -0.059094835
-0.039243218 -0.21510957 0.15888815 -0.12356788 -0.40457547 -0.16762678 0.040823672 0.0207683
-0.23212528 0.010888411 -0.00305139 -0.017686147 0.113203235 0.09595074 -0.11385303 -0.2218592
0.022425883 0.4248176 -0.16443405 0.17239073 -0.08175319 0.011178955 0.11699794 -0.2252434
0.18925568 -0.22693962 -0.3118628 -0.18198879 0.16380791 0.12194326 -0.14015733 -0.054661527
-0.08294843 -0.07242815 0.17614262 -0.010463382 0.30892098 0.0458292 -0.09567739 0.054608963

actor_fc_layers.blocks.0.block.1.weight f4 [128]
00000000: 3ffa a43f 9374 ab3e 5809 1e3f fd2e 8f3e
00000010: e90c 703f 8875 713f 5cbf 263f 873c 813f
00000020: add2 493f 6a40 4b3f 2ea6 8c3f f683 103f
00000030: 470a 7d3f d828 603f d4da a03f 15a7 f83e
00000040: f162 793f 692f 583f 552c 523f 659d 723f
00000050: 2580 8c3f d8e6 4d3f 2cf1 393f 3c58 783f
00000060: 18b4 813f d9a0 983e 52fc 273f 506e 4b3f
00000070: b727 373f 99f4 263f 8d09 933f 7bc6 023f
00000080: 66bd 3d3f 45e9 743f f481 053f 0ede 983f
00000090: 22b4 663f dd55 823f 50e1 813f eadc 883f
000000a0: d1ec 603f fb47 5d3f 1ff0 903f 0c9a 4a3f
000000b0: 4906 0a3f 41c0 e13e b6a9 0e3f 8bb8 ff3e
000000c0: 96bd 8a3f 24e4 073f 4728 8f3e 24a2 623f
000000d0: 95ee 8a3f b2dd 2f3f 04b1 683f 8f0a 693f
000000e0: 1d54 393f 94e1 3b3f 4314 843f a915 373f
000000f0: 12a9 5d3f 9801 933f cccd f83e 0ab8 173f
00000100: ce92 283f 806a a93f 2482 253f 90e6 3b3f
00000110: 2329 283f d9db 5e3f 8ca8 253f 1a06 493f
00000120: 9830 723f 6e40 153f 2315 fd3e bc5b 423f
00000130: cd65 c83e b9f8 f03e e293 8c3f a920 593f
00000140: 81d8 883f 27f2 333f 0fd4 283f 690f 0e3f
00000150: 0d6c 7b3f 3d1d 793f e126 2e3f 5953 0c3f
00000160: 809c 9a3f f95e 953f c1e7 723f 565a 3c3f
00000170: 86a1 343f 03f8 373f b85e 4c3f 924b 303f
00000180: f55a 693f ea8f 5d3f 68d4 963e 1d7b 2a3f
00000190: e92d 4d3f b68d 2b3f a8ae 8e3f 9774 553f
000001a0: a8ea fd3e 83e0 353f c1cf 743f a976 643f
000001b0: 0078 7d3f cfa0 223f 6392 6c3f f12c fa3e
000001c0: 1aae 5f3f f361 4a3f cccd 683f 1138 373f
000001d0: b063 ac3f ab69 6e3f 91bc 213f 3884 563f
000001e0: 7f1a aa3e 6236 453f 6cb3 493f cf54 583f
000001f0: b0a0 553f e9fc 673f 18f9 7f3f adc0 ee3e
1.2888869 0.33487377 0.6173301 0.27965537 0.937697 0.94319963 0.6513574 1.0096596
0.7883709 0.79395163 1.0988214 0.56451356 0.98843807 0.8756232 1.2566781 0.48564973
0.974166 0.8444734 0.82098895 0.94771415 1.0976607 0.80430365 0.72633624 0.97009635
1.0133085 0.29810217 0.65619385 0.794652 0.71544975 0.65216976 1.148729 0.5108411
0.74117124 0.9566844 0.5215142 1.1942766 0.9011861 1.0182453 1.0146885 1.0692418
0.87861353 0.8643796 1.1323279 0.79141307 0.5391584 0.4409199 0.5572771 0.49945483
1.0839107 0.5308249 0.27960417 0.88528657 1.085406 0.68697655 0.90895104 0.91031736
0.7239397 0.7339108 1.0318683 0.71517426 0.86586106 1.1484861 0.4859451 0.59265196
0.65849006 1.3235626 0.64651704 0.73398685 0.6568777 0.8705421 0.6471031 0.78524935
0.946054 0.58301437 0.4943019 0.75921226 0.39140168 0.4706476 1.098263 0.8481546
1.0691072 0.7029137 0.65948576 0.55492264 0.9821175 0.9731024 0.68028075 0.5481468
1.207901 1.1669608 0.9488488 0.7357534 0.70558965 0.7186281 0.7983203 0.6886531
0.91154414 0.8654772 0.29458928 0.66594106 0.8014818 0.6701311 1.1147051 0.83381027
0.4959309 0.710457 0.9562951 0.8924356 0.9901123 0.63526624 0.9241087 0.48862413
0.8737503 0.7905571 0.9093902 0.71569926 1.3467922 0.93129987 0.63178355 0.837955
0.3322334 0.77036107 0.787894 0.8450441 0.83448315 0.90620285 0.9998946 0.46631375

actor_fc_layers.blocks.0.block.1.bias f4 [128]
00000000: c0eb 51bd 6971 ce3e 9912 213c 068d 8b3e
00000010: 08ae 2a3e e677 33be 5f10 8ebd 2399 abbd
00000020: f0ae 52be ba22 42be af8f db3d 14bf 093f
00000030: da43 3cbe a5d7 7fbe e306 a73e ac1e c73e
00000040: c59a 4ebe 03f9 5e3e 39b5 6cbe ce85 7dbd
00000050: 0a06 47bd f07e 3b3d db0d 883e 7a1a 963d
00000060: 9387 6d3d 6462 ac3e 9595 043f fd59 91be
00000070: 972d 0e3f 9c4a fc3e 9188 973e 0929 863e
00000080: a44f e83e 34dc 1d3d 9cee d93e c51c 513e
00000090: 301e 1c3e e8b3 f13e 3653 b5bc 8604 aebd
000000a0: 735d dbbb 6b42 34be 9a71 b1be 0995 2abc
000000b0: fd55 0b3f 1b4e a93e d5b1 1abe 2fd1 063f
000000c0: 77f1 fabd 572d 003f 96d7 e03d 5567 04be
000000d0: fc35 9b3e a859 663e 1917 ac3d 6749 413e
000000e0: c4bf e8bd 9342 8abe da52 6ebd b38d d93e
000000f0: e35f 94be 8e1e 8dbc ce84 023f cd8f 193f
00000100: f54e 223f 0c84 0c3d bada 0b3f 3226 ac3e
00000110: 6ae8 63bd df23 11be fa2a 1f3f 0af1 69be
00000120: d69d 93bd 5888 233f be0b 0e3f dd21 173f
00000130: 9959 f23e 339f 913e 4f83 cdbd 7619 fbbb
00000140: 534d d73e d30a b6bd 6a91 ce3e 1a67 e83e
00000150: 1bce 49bd f561 c2bd 372f 813c 15a4 5c3e
00000160: ba11 713c 2971 f53e 358b f5bd 25e8 b13b
00000170: 0542 83be 3374 a83e 83d3 21be 9b6c 033f
00000180: acf2 e23c 315f 9b3e 4623 b43e bc45 1e3f
00000190: b888 d13e 5058 b93e 64fc aebd 5fd2 05be
000001a0: 7541 c23e 46e8 b03e 112b 99bd 6ee3 15bd
000001b0: 530a 77bc dc0f 1b3f 575d 9d3e 0806 d53e
000001c0: 5be0 a6bd 1c19 88be c8b4 47be edd7 35be
000001d0: db4a cfbd ff8e e1bd d418 1c3f a4ca a03e
000001e0: 9fba 023f 27c5 70be faf2 64be 3ebc 913e
000001f0: be59 07be 29a0 cabd be99 3cbc a5de 103f
-0.05125022 0.403209 0.009831094 0.2725603 0.1666795 -0.17526206 -0.06936716 -0.08378818
-0.20574546 -0.1895856 0.10720765 0.5380719 -0.18385258 -0.24984606 0.32622442 0.38890588
-0.20176227 0.21774678 -0.23116006 -0.061895184 -0.048589744 0.045775354 0.2657307 0.07329269
0.05799062 0.33668816 0.51790744 -0.28388968 0.55538315 0.49275672 0.2959638 0.26203182
0.4537326 0.03854008 0.42564857 0.20421131 0.1524589 0.4720757 -0.022134405 -0.084969565
-0.0066944896 -0.17603461 -0.34656984 -0.010411509 0.5442808 0.33067402 -0.151069 0.5266294
-0.12253087 0.50069183 0.1097862 -0.12930043 0.30314624 0.22495139 0.08402843 0.18875657
-0.113647014 -0.27003917 -0.058184482 0.4249092 -0.28979406 -0.017226484 0.50983894 0.5998505
0.6340173 0.034305617 0.54630625 0.3362289 -0.05564157 -0.1417384 0.6217495 -0.22845855
-0.07207839 0.6387992 0.5548667 0.59036046 0.47333983 0.28441772 -0.10034811 -0.0076629473
0.4205118 -0.08888783 0.40345317 0.4539116 -0.049268823 -0.0949134 0.015769584 0.21546967
0.014713699 0.47937897 -0.11989442 0.005429285 -0.25636306 0.32901153 -0.15803342 0.51337594
0.027703606 0.30346063 0.35183161 0.61825156 0.4092462 0.3620019 -0.085442334 -0.13068531
0.37940565 0.3455221 -0.074789174 -0.036593847 -0.015078145 0.60571074 0.30735275 0.41606164
-0.08148261 -0.26581657 -0.19502556 -0.1775815 -0.101216994 -0.110136025 0.60975385 0.31404603
0.5106601 -0.23512708 -0.22358313 0.2846393 -0.13217828 -0.098938294 -0.011511264 0.5658973

actor_fc_layers.blocks.0.block.1.running_mean f4 [128]
00000000: 0000 0000 0000 0000 0000 0000 0000 0000
00000010: 0000 0000 0000 0000 0000 0000 0000 0000
00000020: 0000 0000 0000 0000 0000 0000 0000 0000
00000030: 0000 0000 0000 0000 0000 0000 0000 0000
00000040: 0000 0000 0000 0000 0000 0000 0000 0000
00000050: 0000 0000 0000 0000 0000 0000 0000 0000
00000060: 0000 0000 0000 0000 0000 0000 0000 0000
00000070: 0000 0000 0000 0000 0000 0000 0000 0000
00000080: 0000 0000 0000 0000 0000 0000 0000 0000
00000090: 0000 0000 0000 0000 0000 0000 0000 0000
000000a0: 0000 0000 0000 0000 0000 0000 0000 0000
000000b0: 0000 0000 0000 0000 0000 0000 0000 0000
000000c0: 0000 0000 0000 0000 0000 0000 0000 0000
000000d0: 0000 0000 0000 0000 0000 0000 0000 0000
000000e0: 0000 0000 0000 0000 0000 0000 0000 0000
000000f0: 0000 0000 0000 0000 0000 0000 0000 0000
00000100: 0000 0000 0000 0000 0000 0000 0000 0000
00000110: 0000 0000 0000 0000 0000 0000 0000 0000
00000120: 0000 0000 0000 0000 0000 0000 0000 0000
00000130: 0000 0000 0000 0000 0000 0000 0000 0000
00000140: 0000 0000 0000 0000 0000 0000 0000 0000
00000150: 0000 0000 0000 0000 0000 0000 0000 0000
00000160: 0000 0000 0000 0000 0000 0000 0000 0000
00000170: 0000 0000 0000 0000 0000 0000 0000 0000
00000180: 0000 0000 0000 0000 0000 0000 0000 0000
00000190: 0000 0000 0000 0000 0000 0000 0000 0000
000001a0: 0000 0000 0000 0000 0000 0000 0000 0000
000001b0: 0000 0000 0000 0000 0000 0000 0000 0000
000001c0: 0000 0000 0000 0000 0000 0000 0000 0000
000001d0: 0000 0000 0000 0000 0000 0000 0000 0000
000001e0: 0000 0000 0000 0000 0000 0000 0000 0000
000001f0: 0000 0000 0000 0000 0000 0000 0000 0000
0.0 0.0 0.0 0.0 0.0 0.0 0.0 0.0
0.0 0.0 0.0 0.0 0.0 0.0 0.0 0.0
0.0 0.0 0.0 0.0 0.0 0.0 0.0 0.0
0.0 0.0 0.0 0.0 0.0 0.0 0.0 0.0
0.0 0.0 0.0 0.0 0.0 0.0 0.0 0.0
0.0 0.0 0.0 0.0 0.0 0.0 0.0 0.0
0.0 0.0 0.0 0.0 0.0 0.0 0.0 0.0
0.0 0.0 0.0 0.0 0.0 0.0 0.0 0.0
0.0 0.0 0.0 0.0 0.0 0.0 0.0 0.0
0.0 0.0 0.0 0.0 0.0 0.0 0.0 0.0
0.0 0.0 0.0 0.0 0.0 0.0 0.0 0.0
0.0 0.0 0.0 0.0 0.0 0.0 0.0 0.0
0.0 0.0 0.0 0.0 0.0 0.0 0.0 0.0
0.0 0.0 0.0 0.0 0.0 0.0 0.0 0.0
0.0 0.0 0.0 0.0 0.0 0.0 0.0 0.0
0.0 0.0 0.0 0.0 0.0 0.0 0.0 0.0

actor_fc_layers.blocks.0.block.1.running_var f4 [128]
00000000: 0000 803f 0000 803f 0000 803f 0000 803f
00000010: 0000 803f 0000 803f 0000 803f 0000 803f
00000020: 0000 803f 0000 803f 0000 803f 0000 803f
00000030: 0000 803f 0000 803f 0000 803f 0000 803f
00000040: 0000 803f 0000 803f 0000 803f 0000 803f
00000050: 0000 803f 0000 803f 0000 803f 0000 803f
00000060: 0000 803f 0000 803f 0000 803f 0000 803f
00000070: 0000 803f 0000 803f 0000 803f 0000 803f
00000080: 0000 803f 0000 803f 0000 803f 0000 803f
00000090: 0000 803f 0000 803f 0000 803f 0000 803f
000000a0: 0000 803f 0000 803f 0000 803f 0000 803f
000000b0: 0000 803f 0000 803f 0000 803f 0000 803f
000000c0: 0000 803f 0000 803f 0000 803f 0000 803f
000000d0: 0000 803f 0000 803f 0000 803f 0000 803f
000000e0: 0000 803f 0000 803f 0000 803f 0000 803f
000000f0: 0000 803f 0000 803f 0000 803f 0000 803f
00000100: 0000 803f 0000 803f 0000 803f 0000 803f
00000110: 0000 803f 0000 803f 0000 803f 0000 803f
00000120: 0000 803f 0000 803f 0000 803f 0000 803f
00000130: 0000 803f 0000 803f 0000 803f 0000 803f
00000140: 0000 803f 0000 803f 0000 803f 0000 803f
00000150: 0000 803f 0000 803f 0000 803f 0000 803f
00000160: 0000 803f 0000 803f 0000 803f 0000 803f
00000170: 0000 803f 0000 803f 0000 803f 0000 803f
00000180: 0000 803f 0000 803f 0000 803f 0000 803f
00000190: 0000 803f 0000 803f 0000 803f 0000 803f
000001a0: 0000 803f 0000 803f 0000 803f 0000 803f
000001b0: 0000 803f 0000 803f 0000 803f 0000 803f
000001c0: 0000 803f 0000 803f 0000 803f 0000 803f
000001d0: 0000 803f 0000 803f 0000 803f 0000 803f
000001e0: 0000 803f 0000 803f 0000 803f 0000 803f
000001f0: 0000 803f 0000 803f 0000 803f 0000 803f
1.0 1.0 1.0 1.0 1.0 1.0 1.0 1.0
1.0 1.0 1.0 1.0 1.0 1.0 1.0 1.0
1.0 1.0 1.0 1.0 1.0 1.0 1.0 1.0
1.0 1.0 1.0 1.0 1.0 1.0 1.0 1.0
1.0 1.0 1.0 1.0 1.0 1.0 1.0 1.0
1.0 1.0 1.0 1.0 1.0 1.0 1.0 1.0
1.0 1.0 1.0 1.0 1.0 1.0 1.0 1.0
1.0 1.0 1.0 1.0 1.0 1.0 1.0 1.0
1.0 1.0 1.0 1.0 1.0 1.0 1.0 1.0
1.0 1.0 1.0 1.0 1.0 1.0 1.0 1.0
1.0 1.0 1.0 1.0 1.0 1.0 1.0 1.0
1.0 1.0 1.0 1.0 1.0 1.0 1.0 1.0
1.0 1.0 1.0 1.0 1.0 1.0 1.0 1.0
1.0 1.0 1.0 1.0 1.0 1.0 1.0 1.0
1.0 1.0 1.0 1.0 1.0 1.0 1.0 1.0
1.0 1.0 1.0 1.0 1.0 1.0 1.0 1.0

actor_fc_layers.blocks.1.block.0.weight f4 [128, 128]
00000000: b3ef ab3c a6d5 0b3d d045 a5bd fdb4 013b
00000010: 1274 c1bd d737 a23d 8f23 96bc dd10 f2bd
00000020: fc11 c03a 494a dd3c 81c9 483d 51e4 b03c
00000030: f2d8 4abd bafe 0a3d 8477 1c3d 14fc f03c
00000040: d525 c43d 3cb4 ff39 11cc b4bd ece9 6e3d
00000050: 2511 43bd 92d3 7c3d 7dc1 adbd 1872 ffbc
00000060: 0b63 b4bd 54a1 353d b27d 27bd e176 b93c
00000070: 2396 5dbd 00a3 c2bd 1c2e 943b 1449 0f3d
00000080: 0cba 2abc 3007 cfbd 7fef 5fbd 7a7b db3c
00000090: b0ae 8bbc 5622 3dbc 2637 c3bd e027 04bd
000000a0: 74f5 60bd fa60 e0bd 9d80 a2bb 7302 8fbd
000000b0: fa13 eebd 8470 823d 8046 f6bd 0447 96bd
000000c0: 6f34 04be 9f7b 8c3d 0202 9fbd 7853 4d3c
000000d0: 2ef2 ac3d 158b 6f3d ebfd 953c 7e21 ebbd
000000e0: 05ee d5bd a4ff 113d 8cd2 dabd 4d09 5fbd
000000f0: 942a 35bc 67ff 073d 27f6 39bb 8a38 8a3d
00000100: 2237 62bd d930 74bd dc48 ebbc 2fa4 2f3c
00000110: de4d 8ebc 9cbc 72bd 7310 87bd d670 02bd
00000120: fc6e 0a3d 5800 6cbd 41b8 9abc 1079 23bd
00000130: 67de 063b 06b8 f93c 7d88 21be 0cc2 c4bd
00000140: 05f0 96bd 5992 fc3c 6ec5 b63c 492b 843d
00000150: 8983 13bd f4be 93bd 808b 61bc 41af 36bd
00000160: 2712 c9bd e20a 26bd 3bb7 54bd 9223 42bd
00000170: 5a48 dfbb a92e 9bbd 7d9e cc39 f4ab 383d
00000180: fda6 70bd 530c 5a3d 9ce8 9ebd 464b 41bd
00000190: 0b8c 09be 77ed a7bd 8a9d 05bd f112 24bc
000001a0: c3e7 403c ef49 a7bd 48fd 093d 29ec edbb
000001b0: a68a b33c 5f6f 663d 2e1c 08bd 5b30 9fbd
000001c0: 8aa5 553d 33a4 d7bd 174b 1d3b a4bf da3b
000001d0: 886d a3bd 4755 1abd 8ee9 d7bd 552f 1cbd
000001e0: 1fd4 813d 7e42 a83c e429 8d3d 95a4 79bc
000001f0: 5492 123d d070 05bc 06f5 e13c 6ded 86bc
00000200: e859 8fbd 110d e8bc 065e c53d 04e4 843b
00000210: 8405 0dbd 70f3 ff3c 575c 1db9 c8c1 b9bd
00000220: bf7b 5dbd ca91 5ebc 4893 58bd 80e0 1d3d
00000230: 587d 10be 058b 10be 2ea4 9cbd 1e92 3b3d
00000240: 619d 43bd 78ba 0abe 7b5b c2bd 4072 9cbd
00000250: d8d3 d93c 4ca4 02bd a7b4 30be 2543 46bb
00000260: c7cf 0dbd 90ca 91bd 8856 1dbd 80b3 09be
00000270: 88af 18bd 8f55 5fbc c206 a1bd 0cc9 a33d
00000280: d7e2 f7bc d894 d53b ce95 76bc 6e6c a23d
00000290: 9b61 a53c dcbc f0bd f455 55bc 9fdd 6cbc
000002a0: b89f d13c 29eb 57bd e7ff f53c 6bf1 87bb
000002b0: 277e 84bd ad3d 863d 1d12 fbbd 0ba8 e7bd
000002c0: 8457 b1bd 44e6 9abd 5ae6 21be 3414 fdbd
000002d0: d056 0fbd 7dbf 343d 68b5 78bd 35e9 2fbd
000002e0: e06e 413b f491 95bc 684a e7bd d402 ffbd
000002f0: 716f d7bd 21c3 a93d 585a 533d 12c5 f8bd
00000300: d3b6 f33d 3d73 5dbe 59cb 2dbd 87e7 e8bd
00000310: 94d0 dcbd 3b7b 543c 4766 f2bc e4b2 40bd
00000320: 1b6b 00bd 51f7 9fbd 9600 713c d0f4 72bd
00000330: 5dc5 2fbc d33c 183c c200 573d d7cd 02be
00000340: 1ce3 bfbd 42f8 86bd 5d64 2ebd 6bd5 30bc
00000350: f8a1 ec3c fee2 01be 9366 cbbd aaab 67bd
00000360: 21b8 afbd 8dde 433c ade6 aabd 62e4 0a3d
00000370: 5449 5d3d 58ff 34bd 812d 22bd 4324 063c
00000380: 0383 cebd 9455 0d3d 97e4 bfbd d268 1c3e
00000390: ba9f 5fbd d305 a3bd 5ff0 823d 6ef0 d93c
000003a0: a7e5 aebd b194 cbbd 621d 8cbd 3532 1ebd
000003b0: 4e22 b23d f0a9 ebbd 1a9b acbc bc1c 013c
000003c0: c279 01bd 87b8 28be c1aa 043d 0ecf 7d3c
000003d0: 9617 93bb f914 2c3d cdb6 873b 172e 313d
000003e0: afb8 debd c083 a2bd ff2f c4bd 7b3d b33c
000003f0: 8bb0 b7bd cc50 2fbd 5c76 253d e38e af3c
0.020988321 0.034139298 -0.08069956 0.0019791715 -0.09445967 0.07920807 -0.018327503 -0.11819623
0.0014653797 0.027012961 0.049020294 0.021593245 -0.0495233 0.033934332 0.038199916 0.029417075
0.095775284 0.00048771675 -0.08827985 0.058328554 -0.047623772 0.061725207 -0.084841706 -0.031182334
-0.088079534 0.044343308 -0.040891357 0.022639694 -0.05409826 -0.09503746 0.004522098 0.034981802
-0.010420334 -0.10108793 -0.05467176 0.026792277 -0.01705107 -0.011543831 -0.09532003 -0.03226459
-0.054921582 -0.10955997 -0.0049591796 -0.06982889 -0.11624904 0.06369117 -0.120251656 -0.07337764
-0.12910627 0.06859516 -0.07764055 0.0125321075 0.084446296 0.05848225 0.018309554 -0.114809975
-0.10445789 0.03564419 -0.1068469 -0.05445223 -0.011057515 0.033202555 -0.0028375478 0.06749065
-0.05522836 -0.059616897 -0.028721265 0.010720297 -0.017371114 -0.059261903 -0.06594934 -0.03184589
0.03379725 -0.057617515 -0.018886687 -0.039910376 0.002057934 0.030483257 -0.15774722 -0.09607324
-0.07369999 0.030831503 0.022310939 0.064535685 -0.036014114 -0.07214156 -0.01376617 -0.04460073
-0.098179154 -0.040537722 -0.051932555 -0.047397204 -0.006814045 -0.07577259 0.00039027995 0.045085862
-0.058753002 0.05323441 -0.077592105 -0.047190927 -0.13432328 -0.0819959 -0.032620944 -0.010014282
0.011774006 -0.081683986 0.033688813 -0.0072608185 0.021916699 0.056258556 -0.03323 -0.07772895
0.052159823 -0.105293654 0.0024001056 0.0066756774 -0.07979876 -0.037678983 -0.10542594 -0.038131077
0.06339287 0.020539518 0.06892756 -0.015236993 0.03578408 -0.008144572 0.027582657 -0.016470635
-0.0699957 -0.028326543 0.09637074 0.004055502 -0.03442909 0.03124401 -0.00015007086 -0.09070164
-0.05407309 -0.0135845635 -0.052874833 0.038544178 -0.14110315 -0.14115532 -0.07648502 0.045793645
-0.04775751 -0.13547695 -0.09490105 -0.07638979 0.026590273 -0.031894967 -0.17256413 -0.0030252424
-0.03462198 -0.07118714 -0.0384126 -0.1344738 -0.037276775 -0.013631239 -0.07862617 0.07997331
-0.030259533 0.0065179877 -0.015050365 0.079308376 0.020188143 -0.11754772 -0.013020981 -0.014457135
0.025588855 -0.0527145 0.03002925 -0.0041486523 -0.06469374 0.065547325 -0.12259314 -0.113113485
-0.086592704 -0.07563451 -0.15810528 -0.12357369 -0.0349949 0.04412793 -0.060719877 -0.042947013
0.002951555 -0.018258072 -0.11293489 -0.12451711 -0.10519303 0.08289171 0.05159983 -0.12146963
0.11900105 -0.21625991 -0.042430256 -0.11372285 -0.107819706 0.012968834 -0.029589785 -0.047045603
-0.031352144 -0.07810844 0.014709612 -0.059315503 -0.010728207 0.009291845 0.052490957 -0.12773834
-0.093694896 -0.0659032 -0.042576183 -0.01079307 0.028885826 -0.12684247 -0.09931674 -0.056560196
-0.08580042 0.011954916 -0.08344779 0.03390921 0.05402501 -0.044188827 -0.039594177 0.008187356
-0.10083582 0.03450544 -0.09369772 0.15274361 -0.054595686 -0.07960095 0.063935034 0.026603904
-0.085398965 -0.0994047 -0.06841542 -0.0386221 0.08697949 -0.115070224 -0.021070052 0.007880386
-0.031610258 -0.16476642 0.032389406 0.01549126 -0.0044888956 0.04201219 0.0041416646 0.043256845
-0.10875069 -0.079352856 -0.09579467 0.021879902 -0.0896922 -0.042801663 0.04039608 0.021430438

actor_fc_layers.blocks.1.block.1.weight f4 [128]
00000000: 2848 803f 8651 833f fd8e 773f 83fe 7c3f
00000010: 1a86 8a3f 1243 7b3f b36f 973f 66f2 8e3f
00000020: c98a 813f 0efe 793f f6aa 823f 2265 783f
00000030: 4a1a 6c3f d230 853f 9cf8 823f 7551 853f
00000040: fa0a 8c3f fe0e 8a3f 5ed8 7a3f c796 823f
00000050: 7469 7c3f 79df 893f 01b4 833f 54ae 4a3f
00000060: 4e83 923f fddf 723f 3a8c 973f 5350 e73f
00000070: afa8 843f 227b 7e3f b73a 7a3f f607 8c3f
00000080: 52c3 803f f85d 753f 8ead a53f 7aa7 8d3f
00000090: d6b4 803f cf56 753f 3c57 843f 0835 813f
000000a0: d85f 8a3f d272 7c3f aa87 783f ca3d 6d3f
000000b0: 1ef4 843f 55b3 843f d287 813f 836e 843f
000000c0: 2f04 6f3f 322c 803f 620b 913f 9bd4 853f
000000d0: 4323 813f aff8 773f 14f6 7a3f e525 7c3f
000000e0: 39a7 863f ef35 853f 264b 823f af04 823f
000000f0: b903 7d3f af74 853f ed55 7c3f e3ed 943f
00000100: 890b 723f d544 823f 36fa 803f 7838 963f
00000110: 9bea 913f 4e0c 833f d3c1 923f 7562 7b3f
00000120: e5ca 943f 3363 773f 86eb 7e3f 63ed 803f
00000130: a2e9 803f 128c 7d3f 047f 863f 006c 8c3f
00000140: 1d72 833f ad87 833f dcbd 803f f16d 713f
00000150: cb57 783f 49e7 7f3f 8c39 9b3f 8b2d 793f
00000160: a13f 813f 1950 663f ceae 883f a8a9 d33f
00000170: 65db 3d3f 9470 7b3f 3905 7c3f 22e0 9e3f
00000180: 40ee 783f 203a 7b3f c577 913f 7c87 853f
00000190: ce83 803f 5043 8a3f 9f30 803f 0f8d 7b3f
000001a0: c96e 7f3f 08c7 7b3f d8aa 873f 74a6 773f
000001b0: 0dd7 a43f 64e7 863f e5f5 823f fc3d 813f
000001c0: 8a9c 843f a6d7 7b3f 1100 7d3f b4db 7b3f
000001d0: 5c72 873f 5fa6 883f d607 773f d353 7b3f
000001e0: 7f47 7c3f c8e6 6d3f 3525 853f 3a65 863f
000001f0: 9c63 7f3f 374e 7f3f 2612 833f 5509 793f
1.002202 1.0259254 0.9670256 0.98825854 1.0822175 0.98149216 1.1830963 1.1167724
1.0120479 0.9765328 1.0208423 0.97029316 0.92227614 1.0405524 1.023212 1.0415484
1.094085 1.0785825 0.979864 1.0202264 0.9859841 1.0771323 1.0289308 0.79172254
1.1446321 0.9487303 1.1839669 1.8071388 1.0363978 0.99406636 0.9774584 1.093993
1.0059607 0.9584651 1.294359 1.1066735 1.0055187 0.95835584 1.0339122 1.0094309
1.0810499 0.986127 0.97082007 0.9267241 1.0386999 1.0367228 1.0119574 1.0346226
0.9336576 1.0013487 1.1331599 1.0455507 1.0088886 0.96863836 0.98031735 0.9849532
1.0519782 1.0407084 1.0179183 1.0157679 0.98833805 1.0426234 0.9856861 1.1635097
0.9454885 1.0177256 1.0076358 1.1735983 1.1399721 1.023813 1.14654 0.9819711
1.1624418 0.9663574 0.9957813 1.0072445 1.0071299 0.99041855 1.0507512 1.0970459
1.02692 1.027578 1.005794 0.9430838 0.9700896 0.9996229 1.2126937 0.9733512
1.0097543 0.8996597 1.0678346 1.653615 0.74162894 0.98218656 0.9844547 1.241215
0.9723854 0.98135567 1.1364676 1.0431972 1.0040224 1.0801792 1.0014838 0.98262113
0.9977842 0.9835057 1.0599012 0.9673836 1.2878128 1.0539365 1.0231291 1.0097041
1.0360272 0.9837593 0.98828226 0.98382115 1.0581775 1.0675772 0.9649633 0.9817478
0.98546594 0.9293027 1.040198 1.0499642 0.99761367 0.9972872 1.0239913 0.97279865

actor_fc_layers.blocks.1.block.1.bias f4 [128]
00000000: 2a22 02bd 1f16 05bd 3ec1 ebbc 3d64 34bd
00000010: e5a9 1ebd 4a23 a1bc b495 80bc 2b0c 63bd
00000020: 5acf 59bd b000 b5bc 17f6 89bd 918b d6ba
00000030: 082c 0f3d 0c1f 1ebd 5367 6dbd 4c98 1cbd
00000040: 7381 12be ded2 70bd 1090 f8bc 3d31 fcbc
00000050: 12fe 03bd 145d 22bd fcbf 3bbd cae8 453e
00000060: d7a7 95bc 7ef2 58bd 662f 40bd 63e9 e7bd
00000070: f381 fdbc 45e0 43bc 8045 67bc 8447 a1bd
00000080: a23f 45bd 3b2a b2bd a127 ff3d fb35 6ebd
00000090: 4154 56bd 3af4 b33c 6251 7dbd 2e5e 6cbd
000000a0: 9dd0 18bd 1d45 b5bc 2df8 08bd 90d1 10bd
000000b0: f858 3fbd 3e8f 4abd f4b4 5dbd 608e 3bbd
000000c0: 87d3 87bc 06c8 11bd 02e6 293d 8636 48bb
000000d0: 8566 08bd 92f5 93bc 3b09 3e3d e554 95bc
000000e0: 338c 0ebd e442 10bd 7862 99bc 56e2 0ebd
000000f0: a313 0ebd cd05 62bd 182a 08bd f43d f739
00000100: dc33 1cbd 2180 1bbd c2bb 7dbc 307c 34bd
00000110: c5a0 b4bc f9ee 2bbd fc29 103e b719 13bc
00000120: 9a52 05bc 934d eebc f07e 73bd aead 58bc
00000130: 487a 6abd 393d 8abd 6100 1fbd be21 0cbb
00000140: 98db 9abd 6b55 98bc b47b 5fbd d035 90bd
00000150: bf93 0bbd 8f6c e939 b991 843c 8370 27bc
00000160: ea21 60bd 7195 8abb d52a 0cbd f9bc 50bd
00000170: e746 573e a920 4bbc 96eb e5bc 33ea 113d
00000180: 23f3 8fbd f75b 89bc 2e02 dfbc ec1f 56bd
00000190: e3b3 4fbd 4c64 d8bc 3c1c 43bd 4f99 e7bc
000001a0: 3409 a93d 4b19 fcbc f094 19bd ac5f 73bd
000001b0: 9223 37bd cff1 febc 0f6e 1cbd e4f0 90bd
000001c0: d0f1 3abd 4f6c 9fbd 1623 02bc 7578 01bd
000001d0: 485f 2cbd 06a5 3bbd d845 e7bc d977 c8bc
000001e0: 02e7 8abc 1c09 063e 2650 2ebd 92ed 85bd
000001f0: c60f bf3b e852 18bd 8b90 26bd 37e6 77bd
-0.031770863 -0.0324918 -0.028778668 -0.044040907 -0.038736243 -0.019670147 -0.015696384 -0.055431526
-0.05317626 -0.022095054 -0.06736391 -0.0016368498 0.0349541 -0.038603827 -0.057959866 -0.03823118
-0.14307193 -0.05879485 -0.030342132 -0.030785197 -0.032224722 -0.039639547 -0.045837387 0.19327083
-0.018268509 -0.052965634 -0.046920203 -0.11323812 -0.030945754 -0.0119553255 -0.014115691 -0.07874969
-0.048156388 -0.08699461 0.124587305 -0.05815695 -0.052326445 0.021967042 -0.06184519 -0.057707004
-0.037308324 -0.022127682 -0.033439804 -0.035356104 -0.046715707 -0.049453013 -0.05412765 -0.045790076
-0.016580356 -0.035591148 0.04147912 -0.0030550077 -0.033300895 -0.018061433 0.04639552 -0.018228957
-0.034801673 -0.035220042 -0.018723711 -0.03488382 -0.034686696 -0.055181313 -0.03324327 0.0004715767
-0.038135394 -0.03796399 -0.0154866595 -0.044063747 -0.022049317 -0.04197595 0.14078516 -0.008978299
-0.0081373695 -0.029089725 -0.05944723 -0.013225002 -0.057245523 -0.067499585 -0.03881872 -0.0021382417
-0.075614154 -0.018595418 -0.054561332 -0.07041514 -0.03407645 0.00044522106 0.016182767 -0.010219696
-0.054719843 -0.0042292406 -0.034220535 -0.05096147 0.21023141 -0.0123979235 -0.028066438 0.03562374
-0.070287965 -0.016767485 -0.027222719 -0.052276537 -0.050708663 -0.026415013 -0.04763435 -0.028271345
0.082537085 -0.03077378 -0.037495553 -0.05941741 -0.044711657 -0.031121163 -0.038190898 -0.07077196
-0.045640767 -0.0778433 -0.007942935 -0.031609017 -0.042083055 -0.045811675 -0.028231546 -0.02447121
-0.016955856 0.13089412 -0.042556904 -0.065394536 0.0058307378 -0.03718844 -0.04066519 -0.060522284

actor_fc_layers.blocks.1.block.1.running_mean f4 [128]
00000000: 0000 0000 0000 0000 0000 0000 0000 0000
00000010: 0000 0000 0000 0000 0000 0000 0000 0000
00000020: 0000 0000 0000 0000 0000 0000 0000 0000
00000030: 0000 0000 0000 0000 0000 0000 0000 0000
00000040: 0000 0000 0000 0000 0000 0000 0000 0000
00000050: 0000 0000 0000 0000 0000 0000 0000 0000
00000060: 0000 0000 0000 0000 0000 0000 0000 0000
00000070: 0000 0000 0000 0000 0000 0000 0000 0000
00000080: 0000 0000 0000 0000 0000 0000 0000 0000
00000090: 0000 0000 0000 0000 0000 0000 0000 0000
000000a0: 0000 0000 0000 0000 0000 0000 0000 0000
000000b0: 0000 0000 0000 0000 0000 0000 0000 0000
000000c0: 0000 0000 0000 0000 0000 0000 0000 0000
000000d0: 0000 0000 0000 0000 0000 0000 0000 0000
000000e0: 0000 0000 0000 0000 0000 0000 0000 0000
000000f0: 0000 0000 0000 0000 0000 0000 0000 0000
00000100: 0000 0000 0000 0000 0000 0000 0000 0000
00000110: 0000 0000 0000 0000 0000 0000 0000 0000
00000120: 0000 0000 0000 0000 0000 0000 0000 0000
00000130: 0000 0000 0000 0000 0000 0000 0000 0000
00000140: 0000 0000 0000 0000 0000 0000 0000 0000
00000150: 0000 0000 0000 0000 0000 0000 0000 0000
00000160: 0000 0000 0000 0000 0000 0000 0000 0000
00000170: 0000 0000 0000 0000 0000 0000 0000 0000
00000180: 0000 0000 0000 0000 0000 0000 0000 0000
00000190: 0000 0000 0000 0000 0000 0000 0000 0000
000001a0: 0000 0000 0000 0000 0000 0000 0000 0000
000001b0: 0000 0000 0000 0000 0000 0000 0000 0000
000001c0: 0000 0000 0000 0000 0000 0000 0000 0000
000001d0: 0000 0000 0000 0000 0000 0000 0000 0000
000001e0: 0000 0000 0000 0000 0000 0000 0000 0000
000001f0: 0000 0000 0000 0000 0000 0000 0000 0000
0.0 0.0 0.0 0.0 0.0 0.0 0.0 0.0
0.0 0.0 0.0 0.0 0.0 0.0 0.0 0.0
0.0 0.0 0.0 0.0 0.0 0.0 0.0 0.0
0.0 0.0 0.0 0.0 0.0 0.0 0.0 0.0
0.0 0.0 0.0 0.0 0.0 0.0 0.0 0.0
0.0 0.0 0.0 0.0 0.0 0.0 0.0 0.0
0.0 0.0 0.0 0.0 0.0 0.0 0.0 0.0
0.0 0.0 0.0 0.0 0.0 0.0 0.0 0.0
0.0 0.0 0.0 0.0 0.0 0.0 0.0 0.0
0.0 0.0 0.0 0.0 0.0 0.0 0.0 0.0
0.0 0.0 0.0 0.0 0.0 0.0 0.0 0.0
0.0 0.0 0.0 0.0 0.0 0.0 0.0 0.0
0.0 0.0 0.0 0.0 0.0 0.0 0.0 0.0
0.0 0.0 0.0 0.0 0.0 0.0 0.0 0.0
0.0 0.0 0.0 0.0 0.0 0.0 0.0 0.0
0.0 0.0 0.0 0.0 0.0 0.0 0.0 0.0

actor_fc_layers.blocks.1.block.1.running_var f4 [128]
00000000: 0000 803f 0000 803f 0000 803f 0000 803f
00000010: 0000 803f 0000 803f 0000 803f 0000 803f
00000020: 0000 803f 0000 803f 0000 803f 0000 803f
00000030: 0000 803f 0000 803f 0000 803f 0000 803f
00000040: 0000 803f 0000 803f 0000 803f 0000 803f
00000050: 0000 803f 0000 803f 0000 803f 0000 803f
00000060: 0000 803f 0000 803f 0000 803f 0000 803f
00000070: 0000 803f 0000 803f 0000 803f 0000 803f
00000080: 0000 803f 0000 803f 0000 803f 0000 803f
00000090: 0000 803f 0000 803f 0000 803f 0000 803f
000000a0: 0000 803f 0000 803f 0000 803f 0000 803f
000000b0: 0000 803f 0000 803f 0000 803f 0000 803f
000000c0: 0000 803f 0000 803f 0000 803f 0000 803f
000000d0: 0000 803f 0000 803f 0000 803f 0000 803f
000000e0: 0000 803f 0000 803f 0000 803f 0000 803f
000000f0: 0000 803f 0000 803f 0000 803f 0000 803f
00000100: 0000 803f 0000 803f 0000 803f 0000 803f
00000110: 0000 803f 0000 803f 0000 803f 0000 803f
00000120: 0000 803f 0000 803f 0000 803f 0000 803f
00000130: 0000 803f 0000 803f 0000 803f 0000 803f
00000140: 0000 803f 0000 803f 0000 803f 0000 803f
00000150: 0000 803f 0000 803f 0000 803f 0000 803f
00000160: 0000 803f 0000 803f 0000 803f 0000 803f
00000170: 0000 803f 0000 803f 0000 803f 0000 803f
00000180: 0000 803f 0000 803f 0000 803f 0000 803f
00000190: 0000 803f 0000 803f 0000 803f 0000 803f
000001a0: 0000 803f 0000 803f 0000 803f 0000 803f
000001b0: 0000 803f 0000 803f 0000 803f 0000 803f
000001c0: 0000 803f 0000 803f 0000 803f 0000 803f
000001d0: 0000 803f 0000 803f 0000 803f 0000 803f
000001e0: 0000 803f 0000 803f 0000 803f 0000 803f
000001f0: 0000 803f 0000 803f 0000 803f 0000 803f
1.0 1.0 1.0 1.0 1.0 1.0 1.0 1.0
1.0 1.0 1.0 1.0 1.0 1.0 1.0 1.0
1.0 1.0 1.0 1.0 1.0 1.0 1.0 1.0
1.0 1.0 1.0 1.0 1.0 1.0 1.0 1.0
1.0 1.0 1.0 1.0 1.0 1.0 1.0 1.0
1.0 1.0 1.0 1.0 1.0 1.0 1.0 1.0
1.0 1.0 1.0 1.0 1.0 1.0 1.0 1.0
1.0 1.0 1.0 1.0 1.0 1.0 1.0 1.0
1.0 1.0 1.0 1.0 1.0 1.0 1.0 1.0
1.0 1.0 1.0 1.0 1.0 1.0 1.0 1.0
1.0 1.0 1.0 1.0 1.0 1.0 1.0 1.0
1.0 1.0 1.0 1.0 1.0 1.0 1.0 1.0
1.0 1.0 1.0 1.0 1.0 1.0 1.0 1.0
1.0 1.0 1.0 1.0 1.0 1.0 1.0 1.0
1.0 1.0 1.0 1.0 1.0 1.0 1.0 1.0
1.0 1.0 1.0 1.0 1.0 1.0 1.0 1.0

actor_fc_layers.blocks.2.block.0.weight f4 [128, 128]
00000000: 7601 483d 5b15 9f3b 7ac9 693d ee62 dcbc
00000010: 0491 35bd 5a7c debc 9101 5abd ac8f 2fbe
00000020: 8b7d ebbc 44b9 bfbb 45b7 8cbc 2c49 9abc
00000030: 2caa d83c 18e8 bcbd 26bd d03c f375 98bc
00000040: 4fdb 54bc 428a 1c3d f06d 183d 40de 22bd
00000050: 26e0 b7bc 4130 02bd 21ff 42bd bc9c b73d
00000060: 6e85 19bb e729 883c 32ed bc3d 36f0 5cbe
00000070: 6635 87bd a07d 183d 1c9b 79bd 162d 00be
00000080: 5ca0 44bd cb0e 57be 9dd6 39bd 03f3 033c
00000090: 2c61 613c 42e0 4dbd 599d 7cbd a5e8 afbd
000000a0: c53e 46bd 0310 75bd b2ec d33b 2f49 403d
000000b0: e181 35ba 1d84 f9bc d641 3abd 6628 8b3c
000000c0: a4ac 0a3d 00d6 5cbd df5c 27be 47f8 40bd
000000d0: 9724 84bb 90a6 3cbd 7956 91bd 5e64 c5bd
000000e0: b960 d0bd a03c 05bd 9b6b 01be 9b7a aa37
000000f0: 35c6 90bd 6d88 62bc d0c8 44bb 3f04 87bc
00000100: 53c9 833c 4553 b4bc 45ab b4bd f7e9 82bd
00000110: bd3d cd3d 0341 a03d 1ee3 24be 7652 113d
00000120: 9f6f a3bd 4276 e53c c84b 2fbb 5ab9 10be
00000130: f93c 953d da24 78bd e8fe 39bd aca1 17be
00000140: 335e 0bbd b9bf f0ba e4a7 b43c 96cd d5bd
00000150: 0487 863c 1240 41bd b2bf 0a3d c75a eab7
00000160: e7ab 39bd d32d 67bc 15cd 38bd f7ed e33c
00000170: e763 fe3d a5e7 b4bc 9679 f5bc 9d00 86bd
00000180: 749f a7bd fc42 70bd 2ba7 f6bc 53a8 553c
00000190: c4b9 903d a6a1 ffbd 6137 12bd ce2f 6ebd
000001a0: 87b1 abbd e8e6 403d 560e 9fbd 67fc 993d
000001b0: 6bdf 34bc 6aa4 98bd 09a5 903d add5 d03c
000001c0: 1d9d 88bd a33e 9fbc 8f29 cabd b7d1 a63d
000001d0: 8d3d a03d 6e20 ea3c 9fc2 a73c 1279 723d
000001e0: 38e1 5dbc 2da8 3e3e 8d67 243d 32dd 6fbb
000001f0: ba8e 9bbd d20d 4fbd 65fc 423d 4749 a3bd
00000200: fe80 283d b404 913d 7ef2 843c 9ebb 33bd
00000210: 420d 103d bf07 9e3d ac56 fb3d dfac 963d
00000220: dfd9 7a3d 0065 803b 4651 6d3d 4b82 573d
00000230: dcd6 1d3d ab31 e2bd 3172 abbd eb54 793d
00000240: bdb9 213c 6814 44bd 7a4d 76bd 7617 ad3c
00000250: ce7a 293d 5411 163d fc03 f73c 7bbe 493e
00000260: 9659 70bc d671 6f3d 61cc b03d 65ef d8be
00000270: 2878 9d3d 2c87 903a e20e 3abd 4fce 87bd
00000280: 737f 10bd 0cf9 133e 165c 03bd 6c84 adbd
00000290: 76be 113e 157c e93c 8716 dcbd f597 5fbd
000002a0: 4f2e 32bd dd73 393c a477 493d 06ae 733c
000002b0: 3452 123c 3fbd 30bc cc91 d63c fa38 3b3b
000002c0: 5763 333d b931 a83a 151d 57bd 1ecf b0bd
000002d0: d914 9ebd 72f4 5e3d 4008 f63d 4842 a83d
000002e0: 5c4d 17bd fc2d b6bd a563 28bd f39b 03be
000002f0: 95d8 bebc c34f 703d 937a 0c3d b5c7 493e
00000300: 68c7 bdbd 6201 a0bd 4c31 aa3b 3c1a 7f3d
00000310: 1d5d f83d 3b4c e8bc b6c6 17be e246 55bd
00000320: adec 5a3d 9e7d 463d 27a4 a5bd 84d8 61bb
00000330: 176f 153d d99b 243c c259 37bc 308a 14be
00000340: fca7 8abc 93f0 5f3d 896d 363d baa4 d23d
00000350: fec9 18bd f1cb 82bd f9cc 5b3c c366 223d
00000360: 619f ab3d 98c2 8dbe a2f7 8bbd 2421 1ebe
00000370: 14e7 973d e5ce 5fbc 5d57 6e3c bdc9 a53e
00000380: f15d 3f3d f9e3 2abc 96ea 9dbd 53b0 54bd
00000390: e342 a13d 78dd aa3d 4b51 14bc e1da 663d
000003a0: 21a4 c73a 9aec 953d 61b3 89bc b57d 96bd
000003b0: 3d46 bebc 53e2 f6bc b369 a13d 520c 94bd
000003c0: 730c 1f3d cb98 ba3d 3d12 2fbe 15cf 9bbc
000003d0: a923 dc3c dca4 563d 9383 5e3b f63b 89bd
000003e0: 729d c7bc 7594 173d 6c8a d53c 5502 9d3c
000003f0: 4e05 093d 785b 763d fc4a 15bd 685d b23d
0.04882952 0.0048548407 0.05707691 -0.026902642 -0.04432775 -0.027158905 -0.05322415 -0.1714465
-0.028746387 -0.005850943 -0.017177233 -0.01883372 0.026448332 -0.09223956 0.025480818 -0.01861093
-0.01299174 0.03821779 0.03721422 -0.039762735 -0.02244575 -0.0317843 -0.04760659 0.089654416
-0.0023425478 0.016621543 0.09224929 -0.21576008 -0.06601982 0.03722918 -0.06093894 -0.12517199
-0.048004493 -0.21001737 -0.045370687 0.008053544 0.013756078 -0.050262697 -0.061673496 -0.08589295
-0.048399705 -0.059829723 0.0064674253 0.046944793 -0.00069239555 -0.030458504 -0.045472942 0.016987037
0.03385605 -0.053915024 -0.16344021 -0.047111776 -0.004032682 -0.046057284 -0.070965715 -0.09638284
-0.101746984 -0.03252852 -0.12638704 2.0322672e-05 -0.07069055 -0.013826472 -0.003002692 -0.016481517
0.01608721 -0.022012362 -0.088217296 -0.063922815 0.10021541 0.078249 -0.16102263 0.03547903
-0.079802744 0.028010491 -0.002674805 -0.14133206 0.0728702 -0.06058202 -0.045409113 -0.14807767
-0.034025382 -0.0018367685 0.022052713 -0.10439603 0.016421802 -0.047180243 0.03387422 -2.7937245e-05
-0.045329954 -0.014110046 -0.045117456 0.027823431 0.124213986 -0.022083113 -0.029965203 -0.06543086
-0.0818471 -0.05865763 -0.030109009 0.01304062 0.07066682 -0.12482004 -0.035697345 -0.05815106
-0.0838347 0.04709521 -0.07766406 0.07518845 -0.011039595 -0.074532345 0.07062728 0.025492514
-0.06670592 -0.019439047 -0.09871208 0.08145469 0.0782424 0.028579917 0.020478545 0.059197493
-0.013542466 0.18618841 0.040137816 -0.0036600349 -0.07595582 -0.05055029 0.047603983 -0.07972961
0.04113864 0.07080975 0.01622891 -0.043880098 0.035168894 0.07716321 0.12272391 0.07357191
0.061242934 0.00391829 0.057938837 0.05261449 0.038534984 -0.1104463 -0.0837139 0.060872
0.009870944 -0.047871023 -0.06013248 0.021129351 0.04137688 0.03663762 0.030153267 0.19701569
-0.014669796 0.05845817 0.08632732 -0.42370144 0.076889336 0.0011026612 -0.04542435 -0.06631147
-0.035277795 0.14450473 -0.032070242 -0.08472523 0.14232811 0.02850155 -0.10746484 -0.054588277
-0.043501195 0.011319128 0.049186364 0.014873033 0.008930732 -0.010787307 0.026192568 0.0028567896
0.04379591 0.0012832201 -0.05251797 -0.086332545 -0.0771882 0.05443234 0.12013292 0.08215767
-0.03693901 -0.088954896 -0.041110653 -0.12852459 -0.023296634 0.058669817 0.034296583 0.19705088
-0.09266549 -0.07812764 0.005193865 0.06228088 0.12127135 -0.028356662 -0.14821896 -0.052069552
0.053448368 0.04845964 -0.0808795 -0.0034461329 0.036482897 0.010046923 -0.0111908335 -0.1450584
-0.016925804 0.05467279 0.044538055 0.10285325 -0.03730201 -0.06386555 0.0134155685 0.039648782
0.083800085 -0.27687526 -0.068343416 -0.1544233 0.074171215 -0.013660167 0.014547196 0.32380477
0.04672045 -0.0104303295 -0.07710759 -0.05192597 0.07874086 0.08343023 -0.009052585 0.056361083
0.0015231409 0.07320519 -0.016809167 -0.073481955 -0.023226852 -0.030137217 0.07881489 -0.072289124
0.038830232 0.09111174 -0.17096801 -0.019019643 0.026872473 0.052403316 0.0033952936 -0.0670089
-0.024367068 0.037006814 0.026066981 0.019166151 0.033452325 0.060145825 -0.036448464 0.08709222

actor_fc_layers.blocks.2.block.1.weight f4 [128]
00000000: f147 713f 9b9b c53f 73c0 8b3f 4b66 913f
00000010: b0e7 8a3f e5ba f83f 7bd7 9b3f a93f 9e3f
00000020: c239 ea3f 245b b83f ac5c 833f 539e 8b3f
00000030: b836 cb3f 93dd d53f c304 b53f 7666 7b3f
00000040: 3caa 623f d26f 933f 1c86 a73f ce96 7e3f
00000050: c131 6f3f f592 853f 25cb 883f 9fb2 aa3f
00000060: 0899 8d3f ddf0 a13f 55f0 8c3f 314d ad3f
00000070: 4ab2 933f c1b8 763f 8529 8e3f a41c a03f
00000080: a30f 903f 602f a43f 0679 943f ede1 953f
00000090: 4952 ac3f b8ac c63f 6efb a03f 66a4 6c3f
000000a0: b02e 8a3f 7aac 603f 9556 753f f156 833f
000000b0: b4ce ab3f 66d8 873f 5854 913f 1e69 8e3f
000000c0: dbc0 9e3f 87a0 963f eefd af3f ae3c 973f
000000d0: ddbf 783f e0d5 bc3f fa8b 833f b226 843f
000000e0: 41e7 663f b5be 9f3f 9804 8d3f 7033 a53f
000000f0: 410c 893f 2ec3 733f 2ed2 ab3f 8158 7e3f
00000100: 6bfe 2f3f a2d5 8f3f 8fa8 913f 1488 d23f
00000110: c0ac 8c3f 4cd0 693f a090 633f 5016 813f
00000120: 1a66 e23f 0a85 3a3f f9fa a03f 0ea4 933f
00000130: 6403 b53f 799b 843f cd1c af3f 8c25 ff3f
00000140: 5cf2 b33f b7dc 923f e179 853f 9f70 713f
00000150: 0d2b df3f fef6 8a3f 77e7 c03f 20e2 523f
00000160: 3e8f 923f 2cca 843f 49b5 743f c7d0 ae3f
00000170: 3ccf 713f eca8 9e3f 0a86 473f dac2 6a3f
00000180: 960a ab3f ba2a 5b3f 8e5d 6f3f 047b 873f
00000190: 580c 983f 6640 6c3f 2866 a13f 165e a03f
000001a0: 6550 8f3f ef49 7d3f f8aa 823f 17c5 e23f
000001b0: ee79 693f 2c20 783f 0f54 853f 4122 713f
000001c0: f972 593f 436c 9b3f 604e 8a3f 928b 693f
000001d0: 6dd9 343f 187a 733f 5fc4 b83f 53e5 fc3f
000001e0: e0d6 a83f 20ad 9c3f 13b7 713f 6301 763f
000001f0: 7a6d a53f 2362 843f 15be 8f3f bd44 e03f
0.942504 1.5438112 1.0918106 1.1359342 1.0851955 1.9432036 1.2175134 1.2363178
1.8298876 1.4402814 1.0262656 1.0907692 1.5876074 1.6708244 1.4142078 0.9820322
0.8854101 1.15185 1.3087802 0.9944886 0.93435293 1.0435473 1.0686995 1.3335761
1.1062326 1.2651631 1.1010844 1.3539182 1.1538785 0.9637566 1.1106421 1.250874
1.1254772 1.2826958 1.1599433 1.1709572 1.3462611 1.552146 1.257673 0.9243835
1.0795498 0.8776318 0.9583524 1.0260907 1.3422456 1.0612915 1.1353865 1.1125829
1.2402605 1.1767739 1.3749368 1.1815393 0.9716776 1.475277 1.0277092 1.0324309
0.90196615 1.2480074 1.1017027 1.2906322 1.0706865 0.95219696 1.3423517 0.99353796
0.68747586 1.123707 1.1379565 1.6447778 1.0990219 0.9133346 0.88892555 1.0084934
1.7687409 0.7285925 1.2576591 1.153444 1.414166 1.0359946 1.3680664 1.9933333
1.4058337 1.1473607 1.042782 0.9431247 1.7435013 1.0856626 1.5070637 0.8237629
1.1449964 1.0374198 0.9558912 1.3657464 0.9445684 1.2395301 0.779389 0.9170357
1.3362606 0.8561207 0.9350213 1.0584416 1.1878767 0.92285764 1.2609301 1.2528713
1.119641 0.9894094 1.0208426 1.7716397 0.91201675 0.9692409 1.0416278 0.9419289
0.8494106 1.2142414 1.0805168 0.9122859 0.70644265 0.95108175 1.4434928 1.9757484
1.3190575 1.2240334 0.94419974 0.96095866 1.2924035 1.0342449 1.1229883 1.7520977

actor_fc_layers.blocks.2.block.1.bias f4 [128]
00000000: ac25 3a3e 9856 64bc 0c5b bdbd 91bd a7bc
00000010: 2979 22be b2b4 363e a877 78be aa50 c93e
00000020: 3497 d6bb bcac 4e3e 04c8 edbe 78e4 13be
00000030: 743d 093f 6ed6 2d3e a103 51be cafb 38be
00000040: 942f 8a3e 3fe1 c23d 3a10 62be 14cf 53be
00000050: 4acc abbd 9b1c acbe d568 5cbe 9f78 58be
00000060: 1a2f abbe 2e0d c43d fa29 f4bd 8ee1 8a3d
00000070: a90a 4ebe 4705 91be e79c 9fbe 7e7a 573e
00000080: 0961 ec3b ab8e be3e 1d85 653d e44e c2be
00000090: 41fb 79bc c8d4 23be fefd 223e a10f ec3e
000000a0: 3c98 74be b4fe 9d3d 2367 b8be 8e64 06bd
000000b0: aae8 0abd 0332 2abe 4a12 9fbd d942 9dbe
000000c0: 5d37 453e 1bbc 893c 72ae 513e 441c a53e
000000d0: 00f1 e9bd 36c5 663d f564 823d 560f b43e
000000e0: 53c3 76be 0800 d73e 0229 dfbe fb89 3f3c
000000f0: 524f 62be 55f7 b1be 4e9c 8bbd c7f3 9ebe
00000100: 76b7 fc3c c678 b1bd 51b6 353e f1f1 f23d
00000110: aebd 90be 4cc3 92be 9c14 0bbf e050 aabe
00000120: a901 10bf 31d7 263e e1a6 06be 1f49 80be
00000130: 2a58 003d 8578 d3bd d430 99be 2688 f13d
00000140: bd7a 37be 47a9 c7bd ca41 ff3d b8b9 3bbe
00000150: 1014 9a3d 493f d2bd 164d 14bd 7000 303d
00000160: fe89 83be 1972 3dbe e214 25be d87a 9a3e
00000170: d358 66bd 2797 45be b953 433e 48a4 a8bd
00000180: ce9a 58be 7149 18be 2c9c bb3d 042e 58be
00000190: 2f16 f53c 2362 0cbe aa68 9abc e8d4 87be
000001a0: 3215 da3c a6af c03d aa52 df3d 21f5 be3d
000001b0: 35e9 b7bd 2a22 aabe fa32 0abd 7a6a 293e
000001c0: 4682 fb3d 3680 453d d1eb 7dbd d2f2 963d
000001d0: dcbb 2a3e 19d9 aabd 1e61 463e e399 1bbe
000001e0: 34be 7f3e 3870 5fbe bdc3 82be 0356 a2be
000001f0: 59ac 863e 8336 f3bd 6a34 f83d 816b 073e
0.18178433 -0.013936661 -0.092458814 -0.020476134 -0.15866531 0.17842367 -0.24264395 0.39319354
-0.0065487865 0.2018308 -0.46441662 -0.14442623 0.53609395 0.1697633 -0.2041154 -0.180648
0.26989424 0.095156185 -0.22076502 -0.20684463 -0.083885744 -0.33615574 -0.21524365 -0.21139763
-0.33434373 0.09572826 -0.11922069 0.067813024 -0.20121254 -0.2832434 -0.31174394 0.21042821
0.007213716 0.37218222 0.05603515 -0.37950814 -0.0152576575 -0.15999138 0.15917203 0.46105674
-0.23886198 0.077145964 -0.36016187 -0.03281074 -0.033913292 -0.1662064 -0.0776716 -0.30715063
0.192594 0.016813328 0.20476702 0.32248127 -0.1142292 0.05634042 0.06366912 0.3516795
-0.24097948 0.4199221 -0.43585974 0.011690612 -0.22100571 -0.34759012 -0.06816922 -0.31045362
0.0308492 -0.08665614 0.1774533 0.11862553 -0.28269714 -0.28664625 -0.5432832 -0.33264828
-0.56252533 0.16293027 -0.13149597 -0.25055787 0.03133408 -0.10325722 -0.29920065 0.117935464
-0.17917915 -0.09749084 0.1246372 -0.18332565 0.07523358 -0.10265977 -0.036206327 0.042969167
-0.25691217 -0.18500556 -0.16121247 0.30171847 -0.056237053 -0.19295941 0.19074906 -0.08234459
-0.21152803 -0.14871766 0.09160647 -0.21111304 0.029917805 -0.13709311 -0.018848736 -0.26529622
0.026621435 0.09408502 0.10904439 0.093240984 -0.089800276 -0.3322919 -0.03374002 0.16544524
0.12280707 0.048217975 -0.06199247 0.07370533 0.16673225 -0.08342189 0.19372985 -0.15195422
0.249749 -0.21820152 -0.2553996 -0.31706247 0.26303366 -0.11875632 0.12119372 0.13224603

actor_fc_layers.blocks.2.block.1.running_mean f4 [128]
00000000: 0000 0000 0000 0000 0000 0000 0000 0000
00000010: 0000 0000 0000 0000 0000 0000 0000 0000
00000020: 0000 0000 0000 0000 0000 0000 0000 0000
00000030: 0000 0000 0000 0000 0000 0000 0000 0000
00000040: 0000 0000 0000 0000 0000 0000 0000 0000
00000050: 0000 0000 0000 0000 0000 0000 0000 0000
00000060: 0000 0000 0000 0000 0000 0000 0000 0000
00000070: 0000 0000 0000 0000 0000 0000 0000 0000
00000080: 0000 0000 0000 0000 0000 0000 0000 0000
00000090: 0000 0000 0000 0000 0000 0000 0000 0000
000000a0: 0000 0000 0000 0000 0000 0000 0000 0000
000000b0: 0000 0000 0000 0000 0000 0000 0000 0000
000000c0: 0000 0000 0000 0000 0000 0000 0000 0000
000000d0: 0000 0000 0000 0000 0000 0000 0000 0000
000000e0: 0000 0000 0000 0000 0000 0000 0000 0000
000000f0: 0000 0000 0000 0000 0000 0000 0000 0000
00000100: 0000 0000 0000 0000 0000 0000 0000 0000
00000110: 0000 0000 0000 0000 0000 0000 0000 0000
00000120: 0000 0000 0000 0000 0000 0000 0000 0000
00000130: 0000 0000 0000 0000 0000 0000 0000 0000
00000140: 0000 0000 0000 0000 0000 0000 0000 0000
00000150: 0000 0000 0000 0000 0000 0000 0000 0000
00000160: 0000 0000 0000 0000 0000 0000 0000 0000
00000170: 0000 0000 0000 0000 0000 0000 0000 0000
00000180: 0000 0000 0000 0000 0000 0000 0000 0000
00000190: 0000 0000 0000 0000 0000 0000 0000 0000
000001a0: 0000 0000 0000 0000 0000 0000 0000 0000
000001b0: 0000 0000 0000 0000 0000 0000 0000 0000
000001c0: 0000 0000 0000 0000 0000 0000 0000 0000
000001d0: 0000 0000 0000 0000 0000 0000 0000 0000
000001e0: 0000 0000 0000 0000 0000 0000 0000 0000
000001f0: 0000 0000 0000 0000 0000 0000 0000 0000
0.0 0.0 0.0 0.0 0.0 0.0 0.0 0.0
0.0 0.0 0.0 0.0 0.0 0.0 0.0 0.0
0.0 0.0 0.0 0.0 0.0 0.0 0.0 0.0
0.0 0.0 0.0 0.0 0.0 0.0 0.0 0.0
0.0 0.0 0.0 0.0 0.0 0.0 0.0 0.0
0.0 0.0 0.0 0.0 0.0 0.0 0.0 0.0
0.0 0.0 0.0 0.0 0.0 0.0 0.0 0.0
0.0 0.0 0.0 0.0 0.0 0.0 0.0 0.0
0.0 0.0 0.0 0.0 0.0 0.0 0.0 0.0
0.0 0.0 0.0 0.0 0.0 0.0 0.0 0.0
0.0 0.0 0.0 0.0 0.0 0.0 0.0 0.0
0.0 0.0 0.0 0.0 0.0 0.0 0.0 0.0
0.0 0.0 0.0 0.0 0.0 0.0 0.0 0.0
0.0 0.0 0.0 0.0 0.0 0.0 0.0 0.0
0.0 0.0 0.0 0.0 0.0 0.0 0.0 0.0
0.0 0.0 0.0 0.0 0.0 0.0 0.0 0.0

actor_fc_layers.blocks.2.block.1.running_var f4 [128]
00000000: 0000 803f 0000 803f 0000 803f 0000 803f
00000010: 0000 803f 0000 803f 0000 803f 0000 803f
00000020: 0000 803f 0000 803f 0000 803f 0000 803f
00000030: 0000 803f 0000 803f 0000 803f 0000 803f
00000040: 0000 803f 0000 803f 0000 803f 0000 803f
00000050: 0000 803f 0000 803f 0000 803f 0000 803f
00000060: 0000 803f 0000 803f 0000 803f 0000 803f
00000070: 0000 803f 0000 803f 0000 803f 0000 803f
00000080: 0000 803f 0000 803f 0000 803f 0000 803f
00000090: 0000 803f 0000 803f 0000 803f 0000 803f
000000a0: 0000 803f 0000 803f 0000 803f 0000 803f
000000b0: 0000 803f 0000 803f 0000 803f 0000 803f
000000c0: 0000 803f 0000 803f 0000 803f 0000 803f
000000d0: 0000 803f 0000 803f 0000 803f 0000 803f
000000e0: 0000 803f 0000 803f 0000 803f 0000 803f
000000f0: 0000 803f 0000 803f 0000 803f 0000 803f
00000100: 0000 803f 0000 803f 0000 803f 0000 803f
00000110: 0000 803f 0000 803f 0000 803f 0000 803f
00000120: 0000 803f 0000 803f 0000 803f 0000 803f
00000130: 0000 803f 0000 803f 0000 803f 0000 803f
00000140: 0000 803f 0000 803f 0000 803f 0000 803f
00000150: 0000 803f 0000 803f 0000 803f 0000 803f
00000160: 0000 803f 0000 803f 0000 803f 0000 803f
00000170: 0000 803f 0000 803f 0000 803f 0000 803f
00000180: 0000 803f 0000 803f 0000 803f 0000 803f
00000190: 0000 803f 0000 803f 0000 803f 0000 803f
000001a0: 0000 803f 0000 803f 0000 803f 0000 803f
000001b0: 0000 803f 0000 803f 0000 803f 0000 803f
000001c0: 0000 803f 0000 803f 0000 803f 0000 803f
000001d0: 0000 803f 0000 803f 0000 803f 0000 803f
000001e0: 0000 803f 0000 803f 0000 803f 0000 803f
000001f0: 0000 803f 0000 803f 0000 803f 0000 803f
1.0 1.0 1.0 1.0 1.0 1.0 1.0 1.0
1.0 1.0 1.0 1.0 1.0 1.0 1.0 1.0
1.0 1.0 1.0 1.0 1.0 1.0 1.0 1.0
1.0 1.0 1.0 1.0 1.0 1.0 1.0 1.0
1.0 1.0 1.0 1.0 1.0 1.0 1.0 1.0
1.0 1.0 1.0 1.0 1.0 1.0 1.0 1.0
1.0 1.0 1.0 1.0 1.0 1.0 1.0 1.0
1.0 1.0 1.0 1.0 1.0 1.0 1.0 1.0
1.0 1.0 1.0 1.0 1.0 1.0 1.0 1.0
1.0 1.0 1.0 1.0 1.0 1.0 1.0 1.0
1.0 1.0 1.0 1.0 1.0 1.0 1.0 1.0
1.0 1.0 1.0 1.0 1.0 1.0 1.0 1.0
1.0 1.0 1.0 1.0 1.0 1.0 1.0 1.0
1.0 1.0 1.0 1.0 1.0 1.0 1.0 1.0
1.0 1.0 1.0 1.0 1.0 1.0 1.0 1.0
1.0 1.0 1.0 1.0 1.0 1.0 1.0 1.0
