saved_models/agent_maddpgv2_vs_opp_maddpgv2_4_vs_1_1_big_5_sec_adver_best_models/maddpgv2_actor_0.pt (torch, 163339 bytes, 21 tensors)

actor_fc_layers.blocks.0.block.0.weight f4 [128, 27]
00000000: 6189 bdbc ef51 07be 85a4 dabd 34f0 063e
00000010: fb8c 3abe dc98 cbbd f9e5 593d addc 193e
00000020: 46a9 11bd e690 013e 735b 63bd 2a92 3b3e
00000030: 4e62 28be b1c0 ecba 95a8 8bbd d2e4 ba3d
00000040: bfb9 3c3e ba94 8bbd 202e adbd 4bbd b03d
00000050: 9c2b 403d d8b3 c1bc 5066 05be e009 82bd
00000060: e7ff d0bd 3fb5 f0bd 1e55 243e dfe0 ccbb
00000070: e22b 60bd d3b2 4abe 08c3 323e 49e6 cebd
00000080: f7d9 4e3d 933a c43c bcb5 38be 431f e5bd
00000090: 7bfe 053e 6505 3abe e524 5f3e 6a85 febd
000000a0: 3c92 30be b05f bf3b b6f0 88be 07a5 42be
000000b0: c5c7 6f3d 2eeb 693e 86a8 13be 2ecd 2fbd
000000c0: f217 95bd b002 543c 0ec2 d03d d3ac 0f3e
000000d0: e053 873b ca82 6bbd 21c3 ebbd 8e5a adbd
000000e0: 3d65 8d3e 1a21 d5bd 67e9 4dbe e437 7ebd
000000f0: 0b9d 3cbe 31e1 983d edd8 163e ca82 b73d
00000100: 40bc 1a3e 87f0 053e 1c53 1c3e 636d 19be
00000110: 26ed 063e 9ad4 f2bd 0546 b53c 717b 35be
00000120: d666 48bd 508b d83d 3584 9abd 8049 0abe
00000130: 9822 0fbe 8569 3bbc 2d9a d2bc dc0c d3bd
00000140: b2d8 5f3d c8ec 99bc c7bd fe3d caed be3d
00000150: 499a a2bd 79a9 153d b897 fb3d 4046 31be
00000160: 5530 333e 2384 32bd 9f06 703c 4cb7 513e
00000170: 5660 c93b a3ae 003e 2e92 27be 8da6 31bc
00000180: 3cac 2d3e 87fb 99bd 7f85 0abe cbcf b2bd
00000190: f919 233e 0e3c 7bbd cde9 653e 552e a4be
000001a0: 9a40 f639 6316 f83d a8c6 22be 33ff 403d
000001b0: 9b95 32bc b208 e5ba 622b a93e f350 66be
000001c0: cd2a bc3b 4c87 8ebe 2f88 9f3d 1ac5 e6bd
000001d0: 8511 003e 946b 383e 541b 933b cfe9 993b
000001e0: 5b68 f1bd 747e 163e 9ccc 383e f5b2 23be
000001f0: a6c6 fabc e310 08be b177 89bc d71e 8bbd
00000200: a551 da3d eb37 51bd 3c26 183e dfb6 b9b9
00000210: 7def 02bd 79fe 94bc 22f3 1e3e b22d 8cbc
00000220: 0492 993d 4d42 c43e e11d febc dd8d 9a3e
00000230: 4959 6fbe 212a 363e a4e3 203d 5a2b 0abe
00000240: 5672 7d3d 6e6e eebd 2105 85bc 0a19 04be
00000250: 9614 d83d a4ed 42be 75b7 00be e034 13be
00000260: 1a31 cfbd 7e91 7c3d 4929 0f3e f5ae aabd
00000270: 5d6b efbd 5e92 a6bb f745 ac3d cd65 763e
00000280: 8e61 82bd 26e8 19be 2b9b e3bd 5a38 af3c
00000290: c0d0 17be c1d4 16ba c132 ab3d e66d 82be
000002a0: 8f17 17be 5cc7 62bd cda2 e3bd cdf8 d6bd
000002b0: e43a 133e 5d33 a0bd 20a1 32be 516d 8f3d
000002c0: 6d42 92bd 66a3 03be 553a 533e b03b 8dbe
000002d0: a90d 023e aa06 3cbe 975a ba3d 471e af3d
000002e0: 6a34 27be a24c 783d 22df 603d 8157 2a3e
000002f0: da6a e13c a9c3 82bd 7b53 ec3d ea15 d73d
00000300: d814 9e3d 1033 013d 3d55 e8bd b3e8 32be
00000310: c9aa 0d3e ab52 e63b b130 2abe 4551 84bd
00000320: 9689 acbc a130 553e be92 9abd 8280 4b3e
00000330: bea3 ee3d 5853 62bb 2a92 46be e8f0 ee3d
00000340: 639c b3bc 3ad8 47bc f480 63bd 4252 f43d
00000350: 7af8 f5bc 5072 543d 56b3 203e 53c2 45be
00000360: 2a9a f53d 5425 03be d36d 023e ae28 36bd
00000370: 61be 7c3e 5fd3 193d e8f3 a1bd 4b3e af3d
00000380: d50e 42be 197d 153e ef38 cabd 501c 5cbd
00000390: 2875 b5bc adea dfbd d7cb 3dbe 3b8b 163e
000003a0: b7e7 843e 78c6 893d 6de9 4dbe c6d0 6d3e
000003b0: cfdc a13d 3bae 173d 4223 42be 5dc7 a43e
000003c0: 913f 26bd 650a 44be f463 14be bbff b13c
000003d0: 9ecc a43a 3552 963e 3d1e a7bd 08f6 0b3e
000003e0: f486 62be fd0c 45be 782a f1bc c611 52bd
000003f0: 913f 223e 2a7e 873c 21f9 cabd 37fe 1a3e
-0.023136796 -0.13214849 -0.10675911 0.13177568 -0.18217842 -0.09941265 0.053197835 0.15025587
-0.035561822 0.1265293 -0.055507135 0.18317476 -0.1644375 -0.0018062798 -0.06819264 0.09125675
0.18430232 -0.06815477 -0.08456063 0.08629855 0.04691659 -0.023645326 -0.1302731 -0.0634954
-0.102050595 -0.1175332 0.16048095 -0.0062523927 -0.05472935 -0.19794779 0.17457211 -0.10102517
0.050500836 0.023953712 -0.18038076 -0.11187603 0.13085358 -0.1816612 0.21791418 -0.124277905
-0.17243284 0.0058402643 -0.26746148 -0.19008265 0.058540124 0.2284362 -0.14419755 -0.042920284
-0.07279958 0.012940094 0.10193263 0.14030771 0.0041298717 -0.057497777 -0.11511827 -0.084645376
0.276163 -0.10406704 -0.20108567 -0.06206502 -0.18419282 0.07464827 0.14731188 0.08960493
0.15110874 0.13080035 0.15266079 -0.14983134 0.13176402 -0.11856957 0.022128114 -0.1772287
-0.048926197 0.10573447 -0.07544748 -0.135046 -0.1397804 -0.011438732 -0.025708282 -0.10305187
0.054650016 -0.018789664 0.12438541 0.093226984 -0.07939584 0.036538575 0.122847974 -0.17311954
0.17498906 -0.043583047 0.014650016 0.20480078 0.0061455173 0.12566619 -0.16364357 -0.010842931
0.16960233 -0.07518678 -0.13527487 -0.087310396 0.15927877 -0.06133657 0.22452469 -0.320666
0.00046968908 0.12113645 -0.15896094 0.047118377 -0.010899927 -0.0017473905 0.3304091 -0.22491817
0.005742407 -0.27837598 0.07789647 -0.11268063 0.12506683 0.18009788 0.0044893418 0.0046970616
-0.11787482 0.14696676 0.18046802 -0.15986235 -0.030612301 -0.13287692 -0.016780706 -0.067929916
0.10660104 -0.05107872 0.14858335 -0.000354222 -0.031966675 -0.018187748 0.15522435 -0.017111633
0.074985534 0.38331833 -0.031020107 0.30186358 -0.23373903 0.17789508 0.039279595 -0.134931
0.061876617 -0.116421565 -0.016237797 -0.12900177 0.105508015 -0.19035965 -0.12569983 -0.14375639
-0.10116787 0.06166219 0.13980593 -0.08334152 -0.116904 -0.0050833663 0.08411782 0.24062271
-0.06366263 -0.15029964 -0.1111358 0.021389175 -0.14825726 -0.00057537487 0.0835929 -0.2547447
-0.1475508 -0.055365905 -0.11115036 -0.10496674 0.14377934 -0.07822297 -0.17444277 0.07003272
-0.07141576 -0.128553 0.2062772 -0.275846 0.12700523 -0.18361917 0.0909931 0.08550697
-0.16328588 0.060619958 0.054900296 0.16634943 0.027516771 -0.063849755 0.1153936 0.10502227
0.077188194 0.031542838 -0.11344383 -0.1747158 0.1383468 0.0070288978 -0.16620137 -0.064608134
-0.0210617 0.20819332 -0.0754752 0.1987324 0.11652325 -0.003453454 -0.19391695 0.11667043
-0.021925157 -0.0121975485 -0.0555429 0.11929752 -0.03002571 0.05186683 0.15693411 -0.1931241
0.11992295 -0.12807208 0.12737207 -0.04447239 0.24681999 0.037555095 -0.079078496 0.08556803
-0.1895097 0.14598502 -0.098741405 -0.05373794 -0.022150591 -0.10933433 -0.1853479 0.1470155
0.25958034 0.06727308 -0.20108576 0.23224172 0.07903444 0.037031393 -0.18958762 0.32183352
-0.040587965 -0.1914459 -0.14491254 0.021728387 0.0012573188 0.29359594 -0.08160064 0.13668072
-0.22121793 -0.19243236 -0.029439196 -0.05128648 0.15844561 0.016539652 -0.09910799 0.15136038

actor_fc_layers.blocks.0.block.1.weight f4 [128]
00000000: 239e 843f 3175 863f 5ccb 963f 8d69 6e3f
00000010: 674c 893f 3661 833f fd20 8a3f e841 723f
00000020: 878e 853f 5510 8a3f b5fe 883f 849a 703f
00000030: 48c9 743f c996 7f3f 991e 8a3f 7ecb 773f
00000040: 3b25 803f 867f 7e3f 750e 6e3f 5e8f 7d3f
00000050: 86b2 8a3f 77a7 843f 9443 823f 20b3 8e3f
00000060: 73ae 703f cc9f 813f 3ad8 7a3f 676b 703f
00000070: e963 963f c4e9 803f f1a0 833f 9aca 823f
00000080: 26d5 7b3f 6a60 913f 55a6 723f 8816 893f
00000090: fc78 783f 16a0 9d3f c248 823f 5e1a 7c3f
000000a0: 58f6 763f 3ecb 7c3f 3212 803f cfcb 893f
000000b0: f32e 773f 3df6 6f3f 84af 803f 2b8a 7a3f
000000c0: 9676 803f 4746 803f 4263 783f c4fb 923f
000000d0: 5f27 7c3f 939d 7f3f a9a1 883f 1d75 853f
000000e0: fc23 763f 9b08 973f e2c3 8d3f af8a 853f
000000f0: c5f9 703f 4381 8f3f 19e0 7c3f 55d4 813f
00000100: 6090 843f 867e 7c3f 1000 8a3f ad36 8e3f
00000110: 32eb 783f 80be 913f 528c 653f 0962 883f
00000120: 7124 763f 9919 833f 43d0 963f 80e4 8a3f
00000130: fe9b 793f 3846 7f3f 3be6 993f ed33 993f
00000140: bb7e 813f 08ec 803f b0dc 7c3f 7529 873f
00000150: 9725 8b3f 95fc 8a3f b301 8b3f 9167 803f
00000160: 037c 813f d8a3 7d3f 7039 863f f90a 7f3f
00000170: 828b 7e3f 658d 7b3f b7e1 813f 755b 6f3f
00000180: f1a2 823f a149 783f 7796 813f 662a 933f
00000190: f67b 8f3f e44e 7e3f 9b0a 8a3f 6a7e 6d3f
000001a0: 9fa3 793f 0991 8a3f 0135 8d3f c7b0 853f
000001b0: a120 743f 364d 9b3f 1b29 723f c164 933f
000001c0: 7a89 853f bc44 953f f1d5 863f 0086 8f3f
000001d0: 2bab 7f3f 525e 773f c368 923f bec5 833f
000001e0: f7e8 923f 600d 7d3f a38a 7a3f 96c1 773f
000001f0: e5be 773f cbad 853f e291 7f3f 90a4 933f
1.036076 1.0504514 1.178081 0.9312981 1.0726441 1.0264041 1.0791317 0.94631815
1.0434121 1.0786234 1.070273 0.9398577 0.9561963 0.99839455 1.0790588 0.9679488
1.0011362 0.99413335 0.9299081 0.99046886 1.0835731 1.0363606 1.0176873 1.1148415
0.9401619 1.0126891 0.97986186 0.9391388 1.174924 1.007134 1.028349 1.0218079
0.98372114 1.1357548 0.9478505 1.0710001 0.9705961 1.2314479 1.0178454 0.98477733
0.9646964 0.9874762 1.0005553 1.0765322 0.96556014 0.93735105 1.0053563 0.9786708
1.003619 1.0021447 0.97026455 1.1483083 0.98497576 0.99849814 1.0674335 1.0426365
0.9614866 1.1799501 1.1075404 1.0432948 0.9413112 1.1211323 0.98779446 1.0142924
1.035656 0.9863056 1.0781269 1.1110436 0.9723388 1.1386261 0.89667237 1.0654918
0.96149355 1.0242187 1.1782306 1.0850983 0.9750365 0.9971652 1.2023386 1.1968971
1.01168 1.0072031 0.9877424 1.0559527 1.0870847 1.0858332 1.0859894 1.0031606
1.011597 0.9907813 1.0486279 0.9962612 0.9943162 0.98262626 1.0147008 0.9349893
1.0205976 0.9698735 1.0124043 1.1497314 1.1209705 0.9933913 1.0784487 0.9277102
0.9751529 1.0825511 1.10318 1.0444573 0.9536229 1.2132938 0.9459397 1.1515123
1.043258 1.1661601 1.053404 1.1212769 0.99870557 0.96628296 1.1438221 1.0294721
1.1477345 0.98848534 0.9786779 0.96779764 0.96775657 1.0443662 0.99831975 1.1534595

actor_fc_layers.blocks.0.block.1.bias f4 [128]
00000000: bee5 9dbc 8233 813c f39d e13d e996 60bd
00000010: 713e 57bc ae60 05bd 7cf8 8c3c 8525 3fbd
00000020: ab92 1d3d e8aa 1bbd f61e c3bb 3bd7 81bd
00000030: 1740 87bd 7ed5 6dbd d054 e23c 42aa 48bd
00000040: 856a 04bd 96a9 2ebc e892 4cbd 851e dcbc
00000050: 0d6a 2d3d 7a39 843d a0fd ecbc 2790 633d
00000060: d67b 9fbd 0071 bc3c a672 8c3c 5c96 67bd
00000070: 31e8 193e 909a ffb9 b802 023d 8796 e4ba
00000080: aaff efbc e290 8f3d 76ea 2dbd 194b b93c
00000090: 2b82 90bc c1db 6d3d c16b 7cbb 42dc 01bd
000000a0: 3922 04bd 86cb 813c 2e76 7cba 2b74 573d
000000b0: 66f6 06bd f90f 7bbd f284 b6bc ec18 3cbb
000000c0: 3145 85bc 2aae b63a babb b3bc 9fe0 723d
000000d0: 137a ebbc befa 10bc 0852 513d fa82 743b
000000e0: 285b 2abd 0b59 af3d caa9 023e f950 65bc
000000f0: 9e48 9dbd 1f80 cf3d 8ee9 84bd cf98 593c
00000100: 2eb9 363d bb13 32bc 1aec bd3d a8d8 a93d
00000110: 1b11 7ebd c157 9c3d aa0f c3bd 0128 cf3c
00000120: c161 653a 7752 783c 671b bc3d 7c5c 81bc
00000130: b33c f43b f5c7 39bd 7d00 b73d 28cb d83d
00000140: 46f9 263a 90da 42bd 3cb1 a3bc 662a bb3d
00000150: 4b9f 503d 0b9b 603d e5ed db3c 5df1 a13c
00000160: 4b2b 52bc cbb6 9fbb 02af fd3c 7356 68bc
00000170: c563 503c ce78 7ebc 23bb 833b 2748 aabd
00000180: 4afb c33c 2f29 03bd 5670 0bbc 5542 533d
00000190: c4be b33d a43b 02bd 8092 993c 48b5 a8bd
000001a0: 1462 afbc f9a9 a53c 4b59 843d b158 143d
000001b0: 0dbd c1bc 54cc df3d de3f 8bbd 765c af3d
000001c0: c51f 16bd 4124 7b3d 0b1b 353c ef1f 5b3d
000001d0: 9686 34bc 8960 2cbd 05de db3d 2b3f d03c
000001e0: 4b0c 1d3e 0a3f babc 9ec3 f1bc 8680 3dbd
000001f0: 5ef8 0abd e916 1bbd 2e2a b5bc 40ea e33d
-0.019274589 0.015771631 0.110164545 -0.05483142 -0.013137446 -0.032562904 0.01720833 -0.04666664
0.03846995 -0.038004786 -0.0059546186 -0.0633988 -0.06604021 -0.05806493 0.027628332 -0.048990496
-0.032328147 -0.01066055 -0.04994479 -0.026870022 0.042337466 0.06456275 -0.028929532 0.055557396
-0.07787292 0.023003101 0.017144512 -0.05653988 0.1502998 -0.00048752548 0.031740874 -0.001743988
-0.029296715 0.07010056 -0.042459927 0.022618817 -0.017640194 0.0580709 -0.0038516375 -0.031704195
-0.0322592 0.015844118 -0.0009630647 0.05260102 -0.032949828 -0.06129453 -0.02228019 -0.0028701378
-0.016268345 0.0013937403 -0.021940101 0.059296247 -0.028744733 -0.008848844 0.05110362 0.0037309513
-0.04159084 0.085619055 0.12760082 -0.013996356 -0.07679866 0.10131859 -0.064898595 0.013281061
0.044610195 -0.010868962 0.092735484 0.08293277 -0.06202803 0.07633925 -0.09524472 0.02528763
0.0008750223 0.01515638 0.09184914 -0.01579117 0.007453525 -0.04535671 0.0893564 0.10585624
0.0006369542 -0.04757172 -0.019981973 0.09138946 0.050933164 0.05483536 0.026846835 0.019768411
-0.012827705 -0.0048740855 0.03096724 -0.014180767 0.012719099 -0.015531732 0.004020111 -0.08314543
0.023923535 -0.032021698 -0.00851067 0.05157693 0.0877662 -0.03179516 0.018746614 -0.08237702
-0.021409072 0.02022265 0.06462344 0.036217395 -0.023649717 0.10927644 -0.06799291 0.085625574
-0.03665139 0.06131387 0.011053811 0.05349725 -0.011018416 -0.04208425 0.10735706 0.025420746
0.1533672 -0.022735137 -0.029512223 -0.046265148 -0.033928268 -0.037863646 -0.02211484 0.11128664

actor_fc_layers.blocks.0.block.1.running_mean f4 [128]
00000000: 0000 0000 0000 0000 0000 0000 0000 0000
00000010: 0000 0000 0000 0000 0000 0000 0000 0000
00000020: 0000 0000 0000 0000 0000 0000 0000 0000
00000030: 0000 0000 0000 0000 0000 0000 0000 0000
00000040: 0000 0000 0000 0000 0000 0000 0000 0000
00000050: 0000 0000 0000 0000 0000 0000 0000 0000
00000060: 0000 0000 0000 0000 0000 0000 0000 0000
00000070: 0000 0000 0000 0000 0000 0000 0000 0000
00000080: 0000 0000 0000 0000 0000 0000 0000 0000
00000090: 0000 0000 0000 0000 0000 0000 0000 0000
000000a0: 0000 0000 0000 0000 0000 0000 0000 0000
000000b0: 0000 0000 0000 0000 0000 0000 0000 0000
000000c0: 0000 0000 0000 0000 0000 0000 0000 0000
000000d0: 0000 0000 0000 0000 0000 0000 0000 0000
000000e0: 0000 0000 0000 0000 0000 0000 0000 0000
000000f0: 0000 0000 0000 0000 0000 0000 0000 0000
00000100: 0000 0000 0000 0000 0000 0000 0000 0000
00000110: 0000 0000 0000 0000 0000 0000 0000 0000
00000120: 0000 0000 0000 0000 0000 0000 0000 0000
00000130: 0000 0000 0000 0000 0000 0000 0000 0000
00000140: 0000 0000 0000 0000 0000 0000 0000 0000
00000150: 0000 0000 0000 0000 0000 0000 0000 0000
00000160: 0000 0000 0000 0000 0000 0000 0000 0000
00000170: 0000 0000 0000 0000 0000 0000 0000 0000
00000180: 0000 0000 0000 0000 0000 0000 0000 0000
00000190: 0000 0000 0000 0000 0000 0000 0000 0000
000001a0: 0000 0000 0000 0000 0000 0000 0000 0000
000001b0: 0000 0000 0000 0000 0000 0000 0000 0000
000001c0: 0000 0000 0000 0000 0000 0000 0000 0000
000001d0: 0000 0000 0000 0000 0000 0000 0000 0000
000001e0: 0000 0000 0000 0000 0000 0000 0000 0000
000001f0: 0000 0000 0000 0000 0000 0000 0000 0000
0.0 0.0 0.0 0.0 0.0 0.0 0.0 0.0
0.0 0.0 0.0 0.0 0.0 0.0 0.0 0.0
0.0 0.0 0.0 0.0 0.0 0.0 0.0 0.0
0.0 0.0 0.0 0.0 0.0 0.0 0.0 0.0
0.0 0.0 0.0 0.0 0.0 0.0 0.0 0.0
0.0 0.0 0.0 0.0 0.0 0.0 0.0 0.0
0.0 0.0 0.0 0.0 0.0 0.0 0.0 0.0
0.0 0.0 0.0 0.0 0.0 0.0 0.0 0.0
0.0 0.0 0.0 0.0 0.0 0.0 0.0 0.0
0.0 0.0 0.0 0.0 0.0 0.0 0.0 0.0
0.0 0.0 0.0 0.0 0.0 0.0 0.0 0.0
0.0 0.0 0.0 0.0 0.0 0.0 0.0 0.0
0.0 0.0 0.0 0.0 0.0 0.0 0.0 0.0
0.0 0.0 0.0 0.0 0.0 0.0 0.0 0.0
0.0 0.0 0.0 0.0 0.0 0.0 0.0 0.0
0.0 0.0 0.0 0.0 0.0 0.0 0.0 0.0

actor_fc_layers.blocks.0.block.1.running_var f4 [128]
00000000: 0000 803f 0000 803f 0000 803f 0000 803f
00000010: 0000 803f 0000 803f 0000 803f 0000 803f
00000020: 0000 803f 0000 803f 0000 803f 0000 803f
00000030: 0000 803f 0000 803f 0000 803f 0000 803f
00000040: 0000 803f 0000 803f 0000 803f 0000 803f
00000050: 0000 803f 0000 803f 0000 803f 0000 803f
00000060: 0000 803f 0000 803f 0000 803f 0000 803f
00000070: 0000 803f 0000 803f 0000 803f 0000 803f
00000080: 0000 803f 0000 803f 0000 803f 0000 803f
00000090: 0000 803f 0000 803f 0000 803f 0000 803f
000000a0: 0000 803f 0000 803f 0000 803f 0000 803f
000000b0: 0000 803f 0000 803f 0000 803f 0000 803f
000000c0: 0000 803f 0000 803f 0000 803f 0000 803f
000000d0: 0000 803f 0000 803f 0000 803f 0000 803f
000000e0: 0000 803f 0000 803f 0000 803f 0000 803f
000000f0: 0000 803f 0000 803f 0000 803f 0000 803f
00000100: 0000 803f 0000 803f 0000 803f 0000 803f
00000110: 0000 803f 0000 803f 0000 803f 0000 803f
00000120: 0000 803f 0000 803f 0000 803f 0000 803f
00000130: 0000 803f 0000 803f 0000 803f 0000 803f
00000140: 0000 803f 0000 803f 0000 803f 0000 803f
00000150: 0000 803f 0000 803f 0000 803f 0000 803f
00000160: 0000 803f 0000 803f 0000 803f 0000 803f
00000170: 0000 803f 0000 803f 0000 803f 0000 803f
00000180: 0000 803f 0000 803f 0000 803f 0000 803f
00000190: 0000 803f 0000 803f 0000 803f 0000 803f
000001a0: 0000 803f 0000 803f 0000 803f 0000 803f
000001b0: 0000 803f 0000 803f 0000 803f 0000 803f
000001c0: 0000 803f 0000 803f 0000 803f 0000 803f
000001d0: 0000 803f 0000 803f 0000 803f 0000 803f
000001e0: 0000 803f 0000 803f 0000 803f 0000 803f
000001f0: 0000 803f 0000 803f 0000 803f 0000 803f
1.0 1.0 1.0 1.0 1.0 1.0 1.0 1.0
1.0 1.0 1.0 1.0 1.0 1.0 1.0 1.0
1.0 1.0 1.0 1.0 1.0 1.0 1.0 1.0
1.0 1.0 1.0 1.0 1.0 1.0 1.0 1.0
1.0 1.0 1.0 1.0 1.0 1.0 1.0 1.0
1.0 1.0 1.0 1.0 1.0 1.0 1.0 1.0
1.0 1.0 1.0 1.0 1.0 1.0 1.0 1.0
1.0 1.0 1.0 1.0 1.0 1.0 1.0 1.0
1.0 1.0 1.0 1.0 1.0 1.0 1.0 1.0
1.0 1.0 1.0 1.0 1.0 1.0 1.0 1.0
1.0 1.0 1.0 1.0 1.0 1.0 1.0 1.0
1.0 1.0 1.0 1.0 1.0 1.0 1.0 1.0
1.0 1.0 1.0 1.0 1.0 1.0 1.0 1.0
1.0 1.0 1.0 1.0 1.0 1.0 1.0 1.0
1.0 1.0 1.0 1.0 1.0 1.0 1.0 1.0
1.0 1.0 1.0 1.0 1.0 1.0 1.0 1.0

actor_fc_layers.blocks.1.block.0.weight f4 [128, 128]
00000000: 4088 f13c 5898 8cbd 43bb c53c fa47 dfba
00000010: 8144 1dbd 2bdc e2bc b975 8a3b 0335 1cbd
00000020: b4fa e23c 09a9 6ebd 4fda f23c 3386 4e3d
00000030: 4303 873c 5675 00bd f4d4 373d b5b1 163d
00000040: 7a4d d23c 75cb 953d 4e4d c63c 9e39 983c
00000050: 7b6a eebc 5017 2c3c 0937 4fbc 386c 8bbd
00000060: 9d4b 71bd a010 b53d 11bf 87bc b58d 08be
00000070: 4923 af3b 9f17 8c3d 15a0 5ebc 3b1f c43c
00000080: 4dbb f73c 9961 b33a 94ca e0bd c38c 743d
00000090: 243b 87bd f85b 0e3c 3bd3 a2bc 49bb 17bd
000000a0: c687 f9bd c675 0cbe 19ff 3bbc 27fe 06bc
000000b0: 2fd7 8dbc 30b7 28bc 90d2 4fbe 0bce dd3c
000000c0: 6cbb 8dbd 188f dbbc 8852 1bbe a5c6 5b3d
000000d0: 0020 c5bd 8278 053e 13a5 87bd f192 e1bd
000000e0: 134c f0bc 9dfe 513d 368e 2e3d 5a78 b3bd
000000f0: f345 f7bd 5caa dcbb 4b4c 323d d8be 35bd
00000100: ab2f d2bd 3971 673d 9760 0f3d d936 103c
00000110: 365a a13a 332c b63d e0e2 61bd 97d8 01be
00000120: 241b 99bd 208e abbd 2c57 a63d 9571 b6bc
00000130: 443c 1c3d 4df8 afbd 5ca5 4f3d ed26 d63d
00000140: b03e 9b3b 7fe6 76bd 40d0 64bc 63a9 88bd
00000150: 341e 523d 9000 333e 1c18 c3bd 5015 9f3d
00000160: 9355 603c e564 aabd f6ba b2bd ebdd a83c
00000170: 7d37 15bd 350d 6fbb 77ff 31be 1112 0bbd
00000180: 8eea 1a3d fce9 bebc c5b1 84bd 814d abbc
00000190: e58a 85bc b88e 393c 018d 4cbd 72cd 1b3d
000001a0: 6337 113d 7aad 01bd f285 c3bd 2e48 40bc
000001b0: a029 853d 38d5 9cbd 1254 1ebd f7da 6abc
000001c0: 54ad 4abd 5464 28bd baad e7bd 245a d83d
000001d0: 78a8 283d e70b 38bd f883 46bd e2ff dc3d
000001e0: 3715 eb3b 4b1f 4cbc 995b 963d 832f 473d
000001f0: bc25 babd d03d 8aba ddf2 36bc 912f a73d
00000200: f766 863d 2f8b d6bc 8558 273d 4c1c 81bb
00000210: ecbe 85bd 3213 993d ccea c9bd 8409 d3bc
00000220: 104f 863d 7f82 77bd 0802 e5bb 0acb f33c
00000230: c965 273d 9781 d3bd 6a2d 073c 6447 ee3b
00000240: dbaa 6b3d 54f5 4ebd 8d8b 9a3d 8193 17bd
00000250: 60dc 9c3c ad42 713d 2f35 4e3d f058 69bd
00000260: 685d 853d 2120 7d3d 2878 fcbb daa7 093d
00000270: 773d 85bd ba72 843d c859 313b e53d 74bc
00000280: 5d45 bdbd 4663 963d e819 33bd bf28 01bd
00000290: 7f20 21bd 6e6c 333d 0014 933d 243e 4bbd
000002a0: 8500 a0bd e695 95bb 8b29 f53c f810 59bb
000002b0: 91db 93bd 88ed a3bc 9955 acbd fad8 6abd
000002c0: abf6 643c a9ee d2bc d66c 2f3d 1206 c4bd
000002d0: 9dda b43c 4d3f c6bc 7e62 ad3c 2356 eb3c
000002e0: 2ed9 54bd 0c3a 153d 61e1 933d ea44 b7bd
000002f0: f141 783d cec7 403c 5b44 993d a417 913c
00000300: 0f92 1cbd 831f 57bd 0147 85bc b5fe 3d3d
00000310: ee9f babd 0f3b 133d e5e8 8b3d edba 503d
00000320: e1cd 73bd f046 c9bc 82dd 2a3d 03f1 e73c
00000330: 818c e7ba 009f 5e3b 99f3 0a3d 252e 75bc
00000340: 3812 523d bba9 b5bd 09d2 0d3d f14b 823c
00000350: 668c 8cbd 2666 77bd aa95 8b3d 4793 81bd
00000360: c101 41bd 6939 963c 92b4 9f3c 72c3 97bd
00000370: fcf6 68bd f247 adbd ad78 81bd 9bd5 783d
00000380: 7fbe 2e3d 4801 7abc 7a78 e13c b5ae 80bd
00000390: d278 0e3d 9f94 99bd 8f09 8dbd 1bdd 4e3d
000003a0: b5bd 11bd c5d6 8b3d 9e33 0fbd 5fd9 613c
000003b0: 36a6 3dbd 28d7 90bd 75fd 27bd 4e09 de3c
000003c0: cfe2 393d aacb 5abd b0a5 fa3c af28 67bd
000003d0: 0a17 943c 0eda b3bd 5359 cabc af55 5fbd
000003e0: 149a d4bc 6ed5 943d d0c3 b1bc 6d58 573d
000003f0: 1f5a 94bd b5e2 203d 3902 4e3c c216 ac3b
0.029483914 -0.06864995 0.024137145 -0.0017035 -0.03839541 -0.027692875 0.0042254594 -0.038136493
0.027707435 -0.058266673 0.029645113 0.05042095 0.016481047 -0.0313619 0.044880822 0.03679057
0.02567171 0.07314197 0.024206784 0.018582162 -0.029103508 0.010503605 -0.012647399 -0.068077505
-0.05891 0.088410616 -0.0165706 -0.13335307 0.0053447825 0.06840443 -0.013587971 0.023940673
0.03024068 0.0013685703 -0.10976139 0.059704553 -0.06603077 0.008688919 -0.019876113 -0.037043843
-0.121841 -0.13716802 -0.011474394 -0.008239306 -0.017314522 -0.010297582 -0.20295167 0.027075788
-0.069205135 -0.02680163 -0.15168202 0.05365624 -0.09625244 0.13034251 -0.06623282 -0.11014355
-0.02933315 0.05126821 0.04261609 -0.087631896 -0.12073889 -0.0067341756 0.04352979 -0.044371456
-0.10262998 0.056504462 0.035004225 0.008802139 0.001231021 0.08895149 -0.055148005 -0.12680279
-0.0747588 -0.083767176 0.081220955 -0.022270957 0.03814341 -0.085922815 0.05069481 0.10456643
0.0047376975 -0.060278412 -0.013965666 -0.06672933 0.051298335 0.17480683 -0.09526083 0.07767737
0.0136922775 -0.08320025 -0.08727066 0.020613631 -0.03642987 -0.0036476378 -0.17382608 -0.033952776
0.037821345 -0.023304932 -0.06479219 -0.02091098 -0.016301582 0.011325531 -0.04993916 0.038037725
0.03545321 -0.03165958 -0.095470324 -0.011735959 0.0650208 -0.07657856 -0.038654394 -0.014334432
-0.049481705 -0.041111305 -0.113124326 0.10564068 0.04117629 -0.044933226 -0.0484657 0.10790993
0.00717416 -0.012458633 0.073416896 0.048629295 -0.090892285 -0.0010546986 -0.011166302 0.081633694
0.06562608 -0.026189415 0.040855903 -0.003940141 -0.06530556 0.07474364 -0.09859237 -0.025761373
0.06558049 -0.060427185 -0.0069887675 0.029759903 0.040868554 -0.10327452 0.008250574 0.007271694
0.057535987 -0.050526932 0.075461484 -0.037005905 0.019148052 0.058901478 0.05034369 -0.056969583
0.065119565 0.06179822 -0.0077047534 0.03360734 -0.06505864 0.06467195 0.002706157 -0.014907335
-0.092417456 0.07343154 -0.043725878 -0.031533 -0.03933763 0.04380458 0.07181549 -0.04961981
-0.07812599 -0.0045649884 0.029927036 -0.0033121686 -0.07219613 -0.020010725 -0.08414764 -0.05733583
0.013974826 -0.025748568 0.042828403 -0.0957147 0.0220769 -0.024200106 0.021165129 0.028727597
-0.05196493 0.03643231 0.07220722 -0.08948691 0.06060976 0.011766387 0.07483741 0.017711468
-0.03822523 -0.052520286 -0.016269209 0.046385486 -0.091125354 0.035944995 0.068315305 0.050959516
-0.059522513 -0.024569958 0.041715153 0.028313166 -0.0017665775 0.0033969283 0.03392372 -0.014964615
0.051286906 -0.08870264 0.034624133 0.015905352 -0.068627164 -0.06040015 0.068156555 -0.06326919
-0.047120813 0.018337922 0.019495282 -0.07410325 -0.056876168 -0.08460988 -0.06321845 0.060750585
0.04266214 -0.015259095 0.027523268 -0.06283323 0.034783192 -0.0749905 -0.06886589 0.05050383
-0.03558131 0.068280734 -0.034961335 0.013784735 -0.04630109 -0.07072288 -0.0410132 0.027104046
0.045382317 -0.053416885 0.030596584 -0.056435283 0.018077392 -0.08781825 -0.024700796 -0.054525074
-0.025952376 0.07267271 -0.021699816 0.052574564 -0.07243752 0.039278705 0.012573772 0.0052517364

actor_fc_layers.blocks.1.block.1.weight f4 [128]
00000000: 3c09 883f 79a2 7c3f 00e0 7c3f 7db7 873f
00000010: 9543 7d3f 3e66 793f a079 863f 1e25 943f
00000020: b221 873f e2ba 7f3f b435 833f 141f 883f
00000030: 950d 7b3f b6df 7f3f 9f0a 853f 6de6 7d3f
00000040: 925f 7e3f f414 843f 06a9 7c3f 53f2 7b3f
00000050: dca6 8a3f 77cd 893f 7b00 863f 91ea 873f
00000060: 220c 7e3f e84e 853f e464 7e3f fe32 873f
00000070: 2927 7f3f 0bb4 7e3f 787a 7f3f 762b 7d3f
00000080: 81f4 7b3f abe9 7c3f 4647 803f cb6c 7d3f
00000090: 5c32 7e3f 9aa5 883f 9c10 813f 526d 943f
000000a0: b93a 8b3f f674 863f e6ec 793f 6f56 803f
000000b0: b980 7c3f 2a4b 7e3f 5cb2 7c3f 8ed7 853f
000000c0: 66b2 7b3f 8590 7d3f 500a 7f3f afe6 7b3f
000000d0: c9ca 7b3f e7e4 833f 155c 7f3f 78c8 9a3f
000000e0: 8d4e 803f be1f 7f3f ffd4 853f e91e 7d3f
000000f0: f02a 993f 379a 7d3f cf6b 7d3f f0a5 7d3f
00000100: ab89 983f 65a6 7c3f dbe4 7c3f 6591 903f
00000110: 0634 7b3f fdbf 7f3f 5d76 893f a09a 7b3f
00000120: 2f49 7d3f d807 863f 5a21 813f 7350 833f
00000130: 4617 7c3f 22b3 7e3f 78fb 793f 5a55 7d3f
00000140: a83d 7e3f 381f 7f3f 8a1a 7c3f 644e 7e3f
00000150: 0b3b 7d3f e725 883f 509a 7e3f 53cf 803f
00000160: f542 803f 5363 8d3f d424 7d3f 8426 903f
00000170: c678 7c3f 9ff1 7e3f b70b 7e3f e39a 883f
00000180: 2d53 893f 3277 7e3f 5d65 7e3f 4219 803f
00000190: 1ad0 7c3f 29e1 7e3f 3aea 7e3f 650d 7d3f
000001a0: 7325 7b3f 84ae 7d3f 3751 813f ab48 833f
000001b0: faec 893f 7a95 933f b3a4 7f3f dd33 813f
000001c0: ba6f 893f 1618 853f de56 793f 1ec6 7e3f
000001d0: 3e22 7b3f c0f4 7e3f 9d42 8f3f af8e 773f
000001e0: acb3 7c3f 3b5e 7c3f 36d0 853f 20eb 7f3f
000001f0: 4bd2 833f 6693 813f 11a4 9e3f f262 7a3f
1.0627818 0.98685414 0.98779297 1.0602871 0.98931247 0.97421634 1.0505867 1.1573827
1.0557158 0.99894536 1.0250764 1.0634484 0.980676 0.9995073 1.0393866 0.99179727
0.9936458 1.0318894 0.9869541 0.9841663 1.0832171 1.0765828 1.0468897 1.0618459
0.99237263 1.0414705 0.99372697 1.0562437 0.9966913 0.99493474 0.9979625 0.9889444
0.9841996 0.9879405 1.0021751 0.9899413 0.9929559 1.0675538 1.0083194 1.1595862
1.0877296 1.0504444 0.97627103 1.0026377 0.98633915 0.9933344 0.98709655 1.0456407
0.9831909 0.99048644 0.9962511 0.9839887 0.983563 1.030423 0.9974988 1.2092428
1.0023972 0.9965781 1.0455626 0.9887529 1.1966228 0.9906344 0.9899263 0.99081326
1.1917013 0.986914 0.98786706 1.1294371 0.98126256 0.99902326 1.0739247 0.98282814
0.98939794 1.0471144 1.0088303 1.0258926 0.9847301 0.99492085 0.97649336 0.9895836
0.9931283 0.9965701 0.98477995 0.99338365 0.9891822 1.0636567 0.9945421 1.006327
1.0020434 1.1045936 0.9888432 1.1261754 0.98621786 0.99587435 0.99236625 1.0672268
1.0728508 0.9940063 0.9937342 1.0007708 0.9875504 0.9956232 0.9957615 0.98848563
0.9810402 0.99094415 1.010291 1.0256552 1.0775445 1.1529992 0.99860686 1.0093952
1.0737221 1.0397975 0.97398174 0.9952105 0.98099124 0.9959221 1.1192204 0.9670209
0.9871166 0.98581284 1.0454166 0.9996815 1.0298551 1.0123107 1.2393819 0.9780723

actor_fc_layers.blocks.1.block.1.bias f4 [128]
00000000: ee54 daba 0f20 70bc bebc 8dbc 4030 a33b
00000010: 6d19 91bc c31c debc 4ca4 15bc 078d a93c
00000020: 94a2 a53c b9ae 84bc ec9f ef3c c70f 1b3b
00000030: 2cfa bfbc b008 a9bc 940f 923b 017f 35bc
00000040: 4e6d c5bc cbdf 143c ad32 91bc 3c49 04bd
00000050: 5feb 063d d555 99bb 592f 88bc 35a2 823c
00000060: c7be 15bc 4a8e abba 98e5 8bbc 6516 00bc
00000070: f85d 44bc 0a29 d73c 954a 8abb 8036 2fbc
00000080: 38bd 81bc 1909 9bbc bf30 c9bc 51de 74bc
00000090: 50e5 90bc 50ea 22bc fe94 b3bc f2b2 263d
000000a0: 494c e53c ca6e ef3a ffd6 b0bc 6f3f f2bb
000000b0: e1e8 85bc 1a99 86bc adb8 a3bc addc 643c
000000c0: 0e1b a7bc 84b3 44bc 1aa2 0a39 f258 a4bc
000000d0: b68f ccbc 57ef 0d3d 4aec 33bc f025 1f3d
000000e0: 9224 06bc ba4e b7bc 495e d03c a29c 58bc
000000f0: b3bf 833d 3e24 e4bb c6ca 2fbc c9a8 3bbc
00000100: c071 ab3d 1a72 bdbc 7590 32bc b4fa 133d
00000110: da3e b0bc 3762 4ebc b035 8bbc bba3 b3bc
00000120: a529 5cbb df75 733c 55cf 76bb 61bc 233d
00000130: 3bc7 99bc a2d3 81bc c997 d0bc 1b02 77bc
00000140: b5e7 acbb 5f01 21bc 4bb4 8dbc 26ca afbb
00000150: da51 a0bc 2267 293c 6ce2 19bc 77a0 f7ba
00000160: d878 3a3c 33a6 103d d2b8 8dbc 510b 393d
00000170: c4b7 a0bc 28cc a4bc 3084 70bc 7dd6 a3bb
00000180: c980 ce3c f172 e3bb 509a 79bc 907e 4cbc
00000190: 92e1 65bc 8dfe 0abc 2c48 05bc ab26 6fbc
000001a0: 403e 89bc f540 45bc 4a5d 88bc f2a1 cf3b
000001b0: 46ef 3b3c 3a09 243d 41cc d3bb dd20 db3a
000001c0: 905f 253d b73b 8ebc b981 d8bc 8a8f 9abc
000001d0: f560 96bc 43f3 7cbc 22f8 1b3d 33aa b3bc
000001e0: 888e adbc 0c2c 84bc d78a 813c 26af e8bb
000001f0: b7e9 c93c c681 003d 7bd5 953d cb60 b1bc
-0.0016657391 -0.014656081 -0.017301913 0.004980117 -0.01771232 -0.027113324 -0.00913341 0.02069713
0.020219125 -0.016196596 0.029251061 0.0023660527 -0.023434721 -0.020634025 0.0044574235 -0.011077643
-0.024099972 0.0090865595 -0.01772436 -0.032296404 0.03293931 -0.0046794214 -0.01662414 0.015946487
-0.009139723 -0.001308867 -0.017077252 -0.007817839 -0.0119852945 0.026264686 -0.0042203167 -0.010694146
-0.015837297 -0.018925237 -0.024559377 -0.0149455825 -0.01768747 -0.00994356 -0.021921631 0.040698
0.027990477 0.0018267271 -0.021586893 -0.007392816 -0.016346397 -0.016430426 -0.019985521 0.013968629
-0.020398643 -0.0120056905 0.00013221093 -0.020061944 -0.02497087 0.03465208 -0.010981629 0.03885454
-0.00818743 -0.022376407 0.025435584 -0.013220938 0.06433048 -0.006962328 -0.010729497 -0.011453816
0.083713055 -0.023125697 -0.010898699 0.03612776 -0.021514345 -0.012596658 -0.016993374 -0.021928659
-0.0033594158 0.014859646 -0.00376602 0.039974574 -0.018771758 -0.015847985 -0.025463002 -0.015076186
-0.005276645 -0.009826987 -0.017297884 -0.005364674 -0.01957028 0.01033953 -0.009392362 -0.0018892427
0.01138135 0.03531475 -0.017300043 0.045176808 -0.019618876 -0.02011688 -0.014679953 -0.004999934
0.025207894 -0.0069411923 -0.015234545 -0.012481347 -0.014030831 -0.008483541 -0.008134883 -0.0145966215
-0.016753316 -0.012039413 -0.016646046 0.006336444 0.011470621 0.04004786 -0.006463558 0.0016718168
0.04037434 -0.017362459 -0.026429044 -0.018867273 -0.01835678 -0.0154388575 0.038078435 -0.021931743
-0.021186128 -0.016134284 0.015813274 -0.0071009574 0.024647577 0.03137376 0.07316109 -0.0216526

actor_fc_layers.blocks.1.block.1.running_mean f4 [128]
00000000: 0000 0000 0000 0000 0000 0000 0000 0000
00000010: 0000 0000 0000 0000 0000 0000 0000 0000
00000020: 0000 0000 0000 0000 0000 0000 0000 0000
00000030: 0000 0000 0000 0000 0000 0000 0000 0000
00000040: 0000 0000 0000 0000 0000 0000 0000 0000
00000050: 0000 0000 0000 0000 0000 0000 0000 0000
00000060: 0000 0000 0000 0000 0000 0000 0000 0000
00000070: 0000 0000 0000 0000 0000 0000 0000 0000
00000080: 0000 0000 0000 0000 0000 0000 0000 0000
00000090: 0000 0000 0000 0000 0000 0000 0000 0000
000000a0: 0000 0000 0000 0000 0000 0000 0000 0000
000000b0: 0000 0000 0000 0000 0000 0000 0000 0000
000000c0: 0000 0000 0000 0000 0000 0000 0000 0000
000000d0: 0000 0000 0000 0000 0000 0000 0000 0000
000000e0: 0000 0000 0000 0000 0000 0000 0000 0000
000000f0: 0000 0000 0000 0000 0000 0000 0000 0000
00000100: 0000 0000 0000 0000 0000 0000 0000 0000
00000110: 0000 0000 0000 0000 0000 0000 0000 0000
00000120: 0000 0000 0000 0000 0000 0000 0000 0000
00000130: 0000 0000 0000 0000 0000 0000 0000 0000
00000140: 0000 0000 0000 0000 0000 0000 0000 0000
00000150: 0000 0000 0000 0000 0000 0000 0000 0000
00000160: 0000 0000 0000 0000 0000 0000 0000 0000
00000170: 0000 0000 0000 0000 0000 0000 0000 0000
00000180: 0000 0000 0000 0000 0000 0000 0000 0000
00000190: 0000 0000 0000 0000 0000 0000 0000 0000
000001a0: 0000 0000 0000 0000 0000 0000 0000 0000
000001b0: 0000 0000 0000 0000 0000 0000 0000 0000
000001c0: 0000 0000 0000 0000 0000 0000 0000 0000
000001d0: 0000 0000 0000 0000 0000 0000 0000 0000
000001e0: 0000 0000 0000 0000 0000 0000 0000 0000
000001f0: 0000 0000 0000 0000 0000 0000 0000 0000
0.0 0.0 0.0 0.0 0.0 0.0 0.0 0.0
0.0 0.0 0.0 0.0 0.0 0.0 0.0 0.0
0.0 0.0 0.0 0.0 0.0 0.0 0.0 0.0
0.0 0.0 0.0 0.0 0.0 0.0 0.0 0.0
0.0 0.0 0.0 0.0 0.0 0.0 0.0 0.0
0.0 0.0 0.0 0.0 0.0 0.0 0.0 0.0
0.0 0.0 0.0 0.0 0.0 0.0 0.0 0.0
0.0 0.0 0.0 0.0 0.0 0.0 0.0 0.0
0.0 0.0 0.0 0.0 0.0 0.0 0.0 0.0
0.0 0.0 0.0 0.0 0.0 0.0 0.0 0.0
0.0 0.0 0.0 0.0 0.0 0.0 0.0 0.0
0.0 0.0 0.0 0.0 0.0 0.0 0.0 0.0
0.0 0.0 0.0 0.0 0.0 0.0 0.0 0.0
0.0 0.0 0.0 0.0 0.0 0.0 0.0 0.0
0.0 0.0 0.0 0.0 0.0 0.0 0.0 0.0
0.0 0.0 0.0 0.0 0.0 0.0 0.0 0.0

actor_fc_layers.blocks.1.block.1.running_var f4 [128]
00000000: 0000 803f 0000 803f 0000 803f 0000 803f
00000010: 0000 803f 0000 803f 0000 803f 0000 803f
00000020: 0000 803f 0000 803f 0000 803f 0000 803f
00000030: 0000 803f 0000 803f 0000 803f 0000 803f
00000040: 0000 803f 0000 803f 0000 803f 0000 803f
00000050: 0000 803f 0000 803f 0000 803f 0000 803f
00000060: 0000 803f 0000 803f 0000 803f 0000 803f
00000070: 0000 803f 0000 803f 0000 803f 0000 803f
00000080: 0000 803f 0000 803f 0000 803f 0000 803f
00000090: 0000 803f 0000 803f 0000 803f 0000 803f
000000a0: 0000 803f 0000 803f 0000 803f 0000 803f
000000b0: 0000 803f 0000 803f 0000 803f 0000 803f
000000c0: 0000 803f 0000 803f 0000 803f 0000 803f
000000d0: 0000 803f 0000 803f 0000 803f 0000 803f
000000e0: 0000 803f 0000 803f 0000 803f 0000 803f
000000f0: 0000 803f 0000 803f 0000 803f 0000 803f
00000100: 0000 803f 0000 803f 0000 803f 0000 803f
00000110: 0000 803f 0000 803f 0000 803f 0000 803f
00000120: 0000 803f 0000 803f 0000 803f 0000 803f
00000130: 0000 803f 0000 803f 0000 803f 0000 803f
00000140: 0000 803f 0000 803f 0000 803f 0000 803f
00000150: 0000 803f 0000 803f 0000 803f 0000 803f
00000160: 0000 803f 0000 803f 0000 803f 0000 803f
00000170: 0000 803f 0000 803f 0000 803f 0000 803f
00000180: 0000 803f 0000 803f 0000 803f 0000 803f
00000190: 0000 803f 0000 803f 0000 803f 0000 803f
000001a0: 0000 803f 0000 803f 0000 803f 0000 803f
000001b0: 0000 803f 0000 803f 0000 803f 0000 803f
000001c0: 0000 803f 0000 803f 0000 803f 0000 803f
000001d0: 0000 803f 0000 803f 0000 803f 0000 803f
000001e0: 0000 803f 0000 803f 0000 803f 0000 803f
000001f0: 0000 803f 0000 803f 0000 803f 0000 803f
1.0 1.0 1.0 1.0 1.0 1.0 1.0 1.0
1.0 1.0 1.0 1.0 1.0 1.0 1.0 1.0
1.0 1.0 1.0 1.0 1.0 1.0 1.0 1.0
1.0 1.0 1.0 1.0 1.0 1.0 1.0 1.0
1.0 1.0 1.0 1.0 1.0 1.0 1.0 1.0
1.0 1.0 1.0 1.0 1.0 1.0 1.0 1.0
1.0 1.0 1.0 1.0 1.0 1.0 1.0 1.0
1.0 1.0 1.0 1.0 1.0 1.0 1.0 1.0
1.0 1.0 1.0 1.0 1.0 1.0 1.0 1.0
1.0 1.0 1.0 1.0 1.0 1.0 1.0 1.0
1.0 1.0 1.0 1.0 1.0 1.0 1.0 1.0
1.0 1.0 1.0 1.0 1.0 1.0 1.0 1.0
1.0 1.0 1.0 1.0 1.0 1.0 1.0 1.0
1.0 1.0 1.0 1.0 1.0 1.0 1.0 1.0
1.0 1.0 1.0 1.0 1.0 1.0 1.0 1.0
1.0 1.0 1.0 1.0 1.0 1.0 1.0 1.0

actor_fc_layers.blocks.2.block.0.weight f4 [128, 128]
00000000: 08f4 7f3d d0f2 09bd 1007 e0bc 9bec c9bd
00000010: c840 293d 24f7 ecbc 4a2d 903d 8243 01bc
00000020: 2f72 09bc 6497 df3b 1d60 97bd 1fea f4bd
00000030: 2888 823a c1ac 133c b15d f6bc f054 9fbd
00000040: 4b88 803c 2fe9 6f3c 5213 92bc 05f7 903d
00000050: c741 c93b c7e8 94bc df0e 673d 8230 42bc
00000060: 48e3 3c3d 894a debc 1ec2 ac3d 12e6 afbc
00000070: 4744 3c3d a291 ea3c e038 aa3d 907b 71bd
00000080: 57f4 b03d 4c7a 96bd 0751 85bd bd61 c63b
00000090: f1af 633d 1831 44bd a9d3 903d 59fa ae3c
000000a0: 1987 403d 68e0 c93b 6856 07bc 6b54 973d
000000b0: 73a8 bc3c ac0c 373a 03d8 cfba b2d9 69bd
000000c0: 4ca1 003c 9d1f 91bc 978d 96bd 6d76 9f3d
000000d0: 679e 7b3d 9ecf 82bd 0593 a63d e474 0abc
000000e0: f0fd 233d 35c5 823c 2a90 c6bd c647 a03d
000000f0: fdfc 67bc ae27 3a3d 13e8 89bd bd71 973d
00000100: 3931 ae3d 3a9e 32bc c51d 893b 98b8 d2bc
00000110: f2ce a1bd 2829 6d3d 97ae 33bd a069 5abd
00000120: 8bd0 04bd 9273 83bd 155e cebc 2027 46bd
00000130: 021d 9d3d 0a8b aa3d 47e6 953d 1c1f 9ebd
00000140: 15a9 18bd e02d ba3d 6465 ab3d 694d 3f3d
00000150: d7cf 20bc 3063 11be 59fa e8bc 5541 bc3c
00000160: e224 88bc fcce 1bbd d989 64bd e45e 0d3d
00000170: da32 9e3d 4f42 d63c b9e1 a3bd 4449 d33c
00000180: 2165 b8bd 11e2 67bd 7859 e6bb 18c8 edbc
00000190: e60c e33b c2ff 5a3d 5312 5cbd 9280 4fbd
000001a0: 0518 3b3d 54b9 7e3d 4242 923c 7a0a 693d
000001b0: 8dba f43c 3931 793d 1e4b 623c 00fc 2c3d
000001c0: e564 f3bd f639 61bd 2eaa 1fbc 1a7a 3c3d
000001d0: 327a b2bd 83e0 b3bc 7a23 a93c 59c6 a93c
000001e0: 57f3 6b3d ef5d afbd 747a aabd 18ee 3f3d
000001f0: cc31 b23d 4db8 b43d 7396 55bd ad95 aebd
00000200: cae7 34bd 5125 273c 0d25 d6bc d7dd 77bc
00000210: 1820 a23d 27d2 a03d 79e3 a2bb 1b73 8dbd
00000220: 251a 71bd 6d4d 8fbd 40ba 96bc 3396 013d
00000230: 3af1 dd3c db4c af3d 0173 b6bd c42a 403d
00000240: 9be7 963d 320e 16bd 261d 733d 00cd 133d
00000250: d2e8 33bc f944 bbbd a085 1d3d 9fc7 4e3d
00000260: 7ce8 8bbd cee2 96bc 372f cb3d 0999 f3bd
00000270: a750 013d 71ba 723d 4912 0bbb 46f6 91bd
00000280: b40d dfbc d3cd 8a3d ace5 0a3d 6b7e de3b
00000290: 2813 933d 3111 663d 5d71 a3bd c07c b8bd
000002a0: 324c bbbd 2ab9 8c3d 137c 1a3d 2b5f d13d
000002b0: c1cd 1ebd 596d 283d 87d0 983d ffc8 a63d
000002c0: a00e 783d 4517 34bc 2d45 edbc d217 92bd
000002d0: eebe 34bd 8060 613d 4c81 f1bc 6ff0 87bd
000002e0: 4995 323d 004e 3d3d fdeb ab3c 7514 debc
000002f0: 4866 93bd d7c9 533d 1de7 a93d 539c febc
00000300: e01d 1fbc f47d 7b3d b775 68bd 9739 4dbc
00000310: b87c 38bd 4824 bf3d 48fe c3bc db54 dc3c
00000320: be63 8bbb bed4 dabc b080 0e3b 95cc 153d
00000330: dfd5 8a3d 94dc 0f3b f9f1 6c3d 7bdb b3bb
00000340: 2149 963d 3c14 953d 5189 80bd d034 4f3d
00000350: d54a 8d3d 45be 19bd bc42 77bd 7b14 623d
00000360: 310e 5d3a 3148 b63d 3307 023c 4213 70bd
00000370: 318b d33d ee87 bd3d 923c 8b3d 513e acbc
00000380: 3c0f 00be 5ecc 803c 5403 863d 5027 b63d
00000390: 1422 9abd 7dde 493d fe83 de3c 6168 57bd
000003a0: 04bb 8f3d 55c8 a4bc a182 6f3d c378 e8bc
000003b0: c745 88bd 4ea3 a23d 6af0 833d 58d0 e3bc
000003c0: 1e27 92bd 3f54 babd 6e7b a23d 3bdd ee3d
000003d0: 86a8 bd3c 52fb 203c 1c31 4e3d ae48 363b
000003e0: 5913 053d e78d 663d 7865 ddbc 2a13 d63d
000003f0: 42d7 903c fd02 fabc 36d6 c43b ebde a0bb
0.062488586 -0.03367883 -0.027347118 -0.09859582 0.041321546 -0.02892644 0.07039888 -0.00788963
-0.00838904 0.006823467 -0.07391379 -0.119587176 0.0009958791 0.009013356 -0.030073972 -0.077798724
0.01568999 0.014642998 -0.017831478 0.07078365 0.0061418745 -0.018177403 0.056410667 -0.0118523855
0.04611519 -0.02713515 0.084354624 -0.02147201 0.04596355 0.028633896 0.08311629 -0.05895573
0.08640354 -0.07347545 -0.06509595 0.006054132 0.055587713 -0.047898382 0.07071621 0.02135961
0.04700384 0.0061607845 -0.008260347 0.07389148 0.023029542 0.0006982784 -0.0015857223 -0.057092376
0.007850956 -0.01771527 -0.07351225 0.0778626 0.06143036 -0.06387256 0.081335105 -0.00845072
0.040037096 0.015963176 -0.09695466 0.0782619 -0.014159438 0.045447998 -0.06733718 0.07394741
0.08505482 -0.010901982 0.004184457 -0.025722787 -0.079008 0.057900578 -0.043867674 -0.053323388
-0.032425445 -0.06418528 -0.025191346 -0.048377156 0.076715484 0.08327301 0.073193125 -0.077207774
-0.037270624 0.09090781 0.08368948 0.046704683 -0.009815178 -0.14197993 -0.028439688 0.022980371
-0.01661915 -0.038039193 -0.055795524 0.034514323 0.07724543 0.026154665 -0.080020376 0.025791772
-0.09003664 -0.056612078 -0.0070297085 -0.029026076 0.006929028 0.053466566 -0.053728413 -0.050659724
0.045677204 0.06218846 0.01785386 0.056894757 0.02987411 0.060837958 0.013811855 0.042232513
-0.118844785 -0.054986916 -0.009745164 0.046014883 -0.08714713 -0.021957641 0.0206468 0.020724462
0.057605114 -0.08562838 -0.08324137 0.046857923 0.08700904 0.08824215 -0.052145433 -0.08524642
-0.044166364 0.010201768 -0.026140714 -0.015128574 0.07916278 0.078525834 -0.0049709645 -0.0690672
-0.058862824 -0.0699719 -0.018399358 0.03163738 0.027092565 0.08559581 -0.08908654 0.046915784
0.07368394 -0.03663463 0.05935397 0.036084175 -0.010980802 -0.09144015 0.038457513 0.050483342
-0.06831452 -0.018418696 0.09921115 -0.118944235 0.031571057 0.059259836 -0.0021220616 -0.07127051
-0.027228214 0.06777539 0.03391044 0.0067899725 0.07181388 0.05616874 -0.07980607 -0.09008169
-0.091453925 0.06871255 0.037715983 0.1022323 -0.03877044 0.041119907 0.074616484 0.08143806
0.060560822 -0.010991876 -0.02896365 -0.071334496 -0.044127397 0.05502367 -0.029480599 -0.06637656
0.0435994 0.046216965 0.020986551 -0.027109364 -0.07197243 0.05170616 0.082960345 -0.0310804
-0.009711713 0.061399415 -0.056752887 -0.0125259375 -0.045040816 0.09333092 -0.023924962 0.026895931
-0.0042538336 -0.026712772 0.0021744184 0.036572058 0.06779074 0.0021951543 0.05784795 -0.0054888106
0.07338167 0.0727925 -0.06276191 0.050587475 0.06899039 -0.03753497 -0.060366377 0.055195313
0.00084325956 0.08900488 0.007936287 -0.058612116 0.10329283 0.09254442 0.06798662 -0.021025809
-0.12505811 0.01572245 0.065436035 0.08894217 -0.07526031 0.049284447 0.027162548 -0.052589778
0.07018092 -0.020115057 0.058474187 -0.028377896 -0.06653934 0.07941304 0.0644234 -0.027809307
-0.07136367 -0.090981 0.079336986 0.1166329 0.023151647 0.009825544 0.050339803 0.0027814317
0.032489154 0.056287672 -0.027025923 0.10452874 0.017680768 -0.030519003 0.0060069812 -0.0049093864

actor_fc_layers.blocks.2.block.1.weight f4 [128]
00000000: 3618 813f 6f02 823f c4f7 803f 6425 803f
00000010: 47d1 7a3f e99d 7f3f 63c4 7b3f 442d 7f3f
00000020: de2e 833f cea2 883f 474d 863f d43d 7d3f
00000030: fd7e 7f3f b097 813f ee36 823f 7218 8b3f
00000040: 8d0c 813f 45c5 813f 0c88 793f 1f8d 7e3f
00000050: 1dd7 813f 9f53 793f bce0 813f 9681 813f
00000060: 89bc 823f dfca 813f c950 803f 865c 763f
00000070: c62b 813f 6998 843f 7809 853f 6a38 883f
00000080: 383a 7a3f 0564 7d3f 3ff0 803f deb9 823f
00000090: ae04 843f 614a 9a3f 941e 783f c890 843f
000000a0: 54f7 8b3f ece3 833f 94fc 8b3f 112c 7e3f
000000b0: d0f7 7e3f 7fed 7a3f 07ef 933f c40d 7a3f
000000c0: 99b0 883f 1a61 803f 6dcb 7b3f e836 803f
000000d0: 02f9 763f a0ba 863f 3a27 843f 436d 993f
000000e0: c0ba 7a3f b0fa 823f 750d 833f 2c30 7e3f
000000f0: a507 823f ffd3 833f 6b82 853f dd45 823f
00000100: 8d16 813f 9198 863f cda7 853f ca99 7b3f
00000110: 42f0 8d3f ef4f 833f e9db 7a3f 803f 813f
00000120: 7fdb 873f 81ee 7f3f 247b 903f c80a 7e3f
00000130: ba3d 7b3f 7186 7a3f bcc2 793f 2c15 8a3f
00000140: 0000 803f af1e 823f 4171 883f fd54 873f
00000150: 91e4 833f 4dba 7a3f 7656 803f 2b63 7c3f
00000160: 7299 7f3f 79b0 803f aa34 813f 364b 813f
00000170: 8ea2 7c3f 986f 803f f5aa 893f 93a7 763f
00000180: e195 7d3f 4744 833f 5e93 823f 6825 883f
00000190: 8677 823f cbb6 803f 07aa 873f 839f 863f
000001a0: 9bbe 763f 52e9 823f bcec 813f aaba 813f
000001b0: f362 843f eade 7d3f a15c 793f 300c 843f
000001c0: c96c 833f 96d3 813f 77b2 833f 7c08 833f
000001d0: 8235 793f a73f 7a3f 17e5 843f b573 783f
000001e0: adb0 833f 9e7d 7c3f d2eb 7a3f 0452 843f
000001f0: d77d 863f cd3f 823f eb8f 783f a58b 773f
1.0085514 1.0156993 1.0075612 1.0011411 0.9797558 0.99850327 0.9834654 0.99678445
1.0248678 1.0674684 1.0492333 0.9892247 0.99803144 1.0124416 1.0173013 1.0866835
1.0081955 1.0138327 0.97473216 0.99434084 1.0143772 0.9739322 1.0146708 1.0117671
1.0213786 1.0140036 1.0024654 0.9623493 1.0091484 1.0359012 1.0393515 1.0642216
0.97745085 0.9898074 1.0073317 1.0212972 1.0313928 1.2053949 0.9692166 1.0356684
1.0934854 1.0303931 1.0936456 0.9928599 0.9959688 0.9801864 1.155732 0.97677255
1.0678893 1.0029633 0.9835728 1.0016756 0.96473706 1.0525703 1.0324471 1.1986469
0.9794121 1.0232754 1.0238482 0.99292254 1.0158583 1.0299071 1.0430425 1.017757
1.0085007 1.051531 1.0441834 0.9828154 1.1088946 1.0258769 0.97991806 1.0097504
1.061386 0.99973303 1.128758 0.992352 0.9814106 0.9786139 0.97562766 1.0787711
1.0 1.0165614 1.0659562 1.0572811 1.0304128 0.9794052 1.0026386 0.9858882
0.99843514 1.0053855 1.0094197 1.0101078 0.9868554 1.0034056 1.0755297 0.9634945
0.9905682 1.0255212 1.0201223 1.0636415 1.0192726 1.0055784 1.0598763 1.0517429
0.9638459 1.0227454 1.0150371 1.013509 1.0342697 0.99168265 0.97406965 1.0316219
1.0267574 1.0142696 1.0288838 1.0236964 0.9734727 0.97753376 1.0382413 0.97051555
1.0288292 0.98629177 0.98016083 1.0337529 1.0507153 1.017572 0.970946 0.96697456

actor_fc_layers.blocks.2.block.1.bias f4 [128]
00000000: 4e28 7dbc bad3 15bc 197d 13bc 8007 e63b
00000010: d30e 96bc e78a 83bb 024c b3bc 2d24 30bc
00000020: 16d6 9d3c f200 7b3d 5009 2a3d f908 5dbc
00000030: b396 d1bb b7c2 af3c 2254 bebc 27b7 20bd
00000040: 8a41 a23a 51dc ccbb 5e5c bbbc 1e38 ecbb
00000050: bddd 0ebc 778f fabc 165c 86ba eb08 bbba
00000060: 7422 803d 1873 1dbc 4649 02bc d0c2 16bd
00000070: 2d1e 34bc 1f2a 4fbb 02ba bd3c 0870 733d
00000080: 98a6 bfbc cc9d 323b 2410 43bc 2586 b43c
00000090: 77cc b9bb 07ad 8c3c ff69 fbbc e25c 203c
000000a0: 293d f7bb b364 60bc 7bd3 14bc f214 0ebc
000000b0: dd5d 0a3d f26d c9bc 2aac 6d3c db2b 9e3b
000000c0: 5b40 b73c 6704 5dbc 8588 9c3c f0f0 54bb
000000d0: b8f9 2cbd ab94 34bd a741 a9ba 1c35 253c
000000e0: e955 81bc ffa9 d23c 6273 c7bc d7bb 76bc
000000f0: 3330 0e3d 70dc 1e3b 3902 b5ba 5760 1f3d
00000100: 1718 c2bc 3f43 8d3c f535 813c 84a0 acbc
00000110: 268b 803d 5798 893d 693c a8bc 90c8 39bb
00000120: e553 b33c 69f4 babc cb71 e53c 34c8 813c
00000130: d467 ccbc e947 c8bc c03a 05bd 2866 ef3c
00000140: 0000 0000 7895 763d 3419 3c3d b7d3 4e3d
00000150: b2a4 793c e444 81bc 91ca 0ebc d04f 8dbc
00000160: ef12 7d3c ba8a 4bbc 7f77 683b ad5d d23c
00000170: 77a9 84bc 8793 fdbc 6694 8bbc c271 e4bc
00000180: cb2f 30bc 9179 ad3c b8d9 1abc fd75 0e3d
00000190: 5a4b 633c 13f4 143c 4b90 1f3c 612a b13c
000001a0: b5d1 06bd ed01 603d 5a09 5f3c d240 1cbc
000001b0: 7117 e13c 7dca f7bb 6cff dfbc f2a8 04bd
000001c0: 8cc1 0abc 2054 9fbc 391e 9b3b 5235 763d
000001d0: 2d8f f8bc b3bb debc 61e0 74bb 1b1a f2bc
000001e0: 465d 82bc f12f 91bc eed1 dbbc ca11 f83c
000001f0: 1b88 fd3c 9384 1f3c d1de d3bc 74b5 adbc
-0.015451504 -0.009144718 -0.009001994 0.007019937 -0.018317616 -0.004014361 -0.02188683 -0.0107508125
0.019267123 0.0612802 0.041512787 -0.013490909 -0.0063961386 0.021455152 -0.023233477 -0.039237168
0.0012379151 -0.0062518497 -0.022871193 -0.007208838 -0.008719859 -0.030585987 -0.0010250832 -0.0014269626
0.062565714 -0.00960996 -0.00795204 -0.03680688 -0.010993523 -0.00316108 0.023159984 0.059433013
-0.023394868 0.0027254699 -0.011905704 0.022036621 -0.005670126 0.01717235 -0.030690191 0.00978777
-0.0075451327 -0.013695884 -0.009083624 -0.008671986 0.03378092 -0.024588559 0.014506379 0.0048270053
0.022369554 -0.013489819 0.019108066 -0.0032492243 -0.042230338 -0.044087093 -0.0012913243 0.010083463
-0.015788035 0.025715826 -0.024347011 -0.015059433 0.034713935 0.0024240278 -0.0013809867 0.038910236
-0.023693128 0.01724398 0.015772799 -0.021072634 0.062765405 0.0671851 -0.020536618 -0.0028348304
0.02189059 -0.022821622 0.028008362 0.015842535 -0.024951853 -0.024448352 -0.03252673 0.029223517
0.0 0.06020114 0.045922473 0.050494876 0.01523702 -0.01577992 -0.008715288 -0.017249972
0.015446409 -0.012423212 0.0035471616 0.025679434 -0.016194088 -0.030954136 -0.017038535 -0.027886275
-0.010753582 0.021176131 -0.009451322 0.03478049 0.013872946 0.009091395 0.009738992 0.021626653
-0.032914836 0.054689337 0.013613069 -0.009536939 0.027476998 -0.0075619803 -0.027343474 -0.03238768
-0.008468997 -0.019449294 0.0047338274 0.060109444 -0.030341709 -0.027189111 -0.0037365186 -0.029553464
-0.015913617 -0.017723056 -0.0268335 0.03028192 0.03094869 0.009736198 -0.025863083 -0.021204688

actor_fc_layers.blocks.2.block.1.running_mean f4 [128]
00000000: 0000 0000 0000 0000 0000 0000 0000 0000
00000010: 0000 0000 0000 0000 0000 0000 0000 0000
00000020: 0000 0000 0000 0000 0000 0000 0000 0000
00000030: 0000 0000 0000 0000 0000 0000 0000 0000
00000040: 0000 0000 0000 0000 0000 0000 0000 0000
00000050: 0000 0000 0000 0000 0000 0000 0000 0000
00000060: 0000 0000 0000 0000 0000 0000 0000 0000
00000070: 0000 0000 0000 0000 0000 0000 0000 0000
00000080: 0000 0000 0000 0000 0000 0000 0000 0000
00000090: 0000 0000 0000 0000 0000 0000 0000 0000
000000a0: 0000 0000 0000 0000 0000 0000 0000 0000
000000b0: 0000 0000 0000 0000 0000 0000 0000 0000
000000c0: 0000 0000 0000 0000 0000 0000 0000 0000
000000d0: 0000 0000 0000 0000 0000 0000 0000 0000
000000e0: 0000 0000 0000 0000 0000 0000 0000 0000
000000f0: 0000 0000 0000 0000 0000 0000 0000 0000
00000100: 0000 0000 0000 0000 0000 0000 0000 0000
00000110: 0000 0000 0000 0000 0000 0000 0000 0000
00000120: 0000 0000 0000 0000 0000 0000 0000 0000
00000130: 0000 0000 0000 0000 0000 0000 0000 0000
00000140: 0000 0000 0000 0000 0000 0000 0000 0000
00000150: 0000 0000 0000 0000 0000 0000 0000 0000
00000160: 0000 0000 0000 0000 0000 0000 0000 0000
00000170: 0000 0000 0000 0000 0000 0000 0000 0000
00000180: 0000 0000 0000 0000 0000 0000 0000 0000
00000190: 0000 0000 0000 0000 0000 0000 0000 0000
000001a0: 0000 0000 0000 0000 0000 0000 0000 0000
000001b0: 0000 0000 0000 0000 0000 0000 0000 0000
000001c0: 0000 0000 0000 0000 0000 0000 0000 0000
000001d0: 0000 0000 0000 0000 0000 0000 0000 0000
000001e0: 0000 0000 0000 0000 0000 0000 0000 0000
000001f0: 0000 0000 0000 0000 0000 0000 0000 0000
0.0 0.0 0.0 0.0 0.0 0.0 0.0 0.0
0.0 0.0 0.0 0.0 0.0 0.0 0.0 0.0
0.0 0.0 0.0 0.0 0.0 0.0 0.0 0.0
0.0 0.0 0.0 0.0 0.0 0.0 0.0 0.0
0.0 0.0 0.0 0.0 0.0 0.0 0.0 0.0
0.0 0.0 0.0 0.0 0.0 0.0 0.0 0.0
0.0 0.0 0.0 0.0 0.0 0.0 0.0 0.0
0.0 0.0 0.0 0.0 0.0 0.0 0.0 0.0
0.0 0.0 0.0 0.0 0.0 0.0 0.0 0.0
0.0 0.0 0.0 0.0 0.0 0.0 0.0 0.0
0.0 0.0 0.0 0.0 0.0 0.0 0.0 0.0
0.0 0.0 0.0 0.0 0.0 0.0 0.0 0.0
0.0 0.0 0.0 0.0 0.0 0.0 0.0 0.0
0.0 0.0 0.0 0.0 0.0 0.0 0.0 0.0
0.0 0.0 0.0 0.0 0.0 0.0 0.0 0.0
0.0 0.0 0.0 0.0 0.0 0.0 0.0 0.0

actor_fc_layers.blocks.2.block.1.running_var f4 [128]
00000000: 0000 803f 0000 803f 0000 803f 0000 803f
00000010: 0000 803f 0000 803f 0000 803f 0000 803f
00000020: 0000 803f 0000 803f 0000 803f 0000 803f
00000030: 0000 803f 0000 803f 0000 803f 0000 803f
00000040: 0000 803f 0000 803f 0000 803f 0000 803f
00000050: 0000 803f 0000 803f 0000 803f 0000 803f
00000060: 0000 803f 0000 803f 0000 803f 0000 803f
00000070: 0000 803f 0000 803f 0000 803f 0000 803f
00000080: 0000 803f 0000 803f 0000 803f 0000 803f
00000090: 0000 803f 0000 803f 0000 803f 0000 803f
000000a0: 0000 803f 0000 803f 0000 803f 0000 803f
000000b0: 0000 803f 0000 803f 0000 803f 0000 803f
000000c0: 0000 803f 0000 803f 0000 803f 0000 803f
000000d0: 0000 803f 0000 803f 0000 803f 0000 803f
000000e0: 0000 803f 0000 803f 0000 803f 0000 803f
000000f0: 0000 803f 0000 803f 0000 803f 0000 803f
00000100: 0000 803f 0000 803f 0000 803f 0000 803f
00000110: 0000 803f 0000 803f 0000 803f 0000 803f
00000120: 0000 803f 0000 803f 0000 803f 0000 803f
00000130: 0000 803f 0000 803f 0000 803f 0000 803f
00000140: 0000 803f 0000 803f 0000 803f 0000 803f
00000150: 0000 803f 0000 803f 0000 803f 0000 803f
00000160: 0000 803f 0000 803f 0000 803f 0000 803f
00000170: 0000 803f 0000 803f 0000 803f 0000 803f
00000180: 0000 803f 0000 803f 0000 803f 0000 803f
00000190: 0000 803f 0000 803f 0000 803f 0000 803f
000001a0: 0000 803f 0000 803f 0000 803f 0000 803f
000001b0: 0000 803f 0000 803f 0000 803f 0000 803f
000001c0: 0000 803f 0000 803f 0000 803f 0000 803f
000001d0: 0000 803f 0000 803f 0000 803f 0000 803f
000001e0: 0000 803f 0000 803f 0000 803f 0000 803f
000001f0: 0000 803f 0000 803f 0000 803f 0000 803f
1.0 1.0 1.0 1.0 1.0 1.0 1.0 1.0
1.0 1.0 1.0 1.0 1.0 1.0 1.0 1.0
1.0 1.0 1.0 1.0 1.0 1.0 1.0 1.0
1.0 1.0 1.0 1.0 1.0 1.0 1.0 1.0
1.0 1.0 1.0 1.0 1.0 1.0 1.0 1.0
1.0 1.0 1.0 1.0 1.0 1.0 1.0 1.0
1.0 1.0 1.0 1.0 1.0 1.0 1.0 1.0
1.0 1.0 1.0 1.0 1.0 1.0 1.0 1.0
1.0 1.0 1.0 1.0 1.0 1.0 1.0 1.0
1.0 1.0 1.0 1.0 1.0 1.0 1.0 1.0
1.0 1.0 1.0 1.0 1.0 1.0 1.0 1.0
1.0 1.0 1.0 1.0 1.0 1.0 1.0 1.0
1.0 1.0 1.0 1.0 1.0 1.0 1.0 1.0
1.0 1.0 1.0 1.0 1.0 1.0 1.0 1.0
1.0 1.0 1.0 1.0 1.0 1.0 1.0 1.0
1.0 1.0 1.0 1.0 1.0 1.0 1.0 1.0
