saved_models/agent_maddpgv2_vs_opp_maddpgv2_2_vs_2_1_big_adver_best_models/maddpgv2_target_actor_0.pt (torch, 160779 bytes, 21 tensors)

actor_fc_layers.blocks.0.block.0.weight f4 [128, 22]
0	0x3d68456c	0.05670683
1	0x3df9c3d0	0.121955514
2	0x3e39991a	0.1812481
3	0x3e88006b	0.2656282
4	0x3db405c2	0.08790161
5	0x3e51c273	0.20484333
6	0x3e52f85f	0.20602559
7	0x3ce788d6	0.02826349
8	0xbd81ccd2	-0.063378945
9	0x3e15080c	0.14553851
10	0xbdb3ce4c	-0.087795824
11	0xbe183027	-0.14862119
12	0x3e228260	0.15870047
13	0xbed11de6	-0.40843123
14	0xbf036137	-0.51320213
15	0x3dc52934	0.096269995
16	0xbe77f901	-0.24216081
17	0xbe57e632	-0.21083906
18	0x3d16d35a	0.036822654
19	0x3d22984c	0.039696023
20	0xbc8c66d8	-0.017138883
21	0xbeebef2f	-0.4608092
22	0xbec551f9	-0.38539103
23	0x3dc8a6c8	0.09797436
24	0xbd542dea	-0.0518016
25	0xbdd155fa	-0.10221477
26	0x3db84fb5	0.08999578
27	0x3ecebdad	0.40379086
28	0x3d8dec15	0.06929795
29	0xbd86a8f8	-0.06575197
30	0xbb3ae75e	-0.0028519253
31	0xbe93b703	-0.28850564
32	0x3e427608	0.18990338
33	0x3e23f685	0.16012008
34	0xbe9103e3	-0.28323278
35	0xbd60c8bd	-0.05487894
36	0xbe29de17	-0.16588627
37	0xbdf79582	-0.12089063
38	0xbda9c289	-0.08289058
39	0xbe950505	-0.29105392
40	0x3cc0c48c	0.02353122
41	0xbe2d6c99	-0.16935958
42	0x3eade3cd	0.3396286
43	0x3d9d4a6f	0.07680213
44	0xbec021c6	-0.37525767
45	0x3e2512f6	0.16120514
46	0x3eef55fd	0.4674529
47	0xbf223234	-0.63357854
48	0xbd56c0cf	-0.05242997
49	0xbd979d8b	-0.07403096
50	0x3d91a239	0.0711102
51	0xbe0794d3	-0.13240366
52	0x3dccd166	0.10000877
53	0xbd85b106	-0.06527905
54	0x3de5dddb	0.11223956
55	0x3d9de4fb	0.0770969
56	0xbe4061c8	-0.187873
57	0xbdac7248	-0.08420235
58	0xbe48c3df	-0.19605969
59	0xbdc8a79d	-0.09797595
60	0xbda4d528	-0.08048469
61	0xbe20ee73	-0.15715961
62	0x3eb2eb70	0.3494525
63	0xbe70475b	-0.2346472
64	0x3db2f7a4	0.0873864
65	0xbdca514e	-0.09878789
66	0x3de6a396	0.1126167
67	0xbf426dfe	-0.75949085
68	0x3de59c2a	0.112114266
69	0x3eea5101	0.45764926
70	0x3e0057d5	0.12533505
71	0xbe8de22c	-0.27711618
72	0x3df9fdac	0.12206587
73	0xbd9f0b32	-0.07765807
74	0xbf189b6a	-0.59612143
75	0xbebbde77	-0.36693165
76	0x3ea3452c	0.3188871
77	0x3edbcae0	0.4292822
78	0xbc9a7d26	-0.018858504
79	0xbe64c42e	-0.22340462
80	0x3e0b5724	0.1360746
81	0xbebeb202	-0.37245184
82	0x3e7bfbd3	0.24607782
83	0xbe33d49a	-0.1756157
84	0x3ead47e1	0.33843902
85	0x3e3268a6	0.17422733
86	0xbe0e3bcb	-0.13889997
87	0xbd879ae5	-0.06621341
88	0x3dc8bdc1	0.09801818
89	0x3dc8c3bf	0.098029606
90	0xbe610a2e	-0.2197654
91	0xbf4c3cbd	-0.7978018
92	0x3d5862d6	0.052828632
93	0xbe1354d9	-0.14387836
94	0x3e4b1824	0.19833428
95	0xbe4a596b	-0.19760673
96	0xbe0dbafc	-0.1384086
97	0x3d0e621c	0.034761533
98	0x3f5f9e66	0.8735107
99	0x3d4cf151	0.050034825
100	0xbca7188d	-0.020397449
101	0xbec3b459	-0.38223532
102	0x3eea5aa8	0.4577229
103	0x3e1d2737	0.1534699
104	0x3d915a20	0.07097268
105	0x3e8ab4e5	0.27091137
106	0xbd2bd014	-0.041946486
107	0xbe7992a4	-0.24372345
108	0x3e0c2068	0.13684237
109	0x3ba27037	0.0049572247
110	0xbe9dd08d	-0.30823174
111	0xbc9c3294	-0.019067086
112	0x3ea36505	0.3191301
113	0xbe1b6a7b	-0.15177338
114	0x3e2a794f	0.16647838
115	0xbe44b8ca	-0.19211116
116	0x3e3cb813	0.18429594
117	0xbd9f58e1	-0.07780624
118	0x3e8f79a8	0.28022504
119	0xbf27024f	-0.652379
120	0x3ed726ac	0.42021692
121	0xbe85bfeb	-0.26122984
122	0xbe493ccf	-0.19652103
123	0xbe9889f8	-0.29792762
124	0x3ee937fb	0.45550522
125	0x3edf15a9	0.43571213
126	0x3d7813db	0.06056581
127	0x3d6da833	0.058021735
128	0xbe46d914	-0.19418746
129	0xbde5e1e2	-0.11224724
130	0x3eb63340	0.35585976
131	0x3d62f40f	0.055408534
132	0xbdee3cf8	-0.116327226
133	0x3e0b5dec	0.13610047
134	0x3eaf3c14	0.34225523
135	0xbe8fda0b	-0.2809604
136	0x3eac7420	0.33682346
137	0xbe8ff338	-0.2811525
138	0xbe3aac26	-0.18229732
139	0x3e3a51d3	0.18195276
140	0xbe05c67b	-0.13063996
141	0x3f1da279	0.6157604
142	0x3d2b8221	0.041872147
143	0xbec3775f	-0.3817701
144	0x3b84c362	0.0040516118
145	0x3e90bfce	0.28271335
146	0xbd71940b	-0.058979075
147	0x3d077dbb	0.03307889
148	0xbe816969	-0.25275734
149	0xbeda91f0	-0.42689466
150	0x3eeb02ca	0.45900565
151	0xbecf2646	-0.40458888
152	0x3e0a204f	0.13488887
153	0xbcf74dfb	-0.030188551
154	0x3dca221e	0.098697886
155	0xbf4094f6	-0.75227296
156	0x3e56e965	0.2098747
157	0xbed41b64	-0.41427147
158	0xbdb6c198	-0.08923644
159	0xbe1a1b41	-0.15049459
160	0xbd251019	-0.040298555
161	0xbe483672	-0.19552019
162	0xbee2fc99	-0.44333342
163	0xbeb986bd	-0.3623561
164	0x3d9f05ce	0.07764779
165	0x3d777334	0.0604126
166	0xbca5fa38	-0.020260915
167	0x3e0911b8	0.13385665
168	0x3ddeb6b6	0.10874693
169	0x3ea06e1b	0.31334004
170	0xbe70d445	-0.23518474
171	0xbcabeb32	-0.020986173
172	0xbe1abc40	-0.15110874
173	0x3d70b4bf	0.058766123
174	0x3e0ea08e	0.13928434
175	0xbd1d3e5c	-0.03838955
176	0x3da8e3ce	0.08246575
177	0x3d0e49ce	0.034738354
178	0x3e46d7e2	0.1941829
179	0x3e6d2e49	0.23162188
180	0xbd12b8bc	-0.035820708
181	0x3e4fab08	0.20280087
182	0x3e467e59	0.19384135
183	0xbe430eb8	-0.19048584
184	0xbecd514c	-0.40101087
185	0x3e54a32a	0.20765367
186	0xbed818c5	-0.42206398
187	0xbd1759ac	-0.036950752
188	0x3e1792f8	0.14802158
189	0x3f1e7879	0.61902577
190	0xbec576e8	-0.3856728
191	0xbeb90052	-0.36133057
192	0x3d343cf9	0.04400346
193	0xbe067891	-0.1313193
194	0xbdfa2943	-0.12214901
195	0xbe2dd882	-0.16977122
196	0xbc8726ef	-0.016498057
197	0xbe2e562a	-0.17025056
198	0xbddfa906	-0.109209105
199	0xbdaa6fb7	-0.08322089
200	0xbebffcb8	-0.37497497
201	0x3f3b4678	0.731544
202	0xbe560bc3	-0.20902924
203	0x3e8e919e	0.27845472
204	0xbd564c24	-0.052318707
205	0xbc61ecaa	-0.013789335
206	0x3e74d32c	0.2390868
207	0xbd8af9f0	-0.06785953
208	0x3c4092d7	0.011753759
209	0x3e754d2e	0.23955223
210	0xbe09edc1	-0.13469602
211	0x3eff2203	0.49830636
212	0x3e6f16b3	0.23348503
213	0x3e02cea7	0.12774144
214	0x3ebb9600	0.36637878
215	0xbb346d02	-0.0027530794
216	0xbdc0b5c4	-0.09409669
217	0x3d8b2bbd	0.06795452
218	0xbe472d98	-0.19450986
219	0x3e14fcc4	0.14549547
220	0x3df0d527	0.117594056
221	0x3d332241	0.04373384
222	0x3f72aefe	0.94798267
223	0xbebe190b	-0.3712848
224	0x3d230596	0.03980025
225	0x3db2a6ae	0.08723198
226	0xbd42efde	-0.047592036
227	0x3ddb8a5c	0.10719749
228	0x3e3b0f76	0.18267617
229	0x3c8f8b92	0.017522607
230	0x3da49836	0.080368444
231	0xbe052c41	-0.13005163
232	0x3bf36e11	0.0074288924
233	0x3f0802d8	0.5312934
234	0xbe0e6225	-0.13904627
235	0xbcd1cf31	-0.025611492
236	0x3e8f1b66	0.2795059
237	0x3dc4c622	0.09608103
238	0x3bd805d9	0.006592494
239	0x3d2e9423	0.042621743
240	0xbdaf54dd	-0.08561108
241	0xbccc02f3	-0.02490375
242	0xbe7f29be	-0.24918267
243	0xbc6f6194	-0.014610667
244	0x3e8d0d32	0.2754913
245	0x3d547142	0.051865824
246	0xbeec8b92	-0.46200234
247	0xbec5fd7d	-0.3866996
248	0x3deba773	0.11506548
249	0xbe2a79be	-0.16648003
250	0xbdea1dfd	-0.11431501
251	0xbe99573a	-0.2994936
252	0x3e216820	0.15762377
253	0xbdd84f19	-0.10561962
254	0x3f282bbe	0.65691745
255	0xbe6d3ea9	-0.23168434

actor_fc_layers.blocks.0.block.1.weight f4 [128]
0	0x3f6afb88	0.91790056
1	0x3f86efec	1.0541968
2	0x3fa19708	1.2624216
3	0x3f971325	1.1802717
4	0x3f8a2037	1.0791081
5	0x3fb66baa	1.4251606
6	0x3f6bd697	0.92124313
7	0x3fa0b625	1.2555586
8	0x3fbfeca3	1.4994091
9	0x3f9612fc	1.1724544
10	0x3fa0bc9d	1.255756
11	0x3f900fdb	1.1254839
12	0x3fa69e30	1.3017025
13	0x3f8715c3	1.0553516
14	0x3f90df66	1.1318176
15	0x3f88c77c	1.0685878
16	0x3fc29e23	1.520451
17	0x3f7e7205	0.9939273
18	0x3fa8f9fa	1.3201287
19	0x3f92d2ba	1.1470559
20	0x3fec2240	1.8447952
21	0x3f883114	1.0639977
22	0x3f95d06f	1.1704234
23	0x3f86901d	1.051273
24	0x3f9f92b9	1.2466651
25	0x3f892c81	1.0716707
26	0x3fa5a373	1.2940506
27	0x3f8b8b68	1.0901918
28	0x3f95cecb	1.1703733
29	0x3fc4f704	1.5387883
30	0x3f678125	0.90431434
31	0x3f994cb8	1.1976538
32	0x3f92b59b	1.1461672
33	0x3fb6a56a	1.426923
34	0x3f8faa3b	1.1223825
35	0x3f788298	0.9707427
36	0x3f98862d	1.1915947
37	0x3fa674b6	1.3004367
38	0x3fb19064	1.387219
39	0x3f894d56	1.0726726
40	0x3f83e65b	1.0304674
41	0x3fb3da76	1.4051044
42	0x3f876bbf	1.0579756
43	0x3fa8ac6e	1.3177621
44	0x3f6d5685	0.92710143
45	0x3f713b71	0.94231325
46	0x3f8d4e54	1.1039529
47	0x3fab8eaf	1.3402919
48	0x3fa0b9cd	1.2556702
49	0x3f91821c	1.1367831
50	0x3fd2443e	1.6427076
51	0x3f825c57	1.018443
52	0x3fc73669	1.556348
53	0x3f8e689b	1.1125673
54	0x3f6e5a80	0.9310684
55	0x3f90bfe9	1.1308566
56	0x3fac576e	1.3464181
57	0x3f7a1c7a	0.976997
58	0x3f82c6b4	1.0216889
59	0x3f7c7092	0.9860927
60	0x3fb83850	1.4392185
61	0x3fa1d5ab	1.2643331
62	0x3f80f12a	1.0073597
63	0x3f839d1a	1.0282319
64	0x3f8d0a36	1.1018741
65	0x3f5d8e9c	0.8654573
66	0x3f8a91a8	1.0825701
67	0x3fb9123b	1.4458688
68	0x3fac3115	1.3452479
69	0x3f950699	1.1642638
70	0x3f948f07	1.1606148
71	0x3f7428c2	0.9537469
72	0x3f9254d9	1.1432143
73	0x3fa913a5	1.320912
74	0x3f870236	1.054755
75	0x3f8c92a3	1.098225
76	0x3f9958f5	1.1980273
77	0x3fb6b430	1.4273739
78	0x3f8a77aa	1.0817769
79	0x3f89a21e	1.0752599
80	0x3f896150	1.0732822
81	0x3fb9212e	1.4463251
82	0x3f8cd65a	1.1002915
83	0x3f9bf913	1.2185386
84	0x3fbb52d0	1.4634647
85	0x3f8d925f	1.1060294
86	0x3f8e33e3	1.1109585
87	0x3faa104a	1.3286221
88	0x3f87cde5	1.0609709
89	0x3fafb729	1.3727771
90	0x3f7cc73b	0.987415
91	0x3f6551b5	0.895778
92	0x3f579468	0.84210825
93	0x3f761473	0.96124953
94	0x3f9fc618	1.2482328
95	0x3fbf8aba	1.4964211
96	0x3fad726e	1.3550546
97	0x3f80c1b4	1.0059114
98	0x3f86c0cb	1.0527586
99	0x3f9561d1	1.1670476
100	0x3f92682d	1.1438042
101	0x3f90e35a	1.1319382
102	0x3f8515f2	1.0397322
103	0x3f97652c	1.182775
104	0x3f8f8e79	1.1215354
105	0x3f8a7f08	1.0820017
106	0x3f8f8bdd	1.1214558
107	0x3f82b333	1.0210937
108	0x3f93ee52	1.1557105
109	0x3f463f12	0.7743999
110	0x3f6b5c14	0.91937375
111	0x3f6a9c17	0.91644424
112	0x3f91edc4	1.1400685
113	0x3f9168d0	1.1360111
114	0x3fd944b8	1.6974096
115	0x3f8abc09	1.0838634
116	0x3f8505f9	1.0392448
117	0x3f97b734	1.1852784
118	0x3f9dd3bc	1.2330241
119	0x3f976d51	1.1830236
120	0x3f840df5	1.0316759
121	0x3f536c2d	0.8258694
122	0x3f5aa918	0.85414267
123	0x3f7c0301	0.98442084
124	0x3f8afdeb	1.085874
125	0x3f84700c	1.0346694
126	0x3f5f19c9	0.8714872
127	0x3f67d746	0.90562856

actor_fc_layers.blocks.0.block.1.bias f4 [128]
0	0xbf0be236	-0.54642045
1	0x3e29f5d7	0.16597687
2	0xbcfdf4d0	-0.031000525
3	0xbe0cadd5	-0.13738187
4	0xbe38ca5f	-0.18045948
5	0x3e81a8d7	0.25324127
6	0x3cf784d6	0.030214708
7	0xbcfc72c0	-0.030816436
8	0xbd6f1ea2	-0.058378823
9	0x3c26daca	0.010183999
10	0x3de55bf0	0.11199176
11	0xbe0cd81c	-0.13754314
12	0xbdfc3835	-0.12315408
13	0xbe5785fe	-0.21047208
14	0xbd24180f	-0.040062007
15	0xbde83fa0	-0.113402605
16	0x3d8ea440	0.06964922
17	0xbe9a8ac8	-0.30184007
18	0x3e6a8c76	0.22905144
19	0xbda6ca5c	-0.08144066
20	0xbd759e0f	-0.05996519
21	0xbe23b259	-0.15986003
22	0xbf1d9c17	-0.615663
23	0xbe3a0237	-0.18164907
24	0xba326bed	-0.00068062433
25	0xbea5af53	-0.32360324
26	0x3e05c9bc	0.13065237
27	0xbe3f610b	-0.18689363
28	0x3c6f4466	0.01460371
29	0x3e7836f8	0.24239719
30	0xbd2d7057	-0.042343464
31	0x3ddef158	0.108858764
32	0xbdcd8575	-0.100352205
33	0xbca122cd	-0.019669915
34	0xbdc840c2	-0.097779766
35	0xbe737a43	-0.23777108
36	0x3dc65384	0.09683898
37	0xbe405901	-0.18783952
38	0x3dccf39c	0.10007402
39	0xbe255b28	-0.16148055
40	0xbdcfe717	-0.10151499
41	0x3eae3b73	0.3402973
42	0xbda7e3fd	-0.08197782
43	0x3dbed46f	0.09317862
44	0x3e138e2b	0.14409702
45	0xbd2475e3	-0.040151488
46	0xbe300bec	-0.17192048
47	0x3dc02330	0.093817115
48	0xbdbaabce	-0.091148004
49	0x3de1c6cb	0.11024245
50	0x3dceeff2	0.1010436
51	0x3e127afb	0.14304726
52	0x3e13e85e	0.1444411
53	0x3de50a5a	0.11183615
54	0xbef183a5	-0.4717075
55	0xbe01110e	-0.12604162
56	0xbe7a348c	-0.24434108
57	0xbe45660d	-0.1927721
58	0x3e27e74f	0.16396831
59	0x3e8cb24f	0.2747979
60	0xbec95420	-0.39321995
61	0x3e86f4cf	0.2635865
62	0x3dc8e1ce	0.09808694
63	0xbd6daf94	-0.058028772
64	0xbdc5fdc4	-0.096675426
65	0x3cc1cb4c	0.02365651
66	0x3e01411b	0.12622492
67	0x3d042155	0.03225835
68	0x3e033ef6	0.12816986
69	0x3d8b625f	0.06805872
70	0xbde80649	-0.11329324
71	0x3e68dc12	0.227402
72	0x3e1f3f16	0.15551409
73	0x3e439c1e	0.19102523
74	0xbe007d53	-0.12547807
75	0x3c891243	0.01673234
76	0xbedee93e	-0.43537325
77	0x3e07a613	0.13246946
78	0x3c97e6d2	0.01854268
79	0x3d03ea9f	0.032206174
80	0xbe784983	-0.24246792
81	0xbd1ceb4e	-0.03831034
82	0xbc2e59d0	-0.01064153
83	0x3cc3f3a0	0.02391988
84	0xbcd0c826	-0.025486063
85	0xbc584475	-0.013199915
86	0xbe0c70cb	-0.13714902
87	0xbcc353d9	-0.023843693
88	0xbe1226ca	-0.1427261
89	0x3e87405c	0.2641629
90	0xbe9063be	-0.28201097
91	0x3ea4114c	0.32044446
92	0xbee576fc	-0.4481734
93	0xbe9f62c9	-0.31130055
94	0x3e333335	0.17500003
95	0x3df35c4d	0.11882839
96	0xbdb9ce85	-0.090725936
97	0xbe2278a2	-0.1586633
98	0x3e04db6a	0.12974325
99	0x3e05ad9f	0.13054512
100	0x3c348af9	0.011019462
101	0xbe9f9d0f	-0.31174514
102	0xbeb59e9a	-0.35472566
103	0xbde62a8e	-0.112385854
104	0x3e7eeeac	0.24895734
105	0xbd836101	-0.064149864
106	0x3ce004c9	0.027346032
107	0xbebd5ddc	-0.36985672
108	0xbd711632	-0.058859058
109	0x3e3511fe	0.17682645
110	0xbdabd51f	-0.08390259
111	0xbf00cbce	-0.5031098
112	0x3e70ce71	0.23516251
113	0x3dfe8050	0.124268174
114	0x3e56e2a9	0.20984901
115	0xbe150e80	-0.14556313
116	0xbe82112a	-0.2540372
117	0x3e7a6c57	0.24455391
118	0xbe4bda5b	-0.19907515
119	0xbe9b07a5	-0.3027927
120	0xbe630e92	-0.22173527
121	0x3db4373b	0.08799597
122	0xbec4f88d	-0.3847088
123	0xbdc6b153	-0.09701791
124	0xbe8b85c2	-0.27250487
125	0xbe21a896	-0.15786967
126	0x3dcfed9e	0.10152744
127	0xbebf0cd6	-0.3731448

actor_fc_layers.blocks.0.block.1.running_mean f4 [128]
0	0x00000000	0.0
1	0x00000000	0.0
2	0x00000000	0.0
3	0x00000000	0.0
4	0x00000000	0.0
5	0x00000000	0.0
6	0x00000000	0.0
7	0x00000000	0.0
8	0x00000000	0.0
9	0x00000000	0.0
10	0x00000000	0.0
11	0x00000000	0.0
12	0x00000000	0.0
13	0x00000000	0.0
14	0x00000000	0.0
15	0x00000000	0.0
16	0x00000000	0.0
17	0x00000000	0.0
18	0x00000000	0.0
19	0x00000000	0.0
20	0x00000000	0.0
21	0x00000000	0.0
22	0x00000000	0.0
23	0x00000000	0.0
24	0x00000000	0.0
25	0x00000000	0.0
26	0x00000000	0.0
27	0x00000000	0.0
28	0x00000000	0.0
29	0x00000000	0.0
30	0x00000000	0.0
31	0x00000000	0.0
32	0x00000000	0.0
33	0x00000000	0.0
34	0x00000000	0.0
35	0x00000000	0.0
36	0x00000000	0.0
37	0x00000000	0.0
38	0x00000000	0.0
39	0x00000000	0.0
40	0x00000000	0.0
41	0x00000000	0.0
42	0x00000000	0.0
43	0x00000000	0.0
44	0x00000000	0.0
45	0x00000000	0.0
46	0x00000000	0.0
47	0x00000000	0.0
48	0x00000000	0.0
49	0x00000000	0.0
50	0x00000000	0.0
51	0x00000000	0.0
52	0x00000000	0.0
53	0x00000000	0.0
54	0x00000000	0.0
55	0x00000000	0.0
56	0x00000000	0.0
57	0x00000000	0.0
58	0x00000000	0.0
59	0x00000000	0.0
60	0x00000000	0.0
61	0x00000000	0.0
62	0x00000000	0.0
63	0x00000000	0.0
64	0x00000000	0.0
65	0x00000000	0.0
66	0x00000000	0.0
67	0x00000000	0.0
68	0x00000000	0.0
69	0x00000000	0.0
70	0x00000000	0.0
71	0x00000000	0.0
72	0x00000000	0.0
73	0x00000000	0.0
74	0x00000000	0.0
75	0x00000000	0.0
76	0x00000000	0.0
77	0x00000000	0.0
78	0x00000000	0.0
79	0x00000000	0.0
80	0x00000000	0.0
81	0x00000000	0.0
82	0x00000000	0.0
83	0x00000000	0.0
84	0x00000000	0.0
85	0x00000000	0.0
86	0x00000000	0.0
87	0x00000000	0.0
88	0x00000000	0.0
89	0x00000000	0.0
90	0x00000000	0.0
91	0x00000000	0.0
92	0x00000000	0.0
93	0x00000000	0.0
94	0x00000000	0.0
95	0x00000000	0.0
96	0x00000000	0.0
97	0x00000000	0.0
98	0x00000000	0.0
99	0x00000000	0.0
100	0x00000000	0.0
101	0x00000000	0.0
102	0x00000000	0.0
103	0x00000000	0.0
104	0x00000000	0.0
105	0x00000000	0.0
106	0x00000000	0.0
107	0x00000000	0.0
108	0x00000000	0.0
109	0x00000000	0.0
110	0x00000000	0.0
111	0x00000000	0.0
112	0x00000000	0.0
113	0x00000000	0.0
114	0x00000000	0.0
115	0x00000000	0.0
116	0x00000000	0.0
117	0x00000000	0.0
118	0x00000000	0.0
119	0x00000000	0.0
120	0x00000000	0.0
121	0x00000000	0.0
122	0x00000000	0.0
123	0x00000000	0.0
124	0x00000000	0.0
125	0x00000000	0.0
126	0x00000000	0.0
127	0x00000000	0.0

actor_fc_layers.blocks.0.block.1.running_var f4 [128]
0	0x3f800000	1.0
1	0x3f800000	1.0
2	0x3f800000	1.0
3	0x3f800000	1.0
4	0x3f800000	1.0
5	0x3f800000	1.0
6	0x3f800000	1.0
7	0x3f800000	1.0
8	0x3f800000	1.0
9	0x3f800000	1.0
10	0x3f800000	1.0
11	0x3f800000	1.0
12	0x3f800000	1.0
13	0x3f800000	1.0
14	0x3f800000	1.0
15	0x3f800000	1.0
16	0x3f800000	1.0
17	0x3f800000	1.0
18	0x3f800000	1.0
19	0x3f800000	1.0
20	0x3f800000	1.0
21	0x3f800000	1.0
22	0x3f800000	1.0
23	0x3f800000	1.0
24	0x3f800000	1.0
25	0x3f800000	1.0
26	0x3f800000	1.0
27	0x3f800000	1.0
28	0x3f800000	1.0
29	0x3f800000	1.0
30	0x3f800000	1.0
31	0x3f800000	1.0
32	0x3f800000	1.0
33	0x3f800000	1.0
34	0x3f800000	1.0
35	0x3f800000	1.0
36	0x3f800000	1.0
37	0x3f800000	1.0
38	0x3f800000	1.0
39	0x3f800000	1.0
40	0x3f800000	1.0
41	0x3f800000	1.0
42	0x3f800000	1.0
43	0x3f800000	1.0
44	0x3f800000	1.0
45	0x3f800000	1.0
46	0x3f800000	1.0
47	0x3f800000	1.0
48	0x3f800000	1.0
49	0x3f800000	1.0
50	0x3f800000	1.0
51	0x3f800000	1.0
52	0x3f800000	1.0
53	0x3f800000	1.0
54	0x3f800000	1.0
55	0x3f800000	1.0
56	0x3f800000	1.0
57	0x3f800000	1.0
58	0x3f800000	1.0
59	0x3f800000	1.0
60	0x3f800000	1.0
61	0x3f800000	1.0
62	0x3f800000	1.0
63	0x3f800000	1.0
64	0x3f800000	1.0
65	0x3f800000	1.0
66	0x3f800000	1.0
67	0x3f800000	1.0
68	0x3f800000	1.0
69	0x3f800000	1.0
70	0x3f800000	1.0
71	0x3f800000	1.0
72	0x3f800000	1.0
73	0x3f800000	1.0
74	0x3f800000	1.0
75	0x3f800000	1.0
76	0x3f800000	1.0
77	0x3f800000	1.0
78	0x3f800000	1.0
79	0x3f800000	1.0
80	0x3f800000	1.0
81	0x3f800000	1.0
82	0x3f800000	1.0
83	0x3f800000	1.0
84	0x3f800000	1.0
85	0x3f800000	1.0
86	0x3f800000	1.0
87	0x3f800000	1.0
88	0x3f800000	1.0
89	0x3f800000	1.0
90	0x3f800000	1.0
91	0x3f800000	1.0
92	0x3f800000	1.0
93	0x3f800000	1.0
94	0x3f800000	1.0
95	0x3f800000	1.0
96	0x3f800000	1.0
97	0x3f800000	1.0
98	0x3f800000	1.0
99	0x3f800000	1.0
100	0x3f800000	1.0
101	0x3f800000	1.0
102	0x3f800000	1.0
103	0x3f800000	1.0
104	0x3f800000	1.0
105	0x3f800000	1.0
106	0x3f800000	1.0
107	0x3f800000	1.0
108	0x3f800000	1.0
109	0x3f800000	1.0
110	0x3f800000	1.0
111	0x3f800000	1.0
112	0x3f800000	1.0
113	0x3f800000	1.0
114	0x3f800000	1.0
115	0x3f800000	1.0
116	0x3f800000	1.0
117	0x3f800000	1.0
118	0x3f800000	1.0
119	0x3f800000	1.0
120	0x3f800000	1.0
121	0x3f800000	1.0
122	0x3f800000	1.0
123	0x3f800000	1.0
124	0x3f800000	1.0
125	0x3f800000	1.0
126	0x3f800000	1.0
127	0x3f800000	1.0

actor_fc_layers.blocks.1.block.0.weight f4 [128, 128]
0	0x3eb1d7b3	0.34734878
1	0x3dc63237	0.096775465
2	0xbd607aad	-0.054804493
3	0x3d6fa511	0.05850703
4	0xbee60ce4	-0.4493171
5	0xbded4209	-0.11584861
6	0xbdd28bf4	-0.102806
7	0x3d292d27	0.041302826
8	0xbe9955fb	-0.2994841
9	0xbe878d82	-0.2647515
10	0xbcae2023	-0.021255558
11	0x3e9e4916	0.30915135
12	0xbca1680f	-0.01970294
13	0x3d7c0c8b	0.0615354
14	0x3da13c17	0.07872789
15	0xbdf3c145	-0.119020976
16	0xbf18891a	-0.595842
17	0xbead0305	-0.33791366
18	0xbeb0d96d	-0.34540883
19	0x3e6426fc	0.22280496
20	0xbe23928e	-0.15973875
21	0xbdbc34a4	-0.09189728
22	0xbdd60b88	-0.10451418
23	0xbe4e3d86	-0.20140657
24	0xbe656d08	-0.22404873
25	0x3e9efcda	0.31052285
26	0x3d83739c	0.06418535
27	0xbd867253	-0.06564774
28	0x3f01e3fb	0.50738496
29	0x3dccd7a3	0.10002067
30	0x3d2f23e4	0.042758837
31	0xbd5e7720	-0.054312825
32	0x3d8216fd	0.06352041
33	0xbdd4dfe7	-0.103942685
34	0xbdb29ce4	-0.08721331
35	0x3e51c2e0	0.20484495
36	0xbeb96598	-0.36210322
37	0xbdbd5ea0	-0.09246564
38	0xbdf895a3	-0.12137916
39	0xbe56f7d3	-0.20992975
40	0x3cb551a3	0.022133654
41	0x3dde9203	0.10867693
42	0xbf454333	-0.7705566
43	0x3e50b6cd	0.20382233
44	0x3ed9b018	0.4251716
45	0x3e77c027	0.24194394
46	0x3e01f166	0.12689742
47	0xbeb7bd85	-0.3588678
48	0x3e65ac2d	0.22428961
49	0xbd640a04	-0.055673614
50	0xbf03203f	-0.5122108
51	0x3e5b3c35	0.21409686
52	0x3ed2a211	0.41139272
53	0x3eab8fc3	0.3350812
54	0x3c896c26	0.016775202
55	0x3d85f02f	0.06539952
56	0xbe89c46d	-0.26907673
57	0x3e7ab63f	0.24483584
58	0x3e06d209	0.1316606
59	0xbd872a52	-0.06599869
60	0xbe4fc656	-0.20290503
61	0xbb8729b9	-0.004124847
62	0x3cb2a143	0.021805411
63	0xbd2fe4fb	-0.042942982
64	0xbe7de853	-0.24795656
65	0x3db4f141	0.08835078
66	0xbdf5333b	-0.11972662
67	0x3e55c8dc	0.20877403
68	0xbe82e178	-0.25562644
69	0xbe93a07d	-0.2883338
70	0xbdd5ed67	-0.104456715
71	0x3d42cc4e	0.04755812
72	0x3d40923d	0.047014464
73	0x3ea5e34e	0.32399982
74	0xbe7cb0dd	-0.24676843
75	0x3dadf226	0.08493452
76	0xbf191c0e	-0.59808433
77	0x3d88ac09	0.06673438
78	0x3d623eb5	0.055235583
79	0xbd6f01fb	-0.058351498
80	0xbe8dd148	-0.2769873
81	0x3e3021aa	0.17200342
82	0xbe13bdf4	-0.1442793
83	0x3f010b55	0.50407916
84	0x3e2159d3	0.15756921
85	0x3ea26e99	0.31725004
86	0xbd647a56	-0.05578073
87	0x3d1581f1	0.036500875
88	0x3e5eac95	0.21745522
89	0xbe25fbb6	-0.16209301
90	0x3ded7b47	0.11595779
91	0x3e9ac8f3	0.30231437
92	0xbd4ed095	-0.050491888
93	0x3ccde2ba	0.025132526
94	0x3d281f1c	0.041045293
95	0xbd277e08	-0.040891677
96	0x3e000437	0.12501608
97	0xbd906c44	-0.070519
98	0xbda90cc1	-0.08254386
99	0x3ea97dba	0.33103734
100	0x3dd8b6b5	0.105817236
101	0xbeb4483c	-0.3521136
102	0xbecd1173	-0.40052375
103	0xbde4fa9c	-0.111806124
104	0x3d9e48c5	0.077287234
105	0xbe663c6e	-0.2248399
106	0x3f16b92f	0.5887632
107	0x3e31ee3f	0.1737604
108	0xbe200afe	-0.15629193
109	0x3e1fe8e2	0.15616181
110	0xbe688873	-0.22708301
111	0xbec68209	-0.38771084
112	0xbe985d44	-0.29758656
113	0xbc8e7c12	-0.017393146
114	0x3e4babd4	0.19889766
115	0x3e5bb5ce	0.21456072
116	0xbbe75508	-0.007059697
117	0x3e5002d9	0.20313586
118	0x3e825826	0.25457877
119	0xbf099549	-0.53743416
120	0xbe1e215e	-0.15442416
121	0x3ea61996	0.32441396
122	0x3e523ec4	0.20531756
123	0xbde679a7	-0.11253672
124	0xbe995a7c	-0.29951847
125	0x3dd0d3c0	0.10196638
126	0x3e0ab111	0.13544108
127	0x3ee2c46c	0.44290483
128	0x3e8b1af7	0.2716901
129	0xbcc36504	-0.023851879
130	0xbdabe5c0	-0.08393431
131	0x3e6cfe11	0.23143794
132	0x3dd89081	0.10574437
133	0x3e2035a8	0.15645468
134	0xbe20c2a6	-0.15699252
135	0x3bf1428b	0.007362669
136	0xbe0a5831	-0.13510205
137	0xbc9edcb1	-0.019392343
138	0xbe7dcfdc	-0.24786323
139	0xbe8dee73	-0.27720985
140	0xbe53fa4a	-0.20700946
141	0xbeeada5a	-0.45869714
142	0x3e17cf0d	0.14825077
143	0x3d1485b3	0.036260318
144	0x3e2fbb43	0.17161278
145	0x3ec0c57b	0.37650666
146	0x3dc1a722	0.09455706
147	0x3d0e7c24	0.03478636
148	0xbf08d34b	-0.5344741
149	0xbe82257b	-0.2541922
150	0x3dba2747	0.09089523
151	0xbe722087	-0.2364522
152	0x3e14b6bc	0.14522833
153	0x3e8db005	0.27673355
154	0xbf26d40b	-0.651673
155	0x3dc73117	0.0972616
156	0x3d5ac69b	0.05341206
157	0xbe923f90	-0.2856412
158	0xbdc27c3c	-0.09496352
159	0xbd8e0d27	-0.06936102
160	0xbe6b13b0	-0.22956729
161	0xbead462e	-0.33842605
162	0x3e00e13e	0.12585923
163	0xbe9fe531	-0.31229547
164	0x3e08c035	0.13354571
165	0x3e9596c3	0.29216585
166	0xbde014d1	-0.109414704
167	0xbda93843	-0.08262684
168	0xbde0f00c	-0.10983285
169	0xbebc6ed4	-0.36803305
170	0x3de2c7b1	0.11073244
171	0x3cd97dce	0.026549246
172	0x3e52a45c	0.2057051
173	0x3d7daa16	0.061929785
174	0xbd87962d	-0.06620441
175	0x3e930f46	0.2872259
176	0xbea70e3f	-0.32628056
177	0xbdbd52be	-0.092442974
178	0x3ef26a79	0.47346857
179	0xbefffb79	-0.49996546
180	0xbe2c8544	-0.16847712
181	0xbcd3a48e	-0.025835302
182	0x3d97ac21	0.07405878
183	0x3e17167f	0.14754675
184	0x3c2147ef	0.00984381
185	0x3e867554	0.2626139
186	0xbe50db3d	-0.20396133
187	0xbede84f9	-0.43460825
188	0x3c2d8777	0.010591379
189	0x3eb8cc64	0.36093438
190	0xbe21d2f6	-0.15803131
191	0xbdff0762	-0.1245258
192	0x3d52d015	0.051467974
193	0x3d8fb87a	0.07017608
194	0x3dff0efe	0.124540314
195	0xbe6dc3a2	-0.23219159
196	0x3e1869d5	0.14884122
197	0x3e820624	0.2539531
198	0x3e7fd7db	0.24984686
199	0xbe890393	-0.2676054
200	0xbec4031c	-0.38283622
201	0xbe644c2e	-0.22294685
202	0x3d1e32a9	0.038622532
203	0x3d11a70a	0.03555969
204	0x3e5e7c0e	0.2172701
205	0xbe8975e8	-0.26847768
206	0xbc699959	-0.014257752
207	0x3e6b6a39	0.2298974
208	0xbeab54a8	-0.33463025
209	0x3e4281ea	0.18994871
210	0x3eb1c380	0.34719467
211	0x3de30639	0.11085171
212	0xbe204039	-0.15649499
213	0x3e807cd7	0.25095245
214	0x3ed4c60f	0.41557357
215	0xbaa0abb3	-0.0012258202
216	0x3e5f8137	0.21826635
217	0xbcd6516e	-0.026161876
218	0xbe50dedd	-0.20397516
219	0xbda9b795	-0.082869686
220	0x3e136e56	0.14397559
221	0x3e0f98fb	0.14023201
222	0xbdd9d60c	-0.10636529
223	0x3d2eff6c	0.042724058
224	0xbe8b7d2f	-0.27243945
225	0x3e6f8c4b	0.23393361
226	0x3e857266	0.26063842
227	0xbe145e30	-0.14489055
228	0x3e477522	0.19478276
229	0x3e8e65ce	0.27812046
230	0xbeddeee2	-0.43346316
231	0x3ea3c272	0.31984288
232	0x3dec4230	0.11536062
233	0x3e67b436	0.22627339
234	0x3e8ec06b	0.27881178
235	0xbe19e426	-0.15028438
236	0x3e1a9bcf	0.15098499
237	0x3de2dd67	0.110773854
238	0x3e1a1474	0.15046865
239	0xbef53885	-0.47894683
240	0x3d72b2ae	0.059252433
241	0xbc26bfe5	-0.010177587
242	0xbeffc668	-0.4995606
243	0x3ea50341	0.32229045
244	0x398fd529	0.00027433902
245	0xbe317a18	-0.17331731
246	0x3e2c4f01	0.16827013
247	0xbe92ff65	-0.28710476
248	0xbee50679	-0.447315
249	0xbda1764a	-0.0788389
250	0x3e24a530	0.16078639
251	0xbe541ddb	-0.20714514
252	0x3e8a288b	0.26984057
253	0x3e8e0de4	0.27744973
254	0xbe1b3e9b	-0.15160601
255	0x3e363978	0.1779536

actor_fc_layers.blocks.1.block.1.weight f4 [128]
0	0x3fb7cc28	1.4359179
1	0x3fbd6db5	1.4799105
2	0x3fb07a8f	1.3787402
3	0x3fa0f5da	1.2575028
4	0x3f733081	0.94995886
5	0x3f9407ef	1.1564921
6	0x3fc05004	1.5024419
7	0x3f9adacf	1.2098025
8	0x3fb803f5	1.4376208
9	0x3fb9f85b	1.4528917
10	0x3fd65764	1.674542
11	0x3fbf9a3c	1.4968944
12	0x3f9d77e2	1.230221
13	0x3fa12758	1.2590132
14	0x3f763399	0.9617248
15	0x3f464e3e	0.7746314
16	0x3f7acff3	0.97973555
17	0x3fbed23d	1.490791
18	0x3f9c7d83	1.2225803
19	0x3fbb555d	1.4635426
20	0x3faae296	1.3350399
21	0x3fb962ba	1.4483254
22	0x3f6fb900	0.9364166
23	0x3f6443c0	0.8916588
24	0x3fb028e8	1.3762484
25	0x3fbe6329	1.4874011
26	0x3fa2498c	1.2678695
27	0x3fce5197	1.6118649
28	0x3f6b6d51	0.9196368
29	0x3f90b9d2	1.1306708
30	0x3fa5091b	1.2893404
31	0x3fb350a7	1.4008988
32	0x3fc29f7d	1.5204922
33	0x3fb17aff	1.386566
34	0x3fc4ee35	1.5385195
35	0x3fb91a01	1.4461061
36	0x3fad92bf	1.3560408
37	0x3fbb0390	1.4610462
38	0x3fbd78a6	1.4802444
39	0x3fa75186	1.3071754
40	0x3f9d4080	1.2285309
41	0x3fd998fd	1.6999813
42	0x3fc6942e	1.5513971
43	0x3fd149fc	1.6350703
44	0x3fd0ab4c	1.6302276
45	0x3f90f151	1.1323644
46	0x3fcfc770	1.6232738
47	0x3f98ebe3	1.1946987
48	0x3fbe14e4	1.4850125
49	0x3f737ab9	0.95109135
50	0x3f926bfe	1.1439207
51	0x3fb8310d	1.4389969
52	0x3f8611de	1.0474203
53	0x3f93b0b8	1.1538305
54	0x3fb1d349	1.3892604
55	0x3f7eade9	0.99484116
56	0x3fbd949d	1.4810978
57	0x3f7cf355	0.98808795
58	0x3fea37c6	1.8298271
59	0x3f93e684	1.1554723
60	0x3f803b15	1.001803
61	0x3fd9b0bf	1.7007064
62	0x3fbb7695	1.4645563
63	0x3fb47de0	1.4100914
64	0x3fbb43be	1.4630048
65	0x3f86c300	1.0528259
66	0x3fa77993	1.3083977
67	0x3f979d00	1.1844788
68	0x3fcc3768	1.5954409
69	0x3f65e180	0.8979721
70	0x3f9913b7	1.1959141
71	0x3fbee3a9	1.4913226
72	0x3fa19505	1.2623602
73	0x3f7393b9	0.9514728
74	0x3fae9732	1.3639891
75	0x3fc3280d	1.5246598
76	0x3f97d7ea	1.1862767
77	0x3fb51645	1.4147421
78	0x3fb96ea8	1.4486895
79	0x3fa1fa9d	1.2654606
80	0x3fb5c91a	1.4201996
81	0x3f8b7d3e	1.0897596
82	0x3f751865	0.9574035
83	0x3f90efa5	1.1323134
84	0x3f9940a3	1.197285
85	0x3fb43a83	1.4080356
86	0x3fc8b621	1.5680581
87	0x3f99287d	1.1965481
88	0x3fc48a59	1.535472
89	0x3fa603b7	1.2969884
90	0x3f794971	0.9737769
91	0x3f9acc8d	1.2093674
92	0x3fc4bd5f	1.5370291
93	0x3f968c78	1.1761618
94	0x3f7aebcd	0.98016053
95	0x3fce9ddd	1.6141926
96	0x3fb34fcf	1.4008731
97	0x3fb0b311	1.3804647
98	0x3fcb9554	1.5904946
99	0x3f9b8fcc	1.2153258
100	0x3fc85187	1.564988
101	0x3f828133	1.0195678
102	0x3f7c40d1	0.985364
103	0x3fa2f397	1.2730588
104	0x3fd19461	1.6373407
105	0x3fb01866	1.3757446
106	0x3f7c4e19	0.9855667
107	0x3fb7eaad	1.4368492
108	0x3fa64177	1.2988728
109	0x3fc27457	1.5191754
110	0x3fb463ff	1.4093016
111	0x3fa06dce	1.253351
112	0x3fb105a4	1.3829846
113	0x3faa2b3b	1.3294443
114	0x3f85f3a2	1.0464976
115	0x3f7939d1	0.97353846
116	0x3fa91e1a	1.3212311
117	0x3f80217f	1.0010222
118	0x3fb30dd9	1.3988601
119	0x3f775b66	0.9662384
120	0x3fb8622a	1.4404957
121	0x3fb7a494	1.43471
122	0x3fc110fd	1.508331
123	0x3fa10fe0	1.258297
124	0x3fbb1c2d	1.4617974
125	0x3fb8247f	1.4386138
126	0x3fa90d9b	1.3207277
127	0x3fa619c8	1.2976618

actor_fc_layers.blocks.1.block.1.bias f4 [128]
0	0x3daf98dc	0.085740775
1	0xbdbf3c4d	-0.09337673
2	0xbe5247f4	-0.2053526
3	0x3ec2b141	0.3802586
4	0xbd6d7939	-0.057976935
5	0xbe675e55	-0.22594579
6	0xbdb67046	-0.08908133
7	0xbd9680c0	-0.07348776
8	0x3e89d6cc	0.2692169
9	0x3e887606	0.26652545
10	0xbd931eb9	-0.07183594
11	0x3e43d0a0	0.19122553
12	0xbe08bced	-0.1335332
13	0xbed9b893	-0.4252363
14	0xbd644ebd	-0.055739153
15	0x3ee22896	0.4417159
16	0x3e59b902	0.21261981
17	0x3e3e44b1	0.18580891
18	0xbce9db06	-0.028546821
19	0xbd0ee79d	-0.034888852
20	0x3e4fbcb0	0.20286822
21	0x3e9a0498	0.3008163
22	0xbd78486a	-0.060615934
23	0x3e885762	0.26629168
24	0x3a8d70b5	0.0010791036
25	0x3e19cabb	0.15018742
26	0xbdf82f6a	-0.121184185
27	0xbe751c1a	-0.23936501
28	0x3effebe5	0.4998466
29	0x3ea0a627	0.31376764
30	0xbd518584	-0.05115272
31	0x3d98e336	0.07465212
32	0x3e165b02	0.14683154
33	0x3d4d82c8	0.05017355
34	0xbddf02cc	-0.10889205
35	0xbe31ee96	-0.1737617
36	0xbe9d73d3	-0.3075243
37	0x3e31f95b	0.17380278
38	0xbc88bba5	-0.016691038
39	0x3d021ab9	0.031763766
40	0xbdcde976	-0.10054295
41	0xbe14a90a	-0.14517608
42	0x3d971d90	0.073786855
43	0xbd342cab	-0.04398791
44	0xbdeb1849	-0.114792414
45	0x3f16ea33	0.5895111
46	0x3e38f470	0.18061996
47	0xbe0f2e23	-0.13982444
48	0xbd371ce5	-0.04470529
49	0xbd81b743	-0.063337825
50	0x3e523f0d	0.20531864
51	0x3b3be7b2	0.0028672037
52	0x3d855c56	0.06511752
53	0xbebffd1f	-0.37497804
54	0xbe2233ad	-0.15840025
55	0xbc87de43	-0.016585475
56	0xbe4f9010	-0.20269799
57	0xbcdc2804	-0.02687455
58	0x3c9c9929	0.019116001
59	0x3e1d5547	0.15364562
60	0xbdc3968f	-0.09550201
61	0xbefb1982	-0.49042898
62	0xbe60ec4b	-0.21965139
63	0xbdd2d3ec	-0.10294327
64	0xbd619427	-0.05507293
65	0x3c6aeca7	0.014338649
66	0x3e4f11cc	0.20221633
67	0x3e867690	0.2626233
68	0xbe8d0395	-0.27541795
69	0xbdf08906	-0.11744885
70	0x3e9f7865	0.3114654
71	0xbe75af67	-0.23992692
72	0x39872237	0.000257747
73	0xbd53e20c	-0.051729247
74	0x3ef4ec1f	0.47836396
75	0xbd6652f4	-0.056231454
76	0x3d9f9b5b	0.077933036
77	0x3ddac9eb	0.10683044
78	0xbdc395d1	-0.095500596
79	0xbd8dc43c	-0.06922194
80	0xbbb83a43	-0.0056221797
81	0x3e328312	0.17432812
82	0xbd356172	-0.044282384
83	0x3ecd5c93	0.4010969
84	0x3e4d622d	0.20056982
85	0x3e529e79	0.20568265
86	0x3d57abbf	0.052654024
87	0x3e0f4015	0.13989289
88	0xbefcc376	-0.49367875
89	0xbb3a292a	-0.0028405883
90	0xbd5593a4	-0.052142754
91	0x3da8801f	0.08227562
92	0x3e6e01fd	0.23242946
93	0x3e3f36dc	0.18673271
94	0xbd0098a4	-0.03139557
95	0x3dfdedd7	0.1239888
96	0xbd1f99ee	-0.03896516
97	0x3dee8603	0.116466545
98	0xbe0972b3	-0.1342266
99	0xbba7ad51	-0.0051170965
100	0x3d479161	0.04872263
101	0x3d9f5009	0.07778937
102	0xbc8d0053	-0.017212069
103	0x3da5a09e	0.08087276
104	0xbef381d0	-0.47559977
105	0x3d4e87d1	0.050422493
106	0xbd53b8a4	-0.05168976
107	0xbe4f2219	-0.20227851
108	0xbe8288a6	-0.2549488
109	0xbd15a98a	-0.03653864
110	0x3df72ac9	0.120687075
111	0x3d8651fb	0.06558605
112	0xbd6842a7	-0.05670419
113	0x3ef7b57a	0.48380643
114	0xbe402eaf	-0.18767808
115	0xbcdd7150	-0.02703157
116	0xbd58f8d7	-0.052971687
117	0xbcf1f352	-0.02953497
118	0x3dc2692c	0.09492716
119	0x3ed1dcfd	0.40988913
120	0x3d5076f4	0.050894693
121	0xbe8edf4e	-0.27904743
122	0xbe8bc94a	-0.2730201
123	0xbe02e59b	-0.127829
124	0x3cbeca26	0.023289751
125	0xbeb37b31	-0.35054925
126	0xbaf9c1c8	-0.0019054944
127	0x3c3691fb	0.011143203

actor_fc_layers.blocks.1.block.1.running_mean f4 [128]
0	0x00000000	0.0
1	0x00000000	0.0
2	0x00000000	0.0
3	0x00000000	0.0
4	0x00000000	0.0
5	0x00000000	0.0
6	0x00000000	0.0
7	0x00000000	0.0
8	0x00000000	0.0
9	0x00000000	0.0
10	0x00000000	0.0
11	0x00000000	0.0
12	0x00000000	0.0
13	0x00000000	0.0
14	0x00000000	0.0
15	0x00000000	0.0
16	0x00000000	0.0
17	0x00000000	0.0
18	0x00000000	0.0
19	0x00000000	0.0
20	0x00000000	0.0
21	0x00000000	0.0
22	0x00000000	0.0
23	0x00000000	0.0
24	0x00000000	0.0
25	0x00000000	0.0
26	0x00000000	0.0
27	0x00000000	0.0
28	0x00000000	0.0
29	0x00000000	0.0
30	0x00000000	0.0
31	0x00000000	0.0
32	0x00000000	0.0
33	0x00000000	0.0
34	0x00000000	0.0
35	0x00000000	0.0
36	0x00000000	0.0
37	0x00000000	0.0
38	0x00000000	0.0
39	0x00000000	0.0
40	0x00000000	0.0
41	0x00000000	0.0
42	0x00000000	0.0
43	0x00000000	0.0
44	0x00000000	0.0
45	0x00000000	0.0
46	0x00000000	0.0
47	0x00000000	0.0
48	0x00000000	0.0
49	0x00000000	0.0
50	0x00000000	0.0
51	0x00000000	0.0
52	0x00000000	0.0
53	0x00000000	0.0
54	0x00000000	0.0
55	0x00000000	0.0
56	0x00000000	0.0
57	0x00000000	0.0
58	0x00000000	0.0
59	0x00000000	0.0
60	0x00000000	0.0
61	0x00000000	0.0
62	0x00000000	0.0
63	0x00000000	0.0
64	0x00000000	0.0
65	0x00000000	0.0
66	0x00000000	0.0
67	0x00000000	0.0
68	0x00000000	0.0
69	0x00000000	0.0
70	0x00000000	0.0
71	0x00000000	0.0
72	0x00000000	0.0
73	0x00000000	0.0
74	0x00000000	0.0
75	0x00000000	0.0
76	0x00000000	0.0
77	0x00000000	0.0
78	0x00000000	0.0
79	0x00000000	0.0
80	0x00000000	0.0
81	0x00000000	0.0
82	0x00000000	0.0
83	0x00000000	0.0
84	0x00000000	0.0
85	0x00000000	0.0
86	0x00000000	0.0
87	0x00000000	0.0
88	0x00000000	0.0
89	0x00000000	0.0
90	0x00000000	0.0
91	0x00000000	0.0
92	0x00000000	0.0
93	0x00000000	0.0
94	0x00000000	0.0
95	0x00000000	0.0
96	0x00000000	0.0
97	0x00000000	0.0
98	0x00000000	0.0
99	0x00000000	0.0
100	0x00000000	0.0
101	0x00000000	0.0
102	0x00000000	0.0
103	0x00000000	0.0
104	0x00000000	0.0
105	0x00000000	0.0
106	0x00000000	0.0
107	0x00000000	0.0
108	0x00000000	0.0
109	0x00000000	0.0
110	0x00000000	0.0
111	0x00000000	0.0
112	0x00000000	0.0
113	0x00000000	0.0
114	0x00000000	0.0
115	0x00000000	0.0
116	0x00000000	0.0
117	0x00000000	0.0
118	0x00000000	0.0
119	0x00000000	0.0
120	0x00000000	0.0
121	0x00000000	0.0
122	0x00000000	0.0
123	0x00000000	0.0
124	0x00000000	0.0
125	0x00000000	0.0
126	0x00000000	0.0
127	0x00000000	0.0

actor_fc_layers.blocks.1.block.1.running_var f4 [128]
0	0x3f800000	1.0
1	0x3f800000	1.0
2	0x3f800000	1.0
3	0x3f800000	1.0
4	0x3f800000	1.0
5	0x3f800000	1.0
6	0x3f800000	1.0
7	0x3f800000	1.0
8	0x3f800000	1.0
9	0x3f800000	1.0
10	0x3f800000	1.0
11	0x3f800000	1.0
12	0x3f800000	1.0
13	0x3f800000	1.0
14	0x3f800000	1.0
15	0x3f800000	1.0
16	0x3f800000	1.0
17	0x3f800000	1.0
18	0x3f800000	1.0
19	0x3f800000	1.0
20	0x3f800000	1.0
21	0x3f800000	1.0
22	0x3f800000	1.0
23	0x3f800000	1.0
24	0x3f800000	1.0
25	0x3f800000	1.0
26	0x3f800000	1.0
27	0x3f800000	1.0
28	0x3f800000	1.0
29	0x3f800000	1.0
30	0x3f800000	1.0
31	0x3f800000	1.0
32	0x3f800000	1.0
33	0x3f800000	1.0
34	0x3f800000	1.0
35	0x3f800000	1.0
36	0x3f800000	1.0
37	0x3f800000	1.0
38	0x3f800000	1.0
39	0x3f800000	1.0
40	0x3f800000	1.0
41	0x3f800000	1.0
42	0x3f800000	1.0
43	0x3f800000	1.0
44	0x3f800000	1.0
45	0x3f800000	1.0
46	0x3f800000	1.0
47	0x3f800000	1.0
48	0x3f800000	1.0
49	0x3f800000	1.0
50	0x3f800000	1.0
51	0x3f800000	1.0
52	0x3f800000	1.0
53	0x3f800000	1.0
54	0x3f800000	1.0
55	0x3f800000	1.0
56	0x3f800000	1.0
57	0x3f800000	1.0
58	0x3f800000	1.0
59	0x3f800000	1.0
60	0x3f800000	1.0
61	0x3f800000	1.0
62	0x3f800000	1.0
63	0x3f800000	1.0
64	0x3f800000	1.0
65	0x3f800000	1.0
66	0x3f800000	1.0
67	0x3f800000	1.0
68	0x3f800000	1.0
69	0x3f800000	1.0
70	0x3f800000	1.0
71	0x3f800000	1.0
72	0x3f800000	1.0
73	0x3f800000	1.0
74	0x3f800000	1.0
75	0x3f800000	1.0
76	0x3f800000	1.0
77	0x3f800000	1.0
78	0x3f800000	1.0
79	0x3f800000	1.0
80	0x3f800000	1.0
81	0x3f800000	1.0
82	0x3f800000	1.0
83	0x3f800000	1.0
84	0x3f800000	1.0
85	0x3f800000	1.0
86	0x3f800000	1.0
87	0x3f800000	1.0
88	0x3f800000	1.0
89	0x3f800000	1.0
90	0x3f800000	1.0
91	0x3f800000	1.0
92	0x3f800000	1.0
93	0x3f800000	1.0
94	0x3f800000	1.0
95	0x3f800000	1.0
96	0x3f800000	1.0
97	0x3f800000	1.0
98	0x3f800000	1.0
99	0x3f800000	1.0
100	0x3f800000	1.0
101	0x3f800000	1.0
102	0x3f800000	1.0
103	0x3f800000	1.0
104	0x3f800000	1.0
105	0x3f800000	1.0
106	0x3f800000	1.0
107	0x3f800000	1.0
108	0x3f800000	1.0
109	0x3f800000	1.0
110	0x3f800000	1.0
111	0x3f800000	1.0
112	0x3f800000	1.0
113	0x3f800000	1.0
114	0x3f800000	1.0
115	0x3f800000	1.0
116	0x3f800000	1.0
117	0x3f800000	1.0
118	0x3f800000	1.0
119	0x3f800000	1.0
120	0x3f800000	1.0
121	0x3f800000	1.0
122	0x3f800000	1.0
123	0x3f800000	1.0
124	0x3f800000	1.0
125	0x3f800000	1.0
126	0x3f800000	1.0
127	0x3f800000	1.0

actor_fc_layers.blocks.2.block.0.weight f4 [128, 128]
0	0x3cbebf2d	0.02328452
1	0x3e63962c	0.22225255
2	0xbe9f8110	-0.31153154
3	0xbe620978	-0.22073925
4	0x3d686218	0.056734174
5	0x3e1b6f3f	0.15179156
6	0x3ed4ba5c	0.4154843
7	0xbc9d4018	-0.019195601
8	0xbe709add	-0.23496576
9	0xbb93d7e7	-0.0045118215
10	0x3ddf884a	0.10914667
11	0xbc368319	-0.011139655
12	0x3be5cd78	0.007013019
13	0x3de31779	0.110884614
14	0x3d1b9587	0.037984397
15	0xbe9d5f1e	-0.3073663
16	0xbdd1c8f2	-0.102434054
17	0xbeb916df	-0.36150262
18	0xbed3d26a	-0.4137147
19	0xbe4acc76	-0.19804558
20	0xbe87dff8	-0.26538062
21	0x3de73c3d	0.112907864
22	0xbda7a059	-0.08184881
23	0xbdc8a6a6	-0.09797411
24	0x3e7a9113	0.24469404
25	0x3df353b3	0.11881199
26	0xbd768029	-0.060180817
27	0xbef0123d	-0.46888915
28	0x3bd73dd6	0.0065686507
29	0xbc4cdba1	-0.0125035355
30	0x3e393927	0.18088208
31	0x3e331b06	0.17490777
32	0x3e986b27	0.2976925
33	0x3e5b1a6a	0.21396795
34	0xbdbf192e	-0.093309745
35	0xbd83d2b6	-0.06436674
36	0xbe747067	-0.23871003
37	0xbd1c36af	-0.038138088
38	0xbe814275	-0.25246015
39	0x3cc42dd8	0.023947641
40	0xbe832105	-0.2561113
41	0xbb64237b	-0.0034811187
42	0x3df4e7a4	0.119582444
43	0x3d64d02c	0.05586259
44	0x3de19538	0.11014789
45	0xbe61a2aa	-0.22034708
46	0x3d8f3030	0.06991613
47	0xbdb43f9a	-0.088011935
48	0xbec5591e	-0.38544554
49	0xbd56ce7c	-0.052443013
50	0x3cd1e34d	0.02562108
51	0x3e29ce28	0.16582549
52	0xbe7ac30a	-0.24488464
53	0x3eff38a6	0.49847907
54	0x3e1e6d44	0.15471369
55	0x38ceaf2e	9.855475e-05
56	0xbebfad74	-0.37437022
57	0x3d81ead2	0.063436165
58	0x3e22d392	0.1590102
59	0x3e4ead9f	0.20183419
60	0xbd251784	-0.04030563
61	0x3cdbc976	0.026829462
62	0xbe54e691	-0.20791079
63	0x3b879010	0.0041370466
64	0xbf0f67da	-0.5601784
65	0xbedcf7b3	-0.4315773
66	0x3e016049	0.12634386
67	0xbc4f8073	-0.012664902
68	0x3d92b3e3	0.07163217
69	0xbd5fbb7c	-0.05462216
70	0xbd42194a	-0.0473874
71	0xbe80a62c	-0.2512678
72	0xbe3a6d8e	-0.18205854
73	0xbd9e1a74	-0.07719889
74	0xbc87dd90	-0.016585141
75	0xbe979d82	-0.29612356
76	0xbeb02ec0	-0.34410667
77	0xbe76986a	-0.24081579
78	0x3e7435ff	0.23848723
79	0x3dc22edf	0.09481596
80	0x3e733112	0.23749188
81	0x3c006f27	0.007839001
82	0x3d7a4371	0.061099473
83	0xbe23cec4	-0.15996844
84	0xbe01cd2a	-0.1267592
85	0xbd8b7915	-0.06810204
86	0xbdae5424	-0.08512142
87	0x3eb2f6cd	0.3495392
88	0xbf18b5b1	-0.5965224
89	0xbed95558	-0.42447925
90	0x3d0dbd62	0.034604438
91	0x3e278c19	0.16362037
92	0xbd04c324	-0.032412663
93	0xbe10cc12	-0.14140347
94	0xbda2498d	-0.07924185
95	0x3de744f3	0.11292448
96	0xbe647f67	-0.22314225
97	0x3bfbdb6f	0.0076860706
98	0xbd18e6c1	-0.03732944
99	0x3e8f4bff	0.27987668
100	0x3bfb56eb	0.0076702735
101	0xbc34b2bf	-0.0110289445
102	0x3d4525c7	0.04813173
103	0xbcf8c7d8	-0.03036873
104	0x3ee39d28	0.44455838
105	0xbedb08cc	-0.4278015
106	0xbd92db27	-0.07170706
107	0xbea90ead	-0.3301901
108	0x3ebce492	0.36893135
109	0x3dc8087d	0.09767244
110	0xbb6d7c84	-0.0036237547
111	0x3df2e37c	0.118597955
112	0xbf0d498a	-0.55190337
113	0xbc302c64	-0.010752771
114	0xbd6affa0	-0.05737269
115	0x3d2e9c3d	0.04262947
116	0xbeeec4f0	-0.46634626
117	0xbcafd3f4	-0.021463372
118	0x3e5fc125	0.21851023
119	0x3db7affd	0.08969114
120	0xbf0d1916	-0.55116403
121	0xbdb4fa44	-0.08836797
122	0xbe4b734a	-0.19868198
123	0xbdbb1662	-0.091351286
124	0x3e080d26	0.13286266
125	0xbe8b1b71	-0.27169374
126	0xbd6913a0	-0.05690348
127	0xbe498421	-0.1967931
128	0x3d6995ee	0.05702775
129	0x3e1c50cc	0.15265197
130	0xbdfae865	-0.12251357
131	0xbcc44dae	-0.023962822
132	0xbd37e851	-0.04489929
133	0x3ca9d275	0.020730237
134	0x3e390841	0.18069555
135	0x3dab9474	0.083779246
136	0x3d8aace8	0.067712605
137	0xbe660f45	-0.22466762
138	0x3e38c74a	0.18044773
139	0x3d82d763	0.06388738
140	0x3df1c448	0.11805016
141	0x3e986aa9	0.29768875
142	0x3d3a9c1e	0.04555904
143	0xbe483b49	-0.19553865
144	0xbe749ebe	-0.2388868
145	0xbda5de34	-0.080990225
146	0xbe71c0f4	-0.23608762
147	0xbe46e722	-0.19424108
148	0x3da36b78	0.079794824
149	0xbefc8950	-0.4932351
150	0x3dc04682	0.09388448
151	0x3e1cc455	0.1530927
152	0x3e424c0e	0.18974325
153	0x3e83b9b4	0.25727618
154	0xbe12a157	-0.14319359
155	0xbd49a671	-0.049230997
156	0x3e046dcf	0.12932514
157	0xbd84325f	-0.0645492
158	0x3e9031d1	0.28163007
159	0x3e38501f	0.17999314
160	0x3e432eca	0.19060817
161	0xbe320785	-0.17385681
162	0xbe4dfdde	-0.20116374
163	0xbdf5f41c	-0.12009451
164	0xbdada7e5	-0.08479289
165	0xbe4d719c	-0.2006287
166	0x3e2aa441	0.1666422
167	0x3d1bc6a9	0.038031254
168	0xbe9f9246	-0.31166285
169	0x3efa2811	0.48858693
170	0x3f07b4ab	0.5301005
171	0x3ca9ddfa	0.02073573
172	0x3e903cb4	0.28171313
173	0x3e8d3bca	0.27584678
174	0x3eb6a7ee	0.35674995
175	0xbea41f78	-0.3205526
176	0xbec6023c	-0.3867358
177	0xbc2a8c64	-0.010409448
178	0x3d02d848	0.031944543
179	0x3ed5e60f	0.41777083
180	0x3db98e2e	0.09060322
181	0x3d97bde3	0.07409265
182	0xbe3534ea	-0.17695966
183	0x3d78121e	0.060564153
184	0x3c3ac501	0.011399508
185	0x3d7017ed	0.058616567
186	0xbda67c87	-0.081292205
187	0x3cf54d0a	0.029943962
188	0xbdfe6479	-0.124215074
189	0x3d9c10e8	0.07620412
190	0xbee823d6	-0.4533984
191	0x3ec80644	0.3906728
192	0x3e0e1548	0.13875306
193	0xbdf5afc8	-0.11996418
194	0xbe9160a4	-0.28394043
195	0xbedffe24	-0.4374858
196	0x3ed8c243	0.4233571
197	0x3ce1412a	0.027496893
198	0xbc974816	-0.01846699
199	0xbf0ff1d8	-0.562284
200	0xbea19c8b	-0.31564745
201	0x3d7f6969	0.062356386
202	0xbeaab66b	-0.333423
203	0xbf320306	-0.69535863
204	0xbee24f0f	-0.44200942
205	0x3ef58a8f	0.47957274
206	0xbe0134a7	-0.12617742
207	0x3c9f85c9	0.019472973
208	0x3e94fbc4	0.29098332
209	0xbe07b213	-0.13251524
210	0xbd49b29f	-0.049242612
211	0xbe2385b7	-0.15968977
212	0xbe779494	-0.24177772
213	0x3dd39c88	0.1033259
214	0x3e11dcfb	0.14244454
215	0x3e8fb7ce	0.2806992
216	0x3df0dc3e	0.11760758
217	0xbed5b6b4	-0.41740954
218	0xbd635139	-0.05549738
219	0xbe562322	-0.2091184
220	0xbd93327e	-0.07187365
221	0x3e3e3a0e	0.18576834
222	0x3d965ccf	0.073419206
223	0x3cdc2393	0.026872432
224	0xbf0f38d7	-0.55946106
225	0x3dfd2ac2	0.12361671
226	0x3d825efc	0.06365773
227	0x3c139b3c	0.009009179
228	0xbec1cbc7	-0.37850782
229	0xbe3372b7	-0.17524229
230	0x3deb390e	0.11485492
231	0xbcf978fe	-0.030453201
232	0x3d8d9824	0.06913784
233	0xbf23c608	-0.63974047
234	0xbdeed801	-0.11662293
235	0x3e64db8b	0.22349374
236	0xbed9cd30	-0.42539358
237	0xbcba744f	-0.022760538
238	0x3dc80be6	0.097678944
239	0x3eb52daa	0.353864
240	0xbee86a8a	-0.45393783
241	0xbe89154c	-0.2677406
242	0xbdcf5727	-0.10124045
243	0x3dc108a7	0.094254784
244	0xbd72916a	-0.05922071
245	0xbd39313a	-0.04521296
246	0x3e5cf3cd	0.21577378
247	0x3dcc69a4	0.09981087
248	0xbf24c6f7	-0.64366096
249	0x3f1cdfb7	0.6127886
250	0xbc0fdd66	-0.008780813
251	0x3e121ee0	0.1426959
252	0x3e1d242c	0.1534583
253	0x3e3854aa	0.18001047
254	0xbcaf0f11	-0.021369489
255	0xbe8a227f	-0.26979443

actor_fc_layers.blocks.2.block.1.weight f4 [128]
0	0x3f548ee1	0.83030516
1	0x3fa77bc2	1.3084643
2	0x3fb0b2c5	1.3804556
3	0x4017479e	2.3637462
4	0x3fa99cb4	1.3250947
5	0x3fa3b4e9	1.2789584
6	0x3f8d25f6	1.102721
7	0x3fc395c5	1.5280081
8	0x3ffb5724	1.9635968
9	0x400482a6	2.0704741
10	0x3fb8cc65	1.4437376
11	0x3f979c95	1.184466
12	0x3f9c4d6f	1.2211131
13	0x3fd2b151	1.6460363
14	0x3fc78867	1.5588502
15	0x3f64ae79	0.89328724
16	0x3fafc3b6	1.3731601
17	0x3f90da8a	1.1316693
18	0x3f88f52b	1.0699819
19	0x3fa87322	1.3160136
20	0x40005b9b	2.0055912
21	0x4047ef73	3.1239898
22	0x3f7b291c	0.981096
23	0x3fe2a6d3	1.7707161
24	0x3fd0565e	1.6276357
25	0x3f624182	0.88381207
26	0x3f6fe0d8	0.9370246
27	0x3f72c665	0.94833976
28	0x3fe8ce9c	1.8188052
29	0x3ff36b3d	1.9017102
30	0x3f9d56fe	1.2292173
31	0x3f6eecff	0.9333038
32	0x3f6e943c	0.9319494
33	0x3f639210	0.8889475
34	0x401178cb	2.2729976
35	0x3f92137e	1.1412199
36	0x3fe90e40	1.8207474
37	0x3fede1d7	1.8584546
38	0x3fa2dd53	1.2723793
39	0x3f9dcbe6	1.232785
40	0x3f71ee3d	0.9450415
41	0x3fb5f4aa	1.421529
42	0x3fa6bc1f	1.302616
43	0x40066d4c	2.100421
44	0x3f776933	0.96644896
45	0x3ff71025	1.9301802
46	0x3fbbc156	1.4668376
47	0x3faf7903	1.3708805
48	0x3ffe142b	1.9849905
49	0x3f756bed	0.95867807
50	0x3f9e3593	1.23601
51	0x3f8c5389	1.0962993
52	0x3f929237	1.1450871
53	0x3f9c2c46	1.2201011
54	0x3faba78b	1.3410505
55	0x40539300	3.3058472
56	0x3f9dc531	1.2325803
57	0x3f9e8ad8	1.2386122
58	0x3fb9ecc6	1.4525383
59	0x3fbca781	1.4738618
60	0x3fc5c8fe	1.5451963
61	0x3fb73d3a	1.431556
62	0x3f97ad0e	1.1849687
63	0x401aef31	2.420849
64	0x3fc3c49f	1.5294379
65	0x3fa0e1a5	1.2568861
66	0x3fc6f6ee	1.5544107
67	0x3fad70c9	1.3550044
68	0x3fa4cc53	1.2874855
69	0x3fd4eb85	1.6634375
70	0x3fa18772	1.261946
71	0x401273ee	2.2883258
72	0x3f8b98c5	1.0905997
73	0x3f9ba461	1.215954
74	0x3fa1f4d8	1.2652845
75	0x3fb5cca1	1.4203073
76	0x3fa78b45	1.3089377
77	0x3f841b1f	1.0320777
78	0x3f64fee8	0.89451456
79	0x3fb5dcc5	1.4207999
80	0x402e6380	2.724823
81	0x3f843e0b	1.0331434
82	0x3f76821d	0.9629229
83	0x3fbbd77b	1.4675134
84	0x401142db	2.2697055
85	0x3f9e18e2	1.2351344
86	0x3f857a60	1.0427971
87	0x3f7a977c	0.97887397
88	0x3f94ae24	1.1615644
89	0x3fa52b9c	1.2903934
90	0x3fd7e625	1.686711
91	0x4003378c	2.0502653
92	0x3fc440bf	1.5332259
93	0x4015b223	2.3389976
94	0x3f92f68a	1.1481488
95	0x3feb890a	1.8401196
96	0x3fcd1214	1.6021142
97	0x3faa5abf	1.3308944
98	0x3fdb3fad	1.7128807
99	0x3fecbdd3	1.849543
100	0x3fad41cb	1.3535703
101	0x3f68c104	0.9091952
102	0x3f9b75f7	1.2145375
103	0x3fa95cc0	1.323143
104	0x3fe8d726	1.8190658
105	0x3f9b7065	1.2143675
106	0x400dbb35	2.2145512
107	0x3fd7beb8	1.6855078
108	0x3fa4909c	1.2856631
109	0x3f9fc39f	1.2481574
110	0x3f9925fe	1.1964719
111	0x3f855596	1.0416744
112	0x3fbd33c1	1.4781419
113	0x3fdd8585	1.7306372
114	0x3fb60526	1.4220321
115	0x3fcc185e	1.5944936
116	0x3f6f48e4	0.934706
117	0x3fcf4723	1.6193584
118	0x3fabdbd3	1.342646
119	0x3fa493f1	1.2857648
120	0x3f5ecac5	0.8702815
121	0x3fc20c67	1.5160035
122	0x3f9613d8	1.1724806
123	0x3f9c3eab	1.2206625
124	0x3f5e7184	0.8689196
125	0x3fbb5cd0	1.4637699
126	0x3fd3c75a	1.6545212
127	0x3fb2a070	1.3955212

actor_fc_layers.blocks.2.block.1.bias f4 [128]
0	0xbe51578c	-0.20443553
1	0xbe7c4bbc	-0.24638265
2	0xbe1fd0e9	-0.15607037
3	0x3d80b281	0.06284047
4	0xbeacf71c	-0.3378228
5	0x3e294ed5	0.16533978
6	0x3e89163f	0.26774785
7	0x3e5f8f9c	0.21832126
8	0xbe5bcd25	-0.21464975
9	0xbea0cd98	-0.31406856
10	0x3e615bfa	0.22007743
11	0x3dda673d	0.106642224
12	0x3e993307	0.29921743
13	0xbdd1417a	-0.10217567
14	0xbe4aff75	-0.19824012
15	0x3f06c149	0.5263868
16	0xbcdb2233	-0.026749706
17	0x3e244f6c	0.16045922
18	0xbdd2f213	-0.10300078
19	0x3dfbd14e	0.12295781
20	0x3eefc06b	0.4682649
21	0x3e35b99c	0.17746586
22	0x3ea0ea13	0.31428584
23	0xbca18bef	-0.019720046
24	0xbeb00eec	-0.34386384
25	0x3d6d29da	0.05790124
26	0xbd918ebc	-0.071073025
27	0x3eb646b8	0.3560083
28	0x3e148ba4	0.14506394
29	0xbde898e9	-0.1135729
30	0x3e89c2ec	0.26906526
31	0x3dbb5299	0.09146614
32	0xbdacd0db	-0.084382735
33	0xbdd92e4c	-0.106045336
34	0x3e1953dd	0.14973398
35	0xbca864d1	-0.020555886
36	0xbd93ec1a	-0.07222767
37	0x3e807f87	0.25097296
38	0xbe667040	-0.22503757
39	0xbe444b96	-0.19169459
40	0xbd9ed52c	-0.07755503
41	0xbea5d92c	-0.32392251
42	0xbf37b803	-0.71765155
43	0x3f1abfe0	0.6044903
44	0x3d82e710	0.06391728
45	0xbeb63549	-0.35587528
46	0x3e6ae6b3	0.22939567
47	0x3d4dfde9	0.050290976
48	0x3e6faa22	0.23404744
49	0x3f1bc9fe	0.6085509
50	0x3ed51835	0.4162003
51	0xbe59744e	-0.21235773
52	0x3d884c61	0.06655193
53	0x3e123039	0.14276208
54	0xbdbfbc1f	-0.09362053
55	0x3e297bf3	0.16551189
56	0xbeec0a96	-0.46101826
57	0xbecd965d	-0.4015378
58	0xbea8fa91	-0.33003667
59	0xbe54d8d8	-0.20785844
60	0xbe91b372	-0.28457218
61	0x3e16b77e	0.14718434
62	0xbd3885e7	-0.045049574
63	0x3d0c3f9d	0.034240354
64	0xbe1f11c6	-0.15534124
65	0x3e453a0c	0.19260424
66	0x3d4b9501	0.049702648
67	0x3e01b5a4	0.12666947
68	0xbec428e5	-0.3831245
69	0x3dc342d3	0.0953423
70	0x3dc34268	0.0953415
71	0x3dd96116	0.10614221
72	0x3e2af823	0.16696219
73	0x3eda72b9	0.4266565
74	0x3d70b76d	0.05876868
75	0x3eab30e6	0.33435744
76	0xbd84f640	-0.06492281
77	0xbe289387	-0.16462527
78	0xbdeb8d09	-0.1150151
79	0xbe86baa9	-0.26314285
80	0x3e80e567	0.2517502
81	0x3d9e0d70	0.07717407
82	0xbd7f1ae6	-0.06228151
83	0x3e9270c1	0.2860165
84	0x3ec9a3a8	0.39382672
85	0x3e75c846	0.2400218
86	0xbea4129c	-0.32045448
87	0xbe5ae59f	-0.21376656
88	0xbe8e3d17	-0.27780983
89	0xbf1613a1	-0.586237
90	0xbc8bd20d	-0.017067933
91	0x3f2d1577	0.6761088
92	0x3dd40b5e	0.103537306
93	0x3eca205c	0.39477813
94	0xbeec8581	-0.46195605
95	0x3d22520f	0.03962904
96	0x3dbb98a2	0.09159972
97	0x3db4dc0a	0.088310316
98	0x3e016016	0.1263431
99	0x3ed53529	0.4164212
100	0xbebb0d67	-0.36533663
101	0xbdd81890	-0.1055156
102	0x3d988b06	0.074483916
103	0xbe06b710	-0.1315577
104	0xbe826a7a	-0.2547186
105	0x3ea192cb	0.31557307
106	0xbe094c1d	-0.13407941
107	0x3e3ad075	0.18243583
108	0x3cce832e	0.025209036
109	0x3d8af225	0.06784467
110	0x3ea21140	0.31653786
111	0x3e01c5a9	0.12673058
112	0x3dd667c1	0.10469008
113	0xbdaeb94d	-0.08531437
114	0x3b83a73e	0.0040177396
115	0xbde38252	-0.11108841
116	0xbdbd59ae	-0.09245621
117	0x3f045718	0.51695395
118	0x3dd7f878	0.105454385
119	0x3ec9e773	0.39434394
120	0x3ea54496	0.3227889
121	0x3f14932c	0.58037066
122	0x3f41613a	0.7553898
123	0xbe4631bf	-0.19354914
124	0x3e542c2e	0.20719978
125	0xbecf9073	-0.40539894
126	0xbb5db93a	-0.0033832327
127	0x3da828bd	0.08210895
