saved_models/agent_maddpgv2_vs_opp_maddpgv2_2_vs_2_1_big_adver_best_models/maddpgv2_actor_1.pt (torch, 160779 bytes, 21 tensors)

actor_fc_layers.blocks.0.block.0.weight f4 [128, 22]
-0.06471043 -0.22761117 0.47942075 -0.074006416 0.019057047 0.22722332 -0.033652697 -0.06938636
0.11422464 -0.16529097 0.0770787 0.14379363 0.0035014362 0.51931727 -0.6213394 0.07404811
0.10929342 -0.3024386 -0.074154474 0.097586304 -0.11283932 -0.12865372 -0.022528566 -0.49157387
-0.1506331 0.28204328 0.00020260226 0.26152053 -0.18636738 -0.10734257 0.31393573 -0.11807574
-0.18869007 0.16059116 -0.076476626 0.14089875 -0.6104805 -0.43807578 -0.19439213 -0.05439796
-0.073526904 0.061943088 -0.14713633 -0.041934278 0.038627267 -0.3255357 0.042201754 0.6149213
-0.038622834 0.17143846 -0.15233529 0.053380568 -0.060023647 0.20499404 0.017985482 0.19675143
0.52817273 -0.49789706 -0.34136194 0.5098717 0.17911436 -0.07070986 -0.024667878 0.16659132
-0.21262935 -0.32278934 -0.22182015 -0.070089735 0.3096856 0.24835254 -0.38293868 -0.24443012
-0.08115209 -0.02282925 -0.034922324 -0.41160896 -0.3578125 0.011539849 -0.28718916 -0.24584256
0.53140235 -0.19406578 0.41638568 0.13491793 -0.007975692 -0.10061495 -0.04659894 0.14065051
0.058429908 0.0010831357 0.107120536 -0.6207008 -0.14544122 -0.08541941 0.1743223 -0.09006216
0.077531196 0.1599223 0.22292683 -0.013144988 -0.17084733 -0.035097633 -0.24825794 0.19110715
-0.34572408 -0.33994895 -0.23574404 0.16337585 -0.2866095 0.53641754 0.040185094 0.07610248
-0.7099397 -0.70832515 0.014908561 -0.26340014 -0.11507577 0.11682931 -0.106894314 -0.20497538
-0.089391336 0.3743762 -0.3125081 0.018609235 0.5281079 -0.15907773 -0.29254454 -0.08981524
-0.074185975 0.21654172 -0.06584766 -0.50177324 0.09205855 0.18483205 0.19384766 -0.554883
0.5426001 -0.5131535 -0.022529753 0.15711777 -0.031413388 0.37795514 0.18692873 0.26294342
0.11913093 -0.08038116 -0.14400068 -0.032606065 0.09537789 0.04270624 -0.22509138 0.40172753
-0.30246583 0.44510728 -0.009855102 -0.29099765 0.09764989 0.5867736 -0.5071615 0.31331053
-0.097529896 -0.14047593 0.11066991 0.02624845 -0.14000408 -0.08841056 0.020870456 0.041735865
0.045658268 -0.2409459 -0.064247064 -0.05519611 -0.055302545 -0.12934177 0.16508329 -0.38027427
-0.5839181 0.04823129 -0.29672825 -0.011210892 -0.011434916 0.19863667 -0.17022726 -0.012977768
0.08473525 0.11833116 -0.1447266 -0.5159832 -0.15568313 -0.24229135 -0.19415984 -0.34523925
-0.1509919 -0.079321146 -0.22224662 0.40231845 -0.33238193 0.087155744 0.006312277 -0.24860911
-0.6681462 0.40828666 0.036774028 0.2651628 -0.2017264 0.122427255 -0.044271976 -0.04054472
0.16771972 -0.18788865 0.17251158 -0.4444256 0.44894496 -0.21461871 0.10410327 -0.36333594
0.15049025 0.14386559 -0.061215095 0.2998634 -0.5023349 -0.040992744 0.17779578 0.08790534
-0.2761342 0.44302338 -0.035257634 -0.100533955 0.23809807 -0.31528386 0.19543941 -0.28676227
-0.2148284 -0.09344582 0.44286528 0.13231263 0.258776 0.06237249 0.20079654 0.26162112
-0.15342401 0.1402309 -0.84832484 -0.021288583 0.2242672 -0.3403841 0.16979253 0.093973294
0.00016908937 0.16246933 0.23553538 -0.19187509 0.21060376 -0.27041316 -0.13540179 0.0025404966
00000000: e786 84bd e712 69be a376 f53e ad90 97bd
00000010: 861d 9c3c 3bad 683e 69d7 09bd 701a 8ebd
00000020: 9cee e93d 0942 29be 70db 9d3d a33e 133e
00000030: 5a78 653b faf1 043f 1910 1fbf 89a6 973d
00000040: 3bd5 df3d 3bd9 9abe 4dde 97bd 54db c73d
00000050: 4d18 e7bd cdbd 03be d48d b8bc 92af fbbe
00000060: 903f 1abe fa67 903e a171 5439 05e6 853e
00000070: 17d7 3ebe 6cd6 dbbd 2fbc a03e b2d1 f1bd
00000080: f837 41be 0272 243e c79f 9cbd c347 103e
00000090: 7348 1cbf 784b e0be bb0e 47be 65d0 5ebd
000000a0: 4695 96bd 09b8 7d3d e8aa 16be 47c3 2bbd
000000b0: a037 1e3d 9eac a6be bfdb 2c3d 7b6b 1d3f
000000c0: fa32 1ebd 908d 2f3e c8fd 1bbe 95a5 5a3d
000000d0: 5bdb 75bd f5e9 513e 4a56 933c 3579 493e
000000e0: 5436 073f 5dec febe fec6 aebe f486 023f
000000f0: c169 373e 55d0 90bd 4a14 cabc ea96 2a3e
00000100: 82bb 59be a544 a5be d224 63be 358b 8fbd
00000110: 1c8f 9e3e 2150 7e3e 8a10 c4be e44b 7abe
00000120: 1133 a6bd 6804 bbbc b60a 0fbd 69be d2be
00000130: 3333 b7be a311 3d3c 750a 93be 27be 7bbe
00000140: fc09 083f 2eb9 46be 8130 d53e ed27 0a3e
00000150: 7aac 02bc 360f cebd 88de 3ebd b006 103e
00000160: 3354 6f3d 01f8 8d3a 0362 db3d 3fe6 1ebf
00000170: 8bee 14be 5ff0 aebd 8c81 323e 8272 b8bd
00000180: adc8 9e3d acc2 233e ee46 643e 135e 57bc
00000190: 9af2 2ebe 89c2 0fbd 5437 7ebe 98b1 433e
000001a0: bf02 b1be ca0d aebe e366 71be 004c 273e
000001b0: 7bbe 92be a952 093f 2099 243d 9edb 9b3d
000001c0: 9cbe 35bf cc54 35bf 0943 743c 62dc 86be
000001d0: d8ac ebbd 3544 ef3d 68eb dabd 11e5 51be
000001e0: ce12 b7bd 3dae bf3e 1001 a0be 6572 983c
000001f0: 1432 073f 46e5 22be 66c8 95be 0df1 b7bd
00000200: d1ee 97bd 1dbd 5d3e 23db 86bd 3674 00bf
00000210: 3189 bc3d 9d44 3d3e 0080 463e d00c 0ebf
00000220: d7e7 0a3f 075e 03bf 5190 b8bc 7be3 203e
00000230: 53ab 00bd 5683 c13e 3f6a 3f3e 85a0 863e
00000240: ebfa f33d e19e a4bd ea74 13be f08d 05bd
00000250: 7c55 c33d bdec 2e3d 5b7e 66be 3baf cd3e
00000260: cddc 9abe 1ae5 e33e 4b77 21bc a5fd 94be
00000270: aafc c73d cb36 163f 56d5 01bf 3d6a a03e
00000280: c1bd c7bd ecd8 0fbe e8a6 e23d fd06 d73c
00000290: 3b5d 0fbe 9810 b5bd 85f8 aa3c 3af3 2a3d
000002a0: 2a04 3b3d 86ba 76be f793 83bd 5115 62bd
000002b0: ec84 62bd 2b72 04be 980b 293e 4fb3 c2be
000002c0: a87b 15bf 2c8e 453d c4ec 97be e4ad 37bc
000002d0: 8459 3bbc 6967 4b3e 0e50 2ebe b4a0 54bc
000002e0: ad89 ad3d 9b57 f23d 3633 14be 7a17 04bf
000002f0: 666b 1fbe 391b 78be d6d1 46be 33c3 b0be
00000300: 9f9d 1abe 2073 a2bd 9e94 63be affc cd3e
00000310: f72d aabe b67e b23d 38d7 ce3b 6393 7ebe
00000320: a10b 2bbf f30a d13e 5da0 163d 6bc3 873e
00000330: 5e91 4ebe 24bb fa3d 8856 35bd 3812 26bd
00000340: b8be 2b3e e265 40be e0a6 303e c18b e3be
00000350: 1ddc e53e 02c5 5bbe 1834 d53d 2b07 babe
00000360: 1e1a 1a3e 8051 133e aebc 7abd b287 993e
00000370: 0599 00bf 02e8 27bd 1910 363e b707 b43d
00000380: 7661 8dbe f6d3 e23e 4f6a 10bd bfe4 cdbd
00000390: fbcf 733e e36c a1be 4521 483e 81d2 92be
000003a0: fafb 5bbe 8660 bfbd 3dbf e23e f67c 073e
000003b0: 4a7e 843e 4c7a 7f3d 9c9d 4d3e 34f3 853e
000003c0: 2f1b 1dbe b098 0f3e d12b 59bf 6565 aebc
000003d0: 4da6 653e d346 aebe 18de 2d3e 1275 c03d
000003e0: 954d 3139 5c5e 263e 3030 713e e77a 44be
000003f0: 83a8 573e 9873 8abe c4a6 0abe 767e 263b

actor_fc_layers.blocks.0.block.1.weight f4 [128]
1.297939 1.3608727 1.1798494 1.0429064 0.7215344 1.1614077 1.2062849 0.9330478
1.351222 1.2560052 1.4677426 1.3706193 1.2107261 0.6703681 1.4542452 1.6002156
1.0494449 0.96368676 1.3833586 1.4640667 1.3629794 0.9330228 1.3846166 1.2956368
1.4288284 1.3236741 1.277334 1.3385586 0.8309226 1.4144298 0.9480249 1.212915
1.1707116 1.4801289 1.0571882 1.1157897 1.0491374 1.1673913 1.1224563 1.0379269
1.3032953 0.859514 0.951997 1.2361715 0.98712957 1.004979 1.3037356 1.0101222
1.411534 1.2599373 1.1606542 1.34656 1.0023384 1.2705873 1.2806996 0.940326
1.0511028 1.4285493 1.2414435 1.0340235 1.5284309 1.3959446 0.94542795 0.8281539
1.169634 1.4070725 0.87600535 1.3351239 1.1805564 1.3355585 0.8520602 1.1533861
1.0234684 1.2836053 1.5883837 1.4566127 0.57080096 1.2556174 1.153253 1.3772641
0.8000582 0.8026823 1.4244931 1.3852521 1.0646713 0.81468576 1.1785668 1.0908006
1.0196953 1.2147793 1.220893 1.1283256 1.0615307 1.1808045 1.0666975 1.703988
1.3263403 1.5110728 1.138092 0.89012897 0.92958707 1.1309975 1.3430064 1.427842
1.1546751 0.86754817 1.4934005 0.99306035 0.9159841 1.0830766 1.0959455 1.3315276
1.4093359 0.98206586 1.0313739 0.98145545 0.96342415 1.2527264 1.6056476 1.1180152
0.7777133 1.2940533 1.2983959 1.0328324 0.76958317 0.96256757 1.1982381 0.8186734
00000000: dd22 a63f 1431 ae3f 4e05 973f f57d 853f
00000010: 7ab6 383f 02a9 943f 8b67 9a3f 38dc 6e3f
00000020: d8f4 ac3f c7c4 a03f fdde bb3f 7470 af3f
00000030: 13f9 9a3f 3e9d 2b3f b524 ba3f ddd3 cc3f
00000040: 3654 863f 2db4 763f e511 b13f 8a66 bb3f
00000050: 1c76 ae3f 95da 6e3f 1e3b b13f 6dd7 a53f
00000060: d9e3 b63f 276e a93f ae7f a33f e355 ab3f
00000070: 58b7 543f 090c b53f c3b1 723f cc40 9b3f
00000080: e1d9 953f dd74 bd3f f151 873f 32d2 8e3f
00000090: 224a 863f 146d 953f a6ac 8f3f cada 843f
000000a0: 61d2 a63f 1c09 5c3f 13b6 733f de3a 9e3f
000000b0: 86b4 7c3f 27a3 803f cfe0 a63f af4b 813f
000000c0: 25ad b43f a045 a13f 5190 943f 145c ac3f
000000d0: a04c 803f 9ba2 a23f f7ed a33f 34b9 703f
000000e0: 898a 863f b4da b63f 9fe7 9e3f e25a 843f
000000f0: a0a3 c33f 50ae b23f 9107 723f e501 543f
00000100: 91b6 953f f41a b43f e341 603f 57e5 aa3f
00000110: 791c 973f 95f3 aa3f 9e20 5a3f 28a2 933f
00000120: 0301 833f 2e4d a43f 2850 cb3f 4972 ba3f
00000130: 0320 123f 12b8 a03f cb9d 933f 314a b03f
00000140: 9dd0 4c3f 967c 4d3f ca55 b63f f14f b13f
00000150: 2647 883f 3f8f 503f 47db 963f 5b9f 8b3f
00000160: 6085 823f e37d 9b3f 3946 9c3f f96c 903f
00000170: 3de0 873f 9a24 973f 8b89 883f 471c da3f
00000180: 85c5 a93f d56a c13f 00ad 913f 7edf 633f
00000190: 6bf9 6d3f 87c4 903f a2e7 ab3f 87c3 b63f
000001a0: 65cc 933f a317 5e3f bf27 bf3f 3439 7e3f
000001b0: ef7d 6a3f 41a2 8a3f f147 8c3f 7f6f aa3f
000001c0: 1e65 b43f ab68 7b3f 0f04 843f aa40 7b3f
000001d0: f7a2 763f 5759 a03f dc85 cd3f 1f1b 8f3f
000001e0: 3818 473f 8aa3 a53f d631 a63f da33 843f
000001f0: 6703 453f d46a 763f de5f 993f 9494 513f

actor_fc_layers.blocks.0.block.1.bias f4 [128]
-0.045276046 -0.053434867 -0.2374495 0.32120273 0.39536002 -0.45555237 0.274832 -0.19545522
-0.14650182 0.10594572 -0.061320953 -0.06581638 -0.34690505 -0.41032052 0.02632832 0.0287377
-0.51733595 -0.32018876 0.10900094 -0.12330757 -0.0903337 0.1309671 0.0064301873 0.080558665
0.19551757 -0.047819316 -0.37045637 -0.13478719 -0.34963673 -0.07332731 -0.13839543 0.0429437
0.16441326 -0.27122086 0.042815343 -0.13023603 -0.1867814 -0.12686403 -0.072618864 -0.6348648
-0.05732719 -0.03211713 -0.33945608 -0.20257035 0.25286454 -0.16335985 -0.3306826 -0.26428175
0.15227118 0.12951641 -0.28806457 0.03972525 0.16729958 -0.2057425 -0.22690597 0.26957408
0.36328265 -0.09576814 -0.0084508965 -0.25196552 0.14809005 0.052133814 0.17704411 -0.06475984
0.02640245 0.07430439 -0.23623177 0.3219001 -0.010571554 -0.17190965 0.41001233 -0.08427321
0.09583724 -0.23883757 0.22549406 0.021628631 0.58170265 -0.28898615 -0.3747553 -0.14500079
0.10354064 0.18056604 -0.02356592 0.09346351 0.20274557 0.024228815 -0.1748338 -0.50592774
-0.38096106 -0.18311003 0.018241255 -0.23548524 -0.23100515 0.05399359 -0.11011638 0.15739416
-0.17053962 -0.14797588 -0.18177262 -0.20775197 -0.08926071 -0.13753119 -0.41159007 0.07434418
-0.40911412 -0.055059794 -0.27414432 0.14826943 -0.22002956 -0.4752059 0.024239479 -0.13036272
-0.06648578 0.106773846 -0.32964194 -0.21730751 0.025512101 -0.076730534 0.14471509 -0.3772668
-0.22501162 0.42141315 0.031636022 0.15087254 0.4972946 -0.321904 -0.049014065 0.10605587
00000000: 6073 39bd 85de 5abd f625 73be af74 a43e
00000010: a16c ca3e 293e e9be c8b6 8c3e 6a25 48be
00000020: 9304 16be 12fa d83d ae2b 7bbd bdca 86bd
00000030: 8a9d b1be 8815 d2be 7dae d73c 536b eb3c
00000040: 2170 04bf c8ef a3be e33b df3d ae88 fcbd
00000050: e000 b9bd 3d1c 063e 52b4 d23b f1fb a43d
00000060: c235 483e 30de 43bd 75ac bdbe a705 0abe
00000070: 9603 b3be a12c 96bd 88b7 0dbe bce5 2f3d
00000080: f35b 283e 76dd 8abe 245f 2f3d 985c 05be
00000090: a043 3fbe a5e8 01be 33b9 94bd 8086 22bf
000000a0: eacf 6abd 408d 03bd 30cd adbe 9a6e 4fbe
000000b0: 7677 813e ce47 27be 3b4f a9be f04f 87be
000000c0: faec 1b3e f39f 043e 337d 93be f2b6 223d
000000d0: 9550 2b3e 29ae 52be 0a5a 68be 9d05 8a3e
000000e0: 2f00 ba3e 1622 c4bd a175 0abc a001 81be
000000f0: eba4 173e 448a 553d 0d4b 353e cfa0 84bd
00000100: f349 d83c e62c 983d bee6 71be 17d0 a43e
00000110: 5034 2dbc 1509 30be 23ed d13e 6f97 acbd
00000120: 5146 c43d d691 74be eae7 663e 872e b13c
00000130: 77ea 143f fef5 93be eddf bfbe 167b 14be
00000140: 1d0d d43d 4ee6 383e 510d c1bc cc69 bf3d
00000150: 899c 4f3e 827b c63c a207 33be 7b84 01bf
00000160: 540d c3be 3281 3bbe af6e 953c 0b23 71be
00000170: 9d8c 6cbe 6228 5d3d b284 e1bd ef2b 213e
00000180: f0a1 2ebe fd86 17be 9a22 3abe efbc 54be
00000190: 52ce b6bd fad4 0cbe efbb d2be c341 983d
000001a0: 6877 d1be 6186 61bd a55c 8cbe f1d3 173e
000001b0: 6e4f 61be 304e f3be df91 c63c ce7d 05be
000001c0: b229 88bd 3fac da3d d4c6 a8be dc85 5ebe
000001d0: c1fe d03c e624 9dbd 3130 143e 1d29 c1be
000001e0: 7269 66be 77c3 d73e c694 013d 557e 1a3e
000001f0: 669d fe3e 9ad0 a4be f9c2 48bd d233 d93d

actor_fc_layers.blocks.0.block.1.running_mean f4 [128]
0.0 0.0 0.0 0.0 0.0 0.0 0.0 0.0
0.0 0.0 0.0 0.0 0.0 0.0 0.0 0.0
0.0 0.0 0.0 0.0 0.0 0.0 0.0 0.0
0.0 0.0 0.0 0.0 0.0 0.0 0.0 0.0
0.0 0.0 0.0 0.0 0.0 0.0 0.0 0.0
0.0 0.0 0.0 0.0 0.0 0.0 0.0 0.0
0.0 0.0 0.0 0.0 0.0 0.0 0.0 0.0
0.0 0.0 0.0 0.0 0.0 0.0 0.0 0.0
0.0 0.0 0.0 0.0 0.0 0.0 0.0 0.0
0.0 0.0 0.0 0.0 0.0 0.0 0.0 0.0
0.0 0.0 0.0 0.0 0.0 0.0 0.0 0.0
0.0 0.0 0.0 0.0 0.0 0.0 0.0 0.0
0.0 0.0 0.0 0.0 0.0 0.0 0.0 0.0
0.0 0.0 0.0 0.0 0.0 0.0 0.0 0.0
0.0 0.0 0.0 0.0 0.0 0.0 0.0 0.0
0.0 0.0 0.0 0.0 0.0 0.0 0.0 0.0
00000000: 0000 0000 0000 0000 0000 0000 0000 0000
00000010: 0000 0000 0000 0000 0000 0000 0000 0000
00000020: 0000 0000 0000 0000 0000 0000 0000 0000
00000030: 0000 0000 0000 0000 0000 0000 0000 0000
00000040: 0000 0000 0000 0000 0000 0000 0000 0000
00000050: 0000 0000 0000 0000 0000 0000 0000 0000
00000060: 0000 0000 0000 0000 0000 0000 0000 0000
00000070: 0000 0000 0000 0000 0000 0000 0000 0000
00000080: 0000 0000 0000 0000 0000 0000 0000 0000
00000090: 0000 0000 0000 0000 0000 0000 0000 0000
000000a0: 0000 0000 0000 0000 0000 0000 0000 0000
000000b0: 0000 0000 0000 0000 0000 0000 0000 0000
000000c0: 0000 0000 0000 0000 0000 0000 0000 0000
000000d0: 0000 0000 0000 0000 0000 0000 0000 0000
000000e0: 0000 0000 0000 0000 0000 0000 0000 0000
000000f0: 0000 0000 0000 0000 0000 0000 0000 0000
00000100: 0000 0000 0000 0000 0000 0000 0000 0000
00000110: 0000 0000 0000 0000 0000 0000 0000 0000
00000120: 0000 0000 0000 0000 0000 0000 0000 0000
00000130: 0000 0000 0000 0000 0000 0000 0000 0000
00000140: 0000 0000 0000 0000 0000 0000 0000 0000
00000150: 0000 0000 0000 0000 0000 0000 0000 0000
00000160: 0000 0000 0000 0000 0000 0000 0000 0000
00000170: 0000 0000 0000 0000 0000 0000 0000 0000
00000180: 0000 0000 0000 0000 0000 0000 0000 0000
00000190: 0000 0000 0000 0000 0000 0000 0000 0000
000001a0: 0000 0000 0000 0000 0000 0000 0000 0000
000001b0: 0000 0000 0000 0000 0000 0000 0000 0000
000001c0: 0000 0000 0000 0000 0000 0000 0000 0000
000001d0: 0000 0000 0000 0000 0000 0000 0000 0000
000001e0: 0000 0000 0000 0000 0000 0000 0000 0000
000001f0: 0000 0000 0000 0000 0000 0000 0000 0000

actor_fc_layers.blocks.0.block.1.running_var f4 [128]
1.0 1.0 1.0 1.0 1.0 1.0 1.0 1.0
1.0 1.0 1.0 1.0 1.0 1.0 1.0 1.0
1.0 1.0 1.0 1.0 1.0 1.0 1.0 1.0
1.0 1.0 1.0 1.0 1.0 1.0 1.0 1.0
1.0 1.0 1.0 1.0 1.0 1.0 1.0 1.0
1.0 1.0 1.0 1.0 1.0 1.0 1.0 1.0
1.0 1.0 1.0 1.0 1.0 1.0 1.0 1.0
1.0 1.0 1.0 1.0 1.0 1.0 1.0 1.0
1.0 1.0 1.0 1.0 1.0 1.0 1.0 1.0
1.0 1.0 1.0 1.0 1.0 1.0 1.0 1.0
1.0 1.0 1.0 1.0 1.0 1.0 1.0 1.0
1.0 1.0 1.0 1.0 1.0 1.0 1.0 1.0
1.0 1.0 1.0 1.0 1.0 1.0 1.0 1.0
1.0 1.0 1.0 1.0 1.0 1.0 1.0 1.0
1.0 1.0 1.0 1.0 1.0 1.0 1.0 1.0
1.0 1.0 1.0 1.0 1.0 1.0 1.0 1.0
00000000: 0000 803f 0000 803f 0000 803f 0000 803f
00000010: 0000 803f 0000 803f 0000 803f 0000 803f
00000020: 0000 803f 0000 803f 0000 803f 0000 803f
00000030: 0000 803f 0000 803f 0000 803f 0000 803f
00000040: 0000 803f 0000 803f 0000 803f 0000 803f
00000050: 0000 803f 0000 803f 0000 803f 0000 803f
00000060: 0000 803f 0000 803f 0000 803f 0000 803f
00000070: 0000 803f 0000 803f 0000 803f 0000 803f
00000080: 0000 803f 0000 803f 0000 803f 0000 803f
00000090: 0000 803f 0000 803f 0000 803f 0000 803f
000000a0: 0000 803f 0000 803f 0000 803f 0000 803f
000000b0: 0000 803f 0000 803f 0000 803f 0000 803f
000000c0: 0000 803f 0000 803f 0000 803f 0000 803f
000000d0: 0000 803f 0000 803f 0000 803f 0000 803f
000000e0: 0000 803f 0000 803f 0000 803f 0000 803f
000000f0: 0000 803f 0000 803f 0000 803f 0000 803f
00000100: 0000 803f 0000 803f 0000 803f 0000 803f
00000110: 0000 803f 0000 803f 0000 803f 0000 803f
00000120: 0000 803f 0000 803f 0000 803f 0000 803f
00000130: 0000 803f 0000 803f 0000 803f 0000 803f
00000140: 0000 803f 0000 803f 0000 803f 0000 803f
00000150: 0000 803f 0000 803f 0000 803f 0000 803f
00000160: 0000 803f 0000 803f 0000 803f 0000 803f
00000170: 0000 803f 0000 803f 0000 803f 0000 803f
00000180: 0000 803f 0000 803f 0000 803f 0000 803f
00000190: 0000 803f 0000 803f 0000 803f 0000 803f
000001a0: 0000 803f 0000 803f 0000 803f 0000 803f
000001b0: 0000 803f 0000 803f 0000 803f 0000 803f
000001c0: 0000 803f 0000 803f 0000 803f 0000 803f
000001d0: 0000 803f 0000 803f 0000 803f 0000 803f
000001e0: 0000 803f 0000 803f 0000 803f 0000 803f
000001f0: 0000 803f 0000 803f 0000 803f 0000 803f

actor_fc_layers.blocks.1.block.0.weight f4 [128, 128]
0.23933563 -0.3710173 -0.4162214 0.13376641 -0.17373489 -0.09382716 -0.09598793 0.09423494
-0.3281682 -0.24106406 -0.43961823 -0.18945287 0.04331861 -0.075197734 -0.09982654 -0.2131597
0.13877997 0.041317478 -0.06616607 0.0863097 0.1936683 0.01871849 0.1842556 -0.37092575
-0.2524221 -0.21052155 0.02812228 0.5041506 0.31249747 -0.6173977 -0.10584292 0.07170878
-0.5325566 -0.6268019 0.12746952 -0.1669071 0.21154259 -0.23507959 0.111583695 0.24474055
0.20705308 0.058885664 0.084553584 -0.101751275 -0.10376933 -0.05693226 -0.32206818 0.1683316
-0.35151303 0.22635858 -0.14293465 -0.08952258 0.07991137 -0.27851924 0.18172103 0.0892964
0.06743359 0.15258074 0.14280793 0.4210541 -0.22605084 -0.46344668 0.38518327 -0.1606905
0.2913809 0.19295247 -0.4693416 -0.08653553 0.06376118 -0.20547256 0.4103337 0.16351931
0.07938446 -0.57282835 -0.3731763 -0.25455704 -0.09466082 0.0792791 0.22167552 -0.60019857
-0.0940227 0.080769494 0.046348475 -0.04660451 0.3509921 0.22345568 0.0779587 0.016306099
-0.25355232 0.20031552 0.108349115 0.49046466 -0.015292863 0.3279202 -0.16925988 -0.030931827
-0.05827193 -0.10384697 0.061968397 -0.024722924 0.12799512 -0.053151097 0.24508527 -0.2876072
0.13673444 0.4212533 -0.077195115 0.26372325 0.11579561 0.06350675 0.35027596 0.19868015
0.37021554 -0.006001936 -0.06667929 0.3918998 0.058891207 -0.05866764 0.19175452 -0.088913634
0.32327726 0.23594959 -0.41143212 0.36106735 -0.07907038 -0.016822843 0.25899795 0.35771278
0.13992378 -0.24078171 0.18029167 -0.18026748 -0.13659462 0.24573505 -0.011888281 0.20096526
0.44756156 -0.12098317 -0.008447173 0.28616068 0.46290675 0.16778629 -0.4763112 0.11964029
0.06624271 0.0341202 -0.1783688 0.071802095 0.08998957 -0.35487548 0.007887604 -0.18861172
-0.1473056 0.03880572 0.2286381 -0.053453665 0.1667234 -0.2458108 -0.1634188 0.037455115
0.14854997 0.21252541 0.055486027 0.35696808 -0.21394327 -0.14271171 -0.6307452 0.5319038
-0.20648415 -0.096279584 0.0976588 0.41028067 -0.26752362 -0.2715699 0.05261917 0.12928723
0.21592394 -0.16767135 -0.23683754 0.33247533 0.42279273 -0.3097285 0.30464104 0.21816172
-0.5840131 -0.1276249 0.21824114 -0.08930096 -0.1244855 -0.27538866 0.10838553 -0.34993976
-0.017762128 0.36637646 -0.025000619 -0.17856096 0.055799365 0.056980047 -0.16890205 0.2336946
-0.15945439 -0.19230527 -0.025858719 0.0009799529 -0.5397998 0.19833517 0.37877935 -0.13970175
0.21482536 -0.21989168 -0.15574713 0.3470066 -0.30799317 -0.13846076 0.4520915 0.14939499
0.16851677 -0.024945084 0.30128333 0.34349215 0.15177427 0.21638069 -0.022335384 0.075034685
0.07481246 -0.28564692 0.20373051 -0.2534608 0.1230119 0.10957622 0.39922875 0.15215652
0.48526412 0.08036013 -0.057431262 -0.30045417 0.1260276 0.34972912 0.33015087 0.46746454
-0.25012183 0.03563045 0.24018894 0.36082217 -0.34114358 0.09814144 -0.6518002 0.2143701
-0.0006769043 -0.3815121 0.44146526 0.08447125 -0.22267851 0.021044139 0.45426157 0.08349048
00000000: 6614 753e fbf5 bdbe f91a d5be 10fa 083e
00000010: 8fe7 31be 7428 c0bd 5295 c4bd 40fe c03d
00000020: aa05 a8be 7fd9 76be a415 e1be efff 41be
00000030: db6e 313d 4501 9abd db71 ccbd 8946 5abe
00000040: 561c 0e3e 843c 293d 1482 87bd 24c3 b03d
00000050: fc50 463e 8557 993c 80ad 3c3e fbe9 bdbe
00000060: 783d 81be f692 57be b260 e63c 0410 013f
00000070: abff 9f3e c70d 1ebf 2cc4 d8bd 0edc 923d
00000080: a155 08bf 1776 20bf 5f87 023e b2e9 2abe
00000090: 9f9e 583e b4b8 70be fe85 e43d 449d 7a3e
000000a0: b905 543e 1832 713d 6e2a ad3d f962 d0bd
000000b0: 0485 d4bd cd31 69bd 1fe6 a4be 1e5f 2c3e
000000c0: 84f9 b3be 8bca 673e 765d 12be 9d57 b7bd
000000d0: 93a8 a33d 139a 8ebe 1415 3a3e 08e1 b63d
000000e0: 9f1a 8a3d 203e 1c3e 3e3c 123e 6794 d73e
000000f0: df79 67be e248 edbe be36 c53e 0d8c 24be
00000100: e12f 953e 5595 453e 8b4d f0be 8a39 b1bd
00000110: 3995 823d 6667 52be 4217 d23e 9b71 273e
00000120: 5294 a23d e1a4 12bf f710 bfbe 4d55 82be
00000130: 88dd c1bd 155d a23d e8fe 623e 9da6 19bf
00000140: f98e c0bd 7a6a a53d e6d7 3d3d 5fe4 3ebd
00000150: 3db5 b33e 91d1 643e d0a8 9f3d 5e94 853c
00000160: 9cd1 81be 831f 4d3e 24e6 dd3d 2f1e fb3e
00000170: eb8e 7abc 28e5 a73e 7652 2dbe be64 fdbc
00000180: 8cae 6ebd b8ad d4bd 93d2 7d3d bb87 cabc
00000190: 2711 033e f7b4 59bd a2f7 7a3e 4041 93be
000001a0: 1d04 0c3e 83ae d73e 7918 9ebd bc06 873e
000001b0: 4026 ed3d d40f 823d 5f57 b33e cf72 4b3e
000001c0: e48c bd3e e3ab c4bb 278f 88bd 17a7 c83e
000001d0: e837 713d 7b4d 70bd 4c5b 443e 5a18 b6bd
000001e0: 9984 a53e c59c 713e 3ba7 d2be d2dd b83e
000001f0: a7ef a1bd 0fd0 89bc 619b 843e 2126 b73e
00000200: 2e48 0f3e 7b8f 76be 619e 383e 0a98 38be
00000210: 76df 0bbe f8a1 7b3e 11c7 42bc d6c9 4d3e
00000220: ca26 e53e 06c6 f7bd 0366 0abc a783 923e
00000230: 1d02 ed3e 2bd0 2b3e 10df f3be f805 f53d
00000240: 42aa 873d 9fc1 0b3d 50a6 36be fa0c 933d
00000250: 744c b83d 3db2 b5be 023b 013c 6e23 41be
00000260: 47d7 16be bff2 1e3d 1b20 6a3e 3bf2 5abd
00000270: 8ab9 2a3e d4b5 7bbe 4257 27be 896a 193d
00000280: 7c1d 183e 43a0 593e 5145 633d 85c4 b63e
00000290: f213 5bbe 0523 12be 8478 21bf d92a 083f
000002a0: 9570 53be 3b2e c5bd 5601 c83d 4f10 d23e
000002b0: dbf8 88be 360b 8bbe 3387 573d df63 043e
000002c0: 2a1b 5d3e 0ab2 2bbe 8a85 72be 353a aa3e
000002d0: 4a78 d83e bc94 9ebe e9f9 9b3e c965 5f3e
000002e0: e281 15bf 1ab0 02be 9b7a 5f3e 6ce3 b6bd
000002f0: 41f2 febd beff 8cbe 3cf9 dd3d 4e2b b3be
00000300: e281 91bc b295 bb3e 19ce ccbc afd8 36be
00000310: e08d 643d e963 693d a9f4 2cbe a34d 6f3e
00000320: 0348 23be aceb 44be aad5 d3bc c371 803a
00000330: 5230 0abf 6018 4b3e 5eef c13e fa0d 0fbe
00000340: 2efb 5b3e 492b 61be 2d7c 1fbe d9aa b13e
00000350: 48b1 9dbe a8c8 0dbe 8978 e73e 00fb 183e
00000360: a98f 2c3e a259 ccbc cf41 9a3e 34de af3e
00000370: b76a 1b3e e692 5d3e b2f8 b6bc c9ab 993d
00000380: 4637 993d 5040 92be bb9e 503e 9dc5 81be
00000390: aaed fb3d 7f69 e03d b667 cc3e ebce 1b3e
000003a0: 8a74 f83e da93 a43d 0b3d 6bbd 21d5 99be
000003b0: 610d 013e b20f b33e 8909 a93e 8357 ef3e
000003c0: f80f 80be 3cf1 113d 17f4 753e afbd b83e
000003d0: 5faa aebe 61fe c83d 61dc 26bf d683 5b3e
000003e0: 4772 31ba 8e55 c3be bc07 e23e 43ff ac3d
000003f0: d605 64be c264 ac3c f994 e83e 0ffd aa3d

actor_fc_layers.blocks.1.block.1.weight f4 [128]
1.3232716 1.4273949 1.2850945 1.3949884 1.315802 1.2395829 1.0355036 1.280784
1.5053723 1.8652362 1.2329919 1.8282796 0.97331387 1.2848431 1.4866594 1.4482028
1.2454005 1.1343706 1.3276241 0.9824321 1.2801577 1.5095243 1.3692385 1.1117753
1.4632542 1.114499 1.434202 1.1848545 1.6277092 1.1769421 1.5672456 1.6743495
1.2423675 1.229168 0.9716913 1.2063409 1.2574652 1.2215781 1.8313721 1.4405624
1.125576 1.3949845 1.1507803 1.7559618 0.9726276 1.0533248 1.6879219 1.7229453
1.2527612 1.2409079 1.6504507 1.4825187 1.2521954 1.3988223 1.132094 1.4074748
1.4151993 1.432833 1.4614322 1.2344182 1.229392 1.3056281 1.3298551 0.9594634
1.2874182 1.4141858 1.4396458 1.5193962 1.4340215 1.2874626 1.1244233 1.0643072
1.349724 1.1588447 1.1405811 1.378329 0.96913564 1.264731 1.0299147 1.225675
0.9770257 1.5333322 1.3440454 1.4028912 1.602108 1.1980376 1.7529713 1.151553
1.4555136 1.4172974 1.3738472 1.3293169 1.2867769 1.3664882 1.3403049 0.9635796
1.3467654 1.4909282 1.5394993 1.3107 1.3394659 1.3091749 1.2863268 1.1069856
1.2800288 1.6774807 1.5553908 1.3097153 1.3527758 1.1516986 1.3283181 1.2607847
0.9867973 1.4519295 1.3513618 1.2514087 1.1980816 1.4027624 1.240357 1.1302744
1.264553 1.4119793 1.109999 0.9764267 1.3161012 1.2885044 1.4468328 1.3950002
00000000: f760 a93f e0b4 b63f fa7d a43f fb8e b23f
00000010: 336c a83f a7aa 9e3f 628b 843f bbf0 a33f
00000020: 0ab0 c03f 0fc0 ee3f aed2 9d3f 1105 ea3f
00000030: 192b 793f bd75 a43f db4a be3f b65e b93f
00000040: 4969 9f3f 0e33 913f 96ef a93f ac80 7b3f
00000050: 35dc a33f 1838 c13f 3543 af3f a74e 8e3f
00000060: ea4b bb3f e7a7 8e3f ee93 b73f 50a9 973f
00000070: c658 d03f 0aa6 963f 819b c83f 1651 d63f
00000080: e605 9f3f 6155 9d3f c3c0 783f 6169 9a3f
00000090: 9ff4 a03f ac5c 9c3f 676a ea3f 5964 b83f
000000a0: e012 903f da8e b23f c54c 933f 5bc3 e03f
000000b0: 1ffe 783f 59d3 863f d30d d83f 7989 dc3f
000000c0: 7b5a a03f 12d6 9e3f f841 d33f 2cc3 bd3f
000000d0: f047 a03f 9c0c b33f 75e8 903f 2228 b43f
000000e0: 4025 b53f 1267 b73f 3610 bb3f 6a01 9e3f
000000f0: b85c 9d3f d21e a73f b138 aa3f 659f 753f
00000100: 1fca a43f 0a04 b53f 5046 b83f 937b c23f
00000110: 048e b73f 93cb a43f 1aed 8f3f 383b 883f
00000120: c2c3 ac3f 0655 943f 90fe 913f 166d b03f
00000130: 4619 783f b5e2 a13f 3fd4 833f ebe2 9c3f
00000140: 5b1e 7a3f 3b44 c43f ae09 ac3f f091 b33f
00000150: e011 cd3f 4c59 993f 5d61 e03f 1766 933f
00000160: 454e ba3f 006a b53f 3ada af3f 0e27 aa3f
00000170: 1bb5 a43f 16e9 ae3f 1c8f ab3f 27ad 763f
00000180: cf62 ac3f bcd6 be3f 500e c53f 05c5 a73f
00000190: 9e73 ab3f 0b93 a73f 5ba6 a43f b4b1 8d3f
000001a0: fcd7 a33f b0b7 d63f 0c17 c73f c0a4 a73f
000001b0: c227 ad3f dc6a 933f 5406 aa3f 6561 a13f
000001c0: bf9e 7c3f d3d8 b93f 6cf9 ac3f 292e a03f
000001d0: bd5a 993f b88d b33f 05c4 9e3f d5ac 903f
000001e0: dfdc a13f bdbb b43f 7214 8e3f 1af7 793f
000001f0: 0176 a83f b6ed a43f d131 b93f 5e8f b23f

actor_fc_layers.blocks.1.block.1.bias f4 [128]
0.13970041 -0.3165841 -0.12466159 0.13222493 0.02402316 -0.0019183196 -0.33202118 0.33357152
-0.2128384 0.26000804 0.017729416 0.0715389 -0.030982379 -0.064674385 -0.040319752 -0.048349477
-0.10736711 0.01220783 0.06472809 -0.031088158 -0.02869226 -0.08793061 -0.024442833 -0.32389435
-0.042894162 -0.012606002 -0.17404234 -0.18502416 -0.23196621 -0.4951201 0.13658267 0.11081115
-0.15548526 -0.114526495 -0.046410043 -0.15847349 -0.09522194 -0.3886319 -0.008939908 0.18247218
-0.09946925 0.13179426 -0.17004046 -0.18615812 -0.02639805 0.10154931 -0.3859854 -0.16367535
0.050712813 0.20930153 -0.23798268 -0.538055 -0.14875598 0.04574966 -0.06573729 -0.384788
-0.021096846 -0.10632412 0.16410758 -0.19400737 0.59987706 0.16406567 -0.1262021 -0.058538154
-0.07995717 -0.08022563 0.559663 0.21799745 0.05918933 -0.34240693 0.061607197 0.115682304
-0.21480386 -0.24946034 0.11865927 0.07752123 -0.042930573 -0.15631981 0.0027941514 -0.041649364
-0.032105878 0.09478042 -0.04088713 0.045319855 0.7147017 -0.09500744 0.12246374 -0.33777335
0.026509872 0.091367155 -0.351844 -0.1553009 -0.30148357 -0.08070196 0.0766664 -0.0370758
-0.08636765 -0.060262065 -0.41994452 0.35754508 0.44819608 -0.10190163 -0.052649505 -0.16156626
-0.17560709 -0.0933217 0.18257849 -0.35217348 -0.06265227 -0.12988329 -0.13622683 0.39695826
-0.024092125 -0.18226764 0.14097266 0.0025553587 -0.3299735 0.21296838 0.498198 -0.46841475
-0.122766875 0.11360119 -0.027266772 -0.040134907 0.122334816 -0.054591324 -0.1131326 -0.20697819
00000000: a00d 0f3e 5017 a2be 934e ffbd f965 073e
00000010: 38cc c43c 2070 fbba aefe a9be e3c9 aa3e
00000020: 4ff2 59be c61f 853e 483d 913c fd82 923d
00000030: c2ce fdbc 0174 84bd 5326 25bd 1a0a 46bd
00000040: 4ae3 dbbd 5a03 483c 2990 843d 98ac febc
00000050: 080c ebbc f714 b4bd 563c c8bc 7bd5 a5be
00000060: cab1 2fbd 6889 4ebc 2838 32be f976 3dbe
00000070: 8d88 6dbe 6280 fdbe 54dc 0b3e f5f0 e23d
00000080: 8737 1fbe de8c eabd 7518 3ebd e046 22be
00000090: b803 c3bd c3fa c6be b178 12bc fdd9 3a3e
000000a0: 89b6 cbbd 13f5 063e 161f 2ebe 3ca0 3ebe
000000b0: b940 d8bc 16f9 cf3d e19f c5be 839a 27be
000000c0: 3db8 4f3d 2453 563e bbb1 73be f9bd 09bf
000000d0: 7d53 18be ff63 3b3d 46a1 86bd ef02 c5be
000000e0: 4bd3 acbc 76c0 d9bd d10b 283e dea9 46be
000000f0: 8b91 193f d500 283e 203b 01be b4c5 6fbd
00000100: 96c0 a3bd 564d a4bd 1346 0f3f b93a 5f3e
00000110: 8370 723d f64f afbe d457 7c3d d8ea ec3d
00000120: 8bf5 5bbe 8872 7fbe a203 f33d 73c3 9e3d
00000130: f8d7 2fbd 4d12 20be 151e 373b 8698 2abd
00000140: 7481 03bd 3d1c c23d 4379 27bd 50a1 393d
00000150: b1f6 363f 4393 c2bd 45ce fa3d a1f0 acbe
00000160: 3b2b d93c b41e bb3d e624 b4be 3307 1fbe
00000170: 0e5c 9abe 1247 a5bd 4603 9d3d cbdc 17bd
00000180: 86e1 b0bd 5bd5 76bd f802 d7be 2610 b73e
00000190: f579 e53e cdb1 d0bd 02a7 57bd a071 25be
000001a0: 58d2 33be 731f bfbd dbf5 3a3e 1550 b4be
000001b0: d54f 80bd 2000 05be 0c7f 0bbe 1d3e cb3e
000001c0: d95c c5bc 5ea4 3abe 235b 103e ce77 273b
000001d0: 49f2 a8be 6214 5a3e cf13 ff3e 0fd4 efbe
000001e0: 336d fbbd bea7 e83d 915e dfbc 8064 24bd
000001f0: ad8a fa3d 279b 5fbd 11b2 e7bd 17f2 53be

actor_fc_layers.blocks.1.block.1.running_mean f4 [128]
0.0 0.0 0.0 0.0 0.0 0.0 0.0 0.0
0.0 0.0 0.0 0.0 0.0 0.0 0.0 0.0
0.0 0.0 0.0 0.0 0.0 0.0 0.0 0.0
0.0 0.0 0.0 0.0 0.0 0.0 0.0 0.0
0.0 0.0 0.0 0.0 0.0 0.0 0.0 0.0
0.0 0.0 0.0 0.0 0.0 0.0 0.0 0.0
0.0 0.0 0.0 0.0 0.0 0.0 0.0 0.0
0.0 0.0 0.0 0.0 0.0 0.0 0.0 0.0
0.0 0.0 0.0 0.0 0.0 0.0 0.0 0.0
0.0 0.0 0.0 0.0 0.0 0.0 0.0 0.0
0.0 0.0 0.0 0.0 0.0 0.0 0.0 0.0
0.0 0.0 0.0 0.0 0.0 0.0 0.0 0.0
0.0 0.0 0.0 0.0 0.0 0.0 0.0 0.0
0.0 0.0 0.0 0.0 0.0 0.0 0.0 0.0
0.0 0.0 0.0 0.0 0.0 0.0 0.0 0.0
0.0 0.0 0.0 0.0 0.0 0.0 0.0 0.0
00000000: 0000 0000 0000 0000 0000 0000 0000 0000
00000010: 0000 0000 0000 0000 0000 0000 0000 0000
00000020: 0000 0000 0000 0000 0000 0000 0000 0000
00000030: 0000 0000 0000 0000 0000 0000 0000 0000
00000040: 0000 0000 0000 0000 0000 0000 0000 0000
00000050: 0000 0000 0000 0000 0000 0000 0000 0000
00000060: 0000 0000 0000 0000 0000 0000 0000 0000
00000070: 0000 0000 0000 0000 0000 0000 0000 0000
00000080: 0000 0000 0000 0000 0000 0000 0000 0000
00000090: 0000 0000 0000 0000 0000 0000 0000 0000
000000a0: 0000 0000 0000 0000 0000 0000 0000 0000
000000b0: 0000 0000 0000 0000 0000 0000 0000 0000
000000c0: 0000 0000 0000 0000 0000 0000 0000 0000
000000d0: 0000 0000 0000 0000 0000 0000 0000 0000
000000e0: 0000 0000 0000 0000 0000 0000 0000 0000
000000f0: 0000 0000 0000 0000 0000 0000 0000 0000
00000100: 0000 0000 0000 0000 0000 0000 0000 0000
00000110: 0000 0000 0000 0000 0000 0000 0000 0000
00000120: 0000 0000 0000 0000 0000 0000 0000 0000
00000130: 0000 0000 0000 0000 0000 0000 0000 0000
00000140: 0000 0000 0000 0000 0000 0000 0000 0000
00000150: 0000 0000 0000 0000 0000 0000 0000 0000
00000160: 0000 0000 0000 0000 0000 0000 0000 0000
00000170: 0000 0000 0000 0000 0000 0000 0000 0000
00000180: 0000 0000 0000 0000 0000 0000 0000 0000
00000190: 0000 0000 0000 0000 0000 0000 0000 0000
000001a0: 0000 0000 0000 0000 0000 0000 0000 0000
000001b0: 0000 0000 0000 0000 0000 0000 0000 0000
000001c0: 0000 0000 0000 0000 0000 0000 0000 0000
000001d0: 0000 0000 0000 0000 0000 0000 0000 0000
000001e0: 0000 0000 0000 0000 0000 0000 0000 0000
000001f0: 0000 0000 0000 0000 0000 0000 0000 0000

actor_fc_layers.blocks.1.block.1.running_var f4 [128]
1.0 1.0 1.0 1.0 1.0 1.0 1.0 1.0
1.0 1.0 1.0 1.0 1.0 1.0 1.0 1.0
1.0 1.0 1.0 1.0 1.0 1.0 1.0 1.0
1.0 1.0 1.0 1.0 1.0 1.0 1.0 1.0
1.0 1.0 1.0 1.0 1.0 1.0 1.0 1.0
1.0 1.0 1.0 1.0 1.0 1.0 1.0 1.0
1.0 1.0 1.0 1.0 1.0 1.0 1.0 1.0
1.0 1.0 1.0 1.0 1.0 1.0 1.0 1.0
1.0 1.0 1.0 1.0 1.0 1.0 1.0 1.0
1.0 1.0 1.0 1.0 1.0 1.0 1.0 1.0
1.0 1.0 1.0 1.0 1.0 1.0 1.0 1.0
1.0 1.0 1.0 1.0 1.0 1.0 1.0 1.0
1.0 1.0 1.0 1.0 1.0 1.0 1.0 1.0
1.0 1.0 1.0 1.0 1.0 1.0 1.0 1.0
1.0 1.0 1.0 1.0 1.0 1.0 1.0 1.0
1.0 1.0 1.0 1.0 1.0 1.0 1.0 1.0
00000000: 0000 803f 0000 803f 0000 803f 0000 803f
00000010: 0000 803f 0000 803f 0000 803f 0000 803f
00000020: 0000 803f 0000 803f 0000 803f 0000 803f
00000030: 0000 803f 0000 803f 0000 803f 0000 803f
00000040: 0000 803f 0000 803f 0000 803f 0000 803f
00000050: 0000 803f 0000 803f 0000 803f 0000 803f
00000060: 0000 803f 0000 803f 0000 803f 0000 803f
00000070: 0000 803f 0000 803f 0000 803f 0000 803f
00000080: 0000 803f 0000 803f 0000 803f 0000 803f
00000090: 0000 803f 0000 803f 0000 803f 0000 803f
000000a0: 0000 803f 0000 803f 0000 803f 0000 803f
000000b0: 0000 803f 0000 803f 0000 803f 0000 803f
000000c0: 0000 803f 0000 803f 0000 803f 0000 803f
000000d0: 0000 803f 0000 803f 0000 803f 0000 803f
000000e0: 0000 803f 0000 803f 0000 803f 0000 803f
000000f0: 0000 803f 0000 803f 0000 803f 0000 803f
00000100: 0000 803f 0000 803f 0000 803f 0000 803f
00000110: 0000 803f 0000 803f 0000 803f 0000 803f
00000120: 0000 803f 0000 803f 0000 803f 0000 803f
00000130: 0000 803f 0000 803f 0000 803f 0000 803f
00000140: 0000 803f 0000 803f 0000 803f 0000 803f
00000150: 0000 803f 0000 803f 0000 803f 0000 803f
00000160: 0000 803f 0000 803f 0000 803f 0000 803f
00000170: 0000 803f 0000 803f 0000 803f 0000 803f
00000180: 0000 803f 0000 803f 0000 803f 0000 803f
00000190: 0000 803f 0000 803f 0000 803f 0000 803f
000001a0: 0000 803f 0000 803f 0000 803f 0000 803f
000001b0: 0000 803f 0000 803f 0000 803f 0000 803f
000001c0: 0000 803f 0000 803f 0000 803f 0000 803f
000001d0: 0000 803f 0000 803f 0000 803f 0000 803f
000001e0: 0000 803f 0000 803f 0000 803f 0000 803f
000001f0: 0000 803f 0000 803f 0000 803f 0000 803f

actor_fc_layers.blocks.2.block.0.weight f4 [128, 128]
0.12905689 -0.5087383 -0.08923385 0.06416477 -0.011730745 0.016407866 0.38401377 -0.2727107
0.26405048 -0.3267169 -0.09926752 0.21794951 0.042865355 0.36207625 -0.2532412 -0.18657507
-0.6981935 -0.07548224 -0.023490198 -0.00688577 -0.6288392 -0.09501077 0.13170838 -0.6943873
0.13023981 0.2042122 -0.73475873 0.17589015 0.07718508 -0.2137765 -0.35741422 -0.20762628
0.18095484 -0.40905085 0.06971126 0.1987775 -0.15164244 -0.18057118 -0.29691753 -0.73190236
0.12946053 0.035580397 0.115459554 0.049944203 0.089146875 -0.022020625 -0.4202311 -0.25124466
-0.24576642 0.42246693 -0.4496359 0.45238945 -0.2993943 0.07120608 0.038998302 0.09329097
0.09712812 -0.023634529 -0.32814547 -0.015287294 0.16086428 -0.0023903043 -0.18544534 0.047470793
0.09127383 0.0146636125 0.19370973 -0.3424532 -0.2307548 -0.34309173 -0.23482849 0.289649
0.05568053 -0.12666434 0.11863948 0.31735995 -0.03412987 0.034446523 -0.2131304 0.16140275
0.08421784 0.3485433 -0.7492546 -0.13259834 0.3610767 -0.4265045 0.053053398 0.33827752
0.24125426 -0.04410476 -0.20440838 0.4122068 -0.39138743 -0.060100153 0.0427466 0.005397381
0.32397997 -0.116766594 0.0058255265 0.09469052 0.10363542 -0.21495448 -0.068887115 -0.3549438
-0.01733605 -0.13162147 0.41200697 -0.22234148 0.38680226 0.052611176 -0.30547142 0.11945377
-0.022039006 -0.009473868 -0.14451107 -0.018885 0.013315998 0.15494072 0.042320058 -0.3690338
-0.048559267 0.25818196 0.015281421 0.043980435 0.08177494 -0.14136593 0.3014919 -0.44961086
-0.032748636 -0.13944472 -0.48198146 -0.89965355 0.10360151 0.081098214 -0.19095019 0.20272392
-0.051139813 -0.29714882 -0.11072746 -0.43480334 0.012329863 -0.060150724 -0.033471912 -0.079175614
-0.43353045 -0.29550296 0.027109873 0.055243865 0.06671873 -0.097765595 -0.056339778 -0.30986673
0.3826139 -0.11708541 -0.103450604 -0.19311467 -0.0007608702 -0.13902268 -0.30055305 -0.55164814
-0.12729396 -0.23816085 -0.08307681 -0.19142924 -0.40615043 -0.10081812 -0.24487011 -0.040768143
-0.07686005 -0.29353473 -0.044093937 -0.21125516 -0.03268382 -0.25491077 -0.21352512 -0.3811331
-0.07252213 -0.068167076 -0.48570707 0.37693432 -0.33182034 -0.17349288 -0.13115333 -0.044622052
-0.23770086 -0.009559171 0.12664361 -0.14012048 -0.16611865 -0.5014018 0.10510565 0.009520839
0.039979726 -0.14143021 -0.24669366 0.2499856 -0.042834543 0.08244663 -0.26773974 -0.1404079
-0.029185137 0.1539433 -0.22535956 -0.07895798 -0.040809747 -0.26519546 -0.22733313 0.17750745
0.047784146 -0.13921614 0.28770632 -0.06169732 -0.21317202 0.072412044 0.09213282 0.40699005
0.09392218 -0.15147662 -0.057129033 -0.17610314 -0.10633442 -0.090327404 0.28769794 0.0753684
-0.013890905 -0.10090069 -0.26403478 -0.10759288 -0.033606395 -0.12760471 -0.07704785 0.14794622
-0.0051543876 -0.12939613 0.07700536 0.14235932 -0.21387973 -0.30629566 -0.37838292 -0.099396706
-0.05891705 -0.5523605 0.22233123 0.121600434 -0.10965079 0.41787863 -0.42864507 -0.05915599
-0.3042276 0.15405637 -0.40643433 -0.07113841 -0.23141688 -0.3050068 0.27418694 -0.29716963
00000000: 7d27 043e ac3c 02bf 3dc0 b6bd d268 833d
00000010: 5032 40bc ca69 863c 749d c43e bda0 8bbe
00000020: a031 873e 7047 a7be c54c cbbd 282e 5f3e
00000030: 9593 2f3d 0f62 b93e d5a8 81be 890d 3fbe
00000040: cfbc 32bf 6f96 9abd 846e c0bc 06a2 e1bb
00000050: 9bfb 20bf 0295 c2bd 90de 063e 5ec3 31bf
00000060: 965d 053e 011d 513e 2619 3cbf 8c1c 343e
00000070: 3613 9e3d 3ae8 5abe fffe b6be fc9b 54be
00000080: 3a4c 393e 1d6f d1be c7c4 8e3d 548c 4b3e
00000090: 2848 1bbe a7e7 38be 9305 98be f45d 3bbf
000000a0: 4d91 043e c0bc 113d 0f76 ec3d 4b92 4c3d
000000b0: a392 b63d 9964 b4bc 8828 d7be 24a3 80be
000000c0: 31aa 7bbe 964d d83e ad36 e6be 979f e73e
000000d0: 364a 99be 7ed4 913d afbc 1f3d 560f bf3d
000000e0: 1ceb c63d 339d c1bc af02 a8be 8f77 7abc
000000f0: 9bb9 243e a7a6 1cbb 62e5 3dbe bc70 423d
00000100: c6ed ba3d a63f 703c d85b 463e 0756 afbe
00000110: fc4a 6cbe b8a9 afbe e176 70be e04c 943e
00000120: 4411 643d 4cb4 01be 41f9 f23d 017d a23e
00000130: c3cb 0bbd cc17 0d3d db3e 5abe c346 253e
00000140: 677a ac3d 4474 b23e 26cf 3fbf dcc7 07be
00000150: 0cdf b83e cc5e dabe 854e 593d b632 ad3e
00000160: 5b0b 773e 31a7 34bd 6e50 51be c50c d33e
00000170: ef63 c8be 942b 76bd 0f17 2f3d 83dc b03b
00000180: b4e0 a53e 5323 efbd 0fe4 be3b 1aed c13d
00000190: cf3e d43d 071d 5cbe b014 8dbd 32bb b5be
000001a0: 5504 8ebc c7c7 06be 94f2 d23e 7cad 63be
000001b0: f20a c63e d17e 573d c066 9cbe 2ea4 f43d
000001c0: 258b b4bc 4838 1bbc b6fa 13be b7b4 9abc
000001d0: 582b 5a3c c8a8 1e3e cc57 2d3d 00f2 bcbe
000001e0: 15e6 46bd 6d30 843e ed5e 7a3c d424 343d
000001f0: 9f79 a73d 3bc2 10be 255d 9a3e 6533 e6be
00000200: 6f23 06bd 99ca 0ebe 46c6 f6be b24f 66bf
00000210: 072d d43d d216 a63d 7288 43be dc96 4f3e
00000220: fb77 51bd e423 98be 14c5 e2bd 8b9e debe
00000230: 3203 4a3c 9b60 76bd d819 09bd d326 a2bd
00000240: b4f7 ddbe 2a4c 97be 8615 de3c 6447 623d
00000250: d4a3 883d 5439 c8bd 8ac4 66bd daa6 9ebe
00000260: f8e5 c33e 7aca efbd e9dd d3bd dabf 45be
00000270: 2375 47ba f65b 0ebe 17e2 99be d038 0dbf
00000280: 5959 02be 70e0 73be 2d24 aabd 0706 44be
00000290: f3f2 cfbe bb79 cebd 3bbf 7abe 7ffc 26bd
000002a0: cd68 9dbd 2f4a 96be d89b 34bd 4653 58be
000002b0: 78df 05bd aa83 82be 54a6 5abe e123 c3be
000002c0: 7c86 94bd 2e9b 8bbd 99ae f8be 89fd c03e
000002d0: 5be4 a9be 1ea8 31be 0f4d 06be 9dc5 36bd
000002e0: db67 73be 129e 1cbc ddae 013e be7b 0fbe
000002f0: 021b 2abe de5b 00bf a241 d73d 4bfd 1b3c
00000300: c8c1 233d 15d3 10be 439d 7cbe 3afc 7f3e
00000310: 4673 2fbd c7d9 a83d 2f15 89be 17c7 0fbe
00000320: ab15 efbc 50a3 1d3e a8c4 66be b9b4 a1bd
00000330: 1f28 27bd b3c7 87be 04ca 68be 83c4 353e
00000340: 4fb9 433d ad8e 0ebe 3e4e 933e 54b6 7cbd
00000350: c449 5abe c44c 943d 22b0 bc3d 0061 d03e
00000360: 465a c03d b01c 1bbe 2200 6abd 6254 34be
00000370: dcc5 d9bd 93fd b8bd 254d 933e bf5a 9a3d
00000380: ae96 63bc 05a5 cebd 912f 87be a859 dcbd
00000390: dca6 09bd cfaa 02be 43cb 9dbd 377f 173e
000003a0: 23e6 a8bb 6b80 04be fcb4 9d3d a4c6 113e
000003b0: 4a03 5bbe c9d2 9cbe 68bb c1be 8090 cbbd
000003c0: 0153 71bd 7f67 0dbf ccaa 633e a609 f93d
000003d0: 9890 e0bd 30f4 d53e 5e77 dbbe 8d4d 72bd
000003e0: b8c3 9bbe f4c0 1d3e 2918 d0be 04b1 91bd
000003f0: 8cf8 6cbe da29 9cbe 3b62 8c3e 9e26 98be

actor_fc_layers.blocks.2.block.1.weight f4 [128]
1.039082 1.3454607 1.4108905 1.8323106 1.6064998 1.6644722 1.3194343 1.6849337
1.6857185 1.6453314 1.3857472 0.9887497 1.6292578 2.0272975 0.8238725 1.7983595
1.225337 1.6592096 1.7556363 1.3708274 2.0075948 1.0304198 2.2095494 0.8341739
1.1586416 1.6161063 2.152568 1.3514555 1.0844419 1.1398716 1.8199295 1.3958042
1.5363207 1.3099266 1.7763121 1.607292 1.4755673 1.5071602 1.400498 1.4538965
1.4069456 2.6412373 1.3265067 1.3417317 1.5419794 1.7310281 0.94302446 1.228225
1.6448603 1.6933234 1.6011252 1.5839393 1.3156903 1.6140431 1.544145 1.6107057
1.958111 1.8351945 1.5003035 1.6694214 1.5857939 1.0689212 1.3980771 1.639718
1.628248 1.3212528 1.5014019 1.1605594 1.9787132 1.1284266 1.3575394 1.8263992
1.4167161 1.5241154 1.7683278 0.8961134 2.2359614 1.543222 0.9874179 2.0548916
1.429821 1.8743298 1.7682002 1.601592 1.3896905 1.4752777 1.8738052 1.4478364
1.1152446 1.2143121 1.6792632 1.135327 2.0357668 1.4739649 1.7934593 1.2956932
1.6676716 1.7417648 1.6484344 1.5274085 1.8322 1.7157826 0.7919528 1.6978952
1.3709027 1.4384576 1.7228668 1.5359752 0.9660211 1.7903723 0.9504288 0.9875588
2.1201422 1.4126188 1.1466885 1.6539565 1.4793929 1.4104583 1.776923 2.1334543
1.5968395 1.5821602 1.2167063 2.9929194 1.3629562 0.8966107 1.6011108 2.1508675
00000000: a400 853f 0e38 ac3f 0f98 b43f 2789 ea3f
00000010: c9a1 cd3f 6d0d d53f 39e3 a83f e8ab d73f
00000020: a0c5 d73f 389a d23f 2a60 b13f b31e 7d3f
00000030: 858b d03f 3ebf 0140 4fe9 523f a530 e63f
00000040: d8d7 9c3f fb60 d43f b1b8 e03f 4677 af3f
00000050: 6f7c 0040 cce4 833f 4269 0d40 6c8c 553f
00000060: 5e4e 943f 92dc ce3f adc3 0940 7efc ac3f
00000070: fece 8a3f 50e7 913f 73f3 e83f b6a9 b23f
00000080: 28a6 c43f adab a73f 325e e33f bfbb cd3f
00000090: 64df bc3f a0ea c03f 8543 b33f 4819 ba3f
000000a0: cb16 b43f 080a 2940 f9ca a93f ddbd ab3f
000000b0: 955f c53f 5492 dd3f 0d6a 713f 7a36 9d3f
000000c0: c88a d23f d2be d83f acf1 cc3f 86be ca3f
000000d0: 8a68 a83f f798 ce3f 8ba6 c53f 9b2b ce3f
000000e0: 62a3 fa3f a7e7 ea3f f209 c03f 9aaf d53f
000000f0: 4bfb ca3f 69d2 883f 31f4 b23f 48e2 d13f
00000100: 6e6a d03f d01e a93f f02d c03f 368d 943f
00000110: 7946 fd3f 4870 903f dac3 ad3f 73c7 e93f
00000120: f456 b53f 3716 c33f 9158 e23f b067 653f
00000130: fe19 0f40 4c88 c53f 6bc7 7c3f 5883 0340
00000140: 6004 b73f 0aea ef3f 6254 e23f f700 cd3f
00000150: 61e1 b13f e6d5 bc3f d9d8 ef3f b452 b93f
00000160: 56c0 8e3f 946e 9b3f 19f2 d63f 6552 913f
00000170: 014a 0240 e2aa bc3f 1390 e53f 46d9 a53f
00000180: 4376 d53f 26f2 de3f e6ff d23f 1f82 c33f
00000190: 8885 ea3f c49e db3f 6bbd 4a3f a154 d93f
000001a0: bd79 af3f 611f b83f e686 dc3f d69a c43f
000001b0: 294d 773f eb2a e53f 4d4f 733f a7d0 7c3f
000001c0: 69b0 0740 b1d0 b43f b0c6 923f d9b4 d33f
000001d0: bf5c bd3f e689 b43f 3672 e33f 848a 0840
000001e0: 3d65 cc3f 3a84 ca3f 08bd 9b3f fe8b 3f40
000001f0: 5975 ae3f 4788 653f 33f1 cc3f d0a7 0940

actor_fc_layers.blocks.2.block.1.bias f4 [128]
0.16957769 -0.38340545 -0.055836815 0.18837976 -0.25360265 0.41024917 -0.43598592 0.2767456
-0.088191256 0.067866065 -0.013167462 -0.27348518 -0.07610847 0.51835406 -0.055944618 0.23399712
-0.14260158 0.07778754 -0.22457182 0.09338667 0.3845939 0.27255902 0.38854524 -0.04400091
-0.6264527 0.03230762 0.3061056 -0.0049234373 -0.080539554 -0.08765494 -0.028374694 -0.25340992
-0.12258323 0.20265618 0.084807 0.15768269 0.048501026 0.15211162 0.24548917 0.15204835
0.090080634 0.44445676 -0.048961308 -0.19969487 -0.15464771 -0.014134297 -0.067103826 -0.3024512
0.02934708 0.13542639 -0.13808608 0.17264313 -0.0287103 0.04249627 0.15020019 0.13871194
0.25519332 -0.060396586 -0.51881236 0.27921835 0.1102688 -0.07228632 -0.019511435 -0.2050441
0.009117104 -0.22071414 -0.120580226 0.12571865 -0.16799746 -0.008993917 0.15049241 0.115827344
0.18013091 -0.16312927 0.39995226 -0.1132539 0.069424525 -0.27299327 -0.49197492 -0.1314866
0.113214724 0.30630985 0.12578635 0.08659836 -0.0657706 0.2328991 0.1450673 -0.30016285
-0.12503101 -0.18061343 0.31971905 0.079311244 -0.30736038 -0.32727197 0.12875514 -0.1441097
0.20239523 0.0007458343 0.2816611 0.014376402 -0.23070559 0.28026867 -0.4645511 -0.20282577
0.07440536 -0.21777393 0.06870358 -0.08704033 -0.083542466 -0.09421586 -0.04962183 0.100157194
-0.14787011 0.046917584 -0.08908769 -0.010673758 0.31581876 0.032487106 0.28722194 0.25551176
0.23975705 0.05567402 0.17362438 0.23727566 -0.3211053 0.0805891 -0.40146 0.36873683
00000000: c6a5 2d3e b84d c4be 25b5 64bd a0e6 403e
00000010: 35d8 81be 2e0c d23e 8c39 dfbe 99b1 8d3e
00000020: 9e9d b4bd 5dfd 8a3d 57bc 57bc 4006 8cbe
00000030: c2de 9bbd dab2 043f 2f26 65bd f19c 6f3e
00000040: 2606 12be 134f 9f3d 28f6 65be 8341 bf3d
00000050: 7ee9 c43e db8c 8b3e 67ef c63e 4c3a 34bd
00000060: 345f 20bf ff54 043d e0b9 9c3e c954 a1bb
00000070: ecf1 a4bd 6f84 b3bd 0c72 e8bc f2be 81be
00000080: eb0c fbbd 1a85 4f3e 4baf ad3d 9277 213e
00000090: 03a9 463d 26c3 1b3e 8361 7b3e 90b2 1b3e
000000a0: 327c b83d d68f e33e a78b 48bd d07c 4cbe
000000b0: f85b 1ebe 8a93 67bc bb6d 89bd e2da 9abe
000000c0: 4a69 f03c 37ad 0a3e 7066 0dbe 5cc9 303e
000000d0: dd31 ebbc 9210 2e3d 14ce 193e 810a 0e3e
000000e0: b3a8 823e 6962 77bd e3d0 04bf b5f5 8e3e
000000f0: 9cd4 e13d da0a 94bd 72d6 9fbc 15f7 51be
00000100: e85f 153c e302 62be c4f2 f6bd 64bc 003e
00000110: 8707 2cbe 395b 13bc af1a 1a3e e336 ed3d
00000120: 3d74 383e 5c0b 27be 8bc6 cc3e a9f1 e7bd
00000130: 722e 8e3d c6c5 8bbe 23e4 fbbe 6ca4 06be
00000140: 1fdd e73d a5d4 9c3e 23ce 003e 7b5a b13d
00000150: bdb2 86bd 1a7d 6e3e 868c 143e f2ae 99be
00000160: 2108 00be baf2 38be 37b2 a33e ef6d a23d
00000170: 575e 9dbe 3190 a7be 63d8 033e 7e91 13be
00000180: b240 4f3e 1884 433a e235 903e 008b 6b3c
00000190: 163e 6cbe 607f 8f3e a4d9 edbe 8fb1 4fbe
000001a0: d661 983d 2100 5fbe 76b4 8c3d 3342 b2bd
000001b0: 5018 abbd 3ff4 c0bd 4340 4bbd 371f cd3d
000001c0: 436b 17be a72c 403d 9b73 b6bd fce0 2ebc
000001d0: ffb2 a13e 3311 053d c10e 933e 70d2 823e
000001e0: df82 753e 710a 643d 97ca 313e 64f8 723e
000001f0: ea67 a4be e60b a53d 2a8c cdbe 13cb bc3e

actor_fc_layers.blocks.2.block.1.running_mean f4 [128]
0.0 0.0 0.0 0.0 0.0 0.0 0.0 0.0
0.0 0.0 0.0 0.0 0.0 0.0 0.0 0.0
0.0 0.0 0.0 0.0 0.0 0.0 0.0 0.0
0.0 0.0 0.0 0.0 0.0 0.0 0.0 0.0
0.0 0.0 0.0 0.0 0.0 0.0 0.0 0.0
0.0 0.0 0.0 0.0 0.0 0.0 0.0 0.0
0.0 0.0 0.0 0.0 0.0 0.0 0.0 0.0
0.0 0.0 0.0 0.0 0.0 0.0 0.0 0.0
0.0 0.0 0.0 0.0 0.0 0.0 0.0 0.0
0.0 0.0 0.0 0.0 0.0 0.0 0.0 0.0
0.0 0.0 0.0 0.0 0.0 0.0 0.0 0.0
0.0 0.0 0.0 0.0 0.0 0.0 0.0 0.0
0.0 0.0 0.0 0.0 0.0 0.0 0.0 0.0
0.0 0.0 0.0 0.0 0.0 0.0 0.0 0.0
0.0 0.0 0.0 0.0 0.0 0.0 0.0 0.0
0.0 0.0 0.0 0.0 0.0 0.0 0.0 0.0
00000000: 0000 0000 0000 0000 0000 0000 0000 0000
00000010: 0000 0000 0000 0000 0000 0000 0000 0000
00000020: 0000 0000 0000 0000 0000 0000 0000 0000
00000030: 0000 0000 0000 0000 0000 0000 0000 0000
00000040: 0000 0000 0000 0000 0000 0000 0000 0000
00000050: 0000 0000 0000 0000 0000 0000 0000 0000
00000060: 0000 0000 0000 0000 0000 0000 0000 0000
00000070: 0000 0000 0000 0000 0000 0000 0000 0000
00000080: 0000 0000 0000 0000 0000 0000 0000 0000
00000090: 0000 0000 0000 0000 0000 0000 0000 0000
000000a0: 0000 0000 0000 0000 0000 0000 0000 0000
000000b0: 0000 0000 0000 0000 0000 0000 0000 0000
000000c0: 0000 0000 0000 0000 0000 0000 0000 0000
000000d0: 0000 0000 0000 0000 0000 0000 0000 0000
000000e0: 0000 0000 0000 0000 0000 0000 0000 0000
000000f0: 0000 0000 0000 0000 0000 0000 0000 0000
00000100: 0000 0000 0000 0000 0000 0000 0000 0000
00000110: 0000 0000 0000 0000 0000 0000 0000 0000
00000120: 0000 0000 0000 0000 0000 0000 0000 0000
00000130: 0000 0000 0000 0000 0000 0000 0000 0000
00000140: 0000 0000 0000 0000 0000 0000 0000 0000
00000150: 0000 0000 0000 0000 0000 0000 0000 0000
00000160: 0000 0000 0000 0000 0000 0000 0000 0000
00000170: 0000 0000 0000 0000 0000 0000 0000 0000
00000180: 0000 0000 0000 0000 0000 0000 0000 0000
00000190: 0000 0000 0000 0000 0000 0000 0000 0000
000001a0: 0000 0000 0000 0000 0000 0000 0000 0000
000001b0: 0000 0000 0000 0000 0000 0000 0000 0000
000001c0: 0000 0000 0000 0000 0000 0000 0000 0000
000001d0: 0000 0000 0000 0000 0000 0000 0000 0000
000001e0: 0000 0000 0000 0000 0000 0000 0000 0000
000001f0: 0000 0000 0000 0000 0000 0000 0000 0000

actor_fc_layers.blocks.2.block.1.running_var f4 [128]
1.0 1.0 1.0 1.0 1.0 1.0 1.0 1.0
1.0 1.0 1.0 1.0 1.0 1.0 1.0 1.0
1.0 1.0 1.0 1.0 1.0 1.0 1.0 1.0
1.0 1.0 1.0 1.0 1.0 1.0 1.0 1.0
1.0 1.0 1.0 1.0 1.0 1.0 1.0 1.0
1.0 1.0 1.0 1.0 1.0 1.0 1.0 1.0
1.0 1.0 1.0 1.0 1.0 1.0 1.0 1.0
1.0 1.0 1.0 1.0 1.0 1.0 1.0 1.0
1.0 1.0 1.0 1.0 1.0 1.0 1.0 1.0
1.0 1.0 1.0 1.0 1.0 1.0 1.0 1.0
1.0 1.0 1.0 1.0 1.0 1.0 1.0 1.0
1.0 1.0 1.0 1.0 1.0 1.0 1.0 1.0
1.0 1.0 1.0 1.0 1.0 1.0 1.0 1.0
1.0 1.0 1.0 1.0 1.0 1.0 1.0 1.0
1.0 1.0 1.0 1.0 1.0 1.0 1.0 1.0
1.0 1.0 1.0 1.0 1.0 1.0 1.0 1.0
00000000: 0000 803f 0000 803f 0000 803f 0000 803f
00000010: 0000 803f 0000 803f 0000 803f 0000 803f
00000020: 0000 803f 0000 803f 0000 803f 0000 803f
00000030: 0000 803f 0000 803f 0000 803f 0000 803f
00000040: 0000 803f 0000 803f 0000 803f 0000 803f
00000050: 0000 803f 0000 803f 0000 803f 0000 803f
00000060: 0000 803f 0000 803f 0000 803f 0000 803f
00000070: 0000 803f 0000 803f 0000 803f 0000 803f
00000080: 0000 803f 0000 803f 0000 803f 0000 803f
00000090: 0000 803f 0000 803f 0000 803f 0000 803f
000000a0: 0000 803f 0000 803f 0000 803f 0000 803f
000000b0: 0000 803f 0000 803f 0000 803f 0000 803f
000000c0: 0000 803f 0000 803f 0000 803f 0000 803f
000000d0: 0000 803f 0000 803f 0000 803f 0000 803f
000000e0: 0000 803f 0000 803f 0000 803f 0000 803f
000000f0: 0000 803f 0000 803f 0000 803f 0000 803f
00000100: 0000 803f 0000 803f 0000 803f 0000 803f
00000110: 0000 803f 0000 803f 0000 803f 0000 803f
00000120: 0000 803f 0000 803f 0000 803f 0000 803f
00000130: 0000 803f 0000 803f 0000 803f 0000 803f
00000140: 0000 803f 0000 803f 0000 803f 0000 803f
00000150: 0000 803f 0000 803f 0000 803f 0000 803f
00000160: 0000 803f 0000 803f 0000 803f 0000 803f
00000170: 0000 803f 0000 803f 0000 803f 0000 803f
00000180: 0000 803f 0000 803f 0000 803f 0000 803f
00000190: 0000 803f 0000 803f 0000 803f 0000 803f
000001a0: 0000 803f 0000 803f 0000 803f 0000 803f
000001b0: 0000 803f 0000 803f 0000 803f 0000 803f
000001c0: 0000 803f 0000 803f 0000 803f 0000 803f
000001d0: 0000 803f 0000 803f 0000 803f 0000 803f
000001e0: 0000 803f 0000 803f 0000 803f 0000 803f
000001f0: 0000 803f 0000 803f 0000 803f 0000 803f
