saved_models/agent_maddpgv2_vs_opp_maddpgv2_2_vs_2_2_big_adver_best_models/maddpgv2_target_actor_0.pt (torch, 160779 bytes, 21 tensors)

actor_fc_layers.blocks.0.block.0.weight f4 [128, 22]
000000 4f 43 69 bd 20 c7 01 3e 51 73 51 3f 3a cc fb 3c
       -0.056948956 0.12673616 0.81816584 0.030737031
000010 7e cb 47 3e 5d bc 8a 3e 2c a0 47 be 2f 68 c5 3c
       0.1951122 0.27096835 -0.19494694 0.02409753
000020 19 3e f6 bd 56 d0 cb 3d 19 c5 0f be 10 c4 b5 3e
       -0.12023563 0.09951846 -0.1404003 0.35501146
000030 f4 f5 24 3e 9a f1 86 3e 85 d8 24 be 5a 48 0d 3d
       0.16109449 0.26356202 -0.1609822 0.034492828
000040 76 95 c3 be c1 99 2c 3d d4 06 a7 bd e6 12 fd bd
       -0.38199967 0.04213882 -0.08155599 -0.1235712
000050 43 ee 1e 3e e9 0a 90 3d 72 ac a3 3d f2 ea 57 3e
       0.15520577 0.07033331 0.07991876 0.21085718
000060 68 a6 3b 3f 27 2c 9f be e8 71 27 be 19 c2 2e 3e
       0.7330079 -0.31088373 -0.16352046 0.1706623
000070 24 88 14 be 36 35 e9 3c 62 ec f2 bd 15 9b cf 3c
       -0.14505059 0.028467756 -0.11861493 0.025342504
000080 54 6a d7 3d 57 ee 22 be 1a 61 21 bd a2 1c 98 3e
       0.10518327 -0.15911232 -0.039399244 0.29709345
000090 2d 84 8d 3e 91 ee cb bd 87 3e 67 be 0c 1e 5c bc
       0.27639905 -0.09957612 -0.22582446 -0.013434898
0000a0 99 95 ed bd a3 90 62 3d 3d 35 06 be 01 fb bc bd
       -0.11600799 0.055313718 -0.13106246 -0.09227563
0000b0 6a 29 8c be 91 58 9d be cd 12 42 bf ba 75 29 be
       -0.27375346 -0.30731633 -0.7580994 -0.16548815
0000c0 54 5c 0d 3e f3 ea 12 be 86 f1 26 be 0f 50 e3 3d
       0.13804752 -0.14347439 -0.16303071 0.11099254
0000d0 27 d4 65 3e 20 f5 38 bd 79 da f4 3d 34 ae 2f 3e
       0.22444211 -0.045155644 0.11955733 0.17156297
0000e0 34 46 02 bd b5 da 65 be 0a cd 10 3e 14 3c 58 3e
       -0.031805232 -0.22446711 0.14140716 0.21116668
0000f0 0e fd 2b be e4 cf 41 be b5 a0 bf 3b 01 e6 d9 3e
       -0.16795751 -0.1892696 0.005848015 0.42558292
000100 16 c5 bf be f3 47 a5 3e be 38 90 3c 59 e8 9d be
       -0.37455052 0.32281455 0.017605182 -0.3084133
000110 6a a6 52 3e c5 70 26 3f 1b ef 92 3d 72 1e 91 3d
       0.20571294 0.6501582 0.07174512 0.07085885
000120 71 58 a1 3c f4 e9 6c bd fc 90 73 3e bc 6d 08 be
       0.019695492 -0.057840303 0.23785776 -0.1332311
000130 a9 6e 95 be 68 52 b3 3d 5f 66 bc 3c e7 6e f3 3e
       -0.2918599 0.08755952 0.022998033 0.4754555
000140 8f 70 23 be 6d 86 81 3c 14 06 5c 3e 2b d9 4c be
       -0.15960906 0.01581117 0.21486694 -0.20004718
000150 09 14 02 3e 0d ec 54 bd 35 88 40 3d 14 8d a3 bb
       0.12702955 -0.051982928 0.047004897 -0.004991183
000160 1a 1f dd be 86 53 81 3e 30 24 e5 3e bb e7 a7 be
       -0.4318779 0.25259036 0.4475417 -0.32793984
000170 f3 76 36 bd 71 6b 20 bf 05 e9 50 3e b4 d6 dd bc
       -0.044547033 -0.6266394 0.2040139 -0.027079917
000180 4e d0 3d bd f8 5a 7d be 33 34 02 be 72 8b 87 3e
       -0.046341233 -0.24741733 -0.12715225 0.26473576
000190 c7 69 82 be d9 3d 51 be cc 28 8b be 50 9c 81 be
       -0.25471327 -0.2043375 -0.27179563 -0.2531457
0001a0 cd 4d d5 3e 4e 2e cb 3d e3 56 43 be 95 e8 25 3e
       0.4166092 0.09920941 -0.19076113 0.16202004
0001b0 70 68 69 3e cd 6b 85 bd 52 44 ea 3d 5d 1f 58 3e
       0.22793746 -0.06514702 0.11438812 0.21105714
0001c0 57 8f e8 be 99 f1 7d be cf 03 73 be fe 3f 76 3e
       -0.4542186 -0.24799193 -0.23731922 0.24047849
0001d0 9a f4 93 3c d3 c4 9c 3d da 84 02 3d 2e 73 47 bd
       0.018060971 0.07654729 0.03186498 -0.04869383
0001e0 ab 87 b1 3d 29 2b a7 be 0a 35 8c 3e 68 6e 9b 3c
       0.08668455 -0.32650116 0.27384216 0.018973544
0001f0 77 c7 27 bf d1 14 d4 bd 0b 05 1c 3d 90 8f 56 3e
       -0.65538734 -0.10355533 0.038090747 0.20953202
000200 7f 4d 3d 3d 28 b7 14 3d a0 87 6a be 0e 9b 17 bf
       0.046216484 0.036307484 -0.229033 -0.5922097
000210 e1 17 ef 3d b1 9e ac 3d 11 23 20 3f 52 ca 18 3f
       0.116744764 0.084287055 0.6255351 0.59683716
000220 72 ba 0b 3d 45 10 8e 3d 24 8b f5 3c 68 7c 11 3d
       0.034113355 0.06936697 0.029973574 0.035519034
000230 4f a7 48 3c 2e e0 80 be de 79 49 bc b2 4a 51 3e
       0.012246921 -0.25171036 -0.012297122 0.2043865
000240 d0 9e a4 3d 6d b7 90 3e 51 02 91 3e 89 36 25 be
       0.080381036 0.28264943 0.2832208 -0.16134085
000250 d8 de 83 3e ae f6 2e 3c 0b 21 97 be a2 ba 71 3e
       0.25755954 0.01067893 -0.29517397 0.23606351
000260 b1 ad 47 be 36 1b de 3d 4c f5 49 be 44 5b a4 3d
       -0.19499852 0.10845034 -0.1972248 0.0802522
000270 1d a8 20 3e 56 88 97 3b 11 ff b0 3e 7d 22 28 be
       0.1568913 0.004624407 0.345696 -0.16419406
000280 7f e7 64 ba 63 31 43 3e 91 34 56 bc 44 08 8b bd
       -0.00087320054 0.19061808 -0.013074056 -0.06788686
000290 a9 bc 28 be 1f d2 ca be db f3 49 bd 51 ac 30 bf
       -0.16478218 -0.39613435 -0.049304824 -0.69012934
0002a0 9b a4 89 3e ea b3 54 be 99 b1 b7 be 89 eb ae 3d
       0.26883397 -0.20771757 -0.35877684 0.085410185
0002b0 78 d2 9b 3e 32 cc d1 bd c7 fb 19 3e e0 07 88 bd
       0.30434012 -0.10244025 0.15037452 -0.06642127
0002c0 53 76 9b 3d ec 0d 0f bf c2 9f 1a 3e 44 b7 15 3e
       0.07590928 -0.5588062 0.15100005 0.14620692
0002d0 dc 82 ee ba ea 2b 93 be 41 87 90 3d be 50 83 bd
       -0.0018196958 -0.2874444 0.07057048 -0.06411885
0002e0 67 78 2e 3d 53 2b 05 3f 93 f3 ba 3b 7c da 1d 3e
       0.042595293 0.5201923 0.005705306 0.15415376
0002f0 39 3c e8 be 8e 88 3b 3d 14 54 df bd 32 99 98 3e
       -0.45358446 0.045784526 -0.109047085 0.2980438
000300 f4 59 a0 3e 50 cf 4e 3e 37 54 3f 3e 80 a5 0d 3f
       0.3131863 0.20196271 0.18684469 0.5533066
000310 61 44 bf 3c 82 4b dd 3c 05 5e d8 bd 35 da 8a 3e
       0.023348035 0.027013544 -0.10564808 0.27119604
000320 63 9f c0 be b2 cc 19 bf 85 e7 d3 bd a2 39 41 3e
       -0.37621602 -0.60077965 -0.10346893 0.18869641
000330 7f db 0a 3e 01 4d 28 bc d4 82 bd bd 88 bf 94 3e
       0.13560294 -0.010272265 -0.09253469 0.29052377
000340 62 07 ca be 73 b6 73 3e 3c 71 94 3d d8 4c 2b 3e
       -0.39458758 0.23800068 0.0724816 0.16728532
000350 52 28 23 bf 89 24 f2 bd a8 84 2f be b2 d0 a6 b9
       -0.637334 -0.11823375 -0.17140448 -0.00031817477
000360 ed 8b 7e 3e b1 41 3e 3c 1d c9 90 be 52 b0 17 be
       0.24858065 0.011612342 -0.28278437 -0.14813355
000370 cf ea 88 be 38 27 b8 ba 78 ee 3b bb cb 28 83 be
       -0.26741645 -0.0014049774 -0.0028676074 -0.2561706
000380 da 9c b3 3d 88 ef 56 bd 1a ed ee bd 57 96 03 be
       0.087701514 -0.05247453 -0.11666317 -0.12850319
000390 e1 ef bf be 76 64 b3 be 59 f2 6a bd 15 c2 bf 3e
       -0.374877 -0.35037583 -0.057360027 0.3745276
0003a0 a2 3e 46 3e fe ae 83 be e6 cc 75 be e0 6c 9e be
       0.1935983 -0.25719446 -0.24003944 -0.3094244
0003b0 b1 8f 26 be a9 f3 29 bd 2b 81 53 3d 5c 0e c6 3e
       -0.16265751 -0.041492138 0.051636856 0.3868283
0003c0 b7 35 66 be 8a 49 22 3c 82 62 46 3d 02 43 b4 3e
       -0.22481428 0.009905228 0.048433788 0.35207373
0003d0 e3 87 4d 3d 7a 71 4e be d3 4b 01 be 82 e6 87 3d
       0.05017842 -0.20160475 -0.12626581 0.06635763
0003e0 22 74 7b 3b b4 69 dd 3d 76 d7 41 bf 4a 55 d7 be
       0.003836878 0.10811177 -0.7571939 -0.42057258
0003f0 0a 79 7a bc ce d5 37 bd 25 60 d1 be 0b b8 2e be
       -0.015287647 -0.044881634 -0.40893665 -0.17062394

actor_fc_layers.blocks.0.block.1.weight f4 [128]
000000 85 35 97 3f 15 2c a7 3f 88 b8 ac 3f 7a 11 91 3f
       1.1813208 1.3060328 1.3493814 1.1333458
000010 b7 f5 a7 3f 4f 70 94 3f 9a 11 a8 3f 41 fd aa 3f
       1.3121861 1.1596774 1.3130372 1.3358537
000020 00 f6 89 3f 5d dd 9f 3f d9 26 91 3f 49 89 98 3f
       1.0778198 1.248943 1.133998 1.1916896
000030 31 9a 83 3f 45 ac 85 3f 4d b6 83 3f 57 dd 70 3f
       1.028143 1.0443197 1.0290009 0.9408774
000040 74 f4 b3 3f ec 82 7d 3f 87 4a bc 3f 39 ba a4 3f
       1.4058976 0.99027896 1.4710244 1.2869331
000050 6f 69 78 3f 84 cb 7e 3f fa 9e a7 3f d1 9d a1 3f
       0.9703588 0.9952929 1.3095391 1.2626287
000060 e5 f2 bc 3f b4 e8 80 3f 89 7e 85 3f 3f d1 a2 3f
       1.4761626 1.0071015 1.042924 1.2720107
000070 c2 cc 95 3f 41 bc b1 3f 31 9a dd 3f ae cf 67 3f
       1.1703112 1.3885576 1.731268 0.9055127
000080 85 78 9f 3f a4 96 a6 3f 44 66 97 3f 1e 62 8a 3f
       1.2458655 1.3014722 1.1828084 1.0811193
000090 f4 be 66 3f a4 ac 6a 3f 3c 19 8a 3f 03 1c 6e 3f
       0.9013512 0.9166968 1.0788951 0.9301149
0000a0 25 27 9b 3f a1 8a c9 3f fb c1 68 3f bc 90 76 3f
       1.2121321 1.5745431 0.9092099 0.963146
0000b0 2c bc 81 3f 39 04 73 3f 7d 52 81 3f bc ba 9d 3f
       1.013555 0.9492832 1.0103298 1.2322612
0000c0 89 25 7d 3f 98 92 a2 3f 66 01 84 3f 93 16 8b 3f
       0.988854 1.2700987 1.0312927 1.0866264
0000d0 e7 79 88 3f 00 db 40 3f 69 19 a7 3f 92 01 98 3f
       1.0662202 0.7533417 1.305463 1.1875479
0000e0 be ae 87 3f 04 19 52 3f 19 02 6d 3f 03 b1 5a 3f
       1.0600202 0.8206942 0.92581326 0.8542635
0000f0 66 c3 8c 3f 98 2c 9f 3f cd dd 99 3f 38 b8 9e 3f
       1.0997131 1.2435484 1.2020813 1.2399969
000100 fe 59 b8 3f 7d 6f b1 3f cb bf 86 3f 2a 19 98 3f
       1.4402463 1.3862149 1.052728 1.188268
000110 51 a0 a9 3f 0b 03 ae 3f 84 c8 79 3f 9a df a1 3f
       1.325205 1.3594679 0.9757159 1.2646363
000120 49 6a a0 3f 3c 4a 8d 3f b6 58 80 3f 16 e0 79 3f
       1.2532436 1.103828 1.0027072 0.97607553
000130 7f 73 91 3f bf 07 82 3f 69 fe b2 3f c7 a8 bc 3f
       1.1363372 1.0158614 1.398389 1.4739007
000140 06 28 9a 3f 48 48 bc 3f 3e 8f 82 3f 16 fc 8d 3f
       1.2043464 1.4709558 1.0199964 1.1092556
000150 e7 25 82 3f 6b 2a 91 3f 45 02 6f 3f ac 17 a5 3f
       1.0167817 1.134107 0.9336284 1.2897849
000160 c9 80 b6 3f be 90 86 3f 16 bd 9a 3f db 86 b7 3f
       1.4258052 1.0512922 1.2088954 1.433803
000170 1b 6c 7f 3f 56 fe 80 3f f2 29 9b 3f e5 d7 4c 3f
       0.9977433 1.0077617 1.2122176 0.8001693
000180 57 c1 88 3f c1 0c 4c 3f 16 de a4 3f a3 d9 d3 3f
       1.0684003 0.7970696 1.2880275 1.6550792
000190 a4 4c 6b 3f b6 e5 44 3f aa 94 b6 3f fe 9a 86 3f
       0.9191382 0.7691301 1.4264119 1.051605
0001a0 a9 a4 be 3f 40 8c c4 3f 61 d9 a1 3f 4d 2e 79 3f
       1.4894 1.5355301 1.2644464 0.97336274
0001b0 c5 f8 db 3f 8e a9 8e 3f d4 d6 a6 3f 42 f0 8b 3f
       1.7185293 1.1145494 1.303431 1.0932696
0001c0 27 ab 8c 3f 01 fb 8e 3f a8 16 60 3f bc 53 a0 3f
       1.0989732 1.117035 0.8753457 1.2525554
0001d0 f5 f5 9f 3f 09 cc 60 3f f7 1f 59 3f e6 75 b4 3f
       1.2496935 0.8781133 0.848144 1.409848
0001e0 20 a0 6c 3f 2c fa 6e 3f b3 ff 56 3f 89 00 6f 3f
       0.9243183 0.9335048 0.83983916 0.9336019
0001f0 57 64 8c 3f f4 ab 8f 3f 32 4f c0 3f 4f 9f c5 3f
       1.0968121 1.1224351 1.5024168 1.5439242

actor_fc_layers.blocks.0.block.1.bias f4 [128]
000000 ed 28 66 3e 4f b7 fc 3d d6 eb 2c 3e 7e 3b 5e 3c
       0.2247655 0.12339651 0.1688684 0.013563989
000010 43 4e 83 bd 05 c7 d7 be 83 b4 14 3e ff 8a 01 be
       -0.064114116 -0.42144027 0.14521985 -0.12650679
000020 a9 02 7c bc fd c9 b9 be 9e da 8c bd 2b 69 2d be
       -0.015381494 -0.36286917 -0.068776354 -0.1693465
000030 22 04 ba bd 85 fa a7 3c 5c 45 29 3e 05 bc c3 3b
       -0.090828195 0.0205052 0.16530365 0.0059733414
000040 aa 59 02 be cf 62 66 3e 43 99 88 3d 2c 6c 6d be
       -0.12729517 0.2249863 0.06669857 -0.23185796
000050 db 72 b7 bd 00 ea 37 be 19 89 37 3e 20 e0 d8 3c
       -0.08957454 -0.17960358 0.17923392 0.026474059
000060 67 69 7f 3e 76 c8 a2 be fc a7 7e be 0f 8d 78 bc
       0.24942552 -0.31793565 -0.24868768 -0.01517035
000070 a9 db 52 bc 8b 3c 0b bd cf f1 87 bd 63 97 c4 be
       -0.012869754 -0.033993285 -0.06637918 -0.3839675
000080 a1 c1 4f 3d f7 bc 13 be 75 81 f4 3d 66 58 a5 3d
       0.05072177 -0.14427553 0.119387545 0.08073501
000090 07 1a 88 be fd 81 fc bc 25 6e 68 3e f2 2c da be
       -0.26582357 -0.030823702 0.22698267 -0.42612416
0000a0 f4 df 49 be ad b5 0f 3e e4 95 7d 3e d7 fe 08 bd
       -0.19714338 0.14034148 0.2476421 -0.03344616
0000b0 cb 8f 61 be 5c 91 3a 3e 9c 48 ea 38 55 23 03 bd
       -0.22027509 0.18219513 0.00011171514 -0.032016117
0000c0 b4 f1 04 3d 5a 08 11 3e 40 cf 26 be 65 65 93 bd
       0.03245707 0.14163342 -0.16289997 -0.07197074
0000d0 66 af 9a 3d 56 e8 c2 be 2e 7e 08 bc f9 fd 6c be
       0.07552986 -0.38067883 -0.008330865 -0.23143758
0000e0 6a be 9b 3d 7e 75 82 be 15 0f 1d be cd 33 ef be
       0.07604678 -0.25480264 -0.15337785 -0.46719208
0000f0 91 3e 4f be 05 cd 2f bd 77 b4 a6 be 84 9a 7d 3e
       -0.20238711 -0.04292013 -0.3255956 0.24765974
000100 2f b0 2a 3d 7f ef b6 3c 68 8d 19 bd 96 f4 fb bc
       0.041671928 0.022330998 -0.03748837 -0.030756276
000110 c2 24 2c 3e 89 fc bd 3d 79 c7 94 be 42 cf 24 be
       0.16810897 0.09276683 -0.29058436 -0.16094688
000120 1d 04 31 be 81 11 1f bd b3 43 80 be b6 06 63 be
       -0.17286725 -0.038835052 -0.2505165 -0.22170529
000130 74 f4 92 bd 9e c1 d0 3b 99 10 7d 3d 11 f2 7b 3e
       -0.07175532 0.006370737 0.061783407 0.2460406
000140 0f 7e 50 3e fa 3d ae 3e 7e ae 1d bf bb 6c ad bd
       0.20360588 0.3403166 -0.6159438 -0.08468004
000150 9b 55 f0 be 87 38 3d be cd 66 09 be a6 d6 bc be
       -0.46940312 -0.18478595 -0.13418122 -0.36882514
000160 cf e2 1c 3e d5 89 88 3d 23 10 d7 bd 43 59 80 3e
       0.15320896 0.066669144 -0.10501125 0.250681
000170 4c 1d db bb da cb aa bd a4 30 2e be 85 06 41 be
       -0.006686842 -0.08339663 -0.17010742 -0.18850143
000180 f4 89 8f 3d 8c 04 89 be b7 33 ce be 01 98 f7 3e
       0.07008734 -0.26761281 -0.4027383 0.48358157
000190 3a b4 19 be e2 de 3e 3e 38 7d 90 3c 6d 23 97 be
       -0.15010157 0.1863971 0.017637834 -0.29519215
0001a0 3e bc 5f 3e 91 ab bb 3d d5 8c 4d bd 20 79 78 be
       0.21849152 0.09163583 -0.050183136 -0.24264956
0001b0 70 ea e9 3d 40 71 5e 3e 50 32 fb bb ad 4b 9f be
       0.114216685 0.21722889 -0.00766591 -0.31112424
0001c0 a0 0d 14 be 42 21 5c be ee 39 bb be e7 f3 03 3e
       -0.14458323 -0.21497062 -0.36567634 0.1288601
0001d0 ea 6f 5e be ed af 0a be 7f 35 b8 3e d7 14 3d 3e
       -0.2172238 -0.13543673 0.35978314 0.18464981
0001e0 2c 53 33 be 94 79 06 be 6d 94 6e be 3d 8b 8e be
       -0.17512196 -0.13132316 -0.23298807 -0.27840605
0001f0 61 e4 94 3d f0 0f 20 3d 4b 77 e1 3d 9b 3d 7c bd
       0.07270122 0.0390777 0.110090815 -0.06158219

actor_fc_layers.blocks.0.block.1.running_mean f4 [128]
000000 00 00 00 00 00 00 00 00 00 00 00 00 00 00 00 00
       0.0 0.0 0.0 0.0
000010 00 00 00 00 00 00 00 00 00 00 00 00 00 00 00 00
       0.0 0.0 0.0 0.0
000020 00 00 00 00 00 00 00 00 00 00 00 00 00 00 00 00
       0.0 0.0 0.0 0.0
000030 00 00 00 00 00 00 00 00 00 00 00 00 00 00 00 00
       0.0 0.0 0.0 0.0
000040 00 00 00 00 00 00 00 00 00 00 00 00 00 00 00 00
       0.0 0.0 0.0 0.0
000050 00 00 00 00 00 00 00 00 00 00 00 00 00 00 00 00
       0.0 0.0 0.0 0.0
000060 00 00 00 00 00 00 00 00 00 00 00 00 00 00 00 00
       0.0 0.0 0.0 0.0
000070 00 00 00 00 00 00 00 00 00 00 00 00 00 00 00 00
       0.0 0.0 0.0 0.0
000080 00 00 00 00 00 00 00 00 00 00 00 00 00 00 00 00
       0.0 0.0 0.0 0.0
000090 00 00 00 00 00 00 00 00 00 00 00 00 00 00 00 00
       0.0 0.0 0.0 0.0
0000a0 00 00 00 00 00 00 00 00 00 00 00 00 00 00 00 00
       0.0 0.0 0.0 0.0
0000b0 00 00 00 00 00 00 00 00 00 00 00 00 00 00 00 00
       0.0 0.0 0.0 0.0
0000c0 00 00 00 00 00 00 00 00 00 00 00 00 00 00 00 00
       0.0 0.0 0.0 0.0
0000d0 00 00 00 00 00 00 00 00 00 00 00 00 00 00 00 00
       0.0 0.0 0.0 0.0
0000e0 00 00 00 00 00 00 00 00 00 00 00 00 00 00 00 00
       0.0 0.0 0.0 0.0
0000f0 00 00 00 00 00 00 00 00 00 00 00 00 00 00 00 00
       0.0 0.0 0.0 0.0
000100 00 00 00 00 00 00 00 00 00 00 00 00 00 00 00 00
       0.0 0.0 0.0 0.0
000110 00 00 00 00 00 00 00 00 00 00 00 00 00 00 00 00
       0.0 0.0 0.0 0.0
000120 00 00 00 00 00 00 00 00 00 00 00 00 00 00 00 00
       0.0 0.0 0.0 0.0
000130 00 00 00 00 00 00 00 00 00 00 00 00 00 00 00 00
       0.0 0.0 0.0 0.0
000140 00 00 00 00 00 00 00 00 00 00 00 00 00 00 00 00
       0.0 0.0 0.0 0.0
000150 00 00 00 00 00 00 00 00 00 00 00 00 00 00 00 00
       0.0 0.0 0.0 0.0
000160 00 00 00 00 00 00 00 00 00 00 00 00 00 00 00 00
       0.0 0.0 0.0 0.0
000170 00 00 00 00 00 00 00 00 00 00 00 00 00 00 00 00
       0.0 0.0 0.0 0.0
000180 00 00 00 00 00 00 00 00 00 00 00 00 00 00 00 00
       0.0 0.0 0.0 0.0
000190 00 00 00 00 00 00 00 00 00 00 00 00 00 00 00 00
       0.0 0.0 0.0 0.0
0001a0 00 00 00 00 00 00 00 00 00 00 00 00 00 00 00 00
       0.0 0.0 0.0 0.0
0001b0 00 00 00 00 00 00 00 00 00 00 00 00 00 00 00 00
       0.0 0.0 0.0 0.0
0001c0 00 00 00 00 00 00 00 00 00 00 00 00 00 00 00 00
       0.0 0.0 0.0 0.0
0001d0 00 00 00 00 00 00 00 00 00 00 00 00 00 00 00 00
       0.0 0.0 0.0 0.0
0001e0 00 00 00 00 00 00 00 00 00 00 00 00 00 00 00 00
       0.0 0.0 0.0 0.0
0001f0 00 00 00 00 00 00 00 00 00 00 00 00 00 00 00 00
       0.0 0.0 0.0 0.0

actor_fc_layers.blocks.0.block.1.running_var f4 [128]
000000 00 00 80 3f 00 00 80 3f 00 00 80 3f 00 00 80 3f
       1.0 1.0 1.0 1.0
000010 00 00 80 3f 00 00 80 3f 00 00 80 3f 00 00 80 3f
       1.0 1.0 1.0 1.0
000020 00 00 80 3f 00 00 80 3f 00 00 80 3f 00 00 80 3f
       1.0 1.0 1.0 1.0
000030 00 00 80 3f 00 00 80 3f 00 00 80 3f 00 00 80 3f
       1.0 1.0 1.0 1.0
000040 00 00 80 3f 00 00 80 3f 00 00 80 3f 00 00 80 3f
       1.0 1.0 1.0 1.0
000050 00 00 80 3f 00 00 80 3f 00 00 80 3f 00 00 80 3f
       1.0 1.0 1.0 1.0
000060 00 00 80 3f 00 00 80 3f 00 00 80 3f 00 00 80 3f
       1.0 1.0 1.0 1.0
000070 00 00 80 3f 00 00 80 3f 00 00 80 3f 00 00 80 3f
       1.0 1.0 1.0 1.0
000080 00 00 80 3f 00 00 80 3f 00 00 80 3f 00 00 80 3f
       1.0 1.0 1.0 1.0
000090 00 00 80 3f 00 00 80 3f 00 00 80 3f 00 00 80 3f
       1.0 1.0 1.0 1.0
0000a0 00 00 80 3f 00 00 80 3f 00 00 80 3f 00 00 80 3f
       1.0 1.0 1.0 1.0
0000b0 00 00 80 3f 00 00 80 3f 00 00 80 3f 00 00 80 3f
       1.0 1.0 1.0 1.0
0000c0 00 00 80 3f 00 00 80 3f 00 00 80 3f 00 00 80 3f
       1.0 1.0 1.0 1.0
0000d0 00 00 80 3f 00 00 80 3f 00 00 80 3f 00 00 80 3f
       1.0 1.0 1.0 1.0
0000e0 00 00 80 3f 00 00 80 3f 00 00 80 3f 00 00 80 3f
       1.0 1.0 1.0 1.0
0000f0 00 00 80 3f 00 00 80 3f 00 00 80 3f 00 00 80 3f
       1.0 1.0 1.0 1.0
000100 00 00 80 3f 00 00 80 3f 00 00 80 3f 00 00 80 3f
       1.0 1.0 1.0 1.0
000110 00 00 80 3f 00 00 80 3f 00 00 80 3f 00 00 80 3f
       1.0 1.0 1.0 1.0
000120 00 00 80 3f 00 00 80 3f 00 00 80 3f 00 00 80 3f
       1.0 1.0 1.0 1.0
000130 00 00 80 3f 00 00 80 3f 00 00 80 3f 00 00 80 3f
       1.0 1.0 1.0 1.0
000140 00 00 80 3f 00 00 80 3f 00 00 80 3f 00 00 80 3f
       1.0 1.0 1.0 1.0
000150 00 00 80 3f 00 00 80 3f 00 00 80 3f 00 00 80 3f
       1.0 1.0 1.0 1.0
000160 00 00 80 3f 00 00 80 3f 00 00 80 3f 00 00 80 3f
       1.0 1.0 1.0 1.0
000170 00 00 80 3f 00 00 80 3f 00 00 80 3f 00 00 80 3f
       1.0 1.0 1.0 1.0
000180 00 00 80 3f 00 00 80 3f 00 00 80 3f 00 00 80 3f
       1.0 1.0 1.0 1.0
000190 00 00 80 3f 00 00 80 3f 00 00 80 3f 00 00 80 3f
       1.0 1.0 1.0 1.0
0001a0 00 00 80 3f 00 00 80 3f 00 00 80 3f 00 00 80 3f
       1.0 1.0 1.0 1.0
0001b0 00 00 80 3f 00 00 80 3f 00 00 80 3f 00 00 80 3f
       1.0 1.0 1.0 1.0
0001c0 00 00 80 3f 00 00 80 3f 00 00 80 3f 00 00 80 3f
       1.0 1.0 1.0 1.0
0001d0 00 00 80 3f 00 00 80 3f 00 00 80 3f 00 00 80 3f
       1.0 1.0 1.0 1.0
0001e0 00 00 80 3f 00 00 80 3f 00 00 80 3f 00 00 80 3f
       1.0 1.0 1.0 1.0
0001f0 00 00 80 3f 00 00 80 3f 00 00 80 3f 00 00 80 3f
       1.0 1.0 1.0 1.0

actor_fc_layers.blocks.1.block.0.weight f4 [128, 128]
000000 94 12 d6 3e e2 19 03 3f 44 a7 c4 bd 68 84 91 3e
       0.4181105 0.5121137 -0.09602216 0.2842133
000010 9d e6 4a be 66 4d bf be 21 7e 57 3e 62 2e 98 be
       -0.19814534 -0.37363738 0.21044208 -0.29722887
000020 ec ee a7 3e f8 52 dc bd ba d3 2c be ca 4b d3 3b
       0.3279947 -0.107580125 -0.16877642 0.0064482437
000030 16 47 c9 3d c0 0f 07 3e 95 c0 91 3d 6e c5 b6 3e
       0.09828012 0.13189602 0.0711681 0.35697502
000040 50 a4 f5 3d ad 95 fc 3c af ce 00 3f f6 ec c0 bd
       0.11994231 0.03083309 0.50315374 -0.09420197
000050 4d 05 ba be 8c 73 8a be 3c f2 8f 3e 62 7b 36 be
       -0.3633217 -0.2704128 0.28114498 -0.17820504
000060 ae 27 de 3e 32 e0 8c be 30 53 23 3e 96 8b 12 3e
       0.43389648 -0.27514797 0.15949702 0.1431106
000070 9a ae f2 3e 9c 85 9d be e1 ab bf be a6 ba 57 3d
       0.47398835 -0.30765998 -0.3743582 0.052668236
000080 99 35 4a be 45 15 c1 bb 27 51 fb 3d d9 5b 6d bd
       -0.19747008 -0.005892428 0.12271338 -0.05794892
000090 c0 61 f0 bd fd 90 aa 3e d6 ad 0d 3e 09 7c 61 be
       -0.11737394 0.33313742 0.13835844 -0.22019972
0000a0 7e cc 9d 3d 69 8e 2b 3e b4 63 b7 3e 17 67 53 3e
       0.077050194 0.16753544 0.35818255 0.20644794
0000b0 f2 39 1d be ed 04 20 3e 5c 84 b1 3e 03 52 bd bd
       -0.15354136 0.15626879 0.34671295 -0.09244158
0000c0 e9 9c a4 3d 84 d1 41 bd 6e 65 aa be 3e 40 a2 be
       0.08037741 -0.04731895 -0.3328051 -0.31689638
0000d0 c7 62 a2 3e 84 ce 89 3e f1 0d 01 be 07 2c 19 be
       0.31715986 0.2691537 -0.12602974 -0.14958201
0000e0 eb 47 b2 be 2a e6 96 3d 86 33 27 3e 44 b7 5a 3c
       -0.34820494 0.07368119 0.16328248 0.013349358
0000f0 d4 9a 93 be 6e fe 21 3e 53 04 87 3d 6f 11 21 3e
       -0.28829062 0.15819713 0.06592622 0.15729307
000100 2b df 18 3e 0b da 82 be 15 d1 63 3e 61 fa 06 3e
       0.14928882 -0.2555698 0.22247727 0.1318145
000110 51 2d 9f 3e df ac 02 bb 03 a4 32 be bd 68 b6 be
       0.3108926 -0.0019939465 -0.17445378 -0.35626784
000120 70 58 8e 3c f0 94 91 3e 85 6e cd 3d 91 b1 74 3d
       0.017376155 0.28433943 0.100308456 0.059739653
000130 c4 8c d0 bd ee c6 da be 78 1d 19 be bc 03 9b be
       -0.10183099 -0.42729896 -0.14952648 -0.30276287
000140 a7 de 38 3e b9 c2 f0 3e eb e1 16 be 44 75 00 bd
       0.18053685 0.47023562 -0.14734618 -0.031361833
000150 ef ca 06 bf 89 b4 bd 3e cf 6a 3e be 27 f6 26 3c
       -0.526534 0.370518 -0.18595432 0.010190523
000160 29 cf 21 3e 8c d2 87 be d6 13 26 3e 76 8e 0b 3b
       0.15801682 -0.26527822 0.16218504 0.002129463
000170 8a ad 83 bd 0b 88 19 3e 3d ce e5 bc 18 03 a4 3d
       -0.06429584 0.14993303 -0.028052444 0.080084026
000180 a2 b2 82 3e 31 db b5 bd 2c 20 b4 be 1c f3 1d be
       0.2552691 -0.08879698 -0.35180795 -0.1542477
000190 38 7e 3b be 08 6c 70 3d c3 8b 3e 3e 1c 8c a2 3d
       -0.18309867 0.058696777 0.18608002 0.0793688
0001a0 f2 da 1d 3e 62 7f 3f 3d 40 6d 8a bd 9c 84 23 3e
       0.15415552 0.04675234 -0.06759119 0.15968555
0001b0 8d 77 9a be 96 b6 9b 3e d2 68 55 be 5a d6 1d 3d
       -0.30169335 0.3041274 -0.20840767 0.0385345
0001c0 f6 ab 4d be 4b 98 91 be b5 53 7b 3e 09 38 d1 3e
       -0.20085129 -0.28436503 0.2454365 0.40863064
0001d0 fc 49 20 3e 9e 52 7f bd 3d 0a 9e 3e 31 80 bd 3c
       0.15653223 -0.06233465 0.30867186 0.023132415
0001e0 5f f5 83 3e 01 fb 70 bd 4c 5f 2e 3d f6 65 88 3d
       0.2577314 -0.058833126 0.04257135 0.066600725
0001f0 26 7c d0 bc a5 8c a8 bd 5f 12 b5 3c 57 03 fe be
       -0.025449824 -0.08229951 0.022103487 -0.49611923
000200 b1 fb ad bc da c6 04 3e eb 94 17 3e 1a 19 80 be
       -0.02123818 0.12966481 0.14802901 -0.2501915
000210 18 36 a7 3d f6 4b 0e be 0b db 50 3c f9 ba 61 bb
       0.081646144 -0.13896164 0.012747536 -0.003444372
000220 b0 d4 e7 3d 7d f8 68 bd 34 a8 96 be 08 2a 56 bd
       0.11319864 -0.056877602 -0.29425204 -0.052286178
000230 d0 68 14 be 1c 27 68 3d 26 73 82 bd 84 71 96 bd
       -0.14493108 0.056677923 -0.06369619 -0.0734587
000240 23 8f 5c 3e ed 8b 25 be fe d0 b9 bd 00 9a 97 be
       0.21538977 -0.16166659 -0.09073065 -0.2960968
000250 e4 43 5b be 66 bb b7 bd ac 58 e0 3d 34 5f 1e bd
       -0.21412617 -0.0897129 0.10954413 -0.03866501
000260 55 03 72 3d e8 db 95 be c3 2d 1a 3e 28 39 ad 3d
       0.05908521 -0.29269338 0.15056519 0.08458167
000270 22 8f c3 3c 54 c2 27 be 67 93 9f be 50 da 18 be
       0.023871962 -0.16382724 -0.31167147 -0.1492703
000280 50 df 19 3e b7 a9 ce bc b8 5f 92 bd cd 6e e1 bd
       0.15026593 -0.02522741 -0.07147163 -0.11007462
000290 8b 9e 58 be 90 9e bc 3c 5d 9f ee bd d4 d1 9a ba
       -0.2115423 0.023024827 -0.1165149 -0.0011811801
0002a0 ce 86 b6 bd 50 3f 5d 3d 55 41 00 3d 31 2f 34 3d
       -0.08912431 0.054015458 0.031312305 0.043990318
0002b0 ca 97 3d bd 00 ea 92 be 17 c9 c2 bd cb 81 c9 be
       -0.046287335 -0.28694153 -0.09511011 -0.39356837
0002c0 88 c0 58 be 11 21 3a be bc 50 2c ba fa 84 03 3c
       -0.21167195 -0.18176676 -0.00065733097 0.00802731
0002d0 21 ec 67 be 3c ec 00 be 90 ac 90 bd 53 a6 c2 bd
       -0.2264867 -0.12590116 -0.07064164 -0.0950438
0002e0 ee 28 c2 3c 88 ec 59 be 53 08 54 3d c8 28 81 bd
       0.023701157 -0.21281636 0.05176575 -0.063066065
0002f0 72 e6 bc bd 00 30 d8 bd ac f7 2b be 37 29 19 be
       -0.092236415 -0.1055603 -0.16793698 -0.14957128
000300 7e 5e 8a 3e d2 89 4d 3d 59 92 a1 bd 7e 0d 0b be
       0.27025217 0.050180264 -0.07889242 -0.13579366
000310 e2 4d 38 be 30 cc 5e be e6 83 ba bd 85 39 80 be
       -0.1799846 -0.21757579 -0.09107189 -0.25043884
000320 ac 35 51 be 90 60 65 3d 9f f4 97 3e f4 ab 65 3d
       -0.2043063 0.056000292 0.2967882 0.05607219
000330 13 b3 c3 bd 8c b0 55 be 73 51 40 3e 4f ce c1 3c
       -0.0955564 -0.20868129 0.1878107 0.023657946
000340 11 47 63 be d9 be a4 bd 4e 54 0d 3e a3 c7 04 be
       -0.22195078 -0.08044214 0.13801691 -0.1296678
000350 fe b9 41 bc 01 bd ff 3d 61 22 e0 bd 46 a8 d8 bd
       -0.011824129 0.124872215 -0.10944057 -0.105789706
000360 ec 25 9d be cc f7 1f be 3e d9 81 3e 61 8e a7 be
       -0.30692995 -0.15621871 0.25361055 -0.32725814
000370 38 3b d6 bd bf 88 84 bd 63 05 c2 bb 63 0a 16 3c
       -0.10460514 -0.06471395 -0.0059210523 0.00915775
000380 9a 0d 8d 3d 50 6e d1 bd ae fa b7 bd 40 cc 98 be
       0.0688736 -0.102261186 -0.0898336 -0.2984333
000390 09 62 6e be 54 f8 de bd b7 c9 11 3d 1c 88 5c be
       -0.23279585 -0.108872086 0.03559276 -0.21536297
0003a0 b0 92 99 be c5 cc a5 bd 48 e0 5a be ed cf 22 be
       -0.29994726 -0.08095697 -0.21374619 -0.1589963
0003b0 3d 10 24 be 89 91 24 be d4 9e 96 bd 74 dc 1f bd
       -0.1602182 -0.16071142 -0.07354513 -0.0390286
0003c0 17 2a 00 3e 33 35 0c 3d d5 63 3d 3e 2a b1 8b 3d
       0.12516056 0.034230422 0.18495114 0.06820901
0003d0 d8 1f 19 bd f1 fe 3a 3d bb be 09 be 23 8b 4c be
       -0.037383884 0.045653287 -0.13451664 -0.19974951
0003e0 f7 c2 0f be 85 0d ef bd db 9a 43 bd be c8 0a 3d
       -0.14039217 -0.116725005 -0.047755104 0.03388285
0003f0 b1 1f e8 bc 4c 50 24 bd 48 c1 1b be e2 38 08 be
       -0.028335424 -0.04011564 -0.1521045 -0.13302949

actor_fc_layers.blocks.1.block.1.weight f4 [128]
000000 47 3b ad 3f 27 51 90 3f 27 fb d2 3f b8 f5 8a 3f
       1.3533715 1.1274766 1.6482896 1.0856237
000010 7a 51 cd 3f 43 96 93 3f ae 47 c0 3f 32 3d c2 3f
       1.604049 1.1530231 1.5021875 1.5174925
000020 c2 3e dd 3f 33 df bb 3f 7b f4 a4 3f a8 f0 a0 3f
       1.7284777 1.467749 1.288711 1.2573442
000030 3a f3 aa 3f 87 07 97 3f 5d 6f 9a 3f d9 98 7b 3f
       1.3355477 1.1799172 1.2065235 0.982801
000040 52 2f aa 3f c6 ee 89 3f c9 a8 76 3f 4f aa b3 3f
       1.3295691 1.0775993 0.96351296 1.4036349
000050 bb 58 9a 3f ab 0c 9d 3f 85 54 78 3f fe d1 d2 3f
       1.2058328 1.2269491 0.97003967 1.6470335
000060 47 5f d0 3f 2e c6 b8 3f 54 e6 d4 3f 2e fc 9c 3f
       1.6279076 1.443548 1.663279 1.2264459
000070 16 15 87 3f ad ba b0 3f da 63 88 3f f6 df 86 3f
       1.055331 1.3806969 1.0655472 1.0537097
000080 cf fa 8d 3f 2b 2a cc 3f 67 ae dc 3f 3d 05 a3 3f
       1.1092166 1.5950369 1.7240723 1.2735974
000090 ac 7e a2 3f 85 bf 7b 3f 9d 1c b0 3f 38 51 a3 3f
       1.2694907 0.9833911 1.3758732 1.2759161
0000a0 0d c6 b9 3f 8b 52 a1 3f a5 88 74 3f 3f 4f 98 3f
       1.4513565 1.2603315 0.95521003 1.1899184
0000b0 88 0f b0 3f 61 b7 a1 3f 49 6a 8f 3f dc e5 94 3f
       1.375474 1.2634088 1.1204311 1.1632648
0000c0 c2 9a b3 3f 32 cf b3 3f ba 62 b5 3f 0e d8 ba 3f
       1.4031603 1.4047606 1.4170754 1.4597185
0000d0 ad 32 a8 3f da 85 e0 3f 95 78 7d 3f 26 84 ca 3f
       1.3140465 1.7540848 0.9901212 1.5821579
0000e0 af 0d b6 3f d7 74 a8 3f ff 5a c3 3f 5a 46 b6 3f
       1.4222926 1.3160657 1.5262145 1.424022
0000f0 3f db 9d 3f 97 c1 ac 3f 90 3e bd 3f 82 8c 85 3f
       1.2332534 1.3496579 1.4784718 1.0433505
000100 dd 90 7f 3f a2 45 ae 3f db c5 99 3f 80 45 ae 3f
       0.9983042 1.3615 1.2013506 1.361496
000110 01 b4 74 3f b6 10 b6 3f 5a f0 b5 3f 64 6b b8 3f
       0.95587164 1.422385 1.4213974 1.4407773
000120 3b 3c 8c 3f d2 1c c3 3f b8 80 99 3f 79 d9 77 3f
       1.0955881 1.524317 1.1992407 0.9681621
000130 df b1 9f 3f cb b1 ac 3f 58 9e ac 3f df 1d 9b 3f
       1.2476157 1.3491758 1.3485823 1.2118491
000140 fa 04 a2 3f 61 42 e3 3f 5a 44 87 3f 33 3d ac 3f
       1.2657769 1.7754632 1.0567734 1.3456177
000150 48 ef 98 3f 16 00 96 3f ba 09 8a 3f f3 a3 9e 3f
       1.1948023 1.1718776 1.0784218 1.2393783
000160 b4 5d a2 3f 75 1b a7 3f b9 6d b1 3f 7b a8 ad 3f
       1.2684846 1.3055254 1.386161 1.3567041
000170 6c c7 ea 3f af b2 bc 3f ff 9c c6 3f 1d 5e 97 3f
       1.8342109 1.474203 1.5516661 1.1825596
000180 c9 b0 a7 3f f2 41 b0 3f c6 79 ad 3f 20 e3 b6 3f
       1.3100826 1.3770125 1.3552787 1.4288063
000190 d4 99 bd 3f 61 77 c8 3f fd 9e 79 3f 32 6f a7 3f
       1.481257 1.5661432 0.9750822 1.3080809
0001a0 21 07 af 3f b5 2f 9c 3f 8d 53 a3 3f 54 04 b2 3f
       1.367405 1.2202059 1.2759873 1.3907571
0001b0 64 cc db 3f 67 3a 99 3f a8 c9 90 3f b3 b7 a2 3f
       1.717175 1.1970948 1.1311541 1.271231
0001c0 67 fa 92 3f eb 23 a4 3f e1 20 73 3f 61 57 b1 3f
       1.1482667 1.2823461 0.94972044 1.3854791
0001d0 21 fa cd 3f 43 d5 b4 3f 74 8b a0 3f 75 39 76 3f
       1.6091958 1.4127582 1.2542558 0.9618142
0001e0 0e a0 c1 3f 7c 15 a8 3f a4 c8 a1 3f d2 ee bf 3f
       1.512697 1.3131557 1.2639356 1.4994757
0001f0 a6 a9 bb 3f 53 6e 9c 3f 36 48 bd 3f 1e b2 b1 3f
       1.4661148 1.2221168 1.4787662 1.3882482

actor_fc_layers.blocks.1.block.1.bias f4 [128]
000000 29 8a 6f 3e 33 e8 43 be d9 1f cb 3c 2f 7d 78 3e
       0.23392548 -0.19131546 0.02479546 0.24266504
000010 82 8b 85 3e 5f 59 c2 bd 75 23 a9 bd 54 d1 90 bd
       0.26083 -0.094897024 -0.08258716 -0.07071176
000020 b7 45 88 3b 9e 39 34 3e d4 56 03 be f1 4f 00 be
       0.0041587013 0.17600104 -0.12826091 -0.12530495
000030 8d 9a 0b 3d 9b fb 38 3d ea 1c 06 3e 1c 7c de bc
       0.034082938 0.045161825 0.13096967 -0.02715879
000040 ce 52 fe bd c2 4b bc bd df 29 4c bd 9e 2c 05 3e
       -0.124181375 -0.09194137 -0.04984462 0.13005301
000050 54 30 9e bd a9 96 32 3e 42 fa 3a bd a2 4e 09 3f
       -0.077240616 0.17440285 -0.04564882 0.5363561
000060 b4 6b 3c 3d e8 d8 69 3e 9e 07 0d 3e 97 97 97 3e
       0.04600115 0.2283665 0.13772437 0.2960784
000070 18 fa d7 bc 42 64 f8 3d 4b 18 0c be ff 29 c0 bd
       -0.026364371 0.12128498 -0.13681142 -0.0938301
000080 aa f8 8e be e5 c2 da 3c ff 5c 1a bd 48 6a 59 3e
       -0.2792409 0.026704261 -0.037686344 0.2123195
000090 7c 46 1c be 5e 42 71 bd 68 54 dd be 06 ab b4 bd
       -0.15261263 -0.058901183 -0.4322846 -0.08821683
0000a0 51 de a8 3d 09 8e a3 3e 0c e2 13 bd d0 12 1a be
       0.082455285 0.31944302 -0.036104247 -0.15046239
0000b0 11 1c 88 3d 84 72 de bd bd 32 af 3e 99 17 8f be
       0.06645978 -0.10861686 0.34218398 -0.2794769
0000c0 1c 18 95 3e 54 80 b5 be 27 93 e8 be 2a 11 68 3b
       0.29119956 -0.3544947 -0.45424768 0.0035410621
0000d0 48 d8 16 3d ba b6 a0 3d 2b 8a b4 3e 4a a3 3d 3e
       0.036827356 0.07847352 0.35261664 0.18519321
0000e0 a3 6e a8 bd 66 73 31 3d 66 95 fb bd 4e e7 01 be
       -0.08224227 0.043322943 -0.12284355 -0.12685892
0000f0 ca 35 b2 be 04 b6 24 be 74 2a 14 3d 84 e3 1c be
       -0.34806663 -0.16085058 0.0361733 -0.15321165
000100 43 5a 04 be 56 8a e3 3d f5 aa e1 bd 04 5e eb 3d
       -0.12925057 0.1111037 -0.110189356 0.114925414
000110 5f a5 46 be a9 0f b5 3e de 6d 16 be 63 04 20 3c
       -0.19399022 0.3536351 -0.14690349 0.009766671
000120 08 a4 a3 bd da 48 ea 3e 31 18 fe bd 13 b3 43 bd
       -0.07990271 0.45758706 -0.12406958 -0.0477782
000130 0d 32 a8 bd 09 df 27 3b 82 9e af be 57 7d 8e bd
       -0.082126714 0.0025615117 -0.3430062 -0.069575004
000140 43 5e 2b bc 57 5b 1e 3d 4f ab 0b be 11 57 21 3d
       -0.010459485 0.038661327 -0.13639568 0.039389674
000150 d4 61 1e be 69 d8 91 3d bc f2 91 be 31 50 22 be
       -0.15467006 0.07121355 -0.28505504 -0.15850903
000160 6c 75 cb 3e e0 36 9c be b0 f1 9e be 3f 39 ef bd
       0.39738023 -0.30510616 -0.31043768 -0.11680841
000170 eb ee 9c 3d b8 85 91 3e 3c cf 00 3e a6 8f 90 bd
       0.076627575 0.28422332 0.12579054 -0.07058649
000180 f6 5a 94 be b5 67 40 3e 78 7e 29 3e f7 b2 fd be
       -0.28975648 0.18789561 0.1655215 -0.49550602
000190 02 24 8a 3d ce a6 33 be 1a 6d 3b bd 4c ad 40 be
       0.06745149 -0.175441 -0.045758344 -0.18816108
0001a0 21 85 82 3e b1 73 28 be 70 95 83 bd e9 41 96 3d
       0.25492194 -0.16450383 -0.06424987 0.0733679
0001b0 09 bd 63 3d 6a 9f 76 bd fc 89 96 3e 4d bd ae bd
       0.0556002 -0.060210623 0.2940215 -0.085322
0001c0 47 b7 cc bb c0 dc d0 3c fb 40 46 bd 86 3f b4 bd
       -0.0062474343 0.025495887 -0.048401814 -0.08801179
0001d0 75 79 4e 3d 02 9f 86 3e 76 5e 34 bf c7 05 42 bd
       0.0504088 0.26293188 -0.70456636 -0.04736879
0001e0 27 5b 53 3e 79 a2 68 3e 32 d7 31 bc 7b 6f 2a bd
       0.2064024 0.22718228 -0.010854529 -0.041610222
0001f0 05 8c ae 3d 96 f3 bd bd d6 63 b6 bd 74 8b 85 3d
       0.085228 -0.09274976 -0.08905761 0.06520739

actor_fc_layers.blocks.1.block.1.running_mean f4 [128]
000000 00 00 00 00 00 00 00 00 00 00 00 00 00 00 00 00
       0.0 0.0 0.0 0.0
000010 00 00 00 00 00 00 00 00 00 00 00 00 00 00 00 00
       0.0 0.0 0.0 0.0
000020 00 00 00 00 00 00 00 00 00 00 00 00 00 00 00 00
       0.0 0.0 0.0 0.0
000030 00 00 00 00 00 00 00 00 00 00 00 00 00 00 00 00
       0.0 0.0 0.0 0.0
000040 00 00 00 00 00 00 00 00 00 00 00 00 00 00 00 00
       0.0 0.0 0.0 0.0
000050 00 00 00 00 00 00 00 00 00 00 00 00 00 00 00 00
       0.0 0.0 0.0 0.0
000060 00 00 00 00 00 00 00 00 00 00 00 00 00 00 00 00
       0.0 0.0 0.0 0.0
000070 00 00 00 00 00 00 00 00 00 00 00 00 00 00 00 00
       0.0 0.0 0.0 0.0
000080 00 00 00 00 00 00 00 00 00 00 00 00 00 00 00 00
       0.0 0.0 0.0 0.0
000090 00 00 00 00 00 00 00 00 00 00 00 00 00 00 00 00
       0.0 0.0 0.0 0.0
0000a0 00 00 00 00 00 00 00 00 00 00 00 00 00 00 00 00
       0.0 0.0 0.0 0.0
0000b0 00 00 00 00 00 00 00 00 00 00 00 00 00 00 00 00
       0.0 0.0 0.0 0.0
0000c0 00 00 00 00 00 00 00 00 00 00 00 00 00 00 00 00
       0.0 0.0 0.0 0.0
0000d0 00 00 00 00 00 00 00 00 00 00 00 00 00 00 00 00
       0.0 0.0 0.0 0.0
0000e0 00 00 00 00 00 00 00 00 00 00 00 00 00 00 00 00
       0.0 0.0 0.0 0.0
0000f0 00 00 00 00 00 00 00 00 00 00 00 00 00 00 00 00
       0.0 0.0 0.0 0.0
000100 00 00 00 00 00 00 00 00 00 00 00 00 00 00 00 00
       0.0 0.0 0.0 0.0
000110 00 00 00 00 00 00 00 00 00 00 00 00 00 00 00 00
       0.0 0.0 0.0 0.0
000120 00 00 00 00 00 00 00 00 00 00 00 00 00 00 00 00
       0.0 0.0 0.0 0.0
000130 00 00 00 00 00 00 00 00 00 00 00 00 00 00 00 00
       0.0 0.0 0.0 0.0
000140 00 00 00 00 00 00 00 00 00 00 00 00 00 00 00 00
       0.0 0.0 0.0 0.0
000150 00 00 00 00 00 00 00 00 00 00 00 00 00 00 00 00
       0.0 0.0 0.0 0.0
000160 00 00 00 00 00 00 00 00 00 00 00 00 00 00 00 00
       0.0 0.0 0.0 0.0
000170 00 00 00 00 00 00 00 00 00 00 00 00 00 00 00 00
       0.0 0.0 0.0 0.0
000180 00 00 00 00 00 00 00 00 00 00 00 00 00 00 00 00
       0.0 0.0 0.0 0.0
000190 00 00 00 00 00 00 00 00 00 00 00 00 00 00 00 00
       0.0 0.0 0.0 0.0
0001a0 00 00 00 00 00 00 00 00 00 00 00 00 00 00 00 00
       0.0 0.0 0.0 0.0
0001b0 00 00 00 00 00 00 00 00 00 00 00 00 00 00 00 00
       0.0 0.0 0.0 0.0
0001c0 00 00 00 00 00 00 00 00 00 00 00 00 00 00 00 00
       0.0 0.0 0.0 0.0
0001d0 00 00 00 00 00 00 00 00 00 00 00 00 00 00 00 00
       0.0 0.0 0.0 0.0
0001e0 00 00 00 00 00 00 00 00 00 00 00 00 00 00 00 00
       0.0 0.0 0.0 0.0
0001f0 00 00 00 00 00 00 00 00 00 00 00 00 00 00 00 00
       0.0 0.0 0.0 0.0

actor_fc_layers.blocks.1.block.1.running_var f4 [128]
000000 00 00 80 3f 00 00 80 3f 00 00 80 3f 00 00 80 3f
       1.0 1.0 1.0 1.0
000010 00 00 80 3f 00 00 80 3f 00 00 80 3f 00 00 80 3f
       1.0 1.0 1.0 1.0
000020 00 00 80 3f 00 00 80 3f 00 00 80 3f 00 00 80 3f
       1.0 1.0 1.0 1.0
000030 00 00 80 3f 00 00 80 3f 00 00 80 3f 00 00 80 3f
       1.0 1.0 1.0 1.0
000040 00 00 80 3f 00 00 80 3f 00 00 80 3f 00 00 80 3f
       1.0 1.0 1.0 1.0
000050 00 00 80 3f 00 00 80 3f 00 00 80 3f 00 00 80 3f
       1.0 1.0 1.0 1.0
000060 00 00 80 3f 00 00 80 3f 00 00 80 3f 00 00 80 3f
       1.0 1.0 1.0 1.0
000070 00 00 80 3f 00 00 80 3f 00 00 80 3f 00 00 80 3f
       1.0 1.0 1.0 1.0
000080 00 00 80 3f 00 00 80 3f 00 00 80 3f 00 00 80 3f
       1.0 1.0 1.0 1.0
000090 00 00 80 3f 00 00 80 3f 00 00 80 3f 00 00 80 3f
       1.0 1.0 1.0 1.0
0000a0 00 00 80 3f 00 00 80 3f 00 00 80 3f 00 00 80 3f
       1.0 1.0 1.0 1.0
0000b0 00 00 80 3f 00 00 80 3f 00 00 80 3f 00 00 80 3f
       1.0 1.0 1.0 1.0
0000c0 00 00 80 3f 00 00 80 3f 00 00 80 3f 00 00 80 3f
       1.0 1.0 1.0 1.0
0000d0 00 00 80 3f 00 00 80 3f 00 00 80 3f 00 00 80 3f
       1.0 1.0 1.0 1.0
0000e0 00 00 80 3f 00 00 80 3f 00 00 80 3f 00 00 80 3f
       1.0 1.0 1.0 1.0
0000f0 00 00 80 3f 00 00 80 3f 00 00 80 3f 00 00 80 3f
       1.0 1.0 1.0 1.0
000100 00 00 80 3f 00 00 80 3f 00 00 80 3f 00 00 80 3f
       1.0 1.0 1.0 1.0
000110 00 00 80 3f 00 00 80 3f 00 00 80 3f 00 00 80 3f
       1.0 1.0 1.0 1.0
000120 00 00 80 3f 00 00 80 3f 00 00 80 3f 00 00 80 3f
       1.0 1.0 1.0 1.0
000130 00 00 80 3f 00 00 80 3f 00 00 80 3f 00 00 80 3f
       1.0 1.0 1.0 1.0
000140 00 00 80 3f 00 00 80 3f 00 00 80 3f 00 00 80 3f
       1.0 1.0 1.0 1.0
000150 00 00 80 3f 00 00 80 3f 00 00 80 3f 00 00 80 3f
       1.0 1.0 1.0 1.0
000160 00 00 80 3f 00 00 80 3f 00 00 80 3f 00 00 80 3f
       1.0 1.0 1.0 1.0
000170 00 00 80 3f 00 00 80 3f 00 00 80 3f 00 00 80 3f
       1.0 1.0 1.0 1.0
000180 00 00 80 3f 00 00 80 3f 00 00 80 3f 00 00 80 3f
       1.0 1.0 1.0 1.0
000190 00 00 80 3f 00 00 80 3f 00 00 80 3f 00 00 80 3f
       1.0 1.0 1.0 1.0
0001a0 00 00 80 3f 00 00 80 3f 00 00 80 3f 00 00 80 3f
       1.0 1.0 1.0 1.0
0001b0 00 00 80 3f 00 00 80 3f 00 00 80 3f 00 00 80 3f
       1.0 1.0 1.0 1.0
0001c0 00 00 80 3f 00 00 80 3f 00 00 80 3f 00 00 80 3f
       1.0 1.0 1.0 1.0
0001d0 00 00 80 3f 00 00 80 3f 00 00 80 3f 00 00 80 3f
       1.0 1.0 1.0 1.0
0001e0 00 00 80 3f 00 00 80 3f 00 00 80 3f 00 00 80 3f
       1.0 1.0 1.0 1.0
0001f0 00 00 80 3f 00 00 80 3f 00 00 80 3f 00 00 80 3f
       1.0 1.0 1.0 1.0

actor_fc_layers.blocks.2.block.0.weight f4 [128, 128]
000000 f8 fa 95 3e 47 b5 c4 3d 82 5a 2e be 5f bd 08 be
       0.29293036 0.096048884 -0.17026713 -0.1335349
000010 12 63 83 3e 7d 77 b1 3c a2 34 f7 bd d6 c3 00 be
       0.25661522 0.021663422 -0.12070586 -0.12574705
000020 ff 42 40 be f7 4d 1d 3d 5a 2c a9 bd 1b a7 9c be
       -0.18775557 0.03840443 -0.082604125 -0.3059624
000030 c8 a9 fa bb ca d6 ef bd 17 49 f0 bd 8f 12 19 3e
       -0.007649634 -0.1171089 -0.11732691 0.14948486
000040 ed 89 a0 bd 31 e4 33 3e 98 71 1b bd 3f fe da be
       -0.07838807 0.17567517 -0.03795013 -0.427721
000050 12 89 31 bd 98 3e b6 3d 5b e5 9a 3c 91 78 6c be
       -0.04334361 0.088986576 0.018908193 -0.23092867
000060 5c 14 20 be 55 30 36 3e 94 1b 06 3e 84 6e 46 3e
       -0.15632766 0.17791875 0.13096458 0.19378096
000070 42 63 36 bd 0e ea 32 3c cf 29 52 3d 4f 17 d3 3d
       -0.044528253 0.010920061 0.051309403 0.1030718
000080 98 96 2c 3e c4 ff a9 be ef b5 c9 3c 2c c4 e8 3d
       0.16854322 -0.33202946 0.024622886 0.11365542
000090 12 a8 80 be 20 18 d0 bb 93 eb 5d bd 07 e8 c7 bd
       -0.25128227 -0.006350532 -0.05417974 -0.097610526
0000a0 f0 f1 3e 3d d6 5f 8c be 2b 00 03 3d 3f 66 10 be
       0.04661745 -0.27416867 0.031982582 -0.14101504
0000b0 da 88 c4 3d 08 78 a2 3d b1 96 bb bc ea 5f 5c 3e
       0.09596415 0.079330504 -0.022899004 0.21520963
0000c0 bc dd 96 3e 7c 4d a6 be 6f 84 77 3e 1e 51 4a 3e
       0.29466045 -0.3248099 0.24171613 0.19757506
0000d0 a1 25 6d be ad a6 c0 bd 3c 82 3c 3c fd 41 b7 be
       -0.23158886 -0.09406791 0.01150566 -0.35792533
0000e0 4d d7 37 be 21 7d 84 3e 95 fa dd 3e 02 91 fe bd
       -0.17953224 0.25876716 0.4335524 -0.12430002
0000f0 9e 47 2c 3d 52 84 89 3e 1c a8 e8 3d b4 05 ef 3d
       0.042060487 0.26858765 0.11360189 0.1167101
000100 5a 16 be 3c 94 7a 00 bf cc bc 14 3e fc 3f ab bd
       0.023204017 -0.5018704 0.14525145 -0.083618134
000110 11 53 3a 3e ee 49 25 be ef 6b e8 3e 44 a8 9e be
       0.1819575 -0.16141483 0.45394847 -0.3098775
000120 8e fe fa 3c d3 24 57 3e 04 27 94 3c 0f 79 4a bd
       0.03063896 0.21010141 0.01808501 -0.049431857
000130 63 f2 19 bc f6 55 47 3c 95 18 9a 3e 99 e2 39 3d
       -0.009396168 0.012166491 0.3009688 0.045382116
000140 2d 05 bc bd c5 81 7e bc 25 0b f2 3c 8f a1 01 3e
       -0.09180675 -0.015533869 0.02954633 0.12659286
000150 ef 56 3a 3e 90 d6 7b be 78 f2 1e 3e 01 cd b4 3e
       0.18197225 -0.24593568 0.15522182 0.35312656
000160 08 44 68 3e 16 b2 c2 be 49 01 a2 3c 4b ec bb 3d
       0.22682202 -0.38026494 0.019776003 0.09175929
000170 77 37 ba bd 10 ff b8 3d fd 2e 13 3d 35 b2 3c 3e
       -0.0909261 0.09033024 0.035933483 0.18427356
000180 38 15 36 3e 0b 58 b2 3e e1 9d dc bd 02 65 a7 3e
       0.17781532 0.34832796 -0.107723005 0.3269425
000190 ca 03 b1 3e 14 57 ad be 5f 43 4e 3c 8e 4e af be
       0.34573203 -0.33855498 0.012589305 -0.3423962
0001a0 f5 50 bd 3e d3 46 2b 3e 6e c4 06 3f 0d a4 60 be
       0.36975828 0.16726236 0.5264348 -0.2193758
0001b0 07 88 2c 3d e4 be 93 3d c2 9f b8 3d 76 47 98 be
       0.042121913 0.07214144 0.090148464 -0.2974202
0001c0 94 86 d9 bd 82 d1 22 bd af e4 dc 3d 5d 93 d1 3e
       -0.10621372 -0.039750583 0.107858054 0.40932742
0001d0 a0 0c ef 3d 7a ab d4 be c0 d3 f6 3a 89 0f 29 bd
       0.1167233 -0.41537076 0.0018831417 -0.04127458
0001e0 b1 50 34 3e f0 0e 55 bd f9 cc b7 be 34 74 05 3f
       0.17608906 -0.0520162 -0.3589857 0.52130437
0001f0 9c c9 85 be 6b 2a 16 3d 4d ec 38 be f4 ca 2c bd
       -0.26130378 0.036661547 -0.18058892 -0.04218574
000200 26 0e aa bd 37 24 9e 3c 86 17 06 3f 8c 44 fe bd
       -0.0830348 0.019304378 0.52379644 -0.12415418
000210 ca 14 f5 be 61 6d b9 bc fb b3 10 3e c6 55 1f 3e
       -0.47867423 -0.022635164 0.14131157 0.15560064
000220 f5 3a 84 be 19 65 d9 3e 0f a9 66 be 41 da 7a be
       -0.2582623 0.42459944 -0.22525428 -0.2449732
000230 07 38 fc 3d 16 55 b0 3e 6b a8 81 3e d8 a7 2c 3e
       0.12315374 0.34439915 0.25323805 0.16860902
000240 f7 5d 29 3e 1c c3 a7 bc b1 ba e3 3c b7 be c6 3e
       0.16539751 -0.020478778 0.027798982 0.3881738
000250 c2 df b4 3d 7c 05 e5 3d a6 34 42 bd db 52 ba be
       0.08831741 0.11182687 -0.04741349 -0.3639134
000260 a2 84 14 3d 16 68 8e be 38 af ee 3d 95 ff 4e bd
       0.0362593 -0.27813786 0.11654514 -0.05053671
000270 34 80 e5 3c 43 20 d6 bc 59 99 24 3c 59 32 31 3e
       0.028015234 -0.02613843 0.010046327 0.17304362
000280 3c 4d 5e be c3 25 53 3e 21 f6 76 be 38 d3 7d 3e
       -0.2170915 0.20619874 -0.24117328 0.24787605
000290 1b 8e 9b 3d 8c f9 66 3d e3 28 93 bd b8 80 99 be
       0.07595464 0.05639033 -0.07185533 -0.29981017
0002a0 ea b7 66 3e 7c 82 c5 bd ac 8f db 3b 31 11 79 be
       0.22531095 -0.096440285 0.0067004766 -0.24322964
0002b0 f1 99 cc bc f2 e8 03 3e 51 36 d1 3c 35 df 80 be
       -0.024975749 0.1288183 0.025538595 -0.25170293
0002c0 0d 4d 92 3d 39 ca b6 be 09 fb ba be af 99 07 bb
       0.071436025 -0.3570116 -0.3651965 -0.0020690968
0002d0 ef cb 17 3e 8d f0 fa be 13 90 84 3e 6b 68 9d 3e
       0.14823888 -0.4901165 0.2589117 0.30743727
0002e0 70 c9 a6 3e 4a 83 12 bd 7f 79 7b be c3 2d 41 3e
       0.3257556 -0.03576974 -0.24558066 0.18865113
0002f0 4b c3 95 be c1 90 d8 bc 89 98 aa 3d 8f 58 5e 3e
       -0.2925056 -0.026436212 0.08329875 0.2171347
000300 9d 31 60 3c bb ac 9f 3e 4e 0f b3 3d b8 d0 b1 3e
       0.013683704 0.3118647 0.087431535 0.34729552
000310 08 f1 92 3d 4e 45 9f be d9 1b 81 be 47 d9 db bc
       0.07174879 -0.31107563 -0.2521656 -0.026837004
000320 5e cd 10 bd d2 4d 54 3d 37 06 b6 bd f1 ea f5 3b
       -0.035352103 0.051832028 -0.08887904 0.007504814
000330 ba e5 0f 3d 83 e1 16 3d 79 42 f3 be 46 da 88 3c
       0.035131194 0.03683616 -0.47511652 0.016705643
000340 e5 39 d8 bd 47 b7 0c 3e b4 b4 d6 bd 9d 6a 03 bd
       -0.105579175 0.1374179 -0.10483685 -0.032084096
000350 12 9a 47 bd c7 77 e1 3d 64 03 2c be d0 02 e5 be
       -0.048730917 0.11009174 -0.16798168 -0.44728708
000360 6e af d4 be 4b bf 65 be 39 2d 29 be d1 79 ef 3e
       -0.41540092 -0.22436254 -0.16521157 0.46772626
000370 00 b6 8e 3e b7 79 c3 3d e4 90 09 3d 24 a0 85 3e
       0.2787323 0.095447 0.033585444 0.2609874
000380 56 b4 32 be c0 4c 4b be 44 56 25 3e fe 69 4c be
       -0.17451605 -0.19853497 0.16146189 -0.19962308
000390 d0 9d 23 be d8 21 a7 3e 09 4c e1 3c 20 6a ea bd
       -0.1597817 0.32643008 0.027502077 -0.11446023
0003a0 1a 3e bc be 40 9f 97 be 4f 5e 3a be ff 9e 8e 3e
       -0.3676613 -0.29613686 -0.18200038 0.2785568
0003b0 bd 66 d1 be 9d 04 34 be bd 90 94 be 40 20 9a be
       -0.40898696 -0.17579885 -0.29016677 -0.3010273
0003c0 3b d5 d8 bc 78 f6 0b be 75 b5 b2 bd b6 9e db 3c
       -0.026468864 -0.13668239 -0.087260164 0.026809078
0003d0 d0 ac 50 bd 18 54 de bd 42 8d 88 be e4 ca 91 3d
       -0.050946057 -0.10855883 -0.2667027 0.071187764
0003e0 c0 a8 b7 be d0 c3 6d 3e 0f bc 5c 3e a9 ae ed be
       -0.35870934 0.23219228 0.21556114 -0.46422318
0003f0 fc 37 06 3f 95 44 7d bc 87 d1 50 3e a8 4f ab 3c
       0.52429175 -0.015458246 0.20392428 0.020912006

actor_fc_layers.blocks.2.block.1.weight f4 [128]
000000 94 2b a5 3f b9 7d 89 3f 37 f0 bb 3f a0 7c a6 3f
       1.2903924 1.0741493 1.4682683 1.3006783
000010 70 6d b9 3f 5f 85 bf 3f 50 40 b5 3f 25 4f ba 3f
       1.4486523 1.4962577 1.4160252 1.4555403
000020 60 cd a9 3f cd fb db 3f 90 32 e9 3f 74 d3 b9 3f
       1.32658 1.7186219 1.8218555 1.4517655
000030 a1 f5 8b 3f b9 ac b6 3f d3 75 a5 3f 48 ef df 3f
       1.0934335 1.4271461 1.2926582 1.7494898
000040 1d 47 93 3f 10 27 ee 3f e3 6e b3 3f da af bd 3f
       1.1506077 1.8605671 1.4018215 1.4819291
000050 eb d3 59 3f f9 40 e1 3f 6d d8 b3 3f 8d 42 d5 3f
       0.85088986 1.7597953 1.4050423 1.6660935
000060 f6 be c5 3f a4 c2 98 3f d1 f0 dd 3f ee b6 f3 3f
       1.5448902 1.19344 1.7339116 1.9040201
000070 f8 0d be 3f 37 ff be 3f 74 c9 90 3f 3b 48 6c 3f
       1.4848013 1.4921635 1.1311479 0.92297715
000080 81 eb b9 3f 93 0b 83 3f cc 9f f6 3f d7 7b ac 3f
       1.4524995 1.0237907 1.9267516 1.3475293
000090 ab 5f e5 3f cf 18 97 3f 65 44 b6 3f 3a c0 da 3f
       1.791982 1.1804446 1.4239622 1.7089913
0000a0 dd ec a1 3f 51 b7 db 3f 19 67 eb 3f ac fd c3 3f
       1.265041 1.7165319 1.8390838 1.531179
0000b0 11 c1 70 3f 12 46 af 3f a4 68 71 3f 20 89 ab 3f
       0.94044596 1.3693259 0.94300294 1.3401222
0000c0 39 e7 c7 3f 6b a2 c5 3f cf 9e ae 3f 5e 46 ae 3f
       1.5617439 1.5440191 1.3642215 1.3615224
0000d0 1a 60 92 3f b4 ed 98 3f 98 bd 02 40 d2 ee db 3f
       1.1435578 1.1947541 2.042822 1.7182257
0000e0 c3 9b d0 3f 95 db c6 3f 36 61 c5 3f 56 47 a0 3f
       1.6297535 1.5535761 1.5420291 1.252177
0000f0 ce d6 bf 3f 7c b8 af 3f c3 ed ae 3f f1 23 95 3f
       1.4987428 1.3728175 1.3666309 1.1651593
000100 28 38 94 3f 54 28 a6 3f 80 7a bc 3f de 3f c4 3f
       1.1579638 1.2981057 1.4724884 1.5331991
000110 7d 1a 74 3f 9b f1 66 3f 33 25 a2 3f 06 26 91 3f
       0.9535292 0.9021241 1.2667602 1.1339729
000120 15 43 ac 3f 64 8c d4 3f 3c 5e c3 3f ce c2 be 3f
       1.3457972 1.6605344 1.5263133 1.49032
000130 26 5c c8 3f 99 00 72 3f 27 59 97 3f cb 11 d5 3f
       1.5653121 0.9453216 1.1824082 1.6646055
000140 5e 87 c8 3f 77 86 b8 3f 56 18 92 3f 88 91 bb 3f
       1.5666311 1.4416035 1.1413677 1.4653788
000150 d7 4f af 3f 80 a2 b0 3f 30 d5 c3 3f f2 d1 b8 3f
       1.369624 1.3799591 1.5299435 1.443907
000160 b5 5f b9 3f 19 90 b8 3f 4e f1 f8 3f 4d 54 74 3f
       1.4482332 1.4418975 1.944864 0.9544113
000170 e2 d4 b1 3f 50 a7 9f 3f 82 e2 c8 3f 05 e8 b1 3f
       1.3893092 1.2472935 1.5694125 1.3898932
000180 20 04 df 3f 07 91 d0 3f 73 cf 8d 3f ea 32 ba 3f
       1.7423134 1.6294259 1.1078933 1.4546788
000190 94 4f 91 3f de ba c5 3f b7 a4 90 3f 95 c4 ac 3f
       1.135241 1.5447652 1.1300267 1.3497492
0001a0 9e 9a f0 3f bb 6e b8 3f c2 07 9b 3f 55 ba bd 3f
       1.8797185 1.4408792 1.2111742 1.4822489
0001b0 ae 71 b2 3f 61 09 ae 3f 5d 80 bd 3f 2c c8 ba 3f
       1.3940942 1.3596612 1.4804798 1.4592338
0001c0 ca d0 00 40 4e 2f cb 3f a7 9f c0 3f d7 20 a2 3f
       2.0127435 1.5873811 1.5048722 1.2666272
0001d0 f4 47 dc 3f 4c 90 d9 3f 12 30 a1 3f 9c 5d a6 3f
       1.7209458 1.6997161 1.2592795 1.2997317
0001e0 a2 b8 9b 3f ed 60 ce 3f 67 37 c8 3f 77 6d 96 3f
       1.216572 1.6123329 1.5641907 1.1752156
0001f0 ec 57 1d 40 17 7c 92 3f e0 f7 f3 3f 2e 23 ab 3f
       2.4584913 1.1444119 1.906002 1.3370111
