saved_models/agent_maddpgv2_vs_opp_maddpgv2_2_vs_2_2_big_adver_best_models/maddpgv2_target_actor_1.pt (torch, 160779 bytes, 21 tensors)

actor_fc_layers.blocks.0.block.0.weight f4 [128, 22]
0	0x3d8bdffa	0.068298295
1	0x3e35590c	0.1770975
2	0xbd42a3ee	-0.047519617
3	0xbed9e49d	-0.4255723
4	0x3e7818f4	0.24228269
5	0xbeb05534	-0.34440005
6	0xbe5220c6	-0.20520315
7	0xbd05d340	-0.032672167
8	0xbdc28178	-0.094973505
9	0xbe7eb134	-0.24872285
10	0xbed00781	-0.40630725
11	0x3ead90a2	0.3389941
12	0xbd76928b	-0.060198348
13	0x3eda0e4a	0.42589027
14	0x3e73d488	0.23811543
15	0x3de82dba	0.11336847
16	0x3d9c6c32	0.07637824
17	0xbe148e69	-0.1450745
18	0x3eb26343	0.34841356
19	0x3dd642f3	0.10461988
20	0xbe19615f	-0.1497855
21	0xbf01b653	-0.5066883
22	0xbe984cba	-0.29746038
23	0xbf5ade5d	-0.8549555
24	0x3dae7ba6	0.08519678
25	0xbd352ec7	-0.044234063
26	0xbe7d9b7a	-0.24766341
27	0x3cc8e845	0.024524817
28	0x3e30af7e	0.17254445
29	0x3e29f37e	0.16596791
30	0x3e2198e5	0.15780981
31	0xbdc464ff	-0.09589576
32	0x3e94f27a	0.29091245
33	0x3e25ec3c	0.16203398
34	0xbe353f61	-0.17699958
35	0x3f1bce0a	0.60861266
36	0x3e3f9f24	0.18713051
37	0x3e4518e7	0.1924778
38	0x3d7b3e3a	0.06133864
39	0xbe0e8c63	-0.13920741
40	0x3d991202	0.07474138
41	0x3dc06572	0.09394349
42	0xbd3bd12e	-0.045853786
43	0x3d92a845	0.07161001
44	0xbda36d1f	-0.079797976
45	0xbeabb640	-0.33537483
46	0xbeb99fa6	-0.36254615
47	0x3ecbe888	0.39825845
48	0xbdc5d1af	-0.096591346
49	0x3e5116b5	0.20418818
50	0x3e08f8f0	0.13376212
51	0x3dd98824	0.1062167
52	0x3e5136ec	0.20431107
53	0xbdadf697	-0.08494299
54	0xbd5f17fa	-0.054466225
55	0xbe1e4d45	-0.15459163
56	0x3df3de53	0.11907639
57	0x3ea9c8f0	0.33161116
58	0x3efa210b	0.48853335
59	0xbd27e9e8	-0.040994555
60	0xbcb9a26f	-0.022660462
61	0xbe4a4384	-0.19752318
62	0xbed39699	-0.41325834
63	0x3e32ffc9	0.17480387
64	0xbe6ead26	-0.23308238
65	0xbe3f4a54	-0.18680698
66	0x3d687397	0.05675086
67	0x3e0dfeee	0.13866779
68	0xbe626dbc	-0.22112173
69	0xbef74db9	-0.48301485
70	0x3c395a0f	0.011312976
71	0x3eb9429c	0.3618363
72	0xbe30dda1	-0.17272045
73	0xbd025b3e	-0.031825297
74	0x3b206745	0.0024475616
75	0x3d2d6c35	0.042339522
76	0x3d4c8f57	0.049941387
77	0x3ca7967c	0.020457499
78	0x3ebc79c1	0.3681164
79	0x3e319421	0.17341663
80	0xbe803eea	-0.25048
81	0xbdc1a986	-0.09456162
82	0xbde11c4f	-0.109917276
83	0xbe92e4fa	-0.2869032
84	0xbdf54982	-0.11976911
85	0xbda17766	-0.078841016
86	0x3e3362f7	0.17518221
87	0x3e38fb4e	0.18064615
88	0xbe673df2	-0.22582224
89	0xbf05e829	-0.52307373
90	0xb810d9aa	-3.453499e-05
91	0xbeb7e3f0	-0.3591609
92	0x3e852d22	0.26010996
93	0xbe275000	-0.16339111
94	0xbe0b0bef	-0.13578771
95	0xbdcc46e9	-0.099744625
96	0xbdf6afc3	-0.12045243
97	0xbe7f9c2a	-0.24961916
98	0xbf156e80	-0.58371735
99	0x3d809c15	0.0627977
100	0x3e816186	0.25269717
101	0x3ecac183	0.39600763
102	0xbe16a95d	-0.14713044
103	0xbe273307	-0.16328059
104	0x3db9b078	0.09066862
105	0xbe5ea6be	-0.21743295
106	0x3ea7976a	0.32732707
107	0x3ea12755	0.3147532
108	0xbe499a4c	-0.19687766
109	0xbd2b3d02	-0.04180623
110	0xbdd06540	-0.10175562
111	0xbd19a90c	-0.03751473
112	0xbf08f1ad	-0.5349377
113	0xbf0f05b6	-0.5586809
114	0xbea773f6	-0.3270566
115	0x3eb1d729	0.34734467
116	0x3d9405d8	0.07227677
117	0xbd6d51ff	-0.057939526
118	0x3e16ab15	0.147137
119	0xbe9765aa	-0.2956975
120	0xbd75a49a	-0.05997143
121	0x3e37b9ab	0.1794192
122	0x3e171d71	0.14757325
123	0xbe52409e	-0.20532462
124	0x3cabe574	0.020983435
125	0x3deef83d	0.116684414
126	0xbc8d3823	-0.017238682
127	0x3da1fc65	0.079094686
128	0x3c771bb1	0.015082286
129	0x3e530a88	0.20609486
130	0xbe52b58c	-0.20577067
131	0x3d4dcd84	0.050244823
132	0xbe074701	-0.1321068
133	0x3da9aa66	0.08284454
134	0x3f28a15a	0.658712
135	0x3f2b5b65	0.6693633
136	0xbe46fd4c	-0.19432563
137	0x3e5010b5	0.20318873
138	0xbd8d9999	-0.06914062
139	0x3c31485b	0.010820474
140	0xbdf6856c	-0.12037167
141	0xbcc0bd34	-0.02352772
142	0xbecaae5a	-0.39586145
143	0xbdfba3b7	-0.122870855
144	0xbb6aa182	-0.0035801833
145	0x3eab5283	0.3346139
146	0xbc358b83	-0.0110806255
147	0x3d9047c5	0.07044939
148	0x3ddb17c2	0.10697891
149	0xbe545e27	-0.20739041
150	0xbe076b35	-0.1322449
151	0xbd937c1e	-0.07201408
152	0x3d1abc56	0.037777267
153	0xbdb65ef3	-0.08904829
154	0xbcced477	-0.025247796
155	0xbd4fbc8d	-0.050716925
156	0xbe926ffb	-0.2860106
157	0x3f6c3b3b	0.9227788
158	0xbdc7b6c0	-0.09751654
159	0xbe5ddc6c	-0.21666116
160	0xbe0911f1	-0.1338575
161	0x3e4971e5	0.19672354
162	0xbc8fcacb	-0.017552754
163	0x3e35983c	0.17733854
164	0x3ca12350	0.019670159
165	0x3e86f9cb	0.26362452
166	0xbe9f2441	-0.31082347
167	0xbed23e60	-0.41063213
168	0x3ea0f16a	0.31434184
169	0xbd7c2c6e	-0.06156581
170	0xbe3ccf68	-0.18438494
171	0xbcf5c5a1	-0.030001463
172	0x3c8ae258	0.016953632
173	0xbdef4c21	-0.11684442
174	0x3da47125	0.08029393
175	0x3bf2576b	0.007395675
176	0x3d6c4090	0.05767876
177	0xbb3ed2f5	-0.002911744
178	0xbf4c59e0	-0.7982464
179	0x3ee149bf	0.44001576
180	0xbe1136a9	-0.14181007
181	0x3db29c45	0.08721212
182	0x3e12c91b	0.14334528
183	0x3e4e461f	0.20143937
184	0x3dd53f05	0.10412411
185	0x3ddb8444	0.10718587
186	0x3d06bf7a	0.03289745
187	0xbe77bb9f	-0.24192666
188	0xbe1b0582	-0.1513882
189	0xbef16a9c	-0.4715165
190	0x3f0e4773	0.5557777
191	0xbb510ddb	-0.0031899128
192	0x3d2cbd53	0.04217274
193	0x3ca572ba	0.020196307
194	0xbd795a60	-0.060877204
195	0xbdf3c854	-0.11903444
196	0x3d7617b3	0.060081195
197	0xbe824215	-0.25441042
198	0x3ddb75d8	0.10715836
199	0xbd3c819a	-0.046022035
200	0xbee2c6c4	-0.4429227
201	0xbec0071e	-0.3750543
202	0xbdb6508b	-0.08902081
203	0x3d69584d	0.056968976
204	0x3e525d45	0.20543392
205	0x3e358513	0.17726545
206	0x3dfffc4c	0.12499294
207	0x3dfe0236	0.124027655
208	0xbb487813	-0.0030589148
209	0x3df57b7d	0.11986444
210	0x3e2cd4b9	0.16878022
211	0x3eeeaca7	0.46616098
212	0xbeddcead	-0.43321744
213	0xbba6f7b1	-0.005095445
214	0x3e694c85	0.22783096
215	0xbce0b0a4	-0.027427979
216	0xbd340f8d	-0.043960143
217	0x3d8c3023	0.06845119
218	0xbcada904	-0.021198757
219	0xbf40b6ed	-0.7527912
220	0xbe19cb63	-0.15018992
221	0xbdfc5e9c	-0.12322733
222	0xbf0dc186	-0.5537342
223	0x3e9982df	0.2998266
224	0xbe6d660d	-0.2318346
225	0x3eacb2d2	0.3373018
226	0x3e4736f0	0.1945455
227	0xbdea9e5d	-0.11455987
228	0xbe5c5075	-0.21515067
229	0xbcb15944	-0.02164901
230	0x3b1b6319	0.002371019
231	0xbe7d1903	-0.24716572
232	0xbe4fbbb4	-0.20286447
233	0x3dc994dc	0.09842846
234	0xbed55801	-0.41668704
235	0x3db23b68	0.08702737
236	0x3bcd7c49	0.0062709195
237	0x3e44c69b	0.19216387
238	0x3e253afb	0.1613578
239	0xbe2ef389	-0.17085089
240	0x3e4cc5a7	0.19997273
241	0x3c1169d4	0.008875329
242	0x3df86d93	0.121302746
243	0xbccad719	-0.02476077
244	0x3e6e6ae6	0.23282966
245	0x3f64d512	0.8938762
246	0x3e0e32c6	0.13886556
247	0x3e4c7e5a	0.19970074
248	0x3e038954	0.12845355
249	0xbe4bc1bc	-0.19898123
250	0x3d8c9c2b	0.06865724
251	0x3d5e8e44	0.054334894
252	0x3e8df9dc	0.2772969
253	0x3e219a9b	0.15781634
254	0x3ee6caee	0.45076698
255	0x3e97bfb5	0.29638448

actor_fc_layers.blocks.0.block.1.weight f4 [128]
0	0x3f6c9808	0.9241948
1	0x3fc64165	1.5488707
2	0x3faf754e	1.3707674
3	0x3f3eed02	0.74580395
4	0x3f8e1cae	1.1102502
5	0x3f922163	1.1416439
6	0x3f8c187d	1.0944973
7	0x3fc58c7e	1.54335
8	0x3fafaf17	1.3725308
9	0x3f95221f	1.1651038
10	0x3fa760c1	1.3076402
11	0x3fd23c51	1.6424657
12	0x3fa1e6cd	1.264856
13	0x3fa9b95a	1.325969
14	0x3f8c9606	1.0983284
15	0x3fc21007	1.5161141
16	0x3f92c082	1.1464999
17	0x3fcf981b	1.6218294
18	0x3f9a1388	1.203721
19	0x3f8a04af	1.0782679
20	0x3f7341c0	0.950222
21	0x3f9a7f4f	1.2070101
22	0x3f97f7ce	1.1872499
23	0x3fad20f6	1.3525684
24	0x3f9068e7	1.1282014
25	0x3fc27540	1.5192032
26	0x3f82e634	1.0226502
27	0x3faf9c34	1.3719544
28	0x3f6a6c5d	0.915716
29	0x3f6c0df8	0.92208815
30	0x3fbe9a0f	1.4890765
31	0x3f605e11	0.87643534
32	0x3f538859	0.82629925
33	0x3f6a23fa	0.91461146
34	0x3f6d5ebb	0.9272267
35	0x3f4eda76	0.80802095
36	0x3f8286ce	1.0197389
37	0x3f974bd2	1.1820014
38	0x3f6135d3	0.87972754
39	0x3fa03aee	1.2517984
40	0x3f80aba0	1.0052376
41	0x3f8c868c	1.097856
42	0x3f889068	1.0669069
43	0x3fa7890d	1.30887
44	0x3f8b3cf9	1.0877982
45	0x3fc8c5de	1.5685384
46	0x3f852795	1.0402704
47	0x3f90e3ba	1.1319497
48	0x3f8720fe	1.0556943
49	0x3f5d55c1	0.86458975
50	0x3fa372fa	1.2769463
51	0x3f7c13bb	0.98467606
52	0x3fc6a4e5	1.5519072
53	0x3fab1629	1.3366138
54	0x3f92a782	1.1457369
55	0x3fc17323	1.5113262
56	0x3f8b2f47	1.0873803
57	0x3fb590c0	1.4184799
58	0x3f911910	1.1335773
59	0x3f9fb006	1.2475593
60	0x3fd4eee5	1.6635405
61	0x3f8d87f1	1.1057111
62	0x3fbc82aa	1.4727376
63	0x3f95b1c4	1.1694875
64	0x3f6bfbf6	0.92181337
65	0x3fa182af	1.2618006
66	0x3f96c477	1.1778706
67	0x3f9fa7ea	1.2473118
68	0x3fcc5720	1.5964088
69	0x3f9923e2	1.1964076
70	0x3fb03626	1.3766525
71	0x3f9bad12	1.2162192
72	0x3f9d2b85	1.2278906
73	0x3f51bbf6	0.8192743
74	0x3f9b7260	1.214428
75	0x3f85ba9c	1.0447574
76	0x3f4fd8ce	0.8119019
77	0x3f83aef4	1.0287766
78	0x3f92cafe	1.1468198
79	0x3f9740c3	1.1816639
80	0x3fa2c61a	1.2716706
81	0x3f88578a	1.0651715
82	0x3fbd1d77	1.4774617
83	0x3fb97996	1.449023
84	0x3fc06f9c	1.503406
85	0x3f8a7a05	1.0818487
86	0x3f6ab310	0.9167948
87	0x3f9eef7a	1.2416832
88	0x3f59cb23	0.8507559
89	0x3f9578ee	1.167753
90	0x3f780cc4	0.9689448
91	0x3f78a3df	0.9712505
92	0x3f9a16d0	1.2038212
93	0x3fb8c5fa	1.4435418
94	0x3f70bc4d	0.94037324
95	0x3f55aff1	0.8347159
96	0x3fbece28	1.4906664
97	0x3f951c75	1.1649309
98	0x3f65076b	0.89464444
99	0x3fbf0530	1.4923458
100	0x3f85b775	1.0446612
101	0x3fa79bd4	1.309443
102	0x3fcb1954	1.5867105
103	0x3f6e177d	0.9300459
104	0x3f9a6560	1.2062187
105	0x3fb7fa5a	1.4373276
106	0x3f7ecdc1	0.99532706
107	0x3fbc51d3	1.4712471
108	0x3fa75d88	1.3075418
109	0x3fc108b7	1.5080785
110	0x3fcb09c7	1.5862359
111	0x3f936e23	1.1517986
112	0x3f8e378a	1.1110699
113	0x3f880872	1.0627577
114	0x3fa05f8c	1.2529159
115	0x3f81e7fa	1.0148919
116	0x3f85da50	1.0457249
117	0x3f9d4da1	1.2289315
118	0x3fa3b36e	1.2789133
119	0x3fa987e0	1.3244591
120	0x3f333281	0.6999894
121	0x3f9c0b98	1.2191038
122	0x3f9dfce5	1.2342802
123	0x3f745e3b	0.95456284
124	0x3f73b03a	0.95190775
125	0x3fb574df	1.4176291
126	0x3f6a7527	0.9158501
127	0x3f96ef19	1.1791717

actor_fc_layers.blocks.0.block.1.bias f4 [128]
0	0xbecbbac9	-0.39790943
1	0x3e2c919b	0.16852419
2	0xbe134709	-0.14382567
3	0x3e07dd89	0.13268103
4	0xbe498ecb	-0.19683377
5	0xbc499500	-0.012303591
6	0x3e02b4f5	0.12764342
7	0x3c8a71d7	0.016899986
8	0xbe0966ec	-0.13418168
9	0xbf1b5105	-0.606705
10	0xbe01393e	-0.12619492
11	0x3e00ae33	0.12566452
12	0xbeb1a744	-0.34697926
13	0x3dd79f9b	0.10528489
14	0xbe360a33	-0.17777328
15	0x3eb0d974	0.34540904
16	0x3e7f754a	0.24947086
17	0x3e2c4e77	0.16826807
18	0x3d095721	0.03353036
19	0x3e8bdbdf	0.27316186
20	0x3d42cecb	0.047560494
21	0xbda66643	-0.081249736
22	0xbe933ea6	-0.28758734
23	0x3c054433	0.008133936
24	0x3d66a6dd	0.056311477
25	0x3d6b8bc7	0.05750635
26	0xbdf5ed41	-0.12008143
27	0x3ec66a42	0.38752943
28	0xbe7bea1f	-0.24601029
29	0x3e943d79	0.2895315
30	0xbd614619	-0.05499849
31	0x3da1c387	0.07898622
32	0x3e8f189d	0.27948466
33	0xbe0018ae	-0.12509415
34	0x3e97561c	0.29557884
35	0xbe69fe32	-0.22850874
36	0xbebb6209	-0.36598232
37	0xbe583732	-0.21114805
38	0x3ea8e1a6	0.32984656
39	0x3f06100d	0.5236824
40	0x3db79d7d	0.089655854
41	0xbe7c6e2b	-0.246514
42	0xbed01743	-0.40642747
43	0x3d7253fe	0.059162132
44	0xbe3a8f5f	-0.18218754
45	0x3e950234	0.29103243
46	0x3df0478b	0.11732396
47	0xbeaa1e9d	-0.3322648
48	0xbed5f727	-0.41790125
49	0x3d5a9aa1	0.053370122
50	0xbdc844d3	-0.09778752
51	0x3d0ffdd5	0.035154182
52	0xbe5c587d	-0.2151813
53	0x3e4653c1	0.19367887
54	0xbe269187	-0.16266452
55	0x3e93e9ba	0.28889257
56	0xbe8e3cb3	-0.27780685
57	0xbd131214	-0.035905913
58	0xbc257c54	-0.010100443
59	0x3ebf736b	0.37392744
60	0x3e514651	0.2043698
61	0xbd9bfbf2	-0.07616414
62	0x3d6c580b	0.05770115
63	0xbd90bb1c	-0.07066938
64	0xbd266aa1	-0.040629033
65	0xbe651f20	-0.22375154
66	0xbec9a4eb	-0.39383635
67	0xbe786f93	-0.24261312
68	0xbe4e5139	-0.20148171
69	0xbe700ba4	-0.2344194
70	0xbe8d57c8	-0.27606034
71	0x3dc565c6	0.09638552
72	0xbde22092	-0.110413685
73	0xbdc37504	-0.09543803
74	0xbe15851f	-0.14601563
75	0xbedc4867	-0.4302399
76	0xbc758b8a	-0.014986882
77	0xbd298aa1	-0.041391972
78	0xbe9f1a77	-0.3107488
79	0xbed0509d	-0.40686503
80	0x3df2aae3	0.11849
81	0xbee4a4a1	-0.44656852
82	0xbe8d040f	-0.2754216
83	0x3d91367c	0.0709047
84	0x3cdef7af	0.027217714
85	0xbe7f02d6	-0.24903426
86	0xbed98cd3	-0.42490253
87	0xbe8b0bac	-0.27157342
88	0xbebf6b32	-0.3738647
89	0xbe386fc0	-0.18011379
90	0xbe968007	-0.29394552
91	0xbe11e29d	-0.14246602
92	0x3d81f604	0.06345752
93	0x3e7f8100	0.24951553
94	0x3e29d68c	0.1658575
95	0xbeb59f74	-0.35473216
96	0x3e15f7a8	0.14645255
97	0x3e175f6d	0.14782496
98	0xbe2466c6	-0.1605483
99	0x3bde7513	0.0067888587
100	0xbf1e7208	-0.6189275
101	0xbd6f1db8	-0.05837795
102	0x3e41fb1d	0.18943448
103	0x3e74ab0a	0.23893371
104	0xbe7ddd3d	-0.24791427
105	0x3e1d80cf	0.15381168
106	0xbd560b95	-0.05225714
107	0x3ea1918f	0.31556365
108	0xbe908ada	-0.28230935
109	0x3e1e625d	0.1546721
110	0x3d8f8f14	0.07009712
111	0xbeec2c4d	-0.4612755
112	0xbecfca47	-0.40584013
113	0xbe873832	-0.2641006
114	0xbe6d5e6e	-0.23180553
115	0xbe1e1d47	-0.15440856
116	0xbe84b80a	-0.2592166
117	0xbed03399	-0.40664366
118	0xbdac44e9	-0.08411581
119	0xbe56a528	-0.2096144
120	0xbe942961	-0.2893782
121	0x3e28542c	0.16438359
122	0xbda3f9be	-0.08006619
123	0x3f0b7b1c	0.54484725
124	0xbecc510c	-0.39905584
125	0xbe1267b6	-0.14297375
126	0xbedb9edd	-0.4289464
127	0xbef44e70	-0.47716093

actor_fc_layers.blocks.0.block.1.running_mean f4 [128]
0	0x00000000	0.0
1	0x00000000	0.0
2	0x00000000	0.0
3	0x00000000	0.0
4	0x00000000	0.0
5	0x00000000	0.0
6	0x00000000	0.0
7	0x00000000	0.0
8	0x00000000	0.0
9	0x00000000	0.0
10	0x00000000	0.0
11	0x00000000	0.0
12	0x00000000	0.0
13	0x00000000	0.0
14	0x00000000	0.0
15	0x00000000	0.0
16	0x00000000	0.0
17	0x00000000	0.0
18	0x00000000	0.0
19	0x00000000	0.0
20	0x00000000	0.0
21	0x00000000	0.0
22	0x00000000	0.0
23	0x00000000	0.0
24	0x00000000	0.0
25	0x00000000	0.0
26	0x00000000	0.0
27	0x00000000	0.0
28	0x00000000	0.0
29	0x00000000	0.0
30	0x00000000	0.0
31	0x00000000	0.0
32	0x00000000	0.0
33	0x00000000	0.0
34	0x00000000	0.0
35	0x00000000	0.0
36	0x00000000	0.0
37	0x00000000	0.0
38	0x00000000	0.0
39	0x00000000	0.0
40	0x00000000	0.0
41	0x00000000	0.0
42	0x00000000	0.0
43	0x00000000	0.0
44	0x00000000	0.0
45	0x00000000	0.0
46	0x00000000	0.0
47	0x00000000	0.0
48	0x00000000	0.0
49	0x00000000	0.0
50	0x00000000	0.0
51	0x00000000	0.0
52	0x00000000	0.0
53	0x00000000	0.0
54	0x00000000	0.0
55	0x00000000	0.0
56	0x00000000	0.0
57	0x00000000	0.0
58	0x00000000	0.0
59	0x00000000	0.0
60	0x00000000	0.0
61	0x00000000	0.0
62	0x00000000	0.0
63	0x00000000	0.0
64	0x00000000	0.0
65	0x00000000	0.0
66	0x00000000	0.0
67	0x00000000	0.0
68	0x00000000	0.0
69	0x00000000	0.0
70	0x00000000	0.0
71	0x00000000	0.0
72	0x00000000	0.0
73	0x00000000	0.0
74	0x00000000	0.0
75	0x00000000	0.0
76	0x00000000	0.0
77	0x00000000	0.0
78	0x00000000	0.0
79	0x00000000	0.0
80	0x00000000	0.0
81	0x00000000	0.0
82	0x00000000	0.0
83	0x00000000	0.0
84	0x00000000	0.0
85	0x00000000	0.0
86	0x00000000	0.0
87	0x00000000	0.0
88	0x00000000	0.0
89	0x00000000	0.0
90	0x00000000	0.0
91	0x00000000	0.0
92	0x00000000	0.0
93	0x00000000	0.0
94	0x00000000	0.0
95	0x00000000	0.0
96	0x00000000	0.0
97	0x00000000	0.0
98	0x00000000	0.0
99	0x00000000	0.0
100	0x00000000	0.0
101	0x00000000	0.0
102	0x00000000	0.0
103	0x00000000	0.0
104	0x00000000	0.0
105	0x00000000	0.0
106	0x00000000	0.0
107	0x00000000	0.0
108	0x00000000	0.0
109	0x00000000	0.0
110	0x00000000	0.0
111	0x00000000	0.0
112	0x00000000	0.0
113	0x00000000	0.0
114	0x00000000	0.0
115	0x00000000	0.0
116	0x00000000	0.0
117	0x00000000	0.0
118	0x00000000	0.0
119	0x00000000	0.0
120	0x00000000	0.0
121	0x00000000	0.0
122	0x00000000	0.0
123	0x00000000	0.0
124	0x00000000	0.0
125	0x00000000	0.0
126	0x00000000	0.0
127	0x00000000	0.0

actor_fc_layers.blocks.0.block.1.running_var f4 [128]
0	0x3f800000	1.0
1	0x3f800000	1.0
2	0x3f800000	1.0
3	0x3f800000	1.0
4	0x3f800000	1.0
5	0x3f800000	1.0
6	0x3f800000	1.0
7	0x3f800000	1.0
8	0x3f800000	1.0
9	0x3f800000	1.0
10	0x3f800000	1.0
11	0x3f800000	1.0
12	0x3f800000	1.0
13	0x3f800000	1.0
14	0x3f800000	1.0
15	0x3f800000	1.0
16	0x3f800000	1.0
17	0x3f800000	1.0
18	0x3f800000	1.0
19	0x3f800000	1.0
20	0x3f800000	1.0
21	0x3f800000	1.0
22	0x3f800000	1.0
23	0x3f800000	1.0
24	0x3f800000	1.0
25	0x3f800000	1.0
26	0x3f800000	1.0
27	0x3f800000	1.0
28	0x3f800000	1.0
29	0x3f800000	1.0
30	0x3f800000	1.0
31	0x3f800000	1.0
32	0x3f800000	1.0
33	0x3f800000	1.0
34	0x3f800000	1.0
35	0x3f800000	1.0
36	0x3f800000	1.0
37	0x3f800000	1.0
38	0x3f800000	1.0
39	0x3f800000	1.0
40	0x3f800000	1.0
41	0x3f800000	1.0
42	0x3f800000	1.0
43	0x3f800000	1.0
44	0x3f800000	1.0
45	0x3f800000	1.0
46	0x3f800000	1.0
47	0x3f800000	1.0
48	0x3f800000	1.0
49	0x3f800000	1.0
50	0x3f800000	1.0
51	0x3f800000	1.0
52	0x3f800000	1.0
53	0x3f800000	1.0
54	0x3f800000	1.0
55	0x3f800000	1.0
56	0x3f800000	1.0
57	0x3f800000	1.0
58	0x3f800000	1.0
59	0x3f800000	1.0
60	0x3f800000	1.0
61	0x3f800000	1.0
62	0x3f800000	1.0
63	0x3f800000	1.0
64	0x3f800000	1.0
65	0x3f800000	1.0
66	0x3f800000	1.0
67	0x3f800000	1.0
68	0x3f800000	1.0
69	0x3f800000	1.0
70	0x3f800000	1.0
71	0x3f800000	1.0
72	0x3f800000	1.0
73	0x3f800000	1.0
74	0x3f800000	1.0
75	0x3f800000	1.0
76	0x3f800000	1.0
77	0x3f800000	1.0
78	0x3f800000	1.0
79	0x3f800000	1.0
80	0x3f800000	1.0
81	0x3f800000	1.0
82	0x3f800000	1.0
83	0x3f800000	1.0
84	0x3f800000	1.0
85	0x3f800000	1.0
86	0x3f800000	1.0
87	0x3f800000	1.0
88	0x3f800000	1.0
89	0x3f800000	1.0
90	0x3f800000	1.0
91	0x3f800000	1.0
92	0x3f800000	1.0
93	0x3f800000	1.0
94	0x3f800000	1.0
95	0x3f800000	1.0
96	0x3f800000	1.0
97	0x3f800000	1.0
98	0x3f800000	1.0
99	0x3f800000	1.0
100	0x3f800000	1.0
101	0x3f800000	1.0
102	0x3f800000	1.0
103	0x3f800000	1.0
104	0x3f800000	1.0
105	0x3f800000	1.0
106	0x3f800000	1.0
107	0x3f800000	1.0
108	0x3f800000	1.0
109	0x3f800000	1.0
110	0x3f800000	1.0
111	0x3f800000	1.0
112	0x3f800000	1.0
113	0x3f800000	1.0
114	0x3f800000	1.0
115	0x3f800000	1.0
116	0x3f800000	1.0
117	0x3f800000	1.0
118	0x3f800000	1.0
119	0x3f800000	1.0
120	0x3f800000	1.0
121	0x3f800000	1.0
122	0x3f800000	1.0
123	0x3f800000	1.0
124	0x3f800000	1.0
125	0x3f800000	1.0
126	0x3f800000	1.0
127	0x3f800000	1.0

actor_fc_layers.blocks.1.block.0.weight f4 [128, 128]
0	0xbdd71875	-0.10502712
1	0xbe9ccb81	-0.3062401
2	0xbc64798f	-0.013944997
3	0x3ca7e960	0.020497024
4	0xbdf466a9	-0.11933643
5	0x3ee1880b	0.44049105
6	0xbe622f84	-0.22088438
7	0xbc2ea676	-0.010659805
8	0xbc919cb0	-0.01777491
9	0xbe8e3fbd	-0.27783003
10	0x3e62fd74	0.22166997
11	0xbed8e703	-0.42363748
12	0x3e81261b	0.25224385
13	0x3e1f7bd6	0.15574583
14	0xbe8e4d79	-0.27793482
15	0x3d41d115	0.047318537
16	0x3ef4e094	0.4782759
17	0xbec5e8ac	-0.38654077
18	0x3c7310c8	0.014835544
19	0xbe67a865	-0.22622831
20	0xbcf24b79	-0.029577004
21	0xbd257f33	-0.04040451
22	0x3ced9381	0.029001
23	0xbd9955ef	-0.07487094
24	0x3e23c8f7	0.15994631
25	0xbdc341c0	-0.09534025
26	0xbd09217a	-0.03347919
27	0xbd38023c	-0.044924006
28	0xbe81d9eb	-0.2536157
29	0xbee012f7	-0.4376447
30	0xbd88bccd	-0.06676636
31	0xbeab388d	-0.33441582
32	0xbd226561	-0.039647464
33	0xbdb83a5d	-0.08995507
34	0x3d4e31a1	0.0503403
35	0xbd86a1db	-0.0657384
36	0x3ef205c8	0.47270036
37	0x3f2675e2	0.65023625
38	0xbe7cdfe0	-0.24694777
39	0xbf0e2645	-0.55527145
40	0x3eb66e11	0.3563085
41	0x3e929053	0.28625736
42	0xbbd20130	-0.006408833
43	0xbe89b105	-0.26892868
44	0x3d98238b	0.07428654
45	0xbe46a184	-0.19397551
46	0xbedb533c	-0.4283694
47	0x3d4d6d32	0.050152965
48	0x3df747f8	0.12074274
49	0x3eae915e	0.3409528
50	0xbded7b6e	-0.11595808
51	0x3e5dca5b	0.21659224
52	0x3b755129	0.0037432408
53	0xbdeea951	-0.11653388
54	0x3eb855f4	0.36003077
55	0xbf0eeea1	-0.5583287
56	0x3ed48a08	0.4151156
57	0x3bd28f87	0.006425801
58	0xbf0b4e16	-0.54416025
59	0xbe0dfc16	-0.13865694
60	0xbdb57c01	-0.088615425
61	0xbe914ea8	-0.28380322
62	0xbcf9146a	-0.030405242
63	0xbf3516e1	-0.70738035
64	0xbd3fffc9	-0.046874795
65	0x3e33ec20	0.17570543
66	0x3cc843a7	0.024446322
67	0x3ebf8738	0.3740785
68	0xbd2e6014	-0.042572096
69	0x3ea7f9a2	0.32807642
70	0xbdab6c31	-0.08370245
71	0xbe4fb387	-0.20283328
72	0x3f15c878	0.58509016
73	0x3ea98c35	0.33114782
74	0xbd55a210	-0.052156508
75	0xbeb4134a	-0.35170966
76	0xbd36f9c0	-0.044671774
77	0xbeca9c40	-0.39572334
78	0xbe9e3ae2	-0.309043
79	0xbd39b364	-0.045337096
80	0xbe950a0b	-0.29109225
81	0x3d981d28	0.07427436
82	0x3d8c5e8b	0.0685397
83	0xbda1c52c	-0.07898936
84	0xbea31ac9	-0.31856373
85	0x3e352a18	0.17691839
86	0xbe17ba87	-0.14817248
87	0xbea34775	-0.31890455
88	0xbe63731c	-0.2221188
89	0xbedfca18	-0.43708873
90	0x3e5e8c28	0.21733153
91	0xbb995fbc	-0.004680602
92	0x3ddf2dd4	0.10897413
93	0xbe069189	-0.13141455
94	0x3d22445c	0.039615974
95	0xbdaab7aa	-0.083358124
96	0x3d492b8b	0.04911379
97	0x3d89cf61	0.067290075
98	0x3bb53eba	0.005531159
99	0xbeda2855	-0.42608896
100	0x3da27fd8	0.079345405
101	0xbf1b1125	-0.60573035
102	0xbe3e0c10	-0.18559289
103	0xbefafbf0	-0.49020338
104	0x3e0ba05e	0.13635394
105	0xbe5a9bd6	-0.21348509
106	0x3e732440	0.23744297
107	0x3ea42798	0.32061458
108	0x3d573362	0.052539237
109	0xbe71818a	-0.23584571
110	0xbf34a615	-0.7056592
111	0xbe1e6c3c	-0.15470976
112	0xbe27048e	-0.16310331
113	0x3f242b26	0.6412834
114	0x3ea1b7c8	0.31585526
115	0xbe802b62	-0.25033098
116	0x3df4fd26	0.11962347
117	0x3e006e0a	0.12541977
118	0x3d7d9e48	0.061918527
119	0xbe34206c	-0.17590493
120	0xbdbaff7a	-0.091307595
121	0xbdad3a58	-0.08458394
122	0x3d26e51f	0.04074585
123	0xbe28408b	-0.16430871
124	0x3e1ce566	0.15321884
125	0x3ebccd41	0.36875346
126	0x3e90955f	0.2823896
127	0xbe700c99	-0.23442306
128	0xbdaaba19	-0.083362766
129	0x3c59b63b	0.013288076
130	0xbcf8a436	-0.03035174
131	0xbd9880dc	-0.07446453
132	0xbd749846	-0.05971553
133	0xbddba4c4	-0.10724786
134	0xbc1fd184	-0.009754542
135	0xbdc9fa7f	-0.098622315
136	0x3bc2fa4e	0.005950249
137	0xbde0d5ad	-0.109782554
138	0x3cb0fa7d	0.021603817
139	0xbddc8ad8	-0.1076867
140	0xbce2191d	-0.027599866
141	0x3d1ac7ab	0.037788074
142	0xbd9cac0b	-0.07650002
143	0xba392bc2	-0.00070637104
144	0x3cd863f3	0.026414847
145	0xbccac53a	-0.024752248
146	0xbdb7a4be	-0.08966969
147	0xbd1e0048	-0.038574487
148	0xbd100fec	-0.035171434
149	0x3c4e45b6	0.012589863
150	0xbdb40502	-0.08790018
151	0x37c27a92	2.3183678e-05
152	0xbd85d39b	-0.06534501
153	0xbd8561ef	-0.0651282
154	0x3be82c30	0.0070853457
155	0xbd5f0664	-0.054449454
156	0xbd350f06	-0.04420378
157	0xbd63a5fd	-0.05557822
158	0x3ca0e100	0.019638538
159	0xbd2d816d	-0.04235976
160	0x3d454e66	0.04817047
161	0xbc3c3132	-0.011486338
162	0xbdd2da60	-0.10295558
163	0x3d27efa4	0.041000023
164	0xbbe8c99d	-0.0071041123
165	0xbd8f4403	-0.06995394
166	0xbdc004e3	-0.09375932
167	0xbc64cf41	-0.013965429
168	0xbddce3e8	-0.10785657
169	0xbcf9ffde	-0.030517515
170	0x3d3f04a1	0.046635274
171	0xbd609151	-0.054826085
172	0x3d5a702b	0.053329628
173	0xbdcb5947	-0.09929138
174	0xbbd909f8	-0.006623503
175	0xbcdd1200	-0.026986122
176	0x3c5910ff	0.013248681
177	0x3cbaf784	0.022823103
178	0xbdde5da4	-0.10857704
179	0xbd4da4c7	-0.050205972
180	0x3d15eb87	0.03660157
181	0xbbc583ea	-0.0060276883
182	0xbd96387c	-0.07334992
183	0x3d2be744	0.0419686
184	0xbd85669f	-0.06513714
185	0xbcd295a0	-0.025706112
186	0xbda068b1	-0.07832468
187	0x3b16888f	0.002296958
188	0x3d64c0cc	0.055847928
189	0x3c7bca75	0.015368094
190	0x3bf9125d	0.007601066
191	0xbdb51b86	-0.0884314
192	0x3cff51f9	0.031167017
193	0x3b8cfd32	0.004302644
194	0xbd8c8673	-0.06861582
195	0xbd8c7be7	-0.0685957
196	0xbd8ae60b	-0.067821585
197	0x3cc36556	0.023852032
198	0xb903fc1f	-0.00012587056
199	0x3d25e6f0	0.040503442
200	0x3b001d33	0.0019548654
201	0xbdcab3a7	-0.09897547
202	0xbd86d313	-0.06583228
203	0xbdcfcc57	-0.101463966
204	0xbce4bfa1	-0.027923407
205	0xbb4c4e33	-0.003117454
206	0x3d4b2296	0.04959353
207	0xbd936bb0	-0.07198274
208	0x3bf1cab1	0.007378899
209	0x3d110dd3	0.035413574
210	0xbd635779	-0.055503342
211	0xbdc8fd5f	-0.09813952
212	0xbdb0b302	-0.08627893
213	0x3d26e280	0.04074335
214	0x3cf29e05	0.029616365
215	0x3ca93698	0.020655915
216	0xbd147cbc	-0.03625177
217	0xbd92ede8	-0.07174283
218	0xbd61d5ed	-0.055135656
219	0xbd576670	-0.052587926
220	0xbd9b6e78	-0.075894296
221	0xbd94d630	-0.072674155
222	0xba4b0cb7	-0.000774573
223	0x3c9c710f	0.01909688
224	0xbda61f31	-0.08111418
225	0xbd919e5c	-0.07110283
226	0xbc9f4f70	-0.019447058
227	0x3d3b1729	0.045676384
228	0xbd89c87f	-0.06727695
229	0xbd81ade2	-0.06331994
230	0xbd0784cf	-0.03308564
231	0xbc314bbe	-0.010821281
232	0x3ccc27ea	0.024921376
233	0xbc9505d8	-0.018191263
234	0x3d176287	0.036959197
235	0x3cfdc771	0.03097889
236	0xbda22921	-0.07918001
237	0xbc2b9668	-0.010472871
238	0x3c27bffc	0.010238644
239	0xbdbd9bb2	-0.09258212
240	0x3c208b74	0.009798873
241	0xbd1a2c34	-0.03763981
242	0x3d6373fc	0.055530533
243	0xbd9c2610	-0.07624447
244	0x3bd9ced7	0.0066469717
245	0xbcf7c20a	-0.030243892
246	0xbcb7d2d6	-0.022439402
247	0xbbeae129	-0.0071679545
248	0xbde6dd09	-0.11272628
249	0x3d14385f	0.036186572
250	0xbd3213be	-0.04347586
251	0xbdc8381b	-0.09776326
252	0x3d93f147	0.072237544
253	0xbd9e87d4	-0.07740751
254	0xbd247505	-0.04015066
255	0x3d666134	0.056245044

actor_fc_layers.blocks.1.block.1.weight f4 [128]
0	0x3fb5a33a	1.4190438
1	0x3f74d4d1	0.9563723
2	0x3f9df60f	1.2340716
3	0x3fc82c8a	1.5638592
4	0x3f9be78b	1.2180036
5	0x3fa27405	1.2691656
6	0x3f5e0c23	0.8673727
7	0x3f760e7d	0.9611586
8	0x3fd62a1c	1.6731601
9	0x3fe885f5	1.816588
10	0x3f90268d	1.1261765
11	0x3f73a7a5	0.9517768
12	0x3f982eeb	1.1889318
13	0x3fb9e31b	1.4522432
14	0x3fa4417d	1.2832485
15	0x3f94a371	1.1612378
16	0x3f93d6d5	1.1549937
17	0x3faf6bf1	1.3704816
18	0x3fa6c913	1.3030113
19	0x3fb83549	1.4391261
20	0x3ff929b5	1.9465853
21	0x3f93a1fb	1.1533808
22	0x3fefd2e9	1.873624
23	0x3fef5b6a	1.8699772
24	0x3fb0fd05	1.3827215
25	0x3f921b5b	1.1414598
26	0x3f833e46	1.0253379
27	0x3fb321a9	1.3994647
28	0x3fa0064a	1.2501919
29	0x3fb6fbba	1.4295571
30	0x3fbfc592	1.4982169
31	0x3f89b543	1.0758442
32	0x3fa70251	1.3047582
33	0x3fd39746	1.653054
34	0x3fb2bb93	1.3963493
35	0x3fdbeab8	1.7181005
36	0x3fe25c4d	1.7684418
37	0x3fc8f82c	1.5700736
38	0x3fc6f5ad	1.5543724
39	0x3fc12da4	1.5092053
40	0x3f767dd1	0.9628573
41	0x3fcacd30	1.5843868
42	0x3f989280	1.1919708
43	0x3ffe6e41	1.9877397
44	0x3f8c804d	1.0976654
45	0x3f7391c5	0.951443
46	0x3fb03411	1.376589
47	0x3f460788	0.7735524
48	0x3fcc9138	1.5981817
49	0x3fa4afc5	1.2866141
50	0x3fa1be8b	1.2636274
51	0x3f757a71	0.95889956
52	0x3fe27f10	1.7695026
53	0x3fba8ca5	1.4574171
54	0x3fa26dab	1.2689718
55	0x3fc67ebe	1.5507429
56	0x3fad054b	1.351724
57	0x3fcf3185	1.6186987
58	0x3f8eed61	1.1166192
59	0x3fe00da6	1.7504165
60	0x3faefee1	1.3671533
61	0x3fb4ce1a	1.4125397
62	0x3f938295	1.1524225
63	0x3fd667da	1.6750443
64	0x3fb7e075	1.4365374
65	0x3fe98ec8	1.8246698
66	0x3fd33751	1.6501256
67	0x3f9b0371	1.2110425
68	0x3fb6f6b0	1.4294033
69	0x3fdbec7f	1.7181548
70	0x3fd8bd04	1.6932683
71	0x3fb27079	1.3940574
72	0x3f768155	0.96291095
73	0x3fc1be36	1.5136173
74	0x3fc3e0d8	1.5302992
75	0x3fa8203a	1.3134835
76	0x3fba497b	1.4553674
77	0x3fb04502	1.377106
78	0x3f993747	1.1969994
79	0x3fab68f2	1.3391402
80	0x3f8d510d	1.104036
81	0x3fb3c1f3	1.4043564
82	0x3fa1e473	1.2647842
83	0x3f561d1e	0.8363818
84	0x3f9da851	1.2316991
85	0x3f9f6209	1.2451793
86	0x3f96867a	1.1759789
87	0x3fbe9473	1.4889053
88	0x3f74bbd1	0.95599085
89	0x3f7a1fe5	0.9770492
90	0x3fc30cab	1.5238241
91	0x3fcc2402	1.5948489
92	0x3f781e9d	0.9692171
93	0x3f9176ac	1.1364341
94	0x3fc21000	1.5161133
95	0x3fb0ab65	1.3802305
96	0x3fa9fb99	1.3279907
97	0x3f9015f5	1.1256701
98	0x3fc5a613	1.5441307
99	0x3fa6dc76	1.3036029
100	0x3f61dcd4	0.8822758
101	0x3fb64ec2	1.4242785
102	0x3fa25409	1.2681895
103	0x3fb07d50	1.3788242
104	0x3fb81a49	1.4383022
105	0x3f830adc	1.0237689
106	0x3faf47fc	1.3693843
107	0x3fb1ec32	1.3900206
108	0x3fab7ff7	1.3398427
109	0x3fa04b8b	1.2523054
110	0x3fbf0795	1.4924189
111	0x3fa25488	1.2682047
112	0x3fa214cf	1.26626
113	0x3fb8dc6b	1.4442266
114	0x400ac26e	2.168117
115	0x3fd2da02	1.6472781
116	0x3f9396a7	1.153035
117	0x3fd037df	1.626705
118	0x3fadb5c5	1.3571097
119	0x3fb72fc5	1.4311453
120	0x3f76d2f9	0.9641567
121	0x3f77c71d	0.967882
122	0x3f90d9d5	1.1316477
123	0x3f7314c5	0.94953567
124	0x3fc7d643	1.5612262
125	0x3fae5526	1.3619735
126	0x3f79f5b4	0.9764054
127	0x3f8bc041	1.0918046

actor_fc_layers.blocks.1.block.1.bias f4 [128]
0	0xbdfa95b8	-0.12235588
1	0xbd501820	-0.050804257
2	0xbeac0444	-0.33597004
3	0xbee393b6	-0.44448632
4	0xbe842bbe	-0.25814623
5	0xbdb6ce01	-0.08926011
6	0x3e0bf787	0.13668643
7	0xbd4b76f7	-0.049674
8	0x3ec92911	0.39289144
9	0x3e926c70	0.28598356
10	0xbe4ddd0d	-0.20103855
11	0xbd55e548	-0.052220613
12	0x3ec91c44	0.39279377
13	0xbdc88306	-0.09790616
14	0xbda6487a	-0.081192926
15	0x3de0cfc5	0.10977129
16	0x3d70d90e	0.05880075
17	0xbd81999e	-0.06328128
18	0xbd87246e	-0.06598745
19	0xbdd74e1a	-0.105129436
20	0x3ed81a8e	0.4220776
21	0xbe8a3ce8	-0.26999593
22	0xbea6e442	-0.32596022
23	0x3e081896	0.13290629
24	0xbec38f1d	-0.38195124
25	0xbdae9021	-0.08523584
26	0xbe089257	-0.13337074
27	0xbe18871c	-0.1489529
28	0x3e8df0cb	0.27722773
29	0x3d16d879	0.03682754
30	0xbeab70ad	-0.33484402
31	0xbe085f15	-0.13317521
32	0x3e5c4ca8	0.21513617
33	0x3ed66671	0.41875032
34	0x3cc8cafa	0.02451085
35	0xbde2483a	-0.110489324
36	0x3dfd0e73	0.123562716
37	0xbebdd635	-0.3707749
38	0xbde2aa69	-0.110676594
39	0xbed25f1e	-0.41088194
40	0xbd2e8dc9	-0.042615686
41	0xbe734806	-0.23757944
42	0x3eef2cfb	0.46714005
43	0xbe44832a	-0.1919066
44	0x3e44f9b0	0.19235873
45	0xbd5f7360	-0.05455339
46	0xbcfd6ed1	-0.03093663
47	0x3ea1e872	0.31622654
48	0x3ebec812	0.37262017
49	0x3e2050e7	0.15655862
50	0xbdf98932	-0.12184371
51	0xbd64e19d	-0.055879224
52	0x3b94cc07	0.0045409235
53	0xbf00a647	-0.5025372
54	0x3e109b45	0.1412173
55	0x3de88d99	0.113551326
56	0xbf02cb94	-0.51091886
57	0x3e5c8106	0.21533594
58	0xbe030ccf	-0.12797855
59	0xbcb59e3f	-0.022170184
60	0x3e163fe5	0.14672811
61	0x3e131787	0.14364444
62	0x3e69207f	0.22766303
63	0x3dab348b	0.08359631
64	0xbc17ce42	-0.009265484
65	0xbbb897e9	-0.0056333435
66	0x3e0915a9	0.13387169
67	0xbe7c7ba7	-0.24656545
68	0xbd861603	-0.06547167
69	0xbd4c29d2	-0.04984457
70	0x3d525a3f	0.051355597
71	0x3e7cceac	0.24688214
72	0xbd637209	-0.055528674
73	0x3e003dba	0.12523547
74	0xbe54694a	-0.2074329
75	0xbeb8657f	-0.36014935
76	0xbe5d6902	-0.21622089
77	0xbbdd7355	-0.0067581334
78	0xbdfd4cca	-0.12368162
79	0xbe0c1193	-0.13678579
80	0x3e6ff0be	0.2343168
81	0x3ea414f9	0.3204725
82	0x3e7d84d8	0.24757707
83	0x3f16ca11	0.5890208
84	0x3b9f3c53	0.004859486
85	0xbe171d43	-0.14757256
86	0x3ec30bd2	0.38094956
87	0x3e3af315	0.18256791
88	0xbd82b8af	-0.06382882
89	0xbd6cf851	-0.057854
90	0xbecd150e	-0.40055126
91	0xbb2c7aed	-0.0026318387
92	0xbd59f4bc	-0.053211913
93	0x3ea307e6	0.31841964
94	0xbe082740	-0.13296223
95	0x3f06217d	0.5239485
96	0xbe7b89de	-0.24564311
97	0xbdfae28b	-0.12250241
98	0xbe571068	-0.21002352
99	0x3e0568f3	0.13028316
100	0x3d92cc3f	0.07167863
101	0x3d3a5e24	0.045499936
102	0x3d92d5f9	0.07169718
103	0xbe0f7183	-0.14008145
104	0x3e0ed4f0	0.13948417
105	0x3d9c60a7	0.076356225
106	0x3d96e0c9	0.07367093
107	0x3e3c7e73	0.18407612
108	0x3cd565f0	0.026049584
109	0xbe1c675f	-0.15273808
110	0xbd404979	-0.04694507
111	0x3e33bb32	0.17551878
112	0x3ea06ff8	0.31335425
113	0x3e508707	0.20364009
114	0xbefdf390	-0.49599886
115	0x3ed18f42	0.4092961
116	0xbe11f8fc	-0.14255136
117	0x3ddee9f0	0.10884464
118	0x3df6b73d	0.12046669
119	0xbcec664a	-0.028857369
120	0xbd30b9a6	-0.0431458
121	0xbd2f530d	-0.042803813
122	0xbe77941e	-0.24177596
123	0xbd874e83	-0.06606772
124	0xbea08d44	-0.31357777
125	0xbe8ca21a	-0.27467424
126	0xbd4322ef	-0.047640737
127	0x3cf3ced4	0.02976171

actor_fc_layers.blocks.1.block.1.running_mean f4 [128]
0	0x00000000	0.0
1	0x00000000	0.0
2	0x00000000	0.0
3	0x00000000	0.0
4	0x00000000	0.0
5	0x00000000	0.0
6	0x00000000	0.0
7	0x00000000	0.0
8	0x00000000	0.0
9	0x00000000	0.0
10	0x00000000	0.0
11	0x00000000	0.0
12	0x00000000	0.0
13	0x00000000	0.0
14	0x00000000	0.0
15	0x00000000	0.0
16	0x00000000	0.0
17	0x00000000	0.0
18	0x00000000	0.0
19	0x00000000	0.0
20	0x00000000	0.0
21	0x00000000	0.0
22	0x00000000	0.0
23	0x00000000	0.0
24	0x00000000	0.0
25	0x00000000	0.0
26	0x00000000	0.0
27	0x00000000	0.0
28	0x00000000	0.0
29	0x00000000	0.0
30	0x00000000	0.0
31	0x00000000	0.0
32	0x00000000	0.0
33	0x00000000	0.0
34	0x00000000	0.0
35	0x00000000	0.0
36	0x00000000	0.0
37	0x00000000	0.0
38	0x00000000	0.0
39	0x00000000	0.0
40	0x00000000	0.0
41	0x00000000	0.0
42	0x00000000	0.0
43	0x00000000	0.0
44	0x00000000	0.0
45	0x00000000	0.0
46	0x00000000	0.0
47	0x00000000	0.0
48	0x00000000	0.0
49	0x00000000	0.0
50	0x00000000	0.0
51	0x00000000	0.0
52	0x00000000	0.0
53	0x00000000	0.0
54	0x00000000	0.0
55	0x00000000	0.0
56	0x00000000	0.0
57	0x00000000	0.0
58	0x00000000	0.0
59	0x00000000	0.0
60	0x00000000	0.0
61	0x00000000	0.0
62	0x00000000	0.0
63	0x00000000	0.0
64	0x00000000	0.0
65	0x00000000	0.0
66	0x00000000	0.0
67	0x00000000	0.0
68	0x00000000	0.0
69	0x00000000	0.0
70	0x00000000	0.0
71	0x00000000	0.0
72	0x00000000	0.0
73	0x00000000	0.0
74	0x00000000	0.0
75	0x00000000	0.0
76	0x00000000	0.0
77	0x00000000	0.0
78	0x00000000	0.0
79	0x00000000	0.0
80	0x00000000	0.0
81	0x00000000	0.0
82	0x00000000	0.0
83	0x00000000	0.0
84	0x00000000	0.0
85	0x00000000	0.0
86	0x00000000	0.0
87	0x00000000	0.0
88	0x00000000	0.0
89	0x00000000	0.0
90	0x00000000	0.0
91	0x00000000	0.0
92	0x00000000	0.0
93	0x00000000	0.0
94	0x00000000	0.0
95	0x00000000	0.0
96	0x00000000	0.0
97	0x00000000	0.0
98	0x00000000	0.0
99	0x00000000	0.0
100	0x00000000	0.0
101	0x00000000	0.0
102	0x00000000	0.0
103	0x00000000	0.0
104	0x00000000	0.0
105	0x00000000	0.0
106	0x00000000	0.0
107	0x00000000	0.0
108	0x00000000	0.0
109	0x00000000	0.0
110	0x00000000	0.0
111	0x00000000	0.0
112	0x00000000	0.0
113	0x00000000	0.0
114	0x00000000	0.0
115	0x00000000	0.0
116	0x00000000	0.0
117	0x00000000	0.0
118	0x00000000	0.0
119	0x00000000	0.0
120	0x00000000	0.0
121	0x00000000	0.0
122	0x00000000	0.0
123	0x00000000	0.0
124	0x00000000	0.0
125	0x00000000	0.0
126	0x00000000	0.0
127	0x00000000	0.0

actor_fc_layers.blocks.1.block.1.running_var f4 [128]
0	0x3f800000	1.0
1	0x3f800000	1.0
2	0x3f800000	1.0
3	0x3f800000	1.0
4	0x3f800000	1.0
5	0x3f800000	1.0
6	0x3f800000	1.0
7	0x3f800000	1.0
8	0x3f800000	1.0
9	0x3f800000	1.0
10	0x3f800000	1.0
11	0x3f800000	1.0
12	0x3f800000	1.0
13	0x3f800000	1.0
14	0x3f800000	1.0
15	0x3f800000	1.0
16	0x3f800000	1.0
17	0x3f800000	1.0
18	0x3f800000	1.0
19	0x3f800000	1.0
20	0x3f800000	1.0
21	0x3f800000	1.0
22	0x3f800000	1.0
23	0x3f800000	1.0
24	0x3f800000	1.0
25	0x3f800000	1.0
26	0x3f800000	1.0
27	0x3f800000	1.0
28	0x3f800000	1.0
29	0x3f800000	1.0
30	0x3f800000	1.0
31	0x3f800000	1.0
32	0x3f800000	1.0
33	0x3f800000	1.0
34	0x3f800000	1.0
35	0x3f800000	1.0
36	0x3f800000	1.0
37	0x3f800000	1.0
38	0x3f800000	1.0
39	0x3f800000	1.0
40	0x3f800000	1.0
41	0x3f800000	1.0
42	0x3f800000	1.0
43	0x3f800000	1.0
44	0x3f800000	1.0
45	0x3f800000	1.0
46	0x3f800000	1.0
47	0x3f800000	1.0
48	0x3f800000	1.0
49	0x3f800000	1.0
50	0x3f800000	1.0
51	0x3f800000	1.0
52	0x3f800000	1.0
53	0x3f800000	1.0
54	0x3f800000	1.0
55	0x3f800000	1.0
56	0x3f800000	1.0
57	0x3f800000	1.0
58	0x3f800000	1.0
59	0x3f800000	1.0
60	0x3f800000	1.0
61	0x3f800000	1.0
62	0x3f800000	1.0
63	0x3f800000	1.0
64	0x3f800000	1.0
65	0x3f800000	1.0
66	0x3f800000	1.0
67	0x3f800000	1.0
68	0x3f800000	1.0
69	0x3f800000	1.0
70	0x3f800000	1.0
71	0x3f800000	1.0
72	0x3f800000	1.0
73	0x3f800000	1.0
74	0x3f800000	1.0
75	0x3f800000	1.0
76	0x3f800000	1.0
77	0x3f800000	1.0
78	0x3f800000	1.0
79	0x3f800000	1.0
80	0x3f800000	1.0
81	0x3f800000	1.0
82	0x3f800000	1.0
83	0x3f800000	1.0
84	0x3f800000	1.0
85	0x3f800000	1.0
86	0x3f800000	1.0
87	0x3f800000	1.0
88	0x3f800000	1.0
89	0x3f800000	1.0
90	0x3f800000	1.0
91	0x3f800000	1.0
92	0x3f800000	1.0
93	0x3f800000	1.0
94	0x3f800000	1.0
95	0x3f800000	1.0
96	0x3f800000	1.0
97	0x3f800000	1.0
98	0x3f800000	1.0
99	0x3f800000	1.0
100	0x3f800000	1.0
101	0x3f800000	1.0
102	0x3f800000	1.0
103	0x3f800000	1.0
104	0x3f800000	1.0
105	0x3f800000	1.0
106	0x3f800000	1.0
107	0x3f800000	1.0
108	0x3f800000	1.0
109	0x3f800000	1.0
110	0x3f800000	1.0
111	0x3f800000	1.0
112	0x3f800000	1.0
113	0x3f800000	1.0
114	0x3f800000	1.0
115	0x3f800000	1.0
116	0x3f800000	1.0
117	0x3f800000	1.0
118	0x3f800000	1.0
119	0x3f800000	1.0
120	0x3f800000	1.0
121	0x3f800000	1.0
122	0x3f800000	1.0
123	0x3f800000	1.0
124	0x3f800000	1.0
125	0x3f800000	1.0
126	0x3f800000	1.0
127	0x3f800000	1.0

actor_fc_layers.blocks.2.block.0.weight f4 [128, 128]
0	0x3e46ee06	0.19426736
1	0xbca450b1	-0.020058008
2	0xbde88541	-0.11353541
3	0x3e24950c	0.16072482
4	0x3c145b88	0.009055026
5	0xbe4f66c7	-0.2025405
6	0xbdf536dd	-0.11973355
7	0x3cba5e01	0.022749903
8	0x3d7aa389	0.061191116
9	0x3decb778	0.115584314
10	0xbe7cb1b6	-0.24677166
11	0xbbf648b2	-0.00751599
12	0xbe5a51b4	-0.2132023
13	0x3e6bf0a5	0.23041017
14	0xbe3be3d9	-0.18348636
15	0xbed9dbbc	-0.42550457
16	0xbeb92262	-0.36159045
17	0xbe919c68	-0.2843964
18	0x3e524bce	0.2053673
19	0xbe1b0758	-0.1513952
20	0xbec86e03	-0.39146432
21	0x3d16ea9c	0.036844835
22	0xbe990804	-0.29888928
23	0xbe276c65	-0.16349943
24	0xbe7072f2	-0.23481348
25	0x3edbc4cb	0.4292358
26	0xbc5a14c4	-0.013310615
27	0x3e006578	0.12538707
28	0xbe4ca4eb	-0.19984786
29	0xbdfe3bda	-0.124137595
30	0xbe6c3565	-0.23067243
31	0x3ce223a8	0.027604893
32	0xbe9184f7	-0.28421757
33	0xbd4b89b6	-0.04969188
34	0xbe81915f	-0.25306222
35	0x3eaabf2c	0.33348978
36	0x3dd46bef	0.10372149
37	0xbf133f8c	-0.5751884
38	0xbc313386	-0.010815507
39	0xbeb62b66	-0.35579985
40	0x3d0fc99a	0.03510437
41	0x3d30c2a1	0.043154363
42	0xbd2f7698	-0.04283771
43	0x3e3cd1be	0.18439385
44	0xbdc31a57	-0.09526508
45	0xbcccd686	-0.025004636
46	0x3d83b11e	0.06430267
47	0xbd1d25ec	-0.038366243
48	0xbe253599	-0.16133727
49	0xbe662e6d	-0.22478648
50	0xbe0faabf	-0.14029978
51	0x3d882ebb	0.06649538
52	0x3eb689ed	0.35652104
53	0xbf18d21c	-0.596956
54	0xbf0ea3db	-0.55718774
55	0x3d9b15cb	0.07572516
56	0x3d206c99	0.039166067
57	0x3e1d55f8	0.15364826
58	0x3e63eea4	0.22259003
59	0xbe97d628	-0.29655576
60	0x3e2dab9d	0.16959997
61	0xbaa2709c	-0.0012393179
62	0xbe145930	-0.14487147
63	0xbefdd1fe	-0.49574274
64	0x3dcbbbb6	0.099479124
65	0x3e32be0d	0.17455311
66	0xbe6436e9	-0.22286572
67	0xbb69ed05	-0.0035694253
68	0x3df2b511	0.11850942
69	0xbef09746	-0.46990412
70	0x3ed335c7	0.41251966
71	0xbd6f6569	-0.05844632
72	0xbd2ea0ed	-0.04263394
73	0xbc8358d7	-0.016033573
74	0xbf02afb3	-0.51049346
75	0xbdf447ce	-0.11927758
76	0xbe3734a2	-0.17891172
77	0xbe82b463	-0.2552825
78	0x3e8abca3	0.27097043
79	0xbe29eb11	-0.16593577
80	0xbea58035	-0.32324377
81	0xbed29b18	-0.41133952
82	0xbde1831d	-0.11011336
83	0xbe9794ec	-0.29605806
84	0x3e8efd4e	0.2792763
85	0xbe026af3	-0.1273611
86	0xbe582574	-0.21108037
87	0xbc0f62df	-0.0087516
88	0x3d84ed23	0.06490543
89	0x3d0a6266	0.033785246
90	0xbdbabee2	-0.09118439
91	0xbe7504dd	-0.23927636
92	0x3d61f20c	0.055162475
93	0x3e4e060a	0.20119491
94	0xbdc08d9b	-0.09402009
95	0xbe4018cf	-0.18759464
96	0xbdeb8c41	-0.11501361
97	0xbbec3d35	-0.007209445
98	0x3e59ca8b	0.2126867
99	0x3daffc30	0.08593023
100	0xbdb75e0a	-0.089534834
101	0xbcc98423	-0.02459914
102	0xbdb318ae	-0.08744942
103	0xbe68a098	-0.22717512
104	0xbe823cdb	-0.25437054
105	0xbe515e4c	-0.20446128
106	0xbec7b21f	-0.39003083
107	0xbd05b32f	-0.032641586
108	0xbe86f31b	-0.2635735
109	0x3d12413f	0.035706755
110	0xbdb950de	-0.09048627
111	0xbeb44512	-0.35208946
112	0xbcf25306	-0.029580604
113	0x3c019ea6	0.00791136
114	0x3da92cd4	0.082605034
115	0xbed9f8a4	-0.4257251
116	0xbd40bf9b	-0.04705773
117	0xbdf1e34d	-0.11810932
118	0xbe7657ee	-0.2405698
119	0x3d720e46	0.059095643
120	0x3d6a6875	0.057228524
121	0xbcb40c6d	-0.021978581
122	0x3e49453f	0.19655322
123	0xbd8ee6a6	-0.069775864
124	0x3e3c7975	0.18405707
125	0x3da86218	0.08221835
126	0xbd51d6ff	-0.051230427
127	0xbe648379	-0.22315778
128	0x3c8f5b73	0.017499661
129	0xbc3b308e	-0.011425151
130	0xbe51fe10	-0.20507073
131	0xbeb2167a	-0.34782773
132	0xbd008c56	-0.031383835
133	0x3c8703e6	0.016481351
134	0xbd8e9adf	-0.06963133
135	0x3d3b1e31	0.04568309
136	0xbd8086de	-0.06275724
137	0xbd711a21	-0.05886281
138	0xbe05a7db	-0.13052313
139	0x3d2e3648	0.042532235
140	0xbde8fc01	-0.11376191
141	0x3d8edd46	0.06975798
142	0xbe10aee7	-0.1412922
143	0xbd85f213	-0.065403126
144	0x3e027f43	0.12743859
145	0xbdbab009	-0.09115607
146	0xbdd441c0	-0.10364103
147	0xbe1771c4	-0.14789492
148	0xbeac1f85	-0.33617797
149	0x3c7c2192	0.015388863
150	0xbd71d53e	-0.059041254
151	0xbb03881b	-0.002007014
152	0x3e0ed706	0.13949212
153	0x3c2cb8a5	0.01054207
154	0xbcd0e6c4	-0.025500663
155	0x3e116040	0.14196873
156	0xbeba9516	-0.3644187
157	0xbead40f8	-0.3383863
158	0x3d5b4704	0.053534523
159	0x3d9ebc2b	0.07750734
160	0xbe0dec43	-0.13859658
161	0x3d5e3950	0.054253876
162	0xbd9dee4f	-0.077114694
163	0xbe0480ef	-0.1293981
164	0x3e436236	0.19080433
165	0xbd87a2e3	-0.06622865
166	0x3b05317e	0.002032369
167	0xbd6824c4	-0.056675687
168	0x3cc29bc6	0.02375592
169	0xbcd28858	-0.02569978
170	0xbe93556b	-0.28776106
171	0xbe6effd8	-0.23339784
172	0xbe03bcd7	-0.12865005
173	0xbd03160b	-0.032003444
174	0x3d9c69a3	0.07637336
175	0x3e1f2d73	0.15544681
176	0xbed13354	-0.40859473
177	0xbf0a76b7	-0.54087394
178	0xbd6c76a1	-0.05773032
179	0xbd289c4d	-0.041164685
180	0x3bf8faee	0.0075982725
181	0xbe46f447	-0.19429122
182	0xbe679311	-0.22614695
183	0x3dc3994a	0.09550722
184	0x3e7bd371	0.24592377
185	0xbdbd2e52	-0.092373505
186	0xbdcb0a5f	-0.099140875
187	0xbdd2a4dc	-0.10285351
188	0xbcbbdba5	-0.022931883
189	0xbe1b0cd0	-0.15141606
190	0x3c90e6c3	0.01768816
191	0x3c47e2f2	0.012200104
192	0x3e28d5b8	0.16487777
193	0x3ec3f1f6	0.3827054
194	0x3d0b1cba	0.033962943
195	0x3b1c0d0f	0.0023811494
196	0xbc2a7cc5	-0.010405724
197	0xbea24b80	-0.31698227
198	0xbde4856d	-0.111582614
199	0x3d1c48d3	0.038155388
200	0x3d34dbd9	0.044154976
201	0xbe842aff	-0.25814053
202	0xbe8019e2	-0.25019747
203	0xbe35098d	-0.17679425
204	0x3e2adffc	0.16687006
205	0x3e8a826e	0.27052635
206	0xbe69f3a9	-0.22846855
207	0xbe5c0ab8	-0.21488464
208	0xbd2db435	-0.042408187
209	0xbddf234b	-0.108954035
210	0xbec3435b	-0.38137326
211	0xbe19bbb4	-0.1501301
212	0xbd657224	-0.056017056
213	0xbd98e4dc	-0.074655265
214	0xbe9ce12c	-0.30640543
215	0xbcf0485d	-0.02933138
216	0x3cce68de	0.025196489
217	0xbd80fab0	-0.06297815
218	0xbcb9ed1e	-0.022696074
219	0x3e594b33	0.21220092
220	0xbd14cf28	-0.036330372
221	0xbd28b3bd	-0.041187037
222	0xbe90d0e4	-0.2828437
223	0xbe46d182	-0.19415858
224	0x3d590ac0	0.052988768
225	0x3e050366	0.12989578
226	0xbe959aac	-0.29219568
227	0x3d719466	0.058979414
228	0xbec85502	-0.39127356
229	0xbe1d1fab	-0.15344112
230	0xbd917f80	-0.07104397
231	0xbe4df4da	-0.20112935
232	0xbe4d017e	-0.200201
233	0xbddbb9db	-0.107288085
234	0xbdff3382	-0.12460996
235	0xbe936baf	-0.28793094
236	0xbea0a9ec	-0.3137964
237	0x3e7709a8	0.24124777
238	0xbc6a5eb0	-0.014304802
239	0xbeac1945	-0.3361303
240	0xbde1ed5d	-0.110316016
241	0xbe2d0aad	-0.16898604
242	0x3cd0c400	0.025484085
243	0xbebe5f02	-0.3718186
244	0xbdc0ca27	-0.094135575
245	0xbe8c3d03	-0.27390298
246	0xbda80c8d	-0.08205519
247	0xbcec6571	-0.028856965
248	0xbc140a47	-0.009035653
249	0x3d896d7b	0.06710335
250	0xbe36bb8a	-0.17844978
251	0xbd7adbca	-0.061244763
252	0x3cb1be96	0.021697324
253	0xbe66defd	-0.22546001
254	0xbd1744d8	-0.03693089
255	0xbda9e5fd	-0.0829582

actor_fc_layers.blocks.2.block.1.weight f4 [128]
0	0x3fcb77be	1.5895917
1	0x3fca34b2	1.5797331
2	0x401501b2	2.3282285
3	0x3fe7a12e	1.8096063
4	0x3fd9bcdf	1.7010764
5	0x3f9147a4	1.1349988
6	0x3fb5a7c1	1.419182
7	0x3fed2108	1.8525705
8	0x3f95a3a8	1.1690569
9	0x3fa47d38	1.2850714
10	0x403acbc6	2.9186873
11	0x3ff8266e	1.9386728
12	0x3f71b855	0.94421893
13	0x3fb12a89	1.3841106
14	0x3fc82a11	1.5637838
15	0x3fb4b1ab	1.411672
16	0x3fbc6e21	1.4721109
17	0x3f950b56	1.1644084
18	0x3fdbbd45	1.7167135
19	0x3f845724	1.0339093
20	0x3fe12cc8	1.7591791
21	0x3f8b6756	1.0890911
22	0x3fb25f21	1.3935281
23	0x3f84f441	1.038704
24	0x3fbff4dd	1.4996601
25	0x3fcf6134	1.6201539
26	0x3fb39de1	1.4032556
27	0x3fa5ee5c	1.2963367
28	0x3f260a7c	0.6485975
29	0x3f3359c7	0.70058864
30	0x3fc5857a	1.5431359
31	0x3f871155	1.0552164
32	0x3f72e9cd	0.94888
33	0x3f8c33e0	1.0953331
34	0x3f82bae1	1.0213281
35	0x3f713385	0.9421924
36	0x3fc7a346	1.5596702
37	0x3fceec20	1.616581
38	0x3f9b65df	1.2140464
39	0x3fa1f1ec	1.2651954
40	0x3f89c4fa	1.0763237
41	0x3f8aa1f8	1.0830679
42	0x3faa5744	1.3307881
43	0x3fba462d	1.4552666
44	0x3fc379a6	1.5271499
45	0x3facff58	1.3515425
46	0x3f8f08a2	1.117451
47	0x3f7e5e39	0.9936252
48	0x3ff70689	1.9298869
49	0x3fffc51f	1.9982032
50	0x3fb34bd9	1.4007522
51	0x3f17c6fe	0.59288013
52	0x3fb0ef3b	1.3823007
53	0x3fae5844	1.3620687
54	0x3ff79581	1.93425
55	0x3fe9ad98	1.8256102
56	0x3fed1dd0	1.8524723
57	0x3f90fde4	1.1327481
58	0x3f4451f5	0.76687557
59	0x3ff5af2d	1.9194084
60	0x3f1a9585	0.603844
61	0x3f8f514a	1.1196682
62	0x3fd638bd	1.6736065
63	0x3fdabb06	1.7088325
64	0x3f92f0a3	1.1479686
65	0x3ff7a001	1.9345704
66	0x3fbe5bab	1.4871725
67	0x40038edf	2.0555952
68	0x40333282	2.7999578
69	0x3f918b9c	1.137073
70	0x3fa3aca0	1.2787056
71	0x3f93c9c7	1.1545953
72	0x3f850686	1.0392616
73	0x3f6e0f2d	0.92991906
74	0x401b7520	2.4290237
75	0x401783bb	2.3674152
76	0x40024ff8	2.036131
77	0x3ea12a85	0.31477752
78	0x3f980a80	1.1878204
79	0x3f6ce784	0.92540765
80	0x3fc6a0ae	1.5517786
81	0x3dac35ba	0.08408685
82	0x3fcc03e4	1.5938687
83	0x3ff3b2b8	1.9038916
84	0x3fe8d18b	1.8188947
85	0x3fb0d5b5	1.3815218
86	0x3fbad5ed	1.4596535
87	0x3fb34905	1.4006659
88	0x3f7f9aa1	0.9984532
89	0x3fdcfc08	1.7264414
90	0x400063b5	2.0060856
91	0x3fbb1d70	1.4618359
92	0x3f9a5e33	1.2059997
93	0x400faa40	2.2447662
94	0x3f7a6b49	0.97819954
95	0x3fa5b234	1.2945008
96	0x3ff92d49	1.9466945
97	0x3f592cbb	0.8483388
98	0x3fe78600	1.8087769
99	0x400e2e53	2.2215774
100	0x3fad00e9	1.3515903
101	0x3fc283f2	1.5196517
102	0x3fbf6af9	1.495452
103	0x3f964934	1.174109
104	0x3f776e8e	0.9665307
105	0x3fc87125	1.5659529
106	0x3febf0a5	1.8432814
107	0x3fd7773b	1.6833261
108	0x3fa6a3be	1.301872
109	0x3fc883e3	1.5665249
110	0x3fbdc771	1.482649
111	0x3ff435b5	1.907889
112	0x401a51e4	2.4112482
113	0x400702ee	2.1095538
114	0x402970d1	2.6475108
115	0x3f2f5d3f	0.6850166
116	0x400918b6	2.1421332
117	0x3ff040f1	1.8769819
118	0x3f72fb61	0.94914824
119	0x40080bf7	2.1257303
120	0x3fdfe9bb	1.7493204
121	0x3f712575	0.9419778
122	0x3fbbdff1	1.4677716
123	0x40057257	2.0851038
124	0x3fb4d9ad	1.4128929
125	0x3f900627	1.1251878
126	0x3fb63700	1.4235535
127	0x3f8a7c92	1.0819266

actor_fc_layers.blocks.2.block.1.bias f4 [128]
0	0xbd661121	-0.05616868
1	0xbe285215	-0.16437562
2	0x3d9f8c2c	0.077904075
3	0x3e5ee16e	0.21765682
4	0xbd1a5d08	-0.037686378
5	0xbe0c8c4e	-0.13725397
6	0xbe134bf7	-0.14384447
7	0xbdf792e4	-0.12088564
8	0xbdcc841a	-0.09986134
9	0xbd070833	-0.032966804
10	0xbe277beb	-0.16355865
11	0xbe233bbc	-0.15940756
12	0xbd951c1c	-0.07280752
13	0xbe323a6a	-0.17405096
14	0xbda8af8b	-0.08236607
15	0xbee8e862	-0.45489794
16	0xbe589aa4	-0.2115274
17	0xbe8a1cc0	-0.2697506
18	0xbd74784e	-0.059685044
19	0x3e8afee2	0.27147585
20	0xbc70a6e6	-0.014688229
21	0xbe0ad98b	-0.13559549
22	0xbdfd59ae	-0.12370621
23	0xbd58969b	-0.052878004
24	0xbe89d243	-0.2691823
25	0x3d4ef842	0.050529726
26	0xbe676175	-0.2259577
27	0xbe5fbf8c	-0.21850413
28	0xbe262c79	-0.16227902
29	0xbe334d7e	-0.1751003
30	0xbc954afc	-0.018224232
31	0x3d0aaaa1	0.03385413
32	0xbd8312eb	-0.06400093
33	0xbd98909a	-0.074494556
34	0xbd096f5d	-0.03355347
35	0xbd7523ba	-0.059848525
36	0xbe167634	-0.14693528
37	0xbc90d8d9	-0.017681526
38	0xbe067232	-0.131295
39	0xbe9f5931	-0.31122735
40	0xbd64b321	-0.055834893
41	0x3e2a7fa3	0.16650252
42	0x3c3d23c5	0.011544173
43	0xbd99c578	-0.07508367
44	0xbe2f611d	-0.1712689
45	0xbe0a5bc3	-0.13511567
46	0xbe632fa1	-0.22186138
47	0xbd1d0260	-0.038332343
48	0xbe7f96ba	-0.24959841
49	0x3d205033	0.039138984
50	0xbe0950f7	-0.13409792
51	0x3f0d7485	0.5525592
52	0x3dba9a22	0.0911143
53	0xbea9531c	-0.3307122
54	0xbdca933b	-0.09891363
55	0xbe92a70f	-0.2864308
56	0xbd6250f9	-0.055253003
57	0x3e84059a	0.25785524
58	0x3d8ad5db	0.06779071
59	0xbdf3b67e	-0.11900042
60	0xbd2991ec	-0.041398928
61	0xbeb8dc76	-0.36105698
62	0xbe9c1206	-0.304825
63	0xbdf34305	-0.11878017
64	0xbd8bd647	-0.068279795
65	0x3de4086e	0.1113442
66	0x3c2843b2	0.010270046
67	0xbc7e056d	-0.015504223
68	0x3e6757df	0.22592114
69	0xbe770752	-0.24123886
70	0xbeb5e82b	-0.35528693
71	0xbea1070f	-0.31450698
72	0xbdadc49d	-0.08484767
73	0x3ea9ff77	0.33202717
74	0x3e724ba2	0.23661664
75	0xbe03c6ff	-0.1286888
76	0x3cf91cc9	0.030409234
77	0x3f21e9d1	0.632474
78	0xbc161e4f	-0.0091625
79	0xbdb7a32e	-0.08966671
80	0x3bf35dd1	0.0074269553
81	0x3eeaad26	0.45835227
82	0xbe81bea3	-0.25340757
83	0x3d2516bc	0.040304884
84	0xbd842503	-0.06452372
85	0xbea0a8e7	-0.31378862
86	0xbd6b54c9	-0.057453904
87	0xbe4aec7b	-0.19816773
88	0xbd22cc05	-0.03974535
89	0xbcb5608b	-0.022140762
90	0xbe53f2d8	-0.20698106
91	0x3dd77296	0.105199024
92	0xbe2b1a95	-0.16709359
93	0xbd06c6d9	-0.03290448
94	0xbd6fbce9	-0.05852977
95	0xbdc94733	-0.09828033
96	0xbdfab31b	-0.12241193
97	0x3d193eb3	0.03741331
98	0xbe12116c	-0.14264458
99	0x3e846ef6	0.25865906
100	0xbdccad1e	-0.09993957
101	0x3ce6e410	0.02818492
102	0x3d9e63e3	0.07733896
103	0xbcc825d4	-0.0244321
104	0x3e522c1d	0.2052464
105	0xbe28b652	-0.164758
106	0xbe61c64c	-0.220483
107	0xbe9fff38	-0.31249404
108	0x3bea11c6	0.007143232
109	0xbd89d17a	-0.067294076
110	0xbda02581	-0.07819653
111	0x3e7237cd	0.23654099
112	0x3ea3d2aa	0.3199666
113	0x3dcf5614	0.1012384
114	0x3e86bb01	0.26314548
115	0x3e8dadc5	0.27671638
116	0x3d91f1f3	0.07126226
117	0xbda435bd	-0.08018062
118	0xbd6d5b89	-0.057948623
119	0x3e3b39ee	0.18283817
120	0xbeafdf49	-0.3435004
121	0xbda1b2c5	-0.07895426
122	0xbe3e0c32	-0.1855934
123	0xbea8e74d	-0.32988968
124	0xbde3072e	-0.11085354
125	0xbd926d64	-0.07149771
126	0xbe613fd4	-0.21997005
127	0xbdad9171	-0.08475006
