saved_models/agent_maddpgv2_vs_opp_maddpgv2_1_vs_1_1_adver_best_models/maddpgv2_target_actor_0.pt (torch, 155659 bytes, 21 tensors)

actor_fc_layers.blocks.0.block.0.weight f4 [128, 12]
00000000: acbb 3b3e bac6 843d 40e2 033f d57f 923e
00000010: 96c5 8d3e f445 90bd 57a3 0f3e e92b c73b
00000020: 4fec 903e d03e 89be a68a 7bbc 25fc d7bc
00000030: f15f 533e 8cbf e53d 69f5 1d3e 9936 13bf
00000040: 46ce acbd ab99 aebb 46ee 3d3e 0c74 68be
00000050: f485 63be 5a92 01be 7756 e23e 323c a7be
00000060: aa0b d5bd fd70 4f3d 0f3b ecbe 651b 87be
00000070: af9a 66be c590 613e 59f1 473d 0e18 c4be
00000080: fcdb 30be e1cc 493e 2e25 fd3d 7a24 353c
00000090: 4220 87bc 2c00 f7bd 6a34 f9be 80f9 5bbe
000000a0: ae43 233e 63e9 f63c 64dc ea3b 443a d13d
000000b0: 1c51 42be a420 123e a9f5 ea3d c641 e93d
000000c0: 0666 ecbd a1a1 183e 4772 29b9 ceaa 3cbe
000000d0: 4fac 71be 376c aebd cfc8 86be 379e a53d
000000e0: de04 a93d 1d2e 363e 4e48 e1be ad65 0abd
000000f0: c8a3 4abd c2bf 6e3c a387 eabe 3ff6 ba3e
00000100: 99b3 d93c a958 093e d2f0 a5bd 0fad c1bd
00000110: 7c3c 383e a1ed 8dbe a4c9 793e 8214 593e
00000120: 585c 5cbe eeef e43d 7882 233e caa4 86be
00000130: 4495 8abe b58c b2bd 413c 5a3e 440c 8d3e
00000140: 947b 8d3d acb4 ffbd 7c7d 883e 6229 d6bd
00000150: cd59 363d 496a a0bd f738 68bd c181 79bf
00000160: c4ed a7bc 2333 28be 290f 9cbd ad36 063e
00000170: d945 0bbd f7fa 5d3e 1e82 15be a8ad 753e
00000180: 6c13 f339 ba1d 99bd c536 80bd ed43 283f
00000190: 30d3 9ebe c6c1 5bbe 8a3c ee3d 3d46 11be
000001a0: c1a5 293e 842a 72bb 76b4 6f3c b79d 8a3e
000001b0: 599d 97bd c48d fbbd 2d89 e2be c547 733e
000001c0: 4f11 8fbe e3d8 7a3e 0818 e2bd 6e0c b23d
000001d0: 71a2 00bb 449f 1abe 6c84 94bd bf87 49be
000001e0: 2180 bcbd ba3b 123d f9e3 023e c3f0 0b3e
000001f0: 4c51 f53d 7647 e3bd 98b2 0f3d 45a8 6c3e
00000200: 1f95 5a3e 923c 36be 4cfb 75be 3479 503e
00000210: ccdd 143d 58aa 7a3d b987 933e dfbe 60bf
00000220: 1278 1abd b25a 1cbe bf2b 87bd 9e0f 9dbc
00000230: f286 c13b 4be3 3dbe 2f74 89be 3d44 ac3e
00000240: 3bf9 123c eab4 01be e6ad 0c3e 6039 983d
00000250: bc08 1f3d 4c95 253e 843e 7dbe 4a34 ffbd
00000260: e8c2 2ebe 999c 713e 6796 d2bd 5eff b7be
00000270: 869b 9bbd 0aa3 e9bd ae01 70be 7019 8d3e
00000280: 0a22 d0bd c507 843e f19d 97bd 0236 b0bc
00000290: 03de 86bd 9875 ab3d f723 1d3e 7dfc c4be
000002a0: 9119 36be e994 243e f01b 6dbe 9332 743e
000002b0: 4be2 04be cf66 e53e 276a 923e 8900 163e
000002c0: fe7e dabb 9d6c 74be 345d 083e d12d 943e
000002d0: 3c7b 1c3e 2429 cfbd 552d a73e 76df cfbe
000002e0: dd30 53be a27e 7cbe bd1d 5e3e 5c29 70be
000002f0: 1b22 bb3d bccd 0a3f f1db a1be 1e81 74be
00000300: 1055 d0be 90f3 993b 9be6 1f3e 851a f13d
00000310: 8d78 efbd cd87 a13d 7c06 233e cae0 35bd
00000320: 7cb7 9ebe 36b7 793d e58a a4bd 52ab 3dbe
00000330: 1a9e 353e 1412 e2bd cd8f c73e bd5a a23d
00000340: 2a2a 3cbd c6d6 093e a8b0 6bbe 560d 093e
00000350: 5412 b83c 749a 863e 9497 483e 12a7 00be
00000360: a469 c33b 408b 2fbc a826 0d3e befe 1a3f
00000370: 9f47 3cbe 1168 a93e b26f 1d3e 405d 6d3e
00000380: 7e8b c23e 52c1 b7bd 0335 97be 238c 8a3b
00000390: 94e6 b1be e36a febc b545 7dbe 82fb 4cbe
000003a0: b36e acbd 942a 543e 4149 37bd ed58 bdbe
000003b0: 19b3 503e ad2e 58be 142b 813e fd56 0c3d
000003c0: 3209 913d e02f 2bbe 3246 afbe 58bc e73e
000003d0: 640e abbd 7fef b9bc aa8b 3ebe cbf8 e0bd
000003e0: 8ed2 80be 399a 02be 2e79 173c c6d1 9ebd
000003f0: 827d c4bd 5b18 a53e b57c c6be 9efb 9a3e
0.1833331 0.064832166 0.51517105 0.28613153 0.2768981 -0.070445925 0.14027153 0.0060782325
0.2830529 -0.26805735 -0.015352881 -0.02636535 0.20642067 0.11218175 0.15425648 -0.57505184
-0.08437781 -0.0053283772 0.18547925 -0.22700518 -0.22219068 -0.12653485 0.44206592 -0.32663113
-0.10402615 0.050644863 -0.46138808 -0.26388088 -0.22519945 0.22027881 0.04881415 -0.38299602
-0.17271417 0.19707061 0.12360607 0.01105606 -0.016494874 -0.1206058 -0.486728 -0.21481895
0.15943787 0.030140584 0.007167386 0.102161914 -0.18976253 0.14270264 0.11472637 0.113894984
-0.11542897 0.14905407 -0.00016159668 -0.18424532 -0.23600887 -0.08516734 -0.2632508 0.08086818
0.082528815 0.17791028 -0.44000477 -0.03378837 -0.0494726 0.014572086 -0.45806608 0.36515996
0.026574897 0.13412727 -0.081025735 -0.094568364 0.17991823 -0.2772036 0.24393326 0.2119923
-0.21519601 0.111785755 0.15967739 -0.262976 -0.27067006 -0.08718244 0.21312048 0.2754842
0.06908336 -0.12485632 0.26658237 -0.10457112 0.044519234 -0.07832772 -0.05669495 -0.97463614
-0.020499118 -0.16425757 -0.07620079 0.13106795 -0.03400216 0.21677767 -0.14600417 0.23992026
0.00046363042 -0.07476373 -0.062604465 0.65728647 -0.31020498 -0.21460637 0.11632641 -0.1418695
0.16567136 -0.003695161 0.014630428 0.27073452 -0.074030586 -0.12282899 -0.44245282 0.23757847
-0.27942893 0.24496798 -0.1103974 0.08693777 -0.0019628073 -0.15099818 -0.0725182 -0.1968069
-0.09204126 0.03570149 0.12782277 0.13666062 0.11978397 -0.110976145 0.03508243 0.23111065
0.21345948 -0.17796543 -0.24021643 0.20358735 0.036344334 0.06119761 0.28814486 -0.87791246
-0.037712164 -0.15268973 -0.06600141 -0.019172486 0.0059059793 -0.18543737 -0.26846454 0.33645812
0.008970554 -0.1266667 0.13738212 0.074328184 0.03882669 0.16170233 -0.24730879 -0.12461145
-0.17066538 0.23594894 -0.10282593 -0.35937017 -0.07598023 -0.1140805 -0.23438141 0.2755847
-0.101627424 0.25787178 -0.07403172 -0.021510128 -0.06585314 0.083720386 0.15345751 -0.38473883
-0.1778319 0.1607243 -0.23155189 0.23847418 -0.12976949 0.44805 0.28596613 0.14648642
-0.0066679707 -0.23869558 0.13316804 0.28941205 0.15281385 -0.10115269 0.32651773 -0.40600175
-0.20624109 -0.24657682 0.21691032 -0.23453277 0.091373645 0.54220176 -0.31613114 -0.2387738
-0.40689898 0.0046982244 0.15615313 0.11772636 -0.11692915 0.0788723 0.15920442 -0.04440383
-0.30999362 0.06096574 -0.080343045 -0.18522385 0.17736092 -0.110386044 0.389769 0.07927463
-0.04593865 0.13460836 -0.23016608 0.13383994 0.022469677 0.26289713 0.19589072 -0.12563732
0.005963521 -0.010714352 0.13784277 0.60544956 -0.18386696 0.3308721 0.1537464 0.23180103
0.3799705 -0.0897242 -0.29532632 0.0042281314 -0.3474623 -0.031056827 -0.24733622 -0.20017818
-0.08419552 0.20719367 -0.044747595 -0.36981907 0.2038082 -0.21111555 0.25228179 0.034262646
0.07081832 -0.16717482 -0.34233242 0.45260882 -0.08352354 -0.022697208 -0.18607965 -0.109849535
-0.2516064 -0.12754144 0.0092452 -0.07754855 -0.09594251 0.32245144 -0.3876702 0.30270094

actor_fc_layers.blocks.0.block.1.weight f4 [128]
00000000: 8948 823f a976 853f 60be 8d3f 217a 8f3f
00000010: 3b96 463f bd0f 8f3f 3550 8c3f 0f27 b13f
00000020: 9487 713f 35d0 a13f ddc3 4e3f 3a48 a43f
00000030: 976b 5c3f d5fb 893f ca78 8a3f 563e 8a3f
00000040: 860e 4c3f bb1f 683f 7c0d 903f 4e44 733f
00000050: ca07 8f3f 7283 7f3f 5a28 a23f 3dbd 853f
00000060: d5f8 8f3f 59ed 823f d35b 563f 5bca 793f
00000070: b28f 8c3f c3f0 993f 884d b83f 699e 7d3f
00000080: b617 933f ba74 6c3f eb79 483f 92f3 983f
00000090: d15c ae3f 55da 873f 6912 833f 8c60 5b3f
000000a0: a81e 673f 33d9 d73f 4d94 973f a08f 963f
000000b0: d4d1 6b3f d5c5 803f 4162 913f 4342 a63f
000000c0: ec75 8a3f 9852 8a3f f062 743f abd1 753f
000000d0: 3077 bf3f 30aa 6a3f e67d 873f fd53 a23f
000000e0: 647b 633f 4922 7f3f c9d0 8b3f e158 4b3f
000000f0: 75ae 933f fcae 723f cfd3 a43f 1da6 8b3f
00000100: 5d08 883f 0c36 7a3f fd77 783f 33fe 843f
00000110: b018 953f 57d6 7f3f 3ea9 7a3f 07f1 7b3f
00000120: fc22 843f aab1 a03f 24c4 873f b160 843f
00000130: ec8e 843f e05d 5b3f 745e 863f 3e94 b73f
00000140: cac3 893f 0d55 883f c460 ae3f 5c41 a03f
00000150: e5c0 863f 1073 9b3f ea7d 953f dfca 8c3f
00000160: b282 983f dbc1 5b3f ced6 9b3f 43f9 a03f
00000170: c55a 9e3f a507 813f aab4 aa3f d3b7 8c3f
00000180: 810b 863f 100b 903f 6955 843f 7b22 933f
00000190: fafd 863f 36d8 8d3f f49e 703f 7295 7a3f
000001a0: 80bc 9c3f ef7e 983f 4044 b13f 9c90 893f
000001b0: 4385 873f 3a56 9c3f e007 983f 8365 973f
000001c0: ede3 6d3f a123 8c3f f24f a03f 5482 583f
000001d0: 73e5 893f 5f84 933f 7693 893f 8fcf 913f
000001e0: d7c0 883f 99db 983f 9deb 933f 3469 9c3f
000001f0: 79d1 8a3f 465d 823f 3e74 b63f 61ca a43f
1.0178386 1.0426837 1.1073723 1.1209146 0.77572984 1.1176678 1.0961977 1.3840045
0.943475 1.2641665 0.80767614 1.2834542 0.8610167 1.0779978 1.0818112 1.0800273
0.7970966 0.90673417 1.1254115 0.950261 1.1174252 0.99809945 1.2668564 1.0448376
1.1247813 1.0228683 0.8373386 0.97574395 1.0981352 1.20266 1.4398661 0.9906984
1.1491611 0.9236561 0.7831103 1.1949332 1.3622075 1.0613505 1.0239993 0.85694194
0.9028115 1.6863159 1.1842133 1.1762581 0.9211705 1.0060374 1.135811 1.2988971
1.0817237 1.0806456 0.95463467 0.9602305 1.4958248 0.91665936 1.0585296 1.2681881
0.88860154 0.9966169 1.0923091 0.79432493 1.1537615 0.94798255 1.2877139 1.0910069
1.0627552 0.9773872 0.9705809 1.0390075 1.1648159 0.9993643 0.97914493 0.98414654
1.0323176 1.2554219 1.0606732 1.0342008 1.0356116 0.85690117 1.0497575 1.4342115
1.0762875 1.0650955 1.362328 1.2519946 1.0527617 1.2144489 1.1679051 1.0999411
1.1914885 0.85842675 1.2174928 1.2576069 1.2371451 1.0080458 1.3336384 1.0993599
1.0472261 1.1253376 1.0338565 1.1494898 1.0546257 1.1081607 0.93992543 0.97884285
1.2245026 1.1913737 1.3848953 1.0747256 1.0587543 1.2213814 1.1877403 1.1827854
0.9292591 1.0948373 1.2524397 0.84573865 1.0773147 1.1524771 1.0748127 1.1391467
1.068385 1.1942016 1.1556278 1.2219605 1.0845176 1.0184715 1.4254224 1.2874261

actor_fc_layers.blocks.0.block.1.bias f4 [128]
00000000: 7892 d63c 977c 38be cc8e 32bd 905d a83c
00000010: f8e5 38be 4819 6d3e c017 4cbd f608 9cba
00000020: 15d6 213e 785e 943d f6a3 a83d f21e 023e
00000030: 9467 9abe 06de 17be 74e2 a43d 9cf5 d7bd
00000040: e82e 1dbe 8ec8 95bd 1e6b 363c 73eb 85bd
00000050: c430 f23d d80b 803d 2280 7a3e ad4c 843c
00000060: 2b8e 2e3d f934 883d 6bb9 4d3c 2da0 85bd
00000070: 09d0 26bc aec6 a83d 7fad ea3d 9be6 e2bc
00000080: ff8d 193c b377 67bd ee05 1ebe b4e4 873b
00000090: a3a8 81bc e3e2 8d3d 6974 603d 7d5f c8bd
000000a0: dc24 1fbe d87d 103e 225b 3dbc 7794 0d3e
000000b0: a1c0 12be 9923 fc3b 76ae 2e3d 0d03 573e
000000c0: b638 073e 59ee ab3c 8aa2 14be 97e7 aebd
000000d0: 004d 313e b938 c1bd 75f9 b93c 22b4 513e
000000e0: 4be8 ebbd d2b0 a7bd 6e79 353d bd07 2dbe
000000f0: 1a8e 0e3e 0957 133b b939 b93d ceae f1bd
00000100: 264a 22be 76b0 aabd 648f 04be 539b 10bd
00000110: fdd6 e53d dfbf 9fbc 0075 e1bd 2fe4 1fbd
00000120: bd7a 553d 5ce4 0e3e 40ba 3abd 89fb 1c3e
00000130: 65e8 9d3d 45b9 bfbc 56f5 0b3d 1872 3a3d
00000140: 88e6 cf3d 7824 34bd 3473 cd3d cdff b7bb
00000150: af67 b4bc b345 57bd 4c9f b63d eaf1 c63d
00000160: 266e 753e 45f3 11be bef1 703e 69dc b23d
00000170: 4546 313e f20b 1cbd 215a 3bbd c423 0d3b
00000180: 2628 20bd 4871 f93d d2dd 1c3b 5f25 1dbd
00000190: 61e3 74bd 853e 03bc 4e3b 1ebd f151 c53d
000001a0: 6258 263e 8d55 093d 1380 043e d124 11bd
000001b0: 0353 103d 79f6 063e 6c85 0dbc d5d5 3b3e
000001c0: e7ee d63d 6f6f 393c 37fb 61bd cb40 d7bd
000001d0: 8f92 b13d a3ed a0bd 799c d5bb 1edf a6bd
000001e0: 5694 b83d 44a8 84bd 5787 05bd 79be 90bd
000001f0: 9b8e babc 3c2a 1f3e 5be9 103e f37b 483e
0.026192889 -0.18016277 -0.043593213 0.020552427 -0.18056476 0.23154175 -0.049827337 -0.0011904526
0.15804322 0.07244581 0.08234398 0.12707117 -0.3015715 -0.14830789 0.08051005 -0.10544893
-0.15349925 -0.073136434 0.011133937 -0.06539049 0.118257076 0.06252259 0.24462941 0.016149843
0.04261605 0.06650729 0.012556414 -0.06524692 -0.010181435 0.0824102 0.11458873 -0.027697852
0.009372233 -0.05651064 -0.1543195 0.0041471366 -0.015827483 0.06928041 0.054798517 -0.09783838
-0.15541404 0.14110506 -0.011557372 0.13826166 -0.14331295 0.0076946733 0.042646848 0.20997258
0.13205227 0.020987676 -0.14515129 -0.08540266 0.1731453 -0.09434647 0.022701958 0.20478871
-0.11518916 -0.08188023 0.044305257 -0.16897483 0.13921395 0.0022482297 0.09044213 -0.118009195
-0.15848598 -0.083344385 -0.12945324 -0.03530438 0.112226464 -0.019500671 -0.11008644 -0.039035972
0.052119005 0.139543 -0.045587778 0.15330328 0.07710341 -0.023403773 0.034169517 0.045518965
0.10151392 -0.04398009 0.10031739 -0.0056152106 -0.022022096 -0.052556705 0.08917102 0.0971411
0.239678 -0.14252956 0.23529717 0.08733446 0.17311962 -0.03809733 -0.04574025 0.002153621
-0.03910079 0.1217981 0.0023935926 -0.038365718 -0.059787158 -0.008010511 -0.038630776 0.0963477
0.16244653 0.033528853 0.12939481 -0.0354355 0.035235416 0.1317996 -0.008637767 0.18343289
0.10494786 0.011318072 -0.055171218 -0.10510405 0.08670532 -0.078578256 -0.006518897 -0.08148025
0.09012668 -0.064774066 -0.032599773 -0.0706758 -0.022773078 0.15543455 0.14151518 0.19578533

actor_fc_layers.blocks.0.block.1.running_mean f4 [128]
00000000: 0000 0000 0000 0000 0000 0000 0000 0000
00000010: 0000 0000 0000 0000 0000 0000 0000 0000
00000020: 0000 0000 0000 0000 0000 0000 0000 0000
00000030: 0000 0000 0000 0000 0000 0000 0000 0000
00000040: 0000 0000 0000 0000 0000 0000 0000 0000
00000050: 0000 0000 0000 0000 0000 0000 0000 0000
00000060: 0000 0000 0000 0000 0000 0000 0000 0000
00000070: 0000 0000 0000 0000 0000 0000 0000 0000
00000080: 0000 0000 0000 0000 0000 0000 0000 0000
00000090: 0000 0000 0000 0000 0000 0000 0000 0000
000000a0: 0000 0000 0000 0000 0000 0000 0000 0000
000000b0: 0000 0000 0000 0000 0000 0000 0000 0000
000000c0: 0000 0000 0000 0000 0000 0000 0000 0000
000000d0: 0000 0000 0000 0000 0000 0000 0000 0000
000000e0: 0000 0000 0000 0000 0000 0000 0000 0000
000000f0: 0000 0000 0000 0000 0000 0000 0000 0000
00000100: 0000 0000 0000 0000 0000 0000 0000 0000
00000110: 0000 0000 0000 0000 0000 0000 0000 0000
00000120: 0000 0000 0000 0000 0000 0000 0000 0000
00000130: 0000 0000 0000 0000 0000 0000 0000 0000
00000140: 0000 0000 0000 0000 0000 0000 0000 0000
00000150: 0000 0000 0000 0000 0000 0000 0000 0000
00000160: 0000 0000 0000 0000 0000 0000 0000 0000
00000170: 0000 0000 0000 0000 0000 0000 0000 0000
00000180: 0000 0000 0000 0000 0000 0000 0000 0000
00000190: 0000 0000 0000 0000 0000 0000 0000 0000
000001a0: 0000 0000 0000 0000 0000 0000 0000 0000
000001b0: 0000 0000 0000 0000 0000 0000 0000 0000
000001c0: 0000 0000 0000 0000 0000 0000 0000 0000
000001d0: 0000 0000 0000 0000 0000 0000 0000 0000
000001e0: 0000 0000 0000 0000 0000 0000 0000 0000
000001f0: 0000 0000 0000 0000 0000 0000 0000 0000
0.0 0.0 0.0 0.0 0.0 0.0 0.0 0.0
0.0 0.0 0.0 0.0 0.0 0.0 0.0 0.0
0.0 0.0 0.0 0.0 0.0 0.0 0.0 0.0
0.0 0.0 0.0 0.0 0.0 0.0 0.0 0.0
0.0 0.0 0.0 0.0 0.0 0.0 0.0 0.0
0.0 0.0 0.0 0.0 0.0 0.0 0.0 0.0
0.0 0.0 0.0 0.0 0.0 0.0 0.0 0.0
0.0 0.0 0.0 0.0 0.0 0.0 0.0 0.0
0.0 0.0 0.0 0.0 0.0 0.0 0.0 0.0
0.0 0.0 0.0 0.0 0.0 0.0 0.0 0.0
0.0 0.0 0.0 0.0 0.0 0.0 0.0 0.0
0.0 0.0 0.0 0.0 0.0 0.0 0.0 0.0
0.0 0.0 0.0 0.0 0.0 0.0 0.0 0.0
0.0 0.0 0.0 0.0 0.0 0.0 0.0 0.0
0.0 0.0 0.0 0.0 0.0 0.0 0.0 0.0
0.0 0.0 0.0 0.0 0.0 0.0 0.0 0.0

actor_fc_layers.blocks.0.block.1.running_var f4 [128]
00000000: 0000 803f 0000 803f 0000 803f 0000 803f
00000010: 0000 803f 0000 803f 0000 803f 0000 803f
00000020: 0000 803f 0000 803f 0000 803f 0000 803f
00000030: 0000 803f 0000 803f 0000 803f 0000 803f
00000040: 0000 803f 0000 803f 0000 803f 0000 803f
00000050: 0000 803f 0000 803f 0000 803f 0000 803f
00000060: 0000 803f 0000 803f 0000 803f 0000 803f
00000070: 0000 803f 0000 803f 0000 803f 0000 803f
00000080: 0000 803f 0000 803f 0000 803f 0000 803f
00000090: 0000 803f 0000 803f 0000 803f 0000 803f
000000a0: 0000 803f 0000 803f 0000 803f 0000 803f
000000b0: 0000 803f 0000 803f 0000 803f 0000 803f
000000c0: 0000 803f 0000 803f 0000 803f 0000 803f
000000d0: 0000 803f 0000 803f 0000 803f 0000 803f
000000e0: 0000 803f 0000 803f 0000 803f 0000 803f
000000f0: 0000 803f 0000 803f 0000 803f 0000 803f
00000100: 0000 803f 0000 803f 0000 803f 0000 803f
00000110: 0000 803f 0000 803f 0000 803f 0000 803f
00000120: 0000 803f 0000 803f 0000 803f 0000 803f
00000130: 0000 803f 0000 803f 0000 803f 0000 803f
00000140: 0000 803f 0000 803f 0000 803f 0000 803f
00000150: 0000 803f 0000 803f 0000 803f 0000 803f
00000160: 0000 803f 0000 803f 0000 803f 0000 803f
00000170: 0000 803f 0000 803f 0000 803f 0000 803f
00000180: 0000 803f 0000 803f 0000 803f 0000 803f
00000190: 0000 803f 0000 803f 0000 803f 0000 803f
000001a0: 0000 803f 0000 803f 0000 803f 0000 803f
000001b0: 0000 803f 0000 803f 0000 803f 0000 803f
000001c0: 0000 803f 0000 803f 0000 803f 0000 803f
000001d0: 0000 803f 0000 803f 0000 803f 0000 803f
000001e0: 0000 803f 0000 803f 0000 803f 0000 803f
000001f0: 0000 803f 0000 803f 0000 803f 0000 803f
1.0 1.0 1.0 1.0 1.0 1.0 1.0 1.0
1.0 1.0 1.0 1.0 1.0 1.0 1.0 1.0
1.0 1.0 1.0 1.0 1.0 1.0 1.0 1.0
1.0 1.0 1.0 1.0 1.0 1.0 1.0 1.0
1.0 1.0 1.0 1.0 1.0 1.0 1.0 1.0
1.0 1.0 1.0 1.0 1.0 1.0 1.0 1.0
1.0 1.0 1.0 1.0 1.0 1.0 1.0 1.0
1.0 1.0 1.0 1.0 1.0 1.0 1.0 1.0
1.0 1.0 1.0 1.0 1.0 1.0 1.0 1.0
1.0 1.0 1.0 1.0 1.0 1.0 1.0 1.0
1.0 1.0 1.0 1.0 1.0 1.0 1.0 1.0
1.0 1.0 1.0 1.0 1.0 1.0 1.0 1.0
1.0 1.0 1.0 1.0 1.0 1.0 1.0 1.0
1.0 1.0 1.0 1.0 1.0 1.0 1.0 1.0
1.0 1.0 1.0 1.0 1.0 1.0 1.0 1.0
1.0 1.0 1.0 1.0 1.0 1.0 1.0 1.0

actor_fc_layers.blocks.1.block.0.weight f4 [128, 128]
00000000: ec99 2d3d 69d1 bbbe 024f 8a3d 1c61 c03d
00000010: 6de0 afbc 04f7 3b3e 316a 663b 6088 59be
00000020: 262d c03d d60a 873e e317 1d3b 7e88 bfbe
00000030: 0d0b e2bd 1f7f 74bd 7a74 753e 8532 9cbe
00000040: bef7 d73d a7fc c43d 47a7 583e 5bab 803d
00000050: ef03 9b3e d101 143e 5703 d33e 1ca0 f3bd
00000060: 47bc 833e f65d 283e 1d52 a23d 0eb7 b33d
00000070: a7ba 1bbe 5f11 c53d aaa5 bfbe 6a96 923d
00000080: bc49 873c 17a7 233d 5dcc 88be bb4c a6be
00000090: e4fc 333c f6c6 253e 96f4 003e fe75 df3d
000000a0: 7d94 283e 0ee9 163e c03d 9ebe 2d5a 9a3d
000000b0: 8094 a2bc 99e0 7c3e c7f5 cb3d 6d68 413e
000000c0: a89b 6ebe d09e 5a3e 2e96 32be 78f1 f93d
000000d0: fd0f a9be b912 333d b2b9 59bd 42b4 8a3d
000000e0: 1f77 963d a7b4 c1bd 1574 0abd de7d b33d
000000f0: 3964 083e 8833 bc3d b041 3f3d 6c2f 52be
00000100: 7ff3 f63c 87a4 143e 0615 37bc 1444 003d
00000110: 3b19 873e f49e 0e3d dd51 c13d d4eb 87bd
00000120: 8c1b 57bc d4a1 a43e d69c 403d f48c 153e
00000130: 4d4f 093e 5545 d13d d4aa 513e 69ee 7bbe
00000140: 7c20 e63d 0ccd 1d3d 089b d7bd 583e eb3d
00000150: 8ddc e8bb ec0c 41be e69f 46bc 7c3e 8c3d
00000160: 283b 973d d013 a5bd 4220 96bc d9ee 38be
00000170: 4020 bbbd 44a2 adbd 587b 91be a2c1 79be
00000180: d5b4 703e 5e8a 9c3e 2359 bd3d a97d 4bbe
00000190: 3d9e 14be 3c08 aa3d 86c4 023d cabf 55bc
000001a0: 7674 903e 0175 03bc 5483 02be 8a4a 31bd
000001b0: 0081 843d f156 663d fb2e 323e 02e5 9e3e
000001c0: 30cf 153e 9db2 fc3c 15a2 8dbe 162c 90bc
000001d0: bc1b 143d 0791 4dbe 23c6 ce3c 4104 adbe
000001e0: 629d 483e 985c 6dbd 4b93 0db9 3541 96be
000001f0: f8da 06be 42a2 dd3d b73f 5e3e d946 b9be
00000200: 51eb 5ebe d06a efbc f791 f33d af02 c53d
00000210: c044 9f3b 18ad b53c 93b1 00be b04b 9dbe
00000220: 4adf bebd dd76 593e b84e c9be 8424 07bd
00000230: 8d9c a9bc 7699 043e 8edf 963e 1165 80be
00000240: b56d 26bd 4163 b43c 638b 493e 9100 ba3d
00000250: 3206 93bc b141 7dbd 28f0 b43d 847b a5bb
00000260: 6bec 003d 8ca2 c6bd 4e3f c53d cb07 39bd
00000270: a18f ebbe b2fd 083e 8314 6fbd bf66 9d3c
00000280: 6cc4 5ebd 07c7 f3bc 6a80 ecbd 1792 85be
00000290: 4499 943e 741e e6bc 1638 6dbd 1565 64be
000002a0: 5390 8e3d 4591 bfbd 6a5f 1ebe 8e8d 293a
000002b0: 9900 ba3d c1da 333d b736 a03e 85be f83d
000002c0: 7d8c babe 3177 703e 84e9 91be 4af1 603e
000002d0: 0723 afbd ff65 b23d 210b cbbc 7d9a 3dbd
000002e0: d2d8 8a3d eeeb 72be 2aaa 46be 0046 22be
000002f0: ec7a dd3c 11c3 753d 8eab 44bd 045b b1bd
00000300: 5e6c 5d3e d320 92bd ae39 99bd 7e4c a33e
00000310: 94a6 c33d ea1c d3be 40c0 e63d f5ce f6bc
00000320: a0ec ffbd c254 ba3d b4a8 d33e 7088 abbd
00000330: 50ca 853e b99a 5c3e 830e c53d 4b28 96be
00000340: 7d8e 31be 4266 03bf b578 31bc 4519 2abe
00000350: e014 923e 1d13 39be 01fb bebe c4a3 babe
00000360: 43e8 be3c 3368 1abe f185 9ebe 26d0 08be
00000370: 9fa6 803d 0a23 fb3d a045 babd 140f 94bd
00000380: 9e97 c23d 211a 21be bf7b b13d e549 1bbe
00000390: 5cfd 8fbe 98d8 483e c71b cd3d 7587 253e
000003a0: 8aaf bcbd fa99 11bc 26c8 ca3d b815 553e
000003b0: 561e 22be 95c7 143c 04d6 6c3e 7a5b 2e3d
000003c0: a04d c33d 75e3 9f3e f2df 843d 02db c03d
000003d0: 976d 04be 5a6b 03be a5b2 93be 9f9b e5bd
000003e0: f9e4 233d 2ad1 7ebd cabd 683d baae 29be
000003f0: ebe2 b0bd 3023 d5bd 86b1 443e 9a77 99be
0.04238312 -0.36683205 0.06753351 0.09393522 -0.02146932 0.18355948 0.003515851 -0.21243429
0.093836114 0.26375455 0.0023970536 -0.37408823 -0.11037264 -0.059691545 0.23970214 -0.30507293
0.105453 0.09618502 0.21157561 0.062826835 0.3027644 0.14453818 0.41213486 -0.11895773
0.25729582 0.16442093 0.07925818 0.08775149 -0.15207921 0.09622454 -0.3743108 0.071575955
0.016514651 0.03995427 -0.26718417 -0.32480416 0.010985587 0.16189179 0.12593302 0.10911177
0.16462894 0.14737341 -0.30906487 0.07536731 -0.019846201 0.24695052 0.09958988 0.18887492
-0.23301566 0.21349645 -0.17440102 0.1220426 -0.3302001 0.043719027 -0.05315561 0.06772663
0.07346939 -0.09458285 -0.03380211 0.08764242 0.13319482 0.09189516 0.046693504 -0.20525903
0.030145405 0.14515887 -0.011174446 0.031314924 0.26386437 0.03481956 0.09439442 -0.066367775
-0.013129126 0.32154715 0.04702457 0.1460455 0.13409157 0.10218302 0.20475322 -0.24602665
0.11236665 0.038525626 -0.10527617 0.114865005 -0.00710637 -0.18852586 -0.012123084 0.068478554
0.0738433 -0.080604196 -0.018325929 -0.18059863 -0.091370106 -0.08478215 -0.28414416 -0.24390271
0.23506482 0.30574316 0.09245517 -0.19872154 -0.14513488 0.08302352 0.0319257 -0.013046214
0.28213853 -0.008023501 -0.1274541 -0.043283977 0.06469917 0.056235258 0.17400734 0.31034094
0.14629817 0.030846888 -0.2766272 -0.017599147 0.036159262 -0.20074855 0.025240963 -0.33792308
0.19591287 -0.057949632 -0.00013501679 -0.29346624 -0.13169467 0.10821964 0.21703993 -0.36186865
-0.21769454 -0.029225737 0.11893075 0.096196525 0.0048604906 0.022177264 -0.12567739 -0.30721807
-0.09319933 0.21236749 -0.3931787 -0.03299381 -0.020704532 0.12949166 0.29467434 -0.25077108
-0.04063197 0.022019984 0.19682078 0.09082139 -0.01794729 -0.061830226 0.08834869 -0.0050501246
0.031475466 -0.09698972 0.09631215 -0.045173448 -0.46008018 0.13378027 -0.05836917 0.019214032
-0.05438654 -0.02975799 -0.115479305 -0.2608802 0.29023182 -0.028090693 -0.057914816 -0.22304185
0.069611214 -0.0935388 -0.15466085 0.00064679317 0.09082145 0.04390979 0.31291744 0.12145714
-0.3643531 0.23482968 -0.2849847 0.21967044 -0.08551603 0.087108605 -0.02478558 -0.04628991
0.067796364 -0.23722813 -0.1940085 -0.15847015 0.027036153 0.060000483 -0.04801517 -0.08659938
0.2162337 -0.07135167 -0.07481705 0.31894296 0.09553257 -0.41232997 0.112671375 -0.030127982
-0.124963045 0.090981975 0.41339648 -0.08375633 0.26130915 0.21543397 0.096219085 -0.29327616
-0.17339511 -0.5132791 -0.010832001 -0.16611202 0.2853155 -0.18073697 -0.37300876 -0.36453068
0.02330411 -0.15078811 -0.30961564 -0.13360652 0.062817805 0.122625425 -0.09095311 -0.072294384
0.09501575 -0.15732624 0.08666181 -0.15164907 -0.28122985 0.19613874 0.10015064 0.16164954
-0.09213169 -0.0088868085 0.099014565 0.20809066 -0.15831885 0.009080787 0.23128515 0.042567708
0.0953629 0.31228223 0.06488027 0.094167724 -0.1293243 -0.1283392 -0.28847232 -0.11211323
0.040013287 -0.062211193 0.056821622 -0.16570559 -0.08637031 -0.10407102 0.19208345 -0.2997406

actor_fc_layers.blocks.1.block.1.weight f4 [128]
00000000: 8801 a23f 1a8a a53f f969 7b3f e92f 963f
00000010: 0489 9e3f d575 7a3f 8d75 7c3f 3053 653f
00000020: ac35 a63f ab49 ba3f 9d3d 933f 6944 993f
00000030: cec3 903f 7df5 753f 4560 963f e95b 7b3f
00000040: a92a 7e3f 3bbf 953f d162 843f b5e1 9a3f
00000050: 2d5a 883f c540 8d3f e2da 863f 01da 763f
00000060: cc8a 823f 5e1d 963f d1cf 793f d319 8f3f
00000070: 6852 6e3f 729a 913f b217 8e3f 5d83 7b3f
00000080: dad8 673f 0532 903f 2ebf 923f d198 7e3f
00000090: 65e8 7c3f 1436 7d3f 496b 7a3f 1b79 7e3f
000000a0: b0c3 813f 29c5 773f 3a15 863f c50a 7d3f
000000b0: ad7e 7b3f 16bc 9f3f 0e7b 903f aa2b a53f
000000c0: 2b5f 8b3f eb45 a63f 2ea4 6d3f 9557 7e3f
000000d0: 6d65 7a3f 2956 7d3f ff9b 6d3f 9cb5 6d3f
000000e0: 7b5f c13f a937 843f 85c5 7a3f d1ff 9b3f
000000f0: 9d76 7a3f ae4d 9c3f a942 7a3f 56a4 9a3f
00000100: d4bc a23f b1ab ae3f 25a9 793f 8ab9 ad3f
00000110: 54d1 ae3f bc51 9d3f a180 7b3f 754d 7b3f
00000120: eb6a 863f c089 8b3f aca1 903f 9d13 7e3f
00000130: 3639 873f 69ad 873f c145 7d3f e1f3 ac3f
00000140: 34b4 933f 0c65 9b3f c9e8 7c3f f2e6 923f
00000150: 705b 923f 6fc8 9c3f e4dd 943f f486 813f
00000160: cdec 833f 251f 773f a30f 823f d1fe 813f
00000170: 2652 8f3f e56e 963f 6672 893f 5839 823f
00000180: bdcf 8d3f b238 bd3f 4999 823f 7969 783f
00000190: 1d20 7e3f d624 9b3f 308c a63f e122 7b3f
000001a0: 18fa 993f 446c 893f 9dd9 703f f9bc 8f3f
000001b0: e2eb a13f 3dfd 7b3f a7cf 8c3f 8313 953f
000001c0: c227 973f 9253 9b3f b585 7b3f 076a 823f
000001d0: 51ed 9b3f b9e0 7b3f 09e9 7d3f 615f 923f
000001e0: abfc b63f f74a ab3f 9de2 ad3f dfbc 8a3f
000001f0: 37c7 973f 84f6 823f 736d a23f 9c74 923f
1.2656717 1.293277 0.98208576 1.1733371 1.2385564 0.9783605 0.9861687 0.8958006
1.2985129 1.4553732 1.1503178 1.1974002 1.1309755 0.9607771 1.1748129 0.9818712
0.99283844 1.1698984 1.0342656 1.210013 1.065252 1.1035391 1.0535548 0.964264
1.0198607 1.1727712 0.9758273 1.1179756 0.9309449 1.1375258 1.1100981 0.9824732
0.90565264 1.1265265 1.1464593 0.9945193 0.98792106 0.9891064 0.97819954 0.9940354
1.0137844 0.9678522 1.0475228 0.9884456 0.98240167 1.2479274 1.1287553 1.290395
1.0888418 1.2990087 0.92828643 0.9935239 0.97811013 0.98959595 0.92816156 0.9285524
1.5107263 1.0329486 0.9795764 1.2187444 0.9783724 1.2211206 0.97757965 1.2081401
1.2713876 1.3646146 0.9752372 1.3572247 1.3657632 1.2290568 0.9824315 0.98165065
1.0501379 1.0901413 1.1299338 0.9924868 1.0564334 1.0599796 0.9893456 1.3511926
1.1539369 1.2140212 0.987927 1.1476729 1.1434155 1.2248667 1.1630216 1.011931
1.0306641 0.965319 1.0161022 1.0155889 1.1196945 1.1752592 1.0738037 1.017375
1.1079022 1.4782927 1.0203029 0.9703594 0.9926775 1.2120616 1.3011532 0.98100096
1.2029448 1.0736165 0.9408205 1.1229545 1.2650111 0.98433286 1.100087 1.164658
1.1809008 1.2134879 0.98250896 1.0188607 1.2181798 0.98389775 0.9918371 1.1435357
1.4295858 1.3382252 1.3584782 1.0838889 1.185767 1.0231481 1.2689651 1.1441836

actor_fc_layers.blocks.1.block.1.bias f4 [128]
00000000: f31c ca3d 07d1 c0bc ef8f 8ebc 54cd ecbc
00000010: cec6 213e e8cf 17bd 0486 9dbc b56e 783d
00000020: 6435 e43c d412 26bd 417e bb3d e7e3 ba3c
00000030: a635 843d 3f39 cbbc d4c7 5a3c 23da 03bd
00000040: 75a5 a4bc d916 1abd 1d73 0b3d 0dbd 753d
00000050: a105 813d 87d7 b33d bc27 1ebe 47dd 4ebd
00000060: a60e 3fbd f19f 8bbc 1075 d3bc b937 e13c
00000070: cb1b 41bc 9183 723b 3fc8 003d c66b b1bc
00000080: 31d1 db3d 56a0 993d 213d 09bb 2ff1 83bb
00000090: dca7 9ebc 31bb fc3b c78b cdbc f09d 26bc
000000a0: bc1a 02be d0ad d5bc 3424 13bd 0409 9dbc
000000b0: 9520 aabc ea55 48bc 735d 553d 707f 9d3d
000000c0: ba96 b93d 2dd1 543e 4399 5f3d b679 bdbb
000000d0: 1b2a 42bd 1c34 81bc 1d84 f7bb fcb7 03bd
000000e0: 2dc8 1abe f028 d7bc 82fb bfbc 9e34 8c3c
000000f0: 4246 bfbc 438a 6a3d 94d5 d0bc 42a1 b63b
00000100: cee8 113e 5c0b 923d 43d2 09bd 97bb 343e
00000110: 0541 b93d 867d 2e3d 0f6d ccbc 83b4 cfbc
00000120: 05a4 2f3d 406e 593d f28c 4aba 655a eabc
00000130: f6b1 243e 247d d53c 1826 19bc 75db be3d
00000140: b243 a03d 81bb b63c c0c4 53bc 4d00 f43d
00000150: 1242 a23d fee4 17bc 63eb 20bb 55e9 8d3c
00000160: 7e12 f8bd c40e 1bbd a746 1d3e c2d0 f43d
00000170: bc16 3ebd 3b4b f8bc c0a2 893d 28e9 db3d
00000180: 4069 6f3d 51be 823d ff89 ad3c 5b3f 803d
00000190: d453 56bc fcd9 393c 19f3 3e3e 22d7 b7bc
000001a0: 7d36 8f3d bf0e 743d dd26 0ebc cb90 fd3a
000001b0: 319a 3d3d 9999 25bc 9f76 be3d 81bf a2bd
000001c0: 48ea dbbc 7809 273e 3c19 d6bc 9587 a8bc
000001d0: 3303 dc3c f4d3 d6bc 4e5b f7bc e418 1f3b
000001e0: 8375 0abd ada0 693e 1058 ae3d f8a7 b53d
000001f0: 8e57 5f3d 8c73 01bd bfd2 ed3c e3e9 643d
0.09868803 -0.023537172 -0.017402617 -0.028906502 0.15798494 -0.03706351 -0.019228943 0.060652453
0.02785749 -0.0405453 0.091549404 0.02281375 0.06455545 -0.02480757 0.013353307 -0.032190453
-0.020098427 -0.037619445 0.034045327 0.059994746 0.06299902 0.08781343 -0.15444845 -0.050503995
-0.04664483 -0.01704404 -0.025812656 0.027492391 -0.0117864115 0.003700469 0.03144097 -0.021657836
0.107332595 0.07501285 -0.0020940977 -0.004026554 -0.019367151 0.0077127446 -0.025091065 -0.010169491
-0.12705511 -0.026083857 -0.035923198 -0.019169338 -0.02076749 -0.012227515 0.052091073 0.076903224
0.09061952 0.20782919 0.05458952 -0.0057823313 -0.047403436 -0.015771918 -0.007553591 -0.032157883
-0.15115424 -0.026264638 -0.023435358 0.017114934 -0.023348931 0.057260763 -0.025492467 0.0055734226
0.14248964 0.07131073 -0.033647787 0.17649685 0.090456046 0.042600177 -0.024954347 -0.02535463
0.04288103 0.05308366 -0.0007726691 -0.028607557 0.16083512 0.026060648 -0.009347461 0.09319202
0.07825412 0.022306206 -0.012925327 0.1191412 0.07922758 -0.009270905 -0.0024554364 0.017323175
-0.12112902 -0.03785588 0.15358983 0.1195388 -0.0464084 -0.03030931 0.06720495 0.107378304
0.058449984 0.06383956 0.021183966 0.06262084 -0.01308151 0.011343475 0.18647422 -0.02244145
0.06992815 0.059584375 -0.008676258 0.001934552 0.046289627 -0.010107421 0.09299969 -0.07946683
-0.026845112 0.16312206 -0.02613508 -0.020572463 0.026856994 -0.026224114 -0.030194905 0.002427631
-0.033803474 0.22815199 0.0851289 0.08869928 0.054526858 -0.031604335 0.029031156 0.055887114

actor_fc_layers.blocks.1.block.1.running_mean f4 [128]
00000000: 0000 0000 0000 0000 0000 0000 0000 0000
00000010: 0000 0000 0000 0000 0000 0000 0000 0000
00000020: 0000 0000 0000 0000 0000 0000 0000 0000
00000030: 0000 0000 0000 0000 0000 0000 0000 0000
00000040: 0000 0000 0000 0000 0000 0000 0000 0000
00000050: 0000 0000 0000 0000 0000 0000 0000 0000
00000060: 0000 0000 0000 0000 0000 0000 0000 0000
00000070: 0000 0000 0000 0000 0000 0000 0000 0000
00000080: 0000 0000 0000 0000 0000 0000 0000 0000
00000090: 0000 0000 0000 0000 0000 0000 0000 0000
000000a0: 0000 0000 0000 0000 0000 0000 0000 0000
000000b0: 0000 0000 0000 0000 0000 0000 0000 0000
000000c0: 0000 0000 0000 0000 0000 0000 0000 0000
000000d0: 0000 0000 0000 0000 0000 0000 0000 0000
000000e0: 0000 0000 0000 0000 0000 0000 0000 0000
000000f0: 0000 0000 0000 0000 0000 0000 0000 0000
00000100: 0000 0000 0000 0000 0000 0000 0000 0000
00000110: 0000 0000 0000 0000 0000 0000 0000 0000
00000120: 0000 0000 0000 0000 0000 0000 0000 0000
00000130: 0000 0000 0000 0000 0000 0000 0000 0000
00000140: 0000 0000 0000 0000 0000 0000 0000 0000
00000150: 0000 0000 0000 0000 0000 0000 0000 0000
00000160: 0000 0000 0000 0000 0000 0000 0000 0000
00000170: 0000 0000 0000 0000 0000 0000 0000 0000
00000180: 0000 0000 0000 0000 0000 0000 0000 0000
00000190: 0000 0000 0000 0000 0000 0000 0000 0000
000001a0: 0000 0000 0000 0000 0000 0000 0000 0000
000001b0: 0000 0000 0000 0000 0000 0000 0000 0000
000001c0: 0000 0000 0000 0000 0000 0000 0000 0000
000001d0: 0000 0000 0000 0000 0000 0000 0000 0000
000001e0: 0000 0000 0000 0000 0000 0000 0000 0000
000001f0: 0000 0000 0000 0000 0000 0000 0000 0000
0.0 0.0 0.0 0.0 0.0 0.0 0.0 0.0
0.0 0.0 0.0 0.0 0.0 0.0 0.0 0.0
0.0 0.0 0.0 0.0 0.0 0.0 0.0 0.0
0.0 0.0 0.0 0.0 0.0 0.0 0.0 0.0
0.0 0.0 0.0 0.0 0.0 0.0 0.0 0.0
0.0 0.0 0.0 0.0 0.0 0.0 0.0 0.0
0.0 0.0 0.0 0.0 0.0 0.0 0.0 0.0
0.0 0.0 0.0 0.0 0.0 0.0 0.0 0.0
0.0 0.0 0.0 0.0 0.0 0.0 0.0 0.0
0.0 0.0 0.0 0.0 0.0 0.0 0.0 0.0
0.0 0.0 0.0 0.0 0.0 0.0 0.0 0.0
0.0 0.0 0.0 0.0 0.0 0.0 0.0 0.0
0.0 0.0 0.0 0.0 0.0 0.0 0.0 0.0
0.0 0.0 0.0 0.0 0.0 0.0 0.0 0.0
0.0 0.0 0.0 0.0 0.0 0.0 0.0 0.0
0.0 0.0 0.0 0.0 0.0 0.0 0.0 0.0

actor_fc_layers.blocks.1.block.1.running_var f4 [128]
00000000: 0000 803f 0000 803f 0000 803f 0000 803f
00000010: 0000 803f 0000 803f 0000 803f 0000 803f
00000020: 0000 803f 0000 803f 0000 803f 0000 803f
00000030: 0000 803f 0000 803f 0000 803f 0000 803f
00000040: 0000 803f 0000 803f 0000 803f 0000 803f
00000050: 0000 803f 0000 803f 0000 803f 0000 803f
00000060: 0000 803f 0000 803f 0000 803f 0000 803f
00000070: 0000 803f 0000 803f 0000 803f 0000 803f
00000080: 0000 803f 0000 803f 0000 803f 0000 803f
00000090: 0000 803f 0000 803f 0000 803f 0000 803f
000000a0: 0000 803f 0000 803f 0000 803f 0000 803f
000000b0: 0000 803f 0000 803f 0000 803f 0000 803f
000000c0: 0000 803f 0000 803f 0000 803f 0000 803f
000000d0: 0000 803f 0000 803f 0000 803f 0000 803f
000000e0: 0000 803f 0000 803f 0000 803f 0000 803f
000000f0: 0000 803f 0000 803f 0000 803f 0000 803f
00000100: 0000 803f 0000 803f 0000 803f 0000 803f
00000110: 0000 803f 0000 803f 0000 803f 0000 803f
00000120: 0000 803f 0000 803f 0000 803f 0000 803f
00000130: 0000 803f 0000 803f 0000 803f 0000 803f
00000140: 0000 803f 0000 803f 0000 803f 0000 803f
00000150: 0000 803f 0000 803f 0000 803f 0000 803f
00000160: 0000 803f 0000 803f 0000 803f 0000 803f
00000170: 0000 803f 0000 803f 0000 803f 0000 803f
00000180: 0000 803f 0000 803f 0000 803f 0000 803f
00000190: 0000 803f 0000 803f 0000 803f 0000 803f
000001a0: 0000 803f 0000 803f 0000 803f 0000 803f
000001b0: 0000 803f 0000 803f 0000 803f 0000 803f
000001c0: 0000 803f 0000 803f 0000 803f 0000 803f
000001d0: 0000 803f 0000 803f 0000 803f 0000 803f
000001e0: 0000 803f 0000 803f 0000 803f 0000 803f
000001f0: 0000 803f 0000 803f 0000 803f 0000 803f
1.0 1.0 1.0 1.0 1.0 1.0 1.0 1.0
1.0 1.0 1.0 1.0 1.0 1.0 1.0 1.0
1.0 1.0 1.0 1.0 1.0 1.0 1.0 1.0
1.0 1.0 1.0 1.0 1.0 1.0 1.0 1.0
1.0 1.0 1.0 1.0 1.0 1.0 1.0 1.0
1.0 1.0 1.0 1.0 1.0 1.0 1.0 1.0
1.0 1.0 1.0 1.0 1.0 1.0 1.0 1.0
1.0 1.0 1.0 1.0 1.0 1.0 1.0 1.0
1.0 1.0 1.0 1.0 1.0 1.0 1.0 1.0
1.0 1.0 1.0 1.0 1.0 1.0 1.0 1.0
1.0 1.0 1.0 1.0 1.0 1.0 1.0 1.0
1.0 1.0 1.0 1.0 1.0 1.0 1.0 1.0
1.0 1.0 1.0 1.0 1.0 1.0 1.0 1.0
1.0 1.0 1.0 1.0 1.0 1.0 1.0 1.0
1.0 1.0 1.0 1.0 1.0 1.0 1.0 1.0
1.0 1.0 1.0 1.0 1.0 1.0 1.0 1.0

actor_fc_layers.blocks.2.block.0.weight f4 [128, 128]
00000000: a543 323e 62de d53e 5a0f 7b3d 5b46 543e
00000010: b68a 103e 7256 7b3d d3ea 5a3d 7cc3 15be
00000020: 9b01 cc3e 08c4 83bc 3602 a43d a4c2 473e
00000030: a9bc 4b3e e5eb b1bd d4af 45be 247b 17bc
00000040: 8dfd f63c 398e 0d3e fa30 e4bd 04f4 99bd
00000050: aecd f13c b014 4ebd 2e13 363d 2aa8 403d
00000060: 6ee5 06be 0ae7 e93d 7ff1 973c ae9d ff3d
00000070: e467 d5bc ee73 8cbe 84f3 043e afa5 41bd
00000080: 5639 ca3d 90aa 1cbc 9c72 bdbd 230c 1dbd
00000090: 7875 5e3d a9ff a63d ee2b b5bd d2f1 abbb
000000a0: d684 6e3d a6f3 b73d f4e0 d8bc 0a11 08bd
000000b0: 9d57 7b3d ed81 b43e 3084 14be a2fb b4bd
000000c0: d7fe 833e d5b1 383e 2175 173e 3b40 dc3c
000000d0: 714b e8bc 400f 923d 26b9 45be e6a0 8abd
000000e0: b33f b4bd 2191 1e3e 7c1e ab3d 8632 9fbe
000000f0: 21ea f83c 7d8d 85be ff96 8bbd accb 763e
00000100: 79fc fa3d 6dc9 603e ddf3 e2bc 09a2 273e
00000110: 8e8c a43c 0e9e 29be 7fae 85ba f6cc 853c
00000120: 7841 203d baac 47bd 8a3d 4c3e 9937 2d3d
00000130: 2f36 3d3e c465 56be 0036 303d f3a3 7bbb
00000140: 0fb3 52be 51fd 1abd f058 13bd 73b3 5b3e
00000150: d5d7 a4be 029f c33e 514e 803e 597c 9a3d
00000160: cce6 9b3d 5181 6bbd 1280 c93b 2fed ff3d
00000170: f969 493e 8de4 8d3e 5bd3 2e3e 8876 e13c
00000180: 7cec d1bc 1eea b4bd 9844 8d3e b303 04be
00000190: 9661 74bc 0bd9 dfbd 871c f83d 9f45 97bd
000001a0: ad87 893e d46f 133e 9415 a137 903b 1b3e
000001b0: 6537 34be 5630 373d 6065 843e 4581 4d3e
000001c0: 1543 943e e0cd 143e 82d8 093d e03d 87bd
000001d0: 5496 a1be 7062 603c cb41 43bd 035f 833e
000001e0: 0245 9cbe ae2b cd3d ac47 84bc 2890 523e
000001f0: 2f72 643e 53da 3cbe 89ce da3e 8920 8ebe
00000200: 9b2a 02be 8cf8 0cbe 7c63 acbb 2007 60be
00000210: 7a29 0fbe d592 b1bd 9e83 bcbc b52e 35bd
00000220: 7cfc 543e 8431 0b3e 3c3f 113e f1ed f03d
00000230: dd35 553d c4ec a83d c073 93bd d4e2 93bd
00000240: 173d 813d f009 003e 23eb 77bd ffa9 093d
00000250: 6301 97bd a714 0c3e 9d70 623d 1c61 2f3d
00000260: d943 113e 0b81 253e 406c 28bd 7407 afbd
00000270: 3c7e 5abd c429 95bb 2280 9f3d 699a a2bd
00000280: 2c37 823d edfd 08bd d9f8 6c3d 0683 83bc
00000290: 04d1 1d3d d66f 32bd 6c13 5e3d ae57 51be
000002a0: a13d 4d3d 61f6 b73c e331 9ebd 99c7 2e3d
000002b0: ba1e 3abd 2d6b 3f3e d542 1dbd 61b2 01be
000002c0: d653 06be 2ab1 8fbe b7ac 4e3c 57b0 1c3d
000002d0: 04b9 213d 87c9 4a3d 304a 93bc e75e ed3d
000002e0: bd0f 893e 207e b43d 1d37 76bd ed2f 373c
000002f0: e4fa a23c fe23 c8bd 4fb2 8ebb c85a 42be
00000300: 21a1 c9bd c214 81be cbc0 8bbd c723 99bd
00000310: 759b 72be a8b1 25be 0ce2 6c3d 0c20 d2bd
00000320: 5e0c 3e3e 2614 e73d 9456 ae3d d429 1d3c
00000330: 2e69 a8bd 5a13 87bd ff29 193d 76a6 893e
00000340: eb2c f3bc af98 ea3d eaa9 473d 5d38 1abe
00000350: 3516 01be 589c 9c3d 3752 163d 188b d03d
00000360: 1d68 783e 6ea8 73bc 1c78 96bd a18a 27be
00000370: eec1 f73d 186e ad3c be42 2dbe 0e1b 4dbd
00000380: 56a2 83bd ace3 d2bc 8452 d9bd b899 81bd
00000390: e60d bdbd 5e1a 6b3d 2a8b 9fbe 8cf8 22bb
000003a0: 1258 45be 8875 3bbd 7f0e 333d a5b2 a73d
000003b0: 7942 923d 98ec 6c3d 2368 49bd a587 573e
000003c0: 0569 17be eaef 44be a6e2 7ebd 336d 3e3a
000003d0: 9bd5 963d e2aa 753d 43fa 13bd 9fa6 dbbd
000003e0: 8ec3 193e 5e55 42be 95df 05be 7b45 6ebc
000003f0: 6e53 dbbd 8749 c4bd bf56 1b3e 1d17 523c
0.17408617 0.41771227 0.061293937 0.20729963 0.14115414 0.061361738 0.053446602 -0.14625353
0.39844975 -0.016084686 0.08008234 0.19507843 0.19896187 -0.086875714 -0.19305354 -0.009245668
0.0301502 0.13823785 -0.11142154 -0.075172454 0.029517021 -0.050312698 0.044451885 0.047035374
-0.13173458 0.1142102 0.018547771 0.12481247 -0.026050515 -0.27432197 0.12983519 -0.04727715
0.09874217 -0.00956215 -0.09250376 -0.038341653 0.054311246 0.08154232 -0.088462695 -0.005247333
0.05823215 0.08982019 -0.026474454 -0.033219375 0.06136285 0.35255376 -0.1450355 -0.08837058
0.25780365 0.18036588 0.14790775 0.026886096 -0.028356286 0.07131815 -0.1930891 -0.0676897
-0.08801212 0.1548505 0.08355424 -0.31093234 0.030385079 -0.2608451 -0.068159096 0.24101132
0.122551866 0.21951838 -0.027704174 0.16370405 0.020086553 -0.165642 -0.0010199099 0.016333085
0.039124936 -0.04874871 0.1994535 0.04228935 0.184777 -0.20937258 0.04302025 -0.0038397282
-0.20576118 -0.037839238 -0.03597349 0.21455173 -0.32195917 0.3820725 0.2505975 0.07543249
0.076123804 -0.057496373 0.0061493004 0.12496411 0.19669332 0.27713433 0.17072813 0.02752234
-0.02562546 -0.08833717 0.27591395 -0.12892036 -0.014915844 -0.109300695 0.12114816 -0.07386326
0.26861325 0.14398128 1.9202744e-05 0.1515944 -0.17599256 0.04472383 0.25858593 0.20068844
0.2895743 0.1453166 0.033653744 -0.066035986 -0.31560004 0.013695344 -0.047670167 0.25658426
-0.305214 0.10018097 -0.016147457 0.20562804 0.22309183 -0.18442659 0.427357 -0.27759197
-0.12711565 -0.13766688 -0.005260883 -0.21877718 -0.13980666 -0.08670584 -0.023011979 -0.044233996
0.2079944 0.13593107 0.14184278 0.11764134 0.05205332 0.082482845 -0.07199812 -0.072209984
0.0631048 0.12503791 -0.06052698 0.033609387 -0.07373311 0.13679753 0.055283178 0.04281722
0.14186038 0.16162507 -0.04111886 -0.085463434 -0.053343043 -0.004552098 0.07788111 -0.07939608
0.063581795 -0.033445287 0.057854507 -0.016053688 0.03852941 -0.043563686 0.05421774 -0.20443603
0.050107602 0.02245635 -0.07724359 0.04267082 -0.04543946 0.18693228 -0.038393814 -0.12665702
-0.13117918 -0.28064853 0.012614421 0.03825411 0.039483085 0.049508598 -0.017979711 0.11590367
0.2676982 0.08813119 -0.060111154 0.01118086 0.019895025 -0.0977249 -0.004354752 -0.18979943
-0.09845186 -0.2521115 -0.06823882 -0.07477527 -0.23692115 -0.16181052 0.057832763 -0.10260019
0.18559405 0.1128314 0.08512607 0.009592492 -0.082231864 -0.06595488 0.037393566 0.26884812
-0.029684504 0.11454903 0.048746027 -0.15060563 -0.12606128 0.07647008 0.0366995 0.1018278
0.24258466 -0.0148717 -0.07347128 -0.16361476 0.12097536 0.02117066 -0.16919991 -0.05007463
-0.064274475 -0.025743328 -0.10611442 -0.06328148 -0.092311665 0.057398193 -0.3116086 -0.0024867384
-0.19271877 -0.045766383 0.043714996 0.081883706 0.07141585 0.05784282 -0.04917158 0.21047838
-0.14786156 -0.19232145 -0.062227868 0.0007264197 0.07364961 0.05997742 -0.03612734 -0.1072514
0.15016004 -0.18977877 -0.13073571 -0.014542933 -0.10709272 -0.09584337 0.1516981 0.012822893

actor_fc_layers.blocks.2.block.1.weight f4 [128]
00000000: c233 a63f 1f3a 7b3f e41e 823f 7974 b13f
00000010: 858e 7f3f 894c 7c3f 5667 a53f 951d 863f
00000020: 2748 aa3f 2936 7a3f ba83 8c3f 55d3 793f
00000030: 33e5 993f 602e 953f a749 803f 20c8 9e3f
00000040: 90fd b13f d9fb 773f 5958 733f 3441 963f
00000050: bd48 8f3f 6c24 993f b1b8 8d3f bf3a a43f
00000060: 91c3 7a3f c528 783f aa5e 8a3f a2e7 8f3f
00000070: 4581 7c3f c2e9 833f 1a90 8a3f a393 763f
00000080: 7b9a 823f f944 7d3f ac72 743f 1c57 963f
00000090: 219a ab3f 8901 7c3f 00d2 823f f834 953f
000000a0: ed8b 7e3f 9620 7e3f 4318 913f 2e10 983f
000000b0: 5914 833f 9b5c 9d3f a196 fe3f 55a0 753f
000000c0: c5de 7b3f e792 8c3f e681 d23f 7aae 8c3f
000000d0: d101 7a3f 41ee 993f c228 9f3f 3ae6 833f
000000e0: 1d65 993f 2187 7c3f d6e1 813f f148 773f
000000f0: 9333 b23f 2c5a 7f3f d1af 763f ad8a 793f
00000100: a4f1 6f3f 8a8d 963f 1d1a 7f3f e76a 973f
00000110: de7c cf3f 1ac1 cd3f 8177 7c3f 5dbe a53f
00000120: 1845 ca3f b487 8b3f 8f41 813f af60 8f3f
00000130: 16bb 913f 166a 943f 1185 7a3f 701a 8e3f
00000140: 1f0a 933f 5623 a33f 62a5 993f fc7b a93f
00000150: d1fa 763f 497f 873f 8a9b f33f 094b 763f
00000160: 675a 8e3f 6fe1 933f 964b 863f 164c 823f
00000170: 06b6 913f e881 9d3f ee6f 983f c52f 7b3f
00000180: 9182 983f 3d21 a63f 65cc 803f 351b 9c3f
00000190: 9c96 913f 7d85 b03f 828f 933f d245 973f
000001a0: fd53 793f 0000 803f 379d ae3f 7c08 963f
000001b0: 8a81 993f 3996 7d3f af70 9e3f 05d3 7e3f
000001c0: ed1f 773f f4b4 893f c83d 903f 256b 7b3f
000001d0: b176 7f3f 168a 953f 4308 873f a538 793f
000001e0: a3a4 8e3f 2db0 983f f034 8c3f 3403 893f
000001f0: 256c 7f3f 573e 8e3f 790c 8f3f 1237 973f
1.2984545 0.9813556 1.0165677 1.386367 0.9982684 0.98554283 1.2922161 1.0477778
1.3303269 0.9773889 1.09777 0.9758809 1.2023071 1.1654778 1.0022477 1.2404823
1.3905506 0.96868664 0.9505668 1.1738648 1.1194073 1.196424 1.1071988 1.2830428
0.9795466 0.9693721 1.0810139 1.1242564 0.9863475 1.0305712 1.0825226 0.96319026
1.0203394 0.9893337 0.95487475 1.1745334 1.3406411 0.9843984 1.0220337 1.165679
0.9943226 0.9926847 1.1335529 1.1879938 1.0240585 1.2293886 1.9889718 0.9594777
0.98386794 1.0982331 1.6445892 1.0990746 0.9765902 1.2025834 1.2434313 1.0304635
1.1983982 0.9864369 1.0147045 0.96595675 1.3921989 0.99746966 0.96362025 0.9747723
0.9372809 1.1761944 0.9964922 1.1829499 1.6209981 1.6074555 0.9861985 1.2948719
1.5802336 1.0900788 1.0098132 1.120138 1.1385219 1.1594875 0.97859293 1.1101818
1.1487464 1.2745159 1.2003596 1.3240962 0.96476465 1.0585719 1.9031842 0.96208245
1.1121339 1.1553172 1.0491817 1.017947 1.1383674 1.2305269 1.1909158 0.98119766
1.1914846 1.2978894 1.0062376 1.2195803 1.1374087 1.3790737 1.152817 1.1818182
0.9739378 1.0 1.3641728 1.1721339 1.1992657 0.99057347 1.2378138 0.9954074
0.9653309 1.0758348 1.1268854 0.98210365 0.99790484 1.1682765 1.0549396 0.9735206
1.1143993 1.1928765 1.0953655 1.0704103 0.9977439 1.1112775 1.1175681 1.1813681

actor_fc_layers.blocks.2.block.1.bias f4 [128]
00000000: b0de 883c dec2 43bd bbe9 c7bd 92f4 853d
00000010: 13cc 03bc 514d 63bd 36a1 893c 86d5 393d
00000020: d018 943d 67fc 01be 050f b83d b4eb d1bc
00000030: bd90 e73c d5cf 973d bce7 e23c 25c1 fb3d
00000040: df80 eb3d b801 11bd e299 fcbc 4d0c fa3d
00000050: 79b3 98bc d583 033e ac81 c33d 762c 883d
00000060: 3327 06bd d622 f3bc 9d90 a33d fbb2 cf3c
00000070: 8bae 0dbd c909 33bd b57c 433a 184c f3bd
00000080: 8412 7d3a a7b9 49bc faee c8bd 7870 99be
00000090: 06fe 093d dbee 8ebc d137 8bbd 58c9 0c3e
000000a0: 326e f6bb df78 ebbd ea59 9c3d 1085 7f3d
000000b0: 479a 78bd e888 4f3c cc00 a8bd 2bbc 45bd
000000c0: 24fe 96bc a964 ec3c 86e1 65bd 2fb0 a33c
000000d0: 500a d1bc 7676 62bd b97d 653d 379e ebbd
000000e0: 6e43 113e e3e0 c5bc 6926 adbd 2378 0bbd
000000f0: 0d65 293e f574 2abe dcb1 14bd b221 b0bb
00000100: 5833 9cbc f081 843d a396 88bb cb77 a53e
00000110: 00d6 1fbe 8730 e2bd 2493 d3bc 11ae ae3c
00000120: 8326 98bd 609b 6d3a e1a1 9fbd 62aa 893d
00000130: bcf7 fa3c 30d9 3f3e 5bf4 cbbc 5ced 083e
00000140: 388b ab3d 850d 9b3d 3da0 b93d 9789 0f3d
00000150: 1aab 39bd 9fa2 663d 189e bbbd 62c9 32bd
00000160: f7ab 8fba e53a 903e 70e2 c1bd ff45 4cbd
00000170: a994 1b3d 48fa b0bd b018 66bd bb27 85bc
00000180: 798c 323c 89b7 73bd 5185 62be 81d0 273e
00000190: e0cf da3d 6833 553d 473e 163d 7894 3d3e
000001a0: d3b4 8abd 0000 0000 2d42 7dbd 2017 863c
000001b0: 594a a33c 8a8a babc 991a 233d 5833 1cbe
000001c0: 8092 12be 8496 803d 28ab f63d 8e15 f3bc
000001d0: d0ba 97bb 1afe bd3d 67a9 893d 14b1 2dbc
000001e0: dd96 653e bb5d 91bd 6a91 33bd f312 073e
000001f0: 69eb e1bb 6302 6abd 2e3b 753e 81d6 f83d
0.016707748 -0.04779326 -0.097613774 0.06540789 -0.008044261 -0.055493657 0.016800504 0.045369647
0.07231295 -0.1269394 0.0898724 -0.025625087 0.028267259 0.07412688 0.02769839 0.12292699
0.114991896 -0.03540203 -0.030835096 0.122093774 -0.018640267 0.12843259 0.09546217 0.06649105
-0.032752227 -0.029679697 0.07986567 0.0253539 -0.034590285 -0.043710504 0.00074572425 -0.11879748
0.0009653943 -0.012312329 -0.09811206 -0.2996862 0.03368952 -0.01744788 -0.067977555 0.13748682
-0.0075204605 -0.11497664 0.07634337 0.062382758 -0.060694005 0.012666918 -0.08203277 -0.048275154
-0.01843173 0.028856592 -0.05612328 0.019981472 -0.025517613 -0.055288754 0.0560281 -0.115047865
0.14185879 -0.024155086 -0.08454592 -0.03405012 0.16542454 -0.16646178 -0.036302432 -0.0053751105
-0.019067451 0.06470096 -0.004168348 0.32317957 -0.15608978 -0.11044412 -0.025826998 0.021323236
-0.074292205 0.0009063985 -0.07794548 0.06721951 0.030635707 0.18735194 -0.024896791 0.13371795
0.08376163 0.07570938 0.09063766 0.035043325 -0.04532919 0.05630743 -0.09161013 -0.043649085
-0.0010961284 0.28169933 -0.09467018 -0.04987144 0.03798357 -0.08641487 -0.056175888 -0.016254297
0.010897749 -0.059501205 -0.22121169 0.16388132 0.1068418 0.052050978 0.036680486 0.18513668
-0.06772771 0.0 -0.06183069 0.016368449 0.019932913 -0.022771139 0.039820287 -0.15253961
-0.14313698 0.062787086 0.12044364 -0.029673364 -0.004630424 0.09276982 0.06721764 -0.010601301
0.22420831 -0.07097956 -0.04383985 0.13190822 -0.006894518 -0.057131182 0.23948357 0.121502884

actor_fc_layers.blocks.2.block.1.running_mean f4 [128]
00000000: 0000 0000 0000 0000 0000 0000 0000 0000
00000010: 0000 0000 0000 0000 0000 0000 0000 0000
00000020: 0000 0000 0000 0000 0000 0000 0000 0000
00000030: 0000 0000 0000 0000 0000 0000 0000 0000
00000040: 0000 0000 0000 0000 0000 0000 0000 0000
00000050: 0000 0000 0000 0000 0000 0000 0000 0000
00000060: 0000 0000 0000 0000 0000 0000 0000 0000
00000070: 0000 0000 0000 0000 0000 0000 0000 0000
00000080: 0000 0000 0000 0000 0000 0000 0000 0000
00000090: 0000 0000 0000 0000 0000 0000 0000 0000
000000a0: 0000 0000 0000 0000 0000 0000 0000 0000
000000b0: 0000 0000 0000 0000 0000 0000 0000 0000
000000c0: 0000 0000 0000 0000 0000 0000 0000 0000
000000d0: 0000 0000 0000 0000 0000 0000 0000 0000
000000e0: 0000 0000 0000 0000 0000 0000 0000 0000
000000f0: 0000 0000 0000 0000 0000 0000 0000 0000
00000100: 0000 0000 0000 0000 0000 0000 0000 0000
00000110: 0000 0000 0000 0000 0000 0000 0000 0000
00000120: 0000 0000 0000 0000 0000 0000 0000 0000
00000130: 0000 0000 0000 0000 0000 0000 0000 0000
00000140: 0000 0000 0000 0000 0000 0000 0000 0000
00000150: 0000 0000 0000 0000 0000 0000 0000 0000
00000160: 0000 0000 0000 0000 0000 0000 0000 0000
00000170: 0000 0000 0000 0000 0000 0000 0000 0000
00000180: 0000 0000 0000 0000 0000 0000 0000 0000
00000190: 0000 0000 0000 0000 0000 0000 0000 0000
000001a0: 0000 0000 0000 0000 0000 0000 0000 0000
000001b0: 0000 0000 0000 0000 0000 0000 0000 0000
000001c0: 0000 0000 0000 0000 0000 0000 0000 0000
000001d0: 0000 0000 0000 0000 0000 0000 0000 0000
000001e0: 0000 0000 0000 0000 0000 0000 0000 0000
000001f0: 0000 0000 0000 0000 0000 0000 0000 0000
0.0 0.0 0.0 0.0 0.0 0.0 0.0 0.0
0.0 0.0 0.0 0.0 0.0 0.0 0.0 0.0
0.0 0.0 0.0 0.0 0.0 0.0 0.0 0.0
0.0 0.0 0.0 0.0 0.0 0.0 0.0 0.0
0.0 0.0 0.0 0.0 0.0 0.0 0.0 0.0
0.0 0.0 0.0 0.0 0.0 0.0 0.0 0.0
0.0 0.0 0.0 0.0 0.0 0.0 0.0 0.0
0.0 0.0 0.0 0.0 0.0 0.0 0.0 0.0
0.0 0.0 0.0 0.0 0.0 0.0 0.0 0.0
0.0 0.0 0.0 0.0 0.0 0.0 0.0 0.0
0.0 0.0 0.0 0.0 0.0 0.0 0.0 0.0
0.0 0.0 0.0 0.0 0.0 0.0 0.0 0.0
0.0 0.0 0.0 0.0 0.0 0.0 0.0 0.0
0.0 0.0 0.0 0.0 0.0 0.0 0.0 0.0
0.0 0.0 0.0 0.0 0.0 0.0 0.0 0.0
0.0 0.0 0.0 0.0 0.0 0.0 0.0 0.0

actor_fc_layers.blocks.2.block.1.running_var f4 [128]
00000000: 0000 803f 0000 803f 0000 803f 0000 803f
00000010: 0000 803f 0000 803f 0000 803f 0000 803f
00000020: 0000 803f 0000 803f 0000 803f 0000 803f
00000030: 0000 803f 0000 803f 0000 803f 0000 803f
00000040: 0000 803f 0000 803f 0000 803f 0000 803f
00000050: 0000 803f 0000 803f 0000 803f 0000 803f
00000060: 0000 803f 0000 803f 0000 803f 0000 803f
00000070: 0000 803f 0000 803f 0000 803f 0000 803f
00000080: 0000 803f 0000 803f 0000 803f 0000 803f
00000090: 0000 803f 0000 803f 0000 803f 0000 803f
000000a0: 0000 803f 0000 803f 0000 803f 0000 803f
000000b0: 0000 803f 0000 803f 0000 803f 0000 803f
000000c0: 0000 803f 0000 803f 0000 803f 0000 803f
000000d0: 0000 803f 0000 803f 0000 803f 0000 803f
000000e0: 0000 803f 0000 803f 0000 803f 0000 803f
000000f0: 0000 803f 0000 803f 0000 803f 0000 803f
00000100: 0000 803f 0000 803f 0000 803f 0000 803f
00000110: 0000 803f 0000 803f 0000 803f 0000 803f
00000120: 0000 803f 0000 803f 0000 803f 0000 803f
00000130: 0000 803f 0000 803f 0000 803f 0000 803f
00000140: 0000 803f 0000 803f 0000 803f 0000 803f
00000150: 0000 803f 0000 803f 0000 803f 0000 803f
00000160: 0000 803f 0000 803f 0000 803f 0000 803f
00000170: 0000 803f 0000 803f 0000 803f 0000 803f
00000180: 0000 803f 0000 803f 0000 803f 0000 803f
00000190: 0000 803f 0000 803f 0000 803f 0000 803f
000001a0: 0000 803f 0000 803f 0000 803f 0000 803f
000001b0: 0000 803f 0000 803f 0000 803f 0000 803f
000001c0: 0000 803f 0000 803f 0000 803f 0000 803f
000001d0: 0000 803f 0000 803f 0000 803f 0000 803f
000001e0: 0000 803f 0000 803f 0000 803f 0000 803f
000001f0: 0000 803f 0000 803f 0000 803f 0000 803f
1.0 1.0 1.0 1.0 1.0 1.0 1.0 1.0
1.0 1.0 1.0 1.0 1.0 1.0 1.0 1.0
1.0 1.0 1.0 1.0 1.0 1.0 1.0 1.0
1.0 1.0 1.0 1.0 1.0 1.0 1.0 1.0
1.0 1.0 1.0 1.0 1.0 1.0 1.0 1.0
1.0 1.0 1.0 1.0 1.0 1.0 1.0 1.0
1.0 1.0 1.0 1.0 1.0 1.0 1.0 1.0
1.0 1.0 1.0 1.0 1.0 1.0 1.0 1.0
1.0 1.0 1.0 1.0 1.0 1.0 1.0 1.0
1.0 1.0 1.0 1.0 1.0 1.0 1.0 1.0
1.0 1.0 1.0 1.0 1.0 1.0 1.0 1.0
1.0 1.0 1.0 1.0 1.0 1.0 1.0 1.0
1.0 1.0 1.0 1.0 1.0 1.0 1.0 1.0
1.0 1.0 1.0 1.0 1.0 1.0 1.0 1.0
1.0 1.0 1.0 1.0 1.0 1.0 1.0 1.0
1.0 1.0 1.0 1.0 1.0 1.0 1.0 1.0
