saved_models/agent_maddpgv2_vs_opp_maddpgv2_1_vs_1_1_adver_best_models/maddpgv2_actor_0.pt (torch, 155659 bytes, 21 tensors)

actor_fc_layers.blocks.0.block.0.weight f4 [128, 12]
00000000: 511b 393e 3ecb 853d a8fd 043f 9fca 933e
00000010: 651e 8f3e 8fc3 90bd 57a3 0f3e 8b57 ac3b
00000020: 2445 913e e8de 85be d680 2abc 6fed dbbc
00000030: 88b7 523e 2300 e13d e4c3 173e f34c 12bf
00000040: bfa1 a8bd 8ac6 72bb 46ee 3d3e 9f12 64be
00000050: 4b0f 64be dacb 00be 9ced e23e 6ff6 a8be
00000060: 5088 cfbd 946e 5c3d a418 ecbe 0096 88be
00000070: 7efa 69be 352a 643e 59f1 473d b9bf c3be
00000080: ee1c 33be 9bee 483e bb87 f93d 2b38 6c3c
00000090: 9342 88bc 4764 f2bd abe2 f8be 149e 5ebe
000000a0: 33a7 233e 5029 f33c 64dc ea3b c592 d13d
000000b0: 77d9 41be 2561 123e 4385 e93d cdfc e63d
000000c0: 67d6 e7bd b22d 183e 3df9 4abb f8fe 39be
000000d0: e0b5 71be 8208 afbd cfc8 86be 2f25 a83d
000000e0: 446a a73d ff99 363e 6a52 e1be 18c1 0dbd
000000f0: dc2e 4abd 0a27 7c3c a61d eabe 65ca b93e
00000100: a8d0 bc3c 1a10 093e d2f0 a5bd dd4c cabd
00000110: 49e6 3a3e 8f00 91be eeeb 743e 40fa 593e
00000120: c6fa 5dbe c819 e13d 4ced 1e3e 2a65 84be
00000130: aa9c 88be c8ce b4bd 413c 5a3e 029e 8b3e
00000140: 1523 913d 9650 febd 0850 893e a57e dfbd
00000150: fb5c 313d 9dd3 a4bd 6742 83bd a4af 78bf
00000160: f6b1 83bc e1d4 26be 290f 9cbd 73cb 0a3e
00000170: 635d 10bd 07eb 5e3e 6d6a 14be 12e8 713e
00000180: e240 403a bceb 96bd 8f68 6bbd c8a1 273f
00000190: 9dea 9fbe f9be 5cbe 8a3c ee3d 4fbb 16be
000001a0: 2f10 2d3e 72f4 eebb cb6f 403c 65f4 8b3e
000001b0: aad0 93bd 7e3e f9bd 00cf e0be ab7c 6f3e
000001c0: 0a7b 91be ddbe 7c3e 0818 e2bd 5763 b13d
000001d0: ac0d 8cbb 7e77 1bbe 8182 98bd bd35 47be
000001e0: fa8d b3bd c8b3 1c3d 13d0 093e 9d5e 0b3e
000001f0: 2629 f23d 6bd0 e8bd 98b2 0f3d cf74 6a3e
00000200: 8d89 5c3e 6c95 39be 6823 76be b0a3 543e
00000210: 16b5 0e3d e166 723d 7dfa 903e 9b46 60bf
00000220: 01a8 0fbd 80f6 1bbe be2b 87bd 3fbe 83bc
00000230: b5df b83b c1b5 3ebe d18b 88be c961 aa3e
00000240: 1bf9 123c d0b4 01be b8ad 0c3e 7e39 983d
00000250: bd08 1f3d f294 253e 843e 7dbe 5b34 ffbd
00000260: b5c2 2ebe 819c 713e 3396 d2bd a6ff b7be
00000270: 3906 a1bd 8ed6 e9bd c022 6dbe 7677 8b3e
00000280: 3e39 d0bd 3d09 843e f19d 97bd 5536 b0bc
00000290: 44de 86bd 3f75 ab3d e423 1d3e 6361 c6be
000002a0: 7f1f 36be e2f0 253e 6ce8 69be cc67 713e
000002b0: 61e0 08be 25db e53e 276a 923e e3eb 153e
000002c0: dc0c 07bc 0322 75be 2759 063e 8abf 943e
000002d0: 2619 193e cfdc d0bd f03f a43e d969 cdbe
000002e0: 24c8 4dbe 80d9 7ebe bd1d 5e3e 164b 6bbe
000002f0: 1cb0 b73d e847 0c3f d24b 9fbe 101c 7abe
00000300: 3855 d0be e8f3 993b 5ee6 1f3e 591a f13d
00000310: 9278 efbd ef87 a13d 7c06 233e c5e0 35bd
00000320: 7db7 9ebe 52b7 793d 2e8b a4bd 7bab 3dbe
00000330: 7601 343e 15a7 e7bd 69a2 c53e 2fbd aa3d
00000340: c85f 2cbd f900 083e a8b0 6bbe 2526 093e
00000350: 398c b23c d6fd 873e c406 4b3e 3436 04be
00000360: d259 db3b 383b 22bc 21ef 0f3e 90c0 1a3f
00000370: 97ee 3ebe cbf7 a83e b26f 1d3e d1b4 6d3e
00000380: 89ab c13e 6806 babd 9993 98be f74b ea3b
00000390: 9c38 afbe 91c4 d7bc 46a6 7cbe 27c3 50be
000003a0: b919 b6bd a766 583e 4149 37bd 6646 bdbe
000003b0: e73c 503e e2d9 57be 0841 813e 4897 1d3d
000003c0: 3075 8e3d 73fc 2abe 3054 afbe 9d86 e73e
000003d0: 0b45 b0bd 5b37 c9bc aa8b 3ebe ede1 e8bd
000003e0: 0187 7fbe b7da 08be bf85 8b3b 8ec2 a0bd
000003f0: 6cd1 c7bd fd91 a43e 2c98 c6be ce4f 9a3e
0.18076827 0.06532906 0.5194955 0.28865525 0.27952877 -0.0706855 0.14027153 0.0052594594
0.28373063 -0.26146626 -0.010406693 -0.026846616 0.20577824 0.10986354 0.1482082 -0.57148665
-0.082339756 -0.0037044608 0.18547925 -0.22272728 -0.22271459 -0.12577763 0.44321907 -0.33000514
-0.101334214 0.053816393 -0.4611255 -0.2667694 -0.22849461 0.22281726 0.04881415 -0.3823221
-0.17491505 0.19622271 0.12184092 0.014417688 -0.016633308 -0.11835533 -0.48610434 -0.2173999
0.1598175 0.029682785 0.007167386 0.10233072 -0.18930613 0.1429487 0.11402371 0.11278687
-0.11320191 0.14861181 -0.0030971311 -0.18163669 -0.23604536 -0.085465446 -0.2632508 0.08210217
0.081745654 0.17832182 -0.4400819 -0.034607977 -0.049361095 0.015390167 -0.45725745 0.36287227
0.023048714 0.13385049 -0.081025735 -0.09877942 0.1825191 -0.2832074 0.23918125 0.21286869
-0.21677694 0.109912455 0.15520209 -0.25858432 -0.26682025 -0.08828503 0.21312048 0.27268988
0.070867695 -0.12417714 0.26818871 -0.109128274 0.043301564 -0.080481745 -0.064091496 -0.97143006
-0.01607607 -0.16292144 -0.07620079 0.13554172 -0.03524531 0.21769343 -0.14493723 0.23623684
0.0007333887 -0.073691815 -0.05747276 0.65481234 -0.31233683 -0.21557225 0.11632641 -0.1471989
0.16900705 -0.0072923237 0.0117454035 0.27334896 -0.07217534 -0.121701226 -0.43907928 0.23387401
-0.28414184 0.24682184 -0.1103974 0.08661526 -0.0042740908 -0.15182301 -0.07446767 -0.19454093
-0.08767314 0.03825739 0.1345828 0.13610311 0.11824255 -0.113678776 0.03508243 0.22896121
0.21536846 -0.18123406 -0.24036944 0.20765567 0.034840666 0.059180144 0.28316107 -0.87607735
-0.03507233 -0.15230751 -0.0660014 -0.016081927 0.0056419023 -0.18624021 -0.2666917 0.3327773
0.008970524 -0.1266663 0.13738143 0.07432841 0.038826693 0.161701 -0.24730879 -0.12461158
-0.17066462 0.23594858 -0.102825545 -0.35937232 -0.07862515 -0.11417876 -0.23157787 0.2723958
-0.10167168 0.25788298 -0.07403172 -0.021510283 -0.065853626 0.08371972 0.15345722 -0.38746175
-0.17785452 0.16205171 -0.22842568 0.23574752 -0.13366844 0.44893757 0.28596613 0.14640765
-0.008242812 -0.23938756 0.13119946 0.29052383 0.14951 -0.10198366 0.3208003 -0.40119818
-0.20095879 -0.24887657 0.21691032 -0.22977862 0.08969137 0.5479722 -0.31112534 -0.24424767
-0.40690017 0.0046982653 0.15615222 0.117726035 -0.11692919 0.078872554 0.15920442 -0.04440381
-0.30999365 0.060965843 -0.08034359 -0.18522446 0.17578682 -0.11311165 0.38600472 0.08336865
-0.04208353 0.13281621 -0.23016608 0.13393457 0.021795379 0.2656085 0.198268 -0.12911302
0.006694057 -0.009901814 0.14056064 0.6045008 -0.18645702 0.3300155 0.1537464 0.23213507
0.37826183 -0.09083253 -0.29800108 0.007150169 -0.34222877 -0.026338847 -0.24672803 -0.20386945
-0.08891625 0.21132909 -0.044747595 -0.36967772 0.20335732 -0.2107921 0.25244927 0.03847435
0.069559455 -0.16697864 -0.34243917 0.4521989 -0.08606919 -0.024562528 -0.18607965 -0.11371217
-0.24953844 -0.13364683 0.004257887 -0.07849608 -0.09756741 0.3214263 -0.38787973 0.3013901

actor_fc_layers.blocks.0.block.1.weight f4 [128]
00000000: 0696 823f ef0e 853f 1947 8e3f 3686 8f3f
00000010: 4f52 463f 429c 8e3f d2b2 8b3f 1e8c b03f
00000020: 6fa6 713f 6707 a23f cc6c 4f3f d783 a33f
00000030: 526b 5c3f aaa7 893f d9a1 8a3f 8580 893f
00000040: 6c0e 4c3f 628e 673f 6e26 903f fdfe 733f
00000050: d612 8f3f f554 7f3f 3a41 a23f 5d51 863f
00000060: 859d 903f 2d6f 833f 5c26 553f b823 7a3f
00000070: 7713 8c3f 8575 9a3f 018f b73f f8ba 7d3f
00000080: cc47 933f c255 6b3f f789 473f aad9 983f
00000090: e8cd ae3f 58e1 873f 1135 833f dd39 5b3f
000000a0: 5c1e 673f cdbb d73f 2053 973f f251 963f
000000b0: 8ad0 6b3f 93c3 803f 048d 913f 061a a63f
000000c0: c8eb 893f f482 8a3f 6e1c 743f 6826 763f
000000d0: f5f5 bf3f 7a81 6b3f 5a13 883f de10 a33f
000000e0: a967 633f 57c5 7e3f 5af1 8b3f 2b5e 4b3f
000000f0: 435f 943f bdb5 723f faff a43f d3b9 8b3f
00000100: e814 883f 7291 793f e2d4 773f d132 853f
00000110: 21bc 943f 6fa7 7f3f bdb7 7b3f dbfb 7b3f
00000120: a3ec 843f d964 a03f f234 883f e9a7 843f
00000130: c081 843f 29c4 5b3f 607c 863f 471b b73f
00000140: c2e0 893f 6b63 883f 5a89 ae3f 1c36 a03f
00000150: 7202 873f 43c2 9a3f 34fe 953f d761 8d3f
00000160: 1e63 993f 3c70 5a3f d53f 9c3f 2b19 a13f
00000170: d367 9e3f 0268 813f 6333 aa3f 22a0 8c3f
00000180: 6a33 863f 9de4 8f3f ac4d 843f 6d67 933f
00000190: 58ee 863f bc40 8e3f cf07 713f a7c4 793f
000001a0: e7a6 9c3f a5e4 983f 5011 b13f 3235 893f
000001b0: 59d5 873f 1573 9c3f a988 973f 8f79 973f
000001c0: 1752 6e3f 79a5 8c3f 43ae 9f3f a2d5 583f
000001d0: b045 8a3f 896f 933f 16bb 893f 7f88 913f
000001e0: aee0 883f 3626 983f 2f2f 943f bc09 9c3f
000001f0: 348f 8a3f 9ce9 823f c806 b63f 6bb1 a43f
1.0202034 1.0395182 1.1115447 1.1212833 0.7746934 1.1141436 1.0913947 1.379276
0.9439458 1.2658509 0.81025386 1.2774609 0.8610126 1.0754292 1.0830642 1.0742346
0.79709506 0.90451634 1.1261728 0.95310956 1.1177623 0.9973901 1.2676156 1.049358
1.1298071 1.0268303 0.83261657 0.9771075 1.094344 1.2067114 1.4340516 0.99113417
1.1506286 0.9192773 0.7794489 1.1941426 1.3656588 1.0615644 1.025057 0.8563517
0.902807 1.6854187 1.1822243 1.1743758 0.9211508 1.0059685 1.137116 1.2976692
1.077508 1.0821214 0.9535588 0.96152353 1.4996935 0.9199444 1.0630906 1.2739522
0.8883005 0.99519867 1.093303 0.79440564 1.1591572 0.9480856 1.2890618 1.0916084
1.063138 0.97487557 0.9680921 1.0406133 1.1619912 0.9986486 0.9832724 0.98431176
1.0384716 1.2530776 1.0641158 1.0363742 1.0352097 0.8584619 1.0506706 1.4305199
1.0771716 1.065534 1.3635666 1.2516513 1.0547621 1.2090534 1.1718202 1.1045483
1.1983373 0.85327506 1.220698 1.2585806 1.2375435 1.0109866 1.3296932 1.0986369
1.048444 1.1241642 1.0336204 1.1515938 1.0541487 1.1113505 0.9415254 0.9756569
1.2238435 1.1944777 1.3833408 1.0719359 1.0611984 1.222262 1.183858 1.1833972
0.9309401 1.0987998 1.2475055 0.8470098 1.0802517 1.1518413 1.0760219 1.136978
1.0693567 1.1886661 1.1576899 1.2190471 1.0824952 1.0227542 1.422082 1.2866644

actor_fc_layers.blocks.0.block.1.bias f4 [128]
00000000: 4cc8 d23c e7ee 3bbe 5fb4 24bd 555c 9f3c
00000010: 6ebc 39be 95fe 6d3e 8f11 5fbd e116 9fbb
00000020: 3388 243e 930c 993d 450a b13d f0a9 fc3d
00000030: d567 9abe 0aa9 1abe 9833 a73d f046 e3bd
00000040: fb2e 1dbe 6fdb 9cbd 4ba8 663c 009d 7abd
00000050: 6b3c f03d 8604 7b3d 0b8e 793e a7d3 ae3c
00000060: 5f86 3e3d c709 8e3d 1f34 253c fb7d 81bd
00000070: 48bd 4dbc b3fe ad3d 2040 e53d 76fc e0bc
00000080: 5dc4 de3b d659 80bd e7ca 22be 224a 183b
00000090: 1b50 6abc 7719 8b3d 54e0 633d b178 cabd
000000a0: 1825 1fbe 653a 113e dce2 63bc 599a 0d3e
000000b0: 45e2 12be 436a e63b f018 323d 54e7 583e
000000c0: 5447 053e a083 b13c 403f 18be 017b aabd
000000d0: 18d7 2f3e 4e2c b9bd 5514 be3c 408a 543e
000000e0: 9b33 ecbd 58d5 aabd 0198 413d 27ea 2cbe
000000f0: 6402 0f3e b8e2 343b 1c5c bd3d 30b2 f1bd
00000100: c9a0 21be 731a afbd 2d43 08be 7b9d 0bbd
00000110: f9c2 e63d 3c42 b1bc bd00 dabd 9e12 28bd
00000120: a233 5c3d 189a 0f3e 8b81 2abd 1ad1 1d3e
00000130: eeca 9c3d dd40 a5bc 6c4a 0f3d 0a77 2f3d
00000140: 0412 d03d 0096 3abd a53c d33d 769a a0bb
00000150: c948 a1bc 185b 6fbd 1059 bd3d 30c5 c93d
00000160: beb6 783e 4e9a 17be cf97 6f3e cdbb b33d
00000170: 7efc 313e 6185 0dbd 3a51 4dbd 38ea 063a
00000180: 7343 1cbd 0067 fa3d 1c88 753b c64a 0fbd
00000190: bbbe 7abd a763 bfbb 8f7d 11bd b4f7 c23d
000001a0: 89a3 263e a198 f53c b807 013e e9a5 1ebd
000001b0: 07a0 053d f533 0b3e 376d 3dbc 8bda 3b3e
000001c0: 1d70 d73d e772 613c 93b2 6ebd 47bf d5bd
000001d0: 86bb b73d ad00 a6bd cb97 bdbb be0b aebd
000001e0: 4a96 b93d ed85 8fbd d6e7 fbbc a7c5 97bd
000001f0: e42f d7bc 2ee7 1e3e 8e80 133e 3565 463e
0.025730275 -0.18352853 -0.040211078 0.019453207 -0.18138286 0.23241647 -0.054460105 -0.0048550223
0.16067581 0.074731015 0.08644537 0.123371005 -0.30157343 -0.15103546 0.081641376 -0.11097515
-0.15349953 -0.07659041 0.01407821 -0.061184883 0.11730274 0.06128361 0.24370591 0.021341158
0.046514865 0.06935459 0.010083227 -0.06322857 -0.012557335 0.08495846 0.111938715 -0.027464133
0.0067983107 -0.06267135 -0.15897714 0.0023237546 -0.014301325 0.067919664 0.055633858 -0.09886301
-0.15541494 0.14182432 -0.013909068 0.1382841 -0.14344127 0.0070317104 0.043480814 0.21181995
0.13015491 0.021669209 -0.14867878 -0.083242424 0.17171896 -0.090416536 0.023203054 0.20755863
-0.115332805 -0.08341473 0.047264103 -0.16886197 0.13965756 0.0027600955 0.09246084 -0.11801565
-0.15783991 -0.08549967 -0.13306876 -0.034085732 0.11267657 -0.021638028 -0.10644672 -0.04103338
0.05376018 0.14023626 -0.041627448 0.15411797 0.07655893 -0.02017253 0.034983084 0.042838134
0.10159686 -0.045553207 0.103143014 -0.0049012257 -0.019688027 -0.058436483 0.09245503 0.09852064
0.2428846 -0.14804956 0.23397754 0.087760545 0.17381474 -0.03455103 -0.05012629 0.00051465956
-0.038150262 0.12226677 0.003746516 -0.03498342 -0.06121705 -0.005840737 -0.035520133 0.09519902
0.16273321 0.029980006 0.126006 -0.038732443 0.032623317 0.13594039 -0.011561683 0.18345086
0.10519431 0.013760305 -0.05827577 -0.10436874 0.08971314 -0.08105598 -0.0057859174 -0.084983334
0.090618685 -0.07007966 -0.030750196 -0.07410746 -0.026267953 0.15517876 0.14404508 0.19374545

actor_fc_layers.blocks.0.block.1.running_mean f4 [128]
00000000: 0000 0000 0000 0000 0000 0000 0000 0000
00000010: 0000 0000 0000 0000 0000 0000 0000 0000
00000020: 0000 0000 0000 0000 0000 0000 0000 0000
00000030: 0000 0000 0000 0000 0000 0000 0000 0000
00000040: 0000 0000 0000 0000 0000 0000 0000 0000
00000050: 0000 0000 0000 0000 0000 0000 0000 0000
00000060: 0000 0000 0000 0000 0000 0000 0000 0000
00000070: 0000 0000 0000 0000 0000 0000 0000 0000
00000080: 0000 0000 0000 0000 0000 0000 0000 0000
00000090: 0000 0000 0000 0000 0000 0000 0000 0000
000000a0: 0000 0000 0000 0000 0000 0000 0000 0000
000000b0: 0000 0000 0000 0000 0000 0000 0000 0000
000000c0: 0000 0000 0000 0000 0000 0000 0000 0000
000000d0: 0000 0000 0000 0000 0000 0000 0000 0000
000000e0: 0000 0000 0000 0000 0000 0000 0000 0000
000000f0: 0000 0000 0000 0000 0000 0000 0000 0000
00000100: 0000 0000 0000 0000 0000 0000 0000 0000
00000110: 0000 0000 0000 0000 0000 0000 0000 0000
00000120: 0000 0000 0000 0000 0000 0000 0000 0000
00000130: 0000 0000 0000 0000 0000 0000 0000 0000
00000140: 0000 0000 0000 0000 0000 0000 0000 0000
00000150: 0000 0000 0000 0000 0000 0000 0000 0000
00000160: 0000 0000 0000 0000 0000 0000 0000 0000
00000170: 0000 0000 0000 0000 0000 0000 0000 0000
00000180: 0000 0000 0000 0000 0000 0000 0000 0000
00000190: 0000 0000 0000 0000 0000 0000 0000 0000
000001a0: 0000 0000 0000 0000 0000 0000 0000 0000
000001b0: 0000 0000 0000 0000 0000 0000 0000 0000
000001c0: 0000 0000 0000 0000 0000 0000 0000 0000
000001d0: 0000 0000 0000 0000 0000 0000 0000 0000
000001e0: 0000 0000 0000 0000 0000 0000 0000 0000
000001f0: 0000 0000 0000 0000 0000 0000 0000 0000
0.0 0.0 0.0 0.0 0.0 0.0 0.0 0.0
0.0 0.0 0.0 0.0 0.0 0.0 0.0 0.0
0.0 0.0 0.0 0.0 0.0 0.0 0.0 0.0
0.0 0.0 0.0 0.0 0.0 0.0 0.0 0.0
0.0 0.0 0.0 0.0 0.0 0.0 0.0 0.0
0.0 0.0 0.0 0.0 0.0 0.0 0.0 0.0
0.0 0.0 0.0 0.0 0.0 0.0 0.0 0.0
0.0 0.0 0.0 0.0 0.0 0.0 0.0 0.0
0.0 0.0 0.0 0.0 0.0 0.0 0.0 0.0
0.0 0.0 0.0 0.0 0.0 0.0 0.0 0.0
0.0 0.0 0.0 0.0 0.0 0.0 0.0 0.0
0.0 0.0 0.0 0.0 0.0 0.0 0.0 0.0
0.0 0.0 0.0 0.0 0.0 0.0 0.0 0.0
0.0 0.0 0.0 0.0 0.0 0.0 0.0 0.0
0.0 0.0 0.0 0.0 0.0 0.0 0.0 0.0
0.0 0.0 0.0 0.0 0.0 0.0 0.0 0.0

actor_fc_layers.blocks.0.block.1.running_var f4 [128]
00000000: 0000 803f 0000 803f 0000 803f 0000 803f
00000010: 0000 803f 0000 803f 0000 803f 0000 803f
00000020: 0000 803f 0000 803f 0000 803f 0000 803f
00000030: 0000 803f 0000 803f 0000 803f 0000 803f
00000040: 0000 803f 0000 803f 0000 803f 0000 803f
00000050: 0000 803f 0000 803f 0000 803f 0000 803f
00000060: 0000 803f 0000 803f 0000 803f 0000 803f
00000070: 0000 803f 0000 803f 0000 803f 0000 803f
00000080: 0000 803f 0000 803f 0000 803f 0000 803f
00000090: 0000 803f 0000 803f 0000 803f 0000 803f
000000a0: 0000 803f 0000 803f 0000 803f 0000 803f
000000b0: 0000 803f 0000 803f 0000 803f 0000 803f
000000c0: 0000 803f 0000 803f 0000 803f 0000 803f
000000d0: 0000 803f 0000 803f 0000 803f 0000 803f
000000e0: 0000 803f 0000 803f 0000 803f 0000 803f
000000f0: 0000 803f 0000 803f 0000 803f 0000 803f
00000100: 0000 803f 0000 803f 0000 803f 0000 803f
00000110: 0000 803f 0000 803f 0000 803f 0000 803f
00000120: 0000 803f 0000 803f 0000 803f 0000 803f
00000130: 0000 803f 0000 803f 0000 803f 0000 803f
00000140: 0000 803f 0000 803f 0000 803f 0000 803f
00000150: 0000 803f 0000 803f 0000 803f 0000 803f
00000160: 0000 803f 0000 803f 0000 803f 0000 803f
00000170: 0000 803f 0000 803f 0000 803f 0000 803f
00000180: 0000 803f 0000 803f 0000 803f 0000 803f
00000190: 0000 803f 0000 803f 0000 803f 0000 803f
000001a0: 0000 803f 0000 803f 0000 803f 0000 803f
000001b0: 0000 803f 0000 803f 0000 803f 0000 803f
000001c0: 0000 803f 0000 803f 0000 803f 0000 803f
000001d0: 0000 803f 0000 803f 0000 803f 0000 803f
000001e0: 0000 803f 0000 803f 0000 803f 0000 803f
000001f0: 0000 803f 0000 803f 0000 803f 0000 803f
1.0 1.0 1.0 1.0 1.0 1.0 1.0 1.0
1.0 1.0 1.0 1.0 1.0 1.0 1.0 1.0
1.0 1.0 1.0 1.0 1.0 1.0 1.0 1.0
1.0 1.0 1.0 1.0 1.0 1.0 1.0 1.0
1.0 1.0 1.0 1.0 1.0 1.0 1.0 1.0
1.0 1.0 1.0 1.0 1.0 1.0 1.0 1.0
1.0 1.0 1.0 1.0 1.0 1.0 1.0 1.0
1.0 1.0 1.0 1.0 1.0 1.0 1.0 1.0
1.0 1.0 1.0 1.0 1.0 1.0 1.0 1.0
1.0 1.0 1.0 1.0 1.0 1.0 1.0 1.0
1.0 1.0 1.0 1.0 1.0 1.0 1.0 1.0
1.0 1.0 1.0 1.0 1.0 1.0 1.0 1.0
1.0 1.0 1.0 1.0 1.0 1.0 1.0 1.0
1.0 1.0 1.0 1.0 1.0 1.0 1.0 1.0
1.0 1.0 1.0 1.0 1.0 1.0 1.0 1.0
1.0 1.0 1.0 1.0 1.0 1.0 1.0 1.0

actor_fc_layers.blocks.1.block.0.weight f4 [128, 128]
00000000: 32b8 273d 5ef6 bcbe 6d9a 873d de07 be3d
00000010: fea7 aebc 3e21 3b3e 9536 6b3b dc1b 58be
00000020: 0803 bf3d b8b1 883e 9f85 383b 03e4 bebe
00000030: 100b e2bd da86 72bd 3c49 753e 066a 9bbe
00000040: 4ff7 d73d 01f5 bd3d a772 583e 6071 803d
00000050: 35cc 9a3e ffc6 133e 99e0 d23e 7a2b f3bd
00000060: 044b 833e 3f0d 273e f6e1 a33d ae9c b43d
00000070: 6ef8 1abe 78c4 cb3d 8ef7 bebe 1404 963d
00000080: 8bc9 7c3c 270c 273d 50da 89be 9682 a6be
00000090: 062c 243c e835 263e fd9b ff3d 264f df3d
000000a0: 8c94 283e be16 143e 5a9f 9ebe 8bca 983d
000000b0: 8e7d 9ebc bd27 7d3e 497e cd3d 32f6 423e
000000c0: 0391 6ebe ac8f 5b3e d5a2 36be db6a f93d
000000d0: 29e4 a8be bfb1 323d f163 5bbd 5b9c 863d
000000e0: 0981 9a3d add5 c1bd 711c 0fbd 9550 b33d
000000f0: e97b 083e 98c7 bc3d 5ad3 3d3d 59ab 52be
00000100: abf2 ec3c 2752 133e 81fb 3ebc c3af fd3c
00000110: 5809 873e fff7 083d aa33 c13d f6c9 84bd
00000120: 04be 7bbc 8f05 a43e 16f1 3b3d 8a5a 143e
00000130: 0db6 083e 571d d33d 9756 503e 6b41 7cbe
00000140: 9c08 e63d 91a0 133d aea3 dabd c6a0 e73d
00000150: a12f e8bb 3e2f 40be 5834 63bc 6a51 8a3d
00000160: 15ef 913d f734 a1bd b93f a1bc e4fb 39be
00000170: 5e71 bcbd 531f aebd 409d 90be ccbc 79be
00000180: eb87 703e 0ff3 9b3e c4b4 be3d 20d0 4bbe
00000190: bb59 15be a3da a73d c089 033d 45a0 44bc
000001a0: ed22 903e 7637 0bbc 88a6 02be b05e 33bd
000001b0: 3a2f 823d ed26 643d 4a3c 303e 6604 9f3e
000001c0: 5bbd 153e 7ce4 043d 59a0 8dbe d06a 81bc
000001d0: 65d2 123d 3c16 51be b03e c73c 3164 acbe
000001e0: cfc7 483e 8a81 67bd a5de be39 afc1 96be
000001f0: d72c 05be 4ad2 dc3d c9e2 5d3e 7625 babe
00000200: 2c7b 60be 184e cdbc a125 fd3d 2029 c23d
00000210: cbcd 5e3b b20d 9f3c c2df f8bd 0f04 9bbe
00000220: 3bc5 bebd 14cf 5b3e 2556 cdbe ba17 debc
00000230: c99c a9bc e70a 033e 883e 983e d11e 7bbe
00000240: b26d 26bd 1117 d43c a32d 4b3e aea0 bf3d
00000250: 1ba8 a5bc d25d 84bd c584 b13d 7f3c 8dba
00000260: cb57 063d 6e7c c5bd 6638 d13d ebd0 4cbd
00000270: 7e79 eabe 7036 0e3e c029 5abd 23f8 b33c
00000280: 3281 53bd d448 f1bc 7888 ecbd f5da 85be
00000290: d98e 953e 9495 febc 323a 70bd 4389 64be
000002a0: 4c90 8e3d 418e c7bd 259b 1bbe 1946 54bb
000002b0: 9c91 ba3d 76a8 303d 7f3f a13e 81dc f53d
000002c0: 4d7d b9be 5f71 723e 8703 90be 8484 643e
000002d0: d19e a0bd c7fa b73d b4a7 b8bc fc8d 35bd
000002e0: eb5b 8b3d 74ec 72be 39ac 47be a648 22be
000002f0: f495 f73c 6e8b 7f3d cb32 51bd ca54 b0bd
00000300: 8c42 603e 8720 92bd 05dc 91bd 8bf2 a43e
00000310: 4a28 be3d 7a31 d1be 48c1 ef3d b535 bfbc
00000320: 2177 02be 1191 b43d b3a8 d53e c417 aabd
00000330: 88fe 853e 5489 603e 3daa c53d 195b 95be
00000340: 49e8 36be 338d 03bf 15e6 25bc 579c 30be
00000350: fe24 943e 32ea 33be 0ec8 c0be 6364 babe
00000360: 4cb2 ce3c 4cdb 13be 08ed 9bbe 388b 0abe
00000370: ab90 803d f552 023e caa5 adbd e029 96bd
00000380: fc0d c33d b9a3 26be bf30 b23d 4100 1cbe
00000390: 292a 8fbe cead 493e 5d98 ce3d 974b 2b3e
000003a0: 31e0 c5bd 737c abbb 64e4 d43d 806f 523e
000003b0: bbbd 1dbe a388 de3b c838 693e c5da 283d
000003c0: 5aad c53d bbaa a23e 320b 913d 2727 ce3d
000003d0: 23a0 04be ab97 ffbd 6207 94be 0cb3 d6bd
000003e0: 0e7e 2b3d b264 63bd f2ea 6c3d 2d34 23be
000003f0: 3c73 a2bd 7dd3 d0bd 4149 413e 1526 98be
0.040947147 -0.36906713 0.06621251 0.09278844 -0.02132034 0.182744 0.0035890688 -0.21104378
0.0932675 0.2669809 0.0028155816 -0.37283334 -0.11037266 -0.059210636 0.23953718 -0.30354327
0.10545217 0.092752464 0.21137486 0.062716246 0.30233923 0.1443138 0.4118698 -0.11873527
0.2564317 0.16313647 0.08002083 0.08818947 -0.15133831 0.09949583 -0.37298244 0.073249966
0.015428911 0.040783074 -0.26924372 -0.32521504 0.010020262 0.16231501 0.12480924 0.10903768
0.16462916 0.144618 -0.3098095 0.07460507 -0.019346979 0.2472219 0.100338526 0.19039229
-0.23297505 0.21441525 -0.17835553 0.12178584 -0.32986572 0.043626543 -0.05356211 0.06572791
0.07544143 -0.094645835 -0.034939233 0.08755604 0.13328518 0.09217757 0.04634414 -0.20573176
0.028924307 0.14386807 -0.011656643 0.030967599 0.26374316 0.033439633 0.09433682 -0.064838335
-0.0153651275 0.3203549 0.045884214 0.14487663 0.13350697 0.103083305 0.20345531 -0.2463433
0.11232111 0.0360418 -0.10675751 0.11309962 -0.007085756 -0.18768021 -0.01386746 0.0675381
0.071256794 -0.0787143 -0.019683706 -0.18162495 -0.092013106 -0.08502068 -0.28244972 -0.24388427
0.23489349 0.30458876 0.09311822 -0.19903612 -0.1458501 0.081959985 0.03211379 -0.012001102
0.28151646 -0.00849711 -0.12758839 -0.043791473 0.06356664 0.055701185 0.17210498 0.31058043
0.14623015 0.032444462 -0.27661398 -0.015798002 0.03584518 -0.20418638 0.024321884 -0.3367019
0.19607471 -0.056520022 0.00036405507 -0.29444644 -0.13005386 0.10782297 0.21668543 -0.36356705
-0.21921986 -0.025061652 0.12360693 0.094805 0.0033997174 0.01941571 -0.121520534 -0.30276534
-0.093149625 0.21465713 -0.40104786 -0.027110923 -0.020704644 0.12797128 0.29735208 -0.24523474
-0.040631957 0.025889905 0.19841628 0.09356819 -0.02022176 -0.06463207 0.08667902 -0.0010775476
0.03279857 -0.09642874 0.10215835 -0.050003927 -0.45795816 0.13887954 -0.053262472 0.021968907
-0.051636882 -0.029453672 -0.11549467 -0.26143613 0.29210547 -0.031077184 -0.05864925 -0.22317986
0.06961116 -0.0974393 -0.15195902 -0.0032390414 0.09109804 0.043129407 0.31493756 0.120049484
-0.3622841 0.2367606 -0.2812769 0.22316176 -0.07842792 0.08983379 -0.022540905 -0.04432486
0.06804641 -0.23723012 -0.19499291 -0.15848026 0.03022287 0.06238883 -0.05107383 -0.08609922
0.21900386 -0.0713511 -0.071220435 0.32216296 0.09285028 -0.4085806 0.11706787 -0.02334104
-0.12740757 0.08816732 0.4173027 -0.08305314 0.26170754 0.21927387 0.09651611 -0.29171064
-0.17862047 -0.5138733 -0.010125657 -0.17247139 0.28934473 -0.17569807 -0.3765263 -0.36404714
0.025231503 -0.14439124 -0.30454278 -0.1352967 0.06277593 0.12726958 -0.084788874 -0.07332206
0.09524152 -0.16273393 0.08700704 -0.15234472 -0.27961853 0.19695207 0.10087655 0.16728054
-0.09661902 -0.0052333414 0.103951246 0.20550346 -0.15404408 0.0067911907 0.22775567 0.04122426
0.09652205 0.31770882 0.070822135 0.100660615 -0.12951712 -0.124801 -0.28911883 -0.10483369
0.041868262 -0.055515952 0.05784125 -0.15937872 -0.079321355 -0.10196588 0.188756 -0.29716554

actor_fc_layers.blocks.1.block.1.weight f4 [128]
00000000: e7e1 a13f 3dc0 a53f d869 7b3f 7187 963f
00000010: fe71 9e3f 6775 7a3f 4175 7c3f d8b9 653f
00000020: 5b57 a63f 8e67 b93f 7189 933f 8e9d 993f
00000030: 6ca2 903f 3bf5 753f 9763 963f 955b 7b3f
00000040: 432a 7e3f c01a 963f d80f 843f ff78 9a3f
00000050: 2f0f 883f bc73 8e3f 9ada 863f 90d9 763f
00000060: 15fb 823f ca72 963f 91cf 793f f074 8f3f
00000070: 5352 6e3f 3078 913f 6453 8e3f 0e83 7b3f
00000080: a615 693f 2d3e 913f 74a0 923f 7198 7e3f
00000090: 00e8 7c3f ab32 7d3f 276b 7a3f 8724 803f
000000a0: 9add 813f ebc4 773f 1315 863f 980a 7d3f
000000b0: 7f7e 7b3f 2207 a03f e6c3 8f3f 7cd9 a53f
000000c0: 462b 8b3f 4f2d a63f a073 6e3f 3b57 7e3f
000000d0: 2565 7a3f bd55 7d3f b73b 6e3f 2b1d 6e3f
000000e0: 028c c03f a4c2 843f 2fc5 7a3f 0b05 9c3f
000000f0: 5076 7a3f f435 9d3f 4e42 7a3f 4cc1 9a3f
00000100: e5a7 a23f 1763 ae3f c0a8 793f a1b1 ad3f
00000110: 4c19 af3f 163b 9e3f 3b80 7b3f 474d 7b3f
00000120: e628 863f 6912 8b3f 37bf 903f 5c13 7e3f
00000130: bd33 873f bb16 883f a745 7d3f ef62 ac3f
00000140: c3e7 933f 61a7 9a3f 76e8 7c3f 798d 923f
00000150: 51de 923f 160d 9d3f 2a3f 953f 050d 823f
00000160: d5fe 833f 021f 773f 5642 823f 8fe2 813f
00000170: 8fb1 8f3f 27f0 963f ae1f 893f 14cc 813f
00000180: 36a5 8e3f c8e9 bd3f e81b 833f 09a0 783f
00000190: 0320 7e3f 907d 9a3f f073 a63f be22 7b3f
000001a0: 54c2 993f 6d51 893f fad4 713f a418 903f
000001b0: e278 a23f 06fd 7b3f 908e 8c3f 3762 953f
000001c0: ec91 973f 384f 9b3f 7585 7b3f 504b 823f
000001d0: 371f 9c3f 4de0 7b3f cee8 7d3f 6515 923f
000001e0: 2a2d b63f 7656 ab3f cec6 ae3f 2779 8a3f
000001f0: 6994 973f 48fb 823f ae99 a23f ebd1 923f
1.2647065 1.2949291 0.9820838 1.1760083 1.2378538 0.9783539 0.98616415 0.897367
1.2995409 1.4484727 1.1526319 1.2001207 1.1299567 0.96077317 1.1749142 0.9818662
0.99283236 1.1726913 1.0317335 1.2068175 1.0629634 1.1129069 1.0535462 0.96425724
1.0232874 1.1753781 0.97582346 1.1207561 0.93094367 1.1364803 1.1119199 0.9824685
0.9104866 1.13471 1.1455216 0.9945136 0.98791504 0.9890544 0.9781975 1.0011147
1.0145752 0.9678485 1.0475181 0.9884429 0.9823989 1.2502177 1.1231658 1.2956996
1.0872581 1.2982577 0.9314518 0.99351853 0.97810584 0.9895895 0.9305987 0.93013257
1.5042727 1.03719 0.9795713 1.2189039 0.9783678 1.228209 0.9775742 1.209024
1.2707487 1.362399 0.9752312 1.3569833 1.3679595 1.2361782 0.9824254 0.9816479
1.0481231 1.0864993 1.1308354 0.9924829 1.0562664 1.0631937 0.98934406 1.3467692
1.1555103 1.208233 0.9879221 1.1449424 1.1474096 1.2269619 1.1659901 1.0160223
1.0312144 0.9653169 1.0176494 1.0147265 1.1226062 1.1792039 1.0712793 1.0140405
1.1144168 1.4836969 1.0242891 0.97119194 0.99267596 1.2069569 1.3004131 0.9809989
1.2012429 1.0727974 0.944656 1.125752 1.269314 0.9843296 1.0981007 1.1670598
1.1841407 1.2133551 0.98250514 1.0179234 1.2197026 0.9838913 0.99183357 1.1412779
1.4232533 1.3385761 1.365442 1.0818223 1.1842166 1.0232935 1.2703149 1.1470312

actor_fc_layers.blocks.1.block.1.bias f4 [128]
00000000: 350e c93d e340 a4bc e88f 8ebc 6b8a cabc
00000010: e539 243e ffcf 17bd 2f86 9dbc 61b8 693d
00000020: 3d3f e53c 550b 31bd 9fa2 be3d 4184 ca3c
00000030: ad42 873d 6439 cbbc f705 233c 48da 03bd
00000040: cca5 a4bc d7df 11bd 9606 f53c 9ed7 753d
00000050: b2ae 843d 3d20 bb3d 0f28 1ebe 57dd 4ebd
00000060: 2126 34bd dcf4 61bc 4875 d3bc d721 013d
00000070: f91b 41bc ef1f a53a 9c73 083d c86b b1bc
00000080: 7cf9 e13d bec6 993d 9b2d 84bb 82f1 83bb
00000090: 11a8 9ebc b687 df3b 008c cdbc 2292 52bb
000000a0: 3f0e 03be 26ae d5bc 2d24 13bd 0009 9dbc
000000b0: e720 aabc bcdf 38bc ba88 493d e588 a43d
000000c0: 3eed bf3d 00f9 563e 185c 703d cd79 bdbb
000000d0: 632a 42bd 4534 81bc 048f c4bb 5eea f9bc
000000e0: 7117 1dbe 78b9 c6bc a8fb bfbc b1b2 563c
000000f0: 3c46 bfbc e182 763d bbd5 d0bc a7af 003c
00000100: 6925 133e 8d28 923d 98d2 09bd 117a 363e
00000110: 5b2e b63d 76b7 3a3d 3b6d ccbc 78b4 cfbc
00000120: 5f02 1e3d 6cf5 583d 2115 b1b9 ad5a eabc
00000130: 7ea1 273e b752 c53c 6326 19bc 6f30 ba3d
00000140: a927 9d3d 473a ab3c c1c4 53bc 8fc9 f33d
00000150: 8341 a33d bc3d dfbb a6e2 e5ba a197 c03c
00000160: dd52 f9bd d30e 1bbd 1356 1f3e 293a f53d
00000170: e66e 36bd c295 efbc b52c 8d3d c5c9 d53d
00000180: 60d1 6c3d 6ce4 8a3d 2087 c13c 8b0b 813d
00000190: 1554 56bc 45cc 153c 3ef6 3f3e 6ad7 b7bc
000001a0: be35 913d 8625 783d cdc6 e6bb 0203 373b
000001b0: 57f4 393d d299 25bc bcca c13d 865e 9cbd
000001c0: a64a b8bc 067d 293e 3e19 d6bc e580 c0bc
000001d0: b5ab cd3c fbd3 d6bc 9c5b f7bc 19f3 093b
000001e0: 83ec 17bd 06f4 693e 1084 b53d 95c0 b43d
000001f0: 14fa 5d3d 95ae febc 1348 f93c 2e33 5c3d
0.09817163 -0.020050472 -0.017402604 -0.024724206 0.1603771 -0.037063595 -0.019229023 0.057060603
0.027984256 -0.043223698 0.09308361 0.024721267 0.06604514 -0.02480764 0.009950153 -0.03219059
-0.02009859 -0.03561386 0.029910367 0.06002008 0.06478633 0.09137008 -0.15444969 -0.050504055
-0.043981675 -0.013791289 -0.02581276 0.031526413 -0.011786454 0.0012598018 0.03331338 -0.02165784
0.110339135 0.0750861 -0.004033757 -0.0040265927 -0.01936725 0.006821598 -0.025091171 -0.003213056
-0.12798403 -0.026084017 -0.03592317 -0.01916933 -0.020767642 -0.011283811 0.04920266 0.08033923
0.09371422 0.20993423 0.058681577 -0.005782342 -0.047403704 -0.015771994 -0.005998494 -0.030507263
-0.15340973 -0.02425836 -0.023435429 0.013104127 -0.02334892 0.06018341 -0.02549254 0.007854379
0.1436974 0.07136641 -0.033648103 0.17820002 0.0889556 0.04558512 -0.024954429 -0.025354609
0.03857648 0.052968428 -0.00033775813 -0.02860769 0.16370198 0.024087293 -0.009347531 0.09091269
0.0767358 0.020901812 -0.012925328 0.119036786 0.0797148 -0.0068127792 -0.001753886 0.023509802
-0.12174008 -0.037855934 0.15560178 0.11973984 -0.044539355 -0.029246215 0.06893293 0.10438875
0.057816863 0.06781849 0.023624003 0.0630103 -0.01308157 0.00914294 0.18746278 -0.022441585
0.07090329 0.06058266 -0.007042742 0.0027925377 0.045399036 -0.010107474 0.09462497 -0.076352164
-0.022496533 0.16551599 -0.026135083 -0.023498962 0.02510629 -0.026224127 -0.03019505 0.0021049439
-0.03709079 0.22846994 0.088630795 0.088257946 0.05419357 -0.031089107 0.030429875 0.053759746

actor_fc_layers.blocks.1.block.1.running_mean f4 [128]
00000000: 0000 0000 0000 0000 0000 0000 0000 0000
00000010: 0000 0000 0000 0000 0000 0000 0000 0000
00000020: 0000 0000 0000 0000 0000 0000 0000 0000
00000030: 0000 0000 0000 0000 0000 0000 0000 0000
00000040: 0000 0000 0000 0000 0000 0000 0000 0000
00000050: 0000 0000 0000 0000 0000 0000 0000 0000
00000060: 0000 0000 0000 0000 0000 0000 0000 0000
00000070: 0000 0000 0000 0000 0000 0000 0000 0000
00000080: 0000 0000 0000 0000 0000 0000 0000 0000
00000090: 0000 0000 0000 0000 0000 0000 0000 0000
000000a0: 0000 0000 0000 0000 0000 0000 0000 0000
000000b0: 0000 0000 0000 0000 0000 0000 0000 0000
000000c0: 0000 0000 0000 0000 0000 0000 0000 0000
000000d0: 0000 0000 0000 0000 0000 0000 0000 0000
000000e0: 0000 0000 0000 0000 0000 0000 0000 0000
000000f0: 0000 0000 0000 0000 0000 0000 0000 0000
00000100: 0000 0000 0000 0000 0000 0000 0000 0000
00000110: 0000 0000 0000 0000 0000 0000 0000 0000
00000120: 0000 0000 0000 0000 0000 0000 0000 0000
00000130: 0000 0000 0000 0000 0000 0000 0000 0000
00000140: 0000 0000 0000 0000 0000 0000 0000 0000
00000150: 0000 0000 0000 0000 0000 0000 0000 0000
00000160: 0000 0000 0000 0000 0000 0000 0000 0000
00000170: 0000 0000 0000 0000 0000 0000 0000 0000
00000180: 0000 0000 0000 0000 0000 0000 0000 0000
00000190: 0000 0000 0000 0000 0000 0000 0000 0000
000001a0: 0000 0000 0000 0000 0000 0000 0000 0000
000001b0: 0000 0000 0000 0000 0000 0000 0000 0000
000001c0: 0000 0000 0000 0000 0000 0000 0000 0000
000001d0: 0000 0000 0000 0000 0000 0000 0000 0000
000001e0: 0000 0000 0000 0000 0000 0000 0000 0000
000001f0: 0000 0000 0000 0000 0000 0000 0000 0000
0.0 0.0 0.0 0.0 0.0 0.0 0.0 0.0
0.0 0.0 0.0 0.0 0.0 0.0 0.0 0.0
0.0 0.0 0.0 0.0 0.0 0.0 0.0 0.0
0.0 0.0 0.0 0.0 0.0 0.0 0.0 0.0
0.0 0.0 0.0 0.0 0.0 0.0 0.0 0.0
0.0 0.0 0.0 0.0 0.0 0.0 0.0 0.0
0.0 0.0 0.0 0.0 0.0 0.0 0.0 0.0
0.0 0.0 0.0 0.0 0.0 0.0 0.0 0.0
0.0 0.0 0.0 0.0 0.0 0.0 0.0 0.0
0.0 0.0 0.0 0.0 0.0 0.0 0.0 0.0
0.0 0.0 0.0 0.0 0.0 0.0 0.0 0.0
0.0 0.0 0.0 0.0 0.0 0.0 0.0 0.0
0.0 0.0 0.0 0.0 0.0 0.0 0.0 0.0
0.0 0.0 0.0 0.0 0.0 0.0 0.0 0.0
0.0 0.0 0.0 0.0 0.0 0.0 0.0 0.0
0.0 0.0 0.0 0.0 0.0 0.0 0.0 0.0

actor_fc_layers.blocks.1.block.1.running_var f4 [128]
00000000: 0000 803f 0000 803f 0000 803f 0000 803f
00000010: 0000 803f 0000 803f 0000 803f 0000 803f
00000020: 0000 803f 0000 803f 0000 803f 0000 803f
00000030: 0000 803f 0000 803f 0000 803f 0000 803f
00000040: 0000 803f 0000 803f 0000 803f 0000 803f
00000050: 0000 803f 0000 803f 0000 803f 0000 803f
00000060: 0000 803f 0000 803f 0000 803f 0000 803f
00000070: 0000 803f 0000 803f 0000 803f 0000 803f
00000080: 0000 803f 0000 803f 0000 803f 0000 803f
00000090: 0000 803f 0000 803f 0000 803f 0000 803f
000000a0: 0000 803f 0000 803f 0000 803f 0000 803f
000000b0: 0000 803f 0000 803f 0000 803f 0000 803f
000000c0: 0000 803f 0000 803f 0000 803f 0000 803f
000000d0: 0000 803f 0000 803f 0000 803f 0000 803f
000000e0: 0000 803f 0000 803f 0000 803f 0000 803f
000000f0: 0000 803f 0000 803f 0000 803f 0000 803f
00000100: 0000 803f 0000 803f 0000 803f 0000 803f
00000110: 0000 803f 0000 803f 0000 803f 0000 803f
00000120: 0000 803f 0000 803f 0000 803f 0000 803f
00000130: 0000 803f 0000 803f 0000 803f 0000 803f
00000140: 0000 803f 0000 803f 0000 803f 0000 803f
00000150: 0000 803f 0000 803f 0000 803f 0000 803f
00000160: 0000 803f 0000 803f 0000 803f 0000 803f
00000170: 0000 803f 0000 803f 0000 803f 0000 803f
00000180: 0000 803f 0000 803f 0000 803f 0000 803f
00000190: 0000 803f 0000 803f 0000 803f 0000 803f
000001a0: 0000 803f 0000 803f 0000 803f 0000 803f
000001b0: 0000 803f 0000 803f 0000 803f 0000 803f
000001c0: 0000 803f 0000 803f 0000 803f 0000 803f
000001d0: 0000 803f 0000 803f 0000 803f 0000 803f
000001e0: 0000 803f 0000 803f 0000 803f 0000 803f
000001f0: 0000 803f 0000 803f 0000 803f 0000 803f
1.0 1.0 1.0 1.0 1.0 1.0 1.0 1.0
1.0 1.0 1.0 1.0 1.0 1.0 1.0 1.0
1.0 1.0 1.0 1.0 1.0 1.0 1.0 1.0
1.0 1.0 1.0 1.0 1.0 1.0 1.0 1.0
1.0 1.0 1.0 1.0 1.0 1.0 1.0 1.0
1.0 1.0 1.0 1.0 1.0 1.0 1.0 1.0
1.0 1.0 1.0 1.0 1.0 1.0 1.0 1.0
1.0 1.0 1.0 1.0 1.0 1.0 1.0 1.0
1.0 1.0 1.0 1.0 1.0 1.0 1.0 1.0
1.0 1.0 1.0 1.0 1.0 1.0 1.0 1.0
1.0 1.0 1.0 1.0 1.0 1.0 1.0 1.0
1.0 1.0 1.0 1.0 1.0 1.0 1.0 1.0
1.0 1.0 1.0 1.0 1.0 1.0 1.0 1.0
1.0 1.0 1.0 1.0 1.0 1.0 1.0 1.0
1.0 1.0 1.0 1.0 1.0 1.0 1.0 1.0
1.0 1.0 1.0 1.0 1.0 1.0 1.0 1.0

actor_fc_layers.blocks.2.block.0.weight f4 [128, 128]
00000000: cd3b 303e c781 d63e 8d0f 7b3d 6f43 563e
00000010: 6726 0f3e 8856 7b3d 6bea 5a3d ce7d 14be
00000020: 2e26 cc3e b424 6bbc bc80 a73d 0fa3 493e
00000030: 7fda 4b3e abeb b1bd 11cb 44be 537b 17bc
00000040: 4efd f63c 811f 103e 4169 e3bd cbcb 94bd
00000050: e465 e13c a8c4 54bd 8013 363d 13a8 403d
00000060: 1fe5 06be 16f5 ee3d 52f1 973c ad19 023e
00000070: 2068 d5bc 322d 8cbe 56a9 063e eba5 41bd
00000080: a9de c83d 1bbf 3fbc 944b bcbd ef0b 1dbd
00000090: c075 5e3d 31b2 a63d 1b2c b5bd 8074 aebb
000000a0: 44f5 723d fbf3 b73d 2fe1 d8bc ed10 08bd
000000b0: 7c57 7b3d bc91 b53e d101 10be 209d b9bd
000000c0: 05ba 833e 4f91 373e db49 153e 1840 dc3c
000000d0: 6a4b e8bc 4f0f 923d e6b5 45be cba0 8abd
000000e0: f903 b0bd dfc2 223e 661e ab3d ea80 9fbe
000000f0: d0e9 f83c 4529 86be 2e97 8bbd 9282 773e
00000100: 2d3e f83d dfb1 5f3e 2bf4 e2bc 1367 263e
00000110: 83e0 8b3c b323 2bbe 8eae 85ba a7cc 853c
00000120: 5a42 273d 4da1 3cbd 32a4 4c3e ac37 2d3d
00000130: 493a 3c3e aeed 56be 9235 303d 4b25 2cbb
00000140: e103 52be 7c4c 0dbd 3f59 13bd 4c75 593e
00000150: e6de a5be a87c c43e 1ca7 813e 0b31 a23d
00000160: dcec 9d3d 6581 6bbd 460d a33b e729 fe3d
00000170: c73a 4c3e f9bd 8f3e a34f 2d3e d7f3 eb3c
00000180: c1dd c1bc 8095 b9bd c31f 8f3e 8615 02be
00000190: 9361 74bc 3ec6 d9bd 90d1 f53d 7245 97bd
000001a0: db52 893e c7a0 123e 87c1 2138 bcc9 1d3e
000001b0: 4d53 35be 8330 373d 980d 843e 2860 4f3e
000001c0: c46c 953e db8f 133e 1bd8 093d d9b2 89bd
000001d0: cdc2 a1be 1d62 603c fa41 43bd aed3 813e
000001e0: 6f55 9abe cfbd c93d c812 93bc 5acb 503e
000001f0: 1727 623e e395 3cbe 6e26 db3e 3b1e 8ebe
00000200: 5411 01be fe57 0cbe 3f63 acbb 0eb0 5fbe
00000210: f855 10be 7c92 b1bd c583 bcbc 0e8a 56bd
00000220: bafa 553e 1a56 043e e446 123e 6027 f33d
00000230: c896 593d a2ec a83d cb93 a2bd d6e2 93bd
00000240: d83c 813d 9451 013e def0 85bd 6411 e23c
00000250: 3115 94bd 2f8c 033e b370 623d c460 2f3d
00000260: f867 0a3e 45cd 263e 0c6c 28bd 5b4a adbd
00000270: 5f7e 5abd 2fb4 45bc b7ae a13d 979a a2bd
00000280: 5b84 6b3d 632d 2abd 46c5 4d3d fa82 83bc
00000290: 5cd1 1d3d dd24 32bd a713 5e3d 45a6 58be
000002a0: b4c7 4f3d 36f6 b73c d031 9ebd 90c7 2e3d
000002b0: be1e 3abd 9f98 403e 4c30 38bd 5bb3 09be
000002c0: 8b51 05be 0b0f 90be 4611 fc3b f7af 1c3d
000002d0: a3b8 213d c8c9 4a3d 7b73 cbbc 5f13 e43d
000002e0: 7143 863e 919e b73d b836 76bd a17d 723b
000002f0: d6fa a23c b8a5 d9bd 5db2 8ebb 0518 43be
00000300: 175c ccbd 1b6d 80be ffc0 8bbd 4045 9cbd
00000310: 9222 72be b16b 2ebe 9be1 6c3d 0720 d2bd
00000320: 686f 3b3e cc00 dc3d 4525 b03d 152a 1d3c
00000330: 478c aabd b9d7 96bd 9a29 193d 0361 873e
00000340: cb0f 1abd 9f30 dd3d 7ea9 473d c406 19be
00000350: 6901 09be 57e0 9e3d 359e 1b3d 7d5d d33d
00000360: 524a 793e baa8 73bc cc43 9ebd e4e1 26be
00000370: 55aa fa3d 2beb b93c a4ef 2bbe d19c 66bd
00000380: be53 92bd 0681 09bd ceb7 d6bd e975 81bd
00000390: 040e bdbd 9758 4d3d b287 9fbe 74f8 22bb
000003a0: 76ee 43be ccb7 35bd 3a19 1b3d 506c aa3d
000003b0: f9fe 813d 44ec 6c3d 4de7 44bd 280f 593e
000003c0: 424f 17be 0a7c 46be ade2 7ebd cbf4 d9bb
000003d0: 6b74 873d 00ab 753d 13fa 13bd da32 d9bd
000003e0: 7ad7 123e 57fb 41be f3bc 0dbe e40c 5ebc
000003f0: d254 d8bd 6bba cabd 9b59 1c3e f032 af3b
0.17210312 0.41895887 0.061294127 0.20924161 0.13979493 0.06136182 0.053446215 -0.14501116
0.3987288 -0.014352012 0.08178851 0.19691108 0.19907568 -0.08687528 -0.19218089 -0.009245711
0.030150082 0.14074518 -0.1110406 -0.07265433 0.027514406 -0.05194536 0.04445219 0.047035288
-0.1317334 0.1166784 0.018547688 0.12705107 -0.026050627 -0.2737823 0.13150534 -0.047277372
0.09808094 -0.011703278 -0.09194103 -0.03834146 0.054311514 0.08139456 -0.08846303 -0.0053239465
0.059315935 0.089820825 -0.026474563 -0.033219267 0.06136273 0.3546275 -0.14063193 -0.09063172
0.2572786 0.17926525 0.14578955 0.026886031 -0.028356273 0.07131826 -0.1930767 -0.0676895
-0.08594508 0.1589465 0.083554074 -0.3115304 0.030384928 -0.2620336 -0.068159446 0.24170902
0.12121234 0.21845196 -0.027704319 0.16250257 0.017074829 -0.16712837 -0.0010199116 0.016332937
0.040834762 -0.046052266 0.1998451 0.04228942 0.18381609 -0.20989105 0.04301984 -0.0026267346
-0.20509292 -0.03449677 -0.035973784 0.21236151 -0.3239662 0.38376355 0.25322807 0.079195105
0.07711193 -0.057496447 0.0049759476 0.12410336 0.19944297 0.28074625 0.1692491 0.028802795
-0.02366531 -0.09061718 0.2795392 -0.12703523 -0.014915842 -0.10633515 0.120028615 -0.073862925
0.26821026 0.14319144 3.8565628e-05 0.15408987 -0.17707558 0.044724 0.2579162 0.20251524
0.29184544 0.14410345 0.03365336 -0.067235656 -0.31593934 0.013695267 -0.047670342 0.2535681
-0.30143306 0.09850656 -0.017953292 0.20390072 0.22085224 -0.18416552 0.42802757 -0.2775744
-0.12604266 -0.13705441 -0.0052608545 -0.21844503 -0.14095294 -0.08670518 -0.023012051 -0.052377753
0.20896426 0.1292347 0.14284855 0.118727446 0.05312231 0.08248259 -0.079383455 -0.07221
0.06310433 0.12628776 -0.065400824 0.027596183 -0.072306044 0.12846445 0.05528326 0.042816892
0.13516223 0.16289242 -0.041118667 -0.08461448 -0.053343173 -0.012066885 0.07894652 -0.07939642
0.05749927 -0.04154719 0.050236963 -0.016053665 0.03852974 -0.043492187 0.05421796 -0.21157177
0.05072756 0.02245627 -0.07724345 0.042670786 -0.045439474 0.1880822 -0.044967934 -0.13447325
-0.13019387 -0.28136477 0.007692489 0.03825375 0.039482724 0.04950884 -0.024835339 0.11136507
0.2622333 0.08965791 -0.060110778 0.003700115 0.019894999 -0.106273115 -0.0043547587 -0.19052131
-0.09978502 -0.2508324 -0.068239205 -0.07630396 -0.23646 -0.17033269 0.05783234 -0.10260015
0.18304217 0.107423395 0.086008586 0.009592553 -0.08327537 -0.073653646 0.03739319 0.26441202
-0.037612718 0.10800289 0.048745625 -0.14943987 -0.13379444 0.07757633 0.037992675 0.10320566
0.24344757 -0.0148717705 -0.07727775 -0.16297108 0.122395195 0.022695145 -0.16790634 -0.056301896
-0.07144879 -0.033570312 -0.10484277 -0.06321318 -0.09231189 0.050133314 -0.31158215 -0.0024867328
-0.19133934 -0.044364735 0.037865855 0.0832144 0.0634746 0.057842508 -0.048072148 0.21197188
-0.14776328 -0.19383255 -0.062227894 -0.006651496 0.06614002 0.05997753 -0.03612716 -0.10605402
0.1434001 -0.18943535 -0.1384161 -0.013552878 -0.10563053 -0.09898838 0.15268557 0.0053466484

actor_fc_layers.blocks.2.block.1.weight f4 [128]
00000000: c7fb a53f 5321 7a3f bc59 823f 5b42 b13f
00000010: 1d8e 7f3f 5a4c 7c3f b132 a53f 585e 853f
00000020: b414 aa3f e735 7a3f c35a 8d3f 01d3 793f
00000030: 05b0 993f b044 953f 034c 803f 5a98 9e3f
00000040: 9be0 b13f 7ffb 773f 1a58 733f 69f5 953f
00000050: 8a7e 8f3f 6b20 9a3f 39b4 8d3f 3d42 a43f
00000060: 25c3 7a3f 9f28 783f f35b 8b3f 4b13 903f
00000070: f980 7c3f 6fd8 833f b5d3 8a3f 7c2e 773f
00000080: 5fc1 823f 9344 7d3f b20a 753f 2e16 963f
00000090: f56b ab3f 5901 7c3f 6e23 833f dd58 953f
000000a0: c98b 7e3f f8c3 7e3f 5be1 913f 6266 973f
000000b0: 86a6 823f 87fc 9c3f 61fe fd3f 1da0 753f
000000c0: 98de 7b3f 989a 8c3f 3602 d23f 3ca5 8d3f
000000d0: b901 7a3f 2b62 993f 81f2 9e3f d63b 843f
000000e0: ea1f 993f c086 7c3f 88e1 813f df48 773f
000000f0: 914a b23f bb59 7f3f 68af 763f 478a 793f
00000100: 38f1 6f3f b608 973f cd19 7f3f 272c 983f
00000110: b984 ce3f 6d12 cd3f 1a77 7c3f 15a4 a53f
00000120: 696f c93f 7aab 8b3f fb99 813f d723 8f3f
00000130: 7907 923f b7c6 943f c484 7a3f 6695 8e3f
00000140: 64d8 923f ab9b a33f ac73 993f bfca a93f
00000150: 72fa 763f fb23 883f 9dd4 f23f db4a 763f
00000160: 6921 8e3f 59ee 933f 1aa5 863f 084c 823f
00000170: dfcd 923f 4ab6 9d3f fb34 983f ac2f 7b3f
00000180: 3f82 993f 1361 a63f 35cc 803f b702 9c3f
00000190: b4fd 913f 184d b03f cf34 933f 9b36 983f
000001a0: ce53 793f 0000 803f 0708 af3f 42d6 953f
000001b0: 784f 993f 1996 7d3f 5a40 9e3f ebd2 7e3f
000001c0: ca1f 773f 7a99 8a3f 0955 903f fe6a 7b3f
000001d0: 7d76 7f3f 5e87 953f d711 873f 7138 793f
000001e0: faa4 8e3f d604 983f 8484 8c3f 4044 893f
000001f0: f06b 7f3f bd6c 8e3f b83e 8f3f 3ff0 973f
1.2967461 0.977071 1.0183635 1.3848375 0.9982622 0.98554003 1.2906095 1.0419416
1.3287568 0.977385 1.1043323 0.9758759 1.2006842 1.1661587 1.0023197 1.2390244
1.3896669 0.9686813 0.9505631 1.1715518 1.1210492 1.2041143 1.1070625 1.2832714
0.97954017 0.9693698 1.0887436 1.1255888 0.98634297 1.0300425 1.0845858 0.96555305
1.0215262 0.9893276 0.95719445 1.1725519 1.3392321 0.98439556 1.0245187 1.1667744
0.99432045 0.99517775 1.1396898 1.182812 1.0207069 1.2264565 1.9843255 0.9594744
0.98386526 1.0984678 1.6406925 1.106605 0.9765888 1.1983083 1.2417756 1.033076
1.1962864 0.9864311 1.0146952 0.9659557 1.3929006 0.9974629 0.963614 0.9747662
0.93727446 1.1799533 0.99648744 1.1888474 1.6134254 1.6021248 0.98619235 1.2940699
1.5737125 1.0911705 1.0125116 1.1182812 1.140853 1.1623143 0.97858834 1.1139343
1.1472287 1.2781881 1.1988425 1.3264998 0.964759 1.063598 1.8971134 0.9620797
1.1103946 1.1557113 1.0519135 1.0179453 1.1469077 1.2321255 1.1891168 0.98119617
1.1992873 1.2998375 1.0062319 1.2188329 1.1405549 1.3773527 1.1500491 1.1891664
0.973935 1.0 1.3674325 1.1706011 1.1977377 0.99057156 1.2363389 0.99540585
0.9653288 1.0828087 1.1275951 0.9821013 0.99790174 1.1681936 1.0552319 0.9735175
1.1144097 1.1876476 1.097794 1.0723953 0.99774075 1.1126934 1.1191015 1.1870192

actor_fc_layers.blocks.2.block.1.bias f4 [128]
00000000: 019f 993c 436d 51bd 0f5c c5bd f015 893d
00000010: 23cc 03bc 574d 63bd b937 903c 0032 2c3d
00000020: f9bc 953d a4fc 01be 66ce b43d caeb d1bc
00000030: 7f1f f03c 25a0 963d 2c4b ea3c b99f fd3d
00000040: 099e ec3d fd01 11bd dc99 fcbc ac0b fb3d
00000050: f0a8 91bc 4bfa 033e 45de bc3d 37e8 883d
00000060: 4027 06bd f022 f3bc 3171 a53d 2a07 dc3c
00000070: bbae 0dbd 0c4a 44bd a539 1b3b 3dfa efbd
00000080: f701 2bbb d9b9 49bc 683b cebd d134 99be
00000090: 0a43 1a3d f9ee 8ebc d4b0 87bd af78 0a3e
000000a0: 796e f6bb 1f89 e7bd a68d 9e3d 4f8f 763d
000000b0: f380 7dbd 178a 2e3c fc53 adbd 78bc 45bd
000000c0: 4ffe 96bc edd7 fc3c 09be 6ebd a957 c43c
000000d0: 800a d1bc e64b 6dbd b08d 693d 3161 e8bd
000000e0: 35b2 123e 09e1 c5bc 6e26 adbd 1f78 0bbd
000000f0: a22e 2c3e 0f75 2abe f0b1 14bd e321 b0bb
00000100: 5833 9cbc 0ff4 833d d296 88bb 089e a63e
00000110: 8d2e 23be c186 e8bd 5293 d3bc 4fc5 bb3c
00000120: 69c7 9dbd e439 f7b8 9f62 9dbd a98e 8c3d
00000130: 45f2 fe3c ce21 3e3e a2f4 cbbc 8525 083e
00000140: 506a af3d bb02 983d da84 bc3d 0c9e 0b3d
00000150: 45ab 39bd c7db 6a3d 3019 c0bd 89c9 32bd
00000160: 7cf1 33bb 220b 923e 5b7d bebd 4c46 4cbd
00000170: 3810 213d 5841 b7bd eefe 55bd c327 85bc
00000180: 94bc 603c feec 6cbd 7f85 62be 89f3 293e
00000190: 824a d83d 012f 5b3d 170a 0e3d 4a22 3e3e
000001a0: f0b4 8abd 0000 0000 672d 7fbd e8dd a43c
000001b0: 0cf8 c83c 978a babc d647 2f3d 6f33 1cbe
000001c0: 8092 12be 29da 813d b976 f53d a515 f3bc
000001d0: 22bb 97bb 9144 c33d f399 843d f8b0 2dbc
000001e0: 1397 653e a52e 97bd 606f 2dbd 0955 063e
000001f0: 7eeb e1bb 7ba3 6bbd 1933 743e 2f06 f73d
0.018752577 -0.05112959 -0.096366994 0.06693637 -0.008044275 -0.05549368 0.017604696 0.04203987
0.07311434 -0.12694031 0.0882843 -0.025625128 0.029311894 0.07354764 0.028600298 0.1238398
0.1155358 -0.035402287 -0.030835085 0.122580856 -0.017780751 0.12888448 0.09222082 0.066849165
-0.032752275 -0.029679745 0.0807823 0.026858885 -0.034590464 -0.04792218 0.0023685482 -0.11717651
-0.00260937 -0.012312376 -0.100699246 -0.29923108 0.03766159 -0.017447935 -0.06625524 0.135226
-0.0075204936 -0.11305451 0.07741861 0.060195263 -0.061890554 0.01065304 -0.084632844 -0.04827544
-0.01843181 0.03086468 -0.0582867 0.02396758 -0.025517702 -0.05793371 0.05701989 -0.11346663
0.14325793 -0.024155157 -0.084545955 -0.034050103 0.16814664 -0.16646217 -0.036302507 -0.0053751334
-0.019067451 0.06443035 -0.00416837 0.32542443 -0.15935726 -0.11353827 -0.025827084 0.022921233
-0.0770405 -0.00011788661 -0.07684826 0.06863148 0.031121382 0.18567583 -0.024896923 0.13295563
0.085651994 0.07422396 0.09205027 0.034086272 -0.04532935 0.057338502 -0.09379804 -0.04364923
-0.0027457168 0.2852412 -0.093012534 -0.049871728 0.039322108 -0.0894801 -0.052245073 -0.016254311
0.0137168355 -0.0578432 -0.22121237 0.16596808 0.10561086 0.053511623 0.03467759 0.18567768
-0.06772792 0.0 -0.06229916 0.020125344 0.02453234 -0.022771163 0.042793117 -0.15253995
-0.14313698 0.06340439 0.11985535 -0.029673407 -0.0046304623 0.095345624 0.06474676 -0.010601275
0.22420911 -0.073819436 -0.042342544 0.13118376 -0.006894528 -0.057528954 0.23847617 0.12061726

actor_fc_layers.blocks.2.block.1.running_mean f4 [128]
00000000: 0000 0000 0000 0000 0000 0000 0000 0000
00000010: 0000 0000 0000 0000 0000 0000 0000 0000
00000020: 0000 0000 0000 0000 0000 0000 0000 0000
00000030: 0000 0000 0000 0000 0000 0000 0000 0000
00000040: 0000 0000 0000 0000 0000 0000 0000 0000
00000050: 0000 0000 0000 0000 0000 0000 0000 0000
00000060: 0000 0000 0000 0000 0000 0000 0000 0000
00000070: 0000 0000 0000 0000 0000 0000 0000 0000
00000080: 0000 0000 0000 0000 0000 0000 0000 0000
00000090: 0000 0000 0000 0000 0000 0000 0000 0000
000000a0: 0000 0000 0000 0000 0000 0000 0000 0000
000000b0: 0000 0000 0000 0000 0000 0000 0000 0000
000000c0: 0000 0000 0000 0000 0000 0000 0000 0000
000000d0: 0000 0000 0000 0000 0000 0000 0000 0000
000000e0: 0000 0000 0000 0000 0000 0000 0000 0000
000000f0: 0000 0000 0000 0000 0000 0000 0000 0000
00000100: 0000 0000 0000 0000 0000 0000 0000 0000
00000110: 0000 0000 0000 0000 0000 0000 0000 0000
00000120: 0000 0000 0000 0000 0000 0000 0000 0000
00000130: 0000 0000 0000 0000 0000 0000 0000 0000
00000140: 0000 0000 0000 0000 0000 0000 0000 0000
00000150: 0000 0000 0000 0000 0000 0000 0000 0000
00000160: 0000 0000 0000 0000 0000 0000 0000 0000
00000170: 0000 0000 0000 0000 0000 0000 0000 0000
00000180: 0000 0000 0000 0000 0000 0000 0000 0000
00000190: 0000 0000 0000 0000 0000 0000 0000 0000
000001a0: 0000 0000 0000 0000 0000 0000 0000 0000
000001b0: 0000 0000 0000 0000 0000 0000 0000 0000
000001c0: 0000 0000 0000 0000 0000 0000 0000 0000
000001d0: 0000 0000 0000 0000 0000 0000 0000 0000
000001e0: 0000 0000 0000 0000 0000 0000 0000 0000
000001f0: 0000 0000 0000 0000 0000 0000 0000 0000
0.0 0.0 0.0 0.0 0.0 0.0 0.0 0.0
0.0 0.0 0.0 0.0 0.0 0.0 0.0 0.0
0.0 0.0 0.0 0.0 0.0 0.0 0.0 0.0
0.0 0.0 0.0 0.0 0.0 0.0 0.0 0.0
0.0 0.0 0.0 0.0 0.0 0.0 0.0 0.0
0.0 0.0 0.0 0.0 0.0 0.0 0.0 0.0
0.0 0.0 0.0 0.0 0.0 0.0 0.0 0.0
0.0 0.0 0.0 0.0 0.0 0.0 0.0 0.0
0.0 0.0 0.0 0.0 0.0 0.0 0.0 0.0
0.0 0.0 0.0 0.0 0.0 0.0 0.0 0.0
0.0 0.0 0.0 0.0 0.0 0.0 0.0 0.0
0.0 0.0 0.0 0.0 0.0 0.0 0.0 0.0
0.0 0.0 0.0 0.0 0.0 0.0 0.0 0.0
0.0 0.0 0.0 0.0 0.0 0.0 0.0 0.0
0.0 0.0 0.0 0.0 0.0 0.0 0.0 0.0
0.0 0.0 0.0 0.0 0.0 0.0 0.0 0.0

actor_fc_layers.blocks.2.block.1.running_var f4 [128]
00000000: 0000 803f 0000 803f 0000 803f 0000 803f
00000010: 0000 803f 0000 803f 0000 803f 0000 803f
00000020: 0000 803f 0000 803f 0000 803f 0000 803f
00000030: 0000 803f 0000 803f 0000 803f 0000 803f
00000040: 0000 803f 0000 803f 0000 803f 0000 803f
00000050: 0000 803f 0000 803f 0000 803f 0000 803f
00000060: 0000 803f 0000 803f 0000 803f 0000 803f
00000070: 0000 803f 0000 803f 0000 803f 0000 803f
00000080: 0000 803f 0000 803f 0000 803f 0000 803f
00000090: 0000 803f 0000 803f 0000 803f 0000 803f
000000a0: 0000 803f 0000 803f 0000 803f 0000 803f
000000b0: 0000 803f 0000 803f 0000 803f 0000 803f
000000c0: 0000 803f 0000 803f 0000 803f 0000 803f
000000d0: 0000 803f 0000 803f 0000 803f 0000 803f
000000e0: 0000 803f 0000 803f 0000 803f 0000 803f
000000f0: 0000 803f 0000 803f 0000 803f 0000 803f
00000100: 0000 803f 0000 803f 0000 803f 0000 803f
00000110: 0000 803f 0000 803f 0000 803f 0000 803f
00000120: 0000 803f 0000 803f 0000 803f 0000 803f
00000130: 0000 803f 0000 803f 0000 803f 0000 803f
00000140: 0000 803f 0000 803f 0000 803f 0000 803f
00000150: 0000 803f 0000 803f 0000 803f 0000 803f
00000160: 0000 803f 0000 803f 0000 803f 0000 803f
00000170: 0000 803f 0000 803f 0000 803f 0000 803f
00000180: 0000 803f 0000 803f 0000 803f 0000 803f
00000190: 0000 803f 0000 803f 0000 803f 0000 803f
000001a0: 0000 803f 0000 803f 0000 803f 0000 803f
000001b0: 0000 803f 0000 803f 0000 803f 0000 803f
000001c0: 0000 803f 0000 803f 0000 803f 0000 803f
000001d0: 0000 803f 0000 803f 0000 803f 0000 803f
000001e0: 0000 803f 0000 803f 0000 803f 0000 803f
000001f0: 0000 803f 0000 803f 0000 803f 0000 803f
1.0 1.0 1.0 1.0 1.0 1.0 1.0 1.0
1.0 1.0 1.0 1.0 1.0 1.0 1.0 1.0
1.0 1.0 1.0 1.0 1.0 1.0 1.0 1.0
1.0 1.0 1.0 1.0 1.0 1.0 1.0 1.0
1.0 1.0 1.0 1.0 1.0 1.0 1.0 1.0
1.0 1.0 1.0 1.0 1.0 1.0 1.0 1.0
1.0 1.0 1.0 1.0 1.0 1.0 1.0 1.0
1.0 1.0 1.0 1.0 1.0 1.0 1.0 1.0
1.0 1.0 1.0 1.0 1.0 1.0 1.0 1.0
1.0 1.0 1.0 1.0 1.0 1.0 1.0 1.0
1.0 1.0 1.0 1.0 1.0 1.0 1.0 1.0
1.0 1.0 1.0 1.0 1.0 1.0 1.0 1.0
1.0 1.0 1.0 1.0 1.0 1.0 1.0 1.0
1.0 1.0 1.0 1.0 1.0 1.0 1.0 1.0
1.0 1.0 1.0 1.0 1.0 1.0 1.0 1.0
1.0 1.0 1.0 1.0 1.0 1.0 1.0 1.0
