saved_models/agent_maddpgv2_vs_opp_maddpgv2_1_vs_1_1_big_5_sec_adver_best_models/maddpgv2_actor_0.pt (torch, 155659 bytes, 21 tensors)

actor_fc_layers.blocks.0.block.0.weight f4 [128, 12]
0	0x3e1a347f	0.15059088
1	0xbca1efa7	-0.019767595
2	0x3e8f81da	0.28028756
3	0xbe34de04	-0.17662817
4	0x3bfaa7b9	0.0076493886
5	0x3e1d2e66	0.15349731
6	0x3cb314a4	0.021860428
7	0xbe7ededd	-0.24889703
8	0x3d8857fe	0.06657408
9	0xbc955b36	-0.01823197
10	0xbe5feb89	-0.21867193
11	0xbea5af58	-0.3236034
12	0xbda13f62	-0.078734174
13	0xbd307229	-0.04307762
14	0xbef6d18e	-0.48206753
15	0x3f248c34	0.64276433
16	0x3e766219	0.24060859
17	0x3ea6943f	0.32534978
18	0x3e866658	0.26249957
19	0x3ea4b6ed	0.3217081
20	0x3e694688	0.22780812
21	0xbc7f9399	-0.015599155
22	0xbdc5422d	-0.09631763
23	0xbcd6f53f	-0.02623999
24	0x3ddd4296	0.10803716
25	0x3b03dbe5	0.002012008
26	0x3dfdf55c	0.12400314
27	0xbf4a8ccc	-0.7912109
28	0xbf027448	-0.5095868
29	0x3dcabe82	0.09899618
30	0xbe5c69c7	-0.21524726
31	0xbce97135	-0.028496364
32	0x3e8dd574	0.27701914
33	0xbc1c6850	-0.009546354
34	0xbb8b0288	-0.004242245
35	0x3d019357	0.031634655
36	0x3e8a09d3	0.2696062
37	0x3d08f861	0.033439998
38	0x3e8a9892	0.27069527
39	0xbf21547a	-0.63019526
40	0x3d3d9170	0.046281278
41	0xbdf71ca9	-0.12066013
42	0x3d7ea49e	0.06216871
43	0xbe496e8a	-0.19671074
44	0x3ba99f74	0.005176479
45	0x3d9e7ac1	0.07738257
46	0xbe664cc7	-0.22490226
47	0xbeb10d0e	-0.34580272
48	0xbe48b547	-0.19600402
49	0x3cce0a1c	0.025151305
50	0xbe11aecc	-0.14226836
51	0x3ee8734b	0.45400462
52	0x3ea983e4	0.33108437
53	0x3ebd5195	0.36976305
54	0x3e4174bf	0.18892191
55	0x3f1c21bb	0.6098897
56	0xbd027b48	-0.03185585
57	0xbea51c37	-0.3224809
58	0x3e6cd9ca	0.23129955
59	0x3e9c0a4c	0.30476606
60	0x3dd44dd4	0.10366407
61	0x3da3f0be	0.08004902
62	0xbe6b9966	-0.23007736
63	0x3f57e99f	0.8434085
64	0xbdff3a23	-0.124622606
65	0xbd15ca6a	-0.03656999
66	0x3e8717aa	0.26385242
67	0xbe912e64	-0.28355706
68	0xbe90d8d7	-0.28290436
69	0x3e9faac4	0.3118497
70	0xbd4f1c58	-0.05056414
71	0xbe820a66	-0.25398558
72	0xbe5aff5e	-0.21386477
73	0xbd87cafe	-0.066305146
74	0xbdf8c4f5	-0.121469416
75	0x3e84c362	0.25930315
76	0x3e8a2b9e	0.26986402
77	0x3e77a6d4	0.24184734
78	0xbdba4ce2	-0.090966955
79	0x3e02431a	0.1272091
80	0x3eb4f483	0.35342798
81	0x3c47728d	0.012173307
82	0xbd844344	-0.064581424
83	0x3e21e7d9	0.15811099
84	0x3e3f4dfc	0.18682092
85	0x3d715f57	0.058928814
86	0x3e180b4e	0.14848062
87	0xbf2b07ac	-0.6680858
88	0xbe5339dc	-0.2062754
89	0x3e0ef049	0.13958849
90	0xbe23e409	-0.16004957
91	0x3cfe1d6a	0.031019885
92	0x3e47b391	0.19502093
93	0xbe4c64ef	-0.19960378
94	0x3e29feaa	0.16601053
95	0xbe415db6	-0.18883404
96	0x3d8d6e78	0.06905836
97	0x3d730d8c	0.05933909
98	0xbe0d5684	-0.13802534
99	0x3f6a9446	0.916325
100	0x3d49ff57	0.049315777
101	0x3c8004ae	0.015627231
102	0xbe1a6566	-0.15077743
103	0x3e816eef	0.25279948
104	0xbeb5ac16	-0.35482854
105	0xbc40f54f	-0.011777236
106	0x3dda4409	0.10657508
107	0xbde97a61	-0.11400295
108	0xbdcd5886	-0.1002665
109	0x3e3103ff	0.1728668
110	0xbe1e0c82	-0.15434459
111	0xbf1201ab	-0.57033795
112	0x3d4fb8b1	0.050713245
113	0xbb88837e	-0.0041660657
114	0x3e5f4ee3	0.21807437
115	0x3d00813e	0.031373255
116	0x3ece75da	0.4032429
117	0x3e60de43	0.21959786
118	0xbe0b9f49	-0.13634981
119	0xbe672b55	-0.22575124
120	0x3bd069ae	0.0063602543
121	0x3ca5777d	0.020198578
122	0xbf43fe79	-0.7656017
123	0x3ca3f23c	0.020012967
124	0xbe52aac8	-0.2057296
125	0x3d4f2315	0.050570566
126	0xbe5f0546	-0.21779355
127	0x3e95689d	0.29181376
128	0x399b3724	0.00029604987
129	0xbdcdcbb0	-0.10048616
130	0xbe34548d	-0.17610379
131	0xbc09b4bd	-0.008404908
132	0x3e113b62	0.14182809
133	0xbc578c79	-0.01315605
134	0x3ea31653	0.3185297
135	0xbf33451b	-0.7002732
136	0x3e4eee8b	0.20208184
137	0xbde8ce33	-0.113674544
138	0x3da9342c	0.08261904
139	0xbe15ecc9	-0.14641108
140	0x3e28f9c6	0.16501531
141	0xbe0976ed	-0.13424273
142	0xbde16922	-0.110063806
143	0xbd117b39	-0.035517905
144	0x3d3ca5a1	0.046056394
145	0x3bc72112	0.0060769403
146	0xbf4c40d2	-0.7978641
147	0xbe46810e	-0.19385168
148	0xbec11f0c	-0.37719
149	0xbeaf0d78	-0.34189963
150	0xbe529148	-0.20563233
151	0xbd4226d6	-0.047400318
152	0xbe241dd0	-0.16026998
153	0xbdec70d3	-0.11544957
154	0x3d5d2dc5	0.053998727
155	0xbd8bfbac	-0.06835112
156	0x3e0d784d	0.13815422
157	0x3d1c5752	0.038169213
158	0x3f03bdb3	0.51461333
159	0x3f245181	0.64186865
160	0x3c44a40f	0.012002005
161	0xbe52b9d3	-0.20578699
162	0xbd029c1f	-0.03188717
163	0x3eb0f1bb	0.34559426
164	0xbd9657cd	-0.073409654
165	0x3e0593b2	0.13044623
166	0xbeace52d	-0.33768597
167	0x3ccfe402	0.025377277
168	0xbdb39ce8	-0.08770162
169	0xbcafefe6	-0.021476697
170	0x3d3b8554	0.04578145
171	0x3edbb4c3	0.42911348
172	0x3e073f06	0.13207635
173	0x3d5eebc9	0.05442408
174	0xbe81a43f	-0.25320622
175	0xbc3abe8c	-0.011397969
176	0x3ccb677e	0.024829622
177	0xbde0e45c	-0.10981056
178	0xbe7ef41a	-0.24897805
179	0x3e362e51	0.17791106
180	0xbd6902d3	-0.05688746
181	0xbd621633	-0.055196952
182	0x3df63951	0.12022651
183	0xbf1b7e7f	-0.6073989
184	0x3eb2111b	0.34778675
185	0xbe507c99	-0.2036003
186	0xbc4b25d6	-0.0123991575
187	0xbed9a7a2	-0.42510706
188	0xbe74d61c	-0.23909801
189	0x3dffc2e9	0.12488348
190	0xbe96e07c	-0.29468143
191	0xbdf14aef	-0.117818706
192	0x3dd00f0f	0.10159122
193	0x3d976996	0.07393186
194	0x3e7d4ac0	0.24735546
195	0x3f34c11f	0.7060718
196	0xbd33c5cc	-0.043889806
197	0xbe7d39e4	-0.24729115
198	0xbe1bad4e	-0.15202829
199	0x3e56e0e3	0.20984225
200	0xbe5c49fe	-0.21512601
201	0xbcd245a4	-0.025667973
202	0x3de2c759	0.11073179
203	0xbe5b4505	-0.21413048
204	0x3e00831c	0.12550014
205	0x3de78022	0.11303736
206	0x3ec10859	0.3770168
207	0xbf0b466e	-0.5440434
208	0x3e7d8580	0.24757957
209	0x3cfa26bb	0.030536046
210	0xbe869b59	-0.26290396
211	0x3df712d7	0.1206414
212	0x3e138e96	0.14409861
213	0x3dc7e99e	0.09761356
214	0xbdbbd6bc	-0.09171817
215	0xbe4c0ed5	-0.19927533
216	0xbe1790e6	-0.14801368
217	0x3cc99c1f	0.024610577
218	0xbec9ea44	-0.39436543
219	0x3ed5723f	0.41688725
220	0x3e3aa6ec	0.18227738
221	0x3ed675f9	0.4188688
222	0xbe5ae08c	-0.2137472
223	0x3d952b2a	0.072836235
224	0x3dc42a56	0.095783874
225	0xbe56a910	-0.2096293
226	0xbe628683	-0.22121625
227	0xbe5d7007	-0.21624766
228	0xbe37bc18	-0.17942846
229	0xbc2f4126	-0.010696685
230	0xbe65da7a	-0.22446623
231	0xbf4bb52a	-0.7957331
232	0x3d5320ff	0.05154514
233	0xbcab4e4c	-0.020911358
234	0xbdefe3aa	-0.11713345
235	0xbe8f9eff	-0.28050992
236	0xbd9d4bf7	-0.07680505
237	0xbe529a18	-0.20566595
238	0xbedd357d	-0.4320487
239	0xbcbe0637	-0.023196323
240	0xbde67989	-0.1125365
241	0xbdea9287	-0.11453729
242	0x3e3d74ca	0.18501583
243	0x3dae184c	0.08500728
244	0x3e60cfee	0.21954319
245	0x3e9c3ff2	0.30517536
246	0x3df6a83d	0.12043808
247	0xbe33a83a	-0.17544642
248	0x3e94f6a1	0.29094413
249	0xbe431ff0	-0.19055152
250	0x3d9e3e75	0.077267565
251	0xbea5e166	-0.32398528
252	0x3d68f56e	0.056874685
253	0x3e2a12d8	0.16608751
254	0x3f8fa24a	1.1221402
255	0x3dce6df4	0.10079566

actor_fc_layers.blocks.0.block.1.weight f4 [128]
0	0x3f66d205	0.90164214
1	0x3fd5e726	1.6711166
2	0x3fc0bbf3	1.5057358
3	0x3f99117f	1.1958464
4	0x3fb2d1ec	1.3970313
5	0x3f88504c	1.0649505
6	0x3f86add2	1.0521796
7	0x3f818952	1.0120032
8	0x3f66cf03	0.90159625
9	0x3f87c56f	1.0607127
10	0x3f925006	1.1430671
11	0x3f87c7af	1.0607814
12	0x3fb22b1c	1.3919406
13	0x3f6fcef2	0.9367515
14	0x3f51cbbf	0.81951517
15	0x3f92af2e	1.1459711
16	0x3f6c1dc5	0.92232925
17	0x3f72878b	0.9473807
18	0x3f9e3426	1.2359664
19	0x3fb26b38	1.393897
20	0x3f604f3b	0.87620896
21	0x3faa2d25	1.3295027
22	0x3f7e9ca1	0.99457747
23	0x3f424230	0.75882244
24	0x3fbcab7c	1.4739833
25	0x3f9e0506	1.2345283
26	0x3fcc75f1	1.5973493
27	0x3f87223d	1.0557324
28	0x3f2c62c5	0.6733821
29	0x3f7e3f11	0.9931498
30	0x3f848fec	1.0356421
31	0x3fced934	1.6160035
32	0x3f9bd283	1.2173618
33	0x3f5793cc	0.84209895
34	0x3f8fce3c	1.1234813
35	0x3f643967	0.8915009
36	0x3f8317b9	1.0241615
37	0x3f5037b2	0.81334984
38	0x3f89c790	1.0764027
39	0x3fa40edb	1.2817034
40	0x3f41ce56	0.7570547
41	0x3f7548de	0.9581431
42	0x3f9573ca	1.1675961
43	0x3f2aea4f	0.66763777
44	0x3f6d8711	0.9278422
45	0x3f92f4cf	1.148096
46	0x3f971564	1.1803403
47	0x3f8d5075	1.1040179
48	0x3f8f4867	1.119397
49	0x3f868749	1.0510036
50	0x3f70f305	0.9412082
51	0x3f9a2b41	1.204445
52	0x3f98e810	1.194582
53	0x3f6f1e39	0.9340549
54	0x3f99bcfe	1.2010801
55	0x3f7982b1	0.97465044
56	0x3f99a598	1.200366
57	0x3f7005c6	0.9375881
58	0x3fa3ebe3	1.2806362
59	0x3f4985cd	0.7871979
60	0x3f474f29	0.77855164
61	0x3f842c59	1.0326034
62	0x3f552d2f	0.8327207
63	0x3f9b7138	1.2143927
64	0x3fac6b5a	1.3470261
65	0x3f9499da	1.1609452
66	0x3fa91589	1.3209697
67	0x3f568d72	0.8380958
68	0x3f9c4b17	1.2210416
69	0x3f7153a8	0.94268274
70	0x3f8b5ec5	1.0888296
71	0x3f208c76	0.62714326
72	0x3f9df986	1.2341774
73	0x3f385fad	0.7202099
74	0x3f8801f0	1.0625591
75	0x3f79edfb	0.97628754
76	0x3f7ccdcf	0.9875154
77	0x3f492870	0.7857733
78	0x3fca6875	1.5813128
79	0x3f8263aa	1.0186665
80	0x3f954009	1.1660167
81	0x3f82f3f2	1.0230696
82	0x3f71f2ac	0.9451091
83	0x3f63ec3d	0.89032346
84	0x3f90e076	1.13185
85	0x3f519e6e	0.8188237
86	0x3f65335a	0.8953148
87	0x3f3daa08	0.7408757
88	0x3f93d4a7	1.1549271
89	0x3f98d977	1.1941365
90	0x3f9a956f	1.2076854
91	0x3fa2131c	1.2662082
92	0x3f9d5934	1.2292848
93	0x3f9818dd	1.1882588
94	0x3f8959e3	1.0730556
95	0x3f83875b	1.0275682
96	0x3f7fb170	0.99880123
97	0x3f59642f	0.84918493
98	0x3fa78fa4	1.3090711
99	0x3f711210	0.94168186
100	0x3fa3f2d8	1.2808485
101	0x3f7cacf2	0.98701394
102	0x3f7d6efb	0.9899747
103	0x3f6467a0	0.8922062
104	0x3f9dddac	1.2333274
105	0x3fa3d5af	1.2799586
106	0x3f8b3217	1.0874661
107	0x3f9a25ae	1.2042749
108	0x3facaeab	1.3490804
109	0x3f9e4ed6	1.2367809
110	0x3f74ead5	0.95670825
111	0x3f54485e	0.82922924
112	0x3f78480c	0.96984935
113	0x3f92f76b	1.1481756
114	0x3f8420ea	1.0322545
115	0x3f509295	0.81473666
116	0x3f7e4785	0.9932788
117	0x3fa7587d	1.307388
118	0x3f5f3216	0.871858
119	0x3f9dd40c	1.2330337
120	0x3f5721f8	0.8403621
121	0x3f87081a	1.0549347
122	0x3f98ccc6	1.1937492
123	0x3f877725	1.0583235
124	0x3f2ced32	0.6754943
125	0x3f75d442	0.96027005
126	0x3fb62be0	1.423214
127	0x3f7728f8	0.9654689

actor_fc_layers.blocks.0.block.1.bias f4 [128]
0	0xbe743ffc	-0.23852533
1	0x3e086560	0.13319921
2	0x3e2e0798	0.16995084
3	0xbe03a103	-0.1285439
4	0x3dad929d	0.0847523
5	0xbc958154	-0.018250145
6	0x3d53d631	0.05171794
7	0xbe2ad243	-0.16681771
8	0xbcd00eff	-0.025397776
9	0xbd4dd8f6	-0.05025574
10	0x3d7f0980	0.06226492
11	0x3e813c3f	0.25241277
12	0xbcb8f92e	-0.022579756
13	0xbd7b9617	-0.061422434
14	0x3dbf4c28	0.093406975
15	0x3cdd2e41	0.026999595
16	0xbdb9e050	-0.09075987
17	0xbdcbcc0c	-0.09951028
18	0x3cda533e	0.026651021
19	0x3cb3acaa	0.021932919
20	0xbe5220ad	-0.20520277
21	0x3e0705d5	0.13185818
22	0x3d651e8c	0.055937335
23	0x3ec4bb8a	0.3842433
24	0x3dd83520	0.10557008
25	0xbd8e5cc4	-0.069512874
26	0x3e22215f	0.15833043
27	0xbcd65c2f	-0.026167003
28	0x3e9ca548	0.3059485
29	0x3deb3f95	0.11486737
30	0xbe95a2b2	-0.2922569
31	0x3d71474d	0.05890589
32	0x3e144493	0.14479284
33	0x3e493fe5	0.1965328
34	0x3e1fc4aa	0.15602365
35	0x3e8d2583	0.27567682
36	0xbda6856d	-0.08130918
37	0x3d2167f4	0.039405778
38	0xbe84fb7e	-0.25973123
39	0x3e383349	0.17988314
40	0x3c96bfc3	0.018401986
41	0xbc4c4564	-0.012467716
42	0x3ce46d2b	0.027884087
43	0x3e5f9a98	0.21836317
44	0x3d810f59	0.063017555
45	0xbd8fc608	-0.07020193
46	0x3e0ea686	0.13930711
47	0x3d0ebba6	0.034846924
48	0xbcf8bb30	-0.030362695
49	0x3e69eced	0.22844286
50	0xbd21cac7	-0.039500024
51	0x3ca628e8	0.020283177
52	0x3c8bc965	0.017063806
53	0xbd6470c9	-0.055771623
54	0x3db8ae0d	0.090175726
55	0xbd2d5d30	-0.0423252
56	0xbd9bcc65	-0.076073445
57	0x3e7523fb	0.23939507
58	0x3e483c98	0.19554365
59	0xbe967986	-0.2938959
60	0xbe3d87d5	-0.18508847
61	0x3e123ff1	0.14282204
62	0x3e8e99c0	0.27851677
63	0x3d05b83b	0.0326464
64	0x3d92d230	0.07168996
65	0x3dead249	0.1146589
66	0x3e177065	0.14788969
67	0x3edbf012	0.42956597
68	0x3dca4dc9	0.098781176
69	0xbd167c9b	-0.036739927
70	0xbdc7b1fd	-0.097507454
71	0x3ea074e6	0.31339186
72	0x3dedf697	0.11619299
73	0x3d3206e7	0.043463614
74	0x3d5f4deb	0.054517668
75	0x3d15c2cc	0.036562726
76	0xbd34d582	-0.04414893
77	0x3d92a337	0.07160037
78	0x3def1dde	0.116756186
79	0x3d9fc7b9	0.07801766
80	0xbbac83da	-0.0052647414
81	0x3ddde8b1	0.10835398
82	0x3da6c082	0.08142187
83	0x3d6cf1ef	0.057847913
84	0x3d8b13ff	0.06790923
85	0xbc3077b7	-0.01077073
86	0x3dbbc74f	0.091688745
87	0xbcbe2657	-0.023211641
88	0x3d1b4695	0.03790911
89	0x3d7b5d71	0.06136841
90	0x3db8667a	0.09003921
91	0x3da830dd	0.08212445
92	0x3d790cee	0.060803346
93	0xbd8c745d	-0.06858132
94	0x3c8d7062	0.017265502
95	0xbda62c76	-0.08113949
96	0xbdb70c13	-0.0893785
97	0x3ce1f20a	0.027581234
98	0x3e4f3cca	0.20238033
99	0x3d5b78cb	0.053581994
100	0x3e05030f	0.12989448
101	0x3dcfa619	0.101391025
102	0xbd8515df	-0.06498312
103	0x3d885358	0.066565216
104	0x3ddec9a0	0.10878301
105	0x3e1cb7df	0.15304516
106	0xbd7d2d61	-0.061810855
107	0x3e1926b8	0.14956176
108	0x3dd3c01c	0.10339376
109	0x3d3b588c	0.04573874
110	0x3c9cfe51	0.019164236
111	0x3df0e4ea	0.11762412
112	0xbe56c235	-0.20972522
113	0xbe6db644	-0.2321406
114	0x3c98eece	0.018668558
115	0x3ea72769	0.32647255
116	0xbe532325	-0.20618875
117	0x3dc33328	0.09531242
118	0xbe0dea93	-0.13859014
119	0x3e07efa4	0.1327501
120	0x3df89a75	0.12138835
121	0x3cb6dd4d	0.022322321
122	0x3de07118	0.10959071
123	0xbe01d3f1	-0.12678505
124	0x3e263084	0.16229445
125	0xbda5c5b4	-0.080943495
126	0x3df50cb3	0.11965313
127	0x3c840976	0.016117793

actor_fc_layers.blocks.0.block.1.running_mean f4 [128]
0	0x00000000	0.0
1	0x00000000	0.0
2	0x00000000	0.0
3	0x00000000	0.0
4	0x00000000	0.0
5	0x00000000	0.0
6	0x00000000	0.0
7	0x00000000	0.0
8	0x00000000	0.0
9	0x00000000	0.0
10	0x00000000	0.0
11	0x00000000	0.0
12	0x00000000	0.0
13	0x00000000	0.0
14	0x00000000	0.0
15	0x00000000	0.0
16	0x00000000	0.0
17	0x00000000	0.0
18	0x00000000	0.0
19	0x00000000	0.0
20	0x00000000	0.0
21	0x00000000	0.0
22	0x00000000	0.0
23	0x00000000	0.0
24	0x00000000	0.0
25	0x00000000	0.0
26	0x00000000	0.0
27	0x00000000	0.0
28	0x00000000	0.0
29	0x00000000	0.0
30	0x00000000	0.0
31	0x00000000	0.0
32	0x00000000	0.0
33	0x00000000	0.0
34	0x00000000	0.0
35	0x00000000	0.0
36	0x00000000	0.0
37	0x00000000	0.0
38	0x00000000	0.0
39	0x00000000	0.0
40	0x00000000	0.0
41	0x00000000	0.0
42	0x00000000	0.0
43	0x00000000	0.0
44	0x00000000	0.0
45	0x00000000	0.0
46	0x00000000	0.0
47	0x00000000	0.0
48	0x00000000	0.0
49	0x00000000	0.0
50	0x00000000	0.0
51	0x00000000	0.0
52	0x00000000	0.0
53	0x00000000	0.0
54	0x00000000	0.0
55	0x00000000	0.0
56	0x00000000	0.0
57	0x00000000	0.0
58	0x00000000	0.0
59	0x00000000	0.0
60	0x00000000	0.0
61	0x00000000	0.0
62	0x00000000	0.0
63	0x00000000	0.0
64	0x00000000	0.0
65	0x00000000	0.0
66	0x00000000	0.0
67	0x00000000	0.0
68	0x00000000	0.0
69	0x00000000	0.0
70	0x00000000	0.0
71	0x00000000	0.0
72	0x00000000	0.0
73	0x00000000	0.0
74	0x00000000	0.0
75	0x00000000	0.0
76	0x00000000	0.0
77	0x00000000	0.0
78	0x00000000	0.0
79	0x00000000	0.0
80	0x00000000	0.0
81	0x00000000	0.0
82	0x00000000	0.0
83	0x00000000	0.0
84	0x00000000	0.0
85	0x00000000	0.0
86	0x00000000	0.0
87	0x00000000	0.0
88	0x00000000	0.0
89	0x00000000	0.0
90	0x00000000	0.0
91	0x00000000	0.0
92	0x00000000	0.0
93	0x00000000	0.0
94	0x00000000	0.0
95	0x00000000	0.0
96	0x00000000	0.0
97	0x00000000	0.0
98	0x00000000	0.0
99	0x00000000	0.0
100	0x00000000	0.0
101	0x00000000	0.0
102	0x00000000	0.0
103	0x00000000	0.0
104	0x00000000	0.0
105	0x00000000	0.0
106	0x00000000	0.0
107	0x00000000	0.0
108	0x00000000	0.0
109	0x00000000	0.0
110	0x00000000	0.0
111	0x00000000	0.0
112	0x00000000	0.0
113	0x00000000	0.0
114	0x00000000	0.0
115	0x00000000	0.0
116	0x00000000	0.0
117	0x00000000	0.0
118	0x00000000	0.0
119	0x00000000	0.0
120	0x00000000	0.0
121	0x00000000	0.0
122	0x00000000	0.0
123	0x00000000	0.0
124	0x00000000	0.0
125	0x00000000	0.0
126	0x00000000	0.0
127	0x00000000	0.0

actor_fc_layers.blocks.0.block.1.running_var f4 [128]
0	0x3f800000	1.0
1	0x3f800000	1.0
2	0x3f800000	1.0
3	0x3f800000	1.0
4	0x3f800000	1.0
5	0x3f800000	1.0
6	0x3f800000	1.0
7	0x3f800000	1.0
8	0x3f800000	1.0
9	0x3f800000	1.0
10	0x3f800000	1.0
11	0x3f800000	1.0
12	0x3f800000	1.0
13	0x3f800000	1.0
14	0x3f800000	1.0
15	0x3f800000	1.0
16	0x3f800000	1.0
17	0x3f800000	1.0
18	0x3f800000	1.0
19	0x3f800000	1.0
20	0x3f800000	1.0
21	0x3f800000	1.0
22	0x3f800000	1.0
23	0x3f800000	1.0
24	0x3f800000	1.0
25	0x3f800000	1.0
26	0x3f800000	1.0
27	0x3f800000	1.0
28	0x3f800000	1.0
29	0x3f800000	1.0
30	0x3f800000	1.0
31	0x3f800000	1.0
32	0x3f800000	1.0
33	0x3f800000	1.0
34	0x3f800000	1.0
35	0x3f800000	1.0
36	0x3f800000	1.0
37	0x3f800000	1.0
38	0x3f800000	1.0
39	0x3f800000	1.0
40	0x3f800000	1.0
41	0x3f800000	1.0
42	0x3f800000	1.0
43	0x3f800000	1.0
44	0x3f800000	1.0
45	0x3f800000	1.0
46	0x3f800000	1.0
47	0x3f800000	1.0
48	0x3f800000	1.0
49	0x3f800000	1.0
50	0x3f800000	1.0
51	0x3f800000	1.0
52	0x3f800000	1.0
53	0x3f800000	1.0
54	0x3f800000	1.0
55	0x3f800000	1.0
56	0x3f800000	1.0
57	0x3f800000	1.0
58	0x3f800000	1.0
59	0x3f800000	1.0
60	0x3f800000	1.0
61	0x3f800000	1.0
62	0x3f800000	1.0
63	0x3f800000	1.0
64	0x3f800000	1.0
65	0x3f800000	1.0
66	0x3f800000	1.0
67	0x3f800000	1.0
68	0x3f800000	1.0
69	0x3f800000	1.0
70	0x3f800000	1.0
71	0x3f800000	1.0
72	0x3f800000	1.0
73	0x3f800000	1.0
74	0x3f800000	1.0
75	0x3f800000	1.0
76	0x3f800000	1.0
77	0x3f800000	1.0
78	0x3f800000	1.0
79	0x3f800000	1.0
80	0x3f800000	1.0
81	0x3f800000	1.0
82	0x3f800000	1.0
83	0x3f800000	1.0
84	0x3f800000	1.0
85	0x3f800000	1.0
86	0x3f800000	1.0
87	0x3f800000	1.0
88	0x3f800000	1.0
89	0x3f800000	1.0
90	0x3f800000	1.0
91	0x3f800000	1.0
92	0x3f800000	1.0
93	0x3f800000	1.0
94	0x3f800000	1.0
95	0x3f800000	1.0
96	0x3f800000	1.0
97	0x3f800000	1.0
98	0x3f800000	1.0
99	0x3f800000	1.0
100	0x3f800000	1.0
101	0x3f800000	1.0
102	0x3f800000	1.0
103	0x3f800000	1.0
104	0x3f800000	1.0
105	0x3f800000	1.0
106	0x3f800000	1.0
107	0x3f800000	1.0
108	0x3f800000	1.0
109	0x3f800000	1.0
110	0x3f800000	1.0
111	0x3f800000	1.0
112	0x3f800000	1.0
113	0x3f800000	1.0
114	0x3f800000	1.0
115	0x3f800000	1.0
116	0x3f800000	1.0
117	0x3f800000	1.0
118	0x3f800000	1.0
119	0x3f800000	1.0
120	0x3f800000	1.0
121	0x3f800000	1.0
122	0x3f800000	1.0
123	0x3f800000	1.0
124	0x3f800000	1.0
125	0x3f800000	1.0
126	0x3f800000	1.0
127	0x3f800000	1.0

actor_fc_layers.blocks.1.block.0.weight f4 [128, 128]
0	0xbc58e135	-0.013237287
1	0x3c379078	0.011203878
2	0xbda3c424	-0.07996395
3	0xbc4faf1d	-0.012676028
4	0x3d8376e8	0.06419164
5	0xbde1c1fc	-0.11023328
6	0xbd9e2d88	-0.07723528
7	0xbdca6842	-0.09883167
8	0x3c626835	0.01381879
9	0xbdbfc7db	-0.09364291
10	0xbd077d40	-0.033078432
11	0xbe2536c2	-0.1613417
12	0xbda8d429	-0.08243591
13	0xbdbf2138	-0.09332508
14	0xbda989bf	-0.08278226
15	0xbda7afd6	-0.08187835
16	0x3d6fb537	0.05852243
17	0xbcefd601	-0.02927685
18	0xbe176d5d	-0.14787813
19	0xbd7e8f7b	-0.062148552
20	0xbd50b3d4	-0.050952747
21	0xbbdc1435	-0.006716276
22	0x3d736833	0.059425544
23	0x3c55de3b	0.013053472
24	0x3cef8125	0.029236386
25	0xbd04ae45	-0.03239276
26	0xbdb20526	-0.08692388
27	0xbd47a304	-0.04873945
28	0xbc03ca30	-0.008043811
29	0xbcfe3164	-0.03102941
30	0x3cb192b9	0.021676408
31	0xbc43f513	-0.011960286
32	0xbd0b0e8c	-0.03394942
33	0x3d42b432	0.04753513
34	0xbcb3362b	-0.021876415
35	0xbdb244b0	-0.08704507
36	0xbd00e6d5	-0.03147014
37	0x3c850078	0.016235575
38	0x3d4db1b0	0.050218284
39	0xbd07b60c	-0.033132598
40	0xbd3f14cc	-0.046650693
41	0xbda48242	-0.08032657
42	0x3d7ee901	0.06223393
43	0x3dc793e5	0.097450055
44	0xbde5e0c4	-0.11224511
45	0xbda02109	-0.07818801
46	0xbd3d8f99	-0.046279524
47	0xbd7b8224	-0.06140341
48	0xbcdaeae4	-0.026723333
49	0xbda270e2	-0.07931687
50	0xbda98462	-0.08277203
51	0xbdf2e022	-0.11859156
52	0xbd238c44	-0.03992869
53	0x3b3e5fa4	0.0029048705
54	0xbe036eea	-0.12835279
55	0x3ce367d0	0.027759463
56	0xbda7f8f5	-0.08201782
57	0x3d4acade	0.049509875
58	0xbc0124ea	-0.007882336
59	0x3c19ec5b	0.00939473
60	0xba43fbaa	-0.00074761605
61	0xbda07d0b	-0.0783635
62	0xbd34322f	-0.04399317
63	0x3c2defe4	0.010616276
64	0xbd87e565	-0.066355504
65	0xbd18637e	-0.03720426
66	0x3a4a1c34	0.0007709891
67	0xbdcdec1b	-0.10054799
68	0xbb38950b	-0.0028165008
69	0xbc2a2ec0	-0.010387123
70	0x3d09ec9a	0.033672906
71	0xbe10b39f	-0.1413102
72	0xbdf307de	-0.11866735
73	0xbd04f221	-0.032457475
74	0x3d88d0b1	0.0668043
75	0xbdbf3001	-0.09335328
76	0xbe0c0d49	-0.13676943
77	0x3c603d8c	0.013686549
78	0xbe04dbff	-0.12974547
79	0xbd9773d4	-0.07395139
80	0x3cbcb2b8	0.023034438
81	0xbdfe31b7	-0.12411826
82	0xbd7a311c	-0.06108199
83	0x3d87144e	0.0659567
84	0x3cd23056	0.025657814
85	0xbdc6f70d	-0.0971509
86	0xbd8383d5	-0.06421629
87	0xbdd322e9	-0.10309393
88	0xbdaf3240	-0.08554506
89	0xbdb95f38	-0.09051365
90	0xbdde8836	-0.10865824
91	0x3bf4250c	0.0074507054
92	0x3d4ec144	0.05047728
93	0x3d0e9cf3	0.034817647
94	0x3d674c85	0.05646946
95	0xbd4272ac	-0.04747264
96	0xbcecc6dc	-0.028903417
97	0xbd89e4dc	-0.067331046
98	0xbd36aa4f	-0.044596013
99	0xbbc4cc4a	-0.0060057985
100	0x3d459746	0.04823997
101	0xbb6d9a58	-0.0036255326
102	0xbd8ff3ea	-0.07028945
103	0xbde36748	-0.11103684
104	0xbcb9c001	-0.022674562
105	0x3c9efa99	0.019406604
106	0x3ceccef8	0.028907284
107	0xbd43fa58	-0.04784617
108	0xbd36a976	-0.044595204
109	0xbdfda1f3	-0.12384405
110	0x3d5f1908	0.05446723
111	0xbbc2d58e	-0.005945868
112	0xbcb91633	-0.022593593
113	0x3c86287c	0.016376726
114	0xbdbec59e	-0.09315036
115	0x3d7e70e2	0.062119372
116	0xbd8c5936	-0.06852953
117	0x3d5a9077	0.05336043
118	0xbd4c2b58	-0.049846023
119	0xbb4eb4b2	-0.0031540808
120	0x3c139749	0.009008237
121	0xbb3da27a	-0.0028935955
122	0x3d0c1826	0.034202717
123	0xbd361f01	-0.04446316
124	0xbdc127b3	-0.094314
125	0x3da67c51	0.0812918
126	0x3d5df5b2	0.05418939
127	0x3c941a15	0.018078843
128	0xbdf2754d	-0.118387796
129	0xbd7bed54	-0.06150563
130	0x3c9a1290	0.01880768
131	0x3cdd2eb4	0.026999809
132	0x3d7308f9	0.05933473
133	0xbc618455	-0.013764461
134	0xbd792751	-0.06082851
135	0xbdddcdab	-0.10830244
136	0xbd32cf6b	-0.04365484
137	0xbd72608c	-0.059174106
138	0xbdf7a831	-0.12092627
139	0x3d6b0921	0.057381753
140	0xbaac007b	-0.0013122702
141	0x3d4014c2	0.046894796
142	0xbd087615	-0.033315737
143	0xbc223cd9	-0.0099022025
144	0xbd71e266	-0.0590538
145	0xbc756e23	-0.014979872
146	0xbda5f2d5	-0.08102957
147	0xbcba2434	-0.022722341
148	0x3c33667c	0.010949727
149	0xbd05384f	-0.032524403
150	0xbca6c320	-0.020356715
151	0xbd9ae88a	-0.075638846
152	0x3ac8b247	0.001531192
153	0xbd1c52e1	-0.038164977
154	0x3c1af3e9	0.009457567
155	0xbc7283c1	-0.01480192
156	0xbd41b21f	-0.04728901
157	0xbd6eb970	-0.058282316
158	0x3c786487	0.015160686
159	0x3baa265b	0.0051925606
160	0x3d6dd140	0.058060884
161	0xbdd5294e	-0.10408269
162	0x3afe1440	0.0019384697
163	0xb95cd459	-0.0002105994
164	0x3d181405	0.037128467
165	0xbd6c2bac	-0.057658836
166	0x3d5fd247	0.054643895
167	0xbae45749	-0.0017421033
168	0xbdccc58c	-0.099986166
169	0xbd56d625	-0.052450318
170	0xbcf14990	-0.029454023
171	0x3d27fd79	0.041013215
172	0xbd33982f	-0.043846305
173	0xbca971f0	-0.020684212
174	0xbdaf762f	-0.085674636
175	0x3b6f36a3	0.0036501072
176	0xbd58543b	-0.052814703
177	0xbdb42557	-0.087961845
178	0x3c8d9db0	0.017287105
179	0xbcd0d9c3	-0.025494462
180	0xbd54f5a8	-0.05199209
181	0xbdd33a6e	-0.10313879
182	0xbdbe24b6	-0.09284346
183	0xbd1e39fe	-0.038629524
184	0xbddf972a	-0.10917504
185	0xbce585bd	-0.028017873
186	0x3d8ddf9f	0.06927418
187	0x3d454476	0.048160993
188	0x3cf74d02	0.030188087
189	0x3d282014	0.041046217
190	0x3d4a60ff	0.04940891
191	0xbd81f01b	-0.063446246
192	0xbd8a3abc	-0.06749484
193	0xbdb2bc73	-0.0872735
194	0x3c8c88c2	0.017155055
195	0x3cb2ad17	0.021811051
196	0xbd71a350	-0.058993638
197	0xbdb24812	-0.087051526
198	0xbd8d15ff	-0.06888961
199	0xbdca4f39	-0.09878392
200	0x3ce15b48	0.027509347
201	0x3d33b0b5	0.043869693
202	0x3d67c141	0.056580786
203	0xbdc6f605	-0.09714893
204	0xbd367a04	-0.044549957
205	0xbaa12f0d	-0.0012297347
206	0x3d170f94	0.03688009
207	0x3cbd0653	0.023074305
208	0xbdd750b2	-0.10513438
209	0x3c3e5920	0.011617929
210	0xbc7fdbed	-0.015616399
211	0xbdcc8bef	-0.09987628
212	0xbdb1053d	-0.08643577
213	0x3d57ffee	0.052734308
214	0xbc0a102b	-0.008426706
215	0xbd974e20	-0.07387948
216	0xbd5220df	-0.05130088
217	0xbd612a5c	-0.054972038
218	0xbd69b09a	-0.057053186
219	0xbd9352bf	-0.07193517
220	0x3c921e53	0.017836725
221	0xbd9a2eb3	-0.075284384
222	0x3bd82472	0.0065961415
223	0xbb94a401	-0.0045361524
224	0xbbf96db0	-0.0076119527
225	0x3d37b7dd	0.04485308
226	0xbda50af2	-0.08058728
227	0xbd1394ba	-0.03603051
228	0xbcc9cefb	-0.024634829
229	0xbdc42b56	-0.09578578
230	0xbdb97572	-0.09055604
231	0xbc679a5d	-0.014135924
232	0xbd4dbc09	-0.050228152
233	0xbd021039	-0.031753752
234	0xbda92af9	-0.082601495
235	0xbcf06c5d	-0.029348547
236	0x3d7bbed5	0.06146129
237	0x3d7ece46	0.062208436
238	0x3d85f5dc	0.065410346
239	0xbcadabd6	-0.021200102
240	0xbd84bc17	-0.06481188
241	0xbcbe5b63	-0.023236936
242	0xbc849e96	-0.0161889
243	0x3d6dff40	0.058104753
244	0xbb97c297	-0.004631351
245	0xbd8e39cf	-0.0694462
246	0xbd1af1a0	-0.037828088
247	0xbd8f7813	-0.07005324
248	0xbdedd77d	-0.11613367
249	0xbde1a52f	-0.110178344
250	0x3c6f3faf	0.014602586
251	0xbc6467b9	-0.013940745
252	0xbdc3e463	-0.09565046
253	0xbdcd8387	-0.100348525
254	0xbd4ce2e7	-0.05002108
255	0x3c9314b5	0.01795421

actor_fc_layers.blocks.1.block.1.weight f4 [128]
0	0x3f7ad5cf	0.97982496
1	0x3f79a5e7	0.9751877
2	0x3f7acadc	0.9796579
3	0x3fa18ff5	1.2622057
4	0x3f94525e	1.1587636
5	0x3f7cb802	0.98718274
6	0x3f7be7b3	0.9840042
7	0x3f7c11a8	0.9846444
8	0x3f697db0	0.9120741
9	0x3faa1bcd	1.3289734
10	0x3fa6796e	1.3005807
11	0x3fa20a68	1.2659426
12	0x3f7e2e81	0.9928971
13	0x3fa748d7	1.3069104
14	0x3fb15526	1.385411
15	0x3fad9d22	1.3563578
16	0x3f5ed7d3	0.8704807
17	0x3f580605	0.84384185
18	0x3f6eae29	0.932345
19	0x3f9989b9	1.1995155
20	0x3f955b85	1.1668555
21	0x3f9db0b8	1.2319555
22	0x3fa3961b	1.2780184
23	0x3f856d58	1.0423994
24	0x3f7ae6a7	0.980082
25	0x3f85ee7a	1.0463402
26	0x3f7c6851	0.98596674
27	0x3f9785e3	1.1837734
28	0x3f7d17a8	0.9886422
29	0x3f744404	0.95416284
30	0x3f883f9c	1.0644412
31	0x3f87d9d1	1.0613347
32	0x3f842615	1.0324122
33	0x3f7facb5	0.99872905
34	0x3f90707f	1.1284331
35	0x3f7bb952	0.9832965
36	0x3f87f717	1.0622281
37	0x3faa4ec2	1.3305285
38	0x3f8f1fe3	1.1181606
39	0x3f67f378	0.9060588
40	0x3f54e1f0	0.83157253
41	0x3f7397e6	0.95153654
42	0x3f8b9a86	1.0906532
43	0x3f985d73	1.1903518
44	0x3f83737e	1.026962
45	0x3f9925d9	1.1964675
46	0x3f5b5b30	0.85686016
47	0x3f69d6db	0.9134347
48	0x3fcbc24a	1.5918667
49	0x3f8ad292	1.0845511
50	0x3f500d5d	0.8127039
51	0x3f93f4ea	1.1559117
52	0x3f74a163	0.95558757
53	0x3f952625	1.1652266
54	0x3f9a6e30	1.2064877
55	0x3f887adf	1.0662497
56	0x3fb65645	1.4245077
57	0x3f8afeee	1.0859048
58	0x3f835714	1.0260949
59	0x3f8ffccf	1.1249026
60	0x3f96d3a8	1.1783342
61	0x3fcf5116	1.619662
62	0x3f7d2486	0.98883855
63	0x3fb65171	1.4243604
64	0x3fc22c29	1.5169727
65	0x3f98a899	1.1926452
66	0x3f79a006	0.975098
67	0x3fa19c69	1.2625858
68	0x3f91e9aa	1.1399434
69	0x3f714d30	0.94258404
70	0x3f98bc2e	1.1932428
71	0x3faf2625	1.3683516
72	0x3fa83cbb	1.3143533
73	0x3f7f5976	0.9974588
74	0x3fc5a0eb	1.5439733
75	0x3f5ba282	0.8579484
76	0x3f7b5b94	0.9818661
77	0x3f7e4cee	0.99336135
78	0x3f6d4a25	0.9269126
79	0x3f8e3390	1.1109486
80	0x3f90ce17	1.1312894
81	0x3f7bda15	0.9837964
82	0x3f7b2ae1	0.98112303
83	0x3fb873bd	1.441032
84	0x3f9ca0fa	1.2236626
85	0x3f7d2ee1	0.98899657
86	0x3fc93e97	1.5722226
87	0x3fa4f683	1.288773
88	0x3f944bc6	1.1585624
89	0x3fb0fbdc	1.3826861
90	0x3f7fb012	0.99878037
91	0x3f7a4109	0.97755486
92	0x3faf03cd	1.3673035
93	0x3f81a045	1.0127035
94	0x3f8a2636	1.0792911
95	0x3f97c783	1.1857761
96	0x3f9a4aca	1.2054074
97	0x4005fa62	2.0934072
98	0x3fa1ed29	1.26505
99	0x3f7df573	0.9920265
100	0x3f839568	1.027997
101	0x3fc0f9b8	1.5076208
102	0x3f891f83	1.0712742
103	0x3f6675bd	0.90023404
104	0x3f7949ed	0.97378427
105	0x3f9a3216	1.2046535
106	0x3f87af56	1.0600383
107	0x3fb0a6fa	1.3800957
108	0x3fa2f63c	1.2731395
109	0x3f8e44f9	1.1114799
110	0x3fb9fc4d	1.4530121
111	0x3f7ce484	0.9878619
112	0x3f8a3d18	1.0799894
113	0x3f5a9419	0.8538223
114	0x3fa5a7bc	1.2941813
115	0x3f67e02b	0.9057643
116	0x3fb6f37f	1.4293059
117	0x3fa63871	1.2985975
118	0x3f753bb4	0.95794225
119	0x3f79c956	0.9757284
120	0x3f750ca4	0.95722413
121	0x3f76ad0d	0.96357805
122	0x3f7f8764	0.99815965
123	0x3fcc473f	1.5959243
124	0x3f739d84	0.95162225
125	0x3fe038ed	1.7517372
126	0x3fa776a4	1.3083081
127	0x3f843dc7	1.0331353

actor_fc_layers.blocks.1.block.1.bias f4 [128]
0	0xbcd1c2ee	-0.025605645
1	0xbd25cf95	-0.04048117
2	0xbc2979f9	-0.010344022
3	0xbdbea8f7	-0.09309571
4	0x3b78d275	0.003796724
5	0xbc96cbd7	-0.018407745
6	0x3d96809d	0.0734875
7	0xbc5de129	-0.013542452
8	0x3e21079a	0.15725556
9	0x3d6c8ed6	0.057753406
10	0x3d97e2f9	0.074163385
11	0x3e529282	0.20563701
12	0xbc029f9d	-0.007972625
13	0x3e2f5444	0.17121989
14	0x3e5b5538	0.21419227
15	0xbdc66b5f	-0.09688448
16	0xbd3bc2cf	-0.04584008
17	0xbdd481a1	-0.10376287
18	0xbcb76fc1	-0.022392156
19	0x3d43bc2c	0.047786877
20	0x3db6c977	0.08925145
21	0x3c878f31	0.016547771
22	0x3d98f832	0.074692145
23	0x3e8c7565	0.27433315
24	0xbb7a9fd8	-0.0038242247
25	0x3d7da616	0.06192597
26	0xbc9b42d8	-0.018952772
27	0xbdc4487f	-0.0958414
28	0x3e3ae6d6	0.1825212
29	0x3d65ca46	0.056101106
30	0x3d2d7e9b	0.04235707
31	0xbba19ef9	-0.004932281
32	0x3da811cd	0.0820652
33	0x3db0fdd1	0.08642162
34	0xbd1848f7	-0.03717896
35	0xbca48848	-0.020084515
36	0x3e5f7221	0.2182088
37	0xbd650e23	-0.055921685
38	0x3cfcd89f	0.030865012
39	0x3d4a3110	0.049363196
40	0x3f0add3e	0.5424384
41	0xbd924afd	-0.07143209
42	0xbd47f01e	-0.048812978
43	0x3d6dc21e	0.058046453
44	0x3dbf6d28	0.09346992
45	0x3dadb4ef	0.08481776
46	0x3d3f514f	0.0467084
47	0x3d8b8d69	0.06814081
48	0xbecd99f0	-0.40156507
49	0x3de5fa7b	0.11229416
50	0xbb93a93b	-0.004506258
51	0x3df9fd02	0.122064605
52	0xbc781217	-0.015141032
53	0x3e0bf2fc	0.1366691
54	0xbac910c4	-0.001534008
55	0x3d422266	0.047396086
56	0x3ccafb6e	0.024778094
57	0xbce41293	-0.027840888
58	0x3d125884	0.035728946
59	0x3e15864c	0.14602011
60	0xbce91fc1	-0.028457524
61	0x3ca802cf	0.020509152
62	0xbc531a16	-0.012884637
63	0xbd78c215	-0.060731966
64	0x3e7b5ffb	0.24548332
65	0xbd000928	-0.031258732
66	0xbc9d47da	-0.0191993
67	0x3c3e7346	0.011624163
68	0xbd4c2fa6	-0.04985013
69	0x3dcaa097	0.09893911
70	0x3e5c82cc	0.2153427
71	0xbdc53e59	-0.096310325
72	0x3e8d018e	0.2754025
73	0x3b0e7c28	0.0021741483
74	0x3d1268c6	0.03574445
75	0x3e12a80a	0.14321914
76	0xbca832df	-0.02053207
77	0x3cd7475c	0.026279144
78	0x3ccffcb2	0.02538905
79	0x3e17ea9d	0.14835592
80	0xbcafd83b	-0.021465411
81	0xbd223c81	-0.039608482
82	0xbc8d3ec2	-0.01724184
83	0x3cf0a242	0.029374246
84	0x3c981f40	0.018569589
85	0xbc73858a	-0.014863381
86	0x3e2cff56	0.16894278
87	0x3e7497b7	0.23886
88	0x3df24169	0.11828882
89	0x3e14eb4e	0.14542887
90	0x3df9c58c	0.12195882
91	0x3dd0e290	0.10199463
92	0x3da2a075	0.07940761
93	0x3cad1889	0.021129863
94	0xbc485eeb	-0.012229661
95	0x3de2b01e	0.11068748
96	0x3e242c12	0.16032436
97	0xbdb01657	-0.08598011
98	0x3dc6107a	0.096711114
99	0xbce38a99	-0.02777605
100	0xbdb5ae61	-0.08871151
101	0x3e7ea559	0.24867763
102	0x3dc364d3	0.09540715
103	0x3da18def	0.078884
104	0xbd559795	-0.052146513
105	0xbdc69aef	-0.0969752
106	0x3ca9bd4a	0.020720143
107	0x3e9c6dc1	0.30552486
108	0x3d2d889e	0.042366616
109	0xbc739144	-0.014866177
110	0x3d757be7	0.059932616
111	0xbcab3402	-0.020898823
112	0x3d725f47	0.059172895
113	0x3e3645db	0.17800085
114	0xbc26b455	-0.01017483
115	0xbdab950e	-0.08378039
116	0xbe0a82f7	-0.13526522
117	0x3da79f87	0.08184724
118	0xbca55497	-0.020181937
119	0xbd15ad3b	-0.03654216
120	0x3dba5334	0.09097901
121	0x38dddc08	0.00010579085
122	0x3e383d6f	0.17992185
123	0x3bfb6a3c	0.0076725762
124	0xbd5564f6	-0.052098237
125	0x3e04ef6b	0.12981956
126	0xbe1d14f5	-0.15340026
127	0xbd26b695	-0.040701468

actor_fc_layers.blocks.1.block.1.running_mean f4 [128]
0	0x00000000	0.0
1	0x00000000	0.0
2	0x00000000	0.0
3	0x00000000	0.0
4	0x00000000	0.0
5	0x00000000	0.0
6	0x00000000	0.0
7	0x00000000	0.0
8	0x00000000	0.0
9	0x00000000	0.0
10	0x00000000	0.0
11	0x00000000	0.0
12	0x00000000	0.0
13	0x00000000	0.0
14	0x00000000	0.0
15	0x00000000	0.0
16	0x00000000	0.0
17	0x00000000	0.0
18	0x00000000	0.0
19	0x00000000	0.0
20	0x00000000	0.0
21	0x00000000	0.0
22	0x00000000	0.0
23	0x00000000	0.0
24	0x00000000	0.0
25	0x00000000	0.0
26	0x00000000	0.0
27	0x00000000	0.0
28	0x00000000	0.0
29	0x00000000	0.0
30	0x00000000	0.0
31	0x00000000	0.0
32	0x00000000	0.0
33	0x00000000	0.0
34	0x00000000	0.0
35	0x00000000	0.0
36	0x00000000	0.0
37	0x00000000	0.0
38	0x00000000	0.0
39	0x00000000	0.0
40	0x00000000	0.0
41	0x00000000	0.0
42	0x00000000	0.0
43	0x00000000	0.0
44	0x00000000	0.0
45	0x00000000	0.0
46	0x00000000	0.0
47	0x00000000	0.0
48	0x00000000	0.0
49	0x00000000	0.0
50	0x00000000	0.0
51	0x00000000	0.0
52	0x00000000	0.0
53	0x00000000	0.0
54	0x00000000	0.0
55	0x00000000	0.0
56	0x00000000	0.0
57	0x00000000	0.0
58	0x00000000	0.0
59	0x00000000	0.0
60	0x00000000	0.0
61	0x00000000	0.0
62	0x00000000	0.0
63	0x00000000	0.0
64	0x00000000	0.0
65	0x00000000	0.0
66	0x00000000	0.0
67	0x00000000	0.0
68	0x00000000	0.0
69	0x00000000	0.0
70	0x00000000	0.0
71	0x00000000	0.0
72	0x00000000	0.0
73	0x00000000	0.0
74	0x00000000	0.0
75	0x00000000	0.0
76	0x00000000	0.0
77	0x00000000	0.0
78	0x00000000	0.0
79	0x00000000	0.0
80	0x00000000	0.0
81	0x00000000	0.0
82	0x00000000	0.0
83	0x00000000	0.0
84	0x00000000	0.0
85	0x00000000	0.0
86	0x00000000	0.0
87	0x00000000	0.0
88	0x00000000	0.0
89	0x00000000	0.0
90	0x00000000	0.0
91	0x00000000	0.0
92	0x00000000	0.0
93	0x00000000	0.0
94	0x00000000	0.0
95	0x00000000	0.0
96	0x00000000	0.0
97	0x00000000	0.0
98	0x00000000	0.0
99	0x00000000	0.0
100	0x00000000	0.0
101	0x00000000	0.0
102	0x00000000	0.0
103	0x00000000	0.0
104	0x00000000	0.0
105	0x00000000	0.0
106	0x00000000	0.0
107	0x00000000	0.0
108	0x00000000	0.0
109	0x00000000	0.0
110	0x00000000	0.0
111	0x00000000	0.0
112	0x00000000	0.0
113	0x00000000	0.0
114	0x00000000	0.0
115	0x00000000	0.0
116	0x00000000	0.0
117	0x00000000	0.0
118	0x00000000	0.0
119	0x00000000	0.0
120	0x00000000	0.0
121	0x00000000	0.0
122	0x00000000	0.0
123	0x00000000	0.0
124	0x00000000	0.0
125	0x00000000	0.0
126	0x00000000	0.0
127	0x00000000	0.0

actor_fc_layers.blocks.1.block.1.running_var f4 [128]
0	0x3f800000	1.0
1	0x3f800000	1.0
2	0x3f800000	1.0
3	0x3f800000	1.0
4	0x3f800000	1.0
5	0x3f800000	1.0
6	0x3f800000	1.0
7	0x3f800000	1.0
8	0x3f800000	1.0
9	0x3f800000	1.0
10	0x3f800000	1.0
11	0x3f800000	1.0
12	0x3f800000	1.0
13	0x3f800000	1.0
14	0x3f800000	1.0
15	0x3f800000	1.0
16	0x3f800000	1.0
17	0x3f800000	1.0
18	0x3f800000	1.0
19	0x3f800000	1.0
20	0x3f800000	1.0
21	0x3f800000	1.0
22	0x3f800000	1.0
23	0x3f800000	1.0
24	0x3f800000	1.0
25	0x3f800000	1.0
26	0x3f800000	1.0
27	0x3f800000	1.0
28	0x3f800000	1.0
29	0x3f800000	1.0
30	0x3f800000	1.0
31	0x3f800000	1.0
32	0x3f800000	1.0
33	0x3f800000	1.0
34	0x3f800000	1.0
35	0x3f800000	1.0
36	0x3f800000	1.0
37	0x3f800000	1.0
38	0x3f800000	1.0
39	0x3f800000	1.0
40	0x3f800000	1.0
41	0x3f800000	1.0
42	0x3f800000	1.0
43	0x3f800000	1.0
44	0x3f800000	1.0
45	0x3f800000	1.0
46	0x3f800000	1.0
47	0x3f800000	1.0
48	0x3f800000	1.0
49	0x3f800000	1.0
50	0x3f800000	1.0
51	0x3f800000	1.0
52	0x3f800000	1.0
53	0x3f800000	1.0
54	0x3f800000	1.0
55	0x3f800000	1.0
56	0x3f800000	1.0
57	0x3f800000	1.0
58	0x3f800000	1.0
59	0x3f800000	1.0
60	0x3f800000	1.0
61	0x3f800000	1.0
62	0x3f800000	1.0
63	0x3f800000	1.0
64	0x3f800000	1.0
65	0x3f800000	1.0
66	0x3f800000	1.0
67	0x3f800000	1.0
68	0x3f800000	1.0
69	0x3f800000	1.0
70	0x3f800000	1.0
71	0x3f800000	1.0
72	0x3f800000	1.0
73	0x3f800000	1.0
74	0x3f800000	1.0
75	0x3f800000	1.0
76	0x3f800000	1.0
77	0x3f800000	1.0
78	0x3f800000	1.0
79	0x3f800000	1.0
80	0x3f800000	1.0
81	0x3f800000	1.0
82	0x3f800000	1.0
83	0x3f800000	1.0
84	0x3f800000	1.0
85	0x3f800000	1.0
86	0x3f800000	1.0
87	0x3f800000	1.0
88	0x3f800000	1.0
89	0x3f800000	1.0
90	0x3f800000	1.0
91	0x3f800000	1.0
92	0x3f800000	1.0
93	0x3f800000	1.0
94	0x3f800000	1.0
95	0x3f800000	1.0
96	0x3f800000	1.0
97	0x3f800000	1.0
98	0x3f800000	1.0
99	0x3f800000	1.0
100	0x3f800000	1.0
101	0x3f800000	1.0
102	0x3f800000	1.0
103	0x3f800000	1.0
104	0x3f800000	1.0
105	0x3f800000	1.0
106	0x3f800000	1.0
107	0x3f800000	1.0
108	0x3f800000	1.0
109	0x3f800000	1.0
110	0x3f800000	1.0
111	0x3f800000	1.0
112	0x3f800000	1.0
113	0x3f800000	1.0
114	0x3f800000	1.0
115	0x3f800000	1.0
116	0x3f800000	1.0
117	0x3f800000	1.0
118	0x3f800000	1.0
119	0x3f800000	1.0
120	0x3f800000	1.0
121	0x3f800000	1.0
122	0x3f800000	1.0
123	0x3f800000	1.0
124	0x3f800000	1.0
125	0x3f800000	1.0
126	0x3f800000	1.0
127	0x3f800000	1.0

actor_fc_layers.blocks.2.block.0.weight f4 [128, 128]
0	0xbdb1798e	-0.08665763
1	0x3d640cd0	0.05567628
2	0xbd130751	-0.03589565
3	0x3c937d83	0.018004185
4	0xbdb46b50	-0.08809531
5	0x3d7736ba	0.060354926
6	0x3cf99fcc	0.030471705
7	0x3cde394b	0.027126929
8	0xbd2f8aac	-0.042856857
9	0x3d280ede	0.041029803
10	0x3d0c5f79	0.034270737
11	0xbd1446cc	-0.03620033
12	0xbd108c9f	-0.035290357
13	0xbd0e8bf8	-0.034801453
14	0xbd805784	-0.06266692
15	0xbd7d4cc3	-0.061840784
16	0xbbdafdcc	-0.006683087
17	0xbd054368	-0.032534987
18	0xbd672101	-0.05642796
19	0xbdaa0d3b	-0.08303305
20	0xbd6b330d	-0.057421733
21	0xbdeb3983	-0.11485579
22	0x3cedd42d	0.029031837
23	0xbdc112af	-0.09427392
24	0xbd75578a	-0.059897937
25	0xbdb92b14	-0.090414196
26	0xbcfba577	-0.030718548
27	0xbd809648	-0.06278664
28	0x3d74cced	0.059765745
29	0xbc03f9e8	-0.008055188
30	0x3d57e3d6	0.052707516
31	0x3d9b753c	0.0759072
32	0xbc56b407	-0.013104445
33	0xbca1ec05	-0.019765863
34	0xbc071730	-0.008245274
35	0xbdb28c25	-0.08718137
36	0xbd5f66d6	-0.05454143
37	0x3d620088	0.055176288
38	0xbdc1257a	-0.09430976
39	0x3cba10df	0.022713123
40	0x3d792e6a	0.06083528
41	0xbc26a1cb	-0.01017041
42	0xbd27240c	-0.04080586
43	0x3cf6ca90	0.030125886
44	0xbda5b8d8	-0.08091897
45	0xbcf3ba4d	-0.029751921
46	0x3d522c27	0.05131164
47	0xbce4fd0a	-0.02795269
48	0x3ca4f202	0.02013493
49	0xbda7101f	-0.08157372
50	0xbd30f052	-0.043197937
51	0xbc03b588	-0.008038886
52	0xbd8765ec	-0.06611237
53	0x3c499b42	0.012305083
54	0xbd73fbd5	-0.059566338
55	0xbdb5ab25	-0.08870534
56	0x3d5be9fb	0.053689938
57	0xbd98f4b8	-0.074685514
58	0x3d5ceb0e	0.053935103
59	0xbd5bf4e3	-0.05370034
60	0xbdfafbb0	-0.12255037
61	0xbd5b8d1e	-0.053601377
62	0xbd9f5732	-0.07780303
63	0x3cd0624c	0.025437497
64	0x3c0dfe84	0.008666638
65	0xbdb45c83	-0.08806708
66	0x3c83dc4c	0.016096257
67	0x3d2db991	0.042413298
68	0x3d9d47b8	0.07679695
69	0x3c0a8180	0.008453727
70	0xbd7b91fd	-0.061418522
71	0xbd70ef3c	-0.0588219
72	0xbd8d31cd	-0.06894264
73	0xbd8d8553	-0.06910195
74	0xbdb3a5c2	-0.0877185
75	0xbcd12e04	-0.025534637
76	0xbcb19ea8	-0.021682099
77	0x3d943ba1	0.07237936
78	0xbd08f44b	-0.0334361
79	0xbd005c66	-0.031338118
80	0x3c8de7d9	0.017322468
81	0x3b83491c	0.004006518
82	0xbcf4f83d	-0.029903525
83	0xbc224e0f	-0.009906306
84	0x3d40673d	0.046973456
85	0xbd6cd033	-0.05781574
86	0xbd7bede5	-0.06150617
87	0x3d660337	0.05615541
88	0x3aebfbab	0.001800408
89	0xbd6e8c38	-0.05823919
90	0xbd9a510c	-0.0753499
91	0xbc20b662	-0.009809108
92	0x3c3014a1	0.010747106
93	0xbd62ff91	-0.05541951
94	0x3c318268	0.010834314
95	0xbd591f2f	-0.053008255
96	0xbda5bbaa	-0.08092435
97	0x3d63ca73	0.055612992
98	0xbd4cecd5	-0.050030548
99	0x3d24aa1b	0.040201288
100	0xbc9f4bf9	-0.019445406
101	0xbd9f84e7	-0.07789021
102	0xbcc79b77	-0.024366124
103	0xbd8d4b6e	-0.06899153
104	0xbdae99da	-0.085254386
105	0x3cd6ad2c	0.026205622
106	0xbcf399f1	-0.02973649
107	0xbdee74fc	-0.11643407
108	0xbd31a769	-0.043372545
109	0xbd7a58fa	-0.06112001
110	0xbc989316	-0.018624824
111	0x3b80edaf	0.003934584
112	0x3d230aea	0.03980533
113	0xbd8ba5d2	-0.06818737
114	0xbd1b0b6b	-0.037852686
115	0x3cc1a6b3	0.023639059
116	0xbd0497c1	-0.032371286
117	0xbdc6de3f	-0.09710359
118	0xbc9991e8	-0.018746331
119	0x3d9ac00f	0.075561635
120	0xbd92462e	-0.07142292
121	0xbdbd9ada	-0.09258051
122	0xbdb19e5d	-0.086727835
123	0x3d0bdfb3	0.034148883
124	0xbd90d538	-0.07071918
125	0x3d4b8627	0.049688485
126	0xbd9bcf54	-0.07607904
127	0xbd83059c	-0.06397554
128	0xbcbe6985	-0.023243675
129	0xbd5aaf95	-0.053390104
130	0x3dac4793	0.08412089
131	0xbd986701	-0.074415214
132	0xbd944412	-0.07239546
133	0x3cbd137b	0.023080578
134	0xbd113dae	-0.035459213
135	0x3d9010bb	0.07034441
136	0xbe6baa79	-0.23014249
137	0xbd679228	-0.05653587
138	0x3c8e2b03	0.017354494
139	0xbd3cb820	-0.046074033
140	0x3bdac943	0.0066768243
141	0xbd634c1d	-0.05549251
142	0xbce0bf7c	-0.027435057
143	0xbd5e4c60	-0.054272056
144	0xbdc41bab	-0.0957559
145	0xbdcfa8a1	-0.10139585
146	0x3d7e706d	0.062118936
147	0x3e0ef7c3	0.13961701
148	0xbe2b2336	-0.1671265
149	0x3db4d508	0.08829695
150	0xbd903a9c	-0.07042429
151	0x3d3be477	0.045872178
152	0x3d77ac42	0.060467012
153	0xbd5a5834	-0.053306773
154	0x3cd7c1c0	0.026337504
155	0xbde3b945	-0.11119322
156	0x3db729cf	0.08943521
157	0xbca43a0e	-0.020047214
158	0xbbd04202	-0.006355525
159	0xbd6509ab	-0.055917423
160	0x3b5ee8bd	0.0034013235
161	0xbcb54131	-0.022125812
162	0xbd9e460f	-0.07728206
163	0x3c8917dc	0.01673501
164	0xbcdca6ad	-0.026934946
165	0xba8632af	-0.0010238494
166	0x3d913b4a	0.070913866
167	0x3c1f41d4	0.0097202845
168	0xbdb467ca	-0.08808859
169	0xbd0173a0	-0.03160441
170	0x3d96845d	0.07349465
171	0xbe47dcb4	-0.19517785
172	0x3daa9abb	0.08330294
173	0xbdfa858e	-0.12232505
174	0x3b51eda1	0.0032032507
175	0xbda5728e	-0.0807849
176	0xbc644a66	-0.013933754
177	0xbd910490	-0.07080948
178	0xbe3e1cfd	-0.18565746
179	0xbd9c9f17	-0.076475315
180	0x3c93534b	0.017984053
181	0xbdbcb0ce	-0.0921341
182	0xbb3be2dd	-0.0028669157
183	0xbc4c13df	-0.0124559095
184	0x3cdb9ec1	0.026809098
185	0xbda899fa	-0.08232494
186	0xbd64a859	-0.05582461
187	0x3a54fd9a	0.0008124948
188	0x3cb78503	0.022402292
189	0x3a874168	0.0010319175
190	0xbc53b77b	-0.012922163
191	0xbd4e212a	-0.050324596
192	0xbd58d38e	-0.05293613
193	0xbc604349	-0.013687917
194	0xbd0e881a	-0.034797765
195	0x3ba2e6d2	0.0049713636
196	0x3d8be4f1	0.068307765
197	0xbd149594	-0.03627546
198	0x3db9bfaf	0.09069764
199	0xbe20f793	-0.15719442
200	0x3c1ed87e	0.00969517
201	0xbd115710	-0.03548342
202	0x3d0dfbf0	0.034664094
203	0x3d8fd42d	0.07022891
204	0xbca9bee4	-0.020720907
205	0xbd54e23e	-0.051973574
206	0x3d8b4e44	0.06802037
207	0x3e46bdec	0.19408387
208	0xbd4ddd94	-0.05026014
209	0x3cf2c675	0.029635647
210	0xbc763911	-0.015028254
211	0xbd8c8bce	-0.06862603
212	0xbd99eb9b	-0.07515641
213	0xbd8a5f9a	-0.06756516
214	0x3d8922e2	0.066961065
215	0x3c8d7f32	0.017272566
216	0x3da94bff	0.08266448
217	0xbcfb1bf1	-0.030652972
218	0x3e0828d9	0.13296832
219	0xbd3ffb52	-0.046870537
220	0x3d839f7d	0.06426904
221	0xbd25ed9a	-0.040509798
222	0x3d303b93	0.043025564
223	0x3d223b2d	0.039607216
224	0xbd2a6cf7	-0.041607823
225	0xbdaa815e	-0.08325456
226	0xbdc8fc44	-0.09813741
227	0x3da72e74	0.08163157
228	0xbc917afc	-0.017758839
229	0x3d866a2e	0.06563221
230	0x3dfcf882	0.123520866
231	0xbd997ca4	-0.074944764
232	0x3d9f5d34	0.07781449
233	0xbd3c6fa9	-0.046004925
234	0xbd20d6a1	-0.039267186
235	0x3e031150	0.12799573
236	0xbda57bd9	-0.08080263
237	0x3b890a11	0.004182108
238	0xbd0e1f75	-0.03469797
239	0x3cdae98f	0.026722698
240	0xbdc3a1b7	-0.09552329
241	0x3db27b68	0.08714944
242	0x3ae1c49b	0.0017224731
243	0x3c927bd9	0.01788132
244	0x3d86f0e4	0.06588915
245	0xbd7631a2	-0.060105927
246	0xbcf43aec	-0.029813252
247	0x3dbf3b37	0.09337466
248	0x3ce327e0	0.027728975
249	0x3da7b465	0.081887044
250	0xbd480c4c	-0.048839852
251	0x3d58fe25	0.052976746
252	0xbd3514be	-0.044209234
253	0xbe70ea70	-0.23526931
254	0x3e17ff18	0.14843404
255	0xbd93746a	-0.071999386

actor_fc_layers.blocks.2.block.1.weight f4 [128]
0	0x3f74d58c	0.95638347
1	0x3f7ce4a1	0.9878636
2	0x3f8cda48	1.1004114
3	0x402ef7d7	2.733877
4	0x3f6e226f	0.9302129
5	0x3f6206d8	0.8829169
6	0x3f7520a5	0.95752937
7	0x3f6b5b7e	0.9193648
8	0x40410c48	3.0163746
9	0x3fd1d785	1.6393896
10	0x3fbef156	1.49174
11	0x3f770940	0.9649849
12	0x3fa0fe35	1.2577578
13	0x3f7695c2	0.9632226
14	0x3f5db8ff	0.86610407
15	0x3f738085	0.9511798
16	0x3f780089	0.96875817
17	0x3f8d2337	1.1026372
18	0x3f78600f	0.97021574
19	0x3f940578	1.1564169
20	0x3f70b8aa	0.94031775
21	0x3fba652a	1.4562123
22	0x3f7d9b83	0.9906542
23	0x3f9ee9fb	1.2415155
24	0x3fbb5173	1.4634231
25	0x3f74f4d1	0.9568606
26	0x4055c78d	3.3403046
27	0x3f480bd0	0.78143024
28	0x3fa749e6	1.3069427
29	0x3f5daad8	0.8658881
30	0x3f52280f	0.82092375
31	0x3fcaf13e	1.5854871
32	0x3fb46496	1.4093196
33	0x3fe588c7	1.7932366
34	0x3f7e127c	0.99246955
35	0x3fb7c202	1.4356081
36	0x3f62e7d6	0.88635004
37	0x3f779992	0.96718705
38	0x3f75b5c6	0.9598049
39	0x3f834aa8	1.0257158
40	0x3fe6dce4	1.803616
41	0x3f6d7b14	0.9276593
42	0x3f90acdb	1.1302751
43	0x3f7ca0ee	0.9868306
44	0x3fbb5aaf	1.463705
45	0x3f77f69a	0.9686066
46	0x3f7e005c	0.992193
47	0x403b4300	2.9259644
48	0x40067145	2.1006634
49	0x3f7640e6	0.9619278
50	0x3f6e735a	0.9314476
51	0x3f72cc18	0.9484267
52	0x3fa6f2a2	1.3042796
53	0x3f90ec35	1.1322085
54	0x3f7d4afd	0.9894255
55	0x3fa682d3	1.3008674
56	0x3f8e0418	1.1094999
57	0x3f6ad119	0.9172531
58	0x3f9e9539	1.2389289
59	0x3f738c9c	0.9513643
60	0x3f7b1d36	0.9809145
61	0x3f66639c	0.8999574
62	0x3f55fca7	0.8358864
63	0x3f746514	0.9546673
64	0x3f7aff6f	0.9804601
65	0x3f7158fc	0.94276404
66	0x3f46398c	0.7743156
67	0x3f6d5b09	0.92717034
68	0x3f8ac8b5	1.0842501
69	0x3f8c8021	1.0976602
70	0x3f8124ed	1.0089394
71	0x3f505a83	0.8138811
72	0x3f989f9e	1.1923711
73	0x3faf90e9	1.3716098
74	0x3f7ae399	0.98003536
75	0x3fa9dbad	1.3270165
76	0x3f79ed98	0.97628164
77	0x3f76f700	0.9647064
78	0x3fb3973f	1.4030532
79	0x3f75c173	0.95998305
80	0x3f7ca700	0.9869232
81	0x3fc52731	1.5402585
82	0x3fbbd52c	1.467443
83	0x3f8a79c4	1.081841
84	0x3f84ae27	1.0365647
85	0x3f5bf31d	0.85917836
86	0x3f6fd420	0.9368305
87	0x3f723598	0.9461303
88	0x3f9b1a15	1.2117335
89	0x3f7a1140	0.9768257
90	0x3f6e1e1f	0.9301471
91	0x3fa14075	1.2597796
92	0x3fa3e3d2	1.28039
93	0x3fa361e7	1.2764252
94	0x3f767ee9	0.962874
95	0x3f9b0146	1.2109764
96	0x3f74a21a	0.9555985
97	0x3f727d5b	0.9472253
98	0x3f92983f	1.1452712
99	0x3fb6f12f	1.4292353
100	0x3f991c8f	1.196184
101	0x3f7c7290	0.9861231
102	0x3f753ea5	0.9579871
103	0x3fef3be3	1.8690151
104	0x3f61ceb0	0.88206005
105	0x3fc443f3	1.5333236
106	0x3f7c7c69	0.98627335
107	0x3f6ffca3	0.9374487
108	0x3f7ce52e	0.987872
109	0x3f89733f	1.0738295
110	0x3f9a5cbc	1.205955
111	0x3f7beddd	0.98409826
112	0x3f790176	0.97267854
113	0x3f511fbc	0.8168905
114	0x3f9357d1	1.1511174
115	0x3fa062c4	1.2530141
116	0x3f9d4278	1.228591
117	0x3fa5f4ff	1.2965392
118	0x3f517564	0.8181975
119	0x3f95fe4b	1.1718229
120	0x3fd894fc	1.6920466
121	0x3f5b52c9	0.85673195
122	0x3f7a0cad	0.9767559
123	0x3f8e4ec0	1.1117783
124	0x3f736742	0.95079434
125	0x3f9a1791	1.2038442
126	0x3fa48d0a	1.2855542
127	0x3f7569cc	0.9586456

actor_fc_layers.blocks.2.block.1.bias f4 [128]
0	0xbd13e19d	-0.036103833
1	0xbd53d380	-0.051715374
2	0xbd6c6a10	-0.057718337
3	0x3e7cdf70	0.2469461
4	0xbdace7a6	-0.08442621
5	0xbbfee39b	-0.0077785975
6	0xbd6cb874	-0.057793096
7	0x3e3af44c	0.18257254
8	0x3e8064b0	0.25076818
9	0x3d7648f2	0.06012816
10	0xbb1d88a9	-0.0024037755
11	0xbd6436a7	-0.055716183
12	0xbec369f3	-0.3816677
13	0x3e41496a	0.18875661
14	0x3e1dc15e	0.15405795
15	0xbdbed9be	-0.09318875
16	0xbcebfbb3	-0.028806543
17	0xbdac69bf	-0.08418607
18	0xbcab9980	-0.020947218
19	0x3e8ba206	0.27272052
20	0x3d346082	0.04403735
21	0xbd727e8e	-0.059202723
22	0xbc54d8ac	-0.012991112
23	0x3e561720	0.20907259
24	0xbd024a93	-0.0318094
25	0x3ea83406	0.3285219
26	0x3d9922a5	0.07477311
27	0x3d2507e5	0.040290732
28	0x3e6de279	0.23230924
29	0x3e60ea08	0.21964276
30	0x3cc23a5d	0.02370947
31	0xbd985256	-0.07437579
32	0x3e41c45c	0.18922561
33	0xbd7c2d94	-0.061566904
34	0xbc93ce92	-0.018042836
35	0x3e768a37	0.24076162
36	0xbd66ffc9	-0.05639628
37	0xbc88bfc7	-0.016693009
38	0xbd414d6f	-0.047192987
39	0xbd544760	-0.05182588
40	0xbdb3929f	-0.087682
41	0x3e016631	0.12636639
42	0xbd484033	-0.04888935
43	0x3d090c0b	0.03345875
44	0xbc47118c	-0.01215018
45	0xbd3d8778	-0.04627177
46	0xbc2c2308	-0.010506399
47	0xbd530dca	-0.051526822
48	0x3e929935	0.28632513
49	0xbd271130	-0.040787876
50	0xbd80cd99	-0.06289215
51	0xbe6a3784	-0.2287274
52	0xbe8d5cd8	-0.27609897
53	0x3d0ead4e	0.034833245
54	0xbdef8bc5	-0.11696581
55	0x3e8a68f4	0.27033198
56	0xbe6e0074	-0.2324236
57	0x3ded4e97	0.115872554
58	0xbe4538b0	-0.19259906
59	0xbd672048	-0.05642727
60	0xbd56b8ed	-0.052422453
61	0xbdba41cb	-0.0909458
62	0x3d4c6ce2	0.049908526
63	0xbdc34c1e	-0.095360026
64	0xbd077dd2	-0.033078976
65	0x3df69e78	0.12041944
66	0x3d7364af	0.05942219
67	0x3d4acdd3	0.049512696
68	0xbea3858c	-0.31937826
69	0xbe81932d	-0.253076
70	0xbe37b85f	-0.17941426
71	0x3d59775e	0.053092353
72	0x3e8bca5d	0.27302828
73	0x3e12b2c2	0.14326003
74	0xbd23b876	-0.039970838
75	0xbee30407	-0.4433901
76	0xbd02cb85	-0.031932373
77	0xbcff1bfc	-0.031141274
78	0x3d8f3f17	0.06994455
79	0xbd3326a4	-0.043738022
80	0xbcd3ca2f	-0.025853245
81	0xbeab230a	-0.3342517
82	0xbb7c75f2	-0.003852245
83	0x3e690e06	0.22759256
84	0x3dc8bb0a	0.098013
85	0xbe230dc5	-0.15923221
86	0xbd5319be	-0.05153822
87	0x3e4909cc	0.19632643
88	0xbd7a5eb0	-0.061125457
89	0xbd04ff1f	-0.032469865
90	0xbcbab888	-0.02279307
91	0xbe5b928f	-0.21442626
92	0xbdafa91f	-0.08577179
93	0xbcda6143	-0.026657706
94	0xbd28b683	-0.04118968
95	0x3ea3215c	0.3186139
96	0x3d40c400	0.04706192
97	0xbd9aed7b	-0.07564827
98	0xbe71c957	-0.23611961
99	0x3e9a2398	0.3010528
100	0xbde3cf8b	-0.1112357
101	0x3caa3335	0.02077637
102	0xbd6d318c	-0.05790858
103	0x3d56dce9	0.05245677
104	0xbd8a44ee	-0.067514285
105	0x3e5e4903	0.2170754
106	0xbd75ba8e	-0.059992366
107	0xbd89c822	-0.067276254
108	0x3e2fd2fe	0.17170331
109	0xbd4f399d	-0.050592054
110	0x3dcf1771	0.10111893
111	0xbc86580a	-0.016399402
112	0x3c004a73	0.00783025
113	0x3da1b95c	0.078966826
114	0xbdc1a0f6	-0.09454529
115	0xbdcb32ca	-0.099217966
116	0x3e9500da	0.29102212
117	0x3d88f25b	0.06686851
118	0x3e858600	0.26078796
119	0x3e509a51	0.20371367
120	0xbe522983	-0.20523648
121	0x3eb2bb74	0.3490864
122	0xbd2093c2	-0.039203413
123	0x3eba377a	0.3637045
124	0xbe9722ee	-0.29518837
125	0xbe060f27	-0.13091718
126	0xb9b2c93e	-0.00034100743
127	0xbe3159bc	-0.17319387
