saved_models/agent_maddpg_vs_opp_maddpg_2_vs_2_1_agent_best_models/maddpg_actor_0.pt (torch, 160267 bytes, 21 tensors)

actor_fc_layers.blocks.0.block.0.weight f4 [128, 21]
00000000: 037a 3dbe 7c2f 9abd f674 9c3e a2a9 9f3f
00000010: af54 8d3f 662d bc3e 297e 833d ed66 c6bc
00000020: aaa3 d13d e412 e1bd 6ff6 913e 9959 143e
00000030: fc8a 133f 7e87 653e 5c52 633e 50d5 94be
00000040: be11 9d3e bb8a 433e cec3 7cbe 93b3 ab3d
00000050: a3bf e0b9 59ed 853d 8eca c93c 28db 2f3f
00000060: b863 91bf 790d ba3b 011a 81bf 9056 363d
00000070: 23c1 ae3d 6230 ed3c 210d 243e 4250 6d3f
00000080: db70 843e cfd4 0bbe 9411 11bf 7f21 633e
00000090: 7766 183b 0ad5 243e c6fa 95bd bf2d 543d
000000a0: 3e0f 2cbe e8d8 053e 429d c63d 61e6 01bc
000000b0: 7144 f8be 1568 013f a5fd bf3e 61e1 983e
000000c0: 34c0 babc dd3e b63d ab8c cd3d 6b24 823e
000000d0: 7dee aabe 3896 0dbf d0af 1e3f 7dfe 33be
000000e0: 0469 873d 518a e83e 8e1c c4be 3918 debe
000000f0: 7d84 5a3e 961e 3bbe 5cbb 323e c1f6 d63d
00000100: aadf c23d 6be5 a43f 6645 f03e 506c 9c3f
00000110: 6c36 b2be 43a2 933d 2ffe aebd 1368 e73d
00000120: 389a aebd 066f 13be 358f 083e 0bcf 4e3e
00000130: ee01 38bd 247d ffbe 22f6 0ebf d259 e23e
00000140: 11d2 933d b3d1 27be f21a a3bb 013d 373e
00000150: 21a9 aebe 9be2 a2bd 34bb 173f e815 8abd
00000160: d495 893e a4a8 e8be 6c1f 433d b673 1c3b
00000170: 1e62 1d3c d329 493e cfdf 51be 2c2a 0d3e
00000180: c841 0c3f 5ad2 cb3e 8286 b7be fb41 623e
00000190: 8e18 2dbe 50ea d13d 7ccf dfbc 17e2 babd
000001a0: 4a91 913d cb26 b23d 4cd0 0c3b 57c0 793f
000001b0: f653 fc3d 9869 b9bd 4459 e8bd d7a7 ac3d
000001c0: 386f d73d 4874 87bd b7be 613f 8eb9 18bf
000001d0: ee67 48bf 8083 2c3f b5da 493f 9661 adbf
000001e0: 2db7 a23e a6cc a3be 7e4f babd c5ec 0a3e
000001f0: ee5e 093e 22b3 73bd f323 04be 67d1 cbbd
00000200: b059 02bf c968 403f cec3 2c3d 9203 933d
00000210: 9983 ff3d 71d5 04bc c107 a83d c07d 823d
00000220: 9d63 c0be b85e 37bd 7aa8 183f fe3c 42be
00000230: 6dd8 adbe 7842 bd3d d8bb 08be 984f d4be
00000240: 04fc d03e 6b0d f2bd a800 fc3d 5d2b 38bd
00000250: f392 0e3d ba25 b8be 275f 023f c5d3 583e
00000260: ebdb 7fbd 25ba 123d 5ddc 4bbe e45d 0dbe
00000270: ba35 ee3d 291c 1abd 0bfa 4f3e cdae 4cbe
00000280: 74b8 a3bf 14f3 c6be 62bc fcbc 8c90 9f3d
00000290: 9d7b 423c 3559 82bd c46b 1dbf 062e 593f
000002a0: 1b31 eebc 8114 06be c6ad a33e e712 0dbf
000002b0: 12f4 5c3e 90f6 393e bb5d 11be 6be1 533e
000002c0: ffca 5abd 21aa 033f 5b46 28bf e73e a5bf
000002d0: 73f1 14bf 98cc 393f 7330 12bd 64e1 c63e
000002e0: 8665 8cbe 1277 d1be a864 973e e26e 633e
000002f0: 67ab 36be 780c 1c3e 4e5d 7d3e 80ea f1be
00000300: 42b5 d3bd fe8e 5a3c f0d9 4d3f 6a86 803d
00000310: 9898 4f3e 4e8d ac3d a882 d13d ca88 03bf
00000320: 1a40 f53d 4220 4bbe 889a bfbe 0518 28bf
00000330: f1dc 623e 9d62 f03d 4dad 703e 7560 1abe
00000340: 67dd 42be 900f cc3d 5700 29bf d47e 1e3e
00000350: 9d1f e53d 1b4c 953e 492b ecbe 5dea 6abe
00000360: 3320 bc3d fb90 ef3d b466 15be 6b19 bcbd
00000370: 0959 adbc e086 673d 2811 343f 85d6 373f
00000380: 2daf 2ebe 97b5 3ebe 7a33 0b3e 9457 7f3d
00000390: d7f4 673c 1b86 2ebc ab6a ffbd ce6c 193e
000003a0: 76d8 b4bf ca67 52be 8051 c4be 7ab7 a23e
000003b0: be82 1b3e 7c56 40bf c0a2 443e f38c a73d
000003c0: ba69 553e 0474 93be 28d2 4cbf 4705 303f
000003d0: 7c59 fb3d b1c3 33bf dfc9 bd3d 3661 dc3c
000003e0: 2822 e2be 45c6 ae3e 4af2 4b3b 40b9 4bbd
000003f0: 0d11 2d3e d413 7d3d 9145 9b3e 134b 0ebf
-0.18503575 -0.07528588 0.30557984 1.2473643 1.1041468 0.36753386 0.064205475 -0.024219
0.102362946 -0.10989931 0.28508326 0.14487304 0.5763395 0.22414967 0.22199386 -0.29068995
0.306776 0.1909589 -0.24684069 0.083838604 -0.0004286739 0.06539411 0.024632718 0.6869378
-1.1358557 0.0056778756 -1.0086061 0.044516146 0.08532932 0.028953735 0.16020633 0.9270059
0.25867352 -0.13655399 -0.5666745 0.22180746 0.0023254433 0.16096893 -0.07323222 0.05180144
-0.1680269 0.13071024 0.09697963 -0.007928462 -0.48489717 0.5054944 0.37498203 0.2985945
-0.022796728 0.08898709 0.10036596 0.2541841 -0.33385077 -0.5530734 0.6198702 -0.17577548
0.06611827 0.45418027 -0.38303035 -0.43377855 0.21339603 -0.18273386 0.17454284 0.10496283
0.09515317 1.2882513 0.46927947 1.2220554 -0.34807146 0.07208683 -0.085445754 0.112991475
-0.08525509 -0.14397821 0.13335879 0.20196168 -0.044923715 -0.49900162 -0.5584432 0.44209152
0.07217801 -0.16388588 -0.0049775774 0.17894365 -0.3411341 -0.07953378 0.59270024 -0.067424595
0.26872122 -0.45441163 0.047637388 0.002387268 0.0096059125 0.19644861 -0.20495532 0.13785619
0.54787874 0.39808923 -0.3584481 0.22095482 -0.16903898 0.1024977 -0.027320616 -0.091251545
0.0710779 0.086988054 0.002148646 0.9755911 0.12320702 -0.090533435 -0.11345151 0.084304504
0.1051926 -0.06613976 0.8818163 -0.59658134 -0.78283584 0.67388153 0.78849345 -1.3545406
0.31780377 -0.31992072 -0.09097193 0.13566883 0.13415119 -0.059497006 -0.12904339 -0.0995205
-0.509181 0.7515989 0.04217892 0.07178415 0.12476272 -0.008107529 0.08204604 0.06371641
-0.37576 -0.044768065 0.59632075 -0.18968579 -0.33954182 0.092411935 -0.13352907 -0.41466975
0.40817273 -0.118189655 0.12304813 -0.04496323 0.03480811 -0.35966283 0.5092644 0.21174534
-0.06246559 0.035822053 -0.1990828 -0.13805348 0.11631341 -0.037624512 0.20310228 -0.19988556
-1.2790666 -0.3885733 -0.030851547 0.07791242 0.011870292 -0.06364671 -0.6149256 0.8483585
-0.02907615 -0.13093759 0.31968516 -0.5510697 0.2157748 0.18160462 -0.14195912 0.20691459
-0.05341625 0.5143147 -0.65732354 -1.2909821 -0.5818092 0.7257781 -0.035690736 0.38843834
-0.27421206 -0.40911156 0.29568982 0.22210267 -0.17838822 0.15239131 0.24742624 -0.47249222
-0.103373066 0.013339756 0.8041067 0.062756374 0.20273054 0.08425389 0.10229999 -0.513806
0.11975117 -0.19836524 -0.37422585 -0.6566165 0.22154595 0.11737559 0.23503609 -0.15075858
-0.19029771 0.09963906 -0.66016144 0.15478069 0.111876704 0.29159626 -0.46126774 -0.22940965
0.09185829 0.11697575 -0.1458996 -0.091845356 -0.02116062 0.05652511 0.7033868 0.71811706
-0.17059012 -0.18623959 0.13593856 0.06233938 0.014157495 -0.01065209 -0.12471517 0.14982912
-1.4128559 -0.20547405 -0.3834343 0.31780607 0.15186593 -0.75131965 0.19202709 0.08181181
0.20841113 -0.2879945 -0.80008173 0.6875805 0.12272927 -0.70220476 0.092670195 0.026901823
-0.44166684 0.34135643 0.0031119757 -0.049737215 0.16901036 0.061786488 0.30326512 -0.55583304

actor_fc_layers.blocks.0.block.1.weight f4 [128]
00000000: b186 a23f 04f0 8d3f 0dc1 9e3e e4a8 983f
00000010: c1af 343f 9ecd cd3f c18f 493e aae7 c93f
00000020: 919d e83f 446c 723f dfdf a43f 5f3e bb3f
00000030: 8fd8 a73f 086f 7d3f 7822 7a3f 7e58 893f
00000040: 5147 833f 21a7 ea3f a5d5 933f 1b01 a13f
00000050: 463d 6a3f bacc 0b40 5e94 6e3f 32b9 8b3e
00000060: 03f5 ab3f e994 8b3f 0feb bc3e 49a5 a23f
00000070: 6a88 c83f 6b17 833f 6c5b a83f a8a7 903f
00000080: 9682 403f ab82 9e3f 8572 723f 32d2 833f
00000090: 3302 a23f 5bfa 423f 36e6 553f 0446 393f
000000a0: 5124 913f 290a 533f e51d f43f 337f 953f
000000b0: 9285 a53f 6269 813f c626 a73f 219e bc3f
000000c0: 2732 b33f af53 473f 0e37 0140 44a2 d03f
000000d0: 0711 903f a426 4c3f e03c ee3f 664a a03f
000000e0: 0857 773f 5acd 913e d471 d63f 1486 8e3f
000000f0: 2ba9 7b3f 859b 803f 977c 4e3f f094 143f
00000100: 9b29 943f 09b9 413f 81f1 0040 9676 573f
00000110: 1508 883f 51d5 453f 6aa3 c73f 41ee 853f
00000120: 697d f83e 1550 6a3f 93a1 7a3e 2a12 433f
00000130: 58e6 c53f 0f45 a33f 0aed 843f 5251 973f
00000140: f6fa 813f 93a0 8b3f 02f9 863f f756 0d40
00000150: 0eac 5b3f c94f ce3f 552e 5e3f 691f 0140
00000160: 4297 a73f 49d0 d33f 7f7e 2f3f 2371 9c3f
00000170: daf5 883f 58ea b43f b586 923f eb29 1b3f
00000180: b5e4 1140 03cd 993d 915f a63f 4847 df3f
00000190: 4f04 b13f 07e1 103f 8aab f33f c93b b23f
000001a0: 1929 943f 7fcf c73f 4615 973f 0fff 973f
000001b0: 9dc1 363f a30b 8c3f 375d 923f 32fd ef3f
000001c0: bebc a73f a29b d13e 30f1 6b3f 3ba7 1b3f
000001d0: 2191 973f d94f 9a3f 4a62 323f 0188 0940
000001e0: 5e3b a03f dea3 a63f a6c9 a63f dda3 5f3f
000001f0: faa0 663f 2dc8 723f f033 723f d1ee a43f
1.2697355 1.1088872 0.3100666 1.1926541 0.7058068 1.6078374 0.19683744 1.5773823
1.8173085 0.9469645 1.288082 1.4628409 1.3112963 0.98997545 0.97708845 1.0730131
1.0256139 1.8332254 1.1549574 1.2578462 0.91499746 2.1843705 0.9319514 0.2728973
1.3434147 1.0904819 0.36898085 1.2706691 1.566663 1.0241522 1.31529 1.1301165
0.7519926 1.2383627 0.9470599 1.0298522 1.2656921 0.7616326 0.835544 0.7237246
1.1339208 0.8243738 1.9071623 1.1679443 1.2931387 1.0110285 1.3058708 1.4735757
1.399968 0.77862066 2.0189853 1.629952 1.1255196 0.7974646 1.8612328 1.2522705
0.96617174 0.28476983 1.6753488 1.1134667 0.98305005 1.0047461 0.8065886 0.5803976
1.1575197 0.75672966 2.0147402 0.8416532 1.0627466 0.7727862 1.5596745 1.0463334
0.4853318 0.91528445 0.24475698 0.7619959 1.546092 1.275545 1.0384839 1.1821692
1.0154712 1.0908378 1.0544741 2.208433 0.8580941 1.6118098 0.8678945 2.0175421
1.3093035 1.6547939 0.6855239 1.2222027 1.0700028 1.4134016 1.1447359 0.60610837
2.2795842 0.07509806 1.2997915 1.7443628 1.382944 0.56593364 1.9036725 1.3924495
1.1575042 1.5610198 1.1803367 1.1874713 0.7138918 1.0941051 1.1434697 1.8749144
1.3104475 0.4093905 0.921649 0.6080205 1.1841165 1.2055618 0.6968123 2.148926
1.2518117 1.3018758 1.3030288 0.8735941 0.9008938 0.94836694 0.946105 1.2885381

actor_fc_layers.blocks.0.block.1.bias f4 [128]
00000000: be44 7a3e 9cb7 45bf 01e0 883e bd8f 25bf
00000010: bf7e a03f 879f c8be c28b 103f f0ea db3e
00000020: f6cf 783e 887d b5bd 8a74 bf3e 3ae9 30bf
00000030: 2a87 b03d 648d 8fbe 6812 893d a052 83bf
00000040: 2237 cd3c 4f91 0e3f 3a94 dabc e911 e1be
00000050: 0f62 d83d ded1 59be 9808 c13e 043d 063f
00000060: 186d 1a3f 6c48 5ebe 6050 cf3e 6ca0 febe
00000070: 7faf d0be 24de 403f aeb0 54be 47ff a83e
00000080: d77d 3c3f 8808 8fbf 20c7 543c 46c6 f43e
00000090: 6440 c43d d1bd a73e 7ff6 a73e 20ef 70bb
000000a0: ea1f a53e d201 a23e fae4 9cbd 75ea 12bf
000000b0: dc64 5ebe ba0f 7b3e d3ef 69bf ccab 78bd
000000c0: f6e0 5a3e 8f97 053f 637d 32be 3fb3 b6be
000000d0: e029 24bf 1f9f 783e 744f 5b3e 58c5 7bbe
000000e0: 54e7 cebe 16fd e73e 55fe 623f 2487 dcbd
000000f0: f24c 11bf 1010 e73e 1530 ad3e e057 893d
00000100: 5da8 0ebf 29ae 553e 1f15 4a3f 2501 8c3e
00000110: 1e58 083e 7d17 603e 6e00 10bd 6964 ff3d
00000120: be1a 113f 21ef af3e 5f63 223f 2d9c a5be
00000130: b761 68be 2c3d a13e 6102 d53e 680f 313d
00000140: 6ed7 e83e c41f 78bf eefe 83bf ec56 e5be
00000150: c8f0 d43d 3a1a 793f bc42 2abf 1aaa 1dbf
00000160: 09f5 7f3d 8347 ff3e 5014 193e b439 093c
00000170: a47b e43d e84a 2a3e d161 2ebf 6af4 a93e
00000180: 9e39 223c 65eb ef3e 8160 b0be 4907 023f
00000190: 352f d13d 8b9e d03e 0a69 883e f940 4d3f
000001a0: abe3 463e d57d 0b3e 66f1 083e 4125 e0be
000001b0: 0451 833e 4450 a03e 0a59 8cbf 3637 233f
000001c0: fec4 5fbf 3177 733f d4d5 7b3d 8122 c83e
000001d0: 6425 053f 5651 43be 88e1 b0bb 4532 25bf
000001e0: dd11 e63d 83ae 733e 82ce 8cbe 4715 93be
000001f0: 26c5 ac3e f7c4 f53d f2b0 e2bd 0559 1f3f
0.24440286 -0.7723329 0.267334 -0.6467245 1.253868 -0.3918421 0.56463253 0.4295268
0.24298081 -0.08861834 0.373936 -0.69105875 0.086195305 -0.2803756 0.06692964 -1.025959
0.025050703 0.55690473 -0.026682008 -0.43958977 0.10565578 -0.21271464 0.3770187 0.5243685
0.60322714 -0.21707314 0.4049101 -0.49731767 -0.40758893 0.7533896 -0.20770523 0.3300726
0.73629516 -1.1174479 0.012986928 0.4780752 0.09582594 0.32762006 0.3280525 -0.0036763623
0.3225091 0.31642014 -0.07660861 -0.57389003 -0.21718162 0.24517718 -0.9138157 -0.060710713
0.21374878 0.52184385 -0.17430644 -0.3568363 -0.64126396 0.2427945 0.21417028 -0.24587
-0.40410864 0.45310277 0.8866933 -0.107679635 -0.56758034 0.45129442 0.33825746 0.06706214
-0.5572565 0.20867218 0.7893848 0.27344623 0.13314864 0.2188396 -0.03515666 0.124703236
0.5668143 0.34362128 0.6343288 -0.32345715 -0.22693525 0.31491983 0.41603377 0.043227583
0.4547686 -0.9692347 -1.0312173 -0.4479288 0.10397488 0.97305644 -0.6650808 -0.6158768
0.062489543 0.49859247 0.14949155 0.008375574 0.11156395 0.16630137 -0.68118006 0.33194286
0.009901432 0.4685928 -0.34448627 0.50792366 0.10214082 0.4074596 0.26642638 0.80177265
0.19422786 0.1362222 0.13373336 -0.43778422 0.25647748 0.31311238 -1.0964673 0.6375612
-0.8740996 0.95103747 0.06148322 0.39088824 0.5201018 -0.19073996 -0.005397979 -0.6452983
0.11233876 0.2379704 -0.27501303 -0.2872717 0.33744162 0.12000459 -0.11068906 0.6224521

actor_fc_layers.blocks.0.block.1.running_mean f4 [128]
00000000: 0000 0000 0000 0000 0000 0000 0000 0000
00000010: 0000 0000 0000 0000 0000 0000 0000 0000
00000020: 0000 0000 0000 0000 0000 0000 0000 0000
00000030: 0000 0000 0000 0000 0000 0000 0000 0000
00000040: 0000 0000 0000 0000 0000 0000 0000 0000
00000050: 0000 0000 0000 0000 0000 0000 0000 0000
00000060: 0000 0000 0000 0000 0000 0000 0000 0000
00000070: 0000 0000 0000 0000 0000 0000 0000 0000
00000080: 0000 0000 0000 0000 0000 0000 0000 0000
00000090: 0000 0000 0000 0000 0000 0000 0000 0000
000000a0: 0000 0000 0000 0000 0000 0000 0000 0000
000000b0: 0000 0000 0000 0000 0000 0000 0000 0000
000000c0: 0000 0000 0000 0000 0000 0000 0000 0000
000000d0: 0000 0000 0000 0000 0000 0000 0000 0000
000000e0: 0000 0000 0000 0000 0000 0000 0000 0000
000000f0: 0000 0000 0000 0000 0000 0000 0000 0000
00000100: 0000 0000 0000 0000 0000 0000 0000 0000
00000110: 0000 0000 0000 0000 0000 0000 0000 0000
00000120: 0000 0000 0000 0000 0000 0000 0000 0000
00000130: 0000 0000 0000 0000 0000 0000 0000 0000
00000140: 0000 0000 0000 0000 0000 0000 0000 0000
00000150: 0000 0000 0000 0000 0000 0000 0000 0000
00000160: 0000 0000 0000 0000 0000 0000 0000 0000
00000170: 0000 0000 0000 0000 0000 0000 0000 0000
00000180: 0000 0000 0000 0000 0000 0000 0000 0000
00000190: 0000 0000 0000 0000 0000 0000 0000 0000
000001a0: 0000 0000 0000 0000 0000 0000 0000 0000
000001b0: 0000 0000 0000 0000 0000 0000 0000 0000
000001c0: 0000 0000 0000 0000 0000 0000 0000 0000
000001d0: 0000 0000 0000 0000 0000 0000 0000 0000
000001e0: 0000 0000 0000 0000 0000 0000 0000 0000
000001f0: 0000 0000 0000 0000 0000 0000 0000 0000
0.0 0.0 0.0 0.0 0.0 0.0 0.0 0.0
0.0 0.0 0.0 0.0 0.0 0.0 0.0 0.0
0.0 0.0 0.0 0.0 0.0 0.0 0.0 0.0
0.0 0.0 0.0 0.0 0.0 0.0 0.0 0.0
0.0 0.0 0.0 0.0 0.0 0.0 0.0 0.0
0.0 0.0 0.0 0.0 0.0 0.0 0.0 0.0
0.0 0.0 0.0 0.0 0.0 0.0 0.0 0.0
0.0 0.0 0.0 0.0 0.0 0.0 0.0 0.0
0.0 0.0 0.0 0.0 0.0 0.0 0.0 0.0
0.0 0.0 0.0 0.0 0.0 0.0 0.0 0.0
0.0 0.0 0.0 0.0 0.0 0.0 0.0 0.0
0.0 0.0 0.0 0.0 0.0 0.0 0.0 0.0
0.0 0.0 0.0 0.0 0.0 0.0 0.0 0.0
0.0 0.0 0.0 0.0 0.0 0.0 0.0 0.0
0.0 0.0 0.0 0.0 0.0 0.0 0.0 0.0
0.0 0.0 0.0 0.0 0.0 0.0 0.0 0.0

actor_fc_layers.blocks.0.block.1.running_var f4 [128]
00000000: 0000 803f 0000 803f 0000 803f 0000 803f
00000010: 0000 803f 0000 803f 0000 803f 0000 803f
00000020: 0000 803f 0000 803f 0000 803f 0000 803f
00000030: 0000 803f 0000 803f 0000 803f 0000 803f
00000040: 0000 803f 0000 803f 0000 803f 0000 803f
00000050: 0000 803f 0000 803f 0000 803f 0000 803f
00000060: 0000 803f 0000 803f 0000 803f 0000 803f
00000070: 0000 803f 0000 803f 0000 803f 0000 803f
00000080: 0000 803f 0000 803f 0000 803f 0000 803f
00000090: 0000 803f 0000 803f 0000 803f 0000 803f
000000a0: 0000 803f 0000 803f 0000 803f 0000 803f
000000b0: 0000 803f 0000 803f 0000 803f 0000 803f
000000c0: 0000 803f 0000 803f 0000 803f 0000 803f
000000d0: 0000 803f 0000 803f 0000 803f 0000 803f
000000e0: 0000 803f 0000 803f 0000 803f 0000 803f
000000f0: 0000 803f 0000 803f 0000 803f 0000 803f
00000100: 0000 803f 0000 803f 0000 803f 0000 803f
00000110: 0000 803f 0000 803f 0000 803f 0000 803f
00000120: 0000 803f 0000 803f 0000 803f 0000 803f
00000130: 0000 803f 0000 803f 0000 803f 0000 803f
00000140: 0000 803f 0000 803f 0000 803f 0000 803f
00000150: 0000 803f 0000 803f 0000 803f 0000 803f
00000160: 0000 803f 0000 803f 0000 803f 0000 803f
00000170: 0000 803f 0000 803f 0000 803f 0000 803f
00000180: 0000 803f 0000 803f 0000 803f 0000 803f
00000190: 0000 803f 0000 803f 0000 803f 0000 803f
000001a0: 0000 803f 0000 803f 0000 803f 0000 803f
000001b0: 0000 803f 0000 803f 0000 803f 0000 803f
000001c0: 0000 803f 0000 803f 0000 803f 0000 803f
000001d0: 0000 803f 0000 803f 0000 803f 0000 803f
000001e0: 0000 803f 0000 803f 0000 803f 0000 803f
000001f0: 0000 803f 0000 803f 0000 803f 0000 803f
1.0 1.0 1.0 1.0 1.0 1.0 1.0 1.0
1.0 1.0 1.0 1.0 1.0 1.0 1.0 1.0
1.0 1.0 1.0 1.0 1.0 1.0 1.0 1.0
1.0 1.0 1.0 1.0 1.0 1.0 1.0 1.0
1.0 1.0 1.0 1.0 1.0 1.0 1.0 1.0
1.0 1.0 1.0 1.0 1.0 1.0 1.0 1.0
1.0 1.0 1.0 1.0 1.0 1.0 1.0 1.0
1.0 1.0 1.0 1.0 1.0 1.0 1.0 1.0
1.0 1.0 1.0 1.0 1.0 1.0 1.0 1.0
1.0 1.0 1.0 1.0 1.0 1.0 1.0 1.0
1.0 1.0 1.0 1.0 1.0 1.0 1.0 1.0
1.0 1.0 1.0 1.0 1.0 1.0 1.0 1.0
1.0 1.0 1.0 1.0 1.0 1.0 1.0 1.0
1.0 1.0 1.0 1.0 1.0 1.0 1.0 1.0
1.0 1.0 1.0 1.0 1.0 1.0 1.0 1.0
1.0 1.0 1.0 1.0 1.0 1.0 1.0 1.0

actor_fc_layers.blocks.1.block.0.weight f4 [128, 128]
00000000: 4cce d83d ee66 6bbe be5d 2e3e 60fb 96bd
00000010: 1941 10be 90fc 10bd 3956 ea3e 68d5 dc3e
00000020: e04a 9e3d eba1 11bf 5b0a a13d c614 32bf
00000030: f0a7 86be 78ee 1b3e 1b89 c5bd 55af f3be
00000040: 9bdd f93d 37cd 1c3d a8be d8bd 007b ccbd
00000050: 789c eb3d ae4a 94be 571b 443e 4576 c7bc
00000060: ec18 0e3e 0dcf bcbe 079d 213f 8d24 253d
00000070: 8625 47bf 72c0 f2bd eac3 f53e 989a 1d3f
00000080: 090c fbbd 3a30 9ebc 2aad 293f 7c82 183b
00000090: 437f 6abc 071a fd3c 4b30 28bf b6ad 0abe
000000a0: 1653 3c3f f354 06bd 1afc a43e 115e f5be
000000b0: 434b 423e 1467 d93e 54a5 37bf 3c6c 39be
000000c0: 47b4 7ebe 8b18 0cbe b1fb 12bf 7e44 2fbf
000000d0: c571 f2be 6c18 8a3d e864 87be bfa7 0d3f
000000e0: 4f8f 1abe a347 e83d 994e 94be 06c9 fc3d
000000f0: f001 d13e fa72 533f d882 533e 2155 6dbe
00000100: 32f4 8bbe 5de1 9e3e 777e 903e b720 dabc
00000110: 6a5a 573f 8605 2bbe 1d17 00be 4010 253f
00000120: 11d4 d53d 1f36 cd3e d5f7 c53e 7e94 e7bd
00000130: 3691 17bf 0d63 15bf 5538 153f 317b 22bd
00000140: ae28 8e3d 0ec5 aa3e f0f6 40bf c4f5 ddbe
00000150: 451d 2fbe e72c 6f3d 7972 cc3d 292c 86be
00000160: c1de 953e 29ad 83be cadc 503d a662 083f
00000170: 0401 6bbe 6bc8 70be b56d 89bd 8720 263e
00000180: 85bf a23d a4ab 503e 2ee1 8f3e 5b50 98be
00000190: 503e 81be de05 5bbe ec6a 9abd affb e1be
000001a0: 9b0d d73e 40b5 14be 8c7b 243e ca56 673d
000001b0: e326 47be 52f2 99bd 0006 c93e 9ec7 3ebf
000001c0: 1b41 d5bd 9033 e53d d45f d73c 7832 663e
000001d0: e2b1 32bc d8c7 e5be cc77 223e e9f6 c3be
000001e0: 695c 843e 88cb 67be ee1c 6cbe 7819 693e
000001f0: 7203 9abd 13ae 04bf 6439 c0bd de1e 2abf
00000200: d673 063e 6497 04be 04c2 ea3d dd4d 6ebd
00000210: a57d 6fbf ffc4 35be 6002 28be 8270 10be
00000220: b8d3 f0be a3a4 cabe bdc6 0cbe 1f02 7bbe
00000230: 00d5 f13c 1303 023c 1111 263e f0a0 5dbe
00000240: c011 92bd cc57 b1be 8607 06be daaa 4ebd
00000250: 57ed 473e bbb1 cebe 7d8a f7bd b5a3 7ebd
00000260: cbec 00bf 16d3 acbd 9723 343e d90b e1bd
00000270: d6d7 eabc b3ad 933e 7da0 47be 9e35 0bbe
00000280: 71b1 56bf 3f1c 99be 0703 2cbe 3941 bf3d
00000290: 1833 6e3d 117a 5bbe b175 1abe 860a 1ebe
000002a0: ff7f 15be 240d 27bd 2191 4dbc d746 fcbb
000002b0: 793e 35be c567 28be f5c6 d2bd 14d6 bf3d
000002c0: 169a 58be 436c 3fbe 49cb 84be e8f5 b4be
000002d0: b5b9 81be 2ed2 98be 635c bdbd 3567 90be
000002e0: 8f43 d0be 54e1 d3bd 7f68 1fbf 04f6 64be
000002f0: 5749 18bd db9f bcba 24a6 94bd 28c2 82bd
00000300: ac84 4fbe 4622 a6bd 1d37 e0be 0f58 e6be
00000310: b0bc 613c caf1 01bd 81e4 09be 3759 d23d
00000320: 6d6d fbbd 48aa e3bd 9b63 9ebd 54b8 7fbe
00000330: cb34 6fbd 002c f2bc 8b0a 483d 4b03 c3bd
00000340: 98c9 3e3d 2aa7 aebd 5cff 8b3d 0872 20bf
00000350: a8ab 06bf 7ac8 10be 623c 30be 0652 b4bd
00000360: 4f56 cabe 229f 02bf c296 bf3c cc73 e73c
00000370: 9a46 52be 3a4c ac3e 164e 853d d567 20be
00000380: 6a4b ab3d 5c1d b8be 1c20 563d c541 26bf
00000390: 2f67 aabe 71e3 e43d 08ff d9be 1fa5 e0bd
000003a0: f92b 9c3b 4b27 b33d 09f2 e4be f3c5 96be
000003b0: c97c a5bd 27c0 05bf 706c 32be 75ad babe
000003c0: 4178 73be 94cf 44be 4b9f b2bb 5e2f 12be
000003d0: 7ce8 61be 7518 6abd d77c 5e3e 0176 a5be
000003e0: a2fd b2be 4af8 663d e3fa a8be d7ac 38bd
000003f0: 4abc 1c3e 6eb3 19be b7fb c33d 5204 1cbe
0.10586223 -0.22988483 0.17027947 -0.07372165 -0.14087333 -0.035397112 0.45768908 0.43131566
0.07729125 -0.5688769 0.07863303 -0.6956295 -0.263 0.15227687 -0.096452914 -0.47594705
0.12200471 0.038281646 -0.1058324 -0.09984398 0.115044534 -0.28963226 0.19151054 -0.024348387
0.13876694 -0.36876717 0.6313023 0.04031806 -0.7779163 -0.11853112 0.48001033 0.61564016
-0.12258155 -0.019310106 0.6627985 0.0023271134 -0.014312568 0.0308962 -0.6569869 -0.13542828
0.7356428 -0.032795858 0.32223588 -0.4792333 0.18974023 0.42461455 -0.71736646 -0.18107694
-0.24873458 -0.13681237 -0.574153 -0.68463886 -0.47352424 0.06742939 -0.26444173 0.55334085
-0.1509373 0.113417886 -0.28966215 0.1234303 0.4082179 0.82597315 0.20655382 -0.23177005
-0.27334744 0.31031314 0.28221485 -0.026626928 0.84122336 -0.16701326 -0.12508817 0.6447792
0.10440839 0.40080354 0.38665643 -0.113076195 -0.5920595 -0.58354264 0.5828908 -0.039668266
0.06941353 0.33353466 -0.75376797 -0.43351567 -0.17101009 0.05839243 0.099827714 -0.26205567
0.2927151 -0.25718048 0.05099181 0.53275526 -0.22949606 -0.23513953 -0.06710378 0.16223346
0.07946686 0.20377976 0.28101486 -0.29748806 -0.25242853 -0.21388957 -0.07539925 -0.44137332
0.42002568 -0.14522266 0.16062754 0.056479253 -0.19448428 -0.07516922 0.3926239 -0.7452334
-0.104128085 0.111914754 0.026290812 0.2248019 -0.010906668 -0.4487903 0.15866011 -0.38274315
0.25851753 -0.22636235 -0.23057911 0.22763622 -0.075201884 -0.51828116 -0.093859464 -0.6645335
0.13130125 -0.12948376 0.11462787 -0.058179725 -0.93551093 -0.1775093 -0.16407156 -0.14105418
-0.4703653 -0.39578733 -0.13747688 -0.24512528 0.029520512 0.007935303 0.16217448 -0.21643424
-0.07132292 -0.34637296 -0.13088807 -0.050455905 0.19524132 -0.40369973 -0.120869614 -0.062167842
-0.5036132 -0.08438699 0.17591701 -0.10988588 -0.028667372 0.2884346 -0.19494815 -0.13594672
-0.83864504 -0.29904363 -0.1679803 0.09338612 0.058154196 -0.21433283 -0.15083958 -0.15433702
-0.14599608 -0.040784016 -0.012546808 -0.0076988745 -0.17699613 -0.16445835 -0.10291854 0.09367004
-0.21152529 -0.18693642 -0.25936344 -0.35343862 -0.25336996 -0.29847854 -0.09246137 -0.2820374
-0.40676543 -0.10345712 -0.62268823 -0.22359473 -0.037179317 -0.0014390902 -0.07258251 -0.063846886
-0.20265454 -0.08112006 -0.43792048 -0.44989058 0.013777897 -0.03172473 -0.13466074 0.10270923
-0.12276731 -0.11116463 -0.07733842 -0.2497266 -0.058399957 -0.029561996 0.04883818 -0.095221125
0.046578974 -0.08527978 0.06835815 -0.62674 -0.52605677 -0.14138976 -0.17210534 -0.08804707
-0.39518973 -0.5102407 0.023387317 0.028253458 -0.20534745 0.33651906 0.06509034 -0.15664609
0.083639935 -0.359599 0.052276716 -0.64944106 -0.33281848 0.111761935 -0.42577386 -0.10968994
0.004765984 0.08747729 -0.44715908 -0.29447898 -0.080804415 -0.52246326 -0.17424178 -0.36460462
-0.23776342 -0.1921981 -0.005451118 -0.14275882 -0.22061342 -0.05715223 0.2172731 -0.32316592
-0.3495913 0.05638913 -0.3300391 -0.045086708 0.15306202 -0.15009853 0.09569495 -0.15236023

actor_fc_layers.blocks.1.block.1.weight f4 [128]
00000000: fde5 c03f 381f 823f 6257 923f 0de6 f83f
00000010: 637a b53f 5071 0340 54db d73f d95b a33f
00000020: 0e23 c43f 1837 da3f 21d2 8e3f 40f2 0240
00000030: ae35 a73f 3274 a03f f8d2 db3f 10ec e93f
00000040: c774 bd3f f0cd cd3f c2eb b13f ac46 ef3f
00000050: e705 e53f d59b b43f 259d be3f a763 be3f
00000060: 1257 703f 6a6c d83f 702b ac3f c233 843f
00000070: 1534 0540 0a23 1540 cc7d c53f b18f a33f
00000080: 27b3 c23f cc91 d83f 5504 773f 8e6a e33f
00000090: d4f3 fd3f 19cf ee3f d3d5 da3f 5511 e43f
000000a0: 76b3 f53f 984d aa3f d3c0 753f 9b99 bb3f
000000b0: 5d3e c83f 5f27 f23f fb45 973f 2caf 1b40
000000c0: 1b6e 0140 f5e6 0140 c4d7 ca3f f6cd df3f
000000d0: b97a c23f e351 bc3f 8626 c63f 0829 f33f
000000e0: 4616 cf3f 025c d03f f7c9 ce3f 7b6f 0740
000000f0: d374 f43f be21 f33f 9cfb f93f 4268 723f
00000100: 1629 d33f e5e6 813f b9ec d33f a278 1e40
00000110: 8cb2 fc3f bb35 d73f 22b8 c03f 8b1e f23f
00000120: c3a9 c23f 7378 f13f d49d a73f 6749 c83f
00000130: 44ce df3f fb60 4040 4d1e 913f c6ea eb3f
00000140: 8614 753f dced 793f b122 a13f a53d ee3f
00000150: e5a4 d53f 82d3 e23f 0c71 8c3f 7e51 9a3f
00000160: 83ff d43f ad88 d33f 1c52 d33f a79a 0240
00000170: 8a26 c93f 9e4e c13f daff f33f 20c6 d13f
00000180: 0521 ad3f 8f2c d53f 5474 fb3f f554 a73f
00000190: 897a af3f 54c6 b83f 56aa 6d3f 3ff8 d63f
000001a0: f402 e43f a522 f43f 2bd2 cb3f a2f5 793f
000001b0: 702d bd3f 0455 2f40 0fd0 b13f 1064 d83f
000001c0: 47da 713f a917 7d3f 5c07 dc3f a256 d93f
000001d0: 062c bc3f e5ba 0440 709b ec3f 2ff6 1a40
000001e0: c25c d93f 2455 d53f b823 823f 41f1 913f
000001f0: cdfd c23f 734f 0740 9b9d 0540 f759 f53f
1.5070187 1.0165777 1.1432917 1.9445206 1.4177974 2.053791 1.6863809 1.2762405
1.5323198 1.7048063 1.1157876 2.0460358 1.3063257 1.253546 1.7173758 1.8275166
1.4801263 1.6078472 1.3900073 1.8693442 1.7892426 1.4110056 1.4891707 1.4874161
0.9388286 1.6908085 1.3450756 1.0328295 2.0813038 2.3302636 1.5429015 1.2778226
1.5210923 1.6919494 0.96490985 1.7766893 1.9840035 1.8656951 1.7096504 1.7817789
1.9195392 1.330493 0.9599735 1.4656252 1.5644032 1.8918265 1.1818231 2.4325666
2.0223453 2.0297215 1.5847096 1.7484729 1.5193702 1.471249 1.5480506 1.8996897
1.6178672 1.6278079 1.6155385 2.1161792 1.9098152 1.8994672 1.952991 0.94690335
1.6496913 1.0148588 1.6556617 2.4761128 1.9741988 1.6813272 1.5056193 1.8915571
1.5208057 1.8864883 1.309504 1.5647401 1.7484822 3.0059192 1.1337372 1.8431022
0.9573444 0.9762857 1.2588712 1.8612562 1.6690947 1.7720797 1.0971999 1.205612
1.6640476 1.6526085 1.6509433 2.0406892 1.5714886 1.5102117 1.9062455 1.6388588
1.3525702 1.6654223 1.9644876 1.3072802 1.370927 1.4435525 0.92838037 1.6794509
1.7813401 1.9073073 1.5923513 0.9764043 1.4779491 2.739564 1.389162 1.6905537
0.9447369 0.9886423 1.7189746 1.6979563 1.4700935 2.0739071 1.8484936 2.4212759
1.6981432 1.6666608 1.016715 1.140175 1.5233704 2.1142242 2.0877445 1.916808

actor_fc_layers.blocks.1.block.1.bias f4 [128]
00000000: 9b74 4d3f 2138 a43d dceb 8fbd 565f b73e
00000010: 06e2 873f 6992 5e39 b140 913e c14d 1c3f
00000020: d46e dfbe d458 8b3e a444 143e a97c 15bf
00000030: a5ec 513f e314 09bd d085 183f 607c bd3e
00000040: b8b6 943e 8a79 4fbe ea79 aebe 2b10 413e
00000050: 5c51 183f 1ae8 36be 26dd 253f 0c17 dc3e
00000060: 79ac b9bd 3f1b 9dbe 40a1 47bc 08c5 6a3f
00000070: 48ad 05bd 7a8d 873e f861 15be d774 a33b
00000080: 4725 ab3e 8cf4 ef3e 489b 8ebd 56f8 ea3e
00000090: 8073 0f3f 0386 f03e be5c 6dbe 39ad 1bbe
000000a0: 56a1 193f c48a 233f 6223 44bd 24eb a5bd
000000b0: ac15 1ebf fbaf 133f c8d0 36be 9217 3dbe
000000c0: 0f6d 993e 268c 22bf 0c8d 653e 21e1 253e
000000d0: a095 38bf 3a72 8d3f 423e 8d3f b0cb 083f
000000e0: 6c1a 893e 5366 193f 5fd9 663e 55d0 2dbe
000000f0: 53d6 89bf c2ff 463e 35b4 08be f8d5 88bd
00000100: 5939 eb3e 8190 893f 765c df3d bc47 213f
00000110: e6c6 383f 789b 053f 5bde ec3c 2e8a 4a3e
00000120: c460 ab3e 9166 1a3f f2f0 a6be e502 b6be
00000130: 9926 4d3f 446e d6be 3514 a63e af53 c33e
00000140: 6c78 90bd b70b 83bd f486 1a3f afbd 9a3e
00000150: 22c1 273f 9a17 4d3e 546e 993e ccb7 10bd
00000160: e507 1c3f 4a9b cd3e f35c babe bef3 e73e
00000170: d924 683e cba3 323d 0c77 8a3e 77d5 8c3c
00000180: fb48 1b3f f3db 0e3f c087 003f c995 27be
00000190: 3d07 74be 0548 343f 39af adbd b955 353f
000001a0: f380 303f 7d86 203e 0764 1d3d 511c 4dbd
000001b0: 3bdc 1d3f 6e06 ecbe e453 c33e 0d47 a33e
000001c0: 6c41 6dbd 04f5 8ebc 999c 5d3e 00c3 393e
000001d0: 1260 293f d9ac 9f3e 53ac 393e 13ae 0bbf
000001e0: a58c 70be c55e 053f 7c33 01bd 662f 01bd
000001f0: 1dd6 343f 13fb b53e 98c1 153f aa9a cd3e
0.8025605 0.08018518 -0.070274085 0.35814923 1.0615852 0.00021226112 0.28369668 0.61056143
-0.43639243 0.27216208 0.1447931 -0.5839334 0.82001716 -0.033467185 0.5957918 0.37008953
0.29045653 -0.20261207 -0.34077388 0.18853824 0.59499145 -0.17861977 0.6479057 0.42986333
-0.090661 -0.3068485 -0.012184441 0.91706896 -0.032635957 0.26475126 -0.14588153 0.0049882936
0.33426878 0.46866262 -0.06963211 0.4589259 0.56035614 0.46977243 -0.2317991 -0.15202798
0.60011804 0.63883615 -0.047885306 -0.0810149 -0.6175182 0.576904 -0.17853081 -0.18466023
0.29966018 -0.634951 0.22417086 0.16199161 -0.7210331 1.1050484 1.1034625 0.534358
0.2677797 0.5992176 0.22543858 -0.16974004 -1.0768532 0.19433501 -0.13349994 -0.06681436
0.4594219 1.0747224 0.109063074 0.6300008 0.72178495 0.5219035 0.028914621 0.19779274
0.33472264 0.60312754 -0.32605702 -0.35549083 0.8013702 -0.41881 0.32437292 0.38149783
-0.07054219 -0.06398719 0.6036217 0.30222842 0.6552907 0.20028535 0.29966986 -0.035331532
0.60949546 0.4015754 -0.3639904 0.45303148 0.22670306 0.043613236 0.2704395 0.017191632
0.60658234 0.55804366 0.5020714 -0.16365732 -0.23830886 0.70422393 -0.08480687 0.7083393
0.6894676 0.15676303 0.03842547 -0.050075833 0.6166417 -0.46098655 0.3814994 0.31890145
-0.05792372 -0.017450817 0.21641769 0.18140793 0.66162217 0.3118656 0.18132143 -0.5456249
-0.23491152 0.5209773 -0.03154324 -0.031539343 0.7063921 0.35543117 0.58498526 0.40157062

actor_fc_layers.blocks.1.block.1.running_mean f4 [128]
00000000: 0000 0000 0000 0000 0000 0000 0000 0000
00000010: 0000 0000 0000 0000 0000 0000 0000 0000
00000020: 0000 0000 0000 0000 0000 0000 0000 0000
00000030: 0000 0000 0000 0000 0000 0000 0000 0000
00000040: 0000 0000 0000 0000 0000 0000 0000 0000
00000050: 0000 0000 0000 0000 0000 0000 0000 0000
00000060: 0000 0000 0000 0000 0000 0000 0000 0000
00000070: 0000 0000 0000 0000 0000 0000 0000 0000
00000080: 0000 0000 0000 0000 0000 0000 0000 0000
00000090: 0000 0000 0000 0000 0000 0000 0000 0000
000000a0: 0000 0000 0000 0000 0000 0000 0000 0000
000000b0: 0000 0000 0000 0000 0000 0000 0000 0000
000000c0: 0000 0000 0000 0000 0000 0000 0000 0000
000000d0: 0000 0000 0000 0000 0000 0000 0000 0000
000000e0: 0000 0000 0000 0000 0000 0000 0000 0000
000000f0: 0000 0000 0000 0000 0000 0000 0000 0000
00000100: 0000 0000 0000 0000 0000 0000 0000 0000
00000110: 0000 0000 0000 0000 0000 0000 0000 0000
00000120: 0000 0000 0000 0000 0000 0000 0000 0000
00000130: 0000 0000 0000 0000 0000 0000 0000 0000
00000140: 0000 0000 0000 0000 0000 0000 0000 0000
00000150: 0000 0000 0000 0000 0000 0000 0000 0000
00000160: 0000 0000 0000 0000 0000 0000 0000 0000
00000170: 0000 0000 0000 0000 0000 0000 0000 0000
00000180: 0000 0000 0000 0000 0000 0000 0000 0000
00000190: 0000 0000 0000 0000 0000 0000 0000 0000
000001a0: 0000 0000 0000 0000 0000 0000 0000 0000
000001b0: 0000 0000 0000 0000 0000 0000 0000 0000
000001c0: 0000 0000 0000 0000 0000 0000 0000 0000
000001d0: 0000 0000 0000 0000 0000 0000 0000 0000
000001e0: 0000 0000 0000 0000 0000 0000 0000 0000
000001f0: 0000 0000 0000 0000 0000 0000 0000 0000
0.0 0.0 0.0 0.0 0.0 0.0 0.0 0.0
0.0 0.0 0.0 0.0 0.0 0.0 0.0 0.0
0.0 0.0 0.0 0.0 0.0 0.0 0.0 0.0
0.0 0.0 0.0 0.0 0.0 0.0 0.0 0.0
0.0 0.0 0.0 0.0 0.0 0.0 0.0 0.0
0.0 0.0 0.0 0.0 0.0 0.0 0.0 0.0
0.0 0.0 0.0 0.0 0.0 0.0 0.0 0.0
0.0 0.0 0.0 0.0 0.0 0.0 0.0 0.0
0.0 0.0 0.0 0.0 0.0 0.0 0.0 0.0
0.0 0.0 0.0 0.0 0.0 0.0 0.0 0.0
0.0 0.0 0.0 0.0 0.0 0.0 0.0 0.0
0.0 0.0 0.0 0.0 0.0 0.0 0.0 0.0
0.0 0.0 0.0 0.0 0.0 0.0 0.0 0.0
0.0 0.0 0.0 0.0 0.0 0.0 0.0 0.0
0.0 0.0 0.0 0.0 0.0 0.0 0.0 0.0
0.0 0.0 0.0 0.0 0.0 0.0 0.0 0.0

actor_fc_layers.blocks.1.block.1.running_var f4 [128]
00000000: 0000 803f 0000 803f 0000 803f 0000 803f
00000010: 0000 803f 0000 803f 0000 803f 0000 803f
00000020: 0000 803f 0000 803f 0000 803f 0000 803f
00000030: 0000 803f 0000 803f 0000 803f 0000 803f
00000040: 0000 803f 0000 803f 0000 803f 0000 803f
00000050: 0000 803f 0000 803f 0000 803f 0000 803f
00000060: 0000 803f 0000 803f 0000 803f 0000 803f
00000070: 0000 803f 0000 803f 0000 803f 0000 803f
00000080: 0000 803f 0000 803f 0000 803f 0000 803f
00000090: 0000 803f 0000 803f 0000 803f 0000 803f
000000a0: 0000 803f 0000 803f 0000 803f 0000 803f
000000b0: 0000 803f 0000 803f 0000 803f 0000 803f
000000c0: 0000 803f 0000 803f 0000 803f 0000 803f
000000d0: 0000 803f 0000 803f 0000 803f 0000 803f
000000e0: 0000 803f 0000 803f 0000 803f 0000 803f
000000f0: 0000 803f 0000 803f 0000 803f 0000 803f
00000100: 0000 803f 0000 803f 0000 803f 0000 803f
00000110: 0000 803f 0000 803f 0000 803f 0000 803f
00000120: 0000 803f 0000 803f 0000 803f 0000 803f
00000130: 0000 803f 0000 803f 0000 803f 0000 803f
00000140: 0000 803f 0000 803f 0000 803f 0000 803f
00000150: 0000 803f 0000 803f 0000 803f 0000 803f
00000160: 0000 803f 0000 803f 0000 803f 0000 803f
00000170: 0000 803f 0000 803f 0000 803f 0000 803f
00000180: 0000 803f 0000 803f 0000 803f 0000 803f
00000190: 0000 803f 0000 803f 0000 803f 0000 803f
000001a0: 0000 803f 0000 803f 0000 803f 0000 803f
000001b0: 0000 803f 0000 803f 0000 803f 0000 803f
000001c0: 0000 803f 0000 803f 0000 803f 0000 803f
000001d0: 0000 803f 0000 803f 0000 803f 0000 803f
000001e0: 0000 803f 0000 803f 0000 803f 0000 803f
000001f0: 0000 803f 0000 803f 0000 803f 0000 803f
1.0 1.0 1.0 1.0 1.0 1.0 1.0 1.0
1.0 1.0 1.0 1.0 1.0 1.0 1.0 1.0
1.0 1.0 1.0 1.0 1.0 1.0 1.0 1.0
1.0 1.0 1.0 1.0 1.0 1.0 1.0 1.0
1.0 1.0 1.0 1.0 1.0 1.0 1.0 1.0
1.0 1.0 1.0 1.0 1.0 1.0 1.0 1.0
1.0 1.0 1.0 1.0 1.0 1.0 1.0 1.0
1.0 1.0 1.0 1.0 1.0 1.0 1.0 1.0
1.0 1.0 1.0 1.0 1.0 1.0 1.0 1.0
1.0 1.0 1.0 1.0 1.0 1.0 1.0 1.0
1.0 1.0 1.0 1.0 1.0 1.0 1.0 1.0
1.0 1.0 1.0 1.0 1.0 1.0 1.0 1.0
1.0 1.0 1.0 1.0 1.0 1.0 1.0 1.0
1.0 1.0 1.0 1.0 1.0 1.0 1.0 1.0
1.0 1.0 1.0 1.0 1.0 1.0 1.0 1.0
1.0 1.0 1.0 1.0 1.0 1.0 1.0 1.0

actor_fc_layers.blocks.2.block.0.weight f4 [128, 128]
00000000: d08e 783e b085 8cbd cbc6 17bd 660a 053f
00000010: 0f66 b83e 395b 2fbf d57c fbbc 0441 a7bd
00000020: 54cc 273e 2ebe 4e3e 7b21 d63e a34f aa3d
00000030: 5acd d63d 04c8 223e 0001 783e 71b7 923e
00000040: 5eb2 c3be 41b8 b43e 5dd7 2bbf ff05 063f
00000050: 39c1 03bf 4d89 b8be 89d3 623f b1cc b43e
00000060: bedd 663d cfe7 c1bd 9108 023f c394 183f
00000070: bf92 313e 66d5 27be e735 33bd 62ad fc3d
00000080: 5873 013f 51df 263f 3df6 9b3c dbaa 0bbd
00000090: 683e 093f 6d7e 29bf 0bc4 febd 461b 043e
000000a0: 8134 c0bd f3b7 a13e 79fe 603d c177 9a3d
000000b0: 02b5 d63e 9afa ec3c 0d81 4b3e b71a 15bf
000000c0: b20c 51be 3df1 dfbd f063 263f 3609 bf3e
000000d0: 7a04 9fbd ec71 003f e125 213f b1cd 383e
000000e0: fdb5 b53e 549e 513e 22c3 ea3e 05bb c53d
000000f0: bebc 20bc 31a7 ad3e 63ee 5b3e 4b0d 13bd
00000100: 5321 1c3e 19c6 d53d f3d3 863e 7c8f d9be
00000110: f787 333f 7579 54be 79e8 d8be 8f31 21bd
00000120: ad46 6f3e c05a aebe 4ca3 d3be d000 25be
00000130: 8162 8abe aeb9 5ebf c0bf 203e 8567 d3bd
00000140: 1e61 c83c cae4 053d b617 5b3e c8ec 02bf
00000150: e463 893d 135f b73e 70ef 4a3e ea87 2f3c
00000160: 10fe 0f3e 86c7 103f b126 11bf c982 9a3e
00000170: 0b49 65bf 5903 0c3e 3663 003f e5d7 e6be
00000180: a85c f7bd 8881 8a3e 81d4 a83e f42a 4abe
00000190: ef9c 89be d391 383f fe49 4dbc 1534 cabe
000001a0: 7077 823e 989e 7ebc eddf 233f d0f3 2e3d
000001b0: d0c5 883e e7f9 88be 972b abbe d94b 2d3e
000001c0: 25be b0bd d633 0cbd e239 623e 97ba 3cbb
000001d0: 1a09 adbe b9d6 40bf 37d7 5d3e 6666 9c3d
000001e0: 0cf3 903c 7c3a 4b3f db81 db3d c6fa 533d
000001f0: 017e 74be 4b57 003d 3b43 6b3e be9f cb3e
00000200: b654 913e 7a38 883d 50d4 083e 3102 24bf
00000210: 8d0e 293f c40d e03e c48b 2d3e b997 34be
00000220: c4cb 043e ae77 033e 3c5d 19bf 1f31 f13e
00000230: 80a5 8c3e 02bf 91be 770f fc3e b775 70bd
00000240: f048 393e 6ccd 97be 8228 b43d 75cc 57be
00000250: 3923 223e e9aa d3be 7646 a7bd 4662 103c
00000260: 5269 3bbd 05e5 4cbd 0e36 87be cd0c 113e
00000270: 15db 8ebe 719e 5fbe bb53 a7bd 526c f23b
00000280: 4f4f 18bf 86fb 07bd 5b9a 9d3d d78c 5fbe
00000290: b8c1 31be 9681 f0bd b939 123e 8496 21bf
000002a0: d436 1b3e b334 273e ec64 cb3d 9672 81be
000002b0: 42f6 f03c b9e4 053e 5214 fa3e a888 013e
000002c0: 0874 60bc 0551 0a3f b258 103d 1f87 96be
000002d0: c54d 563d 67a6 c73d e26b 7e3e 8d56 cebe
000002e0: f309 253e fa4a 95bf 0c98 a93e e4b9 8dbe
000002f0: 44e0 00bf cebc 113e 0412 c53e 4a00 8c3c
00000300: 01f4 643d 15aa 37be 0781 753e 0f22 7dbd
00000310: 00f6 c73e 3aeb bd3e 8259 e5be 4f0c 903d
00000320: becc 043f d13e 2a3f c52f 803e b88e 9fbe
00000330: aa0d 9b3e 4836 103e 6ab8 e83d 3ac4 bfbd
00000340: 6ac5 953d cd69 aa3d 3759 85bc 02b1 27bf
00000350: 9542 89be a24c 7a3e d21f 44bf ab5f edbd
00000360: a54c 2e3f 0487 28be 3caa eb3e 9a67 8b3e
00000370: 97dd 3fbe 94dd 65be 40f0 b8be 580e df3d
00000380: 75ee 453f 7bd8 aabe b151 08be 51be 1dbe
00000390: 98b3 a2bd fea1 0ebf 0c87 babd 26e0 123f
000003a0: 69a7 623f 4d4e 533e 7921 a33d 9e1a ef3b
000003b0: 314b debe 1b9c 14bf 25e8 f5be b5b3 12bf
000003c0: 5aab 863d 40f6 f03d e0ec 0abf 9057 e0bb
000003d0: 8771 a23e cb46 8b3e 40a9 cebe 2de2 16be
000003e0: b39c 29bd 78a0 7a3e aac7 8ebb 149b 573c
000003f0: 6615 553e 4ad1 453f 8b50 99be 8111 fe3c
0.24273229 -0.06861436 -0.037054818 0.5196899 0.36015365 -0.6849857 -0.030699173 -0.081666976
0.16386539 0.20189735 0.4182242 0.08315971 0.104883865 0.15896612 0.24219131 0.2865558
-0.3822202 0.35296825 -0.67125493 0.523529 -0.5146671 -0.36042252 0.8860403 0.35312417
0.056363814 -0.09468042 0.5079432 0.5960199 0.17341135 -0.16389999 -0.043752577 0.12337758
0.50566626 0.65184504 0.019038314 -0.034098487 0.5361085 -0.66208535 -0.12439736 0.12901029
-0.09385014 0.31585655 0.054930184 0.075423725 0.41934973 0.02892809 0.19873448 -0.5824389
-0.20414999 -0.109346844 0.6499624 0.37311715 -0.07764526 0.5017383 0.62948424 0.18047215
0.3549041 0.20470554 0.45852 0.09654812 -0.009810625 0.3391662 0.21477656 -0.03590135
0.15247087 0.10438175 0.2633358 -0.42492282 0.7012934 -0.20749457 -0.42364863 -0.039353903
0.23366804 -0.34053612 -0.41335523 -0.16113591 -0.27028278 -0.87002075 0.15698147 -0.10322479
0.024460372 0.032688893 0.21395764 -0.5114255 0.06708506 0.35814723 0.198179 0.010713557
0.14061761 0.5655445 -0.56699663 0.30177906 -0.8956458 0.13673152 0.50151384 -0.4508659
-0.1207822 0.2705195 0.32974628 -0.19742948 -0.26877543 0.7209751 -0.012529848 -0.3949286
0.2548175 -0.015540741 0.6401356 0.042712986 0.2671342 -0.2675316 -0.33431694 0.16923465
-0.08630017 -0.034229122 0.22092393 -0.002879774 -0.33796006 -0.7532764 0.21664129 0.076367185
0.017694019 0.79386115 0.10718127 0.051752828 -0.23876192 0.03133325 0.22974865 0.3977031
0.28384942 0.06651397 0.13362241 -0.64065844 0.6603783 0.43760502 0.16947848 -0.17636003
0.12968355 0.12838623 -0.5990789 0.4710779 0.27470016 -0.2846604 0.4923055 -0.05870601
0.1809423 -0.29648912 0.08796789 -0.21074088 0.15833749 -0.41341332 -0.08167736 0.008812493
-0.04575474 -0.050023098 -0.26408428 0.1416504 -0.2790152 -0.21837784 -0.08170267 0.0073981667
-0.59496015 -0.033198856 0.076954566 -0.2183107 -0.17359054 -0.117434666 0.14279832 -0.63120294
0.15157634 0.16328697 0.09931359 -0.25282735 0.0294143 0.13075532 0.48843628 0.12649786
-0.013699539 0.54029876 0.035240836 -0.29399964 0.05232026 0.097485356 0.24845842 -0.40300408
0.16117077 -1.1663506 0.33123815 -0.27680886 -0.503422 0.1423218 0.38490307 0.017089982
0.055896763 -0.17935975 0.23975001 -0.06180006 0.3905487 0.37093526 -0.44794852 0.07033598
0.5187491 0.665021 0.25036445 -0.31163573 0.30283862 0.14083207 0.11363299 -0.09363599
0.07313044 0.08320961 -0.016277893 -0.6550447 -0.2680861 0.24443296 -0.76611054 -0.11590513
0.680857 -0.16457754 0.46028316 0.2722748 -0.18736874 -0.22447807 -0.36120796 0.10891408
0.7731698 -0.33368286 -0.13312413 -0.15404631 -0.07944411 -0.5571593 -0.091077894 0.57373273
0.885367 0.20635338 0.07965369 0.007296874 -0.43416741 -0.580507 -0.48028675 -0.5730546
0.065756515 0.117657185 -0.5426769 -0.0068463758 0.3172724 0.27202448 -0.40363503 -0.14734717
-0.041409206 0.24475276 -0.004357298 0.013159532 0.20808944 0.77272475 -0.29944262 0.031014206

actor_fc_layers.blocks.2.block.1.weight f4 [128]
00000000: 9ef7 e03f 5480 9d3f 8c09 d93f 051c 0a40
00000010: f7ae 1e40 36eb 0040 625a 873f 28ab a33f
00000020: 4c88 e93f 3a0a b43f ff73 c23f afa3 b13f
00000030: 8156 0040 e186 1640 0aaa b53f d2fb 8d3f
00000040: 37c8 9e3f e4a3 ad3f dcd0 b33f 4011 fe3f
00000050: 990d d13f 48d9 0840 9ce3 e63f 0902 ae3f
00000060: 1208 ae3f d3a2 993f 1e02 c43f b948 b53f
00000070: d772 c83f 1aff d63f c612 da3f 6deb d73f
00000080: 29b0 893f cfde 8b3f 8ef8 b73f 6dd6 913f
00000090: b116 c63f de35 c63f 2c10 9b3f 8eef 8a3f
000000a0: c754 963f 45e5 c13f 8926 cf3f 8a9b 4c3f
000000b0: bc9a 1040 2b18 833f 40e0 e43f bc80 d23f
000000c0: 4a6b cb3f 4d80 b13f ae86 db3f 52e0 ab3f
000000d0: 7db6 8d3f cb6a a23f 9d81 bc3f e85e 1140
000000e0: a73b d93f 5da2 b13f 2cea b03f 274c b73f
000000f0: fab3 0040 c57d d43f 3126 753f 5427 a23f
00000100: 568c 1440 627a a93f 1a83 c23f 3810 d33f
00000110: 34b3 b63f 893b 1940 de0d 9b3f 1c52 bf3f
00000120: a8a0 c43f c95d de3f ba26 693f 2fa5 853f
00000130: ec1f d43f 2509 993f 805f ac3f 934a 0440
00000140: aebb ec3f 40e5 c93f aa2c a93f 2290 ad3f
00000150: 7120 c73f 2d68 a93f 7281 983f 11b7 c13f
00000160: 40f3 e33f c3d7 c43f 834a 443f 0ae6 cd3f
00000170: 3e1b d63f 9316 b83f a21c b33f 0bac 0140
00000180: dc4b 1640 1b3c 6f3f 0441 983f beac d83f
00000190: 9bde 823f 3f57 d13f 118c d93f e851 c73f
000001a0: c784 db3f 1780 d83f e832 e83f 67c2 c63f
000001b0: ee23 0140 e672 933f 5704 a53f 2ffe ac3f
000001c0: d16a cb3f c559 8e3f 057c 973f 215d c23f
000001d0: a44b a53f eb93 a63f 2a09 bd3f 7929 843f
000001e0: 362e 0140 9d42 ff3f c1a9 763f d750 f23f
000001f0: 0df5 d13f bac6 b53f 9883 d43f 36d3 dc3f
1.7575567 1.2304788 1.6956038 2.1579602 2.479429 2.0143561 1.0574458 1.2786608
1.824472 1.4065621 1.5191649 1.3878077 2.0052798 2.3519824 1.4192517 1.1092474
1.2404851 1.356564 1.4048114 1.9849014 1.6332275 2.1382618 1.8038211 1.3594371
1.3596213 1.2002815 1.5313146 1.4162818 1.5660046 1.6796601 1.7036979 1.6868721
1.0756885 1.0927371 1.4372728 1.1393563 1.5475675 1.5485189 1.211431 1.0854356
1.1744622 1.5148093 1.6183635 0.79924834 2.2594442 1.024175 1.7880936 1.6445537
1.5892117 1.3867279 1.7150476 1.3427832 1.1071316 1.2688841 1.4727055 2.2714176
1.697133 1.3877674 1.3821464 1.4320115 2.010985 1.6600882 0.957614 1.2668252
2.3210654 1.3240473 1.5196259 1.6489325 1.4273438 2.3942587 1.2113607 1.4946933
1.5361528 1.7372371 0.9107472 1.0441035 1.6572242 1.1955916 1.3466644 2.0670516
1.8494775 1.5773087 1.3216755 1.3559611 1.5556775 1.3234917 1.1914504 1.5133992
1.7808609 1.5378345 0.76676196 1.6085827 1.6727064 1.4381889 1.3993113 2.0261257
2.34838 0.9345109 1.1894841 1.6927717 1.0224184 1.635475 1.699587 1.5571871
1.7149895 1.691409 1.8140535 1.5528077 2.017818 1.1519439 1.289195 1.3515071
1.5891973 1.1121145 1.1834723 1.5184671 1.2913709 1.3013891 1.4768422 1.0325156
2.0184455 1.9942204 0.96352774 1.893092 1.6402909 1.4201272 1.6602659 1.7251956

actor_fc_layers.blocks.2.block.1.bias f4 [128]
00000000: b364 f13d a019 fb3e 36a1 bdbd 8843 643e
00000010: 84b2 403f 7c72 063f 3b19 55be 9720 0dbe
00000020: ab45 283e 6674 3d3d 61d0 1abf be94 5abe
00000030: dcdd d33e 3d13 823c e7d3 e03c 5eed f6bd
00000040: 6b8a 5fbb d02c 2dbd 0e63 ff3e 3bcf 803d
00000050: 3049 72bd cba7 813e b556 883e 53dd 323c
00000060: 51df 70bc b64a 743d 8202 b63e e0ae f8bd
00000070: f47b 823e 723e 0e3f b3bd 4e3f 35b3 e73e
00000080: 0fc6 42be 85d6 c0bd d5bd e1bc 5430 43be
00000090: e3af 87bd 66e6 013e bcd0 823e 1b57 08be
000000a0: c0a2 5b3f 654c 003e fa65 253e 9d5d af3e
000000b0: 51d2 cb3e e4ce 9b3e fb17 803e e1eb 543e
000000c0: 8480 133c 3594 123f 8304 513e 21b8 09bd
000000d0: d365 10be b5b5 0d3e 2dc1 b83c 5d51 4e3e
000000e0: 3c76 213e ab18 52bd e1c0 aebd 0deb 133f
000000f0: 2adf f33e b5a0 893d 81c9 30bd dc45 923d
00000100: 55cf 463f ec1c 3e3e d76b 463f 939e 3c3e
00000110: d77c 82bd 1ec4 943e 3036 0bbc ab38 b63d
00000120: add9 c63d 3565 283d e1f8 94bd 4dc8 b2bd
00000130: 89d3 0b3f 674b c0bb e13a 823c 7e97 e03d
00000140: bbdb 8b3e 349b fc3d 527c 15be 98ed 523f
00000150: f385 2d3f 2e39 8a3f 80fb 34be 1d50 37bc
00000160: 07b4 163e a9b6 063e 05c7 b53e ec97 9b3e
00000170: 51ce 9a3e e849 fa3d f4fe babd be0c 313e
00000180: 714c ee3e e48e f4bd d42e 363f 2d8e 953e
00000190: a79a 75be a66d 8b3d 6027 ebbc bd16 ed3b
000001a0: e8d9 6c3e 35e8 96bc 5701 f73e 9462 1cbe
000001b0: 0a20 083f abff 743e 57c6 303d f47a 0d3f
000001c0: 365f b33e 8ad2 edbd c6d2 71be 91b2 ce3e
000001d0: 542f 303f 69c1 5c3f cb7d bf3d 5c65 f7be
000001e0: a3f5 2a3e 156a ca3e 08b0 2dbd ab92 4cbc
000001f0: 2de2 aa3b d876 c5bd 8e0e eebc 985d b83c
0.11786785 0.49042988 -0.09259264 0.22291386 0.75272393 0.5251844 -0.20810406 -0.13781963
0.16432826 0.046253584 -0.6047421 -0.21345803 0.41380203 0.015878314 0.027444793 -0.12056993
-0.0034109603 -0.042279065 0.4988026 0.06289526 -0.05915183 0.25323328 0.26628652 0.010917026
-0.01470168 0.059641562 0.35548788 -0.1214273 0.25485194 0.55564034 0.8075821 0.45253912
-0.19020866 -0.09415916 -0.02755634 -0.19061404 -0.066253446 0.12685546 0.25549877 -0.13314478
0.8579521 0.12529142 0.16152182 0.3425111 0.39808896 0.30431283 0.25018296 0.20793106
0.0090028085 0.57257396 0.20411877 -0.033622865 -0.14101343 0.13838847 0.02255305 0.20148225
0.15767759 -0.051293056 -0.085328825 0.57780534 0.47631198 0.067201056 -0.04316092 0.07142231
0.77660114 0.1856572 0.775083 0.18419866 -0.063714676 0.29055876 -0.008496806 0.08897527
0.09709487 0.041112144 -0.072740324 -0.087296106 0.5461965 -0.0058683637 0.015897216 0.10966395
0.2731608 0.1233429 -0.14598206 0.8239379 0.67782515 1.07987 -0.17674065 -0.011188534
0.14717112 0.13155617 0.35503402 0.30389345 0.30235532 0.12221128 -0.0913066 0.17290017
0.46542695 -0.11941317 0.71165204 0.29210034 -0.23984776 0.06808023 -0.028705299 0.0072353766
0.2313 -0.018421272 0.4824321 -0.1527198 0.5317389 0.23925655 0.0431579 0.55265737
0.35033578 -0.11612423 -0.2361556 0.4037061 0.68822217 0.8623262 0.09350165 -0.4831952
0.16695265 0.3953406 -0.042404205 -0.01248614 0.0052149505 -0.09641808 -0.029059675 0.022505566

actor_fc_layers.blocks.2.block.1.running_mean f4 [128]
00000000: 0000 0000 0000 0000 0000 0000 0000 0000
00000010: 0000 0000 0000 0000 0000 0000 0000 0000
00000020: 0000 0000 0000 0000 0000 0000 0000 0000
00000030: 0000 0000 0000 0000 0000 0000 0000 0000
00000040: 0000 0000 0000 0000 0000 0000 0000 0000
00000050: 0000 0000 0000 0000 0000 0000 0000 0000
00000060: 0000 0000 0000 0000 0000 0000 0000 0000
00000070: 0000 0000 0000 0000 0000 0000 0000 0000
00000080: 0000 0000 0000 0000 0000 0000 0000 0000
00000090: 0000 0000 0000 0000 0000 0000 0000 0000
000000a0: 0000 0000 0000 0000 0000 0000 0000 0000
000000b0: 0000 0000 0000 0000 0000 0000 0000 0000
000000c0: 0000 0000 0000 0000 0000 0000 0000 0000
000000d0: 0000 0000 0000 0000 0000 0000 0000 0000
000000e0: 0000 0000 0000 0000 0000 0000 0000 0000
000000f0: 0000 0000 0000 0000 0000 0000 0000 0000
00000100: 0000 0000 0000 0000 0000 0000 0000 0000
00000110: 0000 0000 0000 0000 0000 0000 0000 0000
00000120: 0000 0000 0000 0000 0000 0000 0000 0000
00000130: 0000 0000 0000 0000 0000 0000 0000 0000
00000140: 0000 0000 0000 0000 0000 0000 0000 0000
00000150: 0000 0000 0000 0000 0000 0000 0000 0000
00000160: 0000 0000 0000 0000 0000 0000 0000 0000
00000170: 0000 0000 0000 0000 0000 0000 0000 0000
00000180: 0000 0000 0000 0000 0000 0000 0000 0000
00000190: 0000 0000 0000 0000 0000 0000 0000 0000
000001a0: 0000 0000 0000 0000 0000 0000 0000 0000
000001b0: 0000 0000 0000 0000 0000 0000 0000 0000
000001c0: 0000 0000 0000 0000 0000 0000 0000 0000
000001d0: 0000 0000 0000 0000 0000 0000 0000 0000
000001e0: 0000 0000 0000 0000 0000 0000 0000 0000
000001f0: 0000 0000 0000 0000 0000 0000 0000 0000
0.0 0.0 0.0 0.0 0.0 0.0 0.0 0.0
0.0 0.0 0.0 0.0 0.0 0.0 0.0 0.0
0.0 0.0 0.0 0.0 0.0 0.0 0.0 0.0
0.0 0.0 0.0 0.0 0.0 0.0 0.0 0.0
0.0 0.0 0.0 0.0 0.0 0.0 0.0 0.0
0.0 0.0 0.0 0.0 0.0 0.0 0.0 0.0
0.0 0.0 0.0 0.0 0.0 0.0 0.0 0.0
0.0 0.0 0.0 0.0 0.0 0.0 0.0 0.0
0.0 0.0 0.0 0.0 0.0 0.0 0.0 0.0
0.0 0.0 0.0 0.0 0.0 0.0 0.0 0.0
0.0 0.0 0.0 0.0 0.0 0.0 0.0 0.0
0.0 0.0 0.0 0.0 0.0 0.0 0.0 0.0
0.0 0.0 0.0 0.0 0.0 0.0 0.0 0.0
0.0 0.0 0.0 0.0 0.0 0.0 0.0 0.0
0.0 0.0 0.0 0.0 0.0 0.0 0.0 0.0
0.0 0.0 0.0 0.0 0.0 0.0 0.0 0.0

actor_fc_layers.blocks.2.block.1.running_var f4 [128]
00000000: 0000 803f 0000 803f 0000 803f 0000 803f
00000010: 0000 803f 0000 803f 0000 803f 0000 803f
00000020: 0000 803f 0000 803f 0000 803f 0000 803f
00000030: 0000 803f 0000 803f 0000 803f 0000 803f
00000040: 0000 803f 0000 803f 0000 803f 0000 803f
00000050: 0000 803f 0000 803f 0000 803f 0000 803f
00000060: 0000 803f 0000 803f 0000 803f 0000 803f
00000070: 0000 803f 0000 803f 0000 803f 0000 803f
00000080: 0000 803f 0000 803f 0000 803f 0000 803f
00000090: 0000 803f 0000 803f 0000 803f 0000 803f
000000a0: 0000 803f 0000 803f 0000 803f 0000 803f
000000b0: 0000 803f 0000 803f 0000 803f 0000 803f
000000c0: 0000 803f 0000 803f 0000 803f 0000 803f
000000d0: 0000 803f 0000 803f 0000 803f 0000 803f
000000e0: 0000 803f 0000 803f 0000 803f 0000 803f
000000f0: 0000 803f 0000 803f 0000 803f 0000 803f
00000100: 0000 803f 0000 803f 0000 803f 0000 803f
00000110: 0000 803f 0000 803f 0000 803f 0000 803f
00000120: 0000 803f 0000 803f 0000 803f 0000 803f
00000130: 0000 803f 0000 803f 0000 803f 0000 803f
00000140: 0000 803f 0000 803f 0000 803f 0000 803f
00000150: 0000 803f 0000 803f 0000 803f 0000 803f
00000160: 0000 803f 0000 803f 0000 803f 0000 803f
00000170: 0000 803f 0000 803f 0000 803f 0000 803f
00000180: 0000 803f 0000 803f 0000 803f 0000 803f
00000190: 0000 803f 0000 803f 0000 803f 0000 803f
000001a0: 0000 803f 0000 803f 0000 803f 0000 803f
000001b0: 0000 803f 0000 803f 0000 803f 0000 803f
000001c0: 0000 803f 0000 803f 0000 803f 0000 803f
000001d0: 0000 803f 0000 803f 0000 803f 0000 803f
000001e0: 0000 803f 0000 803f 0000 803f 0000 803f
000001f0: 0000 803f 0000 803f 0000 803f 0000 803f
1.0 1.0 1.0 1.0 1.0 1.0 1.0 1.0
1.0 1.0 1.0 1.0 1.0 1.0 1.0 1.0
1.0 1.0 1.0 1.0 1.0 1.0 1.0 1.0
1.0 1.0 1.0 1.0 1.0 1.0 1.0 1.0
1.0 1.0 1.0 1.0 1.0 1.0 1.0 1.0
1.0 1.0 1.0 1.0 1.0 1.0 1.0 1.0
1.0 1.0 1.0 1.0 1.0 1.0 1.0 1.0
1.0 1.0 1.0 1.0 1.0 1.0 1.0 1.0
1.0 1.0 1.0 1.0 1.0 1.0 1.0 1.0
1.0 1.0 1.0 1.0 1.0 1.0 1.0 1.0
1.0 1.0 1.0 1.0 1.0 1.0 1.0 1.0
1.0 1.0 1.0 1.0 1.0 1.0 1.0 1.0
1.0 1.0 1.0 1.0 1.0 1.0 1.0 1.0
1.0 1.0 1.0 1.0 1.0 1.0 1.0 1.0
1.0 1.0 1.0 1.0 1.0 1.0 1.0 1.0
1.0 1.0 1.0 1.0 1.0 1.0 1.0 1.0
