saved_models/agent_maddpg_vs_opp_maddpg_2_vs_2_1_agent_best_models/maddpg_target_actor_1.pt (torch, 160267 bytes, 21 tensors)

actor_fc_layers.blocks.0.block.0.weight f4 [128, 21]
0	0xbee6bcb0	-0.45065832
1	0xbd9735d9	-0.073833175
2	0xbc2e9710	-0.010656133
3	0xbf64e55d	-0.8941248
4	0x3e9b1097	0.30286095
5	0xbe718312	-0.23585156
6	0xbe280e8e	-0.16411802
7	0xbd89a035	-0.0672001
8	0x3e581231	0.2110069
9	0xbe52a526	-0.20570812
10	0x3ed1d2b4	0.40981066
11	0xbe409718	-0.18807638
12	0xbf1f400e	-0.62207115
13	0xbea911fb	-0.3302153
14	0xbda2106b	-0.07913288
15	0xbd318c3f	-0.04334664
16	0x3d4b4ce2	0.049633868
17	0x3d3fd94a	0.046838082
18	0xbe286e95	-0.16448434
19	0x3e10f146	0.14154539
20	0xbdd2a15a	-0.102846816
21	0x3da0800a	0.078369215
22	0xbe3bd83d	-0.18344207
23	0xbf735c19	-0.95062405
24	0xbd224816	-0.039619528
25	0xbc90f6c3	-0.01769579
26	0xbd39591f	-0.045251008
27	0xbeac7643	-0.33683977
28	0xbe010c2f	-0.12602304
29	0x3cf6a60e	0.030108478
30	0x3e1b4450	0.15162778
31	0x3f848b8a	1.0355084
32	0xbe48e2a9	-0.19617714
33	0xbc383c89	-0.011244901
34	0xbf822754	-1.0168252
35	0xbdf11f59	-0.11773557
36	0xbe313f1a	-0.17309228
37	0x3ec8e9d5	0.392409
38	0xbda074e7	-0.07834797
39	0x3c5549f7	0.013018123
40	0x3c2a2590	0.010384932
41	0xbda12251	-0.078678735
42	0xbe967896	-0.29388875
43	0xbd0574a2	-0.032581933
44	0xbe536c65	-0.20646818
45	0xbe81d1f3	-0.2535549
46	0xbf7c0a24	-0.98452973
47	0xbdfb12ac	-0.12259421
48	0x3ce98ea2	0.028510395
49	0x3db8a81e	0.09016441
50	0x3e2c5a9c	0.1683144
51	0x3e930e87	0.2872202
52	0xbe9f47f7	-0.31109592
53	0x3ee2f846	0.44330043
54	0x3e09d3dd	0.13459726
55	0x3e1bd3e9	0.15217556
56	0xbec1ca31	-0.37849572
57	0x3e57ddc6	0.21080694
58	0xbe98a873	-0.29816017
59	0xbd88b1f0	-0.06674564
60	0x3df02176	0.11725132
61	0xbdab7197	-0.08371275
62	0x3d9d4281	0.076787
63	0xbea7b919	-0.32758406
64	0xbe147839	-0.14498986
65	0x3ec2fe40	0.38084602
66	0x3edff400	0.43740845
67	0x3cb0c699	0.021579074
68	0x3e6cc3eb	0.23121612
69	0xbd92b1f0	-0.07162845
70	0x3e570c4a	0.21000782
71	0xbe1f2c2b	-0.15544192
72	0xbe43c485	-0.19117935
73	0x3e94b5f7	0.29045078
74	0x3f288f56	0.65843713
75	0xbec5b5fc	-0.38615406
76	0xbe1767b5	-0.14785655
77	0x3f031a20	0.5121174
78	0xbde16730	-0.110060096
79	0xbcb7994d	-0.022411967
80	0xbe1d71e2	-0.15375474
81	0xbb2af909	-0.0026088378
82	0x3dbc5e8d	0.09197722
83	0xbe9af9ce	-0.3026871
84	0xbdef447a	-0.11682983
85	0x3e38b880	0.18039131
86	0xbe6677b3	-0.22506599
87	0x3ea11a8a	0.3146556
88	0xbed8f828	-0.42376828
89	0xbcc9742f	-0.024591533
90	0x3e159659	0.14608134
91	0x3e0799a4	0.13242203
92	0xbe29f221	-0.16596271
93	0x3e07d83a	0.13266078
94	0x3e62a2f2	0.22132471
95	0xbe8a1307	-0.26967642
96	0x3f0ce90c	0.550431
97	0x3ed2cc2d	0.411714
98	0xbf203f4f	-0.625966
99	0xbce210f0	-0.027595967
100	0x3e9db783	0.3080407
101	0x3cd377c3	0.025813943
102	0xbde2691d	-0.11055205
103	0xbef2bfb3	-0.4741188
104	0x3ee5f9fb	0.44917282
105	0xbe4d4009	-0.20043959
106	0xbe38f2fe	-0.18061444
107	0xbe8a83e3	-0.27053747
108	0x3e06a2b5	0.13148005
109	0x3d456268	0.04818955
110	0xbe85ca70	-0.2613101
111	0x3d24f84d	0.04027586
112	0x3d9db3a2	0.07700278
113	0xbe1e26f4	-0.15444547
114	0x3e5e4cb0	0.21708941
115	0x3d27a9e3	0.0409335
116	0x3e69e652	0.22841766
117	0xbf0f59fa	-0.5599667
118	0xbf577536	-0.84163225
119	0x3e27578f	0.16341995
120	0x3e9d4a9d	0.30720988
121	0xbe273e3d	-0.16332336
122	0x3ed200f7	0.4101636
123	0xbeaa1291	-0.3321729
124	0x3e47054e	0.19435617
125	0x3ac3dc8e	0.001494305
126	0xbeb7efbf	-0.359251
127	0xbe0470ec	-0.12933701
128	0x3ed86a8a	0.42268783
129	0x3e7af2ed	0.24506731
130	0xbdb58cd4	-0.088647515
131	0x3ecf5835	0.40496984
132	0xbe2ede50	-0.17076993
133	0xbe593acc	-0.21213835
134	0xbe3834f8	-0.17988956
135	0xbea22db0	-0.31675482
136	0x3d3f6ab8	0.046732634
137	0x3eda749e	0.42667097
138	0x3d8fa5ef	0.07014071
139	0x3eadf5a7	0.3397648
140	0x3f45eb37	0.77312034
141	0x3d49e031	0.04928607
142	0x39127af9	0.00013969456
143	0x3e265ddb	0.1624674
144	0xbe7156d7	-0.23568283
145	0xbdd10eab	-0.10207876
146	0xbd804ec9	-0.06265027
147	0x3cd75fbf	0.026290772
148	0x3d0ef325	0.03489985
149	0x3f1fb166	0.62380064
150	0x3ecdb568	0.40177464
151	0x3ec5b10c	0.3861164
152	0x3f23a055	0.6391652
153	0x3c817c5b	0.015806368
154	0xbda669bd	-0.08125637
155	0xbe318cd8	-0.17338884
156	0x3f38b368	0.7214875
157	0xbed2a92e	-0.411447
158	0x3dfe1989	0.12407214
159	0x3ea26b74	0.31722605
160	0xbe5a5e78	-0.213251
161	0xbdd24b9b	-0.10268327
162	0x3f10d501	0.5657502
163	0xbefb5d51	-0.49094632
164	0x3c88da3c	0.016705625
165	0x3d0e1dfc	0.034696564
166	0xbed0e231	-0.4079757
167	0x3eab9956	0.33515424
168	0xbd4575af	-0.048207935
169	0xbddac1fc	-0.10681531
170	0xbf1d9ab9	-0.61564213
171	0xbedd12e2	-0.4317847
172	0x3ca43650	0.02004543
173	0x3dff4a1c	0.12465307
174	0xbd1a1a5e	-0.037622802
175	0xbe3f2d5f	-0.18669651
176	0xbcc22d9f	-0.023703394
177	0x3e9cad58	0.30601
178	0x3e5b3159	0.21405543
179	0xbfb8b8f3	-1.4431442
180	0xbe79471f	-0.24343537
181	0xbe86792f	-0.2626433
182	0xbe4775e6	-0.19478568
183	0x3d0d3336	0.034472667
184	0x3eb92fdf	0.36169335
185	0xbe0cdd5e	-0.1375632
186	0x3d4f1bb7	0.05056354
187	0x3eab37b8	0.33440948
188	0xbebca45b	-0.36844143
189	0x3d6b4974	0.057443097
190	0xbc79a581	-0.015237213
191	0x3e8dd19f	0.2769899
192	0x3ecedde0	0.40403652
193	0xbdb44859	-0.08802862
194	0xbcb81a5e	-0.02247351
195	0x3d8423e3	0.06452157
196	0x3df9fae1	0.122060545
197	0x3dcd59d6	0.100269005
198	0x3d5be0db	0.053681236
199	0x3f592484	0.84821343
200	0xbc0e2fe0	-0.0086784065
201	0x3b9b2ede	0.0047358116
202	0x3e4aae02	0.19792941
203	0xbf5c1056	-0.85962427
204	0xbebe92c8	-0.3722136
205	0x3eec6cbf	0.46176717
206	0xbe18eb77	-0.14933573
207	0x3e016cca	0.12639156
208	0xbe91f781	-0.28509143
209	0x3e8eb772	0.27874333
210	0xbe855f0f	-0.26049086
211	0x3cc7bb5e	0.024381336
212	0xbebf2a9f	-0.37337205
213	0xbf433056	-0.7624563
214	0xbe867856	-0.26263684
215	0x3e61a16b	0.22034232
216	0x3d479df5	0.048734624
217	0xbd4c814f	-0.049928006
218	0xbe4d18b5	-0.20028956
219	0xbea9bb38	-0.3315065
220	0x3e2376a0	0.1596322
221	0xbe98c5db	-0.29838452
222	0xbd69d4cd	-0.05708771
223	0x3e560c14	0.20903045
224	0xbf76da26	-0.9642662
225	0xbe348a72	-0.17630938
226	0x3e1f329a	0.15546647
227	0xbe4c84f8	-0.19972599
228	0x3e505d94	0.20348197
229	0x3f3a689f	0.7281589
230	0xbf304fe1	-0.68871886
231	0xbe86cf4c	-0.2633003
232	0xbd9c2509	-0.076242514
233	0x3e706bf3	0.2347868
234	0xbd6c07a4	-0.057624474
235	0xbf03478e	-0.5128106
236	0xbec81fd2	-0.39086777
237	0xbe9de15e	-0.30836004
238	0xbc01438b	-0.007889639
239	0xbe10ceb5	-0.14141352
240	0xbf048703	-0.5176851
241	0x3e307510	0.17232156
242	0x3e87294a	0.2639869
243	0x3eb1119d	0.3458375
244	0x3e4f0903	0.20218281
245	0xbd069f46	-0.03286674
246	0xbe799020	-0.24371386
247	0x3e81edcc	0.25376737
248	0x3e9edd69	0.31028298
249	0xbe998ff7	-0.2999265
250	0x3d8aaff5	0.067718424
251	0xbd8e06e4	-0.06934908
252	0x3e080e27	0.13286649
253	0x3e5f3668	0.21798098
254	0xbedd1755	-0.43181863
255	0x3ec69a12	0.3878942

actor_fc_layers.blocks.0.block.1.weight f4 [128]
0	0x3f750dda	0.9572426
1	0x3fbf5677	1.4948262
2	0x3f84ad56	1.0365398
3	0x3f771906	0.9652256
4	0x3f594db6	0.848842
5	0x3fad358c	1.3531966
6	0x3f63c562	0.8897306
7	0x3f8248a5	1.0178419
8	0x3fb2b917	1.3962735
9	0x3f8ab2b4	1.0835786
10	0x3fe495cd	1.7858216
11	0x3ec65e91	0.38744023
12	0x3f5e4431	0.868228
13	0x3fc09102	1.5044253
14	0x3fbcd54e	1.4752595
15	0x3fbb615f	1.463909
16	0x3f7c49d5	0.9855016
17	0x3f45b6f0	0.77232265
18	0x3f5aac02	0.85418713
19	0x3fd3b6c0	1.6540146
20	0x3f9eb7cc	1.239984
21	0x3fa7933d	1.3091809
22	0x3faa4c38	1.330451
23	0x3f64bff9	0.8935543
24	0x3f7ad53a	0.9798161
25	0x3f5c292c	0.86000323
26	0x3e1038b9	0.14084138
27	0x3f174c88	0.5910115
28	0x3e2cb06a	0.16864172
29	0x3fe4ceb2	1.7875578
30	0x3f83a5bd	1.0284954
31	0x3f1c41b8	0.6103778
32	0x3f78e519	0.97224575
33	0x3fb58c3b	1.418342
34	0x3f9e244b	1.2354826
35	0x3fba1d3c	1.4540172
36	0x3fb12bce	1.3841493
37	0x3f7a7011	0.9782725
38	0x3f970618	1.1798735
39	0x3fbb5203	1.4634403
40	0x3f17ff93	0.5937435
41	0x3e224523	0.15846686
42	0x3f9ba780	1.2160492
43	0x3f7da015	0.9907239
44	0x3fbe6d5e	1.4877126
45	0x3f9370bf	1.1518782
46	0x3fd3ae57	1.6537579
47	0x400b368f	2.175205
48	0x3f9875b5	1.1910921
49	0x3f89c905	1.0764471
50	0x3fb78c59	1.4339706
51	0x3f0f985b	0.5609185
52	0x3f2a8946	0.6661571
53	0x3fb144ba	1.3849099
54	0x3fa72843	1.3059162
55	0x3fc0deae	1.5067956
56	0x4005a93d	2.0884545
57	0x3fa182c0	1.2618027
58	0x3fb203a7	1.3907365
59	0x3fbf2272	1.4932387
60	0x3fb90816	1.4455593
61	0x3f38f547	0.72249264
62	0x3f0f7f4e	0.56053627
63	0x3f2fa064	0.6860411
64	0x3fa1df89	1.2646343
65	0x3f2be0cf	0.67139906
66	0x3fa2aa0d	1.2708145
67	0x3f6515c2	0.89486325
68	0x3f23573c	0.63804984
69	0x3f771a0e	0.9652413
70	0x3ef05dba	0.46946508
71	0x3f5e0847	0.8673138
72	0x3fdf1e8e	1.74312
73	0x3f8a2bc2	1.0794604
74	0x3f3e1aa0	0.74259377
75	0x3f5b1ae6	0.8558792
76	0x3f6d7958	0.9276328
77	0x3f858c2f	1.0433406
78	0x3f588cf6	0.8459009
79	0x3f9b6d18	1.2142668
80	0x3fce66fd	1.612518
81	0x3fc22747	1.5168236
82	0x3fc90973	1.5706009
83	0x400bdfde	2.1855388
84	0x3f91aa43	1.1380085
85	0x402593e8	2.5871525
86	0x3f816aa5	1.011067
87	0x3f9e09e0	1.2346764
88	0x3f8e5aa0	1.1121407
89	0x3f6c6fb5	0.9235795
90	0x3fbbd967	1.4675721
91	0x3fe61e37	1.7977971
92	0x4022293b	2.5337665
93	0x3f9a56ab	1.2057699
94	0x3fdc1844	1.7194905
95	0x3fa4425e	1.2832754
96	0x3f640643	0.89072055
97	0x3eb767e4	0.3582145
98	0x403469f1	2.8189662
99	0x3fa4bdcd	1.2870423
100	0x3fe23841	1.7673417
101	0x3fa134db	1.2594255
102	0x3f4f33d8	0.8093848
103	0x3f65aa27	0.89712757
104	0x3f7ceb9a	0.98797
105	0x3f8e7d65	1.1132017
106	0x3f29397d	0.66103345
107	0x3e961273	0.2931095
108	0x3f973e54	1.1815896
109	0x3f8c2306	1.0948188
110	0x3f93416b	1.1504339
111	0x3f89cb88	1.0765238
112	0x3fa62428	1.2979784
113	0x3f3286de	0.6973704
114	0x3fbdf742	1.4841082
115	0x3f5c684d	0.8609665
116	0x3fa1254b	1.2589506
117	0x3f9f03ac	1.2422996
118	0x3f8e9052	1.1137793
119	0x3f1269e4	0.57192826
120	0x3f6c3777	0.9227213
121	0x3f467f4c	0.7753799
122	0x3fae6bdf	1.362667
123	0x3f6b6120	0.91945076
124	0x3fb7a0af	1.4345912
125	0x3f60f475	0.8787301
126	0x3f7b36a6	0.9813026
127	0x3f46d3a7	0.77666706

actor_fc_layers.blocks.0.block.1.bias f4 [128]
0	0x3f0ab55d	0.5418299
1	0x3e974895	0.29547563
2	0xbe1af3b7	-0.15132032
3	0xbd63a5c2	-0.055578
4	0x3f0ed68a	0.5579611
5	0x3e7fd1f9	0.24982442
6	0x3e4e81dc	0.20166725
7	0xbf48321d	-0.78201467
8	0x3b8e2b96	0.004338692
9	0xbdce77e9	-0.10081465
10	0x3ddf3e9b	0.10900613
11	0x3f1919a7	0.5980477
12	0xbf63a73d	-0.8892706
13	0xbe1b337d	-0.1515636
14	0xbec0d901	-0.3766556
15	0xbe75d8bf	-0.24008463
16	0xbe8ea065	-0.27856746
17	0x3f2faf8f	0.68627256
18	0x3eb97686	0.3622324
19	0x3f139193	0.57644004
20	0xbe83a4c6	-0.2571165
21	0x3e8ee760	0.279109
22	0x3e3eb2a7	0.18622838
23	0x3e822bbb	0.2542399
24	0x3e507617	0.20357548
25	0xbdaa7df4	-0.08324805
26	0x3f0fcdc1	0.5617333
27	0x3f03f1d8	0.515409
28	0x3f3bc601	0.73349005
29	0xbe41646e	-0.18885967
30	0x3db1f4f0	0.08689296
31	0x3e84dc57	0.25949356
32	0x3ed2f61a	0.41203386
33	0x3e4f512f	0.20245813
34	0xbe9ae879	-0.30255488
35	0x3e930188	0.28712106
36	0xbe785cff	-0.24254225
37	0xbeb14639	-0.34623888
38	0x3e098ac4	0.13431841
39	0x3f1947aa	0.59874976
40	0x3ed11352	0.40835053
41	0x3f41bdc4	0.75680184
42	0x3f3c7c08	0.73626757
43	0x3f839998	1.0281248
44	0x3ced7b8f	0.028989581
45	0xbf4cea88	-0.80045366
46	0x3ee1da75	0.44111982
47	0x3e967526	0.29386252
48	0x3dfbc8ff	0.12294196
49	0xbd5c67f1	-0.053810064
50	0xbf4eb762	-0.8074857
51	0x3e98837a	0.2978781
52	0xbe0c324d	-0.13691063
53	0xbe4850fa	-0.1956214
54	0xbee1967f	-0.44060132
55	0x3e8a8cc8	0.27060533
56	0xbe411062	-0.18853906
57	0xbf0920c8	-0.53565645
58	0x3e694274	0.22779256
59	0xbe235628	-0.15950835
60	0x3e2fe7ab	0.17178218
61	0x3ee169bf	0.4402599
62	0x3ee59300	0.44838715
63	0xbf0a0e07	-0.53927654
64	0xbf71c2a2	-0.9443761
65	0x3f064031	0.524417
66	0x3ea131e6	0.31483382
67	0xbf9380af	-1.1523646
68	0x3e57be66	0.21068725
69	0xbf937c14	-1.1522241
70	0x3f4be0a5	0.79639655
71	0x3edab6bd	0.42717543
72	0x3f3c2859	0.73499066
73	0x3cba772c	0.022761904
74	0xbe102dcc	-0.1407997
75	0x3e34e8f9	0.17666997
76	0x3c2ac3a9	0.010422626
77	0x3ea4b185	0.32166687
78	0xbf5e9e7e	-0.8696059
79	0xbf31d901	-0.69471747
80	0xbd31459d	-0.04327928
81	0x3e7b373a	0.24532786
82	0x3e03780f	0.12838767
83	0x3e2f2916	0.17105517
84	0x3f50729f	0.814249
85	0x3eb4776a	0.35247356
86	0xbe826bed	-0.25472966
87	0xbe962f50	-0.29332972
88	0xbf11a855	-0.5689748
89	0xbf24ba24	-0.6434653
90	0xbd5b277c	-0.053504452
91	0x3dd7deb1	0.10540522
92	0x3e168611	0.1469958
93	0xbf38d814	-0.7220471
94	0x3f068c4b	0.5255782
95	0xbdc3d1a6	-0.09561472
96	0xbf7e20b1	-0.99268633
97	0x3f1ac7fe	0.60461414
98	0x3e7aa546	0.2447711
99	0xbebd49fd	-0.3697051
100	0xbf445803	-0.76696795
101	0xbc65233c	-0.013985451
102	0xba8a31cf	-0.0010543409
103	0xbdab4f47	-0.0836473
104	0xbd5de112	-0.054169722
105	0x3dde66ef	0.10859477
106	0x3bc815d0	0.006106116
107	0x3f82e110	1.0224934
108	0x3e8806d2	0.26567703
109	0xbda602df	-0.08106016
110	0x3da434fb	0.08017918
111	0xbe30d62c	-0.172692
112	0x3e1964ba	0.1497983
113	0x3ee74722	0.45171458
114	0xbf378b8a	-0.71697295
115	0x3e1fe985	0.15616424
116	0x3ea7422b	0.3266767
117	0xbef84871	-0.48492768
118	0x3e41be28	0.18920195
119	0x3f163fd3	0.5869114
120	0xbf453566	-0.77034605
121	0x3f7aa02c	0.9790065
122	0x3e00e36a	0.12586752
123	0xbf4d3507	-0.8015904
124	0xbea3ce18	-0.31993175
125	0xbe88bad2	-0.26705033
126	0x3bf06b03	0.0073369755
127	0x3ededb03	0.43526468

actor_fc_layers.blocks.0.block.1.running_mean f4 [128]
0	0x00000000	0.0
1	0x00000000	0.0
2	0x00000000	0.0
3	0x00000000	0.0
4	0x00000000	0.0
5	0x00000000	0.0
6	0x00000000	0.0
7	0x00000000	0.0
8	0x00000000	0.0
9	0x00000000	0.0
10	0x00000000	0.0
11	0x00000000	0.0
12	0x00000000	0.0
13	0x00000000	0.0
14	0x00000000	0.0
15	0x00000000	0.0
16	0x00000000	0.0
17	0x00000000	0.0
18	0x00000000	0.0
19	0x00000000	0.0
20	0x00000000	0.0
21	0x00000000	0.0
22	0x00000000	0.0
23	0x00000000	0.0
24	0x00000000	0.0
25	0x00000000	0.0
26	0x00000000	0.0
27	0x00000000	0.0
28	0x00000000	0.0
29	0x00000000	0.0
30	0x00000000	0.0
31	0x00000000	0.0
32	0x00000000	0.0
33	0x00000000	0.0
34	0x00000000	0.0
35	0x00000000	0.0
36	0x00000000	0.0
37	0x00000000	0.0
38	0x00000000	0.0
39	0x00000000	0.0
40	0x00000000	0.0
41	0x00000000	0.0
42	0x00000000	0.0
43	0x00000000	0.0
44	0x00000000	0.0
45	0x00000000	0.0
46	0x00000000	0.0
47	0x00000000	0.0
48	0x00000000	0.0
49	0x00000000	0.0
50	0x00000000	0.0
51	0x00000000	0.0
52	0x00000000	0.0
53	0x00000000	0.0
54	0x00000000	0.0
55	0x00000000	0.0
56	0x00000000	0.0
57	0x00000000	0.0
58	0x00000000	0.0
59	0x00000000	0.0
60	0x00000000	0.0
61	0x00000000	0.0
62	0x00000000	0.0
63	0x00000000	0.0
64	0x00000000	0.0
65	0x00000000	0.0
66	0x00000000	0.0
67	0x00000000	0.0
68	0x00000000	0.0
69	0x00000000	0.0
70	0x00000000	0.0
71	0x00000000	0.0
72	0x00000000	0.0
73	0x00000000	0.0
74	0x00000000	0.0
75	0x00000000	0.0
76	0x00000000	0.0
77	0x00000000	0.0
78	0x00000000	0.0
79	0x00000000	0.0
80	0x00000000	0.0
81	0x00000000	0.0
82	0x00000000	0.0
83	0x00000000	0.0
84	0x00000000	0.0
85	0x00000000	0.0
86	0x00000000	0.0
87	0x00000000	0.0
88	0x00000000	0.0
89	0x00000000	0.0
90	0x00000000	0.0
91	0x00000000	0.0
92	0x00000000	0.0
93	0x00000000	0.0
94	0x00000000	0.0
95	0x00000000	0.0
96	0x00000000	0.0
97	0x00000000	0.0
98	0x00000000	0.0
99	0x00000000	0.0
100	0x00000000	0.0
101	0x00000000	0.0
102	0x00000000	0.0
103	0x00000000	0.0
104	0x00000000	0.0
105	0x00000000	0.0
106	0x00000000	0.0
107	0x00000000	0.0
108	0x00000000	0.0
109	0x00000000	0.0
110	0x00000000	0.0
111	0x00000000	0.0
112	0x00000000	0.0
113	0x00000000	0.0
114	0x00000000	0.0
115	0x00000000	0.0
116	0x00000000	0.0
117	0x00000000	0.0
118	0x00000000	0.0
119	0x00000000	0.0
120	0x00000000	0.0
121	0x00000000	0.0
122	0x00000000	0.0
123	0x00000000	0.0
124	0x00000000	0.0
125	0x00000000	0.0
126	0x00000000	0.0
127	0x00000000	0.0

actor_fc_layers.blocks.0.block.1.running_var f4 [128]
0	0x3f800000	1.0
1	0x3f800000	1.0
2	0x3f800000	1.0
3	0x3f800000	1.0
4	0x3f800000	1.0
5	0x3f800000	1.0
6	0x3f800000	1.0
7	0x3f800000	1.0
8	0x3f800000	1.0
9	0x3f800000	1.0
10	0x3f800000	1.0
11	0x3f800000	1.0
12	0x3f800000	1.0
13	0x3f800000	1.0
14	0x3f800000	1.0
15	0x3f800000	1.0
16	0x3f800000	1.0
17	0x3f800000	1.0
18	0x3f800000	1.0
19	0x3f800000	1.0
20	0x3f800000	1.0
21	0x3f800000	1.0
22	0x3f800000	1.0
23	0x3f800000	1.0
24	0x3f800000	1.0
25	0x3f800000	1.0
26	0x3f800000	1.0
27	0x3f800000	1.0
28	0x3f800000	1.0
29	0x3f800000	1.0
30	0x3f800000	1.0
31	0x3f800000	1.0
32	0x3f800000	1.0
33	0x3f800000	1.0
34	0x3f800000	1.0
35	0x3f800000	1.0
36	0x3f800000	1.0
37	0x3f800000	1.0
38	0x3f800000	1.0
39	0x3f800000	1.0
40	0x3f800000	1.0
41	0x3f800000	1.0
42	0x3f800000	1.0
43	0x3f800000	1.0
44	0x3f800000	1.0
45	0x3f800000	1.0
46	0x3f800000	1.0
47	0x3f800000	1.0
48	0x3f800000	1.0
49	0x3f800000	1.0
50	0x3f800000	1.0
51	0x3f800000	1.0
52	0x3f800000	1.0
53	0x3f800000	1.0
54	0x3f800000	1.0
55	0x3f800000	1.0
56	0x3f800000	1.0
57	0x3f800000	1.0
58	0x3f800000	1.0
59	0x3f800000	1.0
60	0x3f800000	1.0
61	0x3f800000	1.0
62	0x3f800000	1.0
63	0x3f800000	1.0
64	0x3f800000	1.0
65	0x3f800000	1.0
66	0x3f800000	1.0
67	0x3f800000	1.0
68	0x3f800000	1.0
69	0x3f800000	1.0
70	0x3f800000	1.0
71	0x3f800000	1.0
72	0x3f800000	1.0
73	0x3f800000	1.0
74	0x3f800000	1.0
75	0x3f800000	1.0
76	0x3f800000	1.0
77	0x3f800000	1.0
78	0x3f800000	1.0
79	0x3f800000	1.0
80	0x3f800000	1.0
81	0x3f800000	1.0
82	0x3f800000	1.0
83	0x3f800000	1.0
84	0x3f800000	1.0
85	0x3f800000	1.0
86	0x3f800000	1.0
87	0x3f800000	1.0
88	0x3f800000	1.0
89	0x3f800000	1.0
90	0x3f800000	1.0
91	0x3f800000	1.0
92	0x3f800000	1.0
93	0x3f800000	1.0
94	0x3f800000	1.0
95	0x3f800000	1.0
96	0x3f800000	1.0
97	0x3f800000	1.0
98	0x3f800000	1.0
99	0x3f800000	1.0
100	0x3f800000	1.0
101	0x3f800000	1.0
102	0x3f800000	1.0
103	0x3f800000	1.0
104	0x3f800000	1.0
105	0x3f800000	1.0
106	0x3f800000	1.0
107	0x3f800000	1.0
108	0x3f800000	1.0
109	0x3f800000	1.0
110	0x3f800000	1.0
111	0x3f800000	1.0
112	0x3f800000	1.0
113	0x3f800000	1.0
114	0x3f800000	1.0
115	0x3f800000	1.0
116	0x3f800000	1.0
117	0x3f800000	1.0
118	0x3f800000	1.0
119	0x3f800000	1.0
120	0x3f800000	1.0
121	0x3f800000	1.0
122	0x3f800000	1.0
123	0x3f800000	1.0
124	0x3f800000	1.0
125	0x3f800000	1.0
126	0x3f800000	1.0
127	0x3f800000	1.0

actor_fc_layers.blocks.1.block.0.weight f4 [128, 128]
0	0x3e18bd8e	0.1491606
1	0x3edfb276	0.43690842
2	0x3d192004	0.037384048
3	0xbd1896eb	-0.0372533
4	0xbe8f64be	-0.28006548
5	0x3f023305	0.508591
6	0x3d9bb901	0.07603646
7	0xbf2b7de2	-0.66988957
8	0xbd8ae3df	-0.06781744
9	0x3e9b29aa	0.30305225
10	0xbe2c01f5	-0.16797622
11	0x3e51729f	0.2045388
12	0xbeb03218	-0.34413218
13	0xbea7e30e	-0.32790416
14	0xbe7cf78a	-0.24703804
15	0xbe94f31e	-0.29091734
16	0xbebfa291	-0.37428716
17	0x3e58daee	0.21177265
18	0x3da44eef	0.08022868
19	0x3e3aae35	0.18230517
20	0xbee1f36b	-0.44131026
21	0x3d2209a7	0.039559986
22	0x3f006819	0.5015884
23	0x3dcdde9e	0.100522265
24	0xbe17838f	-0.1479628
25	0xbe51a7a6	-0.20474109
26	0x3ea9fcd3	0.33200702
27	0x3e0eeccb	0.13957517
28	0x3dc0817a	0.09399696
29	0xbf2ae75e	-0.6675929
30	0x3c18904a	0.009311745
31	0x3eba95c5	0.3644239
32	0x3ec89e77	0.391834
33	0xbe1f3cdd	-0.15550561
34	0xbc5c3cbf	-0.013442217
35	0x3e64f4f6	0.2235907
36	0xbdce3b53	-0.10069909
37	0x3e9c276a	0.3049882
38	0x3dce4690	0.100720525
39	0xbdd0b43b	-0.10190626
40	0xbdcaa10e	-0.09894
41	0x3f1d3c69	0.61420304
42	0xbc46812b	-0.012115757
43	0x3f102963	0.5631315
44	0xbe080705	-0.13283928
45	0xbf182279	-0.594276
46	0x3f00ab51	0.5026141
47	0xbf3a8994	-0.7286618
48	0x3ef324e8	0.47489095
49	0x3e219986	0.15781221
50	0xbf4e7c2a	-0.8065821
51	0x3e8bed72	0.27329594
52	0xbdc0fc4c	-0.09423122
53	0xbf0819b3	-0.53164214
54	0xbe5a2431	-0.21302868
55	0xbf036580	-0.5132675
56	0x3cd10099	0.02551298
57	0xbe6df436	-0.2323769
58	0xbe06dfc2	-0.13171294
59	0x3dc0e166	0.09417991
60	0xbea6bff3	-0.3256832
61	0xbe483801	-0.19552614
62	0x3ecd3f1e	0.40087217
63	0x3c20d7a0	0.009817034
64	0xbe2788c0	-0.1636076
65	0xbc43f07a	-0.01195919
66	0x3e861eff	0.26195523
67	0xbed405d8	-0.41410708
68	0xbdf1abf8	-0.118003786
69	0xbf2ef0c8	-0.68336153
70	0xbe6aa870	-0.22915816
71	0xbe55b186	-0.20868501
72	0x3ddc43d7	0.10755127
73	0xbe9a1ce1	-0.30100158
74	0xbda1b5fb	-0.07896038
75	0xba7c7857	-0.0009630969
76	0x3ecc5716	0.3991019
77	0x3ec82256	0.39088696
78	0xbf0e4adb	-0.5558297
79	0xbe2ed600	-0.17073822
80	0x3e12c2b9	0.14332093
81	0x3e7c3c7e	0.24632451
82	0xbe0beccc	-0.1366455
83	0xbe4a10dc	-0.19732994
84	0x3e6ac45b	0.22926466
85	0x3bef4f78	0.0073031746
86	0xbf1138e5	-0.5672744
87	0x3e8542fb	0.26027665
88	0xbc6ffc6c	-0.014647584
89	0xbf6cb7ee	-0.92468154
90	0xbca3d65e	-0.01999968
91	0x3bb93785	0.0056523704
92	0xbe7628bf	-0.24038981
93	0xbf60dd9a	-0.8783814
94	0x3e910408	0.28323388
95	0x3f1d0efc	0.6135099
96	0xbe857bb7	-0.2607095
97	0x3e2e8cec	0.17045945
98	0xbea893a2	-0.32925135
99	0xbefc8ead	-0.49327603
100	0xbf13d46f	-0.5774602
101	0x3f011eeb	0.504378
102	0xbd17be0b	-0.037046473
103	0xbd140190	-0.036134303
104	0xbeaceffe	-0.3377685
105	0xbebf8943	-0.3740941
106	0x3ef093d0	0.46987772
107	0x3e8c4832	0.2739883
108	0xbf016c7c	-0.5055616
109	0xbf11ca7b	-0.56949586
110	0xbea87098	-0.32898402
111	0xbe438136	-0.19092259
112	0x3e6792e4	0.22614628
113	0x3e1dc7e1	0.15408279
114	0xbdbb99a5	-0.09160165
115	0xbe37dd9b	-0.1795563
116	0x3ea63eac	0.3246969
117	0x3e6936e7	0.2277485
118	0xbea85c72	-0.3288303
119	0x3e866a2c	0.26252878
120	0xbf0115f6	-0.50424135
121	0x3d972681	0.07380391
122	0xbe6a730a	-0.22895446
123	0xbe5a604d	-0.21325798
124	0x3cc7711e	0.02434593
125	0x3cef50bf	0.029213307
126	0x3d6ed4b2	0.05830831
127	0x3f2a8ec3	0.6662409
128	0xbf878b8d	-1.0589463
129	0xbf2cc44d	-0.6748703
130	0xbed10f59	-0.40832022
131	0x3d21fedd	0.039549697
132	0xbf0da273	-0.55326
133	0x3e38ae6f	0.18035291
134	0xbf2533b9	-0.6453205
135	0x3f32b147	0.69801754
136	0xbf00821d	-0.5019854
137	0x3e444b63	0.19169383
138	0xbeaaec1d	-0.33383265
139	0x3d265b6e	0.040614538
140	0xbe0bb75e	-0.13644168
141	0xbef021db	-0.4690083
142	0xbe2eecbd	-0.17082496
143	0xbf5d20ca	-0.8637816
144	0xbd8494b4	-0.06473675
145	0xbdbe1ecb	-0.09283217
146	0xbdcfefd9	-0.10153169
147	0xbefb2cfb	-0.49057755
148	0xbef401b5	-0.47657552
149	0x3e0610fc	0.13092417
150	0xba3a33af	-0.00071030384
151	0x3dfb6e10	0.12276852
152	0xbcecbb17	-0.028897805
153	0xbe864d19	-0.26230696
154	0xbd26ba2e	-0.0407049
155	0xbe0c2414	-0.13685638
156	0x3cb30304	0.021852024
157	0x3ea7f1f8	0.32801795
158	0x3e45ee28	0.1932913
159	0xbf26a471	-0.6509467
160	0xbd7fa5fe	-0.06241416
161	0xbe9bc3da	-0.3042286
162	0x3e62421e	0.22095534
163	0x3eadfef8	0.33983588
164	0x3eb1baf7	0.34712955
165	0x3f09f86e	0.538947
166	0x3e96b471	0.2943454
167	0xbf305b39	-0.68889195
168	0x3f37612c	0.7163265
169	0xbe8e6dc8	-0.2781813
170	0xbfaf966f	-1.3717784
171	0x3cbc5cd1	0.022993477
172	0x3ecee1d8	0.4040668
173	0xbd4c1cd7	-0.04983219
174	0x3da5618b	0.080752455
175	0xbdcf68ff	-0.10127448
176	0x3f0df339	0.55449253
177	0x3f17ab1f	0.59245485
178	0xbe060aa6	-0.1309
179	0xbdbb3597	-0.09141081
180	0x3dfab0c2	0.12240745
181	0x3eaeb164	0.34119713
182	0xbe31e72c	-0.17373341
183	0xbcccd9b4	-0.025006153
184	0x3edcfbf8	0.43160987
185	0x3f1232d6	0.5710882
186	0x3e8fffba	0.2812479
187	0x3e1082c6	0.14112386
188	0x3e306f61	0.17229988
189	0xbe8c2aed	-0.273765
190	0xbec2ae3e	-0.3802356
191	0x3d65bf19	0.056090448
192	0xbed49763	-0.4152175
193	0xbf3127ee	-0.6920155
194	0x3da22601	0.07917405
195	0xbe258305	-0.16163261
196	0xbe6e1b54	-0.23252612
197	0x3f39d3d0	0.72588825
198	0xbf23b809	-0.6395269
199	0x3e70d8f6	0.23520264
200	0xbe286766	-0.16445693
201	0xbe81e480	-0.25369644
202	0xbe827c0f	-0.25485274
203	0x3f2a63f7	0.66558784
204	0x3e73db33	0.23814087
205	0xbf12c679	-0.57334095
206	0x3e816d56	0.2527873
207	0xbecb81c7	-0.3974745
208	0xbed7d86a	-0.42157298
209	0x3f37a3a3	0.71734065
210	0xbf1c928f	-0.6116113
211	0x3f1a7e01	0.60348517
212	0xbf8265e4	-1.0187345
213	0xbedd8e7b	-0.43272766
214	0x3d49c19f	0.049256917
215	0x3ea8544c	0.32876813
216	0x3d1e4812	0.03864295
217	0x3eb0a8dc	0.3450383
218	0xbece1788	-0.40252328
219	0x3ef4aa9a	0.4778641
220	0xbecd1468	-0.4005463
221	0x3e5bdbf3	0.21470623
222	0xbf051b5a	-0.5199486
223	0xbe6671b4	-0.22504312
224	0x3e8d2ecf	0.27574775
225	0xbe3611d5	-0.1778024
226	0xbf63eb25	-0.8903068
227	0x3ee8a0b5	0.4543511
228	0xbf70930d	-0.9397438
229	0xbe50e071	-0.20398118
230	0xbe9d503f	-0.30725285
231	0xbeb85acf	-0.3600678
232	0xbf23f055	-0.6403859
233	0xbd82382f	-0.063583724
234	0xbddf4d99	-0.109034725
235	0xbef426f4	-0.4768597
236	0xbdd92fcd	-0.106048204
237	0x3e17ad9c	0.1481232
238	0xbea961c2	-0.33082396
239	0xbedf32b1	-0.43593362
240	0xbeab5bae	-0.33468384
241	0x3f188f5e	0.5959376
242	0xbf4166b1	-0.7554732
243	0xbf0b1e96	-0.54343545
244	0x3e4013a2	0.1875749
245	0xbe2db277	-0.1696261
246	0x3f172529	0.59041077
247	0x3f054613	0.5206005
248	0xbdb093ea	-0.08621962
249	0xbf4de4c8	-0.8042722
250	0xbf0c843b	-0.5488927
251	0x3ef9b82c	0.48773324
252	0xbe0f6cb4	-0.1400631
253	0xbf0912b9	-0.53544194
254	0x3ee0567f	0.4381599
255	0xbf65e493	-0.898019

actor_fc_layers.blocks.1.block.1.weight f4 [128]
0	0x3fbb217a	1.4619591
1	0x4006ae59	2.1043913
2	0x3fd7830c	1.6836867
3	0x3fdff6ba	1.749717
4	0x3fcc8eed	1.5981117
5	0x3fdcae54	1.7240701
6	0x40085f1c	2.130805
7	0x4004e916	2.0767264
8	0x3ffe15e6	1.9850433
9	0x3fa0445c	1.2520862
10	0x3febf34e	1.8433626
11	0x3fd0db80	1.6316986
12	0x3fff7e44	1.9960408
13	0x3fce0413	1.6094993
14	0x3f9ac04c	1.2089934
15	0x3fc2eff8	1.5229483
16	0x3f753d1d	0.95796376
17	0x3fd3c8c2	1.6545641
18	0x3fbc17aa	1.4694722
19	0x3fc273c3	1.5191578
20	0x3fb84819	1.4397002
21	0x3fafdacb	1.3738645
22	0x3fb1a1dc	1.387752
23	0x3f76fd29	0.9648004
24	0x3f76b4e5	0.96369773
25	0x3fa9e7e6	1.3273895
26	0x3f7ad971	0.9798804
27	0x4004edcc	2.077014
28	0x4003b1b2	2.0577207
29	0x3fc09ff6	1.5048816
30	0x3fd2cc25	1.646855
31	0x3fcea019	1.6142608
32	0x3f725ebd	0.9467581
33	0x3fc06131	1.502966
34	0x3fc1f1b2	1.5151885
35	0x3f83d50e	1.0299394
36	0x3fcf05e7	1.6173676
37	0x3f92138b	1.1412214
38	0x3f9ea22f	1.2393245
39	0x3fa5559f	1.2916754
40	0x3f8e6452	1.1124365
41	0x3f96af85	1.1772314
42	0x3feb59b9	1.8386756
43	0x400c59df	2.1929853
44	0x3fbbffcd	1.4687439
45	0x3fe11246	1.7583702
46	0x3fb463f5	1.4093004
47	0x3feab26d	1.8335701
48	0x3fef6083	1.8701328
49	0x3fea7603	1.8317264
50	0x401c14ac	2.4387617
51	0x3fb40ffc	1.4067378
52	0x3fc186bd	1.5119244
53	0x3fd628ca	1.6731198
54	0x3fc50d08	1.5394602
55	0x3f55eb5a	0.83562243
56	0x3f9b76f7	1.214568
57	0x3f9f7276	1.2456806
58	0x3ff49ec7	1.9110955
59	0x3f97c2e0	1.1856346
60	0x3fe6d8f4	1.8034959
61	0x3f9e637f	1.2374114
62	0x3f9a5378	1.2056723
63	0x3feac790	1.8342152
64	0x3ff042b2	1.8770354
65	0x3fcfda34	1.6238465
66	0x3f986891	1.1906911
67	0x400121b6	2.0176826
68	0x3fee84b7	1.8634251
69	0x40097a08	2.1480732
70	0x3faed315	1.3658167
71	0x3fe3a49c	1.778461
72	0x3fa94bd9	1.3226272
73	0x3f743319	0.9539047
74	0x3fa8f9f6	1.3201282
75	0x401c5f3b	2.4433124
76	0x3f9b9f4b	1.2157987
77	0x3fb8fa8d	1.4451462
78	0x3fca82d6	1.5821178
79	0x3fda869f	1.7072333
80	0x3ff1ded4	1.8896127
81	0x3fe15b84	1.7606053
82	0x3fb9c741	1.4513932
83	0x3fa458a7	1.2839555
84	0x3fa04bb0	1.2523098
85	0x3fbf00ce	1.492212
86	0x3f846dca	1.0346005
87	0x3fd78b7e	1.6839445
88	0x3fa3a14c	1.2783599
89	0x3fb8680e	1.4406755
90	0x3f8e0f06	1.1098335
91	0x3fa0cc4e	1.2562349
92	0x3f99d6a7	1.2018632
93	0x3f948ea0	1.1606026
94	0x3fbdc568	1.4825869
95	0x3f89d8e6	1.0769317
96	0x3fbb9c7f	1.4657134
97	0x3fc56485	1.5421301
98	0x3fb328dd	1.3996845
99	0x3ffa625e	1.9561269
100	0x3fadb933	1.3572143
101	0x3fef199b	1.8679689
102	0x3fad7b72	1.3553298
103	0x3f9ead07	1.2396554
104	0x3fd28483	1.6446689
105	0x3fe276a0	1.7692451
106	0x4017c5ed	2.3714554
107	0x3fb1f34c	1.3902373
108	0x3f840db2	1.031668
109	0x3fa00530	1.2501583
110	0x40008ce3	2.008599
111	0x3fc0011b	1.5000337
112	0x3fce9ef9	1.6142265
113	0x3f9dfd3c	1.2342906
114	0x3f884f4f	1.0649203
115	0x3fde6165	1.7373472
116	0x3ff20dc0	1.8910446
117	0x3f7e747d	0.99396497
118	0x400c4b31	2.1920893
119	0x3fb0fa56	1.3826396
120	0x3fdd416c	1.728559
121	0x3fd85032	1.6899474
122	0x3ff00c39	1.875373
123	0x3fc0a15e	1.5049245
124	0x3ff039b5	1.8767611
125	0x3fb02b2b	1.3763174
126	0x3fa53e91	1.2909719
127	0x3feb5e09	1.8388072

actor_fc_layers.blocks.1.block.1.bias f4 [128]
0	0x3ee8152f	0.45328662
1	0xbc130552	-0.008973436
2	0xbdada7f4	-0.084793
3	0x3d9e7d32	0.07738723
4	0xbd4b4827	-0.049629357
5	0x3f6d3c01	0.92669684
6	0x3f35a1bb	0.70949906
7	0x3f835487	1.0260171
8	0xbed70171	-0.41993287
9	0xbe1e6d44	-0.15471369
10	0x3f246728	0.64219904
11	0x3eaab714	0.33342803
12	0xbe80dfb8	-0.25170684
13	0xbd388270	-0.04504627
14	0x3f26e7f8	0.65197706
15	0xbde1a962	-0.11018635
16	0xbd839ba3	-0.0642617
17	0x3df5ae3d	0.11996124
18	0x3f045318	0.5168929
19	0x3e82ffc2	0.25585753
20	0x3ed06fb2	0.40710217
21	0x3ee46a21	0.4461222
22	0x3eaf526e	0.34242576
23	0xbd84d6df	-0.06486296
24	0xbd57647c	-0.052586064
25	0xbe507190	-0.2035582
26	0xbdc1a357	-0.09454983
27	0xbf1420dc	-0.5786264
28	0x3e01a06c	0.12658852
29	0xbe1ba078	-0.15197933
30	0xbe418853	-0.1889966
31	0x3f0869a9	0.53286225
32	0xbdaaee71	-0.0834626
33	0x3f3b09c9	0.73061806
34	0x3f2657a0	0.64977455
35	0xbdd1580c	-0.10221872
36	0x3e267cf0	0.16258597
37	0xbe39d73e	-0.18148515
38	0x3d2cde37	0.042204108
39	0x3df11bb8	0.11772865
40	0x3ec89437	0.3917558
41	0x3fa73f08	1.3066111
42	0x3f43a328	0.7642083
43	0xbed86597	-0.42265007
44	0x3f140bd3	0.5783054
45	0xbdcf0845	-0.10108999
46	0x3eb8d49d	0.3609971
47	0x3ee0135f	0.4376478
48	0x3e392abf	0.18082713
49	0x3f1adf7e	0.6049727
50	0xbdc0108a	-0.093781546
51	0xbd76b76c	-0.06023352
52	0x3e245777	0.1604899
53	0x3eb6cf66	0.35705107
54	0x3f283c31	0.65716845
55	0x3f17dc0e	0.5932015
56	0x3eef1ce1	0.4670172
57	0x3e037617	0.12838016
58	0x3f502037	0.81299156
59	0x3e70b291	0.23505618
60	0x3e2bb764	0.16769177
61	0xbdd69254	-0.104771286
62	0xbf0ad13f	-0.54225534
63	0x3ecd04e2	0.40042788
64	0x3ed3f971	0.41401246
65	0x3e2d7a0d	0.1694109
66	0xbf12c989	-0.5733877
67	0x3e2d558f	0.1692717
68	0xbd066d29	-0.032818947
69	0x3dea5056	0.11441104
70	0xbdeb9cf8	-0.11504549
71	0x3d741edb	0.05959974
72	0x3f08672c	0.5328243
73	0xbd5def18	-0.054183096
74	0xbf01f0fb	-0.5075833
75	0xbe97bb3f	-0.29635045
76	0xbe0fc487	-0.14039813
77	0x3f2e8e43	0.68185824
78	0x3e5ee76d	0.2176797
79	0xbf12de4d	-0.57370454
80	0x3ef2f555	0.47452798
81	0xbf41ac32	-0.75653374
82	0x3f2d44e2	0.6768323
83	0xbf0135a3	-0.5047247
84	0x3f37cca7	0.7179665
85	0x3e06a4e2	0.13148835
86	0xbdcd9847	-0.1003881
87	0x3ebca09e	0.3684129
88	0xbda2a171	-0.07940949
89	0x3daadda4	0.08343056
90	0xbe1954f8	-0.1497382
91	0x3e09d5f1	0.13460518
92	0xbe8d638b	-0.27615008
93	0xbf21fe2f	-0.6327848
94	0x3e19af6e	0.15008327
95	0x3c269cf8	0.01016926
96	0xbf1ae9db	-0.60513085
97	0x3f827fd5	1.0195261
98	0x3ec2bb9c	0.3803376
99	0x3db1d988	0.08684069
100	0x3e92de1d	0.28685084
101	0x3f13d13e	0.57741153
102	0x3da2b598	0.079447925
103	0x3de50466	0.111824796
104	0x3eeb4216	0.45948857
105	0x3df5409d	0.11975215
106	0x3e4642c1	0.19361402
107	0x3f302b50	0.6881609
108	0xbd43729f	-0.047716733
109	0x3f99e44c	1.2022796
110	0xbf8b8343	-1.0899433
111	0x3f1f049e	0.6211642
112	0xbf17291e	-0.59047115
113	0x3ef2da4a	0.47432166
114	0xbeb86eb6	-0.36021966
115	0xbf52583f	-0.821659
116	0x3da9b921	0.08287264
117	0xbd61ac21	-0.055095796
118	0x3bbdcd64	0.0057923067
119	0xbe1ccaab	-0.15311687
120	0x3f2e03d5	0.679746
121	0x3ed2353d	0.41056243
122	0x3e73576d	0.23763819
123	0x3eeb65f6	0.45976228
124	0x3f1f4c5c	0.6222589
125	0x3ee7f983	0.4530755
126	0xbe951b80	-0.29122543
127	0x3dfb9964	0.12285116

actor_fc_layers.blocks.1.block.1.running_mean f4 [128]
0	0x00000000	0.0
1	0x00000000	0.0
2	0x00000000	0.0
3	0x00000000	0.0
4	0x00000000	0.0
5	0x00000000	0.0
6	0x00000000	0.0
7	0x00000000	0.0
8	0x00000000	0.0
9	0x00000000	0.0
10	0x00000000	0.0
11	0x00000000	0.0
12	0x00000000	0.0
13	0x00000000	0.0
14	0x00000000	0.0
15	0x00000000	0.0
16	0x00000000	0.0
17	0x00000000	0.0
18	0x00000000	0.0
19	0x00000000	0.0
20	0x00000000	0.0
21	0x00000000	0.0
22	0x00000000	0.0
23	0x00000000	0.0
24	0x00000000	0.0
25	0x00000000	0.0
26	0x00000000	0.0
27	0x00000000	0.0
28	0x00000000	0.0
29	0x00000000	0.0
30	0x00000000	0.0
31	0x00000000	0.0
32	0x00000000	0.0
33	0x00000000	0.0
34	0x00000000	0.0
35	0x00000000	0.0
36	0x00000000	0.0
37	0x00000000	0.0
38	0x00000000	0.0
39	0x00000000	0.0
40	0x00000000	0.0
41	0x00000000	0.0
42	0x00000000	0.0
43	0x00000000	0.0
44	0x00000000	0.0
45	0x00000000	0.0
46	0x00000000	0.0
47	0x00000000	0.0
48	0x00000000	0.0
49	0x00000000	0.0
50	0x00000000	0.0
51	0x00000000	0.0
52	0x00000000	0.0
53	0x00000000	0.0
54	0x00000000	0.0
55	0x00000000	0.0
56	0x00000000	0.0
57	0x00000000	0.0
58	0x00000000	0.0
59	0x00000000	0.0
60	0x00000000	0.0
61	0x00000000	0.0
62	0x00000000	0.0
63	0x00000000	0.0
64	0x00000000	0.0
65	0x00000000	0.0
66	0x00000000	0.0
67	0x00000000	0.0
68	0x00000000	0.0
69	0x00000000	0.0
70	0x00000000	0.0
71	0x00000000	0.0
72	0x00000000	0.0
73	0x00000000	0.0
74	0x00000000	0.0
75	0x00000000	0.0
76	0x00000000	0.0
77	0x00000000	0.0
78	0x00000000	0.0
79	0x00000000	0.0
80	0x00000000	0.0
81	0x00000000	0.0
82	0x00000000	0.0
83	0x00000000	0.0
84	0x00000000	0.0
85	0x00000000	0.0
86	0x00000000	0.0
87	0x00000000	0.0
88	0x00000000	0.0
89	0x00000000	0.0
90	0x00000000	0.0
91	0x00000000	0.0
92	0x00000000	0.0
93	0x00000000	0.0
94	0x00000000	0.0
95	0x00000000	0.0
96	0x00000000	0.0
97	0x00000000	0.0
98	0x00000000	0.0
99	0x00000000	0.0
100	0x00000000	0.0
101	0x00000000	0.0
102	0x00000000	0.0
103	0x00000000	0.0
104	0x00000000	0.0
105	0x00000000	0.0
106	0x00000000	0.0
107	0x00000000	0.0
108	0x00000000	0.0
109	0x00000000	0.0
110	0x00000000	0.0
111	0x00000000	0.0
112	0x00000000	0.0
113	0x00000000	0.0
114	0x00000000	0.0
115	0x00000000	0.0
116	0x00000000	0.0
117	0x00000000	0.0
118	0x00000000	0.0
119	0x00000000	0.0
120	0x00000000	0.0
121	0x00000000	0.0
122	0x00000000	0.0
123	0x00000000	0.0
124	0x00000000	0.0
125	0x00000000	0.0
126	0x00000000	0.0
127	0x00000000	0.0

actor_fc_layers.blocks.1.block.1.running_var f4 [128]
0	0x3f800000	1.0
1	0x3f800000	1.0
2	0x3f800000	1.0
3	0x3f800000	1.0
4	0x3f800000	1.0
5	0x3f800000	1.0
6	0x3f800000	1.0
7	0x3f800000	1.0
8	0x3f800000	1.0
9	0x3f800000	1.0
10	0x3f800000	1.0
11	0x3f800000	1.0
12	0x3f800000	1.0
13	0x3f800000	1.0
14	0x3f800000	1.0
15	0x3f800000	1.0
16	0x3f800000	1.0
17	0x3f800000	1.0
18	0x3f800000	1.0
19	0x3f800000	1.0
20	0x3f800000	1.0
21	0x3f800000	1.0
22	0x3f800000	1.0
23	0x3f800000	1.0
24	0x3f800000	1.0
25	0x3f800000	1.0
26	0x3f800000	1.0
27	0x3f800000	1.0
28	0x3f800000	1.0
29	0x3f800000	1.0
30	0x3f800000	1.0
31	0x3f800000	1.0
32	0x3f800000	1.0
33	0x3f800000	1.0
34	0x3f800000	1.0
35	0x3f800000	1.0
36	0x3f800000	1.0
37	0x3f800000	1.0
38	0x3f800000	1.0
39	0x3f800000	1.0
40	0x3f800000	1.0
41	0x3f800000	1.0
42	0x3f800000	1.0
43	0x3f800000	1.0
44	0x3f800000	1.0
45	0x3f800000	1.0
46	0x3f800000	1.0
47	0x3f800000	1.0
48	0x3f800000	1.0
49	0x3f800000	1.0
50	0x3f800000	1.0
51	0x3f800000	1.0
52	0x3f800000	1.0
53	0x3f800000	1.0
54	0x3f800000	1.0
55	0x3f800000	1.0
56	0x3f800000	1.0
57	0x3f800000	1.0
58	0x3f800000	1.0
59	0x3f800000	1.0
60	0x3f800000	1.0
61	0x3f800000	1.0
62	0x3f800000	1.0
63	0x3f800000	1.0
64	0x3f800000	1.0
65	0x3f800000	1.0
66	0x3f800000	1.0
67	0x3f800000	1.0
68	0x3f800000	1.0
69	0x3f800000	1.0
70	0x3f800000	1.0
71	0x3f800000	1.0
72	0x3f800000	1.0
73	0x3f800000	1.0
74	0x3f800000	1.0
75	0x3f800000	1.0
76	0x3f800000	1.0
77	0x3f800000	1.0
78	0x3f800000	1.0
79	0x3f800000	1.0
80	0x3f800000	1.0
81	0x3f800000	1.0
82	0x3f800000	1.0
83	0x3f800000	1.0
84	0x3f800000	1.0
85	0x3f800000	1.0
86	0x3f800000	1.0
87	0x3f800000	1.0
88	0x3f800000	1.0
89	0x3f800000	1.0
90	0x3f800000	1.0
91	0x3f800000	1.0
92	0x3f800000	1.0
93	0x3f800000	1.0
94	0x3f800000	1.0
95	0x3f800000	1.0
96	0x3f800000	1.0
97	0x3f800000	1.0
98	0x3f800000	1.0
99	0x3f800000	1.0
100	0x3f800000	1.0
101	0x3f800000	1.0
102	0x3f800000	1.0
103	0x3f800000	1.0
104	0x3f800000	1.0
105	0x3f800000	1.0
106	0x3f800000	1.0
107	0x3f800000	1.0
108	0x3f800000	1.0
109	0x3f800000	1.0
110	0x3f800000	1.0
111	0x3f800000	1.0
112	0x3f800000	1.0
113	0x3f800000	1.0
114	0x3f800000	1.0
115	0x3f800000	1.0
116	0x3f800000	1.0
117	0x3f800000	1.0
118	0x3f800000	1.0
119	0x3f800000	1.0
120	0x3f800000	1.0
121	0x3f800000	1.0
122	0x3f800000	1.0
123	0x3f800000	1.0
124	0x3f800000	1.0
125	0x3f800000	1.0
126	0x3f800000	1.0
127	0x3f800000	1.0

actor_fc_layers.blocks.2.block.0.weight f4 [128, 128]
0	0xbd8fc8d3	-0.07020726
1	0xbd8b6243	-0.06805851
2	0xbd72956e	-0.05922454
3	0x3e0ff74e	0.14059183
4	0x3e9b194f	0.30292746
5	0xbe2c3439	-0.16816796
6	0x3dd5a857	0.10432499
7	0x3c7a40b5	0.015274216
8	0x3e299c8c	0.16563624
9	0xbe534e63	-0.20635371
10	0xbe6452a4	-0.2229715
11	0xbe85c527	-0.26126978
12	0xbeb2c001	-0.34912112
13	0xbe2ab75d	-0.1667151
14	0xbda3ecb1	-0.0800413
15	0xbe0b64ff	-0.13612746
16	0xbd11ab3f	-0.035563704
17	0x3e3fba45	0.187234
18	0x3e1f22e7	0.15540658
19	0x3e44f362	0.19233468
20	0xbd21381d	-0.039360154
21	0xbe27cc19	-0.16386451
22	0xbe43981f	-0.19100998
23	0x3c2bf0a4	0.010494385
24	0xbd2540ed	-0.04034512
25	0xbd32b706	-0.043631576
26	0x3d6777b9	0.05651066
27	0xbca940c1	-0.02066076
28	0xbe8cb233	-0.27479705
29	0xbdf61779	-0.12016196
30	0xbe012062	-0.1261001
31	0xbd232dad	-0.03983848
32	0x3bc13c9b	0.0058971173
33	0x3d0138ca	0.0315483
34	0xbf12cbec	-0.5734241
35	0x3e3739b6	0.17893109
36	0x3dfc55e9	0.123210736
37	0x3d5b8457	0.053593006
38	0xbd03fe13	-0.032224726
39	0x3dddebf7	0.10836022
40	0xbedef3a4	-0.43545258
41	0x3da111d4	0.078647286
42	0xbe905574	-0.28190196
43	0xbe7a07ae	-0.24416992
44	0xbe54aad4	-0.20768291
45	0xbe2b5591	-0.1673186
46	0xbdc08887	-0.094010405
47	0xbec968cb	-0.39337763
48	0xbd0e73cf	-0.034778412
49	0xbda7a829	-0.08186371
50	0xbd9e5443	-0.077309154
51	0xbe708d1e	-0.23491332
52	0xbe5bb9dc	-0.21457618
53	0xbf1687c8	-0.58800936
54	0xbc6d172d	-0.014470858
55	0xbe29e2dd	-0.16590448
56	0xbe7a00a6	-0.2441431
57	0xbbfb3fca	-0.0076675164
58	0x3aba688d	0.0014221832
59	0xbd23e5a9	-0.040013943
60	0xbe962300	-0.29323578
61	0x3e019f0b	0.12658326
62	0xbe68d875	-0.22738822
63	0xbec57257	-0.38563797
64	0xbe020563	-0.12697367
65	0xbeb79fa9	-0.35864
66	0x3ca07b0c	0.019589923
67	0xbee5698d	-0.4480709
68	0xbe3ac522	-0.18239263
69	0xbe64581d	-0.22299238
70	0x3d00e65f	0.0314697
71	0xbe8efedf	-0.27928826
72	0xbe635139	-0.22198953
73	0xbc833fd7	-0.016021652
74	0xbdf634c6	-0.120217845
75	0xbe34ab06	-0.17643365
76	0x3e13223f	0.14368533
77	0x3dab1e18	0.08355349
78	0xbf45e2d7	-0.77299255
79	0xbeb44382	-0.35207754
80	0xbed388fc	-0.41315448
81	0xbd9c4f13	-0.0763227
82	0xbd060023	-0.032714974
83	0xbebfb97e	-0.37446207
84	0x3c2a7d8c	0.010405909
85	0x3e1dc86b	0.15408485
86	0x3e0be7da	0.13662663
87	0xbeab0645	-0.3340322
88	0xbe288d11	-0.16460063
89	0x3d9e236f	0.07721602
90	0x3e101243	0.14069466
91	0xbe504890	-0.2034018
92	0xbd2c7768	-0.042106062
93	0x3e7a6da1	0.24455883
94	0xbe97fa7c	-0.29683292
95	0x3d8bb382	0.06821348
96	0xbd648315	-0.055789072
97	0x3e2ecb1d	0.17069669
98	0xbe67c381	-0.22633173
99	0x3dd1328c	0.10214719
100	0xbdb0a1d2	-0.08624615
101	0xbd5cdc7c	-0.053921208
102	0xbeba223e	-0.3635425
103	0xbdc76783	-0.0973654
104	0x3e07f102	0.13275531
105	0x3e4510ae	0.19244644
106	0xbe1c75c0	-0.15279293
107	0x3dfd7181	0.12375165
108	0xbcb38bea	-0.021917302
109	0xbe9b3d40	-0.30320168
110	0xbea76c65	-0.32699886
111	0xbd1a7f68	-0.03771916
112	0xbebd89b9	-0.37019137
113	0xbdd58dc8	-0.10427433
114	0xbdf50be6	-0.1196516
115	0x3d8c0d5a	0.06838484
116	0x3d760cee	0.060070924
117	0x3da46f8d	0.08029089
118	0xbea5b48d	-0.32364312
119	0xbd1ddf13	-0.03854282
120	0xbe570590	-0.20998216
121	0x3e6d73c0	0.23188686
122	0xbf0d0ade	-0.55094707
123	0xbe986bc4	-0.2976972
124	0x3c6c925c	0.014439192
125	0xbd45b203	-0.04826547
126	0x3e276945	0.16348751
127	0xbe3fe605	-0.18740089
128	0xbdd6455f	-0.1046245
129	0xbd5d16af	-0.05397671
130	0x3afb2151	0.0019159709
131	0x3ccb4f83	0.024818188
132	0x3da23a50	0.079212785
133	0x3da73e4c	0.08166179
134	0xbdf1b1b1	-0.1180147
135	0x3d363079	0.04447982
136	0xbe7b780a	-0.2455751
137	0x3df944c1	0.12171317
138	0x3e41271e	0.18862578
139	0x3e81bd1e	0.25339597
140	0x3cb5755e	0.022150692
141	0xbee59e48	-0.44847322
142	0xbda78add	-0.08180783
143	0xbe5f9750	-0.21835065
144	0x3d8d877b	0.069106065
145	0xbe8f77f7	-0.28021213
146	0x3dc9114b	0.098177515
147	0xbe5b8c8b	-0.21440332
148	0xbe54e1e7	-0.207893
149	0xbedce2bc	-0.43141735
150	0x3d1e5123	0.038651597
151	0x3c3f4eda	0.0116765145
152	0x3d20d1c5	0.03926255
153	0xbe306739	-0.17226876
154	0xbbe86920	-0.00709261
155	0xbe159e94	-0.14611274
156	0xbe83ec7f	-0.2576637
157	0xbd4ba05e	-0.049713485
158	0xbeb5c1ee	-0.3549952
159	0x3d803bdd	0.06261418
160	0xbd9ac234	-0.075565726
161	0xbe0f68bb	-0.14004795
162	0x3d739ac1	0.059473757
163	0xbdb2b95d	-0.087267615
164	0xbea4c70c	-0.3218311
165	0xbd97b557	-0.07407635
166	0x3da39404	0.07987216
167	0xbdd27b10	-0.102773786
168	0xbe49ef2b	-0.19720142
169	0xbd574be0	-0.052562594
170	0x3d82fe36	0.06396143
171	0xbebe8036	-0.37207192
172	0xbd94b8e4	-0.072618276
173	0xbd873d53	-0.066034935
174	0x3df06b85	0.11739258
175	0x3c319c35	0.010840465
176	0xbe6046b5	-0.21901973
177	0x3e96581f	0.29364106
178	0x3d8b81e6	0.068118855
179	0xbdfd1cbe	-0.12358998
180	0xbe2561bd	-0.16150565
181	0x3ecaefce	0.3963608
182	0xbdcb0c53	-0.0991446
183	0xbd273488	-0.040821582
184	0xbd6a3a5d	-0.057184566
185	0xbd1e294c	-0.038613603
186	0xbcb039ea	-0.02151199
187	0xbeade699	-0.33964995
188	0xbe4ac4d7	-0.19801651
189	0xbd89bcc7	-0.067254595
190	0xbe969ce0	-0.2941656
191	0xbe98f094	-0.29871047
192	0xbe87de43	-0.2653676
193	0xbe31d349	-0.17365755
194	0xbf08c583	-0.5342638
195	0x3db903e9	0.09033949
196	0xbd22b624	-0.039724484
197	0xbe8d1d9f	-0.27561662
198	0xbe06059b	-0.13088076
199	0xbe884c6a	-0.266208
200	0x3d2e96c4	0.04262425
201	0xbd0114a9	-0.031513844
202	0xbe8ecc7b	-0.2789038
203	0xbeaabd39	-0.3334749
204	0xbda18f9c	-0.078887194
205	0x3d9ea712	0.0774671
206	0xbe82e2df	-0.25563714
207	0xbdf935ea	-0.121684864
208	0x3e240fd8	0.16021669
209	0xbe973c3f	-0.29538152
210	0xbe194f80	-0.14971733
211	0xbed45547	-0.4147131
212	0xbeb5ad3a	-0.35483724
213	0x3e0d9207	0.13825236
214	0xbd292a7d	-0.041300286
215	0xbe58bdcc	-0.21166152
216	0x3e63c3ad	0.22242613
217	0x3ddf987c	0.10917756
218	0x3d6e4cf0	0.058178842
219	0xbe8df733	-0.2772766
220	0xbe2fd458	-0.17170846
221	0x3d9aceb3	0.07558956
222	0xbebbe506	-0.3669817
223	0xbe34a07a	-0.17639342
224	0xbe5777a0	-0.21041727
225	0xbd64617d	-0.055757035
226	0xbd17a298	-0.037020296
227	0xbeb99346	-0.36245173
228	0x3e05ec37	0.1307839
229	0xbe2acb49	-0.1667911
230	0xbbb78646	-0.0056007234
231	0xbe38adfa	-0.18035117
232	0xbe3b15fd	-0.18270107
233	0xbeeae0c4	-0.45874608
234	0x3e56e77b	0.2098674
235	0xbdbb7ac6	-0.091542765
236	0xbcada2a1	-0.021195712
237	0x3eb5f9c9	0.35542133
238	0xbe2e7f54	-0.1704076
239	0xbed1d82c	-0.4098524
240	0xbef8fe0e	-0.48631328
241	0xbde2a3c8	-0.11066395
242	0xbed158d4	-0.40888083
243	0xbeebb739	-0.46038225
244	0xbe5d7983	-0.21628384
245	0xbc171724	-0.009221826
246	0xbe03b183	-0.12860684
247	0x3e7206d9	0.23635425
248	0xbe9bf604	-0.30461133
249	0xbdbbff32	-0.09179534
250	0xbea56286	-0.3230173
251	0xbd98c27c	-0.0745897
252	0xbe0e1f0a	-0.13879028
253	0xbe814678	-0.25249076
254	0x3da200e4	0.07910326
255	0xbe7e7991	-0.24851061

actor_fc_layers.blocks.2.block.1.weight f4 [128]
0	0x3fa678a4	1.3005567
1	0x3fdcee0f	1.726015
2	0x3ff2cee3	1.8969387
3	0x3fd9bb00	1.7010193
4	0x3f8a91aa	1.0825703
5	0x3f9ec2ef	1.2403239
6	0x3fc487f1	1.5353986
7	0x400a3e77	2.1600626
8	0x3ff2846d	1.8946663
9	0x3fac317d	1.3452603
10	0x3fe6100f	1.7973651
11	0x401c4a30	2.442028
12	0x3f4c08aa	0.7970072
13	0x3f546484	0.82965875
14	0x3faef824	1.3669477
15	0x3fbcd4dd	1.4752461
16	0x4001ef0e	2.0302157
17	0x3ff10346	1.8829124
18	0x4009f313	2.155461
19	0x3f986b0a	1.1907666
20	0x3f87dd5d	1.061443
21	0x400d29a8	2.2056675
22	0x4002b8ba	2.0425248
23	0x3fd09061	1.6294061
24	0x4018b552	2.386067
25	0x3fee7038	1.8627996
26	0x3f9d4805	1.2287604
27	0x3fceb9d6	1.6150463
28	0x3fe3d1dd	1.779842
29	0x3ff45010	1.9086933
30	0x3fa3df7f	1.280258
31	0x3fb7ddde	1.4364583
32	0x3fbcba7d	1.4744412
33	0x3fe8d041	1.8188554
34	0x3f9f9433	1.2467102
35	0x400e1e4c	2.2205992
36	0x3f8f808e	1.1211107
37	0x4017d9ab	2.3726604
38	0x400c3596	2.1907706
39	0x3fbc7ce0	1.4725609
40	0x3fcfd90d	1.6238114
41	0x3fb33e2d	1.400335
42	0x4009f9be	2.155868
43	0x401afd6f	2.4217184
44	0x3fcd9c5c	1.6063342
45	0x3fa81075	1.3130022
46	0x40102219	2.2520812
47	0x3fa60a18	1.297183
48	0x40061962	2.0952992
49	0x3f76edde	0.96456707
50	0x3fb22eda	1.3920548
51	0x3fa7b0a3	1.310078
52	0x3f990227	1.1953782
53	0x3fd58957	1.6682538
54	0x4020d124	2.512765
55	0x3f992de7	1.1967133
56	0x4011279b	2.2680423
57	0x3fef57dd	1.8698689
58	0x3fdedf10	1.7411823
59	0x3fe375e6	1.7770355
60	0x3fae005a	1.3593857
61	0x3f727821	0.9471455
62	0x3fd05c7b	1.6278223
63	0x3f7189d9	0.94350964
64	0x40148348	2.3205128
65	0x3fce8777	1.613509
66	0x3fdf88bf	1.7463607
67	0x3f9cc444	1.2247396
68	0x3fc202c2	1.5157092
69	0x3fa99050	1.3247166
70	0x3ff7a5ea	1.9347508
71	0x4006c43a	2.1057267
72	0x3fc561ff	1.5420531
73	0x3fd3054b	1.648599
74	0x3f863dda	1.0487626
75	0x3f9e2757	1.2355756
76	0x40002ca8	2.0027256
77	0x3fad16ab	1.3522543
78	0x3fcb001e	1.5859411
79	0x3fe0862e	1.7540948
80	0x3f6ef7a4	0.9334662
81	0x3fd67189	1.6753398
82	0x401f0be9	2.485102
83	0x40372513	2.8616378
84	0x3fe3a38b	1.7784284
85	0x401d5df1	2.4588587
86	0x3feefae7	1.8670319
87	0x3fe84fb1	1.814932
88	0x4017e36f	2.3732564
89	0x3fcc3095	1.5952326
90	0x3fcc15f2	1.5944197
91	0x3fb52805	1.4152838
92	0x3fd93f51	1.6972448
93	0x3fe7f198	1.8120604
94	0x3fb8ce02	1.4437869
95	0x3f8d638a	1.1046002
96	0x3ffc36fc	1.970428
97	0x3fbdbf2d	1.4823967
98	0x3fc54aaa	1.5413411
99	0x4012577a	2.2865891
100	0x3fe78d34	1.8089967
101	0x3fa93b49	1.3221217
102	0x3f8e1557	1.1100262
103	0x3ff1513c	1.8852916
104	0x3fc9ca0e	1.5764787
105	0x3fb23e51	1.3925267
106	0x3fc841e2	1.5645106
107	0x3f6f7e04	0.9355166
108	0x3fcf9a29	1.6218921
109	0x40167825	2.351083
110	0x3fb2e70e	1.3976762
111	0x3ff0f2ca	1.8824093
112	0x3fd214b7	1.6412572
113	0x3fce5a07	1.6121224
114	0x3fe262d0	1.7686405
115	0x3fabd97c	1.3425746
116	0x3f7b9e32	0.9828826
117	0x3fe4778f	1.7848986
118	0x4001a455	2.025655
119	0x3f8b85ce	1.0900209
120	0x400b0242	2.1720128
121	0x3fb524e5	1.4151884
122	0x40024daf	2.0359914
123	0x3fcaf2ee	1.5855386
124	0x3ff1f991	1.8904287
125	0x3fd560d3	1.6670173
126	0x3fde4e68	1.7367678
127	0x3f7e4345	0.99321395

actor_fc_layers.blocks.2.block.1.bias f4 [128]
0	0xbe1bed08	-0.15227139
1	0x3ce49b4c	0.027906083
2	0x3f0b502b	0.544192
3	0x3f12db22	0.5736562
4	0xbd8f7c43	-0.07006123
5	0x3ef68039	0.481447
6	0x3e7b27d4	0.24526912
7	0x3ca4c9bd	0.020115728
8	0xbdfa31fb	-0.12216564
9	0x3e07f292	0.13276127
10	0x3e33afa7	0.17547475
11	0xbe65a710	-0.2242701
12	0x3c353999	0.011061096
13	0x3cd37b4f	0.025815634
14	0xbdd521df	-0.10406851
15	0xbdbbdd35	-0.09173051
16	0x3ecc5d24	0.3991481
17	0xbdf9c0b2	-0.12194957
18	0x3e699bb3	0.22813301
19	0xbe1d7d3a	-0.15379801
20	0x3c1d75f6	0.009610644
21	0x3d5dc0aa	0.054138817
22	0x3ef4d394	0.4781767
23	0xbe846b58	-0.25863147
24	0x3eeadcf5	0.45871702
25	0x3e90b38f	0.28261992
26	0xbe6372b3	-0.22211723
27	0x3d1fc91f	0.039010163
28	0xbdc8f6ef	-0.09812724
29	0x3ee8fd7d	0.45505896
30	0xbdbb4656	-0.09144275
31	0x3f22c66a	0.63584006
32	0x3e4e04e2	0.2011905
33	0x3e008de2	0.12554124
34	0x3dda6b9f	0.10665058
35	0x3f53436c	0.8252475
36	0xbe453053	-0.19256715
37	0x3eacafa9	0.33727768
38	0x3ea62e04	0.32456982
39	0x3c4e9f9f	0.012611299
40	0x3f11c465	0.569403
41	0xbe08feef	-0.133785
42	0x3d09c9c1	0.033639673
43	0x3e17ec87	0.14836322
44	0x3f3fb3cb	0.7488372
45	0x3c25521d	0.010090378
46	0x3e94009e	0.2890672
47	0xbe89c87f	-0.2691078
48	0x3e2d1caf	0.16905473
49	0x3cfd0a74	0.030888774
50	0x3d461073	0.04835553
51	0x3e97b135	0.29627386
52	0xbe49acc3	-0.1969481
53	0x3f1a3557	0.6023764
54	0x3f0362a0	0.51322365
55	0x3d9d100b	0.076690756
56	0x3eef6888	0.4675944
57	0x3ed3a4d8	0.41336703
58	0x3ed71419	0.4200752
59	0xbd2485ab	-0.04016654
60	0x3eda06b8	0.4258325
61	0xbdc9fc0f	-0.098625295
62	0xbe91ffa0	-0.2851534
63	0xbe3b91d2	-0.18317345
64	0x3e93550c	0.28775823
65	0xbdf068f4	-0.11738768
66	0x3eb30b18	0.349694
67	0x3f28dded	0.6596363
68	0x3d7839df	0.060602065
69	0x3f581c82	0.844185
70	0x3e370432	0.17872694
71	0xbdc14d03	-0.09438517
72	0x3f336546	0.70076406
73	0xbd54f2ce	-0.05198937
74	0x3c3d09fd	0.011538026
75	0xbdc36d27	-0.095423035
76	0x3e2bbaec	0.16770524
77	0x3f00120a	0.50027525
78	0x3f64c3e3	0.893614
79	0xbe713c4a	-0.23558155
80	0xbdcd6967	-0.100298695
81	0x3f621d38	0.88325834
82	0x3eccd091	0.40002874
83	0x3f08cd8d	0.53438646
84	0x3f27f3a7	0.6560616
85	0x3f2d006f	0.67578787
86	0xbef22b80	-0.47298813
87	0xbe5edfa9	-0.21765007
88	0x3ec681c4	0.38770878
89	0xbe187aa6	-0.14890537
90	0xbd39a476	-0.045322858
91	0xbe76da66	-0.2410675
92	0x3f17a159	0.5923057
93	0x3d093152	0.0334943
94	0x3e67574c	0.22591895
95	0xbe8c491f	-0.27399537
96	0x3f2827de	0.6568583
97	0xbd0ed277	-0.034868684
98	0x3d114e17	0.035474863
99	0x3d7cd2cd	0.061724473
100	0xbed6805c	-0.41894805
101	0xbd8d2c12	-0.06893171
102	0x3eee081c	0.46490562
103	0x3e780034	0.24218827
104	0xbd98c91f	-0.07460236
105	0xbe29130d	-0.16511174
106	0x3eaa7020	0.3328867
107	0xbdd744d8	-0.10511178
108	0x3ee9a7ee	0.45635933
109	0x3efeb401	0.49746707
110	0x3f05df80	0.5229416
111	0x3f088df4	0.53341603
112	0xbcb6d61a	-0.022318888
113	0x3e03a372	0.12855318
114	0xbc63018c	-0.013855349
115	0x3eecd7ee	0.4625849
116	0x3f15602b	0.58349866
117	0x3f160bb4	0.5861161
118	0x3e45f09f	0.19330071
119	0x3db5b635	0.08872644
120	0x3daa75e4	0.08323267
121	0xbdf3abf2	-0.1189803
122	0x3f0bb4d8	0.5457282
123	0x3d7c76b9	0.06163666
124	0x3d7f9b69	0.06240407
125	0x3f1fc66d	0.6241215
126	0x3eee27a6	0.46514624
127	0xbd8cdd8f	-0.068781964
