saved_models/agent_maddpgv2_vs_opp_maddpgv2_4_vs_1_1_big_5_sec_agent_best_models/maddpgv2_target_actor_0.pt (torch, 163339 bytes, 21 tensors)

actor_fc_layers.blocks.0.block.0.weight f4 [128, 27]
000000 18 33 6d 3d d7 45 a1 bc 85 7a 5b 3d 09 61 26 be
       0.057910055 -0.019686623 0.05358364 -0.16247953
000010 b9 b6 f9 3d f1 04 7c bd ae 57 05 be 46 50 58 bd
       0.12193055 -0.06152815 -0.13021728 -0.05281093
000020 0c 43 9c 3c 0f 91 7a 3d 4c 2c 21 3e 98 63 cc bd
       0.01907494 0.061173495 0.15739554 -0.099799335
000030 cb 89 44 3d f2 9a 75 3d 0b 82 bb 3d 38 5d b2 bd
       0.047982972 0.05996222 0.09155663 -0.08709186
000040 15 99 82 3c 45 45 84 bd 46 d1 8a 3c 01 af b8 3b
       0.015942136 -0.064585246 0.016945492 0.0056360965
000050 31 ce 37 3c 8b 76 06 be e9 44 30 bb ec a1 da 3c
       0.011218593 -0.13131158 -0.0026896542 0.026688538
000060 de 99 b2 3d 69 7d 1b be 0a 99 be bd 96 40 a9 bd
       0.08720754 -0.15184559 -0.09306534 -0.08264272
000070 e4 ee 35 be d4 0a 29 be b5 aa 89 bb 3b d2 09 3d
       -0.17766911 -0.16508037 -0.004201258 0.033647757
000080 12 ae ad 3d 6e f1 40 3d ad e8 8f 3d 3b 6c 50 3c
       0.08480467 0.047105245 0.07026801 0.012721117
000090 0c a5 b6 3d 4d b7 d3 bd 56 6e c2 bd 76 a3 9b bd
       0.08918199 -0.10337696 -0.09493701 -0.07599537
0000a0 84 13 55 be 3e cb 3e 3e 80 a6 1a be 46 9b 8e bd
       -0.20808226 0.18632218 -0.15102577 -0.0696321
0000b0 af 4c 1b 3e 85 97 bf 3c 64 66 49 3d 6e 53 84 3d
       0.15165971 0.02338768 0.049169913 0.064612255
0000c0 75 8f dc 3d 59 ed e1 3d 77 57 fc 3c 6b aa 6f bd
       0.1076955 0.110315986 0.030803425 -0.058512133
0000d0 ec 7f a9 3d 05 b7 1b 3b 4a 90 71 be 92 13 60 bd
       0.08276352 0.0023760211 -0.23590198 -0.054706164
0000e0 4f 8e 47 3d 2e 20 27 be 05 a3 3f be 74 df 1c 3e
       0.0487197 -0.1632087 -0.18714531 0.15319616
0000f0 28 54 96 3c 53 5a 5d bc 2f e2 ba bd 6b 89 11 3e
       0.018350676 -0.0135103045 -0.09125172 0.14212577
000100 18 fd fb 3d 4c cd 28 3e c3 88 25 3e 43 c9 33 bd
       0.12304133 0.16484565 0.16165452 -0.04389311
000110 65 0d f2 bd c9 05 18 bc 53 6f 9f 3c ad fb dc 3d
       -0.11818961 -0.009278723 0.019462263 0.10790191
000120 28 5f 3d be 6a e7 a7 3d 54 32 30 bd 17 42 82 3d
       -0.1849333 0.081984356 -0.043016747 0.06360262
000130 d2 27 1a be 8b 82 40 bd 49 f6 c1 ba b8 f0 c0 3d
       -0.15054253 -0.046999495 -0.001479813 0.094209135
000140 0c 9f ae 3c 49 1d fa bd 71 a7 2d be 9c 72 52 be
       0.021316074 -0.12212617 -0.16958405 -0.20551533
000150 1e 9a 03 3e ba c5 4d 3c 61 da 99 bd 36 0b 2e be
       0.1285176 0.012559349 -0.075123556 -0.16996464
000160 94 0f 28 bd d0 70 04 3e 73 81 57 3d 77 b7 01 3e
       -0.04103048 0.1293366 0.052613687 0.12667643
000170 79 83 3c 3e 47 66 c0 3d 84 64 28 bc 0a 9e 0a bc
       0.18409528 0.09394508 -0.010277871 -0.008460531
000180 af a0 27 3e a9 ac 0e be 5c d5 f6 bd 39 c4 3d 3c
       0.1636989 -0.13933052 -0.12052414 0.011582428
000190 77 34 d7 bd 48 31 07 3e 0d d6 c9 bd 13 c7 38 3d
       -0.10508054 0.13202393 -0.0985528 0.045111727
0001a0 16 11 69 bd c6 7c d0 bd 8f 85 93 bd b6 d4 9a 3c
       -0.05690106 -0.10180049 -0.07203209 0.018900257
0001b0 b9 f7 25 bd b6 d9 06 be 61 76 77 bc 21 c8 29 3a
       -0.04051945 -0.13168988 -0.015103907 0.000647666
0001c0 3e 86 ce 3d 2a 1e bd bc d2 63 8a bd d5 37 17 be
       0.100841984 -0.023085672 -0.067573205 -0.14767392
0001d0 0e e4 01 3d 34 7b 71 3c ac ca 8d 3d f4 4a 0a 3e
       0.03171163 0.014738847 0.06923422 0.13505155
0001e0 a3 d7 ce bc 15 ef ec 3d 36 e9 3b bd 3e 4d fa 3c
       -0.025249308 0.11569039 -0.045876704 0.03055441
0001f0 48 ab 44 3e c2 e2 03 3e 48 2e 29 be 95 6a b8 bd
       0.19205964 0.1287947 -0.16521561 -0.09004704
000200 f3 52 30 3e 7b 94 3b bd 49 e0 ca 3d 9b 2b e6 3d
       0.17219143 -0.0457959 0.0990606 0.11238786
000210 95 e0 2c be 17 91 00 3d d1 cd 3b bc 3f 99 77 bd
       -0.16882546 0.03138837 -0.011462645 -0.06044888
000220 38 e0 8a bb 78 68 54 be 79 67 1f 3e 5c d3 8c 3d
       -0.0042381547 -0.20742977 0.15566815 0.06876251
000230 3e cb 3c 3c 90 99 b4 3d e9 7f 5d be 15 b2 e4 bb
       0.011523066 0.08818352 -0.21630825 -0.006979237
000240 97 50 39 be 6c de 06 3e 1e f2 03 3d c4 f6 96 3d
       -0.18097149 0.13170785 0.032213323 0.073712856
000250 9b bb 67 be d6 99 b1 bc e1 14 18 3d d0 78 f9 bd
       -0.2263016 -0.0216798 0.037129287 -0.12181246
000260 a2 37 e4 ba d1 3e 81 3d e4 67 f8 3d 12 c8 d7 bd
       -0.0017411599 0.063108094 0.121291906 -0.10536207
000270 f7 04 28 bd e1 dc 98 bd 02 cc 73 3d ed ba 04 be
       -0.04102036 -0.07464004 0.05952073 -0.12961932
000280 2d 94 94 3d 0a e9 9f 3d fc f8 d4 3d ff 7f e6 bd
       0.07254825 0.078081205 0.103990525 -0.11254882
000290 e6 81 2b 3d 8a 55 ca bd e1 81 04 be 1f 6c 59 bc
       0.041871928 -0.098795965 -0.1294017 -0.013270407
0002a0 6d 08 61 be b3 34 d9 3c c8 f1 8b 3d 3b dc 29 3e
       -0.2197587 0.026514387 0.068332255 0.16587918
0002b0 8a 6c cd 3c 7c db 90 bd 73 cc 5b 3e 30 e6 38 bc
       0.02507617 -0.07073113 0.2146471 -0.01128535
0002c0 16 31 a5 3d 65 0a 0a be cc 65 22 3e 97 dc ad 3d
       0.08066003 -0.13480528 0.15859145 0.0848934
0002d0 93 44 96 3d d3 12 6c 3c 87 9a 48 3d 8c e4 2b be
       0.07337298 0.014408785 0.048975494 -0.16786402
0002e0 a3 a3 24 bd be 4c b2 bd 36 89 ee 3c 42 ae 83 3d
       -0.04019512 -0.08706044 0.029118162 0.064297214
0002f0 22 3e 5b 3d 66 18 f6 3c cd 54 89 bd db e8 00 3e
       0.05352605 0.030040931 -0.067056276 0.12588827
000300 aa a8 3f 3e 27 55 3f be 49 5e bc bd 31 08 b0 3c
       0.18716684 -0.18684827 -0.09197671 0.021488281
000310 fb 64 91 bd ee 9a 1d be ff 41 82 3d 19 e6 72 3d
       -0.070993386 -0.15391132 0.06360244 0.05930147
000320 75 24 52 bc 99 98 22 3e 0a 5c 0e be a6 01 89 bd
       -0.012826075 0.15878524 -0.13902298 -0.066897675
000330 d1 47 9f 3d 1f e9 96 3d 16 55 06 be d5 00 e8 3d
       0.0777737 0.07368683 -0.13118395 0.11328284
000340 ad ce 17 3d 08 d8 f3 bd 55 ee 03 bd 67 f9 96 3d
       0.037062336 -0.11906439 -0.032209713 0.073717885
000350 6d 71 63 3d 28 b0 1b be a3 74 f4 3d 84 5d 41 3d
       0.055528093 -0.15203917 0.11936309 0.047208324
000360 4f ea 99 3d 79 04 ae 3d 76 98 f2 3c d0 63 2d be
       0.07515394 0.08496947 0.029613715 -0.16932607
000370 39 be ca bd 9a ee fb 39 ea 6b 2c be ae c6 24 3b
       -0.09899563 0.00048052223 -0.16838041 0.0025142836
000380 cb 3a df 3d ed fa 0e be 99 0e e0 3d 0d df 1c be
       0.10899886 -0.13962908 0.10940284 -0.15319462
000390 8f f2 58 3d 61 11 43 be 38 a0 8f bd de 1a 2a bd
       0.052965697 -0.19049598 -0.07012981 -0.04152953
0003a0 02 23 17 be 89 d2 05 3e 3d b8 2b bd 5b d8 00 3e
       -0.14759448 0.13068594 -0.04192375 0.12582533
0003b0 d2 94 d2 3c 77 72 13 be 57 36 41 3d 1e 7f a3 3b
       0.025705729 -0.14399134 0.047170963 0.004989519
0003c0 8c a0 df bd 61 67 3a be 79 99 68 3d d3 2f 54 be
       -0.10919294 -0.18203498 0.056786988 -0.20721368
0003d0 7e d1 41 be 86 8a e1 3d 23 e2 a3 3c fb 98 4e be
       -0.18927571 0.110127494 0.020005291 -0.20175545
0003e0 bf 8b 6e bd 87 e5 80 be 51 55 33 3d bd 49 88 bd
       -0.05823874 -0.25175115 0.043782536 -0.066546895
0003f0 f3 b3 33 be b9 6f a6 bd a9 b2 18 3d 0e 68 ad 3d
       -0.17549114 -0.08126778 0.03727976 0.084671125

actor_fc_layers.blocks.0.block.1.weight f4 [128]
000000 17 d9 79 3f ee fb 6c 3f c7 a1 74 3f 73 6c 75 3f
       0.9759688 0.92571914 0.9555935 0.95868605
000010 2a a1 6b 3f fb a6 72 3f f6 72 69 3f ce 35 6f 3f
       0.9204279 0.9478604 0.9119104 0.93441474
000020 69 c2 68 3f 50 4f 75 3f e0 18 75 3f 00 00 80 3f
       0.90921646 0.95824146 0.9574108 1.0
000030 fd 03 7e 3f 89 f3 6f 3f ca 0e 77 3f ef 97 6f 3f
       0.99224836 0.9373098 0.9650694 0.9359121
000040 db 15 72 3f d8 68 72 3f ac 39 77 3f 3d f6 72 3f
       0.945646 0.9469123 0.96572375 0.9490698
000050 54 c7 78 3f 00 f6 79 3f 5b 0f 73 3f 64 f3 73 3f
       0.9717915 0.9764099 0.94945306 0.9529326
000060 d5 a8 7c 3f 7c a0 68 3f 7a 27 7d 3f 5c ba 74 3f
       0.9869512 0.9086988 0.9888836 0.9559686
000070 87 79 70 3f ff 33 6e 3f b8 08 7d 3f 77 9d 78 3f
       0.93935436 0.9304809 0.9884143 0.9711527
000080 25 6b 6f 3f f5 7a 6f 3f 24 62 7e 3f 12 ec 76 3f
       0.93522865 0.9354699 0.993685 0.96453965
000090 3a 05 7b 3f 3d 5c 7a 3f 62 f5 75 3f 1d 33 7f 3f
       0.9805485 0.97796994 0.9607755 0.9968737
0000a0 af c0 72 3f 88 0c 71 3f 00 3f 74 3f 6d 96 7c 3f
       0.9482526 0.94159746 0.9540863 0.9866703
0000b0 d1 f2 72 3f 74 8c 6e 3f 86 b6 72 3f f2 77 79 3f
       0.9490176 0.93183064 0.9480976 0.9744865
0000c0 e5 5d 70 3f 5b e8 74 3f 17 b6 77 3f ad 28 72 3f
       0.9389327 0.95667046 0.9676222 0.94593316
0000d0 c0 7a 6e 3f 61 6f 6c 3f 3e 0c 6f 3f cc 5f 73 3f
       0.9315605 0.9235745 0.93378055 0.9506805
0000e0 d8 2f 71 3f 3c 77 6f 3f 2f 70 76 3f 3a 76 68 3f
       0.9421363 0.9354131 0.9626493 0.908054
0000f0 88 23 73 3f 85 66 7e 3f c9 6e 7a 3f ac 6a 74 3f
       0.9497609 0.9937518 0.97825295 0.9547527
000100 9d ca 7f 3f ab e3 7d 3f b1 b8 75 3f 41 d5 72 3f
       0.9991854 0.9917552 0.9598494 0.9485665
000110 00 00 80 3f 07 6c 7b 3f 6e 37 70 3f 66 05 75 3f
       1.0 0.9821171 0.9383458 0.9571136
000120 d1 b1 76 3f 94 3b 80 3f c3 e1 71 3f 80 37 77 3f
       0.96365076 1.0018182 0.9448511 0.9656906
000130 78 6b 81 3f 36 95 78 3f 8b d2 6f 3f 7b fe 8b 3f
       1.0110922 0.9710268 0.9368064 1.0937036
000140 d6 36 71 3f 6f 1a 70 3f 9e 55 7c 3f 00 00 80 3f
       0.942243 0.93790334 0.9856814 1.0
000150 a3 5d 76 3f 8b 8d 81 3f 1d fe 7d 3f 89 8a 7f 3f
       0.9623663 1.012132 0.9921587 0.9982076
000160 90 6c 7a 3f 54 23 70 3f 90 d3 77 3f 87 7d 76 3f
       0.97821903 0.93803906 0.96807194 0.9628529
000170 12 49 79 3f e7 1f 79 3f 38 43 7d 3f 73 79 6f 3f
       0.9737712 0.97314304 0.9893069 0.9354469
000180 74 24 76 3f 64 94 6f 3f 95 f8 78 3f 37 77 6a 3f
       0.96149373 0.935858 0.97254306 0.9158816
000190 00 00 80 3f 89 08 6c 3f 07 bf 73 3f 8d ed 76 3f
       1.0 0.92200524 0.9521336 0.96456224
0001a0 1a e6 78 3f 9b 3e 74 3f c8 95 85 3f 18 67 6b 3f
       0.9722611 0.9540803 1.0436335 0.91954184
0001b0 39 70 73 3f 79 71 78 3f 4f 3b 72 3f a0 fc 6b 3f
       0.95093113 0.97048146 0.9462175 0.9218235
0001c0 d2 b8 7a 3f 27 af 78 3f 34 9e 72 3f cf 9a 75 3f
       0.97938263 0.9714226 0.9477265 0.95939344
0001d0 e0 77 72 3f 08 f9 76 3f 06 bf 6e 3f 96 7a 72 3f
       0.94714165 0.9647374 0.9326023 0.947183
0001e0 8d a7 7d 3f 05 33 70 3f 4b 26 7c 3f 16 c5 7e 3f
       0.9908379 0.9382785 0.9849593 0.9951948
0001f0 66 9b 76 3f 24 de 7f 3f a6 99 79 3f 46 82 75 3f
       0.9633087 0.99948335 0.97500074 0.95901906

actor_fc_layers.blocks.0.block.1.bias f4 [128]
000000 be 52 17 bd e5 7c b6 bd 4c e9 54 bd f4 c0 5d bd
       -0.036944143 -0.089105405 -0.0519803 -0.054139093
000010 33 95 b4 bd b5 c7 73 bd 86 dc a1 bd 85 49 8a bd
       -0.0881752 -0.059516627 -0.0790339 -0.06752304
000020 cf d3 b3 bd da ad 3a bd b6 cf 60 bd 00 00 00 00
       -0.08780634 -0.045575954 -0.05488559 0.0
000030 0c 43 31 bc 84 bb 76 bd 8f f8 29 bd 2a ce 53 bd
       -0.010819208 -0.060237423 -0.04149681 -0.051710285
000040 e5 34 88 bd cb 76 63 bd 1e 5d 3e bd 67 a7 78 bd
       -0.06650714 -0.05553321 -0.046475522 -0.060706522
000050 7f 02 0a bd c9 2c d0 bc a4 b3 2a bd e6 d5 4c bd
       -0.033693787 -0.02541198 -0.041675225 -0.050008677
000060 60 ef b9 bc c3 ed ab bd d5 8b b7 bc 88 47 3e bd
       -0.02269715 -0.08394959 -0.022405544 -0.046454936
000070 ab 9f 91 bd 34 c9 9b bd 11 12 b2 bc 7c 29 fe bc
       -0.071105324 -0.07606736 -0.02173713 -0.03102564
000080 6d dc 54 bd c3 cc 88 bd c5 68 46 bb fc a5 13 bd
       -0.051968027 -0.0667968 -0.003027485 -0.036046967
000090 43 39 c5 bc 27 6c b7 bc 27 01 1e bd f1 f2 63 bc
       -0.024075156 -0.022390438 -0.038575318 -0.013912902
0000a0 a2 a2 91 bd a0 2d 5c bd 49 c5 2c bd b1 74 08 bc
       -0.07111098 -0.05375445 -0.042180333 -0.008328603
0000b0 91 54 80 bd 13 51 54 bd 99 6a 4a bd 81 2b 86 bb
       -0.0626613 -0.05183513 -0.049418066 -0.0040945415
0000c0 bb 3d 65 bd 7b 11 2d bd 3c 2d fc bc 14 b0 6d bd
       -0.055967074 -0.042253 -0.030783288 -0.05802925
0000d0 92 0b 84 bd df 11 b3 bd 44 19 7a bd ed a5 2e bd
       -0.06447519 -0.08743643 -0.06105925 -0.042638708
0000e0 45 76 90 bd 82 0a 6e bd c5 a2 23 bd cb 82 c1 bd
       -0.07053808 -0.05811549 -0.03995015 -0.09448775
0000f0 51 43 31 bd 4b 18 ef 3c 20 d8 c1 bc 57 bc 50 bd
       -0.04327709 0.029186388 -0.023662627 -0.050960865
000100 8b ed d1 3b 6b 4f 38 bc 44 74 35 bd 35 35 63 bd
       0.006406491 -0.0112494035 -0.044300333 -0.055470664
000110 00 00 00 00 92 43 5a bc 12 f6 8d bd a2 08 5c bd
       0.0 -0.013321774 -0.069317 -0.05371917
000120 8f 74 38 bd 9d 36 f3 ba 93 a9 55 bd 78 bf 03 bd
       -0.045033034 -0.0018555705 -0.05216367 -0.03216502
000130 60 2f 28 bb 62 c3 1a bd 2b 78 73 bd f4 c6 9d 3d
       -0.0025663003 -0.037783988 -0.059440773 0.07703963
000140 f1 59 54 bd ab 99 9a bd c0 2e 76 bc 00 00 00 00
       -0.051843587 -0.07548841 -0.0150257945 0.0
000150 b3 f8 0a bd d8 82 3b 3d 04 cb dc bc 0f 30 c2 3b
       -0.033928584 0.04577908 -0.026952274 0.005926139
000160 11 d1 df bc 16 0b 96 bd ef 2e 06 bd e1 8a 2d bd
       -0.02732137 -0.07326333 -0.032759603 -0.042368773
000170 33 2c a8 bc 4e 12 db bc 45 72 81 bc 71 45 74 bd
       -0.020528888 -0.026742127 -0.015801558 -0.059636537
000180 a1 fe 29 bd 3b ea 75 bd 84 bb 12 bd ca 0a 97 bd
       -0.0415026 -0.060037833 -0.03582336 -0.07375105
000190 00 00 00 00 c5 3a 69 bd 7c 62 6d bd 11 8c 1e bd
       0.0 -0.056940813 -0.05795525 -0.038707796
0001a0 6c 8d 1c bd 8b d9 66 bd be 95 4f 3d 6a cf 82 bd
       -0.038220808 -0.05635981 0.050679915 -0.06387217
0001b0 1f be 35 bd 12 90 01 bd a2 0a 44 bd 19 d9 9f bd
       -0.044370767 -0.031631537 -0.047861703 -0.0780508
0001c0 ae 2c d3 bc 17 8c 0b bd 82 57 4c bd 41 8e 0c bd
       -0.02577814 -0.034069147 -0.04988814 -0.03431535
0001d0 f0 e9 4f bd c0 86 2d bd 1c bf 75 bd 84 ad 69 bd
       -0.05076021 -0.042364836 -0.05999671 -0.057050243
0001e0 5b 9a 66 bc f4 26 66 bd 20 75 72 bc 8a 2e 6e ba
       -0.014074887 -0.056189492 -0.014798433 -0.00090859144
0001f0 6e a3 10 bd ca 2b a3 bb a3 c3 9d bc 23 e4 1c bd
       -0.03531211 -0.0049795853 -0.019258326 -0.038303506

actor_fc_layers.blocks.0.block.1.running_mean f4 [128]
000000 00 00 00 00 00 00 00 00 00 00 00 00 00 00 00 00
       0.0 0.0 0.0 0.0
000010 00 00 00 00 00 00 00 00 00 00 00 00 00 00 00 00
       0.0 0.0 0.0 0.0
000020 00 00 00 00 00 00 00 00 00 00 00 00 00 00 00 00
       0.0 0.0 0.0 0.0
000030 00 00 00 00 00 00 00 00 00 00 00 00 00 00 00 00
       0.0 0.0 0.0 0.0
000040 00 00 00 00 00 00 00 00 00 00 00 00 00 00 00 00
       0.0 0.0 0.0 0.0
000050 00 00 00 00 00 00 00 00 00 00 00 00 00 00 00 00
       0.0 0.0 0.0 0.0
000060 00 00 00 00 00 00 00 00 00 00 00 00 00 00 00 00
       0.0 0.0 0.0 0.0
000070 00 00 00 00 00 00 00 00 00 00 00 00 00 00 00 00
       0.0 0.0 0.0 0.0
000080 00 00 00 00 00 00 00 00 00 00 00 00 00 00 00 00
       0.0 0.0 0.0 0.0
000090 00 00 00 00 00 00 00 00 00 00 00 00 00 00 00 00
       0.0 0.0 0.0 0.0
0000a0 00 00 00 00 00 00 00 00 00 00 00 00 00 00 00 00
       0.0 0.0 0.0 0.0
0000b0 00 00 00 00 00 00 00 00 00 00 00 00 00 00 00 00
       0.0 0.0 0.0 0.0
0000c0 00 00 00 00 00 00 00 00 00 00 00 00 00 00 00 00
       0.0 0.0 0.0 0.0
0000d0 00 00 00 00 00 00 00 00 00 00 00 00 00 00 00 00
       0.0 0.0 0.0 0.0
0000e0 00 00 00 00 00 00 00 00 00 00 00 00 00 00 00 00
       0.0 0.0 0.0 0.0
0000f0 00 00 00 00 00 00 00 00 00 00 00 00 00 00 00 00
       0.0 0.0 0.0 0.0
000100 00 00 00 00 00 00 00 00 00 00 00 00 00 00 00 00
       0.0 0.0 0.0 0.0
000110 00 00 00 00 00 00 00 00 00 00 00 00 00 00 00 00
       0.0 0.0 0.0 0.0
000120 00 00 00 00 00 00 00 00 00 00 00 00 00 00 00 00
       0.0 0.0 0.0 0.0
000130 00 00 00 00 00 00 00 00 00 00 00 00 00 00 00 00
       0.0 0.0 0.0 0.0
000140 00 00 00 00 00 00 00 00 00 00 00 00 00 00 00 00
       0.0 0.0 0.0 0.0
000150 00 00 00 00 00 00 00 00 00 00 00 00 00 00 00 00
       0.0 0.0 0.0 0.0
000160 00 00 00 00 00 00 00 00 00 00 00 00 00 00 00 00
       0.0 0.0 0.0 0.0
000170 00 00 00 00 00 00 00 00 00 00 00 00 00 00 00 00
       0.0 0.0 0.0 0.0
000180 00 00 00 00 00 00 00 00 00 00 00 00 00 00 00 00
       0.0 0.0 0.0 0.0
000190 00 00 00 00 00 00 00 00 00 00 00 00 00 00 00 00
       0.0 0.0 0.0 0.0
0001a0 00 00 00 00 00 00 00 00 00 00 00 00 00 00 00 00
       0.0 0.0 0.0 0.0
0001b0 00 00 00 00 00 00 00 00 00 00 00 00 00 00 00 00
       0.0 0.0 0.0 0.0
0001c0 00 00 00 00 00 00 00 00 00 00 00 00 00 00 00 00
       0.0 0.0 0.0 0.0
0001d0 00 00 00 00 00 00 00 00 00 00 00 00 00 00 00 00
       0.0 0.0 0.0 0.0
0001e0 00 00 00 00 00 00 00 00 00 00 00 00 00 00 00 00
       0.0 0.0 0.0 0.0
0001f0 00 00 00 00 00 00 00 00 00 00 00 00 00 00 00 00
       0.0 0.0 0.0 0.0

actor_fc_layers.blocks.0.block.1.running_var f4 [128]
000000 00 00 80 3f 00 00 80 3f 00 00 80 3f 00 00 80 3f
       1.0 1.0 1.0 1.0
000010 00 00 80 3f 00 00 80 3f 00 00 80 3f 00 00 80 3f
       1.0 1.0 1.0 1.0
000020 00 00 80 3f 00 00 80 3f 00 00 80 3f 00 00 80 3f
       1.0 1.0 1.0 1.0
000030 00 00 80 3f 00 00 80 3f 00 00 80 3f 00 00 80 3f
       1.0 1.0 1.0 1.0
000040 00 00 80 3f 00 00 80 3f 00 00 80 3f 00 00 80 3f
       1.0 1.0 1.0 1.0
000050 00 00 80 3f 00 00 80 3f 00 00 80 3f 00 00 80 3f
       1.0 1.0 1.0 1.0
000060 00 00 80 3f 00 00 80 3f 00 00 80 3f 00 00 80 3f
       1.0 1.0 1.0 1.0
000070 00 00 80 3f 00 00 80 3f 00 00 80 3f 00 00 80 3f
       1.0 1.0 1.0 1.0
000080 00 00 80 3f 00 00 80 3f 00 00 80 3f 00 00 80 3f
       1.0 1.0 1.0 1.0
000090 00 00 80 3f 00 00 80 3f 00 00 80 3f 00 00 80 3f
       1.0 1.0 1.0 1.0
0000a0 00 00 80 3f 00 00 80 3f 00 00 80 3f 00 00 80 3f
       1.0 1.0 1.0 1.0
0000b0 00 00 80 3f 00 00 80 3f 00 00 80 3f 00 00 80 3f
       1.0 1.0 1.0 1.0
0000c0 00 00 80 3f 00 00 80 3f 00 00 80 3f 00 00 80 3f
       1.0 1.0 1.0 1.0
0000d0 00 00 80 3f 00 00 80 3f 00 00 80 3f 00 00 80 3f
       1.0 1.0 1.0 1.0
0000e0 00 00 80 3f 00 00 80 3f 00 00 80 3f 00 00 80 3f
       1.0 1.0 1.0 1.0
0000f0 00 00 80 3f 00 00 80 3f 00 00 80 3f 00 00 80 3f
       1.0 1.0 1.0 1.0
000100 00 00 80 3f 00 00 80 3f 00 00 80 3f 00 00 80 3f
       1.0 1.0 1.0 1.0
000110 00 00 80 3f 00 00 80 3f 00 00 80 3f 00 00 80 3f
       1.0 1.0 1.0 1.0
000120 00 00 80 3f 00 00 80 3f 00 00 80 3f 00 00 80 3f
       1.0 1.0 1.0 1.0
000130 00 00 80 3f 00 00 80 3f 00 00 80 3f 00 00 80 3f
       1.0 1.0 1.0 1.0
000140 00 00 80 3f 00 00 80 3f 00 00 80 3f 00 00 80 3f
       1.0 1.0 1.0 1.0
000150 00 00 80 3f 00 00 80 3f 00 00 80 3f 00 00 80 3f
       1.0 1.0 1.0 1.0
000160 00 00 80 3f 00 00 80 3f 00 00 80 3f 00 00 80 3f
       1.0 1.0 1.0 1.0
000170 00 00 80 3f 00 00 80 3f 00 00 80 3f 00 00 80 3f
       1.0 1.0 1.0 1.0
000180 00 00 80 3f 00 00 80 3f 00 00 80 3f 00 00 80 3f
       1.0 1.0 1.0 1.0
000190 00 00 80 3f 00 00 80 3f 00 00 80 3f 00 00 80 3f
       1.0 1.0 1.0 1.0
0001a0 00 00 80 3f 00 00 80 3f 00 00 80 3f 00 00 80 3f
       1.0 1.0 1.0 1.0
0001b0 00 00 80 3f 00 00 80 3f 00 00 80 3f 00 00 80 3f
       1.0 1.0 1.0 1.0
0001c0 00 00 80 3f 00 00 80 3f 00 00 80 3f 00 00 80 3f
       1.0 1.0 1.0 1.0
0001d0 00 00 80 3f 00 00 80 3f 00 00 80 3f 00 00 80 3f
       1.0 1.0 1.0 1.0
0001e0 00 00 80 3f 00 00 80 3f 00 00 80 3f 00 00 80 3f
       1.0 1.0 1.0 1.0
0001f0 00 00 80 3f 00 00 80 3f 00 00 80 3f 00 00 80 3f
       1.0 1.0 1.0 1.0

actor_fc_layers.blocks.1.block.0.weight f4 [128, 128]
000000 8a 14 32 3c 93 a2 02 bd 48 42 85 3d d5 61 8e 3d
       0.010869155 -0.031893324 0.06506783 0.06952254
000010 cc f2 18 3d 6d c7 39 3d 53 c3 08 bd 2f 75 a1 3c
       0.037340924 0.045356203 -0.0333894 0.019709198
000020 70 62 a2 3d b4 97 07 bd 59 21 4f 3d c8 29 83 bc
       0.07928932 -0.03310366 0.050568912 -0.016011134
000030 60 8f 92 bd 48 d0 b8 bd e2 b1 06 bd b3 18 33 3d
       -0.07156253 -0.090241015 -0.032884486 0.043724727
000040 c1 50 49 3d 74 a5 58 bc 87 a2 01 ba 53 e6 a5 bc
       0.04914928 -0.013223041 -0.0004945178 -0.020251429
000050 90 f9 1e bd d6 55 1f bd 10 23 48 bd c7 16 c4 bc
       -0.03881222 -0.03890022 -0.048861563 -0.023936642
000060 df 64 97 3d a0 25 81 3d c8 a6 8f 3d c6 11 ed bc
       0.073922865 0.063060045 0.07014233 -0.02893914
000070 cf 3f ba bc 8b 2e 5f bd 17 1b 9f 3d 52 83 ee bc
       -0.022735504 -0.054487746 0.07768839 -0.029115353
000080 c0 2f bc 3d fe 6b 28 bd 5d 75 8c bd 55 c4 93 3c
       0.09188795 -0.041118614 -0.06858323 0.018037954
000090 69 ea b6 3b 3d ee 8f 3c 7b e6 07 bd 6a 14 f0 bc
       0.005582143 0.017569656 -0.033178788 -0.02930661
0000a0 e3 df 19 bd d1 e7 52 3c 09 48 2a bd 68 b7 6c 3d
       -0.03756703 0.012872652 -0.041572604 0.057792097
0000b0 69 2e 21 bd c5 cb d1 bc 34 78 a5 3c e3 a8 13 3d
       -0.0393509 -0.02560986 0.020198919 0.036049735
0000c0 36 05 3c bd a3 9c 48 bd 72 27 16 bd 15 bf 31 bd
       -0.045903407 -0.048977505 -0.03665871 -0.04339512
0000d0 6b 87 bd bd 95 ed c2 bd 3a e7 1c 3d 9a cd 39 bd
       -0.092543446 -0.095179714 0.038306452 -0.045362093
0000e0 8b 6f f4 3b 54 12 bd 3b 0d 75 b7 bc 0b 4a 25 3d
       0.007459586 0.005770007 -0.022394681 0.040353816
0000f0 87 7a 73 3d 5c f1 50 bb 5d 0c a1 bd 3a bc 33 bd
       0.059443023 -0.0031882143 -0.07863686 -0.04388068
000100 32 fd 41 bb 5f 7a 72 3d 68 e7 2a 3c cc c9 9f 3c
       -0.002960038 0.059198733 0.010431148 0.019505404
000110 1d f4 85 bb 8a 20 e5 3c f8 f7 60 bd 1c d6 5f bd
       -0.0040879385 0.027969617 -0.05492398 -0.05464755
000120 ec e2 9e bd b8 7e 78 bb 9e a4 b5 bd 4e a4 f1 bb
       -0.07758126 -0.0037917327 -0.08869289 -0.007374323
000130 6d 57 b4 3c c2 1d 8e bd f9 8c 94 3d 04 04 7a 3c
       0.022014344 -0.069392696 0.07253451 0.015259746
000140 35 a0 e8 3c 91 d8 5a bd 4a af ab bc 1b 42 88 bc
       0.028396705 -0.05342919 -0.020957608 -0.016633084
000150 60 d5 54 3c eb 3b 23 3c 55 c4 ab 3b 1e d1 ac 3a
       0.012990326 0.009963016 0.0052419105 0.001318488
000160 36 a3 d1 ba 6c a0 02 bc f6 c1 b8 3c 1e 98 0a bd
       -0.0015994075 -0.007972818 0.022553425 -0.033836477
000170 0f 27 cd 3c e7 47 cc 3c 95 7e 22 3c 16 eb aa bd
       0.025043039 0.02493663 0.009917875 -0.0834562
000180 8f 87 fd bc 32 65 33 bd cd 89 e9 ba a6 8a 86 bd
       -0.030948428 -0.04379768 -0.0017817557 -0.06569414
000190 71 26 b2 3c 55 1f 56 bd 2e 7d ea 3c 1a 9b a5 3c
       0.021746846 -0.052275974 0.028624143 0.02021556
0001a0 ec 64 bb bc b9 ed c2 bd da c8 c6 3c a7 1c 01 bd
       -0.022875272 -0.09517998 0.024265695 -0.031521466
0001b0 58 6c 82 bd 91 f3 f3 3c 46 77 86 3d 7c 4e 9a 3c
       -0.06368321 0.029779227 0.06565718 0.018836252
0001c0 ce 21 7b 3d ad a6 44 3b 11 f7 9d 3d 95 e7 b3 bd
       0.061311536 0.0030006573 0.0771314 -0.08784405
0001d0 a2 ce 8c bb 74 07 83 3d 58 e9 c7 bd d3 aa 94 3d
       -0.0042970935 0.06397906 -0.09761304 0.07259145
0001e0 83 ed 60 3d cf 3e 6f bb f4 87 2b 3d cf c0 e4 bc
       0.05491401 -0.0036505943 0.041877702 -0.02792397
0001f0 36 8e 54 3d 67 5d 66 bd 60 91 91 bd 67 ba 02 bc
       0.051893435 -0.05624142 -0.07107806 -0.007979012
000200 63 bf 84 bd d5 a2 b1 bd a9 91 73 bc 43 14 01 bd
       -0.064818166 -0.08673636 -0.014866271 -0.031513464
000210 a7 38 33 bb d5 19 be bd 35 f8 71 3d 83 dd a6 3b
       -0.0027347 -0.09282271 0.0590746 0.005092324
000220 7a 42 90 bd cf 48 51 bd 18 fe 08 3d 9e f0 00 3d
       -0.070439294 -0.051094826 0.033445448 0.03147947
000230 2d 41 a6 bd 5e 73 42 3d 0b 15 94 3d 6f c6 ad bd
       -0.081179 0.047473304 0.07230576 -0.08485114
000240 d8 e3 40 bd 12 f3 31 bd b4 b4 c5 bc ec 54 a6 bd
       -0.04709229 -0.0434447 -0.024134018 -0.08121666
000250 f7 2b 53 bc 8a 11 c7 bd a4 28 0c bd 93 32 c1 bc
       -0.0128889 -0.09720142 -0.034218445 -0.023583686
000260 71 57 67 bd 7b 3f 87 3d 32 93 af 3d 8f 95 2f 3d
       -0.056479875 0.06603905 0.08572997 0.04286724
000270 9b f0 a2 3d 03 e3 15 bd b4 b6 62 3c 70 11 3c 3c
       0.07956048 -0.03659345 0.013837505 0.011478767
000280 41 ea ac bd fa 36 01 bd f1 bb 82 bd 7c 13 82 3d
       -0.08443118 -0.03154657 -0.06383503 0.063513726
000290 1d 91 34 bd eb b8 1d bd 27 29 59 bd ef d0 18 bd
       -0.044083703 -0.03850643 -0.05301776 -0.03730863
0002a0 85 e5 c3 bd c8 c9 38 bd c4 f9 b7 bb a9 a1 81 bd
       -0.09565262 -0.04511431 -0.005614491 -0.06329662
0002b0 69 6e 95 3d b0 ba 86 bd 78 b3 40 bd 32 73 64 3d
       0.0729645 -0.065785766 -0.047046155 0.05577392
0002c0 cd 7f 3e 3d e4 f0 99 3d 88 3d 6d bd c7 d2 93 3d
       0.0465086 0.07516649 -0.05792001 0.07217937
0002d0 6b de af 3a 08 83 ab 3b 91 f4 0c bd 7c cb 30 bd
       0.0013417726 0.005234126 -0.034412924 -0.043162808
0002e0 de 60 cb 3c c3 04 e9 ba 32 2d 7e bd 1e a6 9d bd
       0.024826463 -0.0017777908 -0.06205482 -0.076977
0002f0 06 33 24 bd 9f a0 cd 3d 79 15 41 bb f4 30 c5 bd
       -0.040087722 0.10040402 -0.0029462262 -0.09628478
000300 80 34 4f bd bc ba 21 bd d9 02 fb 3c 9b c3 2e 3c
       -0.050587177 -0.039484724 0.030641006 0.010666753
000310 25 53 66 bd 9a 6f 84 3d 2a 7b 97 3d a0 18 07 3d
       -0.056231637 0.06466599 0.073965386 0.03298247
000320 97 73 f7 3c b0 dd 80 3d 0d ab 22 bd fd 71 91 bd
       0.030206485 0.062922835 -0.039713908 -0.0710182
000330 b8 74 a9 bd a6 d5 d5 bd f7 8a 25 bd 7c a5 96 bd
       -0.082742155 -0.10441141 -0.04041573 -0.073557824
000340 82 c4 40 bd d7 d9 ac 3c ff 3d 0f 3d 54 ec 8f bb
       -0.047062404 0.021099968 0.034971233 -0.004392186
000350 91 cb c6 bd 45 50 1d 3d a0 1f e7 3c 1e 6e 33 bd
       -0.09706796 0.03840663 0.028213322 -0.043806188
000360 dc bd cf 3c 93 67 4d bd b8 87 50 bd e3 76 7b 3d
       0.025359087 -0.050147604 -0.05091068 0.061392676
000370 d6 f9 2c bd fd af 8c 3d 31 24 9e 3d 30 f8 20 bd
       -0.04223045 0.068695046 0.07721747 -0.03929919
000380 9d d3 25 3d f9 77 22 3b ce a5 ce 3d 94 38 3e bd
       0.040485013 0.0024790748 0.100902185 -0.046440676
000390 b0 3f 9e bd 9a 2c 05 bc da 8f 27 bd eb 33 d5 bc
       -0.07726991 -0.00812831 -0.040908672 -0.026025733
0003a0 72 f2 bd bd fa 33 8e bd ed b3 a8 bd 44 ac 91 bd
       -0.092747584 -0.069435075 -0.08237443 -0.07112935
0003b0 53 1f ea bc 78 f5 00 bd fc 2e 34 3d d8 24 9d 3d
       -0.02857939 -0.031484097 0.04399012 0.07673043
0003c0 a6 57 3d 3d 1e 99 b5 bc d9 c7 c0 3c 8d 49 dd 3c
       0.046226166 -0.022167739 0.023532795 0.02701261
0003d0 2a 99 3b bb bf 8f b9 3d 1c a6 55 3c 53 59 95 bd
       -0.0028625228 0.090606205 0.013040092 -0.07292428
0003e0 a1 5d f5 bb 75 b1 80 bd 17 5e 43 3b 60 88 2c 3d
       -0.007487968 -0.06283847 0.002981072 0.042122245
0003f0 3e f9 b9 3d 49 42 80 bd 55 55 a0 bc e3 5f 80 ba
       0.09080742 -0.06262643 -0.01957194 -0.0009794201

actor_fc_layers.blocks.1.block.1.weight f4 [128]
000000 be 1e 7f 3f eb c2 7a 3f 9d 35 7f 3f 59 64 7e 3f
       0.99656284 0.9795367 0.9969118 0.9937187
000010 5f fd 80 3f 65 ee 80 3f d9 70 81 3f 64 63 82 3f
       1.0077323 1.0072752 1.0112563 1.0186582
000020 2f 5f 7c 3f 95 5c 80 3f 85 f0 80 3f 94 d7 80 3f
       0.9858274 1.0028254 1.0073401 1.0065789
000030 7f a3 78 3f a2 de 7a 3f 7e 72 7d 3f f5 6b 7f 3f
       0.97124475 0.9799596 0.99002826 0.99774104
000040 b7 37 7d 3f 3a 19 79 3f df c7 81 3f d8 63 7f 3f
       0.9891314 0.9730412 1.0139121 0.99761724
000050 35 bd 7d 3f db a8 79 3f 2f 31 7a 3f 6a de 7c 3f
       0.9911683 0.9752328 0.977313 0.98776877
000060 70 f5 80 3f 6e ba 7c 3f 76 af 7e 3f 8d 9c 77 3f
       1.0074902 0.9872197 0.9948648 0.9672325
000070 02 ac 7d 3f 17 80 7f 3f 47 80 7d 3f 43 69 7e 3f
       0.9909059 0.99804825 0.9902386 0.99379367
000080 6a cd 7b 3f 94 e8 7e 3f 3b 52 7d 3f d0 a0 89 3f
       0.9836031 0.99573636 0.989536 1.0752201
000090 a2 9c 7d 3f a3 4a 78 3f d8 72 79 3f e0 9b 79 3f
       0.9906713 0.96988887 0.9744086 0.9750347
0000a0 7d ec 7a 3f ca 9e 7e 3f d0 3a 7d 3f 8a a0 80 3f
       0.980171 0.9946104 0.98917866 1.0048993
0000b0 61 b6 7e 3f 83 91 7e 3f f3 47 7d 3f 4e 94 81 3f
       0.9949704 0.99440783 0.9893791 1.0123384
0000c0 5b 86 81 3f 9c 40 80 3f 25 ae 80 3f f3 52 81 3f
       1.0119127 1.0019717 1.0053145 1.0103439
0000d0 ab 6a 7a 3f c9 1c 81 3f f4 20 7a 3f 76 91 80 3f
       0.9781901 1.008691 0.9770653 1.0044391
0000e0 fc 97 80 3f cf 90 74 3f 6e 49 7d 3f 57 8c 7f 3f
       1.0046382 0.9553346 0.9894017 0.99823517
0000f0 ef d6 7c 3f a6 98 7a 3f e3 f6 7b 3f 2f 3b 7b 3f
       0.9876546 0.97889173 0.98423594 0.9813718
000100 21 a6 77 3f 2e 8c 80 3f c3 54 7b 3f 90 d3 7f 3f
       0.9673787 1.004278 0.9817621 0.99932194
000110 4a cd 80 3f 55 7f 7d 3f b6 84 7d 3f 64 4f 80 3f
       1.0062649 0.9902242 0.99030626 1.0024228
000120 24 40 80 3f 34 d0 7e 3f 1d b5 80 3f df b9 7d 3f
       1.0019574 0.9953644 1.0055271 0.9911174
000130 f5 cd 80 3f 60 1e 80 3f af 72 7b 3f 10 d5 7d 3f
       1.0062853 1.000927 0.9822187 0.9915323
000140 0e c5 7d 3f 75 86 7d 3f 54 99 80 3f ea ad 82 3f
       0.99128807 0.9903329 1.0046792 1.0209324
000150 4b 6e 81 3f 4e f6 7d 3f fb 87 7d 3f 53 c1 80 3f
       1.0111784 0.99203956 0.99035615 1.0058998
000160 70 53 81 3f fa ca 80 3f 5e 8e 7d 3f 08 c4 7e 3f
       1.0103588 1.0061944 0.9904536 0.9951787
000170 42 df 81 3f bf de 7b 3f ac 4f 80 3f fc 30 79 3f
       1.0146258 0.9838676 1.0024314 0.9734037
000180 e2 d3 87 3f b1 be 7c 3f a5 b1 7d 3f c7 fe 80 3f
       1.0611537 0.9872847 0.9909919 1.0077752
000190 75 67 7f 3f f3 f8 80 3f 68 62 7e 3f 6f 43 7e 3f
       0.9976724 1.0075973 0.99368906 0.99321645
0001a0 40 2e 81 3f 87 b4 7d 3f b8 90 80 3f a2 e8 80 3f
       1.0092239 0.9910359 1.0044165 1.0070994
0001b0 79 3c 80 3f e3 ef 81 3f 70 ce 7b 3f 6a f6 7c 3f
       1.0018455 1.0151333 0.98361874 0.988135
0001c0 4b 2e 7e 3f 19 5a 79 3f c0 68 80 3f c7 d9 7b 3f
       0.9928939 0.97403103 1.0031967 0.98379177
0001d0 1d 61 7d 3f c7 99 80 3f a8 0a 7d 3f ca 0c 81 3f
       0.9897631 1.0046929 0.98844385 1.0082028
0001e0 62 32 7a 3f b6 60 7d 3f 7a 75 80 3f 81 59 80 3f
       0.9773313 0.98975694 1.0035851 1.0027314
0001f0 ca ce 7e 3f 1e 01 7e 3f 57 31 7c 3f 4b e2 7c 3f
       0.99534285 0.99220455 0.98512787 0.98782796

actor_fc_layers.blocks.1.block.1.bias f4 [128]
000000 75 82 b1 3b 8b 86 10 3b 5c 5c b3 bc 1e be 9f bb
       0.005417163 0.002205285 -0.021894626 -0.0048749587
000010 2f 7e 76 3d ff 8d e2 bb f7 30 52 3c 44 d3 0d 3d
       0.06017893 -0.0069139 0.012829057 0.034625307
000020 04 4d 90 bc 63 ca 0f bc 15 df 5d 3d a3 5e 93 3c
       -0.017614849 -0.00877628 0.054167826 0.017989462
000030 4d fa 10 bd a0 ac b8 bc 6a f7 58 bc cc 68 6c 3b
       -0.035394955 -0.022543252 -0.013242582 0.0036073206
000040 2e c8 4b bb ea 7e 08 bd ba 30 86 bc f7 53 5b bc
       -0.0031094658 -0.03332416 -0.016380657 -0.013386718
000050 24 33 64 bc 4e 27 a6 bc 7e a0 e8 bc df ea 32 bc
       -0.0139282085 -0.020282414 -0.028396841 -0.010920255
000060 a1 39 68 3d 28 de 80 bc c6 c4 73 bc 1e 82 9c 3c
       0.056695584 -0.015730932 -0.014878457 0.019105013
000070 f9 2d 64 bc 41 18 b1 bb 15 7a 65 bb 68 32 d5 ba
       -0.013926976 -0.0054045026 -0.0035015394 -0.0016265633
000080 b3 e1 c3 bc 94 55 f5 bc 8e 47 82 bc 9b c4 9e 3d
       -0.023911333 -0.029948033 -0.01590326 0.07752343
000090 c5 15 f0 bc 27 09 e6 bc b6 ce 48 bc 45 28 89 bc
       -0.029307256 -0.028080536 -0.012256315 -0.016742835
0000a0 a1 d3 8b bc 6f 55 a1 bc 00 b2 a7 bc b7 4b 10 3d
       -0.017068686 -0.019694058 -0.02047062 0.035228457
0000b0 f8 be d9 bc b9 b5 de 39 61 22 6d bc e8 a2 bf bc
       -0.026580319 0.00042478534 -0.014473529 -0.02339311
0000c0 93 39 25 bb c2 45 32 ba f5 18 ac bb 16 42 05 3b
       -0.002521132 -0.0006800556 -0.0052519985 0.002033358
0000d0 12 69 85 bc f8 44 ac bc f1 99 02 bd 7c b7 b0 bc
       -0.016285453 -0.02102898 -0.03188509 -0.021571867
0000e0 83 21 33 bc 3f d6 36 bd d0 7b 62 bc e4 bc 91 bc
       -0.010933283 -0.044637915 -0.0138234645 -0.017790265
0000f0 98 10 00 3c 1c 2b 4a bb 01 23 5f bc 91 e3 af bb
       0.007816456 -0.003084845 -0.013619185 -0.005367704
000100 3e 4c f2 3c ae 1d f8 3b fe 8d b6 3b 5f af 88 3d
       0.02957737 0.0075718975 0.005571126 0.066740744
000110 fa 19 42 bc fa ae 96 bc a2 3b 93 bc d0 70 af bc
       -0.011847014 -0.018393982 -0.017972771 -0.021416098
000120 a8 76 09 ba bb cf 41 bc 3f 66 43 3c bd 64 6b 3c
       -0.00052438164 -0.011829312 0.011926233 0.01436728
000130 be a7 66 bb 9e bc bf bc e1 64 fc bc 1f 74 77 bc
       -0.0035195197 -0.02340537 -0.030809822 -0.015103369
000140 c6 1a 08 bc e4 b9 a8 bc 3d 14 09 3b c9 f4 72 3c
       -0.008307165 -0.020596452 0.0020916604 0.014828869
000150 e7 28 f9 3b 9a 18 89 bb 62 46 cb 3b 3a b1 01 bc
       0.007603753 -0.004183841 0.0062034586 -0.007915789
000160 28 9b 68 3d 7d 25 bc bb 7c d8 2d bc 71 ca 1c bc
       0.056788594 -0.0057417736 -0.010610696 -0.00956975
000170 51 db d5 3c 9d 7f 9e bc d5 3b de bc 87 1a 69 bc
       0.026105555 -0.01934796 -0.02712814 -0.014227516
000180 99 1e 90 3d 55 c6 94 bc 92 c7 05 bc 37 a4 62 bc
       0.07037086 -0.018160978 -0.008165257 -0.013833097
000190 e1 c6 a8 bc c4 35 89 3d d8 3b a7 bc d7 56 1e bd
       -0.020602645 0.06699708 -0.020414278 -0.038657036
0001a0 66 ef 7c bc 79 93 27 bc 1d f4 e9 ba a9 dc 6e bc
       -0.015437936 -0.010228031 -0.0017849241 -0.014578977
0001b0 f5 dd 7c bc 39 fd 64 3d dd cd 81 bc aa 25 34 bb
       -0.015433778 0.055905554 -0.015845234 -0.002748827
0001c0 d1 90 22 bc b1 28 d0 bc ca 25 23 bc 09 ce e8 bb
       -0.009922222 -0.025410028 -0.00995774 -0.0071046394
0001d0 5c 5e a6 bc 25 61 9e bb 94 d4 24 b8 58 5e d7 bb
       -0.020308666 -0.004833358 -3.9298626e-05 -0.006572526
0001e0 c8 ad f2 bc d9 1b 9b bc 78 28 83 bc d1 45 68 bc
       -0.029623881 -0.018934177 -0.016010508 -0.014176802
0001f0 a7 cf 5e bc cc 13 a3 bc 10 59 b3 bc be 30 57 bc
       -0.013599313 -0.0199069 -0.021893054 -0.01313418

actor_fc_layers.blocks.1.block.1.running_mean f4 [128]
000000 00 00 00 00 00 00 00 00 00 00 00 00 00 00 00 00
       0.0 0.0 0.0 0.0
000010 00 00 00 00 00 00 00 00 00 00 00 00 00 00 00 00
       0.0 0.0 0.0 0.0
000020 00 00 00 00 00 00 00 00 00 00 00 00 00 00 00 00
       0.0 0.0 0.0 0.0
000030 00 00 00 00 00 00 00 00 00 00 00 00 00 00 00 00
       0.0 0.0 0.0 0.0
000040 00 00 00 00 00 00 00 00 00 00 00 00 00 00 00 00
       0.0 0.0 0.0 0.0
000050 00 00 00 00 00 00 00 00 00 00 00 00 00 00 00 00
       0.0 0.0 0.0 0.0
000060 00 00 00 00 00 00 00 00 00 00 00 00 00 00 00 00
       0.0 0.0 0.0 0.0
000070 00 00 00 00 00 00 00 00 00 00 00 00 00 00 00 00
       0.0 0.0 0.0 0.0
000080 00 00 00 00 00 00 00 00 00 00 00 00 00 00 00 00
       0.0 0.0 0.0 0.0
000090 00 00 00 00 00 00 00 00 00 00 00 00 00 00 00 00
       0.0 0.0 0.0 0.0
0000a0 00 00 00 00 00 00 00 00 00 00 00 00 00 00 00 00
       0.0 0.0 0.0 0.0
0000b0 00 00 00 00 00 00 00 00 00 00 00 00 00 00 00 00
       0.0 0.0 0.0 0.0
0000c0 00 00 00 00 00 00 00 00 00 00 00 00 00 00 00 00
       0.0 0.0 0.0 0.0
0000d0 00 00 00 00 00 00 00 00 00 00 00 00 00 00 00 00
       0.0 0.0 0.0 0.0
0000e0 00 00 00 00 00 00 00 00 00 00 00 00 00 00 00 00
       0.0 0.0 0.0 0.0
0000f0 00 00 00 00 00 00 00 00 00 00 00 00 00 00 00 00
       0.0 0.0 0.0 0.0
000100 00 00 00 00 00 00 00 00 00 00 00 00 00 00 00 00
       0.0 0.0 0.0 0.0
000110 00 00 00 00 00 00 00 00 00 00 00 00 00 00 00 00
       0.0 0.0 0.0 0.0
000120 00 00 00 00 00 00 00 00 00 00 00 00 00 00 00 00
       0.0 0.0 0.0 0.0
000130 00 00 00 00 00 00 00 00 00 00 00 00 00 00 00 00
       0.0 0.0 0.0 0.0
000140 00 00 00 00 00 00 00 00 00 00 00 00 00 00 00 00
       0.0 0.0 0.0 0.0
000150 00 00 00 00 00 00 00 00 00 00 00 00 00 00 00 00
       0.0 0.0 0.0 0.0
000160 00 00 00 00 00 00 00 00 00 00 00 00 00 00 00 00
       0.0 0.0 0.0 0.0
000170 00 00 00 00 00 00 00 00 00 00 00 00 00 00 00 00
       0.0 0.0 0.0 0.0
000180 00 00 00 00 00 00 00 00 00 00 00 00 00 00 00 00
       0.0 0.0 0.0 0.0
000190 00 00 00 00 00 00 00 00 00 00 00 00 00 00 00 00
       0.0 0.0 0.0 0.0
0001a0 00 00 00 00 00 00 00 00 00 00 00 00 00 00 00 00
       0.0 0.0 0.0 0.0
0001b0 00 00 00 00 00 00 00 00 00 00 00 00 00 00 00 00
       0.0 0.0 0.0 0.0
0001c0 00 00 00 00 00 00 00 00 00 00 00 00 00 00 00 00
       0.0 0.0 0.0 0.0
0001d0 00 00 00 00 00 00 00 00 00 00 00 00 00 00 00 00
       0.0 0.0 0.0 0.0
0001e0 00 00 00 00 00 00 00 00 00 00 00 00 00 00 00 00
       0.0 0.0 0.0 0.0
0001f0 00 00 00 00 00 00 00 00 00 00 00 00 00 00 00 00
       0.0 0.0 0.0 0.0

actor_fc_layers.blocks.1.block.1.running_var f4 [128]
000000 00 00 80 3f 00 00 80 3f 00 00 80 3f 00 00 80 3f
       1.0 1.0 1.0 1.0
000010 00 00 80 3f 00 00 80 3f 00 00 80 3f 00 00 80 3f
       1.0 1.0 1.0 1.0
000020 00 00 80 3f 00 00 80 3f 00 00 80 3f 00 00 80 3f
       1.0 1.0 1.0 1.0
000030 00 00 80 3f 00 00 80 3f 00 00 80 3f 00 00 80 3f
       1.0 1.0 1.0 1.0
000040 00 00 80 3f 00 00 80 3f 00 00 80 3f 00 00 80 3f
       1.0 1.0 1.0 1.0
000050 00 00 80 3f 00 00 80 3f 00 00 80 3f 00 00 80 3f
       1.0 1.0 1.0 1.0
000060 00 00 80 3f 00 00 80 3f 00 00 80 3f 00 00 80 3f
       1.0 1.0 1.0 1.0
000070 00 00 80 3f 00 00 80 3f 00 00 80 3f 00 00 80 3f
       1.0 1.0 1.0 1.0
000080 00 00 80 3f 00 00 80 3f 00 00 80 3f 00 00 80 3f
       1.0 1.0 1.0 1.0
000090 00 00 80 3f 00 00 80 3f 00 00 80 3f 00 00 80 3f
       1.0 1.0 1.0 1.0
0000a0 00 00 80 3f 00 00 80 3f 00 00 80 3f 00 00 80 3f
       1.0 1.0 1.0 1.0
0000b0 00 00 80 3f 00 00 80 3f 00 00 80 3f 00 00 80 3f
       1.0 1.0 1.0 1.0
0000c0 00 00 80 3f 00 00 80 3f 00 00 80 3f 00 00 80 3f
       1.0 1.0 1.0 1.0
0000d0 00 00 80 3f 00 00 80 3f 00 00 80 3f 00 00 80 3f
       1.0 1.0 1.0 1.0
0000e0 00 00 80 3f 00 00 80 3f 00 00 80 3f 00 00 80 3f
       1.0 1.0 1.0 1.0
0000f0 00 00 80 3f 00 00 80 3f 00 00 80 3f 00 00 80 3f
       1.0 1.0 1.0 1.0
000100 00 00 80 3f 00 00 80 3f 00 00 80 3f 00 00 80 3f
       1.0 1.0 1.0 1.0
000110 00 00 80 3f 00 00 80 3f 00 00 80 3f 00 00 80 3f
       1.0 1.0 1.0 1.0
000120 00 00 80 3f 00 00 80 3f 00 00 80 3f 00 00 80 3f
       1.0 1.0 1.0 1.0
000130 00 00 80 3f 00 00 80 3f 00 00 80 3f 00 00 80 3f
       1.0 1.0 1.0 1.0
000140 00 00 80 3f 00 00 80 3f 00 00 80 3f 00 00 80 3f
       1.0 1.0 1.0 1.0
000150 00 00 80 3f 00 00 80 3f 00 00 80 3f 00 00 80 3f
       1.0 1.0 1.0 1.0
000160 00 00 80 3f 00 00 80 3f 00 00 80 3f 00 00 80 3f
       1.0 1.0 1.0 1.0
000170 00 00 80 3f 00 00 80 3f 00 00 80 3f 00 00 80 3f
       1.0 1.0 1.0 1.0
000180 00 00 80 3f 00 00 80 3f 00 00 80 3f 00 00 80 3f
       1.0 1.0 1.0 1.0
000190 00 00 80 3f 00 00 80 3f 00 00 80 3f 00 00 80 3f
       1.0 1.0 1.0 1.0
0001a0 00 00 80 3f 00 00 80 3f 00 00 80 3f 00 00 80 3f
       1.0 1.0 1.0 1.0
0001b0 00 00 80 3f 00 00 80 3f 00 00 80 3f 00 00 80 3f
       1.0 1.0 1.0 1.0
0001c0 00 00 80 3f 00 00 80 3f 00 00 80 3f 00 00 80 3f
       1.0 1.0 1.0 1.0
0001d0 00 00 80 3f 00 00 80 3f 00 00 80 3f 00 00 80 3f
       1.0 1.0 1.0 1.0
0001e0 00 00 80 3f 00 00 80 3f 00 00 80 3f 00 00 80 3f
       1.0 1.0 1.0 1.0
0001f0 00 00 80 3f 00 00 80 3f 00 00 80 3f 00 00 80 3f
       1.0 1.0 1.0 1.0

actor_fc_layers.blocks.2.block.0.weight f4 [128, 128]
000000 ce 0a 9e 3d 21 35 84 3d 36 86 4f bd 0b 19 4f bd
       0.077169046 0.06455446 -0.050665103 -0.050560992
000010 bf 4b d2 3c f8 96 67 3d f0 c7 57 3d 30 14 04 be
       0.025670884 0.05654046 0.05268091 -0.12898326
000020 f4 f6 88 3d f8 5d 9e 3d 8c 28 89 bc 2d aa 58 bc
       0.066877276 0.07732767 -0.016742967 -0.013224167
000030 cf 3e 3e 3d c0 11 ca 3b 48 d3 9b 3d 46 a1 2c 3b
       0.046446618 0.0061666667 0.07608658 0.0026341244
000040 e1 37 9b 3d ea 98 b0 3d 46 d2 43 3c 2c 15 2c 3d
       0.075790174 0.08622916 0.011951989 0.04201238
000050 5d a9 0d bd aa 95 fe 3d c1 ce 01 3c 6c c6 46 bc
       -0.034585346 0.1243089 0.007922829 -0.012132268
000060 71 af 40 3d ba 9c a0 3d c6 2c 06 3e ca 01 0d bd
       0.047042314 0.07842393 0.13103017 -0.034425534
000070 ff b4 b7 bc b3 15 f5 3d 54 c1 eb 3c e0 da 49 3d
       -0.022425173 0.119670294 0.02877871 0.049281
000080 c1 dd 1f 3d e6 e6 69 3d 71 c3 00 3d a7 22 06 3e
       0.03902984 0.057104968 0.031436387 0.13099156
000090 38 4b ae 3b 42 cd bb 3d d0 3a 0d bd 1e 5b 00 3e
       0.0053190254 0.09170009 -0.034479916 0.12534758
0000a0 a7 34 58 bb 84 bd 91 3d 7f 19 4d bc 9d fa 8f bd
       -0.0032990368 0.07116225 -0.012518286 -0.070302226
0000b0 23 30 15 3c 69 46 6e 3b 54 3f a7 3c bc e9 b2 3d
       0.009105715 0.0036357886 0.02041594 0.087359875
0000c0 0f ad 10 3e e9 77 be 3d e7 8b a3 3d 73 84 80 3d
       0.14128517 0.09300215 0.07985669 0.06275263
0000d0 98 27 57 bd 41 c4 29 3d b3 d2 5c 3d 57 09 d7 bc
       -0.052527994 0.041446928 0.053911876 -0.02624957
0000e0 f0 5c b2 3d 43 2d 46 3d 5c f0 77 3c 56 31 1e 3d
       0.08709133 0.04838301 0.01513299 0.03862127
0000f0 d7 10 d1 bc 26 2c c7 bb 81 8d fc 3c d4 4a e0 bb
       -0.025520725 -0.006078261 0.030829193 -0.0068448577
000100 8b 8f 64 3c ee 94 59 3d bd bc e0 3d ed 99 e9 bd
       0.013950239 0.053120546 0.10973499 -0.11406312
000110 70 5f c5 3d 27 cf c7 3d 35 34 7d bb a8 38 81 bc
       0.09637344 0.09756308 -0.0038635854 -0.015774086
000120 0d bd a0 bb 9a 5c 89 3d 1e fd 18 bd e7 52 55 bd
       -0.004905349 0.067071155 -0.037350766 -0.052081015
000130 c3 47 c0 3d ae e2 31 3d 71 49 01 3d f2 c5 bc bb
       0.093886875 0.04342907 0.03156418 -0.0057609016
000140 e3 29 9c bc a1 71 08 bd d1 56 c1 3c 8e eb 80 3d
       -0.019062942 -0.03331149 0.023600968 0.062949285
000150 14 88 a6 3d 6b 70 85 3d 6b 48 79 3c 08 f0 82 3c
       0.081314236 0.06515583 0.01521502 0.015983596
000160 60 52 72 3d 3a db a8 bc d4 2e 26 bc f9 38 ec 3d
       0.05916059 -0.020612348 -0.010143001 0.11534304
000170 79 d0 a3 3d f1 83 b6 bc ec e5 d5 ba 43 52 99 3d
       0.079987474 -0.022279711 -0.0016319132 0.07486393
000180 99 49 99 3d 85 03 3d 3d 66 67 32 3d 3d 73 86 3d
       0.07484741 0.046145935 0.04355564 0.06564949
000190 b7 f2 9f bd a2 0e 0b 3c d4 a1 44 bb 81 fe 9a 3d
       -0.07809966 0.008487375 -0.0030003684 0.07568074
0001a0 a8 5c 1c 3e 16 f0 06 bd 8d 02 4b 3d 2d b7 51 bd
       0.1526972 -0.032943808 0.04956298 -0.05120008
0001b0 65 d5 6d 3d b8 20 bd bd 73 c5 43 bd 19 7a 46 3d
       0.058064837 -0.09234756 -0.047795724 0.048456285
0001c0 72 92 b2 3d e1 7f 31 3d 42 07 25 bd c0 01 d9 bc
       0.087193385 0.043334845 -0.040290125 -0.026490092
0001d0 34 36 bf 3b c0 bc 03 3e db 1b a4 bb 7d b9 c3 3d
       0.005835319 0.12864971 -0.0050082034 0.095568635
0001e0 1b 09 7b bd 9e ef 25 3c 92 bd 07 3e 45 23 07 3d
       -0.06128798 0.01012793 0.13255909 0.03299262
0001f0 1c db df 3d a1 05 66 ba c5 e3 97 3c 21 3f 2f 3c
       0.10930464 -0.00087746425 0.018541226 0.010696203
000200 fd bd 30 bc 8a a8 a0 b9 1c 40 a1 bc 89 13 00 bd
       -0.010787484 -0.0003064315 -0.01968389 -0.03126863
000210 20 20 37 3c e0 76 8b bd 4a 92 91 3c 4e ca e1 bc
       0.011177093 -0.06809783 0.017769951 -0.027562287
000220 62 d2 85 3d 39 de 67 bc a7 e7 3c 3d 8c 9f 2a 3c
       0.06534268 -0.014152103 0.04611936 0.0104140155
000230 b8 fe 71 3d 4b fe 93 3d 74 4d 02 3d ad e1 f6 3d
       0.05908081 0.07226237 0.031812146 0.12054763
000240 c5 9f 80 bd 05 b5 c8 3d b4 ef d2 bd 43 b4 b6 bc
       -0.062804736 0.09800152 -0.10299626 -0.022302752
000250 a1 11 68 bd 0a 32 93 bd b1 4e 26 3d bf 98 36 bd
       -0.056657437 -0.071872786 0.04060239 -0.044579264
000260 68 56 13 3c ce 14 3d 3d f1 56 c8 3c a8 63 38 3d
       0.008992769 0.04616242 0.02445552 0.045016915
000270 90 7e 92 bc 39 c4 dd bc ed 49 70 3d 6c 2c 81 bd
       -0.017882615 -0.027071105 0.05866425 -0.06307301
000280 80 ba 20 3c 6d 56 0d 3d 1a c7 0e 3d e5 5c de 3d
       0.00981009 0.03450625 0.034857847 0.10857562
000290 65 b7 24 3c e7 b7 dd 3c f7 de 60 3d d9 3e 6f bd
       0.01005349 0.02706523 0.054900136 -0.058409546
0002a0 0f 29 29 3d 36 cb 90 bd f0 aa 4e 3d 16 db 93 3b
       0.041298922 -0.070700094 0.050455987 0.004512201
0002b0 73 2d 5b 3d 0c 42 e7 bc 45 67 22 3c bf df b1 bd
       0.05351014 -0.028229736 0.009912317 -0.08685254
0002c0 09 5e cf bd a7 4b 41 bd f2 a0 9e bd 7e 31 88 bc
       -0.10125358 -0.04719129 -0.07745542 -0.016625162
0002d0 b7 75 8f 3c fd a4 37 bb eb 42 e4 3d a9 04 a2 3d
       0.017512185 -0.0028021925 0.11145576 0.07911045
0002e0 de 30 52 bd 51 c4 38 bd b1 6e ad bd a2 fc 95 bc
       -0.051316135 -0.045109097 -0.08468378 -0.018308941
0002f0 4a be 84 3c 35 b6 91 bd ef a6 f8 bc 74 a7 81 bc
       0.016204018 -0.07114831 -0.030353038 -0.015826918
000300 a8 79 c3 3d 6e 0a a4 bd d3 7e cb bc 08 bb a3 3d
       0.095446885 -0.08009802 -0.024840748 0.07994658
000310 e2 df 9b bb 71 74 2b bd 78 dd 91 bd 2b eb 3b 3d
       -0.0047569135 -0.041859094 -0.0712232 0.04587857
000320 ed 58 ad 3c 0a 72 39 bc 28 4e 2f bd dd 66 96 bd
       0.021160567 -0.011318693 -0.042799145 -0.07343838
000330 fa 97 89 3c b6 11 a5 3d 40 31 67 bd 9b 93 da 3d
       0.0167961 0.08060019 -0.056443453 0.10672685
000340 8c 18 56 bd 15 43 9d 3d 8b 9a 28 3d cb 50 7f 3d
       -0.052269503 0.076788105 0.04116301 0.06233291
000350 28 a5 46 bd 08 0e 07 bd 53 fd 0b 3c 4d 5a ec bb
       -0.04849735 -0.032972366 0.008544284 -0.007212913
000360 23 4b 93 3d 42 1c 8b bd 1b 26 98 3d 85 22 b0 3d
       0.071920656 -0.06792499 0.07429143 0.08600334
000370 cc c5 78 3d 4c 98 0e 3d ae 81 9f bd ab 59 95 bb
       0.06073551 0.03481321 -0.07788406 -0.0045578084
000380 ed 49 09 bd c7 9b 80 3d e7 b8 b2 3d 98 42 cb 3c
       -0.033517767 0.06279712 0.087266736 0.024812028
000390 a4 5b 96 3d c9 4c 7b 3b 9a ed c4 bc ae 19 a5 3d
       0.07341698 0.0038345328 -0.024039079 0.08061539
0003a0 19 4a 9b bd 2a eb b8 bc ef 3a 93 3d 6f 82 94 3c
       -0.075824924 -0.022573072 0.07188975 0.018128602
0003b0 b8 76 88 bd c0 0f 35 3d c5 81 47 3d 5c 2e e2 bc
       -0.06663269 0.044204473 0.048707742 -0.027609996
0003c0 ab 94 a2 3d da 92 14 3d 33 e2 67 3d a1 1c 9c 3d
       0.079385124 0.03627286 0.056612205 0.07622648
0003d0 80 fc 35 3c 26 d0 97 3c 38 48 9d bd 4d 36 31 bd
       0.011107564 0.01853187 -0.0767979 -0.043264676
0003e0 1e 4d 8d bd 0d 57 09 bd 1e 9c 18 bc 45 c3 b5 3c
       -0.068994746 -0.033530284 -0.009314565 0.022187838
0003f0 25 4d 7d bd 25 92 2e 3c de 40 a0 3c c0 8f 58 3c
       -0.06184115 0.010654961 0.019562181 0.013217866

actor_fc_layers.blocks.2.block.1.weight f4 [128]
000000 c5 e1 86 3f 32 f7 7f 3f c8 8b 8d 3f dc 5f 7e 3f
       1.0537649 0.99986565 1.1058283 0.9936502
000010 52 32 81 3f c6 d3 81 3f 3d 6d 7a 3f cf de 81 3f
       1.0093482 1.0142753 0.97822934 1.0146121
000020 ee 71 88 3f 30 80 83 3f c4 82 80 3f 3f 64 7d 3f
       1.0659769 1.0273495 1.0039907 0.9898109
000030 c2 d0 83 3f 31 57 7e 3f 21 e5 7d 3f 8a d7 82 3f
       1.0298083 0.99351794 0.9917775 1.0222027
000040 f6 30 86 3f 7e 32 80 3f d2 ce 77 3f 14 c0 77 3f
       1.0483692 1.0015409 0.9679996 0.9677746
000050 5d ce 7b 3f b3 38 81 3f 4e 5e 82 3f f9 f9 82 3f
       0.9836176 1.0095428 1.018503 1.0232536
000060 b2 96 82 3f db 27 7e 3f df 79 7b 3f cc f8 78 3f
       1.0202239 0.99279565 0.98232836 0.97254634
000070 23 e1 80 3f 6f f0 7e 3f 1e 9a 87 3f 30 ba 81 3f
       1.0068706 0.9958562 1.0593908 1.0134945
000080 e5 fa 7b 3f 33 40 80 3f c6 55 83 3f a4 ea 7f 3f
       0.9842971 1.0019592 1.0260551 0.9996741
000090 85 3c 7c 3f 82 ec 82 3f b9 bb 77 3f 21 b8 84 3f
       0.98529845 1.0228426 0.9677082 1.0368692
0000a0 9d 7d 7d 3f a0 a2 85 3f ad dc 7c 3f 67 a2 80 3f
       0.99019796 1.0440254 0.98774225 1.0049561
0000b0 71 5b 81 3f 9b e4 83 3f 31 92 80 3f da 00 7d 3f
       1.0106031 1.030414 1.0044614 0.98829424
0000c0 8b 36 80 3f 5c c3 83 3f af 91 7d 3f b9 ec 79 3f
       1.0016645 1.0293994 0.9905042 0.97626835
0000d0 ee 32 79 3f 46 97 80 3f f2 1a 86 3f de d3 82 3f
       0.9734334 1.0046165 1.0476973 1.0220907
0000e0 e2 26 85 3f b9 7c 7b 3f 7c b5 73 3f 0f b7 77 3f
       1.0402491 0.98237187 0.951988 0.967637
0000f0 ab c6 78 3f 05 6c 80 3f 4a 22 82 3f 9d e7 7c 3f
       0.97178143 1.0032965 1.0166714 0.98790914
000100 14 7b 81 3f ae be 84 3f 15 40 83 3f 7a 9e 7c 3f
       1.0115685 1.0370691 1.0253931 0.98679316
000110 3f ba 75 3f 92 08 7f 3f 13 ba 7a 3f d0 be 85 3f
       0.95987314 0.9962245 0.97940177 1.0448856
000120 f3 3b 80 3f d7 7b 7f 3f 73 b3 76 3f 0a d7 80 3f
       1.0018295 0.9979834 0.9636757 1.0065625
000130 1a 8b 7c 3f 4a cb 81 3f a6 a0 80 3f 8f 3b 82 3f
       0.9864975 1.0140164 1.0049026 1.0174426
000140 91 7a 7e 3f d1 6c 7b 3f 64 5c 7f 3f c3 d4 81 3f
       0.9940577 0.98212916 0.9975035 1.0143055
000150 fb de 77 3f b2 55 81 3f 6f 5a 85 3f 66 45 82 3f
       0.96824616 1.0104277 1.0418223 1.0177429
000160 56 7e 82 3f 49 b7 7e 3f 32 46 85 3f d2 99 82 3f
       1.0194805 0.9949842 1.0412047 1.0203192
000170 4c e8 7e 3f a1 13 86 3f 81 51 79 3f df 57 80 3f
       0.99573207 1.047474 0.9738999 1.0026816
000180 88 df 7a 3f b6 02 7e 3f 71 d6 78 3f ed 2d 7d 3f
       0.9799733 0.99222887 0.9720221 0.988982
000190 4b 53 83 3f 97 05 7e 3f cd b3 7b 3f 5d 54 84 3f
       1.0259794 0.9922728 0.9832123 1.0338246
0001a0 6c 83 80 3f e6 1b 83 3f 89 cc 81 3f da 4e 83 3f
       1.0040107 1.0242889 1.0140544 1.0258439
0001b0 33 e4 86 3f 61 e5 7e 3f 77 92 7d 3f 09 97 7a 3f
       1.0538391 0.99568754 0.9905161 0.9788671
0001c0 07 9a 85 3f fa 24 7a 3f 05 e4 85 3f 9b c2 87 3f
       1.043763 0.9771267 1.0460211 1.0606264
0001d0 29 c5 78 3f ff 36 82 3f 26 59 7e 3f ad 4e 77 3f
       0.9717584 1.0173033 0.9935478 0.96604425
0001e0 b4 48 78 3f e5 bc 7d 3f 75 2b 86 3f c9 91 7e 3f
       0.96985936 0.99116355 1.0482012 0.994412
0001f0 15 47 81 3f f1 ca 80 3f 01 4a 7b 3f 51 98 7c 3f
       1.0099818 1.0061933 0.98159796 0.98669916
