saved_models/agent_maddpgv2_vs_opp_maddpgv2_4_vs_1_1_big_5_sec_agent_best_models/maddpgv2_actor_3.pt (torch, 163339 bytes, 21 tensors)

actor_fc_layers.blocks.0.block.0.weight f4 [128, 27]
0	0x3d1135e4	0.035451785
1	0x3df8e616	0.121532604
2	0xbd971d3c	-0.07378623
3	0xbe138486	-0.14406022
4	0xbe13aac7	-0.14420615
5	0xbde19f32	-0.11016692
6	0x3cb41cde	0.021986421
7	0x3cad25b4	0.021136142
8	0xbdc1705b	-0.09445258
9	0x3e397801	0.18112184
10	0x3dd1cec9	0.10244519
11	0xbe0b2778	-0.13589275
12	0x3d924836	0.071426794
13	0x3ca560ac	0.020187698
14	0x3dd63c52	0.10460724
15	0xbe1f9da0	-0.15587473
16	0xbd580a06	-0.052743934
17	0x3d35aa25	0.044351716
18	0x3c866957	0.016407652
19	0x3df4bfdc	0.11950657
20	0x3cb7117f	0.02234721
21	0xbe262e7a	-0.16228667
22	0xbd8ca5fa	-0.06867595
23	0xbd7e3bca	-0.062068738
24	0x3dc66211	0.096866734
25	0xbe165a07	-0.1468278
26	0xbdce10ce	-0.10061799
27	0xbe2c84d7	-0.1684755
28	0xbe1bd84e	-0.15219232
29	0xbd3dd723	-0.04634775
30	0x3c4dfa73	0.012571919
31	0x3d046e34	0.03233166
32	0x3c87a64c	0.016558789
33	0xbe135f88	-0.14391911
34	0x3e216d42	0.15764335
35	0xbdf22be9	-0.118247814
36	0xbe091521	-0.13386966
37	0xbe4be1a2	-0.19910291
38	0xbe074358	-0.13209283
39	0xbdcbca20	-0.09950662
40	0xbe4906fe	-0.19631574
41	0xbdb0d8d8	-0.0863511
42	0xbe2dd558	-0.16975915
43	0xbdb06603	-0.08613207
44	0xbbb31fd1	-0.0054664393
45	0xbe28d8f2	-0.16489008
46	0x3e269813	0.16268949
47	0xbc0a7ec6	-0.008453077
48	0x3bd0c11f	0.006370678
49	0xbd7678e6	-0.06017389
50	0x3ded2671	0.11579598
51	0xbe1d43ce	-0.15357897
52	0x3e0ae4c3	0.13563828
53	0x3da46b5b	0.08028289
54	0xbe20cd94	-0.15703422
55	0x3c9b1103	0.01892901
56	0xbd45952b	-0.04823796
57	0xbbe06b09	-0.006848697
58	0xbdbfb2dd	-0.09360287
59	0xbd985593	-0.07438197
60	0xbd110886	-0.03540852
61	0x3d7aeeef	0.06126302
62	0xbd789c23	-0.06069578
63	0x3d512dd7	0.051069107
64	0xbe3a307f	-0.18182562
65	0x3d36e0a8	0.044647843
66	0x3b2583ea	0.002525563
67	0x3d2eb000	0.042648315
68	0xbc2de196	-0.010612866
69	0x3e0f9c2f	0.14024423
70	0x3e1c7675	0.15279563
71	0x3db1bb25	0.08678273
72	0x3e17d9b8	0.14829147
73	0x3d9b23a2	0.07575156
74	0xbd1b589b	-0.037926298
75	0xbd9bf30d	-0.07614718
76	0x3e051aee	0.12998554
77	0x3c860079	0.016357647
78	0xbe0c213f	-0.13684557
79	0xbd02bcf6	-0.03191849
80	0xbe3e41cc	-0.18579787
81	0x3cbfb925	0.023403713
82	0xbdaee2e2	-0.08539368
83	0xbc91b1e0	-0.017785013
84	0x3e171a76	0.14756188
85	0xbe0e7fc0	-0.1391592
86	0x3dc0d59a	0.09415741
87	0xbe125121	-0.1428876
88	0x3dfd5b7f	0.12370967
89	0xbd3f3c7b	-0.046688538
90	0xbcf81cf3	-0.030287242
91	0xbdc956a1	-0.09830976
92	0x3dc7cdc0	0.097560406
93	0x3e23d141	0.15997793
94	0xbd579430	-0.052631557
95	0x3de50f87	0.11184602
96	0xbe26bb91	-0.16282488
97	0xbdbd0963	-0.09230306
98	0x3d4a6804	0.049415603
99	0x3e1b2011	0.15148951
100	0xbb03a61e	-0.0020088027
101	0x3d210dd7	0.03931984
102	0x3ce8d380	0.028421164
103	0xbd8d233f	-0.06891488
104	0x3d309c53	0.043117832
105	0x3d027326	0.031848095
106	0xbe4a2a5e	-0.19742724
107	0xbd3f7c44	-0.04674937
108	0x3d1fd14b	0.039017957
109	0xbdc68811	-0.09693921
110	0xbceef77f	-0.02917075
111	0xbe27567a	-0.16341582
112	0xbe60c185	-0.21948822
113	0xbe2f20aa	-0.17102304
114	0x3d2e9cb9	0.04262993
115	0xbe2057b2	-0.15658453
116	0xbcfd66a1	-0.030932726
117	0x3d38eb61	0.04514635
118	0xbdc343a4	-0.09534386
119	0xbde147e6	-0.11000042
120	0x3e20d414	0.15705901
121	0xbcc4b238	-0.024010763
122	0x3c76d129	0.015064516
123	0xbc80c607	-0.015719427
124	0x3df9b3bd	0.121924855
125	0x3d8fdb46	0.07024245
126	0xbe0377db	-0.1283869
127	0xbd8c0064	-0.06836012
128	0xbdf6fc14	-0.12059799
129	0x3dcec4aa	0.100961044
130	0xbdaeadf4	-0.08529273
131	0xbd62f4d1	-0.055409256
132	0xbdf2ca38	-0.118549764
133	0xbce79284	-0.028268106
134	0xbcc9fa50	-0.024655491
135	0x3e76c533	0.24098663
136	0xbe4de036	-0.20105061
137	0x3e1bd4c3	0.15217881
138	0x3d5792a3	0.052630078
139	0xbddca63f	-0.107738964
140	0x3e08b26c	0.13349313
141	0xbd92a029	-0.071594544
142	0x3cd370ae	0.025810566
143	0xbe8af0e3	-0.27136907
144	0xbe0b7de1	-0.13622238
145	0xbaa638df	-0.0012681744
146	0x3e3edb02	0.18638232
147	0x3db37584	0.08762649
148	0xbd49b62c	-0.049246
149	0x3da9873a	0.082777455
150	0x3c96c933	0.018406486
151	0xbd770428	-0.060306698
152	0x3d277cc2	0.040890463
153	0xbe05614c	-0.13025397
154	0x3de19995	0.110156216
155	0xbd87c706	-0.066297576
156	0xbe135931	-0.14389493
157	0x3d7663bb	0.060153704
158	0xbd926e9e	-0.07150005
159	0xbd1e3b1b	-0.038630586
160	0xbe248748	-0.1606723
161	0xbde5c052	-0.11218323
162	0xbe0db874	-0.13839895
163	0x3d8d8b2c	0.069113106
164	0x3cc9df65	0.024642656
165	0x3d36b6b0	0.044607818
166	0x3d8db17b	0.06918617
167	0x3c26a7ef	0.010171874
168	0xbda6ed2e	-0.08150707
169	0x3e1a8f4b	0.15093724
170	0xbe2a4a82	-0.16629985
171	0x3e114281	0.14185525
172	0x3dd056d8	0.10172814
173	0xbdfcf2ac	-0.123509735
174	0xbe092ad6	-0.13395247
175	0x3e476b5a	0.19474545
176	0xbc3dce88	-0.011584885
177	0xbdc0604f	-0.093933694
178	0xbd943dd2	-0.07238354
179	0x3e0ca49f	0.13734673
180	0x3cd04d71	0.025427552
181	0x3d992514	0.07477775
182	0x3e071e75	0.13195212
183	0x3da892ad	0.08231101
184	0x3e441d5c	0.19151825
185	0xbe17d9ee	-0.14829227
186	0xbe16c828	-0.14724791
187	0xbe2ca92c	-0.16861409
188	0x3dadca9c	0.0848591
189	0x3c893f3e	0.016753789
190	0xbe04efab	-0.12982051
191	0xbe47f570	-0.1952722
192	0xbe1e33cd	-0.15449448
193	0xbb03c3a4	-0.0020105625
194	0x3debf21f	0.1152079
195	0x3da2db69	0.079520054
196	0xbe408c2f	-0.18803476
197	0x3dac8270	0.084233165
198	0x3df82372	0.12116136
199	0xbe1f0396	-0.15528712
200	0xbe30086a	-0.1719071
201	0xbaa4abc8	-0.0012563402
202	0x3e14c27a	0.14527312
203	0xbda6abd4	-0.08138242
204	0xbcf96625	-0.030444214
205	0x3e019cc6	0.1265746
206	0x3ce1dbd0	0.027570635
207	0x3e07cb56	0.1326116
208	0xbe34aa41	-0.17643072
209	0xbe30d53a	-0.1726884
210	0x3e067319	0.13129844
211	0x3dd08904	0.10182384
212	0xbd862a14	-0.065509945
213	0x3da120a8	0.07867557
214	0xbe40a9c3	-0.18814759
215	0xbd011ad8	-0.03151974
216	0x3e5086bc	0.20363897
217	0xbd90fe73	-0.07079782
218	0x3da1cf7b	0.07900902
219	0xbdedca24	-0.11610821
220	0xbe41a324	-0.1890989
221	0x38921a83	6.966761e-05
222	0xbd8be598	-0.06830901
223	0xbe0c6c7c	-0.13713259
224	0x3c8240c1	0.015900018
225	0xbdad3ca2	-0.084588304
226	0xbd556389	-0.052096877
227	0xbcdaa7e3	-0.026691383
228	0xbd00e3a0	-0.03146708
229	0x3d616037	0.0550234
230	0xbe7c8fc7	-0.24664222
231	0x3c64f666	0.013974762
232	0x3e0c09a3	0.13675551
233	0xbdd5e624	-0.104442865
234	0x3bba3baf	0.0056833844
235	0x3e6dd55b	0.2322592
236	0x3d830dd8	0.06399125
237	0x3e244b93	0.16044454
238	0x3e8663c8	0.26248002
239	0x3d391d38	0.04519388
240	0xbdb228ba	-0.08699174
241	0xbd022cca	-0.031780995
242	0xbe0183cb	-0.12647931
243	0x3d8f7ff1	0.07006825
244	0x3db44527	0.08802252
245	0xbe354c42	-0.17704871
246	0xbe49e999	-0.19718017
247	0x3d98ab93	0.074546
248	0x3d771a78	0.060327977
249	0x3da4f7a0	0.08055043
250	0xbd254a55	-0.04035409
251	0x3dce6d0f	0.10079395
252	0x3e0eed2a	0.13957658
253	0xbce4dcd7	-0.027937336
254	0xbd0cb366	-0.034350775
255	0xbd0f0821	-0.03491986

actor_fc_layers.blocks.0.block.1.weight f4 [128]
0	0x3f743738	0.9539676
1	0x3f755bdc	0.9584329
2	0x3f7ce599	0.9878784
3	0x3f74e314	0.95658994
4	0x3f6e50c2	0.93091977
5	0x3f871327	1.055272
6	0x3f749c4c	0.9555099
7	0x3f72eb05	0.9488986
8	0x3f843b29	1.0330554
9	0x3f7282a7	0.9473061
10	0x3f737460	0.9509945
11	0x3f7b16ee	0.9808186
12	0x3f70466e	0.9385747
13	0x3f7c014b	0.9843947
14	0x3f78b217	0.97146744
15	0x3f760614	0.96103024
16	0x3f72e898	0.9488616
17	0x3f759f17	0.95945877
18	0x3f760d7a	0.96114314
19	0x3f7afa2a	0.9803797
20	0x3f734fb2	0.9504348
21	0x3f800000	1.0
22	0x3f7d7877	0.9901194
23	0x3f70c90e	0.94056785
24	0x3f7231a7	0.94607013
25	0x3f800000	1.0
26	0x3f7e5a0d	0.99356157
27	0x3f7a2c63	0.9772398
28	0x3f792641	0.97323996
29	0x3f76745b	0.96271294
30	0x3f7adff9	0.97998005
31	0x3f75b54b	0.95979756
32	0x3f7ae8c4	0.9801142
33	0x3f71b102	0.9441072
34	0x3f79ef0f	0.976304
35	0x3f7b90f2	0.98268044
36	0x3f78fcba	0.9726063
37	0x3f786b0e	0.9703835
38	0x3f7c295d	0.98500615
39	0x3f784206	0.96975744
40	0x3f77d9ca	0.96816695
41	0x3f70954c	0.9397781
42	0x3f7b64af	0.98200506
43	0x3f7447bf	0.95421976
44	0x3f74c892	0.95618546
45	0x3f798c5e	0.9747981
46	0x3f72226d	0.9458378
47	0x3f6b5101	0.9192048
48	0x3f791ecd	0.97312623
49	0x3f71ce93	0.9445583
50	0x3f779b45	0.967213
51	0x3f7fbd9c	0.99898696
52	0x3f7a2535	0.97713023
53	0x3f7b11e9	0.98074204
54	0x3f7313e0	0.949522
55	0x3f7fda02	0.9994203
56	0x3f7f73e2	0.997862
57	0x3f6d5a9b	0.9271638
58	0x3f7458ec	0.95448184
59	0x3f732150	0.94972706
60	0x3f6b3c40	0.9188881
61	0x3f71ac2c	0.9440334
62	0x3f775d24	0.96626496
63	0x3f746177	0.9546122
64	0x3f802bfd	1.0013424
65	0x3f765190	0.96218204
66	0x3f70180e	0.93786705
67	0x3f6a2791	0.91466624
68	0x3f75c459	0.9600273
69	0x3f70b7a7	0.9403023
70	0x3f70c2db	0.94047326
71	0x3f7fe5ae	0.9995984
72	0x3f75448b	0.95807713
73	0x3f6f328d	0.9343651
74	0x3f729773	0.94762343
75	0x3f751d01	0.9574738
76	0x3f76ace1	0.9635754
77	0x3f767a22	0.9628011
78	0x3f6d79c1	0.92763907
79	0x3f773e33	0.96579283
80	0x3f71faab	0.94523114
81	0x3f7c0fed	0.984618
82	0x3f7a0a39	0.9767185
83	0x3f788615	0.9707959
84	0x3f7fca3e	0.9991797
85	0x3f74f0e5	0.95680076
86	0x3f800000	1.0
87	0x3f74cb2f	0.95622534
88	0x3f7aa82e	0.9791287
89	0x3f7dadbd	0.9909323
90	0x3f7b8d75	0.9826272
91	0x3f6a6827	0.91565174
92	0x3f840c2d	1.0316216
93	0x3f72e7d8	0.94885015
94	0x3f76c5a9	0.96395355
95	0x3f73459d	0.95028096
96	0x3f70b7ae	0.9403027
97	0x3f75058b	0.9571158
98	0x3f6b85d7	0.920011
99	0x3f74f299	0.95682675
100	0x3f779210	0.9670725
101	0x3f71c46b	0.94440335
102	0x3f7fcae1	0.99918944
103	0x3f7cbd0b	0.98725957
104	0x3f7513e6	0.9573349
105	0x3f7a109e	0.97681606
106	0x3f7edb5c	0.99553466
107	0x3f6ca7d5	0.9244359
108	0x3f731a51	0.9496203
109	0x3f74a1b1	0.9555922
110	0x3f72d043	0.9484903
111	0x3f751f6f	0.9575109
112	0x3f6ffe38	0.9374728
113	0x3f70d8a2	0.94080555
114	0x3f7c4415	0.98541385
115	0x3f736b2e	0.9508542
116	0x3f6f3214	0.9343579
117	0x3f779190	0.96706486
118	0x3f6ed94b	0.9330031
119	0x3f77f0e0	0.9685192
120	0x3f800000	1.0
121	0x3f7479cb	0.9549834
122	0x3f7589ee	0.9591359
123	0x3f714b04	0.9425509
124	0x3f76fcc8	0.96479464
125	0x3f781c25	0.96917945
126	0x3f7cafe8	0.9870591
127	0x3f7c0e85	0.98459655

actor_fc_layers.blocks.0.block.1.bias f4 [128]
0	0xbd64fcf8	-0.055905312
1	0xbca26f3e	-0.019828435
2	0xbc904a2f	-0.017613498
3	0xbd50fd5c	-0.051022872
4	0xbd9867ce	-0.07441674
5	0x3d0e797c	0.034783825
6	0xbd1e7077	-0.038681474
7	0xbd3a8f25	-0.04554667
8	0x38f806e6	0.000118268465
9	0xbd0c4f9f	-0.03425562
10	0xbd3aab15	-0.045573313
11	0xbc8a11f4	-0.016854264
12	0xbd8a8817	-0.06764238
13	0xbcd94dba	-0.02652632
14	0xbc5705a9	-0.013123908
15	0xbd32b789	-0.043632064
16	0xbd2da932	-0.042397685
17	0xbca27904	-0.019833095
18	0xbd2b84c5	-0.041874666
19	0xbc3fda15	-0.01170971
20	0xbd78d691	-0.0607515
21	0x00000000	0.0
22	0x3ade2b1e	0.0016950106
23	0xbd768d5f	-0.060193416
24	0xbd51468b	-0.051092666
25	0x00000000	0.0
26	0x3c85b989	0.016323822
27	0xbc983cc5	-0.018583665
28	0xbd08e3b6	-0.033420287
29	0xbd1ee2b8	-0.038790435
30	0xbd1158fd	-0.035485256
31	0xbd1e00e2	-0.03857506
32	0xbd216d2b	-0.03941075
33	0xbcf9d514	-0.030497111
34	0xbcd9a134	-0.026566125
35	0xbc888d52	-0.01666895
36	0xbceaeb64	-0.028676696
37	0xbc4b9be3	-0.012427303
38	0xbc8b6b9f	-0.017019091
39	0xbd0a7c93	-0.03381021
40	0xbd3114f9	-0.04323289
41	0xbd6c0ad7	-0.057627525
42	0xbcd9b4b0	-0.026575416
43	0xbd066a22	-0.03281606
44	0xbd2c6cc0	-0.0420959
45	0xbd0fbc15	-0.03509148
46	0xbd72d6df	-0.05928695
47	0xbd94b7d0	-0.07261622
48	0xbc8bf8bf	-0.017086385
49	0xbd857698	-0.065167606
50	0xbd1c7abb	-0.038202982
51	0xbb6477fe	-0.003486156
52	0xbce808a4	-0.028324433
53	0xbca1ef29	-0.01976736
54	0xbd47c8e7	-0.04877558
55	0xbbfd4fd1	-0.007730462
56	0xbc0188bd	-0.007906136
57	0xbd4a83c4	-0.049442068
58	0xbd6beef1	-0.05760092
59	0xbd21eff4	-0.039535478
60	0xbd654105	-0.05597021
61	0xbd7512bf	-0.05983233
62	0xbc85f622	-0.016352717
63	0xbd3f9277	-0.04677054
64	0xba279aa8	-0.000639359
65	0xbd127429	-0.03575531
66	0xbd74230e	-0.059603743
67	0xbd9e198f	-0.07719719
68	0xbd34430c	-0.044009253
69	0xbd971432	-0.07376899
70	0xbd672fd5	-0.0564421
71	0xbbc80d90	-0.0061051324
72	0xbd406cf5	-0.04697891
73	0xbd9e6d2a	-0.07735665
74	0xbd80b509	-0.0628453
75	0xbd5f62b2	-0.054537483
76	0xbd1096f3	-0.035300206
77	0xbd30c278	-0.04315421
78	0xbd90c717	-0.070692234
79	0xbcf895be	-0.03034484
80	0xbd4b2ae4	-0.04960145
81	0xbc80b096	-0.015709203
82	0xbd114c4a	-0.035473146
83	0xbcf13a60	-0.02944678
84	0x3c01fb09	0.007933387
85	0xbd45fb78	-0.048335522
86	0x00000000	0.0
87	0xbd286445	-0.04111125
88	0xbd166c16	-0.036724173
89	0xbc0e97ac	-0.008703154
90	0xbcc6e0ac	-0.024277054
91	0xbd90be73	-0.07067575
92	0x3b79d6d2	0.0038122428
93	0xbd63eca5	-0.055645604
94	0xbd161072	-0.036636777
95	0xbd5cd486	-0.053913616
96	0xbd572e62	-0.05253447
97	0xbd10fef3	-0.03539939
98	0xbd9367cc	-0.07197532
99	0xbd35a4e7	-0.044346716
100	0xbc20e8b9	-0.00982111
101	0xbda1ed85	-0.079066314
102	0x39bb847b	0.00035766125
103	0xbcf1db40	-0.029523492
104	0xbd3e2110	-0.04641825
105	0xbcf870c2	-0.030327205
106	0xbbe5cbfc	-0.007012842
107	0xbd2f67ae	-0.042823486
108	0xbd2f737d	-0.042834748
109	0xbc9a45db	-0.018832138
110	0xbd70c703	-0.058783542
111	0xbd59802d	-0.053100754
112	0xbd899d2a	-0.0671943
113	0xbd4636fc	-0.04839228
114	0xbc9dd95a	-0.01926868
115	0xbd80e14c	-0.06292972
116	0xbd106254	-0.035250023
117	0xbd2e0cdb	-0.04249273
118	0xbd9da863	-0.07698133
119	0xbc5083a9	-0.012726703
120	0x00000000	0.0
121	0xbd406408	-0.046970397
122	0xbd2cb235	-0.04216214
123	0xbd868fad	-0.06570373
124	0xbd1cc33e	-0.038272135
125	0xbd377c59	-0.04479632
126	0xbc591797	-0.013250253
127	0xbcbf72bb	-0.023370137

actor_fc_layers.blocks.0.block.1.running_mean f4 [128]
0	0x00000000	0.0
1	0x00000000	0.0
2	0x00000000	0.0
3	0x00000000	0.0
4	0x00000000	0.0
5	0x00000000	0.0
6	0x00000000	0.0
7	0x00000000	0.0
8	0x00000000	0.0
9	0x00000000	0.0
10	0x00000000	0.0
11	0x00000000	0.0
12	0x00000000	0.0
13	0x00000000	0.0
14	0x00000000	0.0
15	0x00000000	0.0
16	0x00000000	0.0
17	0x00000000	0.0
18	0x00000000	0.0
19	0x00000000	0.0
20	0x00000000	0.0
21	0x00000000	0.0
22	0x00000000	0.0
23	0x00000000	0.0
24	0x00000000	0.0
25	0x00000000	0.0
26	0x00000000	0.0
27	0x00000000	0.0
28	0x00000000	0.0
29	0x00000000	0.0
30	0x00000000	0.0
31	0x00000000	0.0
32	0x00000000	0.0
33	0x00000000	0.0
34	0x00000000	0.0
35	0x00000000	0.0
36	0x00000000	0.0
37	0x00000000	0.0
38	0x00000000	0.0
39	0x00000000	0.0
40	0x00000000	0.0
41	0x00000000	0.0
42	0x00000000	0.0
43	0x00000000	0.0
44	0x00000000	0.0
45	0x00000000	0.0
46	0x00000000	0.0
47	0x00000000	0.0
48	0x00000000	0.0
49	0x00000000	0.0
50	0x00000000	0.0
51	0x00000000	0.0
52	0x00000000	0.0
53	0x00000000	0.0
54	0x00000000	0.0
55	0x00000000	0.0
56	0x00000000	0.0
57	0x00000000	0.0
58	0x00000000	0.0
59	0x00000000	0.0
60	0x00000000	0.0
61	0x00000000	0.0
62	0x00000000	0.0
63	0x00000000	0.0
64	0x00000000	0.0
65	0x00000000	0.0
66	0x00000000	0.0
67	0x00000000	0.0
68	0x00000000	0.0
69	0x00000000	0.0
70	0x00000000	0.0
71	0x00000000	0.0
72	0x00000000	0.0
73	0x00000000	0.0
74	0x00000000	0.0
75	0x00000000	0.0
76	0x00000000	0.0
77	0x00000000	0.0
78	0x00000000	0.0
79	0x00000000	0.0
80	0x00000000	0.0
81	0x00000000	0.0
82	0x00000000	0.0
83	0x00000000	0.0
84	0x00000000	0.0
85	0x00000000	0.0
86	0x00000000	0.0
87	0x00000000	0.0
88	0x00000000	0.0
89	0x00000000	0.0
90	0x00000000	0.0
91	0x00000000	0.0
92	0x00000000	0.0
93	0x00000000	0.0
94	0x00000000	0.0
95	0x00000000	0.0
96	0x00000000	0.0
97	0x00000000	0.0
98	0x00000000	0.0
99	0x00000000	0.0
100	0x00000000	0.0
101	0x00000000	0.0
102	0x00000000	0.0
103	0x00000000	0.0
104	0x00000000	0.0
105	0x00000000	0.0
106	0x00000000	0.0
107	0x00000000	0.0
108	0x00000000	0.0
109	0x00000000	0.0
110	0x00000000	0.0
111	0x00000000	0.0
112	0x00000000	0.0
113	0x00000000	0.0
114	0x00000000	0.0
115	0x00000000	0.0
116	0x00000000	0.0
117	0x00000000	0.0
118	0x00000000	0.0
119	0x00000000	0.0
120	0x00000000	0.0
121	0x00000000	0.0
122	0x00000000	0.0
123	0x00000000	0.0
124	0x00000000	0.0
125	0x00000000	0.0
126	0x00000000	0.0
127	0x00000000	0.0

actor_fc_layers.blocks.0.block.1.running_var f4 [128]
0	0x3f800000	1.0
1	0x3f800000	1.0
2	0x3f800000	1.0
3	0x3f800000	1.0
4	0x3f800000	1.0
5	0x3f800000	1.0
6	0x3f800000	1.0
7	0x3f800000	1.0
8	0x3f800000	1.0
9	0x3f800000	1.0
10	0x3f800000	1.0
11	0x3f800000	1.0
12	0x3f800000	1.0
13	0x3f800000	1.0
14	0x3f800000	1.0
15	0x3f800000	1.0
16	0x3f800000	1.0
17	0x3f800000	1.0
18	0x3f800000	1.0
19	0x3f800000	1.0
20	0x3f800000	1.0
21	0x3f800000	1.0
22	0x3f800000	1.0
23	0x3f800000	1.0
24	0x3f800000	1.0
25	0x3f800000	1.0
26	0x3f800000	1.0
27	0x3f800000	1.0
28	0x3f800000	1.0
29	0x3f800000	1.0
30	0x3f800000	1.0
31	0x3f800000	1.0
32	0x3f800000	1.0
33	0x3f800000	1.0
34	0x3f800000	1.0
35	0x3f800000	1.0
36	0x3f800000	1.0
37	0x3f800000	1.0
38	0x3f800000	1.0
39	0x3f800000	1.0
40	0x3f800000	1.0
41	0x3f800000	1.0
42	0x3f800000	1.0
43	0x3f800000	1.0
44	0x3f800000	1.0
45	0x3f800000	1.0
46	0x3f800000	1.0
47	0x3f800000	1.0
48	0x3f800000	1.0
49	0x3f800000	1.0
50	0x3f800000	1.0
51	0x3f800000	1.0
52	0x3f800000	1.0
53	0x3f800000	1.0
54	0x3f800000	1.0
55	0x3f800000	1.0
56	0x3f800000	1.0
57	0x3f800000	1.0
58	0x3f800000	1.0
59	0x3f800000	1.0
60	0x3f800000	1.0
61	0x3f800000	1.0
62	0x3f800000	1.0
63	0x3f800000	1.0
64	0x3f800000	1.0
65	0x3f800000	1.0
66	0x3f800000	1.0
67	0x3f800000	1.0
68	0x3f800000	1.0
69	0x3f800000	1.0
70	0x3f800000	1.0
71	0x3f800000	1.0
72	0x3f800000	1.0
73	0x3f800000	1.0
74	0x3f800000	1.0
75	0x3f800000	1.0
76	0x3f800000	1.0
77	0x3f800000	1.0
78	0x3f800000	1.0
79	0x3f800000	1.0
80	0x3f800000	1.0
81	0x3f800000	1.0
82	0x3f800000	1.0
83	0x3f800000	1.0
84	0x3f800000	1.0
85	0x3f800000	1.0
86	0x3f800000	1.0
87	0x3f800000	1.0
88	0x3f800000	1.0
89	0x3f800000	1.0
90	0x3f800000	1.0
91	0x3f800000	1.0
92	0x3f800000	1.0
93	0x3f800000	1.0
94	0x3f800000	1.0
95	0x3f800000	1.0
96	0x3f800000	1.0
97	0x3f800000	1.0
98	0x3f800000	1.0
99	0x3f800000	1.0
100	0x3f800000	1.0
101	0x3f800000	1.0
102	0x3f800000	1.0
103	0x3f800000	1.0
104	0x3f800000	1.0
105	0x3f800000	1.0
106	0x3f800000	1.0
107	0x3f800000	1.0
108	0x3f800000	1.0
109	0x3f800000	1.0
110	0x3f800000	1.0
111	0x3f800000	1.0
112	0x3f800000	1.0
113	0x3f800000	1.0
114	0x3f800000	1.0
115	0x3f800000	1.0
116	0x3f800000	1.0
117	0x3f800000	1.0
118	0x3f800000	1.0
119	0x3f800000	1.0
120	0x3f800000	1.0
121	0x3f800000	1.0
122	0x3f800000	1.0
123	0x3f800000	1.0
124	0x3f800000	1.0
125	0x3f800000	1.0
126	0x3f800000	1.0
127	0x3f800000	1.0

actor_fc_layers.blocks.1.block.0.weight f4 [128, 128]
0	0x3c141096	0.0090371575
1	0xbda75ef7	-0.0817241
2	0x3d569f27	0.052397873
3	0xbdb30b0a	-0.0874234
4	0x3befcdca	0.007318233
5	0xbcf6cb0f	-0.030126123
6	0xbda3b23c	-0.0799298
7	0xbd8f5cb8	-0.070001066
8	0xbd15b5bd	-0.036550272
9	0xbd226a17	-0.039651956
10	0xbc8e8a97	-0.01740007
11	0x3cd849df	0.026402412
12	0x3d88a7c5	0.066726245
13	0x3d1c15dc	0.038106784
14	0x3d222d30	0.039593875
15	0xbd2bf61d	-0.04198276
16	0xbd948127	-0.07251196
17	0x3c8abc60	0.016935527
18	0xbc8c83b8	-0.017152652
19	0x3c3ebfdf	0.011642425
20	0xbd812a0c	-0.06306848
21	0x3c24e5d5	0.010064562
22	0x3d9bad96	0.07601468
23	0xbbfcd07f	-0.0077152844
24	0xbd8a7450	-0.06760466
25	0xbcfafa38	-0.030636892
26	0xbdcbd958	-0.099535644
27	0x3d422a19	0.04740343
28	0xbccd83a2	-0.025087181
29	0x3c169787	0.0091914
30	0x3cbfa870	0.023395747
31	0x3cda4bad	0.026647413
32	0x3db069f0	0.08613956
33	0xbdbe8c07	-0.09304052
34	0xbdb14745	-0.08656172
35	0x3d18add4	0.03727515
36	0xbd395c0d	-0.045253802
37	0x3d7af516	0.06126889
38	0x3d11993e	0.035546534
39	0x3d8f4acb	0.069966875
40	0x3db33318	0.0874998
41	0xbc68607b	-0.014183159
42	0xbd2fad59	-0.042889927
43	0xbda6bf0b	-0.08141907
44	0xbcd76f0a	-0.026298065
45	0x3d086509	0.03329948
46	0x3c60c36d	0.013718468
47	0xbd6d7f05	-0.057982463
48	0x3d25cc5a	0.040478088
49	0xbccfacd6	-0.02535097
50	0x3caefee6	0.02136178
51	0x3b4604a9	0.003021518
52	0xbd1f9748	-0.038962632
53	0xbcc2a4ca	-0.023760218
54	0x3d5262f9	0.05136392
55	0xbce89f99	-0.028396415
56	0xbc9fc8b7	-0.019504888
57	0xbc664474	-0.014054406
58	0xbb9b675d	-0.0047425465
59	0x3d86c2db	0.065801345
60	0x3d67a83e	0.056556933
61	0x3dabbc35	0.08385507
62	0xbb986254	-0.0046503935
63	0xbdbe2732	-0.0928482
64	0x3d22c14c	0.039735124
65	0xbbd87f82	-0.006606997
66	0x3d527762	0.051383384
67	0x3cae2749	0.021258967
68	0x38294502	4.035701e-05
69	0xbcde936a	-0.027169902
70	0xbcd12e45	-0.025534758
71	0xbce70b95	-0.028203765
72	0xbcb5315c	-0.022118263
73	0x3d14e0e1	0.036347274
74	0xbd5a7fdb	-0.05334459
75	0x3da52e8f	0.08065521
76	0xbc3c7c2d	-0.011504215
77	0x3d6bd16e	0.057572775
78	0xbceec154	-0.02914492
79	0x3d326fe7	0.04356375
80	0x3d18fbc7	0.03734949
81	0x3db0fd34	0.08642045
82	0xbaa22a2d	-0.0012372189
83	0xbd8e0f08	-0.06936461
84	0xbd3175e9	-0.04332534
85	0xbcc44df0	-0.023962945
86	0xbc23cc0d	-0.00999738
87	0x3c1c953d	0.009557066
88	0xbc8c84b3	-0.01715312
89	0xbcff115a	-0.031136204
90	0xbc101369	-0.00879369
91	0xbd886561	-0.066599615
92	0x3d7b5de4	0.061368838
93	0xbd1e301d	-0.038620103
94	0x3d35b2f4	0.044360116
95	0xbd02905c	-0.031875953
96	0xbdbc548a	-0.09195812
97	0xbd283b14	-0.041071966
98	0xbd9f1f4e	-0.07769643
99	0x3d608bfc	0.054821
100	0x3d7499f3	0.05971713
101	0x3d96a834	0.07356301
102	0x3da99dd5	0.08282057
103	0x3c83c041	0.016082885
104	0xbd88e7ab	-0.06684812
105	0xbbc039eb	-0.0058662794
106	0x3ce3e86a	0.027820785
107	0xbdc80a82	-0.09767629
108	0xbd651911	-0.05593211
109	0x3d477ffe	0.048706047
110	0xbdc6b527	-0.09702521
111	0xbd9e4ca1	-0.077294596
112	0xbd1f0cbd	-0.038830508
113	0xbd9a088e	-0.07521163
114	0xbdba5173	-0.090975665
115	0x3d82d2b3	0.06387844
116	0x3c9eacb3	0.019369459
117	0xbb55729d	-0.0032569536
118	0xbc57f421	-0.013180763
119	0xbda1b486	-0.0789576
120	0xbd7ebbd7	-0.062190857
121	0xbd76161e	-0.060079686
122	0x3d2d1080	0.042252064
123	0xbd9cedac	-0.0766252
124	0x3b51feb6	0.0032042689
125	0xbdb7c8ac	-0.08973822
126	0x3d5ea077	0.05435225
127	0xbd9512a8	-0.07278949
128	0x3d4c4d95	0.049878675
129	0x3dc88731	0.09791411
130	0xbc8bfcfc	-0.017088406
131	0x3d926d52	0.071497574
132	0xbd19ed46	-0.037579797
133	0xbe2a928a	-0.16657463
134	0x3d96384e	0.07334958
135	0x3c82c781	0.015964272
136	0xbe20f69b	-0.15719073
137	0x3da4fdc5	0.08056215
138	0x3c568847	0.0130940145
139	0xbcc6c291	-0.024262698
140	0xbbe61f37	-0.007022764
141	0x3c8947e1	0.016757907
142	0x3e17871e	0.14797637
143	0x3d3a3b89	0.045466933
144	0x3d118f82	0.03553725
145	0x3dabfc8a	0.083977774
146	0x3e00d5f3	0.12581615
147	0xbd8117e8	-0.06303388
148	0x3d96c46a	0.07361682
149	0xbc9471aa	-0.018120605
150	0xbba5de33	-0.0050618886
151	0x3c6a1071	0.0142861465
152	0xbcbafcac	-0.022825561
153	0x3ab8f32a	0.0014110554
154	0x3db6170a	0.08891113
155	0x3cd31fb1	0.025771948
156	0xbcb38f05	-0.021918783
157	0xbaed25d6	-0.0018092941
158	0x3b48db2a	0.003064821
159	0x3de450e2	0.1114824
160	0xbd6a7fcd	-0.057250787
161	0x3cf5f820	0.030025542
162	0x3d868367	0.06568032
163	0xbcaf6a3c	-0.021412961
164	0x3c0b692e	0.0085089635
165	0x3ce0cf04	0.027442463
166	0x3c9d5af3	0.019208407
167	0x3cf405c7	0.029787911
168	0x3df2106c	0.118195385
169	0x3d9897d4	0.07450834
170	0xbb972638	-0.0046127103
171	0x3d99d301	0.07510949
172	0x3e0324a2	0.12806943
173	0x3c5e434f	0.013565852
174	0x3d8c6358	0.06854886
175	0x3ce8ea7a	0.02843212
176	0x3db2022f	0.08691823
177	0xbc3d4996	-0.011553189
178	0x3d855b58	0.06511563
179	0x3d1e159c	0.038594827
180	0xbd51fe99	-0.051268194
181	0x3da8daa4	0.082448274
182	0x3da39967	0.079882436
183	0x3d133f2c	0.035948917
184	0xbcefb368	-0.029260352
185	0x3e026f45	0.12737758
186	0x3c85c6b3	0.016330099
187	0x3c0af9a6	0.008482372
188	0x3ccb0620	0.024783194
189	0x3d481908	0.048851997
190	0x3d6e18f9	0.058129285
191	0x3e0ccdd9	0.137504
192	0x3dd3ff11	0.103513844
193	0x3de0e057	0.109802894
194	0xbc847470	-0.016168803
195	0x3b6ec4c0	0.003643319
196	0x3c1f3350	0.009716824
197	0x3d33c9ff	0.04389381
198	0x3e015a02	0.12631992
199	0x3cb31b84	0.021863706
200	0x3cbd9e7e	0.023146864
201	0x3cb54cd5	0.022131363
202	0x3cee3ad1	0.02908078
203	0x3a0eadee	0.00054427877
204	0xbca7590b	-0.020428201
205	0x3db9ac6d	0.09066091
206	0x3c63b3ef	0.01389788
207	0x3d05729a	0.032579996
208	0xbc6afa00	-0.014341831
209	0x3d3e2e5f	0.04643094
210	0x3d026593	0.03183515
211	0x3d2ec354	0.04266675
212	0x3d9a56ef	0.075361125
213	0xbd16c618	-0.03681001
214	0x3d5e6a0d	0.054300357
215	0x3e136d39	0.14397134
216	0x3d839252	0.06424393
217	0x3d6169e9	0.055032644
218	0x3cfb1dd4	0.030653872
219	0xbc6cc093	-0.01445021
220	0x3d8ebbfb	0.06969448
221	0x3d410433	0.047123145
222	0x3d8f6352	0.07001366
223	0xbd724743	-0.05914999
224	0x3dae8fbe	0.085235104
225	0x3d7e0316	0.06201466
226	0x3d0e6c66	0.034771346
227	0x3d2f331a	0.042773344
228	0x3e0c0d92	0.13677052
229	0x3da1a7eb	0.07893356
230	0x3d8c8c05	0.06862644
231	0xbd45adf8	-0.048261613
232	0xbcad7be7	-0.021177245
233	0x3ceccf86	0.028907549
234	0x3ce71d96	0.02821235
235	0x3da94470	0.082650065
236	0x3ca3c722	0.019992415
237	0x3d903e8c	0.0704318
238	0xbcd7e786	-0.026355516
239	0xbb8fec92	-0.004392215
240	0x3d6cec27	0.0578424
241	0x3d0ad4ea	0.033894457
242	0x3e3f6af2	0.1869314
243	0x3cc36625	0.023852417
244	0x3d1be5ff	0.03806114
245	0x3d74d2ba	0.059771277
246	0xbcac2606	-0.021014225
247	0x3c5958f1	0.013265834
248	0x3d86a48d	0.06574354
249	0xbbcb23b4	-0.0061993245
250	0x3daa2e73	0.08309641
251	0x3dc76dbe	0.097377285
252	0xbd628ec4	-0.055311933
253	0xbd28a415	-0.041172106
254	0x3ca348e1	0.019932212
255	0x3d5e78e5	0.054314513

actor_fc_layers.blocks.1.block.1.weight f4 [128]
0	0x3f805c7f	1.0028228
1	0x3f84b8c5	1.0368887
2	0x3f829251	1.0200902
3	0x3f83d90c	1.0300612
4	0x3f79a791	0.9752131
5	0x3f7df14e	0.99196327
6	0x3f7e7293	0.99393576
7	0x3f796230	0.9741545
8	0x3f7db03b	0.9909703
9	0x3f7ddc2f	0.991641
10	0x3f804e50	1.0023899
11	0x3f7f7d8f	0.9980096
12	0x3f7a7f9b	0.9785096
13	0x3f7b8174	0.98244405
14	0x3f7e23e8	0.9927354
15	0x3f82484e	1.0178316
16	0x3f7a82cf	0.9785585
17	0x3f7db93d	0.99110776
18	0x3f803f05	1.0019232
19	0x3f7d4679	0.9893566
20	0x3f7ab6a2	0.97934926
21	0x3f7e8c48	0.994328
22	0x3f81ce5b	1.01411
23	0x3f7c8caf	0.98652166
24	0x3f7c3c65	0.98529655
25	0x3f7bbb43	0.98332614
26	0x3f78ff58	0.97264624
27	0x3f7ab7a9	0.97936493
28	0x3f7771b3	0.96657866
29	0x3f808bf9	1.0042716
30	0x3f7fa650	0.9986315
31	0x3f7e5aed	0.9935749
32	0x3f7c76f6	0.9861902
33	0x3f7da8b3	0.9908554
34	0x3f7b7e15	0.9823926
35	0x3f7e8530	0.9942198
36	0x3f803a9e	1.0017889
37	0x3f8017c6	1.0007255
38	0x3f7e8088	0.99414873
39	0x3f82781e	1.0192907
40	0x3f80bf29	1.0058337
41	0x3f7bfe18	0.9843459
42	0x3f81cc3e	1.0140455
43	0x3f7c0f84	0.98461175
44	0x3f7be3e7	0.98394626
45	0x3f7fd0ef	0.9992818
46	0x3f7c67f4	0.9859612
47	0x3f843bf3	1.0330795
48	0x3f7a326f	0.97733206
49	0x3f7e52a7	0.9934487
50	0x3f7bfee3	0.984358
51	0x3f8040bb	1.0019754
52	0x3f808c9a	1.0042908
53	0x3f7b409d	0.9814547
54	0x3f847bfe	1.035034
55	0x3f7f4ea0	0.9972935
56	0x3f7a74a2	0.9783422
57	0x3f7f7fb9	0.99804264
58	0x3f81ce99	1.0141174
59	0x3f7bd579	0.9837261
60	0x3f7b4b9e	0.9816226
61	0x3f7cf22e	0.98807037
62	0x3f7d1110	0.9885416
63	0x3f7344b6	0.9502672
64	0x3f8206c5	1.0158316
65	0x3f7cb00f	0.98706144
66	0x3f7f5fd3	0.9975559
67	0x3f7abf19	0.9794784
68	0x3f7a80a4	0.9785254
69	0x3f771c05	0.9652713
70	0x3f7d8eb4	0.9904587
71	0x3f7cb3fc	0.98712134
72	0x3f7f2905	0.99671966
73	0x3f802084	1.0009923
74	0x3f7d753d	0.99007016
75	0x3f7c9044	0.9865763
76	0x3f810087	1.0078286
77	0x3f7dd919	0.9915939
78	0x3f789c8b	0.97113866
79	0x3f757cc2	0.9589349
80	0x3f8028b3	1.001242
81	0x3f7ef8c0	0.9959831
82	0x3f7d6c40	0.989933
83	0x3f8063d8	1.003047
84	0x3f7eb016	0.99487436
85	0x3f7980c0	0.9746208
86	0x3f8268ab	1.0188192
87	0x3f818445	1.011849
88	0x3f8099c8	1.004693
89	0x3f7dc211	0.99124247
90	0x3f87424e	1.056711
91	0x3f832a10	1.0247211
92	0x3f7e60d9	0.9936653
93	0x3f7fed45	0.9997142
94	0x3f7a97c7	0.97887844
95	0x3f806ff7	1.0034169
96	0x3f818e74	1.0121598
97	0x3f7e6c35	0.9938386
98	0x3f7d710e	0.9900063
99	0x3f7f70cb	0.99781483
100	0x3f802fea	1.0014622
101	0x3f795d02	0.97407544
102	0x3f7d9a32	0.9906341
103	0x3f7b9ef0	0.98289394
104	0x3f7eb389	0.994927
105	0x3f7e4346	0.993214
106	0x3f7c4853	0.9854786
107	0x3f802546	1.0011375
108	0x3f7de199	0.9917236
109	0x3f7c8e4b	0.9865462
110	0x3f7faaee	0.99870193
111	0x3f82836c	1.0196357
112	0x3f7f3a64	0.9969847
113	0x3f7850bb	0.96998185
114	0x3f7f2bc9	0.99676186
115	0x3f7c7f82	0.9863206
116	0x3f7ec23f	0.99515146
117	0x3f7e39ea	0.9930712
118	0x3f7cdf66	0.9877838
119	0x3f7e43bd	0.9932211
120	0x3f7d854a	0.9903151
121	0x3f8075d8	1.0035963
122	0x3f7e3423	0.99298304
123	0x3f80c755	1.0060831
124	0x3f880d1d	1.0629002
125	0x3f83ad68	1.0287294
126	0x3f7fbb68	0.99895334
127	0x3f78cac5	0.971844

actor_fc_layers.blocks.1.block.1.bias f4 [128]
0	0xbc9234d1	-0.01784745
1	0x3dba5156	0.09097545
2	0x3d2c900a	0.042129554
3	0x3d72e55e	0.059300773
4	0x3af2f836	0.0018537107
5	0xbbabce32	-0.0052430863
6	0xbc8daccf	-0.017294316
7	0xbd0993d7	-0.033588257
8	0xbcba62ae	-0.022752132
9	0xbc334e64	-0.010943983
10	0xbcd00249	-0.025391715
11	0x3cbed3da	0.023294378
12	0xbc237679	-0.009976977
13	0xbc53ec39	-0.012934738
14	0xbac3a072	-0.0014925136
15	0x3c4e34e5	0.012585853
16	0xbc9fe1ae	-0.019516792
17	0xbcff1c53	-0.031141436
18	0xbc87b05d	-0.016563589
19	0x3ab1ebd2	0.0013574308
20	0xbc9fbaa7	-0.019498182
21	0xbbde5638	-0.0067851804
22	0x3c6e8558	0.014558159
23	0xbca2e985	-0.019886741
24	0x3c659770	0.014013156
25	0x3bd6912d	0.006548068
26	0xbbe69113	-0.007036337
27	0xbc80902d	-0.015693748
28	0xbcfcd747	-0.030864371
29	0xbc64ad79	-0.013957375
30	0xbb5422b8	-0.0032369327
31	0xbc0ccc1f	-0.008593588
32	0xbad05f48	-0.0015897537
33	0xbb3c7be1	-0.002876036
34	0xbcb7396b	-0.022366246
35	0xbc5b8af5	-0.013399829
36	0x3c0cb4fd	0.008588073
37	0xbc70b6cb	-0.014692019
38	0xbcc7c2dc	-0.024384908
39	0x39882f5a	0.0002597522
40	0xbc44be51	-0.012008266
41	0xbb9369ff	-0.0044987197
42	0xbca52c60	-0.020162761
43	0xbc7e2211	-0.015511052
44	0xbca6d57c	-0.02036547
45	0x3d140750	0.036139786
46	0xbc67c8e6	-0.014147019
47	0x3da5a554	0.080881745
48	0xbc0e58d1	-0.008688168
49	0x3ad7ff59	0.0016479298
50	0x3b18ecff	0.002333462
51	0x3cf61427	0.030038906
52	0x3c8a5534	0.016886331
53	0xbd1925fa	-0.037389733
54	0x3dd4b741	0.103865154
55	0x3db50954	0.0883967
56	0xbcd7d93e	-0.026348706
57	0xbbb8281f	-0.005620017
58	0x3d871fb2	0.06597842
59	0x3c9f0065	0.019409368
60	0x3afb8843	0.001919039
61	0x3d4118dd	0.047142852
62	0xbc9c4a95	-0.019078532
63	0xbc229307	-0.009922749
64	0x3d5e162a	0.054220356
65	0xbc43829e	-0.011932997
66	0xbc89719b	-0.016777804
67	0xbd1812d5	-0.037127335
68	0xbc4da485	-0.012551432
69	0x3aaeb5fa	0.001332938
70	0xbc79abe8	-0.01523874
71	0xbbda6fa6	-0.0066661416
72	0xbcbd267d	-0.023089642
73	0x3bb1d9b1	0.005427562
74	0xbc46ac36	-0.012126019
75	0x3c378138	0.011200242
76	0xbc4a8229	-0.012360134
77	0xbb908ad1	-0.0044110795
78	0xbceb5bf1	-0.028730365
79	0xbc8dd47d	-0.017313236
80	0xbc238e5a	-0.00998267
81	0x3ccde984	0.025135763
82	0xbc447092	-0.0119897295
83	0x3b39663d	0.0028289699
84	0xbbbae591	-0.005703636
85	0xbcb523a2	-0.022111718
86	0xbb39ef3f	-0.0028371362
87	0x3c57a5ea	0.013162116
88	0x3cbdce13	0.023169553
89	0xbca4d826	-0.020122599
90	0x3dae56be	0.085126385
91	0x3d176f7e	0.03697156
92	0xbb73cb99	-0.003720021
93	0x3d787ee2	0.06066788
94	0xbc70771b	-0.014676834
95	0xbd14691e	-0.03623306
96	0xbcb20bd3	-0.021734154
97	0xbb77600f	-0.0037746464
98	0x3aeeb675	0.0018212335
99	0x3cfef542	0.031122807
100	0x3c34fffc	0.01104736
101	0xbb840fb1	-0.004030191
102	0xbc540f04	-0.012943033
103	0xbb3f3d28	-0.002918074
104	0xbcdc4ce0	-0.026892126
105	0xbc9b2524	-0.018938608
106	0xbc774d03	-0.015094045
107	0x3cde7db3	0.027159547
108	0xbcb09ea5	-0.021560023
109	0x3d7964de	0.06088721
110	0xbc82e331	-0.015977474
111	0xbc64d053	-0.013965684
112	0xbb9c9fd7	-0.0047797966
113	0xbc8285a0	-0.015932858
114	0xbd11e76c	-0.03562109
115	0xbced0e8f	-0.028937606
116	0xbcf50618	-0.029910132
117	0xbcac7229	-0.02105053
118	0x3c0a73cb	0.008450459
119	0xbc7a146a	-0.015263656
120	0xbc3ae8af	-0.011408015
121	0xbccbeac3	-0.024892217
122	0xbbbd5e5d	-0.0057790712
123	0xbc9db21f	-0.019249974
124	0x3de47eba	0.11156984
125	0x3d940a2b	0.07228502
126	0x3ba0053c	0.0048834365
127	0xbcb54edc	-0.02213233

actor_fc_layers.blocks.1.block.1.running_mean f4 [128]
0	0x00000000	0.0
1	0x00000000	0.0
2	0x00000000	0.0
3	0x00000000	0.0
4	0x00000000	0.0
5	0x00000000	0.0
6	0x00000000	0.0
7	0x00000000	0.0
8	0x00000000	0.0
9	0x00000000	0.0
10	0x00000000	0.0
11	0x00000000	0.0
12	0x00000000	0.0
13	0x00000000	0.0
14	0x00000000	0.0
15	0x00000000	0.0
16	0x00000000	0.0
17	0x00000000	0.0
18	0x00000000	0.0
19	0x00000000	0.0
20	0x00000000	0.0
21	0x00000000	0.0
22	0x00000000	0.0
23	0x00000000	0.0
24	0x00000000	0.0
25	0x00000000	0.0
26	0x00000000	0.0
27	0x00000000	0.0
28	0x00000000	0.0
29	0x00000000	0.0
30	0x00000000	0.0
31	0x00000000	0.0
32	0x00000000	0.0
33	0x00000000	0.0
34	0x00000000	0.0
35	0x00000000	0.0
36	0x00000000	0.0
37	0x00000000	0.0
38	0x00000000	0.0
39	0x00000000	0.0
40	0x00000000	0.0
41	0x00000000	0.0
42	0x00000000	0.0
43	0x00000000	0.0
44	0x00000000	0.0
45	0x00000000	0.0
46	0x00000000	0.0
47	0x00000000	0.0
48	0x00000000	0.0
49	0x00000000	0.0
50	0x00000000	0.0
51	0x00000000	0.0
52	0x00000000	0.0
53	0x00000000	0.0
54	0x00000000	0.0
55	0x00000000	0.0
56	0x00000000	0.0
57	0x00000000	0.0
58	0x00000000	0.0
59	0x00000000	0.0
60	0x00000000	0.0
61	0x00000000	0.0
62	0x00000000	0.0
63	0x00000000	0.0
64	0x00000000	0.0
65	0x00000000	0.0
66	0x00000000	0.0
67	0x00000000	0.0
68	0x00000000	0.0
69	0x00000000	0.0
70	0x00000000	0.0
71	0x00000000	0.0
72	0x00000000	0.0
73	0x00000000	0.0
74	0x00000000	0.0
75	0x00000000	0.0
76	0x00000000	0.0
77	0x00000000	0.0
78	0x00000000	0.0
79	0x00000000	0.0
80	0x00000000	0.0
81	0x00000000	0.0
82	0x00000000	0.0
83	0x00000000	0.0
84	0x00000000	0.0
85	0x00000000	0.0
86	0x00000000	0.0
87	0x00000000	0.0
88	0x00000000	0.0
89	0x00000000	0.0
90	0x00000000	0.0
91	0x00000000	0.0
92	0x00000000	0.0
93	0x00000000	0.0
94	0x00000000	0.0
95	0x00000000	0.0
96	0x00000000	0.0
97	0x00000000	0.0
98	0x00000000	0.0
99	0x00000000	0.0
100	0x00000000	0.0
101	0x00000000	0.0
102	0x00000000	0.0
103	0x00000000	0.0
104	0x00000000	0.0
105	0x00000000	0.0
106	0x00000000	0.0
107	0x00000000	0.0
108	0x00000000	0.0
109	0x00000000	0.0
110	0x00000000	0.0
111	0x00000000	0.0
112	0x00000000	0.0
113	0x00000000	0.0
114	0x00000000	0.0
115	0x00000000	0.0
116	0x00000000	0.0
117	0x00000000	0.0
118	0x00000000	0.0
119	0x00000000	0.0
120	0x00000000	0.0
121	0x00000000	0.0
122	0x00000000	0.0
123	0x00000000	0.0
124	0x00000000	0.0
125	0x00000000	0.0
126	0x00000000	0.0
127	0x00000000	0.0

actor_fc_layers.blocks.1.block.1.running_var f4 [128]
0	0x3f800000	1.0
1	0x3f800000	1.0
2	0x3f800000	1.0
3	0x3f800000	1.0
4	0x3f800000	1.0
5	0x3f800000	1.0
6	0x3f800000	1.0
7	0x3f800000	1.0
8	0x3f800000	1.0
9	0x3f800000	1.0
10	0x3f800000	1.0
11	0x3f800000	1.0
12	0x3f800000	1.0
13	0x3f800000	1.0
14	0x3f800000	1.0
15	0x3f800000	1.0
16	0x3f800000	1.0
17	0x3f800000	1.0
18	0x3f800000	1.0
19	0x3f800000	1.0
20	0x3f800000	1.0
21	0x3f800000	1.0
22	0x3f800000	1.0
23	0x3f800000	1.0
24	0x3f800000	1.0
25	0x3f800000	1.0
26	0x3f800000	1.0
27	0x3f800000	1.0
28	0x3f800000	1.0
29	0x3f800000	1.0
30	0x3f800000	1.0
31	0x3f800000	1.0
32	0x3f800000	1.0
33	0x3f800000	1.0
34	0x3f800000	1.0
35	0x3f800000	1.0
36	0x3f800000	1.0
37	0x3f800000	1.0
38	0x3f800000	1.0
39	0x3f800000	1.0
40	0x3f800000	1.0
41	0x3f800000	1.0
42	0x3f800000	1.0
43	0x3f800000	1.0
44	0x3f800000	1.0
45	0x3f800000	1.0
46	0x3f800000	1.0
47	0x3f800000	1.0
48	0x3f800000	1.0
49	0x3f800000	1.0
50	0x3f800000	1.0
51	0x3f800000	1.0
52	0x3f800000	1.0
53	0x3f800000	1.0
54	0x3f800000	1.0
55	0x3f800000	1.0
56	0x3f800000	1.0
57	0x3f800000	1.0
58	0x3f800000	1.0
59	0x3f800000	1.0
60	0x3f800000	1.0
61	0x3f800000	1.0
62	0x3f800000	1.0
63	0x3f800000	1.0
64	0x3f800000	1.0
65	0x3f800000	1.0
66	0x3f800000	1.0
67	0x3f800000	1.0
68	0x3f800000	1.0
69	0x3f800000	1.0
70	0x3f800000	1.0
71	0x3f800000	1.0
72	0x3f800000	1.0
73	0x3f800000	1.0
74	0x3f800000	1.0
75	0x3f800000	1.0
76	0x3f800000	1.0
77	0x3f800000	1.0
78	0x3f800000	1.0
79	0x3f800000	1.0
80	0x3f800000	1.0
81	0x3f800000	1.0
82	0x3f800000	1.0
83	0x3f800000	1.0
84	0x3f800000	1.0
85	0x3f800000	1.0
86	0x3f800000	1.0
87	0x3f800000	1.0
88	0x3f800000	1.0
89	0x3f800000	1.0
90	0x3f800000	1.0
91	0x3f800000	1.0
92	0x3f800000	1.0
93	0x3f800000	1.0
94	0x3f800000	1.0
95	0x3f800000	1.0
96	0x3f800000	1.0
97	0x3f800000	1.0
98	0x3f800000	1.0
99	0x3f800000	1.0
100	0x3f800000	1.0
101	0x3f800000	1.0
102	0x3f800000	1.0
103	0x3f800000	1.0
104	0x3f800000	1.0
105	0x3f800000	1.0
106	0x3f800000	1.0
107	0x3f800000	1.0
108	0x3f800000	1.0
109	0x3f800000	1.0
110	0x3f800000	1.0
111	0x3f800000	1.0
112	0x3f800000	1.0
113	0x3f800000	1.0
114	0x3f800000	1.0
115	0x3f800000	1.0
116	0x3f800000	1.0
117	0x3f800000	1.0
118	0x3f800000	1.0
119	0x3f800000	1.0
120	0x3f800000	1.0
121	0x3f800000	1.0
122	0x3f800000	1.0
123	0x3f800000	1.0
124	0x3f800000	1.0
125	0x3f800000	1.0
126	0x3f800000	1.0
127	0x3f800000	1.0

actor_fc_layers.blocks.2.block.0.weight f4 [128, 128]
0	0xbd513db7	-0.051084246
1	0xbdadff8e	-0.08496009
2	0xbcef85cd	-0.029238606
3	0x3d80d300	0.06290245
4	0x3bb92982	0.0056507
5	0xbd44f983	-0.048089515
6	0xbdc06fac	-0.093963
7	0x3d169174	0.03675981
8	0x3a8987d4	0.001049275
9	0xbbb797e0	-0.0056028217
10	0xbdafb435	-0.08579294
11	0x3ba7d9df	0.005122408
12	0xbd3ff98a	-0.04686884
13	0xbbbc0639	-0.0057380465
14	0xbd0b9aab	-0.03408305
15	0xbd61445c	-0.054996833
16	0x3d2e2e3d	0.042524565
17	0xbdb76d94	-0.08956447
18	0xbdd37c51	-0.10326446
19	0xbdb34cdf	-0.087548964
20	0x3d784f24	0.06062235
21	0x3d557e36	0.052122317
22	0xbd89b040	-0.0672307
23	0xbc7269bc	-0.014795717
24	0xbc66e32d	-0.014092249
25	0x3d3d7e63	0.04626311
26	0xbda8a696	-0.08234899
27	0x3c26d72c	0.010183137
28	0xbdbc1408	-0.09183508
29	0x3d26c35f	0.040713664
30	0x3d45ab42	0.048259027
31	0x3d9d60aa	0.07684453
32	0xbc8f9265	-0.017525861
33	0x3d89b99c	0.06724855
34	0xbd851f56	-0.065001175
35	0xbcfb5d4f	-0.030684141
36	0xbc62c49e	-0.0138408225
37	0x3c473516	0.012158653
38	0xbd851f14	-0.06500068
39	0xbdb5fd7b	-0.08886238
40	0xbddbff9f	-0.10742115
41	0xbd69a102	-0.057038315
42	0x3d8baa92	0.06819643
43	0x3c07fbeb	0.008299808
44	0xbcfa7561	-0.030573549
45	0xbc75775a	-0.014982069
46	0xbd315d19	-0.043301675
47	0xbd0cac18	-0.03434381
48	0xbd8e62ca	-0.06952436
49	0x3d6e8d5e	0.058240287
50	0x3d2ad3ff	0.04170608
51	0xbd231882	-0.039818294
52	0x3d0ab21e	0.033861272
53	0x3cbe36a6	0.023219418
54	0xbd7b7f2a	-0.06140057
55	0x3d1995f8	0.037496537
56	0xbcf91492	-0.030405317
57	0x3d8cc92e	0.068743095
58	0x3d90fc41	0.070793636
59	0x3d2f29cd	0.042764474
60	0xbd39e0e1	-0.045380477
61	0xbdab74f5	-0.08371917
62	0x3cc11496	0.023569386
63	0x3c7bb298	0.015362404
64	0xbd6f7aa2	-0.05846656
65	0xbd5e9ae1	-0.054346923
66	0x3d4c0fec	0.04981987
67	0x3d489ec3	0.048979532
68	0x3da6e490	0.081490636
69	0x3d7a09bd	0.061044443
70	0xbd65c211	-0.05609328
71	0xbd31c5fb	-0.0434017
72	0xbdb24ff7	-0.08706658
73	0x3d4b11c3	0.049577486
74	0x3d8420da	0.064515784
75	0xbbbd6120	-0.0057794005
76	0xbda627fd	-0.08113096
77	0x3d0c2af6	0.03422066
78	0x3d9955b3	0.07487049
79	0x3d05344f	0.03252059
80	0x3d0959cc	0.033532903
81	0xbd33422e	-0.043764286
82	0x3d8010d6	0.06253211
83	0xbc7b645e	-0.015343754
84	0xbcbc392a	-0.022976477
85	0xbc3db071	-0.011577711
86	0xbdc600c4	-0.09668115
87	0xbd27107d	-0.04078721
88	0x3d8fcb4c	0.07021198
89	0xbcf82b0e	-0.030293968
90	0x3b8738e5	0.0041266554
91	0xbc13730c	-0.008999597
92	0xbd496b02	-0.049174316
93	0x3a90284f	0.0010998341
94	0xbcb9cb25	-0.022679875
95	0x3d4b6dd2	0.04966528
96	0xbd385c8d	-0.04501014
97	0x3d06b612	0.03288848
98	0x3c1d7992	0.009611504
99	0xbc35ea28	-0.0111031905
100	0x3d8e721d	0.06955359
101	0xbcf95028	-0.03043373
102	0xbcc80a89	-0.024419086
103	0x3d394937	0.04523584
104	0x3caa8331	0.02081451
105	0x3d611a72	0.05495686
106	0x3d9a9d24	0.075495034
107	0xbd312d67	-0.04325619
108	0xbd55f1ce	-0.052232556
109	0x3d2f8791	0.042853896
110	0xbae24fbc	-0.0017266194
111	0xbd3e9261	-0.046526317
112	0xbd137fe1	-0.036010627
113	0xbd83a740	-0.06428385
114	0xbd06f384	-0.03294708
115	0xbd87e912	-0.066362515
116	0xbd248c0f	-0.040172633
117	0x3cafd58b	0.02146413
118	0x3d94625b	0.07245322
119	0xbd252e32	-0.04032726
120	0x3d05aa51	0.03263313
121	0xbd1c996e	-0.03823226
122	0x3ca0bd2d	0.019621456
123	0x3bc9f668	0.006163407
124	0x3d682ff3	0.056686353
125	0xbd7afd7d	-0.0612769
126	0x3d441025	0.04786696
127	0xbdac4875	-0.084122576
128	0x3b87a5a5	0.0041396194
129	0xbd49d18f	-0.049272116
130	0x3e012264	0.12610775
131	0x3d5e09e8	0.054208666
132	0x3d8cc4d1	0.06873477
133	0xbd580716	-0.052741133
134	0xbc64828f	-0.013947143
135	0x3cdb57e1	0.026775302
136	0x3e010ad1	0.12601782
137	0x3c7f4ccb	0.015582274
138	0xbc5b0028	-0.0133667365
139	0x3deb6388	0.114935935
140	0x3d951402	0.07279207
141	0xbd46ab6b	-0.04850332
142	0xbb406a59	-0.0029360263
143	0x3de611d2	0.11233868
144	0x3c8d0f35	0.017219165
145	0xbc948412	-0.018129382
146	0x3d5209e9	0.051278982
147	0xbc744e7c	-0.01491129
148	0x3c45af60	0.012065738
149	0x3c80a18d	0.015702033
150	0x3cf24df3	0.029578185
151	0x3d9a5d28	0.075372994
152	0x3d7054af	0.05867451
153	0xbd4cdf84	-0.05001785
154	0x3d2c8cfe	0.042126648
155	0x3c27d5a4	0.010243807
156	0x3da484fc	0.08033177
157	0xbc253257	-0.010082803
158	0x3cb85df3	0.022505736
159	0xbd18995c	-0.03725563
160	0x3d662842	0.056190737
161	0xbc67900c	-0.014133465
162	0x3de3941e	0.111122355
163	0xbadbcd12	-0.001676949
164	0x3e06dbf5	0.13169844
165	0x3cf3771f	0.029719887
166	0xbb193fd6	-0.0023383996
167	0x3d49a119	0.0492259
168	0x3df0fb13	0.117666386
169	0x3d8348da	0.0641038
170	0x3d1bfb5d	0.038081516
171	0xbb20f522	-0.0024560173
172	0x3c927d82	0.017882112
173	0xbca59c9f	-0.020216284
174	0x3d8b6e01	0.06808091
175	0x3db19e1b	0.08672734
176	0xbc772661	-0.015084834
177	0x3d94f31f	0.07272934
178	0x3d081afe	0.033228867
179	0x3dada806	0.084793136
180	0x3d6fdcc3	0.058560144
181	0x3dc193e7	0.09452038
182	0x3e124183	0.14282803
183	0x3e02eaba	0.12784854
184	0xbc5304e9	-0.012879589
185	0x3c64961f	0.013951807
186	0x3e07babc	0.13254827
187	0x3e0a3342	0.13496116
188	0x3d5145b1	0.051091854
189	0x3d39b186	0.045335315
190	0xb79de692	-1.8823226e-05
191	0x3d7ea29e	0.062166803
192	0x3dbbf275	0.091771044
193	0xbc63bbc0	-0.013899744
194	0x3d1d427a	0.038393475
195	0xbc0ef1e8	-0.008724667
196	0xbc3dce21	-0.0115847895
197	0x3d6aab01	0.05729199
198	0x3c8c1269	0.017098622
199	0x3c8917e8	0.016735032
200	0xbd94d4fa	-0.072671846
201	0x3da7b088	0.081879675
202	0xbd6cc4df	-0.05780494
203	0x3cd4c84b	0.025974413
204	0x3dd5c07b	0.10437103
205	0x3db7671a	0.08955212
206	0x3d6b5c40	0.057461023
207	0x3d219ee0	0.039458156
208	0x3dbd79b9	0.092517324
209	0x3c2541a6	0.010086453
210	0xbd3507ca	-0.04419688
211	0xbd86d0ac	-0.0658277
212	0x3de8011e	0.11328338
213	0xbc86e251	-0.016465338
214	0x3defd157	0.1170985
215	0x3dc0e7be	0.09419201
216	0x3dad71b2	0.08468951
217	0x3ca5e9b1	0.020253034
218	0x3e20fbd1	0.1572106
219	0x3d29fe4f	0.041502293
220	0xbc27a288	-0.010231622
221	0xbd3c7820	-0.046012998
222	0xbb56a400	-0.003275156
223	0xbd3c13b4	-0.045917228
224	0xbc94ffe1	-0.018188419
225	0xb99fa3df	-0.00030448937
226	0x3da51011	0.08059705
227	0x3dd85dae	0.10564743
228	0x3c9ada28	0.018902853
229	0xbd1011f8	-0.035173386
230	0x3d45761f	0.048208352
231	0xbd45f858	-0.048332542
232	0xbce35d4d	-0.02775445
233	0x3d7e11b0	0.062028587
234	0x3cf1e72c	0.029529177
235	0xbd6cd76a	-0.057822622
236	0x3c9fcca4	0.01950676
237	0x3da47df3	0.080318354
238	0xbd4b21c2	-0.04959274
239	0x3d00a61a	0.031408407
240	0x3cd94b30	0.02652511
241	0x3d4d0b5a	0.050059654
242	0x3dad0c5e	0.084496245
243	0x3c4b933f	0.012425243
244	0x3d40d593	0.04707868
245	0xbcb4cddf	-0.022070823
246	0x3d5c5cdc	0.053799495
247	0x3de95a90	0.113942266
248	0x3d991db0	0.074763656
249	0x3d64f700	0.05589962
250	0x3c13524f	0.008991792
251	0x3acc627d	0.0015593317
252	0x3b4119cd	0.0029464841
253	0x3e00d06f	0.12579511
254	0xb9eca6e2	-0.00045137765
255	0x3d0df92b	0.034661453

actor_fc_layers.blocks.2.block.1.weight f4 [128]
0	0x3f7c85e7	0.9864182
1	0x3f845211	1.0337545
2	0x3f820e71	1.0160657
3	0x3f7b213a	0.98097575
4	0x3f7ed649	0.99545723
5	0x3f7da29b	0.9907624
6	0x3f7d3338	0.9890628
7	0x3f8264c4	1.0187001
8	0x3f7999b8	0.9750018
9	0x3f7ebd8d	0.9950798
10	0x3f801ff7	1.0009755
11	0x3f81a938	1.0129766
12	0x3f81a1e6	1.0127532
13	0x3f794f9e	0.9738711
14	0x3f858a11	1.043276
15	0x3f8628e0	1.0481224
16	0x3f8704ff	1.05484
17	0x3f7dccf9	0.9914089
18	0x3f82b60f	1.021181
19	0x3f835540	1.0260391
20	0x3f83f60d	1.0309464
21	0x3f7c1e73	0.9848396
22	0x3f7ed028	0.9953637
23	0x3f8677a1	1.0505258
24	0x3f841a24	1.0320477
25	0x3f828ddd	1.0199543
26	0x3f868a90	1.0511036
27	0x3f793e25	0.9736045
28	0x3f84539f	1.0338019
29	0x3f7fffff	0.99999994
30	0x3f842977	1.0325154
31	0x3f805d6d	1.0028511
32	0x3f7ed1bb	0.99538773
33	0x3f8591ab	1.0435079
34	0x3f7d3a45	0.9891704
35	0x3f8419c5	1.0320364
36	0x3f7d5fe1	0.98974425
37	0x3f79b5fa	0.975433
38	0x3f85095a	1.0393479
39	0x3f8304dc	1.0235858
40	0x3f7f0884	0.9962237
41	0x3f878f86	1.0590675
42	0x3f78ac59	0.9713798
43	0x3f7fccbe	0.99921787
44	0x3f853dc5	1.0409476
45	0x3f7ea9db	0.9947793
46	0x3f8574d7	1.0426282
47	0x3f827492	1.0191824
48	0x3f827d44	1.0194478
49	0x3f823464	1.0172238
50	0x3f7e4d9e	0.99337184
51	0x3f7d280f	0.9888925
52	0x3f7cdb37	0.98771995
53	0x3f7d8bca	0.99041426
54	0x3f833bba	1.0252602
55	0x3f8170e7	1.011258
56	0x3f81c274	1.0137467
57	0x3f78434c	0.96977687
58	0x3f805484	1.0025792
59	0x3f7f609c	0.9975679
60	0x3f8dce55	1.1078593
61	0x3f7fcf03	0.9992525
62	0x3f84e9b5	1.0383822
63	0x3f7f52b4	0.9973557
64	0x3f755ec3	0.9584772
65	0x3f847572	1.0348341
66	0x3f79c6d6	0.97569025
67	0x3f7fe4e5	0.9995864
68	0x3f7d1bb2	0.98870385
69	0x3f7fbb37	0.9989504
70	0x3f83ae2c	1.0287528
71	0x3f8bcd2d	1.092199
72	0x3f7798e2	0.96717656
73	0x3f7cee5e	0.9880122
74	0x3f7bd31c	0.98369
75	0x3f82369b	1.0172914
76	0x3f7dd049	0.9914594
77	0x3f7af02d	0.9802273
78	0x3f829bfd	1.0203854
79	0x3f839022	1.0278361
80	0x3f7c6731	0.9859496
81	0x3f8a36c1	1.079796
82	0x3f7c3940	0.98524857
83	0x3f80de84	1.0067906
84	0x3f81b0d5	1.013209
85	0x3f82b611	1.0211812
86	0x3f8387b2	1.0275786
87	0x3f7f14bb	0.9964101
88	0x3f79a9bd	0.97524625
89	0x3f7b3077	0.98120826
90	0x3f7ffc58	0.9999442
91	0x3f7b8b3e	0.9825934
92	0x3f85d4e7	1.0455598
93	0x3f7ca809	0.986939
94	0x3f7c4d7a	0.9855572
95	0x3f79747f	0.97443384
96	0x3f80d064	1.0063596
97	0x3f7b0cf1	0.9806662
98	0x3f80fe5b	1.0077623
99	0x3f768b11	0.9630595
100	0x3f78442c	0.9697902
101	0x3f864821	1.0490762
102	0x3f7858cf	0.9701051
103	0x3f7cfcb2	0.9882308
104	0x3f7c644b	0.98590535
105	0x3f79d8fc	0.97596717
106	0x3f7cf23d	0.98807126
107	0x3f7bc10a	0.9834143
108	0x3f731120	0.94948006
109	0x3f78190b	0.9691321
110	0x3f7e290f	0.992814
111	0x3f800000	1.0
112	0x3f816cc8	1.0111322
113	0x3f7d3261	0.98905
114	0x3f7c240a	0.9849249
115	0x3f83ebda	1.0306351
116	0x3f837077	1.0268697
117	0x3f7ec9e6	0.9952682
118	0x3f7b99cd	0.98281556
119	0x3f829def	1.0204448
120	0x3f815e70	1.0106945
121	0x3f7d59af	0.9896497
122	0x3f77d8e7	0.9681534
123	0x3f858f00	1.0434265
124	0x3f8213ba	1.016227
125	0x3f837b09	1.0271922
126	0x3f7eb470	0.99494076
127	0x3f814589	1.0099345

actor_fc_layers.blocks.2.block.1.bias f4 [128]
0	0xbb74b4ba	-0.0037339167
1	0x3da1d7bc	0.07902476
2	0xbce1458c	-0.027498983
3	0x3d8ca7e3	0.06867959
4	0xbbe32876	-0.0069323136
5	0xbb84bb7d	-0.0040506707
6	0xbbfddb53	-0.0077470927
7	0x3d86932b	0.06571039
8	0xbc9ce8b0	-0.019153923
9	0x3cc2934f	0.023751883
10	0x3bbf09ab	0.00583001
11	0x3b29fc03	0.0025937564
12	0xbca198a4	-0.019726105
13	0xbca7a874	-0.020466067
14	0x3dbe03e1	0.092780836
15	0x3de2dfc2	0.11077835
16	0x3da99ba4	0.08281639
17	0xbcc872ab	-0.02446874
18	0x3bee12a6	0.0072654067
19	0xbc1e9937	-0.009680084
20	0x3aa8ff78	0.0012893518
21	0xbc7a272a	-0.0152681265
22	0xbcd0a9a7	-0.025471522
23	0x3d839747	0.06425338
24	0x3d88d14a	0.06680544
25	0x39b8d9ef	0.00035257588
26	0x3cbbbdb3	0.022917604
27	0xbcd86755	-0.02641646
28	0x3c00b1d1	0.007854895
29	0xba17951f	-0.00057824136
30	0xbcbc4755	-0.022983233
31	0xbb87c41f	-0.0041432525
32	0x39a00118	0.00030518393
33	0xbb6080d3	-0.0034256473
34	0xbc3a84ac	-0.0113841705
35	0xbc4247f4	-0.011857975
36	0x3b7a66a9	0.0038208163
37	0xbcf99d64	-0.030470558
38	0x3b890d6c	0.004182508
39	0x3d4cc1b7	0.04998943
40	0xbbe56045	-0.0070000016
41	0x3df62632	0.12019004
42	0xbc8daf67	-0.017295552
43	0x3cb2278b	0.021747371
44	0x38167627	3.5872825e-05
45	0xbca51eae	-0.02015623
46	0x3d0cc824	0.034370556
47	0xba89aa66	-0.0010503053
48	0x3c22a569	0.009927132
49	0x3bc8838f	0.0061191986
50	0xbc0ed3f4	-0.008717526
51	0xbc470217	-0.012146494
52	0xbcd18374	-0.025575377
53	0xbc39d0fd	-0.011341331
54	0xbb8b4e18	-0.004251253
55	0x3b9a3566	0.0047060726
56	0xbb313ec9	-0.002704548
57	0xbcf015f3	-0.029307341
58	0x3bf51ea9	0.0074804616
59	0xbb8c0a99	-0.0042737243
60	0x3df94669	0.12171633
61	0xbc00ce2d	-0.007861656
62	0x3dc7e33a	0.09760137
63	0xbc515514	-0.012776632
64	0xbc9672e5	-0.018365333
65	0x3cd0fa2b	0.025509914
66	0xbc6a03fd	-0.014283177
67	0x3d19860f	0.037481364
68	0xbc565cff	-0.013083695
69	0xbd1388e5	-0.036019225
70	0x3d6448f9	0.055733655
71	0x3dfef532	0.12449111
72	0xbc163e86	-0.00917018
73	0x3d68efb8	0.05686924
74	0xbc926858	-0.01787202
75	0xbade27ff	-0.0016949176
76	0xbc21bac4	-0.009871189
77	0xbc0f4319	-0.008744025
78	0xbc85d548	-0.016337052
79	0xbc11f483	-0.008908394
80	0xbbe21776	-0.0068997694
81	0x3de38a32	0.11110343
82	0xbcb9f55c	-0.022700004
83	0x3a62dc0d	0.0008654006
84	0x3b7ecfac	0.0038881106
85	0x3d5d1061	0.0539707
86	0x3da2f615	0.07957093
87	0xbbd2e0d3	-0.0064354925
88	0xbcde79a0	-0.027157605
89	0xbc20dff4	-0.00981902
90	0xbc619e09	-0.013770589
91	0xbcbb2722	-0.022845808
92	0x3d627979	0.055291627
93	0xbc0a2dbd	-0.008433756
94	0xbc590dd3	-0.013247925
95	0xbcd96069	-0.02653523
96	0xba8a55d1	-0.001055414
97	0xbce2fdb1	-0.02770886
98	0x3b595a09	0.0033165237
99	0x3d03e6f7	0.032202687
100	0xbcd81e1b	-0.026381543
101	0x3ddfd78a	0.10929783
102	0xbd12d21f	-0.03584492
103	0xbcfa7e27	-0.030577732
104	0x3b5924dd	0.0033133544
105	0x3a0c96bc	0.00053630373
106	0xbca17d1e	-0.01971298
107	0xbcded77b	-0.027202358
108	0xbc9d495c	-0.01920002
109	0xbcbe9e3f	-0.023268817
110	0xbbe403bb	-0.0069584525
111	0x00000000	0.0
112	0xbc76378c	-0.015027892
113	0xbc51099f	-0.0127586415
114	0xbc588630	-0.013215587
115	0x3bcc7c31	0.0062403907
116	0xbc019921	-0.007910044
117	0xbbd714db	-0.0065637655
118	0xbcae4c16	-0.021276515
119	0x3d50d29a	0.050982095
120	0xbb0010a4	-0.0019541169
121	0xbca6b53f	-0.020350097
122	0xbc0cf975	-0.008604397
123	0xbb827e60	-0.00398235
124	0xbbb383b2	-0.005478346
125	0x3adfced0	0.0017075185
126	0xbbf54394	-0.0074848626
127	0x3d653235	0.055956084
