saved_models/agent_maddpgv2_vs_opp_maddpgv2_4_vs_1_1_big_5_sec_agent_best_models/maddpgv2_target_actor_3.pt (torch, 163339 bytes, 21 tensors)

actor_fc_layers.blocks.0.block.0.weight f4 [128, 27]
000000 41 64 17 3d 4d 10 fa 3d 49 21 99 bd 8a 14 10 be
       0.036960844 0.122101404 -0.07477052 -0.14070335
000010 b8 ab 13 be a4 14 dc bd 9b 7a be 3c 55 ff b4 3c
       -0.14420974 -0.107461244 0.023251822 0.022094408
000020 2c 92 be bd 01 78 39 3e a3 3f d4 3d 97 8a 0d be
       -0.09305224 0.18112184 0.103637 -0.13822399
000030 f2 60 93 3d 1c 4d 8d 3c 5c 62 d9 3d 3a e5 22 be
       0.07196225 0.017248683 0.10614464 -0.15907755
000040 fb 2f 53 bd 07 36 34 3d 68 22 90 3c 65 11 f7 3d
       -0.05155943 0.043996837 0.017594531 0.120638646
000050 2e cd ae 3c fa 34 25 be 00 e2 8b bd bd ab 80 bd
       0.021338072 -0.1613349 -0.068302155 -0.062827565
000060 0a b0 c9 3d b9 05 18 be 7a 42 cc bd bb 35 33 be
       0.0984803 -0.14845933 -0.09973617 -0.17500965
000070 80 46 1d be 27 d7 54 bd 97 c0 17 3b d1 5f d7 3c
       -0.15358925 -0.051962998 0.0023155564 0.026290806
000080 18 88 c8 3b 3a 3a 14 be 9a ca 1b 3e e0 10 03 be
       0.0061197393 -0.14475337 0.15214005 -0.12799406
000090 21 15 09 be 0b 39 45 be 2d a1 fc bd ba 84 bc bd
       -0.13386966 -0.19260041 -0.12335429 -0.09205003
0000a0 3d df 40 be c8 69 a6 bd b7 f6 2d be c3 55 a9 bd
       -0.18835159 -0.08125645 -0.16988645 -0.08268311
0000b0 34 fc d3 3a ab d0 2b be f1 38 2f 3e bd 9e e8 bb
       0.0016173185 -0.1677882 0.17111565 -0.007099001
0000c0 82 5f de 3b 46 79 5d bd 4d da dc 3d 8f 3e 1d be
       0.0067862878 -0.054070733 0.10783825 -0.15355895
0000d0 5c b9 03 3e b1 42 97 3d 79 cd 20 be 1b 11 9b 3c
       0.12863678 0.07385767 -0.15703382 0.018929055
0000e0 7e 95 45 bd 6c 6b e0 bb da b2 bf bd 80 55 98 bd
       -0.04823827 -0.006848743 -0.09360285 -0.07438183
0000f0 bf 08 11 bd 51 ef 7a 3d 65 9c 78 bd dc 2d 51 3d
       -0.03540873 0.061263386 -0.060696024 0.051069126
000100 4e 30 3a be 09 e1 36 3d 1c 84 25 3b 28 b0 2e 3d
       -0.1818249 0.044648204 0.0025255745 0.042648464
000110 85 e1 2d bc 4a 9c 0f 3e 24 76 1c 3e 75 bb b1 3d
       -0.01061285 0.14024463 0.15279442 0.08678333
000120 0f da 17 3e db 23 9b 3d fb 58 1b bd 47 f3 9b bd
       0.14829277 0.07575198 -0.037926655 -0.07614761
000130 3a 1b 05 3e 86 00 86 3c aa 21 0c be 5e bd 02 bd
       0.12998667 0.016357671 -0.13684717 -0.031918876
000140 b6 41 3e be e1 dd c2 3c 92 03 ad bd e7 b2 a8 bc
       -0.18579754 0.02378744 -0.084479466 -0.02059312
000150 5c d4 17 3e 43 ff 0e be 02 be bc 3d 32 88 12 be
       0.14827102 -0.13964562 0.092159286 -0.14309767
000160 c1 35 fb 3d 5f e8 3e bd f3 1c f8 bc 1f 26 c6 bd
       0.12266112 -0.046608325 -0.030287242 -0.0967524
000170 7f ca cc 3d 90 bd 23 3e 63 a2 57 bd 2a e2 ec 3d
       0.099995606 0.15990281 -0.0526451 0.11566575
000180 a9 07 2b be da 1a b9 bd 42 cf 51 3d b6 93 1a 3e
       -0.16702141 -0.09038325 0.051223047 0.1509541
000190 b7 56 07 3b 2e e4 10 3d 06 7a d7 3c 1a dd 87 bd
       0.0020651051 0.03537386 0.026303302 -0.06633969
0001a0 67 c8 27 3d 6d 55 14 3d f2 4e 4a be 71 bb 40 bd
       0.040962603 0.03621428 -0.19756678 -0.047053758
0001b0 9e 38 2f 3d b7 85 c1 bd 02 9f db bc 04 21 2b be
       0.042778604 -0.09449332 -0.02680922 -0.16711813
0001c0 35 81 5f be 76 2b 32 be 30 44 3c 3d d8 91 20 be
       -0.21826632 -0.17399392 0.045963466 -0.15680635
0001d0 2e 73 ec bc 61 eb 38 3d 89 e4 c0 bd 88 66 df bd
       -0.028863516 0.04514635 -0.094185896 -0.10908228
0001e0 20 e7 1e 3e 80 e8 be bc db a2 4d 3c 85 45 5f bc
       0.15517855 -0.023304224 0.012551035 -0.013627415
0001f0 c9 b3 fb 3d 13 77 99 3d 3b 21 02 be 63 f7 93 bd
       0.12290151 0.07493415 -0.12707989 -0.0722492
000200 3b 30 fb bd 06 e5 cb 3d 8a 40 b3 bd 2f 33 5c bd
       -0.122650586 0.09955792 -0.08752544 -0.05375975
000210 dc c5 f9 bd 16 c8 fb bc f9 cc b5 bc 75 f8 79 3e
       -0.12195942 -0.030735057 -0.022192465 0.24411185
000220 dc 90 4f be 4f a5 1f 3e fd ec 5c 3d ce 86 d3 bd
       -0.20270103 0.15590404 0.053936947 -0.10328446
000230 02 89 14 3e 93 6b 9a bd 24 4e 07 3d a3 d7 8b be
       0.1450539 -0.075400494 0.033033505 -0.27312955
000240 e1 7d 0b be 79 b2 7b ba 3c 65 36 3e 0e 6a b5 3d
       -0.13622238 -0.00096014846 0.17812055 0.08858119
000250 20 1b 59 bd 54 a5 9f 3d 1f fb 08 3d 23 95 76 bd
       -0.053004384 0.07795206 0.033442613 -0.06020082
000260 b8 54 3a 3d 99 74 00 be be 55 ce 3d 6d 46 82 bd
       0.04549095 -0.12544478 0.10074948 -0.06361089
000270 03 27 14 be b3 48 4d 3d 28 c6 72 bd 60 3d 3e bd
       -0.14468007 0.05011816 -0.059271008 -0.04644525
000280 56 f0 25 be 27 fc d7 bd 90 b6 11 be f4 37 81 3d
       -0.16204962 -0.10546141 -0.14229798 0.063095
000290 05 e0 a9 3c d3 fa 2b 3d ef 24 81 3d 5e ca 2c 3b
       0.020736704 0.04198725 0.06305873 0.0026365737
0002a0 3b a9 ae bd bd af 16 3e 38 47 32 be 81 42 11 3e
       -0.08528372 0.14715476 -0.1740998 0.14185525
0002b0 7e 88 ce 3d e7 72 f6 bd 1e f5 0a be dc 2c 47 3e
       0.100846276 -0.12033635 -0.13570067 0.19450706
0002c0 e8 9d 3e bc ef d9 c4 bd 90 84 8c bd a1 f2 08 3e
       -0.0116343275 -0.0961188 -0.06861222 0.13373806
0002d0 39 47 a9 3c b2 23 a5 3d 1c 4e 03 3e a7 0b 9b 3d
       0.020663844 0.08063449 0.12822765 0.07570582
0002e0 64 c7 48 3e 12 b6 1c be dd f6 11 be 28 5e 2a be
       0.19607311 -0.1530383 -0.14254327 -0.1663748
0002f0 36 53 a3 3d e8 66 9d 3c 45 0f 03 be 50 5f 46 be
       0.079748556 0.019214109 -0.12798794 -0.19372296
000300 e1 53 1c be d7 29 67 ba 2e bc e8 3d e1 fb a0 3d
       -0.15266372 -0.00088181853 0.113640174 0.07860542
000310 6a 86 3e be cd 6b aa 3d 72 23 f8 3d 57 ef 1d be
       -0.18605962 0.083213426 0.12116136 -0.15423332
000320 41 40 2f be 1f 2e 43 bb 29 ea 11 3e 8e 95 a7 bd
       -0.17114355 -0.002978213 0.14249481 -0.08182822
000330 b6 06 11 bd d5 5b 02 3e 04 67 f2 3c 13 1e 08 3e
       -0.03540679 0.12730344 0.029590137 0.13292722
000340 7f 75 32 be e9 44 32 be 7f de 03 3e a0 ea d3 3d
       -0.17427634 -0.174091 0.12877844 0.103474855
000350 b3 ac 89 bd d3 70 a0 3d 43 3b 43 be 2c 80 00 bd
       -0.06722393 0.078340195 -0.19065575 -0.031372234
000360 14 60 54 3e 86 29 8a bd 15 14 ad 3d 94 8f ec bd
       0.20739776 -0.06746201 0.08451096 -0.11550823
000370 ca c2 3f be 51 08 ef 3b a4 90 83 bd d5 d8 08 be
       -0.1872665 0.0072946926 -0.064240724 -0.13363965
000380 c8 7c e0 3c a2 3c ad bd 69 7b 68 bd 89 5d 02 bd
       0.02740325 -0.084588304 -0.056758318 -0.031827483
000390 ee f3 12 bd 04 51 56 3d 89 61 81 be c8 cf ed 3c
       -0.03587716 0.052323356 -0.25269726 0.029029742
0003a0 13 61 0d 3e 6c eb cd bd d0 f6 19 3c 96 12 6e 3e
       0.13806562 -0.10054669 0.009397224 0.23249277
0003b0 5b 47 90 3d 6c 6b 2c 3e bc 38 88 3e e5 17 67 3d
       0.0704486 0.16837853 0.26605785 0.056419272
0003c0 09 00 b7 bd da 78 de bc ef af f5 bd c0 6a 94 3d
       -0.089355536 -0.027157236 -0.11996447 0.072469234
0003d0 18 d7 b6 3d bd 3e 34 be 59 75 47 be ba a0 98 3d
       0.089277446 -0.17602058 -0.19478358 0.07452531
0003e0 8f 9c 80 3d 60 f6 a7 3d f6 5e 1e bd 23 8f d3 3d
       0.06279861 0.08201289 -0.03866478 0.103300355
0003f0 2a ed 0e 3e b3 2a cd bc 8f 8f 14 bd 33 85 12 bd
       0.13957658 -0.025044775 -0.03626972 -0.03577156

actor_fc_layers.blocks.0.block.1.weight f4 [128]
000000 e8 57 74 3f bd 23 74 3f a9 e5 7c 3f df f1 74 3f
       0.95446634 0.9536703 0.98787934 0.95681566
000010 6f a4 6e 3f a0 4f 87 3f 4b ea 73 3f e9 da 72 3f
       0.93219656 1.0571175 0.9527938 0.9486528
000020 09 d4 84 3f c7 de 72 3f 8d f9 71 3f ef 53 7b 3f
       1.0377208 0.9487118 0.9452141 0.9817495
000030 6b 54 6f 3f 0c d9 7b 3f 45 fd 77 3f 8a 90 76 3f
       0.93488187 0.9837806 0.96870834 0.963143
000040 90 c5 72 3f 55 a8 74 3f 95 c4 75 3f 36 d8 7a 3f
       0.94832706 0.95569354 0.96003085 0.9798616
000050 ac 23 73 3f 00 00 80 3f dc b1 7d 3f 25 7e 70 3f
       0.94976306 1.0 0.99099517 0.9394248
000060 5f 9b 71 3f 00 00 80 3f b1 db 7b 3f 9e 5c 7a 3f
       0.943777 1.0 0.983821 0.9779757
000070 6e 11 79 3f 6b 7b 76 3f bc c0 7a 3f 02 63 74 3f
       0.9729222 0.9628207 0.9795034 0.95463574
000080 f4 c9 7a 3f e1 53 71 3f e2 0f 7a 3f e5 7d 7b 3f
       0.97964406 0.94268614 0.97680485 0.98238975
000090 a2 2e 77 3f 28 fd 75 3f 4e a9 7b 3f ed 56 78 3f
       0.9655553 0.9608941 0.98305213 0.9700764
0000a0 b1 c2 77 3f 4f e4 6f 3f e5 64 7b 3f 12 d0 72 3f
       0.9678145 0.93707746 0.9820083 0.9484874
0000b0 99 84 74 3f e8 73 79 3f f5 08 72 3f 21 8c 6b 3f
       0.9551483 0.97442484 0.9454492 0.92010695
0000c0 38 d7 76 3f 61 f3 71 3f 74 34 77 3f c9 bd 7f 3f
       0.9642215 0.9451199 0.9656441 0.99898964
0000d0 e8 20 7a 3f c9 06 7b 3f e2 46 72 3f 4d da 7f 3f
       0.9770646 0.9805723 0.9463941 0.99942476
0000e0 17 86 7f 3f c4 d5 6c 3f 05 5b 74 3f 6a 44 72 3f
       0.9981398 0.9251368 0.95451385 0.9463564
0000f0 72 4b 6b 3f 5c 94 71 3f 6d 93 75 3f 14 73 73 3f
       0.91911995 0.94367003 0.9592808 0.9509747
000100 70 cf 7f 3f d1 62 76 3f be 0d 70 3f a6 a3 6a 3f
       0.999259 0.9624453 0.9377097 0.9165596
000110 98 be 75 3f 01 ee 70 3f 22 a5 70 3f 05 e6 7f 3f
       0.9599395 0.94113165 0.9400197 0.99960357
000120 86 41 75 3f 9d 5a 6f 3f 2b b9 72 3f 27 2e 75 3f
       0.95803106 0.9349764 0.94813794 0.9577355
000130 e8 a9 76 3f 18 b7 76 3f 15 5d 6d 3f 9d 89 77 3f
       0.96353006 0.9637313 0.92720157 0.96694356
000140 5d 18 72 3f 7d 28 7b 3f dd 9b 79 3f 30 8d 78 3f
       0.94568425 0.98108655 0.97503453 0.97090435
000150 a0 ff 7e 3f 01 10 75 3f 00 00 80 3f 14 d1 72 3f
       0.996088 0.95727545 1.0 0.9485028
000160 f0 10 7b 3f f2 b0 7d 3f c0 8b 7b 3f 73 46 6a 3f
       0.9807272 0.9909812 0.98260117 0.91513747
000170 44 4e 83 3f f7 27 73 3f 6e f2 75 3f de bc 73 3f
       1.025826 0.94982857 0.96073043 0.95210063
000180 6d 86 70 3f db 27 75 3f 2c f0 6a 3f 73 22 74 3f
       0.9395512 0.9576394 0.91772723 0.95365065
000190 fe a8 76 3f 16 bb 71 3f 24 c2 7e 3f a9 c2 7c 3f
       0.9635161 0.94426095 0.99514985 0.9873453
0001a0 13 31 75 3f 93 12 7a 3f 7f d3 7e 3f 84 e1 6c 3f
       0.95778006 0.9768459 0.9954147 0.9253161
0001b0 19 f9 71 3f 5f a1 72 3f 6a de 72 3f 89 a9 74 3f
       0.9452072 0.9477748 0.94870627 0.9557119
0001c0 4c 2d 70 3f f5 bd 70 3f cd 8a 78 3f 9a bc 73 3f
       0.9381912 0.9403985 0.97086793 0.9520966
0001d0 53 e3 6e 3f fd 23 76 3f 04 b7 6f 3f d4 f0 75 3f
       0.9331562 0.96148664 0.93638635 0.960706
0001e0 00 00 80 3f 1a eb 74 3f e8 2e 73 3f c7 5a 71 3f
       1.0 0.95671237 0.9499345 0.9427914
0001f0 47 05 77 3f 38 05 78 3f 5b ae 7c 3f d8 f6 7b 3f
       0.9649243 0.96882963 0.98703545 0.9842353

actor_fc_layers.blocks.0.block.1.bias f4 [128]
000000 2f 74 61 bd 83 41 d8 bc 20 4a 90 bc 4f 46 52 bd
       -0.055042442 -0.026398426 -0.01761347 -0.051336583
000010 c2 38 93 bd 72 3a 2a 3d 9d 0a 34 bd 55 f3 39 bd
       -0.0718856 0.041559644 -0.043955434 -0.045398075
000020 e8 f0 dd 3b f5 15 06 bd c1 df 57 bd 2f 09 82 bc
       0.006773103 -0.032735784 -0.052703623 -0.01587352
000030 cf 30 95 bd 8b d0 e5 bc 6d 1f 8b bc 72 3e 2b bd
       -0.072847 -0.028053543 -0.016982758 -0.0418076
000040 a9 78 31 bd 7f 6b d1 bc 11 bc 32 bd c7 6b 48 bc
       -0.04332796 -0.025563953 -0.043636385 -0.012232727
000050 a2 22 7c bd 00 00 00 00 47 3c 17 3b fa 25 80 bd
       -0.061556466 0.0 0.00230767 -0.062572435
000060 1d eb 5f bd 00 00 00 00 c4 d2 bc 3b e8 fa 94 bc
       -0.05466758 0.0 0.00576243 -0.018186048
000070 4b 74 08 bd 54 7b 1f bd 64 1d 11 bd a0 1b 3a bd
       -0.03331403 -0.038935974 -0.03542842 -0.0454365
000080 1b 1c 23 bd d4 70 08 bd 0f ee d2 bc 2c 56 82 bc
       -0.039821725 -0.033310726 -0.02574828 -0.01591023
000090 98 24 17 bd 43 79 c2 bc 73 66 a2 bc 93 7d 09 bd
       -0.036900133 -0.023739463 -0.019824242 -0.033567023
0000a0 e0 cd 32 bd 04 3d 7c bd 2b ab d9 bc 22 28 2a bd
       -0.04365337 -0.061581627 -0.026570877 -0.04154218
0000b0 0d 0a 36 bd cd 79 12 bd 08 c7 76 bd 4e f9 92 bd
       -0.04444318 -0.03576069 -0.060248405 -0.07176457
0000c0 5f 39 eb bc 5f d9 83 bd 5c 83 28 bd c1 77 64 bb
       -0.02871388 -0.064379446 -0.0411409 -0.0034861418
0000d0 78 69 e4 bc 9c 59 a4 bc a5 0c 5b bd 86 4f fd bb
       -0.027882323 -0.02006226 -0.053478856 -0.007730427
0000e0 a8 54 e5 bb 48 28 5a bd 06 bc 6b bd 38 96 39 bd
       -0.006998617 -0.05326107 -0.05755236 -0.045309275
0000f0 5f 16 6c bd 20 d7 77 bd b0 a8 d3 bc 84 e4 55 bd
       -0.057638522 -0.060507894 -0.025837272 -0.052219883
000100 9a 37 c7 ba 7d 5e 11 bd ff 85 73 bd 90 10 98 bd
       -0.0015199066 -0.0354905 -0.05945396 -0.07425034
000110 28 c5 34 bd 25 96 94 bd b7 0a 6c bd 87 0d c8 bb
       -0.044133335 -0.072552 -0.057627406 -0.006105128
000120 c8 f7 40 bd 5b 3a 9d bd 5d 8a 7e bd 18 77 5e bd
       -0.047111303 -0.07677146 -0.062143672 -0.054312795
000130 06 6d 11 bd 12 a5 33 bd 49 fa 92 bd 17 22 f8 bc
       -0.035504363 -0.043858595 -0.07176644 -0.030289693
000140 a8 e8 4c bd 45 56 af bc a8 cf 18 bd 61 a5 ef bc
       -0.050026566 -0.021403441 -0.03730741 -0.029253663
000150 59 6a 8a 3b 54 34 44 bd 00 00 00 00 42 14 48 bd
       0.0042241034 -0.047901466 0.0 -0.048847444
000160 a7 11 11 bd fb 30 0c bc ab 8c c7 bc b0 05 93 bd
       -0.035417225 -0.0085566 -0.024359068 -0.07178819
000170 0b ed db ba 2f a1 60 bd 49 35 26 bd f1 c5 54 bd
       -0.0016779018 -0.054841217 -0.04057816 -0.051946584
000180 e5 b1 5a bd 06 41 0f bd ac 9a 9b bd 77 b1 4c bd
       -0.05339231 -0.03497412 -0.07597861 -0.04997393
000190 9d 7a 81 bc fe a0 a2 bd 95 a4 ca bb a0 6c ef bc
       -0.015805537 -0.07940863 -0.0061841705 -0.029226601
0001a0 00 14 3b bd b8 8e f7 bc e1 7e dc bb 0d 2d 31 bd
       -0.04567337 -0.03021942 -0.0067289923 -0.043255854
0001b0 65 c0 49 bd f2 c0 e7 bc 59 db 6f bd 98 9b 66 bd
       -0.049255747 -0.028290246 -0.058558796 -0.05630073
0001c0 bb 8e 88 bd 73 12 49 bd 17 8f 0a bd 11 fe 7a bd
       -0.06667849 -0.04908986 -0.033827867 -0.061277453
0001d0 b9 83 1d bd f0 9f 4c bd fa 5b 97 bd 81 30 b7 bc
       -0.0384557 -0.049957216 -0.0739059 -0.022361996
0001e0 00 00 00 00 30 36 39 bd e1 c7 57 bd 90 d9 87 bd
       0.0 -0.045217693 -0.052680854 -0.06633294
0001f0 d4 64 1c bd 7c 33 37 bd 80 42 5d bc 99 f7 c1 bc
       -0.038182095 -0.044726834 -0.013504624 -0.023677634

actor_fc_layers.blocks.0.block.1.running_mean f4 [128]
000000 00 00 00 00 00 00 00 00 00 00 00 00 00 00 00 00
       0.0 0.0 0.0 0.0
000010 00 00 00 00 00 00 00 00 00 00 00 00 00 00 00 00
       0.0 0.0 0.0 0.0
000020 00 00 00 00 00 00 00 00 00 00 00 00 00 00 00 00
       0.0 0.0 0.0 0.0
000030 00 00 00 00 00 00 00 00 00 00 00 00 00 00 00 00
       0.0 0.0 0.0 0.0
000040 00 00 00 00 00 00 00 00 00 00 00 00 00 00 00 00
       0.0 0.0 0.0 0.0
000050 00 00 00 00 00 00 00 00 00 00 00 00 00 00 00 00
       0.0 0.0 0.0 0.0
000060 00 00 00 00 00 00 00 00 00 00 00 00 00 00 00 00
       0.0 0.0 0.0 0.0
000070 00 00 00 00 00 00 00 00 00 00 00 00 00 00 00 00
       0.0 0.0 0.0 0.0
000080 00 00 00 00 00 00 00 00 00 00 00 00 00 00 00 00
       0.0 0.0 0.0 0.0
000090 00 00 00 00 00 00 00 00 00 00 00 00 00 00 00 00
       0.0 0.0 0.0 0.0
0000a0 00 00 00 00 00 00 00 00 00 00 00 00 00 00 00 00
       0.0 0.0 0.0 0.0
0000b0 00 00 00 00 00 00 00 00 00 00 00 00 00 00 00 00
       0.0 0.0 0.0 0.0
0000c0 00 00 00 00 00 00 00 00 00 00 00 00 00 00 00 00
       0.0 0.0 0.0 0.0
0000d0 00 00 00 00 00 00 00 00 00 00 00 00 00 00 00 00
       0.0 0.0 0.0 0.0
0000e0 00 00 00 00 00 00 00 00 00 00 00 00 00 00 00 00
       0.0 0.0 0.0 0.0
0000f0 00 00 00 00 00 00 00 00 00 00 00 00 00 00 00 00
       0.0 0.0 0.0 0.0
000100 00 00 00 00 00 00 00 00 00 00 00 00 00 00 00 00
       0.0 0.0 0.0 0.0
000110 00 00 00 00 00 00 00 00 00 00 00 00 00 00 00 00
       0.0 0.0 0.0 0.0
000120 00 00 00 00 00 00 00 00 00 00 00 00 00 00 00 00
       0.0 0.0 0.0 0.0
000130 00 00 00 00 00 00 00 00 00 00 00 00 00 00 00 00
       0.0 0.0 0.0 0.0
000140 00 00 00 00 00 00 00 00 00 00 00 00 00 00 00 00
       0.0 0.0 0.0 0.0
000150 00 00 00 00 00 00 00 00 00 00 00 00 00 00 00 00
       0.0 0.0 0.0 0.0
000160 00 00 00 00 00 00 00 00 00 00 00 00 00 00 00 00
       0.0 0.0 0.0 0.0
000170 00 00 00 00 00 00 00 00 00 00 00 00 00 00 00 00
       0.0 0.0 0.0 0.0
000180 00 00 00 00 00 00 00 00 00 00 00 00 00 00 00 00
       0.0 0.0 0.0 0.0
000190 00 00 00 00 00 00 00 00 00 00 00 00 00 00 00 00
       0.0 0.0 0.0 0.0
0001a0 00 00 00 00 00 00 00 00 00 00 00 00 00 00 00 00
       0.0 0.0 0.0 0.0
0001b0 00 00 00 00 00 00 00 00 00 00 00 00 00 00 00 00
       0.0 0.0 0.0 0.0
0001c0 00 00 00 00 00 00 00 00 00 00 00 00 00 00 00 00
       0.0 0.0 0.0 0.0
0001d0 00 00 00 00 00 00 00 00 00 00 00 00 00 00 00 00
       0.0 0.0 0.0 0.0
0001e0 00 00 00 00 00 00 00 00 00 00 00 00 00 00 00 00
       0.0 0.0 0.0 0.0
0001f0 00 00 00 00 00 00 00 00 00 00 00 00 00 00 00 00
       0.0 0.0 0.0 0.0

actor_fc_layers.blocks.0.block.1.running_var f4 [128]
000000 00 00 80 3f 00 00 80 3f 00 00 80 3f 00 00 80 3f
       1.0 1.0 1.0 1.0
000010 00 00 80 3f 00 00 80 3f 00 00 80 3f 00 00 80 3f
       1.0 1.0 1.0 1.0
000020 00 00 80 3f 00 00 80 3f 00 00 80 3f 00 00 80 3f
       1.0 1.0 1.0 1.0
000030 00 00 80 3f 00 00 80 3f 00 00 80 3f 00 00 80 3f
       1.0 1.0 1.0 1.0
000040 00 00 80 3f 00 00 80 3f 00 00 80 3f 00 00 80 3f
       1.0 1.0 1.0 1.0
000050 00 00 80 3f 00 00 80 3f 00 00 80 3f 00 00 80 3f
       1.0 1.0 1.0 1.0
000060 00 00 80 3f 00 00 80 3f 00 00 80 3f 00 00 80 3f
       1.0 1.0 1.0 1.0
000070 00 00 80 3f 00 00 80 3f 00 00 80 3f 00 00 80 3f
       1.0 1.0 1.0 1.0
000080 00 00 80 3f 00 00 80 3f 00 00 80 3f 00 00 80 3f
       1.0 1.0 1.0 1.0
000090 00 00 80 3f 00 00 80 3f 00 00 80 3f 00 00 80 3f
       1.0 1.0 1.0 1.0
0000a0 00 00 80 3f 00 00 80 3f 00 00 80 3f 00 00 80 3f
       1.0 1.0 1.0 1.0
0000b0 00 00 80 3f 00 00 80 3f 00 00 80 3f 00 00 80 3f
       1.0 1.0 1.0 1.0
0000c0 00 00 80 3f 00 00 80 3f 00 00 80 3f 00 00 80 3f
       1.0 1.0 1.0 1.0
0000d0 00 00 80 3f 00 00 80 3f 00 00 80 3f 00 00 80 3f
       1.0 1.0 1.0 1.0
0000e0 00 00 80 3f 00 00 80 3f 00 00 80 3f 00 00 80 3f
       1.0 1.0 1.0 1.0
0000f0 00 00 80 3f 00 00 80 3f 00 00 80 3f 00 00 80 3f
       1.0 1.0 1.0 1.0
000100 00 00 80 3f 00 00 80 3f 00 00 80 3f 00 00 80 3f
       1.0 1.0 1.0 1.0
000110 00 00 80 3f 00 00 80 3f 00 00 80 3f 00 00 80 3f
       1.0 1.0 1.0 1.0
000120 00 00 80 3f 00 00 80 3f 00 00 80 3f 00 00 80 3f
       1.0 1.0 1.0 1.0
000130 00 00 80 3f 00 00 80 3f 00 00 80 3f 00 00 80 3f
       1.0 1.0 1.0 1.0
000140 00 00 80 3f 00 00 80 3f 00 00 80 3f 00 00 80 3f
       1.0 1.0 1.0 1.0
000150 00 00 80 3f 00 00 80 3f 00 00 80 3f 00 00 80 3f
       1.0 1.0 1.0 1.0
000160 00 00 80 3f 00 00 80 3f 00 00 80 3f 00 00 80 3f
       1.0 1.0 1.0 1.0
000170 00 00 80 3f 00 00 80 3f 00 00 80 3f 00 00 80 3f
       1.0 1.0 1.0 1.0
000180 00 00 80 3f 00 00 80 3f 00 00 80 3f 00 00 80 3f
       1.0 1.0 1.0 1.0
000190 00 00 80 3f 00 00 80 3f 00 00 80 3f 00 00 80 3f
       1.0 1.0 1.0 1.0
0001a0 00 00 80 3f 00 00 80 3f 00 00 80 3f 00 00 80 3f
       1.0 1.0 1.0 1.0
0001b0 00 00 80 3f 00 00 80 3f 00 00 80 3f 00 00 80 3f
       1.0 1.0 1.0 1.0
0001c0 00 00 80 3f 00 00 80 3f 00 00 80 3f 00 00 80 3f
       1.0 1.0 1.0 1.0
0001d0 00 00 80 3f 00 00 80 3f 00 00 80 3f 00 00 80 3f
       1.0 1.0 1.0 1.0
0001e0 00 00 80 3f 00 00 80 3f 00 00 80 3f 00 00 80 3f
       1.0 1.0 1.0 1.0
0001f0 00 00 80 3f 00 00 80 3f 00 00 80 3f 00 00 80 3f
       1.0 1.0 1.0 1.0

actor_fc_layers.blocks.1.block.0.weight f4 [128, 128]
000000 3e 4a 13 3c 32 86 a7 bd 37 9f 56 3d 62 18 b3 bd
       0.008989869 -0.081798926 0.052397933 -0.08744885
000010 63 40 ed 3b ce ff f4 bc ad f8 a3 bd 79 a2 8f bd
       0.0072403415 -0.029907133 -0.080064155 -0.07013411
000020 3d b6 15 bd 6d c2 21 bd 1c b8 8e bc 9f f9 d6 3c
       -0.03655075 -0.03949206 -0.017421775 0.026242075
000030 a3 f7 87 3d 0b 16 1c 3d 6d 50 22 3d d7 cf 2b bd
       0.0663903 0.03810696 0.03962748 -0.04194626
000040 bd 78 94 bd 66 54 88 3c 28 f2 8c bc 50 77 34 3c
       -0.072495915 0.016641807 -0.017205313 0.011014774
000050 09 21 81 bd d5 e5 24 3c 51 d8 9b 3d 6a 3f 00 bc
       -0.06305129 0.010064562 0.076096185 -0.007827619
000060 de b4 8a bd 42 fa fa bc ce f6 cc bd 7e 2a 42 3d
       -0.06772779 -0.03063691 -0.10008012 0.047403805
000070 f6 83 cd bc 14 b6 15 3c 9b ad be 3c c9 a8 d6 3c
       -0.025087338 0.009137649 0.02327614 0.02620353
000080 59 6a b0 3d a5 26 be bd 0e 47 b1 bd 7a 2b 19 3d
       0.08614034 -0.092847146 -0.08656131 0.037394978
000090 96 dc 3a bd 21 8b 78 3d cc 19 11 3d 67 39 8f 3d
       -0.045620523 0.06067956 0.035424992 0.069933705
0000a0 06 16 b3 3d ae 37 69 bc ac ad 2f bd 02 7d a7 bd
       0.08744435 -0.0142344665 -0.042890236 -0.0817814
0000b0 76 77 d7 bc 6a 65 08 3d a8 a1 5d 3c 94 8a 6d bd
       -0.02630208 0.03329984 0.013527311 -0.057993487
0000c0 9c 90 23 3d e0 8e cf bc 86 1a ac 3c 6f 04 46 3b
       0.039932832 -0.025336683 0.021008741 0.0030215045
0000d0 ef 61 1f bd 67 bf c2 bc 20 b0 50 3d 6d 9f e8 bc
       -0.038911756 -0.023772908 0.050949216 -0.028396333
0000e0 66 c8 9f bc d5 a5 5f bc 47 61 9b bb 73 f5 85 3d
       -0.019504737 -0.013650377 -0.004741821 0.06540956
0000f0 42 43 6f 3d 5c f0 ab 3d 97 69 a6 bb 39 33 be bd
       0.05841375 0.08395454 -0.0050785053 -0.09287114
000100 78 c1 22 3d 84 9f d7 bb f9 c5 52 3d f1 20 ae 3c
       0.039735287 -0.006580295 0.051458333 0.021255942
000110 95 c0 f9 b7 93 0d df bc e3 5b d1 bc 95 0b e7 bc
       -2.9772791e-05 -0.027228152 -0.02555651 -0.028203765
000120 8a 2c b5 bc ac e0 14 3d 86 a3 5a bd 7f 3d a5 3d
       -0.022115964 0.036347076 -0.053378604 0.0806837
000130 95 7c 3c bc 79 e9 6b 3d b1 cf ee bc 75 53 32 3d
       -0.011504312 0.057595704 -0.02915177 0.043536622
000140 ad 7f 19 3d a8 dd af 3d 7f 10 ab ba cb 0c 8e bd
       0.037475277 0.085871994 -0.0013051181 -0.06936034
000150 51 76 31 bd f1 0f c4 bc 0d cc 23 bc 1e f8 11 3c
       -0.043325726 -0.023933383 -0.00999738 0.008909253
000160 6c b7 8d bc 22 11 ff bc 70 13 10 bc cd 90 88 bd
       -0.017299376 -0.0311361 -0.008793697 -0.066682436
000170 7d 5a 74 3d 66 d2 1e bd bf ba 35 3d c8 96 01 bd
       0.05965661 -0.03877487 0.044367548 -0.031637937
000180 d0 56 bc bd 09 3b 28 bd 8a 56 9f bd 63 e3 5f 3d
       -0.09196246 -0.041071925 -0.07780178 0.054660212
000190 e2 9f 78 3d 0b 9c 96 3d 90 c2 a8 3d 7d ac 83 3c
       0.06069935 0.073539816 0.08240235 0.01607346
0001a0 7f e7 88 bd 4b e0 bf bb c8 e8 e3 3c 03 0a c8 bd
       -0.066847794 -0.005855595 0.02782096 -0.097675346
0001b0 89 38 65 bd 4c 7e 46 3d 4b 9f c6 bd e1 9d 9e bd
       -0.05596212 0.04846029 -0.096983515 -0.07744957
0001c0 a4 0c 1f bd 44 f7 99 bd 57 c5 ba bd ea c2 82 3d
       -0.038830414 -0.07517865 -0.09119671 0.06384833
0001d0 24 25 a1 3c c7 38 68 bb 7e 35 59 bc 1a 1e a2 bd
       0.01967103 -0.0035434233 -0.013257382 -0.07915898
0001e0 d7 bb 7e bd 58 98 75 bd dc ea 2a 3d 74 f8 9c bd
       -0.062190857 -0.05995974 0.041727886 -0.07664576
0001f0 74 fe 51 3b 98 d2 b7 bd b3 ae 5e 3d 58 12 95 bd
       0.0032042535 -0.089757144 0.054365825 -0.072788894
000200 42 66 50 3d d7 35 bb 3d f3 fc 8b bc c9 3d 91 3d
       0.05087877 0.091411285 -0.017088389 0.07091863
000210 a8 53 1c bd fd bb 2a be 6a 0e 8e 3d b4 d1 5a 3c
       -0.03816572 -0.16673274 0.06936343 0.013355661
000220 d7 33 23 be 39 5e a7 3d 10 c5 de 3b 2e 44 c9 bc
       -0.15937744 0.081722684 0.006798394 -0.024568643
000230 4d 9a 43 bc d1 12 71 3c c7 b8 13 3e 2e 50 42 3d
       -0.011938644 0.014713959 0.14425956 0.047439747
000240 0c 6f 0d 3d 5a 0c a0 3d f8 01 fa 3d 4b 11 87 bd
       0.03452973 0.07814856 0.12207407 -0.06595095
000250 bf 6e 93 3d aa 71 94 bc 08 05 d1 bb 10 e6 32 3c
       0.071988575 -0.018120605 -0.0063787736 0.010919109
000260 e7 c4 dc bc 2a f3 b8 3a 70 fc a0 3d 04 83 c0 3c
       -0.02694936 0.0014110554 0.07860649 0.023499973
000270 15 32 d8 bc b9 69 5c bb d2 41 23 3b 8d 39 d4 3d
       -0.026391068 -0.0033632352 0.0024911058 0.103625394
000280 14 fc 75 bd 03 d9 d5 3c f2 87 88 3d 7f e1 c0 bc
       -0.060054854 0.026104456 0.066665545 -0.023545025
000290 8c b1 c6 b9 f0 2d 91 3c 90 4b 43 3c 98 8b e8 3c
       -0.00037897786 0.0177221 0.011919871 0.028386876
0002a0 7b 87 ed 3d e2 48 92 3d 92 1c 97 bb da b5 8d 3d
       0.115981065 0.071428075 -0.00461156 0.06919451
0002b0 75 c2 00 3e 0c 0d 42 3c 3d 41 85 3d 66 3a e7 3c
       0.1257418 0.011843931 0.06506584 0.028226089
0002c0 d4 fd 9e 3d 2e 73 37 bc 4f 9e 70 3d 9c 15 1e 3d
       0.077632576 -0.011196895 0.058744725 0.038594827
0002d0 97 53 54 bd f6 3d a8 3d 18 2e 96 3d 8b 3f 13 3d
       -0.05183753 0.08214943 0.073330104 0.03594927
0002e0 c0 30 f7 bc 5b 17 fc 3d 83 aa 84 3c e7 4a 99 3b
       -0.030174613 0.12309142 0.016194588 0.0046781185
0002f0 0b ed c3 3c 0a 1f 3c 3d 52 7b 4b 3d d7 71 07 3e
       0.023916742 0.04592804 0.049678154 0.1322702
000300 0e 2f ca 3d 0f 27 e1 3d 75 e1 86 bc 90 c6 88 3b
       0.09872256 0.10993778 -0.016464928 0.004174061
000310 36 0e 11 3c 83 b3 2b 3d 08 a2 00 3e 6a 1b b3 3c
       0.008853486 0.041919243 0.1256181 0.021863658
000320 d6 b3 bc 3c 8f db a5 3c 52 c6 de 3c bc ba 47 ba
       0.023034971 0.020246295 0.027194176 -0.0007619073
000330 83 4f a6 bc d6 14 b7 3d 17 93 5c 3c 7d 0c 07 3d
       -0.020301586 0.08939521 0.013462803 0.032970894
000340 c0 b5 5f bc d2 53 1e 3d fe aa d9 3c 9a 3c 2d 3d
       -0.013654172 0.038654156 0.026570793 0.042294122
000350 ab 13 93 3d 00 9a 1b bd 0d 6a 5e 3d 9d 23 0b 3e
       0.07181486 -0.037988663 0.054300357 0.13587804
000360 76 8d 77 3d c4 33 62 3d e7 4d f9 3c ec c6 8f bc
       0.060437642 0.05522515 0.030432655 -0.017550908
000370 24 3a 87 3d 36 2f 40 3d 74 71 79 3d e4 0f 67 bd
       0.06602886 0.046920024 0.060899213 -0.05641164
000380 88 70 a7 3d ee 97 82 3d 9b d2 01 3d ac b2 1c 3d
       0.081757605 0.063766345 0.03169499 0.038256332
000390 50 0d 07 3e dd 70 a0 3d 22 a6 5f 3d c4 cf 45 bd
       0.13188672 0.07834027 0.054601796 -0.048293844
0003a0 f9 db b2 bc d8 1a ec 3c 3b 33 d5 3c 2c b2 a8 3d
       -0.021833407 0.028821394 0.026025405 0.082371086
0003b0 33 59 5a 3c 08 d5 80 3d df 45 da bc e4 f6 1b bc
       0.013326931 0.062906325 -0.026644645 -0.0095193125
0003c0 7c cf 71 3d a0 0e 09 3d 0d 73 30 3e ad 86 e0 3c
       0.059035763 0.033461213 0.17231388 0.027407968
0003d0 41 34 10 3d 4a 74 5b 3d 93 14 99 bc f9 b7 a1 3b
       0.035206083 0.0535777 -0.018686568 0.0049352613
0003e0 8d a4 86 3d a7 79 a8 bb e0 ea 97 3d 66 1d c5 3d
       0.06574354 -0.005141455 0.07417846 0.09624748
0003f0 9a cb 63 bd 17 0b 29 bd f9 75 a3 3c d5 07 5c 3d
       -0.05561409 -0.04127034 0.019953715 0.053718407

actor_fc_layers.blocks.1.block.1.weight f4 [128]
000000 1f 5e 80 3f ac 22 84 3f 92 67 82 3f 19 d8 83 3f
       1.0028723 1.0323081 1.0187857 1.0300323
000010 f6 94 79 3f 1b 0a 7f 3f de 77 7e 3f b6 bb 7a 3f
       0.9749292 0.99624795 0.9940165 0.97942674
000020 6d b3 7d 3f 89 dc 7d 3f 84 4e 80 3f af 63 7e 3f
       0.99101907 0.99164635 1.0023961 0.99370855
000030 25 ab 7a 3f 86 84 7b 3f 11 25 7e 3f 76 38 82 3f
       0.97917396 0.9824909 0.9927531 1.017348
000040 6c 8a 7a 3f e0 c0 7d 3f a1 3f 80 3f c5 45 7d 3f
       0.97867465 0.9912243 1.0019418 0.98934585
000050 c3 dc 7a 3f e8 5a 7e 3f 97 a6 81 3f c6 5b 7c 3f
       0.97993106 0.9935746 1.0128964 0.98577535
000060 f7 a4 7b 3f ea 94 7b 3f 63 f2 78 3f bc d5 7a 3f
       0.9829859 0.982741 0.9724485 0.9798238
000070 27 6b 77 3f e7 8c 80 3f 25 88 7f 3f 63 5a 7e 3f
       0.96647877 1.0043 0.99817115 0.9935667
000080 1d 48 7c 3f 67 71 7d 3f 01 7b 7b 3f 30 81 7e 3f
       0.98547536 0.99001163 0.98234564 0.99415874
000090 1d 36 80 3f f3 1a 80 3f ed 82 7e 3f 4d 73 82 3f
       1.0016514 1.0008224 0.99418527 1.0191437
0000a0 cd be 80 3f ef 0c 7c 3f f8 c5 81 3f 7d 10 7c 3f
       1.0058228 0.98457235 1.013854 0.9846266
0000b0 88 f2 7b 3f b5 c6 7f 3f d9 4f 7c 3f 0c 81 83 3f
       0.9841695 0.9991258 0.9855934 1.0273757
0000c0 fb 32 7a 3f 53 4a 7e 3f 67 23 7b 3f f6 3f 80 3f
       0.9773404 0.9933216 0.98100895 1.0019519
0000d0 04 7c 80 3f d6 4e 7b 3f 78 ca 83 3f d3 25 7e 3f
       1.0037847 0.9816717 1.0296164 0.99276465
0000e0 ed 85 7a 3f 67 77 7f 3f b5 3f 81 3f 38 bc 7b 3f
       0.97860605 0.9979157 1.0097567 0.98334074
0000f0 cf 18 7b 3f c0 43 7c 3f ee 39 7d 3f fd 42 73 3f
       0.9808473 0.9854088 0.9891652 0.9502409
000100 1e 51 81 3f 68 90 7c 3f 2c 61 7f 3f 43 c5 7a 3f
       1.010288 0.98657846 0.9975765 0.9795725
000110 3f 9f 7a 3f 1f 21 77 3f d5 8f 7d 3f 34 84 7c 3f
       0.9789924 0.96534914 0.99047595 0.98639226
000120 59 29 7f 3f df 03 80 3f be 55 7d 3f cc c1 7c 3f
       0.99672467 1.0001181 0.9895896 0.9873321
000130 85 fd 80 3f 73 d1 7d 3f 66 a0 78 3f db bb 75 3f
       1.0077368 0.9914772 0.9711975 0.9598977
000140 26 28 80 3f 2a 4f 7d 3f 79 1f 7d 3f 8b 57 80 3f
       1.0012252 0.9894892 0.9887615 1.0026716
000150 b6 b0 7e 3f e0 97 79 3f 38 67 82 3f f8 47 81 3f
       0.9948839 0.9749737 1.018775 1.0100088
000160 8c de 7f 3f b7 15 7e 3f 35 c6 86 3f d9 17 83 3f
       0.99948955 0.99251884 1.0529238 1.0241653
000170 3e 24 7e 3f 07 64 7f 3f e6 a2 7a 3f 35 70 80 3f
       0.9927405 0.99762005 0.97904813 1.0034243
000180 7a 8b 81 3f 0b 74 7e 3f b0 77 7d 3f 3f e2 7e 3f
       1.012069 0.9939582 0.99010754 0.99563974
000190 d4 16 80 3f 84 66 79 3f 65 ab 7d 3f 46 9f 7b 3f
       1.0006967 0.9742205 0.9908965 0.98289907
0001a0 b5 bb 7e 3f ba 43 7e 3f 15 3b 7c 3f 0e 42 80 3f
       0.9950517 0.9932209 0.9852765 1.0020158
0001b0 c7 fa 7d 3f 22 f1 7a 3f 73 ad 7f 3f f1 84 82 3f
       0.9921078 0.9802419 0.9987404 1.019682
0001c0 6f 27 7f 3f 8b 5d 78 3f dc 31 7f 3f ba 7f 7c 3f
       0.99669546 0.97017735 0.99685454 0.98632395
0001d0 d4 c0 7e 3f 66 27 7e 3f 12 de 7c 3f cb 44 7e 3f
       0.9951298 0.9927887 0.9877635 0.9932372
0001e0 95 84 7d 3f 12 7b 80 3f cc f5 7d 3f e7 c7 80 3f
       0.9903043 1.0037558 0.9920318 1.0061005
0001f0 c9 ca 87 3f b8 6b 83 3f ac c1 7d 3f 82 d0 78 3f
       1.060876 1.0267248 0.99123645 0.9719316

actor_fc_layers.blocks.1.block.1.bias f4 [128]
000000 f0 61 90 bc e6 7e ab 3d 1b 2c 03 3d 43 07 64 3d
       -0.017624825 0.08373813 0.032024484 0.055670988
000010 77 5f 6e b8 ae ae 8d bb b6 74 89 bc f6 d6 ee bc
       -5.683253e-05 -0.004323802 -0.016779285 -0.029155236
000020 8a 6f b5 bc b9 e0 30 bc 98 94 d0 bc d2 0b e8 3b
       -0.022147913 -0.010795766 -0.02546148 0.007081487
000030 8b b0 28 bc 0c 88 52 bc 4a 32 ad ba 33 23 1b 3c
       -0.010295997 -0.012849819 -0.001321384 0.009468841
000040 0a da 98 bc 4f 73 f8 bc 40 1b 83 bc 38 d1 64 3a
       -0.018658657 -0.03032842 -0.016004205 0.0008728686
000050 ee c8 9b bc ca aa 5d bc 88 8f cd 3b 36 b8 ae bc
       -0.01901671 -0.013529489 0.006273214 -0.021328073
000060 61 b8 f4 3b c2 e6 9b 3b 77 42 04 bc 5d 5f 67 bc
       0.0074682687 0.004757733 -0.008072487 -0.0141218575
000070 7e cc 00 bd a6 55 60 bc b9 df f8 bb 2d e5 16 bc
       -0.03144502 -0.013692295 -0.007595029 -0.009209913
000080 e6 ef d6 bb 3c bf 0b bc 65 6e ba bc ae 61 5e bc
       -0.00655936 -0.008529481 -0.022757718 -0.013573093
000090 22 24 a9 3b f7 1f 6b bc 7a 59 c5 bc 8e de 27 bb
       0.005161778 -0.014350883 -0.024090517 -0.002561483
0000a0 8f e6 48 bc 60 22 2a bb ac 7f b5 bc 84 b1 7d bc
       -0.012262001 -0.002596043 -0.022155605 -0.015484218
0000b0 f2 6b a1 bc cf 28 01 3d c5 59 88 bc 84 fe 93 3d
       -0.019704793 0.03153306 -0.016644368 0.072262794
0000c0 3e ed 0e bc b7 2d 06 b9 2c 92 f5 bb 6e 4a e3 3c
       -0.008723555 -0.00012796266 -0.0074942317 0.027745452
0000d0 35 75 2c 3c a5 bd 16 bd da 42 c2 3d d2 06 a5 3d
       0.010525991 -0.036801953 0.09485407 0.080579415
0000e0 a6 ce d0 bc be 2e da bb 71 a1 6e 3d 10 98 73 3c
       -0.025489163 -0.006658404 0.05825943 0.0148677975
0000f0 b6 07 da ba 9b 19 1f 3d f7 28 8c bc b1 09 2e bc
       -0.0016634378 0.03884278 -0.017109377 -0.010622428
000100 af 68 41 3d d8 6c 77 bc fd 43 87 bc 90 33 15 bd
       0.047218975 -0.015101634 -0.016511912 -0.036426127
000110 9b f8 41 bc dc a1 af 3a 3f b5 77 bc 69 db 48 bc
       -0.011839057 0.0013399678 -0.015118896 -0.012259343
000120 93 15 bd bc 12 89 15 bb f1 b2 78 bc 0b d5 22 3c
       -0.023081576 -0.0022817296 -0.015179382 0.009938489
000130 0c 17 5a bc d1 d4 cf bb a2 e2 e6 bc cc 50 77 bc
       -0.013311159 -0.0063425084 -0.028184239 -0.015094947
000140 84 46 0f bc 0c e5 05 3c 37 46 69 bc ac 59 16 3a
       -0.00874484 0.008172285 -0.014237932 0.0005735408
000150 28 eb b9 bb 24 ec b1 bc ad 67 4a bb 1b 11 c1 3b
       -0.0056737848 -0.021719046 -0.003088455 0.0058919317
000160 59 e4 3d 3c cf f8 6d bc fb dc a1 3d 07 67 00 3d
       0.011590087 -0.014524653 0.07903477 0.031348255
000170 33 54 f9 bb b4 6f 5c 3d ee 99 5e bc ca 4f 14 bd
       -0.0076089143 0.053817466 -0.013586504 -0.036208905
000180 6e 8d bd bc c5 44 86 bb 4b 92 3a 3a 6f 8f 8f 3c
       -0.023138728 -0.0040975534 0.0007117136 0.01752445
000190 a4 a8 b2 3b b5 3d 97 bb fa d9 4f bc a5 1d 1c bb
       0.0054522324 -0.0046155103 -0.012686247 -0.002382138
0001a0 8f d3 d5 bc 70 f9 9a bc c4 d8 89 bc 6e 9d de 3c
       -0.026101856 -0.01891777 -0.016826995 0.027174678
0001b0 04 e9 a2 bc 56 f4 57 3d a9 09 7c bc ea a1 63 bc
       -0.019886501 0.05272325 -0.015383163 -0.013893584
0001c0 90 22 e9 bb 63 d8 6c bc 45 1b 0f bd 5c cb ec bc
       -0.007114716 -0.0144558875 -0.034938116 -0.028905563
0001d0 d6 2c f7 bc 57 28 b3 bc 97 1b 07 3c 6f 80 80 bc
       -0.030172747 -0.021869821 0.008246324 -0.015686242
0001e0 b3 34 50 bc 57 d2 be bc 50 38 35 bc a5 a8 9c bc
       -0.012707877 -0.023293657 -0.011060789 -0.019123385
0001f0 6c 2f d8 3d 8b b3 8b 3d 2a be fa bb eb 9a ae bc
       0.1055592 0.068213545 -0.007652064 -0.021314105

actor_fc_layers.blocks.1.block.1.running_mean f4 [128]
000000 00 00 00 00 00 00 00 00 00 00 00 00 00 00 00 00
       0.0 0.0 0.0 0.0
000010 00 00 00 00 00 00 00 00 00 00 00 00 00 00 00 00
       0.0 0.0 0.0 0.0
000020 00 00 00 00 00 00 00 00 00 00 00 00 00 00 00 00
       0.0 0.0 0.0 0.0
000030 00 00 00 00 00 00 00 00 00 00 00 00 00 00 00 00
       0.0 0.0 0.0 0.0
000040 00 00 00 00 00 00 00 00 00 00 00 00 00 00 00 00
       0.0 0.0 0.0 0.0
000050 00 00 00 00 00 00 00 00 00 00 00 00 00 00 00 00
       0.0 0.0 0.0 0.0
000060 00 00 00 00 00 00 00 00 00 00 00 00 00 00 00 00
       0.0 0.0 0.0 0.0
000070 00 00 00 00 00 00 00 00 00 00 00 00 00 00 00 00
       0.0 0.0 0.0 0.0
000080 00 00 00 00 00 00 00 00 00 00 00 00 00 00 00 00
       0.0 0.0 0.0 0.0
000090 00 00 00 00 00 00 00 00 00 00 00 00 00 00 00 00
       0.0 0.0 0.0 0.0
0000a0 00 00 00 00 00 00 00 00 00 00 00 00 00 00 00 00
       0.0 0.0 0.0 0.0
0000b0 00 00 00 00 00 00 00 00 00 00 00 00 00 00 00 00
       0.0 0.0 0.0 0.0
0000c0 00 00 00 00 00 00 00 00 00 00 00 00 00 00 00 00
       0.0 0.0 0.0 0.0
0000d0 00 00 00 00 00 00 00 00 00 00 00 00 00 00 00 00
       0.0 0.0 0.0 0.0
0000e0 00 00 00 00 00 00 00 00 00 00 00 00 00 00 00 00
       0.0 0.0 0.0 0.0
0000f0 00 00 00 00 00 00 00 00 00 00 00 00 00 00 00 00
       0.0 0.0 0.0 0.0
000100 00 00 00 00 00 00 00 00 00 00 00 00 00 00 00 00
       0.0 0.0 0.0 0.0
000110 00 00 00 00 00 00 00 00 00 00 00 00 00 00 00 00
       0.0 0.0 0.0 0.0
000120 00 00 00 00 00 00 00 00 00 00 00 00 00 00 00 00
       0.0 0.0 0.0 0.0
000130 00 00 00 00 00 00 00 00 00 00 00 00 00 00 00 00
       0.0 0.0 0.0 0.0
000140 00 00 00 00 00 00 00 00 00 00 00 00 00 00 00 00
       0.0 0.0 0.0 0.0
000150 00 00 00 00 00 00 00 00 00 00 00 00 00 00 00 00
       0.0 0.0 0.0 0.0
000160 00 00 00 00 00 00 00 00 00 00 00 00 00 00 00 00
       0.0 0.0 0.0 0.0
000170 00 00 00 00 00 00 00 00 00 00 00 00 00 00 00 00
       0.0 0.0 0.0 0.0
000180 00 00 00 00 00 00 00 00 00 00 00 00 00 00 00 00
       0.0 0.0 0.0 0.0
000190 00 00 00 00 00 00 00 00 00 00 00 00 00 00 00 00
       0.0 0.0 0.0 0.0
0001a0 00 00 00 00 00 00 00 00 00 00 00 00 00 00 00 00
       0.0 0.0 0.0 0.0
0001b0 00 00 00 00 00 00 00 00 00 00 00 00 00 00 00 00
       0.0 0.0 0.0 0.0
0001c0 00 00 00 00 00 00 00 00 00 00 00 00 00 00 00 00
       0.0 0.0 0.0 0.0
0001d0 00 00 00 00 00 00 00 00 00 00 00 00 00 00 00 00
       0.0 0.0 0.0 0.0
0001e0 00 00 00 00 00 00 00 00 00 00 00 00 00 00 00 00
       0.0 0.0 0.0 0.0
0001f0 00 00 00 00 00 00 00 00 00 00 00 00 00 00 00 00
       0.0 0.0 0.0 0.0

actor_fc_layers.blocks.1.block.1.running_var f4 [128]
000000 00 00 80 3f 00 00 80 3f 00 00 80 3f 00 00 80 3f
       1.0 1.0 1.0 1.0
000010 00 00 80 3f 00 00 80 3f 00 00 80 3f 00 00 80 3f
       1.0 1.0 1.0 1.0
000020 00 00 80 3f 00 00 80 3f 00 00 80 3f 00 00 80 3f
       1.0 1.0 1.0 1.0
000030 00 00 80 3f 00 00 80 3f 00 00 80 3f 00 00 80 3f
       1.0 1.0 1.0 1.0
000040 00 00 80 3f 00 00 80 3f 00 00 80 3f 00 00 80 3f
       1.0 1.0 1.0 1.0
000050 00 00 80 3f 00 00 80 3f 00 00 80 3f 00 00 80 3f
       1.0 1.0 1.0 1.0
000060 00 00 80 3f 00 00 80 3f 00 00 80 3f 00 00 80 3f
       1.0 1.0 1.0 1.0
000070 00 00 80 3f 00 00 80 3f 00 00 80 3f 00 00 80 3f
       1.0 1.0 1.0 1.0
000080 00 00 80 3f 00 00 80 3f 00 00 80 3f 00 00 80 3f
       1.0 1.0 1.0 1.0
000090 00 00 80 3f 00 00 80 3f 00 00 80 3f 00 00 80 3f
       1.0 1.0 1.0 1.0
0000a0 00 00 80 3f 00 00 80 3f 00 00 80 3f 00 00 80 3f
       1.0 1.0 1.0 1.0
0000b0 00 00 80 3f 00 00 80 3f 00 00 80 3f 00 00 80 3f
       1.0 1.0 1.0 1.0
0000c0 00 00 80 3f 00 00 80 3f 00 00 80 3f 00 00 80 3f
       1.0 1.0 1.0 1.0
0000d0 00 00 80 3f 00 00 80 3f 00 00 80 3f 00 00 80 3f
       1.0 1.0 1.0 1.0
0000e0 00 00 80 3f 00 00 80 3f 00 00 80 3f 00 00 80 3f
       1.0 1.0 1.0 1.0
0000f0 00 00 80 3f 00 00 80 3f 00 00 80 3f 00 00 80 3f
       1.0 1.0 1.0 1.0
000100 00 00 80 3f 00 00 80 3f 00 00 80 3f 00 00 80 3f
       1.0 1.0 1.0 1.0
000110 00 00 80 3f 00 00 80 3f 00 00 80 3f 00 00 80 3f
       1.0 1.0 1.0 1.0
000120 00 00 80 3f 00 00 80 3f 00 00 80 3f 00 00 80 3f
       1.0 1.0 1.0 1.0
000130 00 00 80 3f 00 00 80 3f 00 00 80 3f 00 00 80 3f
       1.0 1.0 1.0 1.0
000140 00 00 80 3f 00 00 80 3f 00 00 80 3f 00 00 80 3f
       1.0 1.0 1.0 1.0
000150 00 00 80 3f 00 00 80 3f 00 00 80 3f 00 00 80 3f
       1.0 1.0 1.0 1.0
000160 00 00 80 3f 00 00 80 3f 00 00 80 3f 00 00 80 3f
       1.0 1.0 1.0 1.0
000170 00 00 80 3f 00 00 80 3f 00 00 80 3f 00 00 80 3f
       1.0 1.0 1.0 1.0
000180 00 00 80 3f 00 00 80 3f 00 00 80 3f 00 00 80 3f
       1.0 1.0 1.0 1.0
000190 00 00 80 3f 00 00 80 3f 00 00 80 3f 00 00 80 3f
       1.0 1.0 1.0 1.0
0001a0 00 00 80 3f 00 00 80 3f 00 00 80 3f 00 00 80 3f
       1.0 1.0 1.0 1.0
0001b0 00 00 80 3f 00 00 80 3f 00 00 80 3f 00 00 80 3f
       1.0 1.0 1.0 1.0
0001c0 00 00 80 3f 00 00 80 3f 00 00 80 3f 00 00 80 3f
       1.0 1.0 1.0 1.0
0001d0 00 00 80 3f 00 00 80 3f 00 00 80 3f 00 00 80 3f
       1.0 1.0 1.0 1.0
0001e0 00 00 80 3f 00 00 80 3f 00 00 80 3f 00 00 80 3f
       1.0 1.0 1.0 1.0
0001f0 00 00 80 3f 00 00 80 3f 00 00 80 3f 00 00 80 3f
       1.0 1.0 1.0 1.0

actor_fc_layers.blocks.2.block.0.weight f4 [128, 128]
000000 7c 3d 51 bd 06 5f af bd a3 97 ef bc e0 6b 7d 3d
       -0.051084027 -0.08563046 -0.02924711 0.061870456
000010 cd 29 b9 3b bb 7f 42 bd 87 6f c0 bd 8b 91 16 3d
       0.005650735 -0.047485095 -0.09396272 0.036759894
000020 0a 88 89 3a da 97 b7 bb ed b3 af bd e2 21 a9 3b
       0.0010492813 -0.005602819 -0.0857924 0.00516151
000030 8e f9 3f bd 3a 06 bc bb 83 9a 0b bd 6f 73 61 bd
       -0.046868853 -0.005738047 -0.0340829 -0.055041727
000040 78 2e 2e 3d 46 6d b7 bd 18 7c d3 bd a2 4c b3 bd
       0.042524785 -0.08956389 -0.103264034 -0.08754851
000050 71 4f 78 3d 8b 7e 55 3d 47 b0 89 bd 13 68 72 bc
       0.060622636 0.052122634 -0.06723075 -0.014795321
000060 bd ef 66 bc 75 77 3d 3d 75 a6 a8 bd 77 02 1d 3c
       -0.014095244 0.0462565 -0.08234874 0.009583107
000070 e6 13 bc bd a4 c3 26 3d 5e ab 45 3d e7 60 9d 3d
       -0.09183483 0.04071392 0.04825913 0.07684498
000080 23 92 8f bc a6 b9 89 3d 23 1f 85 bd 16 5d fb bc
       -0.017525738 0.06724863 -0.065000795 -0.030684035
000090 99 c4 62 bc 82 35 47 3c bf 1e 85 bd 4e fd b5 bd
       -0.013840818 0.012158753 -0.06500005 -0.08886205
0000a0 64 ff db bd c7 96 6b bd ea aa 8b 3d 56 fc 07 3c
       -0.10742071 -0.05751684 0.06819709 0.008299908
0000b0 0e 75 fa bc b0 7f 74 bc ee 5c 31 bd cd bf 0c bd
       -0.030573394 -0.014923021 -0.043301515 -0.034362603
0000c0 9f 62 8e bd fa 8c 6e 3d ff c4 2a 3d 31 18 23 bd
       -0.06952404 0.058239914 0.041691776 -0.039817993
0000d0 7a b2 0a 3d c5 36 be 3c 7f 28 7e bd d7 e0 17 3d
       0.033861615 0.023219476 -0.06205034 0.03707966
0000e0 f3 13 f9 bc 3e c9 8c 3d 9c 88 8f 3d ca 21 30 3d
       -0.03040502 0.068743214 0.07008478 0.043000974
0000f0 4b eb 39 bd d1 74 ab bd 35 e1 c0 3c 05 b3 7b 3c
       -0.04539041 -0.0837189 0.023544887 0.015362506
000100 b4 39 6f bd f7 9a 5e bd 16 10 4c 3d d6 9e 48 3d
       -0.05840464 -0.054347005 0.04982003 0.048979603
000110 d8 e4 a6 3d 51 06 7a 3d 7e c3 65 bd a1 d3 31 bd
       0.08149117 0.06104118 -0.05609464 -0.043414716
000120 e6 4f b2 bd 2e 12 4b 3d 3a 21 84 3d 1a 61 bd bb
       -0.08706646 0.049577884 0.0645165 -0.0057793977
000130 ff 5a a6 bd 0a 2b 0c 3d cb 43 99 3d 9c 39 05 3d
       -0.08122825 0.034220733 0.074836336 0.032525644
000140 f2 59 09 3d 16 42 33 bd 17 11 80 3d 32 65 7c bc
       0.033533044 -0.043764196 0.0625326 -0.015404986
000150 02 39 bc bc 66 b0 3d bc 87 00 c6 bd 35 10 27 bd
       -0.022976402 -0.011577701 -0.09668069 -0.04078694
000160 5f c9 8f 3d ba 2a f8 bc 3c 65 79 3b 47 aa 16 bc
       0.0702083 -0.030293811 0.0038054725 -0.009195871
000170 bf 6a 49 bd b7 c3 f0 3a 91 ee b9 bc fa 6d 4b 3d
       -0.049174067 0.0018368874 -0.022696765 0.04966543
000180 56 5c 38 bd 2a b6 06 3d e7 79 1d 3c 2a ea 35 bc
       -0.045009933 0.03288857 0.009611583 -0.011103192
000190 3e 72 8e 3d 16 50 f9 bc 67 0a c8 bc 1d f8 38 3d
       0.06955384 -0.030433696 -0.024419023 0.045158494
0001a0 68 83 aa 3c d0 1a 61 3d 7b 9d 9a 3d a9 2d 31 bd
       0.020814613 0.05495721 0.07549568 -0.043256436
0001b0 c8 f1 55 bd 83 7b 2f 3d bc 4f e2 ba aa 96 3e bd
       -0.052232534 0.0428424 -0.0017266194 -0.046530403
0001c0 9c 7f 13 bd f7 a6 83 bd 7f f3 06 bd c6 e9 87 bd
       -0.03601037 -0.064283304 -0.03294706 -0.066363856
0001d0 11 8c 24 bd e8 d5 af 3c ff 4c 93 3d 2d 2e 25 bd
       -0.04017264 0.021464303 0.0719242 -0.04032724
0001e0 96 aa 05 3d 4c 99 1c bd da a6 a0 3c 96 f6 c9 3b
       0.032633387 -0.038232133 0.019610811 0.0061634285
0001f0 f8 ca 68 3d c0 ff 78 bd 6e 10 44 3d 25 48 ac bd
       0.05683419 -0.060790777 0.04786723 -0.08412198
000200 87 b2 86 3b 17 74 58 bd 85 22 fa 3d 10 45 53 3d
       0.0041106376 -0.052845087 0.12213615 0.051579535
000210 af 93 8c 3d d0 1a 2f bd e9 19 65 bc c7 cf ea 3c
       0.06864106 -0.04275018 -0.013983228 0.02866353
000220 7a d5 00 3e 5b ff 7e 3c 30 0b 5f bc 93 32 c1 3d
       0.12581435 0.015563811 -0.013613507 0.094334744
000230 e7 4b 91 3d de 32 46 bd 54 ad 8a bb d9 8a e4 3d
       0.07094555 -0.048388354 -0.004232088 0.111592956
000240 19 c0 92 3c cc a0 94 bc 6d d0 51 3d 1e 11 7c bc
       0.017913865 -0.01814308 0.05122416 -0.01538494
000250 69 61 34 3c f0 bd 72 3c af c4 e6 3c e8 31 95 3d
       0.0110095525 0.014815792 0.028169958 0.072849095
000260 71 19 5c 3d fc 3b 4f bd 7b b2 2a 3d 24 ec 26 3c
       0.0537352 -0.050594315 0.04167412 0.010188136
000270 7a 71 a4 3d fe 42 26 bc de 4d 77 3c 10 06 1c bd
       0.080294564 -0.010147808 0.015094249 -0.03809172
000280 db 42 64 3d 06 ee 88 bc 88 87 e3 3d da 91 f7 ba
       0.05572782 -0.01671506 0.11109835 -0.0018888072
000290 b3 1e ff 3d c7 8b e6 3c 1e 79 1c bb d5 aa 48 3d
       0.12457027 0.028142823 -0.0023875902 0.048991043
0002a0 d5 e1 f0 3d d3 87 82 3d 26 07 1b 3d 5f cd 22 bb
       0.11761824 0.06373563 0.037848614 -0.002484165
0002b0 ee 7b 8c 3c 59 53 b0 bc 5c 53 89 3d 61 26 a8 3d
       0.017148938 -0.021524118 0.06705353 0.08210445
0002c0 2e 72 77 bc a6 27 94 3d ca e7 fd 3c 93 6a ad 3d
       -0.015102906 0.07234125 0.030994315 0.08467593
0002d0 8a a2 60 3d 6a a2 c0 3d 3b 02 0d 3e be b5 fc 3d
       0.05484251 0.09405978 0.13770382 0.12339352
0002e0 2d ae 52 bc d8 36 0b 3c 7e 7e 03 3e d3 fc 08 3e
       -0.01285891 0.0084969625 0.12841222 0.13377695
0002f0 18 b8 4d 3d 1f 7a 30 3d c6 15 ef b9 e2 31 7d 3d
       0.050224394 0.043085214 -0.00045601855 0.06181515
000300 ec 10 b4 3d d7 e6 75 bc 9c 5b 1c 3d 11 90 0f bc
       0.0879229 -0.01500865 0.038173303 -0.008762375
000310 87 c5 3e bc 53 30 6a 3d a8 28 8c 3c c9 dd 82 3c
       -0.011643774 0.05717499 0.01710923 0.015974896
000320 62 d6 94 bd 29 d0 a2 3d ed 4b 71 bd c0 4f bc 3c
       -0.07267453 0.0794986 -0.0589103 0.022987247
000330 db 82 d5 3d 68 12 af 3d 93 c6 6a 3d 27 18 22 3d
       0.10425349 0.085484326 0.05731828 0.039573815
000340 0e 55 bc 3d 4e e3 95 bb 00 12 46 bd 06 f2 87 bd
       0.091959104 -0.004574216 -0.04835701 -0.06637959
000350 a9 13 e8 3d 21 51 89 bc fd f2 ee 3d 91 4b bc 3d
       0.11331875 -0.016762318 0.1166744 0.09194101
000360 4b 66 91 3d ec e9 8c 3c cb 8f 1d 3e e0 4b 27 3d
       0.07099589 0.017201386 0.15386884 0.040843844
000370 71 d4 82 bc 90 74 49 bd e1 79 62 bb 54 18 3c bd
       -0.01597044 -0.04918343 -0.0034557509 -0.04592164
000380 33 d3 95 bc ff 23 e7 b9 22 e8 a1 3d 8a 79 d0 3d
       -0.018289184 -0.00044086573 0.07905604 0.10179432
000390 01 91 94 3c 0e 28 15 bd f9 9f 3f 3d fc c1 46 bd
       0.01813555 -0.036415152 0.04678342 -0.04852484
0003a0 32 4b e8 bc 3f b9 7c 3d 94 87 f1 3c 49 c2 77 bd
       -0.028356168 0.061700102 0.029483594 -0.06048802
0003b0 bf fd 99 3c c3 53 99 3d 20 3d 4b bd 29 56 00 3d
       0.018797753 0.074866794 -0.04961884 0.03133217
0003c0 04 46 c5 3c ec d8 4c 3d a0 0f ad 3d 45 92 3d 3c
       0.024081238 0.05001156 0.08450246 0.011570518
0003d0 4d d4 3e 3d c7 db b8 bc e7 ee 5b 3d 98 f7 e7 3d
       0.046589185 -0.022565736 0.053694632 0.11326522
0003e0 41 84 95 3d fe d7 64 3d 1d 1c 8f 3b 87 a1 96 3a
       0.07300616 0.05587005 0.004367365 0.0011492231
0003f0 ca 7f f8 b9 a5 ae fb 3d ba 46 64 bc 81 ee 0d 3d
       -0.00047397456 0.1228917 -0.013932878 0.034651283

actor_fc_layers.blocks.2.block.1.weight f4 [128]
000000 38 85 7c 3f d9 e0 83 3f c2 0e 82 3f 40 87 7a 3f
       0.98640776 1.0302993 1.0160754 0.97862625
000010 89 d6 7e 3f 4b 33 7c 3f 99 33 7d 3f 00 7d 82 3f
       0.99546105 0.98515767 0.98906857 1.0194397
000020 c3 19 7a 3f cf aa 7e 3f ef 1f 80 3f 96 a9 81 3f
       0.9769556 0.99479383 1.0009745 1.0129879
000030 2a a2 81 3f b1 4f 79 3f 50 74 85 3f 59 d6 85 3f
       1.0127614 0.97387224 1.0426121 1.0456039
000040 d1 88 86 3f 4d cd 7d 3f 56 b6 82 3f d1 77 83 3f
       1.0510503 0.9914139 1.0211895 1.027094
000050 42 f6 83 3f f2 1f 7c 3f 49 d0 7e 3f a7 3a 86 3f
       1.0309527 0.98486245 0.9953657 1.0486649
000060 3f c1 83 3f 1a 8e 82 3f 80 b2 86 3f 81 3e 79 3f
       1.0293349 1.0199616 1.0523224 0.97361
000070 02 54 84 3f 00 00 80 3f f3 66 84 3f 09 5e 80 3f
       1.0338137 1.0 1.0343918 1.0028697
000080 d9 d1 7e 3f fa 91 85 3f 6d 3a 7d 3f c5 1e 84 3f
       0.9953895 1.0435174 0.98917276 1.032189
000090 19 5e 7d 3f 28 04 7a 3f 43 09 85 3f e2 67 83 3f
       0.98971707 0.9766259 1.0393451 1.0266078
0000a0 ed 08 7f 3f 27 25 87 3f c0 ac 78 3f 57 0d 80 3f
       0.99622995 1.0558213 0.97138596 1.0004071
0000b0 fe 3d 85 3f 3d c7 7e 3f 09 3e 84 3f b6 74 82 3f
       1.0409544 0.99522763 1.0331432 1.0191867
0000c0 a0 8f 82 3f a6 34 82 3f d1 4d 7e 3f 75 28 7d 3f
       1.0200081 1.0172317 0.9933749 0.9888986
0000d0 89 e0 7c 3f 11 8c 7d 3f ee 3b 83 3f f2 70 81 3f
       0.98780113 0.9904185 1.0252664 1.0112593
0000e0 96 c2 81 3f b9 43 78 3f ab 54 80 3f 60 c1 7f 3f
       1.0137508 0.96978337 1.0025839 0.9990444
0000f0 14 42 8d 3f 90 d2 7f 3f 82 99 84 3f 25 53 7f 3f
       1.103579 0.9993067 1.0359347 0.99736243
000100 14 60 75 3f 7e 99 84 3f 39 c7 79 3f 14 37 7f 3f
       0.9584973 1.0359342 0.97569615 0.9969342
000110 fc 1b 7d 3f 8a 1b 80 3f 6f a0 83 3f a6 35 8b 3f
       0.98870826 1.0008404 1.0283335 1.0875747
000120 75 9a 77 3f 9f 5d 7d 3f 0b d0 7b 3f fe 36 82 3f
       0.9672006 0.9897098 0.98364323 1.0173032
000130 21 d1 7d 3f 26 1d 7b 3f 2a 9c 82 3f 4e 90 83 3f
       0.9914723 0.9809135 1.0203907 1.0278413
000140 29 95 7b 3f be af 89 3f 65 39 7c 3f c1 de 80 3f
       0.98274475 1.0756757 0.9852508 1.0067979
000150 02 b1 81 3f 80 7b 82 3f 60 1c 83 3f 24 15 7f 3f
       1.0132143 1.0193939 1.0243034 0.99641633
000160 f3 aa 79 3f 56 55 7b 3f ae 01 80 3f 28 de 7b 3f
       0.9752647 0.9817709 1.0000513 0.9838586
000170 5a 9e 85 3f 55 a8 7c 3f 39 9b 7c 3f 39 75 79 3f
       1.043895 0.98694354 0.9867435 0.9744449
000180 7f d0 80 3f 43 83 7b 3f 97 fe 80 3f 56 fd 76 3f
       1.0063628 0.98247164 1.0077695 0.9648031
000190 81 44 78 3f 6e e0 85 3f 1f 6f 78 3f 19 fd 7c 3f
       0.9697953 1.0459116 0.9704456 0.98823696
0001a0 5d 64 7c 3f 58 e4 79 3f e2 fd 7c 3f 60 ea 7b 3f
       0.9859064 0.9761405 0.98824894 0.984045
0001b0 b7 75 73 3f 71 1f 78 3f 7d 29 7e 3f 00 00 80 3f
       0.95101494 0.96922976 0.99282056 1.0
0001c0 0a 6d 81 3f 9d 32 7d 3f 6e 22 7c 3f 1a ec 83 3f
       1.0111401 0.98905355 0.98490036 1.0306427
0001d0 ea 78 83 3f 84 cb 7e 3f 05 9a 7b 3f 86 9b 82 3f
       1.0271275 0.9952929 0.9828189 1.0203712
0001e0 e2 5f 81 3f e9 5c 7d 3f 79 dc 77 3f 3e 8f 85 3f
       1.0107386 0.98969895 0.9682079 1.0434339
0001f0 d6 13 82 3f a2 7b 83 3f 8d b4 7e 3f 87 8e 81 3f
       1.0162303 1.0272105 0.9949425 1.0121621
