saved_models/agent_maddpgv2_vs_opp_maddpgv2_4_vs_1_1_big_5_sec_agent_best_models/maddpgv2_target_actor_1.pt (torch, 163339 bytes, 21 tensors)

actor_fc_layers.blocks.0.block.0.weight f4 [128, 27]
0	0xbe037bcd	-0.12840195
1	0x3dc7d410	0.097572446
2	0xbb4236c3	-0.0029634691
3	0xbe3e7dd3	-0.18602686
4	0xbdb2c2bf	-0.08728551
5	0xbbc90d60	-0.0061356276
6	0xbdcb032c	-0.09912714
7	0x3e0212d6	0.12702498
8	0xbcae509c	-0.021278672
9	0xbe1c374e	-0.15255472
10	0xbdb1758a	-0.08664997
11	0x3e5308d9	0.20608844
12	0xbd45b122	-0.04826463
13	0xbe2d447a	-0.16920653
14	0x3a166c8a	0.00057382195
15	0xbe3f9741	-0.18710043
16	0xbe23170e	-0.15926763
17	0xbdd863a3	-0.10565879
18	0xbe1ecb7d	-0.15507312
19	0x3dafcef8	0.08584398
20	0x3c8955ac	0.016764484
21	0xbd3d44dc	-0.046208248
22	0x3dde0546	0.108408496
23	0x3e487135	0.19574435
24	0x3dc49e20	0.096004725
25	0x3d69ad08	0.05704978
26	0xbd53cbff	-0.051708218
27	0xbd28f24d	-0.0412467
28	0xbdb6b5d2	-0.08921398
29	0xbddc70f2	-0.1076373
30	0xbb8f11ce	-0.004366136
31	0xbd60ffcc	-0.054931447
32	0x3d3c1472	0.045917936
33	0xbdd2b354	-0.102881104
34	0xbe5c0c83	-0.21489148
35	0xbe47c978	-0.19510448
36	0x3d842497	0.064522915
37	0xbdab0ddb	-0.08352252
38	0xbe209747	-0.15682708
39	0xbe00536a	-0.1253182
40	0xbd82ba61	-0.06383205
41	0xbcb9604c	-0.022628926
42	0xbe1835eb	-0.14864318
43	0x3e05a5c1	0.13051511
44	0xbd8619dc	-0.06547901
45	0xbc9fbf91	-0.019500526
46	0x3b055064	0.0020342106
47	0xbdce72bf	-0.1008048
48	0x3e171857	0.14755379
49	0x3e1ef5be	0.1552343
50	0x3d514bcc	0.051097676
51	0x3dd23324	0.102636606
52	0xbd7618ce	-0.06008225
53	0x3c5003eb	0.012696247
54	0x3e40c7ff	0.18826292
55	0xbd90442c	-0.07044253
56	0x3defd054	0.11709657
57	0xbde80e6c	-0.11330876
58	0xbdd37f3b	-0.10327002
59	0x3d88add4	0.0667378
60	0x3cb3ddb6	0.021956306
61	0x3daaee2e	0.083462104
62	0x3e136d17	0.14397083
63	0x3d566a35	0.05234738
64	0xbe0569fc	-0.13028711
65	0x3e09810d	0.13428135
66	0x3e032c6a	0.12809911
67	0x3da87ea9	0.082272835
68	0xbd6db71c	-0.058035955
69	0xbda72565	-0.08161429
70	0xbcb746e6	-0.022372674
71	0x3e798569	0.24367298
72	0x3d9c6fde	0.076385245
73	0x3e2cd736	0.16878971
74	0x3e51852e	0.2046096
75	0xbc7cd995	-0.015432735
76	0x3dd53637	0.10410731
77	0xbe25bb6c	-0.16184777
78	0x3dc20932	0.0947441
79	0x3e050db5	0.1299351
80	0xbdc8ed16	-0.098108456
81	0xbd91b4df	-0.071145765
82	0xbd69c6fb	-0.05707453
83	0xbdf16ac8	-0.11787945
84	0x3d8c9177	0.06863683
85	0x3e330dd3	0.17485742
86	0xbe416954	-0.18887836
87	0x3deb8898	0.115006626
88	0xbd1b0493	-0.03784616
89	0x3dd86960	0.10566974
90	0xbc4488ff	-0.011995553
91	0x3d35442e	0.044254474
92	0xbd8835c9	-0.06650884
93	0xbe008068	-0.12548983
94	0x3c196f2d	0.009364885
95	0x3d920df6	0.07131569
96	0xbb746519	-0.0037291704
97	0x3dfa2020	0.122131586
98	0x3dde28d8	0.10847634
99	0x3d01c4d6	0.031681858
100	0xbe12294c	-0.14273566
101	0xbe1ba3f8	-0.15199268
102	0x3dad27d5	0.08454863
103	0x3d8c873c	0.068617314
104	0x3e59bffa	0.2126464
105	0xbc511a77	-0.012762657
106	0x3cf0278d	0.029315734
107	0xbd105270	-0.03523487
108	0xbe0c216b	-0.13684623
109	0x3e330276	0.17481408
110	0x3e2ee8b5	0.17080958
111	0xbc39dad8	-0.01134368
112	0xbe07ff71	-0.13281037
113	0x3e20108d	0.15631314
114	0xbe47d6a1	-0.19515468
115	0x3d6b59e3	0.05745877
116	0x3d895d8c	0.06707296
117	0x3d134792	0.035956927
118	0xbd80a7f1	-0.06282032
119	0x3dba8836	0.091080114
120	0x3e39afb2	0.18133429
121	0xbe5869a6	-0.21134052
122	0x3d751864	0.059837714
123	0xbd2285d1	-0.0396784
124	0x3d319064	0.043350592
125	0xbddc87ab	-0.10768064
126	0xbb62ffed	-0.0034637407
127	0x3e36a3be	0.178359
128	0x3dfd8a75	0.12379924
129	0xbd94a078	-0.072571695
130	0xbca3e58b	-0.020006916
131	0xbe3f7669	-0.18697514
132	0x3d2c4528	0.04205814
133	0x3e13f627	0.14449368
134	0x3e035a0e	0.12827322
135	0xbe421c43	-0.18956093
136	0xbe1ffe25	-0.15624292
137	0x3dba737b	0.091040574
138	0xbd9c1669	-0.07621462
139	0xbd5c75c6	-0.053823255
140	0xbe2f4bcb	-0.17118756
141	0xbe08dec0	-0.13366222
142	0xbd9e7320	-0.07736802
143	0x3dade46c	0.08490834
144	0xbe119153	-0.14215593
145	0x3bcdd3c7	0.0062813493
146	0xbe72632e	-0.23670647
147	0x3dda9e48	0.10674721
148	0xbd46f761	-0.048575763
149	0x3e06ea51	0.13175322
150	0x3dc55bda	0.0963666
151	0x3d6cd7a8	0.057822853
152	0x3d85abd8	0.06526917
153	0x3da9dc79	0.08294005
154	0xbd75fc74	-0.06005521
155	0xbe30c9d2	-0.17264488
156	0x3dbad498	0.0912258
157	0x3c714cc6	0.014727777
158	0xbd861d1d	-0.06548522
159	0x3d5e23b1	0.054233257
160	0x3db00941	0.08595515
161	0x3dde5214	0.10855499
162	0x3e07cb48	0.1326114
163	0x3e022c80	0.12712288
164	0xbdd14211	-0.10217679
165	0xbe19f926	-0.15036449
166	0xbddf2ca9	-0.1089719
167	0x3dde8a7a	0.10866256
168	0xbdd04a6c	-0.10170445
169	0xbdac7305	-0.08420376
170	0xbdd57625	-0.10422925
171	0xbe20a55a	-0.15688077
172	0xbdb4b4c8	-0.08823544
173	0xbdd5fba5	-0.10448388
174	0x3e341caf	0.17589067
175	0x3c436b10	0.011927381
176	0x3d687e47	0.056761052
177	0xbdd93ec1	-0.106076725
178	0x3e4bba06	0.19895181
179	0x3cc17678	0.02361606
180	0x3d88d190	0.06680596
181	0xbd21ecc8	-0.039532453
182	0xbc8b45c0	-0.017001033
183	0x3e0da37e	0.13831899
184	0xbda155b4	-0.07877675
185	0x3dd45d25	0.103693284
186	0x3de4efaa	0.11178525
187	0x3c38c918	0.011278413
188	0x3a528401	0.00080305344
189	0x3d8b9bb9	0.06816811
190	0x3bc6d964	0.0060683955
191	0xbe154352	-0.14576462
192	0x3dd07d0d	0.101801015
193	0xbe186c65	-0.14885099
194	0xbe51b9da	-0.20481053
195	0xbe23f62a	-0.16011873
196	0x3d163006	0.036666892
197	0x3d0afec5	0.033934373
198	0x3e1e6d28	0.15471327
199	0x3e2d4b33	0.16923217
200	0xbe629ff1	-0.22131325
201	0x3d1384ca	0.03601531
202	0x3d471a9d	0.048609365
203	0xbcc92a81	-0.0245564
204	0x3e34eb1d	0.17667814
205	0x3e0edf86	0.13952455
206	0xbe0095f7	-0.12557207
207	0x3dd2c5d0	0.10291636
208	0xbe51ad29	-0.20476212
209	0xbd6d9c82	-0.058010586
210	0x3e279aca	0.16367641
211	0xbd9e107c	-0.07717988
212	0x3d98e8fa	0.07466312
213	0x3d10fc21	0.0353967
214	0x3d136b91	0.035991255
215	0xbd807be9	-0.06273634
216	0x3cee1793	0.029063975
217	0x3bb12880	0.0054064393
218	0x3e39f5f5	0.18160231
219	0xbe44fef9	-0.1923789
220	0xbb683cb5	-0.0035436575
221	0xbde1ce0f	-0.11025631
222	0x3e2cca11	0.16873957
223	0xbd540dd2	-0.051770993
224	0x3e10d7a8	0.14144766
225	0x3dff7e23	0.124752305
226	0xbe095e98	-0.13414991
227	0xbe41653b	-0.18886273
228	0xbdcaf3bc	-0.0990977
229	0x3e100ade	0.14066646
230	0xbdf232e8	-0.11826116
231	0x3bb193df	0.005419239
232	0xbc89ddd6	-0.016829412
233	0xbdeccc9c	-0.11562464
234	0x3e4230a4	0.18963867
235	0x3bfcf65c	0.007719798
236	0xbd6d6222	-0.057954915
237	0x3e002a4b	0.12516133
238	0xbdd0ac60	-0.10189128
239	0xbd9c3ab4	-0.07628384
240	0x3c677169	0.01412616
241	0xbdab80c1	-0.08374167
242	0x3dd5c15a	0.104372695
243	0x3cef7d93	0.029234683
244	0xbd79f142	-0.061021097
245	0xbe0e66be	-0.1390638
246	0xbc94f893	-0.018184936
247	0x3e332d11	0.1749766
248	0xbd70351f	-0.05864441
249	0x3e24c8ce	0.16092226
250	0xbde6c60d	-0.11268244
251	0x3d8c3c22	0.06847407
252	0x3d54685d	0.05185734
253	0x3dc8608d	0.097840406
254	0xbb2ec2f9	-0.0026666506
255	0xbc1f10d3	-0.009708601

actor_fc_layers.blocks.0.block.1.weight f4 [128]
0	0x3f7bd1e3	0.98367137
1	0x3f7613cd	0.96123964
2	0x3f8716d7	1.0553845
3	0x3f81107d	1.0083157
4	0x3f7d87e5	0.99035484
5	0x3f794570	0.9737158
6	0x3f75b823	0.95984095
7	0x3f84d0db	1.0376238
8	0x3f7feb69	0.9996858
9	0x3f735b42	0.95061123
10	0x3f7ee04f	0.9956102
11	0x3f75ad4c	0.95967555
12	0x3f7dbf39	0.9911991
13	0x3f785724	0.97007966
14	0x3f7da70c	0.9908302
15	0x3f7efb24	0.9960196
16	0x3f766609	0.96249443
17	0x3f79bb93	0.9755184
18	0x3f7ac594	0.9795773
19	0x3f7a8d7f	0.97872156
20	0x3f795e20	0.9740925
21	0x3f7c06a3	0.98447627
22	0x3f84b3ab	1.036733
23	0x3f70d402	0.940735
24	0x3f83b604	1.0289922
25	0x3f74aa67	0.95572513
26	0x3f767cf4	0.96284413
27	0x3f754cd4	0.95820355
28	0x3f72ac1c	0.9479387
29	0x3f7c01a6	0.98440015
30	0x3f747df9	0.9550472
31	0x3f800000	1.0
32	0x3f7c7e5e	0.9863032
33	0x3f777df8	0.9667659
34	0x3f795631	0.9739714
35	0x3f7fc684	0.99912286
36	0x3f7d37af	0.9891309
37	0x3f7be9ae	0.9840344
38	0x3f755c88	0.95844316
39	0x3f8074d9	1.0035659
40	0x3f7a6d69	0.97823197
41	0x3f75198f	0.95742124
42	0x3f84b344	1.0367208
43	0x3f7c619f	0.9858646
44	0x3f814033	1.0097717
45	0x3f7be514	0.9839642
46	0x3f757f80	0.95897675
47	0x3f7b62af	0.98197454
48	0x3f784d6a	0.96993124
49	0x3f7b96d2	0.9827701
50	0x3f7a4b18	0.97770834
51	0x3f73936c	0.9514682
52	0x3f81138e	1.0084093
53	0x3f797931	0.9745055
54	0x3f7e6d1b	0.9938523
55	0x3f7c8ac7	0.9864926
56	0x3f732796	0.9498228
57	0x3f6e5a3c	0.93106437
58	0x3f794777	0.9737467
59	0x3f76433a	0.9619633
60	0x3f726d9f	0.9469852
61	0x3f7d6edc	0.98997283
62	0x3f7d1684	0.9886248
63	0x3f6fde68	0.9369874
64	0x3f76e54a	0.9644362
65	0x3f766aeb	0.96256894
66	0x3f80073b	1.0002207
67	0x3f78bd6c	0.97164035
68	0x3f832599	1.0245849
69	0x3f7c022a	0.984408
70	0x3f801928	1.0007677
71	0x3f7ca748	0.9869275
72	0x3f766b9c	0.9625795
73	0x3f76a435	0.9634431
74	0x3f7c3a97	0.985269
75	0x3f727699	0.94712216
76	0x3f78f3d9	0.9724708
77	0x3f7bd3af	0.9836988
78	0x3f794225	0.97366554
79	0x3f8070a4	1.0034375
80	0x3f821666	1.0163085
81	0x3f7570a0	0.9587498
82	0x3f728234	0.94729924
83	0x3f84095d	1.0315357
84	0x3f83bd1a	1.0292084
85	0x3f777287	0.9665913
86	0x3f737027	0.95093006
87	0x3f7cd279	0.98758656
88	0x3f7793f6	0.96710145
89	0x3f7a7d48	0.97847414
90	0x3f7bd26c	0.98367953
91	0x3f82c20a	1.0215466
92	0x3f767494	0.96271634
93	0x3f751d6f	0.9574804
94	0x3f7ebb3c	0.99504447
95	0x3f7c2c26	0.98504865
96	0x3f74e576	0.9566263
97	0x3f7a8a76	0.97867525
98	0x3f81f1bf	1.01519
99	0x3f78b7cf	0.9715547
100	0x3f81d7bb	1.0143961
101	0x3f78a908	0.9713292
102	0x3f72abb4	0.9479325
103	0x3f7a3d73	0.97750014
104	0x3f77ded6	0.96824396
105	0x3f835b58	1.0262251
106	0x3f7ad8e0	0.97987175
107	0x3f84885f	1.0354117
108	0x3f7fc828	0.9991479
109	0x3f7dfce0	0.9921398
110	0x3f739f20	0.9516468
111	0x3f81324b	1.0093473
112	0x3f7c696a	0.9859835
113	0x3f799d73	0.97505873
114	0x3f73db3a	0.9525639
115	0x3f7d3f4f	0.98924726
116	0x3f7afb22	0.9803945
117	0x3f7e2386	0.99272954
118	0x3f73ad0e	0.95185935
119	0x3f7e067a	0.9922863
120	0x3f7813db	0.969053
121	0x3f7cb6b9	0.9871631
122	0x3f7fec83	0.99970263
123	0x3f7383a5	0.9512275
124	0x3f733bdd	0.9501322
125	0x3f7c31b0	0.9851332
126	0x3f79ef51	0.9763079
127	0x3f8087c6	1.0041435

actor_fc_layers.blocks.0.block.1.bias f4 [128]
0	0xbbb7137a	-0.0055870386
1	0xbd3db886	-0.046318553
2	0x3d6a0963	0.057137858
3	0xbc5caef5	-0.013469447
4	0xbc0b6f79	-0.008510464
5	0xbcc94c31	-0.024572464
6	0xbd220f87	-0.03956559
7	0x3af7a867	0.0018894792
8	0x3c160e4b	0.009158681
9	0xbd3d35e8	-0.046193987
10	0xbafe9174	-0.001942201
11	0xbd4e158a	-0.05031351
12	0xbc760fb6	-0.015018394
13	0xbd062eb8	-0.0327594
14	0xbce263a2	-0.0276354
15	0xbcd2f275	-0.025750378
16	0xbd12651c	-0.035740957
17	0xbd0ec41b	-0.03485499
18	0xbc90b4d1	-0.017664345
19	0xbc922f02	-0.01784468
20	0xbcf32002	-0.029678348
21	0xbc55a982	-0.013040902
22	0x3cdecd30	0.02719745
23	0xbd52a11c	-0.051423177
24	0x3c1e6fd2	0.009670215
25	0xbd57aa5d	-0.052652705
26	0xbd104c16	-0.03522881
27	0xbd5133ac	-0.05107467
28	0xbd3c5224	-0.045976773
29	0xbc3b3300	-0.011425734
30	0xbd2c83fa	-0.04211805
31	0x00000000	0.0
32	0xbc756185	-0.014976864
33	0xbce3c0a3	-0.027801817
34	0xbc2e5004	-0.010639194
35	0xbc4b2e88	-0.012401231
36	0xbc736cc7	-0.0148574775
37	0xbc83b291	-0.016076358
38	0xbd08b599	-0.03337631
39	0x3bb6f30d	0.005583173
40	0xbcb82007	-0.02247621
41	0xbd527d59	-0.051389072
42	0x3d5cfb80	0.053950787
43	0xbc8bbe42	-0.017058495
44	0xbce34171	-0.027741166
45	0xbc30614a	-0.010765383
46	0xbd5b1add	-0.053492416
47	0xbc5e2eeb	-0.013560991
48	0xbd03e67a	-0.03220222
49	0xbc3ff654	-0.011716444
50	0xbcf968d1	-0.030445488
51	0xbd38f615	-0.045156557
52	0xbabf1c73	-0.0014580622
53	0xbc98876b	-0.01861926
54	0xbbae8997	-0.0053264606
55	0xbc7f8407	-0.015595443
56	0xbd42d9d9	-0.047571037
57	0xbd70eb50	-0.05881816
58	0xbcb96f7e	-0.022636171
59	0xbd2579a9	-0.040399227
60	0xbd2a1b41	-0.041529898
61	0xbd157e74	-0.03649755
62	0xbca423f6	-0.020036679
63	0xbd83d45a	-0.06436987
64	0xbcf66df0	-0.03008172
65	0xbc97620c	-0.01847937
66	0x3ba871cb	0.0051405183
67	0xbd0adcb7	-0.033901896
68	0x3d0ffc17	0.03515252
69	0xbc124cbe	-0.00892943
70	0xbbf4b719	-0.007468116
71	0xbc8d67df	-0.017261444
72	0xbd0b1178	-0.033952206
73	0xbd1a0433	-0.03760166
74	0xbb818496	-0.003952573
75	0xbd510934	-0.051034167
76	0xbd13c4db	-0.036076408
77	0xbc4f697e	-0.012659429
78	0xbcabaa4c	-0.020955227
79	0xbc972fac	-0.018455349
80	0x3cb08143	0.021546012
81	0xbd19ff12	-0.03759677
82	0xbd262ad6	-0.040568195
83	0x3c82d2b0	0.015969604
84	0xbb8a4947	-0.004220161
85	0xbcceb76b	-0.025233945
86	0xbd429e89	-0.047514472
87	0xba35c204	-0.00069335126
88	0xbd0422db	-0.032259803
89	0xbc9d4af9	-0.019200789
90	0xbcfcb91d	-0.030849988
91	0xbc51529e	-0.012776045
92	0xbd666cd9	-0.05625615
93	0xbd3d1788	-0.04616502
94	0xbb8bdd03	-0.00426829
95	0xbd2ef3fa	-0.042713143
96	0xbd0da19b	-0.034577947
97	0xbc55068c	-0.013002049
98	0xbd1cd6e4	-0.038290873
99	0xbccd3b79	-0.025052773
100	0x3c1cee6d	0.0095783295
101	0xbcc0aeb7	-0.02352081
102	0xbd68fc05	-0.05688097
103	0xbcc4a97c	-0.024006598
104	0xbc856f12	-0.016288314
105	0x3d1bd0aa	0.038040794
106	0xbcad3cb5	-0.021147111
107	0xbd104df5	-0.035230596
108	0xbba26252	-0.0049555684
109	0xb8b6a3ab	-8.708922e-05
110	0xbd21bbc6	-0.039485715
111	0xbccef05a	-0.025261093
112	0xbca7731b	-0.020440629
113	0xbc83b799	-0.016078757
114	0xbd53cbea	-0.05170814
115	0xbca64187	-0.020294918
116	0xbcc8685e	-0.024463829
117	0xbc8c1a76	-0.017102461
118	0xbd2ce469	-0.042210016
119	0xbc9d59a9	-0.019207792
120	0xbcffe886	-0.031238806
121	0xbc5e300e	-0.013561262
122	0x3c505b28	0.012717046
123	0xbd782f4d	-0.060591985
124	0xbd475174	-0.048661664
125	0xbc0b4ef7	-0.008502713
126	0xbc894187	-0.016754879
127	0x3c0157da	0.007894481

actor_fc_layers.blocks.0.block.1.running_mean f4 [128]
0	0x00000000	0.0
1	0x00000000	0.0
2	0x00000000	0.0
3	0x00000000	0.0
4	0x00000000	0.0
5	0x00000000	0.0
6	0x00000000	0.0
7	0x00000000	0.0
8	0x00000000	0.0
9	0x00000000	0.0
10	0x00000000	0.0
11	0x00000000	0.0
12	0x00000000	0.0
13	0x00000000	0.0
14	0x00000000	0.0
15	0x00000000	0.0
16	0x00000000	0.0
17	0x00000000	0.0
18	0x00000000	0.0
19	0x00000000	0.0
20	0x00000000	0.0
21	0x00000000	0.0
22	0x00000000	0.0
23	0x00000000	0.0
24	0x00000000	0.0
25	0x00000000	0.0
26	0x00000000	0.0
27	0x00000000	0.0
28	0x00000000	0.0
29	0x00000000	0.0
30	0x00000000	0.0
31	0x00000000	0.0
32	0x00000000	0.0
33	0x00000000	0.0
34	0x00000000	0.0
35	0x00000000	0.0
36	0x00000000	0.0
37	0x00000000	0.0
38	0x00000000	0.0
39	0x00000000	0.0
40	0x00000000	0.0
41	0x00000000	0.0
42	0x00000000	0.0
43	0x00000000	0.0
44	0x00000000	0.0
45	0x00000000	0.0
46	0x00000000	0.0
47	0x00000000	0.0
48	0x00000000	0.0
49	0x00000000	0.0
50	0x00000000	0.0
51	0x00000000	0.0
52	0x00000000	0.0
53	0x00000000	0.0
54	0x00000000	0.0
55	0x00000000	0.0
56	0x00000000	0.0
57	0x00000000	0.0
58	0x00000000	0.0
59	0x00000000	0.0
60	0x00000000	0.0
61	0x00000000	0.0
62	0x00000000	0.0
63	0x00000000	0.0
64	0x00000000	0.0
65	0x00000000	0.0
66	0x00000000	0.0
67	0x00000000	0.0
68	0x00000000	0.0
69	0x00000000	0.0
70	0x00000000	0.0
71	0x00000000	0.0
72	0x00000000	0.0
73	0x00000000	0.0
74	0x00000000	0.0
75	0x00000000	0.0
76	0x00000000	0.0
77	0x00000000	0.0
78	0x00000000	0.0
79	0x00000000	0.0
80	0x00000000	0.0
81	0x00000000	0.0
82	0x00000000	0.0
83	0x00000000	0.0
84	0x00000000	0.0
85	0x00000000	0.0
86	0x00000000	0.0
87	0x00000000	0.0
88	0x00000000	0.0
89	0x00000000	0.0
90	0x00000000	0.0
91	0x00000000	0.0
92	0x00000000	0.0
93	0x00000000	0.0
94	0x00000000	0.0
95	0x00000000	0.0
96	0x00000000	0.0
97	0x00000000	0.0
98	0x00000000	0.0
99	0x00000000	0.0
100	0x00000000	0.0
101	0x00000000	0.0
102	0x00000000	0.0
103	0x00000000	0.0
104	0x00000000	0.0
105	0x00000000	0.0
106	0x00000000	0.0
107	0x00000000	0.0
108	0x00000000	0.0
109	0x00000000	0.0
110	0x00000000	0.0
111	0x00000000	0.0
112	0x00000000	0.0
113	0x00000000	0.0
114	0x00000000	0.0
115	0x00000000	0.0
116	0x00000000	0.0
117	0x00000000	0.0
118	0x00000000	0.0
119	0x00000000	0.0
120	0x00000000	0.0
121	0x00000000	0.0
122	0x00000000	0.0
123	0x00000000	0.0
124	0x00000000	0.0
125	0x00000000	0.0
126	0x00000000	0.0
127	0x00000000	0.0

actor_fc_layers.blocks.0.block.1.running_var f4 [128]
0	0x3f800000	1.0
1	0x3f800000	1.0
2	0x3f800000	1.0
3	0x3f800000	1.0
4	0x3f800000	1.0
5	0x3f800000	1.0
6	0x3f800000	1.0
7	0x3f800000	1.0
8	0x3f800000	1.0
9	0x3f800000	1.0
10	0x3f800000	1.0
11	0x3f800000	1.0
12	0x3f800000	1.0
13	0x3f800000	1.0
14	0x3f800000	1.0
15	0x3f800000	1.0
16	0x3f800000	1.0
17	0x3f800000	1.0
18	0x3f800000	1.0
19	0x3f800000	1.0
20	0x3f800000	1.0
21	0x3f800000	1.0
22	0x3f800000	1.0
23	0x3f800000	1.0
24	0x3f800000	1.0
25	0x3f800000	1.0
26	0x3f800000	1.0
27	0x3f800000	1.0
28	0x3f800000	1.0
29	0x3f800000	1.0
30	0x3f800000	1.0
31	0x3f800000	1.0
32	0x3f800000	1.0
33	0x3f800000	1.0
34	0x3f800000	1.0
35	0x3f800000	1.0
36	0x3f800000	1.0
37	0x3f800000	1.0
38	0x3f800000	1.0
39	0x3f800000	1.0
40	0x3f800000	1.0
41	0x3f800000	1.0
42	0x3f800000	1.0
43	0x3f800000	1.0
44	0x3f800000	1.0
45	0x3f800000	1.0
46	0x3f800000	1.0
47	0x3f800000	1.0
48	0x3f800000	1.0
49	0x3f800000	1.0
50	0x3f800000	1.0
51	0x3f800000	1.0
52	0x3f800000	1.0
53	0x3f800000	1.0
54	0x3f800000	1.0
55	0x3f800000	1.0
56	0x3f800000	1.0
57	0x3f800000	1.0
58	0x3f800000	1.0
59	0x3f800000	1.0
60	0x3f800000	1.0
61	0x3f800000	1.0
62	0x3f800000	1.0
63	0x3f800000	1.0
64	0x3f800000	1.0
65	0x3f800000	1.0
66	0x3f800000	1.0
67	0x3f800000	1.0
68	0x3f800000	1.0
69	0x3f800000	1.0
70	0x3f800000	1.0
71	0x3f800000	1.0
72	0x3f800000	1.0
73	0x3f800000	1.0
74	0x3f800000	1.0
75	0x3f800000	1.0
76	0x3f800000	1.0
77	0x3f800000	1.0
78	0x3f800000	1.0
79	0x3f800000	1.0
80	0x3f800000	1.0
81	0x3f800000	1.0
82	0x3f800000	1.0
83	0x3f800000	1.0
84	0x3f800000	1.0
85	0x3f800000	1.0
86	0x3f800000	1.0
87	0x3f800000	1.0
88	0x3f800000	1.0
89	0x3f800000	1.0
90	0x3f800000	1.0
91	0x3f800000	1.0
92	0x3f800000	1.0
93	0x3f800000	1.0
94	0x3f800000	1.0
95	0x3f800000	1.0
96	0x3f800000	1.0
97	0x3f800000	1.0
98	0x3f800000	1.0
99	0x3f800000	1.0
100	0x3f800000	1.0
101	0x3f800000	1.0
102	0x3f800000	1.0
103	0x3f800000	1.0
104	0x3f800000	1.0
105	0x3f800000	1.0
106	0x3f800000	1.0
107	0x3f800000	1.0
108	0x3f800000	1.0
109	0x3f800000	1.0
110	0x3f800000	1.0
111	0x3f800000	1.0
112	0x3f800000	1.0
113	0x3f800000	1.0
114	0x3f800000	1.0
115	0x3f800000	1.0
116	0x3f800000	1.0
117	0x3f800000	1.0
118	0x3f800000	1.0
119	0x3f800000	1.0
120	0x3f800000	1.0
121	0x3f800000	1.0
122	0x3f800000	1.0
123	0x3f800000	1.0
124	0x3f800000	1.0
125	0x3f800000	1.0
126	0x3f800000	1.0
127	0x3f800000	1.0

actor_fc_layers.blocks.1.block.0.weight f4 [128, 128]
0	0xbd5bd094	-0.053665712
1	0x3c09de4e	0.008414818
2	0xbd43481e	-0.0476762
3	0xbcc0b4e7	-0.023523761
4	0x3bcfae29	0.0063379
5	0x3d6e2456	0.05814012
6	0xbd854403	-0.06507113
7	0xbd60a14d	-0.05484133
8	0xbd4a54f8	-0.04939744
9	0xbd03c050	-0.032165825
10	0x3be4180d	0.006960875
11	0xbc260c4a	-0.010134766
12	0x3cae6ddc	0.02129262
13	0xbda336cb	-0.07969435
14	0xbc37dbb9	-0.01122182
15	0xbccc3536	-0.024927717
16	0x3ca89420	0.020578444
17	0xbd36edff	-0.044660565
18	0xbda9eb79	-0.08296866
19	0xbd33eff0	-0.043929994
20	0xbcdd6c78	-0.027029261
21	0xbde0fbf0	-0.10985553
22	0x3db2332d	0.08701167
23	0x3d7700d1	0.060303513
24	0xbc828633	-0.015933132
25	0xbd7111d9	-0.05885491
26	0xbc1085e7	-0.008820987
27	0xbd0db174	-0.03459306
28	0x3d9e2e66	0.077236935
29	0xbd3d5851	-0.046226803
30	0xbd4a33e4	-0.049365893
31	0x3bd1f538	0.006407406
32	0xbcc78993	-0.024357593
33	0x3d198c89	0.03748754
34	0xbd938488	-0.07203013
35	0x3d2c2a6f	0.042032655
36	0x3b98185f	0.004641577
37	0xbd96c934	-0.07362595
38	0x3d8647c9	0.06556661
39	0xbd93c5e4	-0.07215479
40	0xbdb14d3b	-0.08657309
41	0xbd7066a3	-0.058691632
42	0x3d989302	0.074499145
43	0xbdb4b799	-0.08824081
44	0x3c850947	0.016239775
45	0xbd833f9b	-0.06408616
46	0xbd5586f1	-0.052130643
47	0x3d13b1a9	0.0360581
48	0xbd6ea578	-0.058263272
49	0xbc4b3fea	-0.012405375
50	0xbc76dfb1	-0.015067981
51	0xbded9db2	-0.116023436
52	0x3d3e7ee3	0.046507727
53	0x3d919c8a	0.071099356
54	0xbcdde586	-0.027086984
55	0xbd2a07eb	-0.041511457
56	0x3d4e1202	0.050310142
57	0xbdcc81aa	-0.09985669
58	0xbdb55791	-0.088545926
59	0xbd07291a	-0.032998182
60	0xbcd9e886	-0.026600134
61	0xbd74ffd7	-0.0598143
62	0xbd1a9689	-0.037741218
63	0x3c6de2b2	0.01451938
64	0xbd0e6acd	-0.034769822
65	0x3bc70be0	0.0060744137
66	0xbda4a87f	-0.080399506
67	0xbd502b78	-0.050822705
68	0xbdb40621	-0.087902315
69	0x3c90135f	0.017587362
70	0xbca28974	-0.019840933
71	0xbd231fea	-0.039825357
72	0x3d99b300	0.07504845
73	0xbc16846a	-0.009186843
74	0x3d903570	0.070414424
75	0xbce7139b	-0.02820759
76	0xbb1e71dc	-0.0024176752
77	0xbd0fbc32	-0.035091586
78	0x3d4ffc4c	0.05077772
79	0xbd83b767	-0.064314656
80	0x3dbdce9d	0.09267924
81	0xbdb31e8b	-0.0874606
82	0x3d53f60b	0.051748317
83	0x3d85cd71	0.065333255
84	0xbd56d04d	-0.052444745
85	0xbd758aa0	-0.059946656
86	0x3d4d67aa	0.05014769
87	0xba2d4561	-0.00066097645
88	0x3d4b1d08	0.049588233
89	0x3d3a04c0	0.045414686
90	0xbd3d188a	-0.04616598
91	0xbdb0ad5c	-0.08626816
92	0xbc934f36	-0.017982107
93	0x3daffb32	0.085928336
94	0x3dd23ca2	0.10265471
95	0x3d47a7a7	0.04874387
96	0x3c86da25	0.016461441
97	0xbd14b8da	-0.0363091
98	0x3d3af5d0	0.04564458
99	0xbc5016ff	-0.012700795
100	0xbd863fed	-0.065551616
101	0xbb689263	-0.0035487644
102	0xbcb5cbbd	-0.022191877
103	0xbdd0bd71	-0.10192383
104	0xbcc0199b	-0.02344971
105	0x3d6c5a2e	0.05770319
106	0xbdc915a5	-0.098185815
107	0xbb5ddb8f	-0.003385279
108	0x3d8c8f60	0.06863284
109	0xbc768e43	-0.015048566
110	0x3d279789	0.040916
111	0xbd92983f	-0.07157945
112	0xbd89ffb1	-0.067382224
113	0xbd580f93	-0.052749228
114	0xbd1a67d0	-0.03769666
115	0x3cf5e5e3	0.030016845
116	0xbd19eeed	-0.037581373
117	0xbce69849	-0.028148787
118	0xbdd446d3	-0.10365071
119	0x3d64d5e9	0.055868063
120	0xbd9100e0	-0.07080245
121	0xbb979ebc	-0.004627077
122	0x3cfd860e	0.030947711
123	0xbdc3aba9	-0.09554226
124	0xbc972769	-0.01845141
125	0xbce7e9b6	-0.028309684
126	0x3d459bba	0.048244216
127	0x3da07e62	0.078366056
128	0x3d0e2490	0.034702837
129	0xbc816518	-0.015795276
130	0x3cb48fa9	0.022041159
131	0x3b864910	0.004098065
132	0x3dea3dbc	0.11437556
133	0x3d294e45	0.04133441
134	0xbd8f3a35	-0.06993524
135	0xbd67248e	-0.056431346
136	0x3ccec9e9	0.025242763
137	0xbc8ab262	-0.016930763
138	0x3dc75d07	0.097345404
139	0xbc0fe26b	-0.00878201
140	0xbd971176	-0.07376377
141	0xbd647c39	-0.05578253
142	0xbdc647f5	-0.096816935
143	0xbdba1e51	-0.09087814
144	0xbd9f107f	-0.07766818
145	0xbcd7415d	-0.026276285
146	0x3d002636	0.03128644
147	0xbb0a44ef	-0.0021098217
148	0x3d7f3602	0.062307365
149	0x3d52a1b8	0.05142376
150	0xbba6f9dc	-0.0050957035
151	0x3d55ee28	0.052229077
152	0xbd32d48d	-0.043659735
153	0x3dd4633a	0.103704885
154	0xbc95fd50	-0.018309265
155	0x3c6d9abe	0.014502225
156	0x3c357c9b	0.011077072
157	0x3dcb9b46	0.099417254
158	0xbd83f609	-0.06443412
159	0x3d2f4e66	0.042799376
160	0xbd6af67a	-0.057363965
161	0x3cb94fef	0.022621123
162	0x3d0ec83d	0.03485893
163	0x3c78c1a6	0.015182888
164	0x3da4ea47	0.08052497
165	0xbc67db53	-0.014151412
166	0xbd77e1c5	-0.060518045
167	0x3d9c97c0	0.076461315
168	0xbd881fdb	-0.06646701
169	0xbcc38039	-0.023864852
170	0xbc3e0ea3	-0.011600169
171	0x3c454f8a	0.012042889
172	0x3d069b1a	0.03286276
173	0xbd42dc9c	-0.04757367
174	0x3ca73cf6	0.02041481
175	0xbd638b75	-0.05555292
176	0xbd12c8dd	-0.03583609
177	0x3c005a1f	0.007833987
178	0x3d2dfe2a	0.042478718
179	0x3cb68cfc	0.022284023
180	0xbd7d0f1f	-0.061782
181	0x3ae54bb8	0.001749388
182	0xbceb37e3	-0.028713172
183	0xbc979c98	-0.018507287
184	0xbd4e8ca5	-0.050427098
185	0xbdab1c6c	-0.083550304
186	0xbdc6c053	-0.09704652
187	0x3c7fe24a	0.015617916
188	0x3c020a9e	0.007937102
189	0xbd994256	-0.07483356
190	0xbc3d334f	-0.011547877
191	0x3c186713	0.009301919
192	0x3d255d85	0.04037239
193	0x3d4b652d	0.049657036
194	0xbd271f02	-0.040801056
195	0x3bdbbf63	0.0067061647
196	0x3d966f0f	0.073454015
197	0xbd4fa7b2	-0.050697036
198	0xbd4a5266	-0.049394988
199	0x3da38431	0.07984198
200	0x3ba92b07	0.0051626
201	0xbb372a8c	-0.0027948944
202	0x3dad4253	0.08459916
203	0x3ca9a1e3	0.020707076
204	0xbcb15fe2	-0.021652166
205	0xbce3db96	-0.027814668
206	0xbda16eef	-0.07882487
207	0x3d6fcc09	0.058544192
208	0x3db76499	0.08954734
209	0xbd17b8a4	-0.03704132
210	0x3b8140ae	0.003944478
211	0xbd1c6e98	-0.038191408
212	0x3d9cb7f5	0.076522745
213	0x3d4e24ea	0.050328173
214	0xbbd6a938	-0.006550934
215	0xbd44ed0e	-0.048077635
216	0xbcba8290	-0.022767335
217	0x3e000448	0.12501633
218	0xbd8fc8fa	-0.07020755
219	0xbd6a120c	-0.057146117
220	0xbcd290ff	-0.025703905
221	0xbbe1ada4	-0.0068871547
222	0x3b8923f4	0.004185194
223	0xbc8b2820	-0.016986907
224	0x3d3ec93a	0.046578623
225	0x3d933cd4	0.071893364
226	0xbd6b476b	-0.057441156
227	0xbc513f1a	-0.012771392
228	0x3c489c4a	0.0122442935
229	0xbcc2be61	-0.02377242
230	0x3c234109	0.009964236
231	0x3cc440d8	0.023956701
232	0xbce6aac8	-0.028157607
233	0x3d0854a9	0.033283863
234	0x3d442c3d	0.04789375
235	0xbdc3d6e7	-0.09562474
236	0x3cb35855	0.021892706
237	0xbcc84d1b	-0.02445083
238	0xba54a6a2	-0.00081119884
239	0x3cd8b356	0.026452702
240	0xb9a7ee3c	-0.0003203022
241	0x3dd502e6	0.104009435
242	0x3d0fa7af	0.035072025
243	0x3cebcb0d	0.028783346
244	0xbca073d7	-0.019586487
245	0xbd9c3e24	-0.0762904
246	0xbc7a47ec	-0.015275937
247	0xbd5ae78d	-0.05344348
248	0x3d7b97a2	0.061423905
249	0xbcd7c868	-0.026340678
250	0x3d325a31	0.043543044
251	0x3d9cb27b	0.0765123
252	0xbcb45b9e	-0.022016343
253	0xbd8af16e	-0.0678433
254	0x3d17ce45	0.03706195
255	0xbd3f60f7	-0.046723332

actor_fc_layers.blocks.1.block.1.weight f4 [128]
0	0x3f7c5469	0.985663
1	0x3f7db9b9	0.99111515
2	0x3f7b4c5d	0.98163396
3	0x3f7ed495	0.99543124
4	0x3f7cf5cf	0.98812574
5	0x3f81e9f0	1.0149517
6	0x3f7d85ff	0.99032587
7	0x3f7c9e2d	0.9867886
8	0x3f85ec76	1.0462787
9	0x3f7a4439	0.9776035
10	0x3f7fd3ec	0.9993274
11	0x3f7b1160	0.9807339
12	0x3f81ccf2	1.0140669
13	0x3f7cdc22	0.98773396
14	0x3f7f3c00	0.9970093
15	0x3f812c47	1.0091637
16	0x3f81af6f	1.0131663
17	0x3f893b1a	1.0721161
18	0x3f7d0550	0.9883623
19	0x3f7eab71	0.9948035
20	0x3f7e4671	0.99326235
21	0x3f812e85	1.0092322
22	0x3f7d2617	0.98886245
23	0x3f7ebd89	0.9950796
24	0x3f841a38	1.0320501
25	0x3f805e0c	1.0028701
26	0x3f8576cf	1.0426883
27	0x3f84e9e6	1.038388
28	0x3f7ebe3c	0.99509025
29	0x3f817732	1.01145
30	0x3f7e4d19	0.9933639
31	0x3f7fcb32	0.99919426
32	0x3f7ad7e1	0.97985655
33	0x3f7e4a4e	0.9933213
34	0x3f7cd136	0.9875673
35	0x3f7dc8e7	0.9913468
36	0x3f80be82	1.0058138
37	0x3f7e1fc6	0.9926723
38	0x3f7db049	0.99097115
39	0x3f7c9d1a	0.9867722
40	0x3f7cc316	0.9873518
41	0x3f84775b	1.0348924
42	0x3f81234a	1.0088894
43	0x3f7d404f	0.9892625
44	0x3f7ee784	0.99572015
45	0x3f7ecc89	0.99530846
46	0x3f7efb90	0.99602604
47	0x3f80f2fa	1.007415
48	0x3f7bbb8d	0.98333055
49	0x3f7d8eee	0.9904622
50	0x3f7fd04b	0.99927205
51	0x3f7e9314	0.99443173
52	0x3f7fa6fb	0.99864167
53	0x3f80a4a0	1.005024
54	0x3f7f3f9d	0.9970644
55	0x3f7a8ccd	0.97871095
56	0x3f7ed692	0.9954616
57	0x3f820b02	1.0159609
58	0x3f7d69b1	0.989894
59	0x3f791e6c	0.97312045
60	0x3f7ccf51	0.9875384
61	0x3f7db1ae	0.9909924
62	0x3f7ec6b2	0.99521935
63	0x3f7df6e9	0.9920488
64	0x3f7c036f	0.9844274
65	0x3f81d80b	1.0144056
66	0x3f7ff3fa	0.99981654
67	0x3f8092c5	1.004479
68	0x3f82a274	1.0205827
69	0x3f7a14ce	0.97687995
70	0x3f7f2b73	0.99675673
71	0x3f801252	1.0005591
72	0x3f7b9d98	0.98287344
73	0x3f7aabbd	0.979183
74	0x3f7fd16e	0.9992894
75	0x3f7f7ade	0.99796855
76	0x3f7d50bd	0.9895132
77	0x3f81703a	1.0112374
78	0x3f7da079	0.99072987
79	0x3f7e7fd1	0.9941378
80	0x3f7ca5d2	0.9869052
81	0x3f7fe475	0.9995797
82	0x3f7d5d58	0.98970556
83	0x3f7ff7f4	0.9998772
84	0x3f7ebeff	0.99510187
85	0x3f882861	1.0637323
86	0x3f7eaea8	0.99485254
87	0x3f7eb84a	0.9949995
88	0x3f7f7f31	0.99803454
89	0x3f7e2ed2	0.9929019
90	0x3f7a7451	0.97833735
91	0x3f7eff3f	0.99608225
92	0x3f8012e9	1.0005771
93	0x3f7d19f2	0.98867714
94	0x3f80aadf	1.0052146
95	0x3f7e3907	0.99305767
96	0x3f7afd61	0.98042876
97	0x3f800000	1.0
98	0x3f7f833b	0.99809617
99	0x3f7cdb4b	0.98772115
100	0x3f78e702	0.9722749
101	0x3f7c0f5e	0.9846095
102	0x3f869eee	1.0517251
103	0x3f7b4c8c	0.98163676
104	0x3f754de3	0.9582197
105	0x3f78b709	0.9715429
106	0x3f7d3c8d	0.9892052
107	0x3f7ecec1	0.9953423
108	0x3f7f74c2	0.99787533
109	0x3f7c97f8	0.98669386
110	0x3f7e65dd	0.9937418
111	0x3f8312b4	1.0240083
112	0x3f7d496d	0.98940164
113	0x3f7f98d5	0.9984258
114	0x3f7d3028	0.98901606
115	0x3f7dfcf7	0.9921412
116	0x3f76e098	0.9643645
117	0x3f80e04b	1.0068449
118	0x3f7d0df1	0.988494
119	0x3f80cdc8	1.00628
120	0x3f7d5fc4	0.9897425
121	0x3f7f8dc4	0.9982569
122	0x3f7ddb29	0.99162537
123	0x3f7aacc1	0.9791985
124	0x3f79492c	0.97377276
125	0x3f7df390	0.9919977
126	0x3f7ca94f	0.98695844
127	0x3f802b10	1.0013142

actor_fc_layers.blocks.1.block.1.bias f4 [128]
0	0xbb9d5119	-0.0048009274
1	0x3bf5d584	0.0075022597
2	0xbc1a5e78	-0.009421937
3	0x3b382954	0.0028100805
4	0xbcd838a4	-0.026394196
5	0xbc6613e6	-0.01404283
6	0xbcc08995	-0.023503104
7	0x3a96c63c	0.001150317
8	0x3d47bcf8	0.0487642
9	0xbd00291e	-0.031289212
10	0x3b2fd482	0.0026829545
11	0xbb14a86e	-0.00226834
12	0x3d24580e	0.040123038
13	0xbc716b75	-0.014735092
14	0xbb1f07fb	-0.0024266231
15	0x3caad3aa	0.020852882
16	0x3d45fc2b	0.04833619
17	0x3d927f37	0.071531706
18	0xbc25e5b0	-0.010125563
19	0xbbd9ac00	-0.0066428185
20	0x3b13b9e3	0.0022541217
21	0x3b74df68	0.0037364606
22	0xbc755bc1	-0.014975489
23	0xbc040327	-0.008057392
24	0x3d646c8c	0.05576758
25	0xbc7a9686	-0.015294677
26	0x3d9ab5a4	0.075541764
27	0x3d79c962	0.06098307
28	0xbc36e9a6	-0.011164105
29	0xbb431081	-0.0029764476
30	0xbbc1ef48	-0.005918417
31	0x3aa6fc97	0.0012740073
32	0xbb8191c4	-0.003954144
33	0xbbac3adb	-0.0052560396
34	0xbc4674e3	-0.012112829
35	0xbc399063	-0.011325928
36	0xbbfe813b	-0.0077668703
37	0xbc046415	-0.008080502
38	0x3c31be1f	0.010848551
39	0xbba0a022	-0.004901902
40	0xbca9e01b	-0.020736745
41	0x3d60d8aa	0.054894127
42	0x3cd59f00	0.026076794
43	0xbc8f5814	-0.017498054
44	0xbbe14dd4	-0.006875733
45	0xbc9296b8	-0.017894134
46	0xbcb4c459	-0.022066282
47	0x3c79d7bc	0.015249189
48	0xbc1c3de8	-0.009536244
49	0xbc2e12fe	-0.010624645
50	0x3ce70cbe	0.028204318
51	0x3b5451c4	0.003239737
52	0xbbe6cf2f	-0.007043741
53	0x3af50fa3	0.0018696677
54	0xbb761593	-0.003754948
55	0xbbba5411	-0.005686291
56	0xbc23c3fc	-0.009995457
57	0xbc86fc02	-0.016477589
58	0xbc4d5284	-0.01253188
59	0xbcb6a40d	-0.022295022
60	0xbc20454f	-0.009782149
61	0x3b83ef35	0.0040263184
62	0x3c531a0c	0.012884628
63	0xbbefdfc7	-0.0073203775
64	0xbc3b5cc1	-0.0114356885
65	0xbca84c56	-0.020544212
66	0x3aee3a9a	0.0018175424
67	0x3c9a30f5	0.018822173
68	0x3d2f2d6a	0.04276792
69	0xbc0cb49f	-0.008587985
70	0xbc602d8e	-0.013682736
71	0xbd05196a	-0.03249494
72	0xbcb9e5c1	-0.022692563
73	0xbc7ca7ed	-0.015420896
74	0xbc4ddd2c	-0.0125649385
75	0xbb4484e6	-0.002998644
76	0xbc19a862	-0.0093785245
77	0x3d0bb2a6	0.03410592
78	0xbc66aa2c	-0.014078658
79	0xbc380563	-0.011231753
80	0xbc9e3c9f	-0.019316016
81	0xbbd410ac	-0.006471714
82	0xbce48581	-0.02789569
83	0x3b21bbe6	0.0024678647
84	0xbd16bb0a	-0.036799468
85	0x3da53911	0.08067525
86	0xbbe61d4e	-0.0070225364
87	0xbcabe920	-0.020985186
88	0xbc3fbfdc	-0.011703458
89	0xbb9ef207	-0.0048506293
90	0xbcdc4384	-0.026887663
91	0x3a9caf35	0.0011954071
92	0x3be31d5c	0.00693099
93	0xbc263bf2	-0.010146128
94	0x3d15d7d4	0.036582783
95	0xbc4c916a	-0.012485841
96	0xbca05fbb	-0.019576898
97	0x00000000	0.0
98	0xbc24cb81	-0.010058285
99	0xbc8eb8c6	-0.017422091
100	0x3c02e8c5	0.007990067
101	0xbcbd541f	-0.023111401
102	0x3d7386aa	0.059454598
103	0xba7e6f02	-0.00097058725
104	0xbca36b90	-0.01994875
105	0xbd19eb14	-0.037577704
106	0xbd124b15	-0.035716135
107	0x3b87a1c0	0.004139155
108	0xbc56359e	-0.013074307
109	0xbc167fcc	-0.009185743
110	0xbbac38ae	-0.00525578
111	0xbc993c35	-0.018705467
112	0xbc6284c8	-0.013825603
113	0x3a85627e	0.0010176448
114	0xbc218cc6	-0.009860223
115	0xbc851cb6	-0.016249042
116	0xbd343ce0	-0.044003367
117	0x3c5a46ae	0.013322515
118	0xbb1d0141	-0.0023957046
119	0x3d2b0452	0.041752167
120	0xbc4e72b2	-0.012600588
121	0x3b59e3d7	0.0033247375
122	0x3c6c6779	0.014428967
123	0xbce067df	-0.02739328
124	0xbb6d2580	-0.0036185682
125	0xbbc9a70a	-0.006153946
126	0xbbd3a37a	-0.006458697
127	0xbcb8cf6c	-0.022559844

actor_fc_layers.blocks.1.block.1.running_mean f4 [128]
0	0x00000000	0.0
1	0x00000000	0.0
2	0x00000000	0.0
3	0x00000000	0.0
4	0x00000000	0.0
5	0x00000000	0.0
6	0x00000000	0.0
7	0x00000000	0.0
8	0x00000000	0.0
9	0x00000000	0.0
10	0x00000000	0.0
11	0x00000000	0.0
12	0x00000000	0.0
13	0x00000000	0.0
14	0x00000000	0.0
15	0x00000000	0.0
16	0x00000000	0.0
17	0x00000000	0.0
18	0x00000000	0.0
19	0x00000000	0.0
20	0x00000000	0.0
21	0x00000000	0.0
22	0x00000000	0.0
23	0x00000000	0.0
24	0x00000000	0.0
25	0x00000000	0.0
26	0x00000000	0.0
27	0x00000000	0.0
28	0x00000000	0.0
29	0x00000000	0.0
30	0x00000000	0.0
31	0x00000000	0.0
32	0x00000000	0.0
33	0x00000000	0.0
34	0x00000000	0.0
35	0x00000000	0.0
36	0x00000000	0.0
37	0x00000000	0.0
38	0x00000000	0.0
39	0x00000000	0.0
40	0x00000000	0.0
41	0x00000000	0.0
42	0x00000000	0.0
43	0x00000000	0.0
44	0x00000000	0.0
45	0x00000000	0.0
46	0x00000000	0.0
47	0x00000000	0.0
48	0x00000000	0.0
49	0x00000000	0.0
50	0x00000000	0.0
51	0x00000000	0.0
52	0x00000000	0.0
53	0x00000000	0.0
54	0x00000000	0.0
55	0x00000000	0.0
56	0x00000000	0.0
57	0x00000000	0.0
58	0x00000000	0.0
59	0x00000000	0.0
60	0x00000000	0.0
61	0x00000000	0.0
62	0x00000000	0.0
63	0x00000000	0.0
64	0x00000000	0.0
65	0x00000000	0.0
66	0x00000000	0.0
67	0x00000000	0.0
68	0x00000000	0.0
69	0x00000000	0.0
70	0x00000000	0.0
71	0x00000000	0.0
72	0x00000000	0.0
73	0x00000000	0.0
74	0x00000000	0.0
75	0x00000000	0.0
76	0x00000000	0.0
77	0x00000000	0.0
78	0x00000000	0.0
79	0x00000000	0.0
80	0x00000000	0.0
81	0x00000000	0.0
82	0x00000000	0.0
83	0x00000000	0.0
84	0x00000000	0.0
85	0x00000000	0.0
86	0x00000000	0.0
87	0x00000000	0.0
88	0x00000000	0.0
89	0x00000000	0.0
90	0x00000000	0.0
91	0x00000000	0.0
92	0x00000000	0.0
93	0x00000000	0.0
94	0x00000000	0.0
95	0x00000000	0.0
96	0x00000000	0.0
97	0x00000000	0.0
98	0x00000000	0.0
99	0x00000000	0.0
100	0x00000000	0.0
101	0x00000000	0.0
102	0x00000000	0.0
103	0x00000000	0.0
104	0x00000000	0.0
105	0x00000000	0.0
106	0x00000000	0.0
107	0x00000000	0.0
108	0x00000000	0.0
109	0x00000000	0.0
110	0x00000000	0.0
111	0x00000000	0.0
112	0x00000000	0.0
113	0x00000000	0.0
114	0x00000000	0.0
115	0x00000000	0.0
116	0x00000000	0.0
117	0x00000000	0.0
118	0x00000000	0.0
119	0x00000000	0.0
120	0x00000000	0.0
121	0x00000000	0.0
122	0x00000000	0.0
123	0x00000000	0.0
124	0x00000000	0.0
125	0x00000000	0.0
126	0x00000000	0.0
127	0x00000000	0.0

actor_fc_layers.blocks.1.block.1.running_var f4 [128]
0	0x3f800000	1.0
1	0x3f800000	1.0
2	0x3f800000	1.0
3	0x3f800000	1.0
4	0x3f800000	1.0
5	0x3f800000	1.0
6	0x3f800000	1.0
7	0x3f800000	1.0
8	0x3f800000	1.0
9	0x3f800000	1.0
10	0x3f800000	1.0
11	0x3f800000	1.0
12	0x3f800000	1.0
13	0x3f800000	1.0
14	0x3f800000	1.0
15	0x3f800000	1.0
16	0x3f800000	1.0
17	0x3f800000	1.0
18	0x3f800000	1.0
19	0x3f800000	1.0
20	0x3f800000	1.0
21	0x3f800000	1.0
22	0x3f800000	1.0
23	0x3f800000	1.0
24	0x3f800000	1.0
25	0x3f800000	1.0
26	0x3f800000	1.0
27	0x3f800000	1.0
28	0x3f800000	1.0
29	0x3f800000	1.0
30	0x3f800000	1.0
31	0x3f800000	1.0
32	0x3f800000	1.0
33	0x3f800000	1.0
34	0x3f800000	1.0
35	0x3f800000	1.0
36	0x3f800000	1.0
37	0x3f800000	1.0
38	0x3f800000	1.0
39	0x3f800000	1.0
40	0x3f800000	1.0
41	0x3f800000	1.0
42	0x3f800000	1.0
43	0x3f800000	1.0
44	0x3f800000	1.0
45	0x3f800000	1.0
46	0x3f800000	1.0
47	0x3f800000	1.0
48	0x3f800000	1.0
49	0x3f800000	1.0
50	0x3f800000	1.0
51	0x3f800000	1.0
52	0x3f800000	1.0
53	0x3f800000	1.0
54	0x3f800000	1.0
55	0x3f800000	1.0
56	0x3f800000	1.0
57	0x3f800000	1.0
58	0x3f800000	1.0
59	0x3f800000	1.0
60	0x3f800000	1.0
61	0x3f800000	1.0
62	0x3f800000	1.0
63	0x3f800000	1.0
64	0x3f800000	1.0
65	0x3f800000	1.0
66	0x3f800000	1.0
67	0x3f800000	1.0
68	0x3f800000	1.0
69	0x3f800000	1.0
70	0x3f800000	1.0
71	0x3f800000	1.0
72	0x3f800000	1.0
73	0x3f800000	1.0
74	0x3f800000	1.0
75	0x3f800000	1.0
76	0x3f800000	1.0
77	0x3f800000	1.0
78	0x3f800000	1.0
79	0x3f800000	1.0
80	0x3f800000	1.0
81	0x3f800000	1.0
82	0x3f800000	1.0
83	0x3f800000	1.0
84	0x3f800000	1.0
85	0x3f800000	1.0
86	0x3f800000	1.0
87	0x3f800000	1.0
88	0x3f800000	1.0
89	0x3f800000	1.0
90	0x3f800000	1.0
91	0x3f800000	1.0
92	0x3f800000	1.0
93	0x3f800000	1.0
94	0x3f800000	1.0
95	0x3f800000	1.0
96	0x3f800000	1.0
97	0x3f800000	1.0
98	0x3f800000	1.0
99	0x3f800000	1.0
100	0x3f800000	1.0
101	0x3f800000	1.0
102	0x3f800000	1.0
103	0x3f800000	1.0
104	0x3f800000	1.0
105	0x3f800000	1.0
106	0x3f800000	1.0
107	0x3f800000	1.0
108	0x3f800000	1.0
109	0x3f800000	1.0
110	0x3f800000	1.0
111	0x3f800000	1.0
112	0x3f800000	1.0
113	0x3f800000	1.0
114	0x3f800000	1.0
115	0x3f800000	1.0
116	0x3f800000	1.0
117	0x3f800000	1.0
118	0x3f800000	1.0
119	0x3f800000	1.0
120	0x3f800000	1.0
121	0x3f800000	1.0
122	0x3f800000	1.0
123	0x3f800000	1.0
124	0x3f800000	1.0
125	0x3f800000	1.0
126	0x3f800000	1.0
127	0x3f800000	1.0

actor_fc_layers.blocks.2.block.0.weight f4 [128, 128]
0	0xbd7af5f5	-0.06126972
1	0x3c2077ed	0.009794218
2	0xbd823317	-0.06357401
3	0x3d91cb47	0.0711885
4	0x3d6609b4	0.056161597
5	0xbd12a220	-0.035799146
6	0xbd2b7d05	-0.041867275
7	0xbcab827d	-0.020936245
8	0xbdf84d1a	-0.12124081
9	0x3d9f3b1f	0.07774948
10	0x3d0706a2	0.03296531
11	0xbd5afc04	-0.053462997
12	0x3a928983	0.0011179898
13	0x3db96591	0.090525754
14	0xbbd409e4	-0.0064709056
15	0xbd9deeb4	-0.07711545
16	0xbd183834	-0.037162974
17	0xbc3cfa5e	-0.011534302
18	0xbd8d3aeb	-0.06896003
19	0xbda8320d	-0.082126714
20	0xbd969a4a	-0.07353647
21	0xbdb31656	-0.087444946
22	0x3d625544	0.055257097
23	0xbd48e26a	-0.04904405
24	0x3d34a2d2	0.04410059
25	0xbdae65f1	-0.085155375
26	0xbc4f090e	-0.012636436
27	0xbd437303	-0.047717106
28	0x3b4f4cfe	0.0031631584
29	0x3d7006bd	0.058600176
30	0x3d646ba4	0.055766717
31	0xbd9027c0	-0.07038832
32	0xbd359b42	-0.04433752
33	0x3d8ae2ea	0.06781562
34	0xb8c40773	-9.347396e-05
35	0x3d88dbc6	0.066825435
36	0xbd285279	-0.041094277
37	0xbcc1e493	-0.023668563
38	0x3d8bee7e	0.06832598
39	0xbd74a142	-0.0597241
40	0x3d835426	0.064125344
41	0xbd96cc24	-0.073631555
42	0x3d17698f	0.036965903
43	0xbc61c200	-0.013779163
44	0x3cfa3e5e	0.030547317
45	0x3d5f5420	0.054523587
46	0xbd040e17	-0.03224
47	0xbd9d7e34	-0.07690087
48	0xbc31cd6e	-0.010852201
49	0xbd905a88	-0.070485175
50	0x3bc39c06	0.005969527
51	0x3d94686b	0.07246479
52	0x3ae66134	0.0017576576
53	0x3b5a9dde	0.0033358256
54	0x3ca0fa64	0.019650646
55	0xbdc0222f	-0.0938152
56	0xbd9a0204	-0.07519916
57	0xbdc9e503	-0.09858134
58	0x3db8441e	0.08997367
59	0xbda1737d	-0.07883356
60	0xbd92296c	-0.07136807
61	0x3d88b89e	0.06675838
62	0x3d44371a	0.04790411
63	0xbd008ac6	-0.031382345
64	0xbd01c16b	-0.0316786
65	0xbcb8d122	-0.02256066
66	0x3d4ad5a2	0.049520142
67	0xbd589e27	-0.0528852
68	0xbd6a9f89	-0.05728105
69	0x3d7abe7d	0.06121682
70	0x3d59b127	0.05314746
71	0xbcf62a9d	-0.030049616
72	0xbb4f0e1b	-0.00315941
73	0x3cdd3847	0.027004374
74	0x3c4bf119	0.012447619
75	0xbd664384	-0.05621673
76	0xbbc02c57	-0.0058646607
77	0x3d7f82ce	0.062380604
78	0x3d93d333	0.072180174
79	0x3d03aa16	0.03214463
80	0x3d9547db	0.07289096
81	0x3c87b2c9	0.016564744
82	0x3cc5844e	0.02411094
83	0xbcbdfeea	-0.023192842
84	0xbd5943c8	-0.053043157
85	0xbda495d5	-0.08036391
86	0x3c45b072	0.012065994
87	0xbd6005f6	-0.054693185
88	0x3d96ec2b	0.07369264
89	0x3be76624	0.0070617367
90	0x3d31da52	0.043421097
91	0x3d8a8782	0.06764127
92	0x3d647180	0.055772305
93	0xbc81e622	-0.015856806
94	0xbcd1936c	-0.025582992
95	0xbd7189da	-0.058969356
96	0xbd606dc5	-0.054792184
97	0xbbdf1d42	-0.0068089077
98	0x3d66fd74	0.056394055
99	0xbd4ed577	-0.050496545
100	0x3c162237	0.009163431
101	0xbd9518fb	-0.07280155
102	0xbd0cc877	-0.034370866
103	0xbc0173af	-0.007901116
104	0xbda0fd21	-0.078607805
105	0xbd44e16b	-0.048066538
106	0x3b3bb625	0.0028642502
107	0xbcaf1fe1	-0.021377506
108	0xbcd4a2a0	-0.025956452
109	0xbd889577	-0.06669133
110	0xbca8bde4	-0.02059836
111	0x3cfa27b5	0.030536512
112	0x3c931173	0.017952656
113	0xbd071193	-0.032975744
114	0x3d9afb9f	0.07567524
115	0x3b792905	0.0038018834
116	0xbc2f7ecd	-0.010711384
117	0x3db11f35	0.086485304
118	0x3c5ced47	0.013484306
119	0xbce04dbd	-0.027380819
120	0xbd4b7a18	-0.049676985
121	0xbd679a19	-0.056543443
122	0x3d785d1d	0.060635675
123	0x3d8b7052	0.06808533
124	0xbd914420	-0.07093072
125	0x3cc3561a	0.023844767
126	0x3d9cc8f3	0.076555155
127	0xbd9247e4	-0.07142618
128	0x3d775208	0.060380965
129	0xbce8515c	-0.028359108
130	0x3d48863a	0.048956133
131	0x3d3cf0fd	0.04612826
132	0x3c7baa6d	0.015360457
133	0xbc291ff1	-0.010322557
134	0x3bb0d8e5	0.0053969496
135	0xbd81db97	-0.063407116
136	0xbd6d4095	-0.05792292
137	0xbcb4bd62	-0.022062961
138	0x3d781d0d	0.06057458
139	0x3ccedd80	0.025252104
140	0xbd9dabe7	-0.076988034
141	0xbc073afb	-0.008253808
142	0xbd38ba7a	-0.045099713
143	0x3c3aec31	0.0114088515
144	0xbd96f5f0	-0.073711276
145	0x3d58710d	0.05284219
146	0x3d8c85ab	0.06861433
147	0x3cfda95d	0.030964548
148	0xbd216e2e	-0.039411716
149	0xbd1d1d1b	-0.038357835
150	0xbd858003	-0.06518557
151	0x3d3e128f	0.046404418
152	0xbdaa9723	-0.08329608
153	0xbc94a5c0	-0.018145442
154	0xbcd16428	-0.025560454
155	0x3d6f84a8	0.05847612
156	0x3d85de8a	0.065365866
157	0x3d4bbe72	0.04974217
158	0xbd24ea35	-0.04026242
159	0x3c0c65a2	0.008569153
160	0xbca72039	-0.020401107
161	0xbd913f92	-0.07092203
162	0xbdb3dcb0	-0.08782327
163	0x3d183897	0.037163343
164	0x39ea7d28	0.00044725207
165	0xbd05ac27	-0.03263488
166	0xbdc12e27	-0.09432631
167	0xbda49d41	-0.08037806
168	0xbd3d756a	-0.046254553
169	0x3bc01996	0.005862425
170	0xbd971fbc	-0.073791
171	0x3cf92cf7	0.030416949
172	0x3cc2cdb9	0.023779737
173	0x3d01c827	0.03168502
174	0x3c2fa190	0.010719672
175	0xbdc55cdb	-0.096368514
176	0x3d2f94e9	0.04286662
177	0x3d2f9bb4	0.0428731
178	0xbdbf3ce2	-0.09337784
179	0xbd587e84	-0.05285503
180	0xbc939ce8	-0.018019155
181	0x3d9b5dd5	0.075862564
182	0x3ca4cdb0	0.02011761
183	0xbc86ccd3	-0.01645509
184	0x3d2e6334	0.042575076
185	0xbdab3d59	-0.083613105
186	0xbcd5c304	-0.026093967
187	0xbd1a11a4	-0.03761448
188	0xbc2542e1	-0.010086746
189	0x3c4ecaea	0.012621621
190	0xbd2a7879	-0.041618798
191	0xbd3ae016	-0.04562386
192	0xbd856d43	-0.06514981
193	0x3cae946c	0.021311007
194	0x3d020f8a	0.0317531
195	0x3d1da342	0.038485773
196	0xbda24ebe	-0.07925175
197	0x3d89d62a	0.06730302
198	0xbd9ea778	-0.07746786
199	0x3b169968	0.002297962
200	0x3c9f53e8	0.01944919
201	0x3c896032	0.016769502
202	0xbd9a4c3c	-0.07534072
203	0x3d8a3ce7	0.067498975
204	0xbce52e91	-0.027976306
205	0x3d87d9c4	0.06633332
206	0xbd7f8396	-0.06238135
207	0xbd12cbec	-0.035839006
208	0xbd18b3a4	-0.037280694
209	0x3d2ea172	0.042634435
210	0x3d673c8c	0.056454226
211	0xbd9da3b4	-0.076972395
212	0x3d5d8667	0.054083254
213	0xbd375252	-0.04475624
214	0xbcfb9cc2	-0.030714396
215	0xbcd7513a	-0.026283849
216	0x3d591f73	0.053008508
217	0x3d025576	0.031819783
218	0xbd9f8490	-0.07788956
219	0x3d7810f0	0.060563028
220	0xbd13e4c8	-0.036106855
221	0xbcac9900	-0.02106905
222	0xbc4e2d7f	-0.012584089
223	0x3d8a8142	0.06762935
224	0x3d06fe6e	0.032957487
225	0xbd8e4c78	-0.06948179
226	0x3d862caa	0.06551488
227	0xbd49020f	-0.04907423
228	0xbdb6d6e2	-0.089277044
229	0x3da6e29d	0.08148692
230	0xbd15de60	-0.036589026
231	0x3daa5cbc	0.08318469
232	0x3d91c3db	0.071174346
233	0xbd6eefd5	-0.05833419
234	0xbd452a77	-0.0481362
235	0xbdcce5c3	-0.10004761
236	0xbd1435a4	-0.03618397
237	0xbcc312eb	-0.023812732
238	0xbd16b2c0	-0.036791563
239	0x3cbdb579	0.023157822
240	0x3d1a3b6f	0.037654337
241	0xbd776b52	-0.060405083
242	0xbd631aed	-0.0554456
243	0x3d9e588f	0.07731735
244	0xbd9761c0	-0.07391691
245	0x3d69db70	0.057094038
246	0x3d9e63e3	0.07733896
247	0xbdabc1c5	-0.08386568
248	0xbbccfba3	-0.0062555834
249	0x3d69d468	0.057087332
250	0xbd3f35a2	-0.046682008
251	0xbdb282ae	-0.087163314
252	0xbd6b0e15	-0.057386477
253	0xbd3e2726	-0.046424054
254	0xbd75a952	-0.05997593
255	0x3d2b827c	0.041872486

actor_fc_layers.blocks.2.block.1.weight f4 [128]
0	0x3f812863	1.009045
1	0x3f7c23e9	0.98492295
2	0x3f8024d1	1.0011235
3	0x3f89ba7a	1.0760033
4	0x3f7ece7f	0.9953384
5	0x3f7e297d	0.99282056
6	0x3f7f43e9	0.99713
7	0x3f7fdefd	0.9994963
8	0x3f7efb41	0.99602133
9	0x3f796915	0.9742597
10	0x3f81a28e	1.0127733
11	0x3f7d43b5	0.9893144
12	0x3f7ed336	0.9954103
13	0x3f805893	1.0027031
14	0x3f8604d2	1.0470221
15	0x3f79fbfa	0.9765011
16	0x3f7f3116	0.99684274
17	0x3f7f1cd9	0.99653393
18	0x3f824702	1.017792
19	0x3f7d92b5	0.9905198
20	0x3f79497e	0.97377765
21	0x3f7e472d	0.99327356
22	0x3f7d5b5f	0.98967546
23	0x3f7dcc21	0.991396
24	0x3f869a8f	1.0515918
25	0x3f808999	1.0041991
26	0x3f88a15a	1.067424
27	0x3f7eaac9	0.9947935
28	0x3f818092	1.0117362
29	0x3f7dd135	0.9914735
30	0x3f79ccb1	0.9757796
31	0x3f7a6ae5	0.9781936
32	0x3f8a27d1	1.0793401
33	0x3f80165d	1.0006825
34	0x3f772119	0.9653488
35	0x3f7e87a5	0.9942573
36	0x3f8d23bd	1.1026531
37	0x3f820b31	1.0159665
38	0x3f806fd1	1.0034124
39	0x3f7c4e1a	0.98556674
40	0x3f772fc2	0.9655725
41	0x3f814fbe	1.010246
42	0x3f8113e1	1.0084192
43	0x3f8114db	1.008449
44	0x3f7967e9	0.9742418
45	0x3f797fe6	0.9746078
46	0x3f7dbeb6	0.99119127
47	0x3f7fbfbd	0.99901944
48	0x3f89bd68	1.0760927
49	0x3f8102b1	1.0078946
50	0x3f81960d	1.0123917
51	0x3f7c677d	0.9859541
52	0x3f7ea489	0.9946981
53	0x3f7ab796	0.9793638
54	0x3f7d6dfd	0.98995954
55	0x3f7e7289	0.99393517
56	0x3f8750df	1.0571555
57	0x3f7fc46d	0.99909097
58	0x3f7d9a85	0.99063903
59	0x3f7ea425	0.99469215
60	0x3f845e8e	1.0341356
61	0x3f803057	1.0014752
62	0x3f750f05	0.95726043
63	0x3f7d3b99	0.98919064
64	0x3f80903d	1.0044018
65	0x3f7ed08e	0.9953698
66	0x3f7c8339	0.9863773
67	0x3f86f620	1.0543861
68	0x3f7c32f5	0.98515254
69	0x3f802341	1.0010759
70	0x3f7d18d5	0.98866016
71	0x3f7d6d30	0.9899473
72	0x3f84d64c	1.0377898
73	0x3f7ed8e1	0.9954968
74	0x3f75da74	0.9603646
75	0x3f7bb625	0.98324805
76	0x3f828c8a	1.0199139
77	0x3f81b3be	1.0132978
78	0x3f82d78a	1.0222027
79	0x3f859902	1.0437319
80	0x3f7e5029	0.99341065
81	0x3f804c77	1.0023335
82	0x3f7cb219	0.98709255
83	0x3f7d7ec9	0.99021584
84	0x3f7963e8	0.9741807
85	0x3f886826	1.0656784
86	0x3f803fd9	1.0019485
87	0x3f7fd219	0.9992996
88	0x3f81dfa1	1.0146371
89	0x3f7cf549	0.98811775
90	0x3f7c6e85	0.9860614
91	0x3f7e54d9	0.9934822
92	0x3f7f7e92	0.99802506
93	0x3f7d7d39	0.990192
94	0x3f809c59	1.0047714
95	0x3f8236fe	1.0173032
96	0x3f79ccc0	0.9757805
97	0x3f7e826d	0.99417764
98	0x3f80ffe0	1.0078087
99	0x3f80270c	1.0011916
100	0x3f86b17a	1.0522912
101	0x3f80eba5	1.0071913
102	0x3f702bb3	0.9381668
103	0x3f7e8139	0.9941593
104	0x3f7dab51	0.99089533
105	0x3f7ad92c	0.9798763
106	0x3f84d628	1.0377855
107	0x3f8d16b4	1.1022553
108	0x3f85d67a	1.0456078
109	0x3f7d3b99	0.98919064
110	0x3f858ff1	1.0434552
111	0x3f793139	0.9734073
112	0x3f802b79	1.0013267
113	0x3f80b7e2	1.0056117
114	0x3f8226fa	1.0168145
115	0x3f8192d6	1.0122936
116	0x3f7af339	0.9802738
117	0x3f7edc65	0.99555045
118	0x3f819775	1.0124346
119	0x3f7dee6b	0.9919192
120	0x3f804186	1.0019996
121	0x3f7e058d	0.9922722
122	0x3f7e1c99	0.99262387
123	0x3f7a14e9	0.97688156
124	0x3f7dbeaf	0.99119085
125	0x3f7f1378	0.9963908
126	0x3f7c6012	0.9858409
127	0x3f7a0f7d	0.97679883

actor_fc_layers.blocks.2.block.1.bias f4 [128]
0	0x3c3c2709	0.011483916
1	0xbca4c7d5	-0.020114819
2	0x3b239347	0.002495961
3	0x3d9e385e	0.07725595
4	0xbc6c400c	-0.014419567
5	0x3b50e91b	0.0031877223
6	0xbb89f9b7	-0.0042106765
7	0x3c277493	0.010220665
8	0xbb69cc43	-0.0035674728
9	0xbbc2c7c6	-0.005944225
10	0x3c0d9206	0.008640772
11	0xbc04295d	-0.008066502
12	0xbc04dad2	-0.008108811
13	0xbcbe38ba	-0.023220409
14	0xbceb471d	-0.028720433
15	0xbc1480c7	-0.009063906
16	0xbbd1cca7	-0.0064025703
17	0xbb48f20b	-0.0030661847
18	0xbb518048	-0.003196733
19	0xbc0ece0b	-0.008716117
20	0xbc9eb6ac	-0.019374214
21	0xbbc4132b	-0.0059837303
22	0x3a85f552	0.0010220206
23	0x3b09f182	0.002104849
24	0x3d70208a	0.05862478
25	0x3beeaca4	0.007283764
26	0x3d90cc2f	0.07070195
27	0xbbcad7fb	-0.0061902977
28	0x3c698a30	0.014254138
29	0xbba2ea9d	-0.0049718157
30	0xbc91d1ec	-0.017800294
31	0xbbb9f5b6	-0.005675043
32	0x3d5a64b8	0.05331871
33	0x3bc51b9e	0.006015255
34	0xbc66b9a0	-0.014082342
35	0xbb3dbcbf	-0.0028951613
36	0x3d00a7f2	0.031410165
37	0x3cb2bd5d	0.021818811
38	0x3c5250df	0.012836664
39	0xbc16bc93	-0.009200233
40	0xbcb61f8f	-0.022231845
41	0x3c8a45e2	0.016879026
42	0x3c6ee034	0.014579821
43	0x3c24f188	0.010067351
44	0xbc0726ab	-0.008248965
45	0xbc4b7338	-0.012417607
46	0xbc345b70	-0.0110081285
47	0xbb307c52	-0.002692957
48	0x3d96639b	0.07343217
49	0x3c2f7067	0.010707951
50	0x3c1ec8e9	0.009691455
51	0x3c68bf10	0.014205709
52	0x3b2a5d20	0.0025995448
53	0x3b73f0ee	0.0037222463
54	0xbc826323	-0.015916413
55	0xbbe5ade9	-0.007009257
56	0x3d81c98d	0.06337271
57	0x3bb27cd1	0.005447008
58	0xbc973fc4	-0.018463023
59	0xbbcc634b	-0.0062374226
60	0xbc81e1d7	-0.01585476
61	0x3bb4cfbd	0.0055179284
62	0xbd1bb0e0	-0.038010478
63	0xbc803ab2	-0.015652988
64	0x3bf8e639	0.007595804
65	0x3ca3d468	0.019998744
66	0xbc208fc1	-0.009799899
67	0x3d925d16	0.07146661
68	0xbd16e5ad	-0.03684013
69	0xbc11bd38	-0.008895211
70	0xbc350e3e	-0.011050759
71	0x3cea639e	0.028611954
72	0x3d8e090e	0.06935321
73	0xbb91df98	-0.0044517033
74	0xbcb25637	-0.021769626
75	0xbc1ad42c	-0.00945
76	0x3b52eb8f	0.003218386
77	0xbcbc289a	-0.02296858
78	0xbb53afa8	-0.0032300744
79	0xbcb04926	-0.021519255
80	0xbbbcf5ae	-0.005766592
81	0x39409a8b	0.00018368119
82	0xbcc2a397	-0.023759646
83	0xbbf90516	-0.0075994832
84	0xbbc65994	-0.006053159
85	0x3d4ff3e9	0.05076972
86	0xbbbd5018	-0.00577737
87	0x3afdfd59	0.0019377872
88	0x3c3d4a90	0.011553422
89	0xba916cc0	-0.0011095032
90	0xbc2a0155	-0.010376294
91	0x3a81ee65	0.0009912966
92	0x3b71455a	0.0036815018
93	0xbc393266	-0.01130352
94	0x3c5b0adb	0.013369287
95	0x3d036990	0.032083094
96	0x3b0cb99f	0.0021472943
97	0xb88c946d	-6.703367e-05
98	0x3bc06d74	0.005872423
99	0x3c97a948	0.018513337
100	0x3c4b77be	0.0124186855
101	0xbc57e94c	-0.013178181
102	0xbc51c75a	-0.012803877
103	0xbc7841a8	-0.015152372
104	0xbc4ccbc5	-0.012499754
105	0xbc3c0a85	-0.011477117
106	0x3c423044	0.011852328
107	0x3dab2719	0.08357067
108	0x3b4390cc	0.0029840944
109	0xbd01540b	-0.03157429
110	0x3d89821b	0.06714269
111	0xbc8313b3	-0.016000604
112	0x3ba26a8e	0.00495655
113	0xbd4065c3	-0.046972048
114	0xbc964628	-0.018344
115	0xbb012bad	-0.001970987
116	0xbc92f6e4	-0.017939992
117	0xbbcde6cb	-0.006283616
118	0x3ce3855e	0.027773555
119	0xbc08f29d	-0.008358625
120	0xbbdf12e7	-0.0068076733
121	0x3b01ef97	0.0019826645
122	0xbbf4363a	-0.0074527534
123	0xbc88dc9f	-0.016706763
124	0xbc255fee	-0.010093672
125	0xbc788b36	-0.015169909
126	0xbc40b37e	-0.011761544
127	0x3bbb3abd	0.0057137893
