saved_models/agent_maddpgv2_vs_opp_maddpgv2_4_vs_1_1_big_5_sec_agent_best_models/maddpgv2_actor_0.pt (torch, 163339 bytes, 21 tensors)

actor_fc_layers.blocks.0.block.0.weight f4 [128, 27]
00000000: e5a1 6d3d 7f49 9fbc e38f 583d a344 25be
00000010: 0e26 f83d 4c2a 78bd e414 06be 1b1e 5cbd
00000020: 72ff 9e3c 0f91 7a3d 0442 213e fa74 cdbd
00000030: e209 473d ec07 733d 6abf ba3d 9ae6 b3bd
00000040: 50ae 843c 7f08 85bd ff05 833c 88ce c73b
00000050: 5264 383c 2a01 07be 3f41 37bb 6f6c e03c
00000060: 48fc b33d 9710 1bbe a980 bebd 6bc5 a8bd
00000070: 3065 36be 4272 28be b60e b5bb e23e 0e3d
00000080: 2f38 aa3d de3d 413d 5160 903d 5a66 553c
00000090: 0ca5 b63d 535c d4bd 27b5 c1bd a587 9dbd
000000a0: fd96 53be ecb9 3f3e 5c1f 19be 1e8a 91bd
000000b0: 3ed2 1c3e 7cbe ce3c 40bd 483d 8c1f 823d
000000c0: ee97 de3d 06c7 e43d 4657 fe3c c941 6cbd
000000d0: bbd4 ab3d 64de 2a3b 017d 70be 163a 5fbd
000000e0: 6df3 453d b20f 27be b4d2 40be 0e19 1e3e
000000f0: 4fc1 993c 5c9b 50bc 0f19 b8bd 6b89 113e
00000100: 6b86 fa3d 4ab4 293e dfc9 243e 3ff1 31bd
00000110: 70ae f3bd 4945 10bc 1f8d a33c 5b20 db3d
00000120: 283b 40be f66b a73d 0dd5 30bd 730c 843d
00000130: 2819 1cbe 87b7 3bbd 6096 16bb b731 c13d
00000140: dc32 b03c 4f16 f8bd 1fb5 2ebe 2db7 51be
00000150: 9a77 063e 1f55 693c 5eb0 99bd 97b0 2cbe
00000160: c66e 24bd df95 063e 7381 573d 319d 023e
00000170: 2d4c 3a3e eb3d be3d cffb 32bc 99c1 20bc
00000180: 5576 263e 532e 10be a8fb febd 2ca5 2a3c
00000190: 9c76 dabd 5e11 063e 5284 c7bd d7a0 3b3d
000001a0: dcbe 60bd 19eb d2bd 059e 98bd 0faa a33c
000001b0: 601e 23bd 45e8 04be cac5 69bc dd08 d0ba
000001c0: 1278 d03d b57e ccbc 14b0 86bd 0386 16be
000001d0: 5c90 093d 347b 713c 91d3 883d ebd6 0a3e
000001e0: 97e7 d6bc b413 f13d 58ef 3fbd 8c63 083d
000001f0: 18c1 443e 9ed9 053e 2d21 2bbe 0673 bbbd
00000200: ced3 2e3e 07b0 34bd f0a9 cd3d debf eb3d
00000210: 54b4 2cbe ba8a 0b3d 74f7 2cbc d830 83bd
00000220: 5b85 aeb9 1114 54be 5ce1 1b3e b00f 943d
00000230: e9d4 1d3c 4759 bc3d de27 5dbe ed22 97bb
00000240: 9750 39be 9356 073e ad41 093d f6c5 8e3d
00000250: 45a0 5ebe 4d3e aebc 03bb 163d 14c2 ffbd
00000260: 86d1 38b9 5e0f 8a3d cd04 fb3d 5a30 e5bd
00000270: 5b9c 1abd ed3b a1bd dbf2 743d 35a4 03be
00000280: 2b5d 9e3d b3ae a03d b86d da3d 37d8 eabd
00000290: dad9 303d 484f c1bd 04a0 04be f0e6 44bc
000002a0: 17fc 62be 8cc5 c23c 8686 863d 3bdc 293e
000002b0: fdb7 c73c f00a 93bd 055b 5c3e 3bef 8bbc
000002c0: a0bc 9c3d 761a 0cbe 2bb6 243e 667a a83d
000002d0: 61dd 963d 70ac 753c df63 5c3d 24f1 2dbe
000002e0: 6fa6 1abd 4480 b0bd 8a3d cb3c 818b 6b3d
000002f0: 5f13 593d 4f3f fd3c 3793 8bbd 23be 003e
00000300: 3e97 413e bd85 3fbe 463d babd d950 ab3c
00000310: 9b1a 93bd 71a6 1dbe ff41 823d d6b2 743d
00000320: 3265 6ebc afb3 223e 4c3d 10be ca29 89bd
00000330: 74e7 9b3d ceed 973d 48bf 07be 49b6 e53d
00000340: b31f 103d 870b f1bd 5c85 08bd 24f7 963d
00000350: a7a1 5d3d 690c 1bbe 3c6d f23d e404 403d
00000360: 4ad6 983d 4b98 ae3d 3b40 f33c e4f0 2dbe
00000370: 7ed3 c9bd 5104 9137 661f 2dbe 4ddd 1b3b
00000380: 8c54 df3d edfa 0ebe fc18 e03d 9aca 1bbe
00000390: 3748 583d 7107 43be f796 90bd a3c5 26bd
000003a0: 6f29 18be cbe2 053e eeed 1dbd f866 023e
000003b0: 30ee d23c 3e12 13be 922e 423d 8f4d b63b
000003c0: 5091 e0bd a08c 3bbe adc3 673d 37cd 52be
000003d0: 5807 40be feed e33d 7d02 963c 6d24 4dbe
000003e0: 52ed 75bd 1894 81be f9e1 3c3d c7d4 85bd
000003f0: f3b3 33be 18fd a8bd a6dc 193d b39f aa3d
0.058015723 -0.019444225 0.052871596 -0.16139464 0.12116633 -0.060587212 -0.13093907 -0.05373965
0.019408915 0.061173495 0.15747839 -0.10032077 0.04859341 0.059333727 0.091185406 -0.08784218
0.0161964 -0.06495761 0.01599407 0.0060976185 0.011254387 -0.13184038 -0.0027962474 0.027395455
0.08788353 -0.15143047 -0.09301884 -0.082407795 -0.17812037 -0.16449836 -0.0055254353 0.03472794
0.083114974 0.04717814 0.07049621 0.013024891 0.08918199 -0.10369172 -0.0945838 -0.07691888
-0.20663066 0.18723267 -0.14953369 -0.07106422 0.15314576 0.025237314 0.049008608 0.06353673
0.10868822 0.11170773 0.031047475 -0.057679925 0.083901845 0.0026072497 -0.23485185 -0.054498754
0.048327852 -0.16314581 -0.18830377 0.15439245 0.018768935 -0.012732353 -0.089891545 0.14212577
0.122326694 0.16572681 0.16092633 -0.04344296 -0.11898506 -0.008805581 0.019964753 0.10699531
-0.18772566 0.08174889 -0.04317193 0.06447687 -0.15243971 -0.045829322 -0.0022977814 0.094333105
0.021508627 -0.1211363 -0.1706128 -0.20480032 0.13131562 0.014241486 -0.075043425 -0.16864239
-0.040144704 0.13143109 0.052613687 0.12755276 0.18193121 0.09289154 -0.010924294 -0.009811782
0.16256078 -0.14080171 -0.12450343 0.010415357 -0.10667154 0.13092563 -0.09742035 0.045807686
-0.054869518 -0.102987476 -0.07452015 0.019978551 -0.03982389 -0.12979229 -0.014268348 -0.0015871782
0.101791516 -0.024962762 -0.06576553 -0.14699559 0.033584937 0.014738847 0.06680978 0.13558547
-0.026233478 0.11771336 -0.046859115 0.03329806 0.19214284 0.13071296 -0.16711874 -0.09152798
0.17072985 -0.044113185 0.10042179 0.11511205 -0.16865665 0.034067847 -0.010557044 -0.064058006
-0.00033287224 -0.2071078 0.15222687 0.07229555 0.009633281 0.09196716 -0.2159724 -0.004612318
-0.18097149 0.13216619 0.0335099 0.06971352 -0.21740825 -0.021269942 0.036799442 -0.12488189
-0.00017625661 0.06741212 0.12256775 -0.11190863 -0.03774677 -0.07872758 0.059801918 -0.12855609
0.07732614 0.07845821 0.106654584 -0.11467021 0.04317651 -0.0943895 -0.12951666 -0.01201795
-0.22166477 0.023775838 0.06568627 0.16587918 0.024379725 -0.071798205 0.21519096 -0.017081847
0.07653165 -0.13681969 0.16085117 0.08226471 0.073664434 0.014994726 0.053806182 -0.16986519
-0.03775638 -0.08618215 0.024809618 0.05750609 0.05299699 0.030913977 -0.068151884 0.12572531
0.1890535 -0.18703361 -0.09093718 0.020912575 -0.07182809 -0.15395524 0.06360244 0.059740864
-0.014550494 0.15888856 -0.14085883 -0.06697424 0.076125056 0.074184045 -0.13256562 0.11216409
0.03518648 -0.11769777 -0.033330306 0.07371357 0.05410924 -0.15141453 0.11837241 0.046879664
0.074627474 0.08525141 0.029693713 -0.16986424 -0.09854792 1.7287357e-05 -0.16906509 0.0023783029
0.10904798 -0.13962908 0.109422654 -0.15214005 0.052803244 -0.19045807 -0.07060044 -0.040715825
-0.14859556 0.13074796 -0.038556986 0.12734592 0.025748342 -0.14362428 0.047407694 0.005563445
-0.10965216 -0.18315363 0.056583095 -0.20586096 -0.18752801 0.11129378 0.018311733 -0.20033427
-0.06004078 -0.253083 0.04611394 -0.06534725 -0.17549114 -0.08251399 0.037563942 0.083312415

actor_fc_layers.blocks.0.block.1.weight f4 [128]
00000000: 14df 793f d600 6d3f e5a1 743f 9191 753f
00000010: 45b9 6b3f d1f0 723f 23a8 693f b530 6f3f
00000020: b0ac 683f 2b76 753f 4a09 753f 0000 803f
00000030: 8f03 7e3f 11dc 703f 9f23 773f d2d9 6f3f
00000040: 8d18 743f f95e 723f 3344 773f 4375 733f
00000050: 95d1 783f 90a5 7b3f 9c04 733f 43ea 733f
00000060: 2ea5 7c3f a486 683f e82d 7d3f 97cc 743f
00000070: b54d 703f 7124 6e3f ad07 7d3f 9b91 783f
00000080: e6bb 6f3f 828e 703f 21f5 7f3f f289 783f
00000090: 9cf5 7a3f 7256 7a3f baf1 753f ca32 7f3f
000000a0: ea80 723f 261a 713f 6717 743f 2641 7d3f
000000b0: bae9 723f 7690 6e3f c029 743f b84b 7c3f
000000c0: 315f 703f f9fb 743f 8090 763f a269 733f
000000d0: db5c 6e3f 3249 6c3f a5f3 6e3f c934 743f
000000e0: 5f12 713f 0d83 6f3f 870f 763f 1c4d 683f
000000f0: fda4 733f b9e5 7e3f e86c 7a3f 3566 743f
00000100: 04b2 7f3f 71fc 7d3f 28b4 753f 05fa 723f
00000110: 0000 803f 7b6c 7b3f 3806 703f 73a3 743f
00000120: dbae 763f b43f 803f 91f6 713f e026 773f
00000130: 58cd 813f 798a 783f 9536 703f 7097 8c3f
00000140: 0eff 703f 3242 703f e856 7c3f 0000 803f
00000150: 1740 773f 83b4 813f 2103 7e3f f68b 7f3f
00000160: 2978 7a3f 7230 703f cfd1 773f 1286 763f
00000170: aa71 793f c216 793f 2c94 7d3f a04e 6f3f
00000180: b024 763f 0488 6f3f 26f8 783f 4b68 6b3f
00000190: 0000 803f 3b09 6c3f 3584 733f 7c23 773f
000001a0: 621c 793f 0d2b 743f e069 853f c9d1 6b3f
000001b0: 959d 733f e112 793f 605f 723f f74d 6c3f
000001c0: 28a9 7a3f e6db 793f 621d 733f 60bf 753f
000001d0: 2611 733f 44f3 763f c9a9 6e3f 5e46 723f
000001e0: faa0 7d3f 5185 703f 8f25 7c3f 3806 7f3f
000001f0: adb6 763f 2ffb 7f3f debc 7a3f 008e 753f
0.97606015 0.925794 0.9555953 0.9592524 0.92079574 0.94898707 0.9127218 0.93433696
0.908885 0.95883435 0.957173 1.0 0.9922418 0.94085795 0.9653873 0.9369174
0.9534996 0.94676167 0.9658844 0.951008 0.97194797 0.98299503 0.9492891 0.9527933
0.98689544 0.90830445 0.9889817 0.9562468 0.9386857 0.93024355 0.9883984 0.97097176
0.93646085 0.9396745 0.9998341 0.9708549 0.9803102 0.97788155 0.9607197 0.9968687
0.9472796 0.94180524 0.9534821 0.98927534 0.9488789 0.9318918 0.95376205 0.9855304
0.9389525 0.9569698 0.9631424 0.9508306 0.93110436 0.9229919 0.9334052 0.95393044
0.9416866 0.9355934 0.9611744 0.9074266 0.9517363 0.9956928 0.9782243 0.95468456
0.99881005 0.9921332 0.9597802 0.9491275 1.0 0.98212403 0.9375949 0.95561904
0.9636056 1.0019441 0.94516855 0.96543694 1.0140791 0.9708629 0.93833286 1.0983715
0.9413918 0.93851006 0.9857011 1.0 0.9658217 1.0133213 0.99223524 0.9982294
0.978396 0.9382392 0.9680452 0.96298325 0.9743906 0.9730035 0.9905422 0.9347935
0.9614973 0.9356692 0.97253644 0.91956013 1.0 0.92201585 0.95123607 0.9653852
0.97308934 0.9537819 1.0422935 0.9211698 0.95162326 0.9729443 0.9467678 0.92306465
0.9791436 0.97601163 0.9496671 0.9599514 0.9494804 0.96464944 0.9322782 0.9463862
0.99073756 0.93953425 0.9849481 0.99618864 0.9637249 0.9999265 0.9794444 0.959198

actor_fc_layers.blocks.0.block.1.bias f4 [128]
00000000: 53dc 16bd 38f8 b5bd d400 54bd 61ab 58bd
00000010: 8d92 b2bd 4073 71bd 780d a3bd aaf8 8abd
00000020: 5d30 b4bd b627 35bd 5926 62bd 0000 0000
00000030: 5949 31bc 3326 64bd 333e 2bbd 618e 4fbd
00000040: 0d4b 7ebd 45e5 64bd a1dc 3cbd dbc6 74bd
00000050: 075c 09bd 395e 81bc 98b0 2bbd 0aeb 4dbd
00000060: c749 bbbc 206e abbd 6d62 b4bc 476a 3abd
00000070: 9509 95bd 76b7 9abd f935 b2bc a955 00bd
00000080: c3d8 4ebd 1453 7abd b091 163b 856a e7bc
00000090: 559c c8bc 8114 b9bc 5543 1ebd ebf2 63bc
000000a0: 8abc 94bd 5a35 5ebd 3e0d 31bd a03a b9bb
000000b0: 63dd 80bd 8d09 51bd 9c37 28bd 6af3 433c
000000c0: ee13 65bd 800c 29bd be6f 06bd e967 60bd
000000d0: 9403 85bd 5cfc b5bd 405f 79bd b804 1abd
000000e0: d41c 92bd b596 6abd e705 2dbd 53e0 c2bd
000000f0: 1bc3 21bd 15d8 053d c5c9 c2bc d62f 51bd
00000100: b0e6 ee3b 3d7d 21bc d9f3 35bd decd 5ebd
00000110: 0000 0000 88ca 59bc f7bd 90bd 6ba1 60bd
00000120: cc45 38bd ea2f b4ba fc36 51bd 8509 05bd
00000130: 953e e1ba 3213 1cbd 33d8 6bbd 8ad0 993d
00000140: 9ef7 56bd dcd2 96bd b374 75bc 0000 0000
00000150: 4db1 ebbc d2d6 453d 99fc dabc b4b7 c63b
00000160: 4ff3 dbbc 40bd 95bd 173b 03bd 7fec 2cbd
00000170: c742 a4bc 0069 ddbc 91bc 5cbc d1c6 71bd
00000180: e875 29bd b56e 75bd 7fbb 12bd 86ec 8dbd
00000190: 0000 0000 1d65 67bd 3f6f 72bd d0b7 16bd
000001a0: 8693 17bd 45e8 67bd 3bb9 4a3d d857 7dbd
000001b0: d5c5 37bd 5604 f3bc d462 48bd 6034 9fbd
000001c0: 7b56 d4bc 117a d2bc 54bd 3bbd fe54 05bd
000001d0: 558f 40bd f716 2ebd 63b8 76bd eb5e 6dbd
000001e0: 1ba4 67bc c49d 5fbd a071 73bc 862f 5e3a
000001f0: c334 0cbd b2ef 95bb dc58 51bc c45f 16bd
-0.03683121 -0.088852346 -0.051758602 -0.052897815 -0.087193586 -0.0589478 -0.07961553 -0.0678571
-0.08798287 -0.044227324 -0.055212352 0.0 -0.01082071 -0.055700492 -0.041807365 -0.050672892
-0.062083293 -0.05588271 -0.046108846 -0.059759956 -0.03353503 -0.015792 -0.04191646 -0.05027298
-0.022862328 -0.08370614 -0.02201959 -0.04551151 -0.07277218 -0.07554524 -0.021754252 -0.031331692
-0.05049969 -0.061114386 0.002297502 -0.028249035 -0.024488607 -0.022592785 -0.03863843 -0.013912897
-0.072625235 -0.0542501 -0.04322552 -0.0056527406 -0.06292226 -0.0510345 -0.04106866 0.01195989
-0.05592721 -0.041271687 -0.03282141 -0.054786596 -0.06494823 -0.08886024 -0.060881853 -0.037602156
-0.07134405 -0.05727263 -0.042241957 -0.09515443 -0.039492708 0.032676775 -0.023777852 -0.05107101
0.0072906837 -0.009856519 -0.044422004 -0.05439555 0.0 -0.013292916 -0.07067483 -0.05484144
-0.04498844 -0.001374719 -0.051077828 -0.03247978 -0.0017184789 -0.038104244 -0.05757923 0.07510479
-0.05248224 -0.07364437 -0.014981437 0.0 -0.028771067 0.04830057 -0.026731776 0.0060643796
-0.026849417 -0.07311487 -0.032038774 -0.042217728 -0.020051373 -0.027027607 -0.013472692 -0.059027497
-0.04137221 -0.05992003 -0.03582334 -0.06929879 0.0 -0.056492914 -0.059188124 -0.03679639
-0.037005924 -0.056617994 0.049493056 -0.061851352 -0.0448664 -0.029665153 -0.048922375 -0.077736616
-0.025920143 -0.025692971 -0.045834854 -0.032551758 -0.047011692 -0.04250237 -0.06023444 -0.05795185
-0.014138247 -0.054593816 -0.014858633 0.00084757095 -0.034230005 -0.004575693 -0.012777533 -0.036712423

actor_fc_layers.blocks.0.block.1.running_mean f4 [128]
00000000: 0000 0000 0000 0000 0000 0000 0000 0000
00000010: 0000 0000 0000 0000 0000 0000 0000 0000
00000020: 0000 0000 0000 0000 0000 0000 0000 0000
00000030: 0000 0000 0000 0000 0000 0000 0000 0000
00000040: 0000 0000 0000 0000 0000 0000 0000 0000
00000050: 0000 0000 0000 0000 0000 0000 0000 0000
00000060: 0000 0000 0000 0000 0000 0000 0000 0000
00000070: 0000 0000 0000 0000 0000 0000 0000 0000
00000080: 0000 0000 0000 0000 0000 0000 0000 0000
00000090: 0000 0000 0000 0000 0000 0000 0000 0000
000000a0: 0000 0000 0000 0000 0000 0000 0000 0000
000000b0: 0000 0000 0000 0000 0000 0000 0000 0000
000000c0: 0000 0000 0000 0000 0000 0000 0000 0000
000000d0: 0000 0000 0000 0000 0000 0000 0000 0000
000000e0: 0000 0000 0000 0000 0000 0000 0000 0000
000000f0: 0000 0000 0000 0000 0000 0000 0000 0000
00000100: 0000 0000 0000 0000 0000 0000 0000 0000
00000110: 0000 0000 0000 0000 0000 0000 0000 0000
00000120: 0000 0000 0000 0000 0000 0000 0000 0000
00000130: 0000 0000 0000 0000 0000 0000 0000 0000
00000140: 0000 0000 0000 0000 0000 0000 0000 0000
00000150: 0000 0000 0000 0000 0000 0000 0000 0000
00000160: 0000 0000 0000 0000 0000 0000 0000 0000
00000170: 0000 0000 0000 0000 0000 0000 0000 0000
00000180: 0000 0000 0000 0000 0000 0000 0000 0000
00000190: 0000 0000 0000 0000 0000 0000 0000 0000
000001a0: 0000 0000 0000 0000 0000 0000 0000 0000
000001b0: 0000 0000 0000 0000 0000 0000 0000 0000
000001c0: 0000 0000 0000 0000 0000 0000 0000 0000
000001d0: 0000 0000 0000 0000 0000 0000 0000 0000
000001e0: 0000 0000 0000 0000 0000 0000 0000 0000
000001f0: 0000 0000 0000 0000 0000 0000 0000 0000
0.0 0.0 0.0 0.0 0.0 0.0 0.0 0.0
0.0 0.0 0.0 0.0 0.0 0.0 0.0 0.0
0.0 0.0 0.0 0.0 0.0 0.0 0.0 0.0
0.0 0.0 0.0 0.0 0.0 0.0 0.0 0.0
0.0 0.0 0.0 0.0 0.0 0.0 0.0 0.0
0.0 0.0 0.0 0.0 0.0 0.0 0.0 0.0
0.0 0.0 0.0 0.0 0.0 0.0 0.0 0.0
0.0 0.0 0.0 0.0 0.0 0.0 0.0 0.0
0.0 0.0 0.0 0.0 0.0 0.0 0.0 0.0
0.0 0.0 0.0 0.0 0.0 0.0 0.0 0.0
0.0 0.0 0.0 0.0 0.0 0.0 0.0 0.0
0.0 0.0 0.0 0.0 0.0 0.0 0.0 0.0
0.0 0.0 0.0 0.0 0.0 0.0 0.0 0.0
0.0 0.0 0.0 0.0 0.0 0.0 0.0 0.0
0.0 0.0 0.0 0.0 0.0 0.0 0.0 0.0
0.0 0.0 0.0 0.0 0.0 0.0 0.0 0.0

actor_fc_layers.blocks.0.block.1.running_var f4 [128]
00000000: 0000 803f 0000 803f 0000 803f 0000 803f
00000010: 0000 803f 0000 803f 0000 803f 0000 803f
00000020: 0000 803f 0000 803f 0000 803f 0000 803f
00000030: 0000 803f 0000 803f 0000 803f 0000 803f
00000040: 0000 803f 0000 803f 0000 803f 0000 803f
00000050: 0000 803f 0000 803f 0000 803f 0000 803f
00000060: 0000 803f 0000 803f 0000 803f 0000 803f
00000070: 0000 803f 0000 803f 0000 803f 0000 803f
00000080: 0000 803f 0000 803f 0000 803f 0000 803f
00000090: 0000 803f 0000 803f 0000 803f 0000 803f
000000a0: 0000 803f 0000 803f 0000 803f 0000 803f
000000b0: 0000 803f 0000 803f 0000 803f 0000 803f
000000c0: 0000 803f 0000 803f 0000 803f 0000 803f
000000d0: 0000 803f 0000 803f 0000 803f 0000 803f
000000e0: 0000 803f 0000 803f 0000 803f 0000 803f
000000f0: 0000 803f 0000 803f 0000 803f 0000 803f
00000100: 0000 803f 0000 803f 0000 803f 0000 803f
00000110: 0000 803f 0000 803f 0000 803f 0000 803f
00000120: 0000 803f 0000 803f 0000 803f 0000 803f
00000130: 0000 803f 0000 803f 0000 803f 0000 803f
00000140: 0000 803f 0000 803f 0000 803f 0000 803f
00000150: 0000 803f 0000 803f 0000 803f 0000 803f
00000160: 0000 803f 0000 803f 0000 803f 0000 803f
00000170: 0000 803f 0000 803f 0000 803f 0000 803f
00000180: 0000 803f 0000 803f 0000 803f 0000 803f
00000190: 0000 803f 0000 803f 0000 803f 0000 803f
000001a0: 0000 803f 0000 803f 0000 803f 0000 803f
000001b0: 0000 803f 0000 803f 0000 803f 0000 803f
000001c0: 0000 803f 0000 803f 0000 803f 0000 803f
000001d0: 0000 803f 0000 803f 0000 803f 0000 803f
000001e0: 0000 803f 0000 803f 0000 803f 0000 803f
000001f0: 0000 803f 0000 803f 0000 803f 0000 803f
1.0 1.0 1.0 1.0 1.0 1.0 1.0 1.0
1.0 1.0 1.0 1.0 1.0 1.0 1.0 1.0
1.0 1.0 1.0 1.0 1.0 1.0 1.0 1.0
1.0 1.0 1.0 1.0 1.0 1.0 1.0 1.0
1.0 1.0 1.0 1.0 1.0 1.0 1.0 1.0
1.0 1.0 1.0 1.0 1.0 1.0 1.0 1.0
1.0 1.0 1.0 1.0 1.0 1.0 1.0 1.0
1.0 1.0 1.0 1.0 1.0 1.0 1.0 1.0
1.0 1.0 1.0 1.0 1.0 1.0 1.0 1.0
1.0 1.0 1.0 1.0 1.0 1.0 1.0 1.0
1.0 1.0 1.0 1.0 1.0 1.0 1.0 1.0
1.0 1.0 1.0 1.0 1.0 1.0 1.0 1.0
1.0 1.0 1.0 1.0 1.0 1.0 1.0 1.0
1.0 1.0 1.0 1.0 1.0 1.0 1.0 1.0
1.0 1.0 1.0 1.0 1.0 1.0 1.0 1.0
1.0 1.0 1.0 1.0 1.0 1.0 1.0 1.0

actor_fc_layers.blocks.1.block.0.weight f4 [128, 128]
00000000: fac8 343c b23d ffbc 0a88 853d fde8 8e3d
00000010: 2b90 1f3d d2bf 4a3d 7427 16bd 59ba 9d3c
00000020: ef96 a43d eb3c efbc 10e3 4e3d c829 83bc
00000030: 5f8f 92bd 1501 c0bd 1666 febc 35da 4a3d
00000040: 0d2b 683d eff1 58bc bebe 90ba 19da b6bc
00000050: 0e1f 1bbd e69e 0bbd d8e0 47bd 600b c0bc
00000060: 8a64 973d 53fc 863d 0fc1 8a3d ee73 e8bc
00000070: 6f73 b6bc 3c4a 5fbd fc1a 9f3d f1c9 ebbc
00000080: 59af da3d 3b7c 2cbd db4d 75bd 3c88 e73c
00000090: 3aea b63b 6dfe 903c 366d 03bd 9314 f0bc
000000a0: 104f 16bd 67b0 903c 0b48 2abd 6bac 823d
000000b0: 3bc3 20bd bd17 bbbc e6c9 e43c 1242 103d
000000c0: 0e2c 3bbd a84f 39bd 0aba 1fbd 7187 3fbd
000000d0: fc3e b7bd 8a21 c3bd 956a 173d 3ab6 29bd
000000e0: 2bdc 003c 9b12 e33b 3def 92bc 5f0e 253d
000000f0: 1f29 813d 91ab 113c 7f0c a1bd 7cd6 32bd
00000100: 64b2 be3b 975f 733d 27e7 2a3c 1989 a13c
00000110: 1df4 85bb 84db f73c f04e 60bd 98c1 5ebd
00000120: f884 9ebd bbd5 4ebb 3912 b1bd b816 f5bb
00000130: 9476 043d fb0f 8ebd 7b61 a83d 0387 e83c
00000140: c282 eb3c ea7f 5bbd ac48 adbc 1b42 88bc
00000150: 492e 8d3c 2e13 ba3c 7c35 563c 0730 b03a
00000160: b89c 90ba 90fd 7cbb 0d9e c03c 66a3 06bd
00000170: aa6e db3c 6da2 cc3c 8ab2 233c e234 b0bd
00000180: 4eeb ecbc 3ea5 3bbd f889 e9ba 8aff 61bd
00000190: 7126 b23c e74d 49bd 558e ec3c ad04 a63c
000001a0: de58 b8bc 2bf7 c2bd 2f5d 113d 62ca 07bd
000001b0: e422 66bd e2dd 123d d890 8c3d e387 833c
000001c0: ea6f 763d 02e5 d63b a82d a23d b614 adbd
000001d0: 9322 29bb 60b4 823d 5cc8 c5bd 0eb2 933d
000001e0: 4af1 923d 11e4 30bb da87 2b3d b25c c2bc
000001f0: 740a 613d a45b 64bd aca4 8ebd bfca 1abc
00000200: e1e7 84bd e233 b2bd 456d 77bc d36e 02bd
00000210: 9d95 3cbb 97f5 bebd b35e 6f3d 4cf5 943b
00000220: 117b 91bd 6b40 53bd f41d 083d 9ef0 003d
00000230: 2a41 a6bd e6e8 403d ecbd 933d 7cae aebd
00000240: d810 43bd 0584 32bd 4b7a c6bc d7e7 a7bd
00000250: 5d86 53bc 63ab c7bd 1d3c 0dbd 818f c2bc
00000260: 3c6e 67bd b8e7 853d 70dd ae3d c029 2e3d
00000270: 01ba a13d c290 16bd 2bbe 623c 891d 3b3c
00000280: d8dc adbd 7aa0 02bd 924e 84bd 68e2 803d
00000290: 5ea6 34bd efe7 1dbd 44a3 5abd d4d0 18bd
000002a0: a0d1 c4bd ea58 3abd a3ec b8bb 57b5 83bd
000002b0: 0808 953d 23ed 87bd 846a 42bd 838f 623d
000002c0: da80 3d3d 0c5d 983d 3711 6ebd 5ec6 913d
000002d0: 3852 823a 50ed ab3b ecd0 0fbd 19a2 31bd
000002e0: 4495 c83c 1dc3 07bb 3436 7fbd 68b2 9ebd
000002f0: ab28 25bd 4634 cb3d 7b8f 41bb 85c8 c5bd
00000300: 6d5b 50bd 0cbc 21bd 2871 fa3c 7dbb 2a3c
00000310: 2053 66bd 6054 833d 390f 973d 5bab 063d
00000320: 5688 f63c e849 803d e6e0 24bd afab 91bd
00000330: 6a9c abbd 41f3 d5bd 61bb 27bd 198f 98bd
00000340: ff13 41bd 6af5 a83c 244a 0f3d 54ec 8fbb
00000350: 03b0 c7bd 9854 1a3d d1dd e53c bcc3 33bd
00000360: 0fce cd3c 4594 4fbd e5ef 50bd 038f 7a3d
00000370: 83e6 2ebd d055 8c3d c3dd 9d3d 273a 23bd
00000380: 85fb 233d 1860 fc3a 80a5 ce3d db25 40bd
00000390: b03f 9ebd 56ae 0dbc 0c66 28bd b37f d5bc
000003a0: ba22 bebd e0eb 8ebd 96ad aebd 44e1 92bd
000003b0: 0217 ecbc e9a0 04bd b773 313d fec1 9b3d
000003c0: 7bde 3c3d 8fc6 b9bc fe43 be3c b996 d83c
000003d0: 0404 64bb d137 b93d 4b70 4d3c 5b99 95bd
000003e0: 84f5 febb 520f 81bd c50c 413b e080 2c3d
000003f0: e068 b93d 5455 80bd dd52 a4bc 8e07 bbba
0.011034245 -0.031157348 0.06520088 0.06978033 0.03895585 0.04949934 -0.03665872 0.019253897
0.08036601 -0.029203853 0.050509512 -0.016011134 -0.07156252 -0.093752064 -0.031054538 0.049524505
0.05668168 -0.013241275 -0.0011043174 -0.022320794 -0.037871413 -0.034087084 -0.048798412 -0.023442924
0.07392223 0.06591096 0.06775104 -0.028375592 -0.02227184 -0.054514155 0.07768819 -0.028782817
0.10677976 -0.042110663 -0.059888702 0.028263204 0.005582121 0.017699445 -0.032086574 -0.029306686
-0.036696494 0.01766224 -0.04157261 0.06380542 -0.039248686 -0.022838468 0.027928304 0.03521926
-0.04569631 -0.04524198 -0.03899578 -0.046760026 -0.0894756 -0.095278814 0.03696688 -0.04143355
0.007864992 0.006929708 -0.017936343 0.04029691 0.06306671 0.008891002 -0.078637116 -0.04366158
0.0058196057 0.059417333 0.010431088 0.019718694 -0.0040879385 0.03025604 -0.05476278 -0.054383844
-0.077402055 -0.0031560499 -0.08646054 -0.007479515 0.032339647 -0.06936642 0.08221718 0.028384691
0.028748874 -0.053588785 -0.021152817 -0.016633084 0.017233985 0.022714224 0.013074275 0.0013442048
-0.0011033034 -0.0038603283 0.023512864 -0.032870673 0.026786167 0.024979794 0.0099912975 -0.086038366
-0.028920796 -0.045811884 -0.0017817607 -0.05517534 0.021746846 -0.04914656 0.028876463 0.020265901
-0.022503313 -0.095198 0.035489257 -0.03315199 -0.056185618 0.035856135 0.06863564 0.016056007
0.060165323 0.0065580616 0.079188645 -0.08451216 -0.0025807961 0.0638206 -0.09657356 0.072116956
0.071749285 -0.0026991407 0.041877605 -0.023725841 0.05494161 -0.055751458 -0.069650024 -0.0094477525
-0.0648954 -0.08701302 -0.0151017355 -0.03184397 -0.00287757 -0.09324186 0.05843992 0.004545843
-0.07103551 -0.051575106 0.03323169 0.03147947 -0.08117898 0.04709711 0.07213959 -0.08529374
-0.047623485 -0.043582935 -0.024228236 -0.08198517 -0.012910453 -0.09749486 -0.034481157 -0.023750069
-0.056501612 0.065383375 0.085383296 0.042520285 0.078968056 -0.036759146 0.013839285 0.011420616
-0.08489388 -0.031891324 -0.064602986 0.062931836 -0.044103973 -0.038551267 -0.05337836 -0.03730853
-0.09610295 -0.04549495 -0.0056434437 -0.06431072 0.072769225 -0.06637027 -0.047464862 0.055312645
0.04626546 0.07439622 -0.058121886 0.07117914 0.0009942716 0.0052467957 -0.035111353 -0.04336748
0.024485238 -0.0020715662 -0.06230755 -0.07748872 -0.040321987 0.0992208 -0.0029534984 -0.09657387
-0.05086844 -0.039485976 0.030571535 0.010420677 -0.056231618 0.06412578 0.0737595 0.03287826
0.030094307 0.062640965 -0.040253542 -0.07112824 -0.08379443 -0.104467876 -0.040950183 -0.07449169
-0.04713821 0.020624835 0.034982815 -0.004392186 -0.097503684 0.03767833 0.028059872 -0.04388784
0.02512267 -0.05067851 -0.05101003 0.061171543 -0.0427003 0.06852305 0.07708313 -0.03985038
0.04003479 0.0019254712 0.1009016 -0.0469111 -0.07726991 -0.008647522 -0.041112944 -0.026061868
-0.09283967 -0.06978583 -0.08529203 -0.07171872 -0.028819565 -0.03238002 0.043323245 0.076053604
0.04611061 -0.022677688 0.02322578 0.026439058 -0.0034792433 0.09043849 0.01253898 -0.07304641
-0.0077807326 -0.0630175 0.0029457074 0.042115092 0.090532064 -0.06266275 -0.020059044 -0.0014269219

actor_fc_layers.blocks.1.block.1.weight f4 [128]
00000000: 562d 803f fab5 7a3f 2936 7f3f 3d63 7e3f
00000010: f3ef 803f 98ed 803f e6a8 813f 6f56 823f
00000020: 0917 7c3f 565a 803f ce3a 813f 38ef 803f
00000030: 629d 783f 52da 7a3f 2e77 7d3f 1562 7f3f
00000040: 7472 7d3f d53c 793f f6c5 813f 2a61 7f3f
00000050: 15be 7d3f 2ba6 793f b72b 7a3f 8d32 7c3f
00000060: c7e6 813f dee1 7c3f f5c2 7e3f 2c80 773f
00000070: 2cad 7d3f 0887 7f3f b6a2 7d3f 58be 7e3f
00000080: 50c5 7b3f dee9 7e3f 1455 7d3f f39a 8a3f
00000090: a892 7d3f 4b46 783f 2c72 793f d391 793f
000000a0: 57f7 7a3f 12a1 7e3f c36f 7d3f 9892 803f
000000b0: 05a4 7e3f b1b0 7e3f 9869 7d3f 4f93 813f
000000c0: 999e 813f c343 803f a8af 803f f080 813f
000000d0: 0269 7a3f c017 813f c41f 7a3f da93 803f
000000e0: d29f 803f 8f56 743f 2551 7d3f 708b 7f3f
000000f0: 74d2 7c3f 2016 7a3f 6857 7c3f 2e7c 7d3f
00000100: c97c 773f 0841 813f 93eb 7a3f 7fb7 7f3f
00000110: 8bca 803f 977e 7d3f e684 7d3f 2f52 803f
00000120: cc1a 813f 49d0 7e3f 81ac 803f 6da7 7d3f
00000130: d2d0 803f b024 803f a164 7b3f 68cc 7d3f
00000140: 0d2e 7e3f 2d63 7d3f 469c 803f f3a2 823f
00000150: 3470 813f ce0a 7e3f 3187 7d3f ceb7 803f
00000160: d620 823f 83c6 803f d18b 7d3f 72b5 7e3f
00000170: ccd3 813f 8ed5 7b3f 484d 803f 6f32 793f
00000180: 4179 893f 17c3 7c3f 32b4 7d3f 1d00 813f
00000190: 4e67 7f3f 1220 813f 157c 7e3f 4144 7e3f
000001a0: 1036 813f 1dbf 7d3f 2791 803f 8de9 803f
000001b0: fb3c 803f e1e2 813f fdcc 7b3f 81e2 7f3f
000001c0: 1a3d 7e3f b252 793f 6760 803f a402 7d3f
000001d0: 0a5f 7d3f 2ca3 803f ae3d 7d3f a00d 813f
000001e0: 9d4a 7a3f fd60 7d3f 8b77 803f f658 803f
000001f0: 33e7 7e3f 2dd4 7d3f 321e 7c3f 36e4 7c3f
1.0013835 0.97933924 0.99692017 0.99370176 1.0073227 1.0072508 1.0129669 1.0182627
0.9847265 1.0027568 1.0096071 1.0073004 0.9711515 0.9798938 0.9900998 0.99759036
0.99002767 0.9735845 1.0138538 0.99757636 0.9911817 0.9751918 0.97722954 0.98514634
1.0148553 0.98782146 0.9951623 0.9667995 0.99092364 0.99815416 0.990764 0.9950919
0.9834795 0.99575603 0.98957944 1.0828537 0.99051905 0.9698226 0.9743984 0.97488135
0.9803366 0.99464524 0.9899866 1.0044737 0.99469024 0.9948836 0.9898925 1.012308
1.0126525 1.0020679 1.0053606 1.0117474 0.9781648 1.0085373 0.9770472 1.0045121
1.0048773 0.9544458 0.9895194 0.9982214 0.98758626 0.9769001 0.9857087 0.9901761
0.9667478 1.0097971 0.9801571 0.9988937 1.0061811 0.99021286 0.9903091 1.002508
1.0086303 0.9953657 1.0052644 0.99083596 1.0063727 1.0011196 0.9820042 0.99140024
0.9928902 0.98979455 1.0047691 1.0205978 1.0112367 0.99235237 0.9903441 1.0056093
1.0166271 1.0060581 0.9904147 0.99495614 1.014276 0.98372734 1.0023584 0.9734258
1.0740129 0.98735183 0.9910308 1.007816 0.99767005 1.0087912 0.99408084 0.993229
1.0094624 0.9911974 1.0044297 1.0071274 1.001861 1.0147363 0.9835966 0.9995499
0.99311984 0.9739181 1.002942 0.98832154 0.98973143 1.0049796 0.9892224 1.0082283
0.977701 0.9897612 1.0036482 1.0027149 0.9957153 0.9915188 0.98483574 0.9878572

actor_fc_layers.blocks.1.block.1.bias f4 [128]
00000000: 2665 853c 46fc bb3a 5182 abbc fe37 a6bb
00000010: 3827 763d 8a48 eebb cf5a bd3c 300c 083d
00000020: 4bb1 9cbc 471e 17bc 5443 833d 3fb2 b73c
00000030: 045f 15bd 3cbe babc 3689 55bc 5543 553b
00000040: 5311 573b 3b40 06bd 30df 89bc 0dee 5fbc
00000050: 27fe 64bc a2e9 a7bc b9fc edbc cf29 59bc
00000060: 41ae 813d 7e3e 6bbc 7e50 58bc ec38 973c
00000070: 8daf 60bc d1e9 3bbb d491 5db9 4466 ba3b
00000080: bfdb c6bc c6d2 f3bc 6a11 7fbc ee8d ae3d
00000090: baf5 f2bc df9b e9bc 2ea0 45bc e670 8dbc
000000a0: f5f8 81bc a55b 9fbc 24c0 a1bc 16b8 113d
000000b0: 4b5b e2bc f9be ab3b 0be0 3fbc 08ac c2bc
000000c0: 5ed3 cd3a 0604 3e3b 94fb 94bb 4028 0c3c
000000d0: 4a90 87bc f614 afbc 4fcc 02bd e58d a6bc
000000e0: 9638 ecbb 6a70 3dbd 43d8 50bc e735 91bc
000000f0: 22d5 da3b a64d 85bb 156c 14bc 3dcd 793b
00000100: ccec ef3c fd99 8f3c 1e3e 513c 20c4 8e3d
00000110: da65 45bc 6a24 95bc 672a 91bc 103f a4bc
00000120: ef6a 033c efc8 44bc 388d 3d3c e3e7 743c
00000130: b042 5eba da9a afbc 2584 04bd 1857 80bc
00000140: dfa2 8bbb a0ab b2bc 471f a13b f51e 753c
00000150: f378 0c3c e2fc 773a 89db d03b b9d2 13bc
00000160: 66d6 863d dd0c d3bb 3355 2fbc fc98 12bc
00000170: ab97 d93c 3a2e a4bc 01a2 e1bc 6a12 66bc
00000180: ee1d a33d d7f6 8cbc 5126 02bc c65f 52bc
00000190: fec6 a8bc e3a9 923d e9d2 8abc 6716 1ebd
000001a0: e425 45bc d329 1ebc c138 a2ba dd09 67bc
000001b0: f099 73bc 2acc 6c3d 34f6 82bc 5d40 1f3c
000001c0: 6c65 06bc e5a1 d4bc 85ef 2fbc 3200 513a
000001d0: f765 a6bc 2dd0 03ba 4204 a93b ce8b c5bb
000001e0: 15d5 ecbc fe7a 99bc 388b 75bc 2d4b 6dbc
000001f0: 8dc9 15bc ac3e b0bc 5fc2 b9bc a41b 56bc
0.016283583 0.0014342151 -0.020936163 -0.0050725928 0.060095996 -0.007271831 0.02311459 0.033214748
-0.019127509 -0.009223527 0.06409326 0.022423862 -0.036467567 -0.022795789 -0.013033202 0.0032541354
0.0032816723 -0.0327761 -0.016830057 -0.013667596 -0.01397661 -0.020497147 -0.029051172 -0.013254597
0.063320644 -0.014358161 -0.013202785 0.01845976 -0.01371373 -0.00286733 -0.00021130528 0.0056884605
-0.024274705 -0.02976359 -0.015568117 0.08523165 -0.029658187 -0.028516708 -0.012062116 -0.017265748
-0.015865782 -0.01945288 -0.01974494 0.03557595 -0.027631423 0.0052412716 -0.011711131 -0.023763672
0.0015703251 0.0028994097 -0.004546592 0.008554518 -0.016548295 -0.0213723 -0.031933125 -0.020331332
-0.007208894 -0.046249785 -0.012746873 -0.017725898 0.0066782394 -0.0040680943 -0.009058972 0.0038116716
0.029287718 0.017529482 0.012771158 0.069710016 -0.012048209 -0.01820584 -0.017720414 -0.020049602
0.0080211 -0.012010797 0.011569314 0.014947864 -0.0008478565 -0.021436144 -0.032352585 -0.01566653
-0.004261359 -0.021810353 0.0049170586 0.014960994 0.008573758 0.0009459985 0.006373827 -0.009022408
0.06583862 -0.0064407424 -0.010701465 -0.008947607 0.026561579 -0.020041574 -0.02754307 -0.014042476
0.07964693 -0.017207546 -0.007943706 -0.012840217 -0.0206027 0.071613096 -0.016946273 -0.038595583
-0.01203296 -0.009653526 -0.0012376533 -0.014101473 -0.0148682445 0.057811894 -0.01598654 0.009719935
-0.008202892 -0.025956104 -0.010738258 0.00079727464 -0.020312293 -0.0005028274 0.0051579783 -0.006028629
-0.0289102 -0.018735405 -0.014986806 -0.014483255 -0.009142292 -0.02151426 -0.022675691 -0.0130681135

actor_fc_layers.blocks.1.block.1.running_mean f4 [128]
00000000: 0000 0000 0000 0000 0000 0000 0000 0000
00000010: 0000 0000 0000 0000 0000 0000 0000 0000
00000020: 0000 0000 0000 0000 0000 0000 0000 0000
00000030: 0000 0000 0000 0000 0000 0000 0000 0000
00000040: 0000 0000 0000 0000 0000 0000 0000 0000
00000050: 0000 0000 0000 0000 0000 0000 0000 0000
00000060: 0000 0000 0000 0000 0000 0000 0000 0000
00000070: 0000 0000 0000 0000 0000 0000 0000 0000
00000080: 0000 0000 0000 0000 0000 0000 0000 0000
00000090: 0000 0000 0000 0000 0000 0000 0000 0000
000000a0: 0000 0000 0000 0000 0000 0000 0000 0000
000000b0: 0000 0000 0000 0000 0000 0000 0000 0000
000000c0: 0000 0000 0000 0000 0000 0000 0000 0000
000000d0: 0000 0000 0000 0000 0000 0000 0000 0000
000000e0: 0000 0000 0000 0000 0000 0000 0000 0000
000000f0: 0000 0000 0000 0000 0000 0000 0000 0000
00000100: 0000 0000 0000 0000 0000 0000 0000 0000
00000110: 0000 0000 0000 0000 0000 0000 0000 0000
00000120: 0000 0000 0000 0000 0000 0000 0000 0000
00000130: 0000 0000 0000 0000 0000 0000 0000 0000
00000140: 0000 0000 0000 0000 0000 0000 0000 0000
00000150: 0000 0000 0000 0000 0000 0000 0000 0000
00000160: 0000 0000 0000 0000 0000 0000 0000 0000
00000170: 0000 0000 0000 0000 0000 0000 0000 0000
00000180: 0000 0000 0000 0000 0000 0000 0000 0000
00000190: 0000 0000 0000 0000 0000 0000 0000 0000
000001a0: 0000 0000 0000 0000 0000 0000 0000 0000
000001b0: 0000 0000 0000 0000 0000 0000 0000 0000
000001c0: 0000 0000 0000 0000 0000 0000 0000 0000
000001d0: 0000 0000 0000 0000 0000 0000 0000 0000
000001e0: 0000 0000 0000 0000 0000 0000 0000 0000
000001f0: 0000 0000 0000 0000 0000 0000 0000 0000
0.0 0.0 0.0 0.0 0.0 0.0 0.0 0.0
0.0 0.0 0.0 0.0 0.0 0.0 0.0 0.0
0.0 0.0 0.0 0.0 0.0 0.0 0.0 0.0
0.0 0.0 0.0 0.0 0.0 0.0 0.0 0.0
0.0 0.0 0.0 0.0 0.0 0.0 0.0 0.0
0.0 0.0 0.0 0.0 0.0 0.0 0.0 0.0
0.0 0.0 0.0 0.0 0.0 0.0 0.0 0.0
0.0 0.0 0.0 0.0 0.0 0.0 0.0 0.0
0.0 0.0 0.0 0.0 0.0 0.0 0.0 0.0
0.0 0.0 0.0 0.0 0.0 0.0 0.0 0.0
0.0 0.0 0.0 0.0 0.0 0.0 0.0 0.0
0.0 0.0 0.0 0.0 0.0 0.0 0.0 0.0
0.0 0.0 0.0 0.0 0.0 0.0 0.0 0.0
0.0 0.0 0.0 0.0 0.0 0.0 0.0 0.0
0.0 0.0 0.0 0.0 0.0 0.0 0.0 0.0
0.0 0.0 0.0 0.0 0.0 0.0 0.0 0.0

actor_fc_layers.blocks.1.block.1.running_var f4 [128]
00000000: 0000 803f 0000 803f 0000 803f 0000 803f
00000010: 0000 803f 0000 803f 0000 803f 0000 803f
00000020: 0000 803f 0000 803f 0000 803f 0000 803f
00000030: 0000 803f 0000 803f 0000 803f 0000 803f
00000040: 0000 803f 0000 803f 0000 803f 0000 803f
00000050: 0000 803f 0000 803f 0000 803f 0000 803f
00000060: 0000 803f 0000 803f 0000 803f 0000 803f
00000070: 0000 803f 0000 803f 0000 803f 0000 803f
00000080: 0000 803f 0000 803f 0000 803f 0000 803f
00000090: 0000 803f 0000 803f 0000 803f 0000 803f
000000a0: 0000 803f 0000 803f 0000 803f 0000 803f
000000b0: 0000 803f 0000 803f 0000 803f 0000 803f
000000c0: 0000 803f 0000 803f 0000 803f 0000 803f
000000d0: 0000 803f 0000 803f 0000 803f 0000 803f
000000e0: 0000 803f 0000 803f 0000 803f 0000 803f
000000f0: 0000 803f 0000 803f 0000 803f 0000 803f
00000100: 0000 803f 0000 803f 0000 803f 0000 803f
00000110: 0000 803f 0000 803f 0000 803f 0000 803f
00000120: 0000 803f 0000 803f 0000 803f 0000 803f
00000130: 0000 803f 0000 803f 0000 803f 0000 803f
00000140: 0000 803f 0000 803f 0000 803f 0000 803f
00000150: 0000 803f 0000 803f 0000 803f 0000 803f
00000160: 0000 803f 0000 803f 0000 803f 0000 803f
00000170: 0000 803f 0000 803f 0000 803f 0000 803f
00000180: 0000 803f 0000 803f 0000 803f 0000 803f
00000190: 0000 803f 0000 803f 0000 803f 0000 803f
000001a0: 0000 803f 0000 803f 0000 803f 0000 803f
000001b0: 0000 803f 0000 803f 0000 803f 0000 803f
000001c0: 0000 803f 0000 803f 0000 803f 0000 803f
000001d0: 0000 803f 0000 803f 0000 803f 0000 803f
000001e0: 0000 803f 0000 803f 0000 803f 0000 803f
000001f0: 0000 803f 0000 803f 0000 803f 0000 803f
1.0 1.0 1.0 1.0 1.0 1.0 1.0 1.0
1.0 1.0 1.0 1.0 1.0 1.0 1.0 1.0
1.0 1.0 1.0 1.0 1.0 1.0 1.0 1.0
1.0 1.0 1.0 1.0 1.0 1.0 1.0 1.0
1.0 1.0 1.0 1.0 1.0 1.0 1.0 1.0
1.0 1.0 1.0 1.0 1.0 1.0 1.0 1.0
1.0 1.0 1.0 1.0 1.0 1.0 1.0 1.0
1.0 1.0 1.0 1.0 1.0 1.0 1.0 1.0
1.0 1.0 1.0 1.0 1.0 1.0 1.0 1.0
1.0 1.0 1.0 1.0 1.0 1.0 1.0 1.0
1.0 1.0 1.0 1.0 1.0 1.0 1.0 1.0
1.0 1.0 1.0 1.0 1.0 1.0 1.0 1.0
1.0 1.0 1.0 1.0 1.0 1.0 1.0 1.0
1.0 1.0 1.0 1.0 1.0 1.0 1.0 1.0
1.0 1.0 1.0 1.0 1.0 1.0 1.0 1.0
1.0 1.0 1.0 1.0 1.0 1.0 1.0 1.0

actor_fc_layers.blocks.2.block.0.weight f4 [128, 128]
00000000: 5da3 813d 9739 843d e91f 4fbd 2119 4fbd
00000010: 0094 da3c 02a5 673d 6680 173d 7181 03be
00000020: 6ddb 883d 635f 9e3d 8f17 c8bc 1a4c a0bc
00000030: bfa7 3e3d a661 cf3b a8e1 9b3d 7ef0 a63b
00000040: 41cd 9c3d 6bc8 b03d fee2 433c af1e 2d3d
00000050: 5269 0ebd 5b98 fe3d c846 023c 6ac6 14bc
00000060: 5758 313d 37e8 a03d e083 063e d500 0cbd
00000070: 43ae b7bc 5822 f53d 63f3 eb3c d8de 3e3d
00000080: 1ffb 1f3d dcf7 693d 371d 013d b713 063e
00000090: f930 b13b 40ce bb3d d0e6 0cbd 3a5b 003e
000000a0: ebdd 4fbb 67c5 913d 88c5 69bc 8d3e 8bbd
000000b0: 4b56 133c a893 6d3b 46c7 a03c 00ed b23d
000000c0: f5e8 103e 9dcb be3d 2568 a33d 6bbd 813d
000000d0: c11d 57bd b5e8 293d 67fa 5c3d 4748 d8bc
000000e0: 46b4 b13d 240e 493d 76b7 793c bf44 1e3d
000000f0: 8778 bfbc 22f8 85bb 0a25 f33c 54fc 22bb
00000100: 704b 743c 1bec 533d 09e0 db3d c93c e8bd
00000110: 48dd c23d f299 c73d 6be1 83bb b923 82bc
00000120: 585c 7fbc 1174 893d dbd3 14bd 46b5 4dbd
00000130: f45a c03d 79fa 313d c5e6 013d ffbc bebb
00000140: 354c acbc 1e70 08bd 2253 c13c f1ce 813d
00000150: 3890 a63d 69ce 843d 8b32 7a3c b023 833c
00000160: 51ea 683d 7cd2 a8bc 83b6 09bc b2b7 eb3d
00000170: 3023 a53d 4bad b5bc 11f3 efba 0471 993d
00000180: 53a3 923d 7c61 3c3d ca1d 333d d47b 863d
00000190: 99f2 9fbd 6a20 183c 6ba0 36bb 4eef 9a3d
000001a0: 3967 1c3e 0faa 05bd 4e46 4b3d 32b5 51bd
000001b0: 42d3 6d3d f8d5 bebd 0ccb 43bd 55bd 073d
000001c0: 2a47 b23d f0aa 313d acd8 24bd a821 fabc
000001d0: c03c c03b 2ba2 033e 0576 a6bb 39ba c33d
000001e0: 4610 7bbd cf0d 263c 0bbc 073e c325 073d
000001f0: 8d7b dc3d 4bd2 883a 2050 943c 15bf 343c
00000200: bcb3 8fbc 3b9c c6b9 2737 a1bc b811 00bd
00000210: 18c2 203c 2d6d 8bbd d867 3bbb edf0 ddbc
00000220: a4fb 823d 83d8 66bc c295 2c3d 43d4 fd3b
00000230: 5bfc 713d a369 963d 1576 023d 1155 f83d
00000240: f913 83bd e8fd c83d 0acf d2bd 72a0 b6bc
00000250: 5e66 6cbd 9022 93bd 079e 263d d2ae 2abd
00000260: 9392 a83b 74dd 423d 365c c13c 1a50 3a3d
00000270: 2934 92bc 46ca ddbc 0331 6c3d 23d0 85bd
00000280: 8529 223c fb36 0d3d 1dcb 0e3d 1586 d83d
00000290: d5d9 253c fdc9 df3c 1411 613d 331e 6fbd
000002a0: c56a 2b3d 2dc8 90bd bc95 473d 0d65 6b3b
000002b0: 7d0d 5a3d 9651 e6bc ad0e 123c 7eaa b1bd
000002c0: 60c2 d4bd 9724 41bd 43be 9ebd 209c 96bc
000002d0: 91d9 933c 6b66 27bb 2668 e43d 45e0 a13d
000002e0: fa0f 53bd db17 36bd d4ab adbd 91fd 92bc
000002f0: 105c 833c 5fc2 8dbd f8cb 05bd 7668 a9bc
00000300: c6bf c43d 2430 b2bd d59e e1bc 4deb a23d
00000310: a403 acbb e950 2cbd c65a 95bd e454 3b3d
00000320: 913d 013c d8fe 38bc 9611 31bd 2a87 97bd
00000330: ab80 7a3c 712b a53d 9dfd 67bd 8363 da3d
00000340: 771d 62bd 2b7f 9c3d 1861 283d b514 7e3d
00000350: cf43 47bd 7c2c 09bd fcea 133c 7e95 f3bb
00000360: c95b 8d3d f78e 8abd bf35 9a3d 108c af3d
00000370: 8dcc 783d 3f9a 0e3d 71cc 9fbd 5935 92bb
00000380: 9112 15bd 3a0c 803d 6f9f b23d 72de c93c
00000390: f15b 963d 88a7 283b 2dac ccbc 3b1d a53d
000003a0: 7949 9cbd abd0 b8bc e63d 933d babb 943c
000003b0: 6d80 88bd ecfd 333d 274d 473d eed6 2dbd
000003c0: 2213 a23d 46aa 113d 275c 693d 1b54 8d3d
000003d0: c482 363c edd4 953c 641b 9dbd e62c 31bd
000003e0: aa63 8dbd 0b8c 09bd 2bfd 19bc 6d9f b53c
000003f0: c230 80bd 5ae7 623c 5cc8 9d3c 500f 563c
0.06329987 0.06456297 -0.05056754 -0.050561074 0.0266819 0.056553848 0.036987685 -0.12842347
0.06682477 0.07733037 -0.024425296 -0.019567538 0.046546694 0.0063287793 0.076114 0.005094587
0.076563366 0.08631977 0.011955975 0.04226559 -0.03476841 0.12431403 0.007951446 -0.009080509
0.043297138 0.078567915 0.13136244 -0.03418048 -0.022421962 0.11969441 0.02880258 0.04659924
0.039057847 0.057121143 0.031522002 0.13093458 0.0054074493 0.091701984 -0.034399807 0.125348
-0.0031717967 0.0711773 -0.0142682865 -0.0679904 0.008992742 0.003625134 0.019626271 0.087366104
0.14151366 0.0931618 0.07978848 0.06334957 -0.05251861 0.041481692 0.05394974 -0.026401652
0.086769626 0.04908575 0.015241494 0.03863978 -0.023372902 -0.0040884176 0.029680748 -0.0024869638
0.014910564 0.05173884 0.10736091 -0.11339719 0.09514862 0.097461596 -0.0040246747 -0.015886175
-0.015585981 0.06711591 -0.036334854 -0.050221704 0.09392348 0.04345176 0.03171422 -0.00582087
-0.021032432 -0.03331005 0.023599211 0.06338299 0.08132976 0.06484682 0.015270839 0.016008228
0.056864087 -0.02060818 -0.008405331 0.115096465 0.08063352 -0.02217736 -0.0018306692 0.07492259
0.07160058 0.045991406 0.04372958 0.06566587 -0.07809944 0.009285072 -0.0027866613 0.07565175
0.15273751 -0.032632884 0.049627595 -0.051198192 0.0580628 -0.09318155 -0.047801062 0.033139545
0.0870498 0.04337591 -0.040245697 -0.030533627 0.005866617 0.12854831 -0.005079987 0.095570035
-0.061294816 0.010135128 0.13255326 0.032994997 0.10765753 0.0010438649 0.018104613 0.011031886
-0.017541759 -0.00037881904 -0.019679619 -0.031266898 0.009811901 -0.06807933 -0.0028595831 -0.027092421
0.06395653 -0.014089706 0.042135008 0.007746251 0.059078556 0.07344367 0.031850893 0.121256
-0.06400294 0.09814054 -0.10293396 -0.022293303 -0.057714812 -0.07184327 0.04067805 -0.041670628
0.005144426 0.047574475 0.02360354 0.045486547 -0.017847138 -0.02707399 0.05766393 -0.065338396
0.009897594 0.03447626 0.034861673 0.10572449 0.010122736 0.027317995 0.054947928 -0.05837841
0.04184987 -0.070694305 0.048726782 0.0035918385 0.05323552 -0.028115075 0.008914632 -0.08675097
-0.103886366 -0.047154035 -0.07751133 -0.018384993 0.01804808 -0.0025543224 0.11152677 0.07904104
-0.05152891 -0.044456344 -0.08480039 -0.017943176 0.01603511 -0.06921839 -0.032665223 -0.020679694
0.096068904 -0.08700588 -0.027541557 0.07955036 -0.0052494574 -0.04206935 -0.07292704 0.045735255
0.007888214 -0.011291228 -0.043229662 -0.073988274 0.015289466 0.080649264 -0.05663835 0.106635116
-0.05520388 0.07641443 0.04110822 0.062031467 -0.04864865 -0.03348969 0.009028193 -0.0074335923
0.06902272 -0.0676555 0.075297825 0.08571637 0.06074195 0.03481507 -0.07802666 -0.004461926
-0.03639466 0.06252332 0.08721816 0.024642203 0.07341755 0.0025734622 -0.024984444 0.08062216
-0.07631201 -0.022560438 0.071895406 0.018155921 -0.0666512 0.04394333 0.048657563 -0.0424413
0.079138055 0.035562776 0.05697265 0.069008075 0.011139575 0.018290007 -0.0767124 -0.04325571
-0.06903775 -0.03358082 -0.009398739 0.022170747 -0.062593 0.013849104 0.019260578 0.013065174

actor_fc_layers.blocks.2.block.1.weight f4 [128]
00000000: 25d3 863f 25fc 7e3f e490 8d3f c98f 7e3f
00000010: 5829 813f 87d3 813f 276d 7a3f 94f0 813f
00000020: 5faa 893f b487 833f da82 803f 4762 7d3f
00000030: abd0 833f c456 7e3f fce4 7d3f 61d7 823f
00000040: b530 863f 9f32 803f a2ad 773f a2bf 773f
00000050: fdcd 7b3f a236 813f 5ced 823f aef5 823f
00000060: 5096 823f 781a 7e3f d378 7b3f dad8 783f
00000070: 9ccf 803f 48ea 7e3f b499 873f 52b9 813f
00000080: affa 7b3f dd3f 803f b968 833f 47c9 7f3f
00000090: 543c 7c3f 9905 833f dcb6 773f 16c0 843f
000000a0: 7f7d 7d3f fca2 853f 58dc 7c3f 31a2 803f
000000b0: 2b64 813f a6dd 833f eb91 803f bcff 7c3f
000000c0: 2334 803f 8cc2 833f c831 7d3f 8eec 793f
000000d0: 602f 793f a432 813f ce1b 863f 3fd2 823f
000000e0: 7527 853f 847c 7b3f 27b4 733f 1aae 763f
000000f0: 7eaf 783f 776b 803f 1d22 823f 68e7 7c3f
00000100: d7a1 813f 7ab1 843f 3244 833f 9f8d 7c3f
00000110: 18b7 753f 2108 7f3f adb8 7a3f 1c12 873f
00000120: d69e 803f 9e62 7f3f 44ac 763f ead5 803f
00000130: 433a 7c3f 17c0 813f 10aa 803f a405 833f
00000140: 8e79 7e3f f36b 7b3f 4156 7f3f e8d2 813f
00000150: e5d8 773f 9d4a 813f bed7 853f b056 823f
00000160: 4e75 823f e6b6 7e3f cf45 853f 9699 823f
00000170: 6c45 7e3f ac1c 873f b04d 793f 1557 803f
00000180: 11c7 7a3f af6d 7d3f 38d3 783f 962d 7d3f
00000190: 6753 833f 2004 7e3f 5db3 7b3f f95f 843f
000001a0: a667 803f af1b 833f 20c8 813f 794b 833f
000001b0: e3e4 873f fbe4 7e3f cb76 7d3f ef96 7a3f
000001c0: 489a 853f 8e28 7a3f b7e9 853f aec2 873f
000001d0: e8d4 783f 1737 823f 4759 7e3f 2092 773f
000001e0: b920 783f 97bc 7d3f 1677 873f 9391 7e3f
000001f0: 0f33 813f 3bca 803f bc2c 7b3f 0d98 7c3f
1.0533186 0.9960349 1.1059842 0.9943815 1.0090742 1.0142678 0.97822803 1.0151544
1.0755118 1.0275788 1.0039933 0.98978084 1.0298055 0.99351144 0.9917753 1.0221978
1.0483614 1.0015448 0.9674932 0.96776783 0.9836119 1.0094798 1.0228686 1.0231225
1.0202122 0.9925914 0.9823124 0.9720589 1.0063357 0.99576235 1.0593781 1.013468
0.9842939 1.001949 1.0266334 0.999165 0.98529553 1.0236083 0.96763396 1.037112
0.99019617 1.0440364 0.9877372 1.0049497 1.0108694 1.0302017 1.0044531 0.9882772
1.0015911 1.0293746 0.98904085 0.9762658 0.97337914 1.0093579 1.0477235 1.0220412
1.0402666 0.9823687 0.95196766 0.9635941 0.9714278 1.0032796 1.016666 0.987906
1.0127515 1.0366662 1.0255187 0.98653597 0.95982504 0.9962178 0.9793804 1.0552402
1.0048473 0.9975985 0.96356606 1.0065281 0.985264 1.0136746 1.0051899 1.0236096
0.9940423 0.9821159 0.9974099 1.0142488 0.9681533 1.0100895 1.0456464 1.0182705
1.0192049 0.9949783 1.0411929 1.0203121 0.9932468 1.0555625 0.97384167 1.0026575
0.9796 0.9899549 0.97197294 0.98897684 1.0259827 0.99225044 0.9832056 1.0341789
1.0031631 1.0242823 1.0139198 1.0257407 1.0616726 0.99568146 0.9900939 0.97886556
1.0437708 0.9771813 1.0461949 1.0606287 0.9719987 1.0173062 0.99354976 0.96707344
0.9692493 0.9911589 1.0583217 0.9944088 1.0093707 1.0061716 0.98115134 0.9866951

actor_fc_layers.blocks.2.block.1.bias f4 [128]
00000000: c6c5 853d afdb 5c3c c766 b43d 6abb 99b9
00000010: 275f 303b 0da5 aabc 3db8 d7bc 284f c33c
00000020: 5724 283d 4c2d cf3c d1a2 3c3b a920 d2bc
00000030: 1e09 513c b529 00bc 877d d4bc 5d5c bbbb
00000040: 9b64 b63c 5afd abbc 202b 07bd 8ba2 c2bc
00000050: e78c 87bc 95c7 c9bb 3e49 453d 7b15 1e3d
00000060: c3db 223b 28f2 b5bc e5eb a1bc c8aa 1abd
00000070: 5667 163c c6ed 8cbc 1ed3 093d add5 97bc
00000080: c5d3 8cbc c758 ce38 5cff 303d 960b 193c
00000090: ce59 a3bc f6e3 143d 9862 e9bc b0a5 753d
000000a0: fab5 ccbc 02cc 473c 4d70 3fbc 3243 0ebb
000000b0: e2ba ca3c 0cf2 c93b ee36 c8bc bd27 14bd
000000c0: b83e d3bc 3caa 61bc af51 e6bc 2a4a 8bbc
000000d0: 52d5 993c dcb3 603d 99db 3a3d 481b 673c
000000e0: 348f 743d 8bba a9bc f087 00bd 5e3d c7bc
000000f0: e1c4 c9bc 18b8 bdbc b672 49bb e454 60bc
00000100: ee5a 153d 96f9 0e3d 627c 2d3d e5bd 9dbc
00000110: b452 85bc ca91 1cbc 6e92 81bc 16cd a43d
00000120: c824 fc3c 8c90 18bc 5f62 0cbd b05b 3bbc
00000130: 0f92 ccbc ff4e e13c 5dc3 063c e712 703d
00000140: eee4 04bc d9e5 d2bc eea0 84bc cf94 8e3b
00000150: a434 d4bc c07e 713d f43d b13d ea3f 0d3c
00000160: 024e a23c d6cf efbc 58e5 173c 25c1 d13b
00000170: b876 e2bc 647b a03d 1fbb 72bc 5314 a5bc
00000180: b05c f03c 2863 053c 2592 f8bc 02f7 d2bc
00000190: 723b 543c 97b3 29bc dcd8 09bd 1e4a 1e3d
000001a0: 1831 7cbb f0d3 643c fc5e 0d3d 9157 2c3d
000001b0: 2d93 ac3d f1ff c9bc 79dc 93bc 1767 e1bc
000001c0: fd4e c33c 17a7 b0bc 8e28 3d3d dd0d 073d
000001d0: cdc6 7abc dc19 cbbc ada7 fdbb 5ad7 f5bb
000001e0: e310 98bc 18a0 97bc 4b2c 7e3d 0b66 99bc
000001f0: 5a95 9a3c 7f00 8ebc 2042 8e3c e2e4 97bc
0.06531863 0.013480111 0.08808666 -0.00029322068 0.0026912184 -0.020830655 -0.026332969 0.023841456
0.04105028 0.025290154 0.002878357 -0.02565034 0.012758521 -0.007822444 -0.025938762 -0.0057177977
0.02226477 -0.02099483 -0.03300011 -0.023759147 -0.01654668 -0.0061578252 0.048165552 0.038594704
0.0024850226 -0.022210196 -0.019765804 -0.037760526 0.009179911 -0.017203223 0.033648603 -0.018534506
-0.017190823 9.8393815e-05 0.04321228 0.009341141 -0.019940283 0.036350213 -0.028489396 0.059972465
-0.024989117 0.012194635 -0.011684489 -0.0021707532 0.024747316 0.0061628874 -0.024440255 -0.03617071
-0.025786743 -0.013773497 -0.028115122 -0.017003138 0.018778477 0.054859027 0.04561958 0.014105625
0.05970688 -0.020718833 -0.03137964 -0.024321254 -0.024630012 -0.023159072 -0.003073854 -0.0136921145
0.03646367 0.034905992 0.04235495 -0.019255588 -0.016274787 -0.009556243 -0.015816893 0.080469295
0.030779257 -0.009311806 -0.0342735 -0.011435434 -0.02497199 0.027503489 0.008225289 0.058611777
-0.008111222 -0.025744366 -0.016190019 0.0043512355 -0.025904007 0.05895877 0.08654395 0.008621195
0.019812588 -0.029273909 0.009270988 0.0064011985 -0.0276445 0.07836035 -0.014815121 -0.020151293
0.029341072 0.0081413165 -0.030343125 -0.025752548 0.012953626 -0.010357759 -0.03365408 0.038644902
-0.003848141 0.013966545 0.034514412 0.042075697 0.08426509 -0.024658175 -0.018049465 -0.027514977
0.023841375 -0.02156405 0.046181254 0.032972205 -0.015306187 -0.024792604 -0.007740936 -0.0075024785
-0.01856274 -0.018508956 0.06205396 -0.018725416 0.018870044 -0.01733422 0.017365515 -0.018541757

actor_fc_layers.blocks.2.block.1.running_mean f4 [128]
00000000: 0000 0000 0000 0000 0000 0000 0000 0000
00000010: 0000 0000 0000 0000 0000 0000 0000 0000
00000020: 0000 0000 0000 0000 0000 0000 0000 0000
00000030: 0000 0000 0000 0000 0000 0000 0000 0000
00000040: 0000 0000 0000 0000 0000 0000 0000 0000
00000050: 0000 0000 0000 0000 0000 0000 0000 0000
00000060: 0000 0000 0000 0000 0000 0000 0000 0000
00000070: 0000 0000 0000 0000 0000 0000 0000 0000
00000080: 0000 0000 0000 0000 0000 0000 0000 0000
00000090: 0000 0000 0000 0000 0000 0000 0000 0000
000000a0: 0000 0000 0000 0000 0000 0000 0000 0000
000000b0: 0000 0000 0000 0000 0000 0000 0000 0000
000000c0: 0000 0000 0000 0000 0000 0000 0000 0000
000000d0: 0000 0000 0000 0000 0000 0000 0000 0000
000000e0: 0000 0000 0000 0000 0000 0000 0000 0000
000000f0: 0000 0000 0000 0000 0000 0000 0000 0000
00000100: 0000 0000 0000 0000 0000 0000 0000 0000
00000110: 0000 0000 0000 0000 0000 0000 0000 0000
00000120: 0000 0000 0000 0000 0000 0000 0000 0000
00000130: 0000 0000 0000 0000 0000 0000 0000 0000
00000140: 0000 0000 0000 0000 0000 0000 0000 0000
00000150: 0000 0000 0000 0000 0000 0000 0000 0000
00000160: 0000 0000 0000 0000 0000 0000 0000 0000
00000170: 0000 0000 0000 0000 0000 0000 0000 0000
00000180: 0000 0000 0000 0000 0000 0000 0000 0000
00000190: 0000 0000 0000 0000 0000 0000 0000 0000
000001a0: 0000 0000 0000 0000 0000 0000 0000 0000
000001b0: 0000 0000 0000 0000 0000 0000 0000 0000
000001c0: 0000 0000 0000 0000 0000 0000 0000 0000
000001d0: 0000 0000 0000 0000 0000 0000 0000 0000
000001e0: 0000 0000 0000 0000 0000 0000 0000 0000
000001f0: 0000 0000 0000 0000 0000 0000 0000 0000
0.0 0.0 0.0 0.0 0.0 0.0 0.0 0.0
0.0 0.0 0.0 0.0 0.0 0.0 0.0 0.0
0.0 0.0 0.0 0.0 0.0 0.0 0.0 0.0
0.0 0.0 0.0 0.0 0.0 0.0 0.0 0.0
0.0 0.0 0.0 0.0 0.0 0.0 0.0 0.0
0.0 0.0 0.0 0.0 0.0 0.0 0.0 0.0
0.0 0.0 0.0 0.0 0.0 0.0 0.0 0.0
0.0 0.0 0.0 0.0 0.0 0.0 0.0 0.0
0.0 0.0 0.0 0.0 0.0 0.0 0.0 0.0
0.0 0.0 0.0 0.0 0.0 0.0 0.0 0.0
0.0 0.0 0.0 0.0 0.0 0.0 0.0 0.0
0.0 0.0 0.0 0.0 0.0 0.0 0.0 0.0
0.0 0.0 0.0 0.0 0.0 0.0 0.0 0.0
0.0 0.0 0.0 0.0 0.0 0.0 0.0 0.0
0.0 0.0 0.0 0.0 0.0 0.0 0.0 0.0
0.0 0.0 0.0 0.0 0.0 0.0 0.0 0.0

actor_fc_layers.blocks.2.block.1.running_var f4 [128]
00000000: 0000 803f 0000 803f 0000 803f 0000 803f
00000010: 0000 803f 0000 803f 0000 803f 0000 803f
00000020: 0000 803f 0000 803f 0000 803f 0000 803f
00000030: 0000 803f 0000 803f 0000 803f 0000 803f
00000040: 0000 803f 0000 803f 0000 803f 0000 803f
00000050: 0000 803f 0000 803f 0000 803f 0000 803f
00000060: 0000 803f 0000 803f 0000 803f 0000 803f
00000070: 0000 803f 0000 803f 0000 803f 0000 803f
00000080: 0000 803f 0000 803f 0000 803f 0000 803f
00000090: 0000 803f 0000 803f 0000 803f 0000 803f
000000a0: 0000 803f 0000 803f 0000 803f 0000 803f
000000b0: 0000 803f 0000 803f 0000 803f 0000 803f
000000c0: 0000 803f 0000 803f 0000 803f 0000 803f
000000d0: 0000 803f 0000 803f 0000 803f 0000 803f
000000e0: 0000 803f 0000 803f 0000 803f 0000 803f
000000f0: 0000 803f 0000 803f 0000 803f 0000 803f
00000100: 0000 803f 0000 803f 0000 803f 0000 803f
00000110: 0000 803f 0000 803f 0000 803f 0000 803f
00000120: 0000 803f 0000 803f 0000 803f 0000 803f
00000130: 0000 803f 0000 803f 0000 803f 0000 803f
00000140: 0000 803f 0000 803f 0000 803f 0000 803f
00000150: 0000 803f 0000 803f 0000 803f 0000 803f
00000160: 0000 803f 0000 803f 0000 803f 0000 803f
00000170: 0000 803f 0000 803f 0000 803f 0000 803f
00000180: 0000 803f 0000 803f 0000 803f 0000 803f
00000190: 0000 803f 0000 803f 0000 803f 0000 803f
000001a0: 0000 803f 0000 803f 0000 803f 0000 803f
000001b0: 0000 803f 0000 803f 0000 803f 0000 803f
000001c0: 0000 803f 0000 803f 0000 803f 0000 803f
000001d0: 0000 803f 0000 803f 0000 803f 0000 803f
000001e0: 0000 803f 0000 803f 0000 803f 0000 803f
000001f0: 0000 803f 0000 803f 0000 803f 0000 803f
1.0 1.0 1.0 1.0 1.0 1.0 1.0 1.0
1.0 1.0 1.0 1.0 1.0 1.0 1.0 1.0
1.0 1.0 1.0 1.0 1.0 1.0 1.0 1.0
1.0 1.0 1.0 1.0 1.0 1.0 1.0 1.0
1.0 1.0 1.0 1.0 1.0 1.0 1.0 1.0
1.0 1.0 1.0 1.0 1.0 1.0 1.0 1.0
1.0 1.0 1.0 1.0 1.0 1.0 1.0 1.0
1.0 1.0 1.0 1.0 1.0 1.0 1.0 1.0
1.0 1.0 1.0 1.0 1.0 1.0 1.0 1.0
1.0 1.0 1.0 1.0 1.0 1.0 1.0 1.0
1.0 1.0 1.0 1.0 1.0 1.0 1.0 1.0
1.0 1.0 1.0 1.0 1.0 1.0 1.0 1.0
1.0 1.0 1.0 1.0 1.0 1.0 1.0 1.0
1.0 1.0 1.0 1.0 1.0 1.0 1.0 1.0
1.0 1.0 1.0 1.0 1.0 1.0 1.0 1.0
1.0 1.0 1.0 1.0 1.0 1.0 1.0 1.0
