saved_models/agent_maddpgv2_vs_opp_maddpgv2_4_vs_1_1_big_5_sec_agent_best_models/maddpgv2_actor_2.pt (torch, 163339 bytes, 21 tensors)

actor_fc_layers.blocks.0.block.0.weight f4 [128, 27]
000000 78 f0 57 be 08 37 e8 bd 68 8e 38 be 10 d7 ed 3c
       -0.21087825 -0.113386214 -0.18023074 0.029033214
000010 e2 43 0f 3e 6f 71 14 be f3 ad 9e bd bc c8 24 be
       0.13990739 -0.14496396 -0.07748022 -0.16092199
000020 19 f5 6b bd 9b 5e 13 be 69 04 27 3e 92 7a 17 3e
       -0.05760679 -0.14391558 0.16310276 0.1479285
000030 d7 21 e9 bd 86 01 20 be 6d 30 b8 bd 58 96 18 bc
       -0.113834076 -0.15625581 -0.089936115 -0.0093131885
000040 ae 9a a5 3d 83 4a 34 bd a5 f2 1a be 83 5e 47 3e
       0.080861434 -0.044016372 -0.15131624 0.19469647
000050 7d 31 11 3e d0 d1 a2 3c 4c 10 cc bc 78 43 07 3e
       0.14179035 0.019875437 -0.024910115 0.13209331
000060 83 1c 4c bd 47 f6 97 bd 92 64 4b 3d 02 34 49 be
       -0.04983188 -0.074200206 0.04965646 -0.19648746
000070 22 4b 97 3c 80 0b 44 3d d4 d7 0c 3e b4 30 85 bd
       0.018468443 0.04786253 0.13754207 -0.0650343
000080 83 29 21 be 23 0a 95 3d 9f 05 fd bd a2 e8 6e bd
       -0.15738492 0.07277324 -0.12354588 -0.058327325
000090 89 56 30 3e c2 58 e2 bd 11 91 28 be 3e b5 d2 bd
       0.1722051 -0.110520855 -0.16461588 -0.102884755
0000a0 dc b3 2a 3d f6 b5 d0 3d 56 01 0e 3c dc 23 c4 3d
       0.041675434 0.10190956 0.008667311 0.09577152
0000b0 e2 33 eb 3d 9a 56 1b be 2a 1c 92 3d 61 ae 11 be
       0.11484505 -0.15169755 0.07134278 -0.14226677
0000c0 9d 37 1e 3e b6 dd 4b bc 43 29 14 3e e6 7b 0a bc
       0.15450902 -0.012442997 0.14468865 -0.008452391
0000d0 66 a7 eb bd ee d2 fc bd 8d e5 0f be a5 aa f4 bc
       -0.11506538 -0.12344919 -0.1405241 -0.029866526
0000e0 7b ee ec 3a 44 84 96 bd d3 d4 4f bd 02 52 9d 3d
       0.0018076444 -0.073494464 -0.050740074 0.076816574
0000f0 70 13 51 3d d4 17 02 bd e8 1e 69 3d ae 4e 15 3e
       0.051043928 -0.031761006 0.05691424 0.14580795
000100 6d 30 f8 3d 21 6d 3a 3e 15 e3 ac 3d b9 35 93 3d
       0.121186115 0.18205692 0.0844175 0.07187981
000110 ff d9 98 3d 09 90 3d be 0e 36 b6 3c 52 46 10 be
       0.074634545 -0.18511976 0.022242572 -0.14089325
000120 9d a1 5d 3d 5f f3 f5 bd dd c3 f0 bc 83 6b 4a be
       0.054109205 -0.1200931 -0.02939027 -0.19767575
000130 ef eb 88 bd da 4a c6 bd ec 40 cb bc bc ed 1c 3d
       -0.06685626 -0.096822456 -0.02481123 0.03831266
000140 b7 44 03 3e 28 91 1b be e0 a8 51 be 13 4f c9 bd
       0.12819181 -0.15192091 -0.20474577 -0.09829535
000150 5e 8e 49 bd 9d e6 00 3d 54 53 9b bc f6 b7 4b be
       -0.049208038 0.03146993 -0.018960632 -0.19894394
000160 2e d0 a4 bd 00 2f 5b be d6 d1 30 3e ef 7f c3 3c
       -0.080475196 -0.21404648 0.17267546 0.023864714
000170 5c a2 88 3d 49 f8 16 3d 3b 27 0a 3e c4 98 cb bd
       0.066715926 0.036857877 0.13491528 -0.09941247
000180 95 69 24 3e fe 8c ca 3d 3a c8 06 be 93 d8 90 3d
       0.16055901 0.098901734 -0.13162318 0.07072558
000190 97 79 60 3d 52 83 91 3d 02 91 5d 3d 04 3c 60 be
       0.054803457 0.071051255 0.05409337 -0.21897894
0001a0 02 98 d9 3b bd 66 49 3e 68 8a d2 3c 26 4d f0 3d
       0.006640435 0.19668098 0.025700763 0.11733465
0001b0 8a 8e 7a 3d 4b e3 31 be 91 f7 e9 bd 8d d5 2d bd
       0.061171092 -0.17371862 -0.11424173 -0.042439986
0001c0 a8 6e da bd ab 83 a4 bb e3 db fd bd bf 3a 6d 3d
       -0.10665637 -0.005020579 -0.12395456 0.057917353
0001d0 ac 8d df bc df 1b 75 3c b5 19 64 3d 1c 52 45 3d
       -0.027289234 0.014960258 0.05568858 0.04817401
0001e0 74 a0 37 3d 36 ab 53 3d f5 1d 0e 3e da 40 d3 3d
       0.044830754 0.05167695 0.13878615 0.10315104
0001f0 6f 8b 12 be 78 89 c4 3d 0d dc af 3b bf ba d7 3d
       -0.14311002 0.095965326 0.0053668083 0.10533666
000200 a0 7b 94 3c 0d d8 e2 bd e3 a8 96 3d 61 0f 3b be
       0.018125355 -0.11076365 0.07356431 -0.18267585
000210 2f 0e 84 3d d6 b2 92 bd 96 2e 0b be 0a e5 0c bc
       0.06448018 -0.071630165 -0.1359199 -0.008599529
000220 b7 74 74 3d 02 e3 19 bd e6 44 f7 3d 09 87 64 3c
       0.05968162 -0.037570007 0.12073688 0.0139482105
000230 6b 9c 67 3d 91 c8 6f be ba b3 81 bd 81 ef b1 3d
       0.056545656 -0.23416354 -0.06333108 0.0868826
000240 6d 8e 33 3e b8 09 07 be 17 c6 9f 3c 5c 4b 4e 3c
       0.175348 -0.13187301 0.019503636 0.012591209
000250 88 96 43 be a1 1c 75 39 ac 97 f8 bd 04 7c 41 3e
       -0.19100392 0.00023375686 -0.12138304 0.18894964
000260 a4 9f c6 bd 95 5f 42 be 59 fb 84 bb bd c4 33 be
       -0.09698418 -0.18981774 -0.0040582833 -0.17555518
000270 92 53 80 3d 1d d2 04 3e 7a 42 d4 bd d0 e7 26 be
       0.0626594 0.12970777 -0.10364242 -0.16299367
000280 17 23 e3 bc 40 dc e9 bd ea 81 d1 3c 28 2e 18 3d
       -0.027726693 -0.114189625 0.025574643 0.037153393
000290 29 ad 9b bd 57 63 3d be 7f 7a 02 3e 0d 9c aa 3c
       -0.07601387 -0.18494926 0.12742041 0.020826364
0002a0 cd e7 d8 bd 02 d3 07 3e 2b 56 a4 bd 2d 4e 1d 3e
       -0.105910875 0.13264087 -0.08024248 0.15361853
0002b0 4c 7b 55 3d 23 89 2c 3e 87 d7 1a be 20 8f 04 be
       0.05211954 0.16849189 -0.1512128 -0.12945223
0002c0 8d ab 48 3d f4 b3 3b 3d df e4 37 3e 4b 7d bd bc
       0.04899173 0.045825914 0.17958401 -0.023131033
0002d0 2b f0 45 be b4 ee b5 3b 67 0a 06 be ce 5a e8 3d
       -0.19329898 0.0055521373 -0.13089906 0.113454446
0002e0 04 1e 1a bc 93 04 c0 bc 4c b1 5b be 27 81 8c 3d
       -0.00940657 -0.023439681 -0.21454352 0.06860571
0002f0 b9 01 f8 3d 4c d0 dd 3d d8 2f 46 be 5a af b4 3d
       0.121097036 0.10830745 -0.19354188 0.08822508
000300 c5 b6 17 3e fc 59 67 3e a5 32 fe bc db e0 06 3d
       0.14815815 0.2259292 -0.031030009 0.032929283
000310 f3 b6 ce bd 6f d8 53 3d 83 78 2a bd 69 02 85 be
       -0.100934885 0.05172008 -0.041618835 -0.259784
000320 e4 ec f2 bd d6 d5 03 be e0 ae ca bd 50 30 c4 bd
       -0.118615896 -0.1287454 -0.09896636 -0.095795274
000330 d7 2e 8b bd 78 bc 5d bd e2 f1 7a bc b8 e1 81 bc
       -0.06796043 -0.054134816 -0.015316458 -0.015854701
000340 5b 5d 6d bd ff bc 38 3d 5f 17 9e 3d df ca cd bd
       -0.05795036 0.045102116 0.077193014 -0.1004846
000350 08 f9 6f ba fd db 13 bd c5 66 f7 bd 39 5c 07 3e
       -0.0009154235 -0.03609847 -0.120801486 0.13218774
000360 aa c1 0b be 51 6c a8 bd 31 3c 0e be 94 15 fb bd
       -0.13648096 -0.08223785 -0.13890149 -0.12259975
000370 14 43 33 3d 67 cb fe 3d dd 7f b3 bb 6a 70 17 be
       0.043765143 0.1244114 -0.005477889 -0.14788976
000380 43 8b 2b be 64 37 a6 3d 95 14 2d be d1 47 1d 3e
       -0.16752343 0.08116034 -0.16902383 0.15359427
000390 2a f8 0c 3e 3d de 0b 3e 6b 9b 18 3d b3 bc f5 3c
       0.13766542 0.13658996 0.037257593 0.029997205
0003a0 1b c5 82 bd b1 69 18 be f2 29 ea 3d 02 e6 11 bd
       -0.06385251 -0.14884068 0.11433782 -0.035619743
0003b0 e7 d9 04 be 74 cd 5f 3a 1e 9d 16 3c 59 6d 4c bc
       -0.12973748 0.000853739 0.009192733 -0.012477242
0003c0 61 b9 b1 bd c8 90 0a be 2f 68 c8 bd 16 a2 01 be
       -0.08677936 -0.13531792 -0.097854964 -0.12659487
0003d0 66 9b b3 bd 15 42 86 3c f8 7f 94 bd fa e9 2b 3e
       -0.08769874 0.016388932 -0.072509706 0.16788474
0003e0 62 4e 8a bd 6c 8e 20 3e 8d e0 4e 3c ab 96 e5 bd
       -0.067532316 0.1567933 0.012626779 -0.11210378
0003f0 c4 99 cf bd 56 e5 21 be 79 36 2e 3e e0 21 61 bd
       -0.1013675 -0.15810141 0.17012967 -0.054963946

actor_fc_layers.blocks.0.block.1.weight f4 [128]
000000 77 0a 77 3f 02 d9 7d 3f f5 c8 7a 3f 13 a3 77 3f
       0.96500343 0.9915925 0.97962886 0.96733207
000010 ff 0f 81 3f 30 5d 84 3f 82 47 6c 3f 66 b7 6d 3f
       1.0083007 1.0340939 0.9229661 0.9285797
000020 b9 d0 79 3f 31 69 7e 3f 86 b1 76 3f c7 d7 7f 3f
       0.9758411 0.9937926 0.9636463 0.99938625
000030 d4 79 79 3f 4b 2f 6d 3f ea 56 84 3f f3 aa 6b 3f
       0.9745152 0.9265029 1.0339024 0.9205772
000040 38 30 74 3f b9 23 7a 3f b7 e7 72 3f 56 09 71 3f
       0.95386076 0.9771076 0.9488482 0.9415487
000050 d7 65 7a 3f eb ab 6d 3f f3 63 71 3f 24 8f 67 3f
       0.97811645 0.9284045 0.94293135 0.9045279
000060 f9 57 72 3f 03 70 76 3f ff 2f 7c 3f 88 ad 7a 3f
       0.94665486 0.96264666 0.98510736 0.9792104
000070 ce 22 80 3f c7 9a 76 3f 04 0d 75 3f ba fb 7d 3f
       1.0010622 0.9632992 0.95722985 0.9921223
000080 62 32 7d 3f 42 78 80 3f 23 9b 73 3f 94 64 85 3f
       0.98905003 1.00367 0.95158595 1.0421319
000090 77 dc 7b 3f 23 1f 81 3f a2 b5 74 3f 37 46 72 3f
       0.9838328 1.0087627 0.9558965 0.9463839
0000a0 b4 37 8a 3f 17 e7 78 3f 1d 08 7c 3f 6b 93 74 3f
       1.0798249 0.97227615 0.9844988 0.9553744
0000b0 c9 7a 77 3f 02 05 75 3f 26 3e 7d 3f 0a 51 6e 3f
       0.9667173 0.95710766 0.98922956 0.93092406
0000c0 8a fe 6e 3f 4f 6b 71 3f d1 ee 83 3f c7 46 70 3f
       0.93357146 0.94304365 1.0307256 0.93858
0000d0 3a 2d 81 3f e7 42 7d 3f d5 0e 7c 3f 9c e0 84 3f
       1.0091927 0.9893021 0.9846013 1.0381045
0000e0 17 6b 78 3f 5f c6 79 3f b8 ac 74 3f d7 ff 6b 3f
       0.97038406 0.97568315 0.9557605 0.92187256
0000f0 af 06 79 3f 18 03 7b 3f 04 48 72 3f ef df 79 3f
       0.97275823 0.98051596 0.9464114 0.9760732
000100 5e cc 6d 3f 40 fb 7e 3f c4 f6 7e 3f 01 69 74 3f
       0.92889965 0.9960213 0.99595284 0.95472723
000110 ad 53 75 3f 6f 16 6a 3f d4 fc 72 3f 52 9b 78 3f
       0.95830804 0.9144048 0.94917035 0.97112
000120 4d de 6f 3f 87 c3 75 3f f4 3d 7b 3f 48 04 7a 3f
       0.9369858 0.96001476 0.9814141 0.9766278
000130 7a 5b 72 3f b8 18 7f 3f 4a d9 74 3f a8 17 7c 3f
       0.9467083 0.9964709 0.95644057 0.98473597
000140 21 f4 79 3f 84 2c 78 3f 50 95 77 3f 1c 68 7e 3f
       0.97638136 0.96942925 0.9671221 0.9937761
000150 ba 38 77 3f 2c 3e 7b 3f 34 fc 79 3f 11 5e 7b 3f
       0.9657093 0.9814174 0.97650456 0.9819041
000160 6d ec 7b 3f fc 3f 6d 3f 84 6d 72 3f 22 f7 74 3f
       0.9840763 0.9267576 0.9469836 0.95689595
000170 19 09 79 3f dd 01 73 3f c3 57 79 3f a8 6d 6e 3f
       0.97279507 0.9492472 0.9739954 0.9313607
000180 e2 89 7d 3f aa 6d 74 3f 0a d7 6f 3f ee 1b 7b 3f
       0.9903852 0.95479834 0.936875 0.9808949
000190 72 2f 72 3f 53 5c 77 3f 89 b1 6b 3f b2 92 74 3f
       0.94603646 0.9662525 0.9206777 0.9553634
0001a0 46 02 79 3f 22 ca 78 3f e7 7d 80 3f 5d 44 7c 3f
       0.97269094 0.9718343 1.0038422 0.98541814
0001b0 0d 7c 79 3f e7 93 76 3f 28 c9 75 3f 05 92 81 3f
       0.9745491 0.9631943 0.96010065 1.0122687
0001c0 98 cf 73 3f 02 91 75 3f af 3f 7d 3f 01 3b 71 3f
       0.9523864 0.9592439 0.989253 0.9423066
0001d0 57 bc 6b 3f 4b 6d 71 3f 24 6c 7b 3f 81 f2 7a 3f
       0.9208426 0.9430739 0.98211884 0.9802628
0001e0 8d ad 7d 3f cd fa 82 3f ed 60 77 3f 2f 8f 6a 3f
       0.9909294 1.0232788 0.9663227 0.9162473
0001f0 5d 29 76 3f 77 83 79 3f 7d 27 75 3f 47 65 7d 3f
       0.96156865 0.97466224 0.9576338 0.9898266

actor_fc_layers.blocks.0.block.1.bias f4 [128]
000000 04 b5 10 bd ec a4 ad bc 2f e6 bc bb f1 a3 01 bd
       -0.03532888 -0.021196805 -0.0057647447 -0.031650487
000010 10 76 0f bd 71 f6 75 3c dd 8b 82 bd da f7 5a bd
       -0.035024703 0.0150123695 -0.06374333 -0.053459026
000020 b1 7b 01 bd 19 c0 9d bc 0d d7 23 bd 9a 68 5e 3c
       -0.031612102 -0.019256638 -0.04000001 0.013574744
000030 7e 60 f9 bc b9 02 89 bd 0a dc e2 3c b2 46 ac bd
       -0.030441519 -0.066899724 0.027692813 -0.084119216
000040 b4 50 7d bd cc 8c ca bc 42 78 79 bd b8 1f 5e bd
       -0.061844543 -0.02472534 -0.060905702 -0.054229468
000050 f9 75 57 bd 9b 8f 89 bd e5 58 81 bd 64 89 c2 bd
       -0.052602742 -0.06716844 -0.063157834 -0.094988614
000060 b2 ae 23 bd 59 60 56 bd fb b0 ab bc bd 13 d1 bc
       -0.039961524 -0.052337978 -0.020958414 -0.025522107
000070 c3 f4 45 bc 68 00 62 bd 59 d9 21 bd 71 95 1b bc
       -0.0120822815 -0.05517617 -0.03951392 -0.009496079
000080 33 f6 2a bb cb fd ea bb 79 7c 69 bd fe 3e 41 3d
       -0.0026086688 -0.0071713678 -0.057003472 0.047179215
000090 0f 9c 09 bc 84 ea b1 3c 1f fc 4d bd be 7b 85 bd
       -0.008399024 0.021718271 -0.05028927 -0.065177426
0000a0 70 46 e0 3c 74 32 c5 bc 3f ec 2b bc 64 32 41 bd
       0.027377337 -0.02407191 -0.010493337 -0.047167197
0000b0 a6 af 0b bd 02 c8 24 bd 54 6a be bc 3d 5b be bd
       -0.03410306 -0.040229805 -0.02324406 -0.09294746
0000c0 00 3f 46 bd 69 f4 6c bd 1d 3a 0c bd f0 9f 70 bd
       -0.048399925 -0.057850275 -0.03423511 -0.05874628
0000d0 69 d7 1f 3b 75 45 d8 b9 b0 23 16 bc 51 17 62 3c
       0.002438987 -0.0004125048 -0.009163782 0.013799504
0000e0 bf 85 bf bc c8 70 ec bc 87 18 cc bc 97 05 b6 bd
       -0.023379205 -0.028862372 -0.02491404 -0.08887785
0000f0 b0 6c 07 bd 7b 70 ac bc 8a 0f 4d bd dd 8a c9 bc
       -0.033062637 -0.021049729 -0.050063647 -0.024602348
000100 74 ad 8d bd b2 29 cf bb 79 76 1c 39 f0 25 ef bc
       -0.06917849 -0.006322109 0.00014921454 -0.029192895
000110 72 bc 27 bd cb 55 b8 bd 36 3a e6 bc 2f 99 dc bc
       -0.0409512 -0.09000739 -0.028103929 -0.026928512
000120 a8 f6 9a bd 74 3f 16 bd ad e0 5d bd 16 61 03 bd
       -0.07566577 -0.036681607 -0.054169346 -0.03207501
000130 d2 4d 48 bd fc af 03 bc 17 f4 08 bd bc 00 64 bc
       -0.04890234 -0.008037563 -0.033435907 -0.013916191
000140 9b ed 91 bc 3b 3f ac bc 3c 3a d2 bc 3b e2 03 3b
       -0.017813494 -0.021026244 -0.025662534 0.0020123858
000150 c5 b6 f8 bc 0e 2c a2 bc b3 dd ca bc 89 1e 08 bc
       -0.030360589 -0.019796398 -0.024763918 -0.008308061
000160 5d 6e 29 bd 31 19 98 bd 9b be 68 bd 82 e8 66 bd
       -0.041365016 -0.0742668 -0.0568224 -0.05637408
000170 ce fa c3 bc 63 a3 b6 bd 44 18 a5 bc d2 a5 7f bd
       -0.023923304 -0.08917882 -0.020153172 -0.062413998
000180 ea 91 8e bb c0 73 70 bd a1 8c 95 bd 7b c8 9b bc
       -0.0043508904 -0.058704138 -0.073022135 -0.019016495
000190 9a 65 41 bd e8 97 24 bd 1c c9 a2 bd 36 d5 32 bd
       -0.047216035 -0.04018393 -0.07948515 -0.043660365
0001a0 71 5b ce bc bb 56 e1 bc a7 b9 f6 3c 07 a4 aa bb
       -0.025190087 -0.027507177 0.030117823 -0.005207542
0001b0 a6 12 a8 bb de b5 05 bd 31 ec 24 bd cf 76 03 bd
       -0.005129176 -0.032644145 -0.040264312 -0.032095727
0001c0 43 b3 51 bd d7 72 1b bd 43 74 6c bb 59 a3 50 bd
       -0.051196348 -0.037951317 -0.003608004 -0.05093703
0001d0 01 be b2 bd 00 de 3c bd 41 c1 28 3b 10 58 a0 bc
       -0.087276466 -0.046110153 0.0025749954 -0.019573241
0001e0 09 5d ea bb 91 09 b5 3c 8d 9a d8 bc 91 ed a4 bd
       -0.007152204 0.022099288 -0.026440883 -0.08053125
0001f0 5e 2c 48 bd 56 dc c9 bc ea 7e 0b bd bd 55 ae bc
       -0.048870437 -0.024641197 -0.03405658 -0.021281118

actor_fc_layers.blocks.0.block.1.running_mean f4 [128]
000000 00 00 00 00 00 00 00 00 00 00 00 00 00 00 00 00
       0.0 0.0 0.0 0.0
000010 00 00 00 00 00 00 00 00 00 00 00 00 00 00 00 00
       0.0 0.0 0.0 0.0
000020 00 00 00 00 00 00 00 00 00 00 00 00 00 00 00 00
       0.0 0.0 0.0 0.0
000030 00 00 00 00 00 00 00 00 00 00 00 00 00 00 00 00
       0.0 0.0 0.0 0.0
000040 00 00 00 00 00 00 00 00 00 00 00 00 00 00 00 00
       0.0 0.0 0.0 0.0
000050 00 00 00 00 00 00 00 00 00 00 00 00 00 00 00 00
       0.0 0.0 0.0 0.0
000060 00 00 00 00 00 00 00 00 00 00 00 00 00 00 00 00
       0.0 0.0 0.0 0.0
000070 00 00 00 00 00 00 00 00 00 00 00 00 00 00 00 00
       0.0 0.0 0.0 0.0
000080 00 00 00 00 00 00 00 00 00 00 00 00 00 00 00 00
       0.0 0.0 0.0 0.0
000090 00 00 00 00 00 00 00 00 00 00 00 00 00 00 00 00
       0.0 0.0 0.0 0.0
0000a0 00 00 00 00 00 00 00 00 00 00 00 00 00 00 00 00
       0.0 0.0 0.0 0.0
0000b0 00 00 00 00 00 00 00 00 00 00 00 00 00 00 00 00
       0.0 0.0 0.0 0.0
0000c0 00 00 00 00 00 00 00 00 00 00 00 00 00 00 00 00
       0.0 0.0 0.0 0.0
0000d0 00 00 00 00 00 00 00 00 00 00 00 00 00 00 00 00
       0.0 0.0 0.0 0.0
0000e0 00 00 00 00 00 00 00 00 00 00 00 00 00 00 00 00
       0.0 0.0 0.0 0.0
0000f0 00 00 00 00 00 00 00 00 00 00 00 00 00 00 00 00
       0.0 0.0 0.0 0.0
000100 00 00 00 00 00 00 00 00 00 00 00 00 00 00 00 00
       0.0 0.0 0.0 0.0
000110 00 00 00 00 00 00 00 00 00 00 00 00 00 00 00 00
       0.0 0.0 0.0 0.0
000120 00 00 00 00 00 00 00 00 00 00 00 00 00 00 00 00
       0.0 0.0 0.0 0.0
000130 00 00 00 00 00 00 00 00 00 00 00 00 00 00 00 00
       0.0 0.0 0.0 0.0
000140 00 00 00 00 00 00 00 00 00 00 00 00 00 00 00 00
       0.0 0.0 0.0 0.0
000150 00 00 00 00 00 00 00 00 00 00 00 00 00 00 00 00
       0.0 0.0 0.0 0.0
000160 00 00 00 00 00 00 00 00 00 00 00 00 00 00 00 00
       0.0 0.0 0.0 0.0
000170 00 00 00 00 00 00 00 00 00 00 00 00 00 00 00 00
       0.0 0.0 0.0 0.0
000180 00 00 00 00 00 00 00 00 00 00 00 00 00 00 00 00
       0.0 0.0 0.0 0.0
000190 00 00 00 00 00 00 00 00 00 00 00 00 00 00 00 00
       0.0 0.0 0.0 0.0
0001a0 00 00 00 00 00 00 00 00 00 00 00 00 00 00 00 00
       0.0 0.0 0.0 0.0
0001b0 00 00 00 00 00 00 00 00 00 00 00 00 00 00 00 00
       0.0 0.0 0.0 0.0
0001c0 00 00 00 00 00 00 00 00 00 00 00 00 00 00 00 00
       0.0 0.0 0.0 0.0
0001d0 00 00 00 00 00 00 00 00 00 00 00 00 00 00 00 00
       0.0 0.0 0.0 0.0
0001e0 00 00 00 00 00 00 00 00 00 00 00 00 00 00 00 00
       0.0 0.0 0.0 0.0
0001f0 00 00 00 00 00 00 00 00 00 00 00 00 00 00 00 00
       0.0 0.0 0.0 0.0

actor_fc_layers.blocks.0.block.1.running_var f4 [128]
000000 00 00 80 3f 00 00 80 3f 00 00 80 3f 00 00 80 3f
       1.0 1.0 1.0 1.0
000010 00 00 80 3f 00 00 80 3f 00 00 80 3f 00 00 80 3f
       1.0 1.0 1.0 1.0
000020 00 00 80 3f 00 00 80 3f 00 00 80 3f 00 00 80 3f
       1.0 1.0 1.0 1.0
000030 00 00 80 3f 00 00 80 3f 00 00 80 3f 00 00 80 3f
       1.0 1.0 1.0 1.0
000040 00 00 80 3f 00 00 80 3f 00 00 80 3f 00 00 80 3f
       1.0 1.0 1.0 1.0
000050 00 00 80 3f 00 00 80 3f 00 00 80 3f 00 00 80 3f
       1.0 1.0 1.0 1.0
000060 00 00 80 3f 00 00 80 3f 00 00 80 3f 00 00 80 3f
       1.0 1.0 1.0 1.0
000070 00 00 80 3f 00 00 80 3f 00 00 80 3f 00 00 80 3f
       1.0 1.0 1.0 1.0
000080 00 00 80 3f 00 00 80 3f 00 00 80 3f 00 00 80 3f
       1.0 1.0 1.0 1.0
000090 00 00 80 3f 00 00 80 3f 00 00 80 3f 00 00 80 3f
       1.0 1.0 1.0 1.0
0000a0 00 00 80 3f 00 00 80 3f 00 00 80 3f 00 00 80 3f
       1.0 1.0 1.0 1.0
0000b0 00 00 80 3f 00 00 80 3f 00 00 80 3f 00 00 80 3f
       1.0 1.0 1.0 1.0
0000c0 00 00 80 3f 00 00 80 3f 00 00 80 3f 00 00 80 3f
       1.0 1.0 1.0 1.0
0000d0 00 00 80 3f 00 00 80 3f 00 00 80 3f 00 00 80 3f
       1.0 1.0 1.0 1.0
0000e0 00 00 80 3f 00 00 80 3f 00 00 80 3f 00 00 80 3f
       1.0 1.0 1.0 1.0
0000f0 00 00 80 3f 00 00 80 3f 00 00 80 3f 00 00 80 3f
       1.0 1.0 1.0 1.0
000100 00 00 80 3f 00 00 80 3f 00 00 80 3f 00 00 80 3f
       1.0 1.0 1.0 1.0
000110 00 00 80 3f 00 00 80 3f 00 00 80 3f 00 00 80 3f
       1.0 1.0 1.0 1.0
000120 00 00 80 3f 00 00 80 3f 00 00 80 3f 00 00 80 3f
       1.0 1.0 1.0 1.0
000130 00 00 80 3f 00 00 80 3f 00 00 80 3f 00 00 80 3f
       1.0 1.0 1.0 1.0
000140 00 00 80 3f 00 00 80 3f 00 00 80 3f 00 00 80 3f
       1.0 1.0 1.0 1.0
000150 00 00 80 3f 00 00 80 3f 00 00 80 3f 00 00 80 3f
       1.0 1.0 1.0 1.0
000160 00 00 80 3f 00 00 80 3f 00 00 80 3f 00 00 80 3f
       1.0 1.0 1.0 1.0
000170 00 00 80 3f 00 00 80 3f 00 00 80 3f 00 00 80 3f
       1.0 1.0 1.0 1.0
000180 00 00 80 3f 00 00 80 3f 00 00 80 3f 00 00 80 3f
       1.0 1.0 1.0 1.0
000190 00 00 80 3f 00 00 80 3f 00 00 80 3f 00 00 80 3f
       1.0 1.0 1.0 1.0
0001a0 00 00 80 3f 00 00 80 3f 00 00 80 3f 00 00 80 3f
       1.0 1.0 1.0 1.0
0001b0 00 00 80 3f 00 00 80 3f 00 00 80 3f 00 00 80 3f
       1.0 1.0 1.0 1.0
0001c0 00 00 80 3f 00 00 80 3f 00 00 80 3f 00 00 80 3f
       1.0 1.0 1.0 1.0
0001d0 00 00 80 3f 00 00 80 3f 00 00 80 3f 00 00 80 3f
       1.0 1.0 1.0 1.0
0001e0 00 00 80 3f 00 00 80 3f 00 00 80 3f 00 00 80 3f
       1.0 1.0 1.0 1.0
0001f0 00 00 80 3f 00 00 80 3f 00 00 80 3f 00 00 80 3f
       1.0 1.0 1.0 1.0

actor_fc_layers.blocks.1.block.0.weight f4 [128, 128]
000000 08 02 69 bd 37 12 bf bd dc 45 a5 3c 3a ed b5 3c
       -0.056886703 -0.09329646 0.020174913 0.022207845
000010 0a 17 88 b9 22 36 a4 bd 7d d6 b3 bd b5 ac 03 bc
       -0.00025957107 -0.080181375 -0.08781145 -0.008036782
000020 4a be a5 3a 58 a8 51 bd 3e 07 89 bc 8b 87 f9 3c
       0.0012645212 -0.051185936 -0.016727086 0.03046014
000030 18 e0 6a bc 5d a5 18 bd f2 c0 9e 3d a4 f2 cf bc
       -0.014335655 -0.037267078 0.07751645 -0.025384255
000040 d9 6a c9 bc e5 0c 42 bd f4 21 8a 3d 94 0e 98 3c
       -0.024587082 -0.04737558 0.06744757 0.018561639
000050 5a 01 9b bd 08 69 8e bd 8b e4 52 bd 99 6c da bd
       -0.07568617 -0.06953627 -0.051487487 -0.106652446
000060 6e 71 9e bd 9b 50 ce 3b 22 0b d7 3c 59 ea 73 bd
       -0.07736479 0.00629623 0.026250426 -0.059549663
000070 1e f4 fa bc ba d5 6a bd 31 77 87 bd 06 60 23 3d
       -0.030633982 -0.05733273 -0.06614531 0.039886497
000080 94 fd 98 3c be 61 12 bd e1 9a e4 3c 27 4c a6 bd
       0.018675603 -0.035737745 0.027905883 -0.08119994
000090 f9 c2 09 bc 57 5a c7 bd 5c 8a 46 bd 67 7d e3 3c
       -0.0084083015 -0.09734028 -0.048471794 0.027769757
0000a0 d4 26 5b 3d dd 10 b5 bd bd 46 30 3d 17 cb 1c bd
       0.053503826 -0.08841107 0.04303621 -0.03827962
0000b0 d7 cd d7 bb 0d aa 3f bd 1e 4f 91 bd dd 54 63 3d
       -0.0065858173 -0.046793032 -0.070951685 0.055500854
0000c0 95 80 91 bc 77 8b c9 3c d5 53 b5 bd b0 b6 ba 3c
       -0.017761508 0.024602635 -0.0885388 0.02279219
0000d0 52 c4 a3 bd 82 83 72 bd bb a7 92 bd d2 78 d3 3c
       -0.079964295 -0.059207447 -0.07160898 0.025814448
0000e0 da c5 5b bc 3f cb a9 3b b1 36 1a bd ce 2c f1 3b
       -0.013413871 0.0051816995 -0.037649814 0.0073600775
0000f0 f0 59 d5 3c 5f 52 f7 bc 4f af c7 bd fb 9c 8f bc
       0.026043862 -0.030190645 -0.09750234 -0.017530909
000100 b8 99 da 3c 15 e6 47 bd a8 46 02 bc 27 d6 59 bd
       0.026684627 -0.048803408 -0.007951416 -0.053182747
000110 d7 cf 94 3c 4d 0d 2e 3b c7 82 e4 bb 0a e8 c1 bc
       0.018165512 0.002655822 -0.0069735977 -0.023670215
000120 76 fe 1f 3d 09 d4 81 3d a0 dd 26 bd 1a 40 0f 3c
       0.039061032 0.063392706 -0.0407387 0.00874331
000130 af 70 32 3d 0e 0c 31 3d 20 93 f9 bc d2 69 34 3d
       0.043564495 0.043224387 -0.030465662 0.04404623
000140 1f a7 ac bc 8d e6 b1 bd 71 42 20 3d ba 30 ae bc
       -0.021075783 -0.08686552 0.039125863 -0.021263469
000150 bc 48 18 3d 9b 56 ed bc dd 0f fb 3c da 6a be 3c
       0.03717874 -0.02897196 0.030647213 0.02324431
000160 2a d1 64 3c 26 8c f1 bc b1 3b 49 bc 98 ff d5 bd
       0.013965884 -0.029485773 -0.012282298 -0.10449141
000170 16 42 77 3d 6e 90 0d 3c 1c d6 29 3b 70 15 34 3c
       0.06036576 0.008640392 0.0025914973 0.010991439
000180 70 70 4c 3d 24 25 9d bd 66 40 90 bd c2 4b 26 bd
       0.049911916 -0.076731 -0.07043533 -0.040599592
000190 25 73 68 bd 0a 09 7d bd 02 90 d4 bc 86 3e 6d bd
       -0.056750435 -0.0617762 -0.025947575 -0.057920955
0001a0 1e 53 8e bd 81 bb 5a bd 22 ad 7c bc 0b ee e3 3c
       -0.06949447 -0.053401474 -0.015422137 0.027823469
0001b0 cb 2c 0e 3c 27 92 5f 3d 68 4d 40 bd d3 46 9c bc
       0.008677672 0.05458274 -0.04694882 -0.01907674
0001c0 bb ef 61 3d b2 16 74 bd 0e 59 0b bd 5b 9a 64 3d
       0.055160265 -0.059591956 -0.034020476 0.055811267
0001d0 23 3b 38 3d 43 b7 e2 3b 26 3a a5 bc 20 ce 9c bd
       0.044978272 0.006918819 -0.020169329 -0.07656503
0001e0 a0 2c ac bd 1c 33 86 3d ae 31 4f 3d 1d b2 aa 3c
       -0.08406949 0.06552717 0.050584488 0.020836884
0001f0 f6 27 39 bd 03 22 d1 bd 9d b1 3c bd a2 f2 5e bd
       -0.045204125 -0.10211565 -0.046067823 -0.05443061
000200 e1 07 84 bd 8e ca d0 3c 5d e7 b1 3d d0 c0 ca 3c
       -0.06446815 0.02548721 0.08686707 0.024750143
000210 f7 c2 91 3c e8 cb c3 bc 4c 09 b7 3d 05 17 3d 3b
       0.017793162 -0.023900941 0.0893732 0.0028852832
000220 68 4d 7a 3d ca 04 16 bc 6b 31 5a 3d 1f 7e df bc
       0.061108977 -0.009156415 0.053269785 -0.027281819
000230 9f da 85 bc be 51 04 3d ff b1 78 3d d3 6f b1 3b
       -0.016339598 0.032304518 0.060716625 0.005414942
000240 4f 71 4a bd 1a 18 25 3d 39 7c 97 bd 48 39 e2 bc
       -0.049424466 0.04030619 -0.073967405 -0.027615204
000250 c6 28 7b bd c2 c1 54 3c d6 40 08 3d 8a 38 00 3d
       -0.06131818 0.012985649 0.033264957 0.03130392
000260 2c c4 9a 3d af f7 1c bd 9a 2e 93 bd 77 06 97 bd
       0.07556948 -0.038322147 -0.07186623 -0.0737428
000270 d3 90 ab 3d ef 5c ae 3d 06 38 6d 3c db e7 00 bc
       0.083772324 0.085138194 0.014478689 -0.007867779
000280 4c 2c 03 3d 30 60 a6 bc 04 f0 ba bd ef 6c b3 bc
       0.032024667 -0.020309538 -0.091278106 -0.02190253
000290 a2 fa 26 3c c7 19 28 bd 93 eb 2c bd 73 8c 22 bd
       0.010191591 -0.04104021 -0.04221685 -0.039684724
0002a0 f3 2d 16 bd ad 15 20 bd de 8e 71 bc 74 ca 9a 3c
       -0.036664914 -0.03908317 -0.014743535 0.018895365
0002b0 7a 66 94 bd 77 66 37 bd c1 c4 cc 3b c1 6d 8a bd
       -0.07246108 -0.044775452 0.006249041 -0.06759215
0002c0 e5 79 6c 3d 6f ae 66 3b 44 6e 95 3d c3 c2 a3 3c
       0.057733435 0.0035199185 0.07296422 0.01999033
0002d0 98 90 be 3a f2 aa e3 3c fb 22 c3 3c 44 47 c5 bc
       0.0014538942 0.027791474 0.02382039 -0.024081834
0002e0 12 d2 44 3d d0 ce 1a bd d3 cd 02 3d 22 81 7d 3c
       0.0480519 -0.037794888 0.03193457 0.015472682
0002f0 15 e7 da bd 94 53 99 bd 5c c4 92 3c a9 13 93 3d
       -0.10688607 -0.074866444 0.017915897 0.07181484
000300 a5 dc c4 3c 0b d0 6b bd 18 f4 ba 3d e2 43 aa 3d
       0.024030993 -0.057571452 0.091285884 0.08313729
000310 c3 a1 5d 3d 62 ba 88 bd 49 b7 09 bd 55 f0 c2 bc
       0.054109346 -0.06676175 -0.03362206 -0.02379624
000320 2c d7 b0 bd 76 f5 70 3d 6a f2 04 bd de c2 b7 bd
       -0.08634791 0.05882784 -0.032457747 -0.08972715
000330 f2 6d 20 bd 1b 74 59 bd ec 5d 02 3d f9 75 1f bb
       -0.039167352 -0.053089242 0.031827852 -0.0024331792
000340 a8 43 69 3d 55 b3 b3 bd d8 1b 6f 3d b7 10 5b bc
       0.056949288 -0.08774439 0.058376163 -0.013370684
000350 77 44 a1 3c 15 50 c7 3c 16 da 9f 3d d9 1b 90 3d
       0.019685967 0.024330178 0.078052685 0.070365615
000360 09 dd f3 bb 81 44 31 3d 22 ef 8b bd 6f d3 2a 3d
       -0.007442121 0.04327822 -0.0683272 0.041705545
000370 8a 3c 7e 3a c2 a5 5d bd 3a cf 80 3d 34 bb dd 3c
       0.0009698352 -0.054113157 0.06289525 0.027066804
000380 87 a9 95 bd c4 95 ca bd 54 97 a9 bd 20 ef ce 3c
       -0.073077254 -0.09891847 -0.08280817 0.025260508
000390 c8 cc 58 bd fc 22 33 bc 4d 77 74 3c 44 91 f0 3b
       -0.05292967 -0.010933634 0.014921022 0.0073415358
0003a0 cb cc 4e 3d 2a 4c c8 bd 80 f9 d2 3d 87 94 ba 3d
       0.050488275 -0.09780152 0.103014946 0.091103606
0003b0 67 2e c7 3d 33 2d b7 bb bd d9 c6 bd ca 37 b0 bd
       0.097256474 -0.005590105 -0.09709499 -0.08604391
0003c0 b5 96 01 bd d8 bb c7 bd 47 85 49 3c 42 86 60 bd
       -0.031637866 -0.09752625 0.012299842 -0.05481554
0003d0 89 59 aa bd cc 90 5e 3c a9 86 83 3d 66 26 6d 3d
       -0.08317859 0.013584327 0.06422169 0.057897948
0003e0 29 6d 56 3d a0 db 58 3d 33 9a 86 bd 2a bd b6 3c
       0.052350197 0.052943826 -0.0657238 0.022306997
0003f0 00 f3 42 bc 94 83 d9 bd 74 c7 8b 3d 90 2b e8 3c
       -0.011898756 -0.106208 0.06825152 0.028341085

actor_fc_layers.blocks.1.block.1.weight f4 [128]
000000 26 e6 79 3f 77 58 7e 3f ef e3 7d 3f 25 ae 81 3f
       0.97616804 0.99353737 0.99175924 1.013127
000010 38 52 79 3f f2 0f 7c 3f e8 de 79 3f 62 2f 79 3f
       0.9739108 0.9846183 0.9760575 0.97337925
000020 9e ab 7a 3f 25 b2 79 3f 88 70 7f 3f 01 84 77 3f
       0.9791812 0.9753745 0.99781084 0.96685797
000030 26 02 80 3f c5 e0 82 3f da 72 78 3f a6 f3 7b 3f
       1.0000656 1.0224844 0.9705025 0.98418653
000040 ea ef 78 3f 65 5a 7f 3f 08 16 7a 3f e3 6d 7e 3f
       0.9724108 0.99747306 0.97689867 0.99386424
000050 c1 ba 7e 3f 9e 7c 80 3f cb bb 7b 3f d9 b1 80 3f
       0.99503714 1.003803 0.98333424 1.0054275
000060 4e 77 79 3f db 1c 7e 3f 6a 78 80 3f f9 59 7b 3f
       0.9744767 0.9926278 1.0036747 0.9818416
000070 26 d2 7b 3f 00 e5 82 3f 0f 33 7d 3f fe bc 7e 3f
       0.98367536 1.0226135 0.98906034 0.9950713
000080 0b 22 7a 3f c0 b2 7a 3f dc d9 77 3f d0 f6 7b 3f
       0.97708195 0.97929 0.968168 0.9842348
000090 1e 30 7e 3f f6 38 74 3f 00 00 80 3f 7e e6 7b 3f
       0.9929217 0.95399415 1.0 0.9839858
0000a0 16 87 7d 3f 94 89 80 3f 75 e7 7b 3f 42 61 7a 3f
       0.9903425 1.0041986 0.9840005 0.97804654
0000b0 7b a8 7c 3f 63 a4 7e 3f e6 c3 7b 3f fb ca 7a 3f
       0.9869458 0.99469584 0.9834579 0.97965974
0000c0 d8 f6 80 3f 6f 5a 7c 3f 51 d9 7f 3f 21 0c 81 3f
       1.0075331 0.9857549 0.99940974 1.0081826
0000d0 4d 1c 78 3f 82 ed 82 3f 3f bb 7e 3f d9 ee 79 3f
       0.96918184 1.0228732 0.99504465 0.9763008
0000e0 16 ae 7a 3f 82 28 79 3f ed f7 7a 3f e0 44 79 3f
       0.97921884 0.97327435 0.98034555 0.9737072
0000f0 95 e3 81 3f 59 56 7d 3f b0 33 80 3f 31 15 7c 3f
       1.0147578 0.9895988 1.0015774 0.98469836
000100 a8 78 7b 3f fb a1 7b 3f 84 fa 7c 3f d0 23 7c 3f
       0.9823098 0.9829404 0.98819757 0.98492146
000110 41 c6 80 3f e6 4e 7a 3f cc 15 80 3f 89 b9 7f 3f
       1.0060502 0.9777664 1.0006652 0.9989248
000120 02 c9 7a 3f 85 bc 7a 3f 90 04 7f 3f 64 fb 7e 3f
       0.97962964 0.9794391 0.99616337 0.9960234
000130 bf 49 7e 3f c5 e3 7b 3f 04 74 7d 3f 8d 5f 7e 3f
       0.9933128 0.98394424 0.9900515 0.9936455
000140 8d 31 7f 3f e5 fd 7d 3f 93 df 78 3f 1a cc 7a 3f
       0.99684983 0.9921554 0.9721615 0.97967684
000150 fc 7a 80 3f b7 65 76 3f a4 b2 7c 3f eb 1d 7f 3f
       1.0037532 0.96248955 0.98710084 0.99655026
000160 2a f0 7c 3f fb 0a 82 3f de 09 79 3f 22 23 7c 3f
       0.9880396 1.0159601 0.9728068 0.9849111
000170 a0 97 7d 3f 4d 6c 7f 3f 34 cf 7c 3f 76 85 82 3f
       0.99059486 0.9977463 0.98753667 1.0196979
000180 03 72 7a 3f da 54 7f 3f ad 41 81 3f 47 2a 7d 3f
       0.9783022 0.9973885 1.0098168 0.98892635
000190 ae e2 7e 3f 14 ed 7c 3f 06 71 7a 3f 0b 5c 7d 3f
       0.99564636 0.9879925 0.9782871 0.9896857
0001a0 c0 ad 75 3f f5 3c 7e 3f c2 9e 77 3f 08 7b 7d 3f
       0.95968246 0.99311763 0.9672662 0.99015856
0001b0 7c 75 7c 3f ae f7 7d 3f 57 0e 81 3f c6 fd 80 3f
       0.98616767 0.99206054 1.0082501 1.0077446
0001c0 41 76 82 3f 44 5f 7d 3f 47 81 7d 3f c2 54 7b 3f
       1.0192338 0.9897349 0.99025387 0.98176205
0001d0 7b fc 7f 3f 4d 92 7f 3f 12 45 7b 3f ef 65 80 3f
       0.9999463 0.9983261 0.9815227 1.0031108
0001e0 a0 71 7c 3f b9 31 7a 3f df 6d 81 3f 53 07 7f 3f
       0.9861088 0.9773212 1.0111655 0.9962055
0001f0 b6 4b 7c 3f 7f 9f 78 3f 8d f1 80 3f 62 1b 7b 3f
       0.98553026 0.9711837 1.0073715 0.9808866

actor_fc_layers.blocks.1.block.1.bias f4 [128]
000000 f4 f6 b6 bc 64 2e 71 3c b7 35 c2 3c 4a 8b a4 3c
       -0.022334553 0.014720533 0.023707254 0.02008595
000010 0d 21 21 bc 0d 71 fe bc 04 9f de 3c 0f ce e8 bc
       -0.00983454 -0.031059766 0.027175434 -0.028418569
000020 4b 20 df 3b a2 73 a7 bc 27 78 32 3d 56 08 e1 3c
       0.0068092695 -0.02044088 0.043571617 0.027469795
000030 3c 45 45 3d 1d e4 38 3d 50 e4 46 3c ef d8 04 bc
       0.04816173 0.04513942 0.012139395 -0.008108362
000040 91 a1 4e 3c d5 85 45 3d d5 28 37 bd a0 10 44 3d
       0.012611763 0.048223335 -0.044716675 0.047867417
000050 58 7b f0 bc 3a c6 83 bc 37 50 04 3c 3e 4d be bc
       -0.02935569 -0.016085733 0.008075765 -0.023230191
000060 90 07 5c bc 6c c0 04 3a e1 2f 4d 3d 75 f7 b0 bb
       -0.013429537 0.00050640735 0.05009449 -0.005400593
000070 15 66 ac 3c 90 a5 a7 3d 20 7a ca bc 3c 67 81 3d
       0.02104477 0.081858754 -0.024716437 0.063185185
000080 52 a1 65 bc 68 04 9a 3b b7 21 ae bc f4 94 79 bc
       -0.014015513 0.0047002323 -0.02125631 -0.015233267
000090 0d 97 2e 3d a9 49 36 bd 00 00 00 00 eb 17 bb 3b
       0.042624522 -0.04450384 0.0 0.0057096384
0000a0 ef 52 8a bc a5 b7 00 bd 53 7e b3 3a 55 b7 ba bc
       -0.016885249 -0.031425137 0.0013694264 -0.022792498
0000b0 da 60 10 bc e7 59 5e 3d 17 c0 f9 bc ac 7e b9 3b
       -0.008812154 0.054284956 -0.030487103 0.0056608524
0000c0 ff 7c c1 3c cd e9 13 bd 14 3f 7f 3d ca c2 b7 3c
       0.023619173 -0.03611164 0.062316015 0.02243175
0000d0 96 53 0e bd 4a 09 94 3d 6b 08 9f bb 97 d2 f1 bc
       -0.034747683 0.07228334 -0.0048532984 -0.029519362
0000e0 46 5d 9c bc 35 d5 23 bb ee e8 b8 bc 7b 0b 62 bc
       -0.019087445 -0.0024998907 -0.022572007 -0.0137966825
0000f0 16 48 2b 3d d7 2f 36 bc 58 68 04 3d 1d 55 01 bd
       0.041816793 -0.011119804 0.032326072 -0.03157531
000100 c2 af 75 ba 9f a4 88 bc 6a fb 30 3b 92 88 86 bc
       -0.0009372198 -0.01668006 0.0027005323 -0.016422544
000110 a7 43 8b 3d 6b 5c 6c 3c 7d 5a 84 3d 78 d6 21 3d
       0.06800013 0.014426331 0.06462572 0.039511174
000120 ab 96 98 3c 52 23 a3 bc 32 f1 58 3d 43 e8 17 bd
       0.018626532 -0.019914303 0.052964397 -0.037086736
000130 11 a5 a8 3b 3a f0 c6 3c 06 05 bc bb cd 94 f9 3c
       0.0051466306 0.02428447 -0.0057379035 0.030466462
000140 d1 0e e3 3b ea 33 00 bc a0 21 e6 3c 2d 51 19 bc
       0.0069292565 -0.007824877 0.028092206 -0.009357733
000150 48 24 2e 3d 6d 46 16 bd 69 92 2c bc 1e be 43 3d
       0.04251507 -0.036688257 -0.010532954 0.04778873
000160 4a 45 85 bc 05 a4 31 3d 3e d6 16 bd 84 39 ac bc
       -0.016268391 0.04336931 -0.03682541 -0.02102352
000170 be ff 67 bc 28 6d 66 3d f2 0b 31 3d 28 21 95 bc
       -0.014160095 0.056256443 0.043224283 -0.018204287
000180 81 86 06 ba 89 8f 8a 3b 66 8b 86 bc e5 5b 2d 3d
       -0.0005131737 0.0042285365 -0.016423892 0.042323966
000190 aa 87 1f bc c6 e9 00 bb 02 bd 0e 3c 48 a0 10 bc
       -0.009736935 -0.001967059 0.008712055 -0.0088272765
0001a0 4a a8 37 bd 7a fb c5 3c e7 04 50 bc 04 44 c7 bc
       -0.044838227 0.024167765 -0.012696481 -0.024324425
0001b0 16 97 d1 bc 03 4f 38 bc f5 33 17 bd fc c1 38 3d
       -0.025584739 -0.011249307 -0.036914784 0.045106873
0001c0 92 c8 5f bc 5e 18 ea 3c 16 7e 0a bc a1 3a a3 bc
       -0.0136586595 0.028576072 -0.008452913 -0.019925417
0001d0 7d 36 35 3d 6b 9d 3f 3d 95 55 2d bc a8 28 a1 3d
       0.044241417 0.046780985 -0.010579486 0.07869083
0001e0 87 d1 ae bc a4 16 27 3b 8e 89 86 bc c9 44 24 3d
       -0.021340145 0.0025495673 -0.016423013 0.04010466
0001f0 07 4e 46 3c 06 c1 4b 38 f9 1a 65 3d a2 3f 3a bc
       0.012103564 4.857874e-05 0.055933926 -0.01136771

actor_fc_layers.blocks.1.block.1.running_mean f4 [128]
000000 00 00 00 00 00 00 00 00 00 00 00 00 00 00 00 00
       0.0 0.0 0.0 0.0
000010 00 00 00 00 00 00 00 00 00 00 00 00 00 00 00 00
       0.0 0.0 0.0 0.0
000020 00 00 00 00 00 00 00 00 00 00 00 00 00 00 00 00
       0.0 0.0 0.0 0.0
000030 00 00 00 00 00 00 00 00 00 00 00 00 00 00 00 00
       0.0 0.0 0.0 0.0
000040 00 00 00 00 00 00 00 00 00 00 00 00 00 00 00 00
       0.0 0.0 0.0 0.0
000050 00 00 00 00 00 00 00 00 00 00 00 00 00 00 00 00
       0.0 0.0 0.0 0.0
000060 00 00 00 00 00 00 00 00 00 00 00 00 00 00 00 00
       0.0 0.0 0.0 0.0
000070 00 00 00 00 00 00 00 00 00 00 00 00 00 00 00 00
       0.0 0.0 0.0 0.0
000080 00 00 00 00 00 00 00 00 00 00 00 00 00 00 00 00
       0.0 0.0 0.0 0.0
000090 00 00 00 00 00 00 00 00 00 00 00 00 00 00 00 00
       0.0 0.0 0.0 0.0
0000a0 00 00 00 00 00 00 00 00 00 00 00 00 00 00 00 00
       0.0 0.0 0.0 0.0
0000b0 00 00 00 00 00 00 00 00 00 00 00 00 00 00 00 00
       0.0 0.0 0.0 0.0
0000c0 00 00 00 00 00 00 00 00 00 00 00 00 00 00 00 00
       0.0 0.0 0.0 0.0
0000d0 00 00 00 00 00 00 00 00 00 00 00 00 00 00 00 00
       0.0 0.0 0.0 0.0
0000e0 00 00 00 00 00 00 00 00 00 00 00 00 00 00 00 00
       0.0 0.0 0.0 0.0
0000f0 00 00 00 00 00 00 00 00 00 00 00 00 00 00 00 00
       0.0 0.0 0.0 0.0
000100 00 00 00 00 00 00 00 00 00 00 00 00 00 00 00 00
       0.0 0.0 0.0 0.0
000110 00 00 00 00 00 00 00 00 00 00 00 00 00 00 00 00
       0.0 0.0 0.0 0.0
000120 00 00 00 00 00 00 00 00 00 00 00 00 00 00 00 00
       0.0 0.0 0.0 0.0
000130 00 00 00 00 00 00 00 00 00 00 00 00 00 00 00 00
       0.0 0.0 0.0 0.0
000140 00 00 00 00 00 00 00 00 00 00 00 00 00 00 00 00
       0.0 0.0 0.0 0.0
000150 00 00 00 00 00 00 00 00 00 00 00 00 00 00 00 00
       0.0 0.0 0.0 0.0
000160 00 00 00 00 00 00 00 00 00 00 00 00 00 00 00 00
       0.0 0.0 0.0 0.0
000170 00 00 00 00 00 00 00 00 00 00 00 00 00 00 00 00
       0.0 0.0 0.0 0.0
000180 00 00 00 00 00 00 00 00 00 00 00 00 00 00 00 00
       0.0 0.0 0.0 0.0
000190 00 00 00 00 00 00 00 00 00 00 00 00 00 00 00 00
       0.0 0.0 0.0 0.0
0001a0 00 00 00 00 00 00 00 00 00 00 00 00 00 00 00 00
       0.0 0.0 0.0 0.0
0001b0 00 00 00 00 00 00 00 00 00 00 00 00 00 00 00 00
       0.0 0.0 0.0 0.0
0001c0 00 00 00 00 00 00 00 00 00 00 00 00 00 00 00 00
       0.0 0.0 0.0 0.0
0001d0 00 00 00 00 00 00 00 00 00 00 00 00 00 00 00 00
       0.0 0.0 0.0 0.0
0001e0 00 00 00 00 00 00 00 00 00 00 00 00 00 00 00 00
       0.0 0.0 0.0 0.0
0001f0 00 00 00 00 00 00 00 00 00 00 00 00 00 00 00 00
       0.0 0.0 0.0 0.0

actor_fc_layers.blocks.1.block.1.running_var f4 [128]
000000 00 00 80 3f 00 00 80 3f 00 00 80 3f 00 00 80 3f
       1.0 1.0 1.0 1.0
000010 00 00 80 3f 00 00 80 3f 00 00 80 3f 00 00 80 3f
       1.0 1.0 1.0 1.0
000020 00 00 80 3f 00 00 80 3f 00 00 80 3f 00 00 80 3f
       1.0 1.0 1.0 1.0
000030 00 00 80 3f 00 00 80 3f 00 00 80 3f 00 00 80 3f
       1.0 1.0 1.0 1.0
000040 00 00 80 3f 00 00 80 3f 00 00 80 3f 00 00 80 3f
       1.0 1.0 1.0 1.0
000050 00 00 80 3f 00 00 80 3f 00 00 80 3f 00 00 80 3f
       1.0 1.0 1.0 1.0
000060 00 00 80 3f 00 00 80 3f 00 00 80 3f 00 00 80 3f
       1.0 1.0 1.0 1.0
000070 00 00 80 3f 00 00 80 3f 00 00 80 3f 00 00 80 3f
       1.0 1.0 1.0 1.0
000080 00 00 80 3f 00 00 80 3f 00 00 80 3f 00 00 80 3f
       1.0 1.0 1.0 1.0
000090 00 00 80 3f 00 00 80 3f 00 00 80 3f 00 00 80 3f
       1.0 1.0 1.0 1.0
0000a0 00 00 80 3f 00 00 80 3f 00 00 80 3f 00 00 80 3f
       1.0 1.0 1.0 1.0
0000b0 00 00 80 3f 00 00 80 3f 00 00 80 3f 00 00 80 3f
       1.0 1.0 1.0 1.0
0000c0 00 00 80 3f 00 00 80 3f 00 00 80 3f 00 00 80 3f
       1.0 1.0 1.0 1.0
0000d0 00 00 80 3f 00 00 80 3f 00 00 80 3f 00 00 80 3f
       1.0 1.0 1.0 1.0
0000e0 00 00 80 3f 00 00 80 3f 00 00 80 3f 00 00 80 3f
       1.0 1.0 1.0 1.0
0000f0 00 00 80 3f 00 00 80 3f 00 00 80 3f 00 00 80 3f
       1.0 1.0 1.0 1.0
000100 00 00 80 3f 00 00 80 3f 00 00 80 3f 00 00 80 3f
       1.0 1.0 1.0 1.0
000110 00 00 80 3f 00 00 80 3f 00 00 80 3f 00 00 80 3f
       1.0 1.0 1.0 1.0
000120 00 00 80 3f 00 00 80 3f 00 00 80 3f 00 00 80 3f
       1.0 1.0 1.0 1.0
000130 00 00 80 3f 00 00 80 3f 00 00 80 3f 00 00 80 3f
       1.0 1.0 1.0 1.0
000140 00 00 80 3f 00 00 80 3f 00 00 80 3f 00 00 80 3f
       1.0 1.0 1.0 1.0
000150 00 00 80 3f 00 00 80 3f 00 00 80 3f 00 00 80 3f
       1.0 1.0 1.0 1.0
000160 00 00 80 3f 00 00 80 3f 00 00 80 3f 00 00 80 3f
       1.0 1.0 1.0 1.0
000170 00 00 80 3f 00 00 80 3f 00 00 80 3f 00 00 80 3f
       1.0 1.0 1.0 1.0
000180 00 00 80 3f 00 00 80 3f 00 00 80 3f 00 00 80 3f
       1.0 1.0 1.0 1.0
000190 00 00 80 3f 00 00 80 3f 00 00 80 3f 00 00 80 3f
       1.0 1.0 1.0 1.0
0001a0 00 00 80 3f 00 00 80 3f 00 00 80 3f 00 00 80 3f
       1.0 1.0 1.0 1.0
0001b0 00 00 80 3f 00 00 80 3f 00 00 80 3f 00 00 80 3f
       1.0 1.0 1.0 1.0
0001c0 00 00 80 3f 00 00 80 3f 00 00 80 3f 00 00 80 3f
       1.0 1.0 1.0 1.0
0001d0 00 00 80 3f 00 00 80 3f 00 00 80 3f 00 00 80 3f
       1.0 1.0 1.0 1.0
0001e0 00 00 80 3f 00 00 80 3f 00 00 80 3f 00 00 80 3f
       1.0 1.0 1.0 1.0
0001f0 00 00 80 3f 00 00 80 3f 00 00 80 3f 00 00 80 3f
       1.0 1.0 1.0 1.0

actor_fc_layers.blocks.2.block.0.weight f4 [128, 128]
000000 ad 62 b7 3c b7 49 10 bd 44 48 78 bd 48 d3 ee b8
       0.02238592 -0.03522655 -0.060615793 -0.000113880786
000010 5b 8c 47 bd 8d 43 8d 3d 6a 7d 19 bd 5d 53 6b bd
       -0.048717838 0.0689765 -0.03747312 -0.05745255
000020 4e 5a b6 bb 9b 2d 3e bd fe e7 dd bd a4 35 ce bd
       -0.0055649644 -0.04643021 -0.108352646 -0.10068825
000030 33 af bb 3a ed 52 85 bc ec 79 91 3d b3 f3 7a 3d
       0.0014319181 -0.016274894 0.07103333 0.061267566
000040 ad 8b 2e bd 95 fe 83 bd 07 8e b4 bd 89 cf 3f 3d
       -0.042613674 -0.06445042 -0.08816152 0.04682878
000050 26 9c a7 bc 11 22 a5 bd cd 51 b5 bd 60 6d 3a bc
       -0.0204602 -0.08063138 -0.08853493 -0.011378616
000060 ba 22 d4 bc 3d e0 6c 3c 99 59 d5 3c b6 ac 09 bd
       -0.025895465 0.014457759 0.0260437 -0.033611976
000070 14 56 a0 bd 5b 80 6a bd 1b 16 33 bd e7 85 4f bd
       -0.07828918 -0.057251316 -0.043722253 -0.05066481
000080 52 6d e9 3b dd 6e 91 3d 40 c9 b5 bd 18 55 d8 3c
       0.0071236277 0.071012236 -0.08876276 0.026407763
000090 91 4d b1 bd d8 de 46 bd 86 84 81 3d 28 fd 65 bc
       -0.08657373 -0.048552364 0.06324105 -0.014037408
0000a0 08 de 93 bc 26 24 ad bd f2 22 44 3d 77 90 90 3b
       -0.018050209 -0.084541604 0.04788489 0.004411753
0000b0 d4 47 85 bd f8 7f ae bc 7b cd 92 bd 61 9a b5 3b
       -0.06507841 -0.021301255 -0.071680985 0.005542085
0000c0 57 62 96 bb b3 27 37 3d 9a 7f 6b bd 0d b4 a4 bd
       -0.0045893597 0.044715595 -0.057494737 -0.080421545
0000d0 70 9e 4a 3d d1 5b 66 bd e1 c1 4a bc dc 6e 4c 3d
       0.049467504 -0.056239907 -0.012375326 0.04991041
0000e0 8f 38 e9 ba d0 56 b3 3d 66 a7 69 3b c9 e1 03 bc
       -0.0017793345 0.087567925 0.0035652756 -0.008049437
0000f0 22 f9 98 bd 40 40 67 3d 07 d1 cc bb e0 ab f3 bc
       -0.07469393 0.056457758 -0.006250504 -0.029745042
000100 98 20 54 bd 10 bc cd 3b 0b de 09 3c cc b5 43 bd
       -0.051788896 0.0062785223 0.008414756 -0.047780797
000110 4d 44 9e bd 91 cb 1c 3d 74 33 ad bd f7 68 19 3d
       -0.07727871 0.038280074 -0.084570795 0.037453618
000120 a7 92 eb bc 5a aa 87 3d 15 ae b0 bd 75 cd 05 bd
       -0.028756453 0.06624289 -0.086269535 -0.032666642
000130 6a 33 e0 bc 10 4f b9 bc 4f 09 cd bc a0 38 ae bd
       -0.027368266 -0.022620708 -0.025028853 -0.08506894
000140 b8 44 3c 3d e2 6a 0d bd e8 60 8c 3d 59 d0 0a bd
       0.045963973 -0.03452576 0.06854421 -0.033890102
000150 fe 30 a7 bd 38 f0 ab 3d 74 36 66 bc 5a 07 a1 3c
       -0.081636414 0.083954275 -0.014051069 0.019656826
000160 bb ea 21 3d 9a dc e3 bb 27 59 09 3d 6d 00 0a bd
       0.039530497 -0.006953788 0.033532288 -0.033691812
000170 4e 05 f4 3c 6b 24 41 bd 6b cc 9a bd 99 f0 8d 3d
       0.029787686 -0.04715387 -0.07558521 0.06930656
000180 14 30 75 bd 62 e0 94 bd 38 9c 93 3d 90 8b 6b 3d
       -0.059860304 -0.0726936 0.07207531 0.057506144
000190 83 21 61 3d 4d 6f 99 3d 0a 12 be 3c 0b 8f b3 3c
       0.0549636 0.07491932 0.023201961 0.021918794
0001a0 50 a8 91 3d 16 d1 c9 3c 12 0f e7 3b 7d 65 98 3d
       0.07112181 0.024635833 0.007051357 0.07441232
0001b0 42 a8 9f bd 1e 8b b4 bd e1 3a 20 3c e8 ff 38 bc
       -0.077957645 -0.08815597 0.009779663 -0.011291482
0001c0 e6 ca 2c bb 58 dc db bb 2b 0a c5 b8 09 2f 7c 3d
       -0.0026366054 -0.0067096166 -9.395586e-05 0.061568294
0001d0 05 3b 95 bd 25 59 94 bb 06 df 1b bd 29 55 56 3d
       -0.07286648 -0.0045272284 -0.03805449 0.05232731
0001e0 1e 73 9e 3d e2 42 a0 3a f9 c7 53 bd 2b bd 90 bd
       0.077368006 0.0012226964 -0.05170438 -0.07067331
0001f0 a0 b1 82 3c 7b 8d 69 bd bf eb 5e 3d 93 d8 ce bc
       0.015953839 -0.057019692 0.054424044 -0.025249755
000200 d4 5f 79 3d 21 f7 44 3d c4 39 9e 3d 4a fb 73 bd
       0.060882404 0.048087243 0.07725862 -0.05956582
000210 1c cd c3 3c b3 96 bf bd f1 98 92 3d e2 0e 98 bd
       0.023901515 -0.093549155 0.071580775 -0.07424714
000220 d3 9d 86 3d ca e3 16 bc 71 ad 65 bc f2 59 8c bd
       0.06573071 -0.009209583 -0.014018402 -0.06853093
000230 66 22 4b bd 2b 33 1f 3d de df 35 3d 8a 6d 03 3d
       -0.04959335 0.038867157 0.04440295 0.032086886
000240 bd 71 6b bc 7a fe 5b bd 91 7a f6 3c 37 4f e1 bc
       -0.014370379 -0.053709485 0.030087741 -0.027503593
000250 c6 d4 51 bd 25 86 9a 3d a0 1c 78 3d 69 95 14 bc
       -0.051228307 0.07545117 0.060574174 -0.009068825
000260 e5 9a 19 3d 15 79 96 3d 82 fd 1d bb 32 e8 fb 3c
       0.037501235 0.07347313 -0.0024107401 0.030750368
000270 6c a9 1f 3d fc 17 aa bd ed a8 1f 3d de 2d 82 bd
       0.038979933 -0.08305356 0.03897946 -0.06356405
000280 aa 6a aa bc 28 fe bc 3b af 7e 8e bd 3d b2 dc bc
       -0.020802815 0.0057676025 -0.06957757 -0.02694046
000290 22 51 8e 3d 3a 29 64 3c 0e 8c 83 bd 57 43 1d bc
       0.069490686 0.013925845 -0.06423198 -0.009598575
0002a0 b5 3d 74 3b f3 03 07 bc 91 a3 09 bd ac 7e 41 3a
       0.0037268226 -0.008240688 -0.033603255 0.00073812413
0002b0 2a 1e 9a 3d fb 1b 12 3c 7c 70 9a 3d bd 7b 63 3d
       0.075252846 0.008917804 0.07540986 0.055537928
0002c0 28 0e 35 3d fa f7 eb bb b0 bd 03 bd 95 a3 13 bc
       0.044202954 -0.007201192 -0.032163322 -0.009011169
0002d0 4c 01 b9 3d 03 90 39 bc 0a 19 86 3c 21 64 4f bd
       0.090334505 -0.011325839 0.016369361 -0.0506326
0002e0 82 f1 28 3c fc 7d 0e 3d ea 46 ba 3d d9 d3 f9 3c
       0.010311486 0.034788117 0.09095557 0.030496525
0002f0 b4 bf b1 bd f6 47 8f bb a1 18 e6 3c 74 b8 a3 3d
       -0.086791426 -0.004372592 0.028087916 0.07994166
000300 8d c0 4d 3d 71 06 35 bd 48 61 e8 3c b7 72 6c bd
       0.05023246 -0.044195596 0.0283667 -0.057726588
000310 88 90 a8 bc d3 ec 94 3c b8 9f e8 b9 11 93 4d 3d
       -0.02057673 0.018179333 -0.00044369488 0.05018908
000320 b8 86 92 3d 78 c3 82 bd 38 94 9a bd c0 4d 8e bc
       0.07154602 -0.06384939 -0.07547802 -0.017371058
000330 ac 3f 69 bd c4 33 0f 3c b3 89 12 bd a6 70 84 3d
       -0.056945488 0.008740369 -0.03577585 0.064667985
000340 dd 4e 2c 3d ee 79 a0 bd e3 37 a6 bc fc 10 4b 3c
       0.042067397 -0.07835756 -0.02029032 0.012394186
000350 5b 1e 70 bd 31 3b 7f 3c c9 6c c7 bc 45 41 c4 bd
       -0.0586227 0.015578077 -0.024343865 -0.09582762
000360 4e 8f ac 3d 12 b3 89 bd d0 e6 81 bd 2e da 72 bd
       0.08425771 -0.06723608 -0.06342852 -0.059290104
000370 af 2b 3c bd 59 98 0a bd c9 30 92 3b 18 ae a0 bb
       -0.045940097 -0.033836696 0.004461382 -0.004903566
000380 00 dd 48 3d e1 68 c4 bd 29 af aa bd 81 df c7 bd
       0.049038887 -0.095903166 -0.083341904 -0.09759427
000390 99 34 12 3c 50 77 40 3d b5 63 9a 3d 94 64 05 3d
       0.008923673 0.046988785 0.07538549 0.032566622
0003a0 59 f5 33 bd c7 6c 3a 3c 98 c6 96 bd 78 4d 7d 3d
       -0.043935154 0.011378474 -0.073620975 0.061841458
0003b0 c5 7e bc bd 00 26 36 bc 48 c8 c9 3c 51 25 a3 bc
       -0.09203867 -0.011117458 0.024631634 -0.019915255
0003c0 f0 74 91 bd a6 a3 a1 bd 84 79 f2 3b 07 db 35 3d
       -0.07102382 -0.078925416 0.0073997397 0.044398334
0003d0 73 a5 77 3d ba 7d 96 ba 4c a5 0c 3d 71 70 ff bb
       0.06046052 -0.0011481561 0.034337327 -0.0077953865
0003e0 ec 04 91 3d 0f 81 af bd e2 42 ac 3d a9 a2 d2 3c
       0.07081017 -0.08569538 0.084111944 0.025712328
0003f0 48 32 af bd 0d 39 eb 39 85 89 a0 bc 85 1a 78 bc
       -0.08554512 0.000448652 -0.019596824 -0.0151430415

actor_fc_layers.blocks.2.block.1.weight f4 [128]
000000 8b cb 79 3f 70 0b 7e 3f 5c ab 86 3f 32 06 7f 3f
       0.97576207 0.992362 1.0521045 0.9961883
000010 6d 6c 80 3f 11 54 7e 3f 25 aa 8a 3f c8 ca 78 3f
       1.0033089 0.99347025 1.0833174 0.9718442
000020 5e 74 83 3f ba aa 80 3f 5c 62 7e 3f 55 5f 85 3f
       1.0269887 1.0052102 0.99368834 1.0419718
000030 3d 27 81 3f 26 17 7f 3f e8 18 84 3f 65 a4 7c 3f
       1.00901 0.99644697 1.0320101 0.98688346
000040 4b a8 7b 3f 00 00 80 3f 73 d5 85 3f 90 73 7e 3f
       0.9830367 1.0 1.0455765 0.99395084
000050 c2 4e 80 3f 3b 30 79 3f 9b 49 7a 3f c8 be 7d 3f
       1.0024035 0.9733922 0.97768563 0.99119234
000060 22 a5 84 3f cb be 81 3f 98 80 7a 3f 0f 94 7b 3f
       1.0362895 1.013635 0.9785247 0.98272794
000070 8a 5e 7e 3f 1e 6e 7e 3f 37 68 87 3f f3 4c 79 3f
       0.99363005 0.99386775 1.0578679 0.9738304
000080 39 85 74 3f 3f 2e 7b 3f 12 b3 86 3f 41 a3 84 3f
       0.9551578 0.9811744 1.0523398 1.0362321
000090 8a f0 7a 3f 00 00 80 3f df ec 80 3f 93 cc 80 3f
       0.98023283 1.0 1.0072287 1.0062431
0000a0 01 2f 7b 3f 36 7e 80 3f 6f 2b 86 3f 9e bf 7e 3f
       0.981186 1.0038517 1.0482005 0.99511135
0000b0 ca 66 7a 3f 77 18 7a 3f 5e 1d 7a 3f 91 1e 80 3f
       0.97813094 0.9769358 0.9770106 1.0009328
0000c0 ac 25 7a 3f 16 39 7d 3f 68 24 87 3f b7 b6 7d 3f
       0.9771373 0.9891523 1.0557985 0.99106926
0000d0 10 1c 73 3f 1a 7c 7d 3f 31 b7 84 3f 18 14 7f 3f
       0.94964695 0.9901749 1.0368406 0.99640036
0000e0 5c 2f 80 3f a5 6c 7d 3f cd 32 7b 3f f0 4f 7f 3f
       1.0014453 0.98993903 0.9812439 0.9973135
0000f0 5f f8 73 3f 1a e0 7d 3f 1d 66 87 3f 5c 6f 7f 3f
       0.9530086 0.99170077 1.0578038 0.99779296
000100 83 bb 81 3f bd 88 88 3f 3a b1 7c 3f e6 f4 81 3f
       1.0135349 1.0666729 0.98707926 1.0152862
000110 25 55 7e 3f 9f 87 81 3f b1 4d 7e 3f 43 cb 7f 3f
       0.9934867 1.0119513 0.993373 0.9991953
000120 7a 74 79 3f e2 d9 76 3f 46 c9 78 3f 7e a6 7e 3f
       0.97443354 0.9642621 0.9718212 0.99472797
000130 94 8f 7c 3f bd b3 79 3f 97 9e 85 3f bf 7d 7b 3f
       0.9865658 0.97539884 1.0439023 0.9823875
000140 5c 8d 86 3f f2 aa 77 3f 37 5b 88 3f 63 76 7c 3f
       1.051189 0.96745217 1.0652837 0.98618144
000150 d2 c7 7d 3f 19 03 81 3f e0 7d 7a 3f d9 59 82 3f
       0.99133027 1.007907 0.9784832 1.0183669
000160 df f5 7e 3f 69 fa 7d 3f 2a da 89 3f 65 7d 83 3f
       0.9959392 0.9921022 1.0769703 1.0272642
000170 2a 8f 7e 3f 37 4a 7d 3f 30 58 7e 3f b2 ce 84 3f
       0.994372 0.9894137 0.99353313 1.0375578
000180 d4 1a 80 3f a2 8c 87 3f 68 75 80 3f 0c af 7c 3f
       1.0008187 1.0589793 1.003583 0.987046
000190 41 14 7f 3f 7e 04 87 3f c7 d7 80 3f c3 57 82 3f
       0.9964028 1.0548246 1.006585 1.0183033
0001a0 36 56 7d 3f d8 c7 76 3f 95 0a 82 3f 44 58 7d 3f
       0.9895967 0.9639869 1.0159479 0.9896281
0001b0 04 89 72 3f 20 e7 7c 3f 0a f2 82 3f 9f 79 89 3f
       0.9474032 0.9879017 1.0230114 1.0740241
0001c0 34 80 7e 3f 91 46 7d 3f 48 8d 7c 3f ca 1a 7d 3f
       0.9941437 0.989358 0.9865308 0.98869
0001d0 f5 52 86 3f 35 6c 7c 3f ce 23 80 3f 1f be 7e 3f
       1.0494066 0.9860261 1.0010927 0.9950885
0001e0 b4 b6 83 3f 0a 78 80 3f 75 00 81 3f 89 f8 82 3f
       1.0290132 1.0036633 1.0078264 1.0232097
0001f0 5f f7 7d 3f b3 f9 79 3f 27 35 89 3f 5b 0b 7a 3f
       0.99205583 0.97646636 1.0719346 0.9767358
