saved_models/agent_maddpgv2_vs_opp_maddpgv2_1_vs_1_1_big_5_sec_agent_best_models/maddpgv2_actor_0.pt (torch, 155659 bytes, 21 tensors)

actor_fc_layers.blocks.0.block.0.weight f4 [128, 12]
000000 18 63 c9 3e 49 9b e4 3b ba 7c 3a be 92 8b 5e 3d
       0.39333415 0.0069765192 -0.18211642 0.054332323
000010 50 d1 ec bc c0 18 26 bd 48 f3 3f be 2e e9 50 be
       -0.028908402 -0.040550947 -0.18745148 -0.20401451
000020 b1 9e f0 bd ff 00 41 3d 2a d9 98 3c 71 52 88 be
       -0.11749018 0.04712009 0.01865824 -0.26625398
000030 c0 18 a6 bd f1 86 8a 3d 34 c0 91 3c fd c9 3e be
       -0.081101894 0.06764019 0.017791845 -0.1863174
000040 31 40 7b 3e c1 32 09 3e d8 d8 73 bd d4 17 0a 3e
       0.24536206 0.13398267 -0.05953297 0.13485652
000050 59 05 bd bc 74 e6 10 bc ba b2 91 bd 8e 37 23 be
       -0.023073839 -0.008844007 -0.071141675 -0.15939161
000060 6e 97 57 3e aa ff 31 bd 49 5e 04 3e 90 05 81 bd
       0.2105386 -0.04345671 0.12926592 -0.06299889
000070 ad d4 14 3c 49 b4 68 be 80 52 bf bc a8 10 ac be
       0.009083909 -0.22725023 -0.023354769 -0.33606458
000080 d8 89 e5 3d 10 e0 e5 bd 98 17 d3 3d bb 7c 40 3e
       0.11207932 -0.11224377 0.103072345 0.18797581
000090 97 32 74 3e a9 19 85 bd ef 3b 7b be 0b ac c4 be
       0.23847423 -0.06499035 -0.24534582 -0.38412508
0000a0 2e be c5 be e7 25 c8 be 27 b3 3f 3e 38 23 08 3f
       -0.38621658 -0.39091417 0.18720685 0.5317874
0000b0 bd fa 35 3d 52 18 94 3d b5 05 e2 3c ca bd 41 bd
       0.044428576 0.07231201 0.027590612 -0.047300138
0000c0 19 f4 a5 3b 50 d1 0e bc 34 44 f8 bd 0a 4f 5c 3e
       0.005064499 -0.008716896 -0.12122384 0.21514526
0000d0 64 17 06 be 75 46 d6 3d 5e c6 33 be b3 29 40 3e
       -0.1309486 0.10462657 -0.1755614 0.18765907
0000e0 ae 4f 02 be 4b f2 a7 3d 62 4e 03 bd 7a e9 04 be
       -0.12725708 0.082005106 -0.032057174 -0.12979689
0000f0 7f f4 66 3e 35 5b 8e bc d8 66 ed 3e 9d da d5 3e
       0.22554205 -0.017377475 0.46367526 0.4176835
000100 69 b2 00 3f ae 53 db 3e 17 ce 00 3e 9e d6 04 bf
       0.5027223 0.4283728 0.12578617 -0.5188998
000110 4e a7 51 bd e8 81 c7 bd b7 1a 15 3e 27 44 7f be
       -0.051184945 -0.097415745 0.14560972 -0.24928342
000120 b7 24 b8 3e 20 56 84 ba c6 a8 7e 3d 7a 46 f0 3d
       0.3596551 -0.0010096468 0.062172674 0.11732192
000130 4c aa 6d be 90 93 af be f7 df d2 bd 5f 77 a4 be
       -0.23209494 -0.3429227 -0.10296624 -0.32122323
000140 4d 3f 90 be 63 af 8c bc b1 c0 25 3d 9d c3 f1 bd
       -0.28173295 -0.017173475 0.040466968 -0.118048884
000150 dc d9 5d bd 99 13 92 3b 26 68 38 bb e2 e6 d2 3a
       -0.054162845 0.0044579026 -0.002813825 0.0016090537
000160 d0 dc a4 3e ef cf 8e 3d 24 72 3b 3e 84 75 b7 be
       0.32199717 0.06973254 0.1830526 -0.35831845
000170 04 c0 e0 be 4e 9d 04 be a5 06 3a 3e 8b d0 e0 bd
       -0.43896496 -0.12950632 0.18166597 -0.109772764
000180 1c 30 44 3d 8b 43 fd bd d1 e1 25 3e 79 88 1c 3e
       0.047897443 -0.123663984 0.16199423 0.15286435
000190 15 5b 95 be 5b 11 de 3c 25 62 28 be 68 ef 31 3e
       -0.29171053 0.027107885 -0.16443689 0.17376482
0001a0 05 eb 89 3d d7 ce 6a bd 67 9c 1a bc b8 ff cb bd
       0.067342795 -0.057326164 -0.009436703 -0.09960884
0001b0 d8 6c 0e be b8 0c b6 3c 25 e5 79 bf a3 78 30 3e
       -0.13908708 0.022222862 -0.9761527 0.1723352
0001c0 96 8f a9 be 95 a1 01 be 8e 17 86 be 85 32 17 bf
       -0.3311736 -0.12659295 -0.26189846 -0.5906146
0001d0 d4 d9 55 3c da ae 26 be 00 5b 03 3e 8d 71 b3 bc
       0.013052423 -0.16277638 0.12827682 -0.021904731
0001e0 81 d6 e5 bd 94 24 08 bc 47 50 16 3f 98 0c e8 3e
       -0.11222554 -0.008309502 0.58716244 0.45322108
0001f0 f2 e9 fe 3d 13 54 10 3e 96 7c 29 be 81 51 bc 3e
       0.12446965 0.14094572 -0.16551432 0.36780933
000200 09 b5 0f be c2 87 63 3e 59 44 59 be 95 75 86 bd
       -0.14033903 0.22219756 -0.21217479 -0.06565396
000210 d2 f8 43 3e f0 d9 2e 3d 31 c0 31 3f 19 b8 11 3e
       0.19137886 0.04268831 0.69433886 0.14230384
000220 ec 57 6a 3e 9a 1d c9 bd ed a7 ed bd 7a b9 48 be
       0.22885102 -0.09820099 -0.11604295 -0.19602004
000230 f8 92 09 be 54 87 db bd 14 fb 02 3d f9 e6 9f be
       -0.1343497 -0.10719171 0.031977728 -0.31230906
000240 d8 9c 23 bd 94 55 6e be 5e 87 a5 be e7 76 96 3d
       -0.0399445 -0.23274833 -0.3232984 0.073468976
000250 7c 1c c5 be 10 69 25 3e a1 05 54 be 63 aa 85 3d
       -0.38498294 0.1615336 -0.20705272 0.06526639
000260 b2 95 2a be 93 9d 94 3d 76 72 0e 3e 2d 8d 2a be
       -0.16658667 0.072566174 0.13910851 -0.16655417
000270 4d be cc 3c 9a c6 68 bd fe a7 49 3f 5b 86 04 3f
       0.024993086 -0.056830026 0.7877196 0.5176751
000280 b0 0b 18 3f 01 1b c8 3e de 3c 40 3e af 54 f5 be
       0.59392834 0.39083102 0.18773219 -0.4791617
000290 f1 15 cc 3d 0b ac b4 bd 4b 47 4d 3d 6f 13 77 be
       0.099651225 -0.08821877 0.05011682 -0.24128507
0002a0 34 23 a0 3e ec 4e ae bd 75 43 6d 3c 9d 40 b6 bd
       0.31276858 -0.08511147 0.014481415 -0.08899043
0002b0 9d 33 b5 3d 5d 6a 46 be 9c 47 64 be 8b 12 aa bd
       0.08847735 -0.19376512 -0.22292942 -0.08304318
0002c0 45 45 8d 3d 4c 18 fb bd ab 26 ab 3d 61 39 f5 be
       0.06897978 -0.12260494 0.08356985 -0.4789534
0002d0 8f ae 0d be 91 50 b7 bb 4d a2 51 3e 30 a6 a8 bd
       -0.1383612 -0.005594321 0.20472069 -0.08234823
0002e0 99 aa 56 3e b1 7c 8f be 0d 27 56 be a9 cc 3e 3c
       0.20963515 -0.2802482 -0.20913334 0.0116454745
0002f0 05 98 ba be ab f4 5a be 8c 12 31 3e 33 2e a5 bd
       -0.36444107 -0.21382396 0.17292231 -0.080654524
000300 5b 86 a2 be 5f ab 1f bd fe 4b 02 3e 00 77 b5 bb
       -0.3174313 -0.03898179 0.12724301 -0.0055378675
000310 95 01 c2 3e 18 f0 29 be e4 52 39 3c 07 a8 a3 be
       0.37891832 -0.16595495 0.011311267 -0.31964132
000320 4c d9 23 3e 1f bf 36 3d 47 0d 9e 3d 6c f6 d5 bc
       0.16000861 0.04461586 0.07717376 -0.02611848
000330 8b 1b cc 3e 3c e7 50 b9 a4 37 2d bd 0f 6d 63 be
       0.39864764 -0.00019922567 -0.04228939 -0.22209571
000340 70 bf d1 bd d2 49 59 3d fc b2 86 bd ae c5 0b bf
       -0.10241592 0.053048916 -0.06577107 -0.5459851
000350 df 08 92 be 07 57 1b be fb 68 bc 3d 75 b6 98 be
       -0.28522393 -0.15169917 0.09199711 -0.29826704
000360 1a b9 56 be 0e b0 4b bc 92 20 91 bf 9f 33 05 3e
       -0.20969048 -0.012432111 -1.1338065 0.13007973
000370 21 52 19 be bb 59 50 3d 6b 50 51 bd 75 36 2b bf
       -0.14972736 0.050866824 -0.051102083 -0.6687997
000380 97 cc cd 3e d6 43 52 be fe a8 a1 3d cb f7 2c bd
       0.40195152 -0.2053369 0.07893561 -0.0422285
000390 31 90 c0 bd 29 b5 50 bc f6 3c d5 3d 38 09 1e be
       -0.09402502 -0.012738504 0.10412018 -0.15433204
0003a0 d1 5f 1d be 3c ff fe 3e 7f 28 da bd 49 ed 06 3e
       -0.15368582 0.49804103 -0.10652255 0.13176455
0003b0 b5 5e c1 be 11 76 a1 3e d8 d5 5d be fb 68 da 3b
       -0.37767568 0.3153539 -0.21663606 0.0066653467
0003c0 a0 be 36 be 2a f3 f8 bd bd 75 5f be e8 bf e2 bc
       -0.17846155 -0.12155755 -0.21822257 -0.027679399
0003d0 e3 12 3c be 6e 89 d3 bd 51 00 70 bd 1c 50 d1 bb
       -0.1836658 -0.10328947 -0.05859405 -0.0063877236
0003e0 c1 1a ab 3d ff 7d 58 bd 94 34 99 3e e7 b8 80 be
       0.08354712 -0.052854534 0.29922926 -0.2514107
0003f0 24 71 8e 3e 51 b6 f1 3b 80 d8 0a bf 8c fb 31 bf
       0.27820694 0.00737647 -0.542366 -0.69524455

actor_fc_layers.blocks.0.block.1.weight f4 [128]
000000 50 cc a4 3f 98 9a 7f 3f 75 20 77 3f 7a 02 52 3f
       1.2874851 0.99845266 0.965339 0.8203503
000010 d5 dd 12 3f f9 e2 b5 3f 3f aa 8d 3f 35 90 81 3f
       0.5736974 1.4209892 1.106758 1.0122133
000020 0a f7 46 3f 60 f9 8f 3f 8c f0 12 3f 4f 4a b0 3f
       0.777207 1.1247978 0.57398295 1.3772677
000030 6c 00 34 3f a9 4f b1 3f 4d 46 c1 3f 11 b0 b6 3e
       0.70313144 1.3852435 1.5099579 0.35681203
000040 0c 8f 82 3f 0a e8 b3 3f 14 ff c4 3f 22 87 83 3f
       1.0199904 1.4055188 1.5390344 1.0275614
000050 1d 87 6a 3f 77 d3 78 3f 43 43 76 3f c6 a5 92 3f
       0.91612417 0.9719767 0.96196383 1.145684
000060 dc c1 64 3f 41 ce 80 3f a8 f4 52 3f a4 28 9b 3f
       0.89358306 1.0062944 0.82404566 1.2121778
000070 05 97 79 3f b3 2c 8a 3f 52 79 93 3f 30 44 73 3f
       0.9749606 1.0794891 1.1521399 0.9502592
000080 89 b8 77 3f 81 b7 32 3f 51 20 d1 3e 98 53 83 3f
       0.96765953 0.69811255 0.40844968 1.0259886
000090 6e af 4d 3f b7 d2 a1 3e 94 41 4f 3f 81 ed 4b 3f
       0.8034581 0.31606075 0.8095944 0.7965928
0000a0 65 b6 f9 3e 11 75 7f 3f 9d 18 23 3f 5f 30 b8 3f
       0.48771968 0.99788004 0.6370943 1.4389762
0000b0 a0 ab 74 3f 65 02 b2 3f 80 a9 46 3f 2f c4 74 3f
       0.9557438 1.3906981 0.77602386 0.9561185
0000c0 c9 38 80 3f 7f 32 48 3f 94 96 65 3f 00 00 80 3f
       1.001733 0.7820205 0.8968289 1.0
0000d0 ad 0a 08 3f e6 a6 a9 3f fe 0a 8d 3f 76 22 57 3f
       0.5314129 1.3254058 1.101898 0.8403696
0000e0 62 84 71 3f 84 b9 4e 3f 12 4b 6c 3f d9 02 91 3f
       0.94342625 0.80751824 0.9230205 1.1328994
0000f0 83 69 92 3f ca 0e 95 3f a9 1f 74 3f 00 00 80 3f
       1.143845 1.1645138 0.9536081 1.0
000100 24 77 00 3f b7 22 44 3f 12 5b c8 3e 8e 26 75 3f
       0.50181794 0.7661547 0.3913198 0.95761955
000110 88 30 8f 3f eb 6d 89 3f a5 5b 7c 3f 06 ba 9e 3f
       1.1186686 1.0736669 0.9857734 1.240052
000120 a8 e6 d6 3e 6c da 65 3f 0e 1e 88 3f 1f 11 74 3f
       0.41972852 0.8978641 1.0634172 0.95338625
000130 82 09 60 3f 7e ed 45 3f 00 00 80 3f ff 92 85 3f
       0.8751451 0.7731551 1.0 1.0435485
000140 d4 43 7d 3f 00 a6 b7 3f 5c ef 42 3f 6f db 6d 3f
       0.9893162 1.4347534 0.76146483 0.92912954
000150 ec 5a 6d 3f 36 0d 4f 3f 00 00 80 3f 01 64 6c 3f
       0.9271686 0.80879533 1.0 0.92340094
000160 2f e0 36 3f 51 7e 4b 3f 87 39 9a 3f 94 35 80 3f
       0.71435827 0.7948962 1.2048806 1.0016351
000170 45 22 49 3f 00 00 80 3f 06 e4 83 3f 6b d6 51 3f
       0.78567916 1.0 1.0303962 0.819678
000180 f2 0d 42 3f 1d e5 84 3f 1e d5 7e 3f b3 cf 1a 3f
       0.7580253 1.038242 0.9954394 0.60473174
000190 41 12 90 3e ee 5f 5a 3f 68 76 87 3f 75 24 94 3f
       0.28138927 0.8530263 1.058301 1.1573626
0001a0 42 f8 23 3f 00 00 80 3f e8 b1 77 3f 1b 79 62 3f
       0.64050686 1.0 0.9675584 0.8846604
0001b0 9d ff 12 3f 57 86 7e 3f 8f 69 9b 3f 00 00 80 3f
       0.57421285 0.99423736 1.2141589 1.0
0001c0 11 83 c4 3f fb 64 10 3f 59 d7 25 3f f8 90 8c 3e
       1.5352498 0.56404084 0.6478172 0.27454352
0001d0 41 6d 4f 3f 00 00 80 3f 3f 13 70 3f 1d b6 6d 3f
       0.81026083 1.0 0.9377937 0.9285601
0001e0 0f 92 72 3f 10 9e 64 3f d9 91 18 3f 66 38 7d 3f
       0.9475412 0.89303684 0.59597546 0.9891418
0001f0 78 ef c0 3f 11 84 37 3f 60 f2 a4 3f 9e 8c 83 3f
       1.507308 0.7168589 1.2886467 1.0277288

actor_fc_layers.blocks.0.block.1.bias f4 [128]
000000 b2 ed b8 be eb c4 91 bc 70 87 04 bf a3 6c 0f be
       -0.36118847 -0.017794093 -0.5176916 -0.14006285
000010 7b 67 09 3f 8b c2 5d be 15 ad 24 bf 9b 37 1d 3e
       0.53673524 -0.21656244 -0.643266 0.15353243
000020 1f 8b 96 be a9 c7 3a 3d 3d 81 ba 3d 6f 87 a6 bd
       -0.29403016 0.045600567 0.091066815 -0.08131301
000030 4a 3a fa 3d 30 bf 87 3c 1c 28 68 be fe e5 9d 3e
       0.12218149 0.016570657 -0.2267155 0.30839533
000040 5b 98 52 be 78 8e 0a bf 16 df 1a be 03 f7 57 bc
       -0.20565931 -0.5412364 -0.15124163 -0.013181451
000050 10 24 39 3d d7 a8 d3 be 0d 5f 95 3e 98 95 ab bb
       0.045200408 -0.41339752 0.2917408 -0.005236339
000060 5a 70 21 bf 94 40 0a bd 58 48 7b be 90 5d 77 be
       -0.6306206 -0.033752993 -0.24539316 -0.24156785
000070 6e d3 7f be e2 91 b5 bd 2a c1 b7 be 26 5a 11 bf
       -0.24982998 -0.088657156 -0.3588956 -0.5677818
000080 48 59 d6 be 9c 38 4d be e0 bd 60 3e 81 fc 12 be
       -0.4186499 -0.20041126 0.21947432 -0.14354135
000090 4f 69 5d be 83 e0 26 3f 84 3d 86 be 05 ee f0 be
       -0.21622203 0.6518633 -0.26218808 -0.47056594
0000a0 1f 68 14 3f 3a ee 9e 3e 0b a9 13 be a2 6b e9 be
       0.57971376 0.31041127 -0.14419954 -0.4558993
0000b0 bb 3e 64 be 59 99 eb bd 8c a5 bc 3d 4d 85 31 bd
       -0.22289555 -0.11503858 0.09211263 -0.043340016
0000c0 25 04 36 be 93 07 26 bd 70 97 b7 bd 00 00 00 00
       -0.17775019 -0.040534567 -0.08964431 0.0
0000d0 6f 8e bc 3e a0 75 4c bb a5 f7 de 3d 28 f4 bd be
       0.36827418 -0.003119804 0.10887078 -0.3710034
0000e0 4e 5c a9 bd e8 2e ae be 8c 7a 08 be ab 02 5b bd
       -0.08269559 -0.34020162 -0.13327998 -0.05346934
0000f0 5e 24 0c bf d4 cd d0 bc 7e 07 17 bf 00 00 00 00
       -0.5474299 -0.025488771 -0.5899581 0.0
000100 f1 40 da 3e b5 ca 5b 3e 16 13 11 3f 02 e6 ef 3d
       0.4262767 0.21464045 0.5666975 0.117137924
000110 b2 82 91 3e dd dd 7c be ee 8d df bc b3 c4 87 be
       0.28420025 -0.24694009 -0.027289357 -0.26517257
000120 3e 95 e0 3e ad f4 f2 bd f0 c6 57 be 0d 9a 17 bf
       0.43863863 -0.118630745 -0.21071982 -0.5921944
000130 6e ce 2a bd 61 9d 49 be 00 00 00 00 06 a9 9d be
       -0.041700773 -0.19688942 0.0 -0.30793017
000140 25 32 81 bc ff fe a9 be 0f 2e c2 3c 49 96 fb be
       -0.015770981 -0.3320236 0.023703603 -0.49138096
000150 58 be 51 3e d5 a0 70 be 00 00 00 00 23 75 6c bc
       0.20482767 -0.23498853 0.0 -0.014432224
000160 1e 9b 25 bd 0e 14 8b 3e d8 99 05 be 95 d5 29 be
       -0.040431134 0.27163738 -0.13046968 -0.16585381
000170 a8 87 77 3e 00 00 00 00 f0 81 0d be 35 63 67 3e
       0.24172843 0.0 -0.13819098 0.22596438
000180 2c 35 77 be a3 69 28 bf d8 19 9e be fc be 16 3f
       -0.24141377 -0.6578619 -0.30879092 0.5888517
000190 0c 30 ac 3e 6a 44 6a be 53 6a 3e 3b 3a b9 30 be
       0.33630407 -0.2287766 0.0029055073 -0.17258158
0001a0 d6 f6 27 3f 00 00 00 00 e4 f5 37 3b 70 4b 2e bf
       0.65611017 0.0 0.0028070146 -0.6808386
0001b0 49 31 eb 3e 53 d6 74 bc 1a 17 89 bd 00 00 00 00
       0.4593604 -0.014943677 -0.066938594 0.0
0001c0 26 d5 5f be 5d b0 bb 3e 27 08 c0 3e ce 8d b1 3e
       -0.21858653 0.36657992 0.3750622 0.346785
0001d0 5a 16 d3 bd 00 00 00 00 a4 a0 47 3d c0 b3 9e be
       -0.103069976 0.0 0.048737183 -0.30996513
0001e0 35 18 8c be d6 15 2f 3e b6 5b bb 3e 31 f4 6e 3d
       -0.27362218 0.17098173 0.36593407 0.058338348
0001f0 e0 6c 8b be 74 00 ab be 6c aa 87 3c d9 d4 82 be
       -0.27231503 -0.33398783 0.016560756 -0.25553015

actor_fc_layers.blocks.0.block.1.running_mean f4 [128]
000000 00 00 00 00 00 00 00 00 00 00 00 00 00 00 00 00
       0.0 0.0 0.0 0.0
000010 00 00 00 00 00 00 00 00 00 00 00 00 00 00 00 00
       0.0 0.0 0.0 0.0
000020 00 00 00 00 00 00 00 00 00 00 00 00 00 00 00 00
       0.0 0.0 0.0 0.0
000030 00 00 00 00 00 00 00 00 00 00 00 00 00 00 00 00
       0.0 0.0 0.0 0.0
000040 00 00 00 00 00 00 00 00 00 00 00 00 00 00 00 00
       0.0 0.0 0.0 0.0
000050 00 00 00 00 00 00 00 00 00 00 00 00 00 00 00 00
       0.0 0.0 0.0 0.0
000060 00 00 00 00 00 00 00 00 00 00 00 00 00 00 00 00
       0.0 0.0 0.0 0.0
000070 00 00 00 00 00 00 00 00 00 00 00 00 00 00 00 00
       0.0 0.0 0.0 0.0
000080 00 00 00 00 00 00 00 00 00 00 00 00 00 00 00 00
       0.0 0.0 0.0 0.0
000090 00 00 00 00 00 00 00 00 00 00 00 00 00 00 00 00
       0.0 0.0 0.0 0.0
0000a0 00 00 00 00 00 00 00 00 00 00 00 00 00 00 00 00
       0.0 0.0 0.0 0.0
0000b0 00 00 00 00 00 00 00 00 00 00 00 00 00 00 00 00
       0.0 0.0 0.0 0.0
0000c0 00 00 00 00 00 00 00 00 00 00 00 00 00 00 00 00
       0.0 0.0 0.0 0.0
0000d0 00 00 00 00 00 00 00 00 00 00 00 00 00 00 00 00
       0.0 0.0 0.0 0.0
0000e0 00 00 00 00 00 00 00 00 00 00 00 00 00 00 00 00
       0.0 0.0 0.0 0.0
0000f0 00 00 00 00 00 00 00 00 00 00 00 00 00 00 00 00
       0.0 0.0 0.0 0.0
000100 00 00 00 00 00 00 00 00 00 00 00 00 00 00 00 00
       0.0 0.0 0.0 0.0
000110 00 00 00 00 00 00 00 00 00 00 00 00 00 00 00 00
       0.0 0.0 0.0 0.0
000120 00 00 00 00 00 00 00 00 00 00 00 00 00 00 00 00
       0.0 0.0 0.0 0.0
000130 00 00 00 00 00 00 00 00 00 00 00 00 00 00 00 00
       0.0 0.0 0.0 0.0
000140 00 00 00 00 00 00 00 00 00 00 00 00 00 00 00 00
       0.0 0.0 0.0 0.0
000150 00 00 00 00 00 00 00 00 00 00 00 00 00 00 00 00
       0.0 0.0 0.0 0.0
000160 00 00 00 00 00 00 00 00 00 00 00 00 00 00 00 00
       0.0 0.0 0.0 0.0
000170 00 00 00 00 00 00 00 00 00 00 00 00 00 00 00 00
       0.0 0.0 0.0 0.0
000180 00 00 00 00 00 00 00 00 00 00 00 00 00 00 00 00
       0.0 0.0 0.0 0.0
000190 00 00 00 00 00 00 00 00 00 00 00 00 00 00 00 00
       0.0 0.0 0.0 0.0
0001a0 00 00 00 00 00 00 00 00 00 00 00 00 00 00 00 00
       0.0 0.0 0.0 0.0
0001b0 00 00 00 00 00 00 00 00 00 00 00 00 00 00 00 00
       0.0 0.0 0.0 0.0
0001c0 00 00 00 00 00 00 00 00 00 00 00 00 00 00 00 00
       0.0 0.0 0.0 0.0
0001d0 00 00 00 00 00 00 00 00 00 00 00 00 00 00 00 00
       0.0 0.0 0.0 0.0
0001e0 00 00 00 00 00 00 00 00 00 00 00 00 00 00 00 00
       0.0 0.0 0.0 0.0
0001f0 00 00 00 00 00 00 00 00 00 00 00 00 00 00 00 00
       0.0 0.0 0.0 0.0

actor_fc_layers.blocks.0.block.1.running_var f4 [128]
000000 00 00 80 3f 00 00 80 3f 00 00 80 3f 00 00 80 3f
       1.0 1.0 1.0 1.0
000010 00 00 80 3f 00 00 80 3f 00 00 80 3f 00 00 80 3f
       1.0 1.0 1.0 1.0
000020 00 00 80 3f 00 00 80 3f 00 00 80 3f 00 00 80 3f
       1.0 1.0 1.0 1.0
000030 00 00 80 3f 00 00 80 3f 00 00 80 3f 00 00 80 3f
       1.0 1.0 1.0 1.0
000040 00 00 80 3f 00 00 80 3f 00 00 80 3f 00 00 80 3f
       1.0 1.0 1.0 1.0
000050 00 00 80 3f 00 00 80 3f 00 00 80 3f 00 00 80 3f
       1.0 1.0 1.0 1.0
000060 00 00 80 3f 00 00 80 3f 00 00 80 3f 00 00 80 3f
       1.0 1.0 1.0 1.0
000070 00 00 80 3f 00 00 80 3f 00 00 80 3f 00 00 80 3f
       1.0 1.0 1.0 1.0
000080 00 00 80 3f 00 00 80 3f 00 00 80 3f 00 00 80 3f
       1.0 1.0 1.0 1.0
000090 00 00 80 3f 00 00 80 3f 00 00 80 3f 00 00 80 3f
       1.0 1.0 1.0 1.0
0000a0 00 00 80 3f 00 00 80 3f 00 00 80 3f 00 00 80 3f
       1.0 1.0 1.0 1.0
0000b0 00 00 80 3f 00 00 80 3f 00 00 80 3f 00 00 80 3f
       1.0 1.0 1.0 1.0
0000c0 00 00 80 3f 00 00 80 3f 00 00 80 3f 00 00 80 3f
       1.0 1.0 1.0 1.0
0000d0 00 00 80 3f 00 00 80 3f 00 00 80 3f 00 00 80 3f
       1.0 1.0 1.0 1.0
0000e0 00 00 80 3f 00 00 80 3f 00 00 80 3f 00 00 80 3f
       1.0 1.0 1.0 1.0
0000f0 00 00 80 3f 00 00 80 3f 00 00 80 3f 00 00 80 3f
       1.0 1.0 1.0 1.0
000100 00 00 80 3f 00 00 80 3f 00 00 80 3f 00 00 80 3f
       1.0 1.0 1.0 1.0
000110 00 00 80 3f 00 00 80 3f 00 00 80 3f 00 00 80 3f
       1.0 1.0 1.0 1.0
000120 00 00 80 3f 00 00 80 3f 00 00 80 3f 00 00 80 3f
       1.0 1.0 1.0 1.0
000130 00 00 80 3f 00 00 80 3f 00 00 80 3f 00 00 80 3f
       1.0 1.0 1.0 1.0
000140 00 00 80 3f 00 00 80 3f 00 00 80 3f 00 00 80 3f
       1.0 1.0 1.0 1.0
000150 00 00 80 3f 00 00 80 3f 00 00 80 3f 00 00 80 3f
       1.0 1.0 1.0 1.0
000160 00 00 80 3f 00 00 80 3f 00 00 80 3f 00 00 80 3f
       1.0 1.0 1.0 1.0
000170 00 00 80 3f 00 00 80 3f 00 00 80 3f 00 00 80 3f
       1.0 1.0 1.0 1.0
000180 00 00 80 3f 00 00 80 3f 00 00 80 3f 00 00 80 3f
       1.0 1.0 1.0 1.0
000190 00 00 80 3f 00 00 80 3f 00 00 80 3f 00 00 80 3f
       1.0 1.0 1.0 1.0
0001a0 00 00 80 3f 00 00 80 3f 00 00 80 3f 00 00 80 3f
       1.0 1.0 1.0 1.0
0001b0 00 00 80 3f 00 00 80 3f 00 00 80 3f 00 00 80 3f
       1.0 1.0 1.0 1.0
0001c0 00 00 80 3f 00 00 80 3f 00 00 80 3f 00 00 80 3f
       1.0 1.0 1.0 1.0
0001d0 00 00 80 3f 00 00 80 3f 00 00 80 3f 00 00 80 3f
       1.0 1.0 1.0 1.0
0001e0 00 00 80 3f 00 00 80 3f 00 00 80 3f 00 00 80 3f
       1.0 1.0 1.0 1.0
0001f0 00 00 80 3f 00 00 80 3f 00 00 80 3f 00 00 80 3f
       1.0 1.0 1.0 1.0

actor_fc_layers.blocks.1.block.0.weight f4 [128, 128]
000000 74 40 8a be 9d 19 ab 3d d7 d2 a3 3d 8d 74 2d be
       -0.270023 0.08354495 0.07999199 -0.16938992
000010 b4 89 4a 3b 7d 18 2f be 38 4c 75 3d 73 00 8a bd
       0.0030904831 -0.17099185 0.05988714 -0.06738367
000020 7c b1 5c be 40 dd 80 bd ea 9d 62 3e 43 8f d8 bd
       -0.2155208 -0.062922 0.22130552 -0.105742
000030 a1 de 33 3b 41 a5 13 bd 4f 67 05 be 72 f5 d5 3c
       0.002744593 -0.03604627 -0.1302769 0.026118014
000040 8a bc 26 be cc 2d 52 be 0a 0c c5 3d 40 8e 25 3e
       -0.1628286 -0.20525283 0.09621437 0.16167545
000050 c6 6c 15 3e 3a b7 97 be 14 23 36 3d 52 da 02 bf
       0.14592275 -0.29631978 0.044467047 -0.5111438
000060 77 ca ba 3e 5b 38 35 3e 28 bf 44 3e e0 55 c8 3c
       0.36482593 0.17697279 0.19213545 0.02445501
000070 01 fe a3 be 4c 75 46 be c4 7a 12 bf 6d 51 8a 3d
       -0.32029727 -0.19380683 -0.57218575 0.06753812
000080 66 b8 6b be 34 4e 9e bd c9 ed a3 bd 9f 75 d8 3d
       -0.23019561 -0.0772976 -0.08004338 0.105693094
000090 ed b9 7d be 0a 8c 7d 3e 09 04 5a 3e 52 67 10 bf
       -0.24777956 0.24760452 0.21290602 -0.56407654
0000a0 85 30 cb be 73 ed 3d 3e 02 54 8a bc 88 bc 3c 3d
       -0.39685455 0.18547611 -0.016885761 0.046078235
0000b0 2a 64 60 3e a9 94 cd 3e 76 67 74 be 84 30 a7 bd
       0.2191321 0.4015248 -0.23867592 -0.081635505
0000c0 36 3e 4d bd 6f 29 2d 3d c7 41 6e 3d fc 31 65 bd
       -0.050108157 0.042275842 0.0581682 -0.055955872
0000d0 26 75 16 3e ca 86 37 be 4c 54 11 3e b8 4d 06 3e
       0.14693126 -0.17922512 0.14192313 0.13115585
0000e0 c1 92 d8 3d d3 5c d7 3d 6d 99 6c 3d fb 44 00 bf
       0.10574866 0.10515752 0.057763506 -0.50105256
0000f0 9e 3d 87 3d 33 6e 63 be 05 49 b3 3d 69 eb 55 bd
       0.066035494 -0.22210006 0.08754162 -0.052226458
000100 2f ba c1 39 a6 e0 c6 be 43 8d 6b bc 77 1e ae 3d
       0.00036950546 -0.38843268 -0.014376941 0.085019045
000110 02 13 11 bf bc 0f 5d 3e 89 f9 76 bd e4 f4 d0 be
       -0.5666963 0.21588033 -0.06029657 -0.40811837
000120 a0 98 5c 3d c3 d4 6a 3d 60 00 fb bc d5 62 64 3d
       0.053856492 0.05733181 -0.030639827 0.055758316
000130 da 0f 8d be d5 54 0e bd 79 4d 39 bd 62 34 3f 3e
       -0.27551156 -0.03474887 -0.0452399 0.18672326
000140 b3 53 a9 3d c2 c1 f1 bd cc 8e 63 be 97 c0 d7 3d
       0.082679175 -0.118045345 -0.22222441 0.105347805
000150 da 4f 00 3e 40 16 0a be 77 a0 6a 3d 49 7d 5e be
       0.12530461 -0.1348505 0.057281937 -0.2172748
000160 2c 78 92 bd 84 54 85 3a 2d e5 5b 3d d7 60 e0 3c
       -0.07151827 0.0010172282 0.053685356 0.027389927
000170 93 52 8d be 7f cf 5a bd 3c 74 90 bb 62 fc 38 be
       -0.27602062 -0.05342054 -0.0044083875 -0.18065026
000180 ae 3b f1 bd c7 ae b2 3e 6f 2c 7e 3b 68 98 cf be
       -0.11778961 0.3489897 0.0038783809 -0.40545964
000190 d2 f7 43 3e f7 ee 01 3e 38 68 2e bf 52 4c 98 3d
       0.19137505 0.12688814 -0.68127775 0.07436432
0001a0 9f 8b 1b be 8c 6f 82 3c ca 81 83 be a1 ba a9 3e
       -0.1518998 0.01592233 -0.2568496 0.331502
0001b0 22 f5 5a bc fd bc 46 3d 55 f1 62 bc 4b 14 64 3d
       -0.013364108 0.048520077 -0.013851483 0.055683415
0001c0 e6 97 d6 be 8d b1 69 bd 14 44 8c 3e 87 e0 f7 3d
       -0.41912764 -0.05705409 0.2739569 0.12103372
0001d0 74 1d 8f 3d ed f3 36 bb 57 6b 51 3d 4a b4 75 bd
       0.069880396 -0.0027916387 0.051127758 -0.05998639
0001e0 a2 30 8b 3e 16 f0 37 3e a8 5b db 3d 1c 34 38 be
       0.2718554 0.1796268 0.107108414 -0.17988628
0001f0 51 ae 24 be 86 66 be 3c c4 48 d4 be 15 4f 90 be
       -0.16082121 0.023242246 -0.41461766 -0.28185335
000200 c6 2f 84 be dc 62 3e bd 06 f7 ea bd 8b e5 8c 3c
       -0.25817698 -0.046481 -0.11472897 0.017199298
000210 90 1b 16 3e 94 dd 44 be b6 d7 d9 bd 6c 9c 4c be
       0.14658952 -0.1922515 -0.10636847 -0.19981545
000220 3c 80 94 3c 25 d9 87 be 85 7a f8 bd 36 4c 4e be
       0.018127553 -0.26532856 -0.12132744 -0.2014626
000230 d0 11 f9 bd a6 49 54 be 7d 02 6a be 6b d7 12 3b
       -0.121616006 -0.2073122 -0.22852512 0.002240623
000240 41 61 65 3d 17 52 9b be 51 9f 11 bf 81 99 68 bd
       0.05600095 -0.30336067 -0.5688372 -0.056787018
000250 1a c0 82 bb 88 53 2c bc 83 ad 3f be 20 d6 e7 3c
       -0.0039901854 -0.010517962 -0.18718533 0.028300345
000260 b0 bc 3f be 69 1b 5a 3d 28 3e f7 bd 26 cb 2d be
       -0.18724322 0.053248797 -0.12072402 -0.16972026
000270 77 11 19 be a9 90 cb bd a2 b4 cc bd 7b 16 91 bd
       -0.14948069 -0.09939701 -0.099953905 -0.07084366
000280 9e d8 84 3d 4d 4b ad 3d 55 e3 ac 3d 78 d9 50 3d
       0.06486629 0.08461628 0.08441798 0.050988644
000290 ff ee c5 bd b4 d1 97 3d dc 28 19 be 4c 0a 1d 3d
       -0.096647255 0.074130446 -0.14956993 0.038339898
0002a0 6a 52 82 bc 7f c1 9d be 9e de 77 ba 77 ec 2a 3b
       -0.015908439 -0.30811688 -0.0009455475 0.0026080885
0002b0 dc 84 1d be 85 56 74 be 2e 12 e7 bd 43 7d 80 bd
       -0.15382713 -0.2386113 -0.112827644 -0.06273892
0002c0 40 13 ca bd e4 c0 d3 3d 44 c2 39 3d f9 d2 0f bd
       -0.09866953 0.10339525 0.04535128 -0.03511331
0002d0 9b 77 33 3e d1 57 9a be a4 be d4 bd d4 0a 04 bd
       0.17526095 -0.30145124 -0.10387924 -0.03223689
0002e0 a1 d2 7f be 7b 03 25 be 80 94 5d 3d ac 85 c4 bd
       -0.24982692 -0.16114609 0.0540967 -0.095958084
0002f0 01 67 4a be f2 88 e1 bc 79 f2 d7 bd c6 06 e9 bc
       -0.19765855 -0.02753112 -0.10544295 -0.028445613
000300 bc 48 ea bc 74 24 bc 3d 0b 17 22 3e f2 76 28 bd
       -0.028599136 0.091866404 0.15829103 -0.04112906
000310 2f 1f d9 3d 08 4c f5 bd 04 94 99 bd bc b5 95 be
       0.10601651 -0.119773924 -0.07498935 -0.29240215
000320 e6 0c f7 3d b5 dc 07 3e 4f 58 4d bd 11 c4 8d bd
       0.12063007 0.13267787 -0.050133046 -0.06922162
000330 57 43 2b 3e b3 8e 96 bd 9f 24 a7 3b c9 a1 4d be
       0.16724907 -0.073514365 0.005100801 -0.20081247
000340 ab af 10 bb 75 8d 8f be 14 69 75 3c fb d9 0c bd
       -0.0022077363 -0.2803761 0.014978666 -0.03438757
000350 ce 4f 34 be 7e 02 af 3d 9d 9b 51 3d 0e 43 27 be
       -0.17608568 0.08545397 0.051173795 -0.16334173
000360 ba e0 b4 bb f0 ed 12 3e 4a 8c 8c 3d f3 dd cc bc
       -0.0055199536 0.14348578 0.068626955 -0.025008177
000370 3e b7 89 3d d3 d3 9b 3d d1 44 0b 3e ad 96 27 be
       0.06724404 0.07608762 0.1360047 -0.16366072
000380 71 0f ad bb 69 16 2e be 4d 24 98 be cc e3 7d 3e
       -0.005281382 -0.17000736 -0.29715195 0.24793929
000390 1d e4 b6 bc 38 f6 40 be 44 b5 12 3c 25 9a bc be
       -0.02232557 -0.18843925 0.00895435 -0.36836353
0003a0 4e d8 2d 3e 39 62 a9 3d b7 00 9f bd ac cb 7d be
       0.16977045 0.082706876 -0.07763808 -0.24784726
0003b0 9f ed 8d 3d 04 2f 86 bd f8 c8 b9 be 85 da 06 3d
       0.06930088 -0.06551936 -0.3628614 0.03292324
0003c0 f6 b1 18 be 47 8f 7e 3d 09 7a 54 3e d3 d1 0c bd
       -0.14911637 0.06214836 0.20749678 -0.03437979
0003d0 84 27 c3 bd f4 90 6c 3d 5e 59 b8 bd 5d 6c 87 bc
       -0.095290214 0.057755426 -0.090014204 -0.016531164
0003e0 f8 5a 76 bd f1 21 48 3d 93 fa 3f 3d c6 c5 bf be
       -0.06014535 0.048860494 0.046869826 -0.37455577
0003f0 e9 19 ad bd 9d 1a bd bb 73 77 8a 3d e7 d8 46 be
       -0.084522076 -0.005770995 0.067610644 -0.19418679

actor_fc_layers.blocks.1.block.1.weight f4 [128]
000000 f6 f4 82 3f b0 11 9d 3f e3 c1 8a 3f 15 97 81 3f
       1.0231006 1.2271023 1.084042 1.0124232
000010 e3 cf 96 3f 61 16 7b 3f 6d 6e 9b 3f ec bc a1 3f
       1.1782192 0.9808102 1.2143074 1.2635779
000020 7c 1b a9 3f 2e ce 7a 3f fd 68 79 3f 26 69 98 3f
       1.3211513 0.97970855 0.97425824 1.1907089
000030 8e 7b 94 3f 8b 2c b5 3f 66 58 8f 3f 7a 52 80 3f
       1.1600206 1.4154218 1.1198852 1.002517
000040 af 46 8d 3f f0 54 7d 3f f1 8f 7d 3f df 00 73 3f
       1.1037196 0.9895773 0.9904776 0.94923204
000050 58 ab 7c 3f a4 47 86 3f f6 92 56 3f a3 ea 7a 3f
       0.9869895 1.0490613 0.83817995 0.9801428
000060 55 6c 7a 3f 0c d8 73 3f 83 6d cc 3f ae fc a6 3f
       0.9782155 0.95251536 1.597092 1.3045862
000070 e9 1c cc 3f 03 2f 73 3f fe b0 76 3f 3c a3 b3 3f
       1.5946323 0.9499361 0.9636382 1.403419
000080 d2 43 90 3f 5d 45 73 3f 53 ad 76 3f 0c 65 c3 3f
       1.1270697 0.95027715 0.9635822 1.5265212
000090 0a 2e a8 3f 82 7e e0 3f cc 1e 65 3f bf 72 81 3f
       1.313905 1.7538607 0.8950012 1.0113143
0000a0 ea 7c 83 3f 32 c3 8e 3f 7c 8b b2 3f 32 c1 8b 3f
       1.0272496 1.1153319 1.3948817 1.0918334
0000b0 de b3 7b 3f 6d 1c 7b 3f d0 95 8e 3f 85 81 9b 3f
       0.9832133 0.9809025 1.1139469 1.2148901
0000c0 d7 2d 82 3f 52 93 a5 3f 15 fc ae 3f 52 5a 78 3f
       1.0170239 1.2935584 1.3670679 0.9701282
0000d0 c8 5d 7a 3f 64 dd 84 3f 73 f4 9d 3f 37 b8 75 3f
       0.9779935 1.0380063 1.2340225 0.95984215
0000e0 01 e0 b6 3f cf 62 b3 3f f3 a5 7c 3f 94 75 8f 3f
       1.428711 1.4014529 0.9869072 1.1207757
0000f0 c1 db 92 3f 35 5b 68 3f 67 43 96 3f 03 78 8c 3f
       1.1473314 0.9076417 1.173932 1.0974125
000100 74 2b 7b 3f 03 d7 c9 3f ee 12 86 3f 43 2f 78 3f
       0.9811318 1.5768741 1.0474527 0.96947116
000110 60 2d 7c 3f a8 88 7d 3f 1c ce 8b 3f 74 da 76 3f
       0.98506737 0.99036646 1.0922275 0.96427083
000120 15 5b 87 3f 4e ae 8f 3f 76 5f a3 3f af 57 7a 3f
       1.0574671 1.1225069 1.2763507 0.97790045
000130 b2 61 95 3f 24 b9 ae 3f 69 43 aa 3f 9a 43 f3 3f
       1.1670439 1.365025 1.3301822 1.9005005
000140 bb 54 c1 3f 99 d3 63 3f bc 32 b4 3f 57 48 92 3f
       1.5103983 0.8899475 1.4077983 1.1428326
000150 fa 4d 79 3f 79 a7 72 3f 32 ef 87 3f 02 3b 75 3f
       0.9738461 0.94786793 1.0619872 0.95793164
000160 60 aa 78 3f 57 78 a8 3f ba 23 78 3f e6 62 9b 3f
       0.9713497 1.3161725 0.96929514 1.2139556
000170 cf ac 70 3f 33 a9 72 3f 3e d7 7e 3f a2 ba 8e 3f
       0.94013685 0.9478943 0.99547184 1.1150706
000180 83 56 7c 3f e6 a3 bd 3f b5 39 ba 3f e6 91 79 3f
       0.98569506 1.4815643 1.4548861 0.9748825
000190 e6 df b7 3f 4f 08 9f 3f 6d a9 79 3f a1 12 85 3f
       1.4365203 1.242441 0.9752415 1.039631
0001a0 c9 cc 7b 3f 76 fe 73 3f 9f d6 04 40 5a a2 77 3f
       0.9835935 0.9531015 2.0755994 0.96732104
0001b0 b5 67 9e 3f 21 dc 7c 3f 37 57 7d 3f 94 e1 76 3f
       1.2375399 0.9877339 0.98961204 0.96437955
0001c0 65 64 7c 3f 99 33 78 3f 66 53 b2 3f 75 13 6f 3f
       0.9859069 0.9695373 1.3931701 0.93389064
0001d0 87 13 74 3f 69 53 85 3f 39 49 6a 3f ae 9c ac 3f
       0.95342296 1.041608 0.9151798 1.3485315
0001e0 a2 bc a7 3f a0 b4 98 3f 4d 4b 75 3f 2c f8 6c 3f
       1.3104441 1.1930122 0.95818025 0.9256618
0001f0 60 48 90 3f 93 e6 75 3f 9a c9 76 3f d4 8f af 3f
       1.1272087 0.96054953 0.9640137 1.3715768

actor_fc_layers.blocks.1.block.1.bias f4 [128]
000000 ad b3 88 be 30 44 93 3d 5a 83 61 3e e1 7b c4 3d
       -0.26699582 0.0719074 0.22022763 0.095939405
000010 12 6b aa 3e 5f 81 2d bd dc 37 c8 3e 2a fc 23 3e
       0.33284813 -0.042359706 0.39105117 0.16014162
000020 0a d4 03 3e 82 69 17 bd 9c 97 57 bd cb 1a dc bd
       0.12873855 -0.036965854 -0.05263482 -0.10747298
000030 02 e8 ed 3d 7c 48 f1 3e 3c 16 65 3e 35 a5 b5 3c
       0.116165176 0.47125614 0.22371763 0.022173503
000040 53 0c ad 3e 0f 6c 4f bd 90 1c 4c bd 66 6b bc 3e
       0.33798465 -0.050640162 -0.049831927 0.36800689
000050 4d fc dc 3c c3 0c cf bd f5 c8 76 3e ba cc 5d bd
       0.026975775 -0.10109856 0.24100097 -0.05415032
000060 66 8d 11 bd 7f 6d 6c bd 82 70 f2 3e 76 65 cf 3e
       -0.03553524 -0.05772161 0.47351462 0.40507096
000070 14 f2 1b 3e 30 0a 9b bd 93 cb 60 bd 59 01 cb bd
       0.15229064 -0.075703025 -0.054881644 -0.099123664
000080 ca f4 1d 3d 17 05 b4 bc ed cf 9b bd aa 3d 73 3e
       0.038563527 -0.021975083 -0.07608018 0.23753992
000090 b2 9a bc 3d fd 64 67 3e 61 dc 78 bd 22 3a 11 bf
       0.09209193 0.22597118 -0.060757045 -0.5672933
0000a0 0d 53 eb 3d f8 41 4c 3e fc dc 00 3f 26 78 83 be
       0.1149045 0.1994704 0.50337195 -0.25677603
0000b0 4e 5f 12 bd db f6 0b bd 79 f7 3f 3e d2 fd 2d be
       -0.03573542 -0.034170967 0.18746747 -0.16991356
0000c0 b7 9e 48 3d e7 40 f3 3e 55 ec aa 3e d6 53 fb bc
       0.048979487 0.47510454 0.33383432 -0.030679625
0000d0 12 7a ab bd 88 5a e6 bd c9 ad 02 3f 02 9c 51 bc
       -0.083728924 -0.11247736 0.51046425 -0.012793543
0000e0 55 78 98 3e 20 ee eb 3e 66 64 21 bd bb 0c bc 3e
       0.29779306 0.46080112 -0.039402388 0.36728463
0000f0 7f 04 9a be 21 9e c3 3e ae cf 84 3e 9b 87 38 3e
       -0.30081555 0.3820658 0.25939697 0.1802048
000100 12 47 0a bd 5c 56 40 3e 06 a1 35 be 7e 82 2f bd
       -0.033759184 0.18782943 -0.17737207 -0.042849056
000110 80 27 f8 bc 17 27 ec bc 57 2b 54 3e e4 f6 0b bd
       -0.030292273 -0.028827233 0.20719658 -0.034171
000120 4c 54 00 3b 3d 00 af be 68 15 d5 be 5c 6c 8a be
       0.0019581495 -0.3417987 -0.41617894 -0.27035797
000130 29 c7 33 3e a9 51 a6 3e 18 cd 89 be c1 52 07 3f
       0.17556442 0.32484177 -0.26914287 0.5286065
000140 6c 71 7e be 35 2f 9c be d4 15 0b bc 07 bc 72 3e
       -0.24847955 -0.30504766 -0.008489091 0.23704539
000150 fa 91 5a bd 85 63 95 bd 89 a3 8d 3e e1 dd f4 bc
       -0.05336187 -0.072943725 0.2766383 -0.029890956
000160 b9 42 44 bd 23 b8 d9 be 5f b5 2c bd e1 f5 a7 3c
       -0.047915194 -0.42523298 -0.042165156 0.020502986
000170 4c f6 9e bc c5 e6 6f be 2b 1b 0e be 47 91 a6 3d
       -0.019404553 -0.23427875 -0.13877551 0.08133178
000180 f8 72 6d bd 1c 3f 7d 3e 39 b5 95 be ab ec d7 bd
       -0.05797097 0.24731106 -0.29239824 -0.10543188
000190 e2 b8 e6 3e 1b 08 5d 3d 09 3c 4f bd 16 11 01 3f
       0.4506293 0.053962808 -0.050594363 0.50416696
0001a0 5c ee 2f bd 8f 78 3e 3c 45 0b 14 3f 73 66 1b 3e
       -0.042951927 0.011625423 0.57829696 0.151758
0001b0 59 02 bf 3e 58 0a 48 bd 73 7f 73 3e 0e 8c 18 bd
       0.3730648 -0.04883799 0.23779087 -0.03724294
0001c0 de dc 60 bd 3d 33 85 bd a5 8c a3 3e e7 26 93 bd
       -0.054898135 -0.065039136 0.3194324 -0.071851544
0001d0 5f d7 8a bd c4 ca 7c bd 1d 5d 3f bc dd 87 9c 3e
       -0.0677936 -0.06171681 -0.011679915 0.30572405
0001e0 59 a8 df 3e 07 18 3f 3e 3d 8d 35 bc 25 00 12 be
       0.43683127 0.1866151 -0.011081037 -0.14257868
0001f0 a1 06 17 be d1 10 92 bd 05 46 f9 3d 8f b3 ff bb
       -0.14748622 -0.07132114 0.12171558 -0.0078033875

actor_fc_layers.blocks.1.block.1.running_mean f4 [128]
000000 00 00 00 00 00 00 00 00 00 00 00 00 00 00 00 00
       0.0 0.0 0.0 0.0
000010 00 00 00 00 00 00 00 00 00 00 00 00 00 00 00 00
       0.0 0.0 0.0 0.0
000020 00 00 00 00 00 00 00 00 00 00 00 00 00 00 00 00
       0.0 0.0 0.0 0.0
000030 00 00 00 00 00 00 00 00 00 00 00 00 00 00 00 00
       0.0 0.0 0.0 0.0
000040 00 00 00 00 00 00 00 00 00 00 00 00 00 00 00 00
       0.0 0.0 0.0 0.0
000050 00 00 00 00 00 00 00 00 00 00 00 00 00 00 00 00
       0.0 0.0 0.0 0.0
000060 00 00 00 00 00 00 00 00 00 00 00 00 00 00 00 00
       0.0 0.0 0.0 0.0
000070 00 00 00 00 00 00 00 00 00 00 00 00 00 00 00 00
       0.0 0.0 0.0 0.0
000080 00 00 00 00 00 00 00 00 00 00 00 00 00 00 00 00
       0.0 0.0 0.0 0.0
000090 00 00 00 00 00 00 00 00 00 00 00 00 00 00 00 00
       0.0 0.0 0.0 0.0
0000a0 00 00 00 00 00 00 00 00 00 00 00 00 00 00 00 00
       0.0 0.0 0.0 0.0
0000b0 00 00 00 00 00 00 00 00 00 00 00 00 00 00 00 00
       0.0 0.0 0.0 0.0
0000c0 00 00 00 00 00 00 00 00 00 00 00 00 00 00 00 00
       0.0 0.0 0.0 0.0
0000d0 00 00 00 00 00 00 00 00 00 00 00 00 00 00 00 00
       0.0 0.0 0.0 0.0
0000e0 00 00 00 00 00 00 00 00 00 00 00 00 00 00 00 00
       0.0 0.0 0.0 0.0
0000f0 00 00 00 00 00 00 00 00 00 00 00 00 00 00 00 00
       0.0 0.0 0.0 0.0
000100 00 00 00 00 00 00 00 00 00 00 00 00 00 00 00 00
       0.0 0.0 0.0 0.0
000110 00 00 00 00 00 00 00 00 00 00 00 00 00 00 00 00
       0.0 0.0 0.0 0.0
000120 00 00 00 00 00 00 00 00 00 00 00 00 00 00 00 00
       0.0 0.0 0.0 0.0
000130 00 00 00 00 00 00 00 00 00 00 00 00 00 00 00 00
       0.0 0.0 0.0 0.0
000140 00 00 00 00 00 00 00 00 00 00 00 00 00 00 00 00
       0.0 0.0 0.0 0.0
000150 00 00 00 00 00 00 00 00 00 00 00 00 00 00 00 00
       0.0 0.0 0.0 0.0
000160 00 00 00 00 00 00 00 00 00 00 00 00 00 00 00 00
       0.0 0.0 0.0 0.0
000170 00 00 00 00 00 00 00 00 00 00 00 00 00 00 00 00
       0.0 0.0 0.0 0.0
000180 00 00 00 00 00 00 00 00 00 00 00 00 00 00 00 00
       0.0 0.0 0.0 0.0
000190 00 00 00 00 00 00 00 00 00 00 00 00 00 00 00 00
       0.0 0.0 0.0 0.0
0001a0 00 00 00 00 00 00 00 00 00 00 00 00 00 00 00 00
       0.0 0.0 0.0 0.0
0001b0 00 00 00 00 00 00 00 00 00 00 00 00 00 00 00 00
       0.0 0.0 0.0 0.0
0001c0 00 00 00 00 00 00 00 00 00 00 00 00 00 00 00 00
       0.0 0.0 0.0 0.0
0001d0 00 00 00 00 00 00 00 00 00 00 00 00 00 00 00 00
       0.0 0.0 0.0 0.0
0001e0 00 00 00 00 00 00 00 00 00 00 00 00 00 00 00 00
       0.0 0.0 0.0 0.0
0001f0 00 00 00 00 00 00 00 00 00 00 00 00 00 00 00 00
       0.0 0.0 0.0 0.0

actor_fc_layers.blocks.1.block.1.running_var f4 [128]
000000 00 00 80 3f 00 00 80 3f 00 00 80 3f 00 00 80 3f
       1.0 1.0 1.0 1.0
000010 00 00 80 3f 00 00 80 3f 00 00 80 3f 00 00 80 3f
       1.0 1.0 1.0 1.0
000020 00 00 80 3f 00 00 80 3f 00 00 80 3f 00 00 80 3f
       1.0 1.0 1.0 1.0
000030 00 00 80 3f 00 00 80 3f 00 00 80 3f 00 00 80 3f
       1.0 1.0 1.0 1.0
000040 00 00 80 3f 00 00 80 3f 00 00 80 3f 00 00 80 3f
       1.0 1.0 1.0 1.0
000050 00 00 80 3f 00 00 80 3f 00 00 80 3f 00 00 80 3f
       1.0 1.0 1.0 1.0
000060 00 00 80 3f 00 00 80 3f 00 00 80 3f 00 00 80 3f
       1.0 1.0 1.0 1.0
000070 00 00 80 3f 00 00 80 3f 00 00 80 3f 00 00 80 3f
       1.0 1.0 1.0 1.0
000080 00 00 80 3f 00 00 80 3f 00 00 80 3f 00 00 80 3f
       1.0 1.0 1.0 1.0
000090 00 00 80 3f 00 00 80 3f 00 00 80 3f 00 00 80 3f
       1.0 1.0 1.0 1.0
0000a0 00 00 80 3f 00 00 80 3f 00 00 80 3f 00 00 80 3f
       1.0 1.0 1.0 1.0
0000b0 00 00 80 3f 00 00 80 3f 00 00 80 3f 00 00 80 3f
       1.0 1.0 1.0 1.0
0000c0 00 00 80 3f 00 00 80 3f 00 00 80 3f 00 00 80 3f
       1.0 1.0 1.0 1.0
0000d0 00 00 80 3f 00 00 80 3f 00 00 80 3f 00 00 80 3f
       1.0 1.0 1.0 1.0
0000e0 00 00 80 3f 00 00 80 3f 00 00 80 3f 00 00 80 3f
       1.0 1.0 1.0 1.0
0000f0 00 00 80 3f 00 00 80 3f 00 00 80 3f 00 00 80 3f
       1.0 1.0 1.0 1.0
000100 00 00 80 3f 00 00 80 3f 00 00 80 3f 00 00 80 3f
       1.0 1.0 1.0 1.0
000110 00 00 80 3f 00 00 80 3f 00 00 80 3f 00 00 80 3f
       1.0 1.0 1.0 1.0
000120 00 00 80 3f 00 00 80 3f 00 00 80 3f 00 00 80 3f
       1.0 1.0 1.0 1.0
000130 00 00 80 3f 00 00 80 3f 00 00 80 3f 00 00 80 3f
       1.0 1.0 1.0 1.0
000140 00 00 80 3f 00 00 80 3f 00 00 80 3f 00 00 80 3f
       1.0 1.0 1.0 1.0
000150 00 00 80 3f 00 00 80 3f 00 00 80 3f 00 00 80 3f
       1.0 1.0 1.0 1.0
000160 00 00 80 3f 00 00 80 3f 00 00 80 3f 00 00 80 3f
       1.0 1.0 1.0 1.0
000170 00 00 80 3f 00 00 80 3f 00 00 80 3f 00 00 80 3f
       1.0 1.0 1.0 1.0
000180 00 00 80 3f 00 00 80 3f 00 00 80 3f 00 00 80 3f
       1.0 1.0 1.0 1.0
000190 00 00 80 3f 00 00 80 3f 00 00 80 3f 00 00 80 3f
       1.0 1.0 1.0 1.0
0001a0 00 00 80 3f 00 00 80 3f 00 00 80 3f 00 00 80 3f
       1.0 1.0 1.0 1.0
0001b0 00 00 80 3f 00 00 80 3f 00 00 80 3f 00 00 80 3f
       1.0 1.0 1.0 1.0
0001c0 00 00 80 3f 00 00 80 3f 00 00 80 3f 00 00 80 3f
       1.0 1.0 1.0 1.0
0001d0 00 00 80 3f 00 00 80 3f 00 00 80 3f 00 00 80 3f
       1.0 1.0 1.0 1.0
0001e0 00 00 80 3f 00 00 80 3f 00 00 80 3f 00 00 80 3f
       1.0 1.0 1.0 1.0
0001f0 00 00 80 3f 00 00 80 3f 00 00 80 3f 00 00 80 3f
       1.0 1.0 1.0 1.0

actor_fc_layers.blocks.2.block.0.weight f4 [128, 128]
000000 81 27 09 be b4 58 c6 3d 9e f4 61 be ea e6 f6 bd
       -0.13393976 0.096848875 -0.2206597 -0.12055762
000010 ce ea 1b be 1f 76 8e bd 83 0b 02 be e9 2b 59 be
       -0.1522629 -0.069561236 -0.12699704 -0.21208157
000020 d3 7c f3 bd 6e 3e b3 3b 04 16 05 3c 0c ab e4 bc
       -0.11889043 0.0054700887 0.008122925 -0.027913593
000030 6a 71 26 be 08 79 66 be 68 79 26 3d 68 89 5d bd
       -0.16254202 -0.22507107 0.040643126 -0.05408612
000040 10 d7 ee 3d 4c ab 39 3d 63 1b 3d bc 36 94 8c be
       0.11662114 0.045329377 -0.011542174 -0.27456826
000050 c1 cd 9e 3c 7e 2f 00 bd 34 72 fb be c0 f9 20 3b
       0.01938522 -0.031295292 -0.49110568 0.0024562925
000060 29 f5 0a bd a7 b2 89 3d b9 6f ed bd eb 41 7b be
       -0.03392521 0.06723528 -0.11593575 -0.24536864
000070 3e 89 b3 be 3f 7c 02 be 29 4b 2f 3c f4 5f 2d 3b
       -0.35065645 -0.12742709 0.010699072 0.0026454898
000080 97 37 c2 3d 3b 65 90 3d a5 f3 02 3d e2 d4 54 be
       0.09483259 0.07050558 0.03197064 -0.20784333
000090 0a a7 84 3d ee 8e 02 3e 0c d5 94 3d 38 80 d0 3e
       0.06477173 0.12749836 0.07267198 0.40722823
0000a0 44 01 f8 bd 99 39 13 be 7f 1d 91 3a 00 a8 dd bd
       -0.121096164 -0.1437744 0.0011071413 -0.10823059
0000b0 05 02 24 bc 5a 5a b2 bc 00 af 83 3c 07 33 a5 bd
       -0.010010247 -0.021771599 0.016074657 -0.08066373
0000c0 b0 66 b6 3d db 6f 86 bd 64 be 9a 3d 5f 75 c7 bc
       0.08906305 -0.065643035 0.075558454 -0.02434796
0000d0 7c 87 90 bd 2a e0 0a 3e 55 25 0e bf c6 b3 04 3e
       -0.070570916 0.13562074 -0.55525714 0.12959203
0000e0 1b c3 71 3e 59 4c 9e bc 38 9f 93 3d a4 db bc 3c
       0.23609583 -0.019323515 0.07208103 0.023053952
0000f0 cd bc f7 bd b7 39 6a be e0 d4 3a be 73 4f 94 bd
       -0.12096558 -0.22873579 -0.18245268 -0.07241716
000100 11 63 d6 3d 3a 40 49 3e 99 c1 f9 3d 9b 8a 26 3d
       0.10468114 0.19653407 0.12195129 0.04065953
000110 a6 77 17 bd 10 4f a4 bc 4e 62 84 be 8f 2c 29 bc
       -0.03697934 -0.020057231 -0.2585625 -0.010325565
000120 cb 3d 7d be 85 98 4f bb ae b6 c2 3e b2 4e e1 3d
       -0.24730603 -0.0031676602 0.3803 0.11001338
000130 33 db 64 be f0 df 8b 3d 18 c6 78 3e b2 c5 94 be
       -0.22349243 0.06829822 0.24294317 -0.2905708
000140 fa 71 d0 be 14 0f c1 3d d3 fc cf bd 1f 32 21 bd
       -0.40711957 0.09426704 -0.10155644 -0.03935444
000150 40 59 a0 bc 7e 5a 7d 3d b3 4d a0 be c5 c0 3f 3c
       -0.019573808 0.06185388 -0.3130928 0.011703675
000160 02 6a 6c 3d e2 0a 09 3e e4 3c b6 3c 09 0b 85 3c
       0.057718284 0.13383058 0.022245832 0.016240614
000170 a5 19 8e bd 07 ec 27 be 45 c0 9d bd 2e c1 05 3d
       -0.06938485 -0.16398631 -0.07702688 0.032654934
000180 a6 f6 97 3c 9c bc 12 3b bc 12 8b 3f 72 bb 2f be
       0.018550228 0.0022390252 1.0865092 -0.17161348
000190 6c 3a d4 3d b6 12 6b be 49 fb b2 3d 08 83 2c bf
       0.103627056 -0.22956356 0.08739335 -0.6738744
0001a0 2d be 2a 3d ba 21 69 bd 9c e6 6e be d7 f5 bc bd
       0.041685272 -0.05691693 -0.23330158 -0.09226578
0001b0 4a ee a0 bd 90 5f 88 3d f7 26 64 3e 5b 13 ff 3d
       -0.0785795 0.06658852 0.22280489 0.12454864
0001c0 6d 62 15 bc f5 ad 9b 3b 23 ab 4e be b2 36 62 3c
       -0.009117705 0.004750962 -0.20182471 0.013806986
0001d0 80 44 ab bd a9 ff f6 3c 20 6f b4 3c ce ae eb be
       -0.08362675 0.030151205 0.022025645 -0.46031803
0001e0 bb 67 b9 be c5 11 e3 bd 60 e1 3f bd e9 eb 9e bd
       -0.36211953 -0.11087374 -0.046845794 -0.0775984
0001f0 dd 01 34 bd f8 bd 9c 3d 4a 6e 07 be eb bd f6 bc
       -0.04394709 0.07653421 -0.13225666 -0.030119857
000200 de d2 c0 be 76 b5 4f be e9 2e 73 bd 69 3a 86 3d
       -0.3766088 -0.20284066 -0.05937091 0.065541096
000210 67 6c ff bb 87 6b b4 bc 0d 9b 3d be f6 72 79 3c
       -0.007794905 -0.02202393 -0.18516178 0.015225163
000220 1a e3 08 3e b8 16 b1 3c 8d 58 b5 bd a3 a0 c9 bc
       0.13367882 0.021617278 -0.0885478 -0.02461273
000230 2f 07 f1 3c 93 80 86 3d 40 b0 21 be 32 a8 2a 3c
       0.02942237 0.06567492 -0.1578989 0.010416077
000240 e5 61 7a 3e 44 23 36 bb f8 9c 5f bb 4e 67 d5 3d
       0.24451406 -0.0027792016 -0.003412066 0.104200944
000250 ac 05 c6 bc 18 98 13 be 66 a2 3c bc e9 ec 9c 3d
       -0.024172626 -0.14413488 -0.011513328 0.076623745
000260 d7 d2 d5 bd c7 a1 95 3c a1 bc 53 3e a7 90 0c 3d
       -0.10440605 0.018265618 0.20677425 0.03431764
000270 03 c2 19 be ef 6f 93 bc bd d1 6e bd 4e 83 00 3c
       -0.15015416 -0.01799771 -0.05830549 0.0078438055
000280 6c 08 fc 3d da 53 9f 3d d3 97 95 3d b2 39 97 3d
       0.12306294 0.07779665 0.07304349 0.073840514
000290 49 43 dd bd 72 91 5a bd 9e d0 29 bd 65 d2 26 bd
       -0.10803849 -0.053361364 -0.04145872 -0.04072799
0002a0 ac 58 90 3d 9e e9 50 3c a4 fe 81 be e3 0d 6f be
       0.07048163 0.012751011 -0.25389588 -0.23345141
0002b0 af 03 2e 3d a3 6c 64 bd 1a b7 9d 3d d2 e0 b0 3d
       0.04248398 -0.055767667 0.077009395 0.08636631
0002c0 12 fe 6a 3c 62 51 d1 3e 7d 9d 29 3e 7b c7 ea 3c
       0.014342802 0.40882403 0.16563983 0.028659573
0002d0 b1 6d ef 3d f7 5e a2 be ac 55 8a 3e ce b5 31 3d
       0.11690844 -0.31713077 0.27018487 0.043386273
0002e0 a5 9b 1a be ab 8a 1e 3e 7a 65 17 3d f6 32 32 be
       -0.15098436 0.15482585 0.03696201 -0.17402253
0002f0 50 fd 9f bd 6e b0 d7 bc e4 46 b9 3c 6f 76 97 3d
       -0.078119874 -0.026329245 0.022616811 0.07395636
000300 5e ac cf 3c 37 c9 4a 3e 2d 38 69 be 2c 56 d5 bc
       0.025350746 0.1980332 -0.22775336 -0.026042067
000310 40 24 3b 3b a0 46 8e 3b b5 81 ca bd 61 57 81 3d
       0.0028555542 0.0043419152 -0.09888021 0.06315494
000320 22 48 86 bd 3a 7b 97 be 49 b9 d5 be 6b 57 aa be
       -0.06556727 -0.29586202 -0.41742924 -0.3326982
000330 c1 84 9a 3b b3 da ea 3d 81 69 17 3b 50 64 5f be
       0.0047155325 0.11467495 0.0023103657 -0.2181561
000340 79 2c 01 be b9 21 7a be 08 ad 0a 3d 14 95 ca bd
       -0.12614621 -0.24426927 0.03385642 -0.09891716
000350 8d ae 87 3d 85 38 91 3c 24 94 a9 bd b4 3c ea ba
       0.0662509 0.017727146 -0.08280209 -0.0017870874
000360 5a d4 68 bc 70 b6 df bc cc c7 81 3d cb 36 12 3d
       -0.014210785 -0.027308673 0.06336936 0.035696786
000370 d9 ef 62 3c 0d bf 43 be 70 b4 f4 bd 89 52 65 bd
       0.013851129 -0.19115849 -0.11948478 -0.055986915
000380 13 a8 56 3c 3b a9 01 3d 58 f2 94 bd b9 76 2b bb
       0.013101595 0.03165553 -0.07272786 -0.0026163294
000390 bf d6 c2 3d ac c7 29 bd a8 1a 27 bd 7f 7e 4f be
       0.09513616 -0.041450188 -0.040796906 -0.20263098
0003a0 13 d9 7f 3d cf b9 16 3c 37 3d 86 3d e8 a2 db bd
       0.062462877 0.009199574 0.065546446 -0.10724431
0003b0 24 5f fe bd 0a f8 57 3c 89 19 93 be 5d 19 6c 3d
       -0.124204904 0.013181696 -0.2873042 0.057641376
0003c0 76 c9 7e bc 84 61 75 bd bd b6 99 be 5b b6 7f bd
       -0.015550962 -0.05990745 -0.3002223 -0.062429767
0003d0 c1 88 14 bd 0d 1e c2 3d 9e f8 b2 3d 03 07 33 bd
       -0.03626323 0.09478388 0.08738826 -0.04370786
0003e0 8c 1e 78 3e 2c d7 de bd b0 df b2 bd f6 2e 75 3c
       0.24230403 -0.108808845 -0.08734071 0.01496481
0003f0 fc e2 14 be 88 72 68 3c 7c af c7 bd 74 73 13 3e
       -0.14539713 0.014187463 -0.09750268 0.1439951

actor_fc_layers.blocks.2.block.1.weight f4 [128]
000000 72 69 ea 3f e3 93 7b 3f b7 f5 b2 3f 66 99 78 3f
       1.8313429 0.9827253 1.3981236 0.9710907
000010 9b 9a 78 3f 48 89 74 3f f9 a6 f7 3f 12 07 80 3f
       0.9711091 0.95521975 1.9347831 1.0002158
000020 74 72 07 40 f1 b2 be 3f 80 df 88 3f 43 d2 7b 3f
       2.1163607 1.4898359 1.0693207 0.9836771
000030 3c f2 76 3f 12 51 0d 40 c3 cc 8a 3f d0 92 59 40
       0.9646337 2.2080731 1.0843738 3.3995857
000040 39 ea 8b 3f 06 2f 68 3f be d0 6d 3f 82 9a 64 3f
       1.0930854 0.9069675 0.9289664 0.8929826
000050 01 81 85 3f 23 2f 6b 3f 6e a0 99 3f 8a b1 dd 3f
       1.0429994 0.918688 1.2002084 1.7319806
000060 74 48 7f 3f 6c 78 6d 3f 37 3f 06 40 52 c3 e3 3f
       0.9971993 0.92761874 2.0976083 1.7793982
000070 81 73 71 3f 6d b2 ab 3f 8c a6 82 3f a1 1a 7d 3f
       0.9431687 1.3413826 1.0207076 0.9886876
000080 b5 96 d0 3f 22 1e 53 3f 72 b4 80 3f 59 93 6f 40
       1.6295992 0.82467854 1.0055068 3.7433684
000090 de 30 6a 3f 81 21 92 3f d4 72 78 3f f3 7b 91 3f
       0.91480815 1.1416475 0.97050214 1.1365951
0000a0 55 8a 81 3f bd 9d c2 3f 58 41 62 3f 67 77 82 3f
       1.012034 1.5204388 0.88380957 1.0192689
0000b0 d0 f5 7e 3f 68 9e 8a 3f 5b 7b 89 3f 4e ad 6f 3f
       0.9959383 1.0829592 1.074077 0.93623817
0000c0 6b c1 70 3f 46 7e 81 3f fd 9b 83 3f 32 30 7e 3f
       0.9404513 1.011666 1.0281979 0.9929229
0000d0 cd ca 89 3f b9 0f 69 3f dd cc 7a 3f b4 97 66 3f
       1.0765015 0.91039616 0.97968847 0.9007523
0000e0 c3 53 71 3f 61 dd 91 3f 0b 57 7b 3f ce 3b 8c 3f
       0.94268435 1.1395684 0.9817969 1.0955751
0000f0 c7 53 a9 3f 44 11 ad 3f 44 97 5d 3f fe fa 83 3f
       1.3228692 1.3520894 0.8655894 1.0310972
000100 ea a5 8b 3f b2 70 7a 3f 19 07 2c 3f 16 e6 89 3f
       1.0910008 0.9782821 0.6719833 1.0773342
000110 13 66 85 3f 9c 11 80 3f bb a9 30 3f 70 8d cf 3f
       1.0421776 1.0005374 0.6900899 1.6215038
000120 51 e1 89 3f ee 86 7c 3f 54 1c 9b 3f e4 bb d1 3f
       1.0771886 0.98643386 1.211802 1.6385465
000130 b5 6f 8b 3f 1e 56 96 3f 2b ed 86 3f 95 50 76 3f
       1.0893465 1.1745031 1.0541128 0.9621671
000140 51 33 b6 3f a7 1b 87 3f 82 fc 62 3f 87 17 6d 3f
       1.423441 1.0555314 0.88666546 0.92614025
000150 50 81 5f 3f 96 73 ed 3f 63 52 79 3f 2c e6 6a 3f
       0.8730669 1.8550899 0.9739134 0.91757464
000160 14 c7 5f 3f d3 fb 94 3f bf 44 ef 3f da b9 4c 3f
       0.87413144 1.1639351 1.8692855 0.79971087
000170 4b 96 f7 3f 05 b8 ec 3f e4 9d b9 3f 17 00 b0 3f
       1.9342741 1.8493658 1.4501309 1.3750027
000180 a7 d8 8e 3f 21 ed 8d 3f fe ca 7c 3f 10 c8 c7 3f
       1.1159867 1.1087991 0.9874724 1.5607929
000190 d8 c0 87 3f 1b 23 76 3f b2 bb ff 3f e2 d0 7a 3f
       1.0605726 0.96147317 1.9979155 0.9797498
0001a0 e5 e3 e4 3f 68 e7 95 3f 9e ec d8 3f 68 c1 7e 3f
       1.7882048 1.1711245 1.694721 0.99513865
0001b0 6d a2 8e 3f ab 48 0f 40 0f de a7 3f c4 51 34 40
       1.1143318 2.2388103 1.3114642 2.8174906
0001c0 42 ac 7e 3f d2 d1 b2 3f b5 42 98 3f 0d 71 fc 3f
       0.99481595 1.3970282 1.1895357 1.9722
0001d0 f0 b5 8c 3f 45 b5 f9 3f fa b1 93 3f 23 c4 85 3f
       1.0993023 1.9508444 1.1538689 1.0450481
0001e0 5c 91 1b 40 f2 31 b2 3f 18 ad a5 3f 02 3c 8d 3f
       2.430747 1.3921492 1.2943449 1.1033938
0001f0 8f a7 6c 3f fe f9 82 3f 87 2c 67 3f 42 3d a1 3f
       0.92443174 1.0232542 0.9030232 1.2596819
