saved_models/agent_mappo_vs_opp_mappo_1_vs_1_1_agent_best_models/mappo_actor_0.pt (torch, 155147 bytes, 21 tensors)

actor_fc_layers.blocks.0.block.0.weight f4 [128, 11]
-0.17054415 -0.364618 -0.27793837 0.17365192 -0.5715572 0.35365552 0.18545583 -0.082450695
0.10188402 -0.10378626 -0.032691814 -0.5399462 0.19847676 -0.3410684 0.2820311 0.36254323
-0.13475652 0.21498217 0.25284988 -0.11152784 0.18940976 0.15478711 0.16264375 -0.17242405
0.40157658 -0.5980511 0.30401406 0.023252357 0.06903078 0.025144193 0.3271232 0.07051234
0.24876587 -0.20962392 -0.19390523 -0.016645009 0.29631847 -0.72373706 0.8545625 -0.04482018
0.14094742 -0.111876935 0.060810808 -0.11360088 -0.26114962 -0.50256383 -0.26378316 0.2221417
0.008495305 0.35391146 -0.070099145 -0.0857791 -0.042197865 -0.13408585 -0.10227224 -0.40196696
0.07018552 0.6601748 -0.2719185 -0.32973272 -0.055448122 0.1554972 -0.01508241 0.030488208
0.003281157 0.079106666 0.19076638 0.16774127 -0.016975652 -0.011780767 -0.47079006 0.603847
-0.26748732 -0.058496747 0.02672908 0.12119416 -0.06916783 -0.19148085 -0.22687484 -0.42981267
-0.37901962 0.19501616 0.007959611 0.17492451 0.33697188 -0.07971325 0.1168233 0.040774286
0.17494297 0.19407307 -0.16403031 -0.039333303 -0.55636305 0.42845666 0.0032186555 0.2057413
0.27671188 -0.14235526 -0.083268255 0.032363296 0.12020213 0.38384312 -0.060578268 0.39314196
-0.84738076 0.105705276 0.12447471 0.0019531044 -0.022114042 0.122989774 -0.52070844 0.30367032
-0.22162437 -0.08166057 -0.09023432 0.44012424 -0.015496733 -0.21608609 0.1370482 -0.17328115
-0.07590933 -0.08615298 0.2240521 -0.5748189 0.40725985 0.5125564 -0.45822877 0.18774137
0.07483953 -0.042741265 0.12179062 0.064464316 0.21204363 -0.19916159 -0.4765268 0.080823526
-0.6416972 0.2083962 0.0044758683 -0.16668205 -0.092235684 -0.08254637 -0.03646573 -0.3286854
0.007860522 -0.25332624 0.58369607 -0.018598005 -0.32061675 0.12603444 -0.01464068 0.08962703
-0.01697512 -0.022636004 -0.43198386 0.14258535 0.14047213 -0.27014762 -0.09797903 -0.18882972
-0.29663363 -0.17547502 0.07643924 -0.1740154 -0.029266968 0.13694078 -0.25908884 0.2555025
-0.3324964 0.24641986 -0.54319966 -0.047394414 -0.19618207 0.11157409 0.0154162515 0.12616952
-0.5864151 -0.13213001 0.23120198 0.06180728 0.25253305 0.12254665 -0.27777228 0.21655892
-0.19119258 -0.05555774 0.16281912 0.13801757 -0.043243516 0.21149726 0.15480523 -0.53494
0.2496655 0.1068791 0.04439154 0.25613508 0.091015175 0.3398931 -0.06672952 -0.001594828
0.027201058 -0.22964199 0.85399586 -0.5968988 0.26989862 -0.072184615 0.065431505 0.0606532
0.01702126 0.09075211 0.15649939 0.2783934 -0.5966444 0.6974895 -0.62592715 0.100437045
-0.12187885 0.076325916 -0.11108894 -0.041973602 0.091148585 -0.005053808 0.24597597 -0.46852323
0.6188913 -0.48635054 0.17528366 -0.21310052 0.3543124 -0.14067918 0.020923981 -0.193017
-0.24110681 0.4665456 -0.1968226 0.09825539 0.21635605 0.14777184 -0.23761371 -0.2897518
-0.004063248 -0.18720682 0.15057835 -0.23825352 0.039402403 0.18255548 0.2001836 -0.44323447
0.23096989 0.11840494 -0.16576083 -0.0967712 -0.25139382 -0.01740043 -0.031322755 -0.25761417
00000000: 20a3 2ebe 36af babe f04d 8ebe cfd1 313e
00000010: 9351 12bf 5612 b53e 22e8 3d3e e9db a8bd
00000020: 92a8 d03d e48d d4bd dae7 05bd ea39 0abf
00000030: 7e3d 4b3e 84a0 aebe 6166 903e 449f b93e
00000040: 9dfd 09be 4924 5c3e 8a75 813e b568 e4bd
00000050: a2f4 413e 8380 1e3e 158c 263e ee8f 30be
00000060: 729b cd3e e019 19bf bba7 9b3e ba7b be3c
00000070: 0260 8d3d 32fb cd3c b17c a73e c668 903d
00000080: 7bbc 7e3e a7a7 56be 188f 46be 1d5b 88bc
00000090: 0eb7 973e d546 39bf 9cc4 5a3f 5d95 37bd
000000a0: 8554 103e bc1f e5bd c114 793d 94a7 e8bd
000000b0: 67b5 85be 06a8 00bf 960e 87be 1d79 633e
000000c0: e42f 0b3c e233 b53e 2490 8fbd f4ac afbd
000000d0: abd7 2cbd cd4d 09be 1c74 d1bd 9dce cdbe
000000e0: 6dbd 8f3d 3701 293f e738 8bbe bad2 a8be
000000f0: 921d 63bd a83a 1f3e 361c 77bc 68c2 f93c
00000100: ae08 573b ad02 a23d 4358 433e 5ec4 2b3e
00000110: 8610 8bbc 1e04 41bc 650b f1be b895 1a3f
00000120: 19f4 88be 499a 6fbd f2f6 da3c a534 f83d
00000130: dda7 8dbd 8e13 44be e151 68be 6810 dcbe
00000140: dc0e c2be 51b2 473e 0769 023c 691f 333e
00000150: 9487 ac3e b340 a3bd 0e41 ef3d f002 273d
00000160: 4024 333e 17bb 463e 90f7 27be f51b 21bd
00000170: cf6d 0ebf ac5e db3e 14f0 523b d9ad 523e
00000180: 2ead 8d3e 94c5 11be 8c88 aabd 608f 043d
00000190: 892c f63d 1687 c43e eb20 78bd e749 c93e
000001a0: f2ed 58bf 027c d83d 99ec fe3d 4fff ff3a
000001b0: 8228 b5bc 10e2 fb3d 264d 05bf ad7a 9b3e
000001c0: 80f1 62be a83d a7bd c5cc b8bd f757 e13e
000001d0: 02e6 7dbc ac45 5dbe 5d56 0c3e 9d70 31be
000001e0: 5a76 9bbd f970 b0bd ea6d 653e 5527 13bf
000001f0: 5d84 d03e e536 033f f69c eabe 463f 403e
00000200: 7845 993d 7711 2fbd 5c6d f93d de05 843d
00000210: f721 593e 04f1 4bbe 52fb f3be ce86 a53d
00000220: 4546 24bf d065 553e 4eaa 923b b3ae 2abe
00000230: 10e6 bcbd 120e a9bd 175d 15bd 7449 a8be
00000240: 6bc9 003c fab3 81be 1b6d 153f d85a 98bc
00000250: e127 a4be 2c0f 013e 76df 6fbc 608e b73d
00000260: 680f 8bbc 246f b9bc fd2c ddbe e501 123e
00000270: edd7 0f3e ca50 8abe 3ba9 c8bd 945c 41be
00000280: 5de0 97be b9af 33be 2d8c 9c3d 1831 32be
00000290: 48c1 efbc 343a 0c3e 4ba7 84be 39d1 823e
000002a0: f83c aabe 7d55 7c3e 220f 0bbf a520 42bd
000002b0: f4e3 48be f580 e43d 7294 7c3c 9532 013e
000002c0: 4d1f 16bf 174d 07be 36c0 6c3e a129 7d3d
000002d0: 034c 813e bdf9 fa3d 2b38 8ebe 9fc1 5d3e
000002e0: fdc7 43be 8390 63bd 0eba 263e 7a54 0d3e
000002f0: 1d20 31bd bd92 583e 4385 1e3e d4f1 08bf
00000300: 50a8 7f3e 6ee3 da3d e7d3 353d 2324 833e
00000310: 2a66 ba3d 7806 ae3e 7da9 88bd 8c09 d1ba
00000320: c1d4 de3c 4527 6bbe 799f 5a3f 5cce 18bf
00000330: 2730 8a3e 87d5 93bd f400 863d 7d6f 783d
00000340: 2b70 8b3c 3edc b93d 6041 203e 9489 8e3e
00000350: b0bd 18bf ac8e 323f c33c 20bf f0b1 cd3d
00000360: 9e9b f9bd c350 9c3d 9982 e3bd 83ec 2bbd
00000370: 1cac ba3d 6a9a a5bb 20e1 7b3e 47e2 efbe
00000380: a96f 1e3f f002 f9be 8f7d 333e 0637 5abe
00000390: 6f68 b53e 340e 10be c568 ab3c 40a6 45be
000003a0: b4e4 76be 11df ee3e dd8b 49be 1f3a c93d
000003b0: 718c 5d3e 8051 173e 0251 73be 595a 94be
000003c0: ff24 85bb 25b3 3fbe 3631 1a3e bbf8 73be
000003d0: 6a64 213d d3ef 3a3e eefc 4c3e a1ef e2be
000003e0: 5f83 6c3e 4a7e f23d 35bd 29be fb2f c6bd
000003f0: b1b6 80be 598b 8ebc 4a4c 00bd 01e6 83be

actor_fc_layers.blocks.0.block.1.weight f4 [128]
0.8278762 0.8158207 0.72071403 1.2690631 0.8475256 0.84582525 0.843117 0.7229199
0.86408657 1.1418569 0.71421456 1.1652893 0.7974596 1.1466163 0.6175707 0.8173172
0.8455472 0.82130146 1.1295537 1.1874263 0.71535164 0.99223 0.85232276 1.3730384
0.86053324 1.0630022 1.0259624 1.198798 0.9971037 0.87621915 1.48824 0.8349762
0.92401564 0.62175775 1.3447196 0.8159785 0.86652595 0.8616059 1.0336646 1.2357382
0.48935968 0.92312926 0.65452725 0.90863556 0.69200665 1.161598 1.0479562 0.87553847
0.91868937 1.2880313 1.1943387 0.7101856 0.8858649 0.9564048 0.75216645 0.7963329
1.1006392 0.59830695 0.94326115 0.84441495 0.79533386 0.79919606 0.8425068 1.0679302
0.8914348 0.77903014 0.88957864 0.8249669 0.99416757 1.0187186 0.9216833 0.9399682
1.1272204 1.3062493 1.4190677 0.87803525 0.85981965 0.88098323 0.8694614 1.1023405
0.9266608 0.77732104 1.0420253 1.0857083 0.8813682 1.0472748 1.1035498 0.8898025
1.0519674 1.656758 0.59803987 0.85862863 0.994851 1.102571 0.73019385 1.5942512
1.093179 0.89347625 0.75548226 0.9991066 1.2848003 0.7614655 0.7938077 0.88008827
0.74894226 1.2133461 1.08259 1.008024 0.8646268 0.71949774 0.9885235 1.2781607
0.8941489 0.8910498 1.182152 0.9312808 0.92806745 0.93604016 1.2504325 0.7816397
1.029477 0.82379246 1.0273595 0.6851375 0.9053218 0.7915372 0.8288688 0.6509127
00000000: b2ef 533f a0d9 503f b780 383f a970 a23f
00000010: 70f7 583f 0188 583f 84d6 573f 4711 393f
00000020: c734 5d3f 5e28 923f c4d6 363f 3328 953f
00000030: 5026 4c3f 53c4 923f 1d19 1e3f b33b 513f
00000040: c875 583f d040 523f 3795 903f 96fd 973f
00000050: 4921 373f c902 7e3f d331 5a3f b9bf af3f
00000060: e84b 5c3f 7510 883f bc52 833f 3672 993f
00000070: 3042 7f3f e64f 603f a67e be3f 00c1 553f
00000080: 4a8c 6c3f 842b 1f3f c61f ac3f f8e3 503f
00000090: a5d4 5d3f 3492 5c3f 1f4f 843f ab2c 9e3f
000000a0: 5a8d fa3e 3352 6c3f 198f 273f 579c 683f
000000b0: 5927 313f 3eaf 943f 6e23 863f 4a23 603f
000000c0: 3a2f 6b3f 36de a43f 17e0 983f b9ce 353f
000000d0: 0bc8 623f f2d6 743f fb8d 403f 79dc 4b3f
000000e0: bfe1 8c3f a52a 193f 9079 713f 942b 583f
000000f0: 009b 4b3f 1d98 4c3f 87ae 573f f0b1 883f
00000100: 1235 643f 856e 473f 6dbb 633f 0831 533f
00000110: c481 7e3f 5f65 823f 70f3 6b3f c2a1 703f
00000120: c248 903f 2d33 a73f 03a4 b53f ebc6 603f
00000130: 241d 5c3f 1e88 613f 0695 5e3f 7e19 8d3f
00000140: a439 6d3f 83fe 463f 1661 853f 7df8 8a3f
00000150: 59a1 613f 1a0d 863f 1f41 8d3f 19ca 633f
00000160: dea6 863f a510 d43f 2419 193f 16cf 5b3f
00000170: 8eae 7e3f 0c21 8d3f fced 3a3f 6c10 cc3f
00000180: 4aed 8b3f dcba 643f 4967 413f 73c5 7f3f
00000190: 5674 a43f 67ef 423f fb36 4b3f 774d 613f
000001a0: aeba 3f3f ed4e 9b3f 4f92 8a3f ee06 813f
000001b0: 2f58 5d3f 0131 383f e00f 7d3f c59a a33f
000001c0: f1e6 643f d71b 643f c250 973f 6b68 6e3f
000001d0: d495 6d3f 54a0 6f3f 2c0e a03f 8a19 483f
000001e0: e7c5 833f 10e4 523f 8480 833f 2c65 2f3f
000001f0: 2bc3 673f 2fa2 4a3f bf30 543f 37a2 263f

actor_fc_layers.blocks.0.block.1.bias f4 [128]
-0.17531268 -0.0026366655 -0.18381886 -0.06831594 -0.3085969 -0.20384535 -0.29510325 -0.21774289
-0.12638499 0.07723316 -0.22966218 0.19991194 -0.09224015 0.17208004 -0.34972447 -0.15052241
-0.2243422 -0.048330475 0.08821052 -0.03451341 -0.25764638 -0.118265174 -0.055657335 0.08345855
-0.1645293 0.0501287 0.08036482 0.28107148 -0.10106653 -0.10116014 0.4079099 -0.07143508
-0.11944025 -0.25132808 0.12090261 -0.14361072 -0.2882269 -0.19971323 -0.0076034265 -0.06138941
-0.47885123 -0.01739843 -0.31630847 -0.113627665 -0.35650474 0.24750756 -0.09557627 -0.16878112
-0.009915853 0.17587501 0.07182023 -0.24937312 -0.13887027 -0.24473666 -0.30290604 -0.26341325
0.024798201 -0.337113 -0.06077758 -0.3331954 -0.08372538 -0.36289418 -0.20695235 0.13700733
-0.09702326 -0.12876248 -0.13901615 -0.23741007 -0.025462028 0.022205442 -0.127751 0.030318169
0.10263022 0.34483397 0.48827088 -0.010408736 -0.23681678 -0.11906066 0.06474294 0.03923951
-0.07230384 -0.28044567 0.08467863 0.046325725 -0.11125889 -0.11568116 0.09819413 -0.06369389
0.0335938 0.24299516 -0.2793631 -0.2592848 -0.14054434 -0.1650196 -0.1575221 0.45868415
0.1963815 -0.18241909 -0.3229285 0.12913029 0.2574378 -0.028425965 -0.230376 -0.015443934
-0.1316848 -0.010272551 0.16124609 -0.010786194 -0.03876286 -0.09598813 -0.08805218 0.1994395
-0.06772877 -0.16752441 0.2478635 -0.093284436 0.005686593 -0.25196543 0.19056536 -0.059615746
-0.009532797 -0.348492 0.09816474 -0.2785445 -0.16172664 0.1843694 -0.09035674 -0.251479
00000000: 2b85 33be e8cb 2cbb 033b 3cbe 3ae9 8bbd
00000010: 6a00 9ebe d6bc 50be c617 97be fef7 5ebe
00000020: 116b 01be 6b2c 9e3d 902c 6bbe b7b5 4c3e
00000030: 67e8 bcbd c035 303e 160f b3be 8c22 1abe
00000040: f6b9 65be 2df6 45bd b8a7 b43d ef5d 0dbd
00000050: 3aea 83be 0335 f2bd f2f8 63bd 51ec aa3d
00000060: 5e7a 28be c053 4d3d 5096 a43d 9ae8 8f3e
00000070: f8fb cebd 0c2d cfbd 91d9 d03e 8e4c 92bd
00000080: 179d f4bd 13ae 80be ca9b f73d b00e 13be
00000090: 7a92 93be a081 4cbe 2a26 f9bb 7673 7bbd
000000a0: fd2b f5be 2787 8ebc 2ff3 a1be 9fb5 e8bd
000000b0: ca87 b6be 9f72 7d3e 7ebd c3bd f5d4 2cbe
000000c0: 1a76 22bc 9418 343e 7c16 933d ab5b 7fbe
000000d0: 0234 0ebe 3f9c 7abe 8016 9bbe 1ade 86be
000000e0: 9925 cb3c 139a acbe e9f1 78bd 9698 aabe
000000f0: 3678 abbd 44cd b9be 51eb 53be a64b 0c3e
00000100: 22b4 c6bd 50da 03be 405a 0ebe a01b 73be
00000110: be95 d0bc 30e8 b53c 28d1 02be cf5d f83c
00000120: cb2f d23d 148e b03e a4fe f93e 6789 2abc
00000130: 1980 72be 13d6 f3bd f297 843d 9cb9 203d
00000140: 0914 94bd 9396 8fbe fd6b ad3d 0bc0 3d3d
00000150: b3db e3bd 3eea ecbd 011a c93d f171 82bd
00000160: a799 093d b9d3 783e ae08 8fbe fac0 84be
00000170: dbea 0fbe e6fa 28be 794d 21be a6d8 ea3e
00000180: 3b18 493e 12cc 3abe e256 a5be bb3a 043e
00000190: e3ce 833e 92dd e8bc b0e7 6bbe 8e08 7dbc
000001a0: 61d8 06be 344e 28bc b21d 253e 94b8 30bc
000001b0: cec5 1ebd 6d95 c4bd b454 b4bd de39 4c3e
000001c0: 62b5 8abd 858b 2bbe eecf 7d3e e90b bfbd
000001d0: 9956 ba3b 9d01 81be 9123 433e a42f 74bd
000001e0: 732f 1cbc 8b6d b2be 980a c93d 629d 8ebe
000001f0: ab9b 25be 55cb 3c3e f40c b9bd dbc1 80be

actor_fc_layers.blocks.0.block.1.running_mean f4 [128]
0.45356902 -0.3791716 -0.4515428 0.8638093 0.1312937 -0.3998709 0.7118457 -0.12572001
0.67845184 -0.7657715 -0.064198874 -0.2708797 0.73376703 -0.16807474 -0.4880608 -0.6042736
-0.45619926 0.3621629 -0.91991657 -0.9167796 -0.86623365 -0.20311801 -0.10792386 0.97391194
-0.5030042 0.54614 -0.60882425 -0.20717198 0.7816433 -0.63017386 0.13390914 0.11545718
-0.10578797 -0.1592595 0.7389211 0.24261096 -0.17659181 -0.13541886 -0.47258955 -0.6610046
-0.3354376 -0.26789984 0.20328394 -0.0049667484 -0.08028803 -0.88128287 0.032233015 0.053162985
-0.24193019 0.7641496 -0.580999 -0.47017393 0.55723727 0.6501778 -0.577557 0.41644648
-0.8668218 -0.34534952 -0.51089126 -0.41367298 0.49057183 -0.42224067 -0.783407 -0.434392
0.65426725 0.15849395 -0.6740299 -0.22128163 0.79819834 -0.58122885 0.48438236 0.60041684
-1.0461192 -0.10279322 0.1566756 -0.7926048 -0.4637967 0.40745577 0.35225543 -0.8519575
0.6312582 0.10020417 -0.18127002 0.85673165 -0.4002661 0.7795438 -0.67781097 -0.36973047
0.9083874 -0.9289009 0.19019888 0.04167075 -0.051476795 0.61666065 -0.23120072 -0.46058095
-0.6113851 -0.42766485 -0.53490955 -0.10354713 -0.7903391 -0.27441394 -0.3043706 -0.35304272
-0.17715162 -0.8066181 -0.9542479 0.73955625 -0.020416327 0.5530201 0.62230384 0.5515096
-0.09264805 0.40438178 -0.32576683 -0.11030918 -0.7367785 0.12092786 0.29874822 -0.4985016
-0.4002442 0.025117923 -0.5648657 -0.3722695 0.15244639 0.11950708 0.28144565 0.1428046
00000000: 333a e83e c822 c2be 9e30 e7be 9b22 5d3f
00000010: db71 063e e1bb ccbe 853b 363f bfbc 00be
00000020: 05af 2d3f 9a09 44bf b37a 83bd beb0 8abe
00000030: 28d8 3b3f c91b 2cbe 1be3 f9be adb1 1abf
00000040: f392 e9be 6a6d b93e a77f 6bbf 11b2 6abf
00000050: 7dc1 5dbf 2bfe 4fbe 2f07 ddbd 4b52 793f
00000060: e2c4 00bf d5cf 0b3f e8db 1bbf e424 54be
00000070: c619 483f 1353 21bf 7a1f 093e d074 ec3d
00000080: 5da7 d8bd ec14 23be ef29 3d3f 026f 783e
00000090: 7cd4 34be 3eab 0abe 42f7 f1be 9937 29bf
000000a0: 7abe abbe 2b2a 89be aa29 503e 1bc0 a2bb
000000b0: 0d6e a4bd c19b 61bf c406 043d 6ec1 593d
000000c0: 8cbc 77be 4f9f 433f 5abc 14bf a3ba f0be
000000d0: 1aa7 0e3f 0d72 263f c7da 13bf 7938 d53e
000000e0: 09e8 5dbf a7d1 b0be c5c9 02bf f2cc d3be
000000f0: 3b2c fb3e ee2f d8be 5c8d 48bf a168 debe
00000100: 0f7e 273f 3d4c 223e 398d 2cbf a797 62be
00000110: ba56 4c3f 6acb 14bf f700 f83e ebb4 193f
00000120: 3ce7 85bf 4085 d2bd 926f 203e 26e8 4abf
00000130: c376 edbe 0b9e d03e d35a b43e e319 5abf
00000140: 239a 213f d837 cd3d d99e 39be c452 5b3f
00000150: aeef ccbe 2f90 473f 0585 2dbf 504d bdbe
00000160: 148c 683f 73cc 6dbf 7fc3 423e f3ae 2a3d
00000170: 55d9 52bd 79dd 1d3f e2bf 6cbe 44d1 ebbe
00000180: bc83 1cbf e3f6 dabe d5ef 08bf 8510 d4bd
00000190: aa53 4abf fc7f 8cbe 77d6 9bbe 04c2 b4be
000001a0: 3c67 35be 867e 4ebf 9749 74bf 8f53 3d3f
000001b0: 2440 a7bc ba92 0d3f 4e4f 1f3f bc2f 0d3f
000001c0: 43be bdbd 210b cf3e e9ca a6be c8e9 e1bd
000001d0: 849d 3cbf 07a9 f73d 87f5 983e 9a3b ffbe
000001e0: cfec ccbe 1ac4 cd3c 0a9b 10bf 1c9a bebe
000001f0: e81a 1c3e 21c0 f43d a519 903e 5e3b 123e

actor_fc_layers.blocks.0.block.1.running_var f4 [128]
0.095483795 0.09976553 0.1981673 0.2693072 0.06942302 0.11460576 0.07097586 0.0376142
0.09192713 0.15042382 0.12739664 0.047656424 0.13067065 0.0272932 0.112104855 0.14421694
0.10732456 0.089365266 0.17609672 0.27630228 0.3059187 0.095743805 0.06477485 0.2262553
0.22101323 0.09194892 0.08177532 0.049049802 0.13959895 0.1227837 0.020588432 0.14462923
0.08715048 0.06897939 0.10522592 0.14984968 0.047069144 0.06464137 0.1476661 0.12078467
0.19291373 0.046080906 0.080794804 0.08576385 0.068344586 0.16464856 0.091380626 0.04136704
0.10984554 0.11472772 0.13867384 0.07646675 0.13495417 0.10390617 0.12764366 0.056029215
0.16359232 0.11824492 0.116944306 0.1004693 0.039307438 0.04733107 0.14105779 0.08256352
0.07242696 0.09616161 0.16982841 0.11865927 0.15732299 0.1483149 0.057505485 0.19201036
0.21770728 0.026503783 0.0142757455 0.18517226 0.10819583 0.06786621 0.076267205 0.108095445
0.082895175 0.104884855 0.018728936 0.18370064 0.16844402 0.1729273 0.0788831 0.12061987
0.2275992 0.14540753 0.06582043 0.06601966 0.042255405 0.13512865 0.07534195 0.050301723
0.054907024 0.106483735 0.17163977 0.06672573 0.11108657 0.07494056 0.09980348 0.066531666
0.08974461 0.20194274 0.16524675 0.14512081 0.044689108 0.15434727 0.10159935 0.046867866
0.14682844 0.08158908 0.14597936 0.13249409 0.19011463 0.06474617 0.024289433 0.20395677
0.104966484 0.038412023 0.10184153 0.1491329 0.060383305 0.1020106 0.09577629 0.06629328
00000000: 028d c33d df51 cc3d 5eec 4a3e a2e2 893e
00000010: a82d 8e3d 6db6 ea3d cb5b 913d 5911 1a3d
00000020: 4b44 bc3d b408 1a3e 4474 023e 6233 433d
00000030: 87ce 053e fd95 df3c 3b97 e53d 9bad 133e
00000040: fbcc db3d 2305 b73d b352 343e 7e77 8d3e
00000050: 60a1 9c3e 5415 c43d ada8 843d 78af 673e
00000060: 4b51 623e b74f bc3d d279 a73d 72e8 483d
00000070: 07f3 0e3e 0576 fb3d 12a9 a83c af19 143e
00000080: f37b b23d 1145 8d3d b080 d73d 3272 193e
00000090: 93cb 403d b262 843d c835 173e f45d f73d
000000a0: 2d8b 453e 55bf 3c3d bf77 a53d f5a4 af3d
000000b0: 3ff8 8b3d a299 283e c425 bb3d 7c70 293d
000000c0: b3f6 e03d 5ef6 ea3d 8400 0e3e 999a 9c3d
000000d0: 6d31 0a3e c2cc d43d 05b5 023e e47e 653d
000000e0: bf84 273e 652a f23d 7f80 ef3d d9c2 cd3d
000000f0: d600 213d 39de 413d 7471 103e 1017 a93d
00000100: 9654 943d 61f0 c43d 80e7 2d3e a203 f33d
00000110: 4719 213e dcdf 173e df8a 6b3d 5d9e 443e
00000120: a8ee 5e3e 761e d93c d1e4 693c cc9d 3d3e
00000130: c695 dd3d 71fd 8a3d fb31 9c3d 2561 dd3d
00000140: f2c4 a93d dfcd d63d 6d6d 993c 051c 3c3e
00000150: 977c 2c3e db13 313e 768d a13d 8d07 f73d
00000160: c40f 693e b6e5 143e ddcc 863d 5135 873d
00000170: 0114 2d3d 2a5f 0a3e e14c 9a3d 2e09 4e3d
00000180: 30e6 603d 2514 da3d 56c2 2f3e 80a7 883d
00000190: 5b81 e33d 707a 993d c465 cc3d c141 883d
000001a0: 06cc b73d 14ca 4e3e 7236 293e 8d9a 143e
000001b0: ed0b 373d 360d 1e3e 5213 d03d 85f8 3f3d
000001c0: 325a 163e 2d18 a73d 9d7b 153e 88ac 073e
000001d0: 69ad 423e a499 843d a2fa c63c 0bda 503e
000001e0: abf8 d63d ed55 1d3d 4b92 d03d 4cb6 183e
000001f0: 7c54 773d efea d03d 5c26 c43d c5c4 873d

actor_fc_layers.blocks.1.block.0.weight f4 [128, 128]
-0.03311901 -0.053808454 -0.013986677 -0.29022798 -0.083930865 -0.12234486 0.03610083 0.088056654
-0.15335591 0.032802925 -0.06682389 0.071205914 -0.07775816 -0.034769583 -0.013908599 -0.013576693
-0.0128380945 -0.14814065 0.12476604 0.12141662 0.078962795 -0.0022049283 0.024614342 -0.35283563
0.012422328 -0.02348426 0.13329439 0.11414532 -0.0994425 -0.014763486 -0.076791145 0.04505737
0.10951757 0.010991625 -0.51410097 0.020524388 0.07727681 -0.034157198 0.081118576 0.0718174
-0.020682324 -0.08890463 0.0105181895 -0.04368625 -0.05738855 0.018709976 -0.06737915 0.0042194165
-0.018444203 -0.22264087 0.12859897 -0.025748614 -0.09748188 0.0018309996 0.06224543 -0.124297686
-0.020097183 0.016947981 0.02620237 0.0313987 0.0015163999 0.14760435 -0.0055197617 0.1778859
-0.17753758 0.029739581 0.10172727 0.00887856 -0.13175209 0.023247197 -0.11913503 0.049224943
0.02180591 0.07486149 -0.1682897 -0.023523673 -0.086992316 -0.038309876 -0.04504839 0.0045089168
0.021720042 0.070775345 0.021297665 -0.15007468 0.08408267 -0.21862052 0.022635665 0.069289416
-0.1837445 0.16394386 -0.0045641223 0.022454435 -0.10592745 -0.27178884 0.03759941 0.21868347
0.089101955 0.028625036 -0.020094644 0.040127948 0.12609537 -0.011716927 0.19034791 0.05166488
-0.0030287756 0.14079002 0.08474662 -0.08830093 0.10161209 -0.11006223 -0.22209539 -0.26910773
0.10068094 -0.0718838 -0.08809218 0.009931279 -0.013130488 0.11129638 -0.20979044 0.026363008
0.06504052 -0.03569257 0.117541 -0.15310743 -0.07284534 -0.09051434 -0.06570664 -0.06711676
-0.009540485 -0.14434595 0.081945114 -0.027773125 -0.0026927607 0.15692951 0.0064047184 0.04240752
0.13977537 0.062064454 -0.059724037 -0.1429278 0.05796125 -0.32029417 0.10670712 0.1177988
-0.17168394 0.08841639 0.08556365 0.2250283 -0.04992771 0.20353226 0.016403839 -0.1000872
-0.04773798 -0.14249551 0.016030021 -0.2750815 0.137198 -0.0077505754 0.17698862 -0.14789963
-0.2583575 -0.07124696 -0.12589256 -0.03825125 -0.11311965 0.06432586 0.11902021 0.2691926
0.0048109135 -0.14265056 -0.021177888 -0.15966608 -0.07981289 0.13348144 -0.0764819 0.017343063
0.08538326 -0.03252617 0.2949426 0.15404944 0.055122025 0.07431156 0.11326339 0.0026454837
0.12104 -0.012664714 0.098569244 -0.12964122 0.15697502 -0.031392805 0.10139998 0.087629475
0.14394914 0.035589438 0.025132349 0.024334302 -0.010373138 0.07710615 -0.0426995 -0.05794122
0.16387933 -0.5280529 0.14576331 0.15000837 0.12879972 0.070457526 -0.23648365 0.066538595
0.09754218 0.007439692 -0.026286883 -0.0044441856 0.0281088 -0.08950592 0.19203866 -0.09300001
0.037791654 0.11523364 0.05708066 -0.0938478 0.23174189 -0.09018052 -0.042910717 -0.07378396
-0.10800552 -0.022703223 0.062694855 -0.017899485 0.21668182 -0.060565963 0.060387023 -0.1096624
0.116286844 0.13683891 0.0780811 -0.02954301 -0.08263896 -0.035739448 -0.029339954 -0.0478668
0.18582597 -0.09060061 0.15990649 -0.1329238 0.087475814 -0.09737694 0.19977513 -0.0501228
0.18601874 -0.109163925 0.007117473 0.032883104 -0.038483128 -0.19236378 0.051519964 0.08387912
00000000: cda7 07bd 4166 5cbd 6028 65bc c398 94be
00000010: f2e3 abbd f18f fabd 77de 133d 0c57 b43d
00000020: 5509 1dbe 5c5c 063d f7da 88bd 68d4 913d
00000030: ac3f 9fbd 8d6a 0ebd e4e0 63bc c770 5ebc
00000040: df56 52bc 2fb2 17be 5685 ff3d 47a9 f83d
00000050: 3fb7 a13d 8f80 10bb 04a4 c93c dfa6 b4be
00000060: 0587 4b3c 1062 c0bc 537e 083e 06c5 e93d
00000070: 82a8 cbbd 8ce2 71bc ad44 9dbd 148e 383d
00000080: bf4a e03d 3716 343c 1f9c 03bf c322 a83c
00000090: 4e43 9e3d 6be8 0bbd 7f21 a63d 0015 933d
000000a0: fa6d a9bc a113 b6bd 7c54 2c3c 5af0 32bd
000000b0: 4210 6bbd aa45 993c 14fe 89bd 0843 8a3b
000000c0: 4c18 97bc f8fb 63be 73af 033e c2ee d2bc
000000d0: 94a4 c7bd 27fe ef3a 10f5 7e3d c98f febd
000000e0: d9a2 a4bc 7ed6 8a3c 5aa6 d63c ec9b 003d
000000f0: f0c1 c63a 9825 173e 1edf b4bb b927 363e
00000100: 69cc 35be 6ca0 f33c 6356 d03d 6177 113c
00000110: 05ea 06be e870 be3c 11fd f3bd 18a0 493d
00000120: 4fa2 b23c fb50 993d 2354 2cbe b8b4 c0bc
00000130: 0729 b2bd d1ea 1cbd a984 38bd 89bf 933b
00000140: 3bee b13c aaf2 903d 7178 ae3c 2dad 19be
00000150: 8933 ac3d 0fde 5fbe 6e6e b93c 9ce7 8d3d
00000160: 8527 3cbe e6e0 273e a28e 95bb 5df2 b73c
00000170: 7ef0 d8bd e827 8bbe d701 1a3d 8fee 5f3e
00000180: 167b b63d 0d7f ea3c 869d a4bc 345d 243d
00000190: 251f 013e 5bf8 3fbc 90ea 423e 8e9e 533d
000001a0: 6c7e 46bb 422b 103e a38f ad3d 1ed7 b4bd
000001b0: 001a d03d 4e68 e1bd f96c 63be 7dc8 89be
000001c0: cf31 ce3d d037 93bd ac69 b4bd ceb6 223c
000001d0: 4221 57bc 5bef e33d 4ed3 56be 3cf7 d73c
000001e0: f733 853d 5f32 12bd 56b9 f03d 32c8 1cbe
000001f0: f02f 95bd 955f b9bd 3491 86bd 8374 89bd
00000200: b24f 1cbc 6dcf 13be d7d2 a73d 7784 e3bc
00000210: 0779 30bb 21b2 203e acde d13b 82b3 2d3d
00000220: 4621 0f3e 4c37 7e3d 31a1 74bd aa5b 12be
00000230: c768 6d3d 99fd a3be 4389 da3d 7f40 f13d
00000240: eacd 2fbe a713 b53d ff3b af3d d26d 663e
00000250: 0081 4cbd c36a 503e 5861 863c 85fa ccbd
00000260: e688 43bd 58ea 11be 6451 833c 7bd7 8cbe
00000270: a27d 0c3e 8af8 fdbb 813c 353e 0073 17be
00000280: 6f47 84be ede9 91bd fbe9 00be 58ad 1cbd
00000290: 46ab e7bd 47bd 833d dec0 f33d 9dd3 893e
000002a0: dea4 9d3b fd12 12be 407d adbc 817f 23be
000002b0: f174 a3bd 5caf 083e 8ba2 9cbd 0a13 8e3c
000002c0: 6bdd ae3d 293a 05bd b702 973e 23bf 1d3e
000002d0: a2c7 613d a930 983d a3f6 e73d da5f 2d3b
000002e0: d2e3 f73d a97f 4fbc acde c93d abc0 04be
000002f0: 0fbe 203e be95 00bd cbaa cf3d 1577 b33d
00000300: 6767 133e 3bc6 113d 5be2 cd3c bb58 c73c
00000310: 18f4 29bc d4e9 9d3d ace5 2ebd c653 6dbd
00000320: fccf 273e 7a2e 07bf fa42 153e cb9b 193e
00000330: 13e4 033e 094c 903d c528 72be 6345 883d
00000340: 32c4 c73d a9c8 f33b 9757 d7bc 88a0 91bb
00000350: 6d44 e63c e14e b7bd c8a5 443e ca76 bebd
00000360: 6ccb 1a3d 9dff eb3d 69cd 693d 4633 c0bd
00000370: bf4d 6d3e 91b0 b8bd 26c3 2fbd 0b1c 97bd
00000380: 0032 ddbd 1cfc b9bc 2966 803d f1a1 92bc
00000390: d7e1 5d3e 0414 78bd 6258 773d ae96 e0bd
000003a0: cc27 ee3d 801f 0c3e fce8 9f3d 2f04 f2bc
000003b0: 9d3e a9bd 8763 12bd 585a f0bc fa0f 44bd
000003c0: 2a49 3e3e d08c b9bd 87be 233e 2d1d 08be
000003d0: 8526 b33d 906d c7bd da91 4c3e 914d 4dbd
000003e0: b27b 3e3e 5691 dfbd b139 e93b 6fb0 063d
000003f0: 7ca0 1dbd 03fb 44be 9906 533d d1c8 ab3d

actor_fc_layers.blocks.1.block.1.weight f4 [128]
1.2190969 1.1092135 0.9411344 1.1382215 1.4267771 1.1930745 1.0594336 0.8143784
1.0786728 1.0679572 1.1799767 0.8018088 0.85242516 0.86091614 0.9903401 0.87735677
0.7888021 0.8731365 0.9659175 1.0928804 0.8199003 0.9175303 1.037136 1.167109
1.0354118 1.1236254 0.8899832 1.0597914 1.1990746 0.9338506 1.305239 1.0390611
0.92494833 0.8287427 1.0164098 1.257991 0.7212109 0.99963427 0.9355795 0.77649176
0.8672527 0.90929455 0.94907457 1.181299 0.88439244 0.950217 0.90188247 1.0511357
1.004925 0.92154676 0.9613106 0.9424128 1.224786 0.9060716 1.0185559 0.91762793
0.76163286 1.0003096 1.0053325 0.919254 0.7902591 0.9872757 0.9096796 0.936869
0.8527769 0.95744437 0.8947824 0.7563903 0.9609177 0.8713123 1.2204053 1.0018882
1.1221749 1.1142503 1.2474649 0.8746596 0.86330783 0.87009543 0.92723864 0.8716199
0.861662 1.0260046 0.8826511 0.80075264 0.9358105 1.1538157 0.88541657 1.2381365
1.2702711 0.8705351 0.97633785 1.0708572 1.1538616 0.9346588 1.2930611 1.0784608
0.8047448 1.1981405 0.9601099 1.074015 1.2288777 0.8029268 1.1668175 1.0137925
1.1281313 1.070663 0.8627145 1.1849563 0.84345293 0.8569427 0.89680284 1.02121
1.2570256 1.3148917 1.1140146 1.0777555 0.8572522 1.0195568 0.9218819 0.86972284
0.75605816 0.89498717 1.0302452 1.0839672 0.7039121 0.7974045 1.2005014 0.9499111
00000000: 5e0b 9c3f b5fa 8d3f 2fee 703f 3eb1 913f
00000010: a2a0 b63f aab6 983f 859b 873f 1a7b 503f
00000020: f311 8a3f d2b2 883f 7a09 973f 5743 4d3f
00000030: 8938 5a3f 0065 5c3f ee86 7d3f 749a 603f
00000040: efee 493f e085 5f3f 5f46 773f 81e3 8b3f
00000050: fce4 513f 44e3 6a3f dfc0 843f d463 953f
00000060: 6088 843f f5d2 8f3f f0d5 633f 3fa7 873f
00000070: 477b 993f d510 6f3f 1212 a73f f4ff 843f
00000080: 6ac9 6c3f 7b28 543f b719 823f d905 a13f
00000090: 47a1 383f 08e8 7f3f 2382 6f3f 2ac8 463f
000000a0: 4604 5e3f 87c7 683f 8df6 723f ce34 973f
000000b0: 8b67 623f 6c41 733f c5e1 663f 9d8b 863f
000000c0: 62a1 803f 7dea 6b3f 7418 763f f741 713f
000000d0: cac5 9c3f 4ff4 673f 0a60 823f aae9 6a3f
000000e0: 5ffa 423f 250a 803f bcae 803f 3b54 6b3f
000000f0: 6c4e 4a3f 1abe 7c3f c3e0 683f a6d6 6f3f
00000100: 964f 5a3f 131b 753f 7610 653f cba2 413f
00000110: b4fe 753f 530e 5f3f 3e36 9c3f df3d 803f
00000120: 6da3 8f3f c19f 8e3f eeac 9f3f b1e9 5f3f
00000130: be01 5d3f 93be 5e3f 835f 6d3f 7b22 5f3f
00000140: e195 5c3f 1e54 833f 6cf5 613f 20fe 4c3f
00000150: 4791 6f3f 3cb0 933f a9aa 623f 427b 9e3f
00000160: 3e98 a23f 63db 5e3f 47f1 793f d911 893f
00000170: bdb1 933f cd45 6f3f 0783 a53f 010b 8a3f
00000180: c103 4e3f ab5c 993f c3c9 753f 5379 893f
00000190: dd4b 9d3f 9c8c 4d3f 475a 953f f4c3 813f
000001a0: 9b66 903f 7c0b 893f dcda 5c3f a6ac 973f
000001b0: 88ec 573f 9960 5b3f df94 653f 02b7 823f
000001c0: 37e6 a03f 5f4e a83f 0898 8e3f e4f3 893f
000001d0: e174 5b3f d680 823f 7400 6c3f 28a6 5e3f
000001e0: 078d 413f e11d 653f 13df 833f 70bf 8a3f
000001f0: 9533 343f b422 4c3f 08aa 993f 602d 733f

actor_fc_layers.blocks.1.block.1.bias f4 [128]
0.17615442 -0.015523371 -0.23896332 -0.21961704 0.0542588 0.042160578 -0.028513832 -0.020452064
-0.052833933 0.08457577 0.11775645 -0.2732197 -0.32584512 0.043175906 0.023471469 -0.20522703
-0.19015448 -0.25737593 -0.22672305 0.20022346 -0.12106045 -0.055166658 -0.10485498 0.085726015
-0.21183196 0.1193851 -0.41170394 -0.060645383 0.018341811 -0.24153271 0.23577897 -0.2122174
-0.06539012 -0.16910203 0.08838878 0.108873606 -0.21563181 0.13760656 0.047273353 -0.3288694
-0.23580506 0.033303414 0.0840478 0.08800908 -0.253856 -0.12771253 -0.28689432 -0.027470592
0.06387547 -0.11975123 -0.19538637 -0.085053444 0.11932499 -0.085078314 -0.113020085 -0.04365863
-0.27566624 -0.036522564 -0.044551164 -0.35182586 -0.31334987 0.08308957 -0.17996028 -0.19720697
-0.34524363 -0.09125008 -0.19542299 -0.4606177 -0.18233399 -0.11073744 0.22061683 -0.15644014
0.13479951 -0.016954254 0.1172186 -0.1391898 -0.16276385 -0.21062942 0.17591533 -0.29179493
-0.19973601 -0.12624814 -0.20857346 -0.3693285 -0.1374921 -0.009818862 -0.44081938 0.1292457
0.19945945 -0.23026872 -0.01980318 -0.027455304 0.003106954 -0.036857955 0.08435653 0.114069186
-0.2838579 0.1017834 0.054749772 -0.20587376 -0.20998459 -0.3248035 0.20301038 -0.032150324
0.118172996 -0.09038 -0.22524449 0.17005903 -0.21536946 -0.29003775 -0.29332045 0.037990887
0.141093 0.09521801 0.104512885 0.01685888 -0.36468157 -0.13666637 -0.18400505 -0.22210942
0.10009631 -0.32880053 0.13223429 0.031347595 -0.45955655 -0.078073844 0.011328828 -0.19898927
00000000: d361 343e bd55 7ebc cdb2 74be 4ae3 60be
00000010: 7a3e 5e3d 92b0 2c3d d795 e9bc 168b a7bc
00000020: 6568 58bd 1036 ad3d 4b2a f13d 74e3 8bbe
00000030: 2cd5 a6be 38d9 303d 3d47 c03c 0927 52be
00000040: dbb7 42be c7c6 83be 162a 68be 6107 4d3e
00000050: 8bee f7bd 6ff6 61bd 35be d6bd 1f91 af3d
00000060: 7aea 58be 2d80 f43d dcca d2be 4b67 78bd
00000070: 9141 963c 5a54 77be 0b70 713e 854f 59be
00000080: 41eb 85bd 1529 2dbe 2d05 b53d 20f9 de3d
00000090: 96ce 5cbe bce8 0c3e b4a1 413d 9261 a8be
000000a0: e276 71be 2969 083d 4121 ac3d 1b3e b43d
000000b0: 6af9 81be 13c7 02be d0e3 92be 020a e1bc
000000c0: 24d1 823d 2240 f5bd 5d13 48be 8030 aebd
000000d0: a960 f43d 8a3d aebd 1377 e7bd 64d3 32bd
000000e0: 2024 8dbe af98 15bd 487b 36bd 8522 b4be
000000f0: 656f a0be dd2a aa3d 8247 38be a0f0 49be
00000100: c6c3 b0be 52e1 babd f71c 48be 15d6 ebbe
00000110: c3b5 3abe 50ca e2bd 61e9 613e d831 20be
00000120: e208 0a3e a6e3 8abc 4e10 f03d c587 0ebe
00000130: 91ab 26be 3daf 57be 2623 343e 2566 95be
00000140: 9987 4cbe 3147 01be 4894 55be a018 bdbe
00000150: bbca 0cbe 4bdf 20bc 14b3 e1be fc58 043e
00000160: 193f 4c3e 90cb 6bbe 473a a2bc f2e9 e0bc
00000170: 0a9e 4b3b 5ef8 16bd 1ec3 ac3d 1b9d e93d
00000180: d355 91be d173 d03d 4c41 603d 92d0 52be
00000190: 3306 57be a54c a6be f4e1 4f3e 0fb0 03bd
000001a0: af04 f23d 2619 b9bd 7ea6 66be f423 2e3e
000001b0: d089 5cbe d47f 94be 192e 96be 559c 1b3d
000001c0: af7a 103e a901 c33d da0a d63d a21b 8a3c
000001d0: 8bb7 babe 45f2 0bbe d26b 3cbe a770 63be
000001e0: 4bff cc3d 8b58 a8be 6d68 073e 5666 003d
000001f0: ff4a ebbe 2ee5 9fbd 8c9c 393c d8c3 4bbe

actor_fc_layers.blocks.1.block.1.running_mean f4 [128]
-0.8133236 0.52965033 -1.3385302 2.3950548 -0.7535096 0.5573243 0.81475234 -1.6110493
-0.42611572 -1.0286186 -1.346819 0.16011965 -3.513702 -1.5768816 -1.2767987 1.12578
-1.1206963 0.4830124 -0.33713147 -0.21181738 -0.8758775 -0.8467144 -0.9320001 -1.2663022
1.4803504 -1.5239388 0.51418334 0.7925537 -1.2242771 0.31021833 -1.0639213 0.7049173
-0.99888617 0.21416861 -1.8294835 -0.5688902 -1.8087233 -0.830386 -1.5519744 0.5323718
-1.0697396 -2.003193 -0.8410992 -1.5507116 -0.17256059 0.3827434 -1.4826312 1.4175327
1.0845739 0.24019973 0.56114435 -0.27824146 -1.450976 -0.8099637 0.52483696 -0.79995334
1.6982113 -0.22095731 -0.67898965 -0.0176303 -0.6278286 -1.2456499 0.17101772 -0.8899932
0.7504314 -0.71664315 -0.8255545 0.25814644 -0.10545037 1.628511 -1.3398752 0.7652783
-0.37086853 -0.71692306 -1.565642 -2.1451435 0.91296536 -1.6051483 -0.75936735 0.35477695
0.22553031 0.6238396 0.5935981 -2.368318 -2.773317 -0.96024835 0.17126122 -1.3070143
-1.447008 -0.37930575 -0.10248927 -1.3597643 1.7466869 -1.5111406 -1.8739359 -1.290736
0.19420758 -0.43799707 -2.6038184 -0.9434825 -0.084119186 2.064852 -0.9042551 0.9283585
-0.7373115 -1.0108603 -1.7015059 -1.0350639 -2.5786848 -0.5265812 -1.0356234 -0.6203872
-0.9148923 -1.6015077 -1.0037997 0.072873965 0.28598353 -1.3137901 0.22370164 0.22250512
-3.1660075 0.61299497 -0.7518574 -1.9769316 0.06320278 -1.3772553 -0.82194036 1.3032973
00000000: fa35 50bf 2a97 073f f554 abbf 9448 1940
00000010: 01e6 40bf ceac 0e3f 9c93 503f dd36 cebf
00000020: d72b dabe c6a9 83bf 9164 acbf 68f6 233e
00000030: 7ee0 60c0 42d7 c9bf 246e a3bf 8f19 903f
00000040: fa72 8fbf 674d f73e 7f9c acbe a8e6 58be
00000050: 8239 60bf 46c2 58bf 8f97 6ebf 3116 a2bf
00000060: 1f7c bd3f 6d10 c3bf 85a1 033f cde4 4a3f
00000070: 1db5 9cbf f0d4 9e3e 932e 88bf 7675 343f
00000080: 01b7 7fbf 044f 5b3e 842c eabf caa2 11bf
00000090: 3f84 e7bf 2d94 54bf 19a7 c6bf 8549 083f
000000a0: 3aed 88bf 5034 00c0 4752 57bf b87d c6bf
000000b0: b9b3 30be f1f6 c33e dcc6 bdbf b671 b53f
000000c0: 51d3 8a3f ebf6 753e 28a7 0f3f aa75 8ebe
000000d0: 95b9 b9bf c859 4fbf b75b 063f bec9 4cbf
000000e0: fd5e d93f a242 62be 44d2 2dbf 6b6d 90bc
000000f0: 60b9 20bf 7571 9fbf 451f 2f3e 98d6 63bf
00000100: 461c 403f ed75 37bf 8a57 53bf c52b 843e
00000110: 5df6 d7bd 0c73 d03f 0881 abbf 47e9 433f
00000120: 7be2 bdbe 4588 37bf f566 c8bf 084a 09c0
00000130: 19b8 693f 8075 cdbf e665 42bf 53a5 b53e
00000140: 6bf1 663e f4b3 1f3f 0cf6 173f 8692 17c0
00000150: 077e 31c0 d6d2 75bf 1a5f 2f3e 3f4c a7bf
00000160: 8f37 b9bf 5d34 c2be e5e5 d1bd c20c aebf
00000170: 7093 df3f 0e6d c1bf 22dd efbf d636 a5bf
00000180: 5ade 463e 2741 e0be f6a4 26c0 1288 71bf
00000190: ae46 acbd 8926 0440 437d 67bf e7a8 6d3f
000001a0: 72c0 3cbf df63 81bf f2ca d9bf f97c 84bf
000001b0: 2c09 25c0 07ce 06bf 4f8f 84bf b2d1 1ebf
000001c0: 6236 6abf 34fe ccbf 827c 80bf f23e 953d
000001d0: 6f6c 923e 462a a8bf 0b12 653e 62d8 633e
000001e0: de9f 4ac0 3ded 1c3f ba79 40bf 180c fdbf
000001f0: 7670 813d e749 b0bf af6a 52bf 72d2 a63f

actor_fc_layers.blocks.1.block.1.running_var f4 [128]
9.694809 10.239587 4.3527255 11.843174 11.314981 5.943165 12.67854 11.259912
5.0383344 21.812386 24.353683 10.783951 4.317756 9.693696 18.35709 7.359775
13.767539 6.894447 7.9043417 11.630539 6.8793926 9.884937 10.969905 24.579182
13.255818 23.541689 5.772872 11.260692 9.740157 7.907193 8.9009 10.716363
4.6548266 4.128344 28.67137 8.142894 6.9999886 13.498908 20.68508 9.049596
7.7129154 7.45739 13.5588045 18.652742 7.990005 8.847328 2.8680408 2.4779356
8.219718 5.7812605 11.20971 5.2772427 25.033068 9.712768 10.94277 9.741218
11.264366 5.8111377 16.305153 4.858378 6.9907303 3.9723778 7.3282347 2.9933956
10.912851 12.499212 6.328165 3.0295906 3.9561856 4.074904 13.45007 10.717458
7.9476767 17.484854 23.103651 2.5848022 6.2512197 6.573903 10.751306 7.6541457
10.826803 10.499196 9.032225 10.560221 6.391443 14.343606 8.325176 23.54797
8.953426 9.127566 8.204098 21.231771 7.9105463 7.230856 25.56621 20.302277
8.60177 6.202387 2.4218817 6.756946 9.708054 2.4915645 8.514784 11.727856
9.560012 7.704636 6.310051 13.238268 16.963562 9.701917 9.793583 21.178686
10.708996 24.519629 19.35411 9.665479 7.0029655 4.1813893 6.3314505 5.043017
8.059374 11.539983 10.833853 2.350938 3.3032348 10.6286 8.947624 10.5363
00000000: f01d 1b41 59d5 2341 8749 8b40 a47d 3d41
00000010: 2a0a 3541 682e be40 4ddb 4a41 9928 3441
00000020: 093a a140 c47f ae41 58d4 c241 108b 2c41
00000030: 0f2b 8a40 6119 1b41 52db 9241 4783 eb40
00000040: d747 5c41 4f9f dc40 5ef0 fc40 b016 3a41
00000050: fc23 dc40 b428 1e41 bb84 2f41 2aa2 c441
00000060: d517 5441 6155 bc41 5ebb b840 cb2b 3441
00000070: afd7 1b41 ba07 fd40 166a 0e41 3976 2b41
00000080: 57f4 9440 651b 8440 f75e e541 4b49 0241
00000090: e8ff df40 87fb 5741 0b7b a541 25cb 1041
000000a0: 34d0 f640 f0a2 ee40 ddf0 5841 d138 9541
000000b0: 1fae ff40 a88e 0d41 fb8d 3740 7f96 1e40
000000c0: f783 0341 1600 b940 f95a 3341 2cdf a840
000000d0: b943 c841 7f67 1b41 9615 2f41 07dc 1b41
000000e0: d83a 3441 d7f4 b940 f470 8241 d577 9b40
000000f0: 10b4 df40 703b 7e40 e680 ea40 cb93 3f40
00000100: 0a9b 2e41 c6fc 4741 5480 ca40 d0e4 4140
00000110: 2532 7d40 9d65 8240 7d33 5741 b57a 2b41
00000120: 5e53 fe40 fbe0 8b41 47d4 b841 666d 2540
00000130: fe09 c840 6a5d d240 5905 2c41 c3ee f440
00000140: 963a 2d41 b5fc 2741 fe83 1041 aaf6 2841
00000150: b386 cc40 697f 6541 ec33 0541 3e62 bc41
00000160: 3c41 0f41 830a 1241 fc43 0341 abda a941
00000170: 3223 fd40 2c63 e740 9987 cc41 106b a241
00000180: daa0 0941 f479 c640 1c00 1b40 e738 d840
00000190: 3054 1b41 cb75 1f40 8e3c 0841 4ca5 3b41
000001a0: cff5 1841 618c f640 f0eb c940 f2cf 5341
000001b0: 60b5 8741 0d3b 1b41 84b2 1c41 f36d a941
000001c0: 0c58 2b41 3328 c441 38d5 9a41 cda5 1a41
000001d0: 4b18 e040 f1cd 8540 3e9b ca40 6560 a140
000001e0: 32f3 0041 c5a3 3841 7657 2d41 c575 1640
000001f0: 3368 5340 bf0e 2a41 7829 0f41 af94 2841

actor_fc_layers.blocks.2.block.0.weight f4 [128, 128]
-0.043516498 0.17687388 -0.0031278548 -0.051685836 0.015611034 -0.27606612 0.14927123 0.17988615
-0.023294711 -0.23338214 -0.11792418 0.11398729 0.06862076 0.08733811 -0.15304574 -0.18122046
-0.037705712 0.05386439 0.11119681 0.11772082 -0.093285605 0.058313474 -0.017521445 -0.1577457
-0.068628386 -0.25780293 -0.094494715 0.23916975 0.021491736 -0.04118515 -0.036030747 0.068203494
-0.042862684 -0.0021022689 -0.16635817 -0.012281968 0.017295307 0.0014565404 -0.16810189 -0.06599303
-0.02118892 0.090401754 0.06490596 -0.16335934 -0.035505377 0.01950089 0.07699756 0.061107527
0.016235232 0.09159163 0.13045017 -0.119791836 -0.17075554 0.010911161 0.07079766 -0.011756201
0.008270727 0.007427926 -0.094529554 0.01312588 0.0874875 0.07999871 0.102336496 0.18746154
-0.0743748 -0.058105752 0.01686331 -0.06693287 0.089403264 0.11000208 -0.16407262 0.10135796
-0.005896614 -0.03599106 -0.24505311 -0.17295663 0.0928484 0.104809456 0.1040085 0.09957642
-0.044559237 0.13760294 -0.031437296 -0.034156445 0.037754502 -0.18886596 0.10366374 -0.08091993
-0.014191313 0.04191396 -0.07296299 -0.15255906 -0.32549503 -0.051892485 -0.13246122 -0.07723663
-0.038107134 -0.18874724 0.09299228 0.031744257 -0.0019073822 -0.09042228 0.16707669 0.18731369
0.037168764 -0.032029252 -0.03648821 -0.09283822 0.07315547 0.093746684 0.004405278 -0.025520088
0.02362846 -0.18469127 -0.06780833 0.10308295 0.017135097 -0.04628632 0.009446612 0.02699277
-0.087889075 0.09351531 0.07681341 -0.3103241 -0.06816485 0.008275015 0.06750879 0.014645408
-0.123398766 -0.19140099 -0.016864616 -0.2054761 -0.070608184 -0.029155893 -0.28401542 -0.09950891
-0.09533913 -0.04895891 -0.044393327 -0.033373293 -0.11514854 -0.050864965 0.02107733 -0.2091222
0.063469306 -0.14897546 -0.02606518 -0.1750677 0.04406618 -0.22639987 0.058906306 -0.06060958
-0.19721596 0.017186953 -0.12087834 -0.14943857 -0.109322056 -0.20973235 -0.1729431 -0.32604754
-0.10803917 -0.08585601 0.07283012 -0.17188781 -0.035736892 -0.08225904 0.061096404 -0.277177
-0.039733674 0.052547507 0.009657724 0.07190674 -0.05743837 -0.14928669 -0.12865056 -0.05768514
-0.26001292 -0.104798906 -0.23294994 -0.11122418 0.012469374 0.057426866 -0.19999921 -0.05244226
-0.31717196 -0.028385153 -0.049086045 0.028947143 -0.041123785 -0.10689521 -0.19563168 -0.12920694
-0.11413999 -0.025681874 -0.12745097 -0.05882318 -0.17001627 -0.15822077 0.016629571 -0.28007722
-0.096733525 -0.13809805 0.097620115 -0.03843869 -0.091253966 -0.13147871 -0.09440818 -0.1905942
-0.12725468 -0.23439813 -0.2303844 0.028743498 -0.0725563 0.0013923805 -0.23091368 -0.111603856
-0.19002791 -0.15647566 -0.105702035 -0.0010446792 -0.11735648 -0.09916689 0.032063402 0.06284364
-0.05601643 -0.029630212 -0.08027799 -0.12355933 -0.020991733 -0.09747611 -0.12009079 -0.14267029
-0.12399148 -0.075237855 -0.0009788657 -0.035537526 -0.039951462 -0.17226356 -0.01908873 -0.13817896
-0.039053384 0.07555205 0.016476773 -0.046624396 -0.082254425 0.0060483157 -0.24441028 -0.13293847
0.048136447 -0.24017973 -0.05226191 0.07485057 -0.00296714 -0.08061416 -0.09198902 -0.32154417
00000000: 5b3e 32bd 6d1e 353e b2fc 4cbb 87b4 53bd
00000010: 6cc5 7f3c 8a58 8dbe 8fda 183e 1334 383e
00000020: 8dd4 bebc bafb 6ebe 3c82 f1bd 2b72 e93d
00000030: 0b89 8c3d 53de b23d 06b8 1cbe db91 39be
00000040: 4e71 1abd e8a0 5c3d 27bb e33d 9d17 f13d
00000050: 860c bfbd 1cda 6e3d 2289 8fbc 1788 21be
00000060: 0a8d 8cbd bffe 83be 7286 c1bd eae8 743e
00000070: 700f b03c c3b1 28bd fa94 13bd 46ae 8b3d
00000080: c890 2fbd 38c6 09bb cc59 2abe 4f3a 49bc
00000090: e3ae 8d3c 63e9 be3a e722 2cbe 5b27 87bd
000000a0: 6394 adbc 8e24 b93d 6aed 843d ac47 27be
000000b0: 166e 11bd 55c0 9f3c e6b0 9d3d e34b 7a3d
000000c0: c0ff 843c 6494 bb3d bb94 053e 6c55 f5bd
000000d0: 8ada 2ebe bac4 323c 5dfe 903d 159d 40bc
000000e0: f181 073c f665 f33b b698 c1bd ee0d 573c
000000f0: a52c b33d 5dd6 a33d cc95 d13d ebf5 3f3e
00000100: d151 98bd 4c00 6ebd ed24 8a3c 1a14 89bd
00000110: 0f19 b73d c548 e13d a702 28be c394 cf3d
00000120: 6238 c1bb 5d6b 13bd 34ef 7abe 8b1b 31be
00000130: 4d27 be3d 57a6 d63d 6902 d53d b9ee cb3d
00000140: bf83 36bd c9e7 0c3e 65c4 00bd a1e7 0bbd
00000150: 77a4 1a3d 1466 41be a84d d43d 59b9 a5bd
00000160: ae82 68bc f9ad 2b3d 9f6d 95bd 7138 1cbe
00000170: 49a7 a6be 378d 54bd eaa3 07be 3d2e 9ebd
00000180: 3a16 1cbd f546 41be bd72 be3d 4406 023d
00000190: 2001 faba 512f b9bd 2716 2b3e 29cf 3f3e
000001a0: 463e 183d 1b31 03bd a974 15bd f721 bebd
000001b0: 89d2 953d 43fe bf3d 265a 903b 810f d1bc
000001c0: 7990 c13c b51f 3dbe 18df 8abd 271d d33d
000001d0: e75e 8c3c b996 3dbd f6c5 1a3c f11f dd3c
000001e0: 30ff b3bd f484 bf3d 5950 9d3d cde2 9ebe
000001f0: 039a 8bbd ee93 073c 0c42 8a3d 4bf3 6f3c
00000200: 7eb8 fcbd 9ffe 43be aa27 8abc 5468 52be
00000210: 069b 90bd 57d8 eebc 786a 91be 54cb cbbd
00000220: 2941 c3bd 2389 48bd c7d5 35bd 6fb2 08bd
00000230: ffd2 ebbd c857 50bd 5daa ac3c 2124 56be
00000240: 32fc 813d 068d 18be a586 d5bc f244 33be
00000250: bd7e 343d 5ed5 67be bd47 713d c041 78bd
00000260: fbf2 49be a7cb 8c3c 108f f7bd 6d06 19be
00000270: 3ee4 dfbd 14c4 56be ff17 31be b4ef a6be
00000280: a443 ddbd 47d5 afbd f527 953d 5c03 30be
00000290: d960 12bd 6d77 a8bd 3940 7a3d 25ea 8dbe
000002a0: c7bf 22bd 0e3c 573d 6e3b 1e3c d743 933d
000002b0: 7f44 6bbd 9cde 18be f9bc 03be 4147 6cbd
000002c0: 6a20 85be cfa0 d6bd 6e8a 6ebe 81c9 e3bd
000002d0: 584c 4c3c 6f38 6b3d 98cc 4cbe b2cd 56bd
000002e0: 5d64 a2be fb87 e8bc 730e 49bd 8f22 ed3c
000002f0: 6a71 28bd e0eb dabd ac53 48be d34e 04be
00000300: 3ac2 e9bd cb62 d2bc 8282 02be 93f0 70bd
00000310: bf18 2ebe a004 22be bd3a 883c 4866 8fbe
00000320: 3a1c c6bd 9369 0dbe 0eed c73d e371 1dbd
00000330: 5ce3 babd 5ba2 06be 1359 c1bd 202b 43be
00000340: 0d4f 02be 1006 70be e3e9 6bbe 7c77 eb3c
00000350: 6698 94bd 8980 b63a a374 6cbe 9090 e4bd
00000360: ad96 42be 283b 20be 4f7a d8bd 9eed 88ba
00000370: 9858 f0bd 0318 cbbd ea54 033d 2bb4 803d
00000380: 7c71 65bd 0fbb f2bc c968 a4bd ad0c fdbd
00000390: dbf6 abbc 8ea1 c7bd 29f2 f5bd 2918 12be
000003a0: 3fef fdbd 4e16 9abd 484d 80ba cc8f 11bd
000003b0: 25a4 23bd dc65 30be f85f 9cbc c97e 0dbe
000003c0: 71f6 1fbd 08bb 9a3d 4cfa 863c 39f9 3ebd
000003d0: 0275 a8bd f330 c63b b046 7abe 0621 08be
000003e0: b92a 453d adf1 75be 9610 56bd 414b 993d
000003f0: 5974 42bb 0919 a5bd bd64 bcbd 70a1 a4be

actor_fc_layers.blocks.2.block.1.weight f4 [128]
0.9902357 1.0158486 0.82437146 0.9972632 0.9005967 0.84022236 0.94751716 0.94633377
0.85945404 0.8241797 0.80964726 0.99678546 0.98027444 0.9331722 1.1509168 1.1449937
0.7453756 1.0090878 0.958333 0.77153224 0.81376934 0.84657264 0.9618196 1.0418488
0.97346294 0.99278617 0.9800094 0.8737058 1.0445629 0.9912601 0.88658136 1.0658867
0.9641479 1.0452695 0.9802174 1.1249474 0.95138204 0.9689321 0.7595587 0.7488378
0.9803288 0.82987285 1.0549054 1.1401101 1.0427945 0.77565354 0.96773887 0.7931616
0.9785387 0.78559834 0.9827324 1.0939319 0.96712035 1.0311382 0.97300357 0.8476565
0.9950762 0.9011761 0.89105314 1.0941246 0.9364175 0.9282758 0.9630108 0.86269826
0.98494244 0.88549167 1.0798807 0.9631852 0.8768291 1.0403181 1.03173 0.94095117
0.8290138 0.8063814 0.9631069 0.9724509 0.8838459 0.8555933 0.8325845 0.9474461
1.0272428 1.0583873 1.0264924 0.99578553 0.9094142 0.8618975 0.9506637 1.1458967
0.9991215 0.8221314 0.8231075 0.840469 1.0494117 0.8945869 0.8397263 0.9495481
0.7728817 0.98472434 0.9910781 1.0615774 0.99443203 0.98966855 0.8810166 0.91839826
0.89233816 0.869045 0.95075065 1.0066314 0.9119458 0.7339355 1.0734775 0.78174615
0.5445238 0.8959378 1.0149982 0.99741673 0.9867619 0.9458348 1.0427821 0.90726084
1.07988 1.0280604 0.94591326 0.91436476 0.8166943 0.99700993 0.8572833 0.89571214
00000000: 1680 7d3f 5407 823f 020a 533f a44c 7f3f
00000010: 818d 663f d018 573f 7c90 723f ee42 723f
00000020: 2e05 5c3f 71fd 523f 0b45 4f3f 552d 7f3f
00000030: 44f3 7a3f 60e4 6e3f 3e51 933f 278f 923f
00000040: efd0 3e3f ca29 813f 5055 753f 2383 453f
00000050: 3053 503f fcb8 583f cf39 763f 4d5b 853f
00000060: de34 793f 3c27 7e3f e5e1 7a3f 2fab 5f3f
00000070: 3db4 853f 39c3 7d3f fff6 623f fa6e 883f
00000080: 66d2 763f 64cb 853f 87ef 7a3f 47fe 8f3f
00000090: c68d 733f ef0b 783f 7072 423f d6b3 3f3f
000000a0: d4f6 7a3f 8c72 543f 2407 873f 21ef 913f
000000b0: 4a7a 853f 3b91 463f bcbd 773f a30c 4b3f
000000c0: 8381 7a3f f91c 493f 5a94 7b3f f605 8c3f
000000d0: 3395 773f 56fc 833f c316 793f 0400 593f
000000e0: 50bd 7e3f 7ab3 663f 0f1c 643f 460c 8c3f
000000f0: 0fb9 6f3f 7ca3 6d3f e087 763f cbd9 5c3f
00000100: 3025 7c3f 95af 623f 8839 8a3f 4e93 763f
00000110: df77 603f 2529 853f bb0f 843f 2de2 703f
00000120: 403a 543f 036f 4e3f 2c8e 763f 8bf2 783f
00000130: ba43 623f 2a08 5b3f 4224 553f d48b 723f
00000140: b17c 833f 3c79 873f 1a64 833f cdeb 7e3f
00000150: 5ecf 683f 51a5 5c3f b25e 733f beac 923f
00000160: 6dc6 7f3f 3477 523f 2cb7 523f fa28 573f
00000170: 1f53 863f a603 653f 4ef8 563f 9615 733f
00000180: 93db 453f e516 7c3f 4bb7 7d3f c5e1 873f
00000190: 1993 7e3f eb5a 7d3f 4e8a 613f 261c 6b3f
000001a0: 4670 643f bc79 5e3f 6564 733f 4cd9 803f
000001b0: 4875 693f 32e3 3b3f b667 893f 8420 483f
000001c0: e965 0b3f 2e5c 653f 76eb 813f b456 7f3f
000001d0: 6e9c 7c3f 3b22 723f e279 853f 3f42 683f
000001e0: 8239 8a3f 7c97 833f 5f27 723f cf13 6a3f
000001f0: e112 513f 0b3c 7f3f eb76 5b3f 644d 653f

actor_fc_layers.blocks.2.block.1.bias f4 [128]
-0.2798299 -0.00034609908 -0.35620227 -0.09251789 -0.29282427 -0.23248276 -0.36364853 -0.45922157
-0.17391254 -0.021136077 -0.2840423 -0.3841953 -0.08270907 -0.40511295 -0.29877248 0.038503513
-0.3048052 -0.13624789 -0.270832 -0.41567272 -0.36673573 -0.123486035 -0.23493677 -0.03451635
-0.1384598 -0.18379924 -0.16569106 -0.30360588 -0.30471748 -0.4058945 -0.3498308 -0.1671315
-0.43438542 -0.3537854 -0.27327412 -0.09404395 -0.011549671 -0.039164267 -0.26560003 -0.06499984
-0.16370094 -0.29411364 -0.15756701 -0.06986095 -0.38113928 0.04856447 -0.16640021 -0.22715484
-0.3907685 -0.11229878 -0.19717991 -0.14216237 -0.4484513 -0.21613854 0.014044859 -0.345208
-0.048624728 -0.17013113 -0.010743515 -0.080742344 -0.30969486 -0.2891292 -0.11314463 -0.066472046
-0.15386078 -0.3780027 -0.30706728 -0.17634717 -0.3758292 -0.2885283 -0.09442961 -0.12219794
-0.18961073 0.010661118 -0.05308878 -0.35526192 -0.2866628 0.09051627 -0.1932508 -0.22657925
-0.35930413 -0.15878205 -0.3029527 -0.07965832 -0.09694628 -0.25064245 -0.46188995 -0.13772582
-0.16041058 -0.2992814 -0.15707134 -0.086209364 -0.36488166 -0.33626336 -0.27670455 -0.22217785
-0.13378856 -0.33503407 -0.4171246 -0.32021368 -0.26659387 -0.20881067 -0.3193136 -0.28378776
-0.32521594 -0.3450183 -0.10230751 -0.38248074 -0.08779366 -0.26783606 -0.14076315 -0.109078944
-0.24920572 -0.47575602 -0.14192505 -0.33309183 -0.13324234 -0.37036863 -0.1375311 -0.31130534
-0.07186393 -0.17477435 -0.10463885 -0.052455172 -0.18655562 -0.19869605 -0.009986015 -0.46703166
00000000: dd45 8fbe a274 b5b9 2560 b6be 057a bdbd
00000010: 10ed 95be f60f 6ebe 2430 babe 171f ebbe
00000020: 2116 32be 9125 adbc fe6d 91be 3fb5 c4be
00000030: 5f63 a9bd f76a cfbe b5f8 98be dcb5 1d3d
00000040: 6d0f 9cbe 9184 0bbe 7eaa 8abe 0ed3 d4be
00000050: c9c4 bbbe 3fe6 fcbd 4493 70be 0461 0dbd
00000060: 68c8 0dbe de35 3cbe ebaa 29be 3b72 9bbe
00000070: ee03 9cbe 67d1 cfbe 061d b3be 8524 2bbe
00000080: c467 debe 5c23 b5be 96ea 8bbe 1d9a c0bd
00000090: d53a 3dbc b66a 20bd bafc 87be a31e 85bd
000000a0: 38a1 27be 1096 96be 3f59 21be 4213 8fbd
000000b0: b024 c3be 8aeb 463d d164 2abe 479b 68be
000000c0: cf12 c8be e7fc e5bd 88e9 49be 0393 11be
000000d0: 699b e5be 6c53 5dbe 691c 663c 1abf b0be
000000e0: b92a 47bd db36 2ebe 9105 30bc 3e5c a5bd
000000f0: 5390 9ebe be08 94be 5fb8 e7bd 7f22 88bd
00000100: ae8d 1dbe 9289 c1be ec37 9dbe 5a94 34be
00000110: af6c c0be fbb9 93be 5064 c1bd ea42 fabd
00000120: 5129 42be f8ab 2e3c 9f73 59bd e4e4 b5be
00000130: 77c5 92be 9860 b93d 8ae3 45be 6404 68be
00000140: b6f6 b7be c397 22be 9e1c 9bbe e723 a3bd
00000150: c58b c6bd 3554 80be d77c ecbe ff07 0dbe
00000160: ac42 24be 693b 99be 4fd7 20be 898e b0bd
00000170: c5d1 babe b62a acbe 38ac 8dbe 9782 63be
00000180: deff 08be 9689 abbe 5b91 d5be 0cf3 a3be
00000190: fe7e 88be 77d2 55be 127d a3be a14c 91be
000001a0: b482 a6be 3da6 b0be 9a86 d1bd 84d4 c3be
000001b0: 2acd b3bd cf21 89be 3724 10be c864 dfbd
000001c0: c92f 7fbe 4b96 f3be cd54 11be 038b aabe
000001d0: ae70 08be f5a0 bdbe f4d4 0cbe 6a63 9fbe
000001e0: 652d 93bd 0cf8 32be e54c d6bd 3cdb 56bd
000001f0: 7008 3fbe fa76 4bbe 629c 23bc c61e efbe
