saved_models/agent_maddpgv2_vs_opp_maddpgv2_3_vs_1_1_big_5_sec_adver_best_models/maddpgv2_actor_0.pt (torch, 160779 bytes, 21 tensors)

actor_fc_layers.blocks.0.block.0.weight f4 [128, 22]
0	0x3db43ebd	0.08801029
1	0x3bd987c5	0.0066384994
2	0x3f2e4f58	0.6808982
3	0x3f4bc5fb	0.7959897
4	0x3d90564d	0.070477106
5	0x3e754eb8	0.2395581
6	0x3e46b875	0.19406302
7	0x3dace8f6	0.08442871
8	0xbe0ed918	-0.13950002
9	0x3dba8019	0.09106464
10	0xbe8d4515	-0.27591768
11	0x3eb93963	0.36176595
12	0xbe17b4d7	-0.14815079
13	0xbe74dda6	-0.23912677
14	0xbdb40bf6	-0.08791344
15	0x3e123b14	0.14280349
16	0x3da89b25	0.082327165
17	0xbb003dce	-0.0019568088
18	0x3c061c88	0.008185513
19	0xbd779615	-0.060445864
20	0x3e435757	0.19076286
21	0x3ca98120	0.020691454
22	0xbdcf4253	-0.10120072
23	0xbc9262bb	-0.017869344
24	0x3ea868b6	0.32892388
25	0xbe5e8517	-0.21730457
26	0x3ebf8d42	0.3741246
27	0xbf0af825	-0.5428489
28	0xbe4fffa7	-0.20312367
29	0x3e0d1fe5	0.13781698
30	0x3d255d29	0.040372048
31	0x3da23dd5	0.0792195
32	0xbe11d489	-0.14241232
33	0xbd84c67c	-0.064831704
34	0xbe6e213a	-0.23254862
35	0xba567a82	-0.0008181707
36	0xbd44ec70	-0.048077047
37	0xbc9b0f6d	-0.018928254
38	0x3df163ed	0.117866375
39	0x3da7197a	0.08159156
40	0xbdeaf9b2	-0.11473407
41	0xbdd9bb8a	-0.10631473
42	0x3db4ff36	0.0883774
43	0xbce7589a	-0.02824049
44	0xbd0f2c5a	-0.034954406
45	0x3cb4963d	0.022044295
46	0x3ead17b9	0.3380716
47	0xbec2ab66	-0.38021392
48	0x3ee9d77c	0.45672214
49	0x3e762600	0.24037933
50	0xbe3dd6a8	-0.18538916
51	0x3e159387	0.14607058
52	0xbe30093c	-0.17191023
53	0xbeeb9938	-0.46015334
54	0x3d50f1cc	0.051011845
55	0xbb8b3b17	-0.0042489874
56	0x3e273da7	0.16332112
57	0xbc9cca1c	-0.019139342
58	0xbda40fa3	-0.08010795
59	0x3de3545a	0.11100073
60	0x3cffd034	0.031227209
61	0x3e74594c	0.23862189
62	0x3e083c91	0.13304354
63	0x3d1e6218	0.03866777
64	0xbda37172	-0.07980622
65	0x3c8f5c76	0.017500143
66	0xbcc8eb5b	-0.024526289
67	0xbc8ad15d	-0.016945535
68	0x3f05089f	0.5196628
69	0xbe97adbf	-0.29624745
70	0x3e8bcbd8	0.27303958
71	0xbe749253	-0.23883943
72	0xbdfb0c69	-0.122582264
73	0x3e037f76	0.12841591
74	0x3e435730	0.19076228
75	0x3e37afc7	0.17938147
76	0xbe45a6ce	-0.19301912
77	0x3ed69493	0.41910228
78	0x3e16ba6a	0.14719549
79	0xbe1de279	-0.15418424
80	0xbe275c65	-0.1634384
81	0x3c80ed1e	0.015738066
82	0x3d477b60	0.048701644
83	0x3d6949bd	0.056955088
84	0xbd88b067	-0.06674271
85	0x3ce3d1f4	0.027810074
86	0x3d0399ac	0.032128975
87	0xbded963a	-0.11600919
88	0xbd6fd33d	-0.058551062
89	0x3ba53d2a	0.0050426917
90	0x3e6f698c	0.23380107
91	0x3de3a02a	0.11114533
92	0x3ecbde4f	0.39818045
93	0xbd42fdac	-0.0476052
94	0x3e03e1c8	0.12879097
95	0x3cb69b90	0.022290975
96	0x3e0dbc94	0.13841468
97	0xbe30aba2	-0.17252973
98	0xbe14a932	-0.14517668
99	0xbe6d6bdc	-0.23185676
100	0xbead01e6	-0.3379051
101	0x3f193960	0.5985317
102	0x3e68824c	0.22705954
103	0x3db43cfd	0.08800695
104	0xbe47bee5	-0.19506414
105	0xbe8ae969	-0.27131203
106	0x3ecf9d02	0.40549475
107	0x3e8f2803	0.27960214
108	0xbe33a608	-0.17543805
109	0x3e55129d	0.20807882
110	0xbd2887f9	-0.0411453
111	0xbd642374	-0.055697873
112	0xbf22229f	-0.6333408
113	0xbeb19f16	-0.34691685
114	0xbe029c1a	-0.1275486
115	0x3dfeca56	0.12440936
116	0x3d88d995	0.066821255
117	0x3e280f6b	0.16412131
118	0x3cebce73	0.028784966
119	0x3efbad66	0.4915573
120	0x3e50cea9	0.20391335
121	0xbe25f9d1	-0.16208579
122	0x3ec54b23	0.38533887
123	0xbdae0ffd	-0.08499143
124	0xbe8fb6b5	-0.28069082
125	0xbea7d2c4	-0.3277799
126	0x3c9ada88	0.018903032
127	0xbd158d38	-0.03651163
128	0x3d03fa45	0.032221097
129	0xbe66f2e2	-0.2255359
130	0xbd099e48	-0.033598214
131	0xbe2d35d5	-0.16915067
132	0xbddf9151	-0.10916389
133	0xbca4471d	-0.02005344
134	0x3efbe8ab	0.4920095
135	0x3ecf7e2a	0.40525943
136	0xbef0326c	-0.4691347
137	0x3e248e07	0.16069804
138	0x3e1406b9	0.1445569
139	0x3d909b7b	0.070609055
140	0x3dcc88f7	0.099870615
141	0x3d18e490	0.03732735
142	0x3e631c8d	0.2217886
143	0x3ea253c6	0.3170454
144	0xbe057e08	-0.13036358
145	0xbe40ca4c	-0.1882717
146	0xbe8f12e6	-0.27944106
147	0xbcacb394	-0.021081723
148	0x3ccbd0ee	0.024879899
149	0x3d5288d9	0.05140004
150	0x3ca36c16	0.019949
151	0xbe333340	-0.17500019
152	0x3e30b700	0.17257309
153	0xbe8aec15	-0.2713324
154	0x3d84ee08	0.06490713
155	0xbcc178db	-0.023617199
156	0xbd3b3057	-0.045700397
157	0xbf26d9f1	-0.651763
158	0xbdd1ba63	-0.102406286
159	0xbe77f2b4	-0.24213678
160	0x3d97a530	0.07404554
161	0x3da0894a	0.07838686
162	0xbe0dc9a4	-0.13846451
163	0xbe1041ed	-0.14087649
164	0xbdd502ff	-0.10400962
165	0xbd54c194	-0.051942423
166	0xbb82d6cf	-0.0039928923
167	0xbda13159	-0.078707404
168	0x3bf7bee1	0.0075605963
169	0xbd4d151a	-0.050068952
170	0x3d0344bc	0.032047972
171	0xbef7c520	-0.48392582
172	0xbe3dcd06	-0.18535241
173	0xbd932642	-0.071850315
174	0xbc178c7f	-0.0092498055
175	0xbe1affa2	-0.15136579
176	0x3ddc2b6f	0.10750472
177	0xbb84e0b6	-0.004055108
178	0xbe784d51	-0.24248244
179	0x3f3a7c7b	0.7284619
180	0xbdd53212	-0.10409941
181	0x3e018030	0.12646556
182	0x3e592ba0	0.21208048
183	0x3dd2cbf4	0.10292807
184	0x3e4cc940	0.19998646
185	0xbd84482b	-0.064590774
186	0xbeef7e86	-0.46776217
187	0xba854cdd	-0.0010170002
188	0xbe99bb2b	-0.3002561
189	0x3d09e04c	0.03366117
190	0x3d8a65c6	0.06757693
191	0x3d08640c	0.033298537
192	0x3cc6200a	0.0241852
193	0x3de323ba	0.11090799
194	0x3e5b6a7a	0.21427336
195	0x3d9e40be	0.07727192
196	0xbc9ff609	-0.019526498
197	0xbdec99e2	-0.11552788
198	0x3d02617c	0.03183125
199	0x3c0132e1	0.007885666
200	0x3f0c84d9	0.5489021
201	0xbea9b583	-0.33146295
202	0x3d5454c3	0.051838648
203	0xbeb55c12	-0.35421807
204	0xbdea2654	-0.11433092
205	0xbe2a73c2	-0.1664572
206	0xbdb026b2	-0.086011305
207	0xbcaf3373	-0.021386838
208	0xbe3b5d2f	-0.18297265
209	0x3d5c5697	0.053793516
210	0x3e9fc5c1	0.31205562
211	0x3e02ff0e	0.12792608
212	0xbe5ee1e3	-0.21765856
213	0x3c74ebc8	0.014948793
214	0xbdda7e04	-0.10668567
215	0x3d4ac201	0.049501423
216	0xbda5ad4e	-0.08089696
217	0x3e03bd41	0.12865163
218	0xbdd72c10	-0.10506451
219	0xbe328c05	-0.17436226
220	0x3e4546c9	0.19265284
221	0xbc154555	-0.009110768
222	0x3e5f76c6	0.21822652
223	0x3eb656b1	0.35613015
224	0xbe027ef9	-0.12743749
225	0x3e22813e	0.15869614
226	0xbd335b85	-0.04378845
227	0x3ce024e5	0.027361343
228	0x3e527f2d	0.20556326
229	0xbe4579db	-0.19284765
230	0xbd358ec5	-0.04432561
231	0x3b230649	0.0024875572
232	0x3e455ee1	0.19274475
233	0xbdc44637	-0.09583705
234	0xbe2ba6eb	-0.16762893
235	0x3d654d81	0.055982117
236	0xbd731bf1	-0.05935282
237	0xbdcd6d07	-0.10030561
238	0x3c1d4af2	0.009600388
239	0xbd862405	-0.06549839
240	0x3d730c57	0.05933794
241	0xbc4c8739	-0.0124834115
242	0xbde00f52	-0.10940422
243	0xbdd35d24	-0.103204995
244	0xbd6aeec8	-0.057356626
245	0xbedcca0d	-0.43122903
246	0xbe9cd216	-0.30629033
247	0xbd7dfb24	-0.062007084
248	0xbe3c0ec1	-0.18365003
249	0x3d9a7c3a	0.075432256
250	0xbdc70d0d	-0.09719286
251	0xbdc477b6	-0.095931455
252	0x3e49b302	0.19697192
253	0xbeb518f2	-0.35370594
254	0x3dec63fb	0.11542507
255	0xbd6b7552	-0.057484932

actor_fc_layers.blocks.0.block.1.weight f4 [128]
0	0x3fa107b8	1.258048
1	0x3fac0eb8	1.3441992
2	0x3f820234	1.0156922
3	0x3f8b0c48	1.0863123
4	0x3f617180	0.8806381
5	0x3f97985b	1.184337
6	0x3f856b20	1.0423317
7	0x3f87ae70	1.0600109
8	0x3f89fab0	1.0779629
9	0x3f91650f	1.1358966
10	0x3f697a61	0.9120236
11	0x3fa36fdc	1.2768512
12	0x3f701140	0.9377632
13	0x3f8eb905	1.1150213
14	0x3f9bedd6	1.2181957
15	0x3fb2d704	1.3971868
16	0x3fb39bb3	1.4031891
17	0x3f8d1d86	1.1024635
18	0x3f8a50fc	1.0805964
19	0x3f6d6dc6	0.92745626
20	0x3f81f381	1.0152436
21	0x3f639b72	0.88909066
22	0x3f427704	0.75962853
23	0x3f8a00cf	1.0781497
24	0x3fa42271	1.2823011
25	0x3f532cea	0.8249041
26	0x3f8f3ded	1.1190773
27	0x3f700a5f	0.93765825
28	0x3f9d8cbe	1.2308576
29	0x3f9e2ae9	1.2356845
30	0x3f73e906	0.9527744
31	0x3f8a8049	1.08204
32	0x3f70dca3	0.94086665
33	0x3f457282	0.7712785
34	0x3f626e2d	0.88449365
35	0x3fa15e20	1.260685
36	0x3f977e9d	1.1835514
37	0x3f86d495	1.0533625
38	0x3f433957	0.7625937
39	0x3f8431f3	1.0327743
40	0x3f6df978	0.92958784
41	0x3f92576d	1.143293
42	0x3f9e50e1	1.2368432
43	0x3f96bcc7	1.177636
44	0x3f581a28	0.8441491
45	0x3f90f779	1.1325523
46	0x3f975783	1.1823581
47	0x3f690f12	0.9103862
48	0x3f72d1ae	0.94851196
49	0x3f6a5b5d	0.9154566
50	0x3f9a7fd4	1.207026
51	0x3f814172	1.0098097
52	0x3f4a255a	0.78963244
53	0x3f81020d	1.0078751
54	0x3f5fff23	0.8749868
55	0x3f9cc5c7	1.2247857
56	0x3fcc51e4	1.5962491
57	0x3f968e33	1.1762146
58	0x3f6f6328	0.93510675
59	0x3f6040eb	0.87599057
60	0x3f894868	1.0725222
61	0x3f9e9821	1.2390176
62	0x3fa83760	1.3141899
63	0x3f5e4b6f	0.8683385
64	0x3f8e6051	1.1123143
65	0x3f35cf4d	0.7101944
66	0x3f9e2e00	1.2357788
67	0x3f58abb5	0.84637004
68	0x3fa5f5e8	1.296567
69	0x3f69bbda	0.91302264
70	0x3fadca90	1.3577442
71	0x3f92a25a	1.1455796
72	0x3f7026a7	0.9380898
73	0x3f91016c	1.1328559
74	0x3f90d3f8	1.1314688
75	0x3fad7862	1.3552363
76	0x3faf23a4	1.3682752
77	0x3fa6f6fc	1.3044124
78	0x3f728bd9	0.9474464
79	0x3f99d586	1.2018287
80	0x3fa18d00	1.2621155
81	0x3f7bac29	0.9830957
82	0x3f5cafb2	0.8620559
83	0x3fa54f1b	1.2914766
84	0x3fafc030	1.3730526
85	0x3f80f263	1.007397
86	0x3f5ac370	0.85454464
87	0x3fa89f21	1.3173562
88	0x3f4776b2	0.7791549
89	0x3fa955b8	1.3229284
90	0x3f50ddb2	0.8158828
91	0x3f85d66c	1.0456061
92	0x3f511382	0.8167039
93	0x3f51995b	0.81874627
94	0x3f7265f1	0.946868
95	0x3f850a81	1.039383
96	0x3f993b02	1.1971133
97	0x3fb2a47c	1.3956447
98	0x3f7bc254	0.98343396
99	0x3f5da118	0.86573935
100	0x3fb99510	1.4498615
101	0x3f81299c	1.0090823
102	0x3f7a3298	0.9773345
103	0x3f8d9b18	1.1062956
104	0x3f843f64	1.0331845
105	0x3f5eb74a	0.86998427
106	0x3fac2d3a	1.3451302
107	0x3fb6ac21	1.427128
108	0x3f967007	1.1752938
109	0x3fb85d1a	1.4403412
110	0x3f5dddf5	0.86666805
111	0x3fa70cb3	1.305075
112	0x3f81b31d	1.0132786
113	0x3fb18f9e	1.3871953
114	0x3f8283b3	1.0196441
115	0x3fcdf80c	1.6091323
116	0x3f69d0a1	0.9133397
117	0x3f989460	1.192028
118	0x3f712ce8	0.94209146
119	0x3fbd001b	1.4765657
120	0x3f5c91fd	0.8616026
121	0x3f9795de	1.1842611
122	0x3fb87b7d	1.4412686
123	0x3f7eb1cc	0.99490047
124	0x3f852dbc	1.0404582
125	0x3faaecd5	1.3353525
126	0x3f2c86ca	0.6739317
127	0x3f30ed6c	0.6911228

actor_fc_layers.blocks.0.block.1.bias f4 [128]
0	0xbe153f6e	-0.14574978
1	0xbd8b8787	-0.06812959
2	0xbe83ddc4	-0.2575513
3	0xbe427dc2	-0.18993285
4	0x3e99e171	0.3005481
5	0xbd96445e	-0.07337259
6	0xbdef3e77	-0.11681836
7	0xbdd44f6b	-0.1036671
8	0xbea68618	-0.3252418
9	0xbe877add	-0.26460925
10	0xbec116ee	-0.37712806
11	0x3d0c891b	0.03431044
12	0xbee088a6	-0.43854254
13	0xbe50f26b	-0.20404975
14	0x3d24076e	0.040046148
15	0xbdf338f7	-0.118760996
16	0x3e01cb9e	0.1267533
17	0xbd23ab97	-0.039958563
18	0x3d4efce1	0.050534133
19	0xbea0e5cf	-0.3142533
20	0x3e87c42b	0.26516852
21	0xbecdfc43	-0.40231523
22	0x3dc86ce5	0.09786395
23	0xbe80a0a1	-0.2512255
24	0x3d8b778a	0.0680991
25	0x3ea9373f	0.33049962
26	0xbd5bfb60	-0.053706527
27	0xbe381c45	-0.17979534
28	0x3e290b03	0.16508107
29	0xbdfb7564	-0.1227825
30	0x3ed495bd	0.4152049
31	0xbe0d42ab	-0.13794963
32	0xbec7a540	-0.38993263
33	0xbe6370fb	-0.22211067
34	0xbd05a7ad	-0.03263061
35	0xbd9938d1	-0.0748154
36	0x3d8aa3fb	0.06769558
37	0x3e8baa0e	0.2727818
38	0x3ebfc239	0.37452868
39	0xbe837478	-0.25674796
40	0xbe922b5f	-0.28548715
41	0xbec036a5	-0.3754169
42	0x3dee61d4	0.11639753
43	0xbc171eba	-0.009223634
44	0xbd0932eb	-0.033495825
45	0x3d5cd780	0.053916454
46	0xbde41a6f	-0.11137854
47	0xbe533e93	-0.20629339
48	0xbdfb4192	-0.12268366
49	0xbe1a159d	-0.15047307
50	0x3e994c55	0.2994105
51	0x3e10a2bb	0.14124577
52	0x3e44ac19	0.19206275
53	0x3ecf9638	0.40544295
54	0x3d85ccbc	0.065331906
55	0xbdd02205	-0.10162739
56	0xbd70b287	-0.058764007
57	0xbdb1adc3	-0.086757205
58	0xbe3528c6	-0.17691335
59	0xbed5da87	-0.41768286
60	0x3d646306	0.0557585
61	0xbd5690f8	-0.052384347
62	0xbb746b18	-0.0037295278
63	0x3e430923	0.19046454
64	0x3c6be8bc	0.01439875
65	0x3e935c38	0.28781295
66	0x3e483473	0.19551258
67	0xbe8fb521	-0.28067878
68	0x3e81e993	0.25373515
69	0xbdfd7c63	-0.123772405
70	0x3d59b753	0.053153347
71	0xbd7488a1	-0.059700612
72	0xbe0834ee	-0.13301441
73	0xbe40140d	-0.18757649
74	0xbee042f1	-0.43801072
75	0x3d2f3436	0.0427744
76	0x3e6b39ce	0.2297127
77	0x3c3df2f4	0.011593569
78	0xbead654f	-0.33866355
79	0x3d2a18ff	0.041527744
80	0x3e8654de	0.26236624
81	0xba1aa8c6	-0.0005899783
82	0xbec8f767	-0.39251253
83	0x3d0ca72c	0.034339115
84	0x3da12b90	0.07869637
85	0xbe64ae33	-0.22332077
86	0xbeec1b89	-0.46114758
87	0x3e363569	0.17793812
88	0x3eb7c783	0.35894403
89	0x3ca25ac4	0.019818671
90	0x3e96d370	0.2945819
91	0xbeb1fef3	-0.34764823
92	0x3e198d89	0.14995398
93	0x3e97c402	0.2964173
94	0xbe2eb566	-0.17061386
95	0xbd69ee71	-0.05711216
96	0xbdf7113d	-0.12063835
97	0xbe1b001b	-0.15136759
98	0xbd9cfd7c	-0.07665536
99	0xbedae661	-0.4275389
100	0x3db6b533	0.0892128
101	0xbdfec36a	-0.12439616
102	0x3ddbdea9	0.107358284
103	0xbe647cab	-0.22313182
104	0xbe362258	-0.17786539
105	0xbd46216a	-0.04837171
106	0x3d8fe89c	0.070267886
107	0xbd640ae1	-0.055674437
108	0x3e189915	0.14902146
109	0xbcb99f83	-0.022659069
110	0x3dc568fc	0.09639165
111	0x3ea195c2	0.3155957
112	0xbdb9b2a5	-0.09067277
113	0x3ebdd179	0.37073877
114	0xbe9dd3ff	-0.30825803
115	0x3d88b54c	0.06675205
116	0xbec43de8	-0.3832848
117	0x3bacc2ba	0.0052722367
118	0x3e0418bf	0.12900065
119	0xbdb13808	-0.08653265
120	0x3d5c1871	0.053734247
121	0xbe03023b	-0.1279382
122	0x3e02f2b7	0.12787901
123	0x3ed24431	0.4106765
124	0x3e94a24a	0.29030067
125	0x3d266441	0.040622953
126	0x3e783db6	0.24242291
127	0x3e9fb6c8	0.3119414

actor_fc_layers.blocks.0.block.1.running_mean f4 [128]
0	0x00000000	0.0
1	0x00000000	0.0
2	0x00000000	0.0
3	0x00000000	0.0
4	0x00000000	0.0
5	0x00000000	0.0
6	0x00000000	0.0
7	0x00000000	0.0
8	0x00000000	0.0
9	0x00000000	0.0
10	0x00000000	0.0
11	0x00000000	0.0
12	0x00000000	0.0
13	0x00000000	0.0
14	0x00000000	0.0
15	0x00000000	0.0
16	0x00000000	0.0
17	0x00000000	0.0
18	0x00000000	0.0
19	0x00000000	0.0
20	0x00000000	0.0
21	0x00000000	0.0
22	0x00000000	0.0
23	0x00000000	0.0
24	0x00000000	0.0
25	0x00000000	0.0
26	0x00000000	0.0
27	0x00000000	0.0
28	0x00000000	0.0
29	0x00000000	0.0
30	0x00000000	0.0
31	0x00000000	0.0
32	0x00000000	0.0
33	0x00000000	0.0
34	0x00000000	0.0
35	0x00000000	0.0
36	0x00000000	0.0
37	0x00000000	0.0
38	0x00000000	0.0
39	0x00000000	0.0
40	0x00000000	0.0
41	0x00000000	0.0
42	0x00000000	0.0
43	0x00000000	0.0
44	0x00000000	0.0
45	0x00000000	0.0
46	0x00000000	0.0
47	0x00000000	0.0
48	0x00000000	0.0
49	0x00000000	0.0
50	0x00000000	0.0
51	0x00000000	0.0
52	0x00000000	0.0
53	0x00000000	0.0
54	0x00000000	0.0
55	0x00000000	0.0
56	0x00000000	0.0
57	0x00000000	0.0
58	0x00000000	0.0
59	0x00000000	0.0
60	0x00000000	0.0
61	0x00000000	0.0
62	0x00000000	0.0
63	0x00000000	0.0
64	0x00000000	0.0
65	0x00000000	0.0
66	0x00000000	0.0
67	0x00000000	0.0
68	0x00000000	0.0
69	0x00000000	0.0
70	0x00000000	0.0
71	0x00000000	0.0
72	0x00000000	0.0
73	0x00000000	0.0
74	0x00000000	0.0
75	0x00000000	0.0
76	0x00000000	0.0
77	0x00000000	0.0
78	0x00000000	0.0
79	0x00000000	0.0
80	0x00000000	0.0
81	0x00000000	0.0
82	0x00000000	0.0
83	0x00000000	0.0
84	0x00000000	0.0
85	0x00000000	0.0
86	0x00000000	0.0
87	0x00000000	0.0
88	0x00000000	0.0
89	0x00000000	0.0
90	0x00000000	0.0
91	0x00000000	0.0
92	0x00000000	0.0
93	0x00000000	0.0
94	0x00000000	0.0
95	0x00000000	0.0
96	0x00000000	0.0
97	0x00000000	0.0
98	0x00000000	0.0
99	0x00000000	0.0
100	0x00000000	0.0
101	0x00000000	0.0
102	0x00000000	0.0
103	0x00000000	0.0
104	0x00000000	0.0
105	0x00000000	0.0
106	0x00000000	0.0
107	0x00000000	0.0
108	0x00000000	0.0
109	0x00000000	0.0
110	0x00000000	0.0
111	0x00000000	0.0
112	0x00000000	0.0
113	0x00000000	0.0
114	0x00000000	0.0
115	0x00000000	0.0
116	0x00000000	0.0
117	0x00000000	0.0
118	0x00000000	0.0
119	0x00000000	0.0
120	0x00000000	0.0
121	0x00000000	0.0
122	0x00000000	0.0
123	0x00000000	0.0
124	0x00000000	0.0
125	0x00000000	0.0
126	0x00000000	0.0
127	0x00000000	0.0

actor_fc_layers.blocks.0.block.1.running_var f4 [128]
0	0x3f800000	1.0
1	0x3f800000	1.0
2	0x3f800000	1.0
3	0x3f800000	1.0
4	0x3f800000	1.0
5	0x3f800000	1.0
6	0x3f800000	1.0
7	0x3f800000	1.0
8	0x3f800000	1.0
9	0x3f800000	1.0
10	0x3f800000	1.0
11	0x3f800000	1.0
12	0x3f800000	1.0
13	0x3f800000	1.0
14	0x3f800000	1.0
15	0x3f800000	1.0
16	0x3f800000	1.0
17	0x3f800000	1.0
18	0x3f800000	1.0
19	0x3f800000	1.0
20	0x3f800000	1.0
21	0x3f800000	1.0
22	0x3f800000	1.0
23	0x3f800000	1.0
24	0x3f800000	1.0
25	0x3f800000	1.0
26	0x3f800000	1.0
27	0x3f800000	1.0
28	0x3f800000	1.0
29	0x3f800000	1.0
30	0x3f800000	1.0
31	0x3f800000	1.0
32	0x3f800000	1.0
33	0x3f800000	1.0
34	0x3f800000	1.0
35	0x3f800000	1.0
36	0x3f800000	1.0
37	0x3f800000	1.0
38	0x3f800000	1.0
39	0x3f800000	1.0
40	0x3f800000	1.0
41	0x3f800000	1.0
42	0x3f800000	1.0
43	0x3f800000	1.0
44	0x3f800000	1.0
45	0x3f800000	1.0
46	0x3f800000	1.0
47	0x3f800000	1.0
48	0x3f800000	1.0
49	0x3f800000	1.0
50	0x3f800000	1.0
51	0x3f800000	1.0
52	0x3f800000	1.0
53	0x3f800000	1.0
54	0x3f800000	1.0
55	0x3f800000	1.0
56	0x3f800000	1.0
57	0x3f800000	1.0
58	0x3f800000	1.0
59	0x3f800000	1.0
60	0x3f800000	1.0
61	0x3f800000	1.0
62	0x3f800000	1.0
63	0x3f800000	1.0
64	0x3f800000	1.0
65	0x3f800000	1.0
66	0x3f800000	1.0
67	0x3f800000	1.0
68	0x3f800000	1.0
69	0x3f800000	1.0
70	0x3f800000	1.0
71	0x3f800000	1.0
72	0x3f800000	1.0
73	0x3f800000	1.0
74	0x3f800000	1.0
75	0x3f800000	1.0
76	0x3f800000	1.0
77	0x3f800000	1.0
78	0x3f800000	1.0
79	0x3f800000	1.0
80	0x3f800000	1.0
81	0x3f800000	1.0
82	0x3f800000	1.0
83	0x3f800000	1.0
84	0x3f800000	1.0
85	0x3f800000	1.0
86	0x3f800000	1.0
87	0x3f800000	1.0
88	0x3f800000	1.0
89	0x3f800000	1.0
90	0x3f800000	1.0
91	0x3f800000	1.0
92	0x3f800000	1.0
93	0x3f800000	1.0
94	0x3f800000	1.0
95	0x3f800000	1.0
96	0x3f800000	1.0
97	0x3f800000	1.0
98	0x3f800000	1.0
99	0x3f800000	1.0
100	0x3f800000	1.0
101	0x3f800000	1.0
102	0x3f800000	1.0
103	0x3f800000	1.0
104	0x3f800000	1.0
105	0x3f800000	1.0
106	0x3f800000	1.0
107	0x3f800000	1.0
108	0x3f800000	1.0
109	0x3f800000	1.0
110	0x3f800000	1.0
111	0x3f800000	1.0
112	0x3f800000	1.0
113	0x3f800000	1.0
114	0x3f800000	1.0
115	0x3f800000	1.0
116	0x3f800000	1.0
117	0x3f800000	1.0
118	0x3f800000	1.0
119	0x3f800000	1.0
120	0x3f800000	1.0
121	0x3f800000	1.0
122	0x3f800000	1.0
123	0x3f800000	1.0
124	0x3f800000	1.0
125	0x3f800000	1.0
126	0x3f800000	1.0
127	0x3f800000	1.0

actor_fc_layers.blocks.1.block.0.weight f4 [128, 128]
0	0x3d284ed9	0.04109082
1	0xbd874db7	-0.0660662
2	0xbe9877af	-0.2977881
3	0xbeb495b8	-0.35270476
4	0x3de9d3de	0.114173636
5	0xbd8de7d6	-0.06928985
6	0xbd7e80f7	-0.06213471
7	0xbef18d93	-0.47178325
8	0x3d9f229d	0.07770274
9	0xbe7d98ed	-0.24765368
10	0xbe1d80e0	-0.15381193
11	0xbc90dcfc	-0.017683499
12	0xbde155cd	-0.11002693
13	0xbe8910a6	-0.26770514
14	0x3e623cc6	0.22093496
15	0x3e73b3b9	0.23799028
16	0xbe09113a	-0.13385478
17	0xbd3b4749	-0.04572228
18	0x3e1c197a	0.15244094
19	0xbea1ec23	-0.3162547
20	0x3e747c8d	0.23875637
21	0xbdfa30bd	-0.12216327
22	0x3d0e7dcd	0.03478794
23	0xbe944c67	-0.2896454
24	0xbe01612f	-0.12634729
25	0x3e224b71	0.15849091
26	0xbe8ec030	-0.27881002
27	0xbdf15ee6	-0.117856786
28	0xbe6abecd	-0.22924347
29	0xbec6047a	-0.3867529
30	0xbd21ce18	-0.039503187
31	0x3e18de38	0.1492852
32	0xbe9287c9	-0.2861922
33	0xbe9e70c9	-0.30945423
34	0xbeb707e4	-0.35748208
35	0xbebbfc7c	-0.36716068
36	0x3e849de4	0.2590171
37	0x3e4ef6c4	0.20211321
38	0x3eac17cf	0.33611915
39	0x3dcc84e9	0.09986288
40	0xbdcdeb1b	-0.100546084
41	0xbcdba961	-0.026814165
42	0xbe1f2e09	-0.15544905
43	0xbd87fd9e	-0.066401705
44	0xbdae3463	-0.08506086
45	0xbca697ff	-0.02033615
46	0xbf07d70f	-0.5306253
47	0xbaef5a58	-0.0018261177
48	0x3e423991	0.18967272
49	0x3d68d8d9	0.056847427
50	0x3daf33dc	0.08554813
51	0x3c916277	0.017747147
52	0xbd9fab5c	-0.07796356
53	0xbdc7be2f	-0.097530715
54	0xbe0289db	-0.127479
55	0xbf037202	-0.5134584
56	0xbd06a688	-0.03287366
57	0x3d4287a5	0.047492642
58	0xbeae2739	-0.340143
59	0xbdf13ee0	-0.117795706
60	0xbe1c9acb	-0.15293424
61	0x3e8e7873	0.2782627
62	0xbdc3c634	-0.095592886
63	0x3d427be4	0.047481433
64	0x3e313770	0.17306304
65	0x3d047724	0.032340184
66	0xbe149124	-0.14508492
67	0xbe201b7d	-0.15635486
68	0x3c4f5163	0.012653681
69	0xbe4e1784	-0.20126158
70	0x3c996fd4	0.018730082
71	0xbdb5db1e	-0.08879684
72	0xbd18d53a	-0.037312724
73	0xbd9d76bd	-0.07688663
74	0xbf0b9936	-0.54530656
75	0xbc1a39bf	-0.009413182
76	0xbe841be8	-0.2580254
77	0xbdddadc3	-0.10824158
78	0xbea92cc2	-0.3304196
79	0xbe91284c	-0.28351057
80	0x3d2b8211	0.041872088
81	0xbe08d43f	-0.13362215
82	0xbeaf94b4	-0.3429314
83	0xbf13cc89	-0.5773397
84	0xbd8d0d60	-0.06887317
85	0xbdf5f859	-0.12010259
86	0xbeddde6d	-0.4333376
87	0x3e83d0ab	0.2574514
88	0x3e26095a	0.16214505
89	0xbe5dce47	-0.2166072
90	0x3dec7a5a	0.11546774
91	0x3e07fa17	0.13278995
92	0x3da0695c	0.07832596
93	0x3e8848a6	0.26617926
94	0xbeff3719	-0.49846724
95	0xbddfefcd	-0.1093441
96	0x3dbfd37a	0.09366508
97	0xbecf40d9	-0.40479162
98	0xbe42fd74	-0.19041997
99	0xbea66d7d	-0.32505408
100	0xbd33a14a	-0.04385499
101	0xbe85bf3e	-0.2612247
102	0x3c9d501c	0.019203238
103	0xbe0227a0	-0.12710428
104	0xbe3ce080	-0.18445015
105	0xbd6227e2	-0.055213816
106	0x3edadf5a	0.4274853
107	0xbe30a81f	-0.17251633
108	0xbceb2428	-0.028703764
109	0x3e7d549a	0.24739304
110	0x3db5d675	0.08878795
111	0x3e5a0f28	0.21294844
112	0xbd4e61da	-0.050386287
113	0x3d25b1ca	0.040452756
114	0x3e30a236	0.17249379
115	0xbe73aada	-0.23795643
116	0xbe35f55b	-0.17769377
117	0x3e2208e3	0.15823703
118	0xbe858d38	-0.26084304
119	0x3e3cada6	0.18425617
120	0xbe20a3d9	-0.15687503
121	0xbdf0da2b	-0.11760362
122	0x3eb4a02c	0.3527845
123	0x3eac3ff0	0.3364253
124	0xbd91b1e7	-0.0711401
125	0xbd9acf39	-0.07559056
126	0xbcdb7d3c	-0.026793115
127	0x3e19b30e	0.1500971
128	0xbbd4d70d	-0.0064953626
129	0x3d9cb02b	0.07650789
130	0x3e512bf0	0.20426917
131	0x3db14468	0.086556256
132	0xbe4c6e55	-0.19963963
133	0x3e014edb	0.12627737
134	0xbd0f7701	-0.0350256
135	0x3e25bbd1	0.16184928
136	0xbdf1df4a	-0.11810167
137	0x3dd5d161	0.104403265
138	0x3d2143db	0.039371353
139	0x3e1fd300	0.15607834
140	0xbec1f76e	-0.37884086
141	0x3e2de22f	0.16980813
142	0x3db8dc94	0.09026447
143	0xbebf8d93	-0.374127
144	0xbd985d8f	-0.0743972
145	0x3a97ac5e	0.0011571755
146	0xbec74937	-0.38923046
147	0xbe8818bb	-0.26581368
148	0xbe500295	-0.20313485
149	0xbd854110	-0.0650655
150	0xbe88c4f4	-0.26712763
151	0x3e157c65	0.14598234
152	0x3d0dbaac	0.034601852
153	0xbe86a61d	-0.2629861
154	0xbc18e131	-0.009331034
155	0x3d37401e	0.04473888
156	0xbd587869	-0.052849207
157	0x3e67b1a6	0.22626361
158	0xbdfc3b37	-0.12315982
159	0xbd09e8de	-0.033669345
160	0xbdba5918	-0.090990245
161	0x3deb9648	0.11503273
162	0x3de85583	0.11344435
163	0x3e2df140	0.16986561
164	0x3dea9a42	0.114552036
165	0xbe854542	-0.26029402
166	0xbf1252fe	-0.57157886
167	0xbe3e6d8b	-0.18596475
168	0xbee50f07	-0.44738027
169	0xbd47a2ad	-0.048739124
170	0x3e547770	0.20748687
171	0xbd415457	-0.047199573
172	0x3b9411ab	0.0045187077
173	0xbe341626	-0.17586574
174	0x3dcf0a89	0.10109431
175	0xbd30a1f3	-0.043123197
176	0xbd575c42	-0.05257822
177	0x3c93f544	0.018061288
178	0xbe1df760	-0.15426397
179	0xbd836322	-0.064153925
180	0xbe175a40	-0.14780521
181	0xbdcb37ea	-0.09922774
182	0x3da459bd	0.08024929
183	0x3e4e9315	0.20173295
184	0x3e6a250b	0.22865693
185	0xbe24f718	-0.16109884
186	0xbe40ea36	-0.18839344
187	0x3d0d602a	0.034515537
188	0xbe57828c	-0.21045893
189	0xbf2cf849	-0.67566353
190	0xbe353505	-0.17696007
191	0xbee11004	-0.4395753
192	0xbddbf8a7	-0.10740786
193	0xbddfa7d0	-0.109206796
194	0xbe4737bc	-0.19454855
195	0x3cf96f32	0.03044853
196	0xbe2531fe	-0.16132352
197	0xbdee1380	-0.11624813
198	0x3d6dfd09	0.05810264
199	0x3d49e340	0.049288988
200	0xbe026140	-0.1273241
201	0x3e6af2f3	0.2294424
202	0x3e8c8f92	0.27453285
203	0x3ce11371	0.02747509
204	0xbb0ef270	-0.0021811984
205	0xbf074756	-0.52843225
206	0xbec6ee48	-0.3885367
207	0x3e2a8d26	0.16655406
208	0xbb5c0812	-0.0033574146
209	0xbdaa8b03	-0.08327296
210	0xbd9c90bd	-0.07644794
211	0xbd7a3877	-0.061089005
212	0x3c8583f1	0.016298266
213	0x3e156c42	0.14592078
214	0x3e5a50a2	0.21319821
215	0xbe176149	-0.14783205
216	0xbed7cb94	-0.42147505
217	0x3dd94e05	0.10610584
218	0x3c262e0a	0.0101428125
219	0xbee6c9f9	-0.45075968
220	0xbe32f545	-0.17476375
221	0xbf08df31	-0.53465563
222	0x3dfeb0c4	0.12436059
223	0x3be1136e	0.0068687713
224	0xbdb26d58	-0.08712262
225	0x3db39a1e	0.0876963
226	0xbd7734e6	-0.060353182
227	0xbd23ba70	-0.039972723
228	0x3e11d747	0.14242278
229	0x3e3571aa	0.1771914
230	0xbc3967c8	-0.011316247
231	0x3cb4b1b8	0.0220574
232	0x3d5d4f44	0.05403067
233	0x3ccf0531	0.02527103
234	0xbe22f0bc	-0.15912145
235	0x3c3ad4d8	0.011403285
236	0x3e87e23c	0.2653979
237	0xbef235c1	-0.47306636
238	0xbd0ce495	-0.03439768
239	0xbea9b514	-0.33145964
240	0xbc5f6b42	-0.013636412
241	0xbe96f1e1	-0.29481414
242	0xbf17f650	-0.5936022
243	0xbd2fd422	-0.042926915
244	0xbe027391	-0.12739398
245	0x3d83687e	0.06416415
246	0xbe7f65ba	-0.2494115
247	0xbed7e10f	-0.42163894
248	0xbe2bb1b0	-0.16767001
249	0xbda544c1	-0.080697544
250	0xbe561c6b	-0.20909278
251	0xbedcc295	-0.43117204
252	0xbd9e3a13	-0.077259205
253	0x3e14522c	0.14484471
254	0xbe5392e1	-0.20661499
255	0xbebe5d5d	-0.37180606

actor_fc_layers.blocks.1.block.1.weight f4 [128]
0	0x3f9b96cf	1.2155398
1	0x3f8ac2cd	1.0840698
2	0x3f77889f	0.9669284
3	0x3f7af033	0.98022765
4	0x3f93e125	1.1553084
5	0x3fad7b59	1.3553268
6	0x3f7fbf8f	0.9990167
7	0x3f7d4cd1	0.9894534
8	0x3f8ac307	1.0840768
9	0x3fa44b89	1.2835552
10	0x3f937cba	1.1522439
11	0x3f77b6ac	0.9676311
12	0x3f7b729b	0.9822175
13	0x3f76375a	0.9617821
14	0x3fabb112	1.3413413
15	0x3f8f1e21	1.118107
16	0x3f99c15b	1.2012132
17	0x3fa452fa	1.2837822
18	0x3fc9f73f	1.5778579
19	0x3f97f40b	1.1871351
20	0x3f972c5a	1.181041
21	0x3f9ccd1f	1.2250098
22	0x3f9c58ab	1.2214559
23	0x3f8fae31	1.1225034
24	0x3f94b584	1.1617894
25	0x3fcab3d2	1.5836127
26	0x3fb48f6c	1.4106269
27	0x3fad3724	1.3532453
28	0x3fb34f96	1.4008663
29	0x3f9852ef	1.1900309
30	0x3f930b18	1.148776
31	0x3f7b6890	0.98206425
32	0x3f88b9d2	1.0681708
33	0x3fc7602c	1.5576224
34	0x3f67c6da	0.905378
35	0x3fa5f33a	1.2964852
36	0x3f9e6d19	1.2377044
37	0x3fad76e4	1.3551908
38	0x3faea4a7	1.3643998
39	0x3f988efd	1.1918637
40	0x3f89998a	1.0749981
41	0x3fb03cf8	1.3768606
42	0x3fa7449b	1.3067812
43	0x3f8e9ae1	1.1141015
44	0x3f9cc6b3	1.2248138
45	0x3f957b32	1.1678221
46	0x3f8d1ce5	1.1024443
47	0x3fc6ecb7	1.554099
48	0x3fae3f16	1.3613002
49	0x3faca4fc	1.3487849
50	0x3f93ec0c	1.1556411
51	0x3f8e2b4f	1.1106967
52	0x3f72fb65	0.9491485
53	0x3fa26f03	1.2690128
54	0x3f927983	1.1443332
55	0x3fa2ae04	1.2709355
56	0x3f7dea3c	0.9918554
57	0x3f914f53	1.1352333
58	0x3f8da49a	1.1065857
59	0x3f6d747d	0.9275587
60	0x3fa4ed49	1.2884914
61	0x3fae8e3d	1.3637158
62	0x3f7144d9	0.9424568
63	0x3f9e78d6	1.2380626
64	0x3f903714	1.1266809
65	0x3f3706ba	0.7149464
66	0x3f9ee2fb	1.2413019
67	0x3f864cab	1.0492147
68	0x3f7a9cca	0.9789549
69	0x3f7c82db	0.9863717
70	0x3f9a7444	1.2066731
71	0x3f7c6de5	0.98605186
72	0x3f64eb34	0.8942139
73	0x3f9b90e7	1.2153596
74	0x3f93ce5f	1.1547354
75	0x3f795b80	0.9740524
76	0x3f9098fb	1.1296686
77	0x3fa2cf02	1.2719424
78	0x3f92d93c	1.1472545
79	0x3f548653	0.8301746
80	0x3f947326	1.159764
81	0x3f9db8f4	1.2322068
82	0x3fc268c9	1.5188228
83	0x3f9909ca	1.1956112
84	0x3f8aca66	1.0843017
85	0x3fa2c5eb	1.271665
86	0x3f99cd6d	1.2015816
87	0x3fa79d36	1.3094852
88	0x3f7c6f9c	0.986078
89	0x3f98e10e	1.1943681
90	0x3f898ef9	1.0746757
91	0x3f979fca	1.1845639
92	0x3fa5e72a	1.2961171
93	0x3fb70d7f	1.4300994
94	0x3f8537d0	1.0407658
95	0x3f9cd220	1.2251625
96	0x3fa5c02e	1.2949274
97	0x3fa1d038	1.2641668
98	0x3f9ee228	1.2412767
99	0x3f7763c2	0.96636593
100	0x3faad539	1.334632
101	0x3f83afee	1.0288064
102	0x3fa16abc	1.2610698
103	0x3f771ca7	0.96528095
104	0x3fa3ead7	1.2806042
105	0x3fc1fe96	1.5155818
106	0x3fcd7f69	1.6054507
107	0x3f8ed8fb	1.1159967
108	0x3f99fc57	1.2030133
109	0x3fc22b40	1.5169449
110	0x3fbd7c9a	1.480365
111	0x3f8f8070	1.1211071
112	0x3fa23fbd	1.2675701
113	0x3f943f35	1.1581789
114	0x3f85d9b9	1.0457069
115	0x3fa5e378	1.2960043
116	0x3fa814bb	1.3131326
117	0x3f9f2d46	1.2435691
118	0x3f88ce31	1.0687925
119	0x3f75a9ed	0.9596241
120	0x3f9d8d26	1.23087
121	0x3f9b0292	1.2110159
122	0x3fad52cc	1.3540893
123	0x3f7cf47a	0.9881054
124	0x3f98103b	1.1879953
125	0x3fa52231	1.2901059
126	0x3f91de67	1.1395997
127	0x3f74a721	0.9556752

actor_fc_layers.blocks.1.block.1.bias f4 [128]
0	0x3d99cc12	0.075096264
1	0xbe9d794e	-0.3075661
2	0xbd2e33b6	-0.042529784
3	0xbcfc8aa3	-0.030827826
4	0xbdbe2f56	-0.09286372
5	0xbe920185	-0.28516784
6	0xbc91c1ea	-0.01779266
7	0xbcdd1d7d	-0.0269916
8	0xbca5b868	-0.020229533
9	0xbdf9d595	-0.12198941
10	0x3d4b0a36	0.049570285
11	0xbe0539da	-0.1301035
12	0xbd0ed2f2	-0.034869142
13	0xbd53858a	-0.051641025
14	0x3eca6a7e	0.39534372
15	0x3e8cafa7	0.27477762
16	0xbe73bb06	-0.23801813
17	0x3d4bc974	0.049752668
18	0xbe8cad82	-0.27476126
19	0x3e279d35	0.16368563
20	0xbd90cf4d	-0.070707895
21	0xbd34e8cb	-0.04416732
22	0xbe7ab157	-0.24481712
23	0x3e3a3c70	0.18187118
24	0x3c16fa6e	0.0092149805
25	0xbb50debd	-0.0031871044
26	0xbd7653cd	-0.060138512
27	0x3dd85323	0.10562732
28	0x3e258a14	0.16165954
29	0xbe119147	-0.14215575
30	0x3cb4bb64	0.022062011
31	0xbe6ce570	-0.23134398
32	0xbe468774	-0.19387609
33	0xbd9cd897	-0.07658499
34	0x3e939ff6	0.28832978
35	0xbe8351f8	-0.25648475
36	0x3e60b1fd	0.21942897
37	0xbe060dd3	-0.13091211
38	0xbdb88ee2	-0.09011628
39	0xbc24a995	-0.010050197
40	0xbdb7168d	-0.08939848
41	0xbe2a1781	-0.16610529
42	0xbe3ea9c8	-0.18619454
43	0xbe345a7c	-0.17612642
44	0xbd3be84b	-0.04587583
45	0x3c2559d9	0.010092222
46	0x3d3f38c7	0.046685006
47	0x3d88b8c5	0.06675867
48	0xbe80b7b5	-0.25140157
49	0x3eaf4d30	0.34238577
50	0xbd44798c	-0.04796748
51	0xbd810c1d	-0.063011386
52	0xbd8a8f3c	-0.06765601
53	0xbe10d447	-0.14143477
54	0xbd409899	-0.04702053
55	0xbd9d0ffc	-0.076690644
56	0xbc9b636e	-0.01896831
57	0xbe16cb68	-0.14726031
58	0xbdd9140d	-0.105995275
59	0x3aaf39eb	0.0013368701
60	0xbe3da6f1	-0.18520714
61	0xbead0a82	-0.3379708
62	0xbd3a61b1	-0.045503322
63	0x3e0ea289	0.1392919
64	0xbeb219cd	-0.3478531
65	0x3e7e2905	0.24820335
66	0x3d3e1051	0.04640228
67	0x3d0e9111	0.034806315
68	0xbce0b222	-0.02742869
69	0xbd251064	-0.040298834
70	0xbee0d4bf	-0.43912312
71	0xbd8357d0	-0.06413233
72	0xbd4b4558	-0.04962668
73	0x3daf147e	0.085488304
74	0xbe4076e3	-0.18795352
75	0xbd0a76a2	-0.033804543
76	0x3cd1694e	0.025562909
77	0xbca077d0	-0.019588381
78	0x3e159cbf	0.14610575
79	0x3eacd60b	0.33757052
80	0xbe148303	-0.14503102
81	0xbe01c7b1	-0.12673832
82	0x3e1e18fc	0.15439218
83	0x3dfb3508	0.12265974
84	0x3e376f0c	0.17913455
85	0xbe061dd5	-0.13097318
86	0xbe80272e	-0.25029892
87	0x3dac105f	0.0840156
88	0xbcbfc693	-0.023410117
89	0xbc8305e3	-0.015994018
90	0xbdeac41d	-0.11463187
91	0xbd97cbe0	-0.07411933
92	0x3dc44143	0.0958276
93	0x3c4dce8b	0.012561451
94	0xbdc98361	-0.09839512
95	0x3e015a11	0.12632014
96	0xbe395dce	-0.1810219
97	0xbe3e1ddc	-0.18566078
98	0xbe138103	-0.14404683
99	0xbd0cc6dc	-0.034369335
100	0xbe0ef5fc	-0.13961023
101	0xbe06cd1c	-0.1316418
102	0xbdc83578	-0.09775823
103	0xbd1cfc25	-0.0383264
104	0xbe37db1b	-0.17954676
105	0xbe0e89de	-0.1391978
106	0x3ddd979f	0.10819935
107	0xbde614cc	-0.112344354
108	0x3c6fe67f	0.014642357
109	0xbd1ebdbb	-0.03875516
110	0xbb8f28d3	-0.0043688803
111	0x3d6ec10c	0.058289573
112	0xbe015add	-0.12632318
113	0xbe6a03c4	-0.22852999
114	0x3a637356	0.0008676549
115	0xbe91dccf	-0.28488776
116	0x3c0c0967	0.008547164
117	0xbc8892a8	-0.016671494
118	0x3cf93b71	0.030423852
119	0xbd50d53b	-0.050984602
120	0x3da72ff9	0.08163447
121	0x3d3c851a	0.046025373
122	0xbe78be6a	-0.24291387
123	0xbd056d9c	-0.032575235
124	0x3e466c6a	0.19377294
125	0xbdaecf67	-0.085356526
126	0xbdcadb60	-0.09905124
127	0xbd2d1d55	-0.0422643

actor_fc_layers.blocks.1.block.1.running_mean f4 [128]
0	0x00000000	0.0
1	0x00000000	0.0
2	0x00000000	0.0
3	0x00000000	0.0
4	0x00000000	0.0
5	0x00000000	0.0
6	0x00000000	0.0
7	0x00000000	0.0
8	0x00000000	0.0
9	0x00000000	0.0
10	0x00000000	0.0
11	0x00000000	0.0
12	0x00000000	0.0
13	0x00000000	0.0
14	0x00000000	0.0
15	0x00000000	0.0
16	0x00000000	0.0
17	0x00000000	0.0
18	0x00000000	0.0
19	0x00000000	0.0
20	0x00000000	0.0
21	0x00000000	0.0
22	0x00000000	0.0
23	0x00000000	0.0
24	0x00000000	0.0
25	0x00000000	0.0
26	0x00000000	0.0
27	0x00000000	0.0
28	0x00000000	0.0
29	0x00000000	0.0
30	0x00000000	0.0
31	0x00000000	0.0
32	0x00000000	0.0
33	0x00000000	0.0
34	0x00000000	0.0
35	0x00000000	0.0
36	0x00000000	0.0
37	0x00000000	0.0
38	0x00000000	0.0
39	0x00000000	0.0
40	0x00000000	0.0
41	0x00000000	0.0
42	0x00000000	0.0
43	0x00000000	0.0
44	0x00000000	0.0
45	0x00000000	0.0
46	0x00000000	0.0
47	0x00000000	0.0
48	0x00000000	0.0
49	0x00000000	0.0
50	0x00000000	0.0
51	0x00000000	0.0
52	0x00000000	0.0
53	0x00000000	0.0
54	0x00000000	0.0
55	0x00000000	0.0
56	0x00000000	0.0
57	0x00000000	0.0
58	0x00000000	0.0
59	0x00000000	0.0
60	0x00000000	0.0
61	0x00000000	0.0
62	0x00000000	0.0
63	0x00000000	0.0
64	0x00000000	0.0
65	0x00000000	0.0
66	0x00000000	0.0
67	0x00000000	0.0
68	0x00000000	0.0
69	0x00000000	0.0
70	0x00000000	0.0
71	0x00000000	0.0
72	0x00000000	0.0
73	0x00000000	0.0
74	0x00000000	0.0
75	0x00000000	0.0
76	0x00000000	0.0
77	0x00000000	0.0
78	0x00000000	0.0
79	0x00000000	0.0
80	0x00000000	0.0
81	0x00000000	0.0
82	0x00000000	0.0
83	0x00000000	0.0
84	0x00000000	0.0
85	0x00000000	0.0
86	0x00000000	0.0
87	0x00000000	0.0
88	0x00000000	0.0
89	0x00000000	0.0
90	0x00000000	0.0
91	0x00000000	0.0
92	0x00000000	0.0
93	0x00000000	0.0
94	0x00000000	0.0
95	0x00000000	0.0
96	0x00000000	0.0
97	0x00000000	0.0
98	0x00000000	0.0
99	0x00000000	0.0
100	0x00000000	0.0
101	0x00000000	0.0
102	0x00000000	0.0
103	0x00000000	0.0
104	0x00000000	0.0
105	0x00000000	0.0
106	0x00000000	0.0
107	0x00000000	0.0
108	0x00000000	0.0
109	0x00000000	0.0
110	0x00000000	0.0
111	0x00000000	0.0
112	0x00000000	0.0
113	0x00000000	0.0
114	0x00000000	0.0
115	0x00000000	0.0
116	0x00000000	0.0
117	0x00000000	0.0
118	0x00000000	0.0
119	0x00000000	0.0
120	0x00000000	0.0
121	0x00000000	0.0
122	0x00000000	0.0
123	0x00000000	0.0
124	0x00000000	0.0
125	0x00000000	0.0
126	0x00000000	0.0
127	0x00000000	0.0

actor_fc_layers.blocks.1.block.1.running_var f4 [128]
0	0x3f800000	1.0
1	0x3f800000	1.0
2	0x3f800000	1.0
3	0x3f800000	1.0
4	0x3f800000	1.0
5	0x3f800000	1.0
6	0x3f800000	1.0
7	0x3f800000	1.0
8	0x3f800000	1.0
9	0x3f800000	1.0
10	0x3f800000	1.0
11	0x3f800000	1.0
12	0x3f800000	1.0
13	0x3f800000	1.0
14	0x3f800000	1.0
15	0x3f800000	1.0
16	0x3f800000	1.0
17	0x3f800000	1.0
18	0x3f800000	1.0
19	0x3f800000	1.0
20	0x3f800000	1.0
21	0x3f800000	1.0
22	0x3f800000	1.0
23	0x3f800000	1.0
24	0x3f800000	1.0
25	0x3f800000	1.0
26	0x3f800000	1.0
27	0x3f800000	1.0
28	0x3f800000	1.0
29	0x3f800000	1.0
30	0x3f800000	1.0
31	0x3f800000	1.0
32	0x3f800000	1.0
33	0x3f800000	1.0
34	0x3f800000	1.0
35	0x3f800000	1.0
36	0x3f800000	1.0
37	0x3f800000	1.0
38	0x3f800000	1.0
39	0x3f800000	1.0
40	0x3f800000	1.0
41	0x3f800000	1.0
42	0x3f800000	1.0
43	0x3f800000	1.0
44	0x3f800000	1.0
45	0x3f800000	1.0
46	0x3f800000	1.0
47	0x3f800000	1.0
48	0x3f800000	1.0
49	0x3f800000	1.0
50	0x3f800000	1.0
51	0x3f800000	1.0
52	0x3f800000	1.0
53	0x3f800000	1.0
54	0x3f800000	1.0
55	0x3f800000	1.0
56	0x3f800000	1.0
57	0x3f800000	1.0
58	0x3f800000	1.0
59	0x3f800000	1.0
60	0x3f800000	1.0
61	0x3f800000	1.0
62	0x3f800000	1.0
63	0x3f800000	1.0
64	0x3f800000	1.0
65	0x3f800000	1.0
66	0x3f800000	1.0
67	0x3f800000	1.0
68	0x3f800000	1.0
69	0x3f800000	1.0
70	0x3f800000	1.0
71	0x3f800000	1.0
72	0x3f800000	1.0
73	0x3f800000	1.0
74	0x3f800000	1.0
75	0x3f800000	1.0
76	0x3f800000	1.0
77	0x3f800000	1.0
78	0x3f800000	1.0
79	0x3f800000	1.0
80	0x3f800000	1.0
81	0x3f800000	1.0
82	0x3f800000	1.0
83	0x3f800000	1.0
84	0x3f800000	1.0
85	0x3f800000	1.0
86	0x3f800000	1.0
87	0x3f800000	1.0
88	0x3f800000	1.0
89	0x3f800000	1.0
90	0x3f800000	1.0
91	0x3f800000	1.0
92	0x3f800000	1.0
93	0x3f800000	1.0
94	0x3f800000	1.0
95	0x3f800000	1.0
96	0x3f800000	1.0
97	0x3f800000	1.0
98	0x3f800000	1.0
99	0x3f800000	1.0
100	0x3f800000	1.0
101	0x3f800000	1.0
102	0x3f800000	1.0
103	0x3f800000	1.0
104	0x3f800000	1.0
105	0x3f800000	1.0
106	0x3f800000	1.0
107	0x3f800000	1.0
108	0x3f800000	1.0
109	0x3f800000	1.0
110	0x3f800000	1.0
111	0x3f800000	1.0
112	0x3f800000	1.0
113	0x3f800000	1.0
114	0x3f800000	1.0
115	0x3f800000	1.0
116	0x3f800000	1.0
117	0x3f800000	1.0
118	0x3f800000	1.0
119	0x3f800000	1.0
120	0x3f800000	1.0
121	0x3f800000	1.0
122	0x3f800000	1.0
123	0x3f800000	1.0
124	0x3f800000	1.0
125	0x3f800000	1.0
126	0x3f800000	1.0
127	0x3f800000	1.0

actor_fc_layers.blocks.2.block.0.weight f4 [128, 128]
0	0x3e9b1bf3	0.3029476
1	0xbded287e	-0.11579989
2	0xbcaa1a86	-0.0207646
3	0xbd956b53	-0.07295861
4	0x3e0b2202	0.13587192
5	0xbcb90cfd	-0.022589201
6	0x3d6a37d3	0.057182144
7	0x3db68ef8	0.08913988
8	0x3e0abb21	0.13547947
9	0xbe02f467	-0.12788545
10	0xbeeca30f	-0.46218154
11	0xbebcaf99	-0.3685272
12	0x3d17ac57	0.03702959
13	0x3ddd3411	0.108009465
14	0xbcdf9b38	-0.027295694
15	0xbc5a2bd3	-0.013316113
16	0xbe1ec77e	-0.15505788
17	0xbc331983	-0.010931375
18	0xbe9c9a6c	-0.30586565
19	0x3ded05a2	0.1157334
20	0xbe992fba	-0.29919225
21	0xbdca2451	-0.09870208
22	0x3e0b891a	0.13626519
23	0xbced0dd0	-0.02893725
24	0x3f0602e6	0.5234817
25	0x3bfb42ed	0.0076678903
26	0x3db876af	0.09007012
27	0x3eb2bd92	0.34910256
28	0x3e3dc6d4	0.18532878
29	0x3d7b9fcd	0.061431695
30	0x3d218cad	0.0394408
31	0x3dfd849f	0.12378811
32	0x3d44423e	0.047914736
33	0x3e6b9940	0.23007679
34	0x3d97e927	0.07417517
35	0xbe7f1f1e	-0.24914214
36	0x3cc5607c	0.024093859
37	0xbeabbc90	-0.335423
38	0xbe90e7ec	-0.28301942
39	0x3e32a98f	0.17447494
40	0x3ddcb3b0	0.1077646
41	0x3e711119	0.23541678
42	0x3e17fc53	0.14842348
43	0x3bebae9f	0.0071924473
44	0x3db47c50	0.08812773
45	0x3db1012d	0.086428024
46	0x3dd78693	0.10523715
47	0x3e04bb49	0.12962069
48	0xbe8c58fd	-0.27411643
49	0xbdbce961	-0.09224201
50	0xbdd74382	-0.10510923
51	0x3dbc380a	0.09190376
52	0x3d5fa1b7	0.054597583
53	0x3e73b559	0.23799647
54	0x3e70c3bf	0.23512171
55	0xbeadabff	-0.33920285
56	0xbb3ba786	-0.0028633787
57	0xbe216fa5	-0.15765245
58	0x3d0729d4	0.032998875
59	0x3e19493f	0.14969347
60	0xbe5818ed	-0.21103258
61	0xbde453d8	-0.111488044
62	0x3b28024c	0.0025636135
63	0x3e83f411	0.25772145
64	0xbd19d14c	-0.037553117
65	0x3f0d930f	0.5530252
66	0xba1dadc1	-0.0006014966
67	0xbd67f601	-0.056631092
68	0x3ca562ab	0.02018865
69	0x39803a1d	0.0002445736
70	0xbec6c687	-0.3882334
71	0x3e8c9098	0.27454066
72	0xbe82782e	-0.25482315
73	0xbdb8f71e	-0.09031509
74	0xbdef9d67	-0.11699944
75	0xbd59a480	-0.053135395
76	0x3de8e828	0.11372405
77	0x3e1871d4	0.14887172
78	0xbe0ca9eb	-0.13736694
79	0x3ec0f245	0.37684837
80	0x3dd85faf	0.10565125
81	0x3e159bea	0.14610258
82	0x3edbb68f	0.4291272
83	0x3e8528a9	0.26007584
84	0x3ee6cdb5	0.45078817
85	0xbdd54ea3	-0.104153894
86	0x3e67e6d7	0.22646652
87	0x3f04f277	0.5193247
88	0x3ba60def	0.005067579
89	0xbd55ac4d	-0.052166272
90	0xbd968348	-0.07349259
91	0x3d94dbdc	0.07268497
92	0xbec69ac6	-0.38789958
93	0xbe172175	-0.14758857
94	0x3e51039d	0.20411535
95	0xbd07161e	-0.032980077
96	0xbe5f2e54	-0.21795017
97	0x3d83d27b	0.0643663
98	0xbe11583e	-0.14193818
99	0x3c5c6c36	0.013453534
100	0xbeddfdf6	-0.4335782
101	0xbe139868	-0.14413607
102	0x3c9c4b6e	0.019078936
103	0xbd825774	-0.063643366
104	0x3b9b4f07	0.0047396454
105	0xbebe9cb0	-0.37228918
106	0x3e8a4a06	0.270096
107	0xbe1e9ab6	-0.15488705
108	0x3e0ea029	0.13928284
109	0x3e328033	0.17431717
110	0x3e1b4016	0.15161166
111	0xbead417a	-0.33839017
112	0xbdff3f5e	-0.12463258
113	0x3e62ecd2	0.22160652
114	0x3dce1239	0.100620694
115	0xbed8553b	-0.42252526
116	0x3e9c849a	0.30569917
117	0x3d15d126	0.036576413
118	0xbd07e531	-0.03317756
119	0x3c691648	0.014226504
120	0x3e112c19	0.14176978
121	0xbda812dc	-0.08206722
122	0xbe949d31	-0.29026178
123	0x3d6b2f1d	0.057417978
124	0xbe79bb0c	-0.24387759
125	0x3d267352	0.04063732
126	0x3e810493	0.25198802
127	0xbcbd43e1	-0.023103656
128	0x3be2c158	0.006920021
129	0xbe31963a	-0.17342463
130	0x3d886344	0.066595584
131	0x3c5e8870	0.013582334
132	0x3d3ffd4e	0.04687243
133	0xbe3c7ba7	-0.18406545
134	0xbd9402dd	-0.07227109
135	0x3cca97ea	0.024730641
136	0xbd7814e6	-0.060566805
137	0xbe0ea446	-0.13929853
138	0xbe5cb7c8	-0.21554482
139	0xbd79d25e	-0.060991637
140	0x3c5a671c	0.013330247
141	0xbbce8534	-0.0063025
142	0xbda82068	-0.08209306
143	0xbec8fad4	-0.39253867
144	0xbe8e1874	-0.2775303
145	0x3e323545	0.17403133
146	0xbeb43be9	-0.35201958
147	0x3ea7ff96	0.32812184
148	0x3e855e9d	0.26048747
149	0x3eaffe62	0.34373766
150	0xbe822d6d	-0.25425282
151	0x3bd20807	0.0064096483
152	0xbca18f58	-0.019721672
153	0x3e94b75c	0.29046142
154	0x3db61ddc	0.08892414
155	0x3ea0f824	0.31439316
156	0x3e148f37	0.14507757
157	0x3d0d5be1	0.03451145
158	0xbe9cfb5b	-0.3066052
159	0xbe0ee4dd	-0.13954492
160	0x3e0a4ac3	0.13505082
161	0x3e8eaac2	0.27864653
162	0x3e861330	0.26186514
163	0xbf4c1fa8	-0.79735804
164	0x3e4537a5	0.19259508
165	0x3e313905	0.17306907
166	0xbebf5474	-0.3736912
167	0xbec29043	-0.38000688
168	0xbe4f7da4	-0.20262772
169	0x3eac496c	0.33649766
170	0xbd3cd0ad	-0.046097446
171	0x3e816c5d	0.25277987
172	0xbdd877c8	-0.105697215
173	0x3d01e950	0.031716645
174	0x3ef5c278	0.4799993
175	0x3e8e80e1	0.27832702
176	0xbe39a094	-0.18127662
177	0x3e3e6253	0.18592195
178	0x3e46652b	0.1937453
179	0x3e2a805d	0.16650529
180	0xbd9e5774	-0.07731524
181	0xbd91a2e9	-0.07111151
182	0xbe039a2d	-0.12851782
183	0x3ead108f	0.33801696
184	0x3da7a874	0.08186427
185	0x3e695683	0.22786908
186	0x3c5486e1	0.012971611
187	0x3ca523cd	0.020158673
188	0xbf0e14a8	-0.5550027
189	0xbe9de258	-0.3083675
190	0xbd33b8ff	-0.043877598
191	0xbe720583	-0.23634915
192	0xbe756cde	-0.23967311
193	0xbcf16352	-0.029466305
194	0xbaad027d	-0.0013199594
195	0xbbe43787	-0.006964627
196	0xbd4a1f3d	-0.049346197
197	0xbcc9f0b1	-0.024650903
198	0xbda465f1	-0.08027256
199	0x3e30f816	0.17282137
200	0xbe86c8f3	-0.26325187
201	0x3dbe1868	0.09281999
202	0x3dea0668	0.11427003
203	0xbd51f54c	-0.051259324
204	0x3f1108d9	0.56654125
205	0xbe591d36	-0.2120255
206	0xbd0e7c62	-0.03478659
207	0x3e15a19e	0.14612433
208	0x3e5a671d	0.21328397
209	0xbe08959d	-0.13338323
210	0xbe4e16c6	-0.20125875
211	0xbdf2323e	-0.11825989
212	0xbd77b075	-0.060471017
213	0x3d97bccf	0.07409059
214	0x3eb5ca7b	0.35506043
215	0xbe9a18a0	-0.30096912
216	0xbda979cc	-0.08275184
217	0x3e584ed9	0.21123828
218	0x3d98a3b0	0.07453096
219	0x3d508437	0.05090734
220	0x3ebbda85	0.36690155
221	0x3e2f554f	0.17122386
222	0x3cee5c94	0.029096879
223	0xbe6b25a0	-0.22963572
224	0xbe939e13	-0.2883154
225	0x3c6e71b7	0.014553479
226	0xbb4f1e19	-0.0031603633
227	0xbc8a81ad	-0.016907537
228	0xbe4408f4	-0.1914404
229	0x3e15b9d6	0.14621672
230	0xbe40dde9	-0.18834652
231	0xbd32e9fa	-0.04368017
232	0x3da3058f	0.079600446
233	0x3df7b5ea	0.12095244
234	0x3eb0d7e9	0.34539726
235	0x3ecbd2ad	0.3980917
236	0x3e6280b1	0.22119404
237	0xbe37207f	-0.1788349
238	0xbd1b4781	-0.03790999
239	0xbe6f0ddd	-0.23345132
240	0xbd453b44	-0.048152223
241	0xbeeaeb43	-0.45882615
242	0xbf383d2f	-0.7196836
243	0xbe644554	-0.22292072
244	0x3e57e115	0.21081956
245	0x3e393163	0.18085246
246	0x3eb8aff3	0.3607174
247	0x3c09e82e	0.008417172
248	0x3dd56649	0.104199
249	0xbde57da2	-0.11205603
250	0xbe8dca72	-0.27693516
251	0xbd186dc4	-0.037214056
252	0x3e773a19	0.24143256
253	0xbe1255e9	-0.14290585
254	0x3e510d8b	0.20415322
255	0x3d9ad595	0.07560269

actor_fc_layers.blocks.2.block.1.weight f4 [128]
0	0x3fd963c3	1.698357
1	0x3fd7a762	1.6847956
2	0x3f666dcd	0.9001129
3	0x3f812a17	1.009097
4	0x3f7d954b	0.9905593
5	0x3fbaad0a	1.4584057
6	0x3fd595af	1.6686305
7	0x3f7b8e97	0.9826445
8	0x400ada3b	2.1695697
9	0x3f804ce7	1.0023469
10	0x3f890fdb	1.0707964
11	0x403824d4	2.8772478
12	0x401f719a	2.4913087
13	0x3ff49eaf	1.9110926
14	0x40107185	2.2569287
15	0x400fe37e	2.24826
16	0x3f8fbc4d	1.122934
17	0x3fdf704a	1.7456143
18	0x3ed9dceb	0.4255136
19	0x3f7b9427	0.9827294
20	0x401df81b	2.4682682
21	0x400f12af	2.2355154
22	0x3f73d1f6	0.9524225
23	0x3fb868c9	1.4406978
24	0x3fb54e8e	1.4164598
25	0x3f546696	0.82969034
26	0x3fcf729b	1.620685
27	0x3f8eff01	1.1171571
28	0x3f97fb18	1.1873503
29	0x3f7797c5	0.96715957
30	0x3fffafd3	1.9975532
31	0x3f726c65	0.94696647
32	0x3f999221	1.199772
33	0x3f6262f9	0.8843227
34	0x3f835621	1.026066
35	0x3f5a9380	0.8538132
36	0x3f80fcc0	1.0077133
37	0x3f597ebd	0.8495901
38	0x3f75a52b	0.9595515
39	0x3f982693	1.1886772
40	0x3fe596e0	1.7936668
41	0x3f79bdc2	0.9755517
42	0x3f4b8708	0.79502916
43	0x3f8ac9ea	1.0842869
44	0x3f952489	1.1651775
45	0x3fbeda9d	1.4910465
46	0x3fe10c60	1.7581902
47	0x3fc5cda0	1.5453377
48	0x3fe013c6	1.7506034
49	0x3fbdace8	1.4818392
50	0x3f754f33	0.95823973
51	0x3f84448f	1.0333422
52	0x3f8c11d5	1.0942942
53	0x3f966c77	1.1751851
54	0x3ff16da4	1.8861585
55	0x3f907ae7	1.1287507
56	0x3f73e7e4	0.9527571
57	0x3ff30d6e	1.8988473
58	0x3fb391be	1.4028852
59	0x3fdd18f2	1.7273238
60	0x3ff50e16	1.9144924
61	0x4023d5dc	2.559928
62	0x3f8ee65f	1.1164054
63	0x3fa93acb	1.3221067
64	0x40244611	2.5667765
65	0x3f99e2fd	1.2022396
66	0x3f7969df	0.9742717
67	0x3fb0a3bd	1.3799969
68	0x3fcb48b7	1.5881566
69	0x3f88f4a6	1.0699661
70	0x3fb49cec	1.4110389
71	0x3fd7300e	1.681154
72	0x3fcfc413	1.6231712
73	0x3fde3372	1.735945
74	0x3fd07654	1.6286111
75	0x3f6dbf12	0.92869675
76	0x3fc89aed	1.567228
77	0x400e9500	2.2278442
78	0x3f71f7c5	0.9451869
79	0x3f76df65	0.96434623
80	0x3f5157f6	0.8177484
81	0x3f78ed1e	0.9723681
82	0x3f438e3b	0.763889
83	0x3fdd0094	1.7265801
84	0x3f99967e	1.1999052
85	0x3f714f88	0.9426198
86	0x3fcf7c19	1.6209747
87	0x3f82d131	1.022009
88	0x3f8190a6	1.0122268
89	0x401a4e63	2.4110343
90	0x3fdc3a3c	1.7205272
91	0x3fb20a6a	1.3909428
92	0x3f84cda6	1.0375259
93	0x3ffb3bf2	1.9627669
94	0x3f8266b0	1.0187588
95	0x3f82cb8b	1.0218366
96	0x3f8ef49a	1.1168396
97	0x3f6beeb7	0.92161125
98	0x3f9e4bf0	1.2366924
99	0x400703da	2.10961
100	0x3f89d617	1.076846
101	0x3fafe055	1.3740336
102	0x3f77208f	0.96534055
103	0x3fe0b3af	1.7554835
104	0x3f61ad31	0.88154894
105	0x3f6b51c3	0.91921633
106	0x3fafc13b	1.3730844
107	0x3fd1548f	1.635393
108	0x3f1a84b6	0.6035875
109	0x3f8b2172	1.0869582
110	0x3f7fbbe7	0.9989609
111	0x3fa511ea	1.2896092
112	0x3ff814eb	1.9381384
113	0x3ffa86d1	1.9572393
114	0x3f967d08	1.1756907
115	0x3fb53faf	1.416006
116	0x3fd15ec4	1.6357045
117	0x3f80c0a7	1.0058793
118	0x3f73a543	0.95174044
119	0x3fd7f355	1.6871134
120	0x3fa44d6b	1.2836126
121	0x4006b0bd	2.1045372
122	0x3f59b0d7	0.8503546
123	0x3f9a9700	1.2077332
124	0x3fa131a9	1.259328
125	0x3fda0edd	1.7035786
126	0x3fb8728a	1.4409955
127	0x3f99d313	1.201754

actor_fc_layers.blocks.2.block.1.bias f4 [128]
0	0x3e1235ec	0.14278382
1	0xbdac98f7	-0.08427613
2	0xbe01c553	-0.1267293
3	0xbe2c623c	-0.16834348
4	0xbe3c91ec	-0.1841504
5	0xbc932891	-0.01796368
6	0xbddd8d53	-0.10817971
7	0xbe3a89f4	-0.18216687
8	0x3e878080	0.26465225
9	0x3ce28afb	0.027654162
10	0xbe06597f	-0.13120078
11	0x3ca651eb	0.020302733
12	0xbdf5f4a0	-0.12009549
13	0x3e4a4e09	0.1975633
14	0x3d5af97b	0.05346058
15	0x3db0d779	0.08634848
16	0xbd6d4d48	-0.05793503
17	0xbd183ee6	-0.03716936
18	0x3ebcb73b	0.36858544
19	0xbdb96dec	-0.09054169
20	0xbd90bc3f	-0.07067155
21	0xbdf702de	-0.12061094
22	0xbdd59a8a	-0.104298666
23	0xbe026c5c	-0.12736648
24	0xbe1b36bb	-0.15157597
25	0xbd5d559b	-0.054036718
26	0xbe857b53	-0.2607065
27	0xbe751e07	-0.23937236
28	0xbe0de522	-0.13856938
29	0xbd4c24f2	-0.04983992
30	0xbde8ab81	-0.11360837
31	0xbd9f5a94	-0.07780948
32	0xbe009ce7	-0.12559853
33	0x3d7902d9	0.06079373
34	0xbdd77b29	-0.10521538
35	0xbdd98b58	-0.10622281
36	0xbe42f840	-0.19040012
37	0x3e2480e1	0.16064788
38	0xbd1e2cfe	-0.038617127
39	0xbd0c5ef5	-0.034270246
40	0xbd889f94	-0.06671062
41	0xbd8639aa	-0.06553967
42	0xbcf8982b	-0.030345997
43	0xbe177d64	-0.14793926
44	0x3e010d0f	0.12602638
45	0xbdf91948	-0.12163025
46	0x3dabb7b5	0.08384649
47	0xbe5d33e2	-0.21601823
48	0xbe14cea7	-0.14531957
49	0xbeb8a55d	-0.36063662
50	0xbd431b0f	-0.047633227
51	0xbd9122ff	-0.07086753
52	0x3e308f70	0.17242217
53	0xbe56e3f8	-0.209854
54	0xbcb628e2	-0.022236291
55	0xbe31621a	-0.17322579
56	0xbd52d1a3	-0.051469456
57	0xbe029112	-0.12750652
58	0xbdddb15d	-0.10824845
59	0x3cc0b969	0.02352591
60	0xbe0bc24e	-0.1364834
61	0x3e3b6b55	0.18302663
62	0xbdcb8bae	-0.09938751
63	0x3df8f006	0.12155156
64	0xbdd161a1	-0.10223699
65	0xbe2241d7	-0.15845428
66	0xbd209161	-0.039201144
67	0xbeb47fc6	-0.35253733
68	0x3d84133f	0.064489834
69	0xbe176f72	-0.14788607
70	0xbd8d6ff4	-0.06906119
71	0xbdb9052b	-0.09034189
72	0x3d8016f7	0.0625438
73	0x3cbe5faa	0.023238976
74	0xbd155abe	-0.03646349
75	0xbdc67a3e	-0.096912846
76	0x3e2da68a	0.16958061
77	0xbe05f2fd	-0.13080974
78	0xbdbc80f0	-0.092042804
79	0xbdf843b6	-0.1212229
80	0x3e69e9d6	0.22843108
81	0xbd225b57	-0.03963789
82	0xbe10fbe5	-0.1415859
83	0xbd31aad9	-0.043375824
84	0x3a7c1269	0.00096157804
85	0xbd23776a	-0.039908804
86	0xbda2a47f	-0.079415314
87	0xbdb3259c	-0.08747408
88	0xbe037e55	-0.1284116
89	0x3e86736c	0.26259935
90	0xbdab5974	-0.08366671
91	0xbe543d18	-0.2072643
92	0xbccc23e3	-0.024919456
93	0xbdb44d78	-0.088038385
94	0xbc9ec44b	-0.01938071
95	0xbd51d8e6	-0.05123224
96	0x3db97283	0.090550445
97	0xbba6c725	-0.005089658
98	0xbe709fcb	-0.23498456
99	0x3e0d9023	0.13824515
100	0xbe083831	-0.13302685
101	0xbda7aecf	-0.08187639
102	0x3e0b4e70	0.1360414
103	0x3ea9a1dd	0.33131304
104	0x3deb7775	0.11497394
105	0xbdbee4d4	-0.09320989
106	0xbd8c77c6	-0.068587825
107	0xbcf24dfb	-0.0295782
108	0x3e563037	0.2091683
109	0xbb176e0f	-0.0023106372
110	0xbd55ad0c	-0.052166983
111	0x3d961296	0.07327764
112	0x3c804514	0.015657939
113	0xbd9d8693	-0.076916836
114	0xbecdb860	-0.4017973
115	0xbdce873e	-0.10084389
116	0xbd1c6394	-0.038180903
117	0xbd01c04b	-0.031677525
118	0xbe88b804	-0.26702893
119	0xbd8e037e	-0.0693426
120	0x3df35802	0.118820205
121	0xbdddb3a3	-0.108252786
122	0x3ea80a34	0.32820284
123	0xbe3d7ff9	-0.18505849
124	0xbe85ac59	-0.26108053
125	0xbd53830a	-0.05163864
126	0x3df4d46c	0.11954579
127	0x3d6539fe	0.05596351
