saved_models/agent_maddpgv2_vs_opp_maddpgv2_2_vs_1_1_big_5_sec_agent_best_models/maddpgv2_actor_1.pt (torch, 158219 bytes, 21 tensors)

actor_fc_layers.blocks.0.block.0.weight f4 [128, 17]
00000000: 6eb7 08be 3ae9 0a3c 983a 073d 9590 b7bc
00000010: 6330 f23c 2184 8f3d d169 d7bb a461 103e
00000020: 4138 6e3c 9d4d a4bd 9c3e bf3d 467f 1d3e
00000030: 5189 81bd d704 e83c 6760 b7bc 094b eb3c
00000040: 0280 9a3e 1689 1dbe 98ab 91bd 971a e9bc
00000050: 7917 113f 496f 0d3e 6f13 63bd 933a b4bc
00000060: c244 6fbe ead6 0f3e 9256 32be d730 febd
00000070: a4ab 463e c8ff f23d 9c28 1abe 3163 383e
00000080: bccf 93be b39f 11bd e263 453c 927f 8fbc
00000090: 338e 423e 116e 3cb8 6c52 273e 8688 813e
000000a0: 2320 d53a 42f5 723e 0996 16bf 41c5 103e
000000b0: ccd1 a73d ea5c 523d 2a45 d0be b869 983e
000000c0: 41ef 04be f8ce ea3d d00e 8bbd 4439 dabe
000000d0: 4ff2 0fbe b985 303e 7c5a 8abc 60a4 2cbe
000000e0: 3fef 2dbd b080 ec3c ed58 bd3b 415f 22be
000000f0: f088 5cbe 9b32 ea3c ebbd 71bd eade b93d
00000100: 0d18 d7bc b214 30bd c325 673c 6b60 e3bd
00000110: 5e69 82be ea63 5fbc 923f 03be 8962 6fbe
00000120: 20bb d1bd 5f1f 113e a707 973d f866 0abd
00000130: 1664 283d 32dc c5bc 9f70 f1bc 321e 11be
00000140: e8d3 9d3d 34b8 513e f31c 94bc baab 02be
00000150: 6b47 6fbe ddee 86be 1154 f53c 3051 623d
00000160: a01b 163e 9ebf 293d ac88 3fbe 6676 70bd
00000170: 364e 41bd ec4c 283d 30e0 b7bd a09a adbe
00000180: 170d 673d 8a9e b5be c757 6e3e 3b1f 0a3e
00000190: 12a9 343d 4b07 50be 19af 2cbe 6e9f 3c3c
000001a0: 1515 9f3e f640 bc3d 9552 9e3d 915b 893c
000001b0: 749a 5ebc 568d 793c c499 1e3d 038c 8c3d
000001c0: b189 8c3e 41bc b33d 8a1b 333d b10e 5bbd
000001d0: 40ba c1b8 2fab 303d e3bf fdbd 2e3d 9cbd
000001e0: 8c2a c0bb 4a16 0a3e da6f 023d 7aaf 2d3e
000001f0: 32d0 e2bd df39 f63a 8f25 72be db83 2d3d
00000200: 5fde 043d 5f39 95bd 8fac 39be 89d6 043e
00000210: 289c 0ebe aaf7 1f3e 71a6 2dbe 978f 50be
00000220: 939a 40be ca52 053d 88f6 2a3d d786 f9bd
00000230: 7514 fcbd 4f0d 9fbe 2fbe 03be ecdd 883d
00000240: 90e1 833e 185a 163e d218 80be 7802 9ebe
00000250: 959c 843e 1cae cfbd c536 e9bd f11f 873d
00000260: 3a67 98be 1cdc 0abe 86b6 b5bd ad92 16be
00000270: 60e9 b3be 4355 7bbe f5ea c3bd 26dd 2dbe
00000280: bc93 523e 882a 3b3e e118 d43e c434 e0be
00000290: 2399 273d 8219 013e 0a37 01be d205 6cbe
000002a0: 8d6a 343d f1c5 5abe b69b 91be 9797 853c
000002b0: ba6b 313e 2dd0 e43d be16 633c 42a8 0ebe
000002c0: 6b51 9d3c ab01 79bd f404 83bc d709 4e3e
000002d0: 4b5f 583e a804 71be c5ae 0f3e 5808 d4bd
000002e0: d33f 853c dd3c 5abd 14da 053e a526 5c3e
000002f0: 01e1 3a3b fe7c b33d 2797 2cbe 8949 aabc
00000300: d6c1 013e d152 143c 652b febc 62a7 8fbe
00000310: 7042 823e ec54 463d ffe9 abbd e2b0 c1bd
00000320: c232 553d 7d47 cc3d 9435 b7bd ddbe 253e
00000330: f972 1cbd 690c 3a3c 81a6 febd 9a0b 993d
00000340: 88a1 933d 7609 cdbd dfe4 8a3b 11bc 13bd
00000350: 46aa 6bbd 77cf ee3d 4d07 173e 746a 03be
00000360: 6895 273d 24db 4dbd 906c 043d 0663 ccbc
00000370: 8968 6d3e f2a9 15bb 6ed9 4bbc 2423 87be
00000380: cc80 3e3e 4e0c 67be e606 623e 3d1b 07bd
00000390: d644 073e ae84 22be 00fa 273e faef 213e
000003a0: 6921 ad3d 11c2 923d a7dc 383a 9bc9 0cbe
000003b0: 03b6 fa3d a31b 30bd 77d8 153d 9942 da3d
000003c0: 12de 103e e33a 2bbd 7d7d 033d 7e52 b6be
000003d0: 28e8 0d3e 9444 893d bea8 acbe a47f 2dbe
000003e0: cffa 18bd 5f8c 36bd d895 bfbb 2779 3fbe
000003f0: 120e 973e 36a7 8b3d 1668 89be 3d58 973d
-0.13351223 0.008478457 0.033014864 -0.02240781 0.029564088 0.070076235 -0.0065738936 0.14099747
0.014539779 -0.08022616 0.09338114 0.15380582 -0.06325019 0.02832262 -0.022384835 0.028722303
0.30175787 -0.15384325 -0.07112807 -0.028455062 0.5667644 0.13811983 -0.055438455 -0.022000587
-0.23366073 0.14046827 -0.17415836 -0.12411659 0.19401413 0.11865193 -0.15054554 0.18006589
-0.28869426 -0.03555269 0.01204774 -0.017516885 0.18999557 -4.49252e-05 0.16340035 0.25299472
0.0016260188 0.23726371 -0.58822685 0.14137746 0.081943125 0.05135814 -0.40677768 0.29768157
-0.12981893 0.114652574 -0.06789935 -0.42621815 -0.14057277 0.17238511 -0.01688885 -0.16859579
-0.04246449 0.028869957 0.005778423 -0.15856649 -0.21536613 0.028588584 -0.05901901 0.090757206
-0.026256585 -0.042988487 0.014108124 -0.11102375 -0.25471014 -0.013634661 -0.12817219 -0.23377432
-0.102407694 0.14172123 0.073745064 -0.033789605 0.041111074 -0.024152849 -0.029472647 -0.14171675
0.077064335 0.20480424 -0.01808021 -0.12760821 -0.23367088 -0.26354113 0.029947313 0.055253208
0.14658976 0.041442506 -0.1870448 -0.058706664 -0.04719373 0.041088983 -0.08978307 -0.33907032
0.056408968 -0.35472518 0.23275672 0.13488476 0.04410655 -0.20315282 -0.1686367 0.01151262
0.31070772 0.09192078 0.07730595 0.016767295 -0.013586629 0.015231451 0.03872086 0.068626426
0.274488 0.08776141 0.043727435 -0.053480808 -9.237649e-05 0.043132003 -0.12390115 -0.076288566
-0.005864447 0.13485065 0.03184495 0.1696147 -0.11074866 0.0018785557 -0.2364714 0.042362075
0.032438632 -0.07286333 -0.18132232 0.12972464 -0.13926756 0.1562182 -0.16958024 -0.20367275
-0.18808965 0.032549657 0.041739017 -0.12183922 -0.12308589 -0.3106484 -0.12865518 0.06682953
0.25758028 0.14682806 -0.25018936 -0.30861259 0.25900713 -0.101406306 -0.113873996 0.06597889
-0.29766256 -0.13560528 -0.08872704 -0.1470439 -0.35138988 -0.24544244 -0.09566299 -0.16978893
0.20564169 0.18277943 0.4142523 -0.43790257 0.040917527 0.12607387 -0.12618652 -0.23049095
0.044046927 -0.21364571 -0.2843911 0.016307635 0.1732625 0.11172519 0.013860403 -0.13931373
0.019203862 -0.060792606 -0.015993573 0.20120941 0.21130101 -0.23536932 0.14031513 -0.10353154
0.016265785 -0.0532807 0.13071471 0.21499117 0.002851546 0.08764075 -0.16854535 -0.020787017
0.12671599 0.009052948 -0.031026551 -0.2805739 0.25441313 0.04842083 -0.083942406 -0.09457566
0.05205036 0.09974573 -0.08945766 0.1618609 -0.038195584 0.011355498 -0.12434102 0.07472916
0.07208544 -0.1001157 0.0042387093 -0.036068026 -0.057535432 0.116606645 0.14748879 -0.12833577
0.04091397 -0.050257817 0.032330096 -0.024949562 0.23184408 -0.002283689 -0.012441976 -0.26393998
0.1860382 -0.22563288 0.22072944 -0.03298496 0.13209853 -0.15870926 0.16403961 0.158142
0.08453638 0.071659215 0.0007051923 -0.13748781 0.12241747 -0.042995106 0.03658339 0.10657234
0.14147213 -0.041804206 0.032102097 -0.35609812 0.13858092 0.06702533 -0.3372249 -0.16943222
-0.037348565 -0.044567462 -0.00584672 -0.1869856 0.29502922 0.06819002 -0.26837224 0.07389877

actor_fc_layers.blocks.0.block.1.weight f4 [128]
00000000: 19a3 4c3f e4bf 353f 0681 873f 3eff 5a3f
00000010: 5cb2 783f 0476 7f3f 6b6a e63e ae38 eb3e
00000020: 98c7 7a3f 22e5 863f 6a7b 033f ce31 853f
00000030: 6260 493f 591c 463f a350 4f3f 0ba1 1a3f
00000040: 27b5 4b3f 7b25 523f 83fd 543f 6a25 643f
00000050: d6fd eb3e 9ef4 503f 20a6 4d3f e4d1 573f
00000060: f2e3 7a3f 4e0a 0c3f 8e62 443f d7a2 653f
00000070: 6f20 7d3f 1540 7f3f 6eb1 8a3f 0404 333f
00000080: e305 5a3f 737e 563f 3fbe 053f b50b 4d3f
00000090: bb24 943f 71c1 613f 4fce 663f 6b06 a53f
000000a0: 0f9a 3b3f 8645 fe3e 45d2 a73f 23b8 363f
000000b0: 83b3 4c3f 2bf8 f93e 6ccd 163f a975 c13e
000000c0: 9c63 b73e 9e2c 803f 8c29 6c3f 4a62 843f
000000d0: 966d 7f3f 0ce1 403f 9d40 053f bf11 413f
000000e0: 0db3 663f d4cd 4e3f 1ceb 313f b86f 243f
000000f0: 54d8 6a3f 534b 8c3f 2440 223f 6f71 783f
00000100: b70c 383f 551e f93e 9162 3b3f 233a 7c3f
00000110: 32b9 363f 472a 1d3f dc1b 3f3f 1d95 1d3f
00000120: 475c 473f fd3d 373f 5bcf 2a3f 7a75 dd3e
00000130: fd62 673f 7abe 703f a569 7d3f f404 cc3e
00000140: 2732 e63e d262 563f b98a 5e3f 17ea 2c3f
00000150: 1956 3d3f 8997 1d3f bfd9 783f 43e3 753f
00000160: 77af 4c3f d090 3e3f 05d0 e73e 87a3 f33e
00000170: 70de 5f3f 0e39 3c3f 9b01 4f3f c721 4f3f
00000180: 7930 3c3f dae5 493f c601 403f e3eb 273f
00000190: 1f15 7f3f ce75 303f 7d97 163f db60 5d3f
000001a0: 8f7f 4f3f 4ea3 cb3e 30c8 293f 4fe1 5a3f
000001b0: 25d9 383f bbf1 7f3f d585 133f bc61 633f
000001c0: b1d9 7d3f a373 1d3f d44c 3c3f 8d31 653f
000001d0: 790f 6e3f 9fed 583f 401c 043f 41dc 153f
000001e0: 0183 4c3f 8c43 6f3f 9a49 453f 7bbb 753f
000001f0: 7eaa 663f 172c 8d3f 449d 583f b998 3c3f
0.7993637 0.70995927 1.058625 0.8554572 0.97147155 0.9978945 0.45003065 0.4594168
0.97960806 1.0538676 0.5136019 1.0405824 0.78662694 0.77387005 0.80982417 0.6040198
0.7957329 0.8208844 0.8319933 0.8911959 0.460921 0.81623256 0.8033161 0.8430464
0.98004067 0.54703224 0.7671288 0.897016 0.98877615 0.99707156 1.0835397 0.69928
0.8516523 0.83786696 0.5224342 0.8009599 1.1573709 0.88185793 0.9015855 1.2892584
0.7328195 0.49662417 1.3111044 0.7137472 0.79961413 0.4882215 0.589072 0.3778508
0.35818183 1.0013616 0.92250896 1.0342495 0.9977659 0.75343394 0.5205172 0.75417703
0.9011696 0.8078282 0.69499373 0.6423297 0.9173634 1.0960487 0.6337912 0.97048086
0.718944 0.48655954 0.73197275 0.9852621 0.71376336 0.61392635 0.74651885 0.61555654
0.7787518 0.7157896 0.6672265 0.4325369 0.9038542 0.94040644 0.98989326 0.3984753
0.44960138 0.8374454 0.86930424 0.6754469 0.739595 0.6155935 0.97207254 0.960499
0.7995524 0.74439716 0.45275894 0.475857 0.8744879 0.7352456 0.80861825 0.80910915
0.73511463 0.7886635 0.75002706 0.6559431 0.99641603 0.68929756 0.588249 0.86475915
0.81054014 0.3977303 0.66321087 0.85500044 0.72206336 0.99978226 0.57626086 0.88821006
0.99160296 0.6150457 0.7355473 0.89528733 0.9299236 0.8473758 0.51605606 0.58539206
0.79887396 0.93462443 0.7706543 0.959892 0.901039 1.102908 0.8461497 0.73670536

actor_fc_layers.blocks.0.block.1.bias f4 [128]
00000000: cf73 ffbe b4ca 07be b2f2 203d e6b8 3abe
00000010: ae0d 26bd 12dd 653d 4144 f33e 7267 2e3f
00000020: 67fa 1d3d 99ff 003d 9280 9f3e dfc9 a9be
00000030: eac6 e1be 3ab1 bebc 6b33 883d 432e 433e
00000040: e996 3f3d b545 ddbd e3a6 c6bd 5753 36be
00000050: 0af1 de3e 1fcd 0cbe 0209 ccbd 5d82 6a3d
00000060: 3e01 7cbd 8720 8e3e 7b0a 283e 2eaa 10bd
00000070: 7fa4 85bc 5555 adbd e81b b53c 04b5 a33c
00000080: ccfc 3abe 2fcc 333d ed2e 2f3f e1c6 f1bd
00000090: 5fcc 943d f6ca 0dbf 792a 833e 6adb 833d
000000a0: 9e60 a4be 470c 86be 1ef8 e0be 7cf1 84be
000000b0: 9a1e fabe 8a48 133f d89d 7c3e 1598 c03e
000000c0: aa50 d73e d874 ee3d 1cf9 89bd f532 17bd
000000d0: 7a17 88bc b490 47be 630a f23e f450 c4be
000000e0: c074 28bc 06d1 61be ab53 66be 19e2 423e
000000f0: a114 d1bd 9f10 033e 8d53 82be 7621 8cbd
00000100: 0711 c1bc a2cc 943e b69c cbbe 73d5 ddbd
00000110: 6ee8 adbc ca20 ec3c 4264 adbe 21c3 51be
00000120: 0ba8 9dbe 6700 d6be ed07 6bbe 5fdd bb3e
00000130: 5238 6e3d 87fe 3e3e 865b 5fbc 1477 8c3e
00000140: f74a e13e e8b4 b4be 7256 d0bd bfac b93d
00000150: b96f 60be 651e 76be 656b 973d 3b6f e43d
00000160: db92 0fbe f2cc 05be c8b3 c43e 50c7 ab3e
00000170: 04cc 0abe 6e5b 86be 415a 1dbe eeca 22be
00000180: 8c0b 89be f2d3 1ebe 9c0c 5abe 39f1 88be
00000190: dfe8 7abc 3e06 f73d a7fa 3dbe 0d35 323e
000001a0: 80a2 2cbe 1e08 c73e fe26 d43c 52aa 3b3e
000001b0: cf02 e3be 961a 403d f29d b8bc fe46 5f3e
000001c0: 970d 7dbc 4d3a b7bd 2f51 83be 0839 f4bd
000001d0: 7032 8dbd 1290 22bf 1151 2e3e c675 98bb
000001e0: 9885 85bd 2d6d 953e cc62 3bbe b16e 02be
000001f0: 8263 843c 91c5 0fbe ac95 f5bd 95d3 d0bd
-0.49893042 -0.13260919 0.039293952 -0.18234596 -0.04054039 0.056119032 0.4751301 0.68126595
0.03856888 0.031493757 0.3115278 -0.33161828 -0.44097072 -0.023277868 0.06650432 0.19060616
0.04677478 -0.10804311 -0.096998 -0.17805229 0.43543273 -0.13750122 -0.099626556 0.05725323
-0.061524622 0.2775919 0.16410248 -0.035318546 -0.01631379 -0.084635414 0.022108033 0.019983776
-0.18260497 0.043895897 0.6843098 -0.11805511 0.07265543 -0.5538782 0.25618342 0.06438334
-0.32104963 -0.26181242 -0.43939298 -0.25965488 -0.48851472 0.5753256 0.24669588 0.3761603
0.4205373 0.1164338 -0.06736967 -0.03691383 -0.016612757 -0.19488794 0.4727355 -0.38343012
-0.010281742 -0.22052392 -0.22492854 0.19031562 -0.10209013 0.12799309 -0.2545437 -0.0684232
-0.02356769 0.29062372 -0.39767998 -0.10831728 -0.021228995 0.028824229 -0.33865553 -0.20484592
-0.3079227 -0.41797182 -0.22952242 0.3669233 0.05815918 0.18651782 -0.013632661 0.274346
0.44002506 -0.3529427 -0.10172738 0.09066152 -0.21917619 -0.24035032 0.07393531 0.11154028
-0.14020865 -0.13066462 0.38418412 0.335505 -0.13554388 -0.2624163 -0.1536646 -0.15897724
-0.26766622 -0.15510538 -0.21293873 -0.26746538 -0.01531431 0.120617375 -0.18552648 0.1740305
-0.16858864 0.3887338 0.0258975 0.18326691 -0.4433808 0.046900354 -0.022536252 0.21804425
-0.015445135 -0.08946667 -0.25647876 -0.1192494 -0.06894386 -0.63501084 0.17023112 -0.0046527116
-0.065196216 0.29184857 -0.18299407 -0.12737538 0.01616073 -0.1404021 -0.11991438 -0.10196606

actor_fc_layers.blocks.0.block.1.running_mean f4 [128]
00000000: 0000 0000 0000 0000 0000 0000 0000 0000
00000010: 0000 0000 0000 0000 0000 0000 0000 0000
00000020: 0000 0000 0000 0000 0000 0000 0000 0000
00000030: 0000 0000 0000 0000 0000 0000 0000 0000
00000040: 0000 0000 0000 0000 0000 0000 0000 0000
00000050: 0000 0000 0000 0000 0000 0000 0000 0000
00000060: 0000 0000 0000 0000 0000 0000 0000 0000
00000070: 0000 0000 0000 0000 0000 0000 0000 0000
00000080: 0000 0000 0000 0000 0000 0000 0000 0000
00000090: 0000 0000 0000 0000 0000 0000 0000 0000
000000a0: 0000 0000 0000 0000 0000 0000 0000 0000
000000b0: 0000 0000 0000 0000 0000 0000 0000 0000
000000c0: 0000 0000 0000 0000 0000 0000 0000 0000
000000d0: 0000 0000 0000 0000 0000 0000 0000 0000
000000e0: 0000 0000 0000 0000 0000 0000 0000 0000
000000f0: 0000 0000 0000 0000 0000 0000 0000 0000
00000100: 0000 0000 0000 0000 0000 0000 0000 0000
00000110: 0000 0000 0000 0000 0000 0000 0000 0000
00000120: 0000 0000 0000 0000 0000 0000 0000 0000
00000130: 0000 0000 0000 0000 0000 0000 0000 0000
00000140: 0000 0000 0000 0000 0000 0000 0000 0000
00000150: 0000 0000 0000 0000 0000 0000 0000 0000
00000160: 0000 0000 0000 0000 0000 0000 0000 0000
00000170: 0000 0000 0000 0000 0000 0000 0000 0000
00000180: 0000 0000 0000 0000 0000 0000 0000 0000
00000190: 0000 0000 0000 0000 0000 0000 0000 0000
000001a0: 0000 0000 0000 0000 0000 0000 0000 0000
000001b0: 0000 0000 0000 0000 0000 0000 0000 0000
000001c0: 0000 0000 0000 0000 0000 0000 0000 0000
000001d0: 0000 0000 0000 0000 0000 0000 0000 0000
000001e0: 0000 0000 0000 0000 0000 0000 0000 0000
000001f0: 0000 0000 0000 0000 0000 0000 0000 0000
0.0 0.0 0.0 0.0 0.0 0.0 0.0 0.0
0.0 0.0 0.0 0.0 0.0 0.0 0.0 0.0
0.0 0.0 0.0 0.0 0.0 0.0 0.0 0.0
0.0 0.0 0.0 0.0 0.0 0.0 0.0 0.0
0.0 0.0 0.0 0.0 0.0 0.0 0.0 0.0
0.0 0.0 0.0 0.0 0.0 0.0 0.0 0.0
0.0 0.0 0.0 0.0 0.0 0.0 0.0 0.0
0.0 0.0 0.0 0.0 0.0 0.0 0.0 0.0
0.0 0.0 0.0 0.0 0.0 0.0 0.0 0.0
0.0 0.0 0.0 0.0 0.0 0.0 0.0 0.0
0.0 0.0 0.0 0.0 0.0 0.0 0.0 0.0
0.0 0.0 0.0 0.0 0.0 0.0 0.0 0.0
0.0 0.0 0.0 0.0 0.0 0.0 0.0 0.0
0.0 0.0 0.0 0.0 0.0 0.0 0.0 0.0
0.0 0.0 0.0 0.0 0.0 0.0 0.0 0.0
0.0 0.0 0.0 0.0 0.0 0.0 0.0 0.0

actor_fc_layers.blocks.0.block.1.running_var f4 [128]
00000000: 0000 803f 0000 803f 0000 803f 0000 803f
00000010: 0000 803f 0000 803f 0000 803f 0000 803f
00000020: 0000 803f 0000 803f 0000 803f 0000 803f
00000030: 0000 803f 0000 803f 0000 803f 0000 803f
00000040: 0000 803f 0000 803f 0000 803f 0000 803f
00000050: 0000 803f 0000 803f 0000 803f 0000 803f
00000060: 0000 803f 0000 803f 0000 803f 0000 803f
00000070: 0000 803f 0000 803f 0000 803f 0000 803f
00000080: 0000 803f 0000 803f 0000 803f 0000 803f
00000090: 0000 803f 0000 803f 0000 803f 0000 803f
000000a0: 0000 803f 0000 803f 0000 803f 0000 803f
000000b0: 0000 803f 0000 803f 0000 803f 0000 803f
000000c0: 0000 803f 0000 803f 0000 803f 0000 803f
000000d0: 0000 803f 0000 803f 0000 803f 0000 803f
000000e0: 0000 803f 0000 803f 0000 803f 0000 803f
000000f0: 0000 803f 0000 803f 0000 803f 0000 803f
00000100: 0000 803f 0000 803f 0000 803f 0000 803f
00000110: 0000 803f 0000 803f 0000 803f 0000 803f
00000120: 0000 803f 0000 803f 0000 803f 0000 803f
00000130: 0000 803f 0000 803f 0000 803f 0000 803f
00000140: 0000 803f 0000 803f 0000 803f 0000 803f
00000150: 0000 803f 0000 803f 0000 803f 0000 803f
00000160: 0000 803f 0000 803f 0000 803f 0000 803f
00000170: 0000 803f 0000 803f 0000 803f 0000 803f
00000180: 0000 803f 0000 803f 0000 803f 0000 803f
00000190: 0000 803f 0000 803f 0000 803f 0000 803f
000001a0: 0000 803f 0000 803f 0000 803f 0000 803f
000001b0: 0000 803f 0000 803f 0000 803f 0000 803f
000001c0: 0000 803f 0000 803f 0000 803f 0000 803f
000001d0: 0000 803f 0000 803f 0000 803f 0000 803f
000001e0: 0000 803f 0000 803f 0000 803f 0000 803f
000001f0: 0000 803f 0000 803f 0000 803f 0000 803f
1.0 1.0 1.0 1.0 1.0 1.0 1.0 1.0
1.0 1.0 1.0 1.0 1.0 1.0 1.0 1.0
1.0 1.0 1.0 1.0 1.0 1.0 1.0 1.0
1.0 1.0 1.0 1.0 1.0 1.0 1.0 1.0
1.0 1.0 1.0 1.0 1.0 1.0 1.0 1.0
1.0 1.0 1.0 1.0 1.0 1.0 1.0 1.0
1.0 1.0 1.0 1.0 1.0 1.0 1.0 1.0
1.0 1.0 1.0 1.0 1.0 1.0 1.0 1.0
1.0 1.0 1.0 1.0 1.0 1.0 1.0 1.0
1.0 1.0 1.0 1.0 1.0 1.0 1.0 1.0
1.0 1.0 1.0 1.0 1.0 1.0 1.0 1.0
1.0 1.0 1.0 1.0 1.0 1.0 1.0 1.0
1.0 1.0 1.0 1.0 1.0 1.0 1.0 1.0
1.0 1.0 1.0 1.0 1.0 1.0 1.0 1.0
1.0 1.0 1.0 1.0 1.0 1.0 1.0 1.0
1.0 1.0 1.0 1.0 1.0 1.0 1.0 1.0

actor_fc_layers.blocks.1.block.0.weight f4 [128, 128]
00000000: 9353 8ebe 73b8 443d 2f67 96be 40ab 963d
00000010: ddcc acbc 0da4 103e 0cc8 2a3e d8f0 c33d
00000020: f5ce e83c 3913 8cbd 6a55 f9bd 99ab f7bd
00000030: cb39 b0bd 1f19 afbd cefc 62be 27f6 2cbe
00000040: 3aba 323c 4f4c 08be a2d4 c5bd 6eae 703d
00000050: 1588 6b3c 5657 6abd c8af c83d b0aa b7bd
00000060: 763a 0f3e feda 08bf 4796 78bc bbba 2fbc
00000070: 823b 6fbd 754a 933b 48e1 47be 48af a2be
00000080: aed7 e93c 0359 053d 9eb2 a3bd 4686 de3d
00000090: 617f f3bd 9bd1 53be 50f6 703c 0818 ec3e
000000a0: d674 d93b b543 eb3d 9bad 02be aaf1 b5bd
000000b0: dbfa 52be 21e2 42be 89b6 d73d df55 03be
000000c0: 8938 f5bc 057a e9bd 3a40 8d3d 10e9 f83c
000000d0: 5ef9 e3bc b7ee 493c f9df 36be 90d2 6f3e
000000e0: c785 62bd fc6d 53bc d894 a3bd 090b 75bc
000000f0: da61 59be 057d 0dbe b4a3 1dbe 3cac 513c
00000100: 37e0 193c 295c 68be 189d 38be 23d2 a03d
00000110: ed7f 8cbe 7496 8ebc 76c2 c0be 9122 a83c
00000120: d8c7 40be 11dd 23be 4402 ddbb ea33 2d3d
00000130: 7a53 24be 897b c4be 3e8a ef3c 84db 8cbe
00000140: 2c6e 1c3c 94ea 2bbe 4305 3fbc bfbd 10bd
00000150: 3389 163d a6f5 903c 3172 2f3e ab2b 2dbe
00000160: e2e2 9a3b c2fb a5bd 38df 3dbe 8cf3 153e
00000170: eaab 44be fd84 f6bd d1a9 19be 713c 3fbe
00000180: b523 45bc 50d9 b13c 2145 21bc d13d 543e
00000190: e2be 66bd fedb 113d ee73 f3bd e9e8 a73e
000001a0: ae6b 143e 0bb9 f9bd f6f6 24be f80e c8be
000001b0: 3db5 8cbe b11d 77bd 45d4 22bd c84c 94be
000001c0: ab09 653d c482 86bc 4f6c 243c 871d a5bd
000001d0: afed 303e e803 88be c107 b4bd 6e32 0ebd
000001e0: 5447 a9bd 9af7 033e 754f bebc 692f 9f3c
000001f0: 62d6 59bd 856f 04bf a69d 8f3d f58f 0ebd
00000200: eb4c 0dbd e223 e13d 4304 00be 7217 babd
00000210: 945d e6bc 2651 3ebd 99d9 f83a 31d3 b13e
00000220: 98aa 61bd 84c0 203e 3bbe 8e3d 50ac 433d
00000230: e101 2cbd e4b3 ec3d 9c6e a33c 7762 88bd
00000240: 4b7e 12bd aec1 6cbd 6179 89bb 6462 ebbb
00000250: 8632 d63d 161a bfbd bf1b 103e 06ae 01bd
00000260: 632c efbd 83a9 763d f4d9 ff3d 20b2 05bd
00000270: 0844 453d 7c07 f6bc 0b88 fcbc d837 bbbc
00000280: c38e b5bd e72e d2bd 3016 783e 2a04 a4be
00000290: 67b3 54be ca6e 253a d9e5 93bd 35b2 06be
000002a0: 252d a7bc 8c12 2c3e 6768 23be 7086 57be
000002b0: fd74 05bd 1083 e53d b26e d53d a0c8 c93d
000002c0: bf17 a73e 7f8e e13c be00 22bd 832b c33d
000002d0: 47f0 a33d c44c 823c 0bbf f8bd 78ff 963d
000002e0: 18a1 03be 2e1b c63d 8704 ffbd 72e1 26bd
000002f0: 47c9 e73b fd44 8b3d 001d dbbd e9d4 db3c
00000300: 4ff3 0e3d 462f 36be 304d 0f3d c290 d53c
00000310: b900 c63d 915d bebd 343b bbbd 6f20 bbbc
00000320: 16ee a9bd b2ee c53d 5aa5 44be bc70 b93c
00000330: 081e 48bd cd6b cabd 6571 82bd 48c6 15bd
00000340: b0a0 05be a595 87bd 0220 b2bd 37dc cebc
00000350: 0556 aabd db6e da3c b2ae 0ebe 6d92 a43d
00000360: a174 853d 17f1 8cbd d410 fb3d e330 123e
00000370: c0fe 24bd b505 bb3c 3779 47be df74 493e
00000380: 016a 9fbd 7fe5 c5bd 05e4 13be ccec c1bd
00000390: 8ee5 c43c e4df 79be f4f9 04bc 2385 45bc
000003a0: 7e78 abbd d5e0 e73d 6305 813d 9794 913c
000003b0: 33f0 b6bd cfab 023e 607c e73d fd22 2d3e
000003c0: 03b8 0d3c dc06 8dbd cb59 0abe 26a9 c6bd
000003d0: 6937 e4bd 179b e23c 5522 66bd 4371 5bbe
000003e0: 5d5f 103c 941e 0f3e 07e3 f1bd eda1 20bd
000003f0: 3647 8abc 1c33 4cbe d805 dc3d ad5e b8bd
-0.27798137 0.048027467 -0.29375598 0.07356882 -0.02109378 0.1412508 0.16677874 0.09567422
0.028418997 -0.06839604 -0.121744946 -0.120932765 -0.08604773 -0.08549713 -0.2216675 -0.16890775
0.010908658 -0.1331036 -0.09659697 0.0587601 0.014375706 -0.057212196 0.097991526 -0.08968103
0.13987145 -0.53459156 -0.015172548 -0.010725672 -0.05840636 0.00449496 -0.19519532 -0.31774354
0.028545227 0.03255559 -0.07993053 0.108654544 -0.1188953 -0.20685427 0.014707163 0.46112084
0.0066362424 0.114875235 -0.12761538 -0.088839844 -0.20603506 -0.19031574 0.10532863 -0.12825726
-0.029934185 -0.114002265 0.06897016 0.03038457 -0.027828868 0.01232498 -0.17858876 0.23420167
-0.05530336 -0.01290464 -0.07987374 -0.014956244 -0.21228734 -0.13817222 -0.15394479 0.0127974115
0.009391836 -0.22691406 -0.18028677 0.078525804 -0.2744135 -0.017405726 -0.37648362 0.020524295
-0.18826234 -0.16002299 -0.006744655 0.042285837 -0.16047469 -0.383755 0.029240724 -0.27511227
0.009547751 -0.16788703 -0.011658969 -0.035337206 0.036751937 0.01769526 0.17133404 -0.1691119
0.0047267536 -0.081046596 -0.18542182 0.14643687 -0.19206205 -0.12037084 -0.15006186 -0.186754
-0.012032439 0.021710068 -0.009843142 0.20726706 -0.056334384 0.03561019 -0.11887346 0.32794884
0.14494202 -0.12193497 -0.16109833 -0.3907392 -0.27482024 -0.06033105 -0.039753217 -0.2896483
0.055917423 -0.016419776 0.010035588 -0.080622725 0.17278169 -0.2656548 -0.087905414 -0.034716062
-0.08265558 0.12887421 -0.023231247 0.019431787 -0.053182967 -0.51732665 0.07012491 -0.034805257
-0.034497183 0.10993172 -0.12501626 -0.09086503 -0.028120793 -0.046464108 0.0018985748 0.3473144
-0.05509433 0.15698439 0.06969877 0.047771752 -0.04199398 0.11557749 0.019950204 -0.06659406
-0.035764974 -0.057801895 -0.0041953777 -0.00718336 0.10458855 -0.093311474 0.14073084 -0.031660102
-0.11678388 0.060220253 0.12492743 -0.032640576 0.048160583 -0.030032866 -0.03082659 -0.022853777
-0.0886512 -0.10262852 0.24227214 -0.32034427 -0.20771562 0.00063107593 -0.07221574 -0.13153918
-0.020407269 0.1680395 -0.15957795 -0.21047378 -0.03258227 0.11206639 0.10421504 0.09852719
0.32635304 0.027533768 -0.03955149 0.095297836 0.08004814 0.015905745 -0.121458136 0.073729455
-0.12854421 0.09673153 -0.124520354 -0.040742345 0.0070735547 0.06800268 -0.10698891 0.026834922
0.034900006 -0.17791471 0.03498572 0.026070002 0.096681066 -0.0929519 -0.091421515 -0.022842614
-0.082973644 0.09664668 -0.19203702 0.022636764 -0.048856765 -0.098838426 -0.063692845 -0.03656605
-0.13049579 -0.06620339 -0.08697511 -0.025251491 -0.08317188 0.026664188 -0.13933828 0.08035741
0.06516386 -0.06881922 0.12259069 0.14276461 -0.04028201 0.02282987 -0.19479834 0.19673489
-0.077838905 -0.096629135 -0.14442451 -0.094689935 0.024035241 -0.24401814 -0.008116234 -0.012055668
-0.083725914 0.1132218 0.062998556 0.017771048 -0.08932533 0.12760852 0.113030195 0.16907878
0.008649829 -0.06886074 -0.13510816 -0.09700231 -0.11143381 0.027661843 -0.056185085 -0.21429925
0.008811799 0.13976508 -0.1181088 -0.039216924 -0.01687966 -0.19941372 0.10743302 -0.09002433

actor_fc_layers.blocks.1.block.1.weight f4 [128]
00000000: 493f 973f b27e 8f3f 5906 663f b107 6d3f
00000010: 7dc7 133f 058e 103f a981 793f 750d a13f
00000020: cf19 893f c5a6 703f 012c 903f fa67 653f
00000030: ac9f 7c3f 087b 823f e9e1 793f 1fa7 683f
00000040: 3928 aa3f 8f82 293f 447d 813f f481 5d3f
00000050: 6c82 6c3f 027a 933f 9057 8b3f 6c40 163f
00000060: 4f75 6c3f 8482 5e3f dfa0 873f 1e08 7b3f
00000070: a6e0 d13f 9060 683f 8cc0 713f 5b44 8c3f
00000080: 6bc1 8d3f 1abf b23f 7ffc b83f 4d61 703f
00000090: ad50 783f 446f 6f3f 2a3b 883f 63e8 883f
000000a0: 4c94 9c3f 8b09 643f ef94 6f3f 1400 903f
000000b0: f344 a63f e970 653f 9f67 b43f c901 8f3f
000000c0: aea2 633f f2ee a53f 9cca 833f 3fb9 803f
000000d0: 6d5e 8d3f 297e 973f 179f 853f 7ebd 653f
000000e0: 88b9 ba3f 52e7 a23f ddb6 793f 68b3 6e3f
000000f0: d421 bd3f 2ef0 833f c70b 8f3f ca36 583f
00000100: 3b93 833f 4be6 a13f b062 773f da6e 763f
00000110: 3f75 8f3f 0efe 803f cdcd b13f 75f4 8f3f
00000120: 5a95 793f 233c 8d3f 4559 7b3f ce1b 833f
00000130: d70e 803f 77af 813f e5e4 673f a147 923f
00000140: 2ff3 883f 3114 823f 2dfc a43f fc85 713f
00000150: 921d 733f 68f2 693f 5de2 8a3f f21b a73f
00000160: 8bc0 773f f575 a33f 1c86 933f b2ed 8a3f
00000170: 8088 833f 5a7e a13f 882f 9c3f 81a0 773f
00000180: 4138 683f 4af4 af3f 3b67 943f 8635 a83f
00000190: 66aa ab3f 1e7c 8f3f 965b 3a3f 3d9a 6e3f
000001a0: c148 4c3f 492c 7a3f e4ca 9f3f 5b92 953f
000001b0: dd9b 6c3f e19e 9c3f feb6 773f d93a 7a3f
000001c0: b18f 803f cc05 6d3f d21a 893f 0434 3f3f
000001d0: 4bc9 a63f 87b9 783f 2e52 783f 14a2 693f
000001e0: 7e24 b53f 7f45 8e3f 28c0 863f 54f0 2b3f
000001f0: f2e4 5b3f 5baa 863f 64fc 7b3f 1cf7 803f
1.1816188 1.1210539 0.89853436 0.9258986 0.5772627 0.56466705 0.9746347 1.2582232
1.0711001 0.9400447 1.1263429 0.8961178 0.9868114 1.0193796 0.97610337 0.90880007
1.3293525 0.6621484 1.0116353 0.8652642 0.9238651 1.1521609 1.0886097 0.5869205
0.923665 0.869179 1.0595969 0.9805926 1.6396682 0.9077234 0.9443443 1.095836
1.1074651 1.396457 1.4452056 0.9389847 0.969981 0.9352915 1.0643055 1.0695919
1.2232757 0.8907706 0.9358663 1.1250024 1.2989792 0.8962541 1.4094123 1.117242
0.88920105 1.2963545 1.0296206 1.0056533 1.1044441 1.1835376 1.0439175 0.8974227
1.458787 1.2726843 0.9754465 0.932425 1.4775949 1.0307672 1.1175469 0.844586
1.0279306 1.2648405 0.9663496 0.96262896 1.1207656 1.0077531 1.389093 1.1246477
0.9749352 1.1033977 0.9818309 1.024286 1.0004529 1.0131673 0.9058364 1.142811
1.0699214 1.0162412 1.2889458 0.9434507 0.94966996 0.9138551 1.085033 1.3055403
0.9677817 1.2770373 1.1525302 1.0853789 1.0276031 1.2616684 1.2202005 0.96729285
0.90710837 1.3746426 1.1594003 1.3141334 1.3411376 1.1209753 0.72796 0.932041
0.79798514 0.97723824 1.2483792 1.1685289 0.9242533 1.2235986 0.967636 0.97746044
1.0043851 0.9258697 1.071131 0.74688745 1.303018 0.9715809 0.97000396 0.91262937
1.4151762 1.1114959 1.0527391 0.67163587 0.8589622 1.0520738 0.9843199 1.0075412

actor_fc_layers.blocks.1.block.1.bias f4 [128]
00000000: 57e9 7bbd d255 6e3e a3c4 98bd 072b 1dbb
00000010: ff84 1b3f aa6d e23e 0916 3fbc 2b14 79be
00000020: 088b 993e 6595 623d 2c05 8e3e 0c77 6f3e
00000030: 4294 933c 1161 653d 4df2 bdbd 8049 ffbd
00000040: 6ebd a43e 95f5 6b3e 9089 043d 67c3 ac3c
00000050: e578 19be 6ebe 063d d89a 7b3d 5391 c83e
00000060: c4c0 68bd 4481 2f3e 5a23 1c3e 4bb7 943d
00000070: 4512 90be 9b53 683d 3696 b83e 4702 d23e
00000080: 07eb e43d 010a ddbd 5df5 cb3e 2722 05bd
00000090: 366a 0bbd aaa9 e5bd e18c 123d 7be9 c43c
000000a0: b10f 4a3e 5e3e 7f3e 4d45 223d d8cb a03c
000000b0: 1a13 cfbe 053f 04be 6dc9 1dbe 9f84 28bd
000000c0: b6ae 8f3d e1b5 2c3e ec82 a63d fc42 8fbd
000000d0: 28da f33c be8c 2abe 64ce ecbc 04e1 5abe
000000e0: ab36 3b3e 93b2 883e ac44 9d3c b3cd 7d3e
000000f0: 599f 263e 2d4f ac3d f4bc 86be 0ed8 27be
00000100: 8ba7 e33b 7a47 a53d 9524 9a3c 7bda 92bd
00000110: ec7a 96be 0baa 343c c762 4fbe 0a2a 8e3e
00000120: 40dc 823e 14f1 903e 3d70 743e 1dd8 463d
00000130: 152f 13bd e36c 1fbd 2df4 81bd 18e7 1c3e
00000140: 8fbf 3cbe 2ee7 1ebe 1e5d 7dbe 9d45 02bd
00000150: cbe7 74bd e0de 0bbd a927 8a3e b38a 97bd
00000160: 0991 8fbd 28aa 993d b704 773e 4601 72be
00000170: 08d4 3c3e 500a 023e eee0 04bd c8a4 ba3e
00000180: c57f 603e 9c0e e9bc dd70 7a3e 0cbe c63d
00000190: 39e6 33bd 1910 8bbd 9f60 503e 8cfb d93d
000001a0: 7e07 973e a392 37bd 65d8 0cbd 2b84 49be
000001b0: 72bc 8abd 2919 513e 6aec 66bd 6120 00be
000001c0: 969f 87bc 1673 a4bd c01b 423c c92b 643e
000001d0: 5a9e 923d 6661 c03e d1dd 35bd 7973 403e
000001e0: 080e d5bd 9eac 173e 2364 59bb 164f a73e
000001f0: 8e28 bd3e 4b58 33bd 8fb5 08bd d8bc b6bc
-0.061501827 0.23274925 -0.074593805 -0.0023981945 0.6074981 0.44224292 -0.011662968 -0.243241
0.29988885 0.055318255 0.2773832 0.23385257 0.01801503 0.056000773 -0.09274731 -0.12465191
0.32175773 0.23042901 0.032357752 0.021089269 -0.14987524 0.03289645 0.061426967 0.39173374
-0.05682446 0.17139155 0.1524786 0.07261523 -0.2813894 0.056720357 0.36052102 0.41017362
0.111776404 -0.10792924 0.39835635 -0.032503273 -0.034036838 -0.112140015 0.035778884 0.024037113
0.19732548 0.24926135 0.03961687 0.01962845 -0.4044426 -0.12914665 -0.15408869 -0.041142102
0.07015745 0.16866256 0.0813044 -0.06995198 0.029767111 -0.16655251 -0.028907008 -0.21374899
0.18282573 0.2669874 0.019197784 0.247855 0.16271724 0.08413539 -0.26316035 -0.16391012
0.006947463 0.08070274 0.018816272 -0.07170578 -0.29390657 0.0110268695 -0.20252524 0.27766448
0.25558662 0.28308928 0.2387094 0.048545945 -0.035933573 -0.0389222 -0.06345401 0.1532253
-0.18432449 -0.15517876 -0.24742553 -0.03180467 -0.059791368 -0.034148097 0.26983383 -0.07399502
-0.07010085 0.07503158 0.24122892 -0.23633298 0.18440259 0.12699246 -0.032441072 0.36453843
0.2192374 -0.02844935 0.24457116 0.09704217 -0.04392073 -0.0679018 0.20349358 0.10643682
0.29497904 -0.044817578 -0.034386057 -0.19679324 -0.06774224 0.20419754 -0.056377806 -0.12512352
-0.016555589 -0.080297634 0.011847436 0.22282328 0.071591094 0.3757431 -0.044400994 0.1879405
-0.10403067 0.14811942 -0.0033171258 0.32677525 0.36945003 -0.043785375 -0.033376273 -0.022306845

actor_fc_layers.blocks.1.block.1.running_mean f4 [128]
00000000: 0000 0000 0000 0000 0000 0000 0000 0000
00000010: 0000 0000 0000 0000 0000 0000 0000 0000
00000020: 0000 0000 0000 0000 0000 0000 0000 0000
00000030: 0000 0000 0000 0000 0000 0000 0000 0000
00000040: 0000 0000 0000 0000 0000 0000 0000 0000
00000050: 0000 0000 0000 0000 0000 0000 0000 0000
00000060: 0000 0000 0000 0000 0000 0000 0000 0000
00000070: 0000 0000 0000 0000 0000 0000 0000 0000
00000080: 0000 0000 0000 0000 0000 0000 0000 0000
00000090: 0000 0000 0000 0000 0000 0000 0000 0000
000000a0: 0000 0000 0000 0000 0000 0000 0000 0000
000000b0: 0000 0000 0000 0000 0000 0000 0000 0000
000000c0: 0000 0000 0000 0000 0000 0000 0000 0000
000000d0: 0000 0000 0000 0000 0000 0000 0000 0000
000000e0: 0000 0000 0000 0000 0000 0000 0000 0000
000000f0: 0000 0000 0000 0000 0000 0000 0000 0000
00000100: 0000 0000 0000 0000 0000 0000 0000 0000
00000110: 0000 0000 0000 0000 0000 0000 0000 0000
00000120: 0000 0000 0000 0000 0000 0000 0000 0000
00000130: 0000 0000 0000 0000 0000 0000 0000 0000
00000140: 0000 0000 0000 0000 0000 0000 0000 0000
00000150: 0000 0000 0000 0000 0000 0000 0000 0000
00000160: 0000 0000 0000 0000 0000 0000 0000 0000
00000170: 0000 0000 0000 0000 0000 0000 0000 0000
00000180: 0000 0000 0000 0000 0000 0000 0000 0000
00000190: 0000 0000 0000 0000 0000 0000 0000 0000
000001a0: 0000 0000 0000 0000 0000 0000 0000 0000
000001b0: 0000 0000 0000 0000 0000 0000 0000 0000
000001c0: 0000 0000 0000 0000 0000 0000 0000 0000
000001d0: 0000 0000 0000 0000 0000 0000 0000 0000
000001e0: 0000 0000 0000 0000 0000 0000 0000 0000
000001f0: 0000 0000 0000 0000 0000 0000 0000 0000
0.0 0.0 0.0 0.0 0.0 0.0 0.0 0.0
0.0 0.0 0.0 0.0 0.0 0.0 0.0 0.0
0.0 0.0 0.0 0.0 0.0 0.0 0.0 0.0
0.0 0.0 0.0 0.0 0.0 0.0 0.0 0.0
0.0 0.0 0.0 0.0 0.0 0.0 0.0 0.0
0.0 0.0 0.0 0.0 0.0 0.0 0.0 0.0
0.0 0.0 0.0 0.0 0.0 0.0 0.0 0.0
0.0 0.0 0.0 0.0 0.0 0.0 0.0 0.0
0.0 0.0 0.0 0.0 0.0 0.0 0.0 0.0
0.0 0.0 0.0 0.0 0.0 0.0 0.0 0.0
0.0 0.0 0.0 0.0 0.0 0.0 0.0 0.0
0.0 0.0 0.0 0.0 0.0 0.0 0.0 0.0
0.0 0.0 0.0 0.0 0.0 0.0 0.0 0.0
0.0 0.0 0.0 0.0 0.0 0.0 0.0 0.0
0.0 0.0 0.0 0.0 0.0 0.0 0.0 0.0
0.0 0.0 0.0 0.0 0.0 0.0 0.0 0.0

actor_fc_layers.blocks.1.block.1.running_var f4 [128]
00000000: 0000 803f 0000 803f 0000 803f 0000 803f
00000010: 0000 803f 0000 803f 0000 803f 0000 803f
00000020: 0000 803f 0000 803f 0000 803f 0000 803f
00000030: 0000 803f 0000 803f 0000 803f 0000 803f
00000040: 0000 803f 0000 803f 0000 803f 0000 803f
00000050: 0000 803f 0000 803f 0000 803f 0000 803f
00000060: 0000 803f 0000 803f 0000 803f 0000 803f
00000070: 0000 803f 0000 803f 0000 803f 0000 803f
00000080: 0000 803f 0000 803f 0000 803f 0000 803f
00000090: 0000 803f 0000 803f 0000 803f 0000 803f
000000a0: 0000 803f 0000 803f 0000 803f 0000 803f
000000b0: 0000 803f 0000 803f 0000 803f 0000 803f
000000c0: 0000 803f 0000 803f 0000 803f 0000 803f
000000d0: 0000 803f 0000 803f 0000 803f 0000 803f
000000e0: 0000 803f 0000 803f 0000 803f 0000 803f
000000f0: 0000 803f 0000 803f 0000 803f 0000 803f
00000100: 0000 803f 0000 803f 0000 803f 0000 803f
00000110: 0000 803f 0000 803f 0000 803f 0000 803f
00000120: 0000 803f 0000 803f 0000 803f 0000 803f
00000130: 0000 803f 0000 803f 0000 803f 0000 803f
00000140: 0000 803f 0000 803f 0000 803f 0000 803f
00000150: 0000 803f 0000 803f 0000 803f 0000 803f
00000160: 0000 803f 0000 803f 0000 803f 0000 803f
00000170: 0000 803f 0000 803f 0000 803f 0000 803f
00000180: 0000 803f 0000 803f 0000 803f 0000 803f
00000190: 0000 803f 0000 803f 0000 803f 0000 803f
000001a0: 0000 803f 0000 803f 0000 803f 0000 803f
000001b0: 0000 803f 0000 803f 0000 803f 0000 803f
000001c0: 0000 803f 0000 803f 0000 803f 0000 803f
000001d0: 0000 803f 0000 803f 0000 803f 0000 803f
000001e0: 0000 803f 0000 803f 0000 803f 0000 803f
000001f0: 0000 803f 0000 803f 0000 803f 0000 803f
1.0 1.0 1.0 1.0 1.0 1.0 1.0 1.0
1.0 1.0 1.0 1.0 1.0 1.0 1.0 1.0
1.0 1.0 1.0 1.0 1.0 1.0 1.0 1.0
1.0 1.0 1.0 1.0 1.0 1.0 1.0 1.0
1.0 1.0 1.0 1.0 1.0 1.0 1.0 1.0
1.0 1.0 1.0 1.0 1.0 1.0 1.0 1.0
1.0 1.0 1.0 1.0 1.0 1.0 1.0 1.0
1.0 1.0 1.0 1.0 1.0 1.0 1.0 1.0
1.0 1.0 1.0 1.0 1.0 1.0 1.0 1.0
1.0 1.0 1.0 1.0 1.0 1.0 1.0 1.0
1.0 1.0 1.0 1.0 1.0 1.0 1.0 1.0
1.0 1.0 1.0 1.0 1.0 1.0 1.0 1.0
1.0 1.0 1.0 1.0 1.0 1.0 1.0 1.0
1.0 1.0 1.0 1.0 1.0 1.0 1.0 1.0
1.0 1.0 1.0 1.0 1.0 1.0 1.0 1.0
1.0 1.0 1.0 1.0 1.0 1.0 1.0 1.0

actor_fc_layers.blocks.2.block.0.weight f4 [128, 128]
00000000: 70a9 54bd 1bd6 4cbe d9fc 983d e12f f03d
00000010: f9b4 233e 0851 533e 5e47 d8bc 37e2 14be
00000020: a7be b7bb fee6 4b3e 8498 053d d1df 883c
00000030: eca8 ee3d ec26 82be cfd0 383c e447 a83d
00000040: 5ac2 a1be 3635 893d d129 76bc fbdf 3d3e
00000050: 3074 e53b d4a3 ffbd 2bc4 8e3e ef1f 7c3e
00000060: 580f 9d3a 22a0 84ba 8d31 60be a2f1 823e
00000070: f3b0 43be cc62 35be 95e8 78bc 9949 a43d
00000080: 501b 863e 576c 08be 6293 aa3c f9b5 9abb
00000090: 7736 24bd 8a20 59be b9da 293d cf46 eb3b
000000a0: b4f7 d73d 4fb6 873e 4890 c8bc 1e26 28bd
000000b0: b2ad 9bbd 16da 403e 1a2e 4aba a451 8ebe
000000c0: 9311 543e 906f 48be 3a5e 013d e4d9 763e
000000d0: bfb1 123e da9c f8bd 353d 0e3c 5b71 bdbe
000000e0: 3750 b23c 80a1 b7bd e743 333e 1ca7 263e
000000f0: 16c9 28be 8d19 b8bd be56 efbe 48fa af3c
00000100: e8a8 253e 742b 27be 97b4 8a3c 5659 9c3d
00000110: 6d45 adbe 0d9b 723d da02 d0be f7fb 5f3d
00000120: ccd1 8c3d 0735 cf3d c8a9 ea3d 6763 ea3d
00000130: 838d 3f3d 4383 bdbb ac15 04be cdfd 13be
00000140: 86dd 673c ce32 95bd c4f0 61be fbdd 67bc
00000150: 7342 a2bd 3cd1 1d3e 39b7 443e b230 3ebe
00000160: 6a08 533d 9fca d6bd bfad aa3d 9cd4 e5be
00000170: 867f bd3e 4353 7ebd d740 1abd e6af 84bc
00000180: 7942 553d 626c 3cbe c7e1 cf3d 5daf 143e
00000190: 8b8f 233e b5e0 1abd 71cb 003e 39ee 01bd
000001a0: 0982 1e3e 5c07 b23d 4600 8d3e f69f efbe
000001b0: 7e0a 993d 8050 933c 331b 4a3d d799 81be
000001c0: 5d7a 8dbd c40f edbd 1eb6 b5be c92f c13d
000001d0: 8c15 16be 669e a43e 865e 88bd 9698 9c3e
000001e0: 650d 9bbe e1c2 983e 313e 49be 9976 0f3d
000001f0: ec7d d1bd 8e40 96bd 4bb9 0b3d 7cc4 3ebd
00000200: 03e4 94be 9650 1a3e 5aa2 c0be da55 e03d
00000210: dc44 17bf 11ee e9bc bd23 1f3d d8ea d33e
00000220: 36a4 5bbc d30b 943d 3e2a 99bd dcf3 383e
00000230: ff00 503e 88ac 8ebe fd87 18bd ba32 3cbd
00000240: 5ef0 39bd 636c a13e cecf 04be e376 82bc
00000250: 880a cc3d 55bb 213d 9ea3 4b3f 3c58 8ebe
00000260: a8f5 df3c 4525 693e 15e0 c23b cc20 a53c
00000270: 187a c33e 4c07 f1bc 89ed 9d3b d189 1b3d
00000280: d1b4 9cbe 1afc 013f c212 c53e b18f f43d
00000290: 3dec 6a3e 2426 d33d 435c 1e3e 0880 4d3b
000002a0: 7178 90be a244 18be 3eb9 b1bd 4c07 dbbd
000002b0: 5864 513f c79e 293e 0db6 053f 794f 2ebe
000002c0: 26db 9f3d 275c 17be e8b3 edbc df60 3a3e
000002d0: 516d 813e f98b 21bd 3ca7 cc3d 9192 033e
000002e0: 4d8b bcbc b44a 16bf 9eef ea3d a198 473d
000002f0: 83f4 fabe 58b6 0b3d eb74 483e 4b8b 89bd
00000300: c65d 513d 8517 83be deb6 ce3d 7292 d3bc
00000310: 3b5f 1b3e fe96 0d3e 0450 bb3e 2c7d b7bd
00000320: e34d cdbe 776a 9fbe 999e e0be 6ea2 27be
00000330: 5a36 f23d 78d3 80ba a366 29bd b5dd 24be
00000340: e2b7 fe3e 7083 113e df16 d93e 8ef9 8e3d
00000350: 6c94 2a3b 1726 4abd dc05 06bf 18c1 90be
00000360: 522a a3be 64fb 16be f810 463e d84c b33e
00000370: f178 dd3c 39a5 78bd 5f84 26bd 994e 273e
00000380: 8a14 bdbd a85d d43e ec06 443e 452a fb3d
00000390: 2164 0b3f 315a fb3c ee4c 57bd 0829 20be
000003a0: cbb1 70bd af80 bc3d b38d be3e 7b22 2b3d
000003b0: 7004 643e 6480 dcbc c54c 51bc ea9a 733d
000003c0: 97b9 523c 90df c53d 1bce b3bd 9393 4fbd
000003d0: 4791 94be d320 06be 799e bebd 3926 6fbe
000003e0: 2bf0 0abf c6be 043e 45a4 c4bd 91c8 3f3e
000003f0: 875f 973d bebf a93d 6c11 d53c 40f8 0ebd
-0.0519194 -0.2000355 0.07470102 0.11727882 0.15987004 0.2063638 -0.026401218 -0.14539419
-0.0056074443 0.19912335 0.032616153 0.016708286 0.11653313 -0.2542032 0.011280253 0.08216837
-0.3159359 0.06699602 -0.015024618 0.18542473 0.007002376 -0.124824196 0.2788404 0.24621557
0.0011982722 -0.0010118524 -0.21893902 0.25574976 -0.1911047 -0.1771347 -0.015192171 0.0802185
0.26192713 -0.13322578 0.02082223 -0.0047214 -0.040091004 -0.21203819 0.041468356 0.007180072
0.105452925 0.26506278 -0.024482861 -0.041051976 -0.07601489 0.18833193 -0.0007712558 -0.27796662
0.20709829 -0.19573808 0.031584002 0.24106556 0.14325617 -0.12139292 0.008681585 -0.37000546
0.021766765 -0.089663506 0.17506371 0.16274685 -0.16482958 -0.089892484 -0.46745867 0.021481648
0.16177714 -0.1632517 0.016931815 0.07634227 -0.3384203 0.0592299 -0.40627176 0.05468365
0.06875953 0.10117536 0.114581645 0.11444741 0.046765815 -0.00578347 -0.12898892 -0.14452286
0.014151936 -0.07285081 -0.22064501 -0.014152045 -0.079228304 0.15411848 0.19210519 -0.18573263
0.051521696 -0.10487866 0.08333921 -0.4488877 0.37011355 -0.062091123 -0.037659492 -0.016197156
0.052065346 -0.1840072 0.101504855 0.14520021 0.15972726 -0.037811954 0.12577607 -0.031721327
0.15479292 0.0869281 0.2753927 -0.46801728 0.07472704 0.017982721 0.049342345 -0.25312683
-0.069081046 -0.11575273 -0.35490507 0.094329424 -0.14656657 0.32152098 -0.06658654 0.30585164
-0.30283657 0.2983618 -0.1965263 0.035025213 -0.10229096 -0.073365316 0.034112256 -0.0465741
-0.2908021 0.15069804 -0.37623864 0.10953875 -0.59089446 -0.028555902 0.038852442 0.4139011
-0.01340585 0.07228818 -0.0747876 0.18061775 0.2031288 -0.27866006 -0.037239064 -0.045946814
-0.045395248 0.31528005 -0.12969896 -0.01592583 0.09962946 0.039485294 0.79546535 -0.27801692
0.027338818 0.22768123 0.005947123 0.02015724 0.38179088 -0.029422425 0.004819576 0.03797323
-0.30606702 0.507753 0.38490874 0.119414695 0.2294168 0.10310009 0.15464883 0.003135683
-0.2821689 -0.14869931 -0.0867791 -0.10694751 0.8179374 0.16564475 0.5223091 -0.17022504
0.07805471 -0.14781247 -0.02901645 0.18201016 0.25278714 -0.03944013 0.09992835 0.1284888
-0.023015643 -0.5870774 0.114714846 0.048729543 -0.49014673 0.034109443 0.1957585 -0.06716021
0.05111482 -0.2560388 0.10093473 -0.025826667 0.15173046 0.1382713 0.36584485 -0.089594215
-0.40098485 -0.31135914 -0.43871 -0.16370556 0.11826773 -0.0009828648 -0.041357648 -0.161002
0.49749666 0.14210296 0.42400262 0.069811925 0.0026028408 -0.04935273 -0.5235269 -0.2827232
-0.31868225 -0.14744335 0.1934241 0.35019565 0.027035208 -0.060704444 -0.040653583 0.16338576
-0.09232433 0.41477704 0.19143265 0.12263922 0.5444966 0.030682655 -0.0525636 -0.15640652
-0.058763307 0.09204232 0.37217483 0.04178093 0.22267318 -0.02691669 -0.012774651 0.05947391
0.012861631 0.09661782 -0.08779546 -0.050677847 -0.29017088 -0.13098459 -0.0930757 -0.23354425
-0.5427272 0.129634 -0.096016444 0.18728854 0.07391267 0.08288525 0.026009284 -0.03490472

actor_fc_layers.blocks.2.block.1.weight f4 [128]
00000000: fb38 903f 74a2 903f 76cd a63f 5687 a03f
00000010: d280 ee3f 3ec5 923f 06dd 833f 94b6 423f
00000020: eb93 863f 9a7c 723f ff52 a33f e109 973f
00000030: 8b46 c73f 0c83 943f e716 a23f 5478 7a3f
00000040: 099f 853f 0388 b23f 60f7 753f 1716 a23f
00000050: 5483 a83f 4eb5 6d3f c437 913f e74b 973f
00000060: 0a48 a53f 71eb 783f 6d93 b23f 5859 833f
00000070: e115 913f a393 7c3f d658 673f ae99 853f
00000080: fa07 5a3f 8286 b13f 5760 a03f 8795 0d40
00000090: 6445 7d3f 21d5 c13f 1261 6a3f c2ca 813f
000000a0: 844b 863f 5421 d93f 8fa5 763f 5f7b 883f
000000b0: 225f 863f d615 a33f d690 713f 6cd4 853f
000000c0: ae36 cc3f bf75 6a3f 939d c93f c68d 9f3f
000000d0: b2d2 843f b981 8c3f f1cc 9c3f 05fd c33f
000000e0: 967d 533f 5229 723f b74f 883f fc4f b33f
000000f0: 369f 723f c8fb a73f 95a3 6d3f c418 8d3f
00000100: 14cf a53f 9303 763f 4a65 953f 753e 883f
00000110: 0d3f 813f dcfb 883f fe51 9d3f 4203 623f
00000120: d33e 723f 95c7 dc3f 15da 813f 0c3d 803f
00000130: a547 a63f 55b3 763f 6c50 b23f 95bf 813f
00000140: 5f63 8f3f 370e 763f 8e76 ba3f 8847 853f
00000150: 2582 c23f 6bbd b93f 4152 863f 7c6b 663f
00000160: 6372 983f ff79 703f 57ce 9e3f 6a91 c53f
00000170: 019a 933f fcaf e63f f74e ce3f 1ab5 aa3f
00000180: 7df3 983f 2c35 903f 470f ba3f 1345 613f
00000190: 283d b03f 15a9 8a3f 7ae1 b63f 9406 753f
000001a0: 8645 723f 2f5c b83f 9f31 ac3f 87fc 943f
000001b0: f8fc 8c3f 7ec0 0340 0e76 8d3f 86fa 653f
000001c0: 8cf5 8a3f 6710 883f 76fb 943f b33f 763f
000001d0: 4ed9 843f 9703 c93f fc1a 983f a8bf c43f
000001e0: e801 733f cd96 783f f174 773f 5b96 713f
000001f0: e0d5 833f 9545 a93f 2922 5b3f 3a61 6d3f
1.1267389 1.1299577 1.3031452 1.2541301 1.8633063 1.1466444 1.0301826 0.7605984
1.0513891 0.94721377 1.2759703 1.179989 1.5568403 1.1602492 1.2663239 0.97839856
1.0439159 1.3947757 0.9608059 1.2662991 1.3165078 0.92854774 1.1345143 1.1820039
1.291261 0.97234255 1.3951241 1.026164 1.1334802 0.98662776 0.9036993 1.0437524
0.8516842 1.3869174 1.25294 2.2122514 0.98934007 1.5143167 0.9155437 1.0140002
1.0491796 1.6963296 0.9634637 1.066265 1.0497782 1.2741039 0.9436163 1.0455451
1.5954187 0.91585916 1.5751213 1.2465141 1.0376799 1.0977088 1.2250043 1.531159
0.82613504 0.945943 1.0649327 1.4008784 0.94774187 1.3123713 0.9282773 1.1023183
1.295382 0.96099204 1.1671536 1.064406 1.0097367 1.0701861 1.2290647 0.8828622
0.9462711 1.7248408 1.0144678 1.001863 1.2990614 0.9636739 1.3930793 1.0136591
1.1202201 0.9611544 1.456743 1.0412455 1.5195967 1.4510931 1.0493852 0.9000776
1.1909908 0.9393615 1.240672 1.5435002 1.1531373 1.8022456 1.6117848 1.3336518
1.1949307 1.1266227 1.4535912 0.87996024 1.3768663 1.083285 1.428756 0.9571316
0.94637334 1.4403132 1.3452643 1.1639565 1.10147 2.0586238 1.1051652 0.89835393
1.0856185 1.0630006 1.163924 0.9619095 1.0378816 1.570422 1.1883235 1.5370989
0.94924784 0.97105104 0.96662813 0.9437005 1.0299644 1.322436 0.85599 0.9272648

actor_fc_layers.blocks.2.block.1.bias f4 [128]
00000000: d371 b93d 0cdf 503d 02b1 14bc 7bc0 083e
00000010: 3cec a1bd 509a 5abc d75b b53e d904 c23e
00000020: e1ce 513d 0c3e 81bd 22de 973d 587b 283c
00000030: f2bc 37bd 57ba f53d 6ad5 73bb c241 783e
00000040: 9240 343e 58ef 153e eb91 07be ce58 9d3e
00000050: 1d47 993d 08b6 5dbd ce24 813e c4c0 323e
00000060: 9ce5 883d 2d7c cd3d 9a55 633d f9f8 59be
00000070: 6222 4ebe 115f b33d 82c9 023e e3a1 98bd
00000080: f386 533e 957c 553e 8185 cfbd 2391 6bbd
00000090: 8884 dcbe 07ec 8c3e 2118 103e 2d95 663e
000000a0: 53e4 a73d f4bd c03e 49d4 7fbd 48c0 b53e
000000b0: 3ca5 9cbd 75c4 f63d 7fa6 cfbd 911a 903e
000000c0: ff9a 97be caad b03b a94a 8dbe 14fd 4e3d
000000d0: aaf4 3ebd 40ba 633d c4bf 8bbc 8082 9bbe
000000e0: dd0f 0c3f 9c8a 16bd 694c 043f f1e7 4cbe
000000f0: 0926 823e 283a 4b3e fdba abbd 6f19 423d
00000100: cf49 e8be b59e 8abd 0cdc d5be 3d19 613e
00000110: 0848 763d 7e31 9bbe 6134 a33e 6208 0a3d
00000120: 54a1 76bd ea87 b2be dbbf 603e 82ab edbb
00000130: 68e5 96bc fc87 113e b848 053f bd3a 673d
00000140: 891d 743e 7dbc 08be 935e 353e 36fc 573d
00000150: f042 d139 cf6e 40be 2ae5 173d 3faf 043e
00000160: 572f 7b3e 07bd a4bd d695 8a3d f74e b23c
00000170: 2453 0a3e fec3 ad3d 8eda 82be 64c9 c23e
00000180: a562 8f3e e1e2 e73d 7953 dc3c 83d6 223e
00000190: 594e 5c3e b8e9 c73d 1b63 09bd 861f 95bd
000001a0: 2f91 4cbd e02c 473e b762 6a3e ff10 ae3e
000001b0: 195d 133e d0c9 c2bd 03aa d23d d332 57bc
000001c0: f1d2 913e c0dc 22bd 8600 8d3d 158a 44bd
000001d0: 34eb 763c ed6a 0a3e 28e2 8fbd 0f0e 69be
000001e0: 25d2 c2bd d7f5 863e c1e3 85bd 7e90 09be
000001f0: bb8c d43e b62a 46bd f68b 113e df71 3abd
0.09054913 0.050993964 -0.009075405 0.13354675 -0.07906386 -0.013342455 0.3542163 0.37894323
0.051222686 -0.063106626 0.07415415 0.010283314 -0.044857927 0.11998432 -0.0037206062 0.24243835
0.17602757 0.14642084 -0.13239257 0.30731815 0.07484267 -0.054128677 0.25223392 0.17456347
0.066844195 0.1003345 0.055501558 -0.21286382 -0.20130304 0.08758367 0.12772182 -0.074527524
0.20656948 0.20848306 -0.10132886 -0.05751146 -0.43069863 0.27523825 0.14071704 0.22517844
0.08197846 0.37644923 -0.06245831 0.3549826 -0.076487035 0.1204919 -0.101391785 0.2814527
-0.2961044 0.005391811 -0.27596024 0.050534323 -0.04662005 0.055597544 -0.017059214 -0.30373
0.54711705 -0.036753282 0.5167909 -0.20010354 0.25419644 0.19846404 -0.083852746 0.047387537
-0.4536881 -0.06768552 -0.41769445 0.21982284 0.060127288 -0.30311197 0.318759 0.0336994
-0.06021245 -0.3486932 0.21948187 -0.0072531113 -0.018419936 0.1421203 0.52064085 0.0564525
0.23839392 -0.13353153 0.17711858 0.05273076 0.0003991346 -0.1879227 0.037083782 0.12957476
0.24529777 -0.080438666 0.0676686 0.021766169 0.13508278 0.08484648 -0.2555737 0.38044274
0.28004947 0.113225706 0.026895272 0.15902142 0.21514262 0.09761375 -0.03354178 -0.07281403
-0.049943145 0.19450712 0.22889219 0.33997342 0.14390983 -0.09511149 0.102863334 -0.013134676
0.28481248 -0.039761305 0.068848655 -0.047983248 0.015070725 0.13517351 -0.07025558 -0.22759269
-0.09512738 0.26359436 -0.06537581 -0.13434026 0.4151362 -0.048380576 0.14213547 -0.045518752

actor_fc_layers.blocks.2.block.1.running_mean f4 [128]
00000000: 0000 0000 0000 0000 0000 0000 0000 0000
00000010: 0000 0000 0000 0000 0000 0000 0000 0000
00000020: 0000 0000 0000 0000 0000 0000 0000 0000
00000030: 0000 0000 0000 0000 0000 0000 0000 0000
00000040: 0000 0000 0000 0000 0000 0000 0000 0000
00000050: 0000 0000 0000 0000 0000 0000 0000 0000
00000060: 0000 0000 0000 0000 0000 0000 0000 0000
00000070: 0000 0000 0000 0000 0000 0000 0000 0000
00000080: 0000 0000 0000 0000 0000 0000 0000 0000
00000090: 0000 0000 0000 0000 0000 0000 0000 0000
000000a0: 0000 0000 0000 0000 0000 0000 0000 0000
000000b0: 0000 0000 0000 0000 0000 0000 0000 0000
000000c0: 0000 0000 0000 0000 0000 0000 0000 0000
000000d0: 0000 0000 0000 0000 0000 0000 0000 0000
000000e0: 0000 0000 0000 0000 0000 0000 0000 0000
000000f0: 0000 0000 0000 0000 0000 0000 0000 0000
00000100: 0000 0000 0000 0000 0000 0000 0000 0000
00000110: 0000 0000 0000 0000 0000 0000 0000 0000
00000120: 0000 0000 0000 0000 0000 0000 0000 0000
00000130: 0000 0000 0000 0000 0000 0000 0000 0000
00000140: 0000 0000 0000 0000 0000 0000 0000 0000
00000150: 0000 0000 0000 0000 0000 0000 0000 0000
00000160: 0000 0000 0000 0000 0000 0000 0000 0000
00000170: 0000 0000 0000 0000 0000 0000 0000 0000
00000180: 0000 0000 0000 0000 0000 0000 0000 0000
00000190: 0000 0000 0000 0000 0000 0000 0000 0000
000001a0: 0000 0000 0000 0000 0000 0000 0000 0000
000001b0: 0000 0000 0000 0000 0000 0000 0000 0000
000001c0: 0000 0000 0000 0000 0000 0000 0000 0000
000001d0: 0000 0000 0000 0000 0000 0000 0000 0000
000001e0: 0000 0000 0000 0000 0000 0000 0000 0000
000001f0: 0000 0000 0000 0000 0000 0000 0000 0000
0.0 0.0 0.0 0.0 0.0 0.0 0.0 0.0
0.0 0.0 0.0 0.0 0.0 0.0 0.0 0.0
0.0 0.0 0.0 0.0 0.0 0.0 0.0 0.0
0.0 0.0 0.0 0.0 0.0 0.0 0.0 0.0
0.0 0.0 0.0 0.0 0.0 0.0 0.0 0.0
0.0 0.0 0.0 0.0 0.0 0.0 0.0 0.0
0.0 0.0 0.0 0.0 0.0 0.0 0.0 0.0
0.0 0.0 0.0 0.0 0.0 0.0 0.0 0.0
0.0 0.0 0.0 0.0 0.0 0.0 0.0 0.0
0.0 0.0 0.0 0.0 0.0 0.0 0.0 0.0
0.0 0.0 0.0 0.0 0.0 0.0 0.0 0.0
0.0 0.0 0.0 0.0 0.0 0.0 0.0 0.0
0.0 0.0 0.0 0.0 0.0 0.0 0.0 0.0
0.0 0.0 0.0 0.0 0.0 0.0 0.0 0.0
0.0 0.0 0.0 0.0 0.0 0.0 0.0 0.0
0.0 0.0 0.0 0.0 0.0 0.0 0.0 0.0

actor_fc_layers.blocks.2.block.1.running_var f4 [128]
00000000: 0000 803f 0000 803f 0000 803f 0000 803f
00000010: 0000 803f 0000 803f 0000 803f 0000 803f
00000020: 0000 803f 0000 803f 0000 803f 0000 803f
00000030: 0000 803f 0000 803f 0000 803f 0000 803f
00000040: 0000 803f 0000 803f 0000 803f 0000 803f
00000050: 0000 803f 0000 803f 0000 803f 0000 803f
00000060: 0000 803f 0000 803f 0000 803f 0000 803f
00000070: 0000 803f 0000 803f 0000 803f 0000 803f
00000080: 0000 803f 0000 803f 0000 803f 0000 803f
00000090: 0000 803f 0000 803f 0000 803f 0000 803f
000000a0: 0000 803f 0000 803f 0000 803f 0000 803f
000000b0: 0000 803f 0000 803f 0000 803f 0000 803f
000000c0: 0000 803f 0000 803f 0000 803f 0000 803f
000000d0: 0000 803f 0000 803f 0000 803f 0000 803f
000000e0: 0000 803f 0000 803f 0000 803f 0000 803f
000000f0: 0000 803f 0000 803f 0000 803f 0000 803f
00000100: 0000 803f 0000 803f 0000 803f 0000 803f
00000110: 0000 803f 0000 803f 0000 803f 0000 803f
00000120: 0000 803f 0000 803f 0000 803f 0000 803f
00000130: 0000 803f 0000 803f 0000 803f 0000 803f
00000140: 0000 803f 0000 803f 0000 803f 0000 803f
00000150: 0000 803f 0000 803f 0000 803f 0000 803f
00000160: 0000 803f 0000 803f 0000 803f 0000 803f
00000170: 0000 803f 0000 803f 0000 803f 0000 803f
00000180: 0000 803f 0000 803f 0000 803f 0000 803f
00000190: 0000 803f 0000 803f 0000 803f 0000 803f
000001a0: 0000 803f 0000 803f 0000 803f 0000 803f
000001b0: 0000 803f 0000 803f 0000 803f 0000 803f
000001c0: 0000 803f 0000 803f 0000 803f 0000 803f
000001d0: 0000 803f 0000 803f 0000 803f 0000 803f
000001e0: 0000 803f 0000 803f 0000 803f 0000 803f
000001f0: 0000 803f 0000 803f 0000 803f 0000 803f
1.0 1.0 1.0 1.0 1.0 1.0 1.0 1.0
1.0 1.0 1.0 1.0 1.0 1.0 1.0 1.0
1.0 1.0 1.0 1.0 1.0 1.0 1.0 1.0
1.0 1.0 1.0 1.0 1.0 1.0 1.0 1.0
1.0 1.0 1.0 1.0 1.0 1.0 1.0 1.0
1.0 1.0 1.0 1.0 1.0 1.0 1.0 1.0
1.0 1.0 1.0 1.0 1.0 1.0 1.0 1.0
1.0 1.0 1.0 1.0 1.0 1.0 1.0 1.0
1.0 1.0 1.0 1.0 1.0 1.0 1.0 1.0
1.0 1.0 1.0 1.0 1.0 1.0 1.0 1.0
1.0 1.0 1.0 1.0 1.0 1.0 1.0 1.0
1.0 1.0 1.0 1.0 1.0 1.0 1.0 1.0
1.0 1.0 1.0 1.0 1.0 1.0 1.0 1.0
1.0 1.0 1.0 1.0 1.0 1.0 1.0 1.0
1.0 1.0 1.0 1.0 1.0 1.0 1.0 1.0
1.0 1.0 1.0 1.0 1.0 1.0 1.0 1.0
