saved_models/agent_maddpgv2_vs_opp_maddpgv2_2_vs_1_1_big_5_sec_agent_best_models/maddpgv2_target_actor_1.pt (torch, 158219 bytes, 21 tensors)

actor_fc_layers.blocks.0.block.0.weight f4 [128, 17]
-0.13376297 0.0076438687 0.034606863 -0.022286402 0.03199371 0.070619255 -0.0069756242 0.14099747
0.013979507 -0.08031003 0.09438779 0.15285692 -0.062279377 0.028294232 -0.02219256 0.029183766
0.3011032 -0.15449788 -0.07073876 -0.02792046 0.5658115 0.13846701 -0.056267455 -0.021508798
-0.23366073 0.13969325 -0.17322783 -0.124809824 0.19437279 0.11823529 -0.15065801 0.18050592
-0.288433 -0.03570119 0.007866728 -0.017687075 0.19578302 -0.0022251967 0.16755474 0.24819946
0.000112640264 0.23726371 -0.5854423 0.13847768 0.080482624 0.05038111 -0.40598336 0.2905371
-0.1292011 0.11477073 -0.071089074 -0.42621684 -0.14057395 0.172385 -0.016888713 -0.1685971
-0.042464808 0.028870001 0.005778423 -0.15856566 -0.21536742 0.028588558 -0.05901927 0.09075747
-0.026256708 -0.042988587 0.0141082 -0.11102382 -0.2547103 -0.013634622 -0.1281732 -0.23377484
-0.102407955 0.14172137 0.07374554 -0.033789605 0.04111141 -0.02415285 -0.02947257 -0.14171836
0.077064775 0.20480548 -0.018080248 -0.12760845 -0.23367055 -0.2643238 0.028713124 0.055645462
0.1470392 0.041916028 -0.18640919 -0.058564216 -0.04719373 0.041374005 -0.09046223 -0.3389066
0.056067325 -0.35484248 0.23216006 0.13385181 0.043275345 -0.20353824 -0.16950677 0.012234882
0.3087568 0.09207054 0.074452065 0.016466284 -0.0131455455 0.015231451 0.039147776 0.06868968
0.2732726 0.088464305 0.042550437 -0.05333729 6.831899e-05 0.042974796 -0.1236623 -0.07640337
-0.004811682 0.13298887 0.03132222 0.16708997 -0.11150987 0.0023314583 -0.2364714 0.04308947
0.03248139 -0.0741412 -0.18034172 0.12870398 -0.13943236 0.15639935 -0.17006545 -0.20327571
-0.18808936 0.03254994 0.041738752 -0.12183983 -0.12308631 -0.31064925 -0.12865452 0.06682953
0.2575832 0.14682947 -0.25019148 -0.3086108 0.25900775 -0.10140585 -0.11387367 0.06597905
-0.29766142 -0.13537814 -0.08841143 -0.14731789 -0.35177028 -0.24561316 -0.095873415 -0.17014177
0.20564169 0.18298651 0.41457674 -0.4377278 0.04105029 0.12572755 -0.1265626 -0.22971274
0.04410017 -0.2135235 -0.28437328 0.016089858 0.17215246 0.11236841 0.011480303 -0.13790134
0.019680941 -0.060792606 -0.015508748 0.20103271 0.21240252 -0.23625506 0.1385316 -0.104352236
0.01742545 -0.05262884 0.13094744 0.21644646 0.002961914 0.08906006 -0.16839173 -0.018030398
0.12804392 0.009187548 -0.031026576 -0.28147027 0.25477564 0.05041373 -0.08542893 -0.092526
0.052689027 0.099532105 -0.08732353 0.16240053 -0.037962086 0.010535526 -0.12297252 0.07512106
0.074457236 -0.099163115 0.0041211494 -0.036068026 -0.05810736 0.11670524 0.14864789 -0.12944551
0.041902017 -0.049933665 0.032584373 -0.0243302 0.2314712 -0.0039262422 -0.012187152 -0.26290742
0.1853576 -0.22499652 0.2192681 -0.033517502 0.13209853 -0.15869656 0.16268685 0.1577513
0.08407034 0.07232501 -0.00079183903 -0.13666517 0.1225288 -0.044102907 0.03691105 0.106680654
0.1420497 -0.04199798 0.03242722 -0.35634312 0.1389133 0.06702533 -0.337303 -0.1695802
-0.03742432 -0.045053884 -0.005931799 -0.18763925 0.2952555 0.06886845 -0.2679539 0.07532803
00000000: 29f9 08be 6b79 fa3b edbf 0d3d f991 b6bc
00000010: d60b 033d d4a0 903d c793 e4bb a461 103e
00000020: 4d0a 653c 9679 a4bd 634e c13d 8686 1c3e
00000030: a918 7fbd 4ec9 e73c 2ccd b5bc cb12 ef3c
00000040: 332a 9a3e b134 1ebe 7cdf 90bd 73b9 e4bc
00000050: 06d9 103f 4cca 0d3e b478 66bd 3833 b0bc
00000060: c244 6fbe bf0b 0f3e a362 31be 4b9c ffbd
00000070: a909 473e 5825 f23d 1846 1abe 8bd6 383e
00000080: 7dad 93be 693b 12bd 73e3 003c 7ce4 90bc
00000090: 587b 483e 9bd4 11bb 7893 2b3e 0028 7e3e
000000a0: 4839 ec38 42f5 723e 8cdf 15bf 18cd 0d3e
000000b0: 13d4 a43d 6c5c 4e3d 0ddd cfbe 47c1 943e
000000c0: 4b4d 04be eb0c eb3d 2697 91bd 1839 dabe
000000d0: 9ef2 0fbe b285 303e 335a 8abc b8a4 2cbe
000000e0: 94ef 2dbd c880 ec3c ed58 bd3b 095f 22be
000000f0: 4789 5cbe 8d32 ea3c 31be 71bd 0ddf b93d
00000100: 4f18 d7bc cd14 30bd 1426 673c 7560 e3bd
00000110: 6369 82be c063 5fbc d63f 03be ac62 6fbe
00000120: 43bb d1bd 681f 113e e707 973d f866 0abd
00000130: 7064 283d 33dc c5bc 7670 f1bc 9e1e 11be
00000140: 23d4 9d3d 87b8 513e 071d 94bc caab 02be
00000150: 5547 6fbe 7355 87be c937 eb3c 7fec 633d
00000160: 7291 163e 24b0 2b3d 0de2 3ebe 08e1 6fbd
00000170: 364e 41bd ca77 293d 4344 b9bd 2a85 adbe
00000180: daa6 653d eaad b5be 5ebb 6d3e 7310 093e
00000190: 7d41 313d 546c 50be 2f93 2dbe d174 483c
000001a0: 5f15 9e3e 7b8f bc3d 537a 983d 4de4 863c
000001b0: 6a60 57bc 568d 793c 6b59 203d 2dad 8c3d
000001c0: 63ea 8b3e c62c b53d 5e49 2e3d 3478 5abd
000001d0: 7a46 8f38 5706 303d a942 fdbd 5f79 9cbd
000001e0: 50ab 9dbb 3c2e 083e ba4b 003d a219 2b3e
000001f0: 495f e4bd 61cb 183b 8f25 72be 967e 303d
00000200: 350b 053d 57d7 97bd 80ab 38be faca 033e
00000210: 5bc7 0ebe 2727 203e a325 2ebe 8227 50be
00000220: 7f9a 40be 1653 053d 41f6 2a3d 2987 f9bd
00000230: ad14 fcbd 6b0d 9fbe 03be 03be ecdd 883d
00000240: f2e1 833e 775a 163e 1919 80be 3c02 9ebe
00000250: aa9c 843e dfad cfbd 9936 e9bd 0620 873d
00000260: 1467 98be 91a0 0abe 0d11 b5bd 80da 16be
00000270: 3c1b b4be 0482 7bbe 4859 c4bd a539 2ebe
00000280: bc93 523e d160 3b3e 6743 d43e dc1d e0be
00000290: 5924 283d b9be 003e a099 01be d139 6bbe
000002a0: 61a2 343d e8a5 5abe 6099 91be e1ce 833c
000002b0: bc48 303e 6921 e63d e117 3c3c 0236 0dbe
000002c0: ed39 a13c ab01 79bd 6718 7ebc 85db 4d3e
000002d0: 0c80 593e d9ec 71be 3adb 0d3e a0b6 d5bd
000002e0: d1bf 8e3c 5791 57bd 1617 063e 24a4 5d3e
000002f0: ac1c 423b 1f65 b63d e26e 2cbe 7cb4 93bc
00000300: f21d 033e 5f87 163c 722b febc df1c 90be
00000310: f471 823e a17e 4e3d 5df5 aebd 467e bdbd
00000320: 73d0 573d 7dd7 cb3d aed6 b2bd 534c 263e
00000330: 227e 1bbd 339d 2c3c 04d9 fbbd 12d9 993d
00000340: 097d 983d 0816 cbbd b50a 873b 11bc 13bd
00000350: fc01 6ebd 2803 ef3d 2737 183e 5d8d 04be
00000360: 73a1 2b3d 3e87 4cbd 3177 053d 2150 c7bc
00000370: c906 6d3e b5a7 80bb 9fac 47bc cd9b 86be
00000380: 62ce 3d3e 7d65 66be d187 603e a649 09bd
00000390: d644 073e 5a81 22be 6297 263e 8f89 213e
000003a0: 122d ac3d 231f 943d 6b93 4fba f4f1 0bbe
000003b0: 61f0 fa3d 40a5 34bd 0b30 173d 637b da3d
000003c0: 7a75 113e 1306 2cbd 68d2 043d 9b72 b6be
000003d0: 4a3f 0e3e 9444 893d fbb2 acbe 6fa6 2dbe
000003e0: 3e4a 19bd 6c8a 38bd 895f c2bb 8124 40be
000003f0: bb2b 973e e70a 8d3d 4131 89be 9545 9a3d

actor_fc_layers.blocks.0.block.1.weight f4 [128]
0.79869026 0.7097666 1.0541371 0.85546154 0.97147614 0.99800223 0.449604 0.45885926
0.9796063 1.053868 0.51380754 1.041787 0.7864009 0.7720857 0.80990785 0.6016827
0.7958063 0.82055426 0.8319952 0.89120054 0.4601274 0.8160682 0.8032805 0.84304595
0.9773296 0.54667515 0.7691595 0.8998304 0.98877937 0.99707633 1.0835478 0.70019805
0.85165876 0.8378663 0.52216715 0.8005292 1.1574233 0.881725 0.90100294 1.2876265
0.73280877 0.496055 1.3139603 0.7137514 0.7995887 0.488057 0.5864729 0.3780826
0.3581054 1.0015028 0.92251086 1.0343482 0.99776775 0.7534362 0.51958895 0.7524836
0.9011724 0.8078314 0.6943023 0.64389807 0.917367 1.0955896 0.6333284 0.9704867
0.7189449 0.4846825 0.73152155 0.98526865 0.71408904 0.6137497 0.7454715 0.61555856
0.77875626 0.7157639 0.6672299 0.43195117 0.9036829 0.94133854 0.98989993 0.39885485
0.44890428 0.83684045 0.8693077 0.67561 0.73861223 0.6164187 0.9696394 0.9605395
0.7987246 0.7444001 0.45242208 0.4756745 0.87446445 0.7352508 0.80862415 0.8104929
0.73511964 0.7886685 0.7500328 0.65594673 0.9964207 0.68848944 0.588478 0.8659173
0.8105434 0.39724994 0.6645724 0.85595614 0.7217531 0.99978244 0.57620037 0.8887293
0.9916046 0.6149689 0.7355488 0.8953071 0.92998946 0.8473708 0.51542425 0.5859605
0.7988788 0.9352137 0.770656 0.95989496 0.90103537 1.1013497 0.8461513 0.73669136
00000000: f776 4c3f 44b3 353f f7ed 863f 87ff 5a3f
00000010: a9b2 783f 137d 7f3f 7f32 e63e 9aef ea3e
00000020: 7ac7 7a3f 26e5 863f e488 033f 4759 853f
00000030: 9251 493f 69a7 453f 1f56 4f3f e107 1a3f
00000040: f6b9 4b3f d80f 523f a3fd 543f b825 643f
00000050: d295 eb3e d8e9 503f caa3 4d3f dcd1 573f
00000060: 4632 7a3f e7f2 0b3f a3e7 443f 495b 663f
00000070: a520 7d3f 6540 7f3f b2b1 8a3f 2e40 333f
00000080: 4f06 5a3f 687e 563f bfac 053f 7bef 4c3f
00000090: 7226 943f bbb8 613f 21a8 663f f2d0 a43f
000000a0: 5b99 3b3f ecfa fd3e da2f a83f 69b8 363f
000000b0: d8b1 4c3f 9be2 f93e 1723 163f 0b94 c13e
000000c0: 9759 b73e 3e31 803f ac29 6c3f 8665 843f
000000d0: b56d 7f3f 32e1 403f c803 053f c4a2 403f
000000e0: 3cb3 663f 0ace 4e3f ccbd 313f 81d6 243f
000000f0: 90d8 6a3f 483c 8c3f cf21 223f d171 783f
00000100: c60c 383f 4e28 f83e ff44 3b3f 913a 7c3f
00000110: 8ace 363f b31e 1d3f 38d7 3e3f 3f95 1d3f
00000120: 925c 473f 4e3c 373f 94cf 2a3f b428 dd3e
00000130: c357 673f 90fb 703f 156a 7d3f b436 cc3e
00000140: c8d6 e53e 2d3b 563f f38a 5e3f c7f4 2c3f
00000150: b115 3d3f 9ecd 1d3f 4a3a 783f ebe5 753f
00000160: 3779 4c3f 0191 3e3f dea3 e73e 9c8b f33e
00000170: e7dc 5f3f 6539 3c3f fe01 4f3f 767c 4f3f
00000180: cd30 3c3f 2ee6 493f 2602 403f 20ec 273f
00000190: 6d15 7f3f d840 303f 7fa6 163f c2ac 5d3f
000001a0: c67f 4f3f 5864 cb3e 6b21 2a3f f11f 5b3f
000001b0: d0c4 383f bef1 7f3f de81 133f c383 633f
000001c0: cdd9 7d3f 9a6e 1d3f ed4c 3c3f d932 653f
000001d0: ca13 6e3f 4bed 583f d8f2 033f 8201 163f
000001e0: 5283 4c3f 2a6a 6f3f b649 453f adbb 753f
000001f0: 41aa 663f 07f9 8c3f 5f9d 583f ce97 3c3f

actor_fc_layers.blocks.0.block.1.bias f4 [128]
-0.49948627 -0.13281436 0.036044974 -0.18234494 -0.040540326 0.055678625 0.47529086 0.6815687
0.038569268 0.031621147 0.31173006 -0.3309795 -0.44123632 -0.024363907 0.06693457 0.19188605
0.046849024 -0.10832878 -0.09699809 -0.17805192 0.43570727 -0.13738571 -0.09974322 0.05725348
-0.064478666 0.27878988 0.16613562 -0.03327439 -0.016313715 -0.084635325 0.022108221 0.020965274
-0.18260422 0.043896068 0.6846342 -0.11847194 0.07360484 -0.55387783 0.25639585 0.061930265
-0.3211704 -0.2623653 -0.4362561 -0.2596545 -0.4884954 0.57510585 0.24540363 0.37636375
0.4205078 0.116176404 -0.067369334 -0.036621436 -0.01661267 -0.19488727 0.4735042 -0.38524634
-0.010281672 -0.22052325 -0.22563642 0.19330889 -0.10208982 0.12769796 -0.25510302 -0.06842285
-0.024134945 0.29236028 -0.39768353 -0.10831702 -0.020862425 0.028006185 -0.33934388 -0.20484573
-0.30792236 -0.41800112 -0.22952206 0.36702898 0.058398485 0.18639849 -0.013632666 0.27433982
0.44073182 -0.35335088 -0.10172698 0.090366945 -0.22023363 -0.23954816 0.07275023 0.11141981
-0.1412747 -0.13066469 0.38441572 0.3345856 -0.13552727 -0.2624142 -0.15366465 -0.1577174
-0.26766536 -0.1551041 -0.21293855 -0.2674627 -0.015314264 0.12010438 -0.18527156 0.17485587
-0.16858818 0.38911703 0.02691311 0.18439963 -0.44353247 0.04690052 -0.022578746 0.21896763
-0.015445115 -0.08955644 -0.25647756 -0.11923251 -0.0688891 -0.63507223 0.1709323 -0.0040753246
-0.065196 0.2914946 -0.18299314 -0.12737451 0.01616079 -0.1408916 -0.11991386 -0.10196181
00000000: aabc ffbe 7d00 08be e5a3 133d a2b8 3abe
00000010: 9d0d 26bd 450f 643d 5359 f33e 497b 2e3f
00000020: cffa 1d3d 2d85 013d 159b 9f3e 2576 a9be
00000030: bae9 e1be d196 c7bc fe14 893d c77d 443e
00000040: c3e4 3f3d 7bdb ddbd efa6 c6bd 3e53 36be
00000050: 0615 df3e d7ae 0cbe 2c46 ccbd a082 6a3d
00000060: 640d 84bd 8cbd 8e3e 751f 2a3e ba4a 08bd
00000070: 57a4 85bc 4955 adbd 4d1c b53c 5ebf ab3c
00000080: 9afc 3abe 5dcc 333d 3044 2f3f 6ba1 f2bd
00000090: 22be 963d f0ca 0dbf 5146 833e 97aa 7d3d
000000a0: 7270 a4be bf54 86be f65c dfbe 6ff1 84be
000000b0: 121c fabe 233a 133f 174b 7b3e c0b2 c03e
000000c0: cc4c d73e e5ed ed3d eff8 89bd 5c00 16bd
000000d0: 4b17 88bc 8790 47be 246f f23e 023f c5be
000000e0: 7574 28bc d9d0 61be 3c0d 67be c4f2 453e
000000f0: 7814 d1bd 41c3 023e dd9c 82be 4721 8cbd
00000100: a6b6 c5bc 3fb0 953e 2d9d cbbe 50d5 ddbd
00000110: ade7 aabc 3a6d e53c 7bbe adbe 14c3 51be
00000120: 00a8 9dbe 3e04 d6be d507 6bbe 39eb bb3e
00000130: 4033 6f3d 3fdf 3e3e 8c5b 5fbc 4576 8c3e
00000140: 9aa7 e13e 68ea b4be 3c56 d0bd 4e12 b93d
00000150: ed84 61be 1d4c 75be 13fe 943d 1230 e43d
00000160: 51aa 10be f7cc 05be 23d2 c43e ce4e ab3e
00000170: a9c7 0abe 275b 86be 445a 1dbe ac80 21be
00000180: 6f0b 89be 9cd3 1ebe 900c 5abe dff0 88be
00000190: aee8 7abc 49f9 f53d d4b7 3dbe 6b0d 333e
000001a0: 61a2 2cbe 593a c73e e278 dc3c 42d3 3c3e
000001b0: b016 e3be c21a 403d 10f7 b8bc 0d39 603e
000001c0: 820d 7dbc 5e69 b7bd 0751 83be 2d30 f4bd
000001d0: ba15 8dbd 1894 22bf e008 2f3e 4d8a 85bb
000001e0: 7b85 85bd c83e 953e 8e62 3bbe 776e 02be
000001f0: a263 843c e345 10be 6695 f5bd 5ad1 d0bd

actor_fc_layers.blocks.0.block.1.running_mean f4 [128]
0.0 0.0 0.0 0.0 0.0 0.0 0.0 0.0
0.0 0.0 0.0 0.0 0.0 0.0 0.0 0.0
0.0 0.0 0.0 0.0 0.0 0.0 0.0 0.0
0.0 0.0 0.0 0.0 0.0 0.0 0.0 0.0
0.0 0.0 0.0 0.0 0.0 0.0 0.0 0.0
0.0 0.0 0.0 0.0 0.0 0.0 0.0 0.0
0.0 0.0 0.0 0.0 0.0 0.0 0.0 0.0
0.0 0.0 0.0 0.0 0.0 0.0 0.0 0.0
0.0 0.0 0.0 0.0 0.0 0.0 0.0 0.0
0.0 0.0 0.0 0.0 0.0 0.0 0.0 0.0
0.0 0.0 0.0 0.0 0.0 0.0 0.0 0.0
0.0 0.0 0.0 0.0 0.0 0.0 0.0 0.0
0.0 0.0 0.0 0.0 0.0 0.0 0.0 0.0
0.0 0.0 0.0 0.0 0.0 0.0 0.0 0.0
0.0 0.0 0.0 0.0 0.0 0.0 0.0 0.0
0.0 0.0 0.0 0.0 0.0 0.0 0.0 0.0
00000000: 0000 0000 0000 0000 0000 0000 0000 0000
00000010: 0000 0000 0000 0000 0000 0000 0000 0000
00000020: 0000 0000 0000 0000 0000 0000 0000 0000
00000030: 0000 0000 0000 0000 0000 0000 0000 0000
00000040: 0000 0000 0000 0000 0000 0000 0000 0000
00000050: 0000 0000 0000 0000 0000 0000 0000 0000
00000060: 0000 0000 0000 0000 0000 0000 0000 0000
00000070: 0000 0000 0000 0000 0000 0000 0000 0000
00000080: 0000 0000 0000 0000 0000 0000 0000 0000
00000090: 0000 0000 0000 0000 0000 0000 0000 0000
000000a0: 0000 0000 0000 0000 0000 0000 0000 0000
000000b0: 0000 0000 0000 0000 0000 0000 0000 0000
000000c0: 0000 0000 0000 0000 0000 0000 0000 0000
000000d0: 0000 0000 0000 0000 0000 0000 0000 0000
000000e0: 0000 0000 0000 0000 0000 0000 0000 0000
000000f0: 0000 0000 0000 0000 0000 0000 0000 0000
00000100: 0000 0000 0000 0000 0000 0000 0000 0000
00000110: 0000 0000 0000 0000 0000 0000 0000 0000
00000120: 0000 0000 0000 0000 0000 0000 0000 0000
00000130: 0000 0000 0000 0000 0000 0000 0000 0000
00000140: 0000 0000 0000 0000 0000 0000 0000 0000
00000150: 0000 0000 0000 0000 0000 0000 0000 0000
00000160: 0000 0000 0000 0000 0000 0000 0000 0000
00000170: 0000 0000 0000 0000 0000 0000 0000 0000
00000180: 0000 0000 0000 0000 0000 0000 0000 0000
00000190: 0000 0000 0000 0000 0000 0000 0000 0000
000001a0: 0000 0000 0000 0000 0000 0000 0000 0000
000001b0: 0000 0000 0000 0000 0000 0000 0000 0000
000001c0: 0000 0000 0000 0000 0000 0000 0000 0000
000001d0: 0000 0000 0000 0000 0000 0000 0000 0000
000001e0: 0000 0000 0000 0000 0000 0000 0000 0000
000001f0: 0000 0000 0000 0000 0000 0000 0000 0000

actor_fc_layers.blocks.0.block.1.running_var f4 [128]
1.0 1.0 1.0 1.0 1.0 1.0 1.0 1.0
1.0 1.0 1.0 1.0 1.0 1.0 1.0 1.0
1.0 1.0 1.0 1.0 1.0 1.0 1.0 1.0
1.0 1.0 1.0 1.0 1.0 1.0 1.0 1.0
1.0 1.0 1.0 1.0 1.0 1.0 1.0 1.0
1.0 1.0 1.0 1.0 1.0 1.0 1.0 1.0
1.0 1.0 1.0 1.0 1.0 1.0 1.0 1.0
1.0 1.0 1.0 1.0 1.0 1.0 1.0 1.0
1.0 1.0 1.0 1.0 1.0 1.0 1.0 1.0
1.0 1.0 1.0 1.0 1.0 1.0 1.0 1.0
1.0 1.0 1.0 1.0 1.0 1.0 1.0 1.0
1.0 1.0 1.0 1.0 1.0 1.0 1.0 1.0
1.0 1.0 1.0 1.0 1.0 1.0 1.0 1.0
1.0 1.0 1.0 1.0 1.0 1.0 1.0 1.0
1.0 1.0 1.0 1.0 1.0 1.0 1.0 1.0
1.0 1.0 1.0 1.0 1.0 1.0 1.0 1.0
00000000: 0000 803f 0000 803f 0000 803f 0000 803f
00000010: 0000 803f 0000 803f 0000 803f 0000 803f
00000020: 0000 803f 0000 803f 0000 803f 0000 803f
00000030: 0000 803f 0000 803f 0000 803f 0000 803f
00000040: 0000 803f 0000 803f 0000 803f 0000 803f
00000050: 0000 803f 0000 803f 0000 803f 0000 803f
00000060: 0000 803f 0000 803f 0000 803f 0000 803f
00000070: 0000 803f 0000 803f 0000 803f 0000 803f
00000080: 0000 803f 0000 803f 0000 803f 0000 803f
00000090: 0000 803f 0000 803f 0000 803f 0000 803f
000000a0: 0000 803f 0000 803f 0000 803f 0000 803f
000000b0: 0000 803f 0000 803f 0000 803f 0000 803f
000000c0: 0000 803f 0000 803f 0000 803f 0000 803f
000000d0: 0000 803f 0000 803f 0000 803f 0000 803f
000000e0: 0000 803f 0000 803f 0000 803f 0000 803f
000000f0: 0000 803f 0000 803f 0000 803f 0000 803f
00000100: 0000 803f 0000 803f 0000 803f 0000 803f
00000110: 0000 803f 0000 803f 0000 803f 0000 803f
00000120: 0000 803f 0000 803f 0000 803f 0000 803f
00000130: 0000 803f 0000 803f 0000 803f 0000 803f
00000140: 0000 803f 0000 803f 0000 803f 0000 803f
00000150: 0000 803f 0000 803f 0000 803f 0000 803f
00000160: 0000 803f 0000 803f 0000 803f 0000 803f
00000170: 0000 803f 0000 803f 0000 803f 0000 803f
00000180: 0000 803f 0000 803f 0000 803f 0000 803f
00000190: 0000 803f 0000 803f 0000 803f 0000 803f
000001a0: 0000 803f 0000 803f 0000 803f 0000 803f
000001b0: 0000 803f 0000 803f 0000 803f 0000 803f
000001c0: 0000 803f 0000 803f 0000 803f 0000 803f
000001d0: 0000 803f 0000 803f 0000 803f 0000 803f
000001e0: 0000 803f 0000 803f 0000 803f 0000 803f
000001f0: 0000 803f 0000 803f 0000 803f 0000 803f

actor_fc_layers.blocks.1.block.0.weight f4 [128, 128]
-0.27798855 0.048027422 -0.2937573 0.073568225 -0.02109378 0.14125049 0.1667719 0.09567003
0.02841887 -0.06839676 -0.12175242 -0.120935105 -0.086054124 -0.08549661 -0.22166914 -0.16890706
0.010908639 -0.13310252 -0.0965965 0.058759995 0.014371466 -0.0572125 0.09799199 -0.0896816
0.1398667 -0.5345916 -0.015172517 -0.010725725 -0.05840609 0.0044950093 -0.19519423 -0.31774226
0.028545158 0.0325559 -0.0799345 0.10865527 -0.118896104 -0.20685971 0.014707227 0.46111497
0.006629984 0.114859074 -0.12761442 -0.088839695 -0.20604022 -0.19031991 0.10532244 -0.12826408
-0.02994105 -0.11400182 0.06896972 0.030384706 -0.027828868 0.012324994 -0.17859471 0.23419723
-0.055303663 -0.012904744 -0.07988254 -0.014956171 -0.21228884 -0.1381719 -0.15394479 0.012797363
0.009391416 -0.22691643 -0.18029018 0.07852585 -0.27441555 -0.017405597 -0.37648565 0.020524412
-0.18826221 -0.16002831 -0.0067446674 0.042280514 -0.16047597 -0.38375446 0.029240724 -0.2751148
0.009542643 -0.16789378 -0.0116589125 -0.03533758 0.036739584 0.01769524 0.17132819 -0.1691112
0.004726769 -0.08104712 -0.18542512 0.14643122 -0.192062 -0.12037132 -0.15006155 -0.18676253
-0.012032374 0.02170999 -0.009843112 0.20726717 -0.056334384 0.03560922 -0.11887375 0.32794657
0.14494151 -0.1219409 -0.16109736 -0.39073715 -0.27482492 -0.06033095 -0.039753173 -0.2896543
0.055917423 -0.0164197 0.010035615 -0.08062244 0.17278285 -0.26566023 -0.08790539 -0.034716196
-0.0826557 0.12887505 -0.023231396 0.019431785 -0.053182855 -0.51732415 0.07012456 -0.034805235
-0.03542582 0.11015516 -0.123814955 -0.0908655 -0.028120661 -0.045640644 0.00031591128 0.34578937
-0.055094305 0.15356708 0.06853476 0.046511106 -0.042952176 0.11633915 0.019580044 -0.067613535
-0.036060035 -0.05729059 -0.0041953563 -0.0071833213 0.10275428 -0.09405386 0.14098047 -0.031659972
-0.11945844 0.061760508 0.12472028 -0.034431946 0.048160583 -0.030032855 -0.030826528 -0.021819796
-0.088651195 -0.1026285 0.24190761 -0.3211201 -0.20846304 -0.00027984535 -0.0733885 -0.13454087
-0.021715218 0.16751632 -0.16083162 -0.2104739 -0.0344604 0.110790424 0.102344245 0.09810887
0.32543018 0.02745497 -0.03955126 0.09666819 0.08004814 0.015905794 -0.121764116 0.07341222
-0.12854426 0.096732095 -0.12471547 -0.04175852 0.0070735184 0.0699214 -0.10685524 0.02683506
0.034374785 -0.17783538 0.033690214 0.026070071 0.0974862 -0.09286038 -0.09151057 -0.022842478
-0.08297384 0.09550478 -0.19203815 0.020677438 -0.046936072 -0.09949677 -0.063692845 -0.037944343
-0.13164519 -0.06744523 -0.08697555 -0.02435989 -0.08355569 0.02848257 -0.142701 0.08183143
0.06447127 -0.06881922 0.121041484 0.14078258 -0.041166503 0.022829996 -0.19479786 0.19483759
-0.077839635 -0.09662928 -0.14442444 -0.094690636 0.024035241 -0.24545108 -0.0077100587 -0.013989953
-0.08372561 0.11051581 0.06177989 0.016602239 -0.09011287 0.12760994 0.11225634 0.16754852
0.008649829 -0.06889663 -0.1351097 -0.09711016 -0.11149453 0.025809186 -0.055460826 -0.21262816
0.008811857 0.14161678 -0.11810932 -0.03921673 -0.016879587 -0.19972111 0.10743263 -0.08943209
00000000: 8454 8ebe 67b8 443d 5b67 96be f0aa 963d
00000010: ddcc acbc f8a3 103e 41c6 2a3e a6ee c33d
00000020: b1ce e83c 9a13 8cbd 5559 f9bd d3ac f7bd
00000030: 253d b0bd d918 afbd 3cfd 62be f9f5 2cbe
00000040: 26ba 323c 074c 08be 63d4 c5bd 52ae 703d
00000050: 4c76 6b3c a857 6abd 06b0 c83d fdaa b7bd
00000060: 3739 0f3e ffda 08bf 2696 78bc f4ba 2fbc
00000070: 393b 6fbd df4a 933b ffe0 47be 1daf a2be
00000080: 89d7 e93c 5659 053d b3b4 a3bd a786 de3d
00000090: cd7f f3bd 08d3 53be 95f6 703c 4317 ec3e
000000a0: 5640 d93b 3c3b eb3d 5bad 02be 96f1 b5bd
000000b0: 35fc 52be 39e3 42be 4bb3 d73d a957 03be
000000c0: ef46 f5bc c979 e9bd ff3f 8d3d 59e9 f83c
000000d0: 5ef9 e3bc c6ee 493c 88e1 36be 66d1 6f3e
000000e0: 1886 62bd 6b6e 53bc 7599 a3bd ba0a 75bc
000000f0: 3f62 59be ef7c 0dbe b4a3 1dbe 08ac 513c
00000100: 74de 193c c85c 68be fd9d 38be 29d2 a03d
00000110: 3280 8cbe 2f96 8ebc bac2 c0be d022 a83c
00000120: cfc7 40be 76de 23be 5f02 ddbb 552e 2d3d
00000130: d053 24be 777b c4be 3e8a ef3c d9db 8cbe
00000140: bf58 1c3c 59ec 2bbe 0605 3fbc 23be 10bd
00000150: 3f7c 163d 9cf5 903c a870 2f3e 7d2b 2dbe
00000160: 03e3 9a3b 08fc a5bd 15e0 3dbe 11f2 153e
00000170: e7ab 44be 3d85 f6bd bca9 19be ad3e 3fbe
00000180: 6f23 45bc 26d9 b13c 0145 21bc d83d 543e
00000190: e2be 66bd f9da 113d 1574 f3bd 9de8 a73e
000001a0: 8c6b 143e 27bc f9bd b5f6 24be b30e c8be
000001b0: dab5 8cbe 961d 77bd 39d4 22bd 924d 94be
000001c0: ab09 653d 9b82 86bc 6c6c 243c 611d a5bd
000001d0: fded 303e 9e04 88be be07 b4bd 9232 0ebd
000001e0: 6447 a9bd d2f7 033e c54f bebc 682f 9f3c
000001f0: 44d6 59bd 5b6f 04bf 779d 8f3d ef8f 0ebd
00000200: aa1a 11bd 0799 e13d b292 fdbd b117 babd
00000210: 4d5d e6bc aff1 3abd e5a0 a539 4e0b b13e
00000220: 91aa 61bd b040 1d3e f45b 8c3d 6e82 3e3d
00000230: 9fee 2fbd 3843 ee3d 5466 a03c f778 8abd
00000240: b0b3 13bd 8aa9 6abd 3379 89bb 1162 ebbb
00000250: d670 d23d 4f9f c0bd 2f5d 103e e3ad 01bd
00000260: a0a6 f4bd 96f8 7c3d 596d ff3d 8308 0dbd
00000270: 0844 453d 7607 f6bc ea87 fcbc 6ebf b2bc
00000280: c28e b5bd e42e d2bd a1b6 773e db69 a4be
00000290: 5677 55be 35b8 92b9 b64c 96bd 15c5 09be
000002a0: 1de4 b1bc 6689 2b3e 0bb1 24be 7886 57be
000002b0: 5926 0dbd 17e6 e23d dc99 d13d 4eed c83d
000002c0: c99e a63e 3fe9 e03c 8100 22bd f9f9 c53d
000002d0: 47f0 a33d de4c 823c 775f f9bd 2559 963d
000002e0: 1ba1 03be 7a1b c63d d36a ffbd fb0a 2bbd
000002f0: f9c8 e73b f332 8f3d ecd6 dabd 33d5 db3c
00000300: 93cc 0c3d 7a1a 36be c0fe 093d e790 d53c
00000310: d8a6 c73d 952d bebd e569 bbbd 2620 bbbc
00000320: 30ee a9bd 0398 c33d a6a5 44be bb63 a93c
00000330: 0a40 40bd f6c4 cbbd 6571 82bd 876b 1bbd
00000340: ffcd 06be ba20 8abd 3d20 b2bd 648e c7bc
00000350: 3f1f abbd 4754 e93c 3620 12be 3d97 a73d
00000360: 8309 843d 17f1 8cbd 99e4 f73d 4f29 103e
00000370: 359e 28bd f905 bb3c 1779 47be 8183 473e
00000380: 636a 9fbd 92e5 c5bd 00e4 13be 2aed c1bd
00000390: 8ee5 c43c 8757 7bbe a9a4 fcbb 1e36 65bc
000003a0: 5578 abbd 1d56 e23d e90c 7d3d 6b01 883c
000003b0: 198d b8bd 2eac 023e a7e6 e53d d791 2b3e
000003c0: 03b8 0d3c ad19 8dbd 325a 0abe b1e1 c6bd
000003d0: 3f57 e4bd c96d d33c e42a 63bd 32bb 59be
000003e0: 9b5f 103c fd03 113e 4de3 f1bd b9a1 20bd
000003f0: 0f47 8abc b183 4cbe a405 dc3d 2c28 b7bd

actor_fc_layers.blocks.1.block.1.weight f4 [128]
1.1816096 1.1205926 0.8985379 0.92590237 0.57713586 0.56450886 0.97464114 1.2575098
1.0739534 0.9400407 1.1287005 0.89439356 0.9868065 1.0193826 0.9761074 0.90715086
1.329547 0.66207993 1.011629 0.8652606 0.92386985 1.152153 1.0885206 0.58765864
0.9236672 0.86880565 1.0595441 0.98058975 1.6380092 0.9095806 0.94428957 1.0972521
1.1073338 1.3949311 1.4454595 0.93898565 0.969986 0.93529606 1.0642956 1.0695885
1.2216786 0.89077735 0.93586236 1.124997 1.2991203 0.896255 1.4084592 1.1141137
0.88898 1.2980183 1.0296177 1.0056477 1.1032933 1.184647 1.0439227 0.8974233
1.4587834 1.2722852 0.97545177 0.9323981 1.476055 1.0307621 1.1181844 0.84458965
1.0279367 1.2651249 0.9663561 0.9626308 1.1212968 1.0077516 1.3881962 1.1225619
0.9739321 1.1028297 0.9802564 1.0242889 1.0004619 1.0131786 0.90583944 1.1448809
1.0678897 1.0157799 1.2875906 0.943456 0.94967276 0.91385627 1.0849061 1.3061216
0.9677866 1.2746434 1.1491761 1.0852836 1.0287617 1.2616706 1.2215868 0.96673936
0.907115 1.3746712 1.1594009 1.3141229 1.3411348 1.1209795 0.72831583 0.9352251
0.7982827 0.9772399 1.2466172 1.1698688 0.9242573 1.2235951 0.9676376 0.9756598
1.0043899 0.92587256 1.0712082 0.74689156 1.3014385 0.970619 0.97000986 0.9126285
1.4165148 1.1115719 1.0534645 0.6705859 0.85919785 1.0520766 0.98431504 1.0075489
00000000: fc3e 973f 946f 8f3f 9406 663f f007 6d3f
00000010: 2dbf 133f a783 103f 1582 793f 15f6 a03f
00000020: 4e77 893f 82a6 703f 4279 903f faf6 643f
00000030: 5a9f 7c3f 217b 823f 2de2 793f 0a3b 683f
00000040: 992e aa3f 127e 293f 0f7d 813f b881 5d3f
00000050: bc82 6c3f c079 933f a554 8b3f cc70 163f
00000060: 7475 6c3f 0c6a 5e3f 249f 873f ee07 7b3f
00000070: 49aa d13f 46da 683f f6bc 713f c272 8c3f
00000080: 1dbd 8d3f 1a8d b23f d104 b93f 5d61 703f
00000090: 0151 783f 906f 6f3f d73a 883f 47e8 883f
000000a0: f75f 9c3f fc09 643f ad94 6f3f e7ff 8f3f
000000b0: 9349 a63f f870 653f 6448 b43f 479b 8e3f
000000c0: 3194 633f 7725 a63f 83ca 833f 10b9 803f
000000d0: b738 8d3f 83a2 973f 429f 853f 89bd 653f
000000e0: 6ab9 ba3f 3eda a23f 35b7 793f a4b1 6e3f
000000f0: 5fef bc3f 03f0 833f ab20 8f3f 0737 583f
00000100: 6e93 833f 9def a13f 1d63 773f f96e 763f
00000110: a786 8f3f 01fe 803f 6ab0 b13f 1cb0 8f3f
00000120: 9d53 793f 8629 8d3f 15f2 7a3f e61b 833f
00000130: 230f 803f d6af 813f 18e5 673f 758b 923f
00000140: 9cb0 883f 1305 823f c5cf a43f 5586 713f
00000150: c11d 733f 7cf2 693f 34de 8a3f fe2e a73f
00000160: ddc0 773f 8427 a33f 3418 933f 93ea 8a3f
00000170: 77ae 833f 6c7e a13f f55c 9c3f 3b7c 773f
00000180: b038 683f 3af5 af3f 4067 943f 2e35 a83f
00000190: 4eaa ab3f 427c 8f3f e872 3a3f ea6a 6f3f
000001a0: 415c 4c3f 652c 7a3f 2791 9f3f 43be 953f
000001b0: 209c 6c3f c49e 9c3f 19b7 773f d7c4 793f
000001c0: d98f 803f fc05 6d3f 5a1d 893f 4934 3f3f
000001d0: 8995 a63f 7d7a 783f 9152 783f 05a2 693f
000001e0: 5b50 b53f fd47 8e3f edd7 863f 84ab 2b3f
000001f0: 64f4 5b3f 72aa 863f 12fc 7b3f 5df7 803f

actor_fc_layers.blocks.1.block.1.bias f4 [128]
-0.06150517 0.23129082 -0.074593425 -0.0023981929 0.60749483 0.4422216 -0.011662917 -0.24352448
0.30221358 0.055318564 0.27841964 0.23402019 0.018015055 0.056058515 -0.09274678 -0.12626305
0.32221678 0.23048306 0.032358088 0.021089353 -0.14987528 0.032896765 0.06084406 0.39200258
-0.05682433 0.1713812 0.15264739 0.07261603 -0.28236297 0.056843027 0.36057594 0.41057363
0.111763574 -0.10896509 0.39810827 -0.032503005 -0.034036707 -0.11213992 0.035779025 0.024037179
0.19477573 0.24925964 0.039617196 0.01962848 -0.4038929 -0.12914626 -0.15331547 -0.044215377
0.06958508 0.16879673 0.08130491 -0.06995244 0.027807344 -0.16480404 -0.028906884 -0.21375065
0.18282624 0.26706877 0.019197835 0.24787827 0.16265905 0.08413613 -0.26222825 -0.16390921
0.00694751 0.08125666 0.01881618 -0.07170558 -0.29284278 0.011026916 -0.2020092 0.27898136
0.2530753 0.2836326 0.2380664 0.04854635 -0.035933256 -0.038922057 -0.063454054 0.15422884
-0.18718727 -0.15514661 -0.248603 -0.031804513 -0.059791155 -0.034148093 0.2702145 -0.07415677
-0.07010072 0.07264015 0.2412083 -0.23594917 0.18596853 0.12699303 -0.030337403 0.36514154
0.21923728 -0.026519084 0.24457224 0.097042784 -0.045264497 -0.067901306 0.20362343 0.10728441
0.29542765 -0.044817336 -0.03558261 -0.19569026 -0.06774186 0.204199 -0.056377668 -0.12670195
-0.016555486 -0.0802976 0.0120702125 0.2228225 0.07243222 0.37583786 -0.04440085 0.18794182
-0.10289094 0.14804535 -0.002336292 0.32676628 0.3710989 -0.043785058 -0.033376582 -0.022306781
00000000: d8ec 7bbd 80d7 6c3e 70c4 98bd 002b 1dbb
00000010: c884 1b3f df6a e23e d215 3fbc 7b5e 79be
00000020: bdbb 9a3e b895 623d 058d 8e3e fda2 6f3e
00000030: 4f94 933c 9d9d 653d 06f2 bdbd 1a4b 01be
00000040: 99f9 a43e c003 6c3e ea89 043d 94c3 ac3c
00000050: e878 19be c2be 063d 9f37 793d 90b4 c83e
00000060: a1c0 68bd 8e7e 2f3e 994f 1c3e b7b7 943d
00000070: e191 90be 3cd4 683d 699d b83e b536 d23e
00000080: 4de4 e43d 1729 dfbd d9d4 cb3e df21 05bd
00000090: 136a 0bbd 9da9 e5bd 078d 123d 9ee9 c43c
000000a0: 4a73 473e eb3d 7f3e a445 223d e8cb a03c
000000b0: 0dcb cebe eb3e 04be bbfe 1cbe 2f1b 35bd
000000c0: 9f82 8e3d 0dd9 2c3e 3083 a63d 3a43 8fbd
000000d0: 3acc e33c 64c2 28be 21ce ecbc 73e1 5abe
000000e0: cd36 3b3e 3dbd 883e c744 9d3c cdd3 7d3e
000000f0: 1890 263e 904f ac3d c842 86be d1d7 27be
00000100: f0a7 e33b e469 a63d 6424 9a3c 60da 92bd
00000110: 7def 95be 3daa 343c 80db 4ebe a5d6 8e3e
00000120: 1693 813e 4b38 913e aec7 733e 8ad8 463d
00000130: c02e 13bd bc6c 1fbd 33f4 81bd 2aee 1d3e
00000140: 05ae 3fbe c1de 1ebe c991 7ebe 7345 02bd
00000150: 92e7 74bd dfde 0bbd 8e59 8a3e 81df 97bd
00000160: f790 8fbd 5cc4 943d 4fff 763e a99c 71be
00000170: 896e 3e3e 760a 023e 2586 f8bc d5f3 ba3e
00000180: bd7f 603e 8d3e d9bc 2571 7a3e 5ebe c63d
00000190: 4467 39bd d70f 8bbd a982 503e eeb7 db3d
000001a0: 4b42 973e 6292 37bd 12bf 11bd 0763 48be
000001b0: 3fbc 8abd 8b19 513e 45ec 66bd 28be 01be
000001c0: 5f9f 87bc 1173 a4bd 24c2 453c 952b 643e
000001d0: 5857 943d d26d c03e aadd 35bd d273 403e
000001e0: 7cb8 d2bd 3399 173e 7a1c 19bb e94d a73e
000001f0: ad00 be3e f657 33bd e2b5 08bd b6bc b6bc

actor_fc_layers.blocks.1.block.1.running_mean f4 [128]
0.0 0.0 0.0 0.0 0.0 0.0 0.0 0.0
0.0 0.0 0.0 0.0 0.0 0.0 0.0 0.0
0.0 0.0 0.0 0.0 0.0 0.0 0.0 0.0
0.0 0.0 0.0 0.0 0.0 0.0 0.0 0.0
0.0 0.0 0.0 0.0 0.0 0.0 0.0 0.0
0.0 0.0 0.0 0.0 0.0 0.0 0.0 0.0
0.0 0.0 0.0 0.0 0.0 0.0 0.0 0.0
0.0 0.0 0.0 0.0 0.0 0.0 0.0 0.0
0.0 0.0 0.0 0.0 0.0 0.0 0.0 0.0
0.0 0.0 0.0 0.0 0.0 0.0 0.0 0.0
0.0 0.0 0.0 0.0 0.0 0.0 0.0 0.0
0.0 0.0 0.0 0.0 0.0 0.0 0.0 0.0
0.0 0.0 0.0 0.0 0.0 0.0 0.0 0.0
0.0 0.0 0.0 0.0 0.0 0.0 0.0 0.0
0.0 0.0 0.0 0.0 0.0 0.0 0.0 0.0
0.0 0.0 0.0 0.0 0.0 0.0 0.0 0.0
00000000: 0000 0000 0000 0000 0000 0000 0000 0000
00000010: 0000 0000 0000 0000 0000 0000 0000 0000
00000020: 0000 0000 0000 0000 0000 0000 0000 0000
00000030: 0000 0000 0000 0000 0000 0000 0000 0000
00000040: 0000 0000 0000 0000 0000 0000 0000 0000
00000050: 0000 0000 0000 0000 0000 0000 0000 0000
00000060: 0000 0000 0000 0000 0000 0000 0000 0000
00000070: 0000 0000 0000 0000 0000 0000 0000 0000
00000080: 0000 0000 0000 0000 0000 0000 0000 0000
00000090: 0000 0000 0000 0000 0000 0000 0000 0000
000000a0: 0000 0000 0000 0000 0000 0000 0000 0000
000000b0: 0000 0000 0000 0000 0000 0000 0000 0000
000000c0: 0000 0000 0000 0000 0000 0000 0000 0000
000000d0: 0000 0000 0000 0000 0000 0000 0000 0000
000000e0: 0000 0000 0000 0000 0000 0000 0000 0000
000000f0: 0000 0000 0000 0000 0000 0000 0000 0000
00000100: 0000 0000 0000 0000 0000 0000 0000 0000
00000110: 0000 0000 0000 0000 0000 0000 0000 0000
00000120: 0000 0000 0000 0000 0000 0000 0000 0000
00000130: 0000 0000 0000 0000 0000 0000 0000 0000
00000140: 0000 0000 0000 0000 0000 0000 0000 0000
00000150: 0000 0000 0000 0000 0000 0000 0000 0000
00000160: 0000 0000 0000 0000 0000 0000 0000 0000
00000170: 0000 0000 0000 0000 0000 0000 0000 0000
00000180: 0000 0000 0000 0000 0000 0000 0000 0000
00000190: 0000 0000 0000 0000 0000 0000 0000 0000
000001a0: 0000 0000 0000 0000 0000 0000 0000 0000
000001b0: 0000 0000 0000 0000 0000 0000 0000 0000
000001c0: 0000 0000 0000 0000 0000 0000 0000 0000
000001d0: 0000 0000 0000 0000 0000 0000 0000 0000
000001e0: 0000 0000 0000 0000 0000 0000 0000 0000
000001f0: 0000 0000 0000 0000 0000 0000 0000 0000

actor_fc_layers.blocks.1.block.1.running_var f4 [128]
1.0 1.0 1.0 1.0 1.0 1.0 1.0 1.0
1.0 1.0 1.0 1.0 1.0 1.0 1.0 1.0
1.0 1.0 1.0 1.0 1.0 1.0 1.0 1.0
1.0 1.0 1.0 1.0 1.0 1.0 1.0 1.0
1.0 1.0 1.0 1.0 1.0 1.0 1.0 1.0
1.0 1.0 1.0 1.0 1.0 1.0 1.0 1.0
1.0 1.0 1.0 1.0 1.0 1.0 1.0 1.0
1.0 1.0 1.0 1.0 1.0 1.0 1.0 1.0
1.0 1.0 1.0 1.0 1.0 1.0 1.0 1.0
1.0 1.0 1.0 1.0 1.0 1.0 1.0 1.0
1.0 1.0 1.0 1.0 1.0 1.0 1.0 1.0
1.0 1.0 1.0 1.0 1.0 1.0 1.0 1.0
1.0 1.0 1.0 1.0 1.0 1.0 1.0 1.0
1.0 1.0 1.0 1.0 1.0 1.0 1.0 1.0
1.0 1.0 1.0 1.0 1.0 1.0 1.0 1.0
1.0 1.0 1.0 1.0 1.0 1.0 1.0 1.0
00000000: 0000 803f 0000 803f 0000 803f 0000 803f
00000010: 0000 803f 0000 803f 0000 803f 0000 803f
00000020: 0000 803f 0000 803f 0000 803f 0000 803f
00000030: 0000 803f 0000 803f 0000 803f 0000 803f
00000040: 0000 803f 0000 803f 0000 803f 0000 803f
00000050: 0000 803f 0000 803f 0000 803f 0000 803f
00000060: 0000 803f 0000 803f 0000 803f 0000 803f
00000070: 0000 803f 0000 803f 0000 803f 0000 803f
00000080: 0000 803f 0000 803f 0000 803f 0000 803f
00000090: 0000 803f 0000 803f 0000 803f 0000 803f
000000a0: 0000 803f 0000 803f 0000 803f 0000 803f
000000b0: 0000 803f 0000 803f 0000 803f 0000 803f
000000c0: 0000 803f 0000 803f 0000 803f 0000 803f
000000d0: 0000 803f 0000 803f 0000 803f 0000 803f
000000e0: 0000 803f 0000 803f 0000 803f 0000 803f
000000f0: 0000 803f 0000 803f 0000 803f 0000 803f
00000100: 0000 803f 0000 803f 0000 803f 0000 803f
00000110: 0000 803f 0000 803f 0000 803f 0000 803f
00000120: 0000 803f 0000 803f 0000 803f 0000 803f
00000130: 0000 803f 0000 803f 0000 803f 0000 803f
00000140: 0000 803f 0000 803f 0000 803f 0000 803f
00000150: 0000 803f 0000 803f 0000 803f 0000 803f
00000160: 0000 803f 0000 803f 0000 803f 0000 803f
00000170: 0000 803f 0000 803f 0000 803f 0000 803f
00000180: 0000 803f 0000 803f 0000 803f 0000 803f
00000190: 0000 803f 0000 803f 0000 803f 0000 803f
000001a0: 0000 803f 0000 803f 0000 803f 0000 803f
000001b0: 0000 803f 0000 803f 0000 803f 0000 803f
000001c0: 0000 803f 0000 803f 0000 803f 0000 803f
000001d0: 0000 803f 0000 803f 0000 803f 0000 803f
000001e0: 0000 803f 0000 803f 0000 803f 0000 803f
000001f0: 0000 803f 0000 803f 0000 803f 0000 803f

actor_fc_layers.blocks.2.block.0.weight f4 [128, 128]
-0.051919606 -0.20003709 0.07470145 0.11727933 0.15987098 0.20636414 -0.026401065 -0.14539301
-0.005607429 0.19912365 0.03261625 0.016708223 0.11653278 -0.25420067 0.011280329 0.08216844
-0.3159333 0.0669968 -0.015024623 0.185425 0.0070024114 -0.12482453 0.2788412 0.24621584
0.0011982814 -0.0010118423 -0.21893777 0.25575036 -0.19110386 -0.177134 -0.015192168 0.08021861
0.26192543 -0.13322471 0.020822067 -0.004721414 -0.040091053 -0.2120385 0.041468665 0.0071800617
0.105453014 0.26506358 -0.024482725 -0.04105181 -0.07601499 0.18833075 -0.0007712552 -0.27796504
0.20709877 -0.19573812 0.031583976 0.241066 0.14325766 -0.12139354 0.008681657 -0.37000364
0.021766614 -0.08966372 0.17506275 0.1627484 -0.16482861 -0.08989246 -0.46745732 0.021481812
0.16177686 -0.16325206 0.016931925 0.076342076 -0.3384191 0.059229754 -0.40627015 0.05468377
0.06875887 0.10117562 0.11458221 0.11444736 0.04676603 -0.005783449 -0.12898979 -0.14452279
0.014151972 -0.072850734 -0.22064395 -0.014152065 -0.07922769 0.15411764 0.1921067 -0.18573345
0.051521376 -0.10487931 0.083338924 -0.4488875 0.37011683 -0.06209115 -0.037659552 -0.016197113
0.052065637 -0.18400642 0.10150421 0.1451993 0.15972793 -0.03781229 0.12577672 -0.031721435
0.15479414 0.086927876 0.27539307 -0.4680176 0.07472753 0.017982831 0.049342446 -0.2531248
-0.06908147 -0.11575344 -0.35490575 0.09433003 -0.14656721 0.32152414 -0.06658628 0.3058511
-0.30283806 0.29836473 -0.1965264 0.035025395 -0.10229099 -0.073364824 0.034111958 -0.04657381
-0.29080388 0.1490578 -0.37624127 0.109538175 -0.592422 -0.030358808 0.038852394 0.41341755
-0.015045111 0.072288215 -0.07703431 0.18032543 0.2031291 -0.27861214 -0.03723897 -0.046075534
-0.048076116 0.31528345 -0.12970057 -0.015925726 0.099629626 0.039485324 0.7953631 -0.2794282
0.027338905 0.22493474 0.0059469836 0.020157285 0.3815666 -0.031270374 0.004812423 0.036754116
-0.30606568 0.50739855 0.38501278 0.11941467 0.22941774 0.10310086 0.15464813 0.0031357077
-0.2822486 -0.14869957 -0.086778864 -0.1069476 0.81785977 0.1656437 0.5214032 -0.17046551
0.07793094 -0.14900282 -0.029016407 0.18200967 0.25187197 -0.03974467 0.0999284 0.1284891
-0.023015702 -0.58947855 0.11471484 0.048729636 -0.4917725 0.03410935 0.19489992 -0.06715997
0.051114574 -0.25604013 0.10093423 -0.02582681 0.15119563 0.13827172 0.36553007 -0.091042474
-0.40154102 -0.31149474 -0.44110173 -0.16370654 0.11826802 -0.0009828693 -0.041357655 -0.16291295
0.49761406 0.14131758 0.42400315 0.069811635 0.002602851 -0.049352508 -0.52733064 -0.28355834
-0.31868103 -0.14804402 0.19297928 0.3501742 0.025053227 -0.060704224 -0.04123574 0.1631897
-0.09232507 0.41477573 0.19143169 0.12263928 0.54352325 0.030682545 -0.05322746 -0.15667519
-0.0609073 0.092041954 0.37187526 0.04066202 0.22267348 -0.02691683 -0.012774639 0.058772594
0.012861624 0.09661736 -0.08779512 -0.050677594 -0.29076505 -0.13246718 -0.09307535 -0.23354389
-0.54337823 0.12963353 -0.09703108 0.18508422 0.07150846 0.08288518 0.026009165 -0.03490507
00000000: a7a9 54bd 86d6 4cbe 13fd 983d 2530 f03d
00000010: 38b5 233e 1f51 533e 0c47 d8bc e8e1 14be
00000020: 86be b7bb 12e7 4b3e 9e98 053d afdf 883c
00000030: bda8 ee3d 9726 82be 21d1 383c ed47 a83d
00000040: 02c2 a1be 9e35 893d d629 76bc 0de0 3d3e
00000050: 7c74 e53b 01a4 ffbd 46c4 8e3e 0120 7c3e
00000060: a70f 9d3a cb9f 84ba 3931 60be b6f1 823e
00000070: bbb0 43be 9e62 35be 92e8 78bc a849 a43d
00000080: 171b 863e 0f6c 08be 0a93 aa3c 17b6 9abb
00000090: 8436 24bd 9f20 59be 0cdb 293d b946 eb3b
000000a0: c0f7 d73d 6ab6 873e ff8f c8bc f125 28bd
000000b0: bfad 9bbd c7d9 403e 0f2e 4aba 6f51 8ebe
000000c0: b311 543e 936f 48be 335e 013d 01da 763e
000000d0: 23b2 123e 2d9d f8bd 823d 0e3c 1e71 bdbe
000000e0: e64f b23c 9da1 b7bd a643 333e 84a7 263e
000000f0: d5c8 28be 8a19 b8bd 9156 efbe a0fa af3c
00000100: d5a8 253e 8c2b 27be d2b4 8a3c 3c59 9c3d
00000110: 4545 adbe e69a 723d a402 d0be 17fc 5f3d
00000120: 73d1 8c3d 2a35 cf3d 14aa ea3d 6163 ea3d
00000130: bd8d 3f3d 1683 bdbb e615 04be c8fd 13be
00000140: acdd 673c c432 95bd 7df0 61be 10de 67bc
00000150: 2142 a2bd 04d1 1d3e 9eb7 443e e930 3ebe
00000160: 1408 533d f7ca d6bd 99ad aa3d 95d4 e5be
00000170: f47f bd3e 4a53 7ebd e740 1abd cfaf 84bc
00000180: c742 553d 2e6c 3cbe 70e1 cf3d 20af 143e
00000190: b88f 233e 0fe1 1abd 9dcb 003e 56ee 01bd
000001a0: 5b82 1e3e 3e07 b23d 5200 8d3e 01a0 efbe
000001b0: bf0a 993d bb50 933c 4e1b 4a3d 9399 81be
000001c0: 967a 8dbd 2410 edbd 35b6 b5be 1a30 c13d
000001d0: b715 16be d09e a43e 635e 88bd 8498 9c3e
000001e0: 970d 9bbe 43c3 983e 373e 49be ca76 0f3d
000001f0: f07d d1bd 4c40 96bd fbb8 0b3d 2ec4 3ebd
00000200: 3fe4 94be 9ca2 183e b2a2 c0be 8d55 e03d
00000210: f8a8 17bf 09b3 f8bc b023 1f3d 77ab d33e
00000220: c57f 76bc d80b 943d 2ac4 9dbd 3ba7 383e
00000230: 1301 503e 40a6 8ebe e487 18bd b3b9 3cbd
00000240: 76eb 44bd d56c a13e 3ad0 04be ab76 82bc
00000250: 9e0a cc3d 5dbb 213d eb9c 4b3f 3711 8fbe
00000260: d7f5 df3c 4b55 663e eade c23b e420 a53c
00000270: b35c c33e 5d15 00bd 88b1 9d3b 7c8b 163d
00000280: a4b4 9cbe dfe4 013f 6520 c53e ae8f f43d
00000290: 7cec 6a3e 8b26 d33d 145c 1e3e 7280 4d3b
000002a0: e382 90be b344 18be 1eb9 b1bd 5807 dbbd
000002b0: 425f 513f 819e 293e ae7a 053f 838e 2ebe
000002c0: 429a 9f3d 3294 18be d1b3 edbc be60 3a3e
000002d0: 5df5 803e 4fcb 22bd 43a7 cc3d a692 033e
000002e0: 6d8b bcbc 11e8 16bf 9def ea3d ba98 473d
000002f0: 9bc9 fbbe 3fb6 0b3d d893 473e 2b8b 89bd
00000300: 845d 513d b117 83be 9bb6 ce3d bf92 d3bc
00000310: 07d3 1a3e 1a97 0d3e c226 bb3e 7a74 babd
00000320: c996 cdbe 3d7c 9fbe 16d8 e1be b0a2 27be
00000330: 8136 f23d 9fd3 80ba a566 29bd a7d2 26be
00000340: 45c7 fe3e 8eb5 103e f116 d93e 67f9 8e3d
00000350: 9894 2a3b db25 4abd 24ff 06bf 8f2e 91be
00000360: 292a a3be da98 17be 5c9c 453e 084a b33e
00000370: 6d3c cd3c fea4 78bd cfe6 28bd 331b 273e
00000380: ed14 bdbd 7c5d d43e ab06 443e 4e2a fb3d
00000390: 5724 0b3f f659 fb3c 0905 5abd 766f 20be
000003a0: ef79 79bd 7e80 bc3d 6f66 be3e 388d 263d
000003b0: 8404 643e af80 dcbc b84c 51bc 88bb 703d
000003c0: 90b9 523c 53df c53d eecd b3bd 4f93 4fbd
000003d0: 28df 94be 7aa5 07be 4a9e bebd 2126 6fbe
000003e0: d61a 0bbf a7be 043e 3bb8 c6bd b886 3d3e
000003f0: 0773 923d b5bf a93d 2c11 d53c 9ef8 0ebd

actor_fc_layers.blocks.2.block.1.weight f4 [128]
1.1267494 1.1302776 1.3032392 1.2527038 1.8646722 1.1481884 1.0303758 0.7641942
1.0513853 0.94721705 1.2758876 1.180507 1.5568626 1.1602591 1.2663317 0.97853017
1.0439227 1.3947798 0.9608069 1.266162 1.3165188 0.9285488 1.1344931 1.1809818
1.2912703 0.97234046 1.3951255 1.0261724 1.1337674 0.9866336 0.90663415 1.0437173
0.85151184 1.3869239 1.2533058 2.2118979 0.98950166 1.514323 0.9155387 1.0152624
1.0491917 1.6963319 0.9634653 1.0633636 1.050137 1.2741042 0.9436229 1.0455372
1.5937057 0.91586494 1.5680355 1.2445185 1.0376762 1.0975995 1.2250136 1.5300994
0.82536846 0.94594747 1.0652913 1.4009005 0.9477416 1.3125684 0.9282806 1.1024705
1.294823 0.9620207 1.1666946 1.0644147 1.0097306 1.0703382 1.2290549 0.8828678
0.9462753 1.7230442 1.014271 1.0018568 1.2990665 0.96367985 1.3921173 1.0130014
1.1202167 0.9611586 1.4555931 1.0412524 1.519349 1.447869 1.0493826 0.90140504
1.1903002 0.9393671 1.2406777 1.5435152 1.1531305 1.797906 1.6114829 1.332433
1.1954894 1.1278688 1.4538709 0.880655 1.3763508 1.0832975 1.4284588 0.95713526
0.9463766 1.4405289 1.3446214 1.1641799 1.1014651 2.0583596 1.1051724 0.89627767
1.0856103 1.0616685 1.1658283 0.96191555 1.0378789 1.570423 1.1885054 1.5329078
0.94924957 0.97105294 0.9666303 0.94370633 1.0299634 1.3217132 0.855992 0.9275588
00000000: 5339 903f f0ac 903f 8bd0 a63f 9958 a03f
00000010: 94ad ee3f d6f7 923f 5be3 833f 3ba2 433f
00000020: cb93 863f d17c 723f 4950 a33f da1a 973f
00000030: 4647 c73f 5f83 943f 2817 a23f f480 7a3f
00000040: 429f 853f 2588 b23f 71f7 753f 9911 a23f
00000050: b083 a83f 60b5 6d3f 1237 913f 692a 973f
00000060: 5848 a53f 4eeb 783f 7993 b23f 9e59 833f
00000070: 4a1f 913f 0594 7c3f 2d19 683f 8798 853f
00000080: aefc 593f b986 b13f 536c a03f bc8f 0d40
00000090: fb4f 7d3f 56d5 c13f bf60 6a3f 1ef4 813f
000000a0: ea4b 863f 6721 d93f a9a5 763f 4c1c 883f
000000b0: e46a 863f d915 a33f 4591 713f 2ad4 853f
000000c0: 8cfe cb3f 2076 6a3f 63b5 c83f 624c 9f3f
000000d0: 93d2 843f 247e 8c3f 3fcd 9c3f 4cda c33f
000000e0: 594b 533f 9d29 723f 775b 883f b550 b33f
000000f0: 329f 723f 3e02 a83f cca3 6d3f c11d 8d3f
00000100: c3bc a53f fd46 763f 4056 953f be3e 883f
00000110: da3e 813f d800 893f ac51 9d3f a003 623f
00000120: 193f 723f b68c dc3f a2d3 813f d83c 803f
00000130: d047 a63f b9b3 763f e630 b23f 08aa 813f
00000140: 4363 8f3f 7d0e 763f e050 ba3f c247 853f
00000150: 077a c23f c553 b93f 2b52 863f 7bc2 663f
00000160: c25b 983f 5d7a 703f 87ce 9e3f e891 c53f
00000170: c899 933f c921 e63f 1245 ce3f 2a8d aa3f
00000180: cc05 993f 015e 903f 7118 ba3f 9b72 613f
00000190: 432c b03f 7ea9 8a3f bdd7 b63f d106 753f
000001a0: bd45 723f 4063 b83f 8e1c ac3f d903 953f
000001b0: cffc 8c3f 2abc 0340 4a76 8d3f 7472 653f
000001c0: 47f5 8a3f c1e4 873f dd39 953f 1940 763f
000001d0: 37d9 843f 9f03 c93f f220 983f 5336 c43f
000001e0: 0502 733f ed96 783f 1575 773f bd96 713f
000001f0: d7d5 833f e62d a93f 4b22 5b3f 7e74 6d3f

actor_fc_layers.blocks.2.block.1.bias f4 [128]
0.090549596 0.0496197 -0.011186188 0.13343191 -0.07781251 -0.012030287 0.3542842 0.37970373
0.051222976 -0.0631063 0.07428379 0.010672617 -0.044787265 0.119984634 -0.0037206025 0.2420085
0.17602685 0.14642118 -0.13239174 0.30874482 0.07484301 -0.054128706 0.25080666 0.17269781
0.066844806 0.100335196 0.05550185 -0.21286255 -0.20103034 0.08758353 0.12868811 -0.07478347
0.2071074 0.2084831 -0.10112166 -0.057801716 -0.43005723 0.27523813 0.14073762 0.22415425
0.081979185 0.37644693 -0.06245809 0.35210234 -0.07696475 0.12049202 -0.101391695 0.28147334
-0.29723704 0.0053918273 -0.27927232 0.050973058 -0.046620373 0.054878265 -0.017059145 -0.30458942
0.54757243 -0.036753193 0.51765335 -0.20052397 0.25419766 0.19850796 -0.08385227 0.04765189
-0.4549458 -0.06675638 -0.418598 0.2198229 0.060127545 -0.30358636 0.31876147 0.033699565
-0.060212485 -0.3499201 0.21913727 -0.0072530773 -0.01841981 0.14211923 0.52012694 0.056282483
0.23839422 -0.13353018 0.17639317 0.052730605 0.000554151 -0.19287656 0.037083626 0.13043362
0.24405658 -0.08043841 0.06766884 0.02178848 0.13508436 0.083169416 -0.2552223 0.37913212
0.28160414 0.11474114 0.027206209 0.16189177 0.21507353 0.09761424 -0.03370783 -0.07281348
-0.049942967 0.19495161 0.22785139 0.3387789 0.14398308 -0.095095895 0.10286393 -0.0130441785
0.2848136 -0.041097395 0.07030717 -0.04798309 0.015070816 0.13517377 -0.06981668 -0.22915867
-0.09512725 0.26359436 -0.06537556 -0.13433932 0.4151393 -0.048159085 0.14213413 -0.045658447
00000000: 1172 b93d 073e 4b3d 4646 37bc 60a2 083e
00000010: 2a5c 9fbd ae1a 45bc bd64 b53e 8768 c23e
00000020: 2fcf 513d e03d 81bd 1a22 983d 33dc 2e3c
00000030: da72 37bd 81ba f53d 5ad5 73bb 14d1 773e
00000040: 6240 343e 6fef 153e b391 07be cd13 9e3e
00000050: 4b47 993d 10b6 5dbd bb69 803e b2d7 303e
00000060: eee5 883d 8a7c cd3d e855 633d a4f8 59be
00000070: e6da 4dbe fe5e b33d d1c6 033e 1328 99bd
00000080: f613 543e 987c 553e df18 cfbd 7ec1 6cbd
00000090: 7630 dcbe 03ec 8c3e 861d 103e b188 653e
000000a0: b4e4 a73d a7bd c03e 0ed4 7fbd c246 b43e
000000b0: b29f 9dbd 85c4 f63d 73a6 cfbd 461d 903e
000000c0: 742f 98be edad b03b c8fc 8ebe 20c9 503d
000000d0: 01f5 3ebd 08c8 603d 9fbf 8bbc 25f3 9bbe
000000e0: b52d 0c3f 848a 16bd ee84 043f 2856 4dbe
000000f0: 3226 823e ac45 4b3e bdba abbd a12e 433d
00000100: a8ee e8be 92b7 88bd 7a52 d6be 4119 613e
00000110: 4d48 763d ac6f 9bbe b434 a33e 8e08 0a3d
00000120: 5ea1 76bd ba28 b3be 8565 603e 39ab edbb
00000130: 24e5 96bc b487 113e 0a27 053f 7688 663d
00000140: 9d1d 743e 23bc 08be 69a0 343e 0cfc 573d
00000150: 7244 113a 6f81 45be 00e5 173d 6490 053e
00000160: f8e9 793e e5bc a4bd f695 8a3d c17d b23c
00000170: 8e53 0a3e ba54 aa3d 7fac 82be 9b1d c23e
00000180: 6b2e 903e 67fd ea3d 8edf de3c f5c6 253e
00000190: 3c3c 5c3e fae9 c73d 3911 0abd 3c1f 95bd
000001a0: ff90 4cbd 65a1 473e e051 693e 6e74 ad3e
000001b0: 4d70 133e a3c1 c2bd 53aa d23d 40b7 55bc
000001c0: 17d3 913e be55 28bd 35fd 8f3d eb89 44bd
000001d0: 95eb 763c fe6a 0a3e 0cfc 8ebd 92a8 6abe
000001e0: 13d2 c2bd d7f5 863e 9fe3 85bd 3f90 09be
000001f0: 238d d43e 7642 45bd 9c8b 113e 5a04 3bbd

actor_fc_layers.blocks.2.block.1.running_mean f4 [128]
0.0 0.0 0.0 0.0 0.0 0.0 0.0 0.0
0.0 0.0 0.0 0.0 0.0 0.0 0.0 0.0
0.0 0.0 0.0 0.0 0.0 0.0 0.0 0.0
0.0 0.0 0.0 0.0 0.0 0.0 0.0 0.0
0.0 0.0 0.0 0.0 0.0 0.0 0.0 0.0
0.0 0.0 0.0 0.0 0.0 0.0 0.0 0.0
0.0 0.0 0.0 0.0 0.0 0.0 0.0 0.0
0.0 0.0 0.0 0.0 0.0 0.0 0.0 0.0
0.0 0.0 0.0 0.0 0.0 0.0 0.0 0.0
0.0 0.0 0.0 0.0 0.0 0.0 0.0 0.0
0.0 0.0 0.0 0.0 0.0 0.0 0.0 0.0
0.0 0.0 0.0 0.0 0.0 0.0 0.0 0.0
0.0 0.0 0.0 0.0 0.0 0.0 0.0 0.0
0.0 0.0 0.0 0.0 0.0 0.0 0.0 0.0
0.0 0.0 0.0 0.0 0.0 0.0 0.0 0.0
0.0 0.0 0.0 0.0 0.0 0.0 0.0 0.0
00000000: 0000 0000 0000 0000 0000 0000 0000 0000
00000010: 0000 0000 0000 0000 0000 0000 0000 0000
00000020: 0000 0000 0000 0000 0000 0000 0000 0000
00000030: 0000 0000 0000 0000 0000 0000 0000 0000
00000040: 0000 0000 0000 0000 0000 0000 0000 0000
00000050: 0000 0000 0000 0000 0000 0000 0000 0000
00000060: 0000 0000 0000 0000 0000 0000 0000 0000
00000070: 0000 0000 0000 0000 0000 0000 0000 0000
00000080: 0000 0000 0000 0000 0000 0000 0000 0000
00000090: 0000 0000 0000 0000 0000 0000 0000 0000
000000a0: 0000 0000 0000 0000 0000 0000 0000 0000
000000b0: 0000 0000 0000 0000 0000 0000 0000 0000
000000c0: 0000 0000 0000 0000 0000 0000 0000 0000
000000d0: 0000 0000 0000 0000 0000 0000 0000 0000
000000e0: 0000 0000 0000 0000 0000 0000 0000 0000
000000f0: 0000 0000 0000 0000 0000 0000 0000 0000
00000100: 0000 0000 0000 0000 0000 0000 0000 0000
00000110: 0000 0000 0000 0000 0000 0000 0000 0000
00000120: 0000 0000 0000 0000 0000 0000 0000 0000
00000130: 0000 0000 0000 0000 0000 0000 0000 0000
00000140: 0000 0000 0000 0000 0000 0000 0000 0000
00000150: 0000 0000 0000 0000 0000 0000 0000 0000
00000160: 0000 0000 0000 0000 0000 0000 0000 0000
00000170: 0000 0000 0000 0000 0000 0000 0000 0000
00000180: 0000 0000 0000 0000 0000 0000 0000 0000
00000190: 0000 0000 0000 0000 0000 0000 0000 0000
000001a0: 0000 0000 0000 0000 0000 0000 0000 0000
000001b0: 0000 0000 0000 0000 0000 0000 0000 0000
000001c0: 0000 0000 0000 0000 0000 0000 0000 0000
000001d0: 0000 0000 0000 0000 0000 0000 0000 0000
000001e0: 0000 0000 0000 0000 0000 0000 0000 0000
000001f0: 0000 0000 0000 0000 0000 0000 0000 0000

actor_fc_layers.blocks.2.block.1.running_var f4 [128]
1.0 1.0 1.0 1.0 1.0 1.0 1.0 1.0
1.0 1.0 1.0 1.0 1.0 1.0 1.0 1.0
1.0 1.0 1.0 1.0 1.0 1.0 1.0 1.0
1.0 1.0 1.0 1.0 1.0 1.0 1.0 1.0
1.0 1.0 1.0 1.0 1.0 1.0 1.0 1.0
1.0 1.0 1.0 1.0 1.0 1.0 1.0 1.0
1.0 1.0 1.0 1.0 1.0 1.0 1.0 1.0
1.0 1.0 1.0 1.0 1.0 1.0 1.0 1.0
1.0 1.0 1.0 1.0 1.0 1.0 1.0 1.0
1.0 1.0 1.0 1.0 1.0 1.0 1.0 1.0
1.0 1.0 1.0 1.0 1.0 1.0 1.0 1.0
1.0 1.0 1.0 1.0 1.0 1.0 1.0 1.0
1.0 1.0 1.0 1.0 1.0 1.0 1.0 1.0
1.0 1.0 1.0 1.0 1.0 1.0 1.0 1.0
1.0 1.0 1.0 1.0 1.0 1.0 1.0 1.0
1.0 1.0 1.0 1.0 1.0 1.0 1.0 1.0
00000000: 0000 803f 0000 803f 0000 803f 0000 803f
00000010: 0000 803f 0000 803f 0000 803f 0000 803f
00000020: 0000 803f 0000 803f 0000 803f 0000 803f
00000030: 0000 803f 0000 803f 0000 803f 0000 803f
00000040: 0000 803f 0000 803f 0000 803f 0000 803f
00000050: 0000 803f 0000 803f 0000 803f 0000 803f
00000060: 0000 803f 0000 803f 0000 803f 0000 803f
00000070: 0000 803f 0000 803f 0000 803f 0000 803f
00000080: 0000 803f 0000 803f 0000 803f 0000 803f
00000090: 0000 803f 0000 803f 0000 803f 0000 803f
000000a0: 0000 803f 0000 803f 0000 803f 0000 803f
000000b0: 0000 803f 0000 803f 0000 803f 0000 803f
000000c0: 0000 803f 0000 803f 0000 803f 0000 803f
000000d0: 0000 803f 0000 803f 0000 803f 0000 803f
000000e0: 0000 803f 0000 803f 0000 803f 0000 803f
000000f0: 0000 803f 0000 803f 0000 803f 0000 803f
00000100: 0000 803f 0000 803f 0000 803f 0000 803f
00000110: 0000 803f 0000 803f 0000 803f 0000 803f
00000120: 0000 803f 0000 803f 0000 803f 0000 803f
00000130: 0000 803f 0000 803f 0000 803f 0000 803f
00000140: 0000 803f 0000 803f 0000 803f 0000 803f
00000150: 0000 803f 0000 803f 0000 803f 0000 803f
00000160: 0000 803f 0000 803f 0000 803f 0000 803f
00000170: 0000 803f 0000 803f 0000 803f 0000 803f
00000180: 0000 803f 0000 803f 0000 803f 0000 803f
00000190: 0000 803f 0000 803f 0000 803f 0000 803f
000001a0: 0000 803f 0000 803f 0000 803f 0000 803f
000001b0: 0000 803f 0000 803f 0000 803f 0000 803f
000001c0: 0000 803f 0000 803f 0000 803f 0000 803f
000001d0: 0000 803f 0000 803f 0000 803f 0000 803f
000001e0: 0000 803f 0000 803f 0000 803f 0000 803f
000001f0: 0000 803f 0000 803f 0000 803f 0000 803f
